test_dataset/gait_809/20250819_c2_a2_Take1/split_subjects/0/fit-smplx/smplx-params.npz (npz, 58134 bytes, 10 tensors)

betas f4 [113, 11]
-0.060990095 -1.7230976 0.6296856 -0.53661466 -0.7146736 0.11265128 -0.45434815 1.4601036
0.14385593 0.23257072 0.3225869 0.17762598 -1.9406459 1.1348366 -0.4806949 -0.8834429
-0.088726334 -0.58719987 1.5950869 0.3483893 0.110994205 0.3465425 0.36908996 -2.0524228
1.506492 -0.42792457 -0.88374937 -0.09718767 -0.65967536 1.6687819 0.39304534 0.08914448
0.3633523 0.5120701 -1.9044038 1.189019 -0.4702199 -0.9059243 -0.084593974 -0.66351527
1.7589215 0.26069295 0.06950051 0.36183727 0.53735363 -1.6950498 1.1399493 -0.596016
-0.67704993 -0.17643726 -0.51082903 1.6976122 0.3360667 0.06233836 0.375135 0.5467086
-1.6653221 1.1526446 -0.50602597 -0.637392 -0.19525361 -0.46376932 1.7207332 0.33328146
0.049271148 0.3780772 0.5538577 -1.5991061 1.1716511 -0.48351502 -0.58184695 -0.23338847
-0.45591703 1.6989594 0.27439624 0.028495362 0.38371834 0.600407 -1.6173497 1.252022
-0.606204 -0.63027734 -0.2531787 -0.43259594 1.6832823 0.25024277 0.030602021 0.3876054
0.5874519 -1.5722924 1.2449658 -0.5663261 -0.55699044 -0.28962296 -0.4053892 1.6937788
0.21337089 -0.032952964 0.39043272 0.58983624 -1.5709685 1.2866867 -0.64726806 -0.5616422
-0.28378054 -0.35559717 1.5551558 0.20837955 0.011430511 0.38839325 0.5955324 -1.5388342
1.2124398 -0.59817135 -0.5444798 -0.20169373 -0.3444313 1.408901 0.18093777 0.0056348727
0.38827628 0.60143507 -1.5557281 1.1846478 -0.6179496 -0.5390284 -0.2122325 -0.33743685
1.3825091 0.21108584 0.012001606 0.38293016 0.62811655 -1.5933518 1.0726167 -0.67419344
-0.6196097 -0.10723017 -0.3746987 1.3907251 0.16234258 0.02918488 0.37617013 0.64699596
-1.6903368 1.1333567 -0.63067204 -0.7569393 -0.11419781 -0.40166363 1.5411603 0.18799934
0.087999895 0.3681038 0.6695865 -1.7413428 1.1685971 -0.55920523 -0.82932866 -0.10134246
-0.42341307 1.5623777 0.15795583 0.085123464 0.36409652 0.65077066 -1.7239848 1.2068844
-0.51856834 -0.91134447 -0.077992916 -0.4303318 1.5713496 0.2404094 0.07960005 0.3658392
0.6820055 -1.6954404 1.1855407 -0.46555755 -0.86253256 -0.028768498 -0.5145448 1.5746422
0.2503965 0.09976143 0.3661946 0.6586651 -1.6776128 1.1798255 -0.5312652 -0.7997328
-0.044112287 -0.5450382 1.6186563 0.21921095 0.12243856 0.36350363 0.63989687 -1.5362822
1.0076686 -0.6546951 -0.6972173 0.035506945 -0.53677684 1.5658808 0.26598984 0.09477968
0.3675427 0.62691057 -1.5832587 1.004255 -0.66559196 -0.6956814 0.07688155 -0.5422974
1.6928961 0.37663665 0.097646736 0.36398697 0.6496556 -1.5364664 0.9327336 -0.68475175
-0.6687697 0.0832844 -0.56398624 1.7785218 0.37372994 0.12128675 0.36757362 0.6730744
-1.5519621 1.0038712 -0.7637412 -0.6855823 0.0021248525 -0.51347256 1.8270261 0.45747194
0.14583348 0.37229988 0.69519025 -1.5248464 0.9711621 -0.77458733 -0.6702498 -0.028137004
-0.5035299 1.6344814 0.4866774 0.15757418 0.3754465 0.7293073 -1.4409759 1.0068187
00000000: c0d0 79bd 768e dcbf 1333 213f 945f 09bf
00000010: d9f4 36bf b7b5 e63d 52a0 e8be ade4 ba3f
00000020: f84e 133e 0527 6e3e 1c2a a53e 96e3 353e
00000030: 1667 f8bf 5342 913f a41d f6be 5029 62bf
00000040: 27b6 b5bd bb52 16bf cf2b cc3f 1560 b23e
00000050: ee50 e33d 056e b13e 5cf9 bc3e e55a 03c0
00000060: bbd4 c03f ee18 dbbe 663d 62bf 540a c7bd
00000070: 7ce0 28bf a59a d53f 3d3d c93e 6291 b63d
00000080: 5009 ba3e 0717 033f 81c3 f3bf c631 983f
00000090: aac0 f0be a8ea 67bf 9b3f adbd 23dc 29bf
000000a0: 5724 e13f 8c79 853e 4956 8e3d bc42 b93e
000000b0: 0290 093f 64f7 d8bf dce9 913f 8194 18bf
000000c0: 2553 2dbf f8ab 34be b1c5 02bf 5b4b d93f
000000d0: ef10 ac3e 8256 7f3d b211 c03e 18f5 0b3f
000000e0: 4629 d5bf dc89 933f eb8a 01bf 1f2c 23bf
000000f0: 90f0 47be 2c73 edbe fc40 dc3f dea3 aa3e
00000100: 8bd0 493d 5693 c13e 9ec9 0d3f 82af ccbf
00000110: aaf8 953f 488f f7be ecf3 14bf 63fd 6ebe
00000120: f56d e9be 8077 d93f aa7d 8c3e 1b6f e93c
00000130: bb76 c43e 46b4 193f 5105 cfbf 4242 a03f
00000140: 2f30 1bbf db59 21bf a3a0 81be 377d ddbe
00000150: cb75 d73f d21f 803e 17b1 fa3c 3774 c63e
00000160: 3f63 163f e140 c9bf 0a5b 9f3f bffa 10bf
00000170: ed96 0ebf 7649 94be 2c8f cfbe becd d83f
00000180: e67d 5a3e b0f9 06bd cce6 c73e 82ff 163f
00000190: 7f15 c9bf 26b2 a43f 5cb3 25bf c9c7 0fbf
000001a0: af4b 91be d510 b6be 580f c73f 7361 553e
000001b0: 0a47 3b3c 7bdb c63e d074 183f 85f8 c4bf
000001c0: 3a31 9b3f c221 19bf 0763 0bbf cd88 4ebe
000001d0: 4d59 b0be de56 b43f c047 393e bda4 b83b
000001e0: 26cc c63e a6f7 193f 1922 c7bf 8aa2 973f
000001f0: f231 1ebf c4fd 09bf 7a53 59be 86c4 acbe
00000200: 0ff6 b03f e326 583e 62a2 443c 6c0f c43e
00000210: 3fcc 203f f4f2 cbbf 814b 893f f197 2cbf
00000220: be9e 1ebf 7e9b dbbd 82d8 bfbe 4803 b23f
00000230: 223d 263e 2115 ef3c 5f99 c03e 87a1 253f
00000240: f55c d8bf d511 913f b973 21bf c6c6 41bf
00000250: 8be0 e9bd dba6 cdbe be44 c53f e682 403e
00000260: 4a39 b43d 1a78 bc3e 056a 2b3f 52e4 debf
00000270: 9794 953f 1328 0fbf e24e 54bf a38c cfbd
00000280: 99c9 d8be fefb c73f 2cbf 213e 3655 ae3d
00000290: dc6a ba3e e898 263f 89ab dcbf 307b 9a3f
000002a0: e5c0 04bf df4d 69bf c0ba 9fbd 7354 dcbe
000002b0: fc21 c93f e22d 763e 5a05 a33d 474f bb3e
000002c0: ea97 2e3f 3104 d9bf ccbf 973f 8f5d eebe
000002d0: efce 5cbf eaab ebbc 35b9 03bf e08d c93f
000002e0: f833 803e b84f cc3d dc7d bb3e 479e 283f
000002f0: 04bc d6bf 8604 973f ff00 08bf 4abb 4cbf
00000300: 16af 34bd a087 0bbf 2130 cf3f d678 603e
00000310: 11c1 fa3d 261d ba3e 48d0 233f e5a4 c4bf
00000320: 49fb 803f 199a 27bf d57c 32bf bb6f 113d
00000330: 356a 09bf c86e c83f d22f 883e d91b c23d
00000340: 8f2e bc3e 367d 203f 39a8 cabf 6e8b 803f
00000350: 3c64 2abf 2d18 32bf 1374 9d3d 01d4 0abf
00000360: d2b0 d83f 85d6 c03e 03fb c73d 805c ba3e
00000370: d44f 263f eeaa c4bf a1c7 6e3f e44b 2fbf
00000380: 7e34 2bbf 0391 aa3d 6761 10bf 9aa6 e33f
00000390: 8859 bf3e 3065 f83d 9c32 bc3e 9b4e 2c3f
000003a0: b2a6 c6bf da7e 803f 8b84 43bf 5282 2fbf
000003b0: 1c41 0b3b f072 03bf fedb e93f c339 ea3e
000003c0: 5f55 153e 179e be3e fdf7 313f 2b2e c3bf
000003d0: 149e 783f 5b4b 46bf 7e95 2bbf 937f e6bc
000003e0: 56e7 00bf b036 d13f c82d f93e 205b 213e
000003f0: 863a c03e e2b3 3a3f e671 b8bf 6fdf 803f

global_orient f4 [113, 3]
0.030272145 -2.7456582 -0.29877108 0.03274562 -2.6808443 -0.16875361 0.02323302 -2.6903713
-0.12823866 0.0025255193 -2.702163 -0.11644313 -0.014203275 -2.7178001 -0.112791516 -0.017718768
-2.7164264 -0.101847604 -0.04135827 -2.7121716 -0.07493905 -0.044262476 -2.7132416 -0.051620193
-0.05050327 -2.7060244 -0.031878963 -0.058550384 -2.7201152 -0.013722174 -0.055671766 -2.749808
-0.0013756849 -0.050666895 -2.7876427 0.010054775 -0.039541665 -2.8417451 0.015605019 -0.027394261
-2.8916457 0.010695176 -0.021733012 -2.9425461 -0.011760998 -0.035811845 -2.9456046 -0.029700847
-0.029715467 -2.9443996 -0.044789243 -0.008052706 -2.9445763 -0.04908487 0.0020552787 -2.898049
-0.045478214 0.027994994 -2.8605976 -0.039177287 0.04211979 -2.79559 -0.035826482 0.06653248
-2.739174 -0.03381847 0.098334886 -2.728037 -0.033204544 0.12575704 -2.7071733 -0.027090415
0.14708929 -2.682964 -0.017511968 0.14673229 -2.641197 -0.008449818 0.14222965 -2.5852585
-0.002496846 0.13267213 -2.547717 0.0056606317 0.09425204 -2.4927561 -0.014732192 0.07312859
-2.4715908 -0.025722172 0.0471074 -2.4749622 -0.037073176 -0.0039005373 -2.4440997 -0.05199967
-0.016956098 -2.4559953 -0.07713381 -0.021743951 -2.4430394 -0.09237754 -0.03036566 -2.4186742
-0.097361855 -0.030022524 -2.4288542 -0.09460392 -0.024666708 -2.4716892 -0.0762435 -0.024966966
-2.5629284 -0.058846835 -0.031056494 -2.6656687 -0.04746903 -0.04856055 -2.7614355 -0.037168287
-0.061615814 -2.8639102 -0.036447324 -0.072600015 -2.9286706 -0.03953202 -0.094375834 -2.9589248
-0.06585026 -0.11849601 -2.956957 -0.09466865 -0.13389787 -2.9670653 -0.1249286 -0.14385383
-2.980758 -0.15007101 -0.14096624 -2.977789 -0.17159027 -0.13804401 -2.9264007 -0.18528794
-0.12603116 -2.9080546 -0.20786059 -0.096019566 -2.907941 -0.21001427 -0.06668414 -2.9284425
-0.19491898 -0.015176071 -2.9227254 -0.17182642 0.014330926 -2.919528 -0.1394439 0.032995384
-2.9167423 -0.11621748 0.03013398 -2.8809166 -0.10360556 0.014896814 -2.831069 -0.10691935
-0.0001748431 -2.7767353 -0.11249617 -0.006212877 -2.7441456 -0.13461256 -0.015340006 -2.7525074
-0.15687068 -0.019262953 -2.7605336 -0.16766937 -0.04031604 -2.7815814 -0.17258368 -0.07037143
-2.8084705 -0.19472699 -0.089159004 -2.8492327 -0.19533584 -0.10610306 -2.8903718 -0.19833528
-0.13542949 -2.9286654 -0.19829664 -0.14897227 -2.9646728 -0.19190371 -0.17750992 -3.002918
-0.17617589 -0.19912836 -3.0460813 -0.1576895 -0.21730712 -3.086781 -0.14505665 -0.23106374
-3.1429076 -0.1339562 -0.22610542 -3.1948724 -0.11972422 -0.21990354 -3.253349 -0.1075987
-0.21059325 -3.2992363 -0.11072929 -0.19857158 -3.3168852 -0.14258969 -0.19451895 -3.3106978
-0.17096673 -0.17552045 -3.3291297 -0.20848052 -0.14668985 -3.3057754 -0.22676222 -0.10860322
-3.282858 -0.24383749 -0.07035543 -3.2497609 -0.2604782 0.0028353916 -3.1891418 -0.28246427
0.03200613 -3.1584597 -0.288794 0.06584432 -3.1446316 -0.28377208 0.08882043 -3.1104856
-0.26560292 0.10112152 -3.08595 -0.25390375 0.13161741 -3.033043 -0.24513128 0.12865552
00000000: 4afd f73c ddb8 2fc0 86f8 98be 4520 063d
00000010: f492 2bc0 bfcd 2cbe 2d53 be3c 0b2f 2cc0
00000020: ff50 03be 2f83 253b 3df0 2cc0 bc79 eebd
00000030: dab4 68bc 70f0 2dc0 3dff e6bd f326 91bc
00000040: eed9 2dc0 7a95 d0bd 4a67 29bd 3894 2dc0
00000050: a579 99bd 924c 35bd c0a5 2dc0 b26f 53bd
00000060: 84dc 4ebd 812f 2dc0 8493 02bd 87d2 6fbd
00000070: 5e16 2ec0 f8d2 60bc 1408 64bd dbfc 2fc0
00000080: 5350 b4ba 1788 4fbd bd68 32c0 c8bc 243c
00000090: 71f6 21bd 27df 35c0 32ac 7f3c ee69 e0bc
000000a0: b910 39c0 d23a 2f3c 6e09 b2bc ad52 3cc0
000000b0: 33b1 40bc 71af 12bd c984 3cc0 314f f3bc
000000c0: da6d f3bc 0b71 3cc0 ed74 37bd 7fef 03bc
000000d0: f073 3cc0 370d 49bd dbb1 063b a379 39c0
000000e0: 5d47 3abd c255 e53c 0814 37c0 5d78 20bd
000000f0: cd85 2c3d f2ea 32c0 cabe 12bd 2e42 883d
00000100: a04e 2fc0 3c85 0abd cd63 c93d 2998 2ec0
00000110: 7d01 08bd 74c6 003e 5442 2dc0 b8ec ddbc
00000120: 939e 163e afb5 2bc0 4275 8fbc fd40 163e
00000130: 5f09 29c0 1b71 0abc a6a4 113e e074 25c0
00000140: 20a2 23bb 34db 073e cc0d 23c0 d27c b93b
00000150: 3707 c13d 5189 1fc0 4b5f 71bc 71c4 953d
00000160: 8b2e 1ec0 4eb7 d2bc b0f3 403d c865 1ec0
00000170: 0bda 17bd 28a0 7fbb 216c 1cc0 9bfd 54bd
00000180: 84e7 8abc 072f 1dc0 55f8 9dbd 5f20 b2bc
00000190: c25a 1cc0 7030 bdbd 68c1 f8bc 8fcb 1ac0
000001a0: a765 c7bd ccf1 f5bc 5972 1bc0 b3bf c1bd
000001b0: d611 cabc 2830 1ec0 8d25 9cbd 8687 ccbc
000001c0: 0507 24c0 6109 71bd 306a febc 519a 2ac0
000001d0: e36e 42bd 6de7 46bd 5cbb 30c0 c63d 18bd
000001e0: dd60 7cbd 4e4a 37c0 ca49 15bd 51af 94bd
000001f0: 576f 3bc0 54ec 21bd 1e48 c1bd 065f 3dc0
00000200: 80dc 86bd 09ae f2bd c93e 3dc0 a3e1 c1bd
00000210: 861c 09be 66e4 3dc0 91da ffbd 6b4e 13be
00000220: bdc4 3ec0 37ac 19be 7459 10be 1894 3ec0
00000230: 5cb5 2fbe 695b 0dbe 264a 3bc0 1fbc 3dbe
00000240: 500e 01be 911d 3ac0 68d9 54be e8a5 c4bd
00000250: b51b 3ac0 fb0d 57be b291 88bd 9a6b 3bc0
00000260: d798 47be 0ea5 78bc ef0d 3bc0 44f3 2fbe
00000270: 43cc 6a3c 8cd9 3ac0 62ca 0ebe 2b26 073d
00000280: e8ab 3ac0 6e03 eebd 89db f63c f060 38c0
00000290: 272f d4bd c411 743c 3c30 35c0 88f8 dabd
000002a0: 1656 37b9 08b6 31c0 6464 e6bd 6495 cbbb
000002b0: 15a0 2fc0 e0d7 09be a654 7bbc 1529 30c0
000002c0: b5a2 20be 57cd 9dbc 95ac 30c0 85b1 2bbe
000002d0: 6f22 25bd 6e05 32c0 c7b9 30be e51e 90bd
000002e0: fbbd 33c0 8366 47be ff98 b6bd d459 36c0
000002f0: 1e06 48be 904c d9bd dafb 38c0 6718 4bbe
00000300: 07ae 0abe 416f 3bc0 460e 4bbe 308c 18be
00000310: 33bd 3dc0 6882 44be 29c5 35be cf2f 40c0
00000320: 7467 34be 4ee8 4bbe fff2 42c0 5b79 21be
00000330: c285 5ebe d28d 45c0 bb89 14be f99b 6cbe
00000340: 6625 49c0 d02b 09be 2e88 67be ca78 4cc0
00000350: f931 f5bd 652e 61be df36 50c0 b55c dcbd
00000360: c2a5 57be b026 53c0 0ac6 e2bd 5956 4bbe
00000370: d947 54c0 0803 12be fa2f 47be 79e2 53c0
00000380: e711 2fbe a2bb 33be 7610 55c0 eb7b 55be
00000390: dd35 16be d391 53c0 5b34 68be 5d6b debd
000003a0: 581a 52c0 89b0 79be 8216 90bd 15fc 4fc0
000003b0: 665d 85be fad1 393b e61a 4cc0 289f 90be
000003c0: dc18 033d 3424 4ac0 cfdc 93be 63d9 863d
000003d0: a541 49c0 934a 91be 7ce7 b53d 3212 47c0
000003e0: 1bfd 87be cd18 cf3d 3480 45c0 acff 81be
000003f0: b7c6 063e 601d 42c0 b203 7bbe 46be 033e

body_pose f4 [113, 63]
0.163125 0.051105797 0.049653385 -0.21812072 -0.07710126 -0.012737805 0.22866116 -0.007034315
0.070300825 0.46242502 -0.20098695 0.2018457 0.49308497 -0.07753233 -0.16291904 -0.0046390025
0.0022954282 -0.046345048 -0.25203452 0.06728012 -0.34987178 0.14053689 -0.008980205 0.020806514
0.15938358 0.008456822 -0.033919003 1.5200877e-05 1.4405626e-05 1.5726424e-05 1.4319837e-05 1.49125035e-05
1.50544165e-05 -0.03443748 -0.037083726 0.02346938 0.0026264936 0.036255024 -0.29626918 0.023254426
-0.022877047 0.13064541 -0.019373022 -0.016393578 -0.15015928 -0.023061514 -0.11389417 -0.9198486
0.14207001 0.037409145 0.5847441 0.11781068 -0.19409911 -0.06412188 0.15788205 0.9267724
0.12520762 0.15950425 0.11280153 0.23277141 0.332668 0.193908 0.009906432 0.07047692
-0.10244545 0.01973057 -0.2856944 -0.11242921 -0.040133625 0.12891167 -0.046997774 0.052465964
0.49814597 -0.1972792 0.16795158 0.50705934 -0.14552015 -0.15186095 -0.045260698 -0.025916647
-0.066302575 -0.18417111 0.07997907 -0.13876534 0.10475787 0.029773775 0.003488536 0.14449029
-0.019504273 -0.01069023 1.5496267e-05 -1.6021846e-05 1.5765121e-05 1.6990396e-05 1.50548785e-05 1.553689e-05
0.03167897 -0.032574475 0.020428456 0.002825185 0.17447053 -0.44368434 0.04190867 -0.07663758
0.20517267 -0.05156973 -0.006159977 -0.15616854 0.022259327 -0.046185043 -0.679178 0.10343048
0.120214455 0.49993435 0.13360302 -0.29423764 -0.2191346 0.11569351 0.8206899 0.19099067
0.16321033 0.12557119 0.20695409 0.23296607 0.09512413 0.10546248 0.0080750175 -0.14940546
-0.0027253348 -0.2887642 -0.07748942 -0.033582598 0.091606304 -0.08627765 0.04781072 0.58728784
-0.21367666 0.120666936 0.4973689 -0.16270007 -0.15136895 -0.044722848 -0.031352844 -0.079511054
-0.121866584 0.11662179 -0.018782886 0.10048932 -0.006701458 0.051643267 0.15938741 -0.022552315
0.005775467 1.5461284e-05 -1.6082467e-05 1.5932545e-05 1.48020745e-05 1.4890184e-05 1.5199181e-05 0.004979739
-0.014459154 -0.052458018 0.0014021144 0.13159157 -0.44864243 0.03933986 -0.06432969 0.22483271
-0.061414607 0.009151195 -0.11977726 0.008375764 -0.0112409545 -0.7426458 0.08488738 0.1478486
0.46835366 0.14861141 -0.19716537 -0.13146795 0.113241196 0.86681795 0.2001439 0.14991136
0.076423295 0.156501 0.25675 0.011639785 0.120419316 -0.04515605 -0.10691467 -0.014916253
-0.27761766 -0.04836256 -0.04286056 0.08029703 -0.0768387 0.0292971 0.72978723 -0.18196155
0.1280836 0.5441974 -0.2162122 -0.15749718 -0.03311108 -0.025361134 -0.07683148 -0.0791538
0.13988718 -0.11402351 -0.026817786 0.012941334 0.14167903 0.15231606 -0.0073229717 0.009406401
1.543538e-05 1.4349082e-05 1.5985972e-05 1.4899686e-05 1.50317865e-05 1.5244694e-05 -0.005999206 -0.023145415
-0.06826285 0.034899805 0.19207655 -0.423225 0.051833246 -0.12147708 0.21645088 -0.06985089
0.008747394 -0.12797417 0.07627699 0.02193966 -0.6712368 0.118245296 0.13191272 0.4042356
0.14693381 -0.43780443 -0.28742543 0.07412537 1.0462469 0.3072032 0.2025499 0.13700555
0.06530936 0.17045656 -0.14630902 0.05219061 -0.05854064 0.008241094 -0.014691042 -0.24791905
00000000: 3d0a 273e 5054 513d 5961 4b3d 0a5b 5fbe
00000010: 44e7 9dbd 3ab2 50bc 2726 6a3e 1c80 e6bb
00000020: e1f9 8f3d f9c2 ec3e 86cf 4dbe a4b0 4e3e
00000030: a275 fc3e 45c9 9ebd 40d4 26be c602 98bb
00000040: e56e 163b 4ed4 3dbd ab0a 81be 29ca 893d
00000050: 6522 b3be e7e8 0f3e b621 13bc 6c72 aa3c
00000060: 7335 233e 7b8e 0a3c a7ee 0abd 4507 7f37
00000070: b1af 7137 3dec 8337 3b3f 7037 b730 7a37
00000080: 3a92 7c37 510e 0dbd 1be5 17bd db42 c03c
00000090: 4021 2c3b 2680 143d 98b0 97be 1180 be3c
000000a0: a568 bbbc e9c7 053e 2cb4 9ebc d34b 86bc
000000b0: 5bc3 19be 80eb bcbc 5941 e9bd 337b 6bbf
000000c0: cd7a 113e 553a 193d cab1 153f ba46 f13d
000000d0: ebc1 46be 5552 83bd d5ab 213e f540 6d3f
000000e0: 6d36 003e 1555 233e 7d04 e73d a15b 6e3e
000000f0: 7653 aa3e d28f 463e 964e 223c 3456 903d
00000100: ecce d1bd 01a2 a13c 8946 92be 4941 e6bd
00000110: 2863 24bd 6c01 043e bd80 40bd 8de6 563d
00000120: fd0c ff3e 8f03 4abe 80fb 2b3e a4ce 013f
00000130: 3c03 15be 7081 1bbe 4863 39bd 264f d4bc
00000140: a5c9 87bd 5a97 3cbe 11cc a33d 8018 0ebe
00000150: 4b8b d63d 22e8 f33c ec9f 643b 43f5 133e
00000160: 6dc7 9fbc 1326 2fbc fbfd 8137 a766 86b7
00000170: 573f 8437 9986 8e37 3694 7c37 3855 8237
00000180: cfc1 013d d06c 05bd 9459 a73c bd26 393b
00000190: 67a8 323e 982a e3be 6da8 2b3d 2af4 9cbd
000001a0: c918 523e c83a 53bd a2d9 c9bb a5ea 1fbe
000001b0: 3159 b63c 872c 3dbd 9cde 2dbf 5cd3 d33d
000001c0: ff32 f63d 65f7 ff3e 3bcf 083e 51a6 96be
000001d0: d264 60be b8f0 ec3d bc18 523f 0f93 433e
000001e0: 9c20 273e bc95 003e c6eb 533e a88e 6e3e
000001f0: 71d0 c23d b6fc d73d 144d 043c bffd 18be
00000200: 889b 32bb e7d8 93be c6b2 9ebd e88d 09bd
00000210: 169c bb3d 56b2 b0bd 2cd5 433d 7f58 163f
00000220: 0ece 5abe 3a20 f73d 23a7 fe3e d99a 26be
00000230: 7600 1bbe 4e2f 37bd d76b 00bd b1d6 a2bd
00000240: 3095 f9bd 68d7 ee3d 91de 99bc 58cd cd3d
00000250: e797 dbbb e487 533d 7436 233e a2bf b8bc
00000260: 2140 bd3b dbb2 8137 d6e8 86b7 e1a6 8537
00000270: 6d56 7837 dad0 7937 fcff 7e37 142d a33b
00000280: 16e6 6cbc 38de 56bd 27c7 b73a f1bf 063e
00000290: 76b4 e5be d522 213d 49bf 83bd 8c3a 663e
000002a0: e28d 7bbd e5ee 153c c84d f5bd 803a 093c
000002b0: fb2b 38bc 091e 3ebf 6fd9 ad3d a065 173e
000002c0: 0dcc ef3e 972d 183e b8e5 49be 899f 06be
000002d0: 00eb e73d c8e7 5d3f 86f2 4c3e 5d82 193e
000002e0: d183 9c3d cc41 203e bc74 833e ccb4 3e3c
000002f0: 679e f63d 8df5 38bd 14f6 dabd 4d63 74bc
00000300: e723 8ebe d217 46bd 8e8e 2fbd c572 a43d
00000310: 9c5d 9dbd 7900 f03c 56d3 3a3f 2154 3abe
00000320: 5928 033e 8550 0b3f bb66 5dbe f146 21be
00000330: 7c9f 07bd 27c2 cfbc d359 9dbd 631b a2bd
00000340: 963e 0f3e 2885 e9bd f9b0 dbbc e407 543c
00000350: 4f14 113e bef8 1b3e 8af5 efbb 4e1d 1a3c
00000360: 3a7b 8137 d7bc 7037 9d19 8637 aaf9 7937
00000370: 0831 7c37 76c3 7f37 fd94 c4bb 749b bdbc
00000380: 65cd 8bbd 19f3 0e3d b7af 443e f2b0 d8be
00000390: 194f 543d fac8 f8bd 4da5 5d3e fc0d 8fbd
000003a0: 3b51 0f3c a90b 03be 1c37 9c3d cdba b33c
000003b0: 2dd6 2bbf 972a f23d 2114 073e f8f7 ce3e
000003c0: d175 163e e727 e0be 6d29 93be 0bcf 973d
000003d0: 6beb 853f bd49 9d3e 3e69 4f3e 2f4b 0c3e
000003e0: eac0 853d 2a8c 2e3e 08d2 15be d2c5 553d
000003f0: 4fc8 6fbd a705 073c b2b2 70bc 7ede 7dbe

transl f4 [113, 3]
0.5833311 1.3266464 1.3729521 0.5829477 1.3263067 1.3487438 0.5849305 1.3279426
1.3285078 0.5842979 1.3293079 1.3083944 0.5824599 1.3326406 1.2885171 0.5799693
1.3322202 1.2722653 0.5757603 1.3310639 1.2572689 0.56912863 1.3288065 1.2413276
0.5606794 1.3270334 1.226703 0.55153 1.3252043 1.2113628 0.54077756 1.3242794
1.1961917 0.52658606 1.3238279 1.1791394 0.51007307 1.3205063 1.1601293 0.49178568
1.3162998 1.1399574 0.47085556 1.3115377 1.1182443 0.4467787 1.3078489 1.0932047
0.4228389 1.3041096 1.0682217 0.3998298 1.3030651 1.0447873 0.37512124 1.3076705
1.0195148 0.3540797 1.3126391 0.99828595 0.33427563 1.3194882 0.97843236 0.31558242
1.325251 0.9584118 0.29947868 1.3305401 0.93782395 0.28239948 1.3333738 0.916571
0.26552588 1.3348461 0.89561564 0.24808066 1.3339685 0.8719388 0.22994147 1.3311511
0.84642744 0.2103522 1.3288524 0.81872046 0.18735568 1.322124 0.7846324 0.1641083
1.3137295 0.7523077 0.13801812 1.3097459 0.7191807 0.110597126 1.3043903 0.68364227
0.08709295 1.29842 0.6492252 0.06627667 1.2950897 0.6169344 0.048271406 1.2977186
0.58843744 0.031022482 1.3017628 0.5624807 0.01648712 1.3073786 0.53810203 0.00022974495
1.3127475 0.51310354 -0.01757054 1.3166572 0.48820493 -0.036332045 1.3194737 0.46199912
-0.057482537 1.3205731 0.43486616 -0.081100866 1.3209211 0.40738818 -0.10621846 1.3211797
0.37646723 -0.13275194 1.3191231 0.34368294 -0.1592759 1.3149147 0.30998936 -0.18374932
1.309633 0.27650058 -0.20505293 1.3068048 0.24636468 -0.22314243 1.3073411 0.21699114
-0.23856334 1.3091657 0.19041954 -0.24956384 1.3142271 0.1662684 -0.25729826 1.3185582
0.14222102 -0.26293135 1.3229669 0.11852967 -0.26696193 1.325961 0.094716854 -0.27018422
1.3277863 0.06925048 -0.27194875 1.3266689 0.041616783 -0.27317682 1.3221813 0.009816249
-0.2756378 1.3155435 -0.020532234 -0.2769866 1.3110193 -0.055904426 -0.27700287 1.3072752
-0.09395777 -0.2761733 1.305067 -0.13324168 -0.2752923 1.3042519 -0.170852 -0.2731031
1.3109 -0.20826948 -0.27108124 1.3173738 -0.23776986 -0.27005723 1.3222532 -0.26658738
-0.26879495 1.3267874 -0.29240945 -0.26876146 1.3301483 -0.31711507 -0.26947224 1.3328564
-0.33906597 -0.2720417 1.3376876 -0.3610101 -0.27642503 1.3369187 -0.38304725 -0.28291476
1.335664 -0.40627584 -0.29161945 1.3337147 -0.43144235 -0.302292 1.3321352 -0.45850807
-0.31514543 1.3304161 -0.4877702 -0.33098418 1.3269931 -0.5229876 -0.3445628 1.3200476
-0.55627984 -0.3598971 1.313315 -0.5933633 -0.37447956 1.3125495 -0.6284946 -0.38976198
1.3118465 -0.66214436 -0.40387225 1.317389 -0.6889143 -0.4148493 1.3209232 -0.71166784
-0.4236662 1.3286319 -0.73171383 -0.43049455 1.334109 -0.7507754 -0.43630224 1.3388209
-0.7689936 -0.4408927 1.3418126 -0.7872995 -0.44539192 1.3420781 -0.80671805 -0.44813603
00000000: 3055 153f 8dcf a93f e5bc af3f 0f3c 153f
00000010: 6bc4 a93f a3a3 ac3f 01be 153f 06fa a93f
00000020: 8b0c aa3f 8c94 153f c326 aa3f 7879 a73f
00000030: 181c 153f f893 aa3f 21ee a43f de78 143f
00000040: 3186 aa3f 97d9 a23f 0765 133f 4d60 aa3f
00000050: 30ee a03f 6ab2 113f 5516 aa3f d3e3 9e3f
00000060: af88 0f3f 3bdc a93f 9b04 9d3f 1231 0d3f
00000070: 4ba0 a93f f00d 9b3f 6670 0a3f fd81 a93f
00000080: cf1c 993f 58ce 063f 3173 a93f 0aee 963f
00000090: 2694 023f 5a06 a93f 1e7f 943f 55cb fb3e
000000a0: 837c a83f 20ea 913f fb13 f13e 78e0 a73f
000000b0: a122 8f3f 2ec0 e43e 9867 a73f 22ee 8b3f
000000c0: 577e d83e 10ed a63f 7dbb 883f 7eb6 cc3e
000000d0: d6ca a63f 97bb 853f e40f c03e bf61 a73f
000000e0: 767f 823f ef49 b53e 8f04 a83f ab8f 7f3f
000000f0: 2d26 ab3e fde4 a83f 8b7a 7a3f 0594 a13e
00000100: d3a1 a93f 7a5a 753f 4555 993e 234f aa3f
00000110: 3b15 703f aa96 903e feab aa3f 66a4 6a3f
00000120: 02f3 873e 3ddc aa3f 1147 653f db08 7e3e
00000130: 7bbf aa3f 6237 5f3f c775 6b3e 2963 aa3f
00000140: 78af 583f 9166 573e d617 aa3f aa97 513f
00000150: 2bda 3f3e 5c3b a93f abdd 483f 020c 283e
00000160: 4a28 a83f 3d97 403f 9f54 0d3e c1a5 a73f
00000170: 3a1c 383f bf80 e23d 43f6 a63f 2e03 2f3f
00000180: ca5d b23d a032 a63f 9f33 263f 10bc 873d
00000190: 80c5 a53f 6aef 1d3f 3db8 453d a51b a63f
000001a0: d6a3 163f dc22 fe3c 2aa0 a63f bcfe 0f3f
000001b0: ff0f 873c 2f58 a73f 0ec1 093f b1e7 7039
000001c0: 1c08 a83f c15a 033f 18f0 8fbc 3988 a83f
000001d0: fff5 f93e e9d0 14bd 84e4 a83f 268b ec3e
000001e0: cf72 6bbd 8a08 a93f c7a6 de3e 3618 a6bd
000001f0: f113 a93f 2f95 d03e 1089 d9bd 6b1c a93f
00000200: 50c0 c03e 20f0 07be 07d9 a83f 36f7 af3e
00000210: 3919 23be 204f a83f edb6 9e3e c828 3cbe
00000220: 0ea2 a73f 7c91 8d3e 65f9 51be 6145 a73f
00000230: 0647 7c3e 737f 64be f456 a73f ed32 5e3e
00000240: f349 74be be92 a73f 57fd 423e aa8d 7fbe
00000250: 9838 a83f 4342 2a3e 99bc 83be 84c6 a83f
00000260: 63a2 113e f09e 86be fb56 a93f afbf f23d
00000270: 3caf 88be 17b9 a93f e9fa c13d 9655 8abe
00000280: e7f4 a93f 32d3 8d3d de3c 8bbe 49d0 a93f
00000290: 5c76 2a3d d5dd 8bbe 3d3d a93f 55d4 203c
000002a0: 6620 8dbe bb63 a83f 3733 a8bc 30d1 8dbe
000002b0: 7bcf a73f 0afc 64bd 52d3 8dbe cb54 a73f
000002c0: ee6c c0bd 9666 8dbe 6f0c a73f 8270 08be
000002d0: 1df3 8cbe baf1 a63f d4f3 2ebe 2bd4 8bbe
000002e0: 92cb a73f 9844 55be 29cb 8abe b49f a83f
000002f0: f179 73be f144 8abe 983f a93f 247e 88be
00000300: 7e9f 89be 2bd4 a93f b1b6 95be 1a9b 89be
00000310: 4d42 aa3f e85c a2be 44f8 89be 0a9b aa3f
00000320: 0e9a adbe 0d49 8bbe 5939 ab3f 51d6 b8be
00000330: 9587 8dbe 2720 ab3f c51e c4be 34da 90be
00000340: 0af7 aa3f 6303 d0be 254f 95be 2ab7 aa3f
00000350: 03e6 dcbe 04c6 9abe 6883 aa3f 92c1 eabe
00000360: be5a a1be 134b aa3f 04bd f9be c276 a9be
00000370: e9da a93f 84e2 05bf 896a b0be 52f7 a83f
00000380: 5b68 0ebf 6f44 b8be b51a a83f a8e6 17bf
00000390: c9bb bfbe 9f01 a83f 06e5 20bf e28e c7be
000003a0: 96ea a73f 4b82 29bf 58c8 cebe 34a0 a83f
000003b0: b05c 30bf 2167 d4be 0314 a93f dd2f 36bf
000003c0: c7ea d8be 9c10 aa3f 9951 3bbf c869 dcbe
000003d0: 15c4 aa3f d132 40bf 0263 dfbe 7c5e ab3f
000003e0: c4dc 44bf b0bc e1be 84c0 ab3f 768c 49bf
000003f0: 690a e4be 37c9 ab3f 1385 4ebf 1672 e5be

left_hand_pose f4 [113, 12]
0.22509475 0.054031014 0.4992638 -0.45519698 0.4358756 -0.21424237 0.31387508 -0.22668357
-0.23801574 -0.82958364 0.07459062 -1.4662021 0.29622912 0.1531637 0.48295826 -0.43036324
0.41027066 -0.5776573 0.17279914 -0.02479252 -0.38131267 -0.88496363 0.12187995 -1.5559299
0.3553868 0.0366985 0.40869525 -0.52272975 0.51381063 -0.44602874 0.18173914 0.024097975
-0.25512937 -0.6995039 0.17957172 -1.4491074 0.36577737 0.08810311 0.41766936 -0.29609048
0.26781496 -0.751771 0.53512204 0.37831837 0.21863332 -0.74350023 -0.7005698 -1.6094846
0.37456656 -0.044399153 0.33509776 -0.45375136 0.5872631 -0.52036995 0.38669094 -0.12745088
-0.10542884 -0.9490742 0.27994213 -1.6844063 0.400155 -0.038987752 0.4011262 -0.23389474
0.48499197 -0.60661554 0.28155184 -0.23970872 -0.22928616 -1.1333461 0.34967873 -2.0315
0.41474053 0.107746184 0.32360077 -0.1102767 0.24870713 -0.37900102 0.36267206 -0.20182139
-0.45760924 -1.0335774 0.4395613 -1.8461834 0.44547933 0.17268424 0.24496166 -0.18887928
0.25924098 -0.2748565 0.42412314 -0.20371242 -0.5541899 -0.8818648 0.66487783 -1.7835052
0.3276157 0.37535968 0.0483194 0.017218135 0.14466263 -0.12224117 0.06898364 -0.03609828
-1.072594 -0.8667077 0.35183018 -1.8206007 0.35502782 0.15366504 -0.01906328 0.08132032
0.0976274 -0.049742065 -0.044626385 0.13777302 -1.1162534 -0.8811026 0.30880415 -1.279413
0.4158794 0.16067773 0.28306594 0.062506504 0.21972537 -0.2673364 0.34011146 -0.05857252
-0.31500795 -0.7029449 0.83837634 -1.7129012 0.33653995 0.38591838 0.013515658 -0.30075708
0.29804623 0.008152235 0.04327421 0.18237999 -0.8892551 -0.34209463 0.8345896 -1.8279631
0.29472923 0.25258332 0.04543833 -0.5750224 0.2643613 0.1063177 0.6168192 0.03670364
-0.48895338 -0.8777339 0.36616945 -1.5110133 0.32758978 0.20170388 0.12247944 -0.4396403
0.210469 -0.32093048 0.5934894 -0.019035596 -0.49502102 -0.8279911 0.45141625 -1.5547404
0.29305246 0.10946199 0.09997248 -0.4414772 0.2933962 -0.28685835 0.5456988 0.009455901
-0.20321573 -0.77036095 0.35851556 -1.5118753 0.33568317 0.19456403 0.2450678 -0.16348124
0.23309644 -0.33491725 0.31750408 -0.13537933 -0.4394651 -0.72214323 0.34232688 -1.6077724
0.29906633 0.19573924 0.17692885 -0.23519833 0.37967688 -0.36920083 0.35813463 -0.22951454
-0.3150935 -0.9172821 0.5241482 -1.7282894 0.3274025 0.10553285 0.24622923 -0.23548459
0.50080043 -0.3678797 0.35142824 -0.31546804 -0.18886438 -1.0552404 0.5704674 -1.8457122
0.33205098 0.1244771 0.3014015 -0.09740716 0.2816218 -0.49957076 0.5482671 -0.3613443
-0.3432908 -1.0933197 0.5814276 -2.0651517 0.32944384 0.16832973 0.27205074 -0.16740866
0.40574193 -0.34149736 0.4635565 -0.45146722 -0.33286127 -1.0876245 0.48250908 -1.9703048
0.32932934 0.18214169 0.3232916 -9.240813e-06 0.23676625 -0.3460201 0.4399932 -0.35875842
-0.42304143 -0.9764692 0.63574165 -1.980188 0.30296808 0.2168499 0.314082 0.049453143
00000000: 3d7f 663e a04f 5d3d 819f ff3e 940f e9be
00000010: 162b df3e 5a62 5bbe 3cb4 a03e bd1f 68be
00000020: 66ba 73be 985f 54bf f8c2 983d 83ac bbbf
00000030: 58ab 973e f2d6 1c3e 4e46 f73e 9258 dcbe
00000040: ff0e d23e 59e1 13bf 42f2 303e af19 cbbc
00000050: 6a3b c3be fa8c 62bf 329c f93d b628 c7bf
00000060: 42f5 b53e 2b51 163d 8140 d13e 9ed1 05bf
00000070: 1889 033f e15d e4be d319 3a3e 1e69 c53c
00000080: 51a0 82be b012 33bf a6e1 373e 5a7c b9bf
00000090: 2c47 bb3e 676f b43d c2d8 d53e 2c99 97be
000000a0: 0b1f 893e 1074 40bf c2fd 083f f2b2 c13e
000000b0: 6ae1 5f3e 0856 3ebf 8b58 33bf 9703 cebf
000000c0: 30c7 bf3e e3db 35bd ef91 ab3e 1952 e8be
000000d0: e056 163f f736 05bf 5bfc c53e 7c82 02be
000000e0: 13eb d7bd 87f6 72bf 9354 8f3e a09a d7bf
000000f0: 1ee1 cc3e 9fb1 1fbd 6a60 cd3e 1a82 6fbe
00000100: de50 f83e 284b 1bbf 9027 903e 3476 75be
00000110: fec9 6abe 7c11 91bf 1709 b33e 1904 02c0
00000120: df58 d43e 08aa dc3d 00af a53e c0d8 e1bd
00000130: 15ad 7e3e 6c0c c2be 27b0 b93e 44aa 4ebe
00000140: c24b eabe 444c 84bf 2e0e e13e bd4f ecbf
00000150: de15 e43e 23d4 303e 3bd7 7a3e 9269 41be
00000160: 3cbb 843e feb9 8cbe ab26 d93e fd99 50be
00000170: 64df 0dbf e4c1 61bf 6f35 2a3f e649 e4bf
00000180: 3fbd a73e 252f c03e 90ea 453d 0c0d 8d3c
00000190: 7122 143e 9459 fabd 4b47 8d3d cadb 13bd
000001a0: c34a 89bf 8ee0 5dbf 1623 b43e 7209 e9bf
000001b0: 35c6 b53e 5e5a 1d3e 992a 9cbc 458b a63d
000001c0: e0f0 c73d 56be 4bbd 28ca 36bd 5f14 0d3e
000001d0: 64e1 8ebf f18f 61bf 941b 9e3e cec3 a3bf
000001e0: 25ee d43e b488 243e 05ee 903e 6903 803d
000001f0: b0ff 603e 51e0 88be 1723 ae3e bde9 6fbd
00000200: b948 a1be 32f4 33bf d59f 563f 5940 dbbf
00000210: f74e ac3e 1897 c53e c770 5d3c d5fc 99be
00000220: 8499 983e f490 053c 4c40 313d d2c1 3a3e
00000230: 39a6 63bf 0727 afbe aaa7 553f b2fa e9bf
00000240: c0e6 963e 9a52 813e 8b1d 3a3d ab34 13bf
00000250: 5d5a 873e 18bd d93d dde7 1d3f 8e56 163d
00000260: 1958 fabe 2bb3 60bf 907a bb3e e268 c1bf
00000270: d9b9 a73e 768b 4e3e 80d6 fa3d 8918 e1be
00000280: 2f85 573e 0051 a4be ecee 173f 8af0 9bbc
00000290: 6573 fdbe 3af7 53bf 0820 e73e bc01 c7bf
000002a0: f90a 963e 9c2d e03d 5fbe cc3d 4d09 e2be
000002b0: 0738 963e 19df 92be ebb2 0b3f ecec 1a3c
000002c0: c917 50be 6036 45bf 5a8f b73e 2185 c1bf
000002d0: aade ab3e cb3b 473e 0ef3 7a3e a067 27be
000002e0: d5b0 6e3e 467a abbe e58f a23e e1a0 0abe
000002f0: 9201 e1be 61de 38bf 7845 af3e 7ccb cdbf
00000300: 391f 993e de6f 483e d62c 353e d5d7 70be
00000310: 0265 c23e e407 bdbe 6c5d b73e dc05 6bbe
00000320: ef53 a1be 00d3 6abf 942e 063f 9638 ddbf
00000330: 4da1 a73e 9b21 d83d 8423 7c3e df22 71be
00000340: 7534 003f ba5a bcbe 67ee b33e 0785 a1be
00000350: aa65 41be 1e12 87bf 270a 123f 4c40 ecbf
00000360: 9602 aa3e daed fe3d 4c51 9a3e 687d c7bd
00000370: bc30 903e bdc7 ffbe 3c5b 0c3f 1f02 b9be
00000380: d0c3 afbe e6f1 8bbf 70d8 143f 722b 04c0
00000390: ddac a83e a15e 2c3e 3c4a 8b3e 2d6d 2bbe
000003a0: 68bd cf3e bed8 aebe 4757 ed3e b626 e7be
000003b0: cb6c aabe 4837 8bbf 6e0b f73e f332 fcbf
000003c0: db9d a83e 5a83 3a3e 7a86 a53e fd08 1bb7
000003d0: da72 723e 8c29 b1be ca46 e13e 2faf b7be
000003e0: e398 d8be e3f9 79bf f7bf 223f cd76 fdbf
000003f0: a21e 9b3e e60d 5e3e 5bcf a03e 618f 4a3d

right_hand_pose f4 [113, 12]
0.12182167 -0.14284874 0.039066046 -0.40039366 0.23906928 -0.28207818 0.51786923 0.026162177
0.8219963 -0.58832574 -0.13120884 -0.26071796 0.2899055 -0.14323348 0.21815851 0.016267905
0.4182366 -0.22758442 -0.1742517 0.26345068 0.028038375 -0.7576852 -0.74800986 -0.6874182
0.39485896 -0.17117202 0.3877528 0.11295562 0.001968366 -0.84850055 0.6640975 0.17765053
-0.09921511 -0.72217715 0.5231058 -1.0447123 0.4217368 -0.12280514 0.37450418 0.119281344
0.038454864 -1.0638098 0.71541786 0.13154554 -0.21438798 -0.74537283 0.9709698 -1.2119472
0.44872078 -0.13821808 0.30969813 0.34271723 0.23012559 -0.6774386 0.22688723 0.21075529
-0.6882864 -0.80202514 0.33249286 -0.9331297 0.4297612 -0.114303045 0.4185903 0.5145793
0.12989302 -0.3763852 0.035610072 -0.07001849 -0.21627736 -0.880584 -0.26498902 -0.9450399
0.46058723 -0.109798476 0.31580195 0.31786102 -0.17459075 -0.96669745 0.7908261 0.12917492
-0.5265669 -0.78300816 1.2586119 -0.8562613 0.4765265 -0.05250572 0.1965002 0.172285
-0.13547994 -0.7952855 0.9843299 0.27644667 -0.5066835 -0.74799407 0.86238235 -0.7847048
0.5084186 0.06628269 0.23706178 0.10831265 -0.20884512 -0.6985805 0.83735025 0.23285739
-0.5424565 -0.5355329 1.206547 -0.8357218 0.48328847 0.00709348 0.34468344 0.18040761
-0.1501181 -0.7572551 0.66473776 0.03636895 -0.26723742 -0.63408095 1.1656499 -1.2727922
0.5050789 -0.038796745 0.51706356 0.2660972 -0.15443856 -0.6966788 0.7251159 -0.1651798
-0.2541824 -0.9997011 0.8315703 -1.5390905 0.57894194 -0.0834324 0.50754195 0.23759273
-0.14045045 -0.7199195 0.63873315 -0.28251797 -0.32667056 -0.9670346 0.9881103 -1.5068932
0.48638004 0.12872836 0.3826012 0.13013738 -0.10155714 -0.321101 0.71047175 -0.23960552
-0.26333812 -0.9457443 0.75632155 -1.5066695 0.4586722 0.07669581 0.37002355 0.21213412
-0.17307542 -0.46657503 0.79917496 -0.25138366 -0.30217147 -0.8645415 0.7770416 -1.5592711
0.46209508 -0.027796237 0.41479123 0.23335007 -0.038144432 -0.499223 0.77034277 -0.30430275
-0.2833669 -0.9886774 0.74143606 -1.5244367 0.51699746 0.09911022 0.45993885 0.37822
-0.26380756 -0.6249642 0.7055139 -0.07775308 -0.33026406 -0.752191 0.89250886 -1.2706623
0.48861158 0.07663568 0.455532 0.43545353 -0.30026373 -0.59973913 0.6778457 -0.12447359
-0.28755847 -0.7322989 1.0945166 -1.4221007 0.5163366 -0.020000279 0.5190366 0.46316287
-0.2699579 -0.6159491 0.7310036 -0.19990024 -0.16002283 -0.6925656 1.2352543 -1.4018378
0.5026428 -0.03683249 0.45172524 0.4132093 -0.21380424 -0.62688637 0.8098307 -0.18805876
-0.18892868 -0.76704943 1.015339 -1.4211307 0.48540676 -0.047569208 0.41639745 0.32327187
-0.16237308 -0.6989229 0.9042471 -0.2379515 -0.134898 -0.7891094 1.2582338 -1.543649
0.48004913 -0.0824023 0.4463619 0.3245904 -0.11342531 -0.6698392 0.87571937 -0.3161494
-0.12941621 -0.8621042 1.1107641 -1.6613348 0.4654053 -0.10899151 0.38875553 0.33114886
00000000: a47d f93d f146 12be b803 203d 6600 cdbe
00000010: 94ce 743e 8d6c 90be 1493 043f 1052 d63c
00000020: 596e 523f 849c 16bf 9c5b 06be d37c 85be
00000030: 7e6e 943e ccab 12be f264 5f3e 4544 853c
00000040: 1c23 d63e e40b 69be 0a6f 32be 02e3 863e
00000050: bcb0 e53c a8f7 41bf 937d 3fbf a4fa 2fbf
00000060: f42a ca3e b847 2fbe 8987 c63e 4755 e73d
00000070: b4ff 003b 5537 59bf 4b02 2a3f 05ea 353e
00000080: 4b31 cbbd 9ae0 38bf 43ea 053f 22b9 85bf
00000090: e3ed d73e 4381 fbbd 03bf bf3e c749 f43d
000000a0: d982 1d3d eb2a 88bf a025 373f e0b3 063e
000000b0: 8688 5bbe c1d0 3ebf 7a91 783f 1621 9bbf
000000c0: bbbe e53e 0a89 0dbe c190 9e3e a278 af3e
000000d0: 0ba6 6b3e 9e6c 2dbf 2055 683e 3cd0 573e
000000e0: 8a33 30bf 8551 4dbf 813c aa3e 97e1 6ebf
000000f0: a909 dc3e b717 eabd 7851 d63e 78bb 033f
00000100: ad02 053e 90b5 c0be dedb 113d db65 8fbd
00000110: d077 5dbe f46d 61bf a4ac 87be 23ee 71bf
00000120: 17d2 eb3e 06de e0bd cbb0 a13e aebe a23e
00000130: ebc7 32be 7c79 77bf 9473 4a3f 6e46 043e
00000140: 17cd 06bf 3973 48bf 321a a13f f133 5bbf
00000150: 48fb f33e 3d10 57bd 5937 493e 7b6b 303e
00000160: 41bb 0abe d597 4bbf 0bfd 7b3f 6b8a 8d3e
00000170: 03b6 01bf 8a7c 3fbf 17c5 5c3f 6ae2 48bf
00000180: b927 023f 38bf 873d 53c0 723e 06d3 dd3d
00000190: 7fdb 55be 2cd6 32bf 965c 563f 2b72 6e3e
000001a0: 6ede 0abf af18 09bf 2270 9a3f ddf1 55bf
000001b0: 9671 f73e 6c70 e83b 597a b03e c6bc 383e
000001c0: 8fb8 19be 78db 41bf 412c 2a3f 9cf7 143d
000001d0: 58d3 88be 2153 22bf 0434 953f dbea a2bf
000001e0: da4c 013f 56e9 1ebd 475e 043f e43d 883e
000001f0: 2425 1ebe 8b59 32bf 32a1 393f e524 29be
00000200: 3224 82be 69ec 7fbf cbe1 543f eb00 c5bf
00000210: 8a35 143f 9bde aabd 45ee 013f 824b 733e
00000220: 3ed2 0fbe a54c 38bf 0484 233f 32a6 90be
00000230: 5d41 a7be 948f 77bf ccf4 7c3f e0e1 c0bf
00000240: ce06 f93e 5ed1 033e 4ee4 c33e bc42 053e
00000250: 31fd cfbd 5a67 a4be 7ae1 353f 265b 75be
00000260: 41d4 86be 4c1c 72bf 4a9e 413f 8cda c0bf
00000270: 15d7 ea3e b112 9d3d ba73 bd3e b039 593e
00000280: af3a 31be ece2 eebe bb96 4c3f 5cb5 80be
00000290: 38b6 9abe 9752 5dbf 33ec 463f 3296 c7bf
000002a0: ba97 ec3e efb4 e3bc 845f d43e 52f3 6e3e
000002b0: 563d 1cbd 289a ffbe 2f35 453f 92cd 9bbe
000002c0: 7715 91be f619 7dbf c1ce 3d3f be20 c3bf
000002d0: f259 043f 4dfa ca3d 1b7d eb3e 0da6 c13e
000002e0: c911 87be a7fd 1fbf 8f9c 343f 023d 9fbd
000002f0: 5f18 a9be 978f 40bf 767b 643f 10a5 a2bf
00000300: 4c2b fa3e 2bf3 9c3d 7e3b e93e c4f3 de3e
00000310: 2bbc 99be 8188 19bf 4c87 2d3f 02ec febd
00000320: dd3a 93be f177 3bbf 1f19 8c3f 6507 b6bf
00000330: a32e 043f a0d7 a3bc 95df 043f af23 ed3e
00000340: ec37 8abe d7ae 1dbf 0d23 3b3f a6b2 4cbe
00000350: 06dd 23be fb4b 31bf d01c 9e3f 6c6f b3bf
00000360: 33ad 003f aadd 16bd 8848 e73e 2b90 d33e
00000370: 80ef 5abe a07b 20bf 1151 4f3f 7a92 40be
00000380: 8576 41be 5a5d 44bf a1f6 813f 9ce7 b5bf
00000390: 3c87 f83e eed7 42bd 0c32 d53e e483 a53e
000003a0: 2145 26be 9cec 32bf bd7c 673f 8fa9 73be
000003b0: b422 0abe 1303 4abf ce0d a13f 4a96 c5bf
000003c0: 00c9 f53e 89c2 a8bd 8c89 e43e b730 a63e
000003d0: 874b e8bd 957a 2bbf 252f 603f 56de a1be
000003e0: af85 04be dcb2 5cbf 852d 8e3f 9ea6 d4bf
000003f0: 9a49 ee3e f136 dfbd f70a c73e 588c a93e

jaw_pose f4 [113, 3]
0.04590782 0.0035658393 0.0025208197 0.06757992 -0.00016899924 0.0010533741 0.07013762 0.0016490134
0.0018627708 0.06831943 0.0007267485 0.0018804889 0.067313984 0.0012451827 0.0022896486 0.061021633
-1.8688432e-05 0.0017984536 0.052800663 -0.0030511168 0.0008324542 0.04664547 -0.0006712823 0.0016883987
0.041437138 0.0044184024 0.0034467122 0.04623641 0.0020853484 0.0022327525 0.036733605 -0.0070737177
-0.00075591274 0.037493154 -0.0005949086 0.0015790338 0.02944316 -0.005520279 0.0001187963 0.03754983
-0.004493554 0.00029952082 0.028270975 -0.0027751927 0.0010144295 0.006640259 -0.0016935136 0.00070299493
0.017184597 0.0004418622 0.001670335 0.027061379 0.0036199572 0.0024417408 0.03134359 0.006103338
0.00391531 0.025648454 0.0062310905 0.0030060923 0.02308732 0.008351249 0.004626916 0.016409004
0.004911501 0.003149353 0.009524443 0.0068034213 0.004001541 0.0015203954 0.004876642 0.002937767
-0.0057268064 0.0024723345 0.0016066731 -0.0029956845 0.004116477 0.0020198 -0.006249239 0.0058813053
0.0022586826 -0.00966555 0.0042746477 0.0022881718 -0.005168015 0.005241073 0.0017288394 -0.00715389
0.006371796 0.0018934349 0.012230585 0.006201899 0.0018899476 0.007257721 0.0073085316 0.0032350742
0.0044670654 0.0046154126 0.0022290559 0.00064334925 0.003908553 0.0021811936 0.008711473 0.0029699584
0.0012840949 -0.0012018415 0.006549366 0.002583233 0.014780506 0.007599712 0.0033785016 0.024545038
0.0040397076 0.0018907702 0.022743823 0.0066549745 0.003214175 0.03751426 0.008345134 0.0039522657
0.05584909 0.008579146 0.004369796 0.06106055 0.008281264 0.0029377486 0.061048087 0.006313898
0.0021851913 0.059148815 0.0050501414 0.002163194 0.074068144 0.0063418183 0.0023512654 0.08676407
0.0046119266 0.0022071276 0.09574915 0.003953879 0.0020136056 0.09634861 0.0033110252 0.0024768673
0.09732305 0.0032029175 0.0026665092 0.0927231 0.004457188 0.0022843948 0.09817823 0.0059836525
0.0041371775 0.109251596 0.007165439 0.004304021 0.10532859 0.006593451 0.0031968458 0.10991881
0.0065518846 0.002772393 0.10047233 0.003590689 0.002162064 0.10035044 0.0049968217 0.0024423318
0.084408455 0.0071466756 0.0043242504 0.090234056 0.0020224818 0.001997685 0.07904582 0.0031775483
0.0018387304 0.07015264 0.0027561556 0.0025082661 0.070737034 0.0027756963 0.0019659887 0.0876548
0.004831054 0.0021799672 0.08453465 0.0090591395 0.0041772863 0.08140225 0.0064174584 0.0038872322
0.06714136 0.0038031803 0.0022396084 0.058045562 0.0054357224 0.0032788026 0.059518754 0.0042256094
0.002922912 0.022341454 0.008863452 0.004095542 0.032741625 0.00897157 0.0046942076 0.04266429
0.009552114 0.005133676 0.057271756 0.008552152 0.0053193597 0.07445908 0.008419871 0.0050587137
0.07613131 0.007042284 0.0027263311 0.08114975 0.00859578 0.0048641735 0.06571964 0.007276592
0.0026611728 0.059279446 0.009728201 0.0043666833 0.06930554 0.009874106 0.0048473645 0.06318878
0.008761722 0.0041734907 0.010975191 0.01786559 0.006302602 0.028551595 0.0162813 0.005078079
-0.00040407458 0.02012815 0.007947302 -0.0020299451 0.021223199 0.0065954207 0.013513094 0.015948333
0.005806204 0.019329023 0.017861037 0.0045441687 0.025562095 0.010062474 0.0035623813 0.027475776
00000000: d709 3c3d dbb0 693b 5634 253b 5767 8a3d
00000010: 6335 31b9 5f11 8a3a 50a4 8f3d b523 d83a
00000020: 3728 f43a 0feb 8b3d 4483 3e3a bd7a f63a
00000030: eadb 893d 6635 a33a ee0d 163b d2f1 793d
00000040: 1ac5 9cb7 17ba eb3a 8245 583d 3ff5 47bb
00000050: 0e39 5a3a 520f 3f3d fef8 2fba 424d dd3a
00000060: fdb9 293d 3fc8 903b 3ce2 613b 6462 3d3d
00000070: 57aa 083b 5f53 123b fa75 163d a5ca e7bb
00000080: 7228 46ba 6c92 193d a4f3 1bba 95f7 ce3a
00000090: c832 f13c 75e3 b4bb 4722 f938 dacd 193d
000000a0: aa3e 93bb 0109 9d39 8898 e73c 02e0 35bb
000000b0: 9bf6 843a 8896 d93b e3f8 ddba 3149 383a
000000c0: b6c6 8c3c bea9 e739 24ef da3a d3af dd3c
000000d0: ce3c 6d3b 9d05 203b 2362 003d 83fe c73b
000000e0: 004c 803b b51c d23c 2d2e cc3b dc01 453b
000000f0: 9f21 bd3c add3 083c 629d 973b 2d6c 863c
00000100: a8f0 a03b 6065 4e3b 690c 1c3c 3cef de3b
00000110: 5c1f 833b 0148 c73a 3dcc 9f3b 8d87 403b
00000120: efa7 bbbb e406 223b 0197 d23a 3f53 44bb
00000130: 83e3 863b 9f5e 043b 6bc6 ccbb f7b7 c03b
00000140: 6806 143b 415c 1ebc 5812 8c3b 27f5 153b
00000150: 7458 a9bb 4fbd ab3b 399a e23a 2e6b eabb
00000160: 80ca d03b 222d f83a cb62 483c 4d39 cb3b
00000170: 1eb8 f73a 2dd2 ed3b 687c ef3b 8a03 543b
00000180: 7660 923b e33c 973b 5a15 123b 70a6 283a
00000190: 5213 803b 5bf2 0e3b 91ba 0e3c a2a3 423b
000001a0: 134f a83a 1c87 9dba 109c d63b 754b 293b
000001b0: ef29 723c 0107 f93b da69 5d3b ad12 c93c
000001c0: 865f 843b b8d3 f73a 4151 ba3c f911 da3b
000001d0: e9a4 523b 8da8 193d 07ba 083c 0282 813b
000001e0: 04c2 643d 8c8f 0c3c 8130 8f3b a11a 7a3d
000001f0: 24ae 073c 3e87 403b 8f0d 7a3d d1e4 ce3b
00000200: 6d35 0f3b 0746 723d a87b a53b 5fc4 0d3b
00000210: 0ab1 973d 07cf cf3b b017 1a3b 5cb1 b13d
00000220: a51f 973b 75a5 103b 2118 c43d 8a8f 813b
00000230: b2f6 033b 6c52 c53d c9fd 583b f052 223b
00000240: 4f51 c73d 0ae8 513b 9ac0 2e3b 9ce5 bd3d
00000250: 9a0d 923b c9b5 153b ab11 c93d 8412 c43b
00000260: 2991 873b 4dbf df3d 0fcc ea3b bf08 8d3b
00000270: 84b6 d73d e00d d83b 2c82 513b 1d1d e13d
00000280: 31b1 d63b 09b1 353b 70c4 cd3d c451 6b3b
00000290: 6ab1 0d3b 8884 cd3d 61bc a33b 870f 203b
000002a0: 57de ac3d a92e ea3b 71b2 8d3b a2cc b83d
000002b0: 9d8b 043b 98eb 023b c6e2 a13d 6a3e 503b
000002c0: 8e01 f13a 30ac 8f3d 9ea0 343b b961 243b
000002d0: 94de 903d 75e8 353b d1d7 003b 5c84 b33d
000002e0: d14d 9e3b c8dd 0e3b 8120 ad3d c96c 143c
000002f0: 9ee1 883b 39b6 a63d 8b49 d23b efc0 7e3b
00000300: 6981 893d c73e 793b 65c6 123b 2fc1 6d3d
00000310: 251e b23b 2ee1 563b f0c9 733d fb76 8a3b
00000320: 538e 3f3b 6d05 b73c 0338 113c e533 863b
00000330: 151c 063d 7efd 123c ded1 993b c0c0 2e3d
00000340: 7880 1c3c 6538 a83b ca95 6a3d 531e 0c3c
00000350: 064e ae3b 017e 983d 80f3 093c 91c3 a53b
00000360: bbea 9b3d f6c2 e63b 3fac 323b d731 a63d
00000370: 50d5 0c3c a563 9f3b 0598 863d 7a70 ee3b
00000380: 1267 2e3b 01cf 723d 0863 1f3c 6516 8f3b
00000390: 10f0 8d3d 01c7 213c a4d6 9e3b 1e69 813d
000003a0: 538d 0f3c c7c1 883b 4ad1 333c dc5a 923c
000003b0: 0f86 ce3b 09e5 e93c 5c60 853c 0466 a63b
000003c0: f9d9 d3b9 cae3 a43c 6735 023c d408 05bb
000003d0: 46dc ad3c 661e d83b 0666 5d3c 14a6 823c
000003e0: f841 be3b e657 9e3c 4f51 923c 40e7 943b
000003f0: 9967 d13c 13dd 243c d776 693b e114 e13c

leye_pose f4 [113, 3]
0.0 0.0 0.0 0.0 0.0 0.0 0.0 0.0
0.0 0.0 0.0 0.0 0.0 0.0 0.0 0.0
0.0 0.0 0.0 0.0 0.0 0.0 0.0 0.0
0.0 0.0 0.0 0.0 0.0 0.0 0.0 0.0
0.0 0.0 0.0 0.0 0.0 0.0 0.0 0.0
0.0 0.0 0.0 0.0 0.0 0.0 0.0 0.0
0.0 0.0 0.0 0.0 0.0 0.0 0.0 0.0
0.0 0.0 0.0 0.0 0.0 0.0 0.0 0.0
0.0 0.0 0.0 0.0 0.0 0.0 0.0 0.0
0.0 0.0 0.0 0.0 0.0 0.0 0.0 0.0
0.0 0.0 0.0 0.0 0.0 0.0 0.0 0.0
0.0 0.0 0.0 0.0 0.0 0.0 0.0 0.0
0.0 0.0 0.0 0.0 0.0 0.0 0.0 0.0
0.0 0.0 0.0 0.0 0.0 0.0 0.0 0.0
0.0 0.0 0.0 0.0 0.0 0.0 0.0 0.0
0.0 0.0 0.0 0.0 0.0 0.0 0.0 0.0
0.0 0.0 0.0 0.0 0.0 0.0 0.0 0.0
0.0 0.0 0.0 0.0 0.0 0.0 0.0 0.0
0.0 0.0 0.0 0.0 0.0 0.0 0.0 0.0
0.0 0.0 0.0 0.0 0.0 0.0 0.0 0.0
0.0 0.0 0.0 0.0 0.0 0.0 0.0 0.0
0.0 0.0 0.0 0.0 0.0 0.0 0.0 0.0
0.0 0.0 0.0 0.0 0.0 0.0 0.0 0.0
0.0 0.0 0.0 0.0 0.0 0.0 0.0 0.0
0.0 0.0 0.0 0.0 0.0 0.0 0.0 0.0
0.0 0.0 0.0 0.0 0.0 0.0 0.0 0.0
0.0 0.0 0.0 0.0 0.0 0.0 0.0 0.0
0.0 0.0 0.0 0.0 0.0 0.0 0.0 0.0
0.0 0.0 0.0 0.0 0.0 0.0 0.0 0.0
0.0 0.0 0.0 0.0 0.0 0.0 0.0 0.0
0.0 0.0 0.0 0.0 0.0 0.0 0.0 0.0
0.0 0.0 0.0 0.0 0.0 0.0 0.0 0.0
00000000: 0000 0000 0000 0000 0000 0000 0000 0000
00000010: 0000 0000 0000 0000 0000 0000 0000 0000
00000020: 0000 0000 0000 0000 0000 0000 0000 0000
00000030: 0000 0000 0000 0000 0000 0000 0000 0000
00000040: 0000 0000 0000 0000 0000 0000 0000 0000
00000050: 0000 0000 0000 0000 0000 0000 0000 0000
00000060: 0000 0000 0000 0000 0000 0000 0000 0000
00000070: 0000 0000 0000 0000 0000 0000 0000 0000
00000080: 0000 0000 0000 0000 0000 0000 0000 0000
00000090: 0000 0000 0000 0000 0000 0000 0000 0000
000000a0: 0000 0000 0000 0000 0000 0000 0000 0000
000000b0: 0000 0000 0000 0000 0000 0000 0000 0000
000000c0: 0000 0000 0000 0000 0000 0000 0000 0000
000000d0: 0000 0000 0000 0000 0000 0000 0000 0000
000000e0: 0000 0000 0000 0000 0000 0000 0000 0000
000000f0: 0000 0000 0000 0000 0000 0000 0000 0000
00000100: 0000 0000 0000 0000 0000 0000 0000 0000
00000110: 0000 0000 0000 0000 0000 0000 0000 0000
00000120: 0000 0000 0000 0000 0000 0000 0000 0000
00000130: 0000 0000 0000 0000 0000 0000 0000 0000
00000140: 0000 0000 0000 0000 0000 0000 0000 0000
00000150: 0000 0000 0000 0000 0000 0000 0000 0000
00000160: 0000 0000 0000 0000 0000 0000 0000 0000
00000170: 0000 0000 0000 0000 0000 0000 0000 0000
00000180: 0000 0000 0000 0000 0000 0000 0000 0000
00000190: 0000 0000 0000 0000 0000 0000 0000 0000
000001a0: 0000 0000 0000 0000 0000 0000 0000 0000
000001b0: 0000 0000 0000 0000 0000 0000 0000 0000
000001c0: 0000 0000 0000 0000 0000 0000 0000 0000
000001d0: 0000 0000 0000 0000 0000 0000 0000 0000
000001e0: 0000 0000 0000 0000 0000 0000 0000 0000
000001f0: 0000 0000 0000 0000 0000 0000 0000 0000
00000200: 0000 0000 0000 0000 0000 0000 0000 0000
00000210: 0000 0000 0000 0000 0000 0000 0000 0000
00000220: 0000 0000 0000 0000 0000 0000 0000 0000
00000230: 0000 0000 0000 0000 0000 0000 0000 0000
00000240: 0000 0000 0000 0000 0000 0000 0000 0000
00000250: 0000 0000 0000 0000 0000 0000 0000 0000
00000260: 0000 0000 0000 0000 0000 0000 0000 0000
00000270: 0000 0000 0000 0000 0000 0000 0000 0000
00000280: 0000 0000 0000 0000 0000 0000 0000 0000
00000290: 0000 0000 0000 0000 0000 0000 0000 0000
000002a0: 0000 0000 0000 0000 0000 0000 0000 0000
000002b0: 0000 0000 0000 0000 0000 0000 0000 0000
000002c0: 0000 0000 0000 0000 0000 0000 0000 0000
000002d0: 0000 0000 0000 0000 0000 0000 0000 0000
000002e0: 0000 0000 0000 0000 0000 0000 0000 0000
000002f0: 0000 0000 0000 0000 0000 0000 0000 0000
00000300: 0000 0000 0000 0000 0000 0000 0000 0000
00000310: 0000 0000 0000 0000 0000 0000 0000 0000
00000320: 0000 0000 0000 0000 0000 0000 0000 0000
00000330: 0000 0000 0000 0000 0000 0000 0000 0000
00000340: 0000 0000 0000 0000 0000 0000 0000 0000
00000350: 0000 0000 0000 0000 0000 0000 0000 0000
00000360: 0000 0000 0000 0000 0000 0000 0000 0000
00000370: 0000 0000 0000 0000 0000 0000 0000 0000
00000380: 0000 0000 0000 0000 0000 0000 0000 0000
00000390: 0000 0000 0000 0000 0000 0000 0000 0000
000003a0: 0000 0000 0000 0000 0000 0000 0000 0000
000003b0: 0000 0000 0000 0000 0000 0000 0000 0000
000003c0: 0000 0000 0000 0000 0000 0000 0000 0000
000003d0: 0000 0000 0000 0000 0000 0000 0000 0000
000003e0: 0000 0000 0000 0000 0000 0000 0000 0000
000003f0: 0000 0000 0000 0000 0000 0000 0000 0000
