test_dataset/gait_809/20250819_c2_a2_Take1/split_subjects/0/fit-smplx/smplx-params_cut.npz (npz, 42882 bytes, 10 tensors)

betas f4 [82, 11]
0.6695865 -1.7413428 1.1685971 -0.55920523 -0.82932866 -0.10134246 -0.42341307 1.5623777
0.15795583 0.085123464 0.36409652 0.65077066 -1.7239848 1.2068844 -0.51856834 -0.91134447
-0.077992916 -0.4303318 1.5713496 0.2404094 0.07960005 0.3658392 0.6820055 -1.6954404
1.1855407 -0.46555755 -0.86253256 -0.028768498 -0.5145448 1.5746422 0.2503965 0.09976143
0.3661946 0.6586651 -1.6776128 1.1798255 -0.5312652 -0.7997328 -0.044112287 -0.5450382
1.6186563 0.21921095 0.12243856 0.36350363 0.63989687 -1.5362822 1.0076686 -0.6546951
-0.6972173 0.035506945 -0.53677684 1.5658808 0.26598984 0.09477968 0.3675427 0.62691057
-1.5832587 1.004255 -0.66559196 -0.6956814 0.07688155 -0.5422974 1.6928961 0.37663665
0.097646736 0.36398697 0.6496556 -1.5364664 0.9327336 -0.68475175 -0.6687697 0.0832844
-0.56398624 1.7785218 0.37372994 0.12128675 0.36757362 0.6730744 -1.5519621 1.0038712
-0.7637412 -0.6855823 0.0021248525 -0.51347256 1.8270261 0.45747194 0.14583348 0.37229988
0.69519025 -1.5248464 0.9711621 -0.77458733 -0.6702498 -0.028137004 -0.5035299 1.6344814
0.4866774 0.15757418 0.3754465 0.7293073 -1.4409759 1.0068187 -0.8817685 -0.6309216
-0.116556995 -0.45671025 1.4748944 0.47957593 0.17013763 0.38275754 0.7178563 -1.413034
0.9397336 -0.8581264 -0.5300181 -0.16915913 -0.47341052 1.3857964 0.40197265 0.15249963
0.38193303 0.72857434 -1.4174482 0.9760648 -0.87119454 -0.5381307 -0.24825291 -0.43506926
1.1334158 0.41158062 0.12133728 0.3804163 0.7308802 -1.5239991 1.0129375 -0.78403753
-0.5842704 -0.23826465 -0.49739543 1.175215 0.37076575 0.14754269 0.37440112 0.7187349
-1.606737 0.92879856 -0.6157695 -0.6149627 -0.18176942 -0.519769 1.1699318 0.2626142
0.12821607 0.36763588 0.78974456 -1.8761197 0.94359094 -0.43004167 -0.9451979 -0.009256492
-0.8158159 1.4104773 0.01866582 0.12657657 0.35499942 0.79298 -2.14345 1.1010356
-0.18119761 -1.200813 0.07996452 -0.93673223 1.6588789 -0.04902334 0.18468538 0.34351015
0.74270624 -2.0413837 1.0913838 -0.21803416 -0.97479993 0.0058982647 -0.6159807 1.5558597
-0.052705705 0.17792355 0.35651514 0.72146237 -1.8849854 0.9654618 -0.37837893 -0.78940296
-0.033452433 -0.5774898 1.3561829 -0.033424765 0.1309956 0.3639598 0.6992397 -1.709559
0.7720793 -0.45698404 -0.6225917 0.008843071 -0.6191032 1.2446604 0.032304585 0.15306072
0.36200675 0.6945721 -1.6029502 0.8361165 -0.610807 -0.56025267 -0.03557492 -0.6423526
1.4234519 0.19534874 0.18004148 0.36630243 0.66622084 -1.461058 0.8689951 -0.791284
-0.41196173 -0.12649405 -0.42866772 1.3772161 0.371592 0.14383987 0.37134898 0.6408409
-1.3943641 0.79960096 -0.8598153 -0.36200452 -0.17874146 -0.37434348 1.211878 0.45627403
0.13207114 0.3694983 0.61245036 -1.2738811 0.65869904 -1.0104479 -0.29709318 -0.27441654
-0.3775357 1.0571241 0.46192405 0.13118349 0.36660013 0.58848184 -1.3254541 0.74007994
00000000: 056a 2b3f 52e4 debf 9794 953f 1328 0fbf
00000010: e24e 54bf a38c cfbd 99c9 d8be fefb c73f
00000020: 2cbf 213e 3655 ae3d dc6a ba3e e898 263f
00000030: 89ab dcbf 307b 9a3f e5c0 04bf df4d 69bf
00000040: c0ba 9fbd 7354 dcbe fc21 c93f e22d 763e
00000050: 5a05 a33d 474f bb3e ea97 2e3f 3104 d9bf
00000060: ccbf 973f 8f5d eebe efce 5cbf eaab ebbc
00000070: 35b9 03bf e08d c93f f833 803e b84f cc3d
00000080: dc7d bb3e 479e 283f 04bc d6bf 8604 973f
00000090: ff00 08bf 4abb 4cbf 16af 34bd a087 0bbf
000000a0: 2130 cf3f d678 603e 11c1 fa3d 261d ba3e
000000b0: 48d0 233f e5a4 c4bf 49fb 803f 199a 27bf
000000c0: d57c 32bf bb6f 113d 356a 09bf c86e c83f
000000d0: d22f 883e d91b c23d 8f2e bc3e 367d 203f
000000e0: 39a8 cabf 6e8b 803f 3c64 2abf 2d18 32bf
000000f0: 1374 9d3d 01d4 0abf d2b0 d83f 85d6 c03e
00000100: 03fb c73d 805c ba3e d44f 263f eeaa c4bf
00000110: a1c7 6e3f e44b 2fbf 7e34 2bbf 0391 aa3d
00000120: 6761 10bf 9aa6 e33f 8859 bf3e 3065 f83d
00000130: 9c32 bc3e 9b4e 2c3f b2a6 c6bf da7e 803f
00000140: 8b84 43bf 5282 2fbf 1c41 0b3b f072 03bf
00000150: fedb e93f c339 ea3e 5f55 153e 179e be3e
00000160: fdf7 313f 2b2e c3bf 149e 783f 5b4b 46bf
00000170: 7e95 2bbf 937f e6bc 56e7 00bf b036 d13f
00000180: c82d f93e 205b 213e 863a c03e e2b3 3a3f
00000190: e671 b8bf 6fdf 803f 95bb 61bf 1484 21bf
000001a0: 6fb5 eebd edd5 e9be 57c9 bc3f fa8a f53e
000001b0: 8f38 2e3e ccf8 c33e 6ec5 373f 4cde b4bf
000001c0: 6292 703f 2cae 5bbf 44af 07bf 0d38 2dbe
000001d0: dd62 f2be c761 b13f 5ccf cd3e dd28 1c3e
000001e0: ba8c c33e d983 3a3f f16e b5bf 62df 793f
000001f0: 9b06 5fbf efc2 09bf 0336 7ebe 66c1 debe
00000200: c513 913f b2ba d23e ae7f f83d edc5 c23e
00000210: f71a 3b3f 6712 c3bf f0a7 813f afb6 48bf
00000220: bf92 15bf a6fb 73be 9daa febe 726d 963f
00000230: 02d5 bd3e 6e15 173e 81b1 bf3e 03ff 373f
00000240: 8fa9 cdbf bec5 6d3f 12a3 1dbf 326e 1dbf
00000250: c321 3abe 950f 05bf 53c0 953f 5e75 863e
00000260: 134b 033e c53a bc3e b32c 4a3f b124 f0bf
00000270: 2d8f 713f 6c2e dcbe 7df8 71bf 8ba8 17bc
00000280: 50d9 50bf 858a b43f 10e9 983c 4a9d 013e
00000290: 7cc2 b53e bd00 4b3f 492e 09c0 bcee 8c3f
000002a0: de8b 39be 3eb4 99bf 70c4 a33d afcd 6fbf
000002b0: 2556 d43f b3cc 48bd 2a1e 3d3e 90e0 af3e
000002c0: ff21 3e3f 08a6 02c0 77b2 8b3f 5944 5fbe
000002d0: 7d8c 79bf 3b46 c13b e9b0 1dbf 6926 c73f
000002e0: f0e1 57bd 9731 363e 2789 b63e c2b1 383f
000002f0: 3447 f1bf 8128 773f e2ba c1be 5016 4abf
00000300: 6b05 09bd 5fd6 13bf 6797 ad3f 68e8 08bd
00000310: b623 063e f058 ba3e 5f01 333f d4d2 dabf
00000320: fda6 453f d0f9 e9be 2b62 1fbf 87e2 103c
00000330: 8c7d 1ebf 0851 9f3f d051 043d f3bb 1c3e
00000340: f358 b93e 7acf 313f 792d cdbf bb0b 563f
00000350: d95d 1cbf b86c 0fbf 02b7 11bd 3871 24bf
00000360: ac33 b63f 8009 483e cb5c 383e fe8b bb3e
00000370: 738d 2a3f f303 bbbf 7676 5e3f 9791 4abf
00000380: a6ec d2be a887 01be 567a dbbe 9e48 b03f
00000390: 4e41 be3e c24a 133e 7421 be3e 260e 243f
000003a0: 867a b2bf a6b2 4c3f db1c 5cbf a858 b9be
000003b0: 0008 37be f3a9 bfbe d11e 9b3f c09c e93e
000003c0: a83d 073e e22e bd3e 8cc9 1c3f 890e a3bf
000003d0: 80a0 283f 5b56 81bf 991c 98be 5380 8cbe
000003e0: 5c4c c1be d84f 873f 4f81 ec3e f754 063e
000003f0: 03b3 bb3e bfa6 163f 7ba8 a9bf e175 3d3f

global_orient f4 [82, 3]
-0.021733012 -2.9425461 -0.011760998 -0.035811845 -2.9456046 -0.029700847 -0.029715467 -2.9443996
-0.044789243 -0.008052706 -2.9445763 -0.04908487 0.0020552787 -2.898049 -0.045478214 0.027994994
-2.8605976 -0.039177287 0.04211979 -2.79559 -0.035826482 0.06653248 -2.739174 -0.03381847
0.098334886 -2.728037 -0.033204544 0.12575704 -2.7071733 -0.027090415 0.14708929 -2.682964
-0.017511968 0.14673229 -2.641197 -0.008449818 0.14222965 -2.5852585 -0.002496846 0.13267213
-2.547717 0.0056606317 0.09425204 -2.4927561 -0.014732192 0.07312859 -2.4715908 -0.025722172
0.0471074 -2.4749622 -0.037073176 -0.0039005373 -2.4440997 -0.05199967 -0.016956098 -2.4559953
-0.07713381 -0.021743951 -2.4430394 -0.09237754 -0.03036566 -2.4186742 -0.097361855 -0.030022524
-2.4288542 -0.09460392 -0.024666708 -2.4716892 -0.0762435 -0.024966966 -2.5629284 -0.058846835
-0.031056494 -2.6656687 -0.04746903 -0.04856055 -2.7614355 -0.037168287 -0.061615814 -2.8639102
-0.036447324 -0.072600015 -2.9286706 -0.03953202 -0.094375834 -2.9589248 -0.06585026 -0.11849601
-2.956957 -0.09466865 -0.13389787 -2.9670653 -0.1249286 -0.14385383 -2.980758 -0.15007101
-0.14096624 -2.977789 -0.17159027 -0.13804401 -2.9264007 -0.18528794 -0.12603116 -2.9080546
-0.20786059 -0.096019566 -2.907941 -0.21001427 -0.06668414 -2.9284425 -0.19491898 -0.015176071
-2.9227254 -0.17182642 0.014330926 -2.919528 -0.1394439 0.032995384 -2.9167423 -0.11621748
0.03013398 -2.8809166 -0.10360556 0.014896814 -2.831069 -0.10691935 -0.0001748431 -2.7767353
-0.11249617 -0.006212877 -2.7441456 -0.13461256 -0.015340006 -2.7525074 -0.15687068 -0.019262953
-2.7605336 -0.16766937 -0.04031604 -2.7815814 -0.17258368 -0.07037143 -2.8084705 -0.19472699
-0.089159004 -2.8492327 -0.19533584 -0.10610306 -2.8903718 -0.19833528 -0.13542949 -2.9286654
-0.19829664 -0.14897227 -2.9646728 -0.19190371 -0.17750992 -3.002918 -0.17617589 -0.19912836
-3.0460813 -0.1576895 -0.21730712 -3.086781 -0.14505665 -0.23106374 -3.1429076 -0.1339562
-0.22610542 -3.1948724 -0.11972422 -0.21990354 -3.253349 -0.1075987 -0.21059325 -3.2992363
-0.11072929 -0.19857158 -3.3168852 -0.14258969 -0.19451895 -3.3106978 -0.17096673 -0.17552045
-3.3291297 -0.20848052 -0.14668985 -3.3057754 -0.22676222 -0.10860322 -3.282858 -0.24383749
-0.07035543 -3.2497609 -0.2604782 0.0028353916 -3.1891418 -0.28246427 0.03200613 -3.1584597
-0.288794 0.06584432 -3.1446316 -0.28377208 0.08882043 -3.1104856 -0.26560292 0.10112152
-3.08595 -0.25390375 0.13161741 -3.033043 -0.24513128 0.12865552 -2.986234 -0.2353988
0.12471653 -2.9106345 -0.23112926 0.11383269 -2.8567934 -0.23115711 0.117302515 -2.7962754
-0.23695247 0.10298858 -2.7647834 -0.2512361 0.09042453 -2.7541213 -0.26838005 0.062093843
-2.7054715 -0.27862078 0.03428814 -2.6687489 -0.28960148 0.007757636 -2.6688235 -0.30244994
-0.013335866 -2.6648884 -0.3132176 -0.029762616 -2.6695268 -0.31632912
00000000: 6e09 b2bc ad52 3cc0 33b1 40bc 71af 12bd
00000010: c984 3cc0 314f f3bc da6d f3bc 0b71 3cc0
00000020: ed74 37bd 7fef 03bc f073 3cc0 370d 49bd
00000030: dbb1 063b a379 39c0 5d47 3abd c255 e53c
00000040: 0814 37c0 5d78 20bd cd85 2c3d f2ea 32c0
00000050: cabe 12bd 2e42 883d a04e 2fc0 3c85 0abd
00000060: cd63 c93d 2998 2ec0 7d01 08bd 74c6 003e
00000070: 5442 2dc0 b8ec ddbc 939e 163e afb5 2bc0
00000080: 4275 8fbc fd40 163e 5f09 29c0 1b71 0abc
00000090: a6a4 113e e074 25c0 20a2 23bb 34db 073e
000000a0: cc0d 23c0 d27c b93b 3707 c13d 5189 1fc0
000000b0: 4b5f 71bc 71c4 953d 8b2e 1ec0 4eb7 d2bc
000000c0: b0f3 403d c865 1ec0 0bda 17bd 28a0 7fbb
000000d0: 216c 1cc0 9bfd 54bd 84e7 8abc 072f 1dc0
000000e0: 55f8 9dbd 5f20 b2bc c25a 1cc0 7030 bdbd
000000f0: 68c1 f8bc 8fcb 1ac0 a765 c7bd ccf1 f5bc
00000100: 5972 1bc0 b3bf c1bd d611 cabc 2830 1ec0
00000110: 8d25 9cbd 8687 ccbc 0507 24c0 6109 71bd
00000120: 306a febc 519a 2ac0 e36e 42bd 6de7 46bd
00000130: 5cbb 30c0 c63d 18bd dd60 7cbd 4e4a 37c0
00000140: ca49 15bd 51af 94bd 576f 3bc0 54ec 21bd
00000150: 1e48 c1bd 065f 3dc0 80dc 86bd 09ae f2bd
00000160: c93e 3dc0 a3e1 c1bd 861c 09be 66e4 3dc0
00000170: 91da ffbd 6b4e 13be bdc4 3ec0 37ac 19be
00000180: 7459 10be 1894 3ec0 5cb5 2fbe 695b 0dbe
00000190: 264a 3bc0 1fbc 3dbe 500e 01be 911d 3ac0
000001a0: 68d9 54be e8a5 c4bd b51b 3ac0 fb0d 57be
000001b0: b291 88bd 9a6b 3bc0 d798 47be 0ea5 78bc
000001c0: ef0d 3bc0 44f3 2fbe 43cc 6a3c 8cd9 3ac0
000001d0: 62ca 0ebe 2b26 073d e8ab 3ac0 6e03 eebd
000001e0: 89db f63c f060 38c0 272f d4bd c411 743c
000001f0: 3c30 35c0 88f8 dabd 1656 37b9 08b6 31c0
00000200: 6464 e6bd 6495 cbbb 15a0 2fc0 e0d7 09be
00000210: a654 7bbc 1529 30c0 b5a2 20be 57cd 9dbc
00000220: 95ac 30c0 85b1 2bbe 6f22 25bd 6e05 32c0
00000230: c7b9 30be e51e 90bd fbbd 33c0 8366 47be
00000240: ff98 b6bd d459 36c0 1e06 48be 904c d9bd
00000250: dafb 38c0 6718 4bbe 07ae 0abe 416f 3bc0
00000260: 460e 4bbe 308c 18be 33bd 3dc0 6882 44be
00000270: 29c5 35be cf2f 40c0 7467 34be 4ee8 4bbe
00000280: fff2 42c0 5b79 21be c285 5ebe d28d 45c0
00000290: bb89 14be f99b 6cbe 6625 49c0 d02b 09be
000002a0: 2e88 67be ca78 4cc0 f931 f5bd 652e 61be
000002b0: df36 50c0 b55c dcbd c2a5 57be b026 53c0
000002c0: 0ac6 e2bd 5956 4bbe d947 54c0 0803 12be
000002d0: fa2f 47be 79e2 53c0 e711 2fbe a2bb 33be
000002e0: 7610 55c0 eb7b 55be dd35 16be d391 53c0
000002f0: 5b34 68be 5d6b debd 581a 52c0 89b0 79be
00000300: 8216 90bd 15fc 4fc0 665d 85be fad1 393b
00000310: e61a 4cc0 289f 90be dc18 033d 3424 4ac0
00000320: cfdc 93be 63d9 863d a541 49c0 934a 91be
00000330: 7ce7 b53d 3212 47c0 1bfd 87be cd18 cf3d
00000340: 3480 45c0 acff 81be b7c6 063e 601d 42c0
00000350: b203 7bbe 46be 033e 751e 3fc0 620c 71be
00000360: 616b ff3d d647 3ac0 26ad 6cbe 1d21 e93d
00000370: b4d5 36c0 73b4 6cbe 4d3c f03d 2df6 32c0
00000380: aba3 72be adeb d23d 36f2 30c0 05a2 80be
00000390: 7f30 b93d 8643 30c0 1c69 89be 1d56 7e3d
000003a0: 7226 2dc0 62a7 8ebe b871 0c3d c8cc 2ac0
000003b0: a546 94be c433 fe3b 01ce 2ac0 b8da 9abe
000003c0: ad7e 5abc 888d 2ac0 0f5e a0be bbd0 f3bc
000003d0: 87d9 2ac0 e4f5 a1be

body_pose f4 [82, 63]
-0.5751219 -0.08517815 0.10503832 -0.13981988 -0.069075435 -0.17546888 0.14037381 -0.032805458
0.012016911 0.62418336 0.0555328 0.11986908 0.6268043 0.04002686 -0.10944917 -0.016210333
0.05272486 -0.13356186 0.0298355 -0.0031721382 -0.014170195 -0.40247506 -0.16192938 0.54815185
0.14085858 0.16343713 -0.054138694 1.4754799e-05 -1.4617948e-05 -1.4201708e-05 1.5549114e-05 1.6346792e-05
-1.4846396e-05 -0.15061681 0.10115348 -0.07057592 0.00018266763 0.1557681 -0.37101364 0.06485739
-0.085816495 0.25754473 -0.17334653 0.01998164 -0.095245555 0.07226913 -0.09510664 -0.67006695
0.120610595 0.15988757 0.5196278 0.17635049 -0.60389566 -0.21872577 0.07838447 0.99536794
0.32020503 0.21912338 0.081325896 -0.022498317 0.20226875 -0.050874583 0.17927451 -0.54953843
-0.070880614 0.058343433 -0.07645349 0.0065345145 -0.20266409 0.13432316 0.0019770295 -3.9590795e-05
0.6874347 0.106712 0.1366213 0.58069474 0.07200624 -0.06341636 -0.010482219 0.0508695
-0.14308691 -0.025378687 0.0313204 -0.03894229 -0.3930244 -0.1942603 0.43136334 0.15582825
0.14135459 -0.036352552 1.4726964e-05 -1.4656046e-05 1.6087111e-05 1.4956384e-05 1.6044005e-05 -1.4913665e-05
-0.14332595 0.11952335 -0.043972768 -0.0019589877 0.13429862 -0.39896026 0.058935747 -0.061581675
0.2909562 -0.16984427 0.056817647 -0.084442884 0.050452404 -0.10160914 -0.6433231 0.1178588
0.17748816 0.5090308 0.13352194 -0.59352076 -0.2315674 0.100213654 0.9897765 0.2913801
0.16725834 0.12886445 -0.029586704 0.19012062 -0.03917109 0.22371393 -0.5116798 -0.08554655
0.03349405 -0.008431352 -0.046935495 -0.21282363 0.12786673 0.022387166 -0.0042293966 0.7411473
0.1251477 0.13797854 0.56560683 0.068314284 -0.121270545 -0.01322039 0.05165084 -0.13496196
-0.12004291 0.07788927 -0.03395818 -0.27947474 -0.1597918 0.40460613 0.17038345 0.13760978
-0.025495134 1.5271617e-05 -1.430791e-05 1.6040769e-05 1.5504465e-05 1.6356018e-05 -1.5019451e-05 -0.13461584
0.13914086 -0.017136319 -0.0021405409 0.1222194 -0.390094 0.044494376 -0.08256825 0.28730965
-0.16175178 0.07727931 -0.07657929 0.08049804 -0.10821516 -0.6475043 0.112027295 0.1765961
0.5320202 0.1612298 -0.5919575 -0.21774863 0.079812504 1.0086154 0.309272 0.17932281
0.09057129 -0.07596732 0.18985116 -0.061368797 0.19171359 -0.46790352 -0.09789063 0.015899733
-0.01149525 -0.09162828 -0.18438664 0.12260726 0.042786136 0.0054886723 0.75722635 0.100263976
0.14293441 0.6149822 0.025931459 -0.21353368 -0.013734445 0.0574021 -0.12499739 -0.19692479
0.060276963 -0.07006542 -0.16476484 -0.13238183 0.30649334 0.15952188 0.13221182 -0.022652466
1.5490195e-05 -1.4305669e-05 1.610779e-05 1.5807575e-05 1.6179907e-05 -1.5219703e-05 -0.110969424 0.15993494
0.0054295324 0.006611559 0.1033801 -0.39429504 0.033011563 -0.1102728 0.27382657 -0.15766509
0.08552958 -0.053784065 0.07799003 -0.110525705 -0.6413469 0.10569568 0.17180339 0.57714194
0.15422842 -0.57265556 -0.2254165 0.10496957 1.0496588 0.2965216 0.20581253 0.05070994
-0.0824302 0.21782085 -0.12660575 0.19953908 -0.40136528 -0.0838772 -0.040669195 0.037172873
00000000: 303b 13bf e271 aebd 551e d73d f12c 0fbe
00000010: 6c77 8dbd 1dae 33be 27be 0f3e 045f 06bd
00000020: 94e2 443c 7bca 1f3f 5c76 633d ec7d f53d
00000030: 3f76 203f 34f3 233d e326 e0bd 88cb 84bc
00000040: 06f6 573d 71c4 08be 9469 f43c a6e3 4fbb
00000050: 1b2a 68bc 3611 cebe d1d0 25be ae53 0c3f
00000060: 3b3d 103e 105c 273e 89c0 5dbd 618b 7737
00000070: 9c3f 75b7 df43 6eb7 786f 8237 7820 8937
00000080: c914 79b7 4b3b 1abe 8e29 cf3d 1c8a 90bd
00000090: 788a 3f39 ac81 1f3e 80f5 bdbe f4d3 843d
000000a0: 8fc0 afbd e7dc 833e c181 31be 89b0 a33c
000000b0: 1a10 c3bd d601 943d 45c7 c2bd 8289 2bbf
000000c0: b002 f73d 91b9 233e 5406 053f 3995 343e
000000d0: e898 1abf a6f9 5fbe 0988 a03d 6fd0 7e3f
000000e0: eaf1 a33e e161 603e 318e a63d 644e b8bc
000000f0: 8a1f 4f3e de61 50bd bd93 373e 8dae 0cbf
00000100: db29 91bd 86f9 6e3d a693 9cbd 7b1f d63b
00000110: 2d87 4fbe 038c 093e 0d91 013b 4b0e 26b8
00000120: b8fb 2f3f d28b da3d 74e6 0b3e 69a8 143f
00000130: 0278 933d 70e0 81bd 9dbd 2bbc 895c 503d
00000140: 6085 12be f7e6 cfbc d249 003d f381 1fbd
00000150: 7f3a c9be 2cec 46be a8db dc3e 7191 1f3e
00000160: 42bf 103e 6ae6 14bd d413 7737 3de3 75b7
00000170: cff2 8637 2eed 7a37 3d96 8637 b435 7ab7
00000180: 0ac4 12be a8c8 f43d ca1c 34bd 5c62 00bb
00000190: 9485 093e 8544 ccbe 9c66 713d 113d 7cbd
000001a0: 36f8 943e a8eb 2dbe 9fb9 683d 64f0 acbd
000001b0: 2ea7 4e3d 7418 d0bd d3b0 24bf f45f f13d
000001c0: 75bf 353e d84f 023f fab9 083e faf0 17bf
000001d0: 0120 6dbe d13c cd3d fe61 7d3f c62f 953e
000001e0: c545 2b3e 0bf5 033e d15f f2bc fbae 423e
000001f0: dd71 20bd 4415 653e 73fd 02bf 0833 afbd
00000200: 0f31 093d a723 0abc 6f3f 40bd 70ee 59be
00000210: 7fef 023e 4a65 b73c c096 8abb d4bb 3d3f
00000220: b826 003e 3f4a 0d3e 9ccb 103f 5ce8 8b3d
00000230: b15c f8bd 569a 58bc d58f 533d 7833 0abe
00000240: 0fd9 f5bd 6984 9f3d bc17 0bbd 5017 8fbe
00000250: 76a0 23be 8928 cf3e 0079 2e3e 94e9 0c3e
00000260: 2cdb d0bc 8c1b 8037 010c 70b7 4a8f 8637
00000270: 960f 8237 4834 8937 0dfc 7bb7 bcd8 09be
00000280: f17a 0e3e 7761 8cbc 5148 0cbb 2a4e fa3d
00000290: 67ba c7be bc3f 363d 8b19 a9bd 401a 933e
000002a0: 42a2 25be 9d44 9e3d 9ad5 9cbd 28dc a43d
000002b0: e99f ddbd d8c2 25bf 916e e53d 9cd5 343e
000002c0: 7a32 083f 6d19 253e 878a 17bf 7ff9 5ebe
000002d0: bd74 a33d 4f1a 813f e658 9e3e 66a0 373e
000002e0: 717d b93d c194 9bbd 5868 423e d95d 7bbd
000002f0: 9150 443e 0d91 efbe e27a c8bd 2840 823c
00000300: 9356 3cbc 9ca7 bbbd dacf 3cbe 8419 fb3d
00000310: 8440 2f3d 52da b33b 96d9 413f 3357 cd3d
00000320: 665d 123e 796f 1d3f 366e d43c 93a8 5abe
00000330: 7006 61bc 771e 6b3d a2fe ffbd a7a6 49be
00000340: fae4 763d 757e 8fbd 1db8 28be 1a8f 07be
00000350: b2ec 9c3e b459 233e 8962 073e aa91 b9bc
00000360: f1f0 8137 6102 70b7 371f 8737 829a 8437
00000370: 16ba 8737 2058 7fb7 f043 e3bd fcc5 233e
00000380: 38ea b13b c7a5 d83b f2b8 d33d 0ae1 c9be
00000390: 2237 073d b5d6 e1bd ff32 8c3e f572 21be
000003a0: 222a af3d ae4c 5cbd 3db9 9f3d 4d5b e2bd
000003b0: 4f2f 24bf fa76 d83d 3aed 2f3e 93bf 133f
000003c0: 0eee 1d3e 8e99 12bf 95d3 66be 49fa d63d
000003d0: 385b 863f aed1 973e 85c0 523e 3ab5 4f3d
000003e0: 2ad1 a8bd 6e0c 5f3e f0a4 01be f953 4c3e
000003f0: c07f cdbe cfc7 abbd be94 26bd 9542 183d

transl f4 [82, 3]
0.47085556 1.3115377 1.1182443 0.4467787 1.3078489 1.0932047 0.4228389 1.3041096
1.0682217 0.3998298 1.3030651 1.0447873 0.37512124 1.3076705 1.0195148 0.3540797
1.3126391 0.99828595 0.33427563 1.3194882 0.97843236 0.31558242 1.325251 0.9584118
0.29947868 1.3305401 0.93782395 0.28239948 1.3333738 0.916571 0.26552588 1.3348461
0.89561564 0.24808066 1.3339685 0.8719388 0.22994147 1.3311511 0.84642744 0.2103522
1.3288524 0.81872046 0.18735568 1.322124 0.7846324 0.1641083 1.3137295 0.7523077
0.13801812 1.3097459 0.7191807 0.110597126 1.3043903 0.68364227 0.08709295 1.29842
0.6492252 0.06627667 1.2950897 0.6169344 0.048271406 1.2977186 0.58843744 0.031022482
1.3017628 0.5624807 0.01648712 1.3073786 0.53810203 0.00022974495 1.3127475 0.51310354
-0.01757054 1.3166572 0.48820493 -0.036332045 1.3194737 0.46199912 -0.057482537 1.3205731
0.43486616 -0.081100866 1.3209211 0.40738818 -0.10621846 1.3211797 0.37646723 -0.13275194
1.3191231 0.34368294 -0.1592759 1.3149147 0.30998936 -0.18374932 1.309633 0.27650058
-0.20505293 1.3068048 0.24636468 -0.22314243 1.3073411 0.21699114 -0.23856334 1.3091657
0.19041954 -0.24956384 1.3142271 0.1662684 -0.25729826 1.3185582 0.14222102 -0.26293135
1.3229669 0.11852967 -0.26696193 1.325961 0.094716854 -0.27018422 1.3277863 0.06925048
-0.27194875 1.3266689 0.041616783 -0.27317682 1.3221813 0.009816249 -0.2756378 1.3155435
-0.020532234 -0.2769866 1.3110193 -0.055904426 -0.27700287 1.3072752 -0.09395777 -0.2761733
1.305067 -0.13324168 -0.2752923 1.3042519 -0.170852 -0.2731031 1.3109 -0.20826948
-0.27108124 1.3173738 -0.23776986 -0.27005723 1.3222532 -0.26658738 -0.26879495 1.3267874
-0.29240945 -0.26876146 1.3301483 -0.31711507 -0.26947224 1.3328564 -0.33906597 -0.2720417
1.3376876 -0.3610101 -0.27642503 1.3369187 -0.38304725 -0.28291476 1.335664 -0.40627584
-0.29161945 1.3337147 -0.43144235 -0.302292 1.3321352 -0.45850807 -0.31514543 1.3304161
-0.4877702 -0.33098418 1.3269931 -0.5229876 -0.3445628 1.3200476 -0.55627984 -0.3598971
1.313315 -0.5933633 -0.37447956 1.3125495 -0.6284946 -0.38976198 1.3118465 -0.66214436
-0.40387225 1.317389 -0.6889143 -0.4148493 1.3209232 -0.71166784 -0.4236662 1.3286319
-0.73171383 -0.43049455 1.334109 -0.7507754 -0.43630224 1.3388209 -0.7689936 -0.4408927
1.3418126 -0.7872995 -0.44539192 1.3420781 -0.80671805 -0.44813603 1.3415953 -0.8269342
-0.45117143 1.3393793 -0.84875613 -0.45471752 1.338687 -0.87178284 -0.4567083 1.335538
-0.8974736 -0.45885855 1.3337508 -0.9250135 -0.46041298 1.3305513 -0.9559499 -0.4615452
1.3277848 -0.9871428 -0.46447426 1.3246468 -1.0186297 -0.46749464 1.3220775 -1.0506628
-0.47040862 1.3208752 -1.0788229 -0.47315294 1.3230586 -1.1038516
00000000: fb13 f13e 78e0 a73f a122 8f3f 2ec0 e43e
00000010: 9867 a73f 22ee 8b3f 577e d83e 10ed a63f
00000020: 7dbb 883f 7eb6 cc3e d6ca a63f 97bb 853f
00000030: e40f c03e bf61 a73f 767f 823f ef49 b53e
00000040: 8f04 a83f ab8f 7f3f 2d26 ab3e fde4 a83f
00000050: 8b7a 7a3f 0594 a13e d3a1 a93f 7a5a 753f
00000060: 4555 993e 234f aa3f 3b15 703f aa96 903e
00000070: feab aa3f 66a4 6a3f 02f3 873e 3ddc aa3f
00000080: 1147 653f db08 7e3e 7bbf aa3f 6237 5f3f
00000090: c775 6b3e 2963 aa3f 78af 583f 9166 573e
000000a0: d617 aa3f aa97 513f 2bda 3f3e 5c3b a93f
000000b0: abdd 483f 020c 283e 4a28 a83f 3d97 403f
000000c0: 9f54 0d3e c1a5 a73f 3a1c 383f bf80 e23d
000000d0: 43f6 a63f 2e03 2f3f ca5d b23d a032 a63f
000000e0: 9f33 263f 10bc 873d 80c5 a53f 6aef 1d3f
000000f0: 3db8 453d a51b a63f d6a3 163f dc22 fe3c
00000100: 2aa0 a63f bcfe 0f3f ff0f 873c 2f58 a73f
00000110: 0ec1 093f b1e7 7039 1c08 a83f c15a 033f
00000120: 18f0 8fbc 3988 a83f fff5 f93e e9d0 14bd
00000130: 84e4 a83f 268b ec3e cf72 6bbd 8a08 a93f
00000140: c7a6 de3e 3618 a6bd f113 a93f 2f95 d03e
00000150: 1089 d9bd 6b1c a93f 50c0 c03e 20f0 07be
00000160: 07d9 a83f 36f7 af3e 3919 23be 204f a83f
00000170: edb6 9e3e c828 3cbe 0ea2 a73f 7c91 8d3e
00000180: 65f9 51be 6145 a73f 0647 7c3e 737f 64be
00000190: f456 a73f ed32 5e3e f349 74be be92 a73f
000001a0: 57fd 423e aa8d 7fbe 9838 a83f 4342 2a3e
000001b0: 99bc 83be 84c6 a83f 63a2 113e f09e 86be
000001c0: fb56 a93f afbf f23d 3caf 88be 17b9 a93f
000001d0: e9fa c13d 9655 8abe e7f4 a93f 32d3 8d3d
000001e0: de3c 8bbe 49d0 a93f 5c76 2a3d d5dd 8bbe
000001f0: 3d3d a93f 55d4 203c 6620 8dbe bb63 a83f
00000200: 3733 a8bc 30d1 8dbe 7bcf a73f 0afc 64bd
00000210: 52d3 8dbe cb54 a73f ee6c c0bd 9666 8dbe
00000220: 6f0c a73f 8270 08be 1df3 8cbe baf1 a63f
00000230: d4f3 2ebe 2bd4 8bbe 92cb a73f 9844 55be
00000240: 29cb 8abe b49f a83f f179 73be f144 8abe
00000250: 983f a93f 247e 88be 7e9f 89be 2bd4 a93f
00000260: b1b6 95be 1a9b 89be 4d42 aa3f e85c a2be
00000270: 44f8 89be 0a9b aa3f 0e9a adbe 0d49 8bbe
00000280: 5939 ab3f 51d6 b8be 9587 8dbe 2720 ab3f
00000290: c51e c4be 34da 90be 0af7 aa3f 6303 d0be
000002a0: 254f 95be 2ab7 aa3f 03e6 dcbe 04c6 9abe
000002b0: 6883 aa3f 92c1 eabe be5a a1be 134b aa3f
000002c0: 04bd f9be c276 a9be e9da a93f 84e2 05bf
000002d0: 896a b0be 52f7 a83f 5b68 0ebf 6f44 b8be
000002e0: b51a a83f a8e6 17bf c9bb bfbe 9f01 a83f
000002f0: 06e5 20bf e28e c7be 96ea a73f 4b82 29bf
00000300: 58c8 cebe 34a0 a83f b05c 30bf 2167 d4be
00000310: 0314 a93f dd2f 36bf c7ea d8be 9c10 aa3f
00000320: 9951 3bbf c869 dcbe 15c4 aa3f d132 40bf
00000330: 0263 dfbe 7c5e ab3f c4dc 44bf b0bc e1be
00000340: 84c0 ab3f 768c 49bf 690a e4be 37c9 ab3f
00000350: 1385 4ebf 1672 e5be 65b9 ab3f f6b1 53bf
00000360: f1ff e6be c870 ab3f 1548 59bf bcd0 e8be
00000370: 185a ab3f 292d 5fbf acd5 e9be e9f2 aa3f
00000380: d4c0 65bf 82ef eabe 59b8 aa3f afcd 6cbf
00000390: 40bb ebbe 814f aa3f 22b9 74bf a74f ecbe
000003a0: daf4 a93f 64b5 7cbf 92cf edbe 078e a93f
000003b0: 7562 82bf 755b efbe d639 a93f 1e7c 86bf
000003c0: 66d9 f0be 7012 a93f de16 8abf 1a41 f2be
000003d0: fc59 a93f 024b 8dbf

left_hand_pose f4 [82, 12]
0.29305246 0.10946199 0.09997248 -0.4414772 0.2933962 -0.28685835 0.5456988 0.009455901
-0.20321573 -0.77036095 0.35851556 -1.5118753 0.33568317 0.19456403 0.2450678 -0.16348124
0.23309644 -0.33491725 0.31750408 -0.13537933 -0.4394651 -0.72214323 0.34232688 -1.6077724
0.29906633 0.19573924 0.17692885 -0.23519833 0.37967688 -0.36920083 0.35813463 -0.22951454
-0.3150935 -0.9172821 0.5241482 -1.7282894 0.3274025 0.10553285 0.24622923 -0.23548459
0.50080043 -0.3678797 0.35142824 -0.31546804 -0.18886438 -1.0552404 0.5704674 -1.8457122
0.33205098 0.1244771 0.3014015 -0.09740716 0.2816218 -0.49957076 0.5482671 -0.3613443
-0.3432908 -1.0933197 0.5814276 -2.0651517 0.32944384 0.16832973 0.27205074 -0.16740866
0.40574193 -0.34149736 0.4635565 -0.45146722 -0.33286127 -1.0876245 0.48250908 -1.9703048
0.32932934 0.18214169 0.3232916 -9.240813e-06 0.23676625 -0.3460201 0.4399932 -0.35875842
-0.42304143 -0.9764692 0.63574165 -1.980188 0.30296808 0.2168499 0.314082 0.049453143
0.17495006 -0.3088757 0.43068913 -0.39315996 -0.45314768 -0.99935657 0.6910064 -1.9118388
0.23273893 0.2867875 0.22676475 -0.041521892 0.24955074 -0.18092482 0.52397627 -0.39372823
-0.52732944 -1.0195687 0.6251852 -1.9758626 0.23154306 0.18120681 0.20543317 0.039090145
0.10353323 -0.2696277 0.56394756 -0.3019514 -0.43983117 -0.91076875 0.6590298 -1.6585345
0.20129354 0.21791485 0.22936793 0.08986295 0.118397824 -0.27904555 0.3650391 -0.2934854
-0.51637334 -0.9321281 0.7226166 -1.7333194 0.20590672 0.17520374 0.28826162 0.15471888
0.1776259 -0.25627804 0.32702276 -0.29729396 -0.6088936 -0.9095502 0.5620606 -1.6415509
0.21174207 0.17490108 0.23397213 0.1495399 0.19068503 -0.20486212 0.23908326 -0.23788904
-0.64983994 -0.86915016 0.5380187 -1.647869 0.21112584 0.1004995 0.24185368 0.13342042
0.16004263 -0.1577818 0.34372574 -0.28162268 -0.55873215 -0.87671775 0.67150724 -1.65516
0.14976408 0.20644923 0.14165607 0.03931021 0.27046564 -0.07170394 0.25539896 -0.31018057
-0.6801867 -0.8834017 0.764101 -1.7868958 0.16710657 0.14204955 0.17987543 0.083180316
0.26813906 -0.16724615 0.200206 -0.2879309 -0.60033303 -0.8752655 0.6106051 -1.6471268
0.20944811 0.07091232 0.24645588 0.17411679 0.16182351 -0.17983425 0.30374622 -0.21140648
-0.5720527 -0.83659935 0.5415281 -1.4391713 0.23347957 0.010601296 0.2695287 0.2120083
0.10155667 -0.21661323 0.35269764 -0.25329658 -0.6053278 -0.8598021 0.5242849 -1.467737
0.21783648 0.115946494 0.31072968 0.15024365 0.04446026 -0.2775137 0.5472092 -0.35921824
-0.5073334 -0.9224705 0.8121708 -1.8204832 0.18048364 0.20560312 0.24018763 0.06090389
0.05139349 -0.14065407 0.55659825 -0.463466 -0.5860678 -1.0216349 0.65238595 -1.9372401
0.17294468 0.25740996 0.23215798 0.07722269 0.010925998 -0.17382848 0.5083647 -0.47218415
-0.7390183 -1.0273033 0.68322897 -2.1252286 0.118611544 0.41778043 0.0756014 0.012655831
00000000: f90a 963e 9c2d e03d 5fbe cc3d 4d09 e2be
00000010: 0738 963e 19df 92be ebb2 0b3f ecec 1a3c
00000020: c917 50be 6036 45bf 5a8f b73e 2185 c1bf
00000030: aade ab3e cb3b 473e 0ef3 7a3e a067 27be
00000040: d5b0 6e3e 467a abbe e58f a23e e1a0 0abe
00000050: 9201 e1be 61de 38bf 7845 af3e 7ccb cdbf
00000060: 391f 993e de6f 483e d62c 353e d5d7 70be
00000070: 0265 c23e e407 bdbe 6c5d b73e dc05 6bbe
00000080: ef53 a1be 00d3 6abf 942e 063f 9638 ddbf
00000090: 4da1 a73e 9b21 d83d 8423 7c3e df22 71be
000000a0: 7534 003f ba5a bcbe 67ee b33e 0785 a1be
000000b0: aa65 41be 1e12 87bf 270a 123f 4c40 ecbf
000000c0: 9602 aa3e daed fe3d 4c51 9a3e 687d c7bd
000000d0: bc30 903e bdc7 ffbe 3c5b 0c3f 1f02 b9be
000000e0: d0c3 afbe e6f1 8bbf 70d8 143f 722b 04c0
000000f0: ddac a83e a15e 2c3e 3c4a 8b3e 2d6d 2bbe
00000100: 68bd cf3e bed8 aebe 4757 ed3e b626 e7be
00000110: cb6c aabe 4837 8bbf 6e0b f73e f332 fcbf
00000120: db9d a83e 5a83 3a3e 7a86 a53e fd08 1bb7
00000130: da72 723e 8c29 b1be ca46 e13e 2faf b7be
00000140: e398 d8be e3f9 79bf f7bf 223f cd76 fdbf
00000150: a21e 9b3e e60d 5e3e 5bcf a03e 618f 4a3d
00000160: 1c26 333e f524 9ebe 4983 dc3e 434c c9be
00000170: f902 e8be d5d5 7fbf cce5 303f 22b7 f4bf
00000180: 1d53 6e3e d0d5 923e 0535 683e dc12 2abd
00000190: 3b8a 7f3e 5b44 39be 4f23 063f bf96 c9be
000001a0: 10ff 06bf 3a81 82bf 230c 203f 11e9 fcbf
000001b0: a019 6d3e 478e 393e 135d 523e fd1c 203d
000001c0: 3b09 d43d a40c 8abe de5e 103f 6099 9abe
000001d0: 8d31 e1be 2428 69bf 2db6 283f dc4a d4bf
000001e0: e51f 4e3e 1225 5f3e 6ddf 6a3e 110a b83d
000001f0: 8f7a f23d 0fdf 8ebe 68e6 ba3e b843 96be
00000200: 0b31 04bf f29f 6ebf 67fd 383f 69dd ddbf
00000210: 36d9 523e 9c68 333e 0797 933e a06e 1e3e
00000220: 90e3 353e e036 83be 876f a73e ea36 98be
00000230: 73e0 1bbf 48d8 68bf 34e3 0f3f 571e d2bf
00000240: ead2 583e 4519 333e 6496 6f3e fd20 193e
00000250: f042 433e 60c7 51be 3ed2 743e 2f99 73be
00000260: e95b 26bf a080 5ebf 98bb 093f 5fed d2bf
00000270: 5f31 583e afd2 cd3d 7ea8 773e 5d9f 083e
00000280: 37e2 233e 8d91 21be d2fc af3e d930 90be
00000290: 1209 0fbf 9370 60bf e6e7 2b3f 48dc d3bf
000002a0: c15b 193e 6d67 533e 4a0e 113e be03 213d
000002b0: 797a 8a3e 84d9 92bd a7c3 823e fdcf 9ebe
000002c0: b720 2ebf 9d26 62bf 209c 433f 00b9 e4bf
000002d0: fc1d 2b3e 7075 113e 4431 383e 715a aa3d
000002e0: 8649 893e 9342 2bbe cd02 4d3e ae6b 93be
000002f0: 6daf 19bf 6611 60bf 9e50 1c3f 0dd5 d2bf
00000300: 9179 563e 7a3a 913d ee5e 7c3e ac4b 323e
00000310: 10b5 253e 7826 38be a084 9b3e f17a 58be
00000320: 0c72 12bf 602b 56bf 96a1 0a3f c436 b8bf
00000330: 4515 6f3e 0fb1 2d3c aaff 893e b418 593e
00000340: f2fc cf3d dccf 5dbe c994 b43e 17b0 81be
00000350: c3f6 1abf fe1b 5cbf 8937 063f cede bbbf
00000360: 8710 5f3e 5b75 ed3d f617 9f3e 79d9 193e
00000370: f61b 363d 4716 8ebe e715 0c3f 74eb b7be
00000380: 9ae0 01bf 0727 6cbf 6dea 4f3f 9805 e9bf
00000390: b4d0 383e a089 523e bff3 753e 5b76 793d
000003a0: fb81 523d 9f07 10be 397d 0e3f 6a4b edbe
000003b0: 8a08 16bf efc4 82bf c402 273f 7cf7 f7bf
000003c0: 6918 313e 3dcb 833e d2ba 6d3e ee26 9e3d
000003d0: f502 333c 1800 32be 3024 023f 1fc2 f1be
000003e0: 4e30 3dbf ad7e 83bf 18e8 2e3f bf03 08c0
000003f0: 9cea f23d 51e7 d53e e8d4 9a3d 675a 4f3c

right_hand_pose f4 [82, 12]
0.46209508 -0.027796237 0.41479123 0.23335007 -0.038144432 -0.499223 0.77034277 -0.30430275
-0.2833669 -0.9886774 0.74143606 -1.5244367 0.51699746 0.09911022 0.45993885 0.37822
-0.26380756 -0.6249642 0.7055139 -0.07775308 -0.33026406 -0.752191 0.89250886 -1.2706623
0.48861158 0.07663568 0.455532 0.43545353 -0.30026373 -0.59973913 0.6778457 -0.12447359
-0.28755847 -0.7322989 1.0945166 -1.4221007 0.5163366 -0.020000279 0.5190366 0.46316287
-0.2699579 -0.6159491 0.7310036 -0.19990024 -0.16002283 -0.6925656 1.2352543 -1.4018378
0.5026428 -0.03683249 0.45172524 0.4132093 -0.21380424 -0.62688637 0.8098307 -0.18805876
-0.18892868 -0.76704943 1.015339 -1.4211307 0.48540676 -0.047569208 0.41639745 0.32327187
-0.16237308 -0.6989229 0.9042471 -0.2379515 -0.134898 -0.7891094 1.2582338 -1.543649
0.48004913 -0.0824023 0.4463619 0.3245904 -0.11342531 -0.6698392 0.87571937 -0.3161494
-0.12941621 -0.8621042 1.1107641 -1.6613348 0.4654053 -0.10899151 0.38875553 0.33114886
-0.13936968 -0.5921211 0.81862754 -0.30728558 -0.12877692 -0.8548532 1.0935894 -1.6282427
0.48197514 -0.056595888 0.39507443 0.32232708 -0.1861036 -0.5453074 0.7967926 -0.2539632
-0.22395645 -0.75257427 1.1671671 -1.5303301 0.49171063 -0.0458762 0.3989628 0.3247047
-0.11127821 -0.5421442 0.6947142 -0.20403504 -0.34231126 -0.7636232 1.0119013 -1.4419894
0.52042145 -0.037749074 0.465268 0.4024438 -0.2550134 -0.66146547 0.77521354 -0.1745077
-0.3436576 -0.7425963 1.1853182 -1.589835 0.520225 0.038675524 0.42820367 0.40352163
-0.2402661 -0.58704495 0.6139376 -0.14595677 -0.3900567 -0.6857336 1.1288476 -1.5903494
0.48527396 0.14617503 0.45954674 0.34226093 -0.1640143 -0.6653513 0.6152625 -0.25204638
-0.24444458 -0.79666007 1.2015988 -1.8549644 0.47102755 0.1291827 0.43678087 0.32794872
-0.13262016 -0.5846354 0.642372 -0.3124701 -0.36316684 -0.81873214 1.3264096 -1.7386001
0.4807523 0.053767093 0.5053935 0.267496 -0.0170731 -0.6997157 0.81717163 -0.43514082
-0.337916 -0.9840502 1.5362678 -1.9210144 0.4920132 0.014548199 0.48943186 0.2790595
-0.055905726 -0.63891274 0.7923583 -0.46333104 -0.2997015 -0.9618328 1.5720115 -1.8106532
0.5025574 0.036004465 0.44161823 0.34631738 -0.080360234 -0.5563226 0.6323481 -0.35529375
-0.23782714 -0.80966175 1.2128022 -1.6548094 0.5130998 0.07794476 0.4264679 0.40503207
-0.114488415 -0.5348144 0.51448065 -0.33666828 -0.39930978 -0.8289942 1.206065 -1.6423059
0.50981265 0.096332364 0.4167886 0.34215614 -6.899454e-05 -0.58984005 0.52736163 -0.37755942
-0.3405668 -0.9255448 1.1707375 -1.6955281 0.49172193 0.024978943 0.403981 0.34542793
-0.085678585 -0.48499247 0.604236 -0.40360463 -0.16373225 -0.9184253 1.0140138 -1.6473883
0.47180277 0.080034755 0.38856167 0.30928904 -0.024888137 -0.4095381 0.56686896 -0.40889132
-0.18917635 -0.9086088 0.9068402 -1.6364338 0.4652272 0.12002999 0.37579793 0.3652211
00000000: ba97 ec3e efb4 e3bc 845f d43e 52f3 6e3e
00000010: 563d 1cbd 289a ffbe 2f35 453f 92cd 9bbe
00000020: 7715 91be f619 7dbf c1ce 3d3f be20 c3bf
00000030: f259 043f 4dfa ca3d 1b7d eb3e 0da6 c13e
00000040: c911 87be a7fd 1fbf 8f9c 343f 023d 9fbd
00000050: 5f18 a9be 978f 40bf 767b 643f 10a5 a2bf
00000060: 4c2b fa3e 2bf3 9c3d 7e3b e93e c4f3 de3e
00000070: 2bbc 99be 8188 19bf 4c87 2d3f 02ec febd
00000080: dd3a 93be f177 3bbf 1f19 8c3f 6507 b6bf
00000090: a32e 043f a0d7 a3bc 95df 043f af23 ed3e
000000a0: ec37 8abe d7ae 1dbf 0d23 3b3f a6b2 4cbe
000000b0: 06dd 23be fb4b 31bf d01c 9e3f 6c6f b3bf
000000c0: 33ad 003f aadd 16bd 8848 e73e 2b90 d33e
000000d0: 80ef 5abe a07b 20bf 1151 4f3f 7a92 40be
000000e0: 8576 41be 5a5d 44bf a1f6 813f 9ce7 b5bf
000000f0: 3c87 f83e eed7 42bd 0c32 d53e e483 a53e
00000100: 2145 26be 9cec 32bf bd7c 673f 8fa9 73be
00000110: b422 0abe 1303 4abf ce0d a13f 4a96 c5bf
00000120: 00c9 f53e 89c2 a8bd 8c89 e43e b730 a63e
00000130: 874b e8bd 957a 2bbf 252f 603f 56de a1be
00000140: af85 04be dcb2 5cbf 852d 8e3f 9ea6 d4bf
00000150: 9a49 ee3e f136 dfbd f70a c73e 588c a93e
00000160: edb6 0ebe 4095 17bf 9391 513f 8954 9dbe
00000170: 19de 03be a9d7 5abf bdfa 8b3f 426a d0bf
00000180: 72c5 f63e 17d1 67bd 3247 ca3e 0e08 a53e
00000190: f191 3ebe 4499 0bbf 9afa 4b3f 7707 82be
000001a0: d754 65be b5a8 40bf bb65 953f dbe1 c3bf
000001b0: 7fc1 fb3e afe8 3bbd da44 cc3e b23f a63e
000001c0: d5e5 e3bd f6c9 0abf cad8 313f 90ee 50be
000001d0: 6c43 afbe cf7c 43bf fb85 813f 1c93 b8bf
000001e0: 573a 053f c69e 1abd 9b37 ee3e 1d0d ce3e
000001f0: 1e91 82be cd55 29bf 6574 463f 26b2 32be
00000200: e4f3 afbe cb1a 3ebf 82b8 973f b77f cbbf
00000210: 772d 053f 3a6a 1e3d 833d db3e 639a ce3e
00000220: 5108 76be 9448 16bf 042b 1d3f b175 15be
00000230: 83b5 c7be 3d8c 2fbf 147e 903f 9290 cbbf
00000240: d475 f83e e8ae 153e b649 eb3e d33c af3e
00000250: 5df3 27be 7654 2abf d881 1d3f 390c 81be
00000260: ae4f 7abe eaf1 4bbf fdcd 993f 796f edbf
00000270: 862a f13e 7848 043e bea1 df3e e5e8 a73e
00000280: 94cd 07be aaaa 15bf 7e72 243f 15fc 9fbe
00000290: 01f1 b9be 6e98 51bf cac7 a93f 738a debf
000002a0: 2a25 f63e e23a 5c3d 7861 013f 3cf5 883e
000002b0: e3dc 8bbc 9120 33bf 2932 513f c7ca debe
000002c0: 5303 adbe b7ea 7bbf 6ca4 c43f cde3 f5bf
000002d0: 27e9 fb3e 925b 6e3c d096 fa3e e3e0 8e3e
000002e0: 67fd 64bd c98f 23bf fed7 4a3f ba39 edbe
000002f0: 7a72 99be ad3a 76bf ac37 c93f 7cc3 e7bf
00000300: 9aa7 003f 6b79 133d c91b e23e 8350 b13e
00000310: e893 a4bd 286b 0ebf 91e1 213f 10e9 b5be
00000320: f588 73be fe45 4fbf 1a3d 9b3f cbd0 d3bf
00000330: 825a 033f 81a1 9f3d 005a da3e 5d60 cf3e
00000340: e778 eabd 99e9 08bf 01b5 033f c95f acbe
00000350: 5572 ccbe f738 54bf 5760 9a3f 1437 d2bf
00000360: 1583 023f e749 c53d 5165 d53e 172f af3e
00000370: 29b1 90b8 c2ff 16bf 2c01 073f 784f c1be
00000380: c65e aebe 81f0 6cbf bada 953f 1107 d9bf
00000390: fac2 fb3e a4a0 cc3c 99d6 ce3e eedb b03e
000003a0: 4178 afbd ef50 f8be 36af 1a3f 44a5 cebe
000003b0: 6da9 27be ec1d 6bbf 34cb 813f 9fdd d2bf
000003c0: 2290 f13e 43e9 a33d 8ef1 c63e 225b 9e3e
000003d0: 35e2 cbbc faae d1be 531e 113f 345a d1be
000003e0: 72b7 41be 969a 68bf ae26 683f aa76 d1bf
000003f0: 4232 ee3e 49d2 f53d 9668 c03e 43fe ba3e

jaw_pose f4 [82, 3]
0.028270975 -0.0027751927 0.0010144295 0.006640259 -0.0016935136 0.00070299493 0.017184597 0.0004418622
0.001670335 0.027061379 0.0036199572 0.0024417408 0.03134359 0.006103338 0.00391531 0.025648454
0.0062310905 0.0030060923 0.02308732 0.008351249 0.004626916 0.016409004 0.004911501 0.003149353
0.009524443 0.0068034213 0.004001541 0.0015203954 0.004876642 0.002937767 -0.0057268064 0.0024723345
0.0016066731 -0.0029956845 0.004116477 0.0020198 -0.006249239 0.0058813053 0.0022586826 -0.00966555
0.0042746477 0.0022881718 -0.005168015 0.005241073 0.0017288394 -0.00715389 0.006371796 0.0018934349
0.012230585 0.006201899 0.0018899476 0.007257721 0.0073085316 0.0032350742 0.0044670654 0.0046154126
0.0022290559 0.00064334925 0.003908553 0.0021811936 0.008711473 0.0029699584 0.0012840949 -0.0012018415
0.006549366 0.002583233 0.014780506 0.007599712 0.0033785016 0.024545038 0.0040397076 0.0018907702
0.022743823 0.0066549745 0.003214175 0.03751426 0.008345134 0.0039522657 0.05584909 0.008579146
0.004369796 0.06106055 0.008281264 0.0029377486 0.061048087 0.006313898 0.0021851913 0.059148815
0.0050501414 0.002163194 0.074068144 0.0063418183 0.0023512654 0.08676407 0.0046119266 0.0022071276
0.09574915 0.003953879 0.0020136056 0.09634861 0.0033110252 0.0024768673 0.09732305 0.0032029175
0.0026665092 0.0927231 0.004457188 0.0022843948 0.09817823 0.0059836525 0.0041371775 0.109251596
0.007165439 0.004304021 0.10532859 0.006593451 0.0031968458 0.10991881 0.0065518846 0.002772393
0.10047233 0.003590689 0.002162064 0.10035044 0.0049968217 0.0024423318 0.084408455 0.0071466756
0.0043242504 0.090234056 0.0020224818 0.001997685 0.07904582 0.0031775483 0.0018387304 0.07015264
0.0027561556 0.0025082661 0.070737034 0.0027756963 0.0019659887 0.0876548 0.004831054 0.0021799672
0.08453465 0.0090591395 0.0041772863 0.08140225 0.0064174584 0.0038872322 0.06714136 0.0038031803
0.0022396084 0.058045562 0.0054357224 0.0032788026 0.059518754 0.0042256094 0.002922912 0.022341454
0.008863452 0.004095542 0.032741625 0.00897157 0.0046942076 0.04266429 0.009552114 0.005133676
0.057271756 0.008552152 0.0053193597 0.07445908 0.008419871 0.0050587137 0.07613131 0.007042284
0.0027263311 0.08114975 0.00859578 0.0048641735 0.06571964 0.007276592 0.0026611728 0.059279446
0.009728201 0.0043666833 0.06930554 0.009874106 0.0048473645 0.06318878 0.008761722 0.0041734907
0.010975191 0.01786559 0.006302602 0.028551595 0.0162813 0.005078079 -0.00040407458 0.02012815
0.007947302 -0.0020299451 0.021223199 0.0065954207 0.013513094 0.015948333 0.005806204 0.019329023
0.017861037 0.0045441687 0.025562095 0.010062474 0.0035623813 0.027475776 0.007909293 0.0032554218
0.027230276 0.004155368 0.0016530547 0.0542267 0.014705689 0.004071231 0.0377265 0.0050038695
0.00204585 0.052119453 0.0145910615 0.0038337165 0.05525272 0.015573529 0.004178636 0.050543375
0.010806496 0.005122241 0.027556589 0.010780622 0.004449601 0.013567998 0.010753336 0.0043521966
0.022534968 0.017822925 0.0077137 0.02706158 0.018988747 0.0061019547
00000000: 8898 e73c 02e0 35bb 9bf6 843a 8896 d93b
00000010: e3f8 ddba 3149 383a b6c6 8c3c bea9 e739
00000020: 24ef da3a d3af dd3c ce3c 6d3b 9d05 203b
00000030: 2362 003d 83fe c73b 004c 803b b51c d23c
00000040: 2d2e cc3b dc01 453b 9f21 bd3c add3 083c
00000050: 629d 973b 2d6c 863c a8f0 a03b 6065 4e3b
00000060: 690c 1c3c 3cef de3b 5c1f 833b 0148 c73a
00000070: 3dcc 9f3b 8d87 403b efa7 bbbb e406 223b
00000080: 0197 d23a 3f53 44bb 83e3 863b 9f5e 043b
00000090: 6bc6 ccbb f7b7 c03b 6806 143b 415c 1ebc
000000a0: 5812 8c3b 27f5 153b 7458 a9bb 4fbd ab3b
000000b0: 399a e23a 2e6b eabb 80ca d03b 222d f83a
000000c0: cb62 483c 4d39 cb3b 1eb8 f73a 2dd2 ed3b
000000d0: 687c ef3b 8a03 543b 7660 923b e33c 973b
000000e0: 5a15 123b 70a6 283a 5213 803b 5bf2 0e3b
000000f0: 91ba 0e3c a2a3 423b 134f a83a 1c87 9dba
00000100: 109c d63b 754b 293b ef29 723c 0107 f93b
00000110: da69 5d3b ad12 c93c 865f 843b b8d3 f73a
00000120: 4151 ba3c f911 da3b e9a4 523b 8da8 193d
00000130: 07ba 083c 0282 813b 04c2 643d 8c8f 0c3c
00000140: 8130 8f3b a11a 7a3d 24ae 073c 3e87 403b
00000150: 8f0d 7a3d d1e4 ce3b 6d35 0f3b 0746 723d
00000160: a87b a53b 5fc4 0d3b 0ab1 973d 07cf cf3b
00000170: b017 1a3b 5cb1 b13d a51f 973b 75a5 103b
00000180: 2118 c43d 8a8f 813b b2f6 033b 6c52 c53d
00000190: c9fd 583b f052 223b 4f51 c73d 0ae8 513b
000001a0: 9ac0 2e3b 9ce5 bd3d 9a0d 923b c9b5 153b
000001b0: ab11 c93d 8412 c43b 2991 873b 4dbf df3d
000001c0: 0fcc ea3b bf08 8d3b 84b6 d73d e00d d83b
000001d0: 2c82 513b 1d1d e13d 31b1 d63b 09b1 353b
000001e0: 70c4 cd3d c451 6b3b 6ab1 0d3b 8884 cd3d
000001f0: 61bc a33b 870f 203b 57de ac3d a92e ea3b
00000200: 71b2 8d3b a2cc b83d 9d8b 043b 98eb 023b
00000210: c6e2 a13d 6a3e 503b 8e01 f13a 30ac 8f3d
00000220: 9ea0 343b b961 243b 94de 903d 75e8 353b
00000230: d1d7 003b 5c84 b33d d14d 9e3b c8dd 0e3b
00000240: 8120 ad3d c96c 143c 9ee1 883b 39b6 a63d
00000250: 8b49 d23b efc0 7e3b 6981 893d c73e 793b
00000260: 65c6 123b 2fc1 6d3d 251e b23b 2ee1 563b
00000270: f0c9 733d fb76 8a3b 538e 3f3b 6d05 b73c
00000280: 0338 113c e533 863b 151c 063d 7efd 123c
00000290: ded1 993b c0c0 2e3d 7880 1c3c 6538 a83b
000002a0: ca95 6a3d 531e 0c3c 064e ae3b 017e 983d
000002b0: 80f3 093c 91c3 a53b bbea 9b3d f6c2 e63b
000002c0: 3fac 323b d731 a63d 50d5 0c3c a563 9f3b
000002d0: 0598 863d 7a70 ee3b 1267 2e3b 01cf 723d
000002e0: 0863 1f3c 6516 8f3b 10f0 8d3d 01c7 213c
000002f0: a4d6 9e3b 1e69 813d 538d 0f3c c7c1 883b
00000300: 4ad1 333c dc5a 923c 0f86 ce3b 09e5 e93c
00000310: 5c60 853c 0466 a63b f9d9 d3b9 cae3 a43c
00000320: 6735 023c d408 05bb 46dc ad3c 661e d83b
00000330: 0666 5d3c 14a6 823c f841 be3b e657 9e3c
00000340: 4f51 923c 40e7 943b 9967 d13c 13dd 243c
00000350: d776 693b e114 e13c fb95 013c ea58 553b
00000360: 0712 df3c c129 883b 50ab d83a d11c 5e3d
00000370: 21f0 703c f667 853b 1a87 1a3d 80f7 a33b
00000380: ab13 063b 357b 553d 590f 6f3c 173f 7b3b
00000390: ad50 623d 1d28 7f3c f0ec 883b 9206 4f3d
000003a0: bb0d 313c 79d8 a73b 5bbe e13c 35a1 303c
000003b0: f5cd 913b 4f4c 5e3c c32e 303c df9c 8e3b
000003c0: 419b b83c 6201 923c 35c3 fc3b 3fb0 dd3c
000003d0: 4a8e 9b3c e8f2 c73b

leye_pose f4 [82, 3]
0.0 0.0 0.0 0.0 0.0 0.0 0.0 0.0
0.0 0.0 0.0 0.0 0.0 0.0 0.0 0.0
0.0 0.0 0.0 0.0 0.0 0.0 0.0 0.0
0.0 0.0 0.0 0.0 0.0 0.0 0.0 0.0
0.0 0.0 0.0 0.0 0.0 0.0 0.0 0.0
0.0 0.0 0.0 0.0 0.0 0.0 0.0 0.0
0.0 0.0 0.0 0.0 0.0 0.0 0.0 0.0
0.0 0.0 0.0 0.0 0.0 0.0 0.0 0.0
0.0 0.0 0.0 0.0 0.0 0.0 0.0 0.0
0.0 0.0 0.0 0.0 0.0 0.0 0.0 0.0
0.0 0.0 0.0 0.0 0.0 0.0 0.0 0.0
0.0 0.0 0.0 0.0 0.0 0.0 0.0 0.0
0.0 0.0 0.0 0.0 0.0 0.0 0.0 0.0
0.0 0.0 0.0 0.0 0.0 0.0 0.0 0.0
0.0 0.0 0.0 0.0 0.0 0.0 0.0 0.0
0.0 0.0 0.0 0.0 0.0 0.0 0.0 0.0
0.0 0.0 0.0 0.0 0.0 0.0 0.0 0.0
0.0 0.0 0.0 0.0 0.0 0.0 0.0 0.0
0.0 0.0 0.0 0.0 0.0 0.0 0.0 0.0
0.0 0.0 0.0 0.0 0.0 0.0 0.0 0.0
0.0 0.0 0.0 0.0 0.0 0.0 0.0 0.0
0.0 0.0 0.0 0.0 0.0 0.0 0.0 0.0
0.0 0.0 0.0 0.0 0.0 0.0 0.0 0.0
0.0 0.0 0.0 0.0 0.0 0.0 0.0 0.0
0.0 0.0 0.0 0.0 0.0 0.0 0.0 0.0
0.0 0.0 0.0 0.0 0.0 0.0 0.0 0.0
0.0 0.0 0.0 0.0 0.0 0.0 0.0 0.0
0.0 0.0 0.0 0.0 0.0 0.0 0.0 0.0
0.0 0.0 0.0 0.0 0.0 0.0 0.0 0.0
0.0 0.0 0.0 0.0 0.0 0.0 0.0 0.0
0.0 0.0 0.0 0.0 0.0 0.0
00000000: 0000 0000 0000 0000 0000 0000 0000 0000
00000010: 0000 0000 0000 0000 0000 0000 0000 0000
00000020: 0000 0000 0000 0000 0000 0000 0000 0000
00000030: 0000 0000 0000 0000 0000 0000 0000 0000
00000040: 0000 0000 0000 0000 0000 0000 0000 0000
00000050: 0000 0000 0000 0000 0000 0000 0000 0000
00000060: 0000 0000 0000 0000 0000 0000 0000 0000
00000070: 0000 0000 0000 0000 0000 0000 0000 0000
00000080: 0000 0000 0000 0000 0000 0000 0000 0000
00000090: 0000 0000 0000 0000 0000 0000 0000 0000
000000a0: 0000 0000 0000 0000 0000 0000 0000 0000
000000b0: 0000 0000 0000 0000 0000 0000 0000 0000
000000c0: 0000 0000 0000 0000 0000 0000 0000 0000
000000d0: 0000 0000 0000 0000 0000 0000 0000 0000
000000e0: 0000 0000 0000 0000 0000 0000 0000 0000
000000f0: 0000 0000 0000 0000 0000 0000 0000 0000
00000100: 0000 0000 0000 0000 0000 0000 0000 0000
00000110: 0000 0000 0000 0000 0000 0000 0000 0000
00000120: 0000 0000 0000 0000 0000 0000 0000 0000
00000130: 0000 0000 0000 0000 0000 0000 0000 0000
00000140: 0000 0000 0000 0000 0000 0000 0000 0000
00000150: 0000 0000 0000 0000 0000 0000 0000 0000
00000160: 0000 0000 0000 0000 0000 0000 0000 0000
00000170: 0000 0000 0000 0000 0000 0000 0000 0000
00000180: 0000 0000 0000 0000 0000 0000 0000 0000
00000190: 0000 0000 0000 0000 0000 0000 0000 0000
000001a0: 0000 0000 0000 0000 0000 0000 0000 0000
000001b0: 0000 0000 0000 0000 0000 0000 0000 0000
000001c0: 0000 0000 0000 0000 0000 0000 0000 0000
000001d0: 0000 0000 0000 0000 0000 0000 0000 0000
000001e0: 0000 0000 0000 0000 0000 0000 0000 0000
000001f0: 0000 0000 0000 0000 0000 0000 0000 0000
00000200: 0000 0000 0000 0000 0000 0000 0000 0000
00000210: 0000 0000 0000 0000 0000 0000 0000 0000
00000220: 0000 0000 0000 0000 0000 0000 0000 0000
00000230: 0000 0000 0000 0000 0000 0000 0000 0000
00000240: 0000 0000 0000 0000 0000 0000 0000 0000
00000250: 0000 0000 0000 0000 0000 0000 0000 0000
00000260: 0000 0000 0000 0000 0000 0000 0000 0000
00000270: 0000 0000 0000 0000 0000 0000 0000 0000
00000280: 0000 0000 0000 0000 0000 0000 0000 0000
00000290: 0000 0000 0000 0000 0000 0000 0000 0000
000002a0: 0000 0000 0000 0000 0000 0000 0000 0000
000002b0: 0000 0000 0000 0000 0000 0000 0000 0000
000002c0: 0000 0000 0000 0000 0000 0000 0000 0000
000002d0: 0000 0000 0000 0000 0000 0000 0000 0000
000002e0: 0000 0000 0000 0000 0000 0000 0000 0000
000002f0: 0000 0000 0000 0000 0000 0000 0000 0000
00000300: 0000 0000 0000 0000 0000 0000 0000 0000
00000310: 0000 0000 0000 0000 0000 0000 0000 0000
00000320: 0000 0000 0000 0000 0000 0000 0000 0000
00000330: 0000 0000 0000 0000 0000 0000 0000 0000
00000340: 0000 0000 0000 0000 0000 0000 0000 0000
00000350: 0000 0000 0000 0000 0000 0000 0000 0000
00000360: 0000 0000 0000 0000 0000 0000 0000 0000
00000370: 0000 0000 0000 0000 0000 0000 0000 0000
00000380: 0000 0000 0000 0000 0000 0000 0000 0000
00000390: 0000 0000 0000 0000 0000 0000 0000 0000
000003a0: 0000 0000 0000 0000 0000 0000 0000 0000
000003b0: 0000 0000 0000 0000 0000 0000 0000 0000
000003c0: 0000 0000 0000 0000 0000 0000 0000 0000
000003d0: 0000 0000 0000 0000
