test_dataset/gait_809/20250819_c2_a4_Take2/split_subjects/0/fit-smplx/smplx-params_cut.npz (npz, 50262 bytes, 10 tensors)

betas f4 [97, 11]
000000 35 a0 10 3f 48 8e c1 bf b2 e2 8e 3f 64 e5 92 be
       0.56494457 -1.5121546 1.1162932 -0.28690636
000010 f9 8f 46 bf c8 0e a2 be 3c 72 d9 be ca 40 8d 3f
       -0.77563435 -0.31651902 -0.42469966 1.1035397
000020 77 a9 1f 3e 0a 95 e0 3d c2 e7 c8 3e d9 fe 1c 3f
       0.1559199 0.10965927 0.39239317 0.61326367
000030 74 16 d0 bf 99 ff 96 3f c4 bb 59 be 44 41 5d bf
       -1.6256852 1.1796752 -0.21263033 -0.8642771
000040 b1 74 86 be cd b9 e8 be 89 17 92 3f 6a 73 d5 3d
       -0.26260903 -0.45454255 1.1413432 0.10422404
000050 8b a2 d5 3d 3e 09 c9 3e e6 ed 2b 3f be c9 e1 bf
       0.10431393 0.39264864 0.6715988 -1.7639692
000060 f1 22 9a 3f 9b 98 4f be 97 5b 82 bf 5a 7b 97 be
       1.2041913 -0.20273058 -1.0184201 -0.29586297
000070 09 bd 01 bf ab c8 a7 3f 9b 5c e3 3d 6e 69 1e 3e
       -0.5067907 1.3108114 0.111016475 0.15469906
000080 c9 f1 c5 3e e9 c3 2f 3f c3 21 ec bf c5 35 90 3f
       0.3866103 0.6865831 -1.8447803 1.1266409
000090 da aa 38 be a9 da 89 bf 79 06 76 be 88 d8 ff be
       -0.18033925 -1.0769855 -0.24025907 -0.49969888
0000a0 39 c7 a6 3f e0 c6 99 3d 60 d4 21 3e 6b 97 c2 3e
       1.3029548 0.075086355 0.15803671 0.38006148
0000b0 f8 4b 39 3f 2c 0f f4 bf eb ea 8c 3f cc 0a 11 be
       0.72381544 -1.906713 1.1009191 -0.14164275
0000c0 fb 49 8b bf 11 e6 8a be 82 d2 f3 be 60 84 9b 3f
       -1.0881952 -0.27128652 -0.47621542 1.2149773
0000d0 35 e8 5e 3d 3e c4 15 3e 18 48 c1 3e 2f 48 35 3f
       0.05442067 0.14625642 0.37750316 0.7081327
0000e0 d8 ba ed bf b3 f4 8b 3f 97 9b 0e be 98 8e 8e bf
       -1.8572645 1.0934051 -0.1392654 -1.1137266
0000f0 35 a8 8d be 90 87 de be 14 f5 a2 3f b0 f7 06 3e
       -0.27667394 -0.434628 1.2731042 0.13180423
000100 1b 51 17 3e d6 99 c1 3e c8 39 28 3f 72 c4 e4 bf
       0.14777033 0.3781268 0.6571317 -1.787245
000110 6c c0 85 3f f7 15 5f be 48 c4 74 bf 5e b4 68 be
       1.0449347 -0.21785723 -0.95612 -0.22725055
000120 9d 32 d5 be 57 ba 9c 3f 9d ca f3 3d aa 98 18 3e
       -0.41640177 1.2244366 0.1190388 0.14901987
000130 15 73 be 3e 59 81 16 3f 8a 9e c8 bf f3 1b 67 3f
       0.37197176 0.5879112 -1.5673382 0.9027702
000140 7e a7 97 be 59 9a 34 bf 24 94 10 be 50 ee b4 be
       -0.29619974 -0.70548016 -0.14119011 -0.35338068
000150 3a 61 8d 3f 2e 23 09 3e 04 e9 a6 3d 9d c5 bd 3e
       1.1045296 0.13392326 0.08149913 0.3706483
000160 67 3e 0f 3f 55 87 b8 bf 81 24 54 3f 4d 29 ce be
       0.55954593 -1.44163 0.828682 -0.40265885
000170 65 49 25 bf d0 fc fc bd 9b c4 a3 be f5 b2 7f 3f
       -0.64565116 -0.12352908 -0.31985936 0.9988244
000180 cf b8 10 3e 38 99 6d 3d 83 aa bd 3e 7b 9c 0b 3f
       0.14132999 0.05800745 0.37044153 0.54535645
000190 9c e0 b4 bf 41 38 4e 3f 91 a2 d9 be 75 08 23 bf
       -1.4131045 0.80554587 -0.4250684 -0.6368478
0001a0 68 61 b3 bd 9a 18 b6 be cb 6f 82 3f a2 83 bf 3d
       -0.08758813 -0.35565645 1.0190367 0.09351279
0001b0 6f 3d 13 3d 3f 9c bc 3e d3 17 11 3f a9 0f b4 bf
       0.03594726 0.36837956 0.5667698 -1.4067279
0001c0 a0 51 42 3f f0 54 e5 be 6d b8 2c bf 23 2d a0 bd
       0.759058 -0.44791365 -0.6746891 -0.07821109
0001d0 49 f6 cc be c3 f5 84 3f 2f 19 22 3d 5c 87 f2 3c
       -0.4003165 1.03875 0.0395748 0.02960556
0001e0 85 87 bd 3e 54 8b 0e 3f 00 48 b0 bf e6 8e 49 3f
       0.37017456 0.5568135 -1.3771973 0.7873367
0001f0 58 26 06 bf 88 ff 38 bf 2e 8c 41 be 50 23 cb be
       -0.5240226 -0.7226491 -0.1890113 -0.3967538
000200 d2 83 85 3f 96 ed d9 3c ab af 64 3d 78 cc be 3e
       1.0430853 0.026602548 0.055831593 0.37265372
000210 69 aa 09 3f b0 31 b3 bf 33 de 5a 3f 0f 3a 0b bf
       0.5377565 -1.3999538 0.854953 -0.54385465
000220 13 21 33 bf ff e0 7e be fd cb b1 be 34 65 90 3f
       -0.6997234 -0.24890517 -0.34725943 1.1280885
000230 86 b8 fb 3c a8 7f 1d 3d 08 53 c0 3e 2c c3 07 3f
       0.030727636 0.03845182 0.37563348 0.53032184
000240 32 c2 ab bf 37 db 65 3f d9 16 2d bf b8 b5 07 bf
       -1.3418639 0.8978762 -0.6761299 -0.53011656
000250 e3 86 c3 be 58 b7 81 be b0 1d 88 3f cb 2a be 3d
       -0.38188848 -0.25335193 1.063406 0.09285506
000260 1f 4c 1b 3d 8f f2 c2 3e f8 0a 12 3f 88 f6 ae bf
       0.03791439 0.38075683 0.57047987 -1.3668985
000270 a4 98 56 3f 12 47 2f bf fb 4b fc be c5 d0 a9 be
       0.8382666 -0.6846782 -0.49276718 -0.3316709
000280 6c cf 8c be 0c 89 6b 3f a5 4e 54 3d 08 36 ee 3c
       -0.27502 0.9200599 0.051832814 0.029078498
000290 5a f2 c2 3e 0a 3e 11 3f 1c d5 af bf a5 ec 43 3f
       0.38075525 0.5673529 -1.3736911 0.76532966
0002a0 53 ae 11 bf 6e 7c f4 be 35 80 88 be 99 37 ac be
       -0.5690662 -0.47751182 -0.26660314 -0.33636168
0002b0 c1 59 4b 3f 86 58 48 bc 30 fe 70 3d 56 81 bf 3e
       0.7943383 -0.012228137 0.058836162 0.37403363
0002c0 5e 86 18 3f 80 b3 b6 bf e2 e9 4e 3f 5b d6 fe be
       0.5958003 -1.4273529 0.80825627 -0.49772915
0002d0 5b e4 07 bf 07 59 2a be b1 7d c0 be b6 68 45 3f
       -0.5308282 -0.16635524 -0.37595895 0.771129
0002e0 e8 ee 2e bd 79 b4 68 3d 8a 4d bf 3e d1 f8 22 3f
       -0.042708308 0.056812737 0.37363845 0.63660914
0002f0 19 b3 c4 bf 05 f8 35 3f 65 01 ba be 3d 0a 1e bf
       -1.5367156 0.7108157 -0.3632919 -0.6173437
000300 6d d1 6f 3d 1e 51 dd be 77 9e 6e 3f df 15 12 be
       0.058549333 -0.4322595 0.9321055 -0.14266156
000310 0e be 01 3d c5 b5 bc 3e e6 7d 2a 3f 8b 64 d7 bf
       0.03167539 0.3685743 0.66598356 -1.6827558
000320 51 63 43 3f bc 92 86 be 59 84 2c bf cc c8 30 3e
       0.7632342 -0.26283824 -0.67389446 0.17264098
000330 b8 1f fd be 03 65 8d 3f 37 f5 72 be 22 0c f9 3c
       -0.49438262 1.1046451 -0.23726355 0.030401293
000340 0e f9 b9 3e 7f 81 49 3f ff 1d f7 bf 88 64 63 3f
       0.36322826 0.7871322 -1.9306029 0.88825274
000350 c1 39 26 be 16 01 79 bf e7 15 c2 3e 7f 88 22 bf
       -0.16232969 -0.9726728 0.37907335 -0.63489527
000360 38 80 a8 3f b0 ce aa be bf ce 37 3d 08 31 b7 3e
       1.3164129 -0.33360815 0.044874903 0.35779595
000370 e5 17 5c 3f aa 7c 00 c0 c1 1e 72 3f d9 43 f9 bc
       0.8597396 -2.007609 0.94578177 -0.03042786
000380 6d 3b 81 bf 4f 1e a0 3e 7e 9b 27 bf 1b ea b5 3f
       -1.009626 0.31273124 -0.6547164 1.4212068
000390 a0 79 ab be f9 c2 74 3d 84 d4 b7 3e ae cf 69 3f
       -0.3349123 0.059756253 0.35904324 0.9133252
0003a0 00 4b 0d c0 08 91 94 3f e3 7b 82 3d 85 6d 9d bf
       -2.2077026 1.160676 0.06371286 -1.2299048
0003b0 d5 fc 89 3e 1f ab 37 bf 11 5b c9 3f 47 77 a8 be
       0.26950708 -0.71745485 1.5730916 -0.329035
0003c0 b4 e6 03 3e 1b 1d b7 3e a9 f3 5d 3f 83 38 ff bf
       0.12880975 0.35764393 0.8669992 -1.9939121
0003d0 21 95 84 3f 6a 5a 5e 3d 4f 59 8b bf 12 eb a9 3e
       1.035801 0.054285444 -1.088663 0.33187157
0003e0 6a ac 3a bf b1 91 b6 3f b3 a9 a1 be ce c7 39 3d
       -0.72919333 1.4263211 -0.31574783 0.045356564
0003f0 7e cb ba 3e f0 db 6c 3f 59 39 05 c0 77 74 8f 3f
       0.36483377 0.925231 -2.0816252 1.1207417

global_orient f4 [97, 3]
000000 7a 9e 12 be c7 ed 3b c0 82 86 1e be 77 a1 0c be
       -0.14318267 -2.9363878 -0.15480998 -0.13733469
000010 a1 ad 3d c0 c2 a4 0e be 13 d8 05 be dd 61 3f c0
       -2.9637225 -0.13930038 -0.13070707 -2.990348
000020 48 8f 01 be 88 cb ed bd fc 42 41 c0 2e 9f ea bd
       -0.12652314 -0.11611086 -3.0197134 -0.11456142
000030 b6 ee c7 bd 5c be 41 c0 f2 3d ed bd 88 5e b4 bd
       -0.097623274 -3.0272436 -0.11584081 -0.08807093
000040 3e 54 41 c0 48 26 ea bd 97 c3 88 bd 96 4f 41 c0
       -3.0207667 -0.11433083 -0.06677931 -3.0204825
000050 fa 35 fe bd 19 5f 46 bd a7 4d 41 c0 96 40 02 be
       -0.12412639 -0.048430536 -3.0203645 -0.1271995
000060 2b 3c ee bc 54 17 41 c0 38 db fe bd 5b 73 55 bc
       -0.029081425 -3.0170488 -0.124441564 -0.013027991
000070 04 1c 3f c0 2d f0 f3 bd df b5 20 3c 6c 76 3c c0
       -2.986085 -0.11911044 0.009808986 -2.944728
000080 37 4a ea bd 68 4b ca 3c f7 b1 3a c0 e7 b1 dd bd
       -0.114399366 0.02469416 -2.917112 -0.10824948
000090 f6 51 4f 3d 44 21 39 c0 d5 5e d7 bd c8 ec a8 3d
       0.050615273 -2.8926554 -0.10516135 0.082482874
0000a0 3a 08 37 c0 d9 74 ca bd 70 db d9 3d 6b 0b 36 c0
       -2.859877 -0.09885568 0.106375575 -2.844447
0000b0 e5 8c b7 bd 5d 1f ed 3d d9 2e 35 c0 5c 5e ab bd
       -0.089624204 0.11578248 -2.8309844 -0.08367607
0000c0 0b 14 fd 3d 7e 15 33 c0 2a ff ad bd 10 2d eb 3d
       0.123573385 -2.7981868 -0.08495934 0.11483204
0000d0 5a 89 2e c0 ef 02 a2 bd 53 60 bb 3d 4a 83 2a c0
       -2.7271333 -0.07910716 0.09149232 -2.6642632
0000e0 77 c7 99 bd 73 65 7f 3d 41 18 23 c0 f0 92 ce bd
       -0.07508748 0.06235261 -2.5483553 -0.1008662
0000f0 b8 d3 04 3d ed 28 1e c0 5d 42 f4 bd bd c2 9f 3c
       0.032428473 -2.471248 -0.1192672 0.019502038
000100 68 e2 1b c0 5d 6c 0b be f2 61 ff bb 97 ac 19 c0
       -2.4356937 -0.13615556 -0.0077936584 -2.401159
000110 71 2b 1a be da 2a 4c bc e3 ec 17 c0 63 ed 1d be
       -0.15055634 -0.0124613885 -2.3738334 -0.15422587
000120 3d b0 05 bd e0 71 18 c0 f0 ec 19 be 5a 48 5b bd
       -0.032638777 -2.3819504 -0.1503179 -0.053535797
000130 d0 6b 18 c0 99 ea 17 be e6 f4 84 bd 9f d1 17 c0
       -2.3815804 -0.14835586 -0.06492023 -2.3721693
000140 8f ef 15 be ae 1f ac bd 31 01 1b c0 4a 4c 04 be
       -0.14642166 -0.0840448 -2.4219477 -0.12919727
000150 88 e1 ca bd 38 07 1c c0 a7 d7 f0 bd ab 0a de bd
       -0.09906298 -2.4379406 -0.117598824 -0.108418785
000160 50 03 1d c0 bd 51 d5 bd ba 24 fb bd 11 2f 1d c0
       -2.4533272 -0.10415981 -0.122628644 -2.4559977
000170 4e 2a b4 bd d9 30 03 be 8d 6c 1e c0 1c ab 9a bd
       -0.087971315 -0.12811603 -2.4753754 -0.07552168
000180 ce d1 00 be e6 e9 1f c0 5d fc 7a bd 95 b8 08 be
       -0.12580034 -2.498651 -0.06127583 -0.13351662
000190 28 c3 22 c0 0c 43 5e bd e2 82 14 be 34 f3 25 c0
       -2.5431614 -0.05426316 -0.14503053 -2.592969
0001a0 5d be 66 bd 88 5c 18 be cb 68 2a c0 06 09 8f bd
       -0.05633389 -0.14879048 -2.662646 -0.06984143
0001b0 6e 16 1c be 54 73 2f c0 22 4c ab bd 0c 1b 22 be
       -0.15242931 -2.741414 -0.083641306 -0.1583063
0001c0 cb 39 33 c0 39 3e dc bd 2d 74 28 be 31 f0 35 c0
       -2.8004024 -0.107540555 -0.16450568 -2.8427851
0001d0 75 7a 22 be a8 40 31 be 67 d9 36 c0 13 1d 40 be
       -0.15867026 -0.1730982 -2.8570192 -0.18761091
0001e0 31 36 39 be 0a 68 37 c0 be 2f 58 be 3a 17 34 be
       -0.18087079 -2.865725 -0.21111962 -0.17586985
0001f0 9e e4 39 c0 e8 52 5f be c1 34 21 be f1 e2 3c c0
       -2.9045787 -0.2180897 -0.1574278 -2.9513514
000200 b9 c6 61 be 5d a9 08 be 5b f6 3d c0 c1 9a 61 be
       -0.22048463 -0.13345857 -2.9681613 -0.2203169
000210 49 a9 ef bd b4 4d 3d c0 a0 79 5d be bc 71 c1 bd
       -0.117022105 -2.9578676 -0.21628428 -0.09445521
000220 79 ef 3b c0 1c be 63 be 9b bf 8e bd 1c 22 3b c0
       -2.9364913 -0.2224049 -0.069701396 -2.9239569
000230 aa ab 71 be 62 78 53 bd 6c 81 3b c0 70 b3 75 be
       -0.23600641 -0.051628478 -2.9297743 -0.23994231
000240 dd a6 fc bc 2b b5 3b c0 f3 d4 70 be e0 00 13 bc
       -0.030841285 -2.9329326 -0.23518734 -0.008972377
000250 a3 06 3c c0 fd a0 66 be 54 26 9f 3c 09 57 3c c0
       -2.937905 -0.2252235 0.019427456 -2.9428122
000260 76 d5 60 be 27 89 2c 3c 3a e7 3b c0 27 04 5c be
       -0.21956429 0.010530747 -2.935988 -0.21485959
000270 bc 1c 4a bb 04 f1 39 c0 b8 a9 6b be 5e e4 b1 bc
       -0.003083988 -2.9053354 -0.23013961 -0.02171534
000280 c2 14 35 c0 7a 35 76 be f5 24 2d bd 79 af 31 c0
       -2.829392 -0.24043837 -0.042271573 -2.776335
000290 88 da 86 be 36 ba 76 bd 04 0c 2f c0 2e dd 95 be
       -0.263386 -0.06023618 -2.7351084 -0.2927031
0002a0 df 8e 83 bd 7d 54 2c c0 03 43 99 be 34 ff 91 bd
       -0.06423735 -2.6926568 -0.29933938 -0.07128754
0002b0 f8 51 2b c0 d3 79 99 be 1c 39 93 bd 3f 7b 2b c0
       -2.676878 -0.29975757 -0.07188627 -2.6793973
0002c0 ba 79 9a be 98 f1 98 bd f2 e3 2c c0 66 23 9a be
       -0.30170995 -0.07467955 -2.7014127 -0.30105132
0002d0 16 ab a2 bd dc 4d 2f c0 9a 60 99 be 36 e6 cc bd
       -0.07942788 -2.7391272 -0.29956514 -0.10004847
0002e0 0d d7 30 c0 17 53 9c be c4 19 e7 bd a1 c3 31 c0
       -2.7631257 -0.30532143 -0.11284211 -2.7775652
0002f0 35 30 a4 be 17 68 06 be 3a f2 33 c0 06 6f a7 be
       -0.3206803 -0.13125645 -2.8116593 -0.32701892
000300 ce b3 17 be 86 91 33 c0 d1 f3 a0 be 06 2e 30 be
       -0.14814684 -2.805757 -0.31436017 -0.17205057
000310 ba dd 32 c0 d0 c7 8f be 79 17 36 be 03 57 34 c0
       -2.794783 -0.28082132 -0.17782392 -2.8178108
000320 16 5a 83 be d7 d0 31 be 98 f8 36 c0 01 ab 7a be
       -0.25654668 -0.17364822 -2.858923 -0.24479295
000330 a6 94 24 be 79 7a 3a c0 09 7d 81 be 8b 9b fe bd
       -0.1607233 -2.9137251 -0.25290707 -0.12432011
000340 c3 c9 3e c0 43 2c 86 be 3d 64 d3 bd a3 19 41 c0
       -2.9810646 -0.26205644 -0.10321853 -3.0171897
000350 9f d9 80 be 08 c6 b7 bd 6b a6 43 c0 a8 22 84 be
       -0.25166032 -0.08973318 -3.0570323 -0.2580769
000360 4d b0 a5 bd 5c c0 45 c0 a5 8b 84 be cd b5 9f bd
       -0.08090267 -3.0898657 -0.2588779 -0.077983476
000370 18 5c 46 c0 08 25 88 be 4e ea 98 bd c8 d2 46 c0
       -3.099371 -0.26590753 -0.07466565 -3.106615
000380 82 3d 8b be f9 84 a4 bd a6 94 47 c0 2d 1f 89 be
       -0.27195364 -0.08033175 -3.1184478 -0.26781598
000390 5e 4b 9a 3d 94 fc 46 40 a5 59 8b 3e 78 65 5f 3d
       0.075339064 3.1091661 0.2721683 0.054540128
0003a0 65 96 47 40 1c 23 8a 3e 11 e7 ea bc 27 06 48 c0
       3.1185544 0.2697991 -0.028674634 -3.1253755
0003b0 32 30 8b be 2b ff ef ba 12 ef 46 c0 64 4f 8c be
       -0.27185208 -0.0018310299 -3.1083417 -0.2740432
0003c0 4d d8 bd 3c 0f 20 45 c0 8b 73 8d be cf e8 1f 3d
       0.02317443 -3.0800817 -0.27627215 0.039040383
0003d0 a8 97 44 c0 28 eb 8a be 77 72 7f 3d 7a ac 43 c0
       -3.0717564 -0.27132535 0.06236502 -3.0574021
0003e0 9b df 88 be cc 3a 7a 3d fe 40 43 c0 ac ff 84 be
       -0.26733097 0.06109123 -3.0508418 -0.25976312
0003f0 f9 24 7c 3d 51 f2 41 c0 0d 86 7c be d2 81 7a 3d
       0.061558697 -3.0304148 -0.24660511 0.061158963

body_pose f4 [97, 63]
000000 56 7f f4 be f6 3f 69 bd 81 fb c8 3c 2e 9d f1 bd
       -0.477534 -0.056945764 0.024533989 -0.11797558
000010 f7 2f 22 bd 97 47 1a be 9c 25 38 3e 3d 37 36 bd
       -0.039596524 -0.15066372 0.17983097 -0.044486273
000020 bb 9e 00 3c 03 53 5d 3f c7 92 b6 3c 82 a7 b8 3d
       0.007850344 0.8645479 0.022286786 0.090163246
000030 bb 32 22 3f 02 a4 22 be e5 51 1f be 7a 79 c9 3c
       0.6335866 -0.15882877 -0.15558584 0.024594057
000040 6f c9 03 3d ca 31 d0 bd 49 f8 d6 bd 91 f9 ac 3d
       0.032174524 -0.101657465 -0.104965754 0.084460385
000050 4e 9e bc bd 15 d5 39 be 16 cf 8a bd 50 fa 4b 3e
       -0.09209882 -0.1814769 -0.0677778 0.19919705
000060 d1 f1 a5 3d c0 da da 3d 49 30 d6 bd a4 82 7c 37
       0.081027634 0.106862545 -0.104584284 1.5050788e-05
000070 89 25 7e b7 dc 7b 85 37 2d b1 84 37 36 d6 7d b7
       -1.5148319e-05 1.5912512e-05 1.581813e-05 -1.512985e-05
000080 36 05 83 b7 35 fc a5 bd 74 da 10 bd f8 1b ab bd
       -1.5618843e-05 -0.08104745 -0.035364583 -0.08354944
000090 ed c8 97 bd 85 3f 12 3e 23 22 01 bf 48 76 10 be
       -0.074113704 0.14282043 -0.50442713 -0.1410762
0000a0 95 69 50 3e 5c 0d c2 3e 46 39 02 be 4d e7 28 3c
       0.20352776 0.37900817 -0.1271716 0.010309053
0000b0 45 ba 7a bd 19 c0 50 3d ea 4f 0e be 0a e7 41 bf
       -0.061212797 0.05096445 -0.13897672 -0.7574316
0000c0 3c 63 43 3c 26 99 20 3f c4 f1 79 3f 19 91 6e bd
       0.011925515 0.62733686 0.9763453 -0.058243845
0000d0 04 80 9d bf ad 32 2d be 12 aa 34 3e 41 86 b0 3f
       -1.2304692 -0.16913863 0.17643002 1.3790971
0000e0 d4 ec b7 3e 59 7d 4a be 00 bf 26 bd 92 f3 94 3e
       0.35922873 -0.19774379 -0.040709496 0.2909208
0000f0 95 3d b8 3e 63 bd 0f be 60 d7 83 bd b6 c5 05 bf
       0.35984483 -0.14037089 -0.06437564 -0.5225481
000100 97 78 49 bd e6 32 d8 3c 89 20 18 be 9a 1b 75 bd
       -0.04918727 0.026391458 -0.14856161 -0.059840776
000110 18 23 23 be b9 2e 48 3e da ea c7 bc 83 87 ef 3c
       -0.15931356 0.19549073 -0.024403978 0.029239422
000120 b2 ea 44 3f 43 2f 85 3c a3 60 e9 3d 33 2d 2f 3f
       0.76920617 0.016257888 0.11395385 0.68428344
000130 ce fb ef bd de ee 20 be 00 27 ef 3c 19 7d 2a 3d
       -0.1171795 -0.1571612 0.029193401 0.04162321
000140 21 59 ec bd e7 78 25 bd 21 ec 76 3d fc 08 01 be
       -0.115404375 -0.040398505 0.060283784 -0.12601084
000150 8a fd 3f be df 9c 08 be 7f 10 75 3e 89 dd 95 3d
       -0.18749061 -0.13341092 0.23932074 0.07317645
000160 c1 17 d6 3d 88 7b f2 bd 89 59 7b 37 c6 9b 81 b7
       0.104537494 -0.11839968 1.4981612e-05 -1.5450536e-05
000170 13 22 85 37 d3 31 86 37 b9 14 81 37 c1 e0 82 b7
       1.5870703e-05 1.5997246e-05 1.5387648e-05 -1.5601867e-05
000180 a5 48 c4 bd 92 e4 b3 bc 51 95 cf bd 05 f5 8e bd
       -0.09584168 -0.021959577 -0.10135902 -0.069803275
000190 2e 66 1f 3e b2 c9 f7 be 35 ab 12 be 7d cb 65 3e
       0.15566322 -0.4839607 -0.14323123 0.22440906
0001a0 16 4b bf 3e 58 e1 04 be d0 20 d8 b9 3e 4e 75 bd
       0.37361974 -0.12976587 -0.00041223178 -0.05988907
0001b0 ac 9d 90 3d b5 fe f5 bd eb c2 45 bf 04 84 d0 3c
       0.070613235 -0.12011472 -0.77250546 0.025453575
0001c0 12 a1 29 3f d7 b9 77 3f 4b 9e 7d bd 05 e4 a2 bf
       0.662614 0.96767944 -0.061918538 -1.2725836
0001d0 24 52 18 be 27 b2 0b 3e 00 ed b1 3f 8b 51 bc 3e
       -0.14875084 0.13642178 1.3900452 0.36780962
0001e0 07 34 43 be fa d5 88 bc 5d f6 97 3e 28 ac df 3e
       -0.19062816 -0.016703594 0.29680148 0.43686032
0001f0 40 df 1b be 2b d7 9c bc 8c 76 0e bf 03 9e e4 bd
       -0.15221882 -0.019145569 -0.5564964 -0.11162951
000200 08 42 86 3d 9e 15 20 be 52 a3 d8 bd 9c e8 3b be
       0.06555563 -0.15633246 -0.10578026 -0.18350452
000210 69 7e 56 3e ed 6d 30 bc 6d 19 32 3d 58 53 31 3f
       0.20946659 -0.010768396 0.04348128 0.692678
000220 03 d9 8c 3d a2 bd 92 3d ff b4 35 3f b0 cc 95 3b
       0.06877329 0.07165076 0.70979303 0.00457152
000230 3a a2 f9 bd c0 06 a4 3c 64 6e 4b 3d 8c 13 11 be
       -0.121891454 0.02002275 0.049665824 -0.14167613
000240 ac fe 55 bd 9d de 52 3d ec b2 85 bd b5 c8 9b be
       -0.052244827 0.05148183 -0.06528267 -0.30426565
000250 89 38 4b be 2b fc ab 3e 5a e5 9b 3d 8c 0c fd 3d
       -0.19845785 0.33590826 0.07612105 0.12355909
000260 93 7b fa bd 06 bf 7e 37 95 11 84 37 0a f4 85 37
       -0.12230601 1.5184056e-05 1.5743813e-05 1.5968475e-05
000270 db ff 85 37 b4 18 8a 37 c7 fb 7d b7 02 13 d2 bd
       1.5973977e-05 1.6462385e-05 -1.5138597e-05 -0.10257532
000280 67 8a 49 3c d7 91 ca bd 8c 87 a1 bd 0e ef 20 3e
       0.012301064 -0.09891098 -0.07887182 0.15716192
000290 3d fc f2 be 9e 4d 04 be da af 54 3e cb 37 af 3e
       -0.47458068 -0.12920234 0.20770207 0.34222254
0002a0 70 0e 13 be a0 1f 37 bd 59 1d 9b bd cc c1 9f 3d
       -0.14360976 -0.044707894 -0.07573957 0.07800636
0002b0 98 36 0a be 4d bf 49 bf 51 86 83 3c f9 d4 31 3f
       -0.13497388 -0.78807527 0.016055258 0.69465595
0002c0 36 23 7d 3f ad 9d 9a bd ca 38 a4 bf fd 47 11 be
       0.9888185 -0.075496055 -1.2829831 -0.14187618
0002d0 08 64 26 3e 49 1b b7 3f 11 10 b9 3e b9 00 4d be
       0.16249096 1.4305202 0.3614507 -0.20019807
0002e0 fd 85 00 3d 97 20 ae 3e 7d ee d1 3e f0 d7 35 be
       0.03137778 0.3400924 0.41002265 -0.17758155
0002f0 4b 5a 02 bc 8c d9 10 bf 3a eb c6 bd fc 22 81 3d
       -0.007956098 -0.5658195 -0.09712835 0.06305501
000300 b6 cb 03 be f9 ed 9c bd 7d 97 46 be 8b fe 65 3e
       -0.12870678 -0.07662577 -0.19393726 0.22460382
000310 45 77 95 3c c1 49 84 3d 2c aa 10 3f 75 be 5d 3d
       0.018245349 0.0645938 0.5650966 0.054136712
000320 79 40 bd 3d 2d 26 31 3f 86 36 40 3d 73 9e bc bd
       0.09240813 0.69198877 0.046926998 -0.09209909
000330 77 43 6e 3c fe 2e 7c 3d 63 e8 1a be c5 77 83 3c
       0.014542452 0.061568253 -0.15127711 0.016048322
000340 d1 19 46 3d e2 ca c4 bc 0c aa c7 be 95 b5 6e be
       0.048364464 -0.024022523 -0.38996923 -0.23311456
000350 0d ec cc bc 49 9c 8b 3d 90 0e fe 3d 1a e0 02 be
       -0.025014902 0.068169184 0.12405121 -0.127808
000360 54 ab 80 37 03 f4 7a b7 f1 4d 75 b7 ee af 84 37
       1.533857e-05 -1.4957975e-05 -1.4621285e-05 1.581755e-05
000370 dc 63 86 37 41 dd 7f b7 45 f9 e5 bd e5 43 70 3c
       1.6020545e-05 -1.5250699e-05 -0.11229185 0.014664625
000380 4c 0b f7 bd 00 ff 8c bd c7 6d 2b 3e d2 86 ee be
       -0.120627016 -0.06884575 0.16741095 -0.46587235
000390 8e 8b 00 be 26 9d 50 3e 51 62 a5 3e d7 71 06 be
       -0.12553236 0.20372447 0.32301572 -0.13129364
0003a0 10 08 36 bd 3a a1 89 bd 8a fe e0 3d b9 d7 08 be
       -0.044441283 -0.06720205 0.109860495 -0.13363542
0003b0 aa f8 45 bf 11 20 05 3d 55 34 2b 3f d4 57 80 3f
       -0.77332556 0.032501284 0.6687673 1.0026803
0003c0 04 2e c5 bd 7b ad a6 bf 06 c4 16 be 58 8a 0c 3e
       -0.096279174 -1.3021692 -0.14723215 0.13724649
0003d0 47 cd bb 3f 38 d2 d4 3e 37 26 5a be a6 d3 bc 3c
       1.4672021 0.41566634 -0.2130364 0.02305014
0003e0 c3 18 a7 3e cb 74 e1 3e 9f 69 46 be 40 b6 dc bc
       0.3263608 0.44034418 -0.19376229 -0.026942372
0003f0 5c d3 11 bf e4 67 c5 bd 6e 3e 73 3d 4e 67 9d bd
       -0.56963134 -0.09638956 0.05938571 -0.076857194

transl f4 [97, 3]
000000 75 d4 02 3f 53 85 a7 3f 30 52 85 3f dd 75 ff 3e
       0.51105434 1.3087562 1.0415707 0.4989461
000010 23 4a a7 3f d9 5c 83 3f b1 9b f8 3e 22 ce a6 3f
       1.30695 1.026271 0.48556283 1.3031657
000020 a8 05 81 3f 89 ec ef 3e 5e 88 a6 3f 71 ba 7c 3f
       1.0079851 0.4686015 1.3010366 0.98721987
000030 fb 4e e6 3e 5c 09 a6 3f 4a a3 76 3f 2a b9 dc 3e
       0.44982132 1.2971606 0.9634291 0.4311002
000040 60 81 a5 3f e4 d6 6f 3f 89 94 d3 3e 03 14 a5 3f
       1.2930107 0.9368727 0.4132426 1.2896732
000050 3f 48 69 3f 6d 71 ca 3e fa 1c a5 3f 12 9f 62 3f
       0.91125864 0.39539662 1.2899468 0.8852397
000060 ad 87 c2 3e ff 3a a5 3f b4 d0 5c 3f 94 b0 bb 3e
       0.37994137 1.2908629 0.86255956 0.36658156
000070 2c b4 a5 3f 47 94 57 3f a0 20 b6 3e 76 60 a6 3f
       1.2945609 0.8421063 0.35571766 1.2998188
000080 8e 5b 52 3f 4c e2 b0 3e db 27 a7 3f ba 9a 4d 3f
       0.8217095 0.3454765 1.3059038 0.8031422
000090 8c 72 ab 3e 88 e2 a7 3f 4f ed 48 3f 80 c9 a6 3e
       0.3348583 1.3116007 0.78487104 0.32575607
0000a0 e4 92 a8 3f b1 47 44 3f 59 ec a1 3e b9 2f a9 3f
       1.3169827 0.7667189 0.3162563 1.3217689
0000b0 1e f2 3f 3f b0 9b 9c 3e f1 8f a9 3f 76 3a 3b 3f
       0.74978817 0.3058753 1.3247052 0.7313608
0000c0 f9 28 98 3e 4b dc a9 3f ae 05 36 3f 10 c1 93 3e
       0.2971876 1.3270353 0.71102417 0.28858232
0000d0 5d e3 a9 3f f7 57 30 3f 35 41 8f 3e 57 be a9 3f
       1.3272511 0.68884224 0.27979437 1.3261212
0000e0 49 b1 29 3f f4 71 8a 3e 93 20 a9 3f 4c 18 22 3f
       0.6628614 0.27040064 1.3213066 0.63318324
0000f0 15 bf 84 3e 5f b7 a8 3f 52 41 1a 3f 5b 46 7d 3e
       0.25927034 1.318096 0.6025592 0.2473387
000100 6a c9 a7 3f 80 94 12 3f 11 9d 70 3e 7c 9d a7 3f
       1.3108342 0.57257843 0.23497416 1.3094935
000110 63 04 09 3f b7 ca 64 3e b9 09 a7 3f 98 2e 01 3f
       0.5352232 0.22342955 1.3049842 0.5046172
000120 86 5d 59 3e 61 0b a7 3f 39 04 f2 3e ec ac 4d 3e
       0.21227083 1.3050348 0.47268847 0.20085496
000130 f5 5c a7 3f 56 5b e2 3e cf 9b 43 3e e0 a7 a7 3f
       1.3075243 0.4421031 0.19102405 1.3098106
000140 2f 6b d4 3e 5d 5c 3b 3e 58 14 a9 3f 0c bd c6 3e
       0.41488025 0.18296953 1.3209333 0.38816106
000150 e8 7e 33 3e 5d 71 a9 3f fd 17 bb 3e 97 03 2c 3e
       0.1752888 1.3237721 0.3654174 0.16798244
000160 2e b2 a9 3f 34 b7 af 3e 07 da 24 3e d1 ea a9 3f
       1.3257501 0.3431946 0.16098796 1.3274785
000170 29 f7 a5 3e 48 b8 1b 3e f7 09 aa 3f f4 6c 9c 3e
       0.3241513 0.15207016 1.3284291 0.30551875
000180 f7 87 12 3e 9f ec a9 3f 92 ea 93 3e 6b 40 06 3e
       0.14309679 1.3275336 0.288899 0.13110511
000190 c5 da a9 3f 61 a8 8a 3e be 11 f1 3d 60 b8 a9 3f
       1.3269888 0.27081588 0.11770962 1.3259392
0001a0 03 f7 80 3e 1e 07 d3 3d c9 72 a9 3f a4 fe 6c 3e
       0.25188455 0.10304092 1.3238155 0.23144013
0001b0 9a 48 b0 3d 80 32 a9 3f 6f 04 54 3e 25 70 88 3d
       0.08607598 1.3218536 0.20704816 0.06662015
0001c0 88 db a8 3f f4 7d 39 3e 54 7e 2d 3d 76 37 a8 3f
       1.3191996 0.18114454 0.042356804 1.3141925
0001d0 36 5a 1b 3e 2a cd 98 3c 97 8b a7 3f 1d bf f5 3d
       0.15171131 0.018652517 1.3089474 0.119993426
0001e0 5d 01 81 bb ea 97 a6 3f a8 bc b5 3d a6 29 ce bc
       -0.00393693 1.301511 0.08873874 -0.025166344
0001f0 cc aa a5 3f 6c 4f 6e 3d a4 d2 33 bd ad 37 a5 3f
       1.2942748 0.05818121 -0.043902054 1.2907616
000200 5f 69 f1 3c ca d2 76 bd 45 53 a5 3f 40 9b 50 3b
       0.02946919 -0.060259618 1.2916037 0.0031830817
000210 20 1b 95 bd 23 c8 a5 3f 7e 6c a7 bc 6e e8 a9 bd
       -0.07280564 1.2951702 -0.020437475 -0.082962856
000220 07 7d a6 3f e9 0e 29 bd 97 2c bb bd 36 64 a7 3f
       1.3006905 -0.041273985 -0.09139364 1.3077457
000230 5b 6f 7e bd 6e ff c6 bd cc 97 a8 3f 6a 5b a7 bd
       -0.062117916 -0.09716688 1.3171325 -0.08171733
000240 31 20 d2 bd 5d 96 a9 3f be 54 ce bd ec 86 db bd
       -0.10260046 1.3249012 -0.10074757 -0.10719094
000250 c2 19 aa 3f d5 ba f6 bd b6 1b e4 bd 30 4d aa 3f
       1.3289111 -0.12047354 -0.11138098 1.3304806
000260 ea 98 10 be 67 ce e8 bd e7 3b aa 3f 26 34 27 be
       -0.14120832 -0.11367493 1.3299531 -0.16328487
000270 d7 31 e9 bd ca be a9 3f 8b ba 41 be f6 c4 ee bd
       -0.11386459 1.3261349 -0.18918817 -0.11658661
000280 d2 06 a9 3f c7 4b 5a be 33 30 f0 bd 8a 78 a8 3f
       1.3205206 -0.2131797 -0.11727943 1.3161786
000290 81 8a 78 be 96 75 f3 bd 5b bd a7 3f 34 8f 8c be
       -0.24271585 -0.11887662 1.3104662 -0.27453005
0002a0 6f fe f3 bd 06 0d a7 3f 29 c5 9d be 4d 33 f4 bd
       -0.11913764 1.305085 -0.30814484 -0.11923847
0002b0 b9 8d a6 3f 05 2e ae be 57 8c f2 bd df 6d a6 3f
       1.3012 -0.34019485 -0.11843174 1.300228
0002c0 b1 01 be be 5d d3 f1 bd 79 82 a6 3f e3 ee cc be
       -0.37110665 -0.118078925 1.3008567 -0.40026006
0002d0 e9 b0 f2 bd e5 d6 a6 3f de 98 da be 43 29 f4 bd
       -0.11850149 1.3034331 -0.42694753 -0.119219325
0002e0 7a 4b a7 3f 6d 6d e6 be f6 a3 f6 bd d5 b9 a7 3f
       1.3069909 -0.4500536 -0.12042992 1.3103586
0002f0 48 1f f1 be 54 c2 f8 bd 64 0a a8 3f fd 37 fa be
       -0.47094178 -0.1214644 1.3128171 -0.4887084
000300 03 4c fe bd e7 60 a8 3f 35 83 01 bf 04 db f9 bd
       -0.12416842 1.3154572 -0.5059083 -0.12199977
000310 7d 6d a9 3f 8c d7 04 bf 10 95 02 be 07 8b a9 3f
       1.3236538 -0.518914 -0.12752175 1.3245553
000320 cc 7b 08 bf e7 5c 0a be ea 75 a9 3f ec a0 0c bf
       -0.533139 -0.13512002 1.323911 -0.5493305
000330 37 37 15 be 46 31 a9 3f 54 00 11 bf c0 11 1f be
       -0.14571844 1.3218162 -0.56641126 -0.15534115
000340 53 23 a9 3f 6b 66 15 bf cf 97 2a be 62 f8 a8 3f
       1.3213905 -0.583594 -0.16659473 1.32008
000350 9d 82 1a bf 39 73 37 be 69 bc a8 3f 9f 16 20 bf
       -0.6035555 -0.17915048 1.3182498 -0.6253452
000360 b0 13 44 be 66 aa a8 3f 93 07 26 bf 1d a9 53 be
       -0.19148135 1.3177001 -0.6485531 -0.2066998
000370 93 52 a8 3f e0 77 2c bf b3 f4 63 be 6b 07 a8 3f
       1.31502 -0.67370415 -0.22261314 1.3127264
000380 c8 f3 32 bf 3d 46 74 be 3a b4 a7 3f 39 f5 38 bf
       -0.6990323 -0.23854919 1.3101876 -0.7224918
000390 f7 b9 82 be 5d 4c a7 3f 10 47 3f bf a6 97 89 be
       -0.25532505 1.3070179 -0.7471781 -0.2687351
0003a0 87 b9 a7 3f 88 29 44 bf 76 84 90 be f3 37 a8 3f
       1.3103493 -0.7662587 -0.2822606 1.3142074
0003b0 a3 c0 48 bf a6 32 97 be 16 dc a8 3f f0 c7 4c bf
       -0.7841894 -0.2953083 1.3192165 -0.7999258
0003c0 00 5d 9c be cf 75 a9 3f 42 54 50 bf 9f b0 a0 be
       -0.30539703 1.3239077 -0.8137857 -0.3138475
0003d0 25 05 aa 3f c6 c4 53 bf 08 82 a4 be 11 99 aa 3f
       1.328282 -0.8272213 -0.32130456 1.3327962
0003e0 58 f7 56 bf 0c 26 a7 be 79 fe aa 3f ca 51 5a bf
       -0.83971167 -0.32646215 1.3358909 -0.8528105
0003f0 2d 66 a9 be 06 47 ab 3f 74 87 5d bf 3b 2b ab be
       -0.33085766 1.338105 -0.8653481 -0.3343142

left_hand_pose f4 [97, 12]
000000 62 3b be 3e a3 43 3f 3e f8 29 bc 3d 41 52 76 3d
       0.3715468 0.18678145 0.091876924 0.060137037
000010 3f f5 07 be 5b 6f f5 be 27 a8 46 3f 20 52 80 bd
       -0.13277148 -0.4793652 0.7760033 -0.06265664
000020 f4 c3 17 bf ed 65 4d bf 52 bc 91 3f 95 50 d7 bf
       -0.59283376 -0.8023365 1.1385596 -1.6821467
000030 25 98 6b 3e db 53 d6 3e d1 1f 77 3c fb 25 6b 3d
       0.23007257 0.41860852 0.015083269 0.057409268
000040 4c f2 9b be 12 50 34 be 50 61 05 3f 5c 2d dd 3b
       -0.30458295 -0.1760867 0.5210161 0.006749792
000050 fb 14 1b bf f7 b1 53 bf 6f 87 02 3f 45 b6 d5 bf
       -0.6057889 -0.8269343 0.50987905 -1.6696249
000060 29 2c 93 3e 24 df 51 3e 11 d5 0a 3e b4 90 7c 3e
       0.2874463 0.20495278 0.13557841 0.24664575
000070 b0 24 03 be 3f 64 d3 be f2 f3 09 3f 7a 86 18 3d
       -0.12806964 -0.4128742 0.53887856 0.03723762
000080 b1 66 21 bf 0a 5a 6d bf 75 70 db 3e 31 e4 af bf
       -0.6304732 -0.92715514 0.42859235 -1.3741513
000090 31 eb b1 3e 7e 0f 09 3e fc e5 e4 3d f5 bc a5 3e
       0.3474975 0.13384816 0.111766785 0.32370725
0000a0 dc 74 4d 3b a9 6c 06 bf 51 cd f5 3e e4 ee 8a bd
       0.0031350171 -0.5250955 0.48008206 -0.06783846
0000b0 02 cc 40 bf 27 b7 43 bf a4 67 56 3f 9d 84 bc bf
       -0.7531129 -0.76451343 0.83751893 -1.472797
0000c0 ae f7 9e 3e d1 88 a9 3e 8c 0d 29 bd ec b0 26 3e
       0.3104834 0.33112195 -0.041272685 0.16278428
0000d0 5a 7e 8b be 56 c8 8c be 65 70 46 3f e8 37 46 be
       -0.27244836 -0.27496594 0.7751525 -0.19357264
0000e0 86 82 72 bf 0c c5 63 bf 6d 8e 78 3f 89 51 d9 bf
       -0.9473041 -0.88972545 0.97092324 -1.6978008
0000f0 fd f7 ab 3e 34 d4 8c 3e 49 cf c9 bc cb cb 98 3d
       0.33587638 0.27505648 -0.024634974 0.074607454
000100 be d0 9d be 59 e1 6f be be 97 69 3f db db 78 be
       -0.3082332 -0.23425807 0.91247165 -0.24302618
000110 2a bb 46 bf bc 20 63 bf ba f0 98 3f 7d 0b dc bf
       -0.7762934 -0.88721824 1.1948464 -1.7191006
000120 b3 ff 98 3e e6 5d ba 3e 06 43 77 bd ce 28 0e bd
       0.29882583 0.36399764 -0.060366653 -0.034706883
000130 f1 ea d5 be 0f 2e 71 bd d4 bf 6a 3f d3 f2 91 be
       -0.4178081 -0.058881816 0.91698956 -0.28505573
000140 34 e1 41 bf 15 40 5e bf 82 be 9d 3f f2 6d d5 bf
       -0.7573426 -0.8681653 1.2323763 -1.6674178
000150 ac 67 a4 3e 57 89 ab 3e 72 b2 78 bd 9e 2b b0 3d
       0.32110345 0.3350322 -0.060717054 0.08602069
000160 d3 f1 c4 be 2f 29 d7 be cb 92 94 3f 94 3f 6b be
       -0.38465747 -0.42023608 1.1607298 -0.22973472
000170 45 60 3d bf d5 e7 81 bf b5 19 8b 3f c0 44 02 c0
       -0.7397502 -1.0148875 1.086722 -2.0354462
000180 a2 78 d4 3e 30 f5 a5 3e 99 47 fe 3d 33 70 d0 3e
       0.41498286 0.32413626 0.12416 0.407106
000190 c7 9a 08 bf 56 99 21 bf 96 c4 75 3f ca 1d b1 be
       -0.5336117 -0.631246 0.9600309 -0.3459304
0001a0 a8 a2 42 bf a5 34 80 bf 47 d0 ac 3f 0f 85 01 c0
       -0.76029444 -1.0016066 1.3501061 -2.0237463
0001b0 f2 31 d9 3e ee d3 c8 3e 06 97 79 3d 77 8a ce 3e
       0.42420918 0.3922419 0.060935043 0.40340015
0001c0 a4 44 af be f0 28 ef be 55 99 51 3f 7c cd f3 be
       -0.34232056 -0.4671092 0.8187459 -0.4761771
0001d0 1b 1a 85 bf 10 96 86 bf 1c 82 d7 3f 2d 0f 0d c0
       -1.0398592 -1.0514545 1.6836581 -2.2040513
0001e0 bb db e7 3e 9e 20 e9 3e fb 52 15 3e eb 35 fd 3e
       0.4528483 0.45532697 0.14582436 0.494552
0001f0 1b 89 8a be 90 ea d3 be 4e bc 1f 3f 1b 06 da be
       -0.27057728 -0.41389894 0.62396705 -0.42582783
000200 53 a7 88 bf 5c 9b 7e bf ec 16 c2 3f 7d 2f 03 c0
       -1.0676063 -0.9945581 1.5163245 -2.0497735
000210 b3 70 de 3e 11 eb c2 3e 3a 6b e8 3d 7f b1 fd 3e
       0.43445358 0.38069966 0.11348577 0.4954948
000220 96 fc 77 be ff 64 be be 5e 17 b8 3e 76 a0 a0 be
       -0.24217448 -0.3718643 0.35955328 -0.31372422
000230 12 e8 37 bf fe 61 75 bf f8 0d 7e 3f 55 fb da bf
       -0.71838486 -0.9585265 0.99240065 -1.710795
000240 cb 94 bf 3e 7e 3b b3 3e 04 7e 5a 3d 7b dc c1 3e
       0.37418208 0.35006326 0.053342834 0.37863526
000250 ef 22 a9 3d 00 02 e4 be 33 dc 5d 3e 0c c6 ad be
       0.08258616 -0.44532776 0.2166603 -0.3394016
000260 d7 b5 2d bf 7a 6d 88 bf c6 04 76 3f af 5c d6 bf
       -0.6785559 -1.065841 0.96101034 -1.6747035
000270 f0 d4 a5 3e 78 7c a6 3e fc 05 6f 3b cb 17 b1 3e
       0.3238902 0.32516837 0.0036472073 0.34588465
000280 41 f6 58 bd c0 96 1b bf 91 7b e7 3e f1 52 96 be
       -0.05296922 -0.607769 0.4521146 -0.29360154
000290 6f 73 14 bf eb b7 7b bf 3c f3 63 3f ad 73 d1 bf
       -0.5798864 -0.9832751 0.8904302 -1.6363426
0002a0 2d a8 a9 3e e3 6a 59 3e 56 1c 76 3d 59 6b cd 3e
       0.3313612 0.2123218 0.060085617 0.40120962
0002b0 e9 b8 31 be 6c b6 10 bf 8c 43 32 3f 24 89 a1 be
       -0.17355694 -0.56528354 0.6963432 -0.31549942
0002c0 f4 5f 32 bf da 0d 82 bf 69 a6 89 3f 7c 56 c3 bf
       -0.6967766 -1.0160477 1.0753909 -1.5260768
0002d0 44 5f ad 3e 7b 6b 63 3e 60 f5 09 3e c4 f1 d3 3e
       0.33861744 0.2220897 0.1347251 0.4139539
0002e0 ab 0a ee 3c aa 59 2e bf cd 79 05 3f 07 82 81 be
       0.029057821 -0.68105567 0.5213898 -0.25294515
0002f0 f4 ee fe be 8d 7a 78 bf 22 89 94 3f 53 a7 d4 bf
       -0.49791682 -0.97062 1.160435 -1.6613563
000300 1e 45 89 3e 43 d9 85 3e bd b1 ac 3c 0f 6c d2 3e
       0.26810545 0.2614232 0.021080846 0.41098067
000310 3d f3 90 bd 05 92 64 be 8a ac 66 3e 45 5f 50 be
       -0.07077644 -0.22321327 0.22526756 -0.20348842
000320 66 25 1c bf d4 b9 74 bf 13 54 d1 3e 7e 60 c9 bf
       -0.60994565 -0.9559605 0.40884456 -1.5732572
000330 6e 33 77 3e 9c 76 91 3e f2 ce 04 3e 82 fb d5 3e
       0.24140713 0.28410804 0.12969568 0.41793448
000340 c0 1e 2f bc 9b 2b 9f be e5 67 80 3e 4a f0 65 be
       -0.010688484 -0.31087956 0.25079265 -0.22454944
000350 b8 55 f5 be 23 8a 65 bf 42 5b 1b 3f 0b 9a e1 bf
       -0.4791696 -0.89663905 0.60686123 -1.7625135
000360 e7 b9 01 3e 79 0a 85 3e 0b be a3 3d b0 bc 9b 3e
       0.12668572 0.25984553 0.07995232 0.30417395
000370 49 df df 3d 31 74 98 be 85 13 bf 3e 3c 71 de be
       0.1093126 -0.29776147 0.3731958 -0.43445766
000380 52 5b c4 be 79 65 99 bf 19 d9 03 3f d0 3f fc bf
       -0.38350922 -1.1984092 0.5150314 -1.9706974
000390 60 35 94 3c 41 cf bf 3e 7b 3b 6c bc de ec 13 3e
       0.018091857 0.3746281 -0.014418478 0.14445826
0003a0 ab 3d 96 3e 6e 18 70 be 66 60 93 3e e0 b8 c2 be
       0.29343924 -0.23446819 0.28784484 -0.38031673
0003b0 57 a9 e1 be 83 16 86 bf b4 dd 23 3f 76 aa fa bf
       -0.4407451 -1.047562 0.6401017 -1.958327
0003c0 5f 49 d6 3d d6 a3 3b 3e 13 12 e6 3d c8 ff b1 3e
       0.10463213 0.18324217 0.11233916 0.34765458
0003d0 51 30 63 3d f7 cd be be 9c b2 dc 3e 10 85 a9 be
       0.055466 -0.37266514 0.43105018 -0.3310933
0003e0 1e 6f 07 bf 82 67 7b bf 3f 64 30 3f 2a f4 df bf
       -0.52903926 -0.98204815 0.68902963 -1.7496388
0003f0 c1 67 32 3e 40 53 18 3e 82 08 6e 3e 46 99 d1 3e
       0.17422391 0.14875507 0.23245433 0.4093725

right_hand_pose f4 [97, 12]
000000 c3 f4 38 3f 71 25 ab bd 81 68 07 3f fd ff 41 3f
       0.72248477 -0.08356751 0.52893835 0.7578123
000010 20 5f 75 bd 74 36 54 bf 95 95 82 3f 0c 5d 2d bf
       -0.05990517 -0.8289559 1.0201899 -0.67720103
000020 68 15 d5 be 59 a2 90 bf 96 66 0d 40 ae b0 b2 bf
       -0.41617894 -1.1299545 2.2093863 -1.3960168
000030 7d 64 49 3f a6 b0 c1 bc 05 a9 03 3f e8 57 42 3f
       0.7866896 -0.023643803 0.5142978 0.75915384
000040 92 00 1c bd 3e 49 3f bf 05 b3 88 3f 1a 5b 34 bf
       -0.03808648 -0.74721134 1.0679632 -0.7045151
000050 72 89 28 bf 79 3c 89 bf 11 81 1e 40 e0 62 a0 bf
       -0.65834725 -1.072158 2.4766276 -1.2530174
000060 eb 52 48 3f a9 bd 89 bd 9c 1c f6 3e 1d 1f 2d 3f
       0.7825152 -0.06725628 0.48068702 0.676256
000070 fa 76 b3 3d 84 d5 18 bf 48 13 6c 3f ec 5d 5c bf
       0.08762927 -0.597008 0.9221692 -0.86080813
000080 a2 59 20 bf 15 38 95 bf 0b b5 19 40 c9 4b b9 bf
       -0.6263677 -1.165774 2.401675 -1.4476253
000090 26 f1 54 3f 24 ce 1f bd af 8d 0a 3f c3 20 1f 3f
       0.83180463 -0.03901495 0.5412244 0.62159365
0000a0 7f ef 13 3e 50 d4 0c bf 9e 37 75 3f 7a 0d 55 bf
       0.1444683 -0.55011463 0.9578799 -0.8322369
0000b0 80 42 02 bf db e6 8f bf a7 83 12 40 0c 2e ba bf
       -0.5088272 -1.1242326 2.2892854 -1.4545302
0000c0 ec 17 51 3f 0e 7b 08 bb ac 9e 0e 3f 99 0f 0d 3f
       0.81677127 -0.00208253 0.55710864 0.55101925
0000d0 ff 8d 94 3e a3 c6 13 bf 6c fa 64 3f e7 54 54 bf
       0.29014584 -0.5772497 0.89444613 -0.8294205
0000e0 26 b2 72 be fd 0b a2 bf 06 58 03 40 8e 96 d8 bf
       -0.2370077 -1.2659909 2.0522475 -1.6920946
0000f0 ab 2e 56 3f 95 14 b2 3c d1 60 10 3f 64 35 24 3f
       0.8366496 0.02173833 0.5639773 0.6414397
000100 de 06 61 3e bc a4 1e bf 97 a9 4d 3f 95 97 52 bf
       0.21975276 -0.61970115 0.803369 -0.82262546
000110 f7 19 f4 be cc b3 94 bf 50 1a 0e 40 70 ef d0 bf
       -0.4767606 -1.161737 2.220356 -1.632307
000120 6f a6 55 3f 44 44 a6 3d f9 e1 0d 3f 90 8a 23 3f
       0.8345708 0.081184894 0.5542293 0.63883305
000130 5c 8f 8d 3d 3e 3d 40 bf 44 46 6e 3f bd 4e 25 bf
       0.06912109 -0.7509345 0.93075967 -0.6457327
000140 78 c0 b8 be 36 8d 8c bf 2a e7 09 40 21 77 c3 bf
       -0.36084342 -1.0980594 2.1547341 -1.527073
000150 a3 02 3f 3f c0 e7 03 3e 09 f9 03 3f df aa d9 3e
       0.746134 0.12881374 0.5155187 0.42513177
000160 e2 81 cd 3e 61 07 4b bf 02 92 4a 3f cb cc 50 bf
       0.40138155 -0.79308134 0.7912904 -0.8156249
000170 36 e6 dd bd d6 78 ba bf 47 b8 e1 3f 8c d2 06 c0
       -0.10834925 -1.4568126 1.7634362 -2.1066008
000180 ad 59 0d 3f b1 94 4a 3e 6a e7 c6 3e 7a 1c 2c 3e
       0.5521496 0.19783284 0.3884843 0.16807738
000190 32 e2 4d 3f a5 18 68 bf 9c 47 1a 3f 43 bd 76 bf
       0.8042327 -0.90662605 0.6026552 -0.9638254
0001a0 45 1a 1e 3e fa 7b cf bf 81 7f bb 3f f5 14 44 c0
       0.15439709 -1.620971 1.4648286 -3.063779
0001b0 a7 6e f8 3e f8 10 1d 3e 4d cb b0 3e c2 97 7b 3e
       0.4852192 0.15338504 0.34530106 0.2456961
0001c0 58 a1 55 3f 8b 12 63 bf 9c 6e d2 3e 7c 82 5e bf
       0.83449316 -0.8870017 0.41100013 -0.86917853
0001d0 43 f9 dc 3d e1 ff ba bf 0a fa c2 3f 2d 7e 3e c0
       0.107897304 -1.4609338 1.5232556 -2.9764512
0001e0 cb 33 ed 3e c1 c4 22 3e ae ac c6 3e 7c 0d b6 3e
       0.46328577 0.15895368 0.3880362 0.35557163
0001f0 fe c4 47 3f dc 34 6c bf 48 87 ad 3e 78 91 43 bf
       0.7803496 -0.92268157 0.33892274 -0.7639384
000200 10 8d c4 3d 7f d3 b3 bf f1 c1 ad 3f af 9b 32 c0
       0.09597218 -1.4048918 1.3574811 -2.7907522
000210 e2 32 0e 3f 66 b9 aa 3c 8f 79 cd 3e 0e 16 1c 3f
       0.5554639 0.020840358 0.40131804 0.6097115
000220 81 64 cf 3e 24 d4 13 bf 1b a7 88 3e 0a db d2 be
       0.40506366 -0.57745576 0.2668999 -0.4118274
000230 2a 26 4a be e4 e0 63 bf 49 6b b3 3f 57 99 d4 bf
       -0.19741121 -0.8901503 1.4017116 -1.6609296
000240 b2 0a 0f 3f 08 bb 90 3d 35 90 c6 3e 54 41 f5 3e
       0.55875695 0.070669234 0.38781896 0.47901404
000250 91 f5 fe 3e 0f f2 1d bf 71 f7 87 3e be dc be be
       0.49796727 -0.6169748 0.2655597 -0.37277788
000260 62 93 93 bd b1 d5 5a bf 21 5c c3 3f c8 70 d7 bf
       -0.072058454 -0.8548232 1.526249 -1.6831293
000270 e2 29 08 3f 3f 34 b7 3d a0 8f b5 3e 51 e3 d8 3e
       0.5318891 0.08945512 0.3546114 0.4236093
000280 b7 33 ea 3e d6 c1 18 bf 0e 1b b9 3e 70 14 bb be
       0.4574258 -0.5967077 0.36153454 -0.3653903
000290 ca 23 c0 bd 29 95 56 bf e8 b6 b7 3f dd 17 c6 bf
       -0.09381826 -0.8382135 1.4352694 -1.5476032
0002a0 7f 2d 03 3f 56 4f b7 3d f5 b7 a7 3e b8 bb c6 3e
       0.51241297 0.08950679 0.32757536 0.38815093
0002b0 5c 46 d0 3e 9e d6 36 bf 54 40 c6 3e f3 37 98 be
       0.4067868 -0.7142123 0.38720953 -0.29730186
0002c0 cd e1 b8 bd 2b 88 61 bf 3e 58 ad 3f 17 cf b4 bf
       -0.09027443 -0.880984 1.3542554 -1.4125699
0002d0 6f e1 f2 3e 91 4b b8 3d 94 ab bb 3e 44 67 aa 3e
       0.47437617 0.08998788 0.3665434 0.3328191
0002e0 7f f4 03 3f 2f 36 25 bf f5 51 be 3e 0a d6 dd be
       0.51544946 -0.645358 0.37171903 -0.4332736
0002f0 9b a2 99 3c 1d 68 7f bf 47 96 a3 3f 3b 05 c9 bf
       0.018754294 -0.9976824 1.2780236 -1.5704721
000300 a0 f4 f4 3e ce 3b bd bc 6e 2f b7 3e 7c 22 d2 3e
       0.47842884 -0.023099806 0.35778373 0.41041934
000310 d0 55 c3 3e 3c 1a 2e bf 56 f5 c3 3e 66 bd c3 be
       0.38151407 -0.6800878 0.38273114 -0.38230437
000320 64 17 19 be ca b3 7b bf a0 dd 97 3f ce 56 c2 bf
       -0.14950329 -0.9832121 1.186451 -1.5182741
000330 3a 3c fa 3e 0a a5 29 3d 6a aa 95 3e c1 0e e2 3e
       0.48874074 0.04141716 0.29231578 0.4415188
000340 76 b8 cb 3d b8 55 38 bf a3 fe f2 3e 56 7a 5b be
       0.099472925 -0.72005796 0.47459897 -0.21433386
000350 3f 70 89 be f8 1f 44 bf b7 f2 9e 3f 38 a7 b2 bf
       -0.2684345 -0.7661128 1.2417821 -1.3957281
000360 5d 4c 02 3f 1d fd b5 3d f3 45 b1 3e 88 db ea 3e
       0.5089777 0.08886168 0.3462368 0.45870614
000370 16 3d d1 bc 00 cd 3d bf b0 29 1e 3f 01 9e 48 be
       -0.025541823 -0.7414093 0.6178236 -0.19591524
000380 07 c2 c8 be f0 ee 39 bf e9 6a a1 3f 4a 50 c5 bf
       -0.3921053 -0.72630215 1.2610751 -1.5415127
000390 ff 52 e4 3e 50 b6 26 3e dd 5f 99 3e 0e 83 87 3e
       0.4459457 0.16280484 0.2995595 0.26467174
0003a0 5f 0e a6 3d 28 91 11 bf 4a 54 30 3f e5 1c be be
       0.0810821 -0.56862116 0.68878615 -0.3713142
0003b0 82 70 ec be da 63 6d bf 91 05 b9 3f 8f 77 f7 bf
       -0.46179587 -0.92730486 1.4454824 -1.9333361
0003c0 34 ad ce 3e 74 a8 28 3e fc d0 90 3e b1 2b 7e 3e
       0.40366518 0.1647051 0.28284442 0.24821354
0003d0 ef 17 83 3d e0 b3 eb be 15 95 24 3f 50 2a d4 be
       0.06401049 -0.4603567 0.6428998 -0.41438532
0003e0 8c eb 0c bf 1f 81 4f bf c0 87 ce 3f f8 24 fa bf
       -0.55046916 -0.810564 1.6135178 -1.9542532
0003f0 28 e5 9f 3e 57 43 95 3e e4 0a 32 3e 34 ea 0e 3e
       0.3122952 0.2915294 0.17386967 0.13956529

jaw_pose f4 [97, 3]
000000 85 41 06 3d 14 67 b7 3b bd 20 d3 3a cb 95 26 3d
       0.032777328 0.0055970047 0.0016107779 0.040670197
000010 7c 87 c9 3b 55 3d e3 3a c9 39 0c 3d 13 e0 f4 3b
       0.006150184 0.0017337004 0.034234796 0.007473001
000020 ea 03 58 3b ac 9f 19 3d 39 ba 31 3c 1d 8a 83 3b
       0.0032961317 0.03750579 0.010847622 0.004014267
000030 a1 9e 27 3d 0b a3 32 3c e9 4e 96 3b ab 7f f2 3c
       0.040922765 0.01090313 0.0045870435 0.029601892
000040 a9 4a 51 3c cf 5c 99 3b 33 13 d4 3c 6a 25 8c 3c
       0.012774148 0.004680253 0.025888061 0.017107684
000050 27 ae b1 3b 2e c5 fb 3c 95 ab 82 3c 9b de a7 3b
       0.005422372 0.030733671 0.015950957 0.005122972
000060 d1 5c cb 3c aa 9a 98 3c 73 55 e8 3b 12 22 94 3c
       0.024824532 0.018628437 0.0070902645 0.018082652
000070 89 95 ae 3c 3d 2d 12 3c 2c b3 88 3c 90 7f b3 3c
       0.021311538 0.008921918 0.016686998 0.021911412
000080 57 ce 0c 3c a2 11 39 3c 68 87 b3 3c c0 83 d0 3b
       0.008594117 0.011295708 0.021915153 0.006363362
000090 8f bc a5 3c fc 8f ae 3c c2 b7 0c 3c df 60 44 3c
       0.020231513 0.021308891 0.008588733 0.0119859865
0000a0 b5 84 ae 3c 59 c3 d1 3b f3 04 76 3b db cc b3 3c
       0.021303514 0.006401461 0.003753957 0.021948269
0000b0 9b ae 09 3c 4e df 0e 3c 9c 8b a8 3c 6a 8d 9d 3b
       0.008403446 0.008720232 0.020574383 0.0048081176
0000c0 41 bf c7 3b a7 16 aa 3c 32 d4 f5 3b 9d f8 2e 3b
       0.0060957973 0.020762755 0.0075021023 0.0026698478
0000d0 94 30 a4 3c 58 bc a6 3b c0 70 17 bc 40 fd 8e 3c
       0.020042695 0.0050883703 -0.00924319 0.017454743
0000e0 e7 2b 92 3b 6e 6d b5 bc 02 54 9e 3c 08 64 89 3b
       0.0044608 -0.022146907 0.019327167 0.004192833
0000f0 b8 04 12 bd d4 8a 82 3c ef 1b 8d 3b 2c 86 2c bd
       -0.03564903 0.015935339 0.0043063085 -0.042120144
000100 1b 9d 99 3c 08 29 70 3b 83 d8 10 bd 0a 11 5f 3c
       0.018751672 0.003664555 -0.03536273 0.013614902
000110 b8 98 a0 3b 3f 3b 04 bd 69 20 8b 3c 0c 8c 68 3b
       0.004901018 -0.032283064 0.016983228 0.0035483865
000120 18 55 1e bd 2b 78 94 3c c9 d1 78 3b 35 98 28 bd
       -0.03865537 0.018123707 0.0037966839 -0.04116078
000130 1e e9 9a 3c c5 fb 77 3b 4f 95 1d bd aa cc 51 3c
       0.018909987 0.0037839275 -0.03847247 0.012805143
000140 52 7e 91 3b 25 69 d0 bc 2a bb 31 3c c4 5d 7a 3b
       0.0044401074 -0.025440762 0.010847846 0.0038202861
000150 b4 80 a2 bc 12 88 27 3c 54 70 63 3b 43 a1 0b bd
       -0.019836761 0.010225313 0.0034704404 -0.034089338
000160 47 07 26 3c 7e b9 4a 3b e4 49 1c bd 80 0d 62 3c
       0.010133571 0.0030933316 -0.038156405 0.013797164
000170 86 77 65 3b aa 5f 15 bd 99 bb 20 3c 43 20 51 3b
       0.0035013868 -0.036468185 0.009810352 0.0031910099
000180 88 93 ce bc ad 88 6e 3c 89 10 6e 3b 44 65 f3 bc
       -0.025216833 0.014558953 0.0036325774 -0.029711373
000190 73 2c 41 3c de 69 8c 3b b5 6d ed bc a0 57 80 3c
       0.011790383 0.0042850813 -0.028982976 0.015666783
0001a0 d6 10 6f 3b 1e c0 a2 bc f9 8c 6a 3c 13 2a 98 3b
       0.003647854 -0.019867 0.014315837 0.0046436875
0001b0 76 1d a7 bc 7d 2d 6e 3c 9d fe 85 3b d3 c1 4e bc
       -0.02039979 0.014537212 0.00408919 -0.0126194535
0001c0 48 4a 3f 3c f8 bc 98 3b 77 e4 8e bc 91 e0 36 3c
       0.011675425 0.0046611987 -0.017442925 0.011161939
0001d0 90 18 8f 3b 84 1b 29 bc 34 6f 43 3c 7f d6 8f 3b
       0.0043669418 -0.010321502 0.011928368 0.0043895836
0001e0 27 17 42 bb a5 e9 2f 3c 90 33 89 3b e3 78 aa 3c
       -0.002961585 0.010736858 0.004187055 0.020809596
0001f0 5e b4 1b 3c 8b 5f 85 3b 80 6a ce 3c c3 52 09 3c
       0.009503452 0.0040702275 0.025197268 0.008381548
000200 19 ff 43 3b b0 46 ab 3c cc 1b 01 3c ea 97 5a 3b
       0.0029906689 0.02090773 0.007880162 0.0033354708
000210 75 87 d0 3b a7 b8 ca 3b 80 1e e0 3a b6 0d 1a 3c
       0.006363804 0.006186563 0.0017098933 0.009402683
000220 4f 6a f3 3b 64 12 5a 3b b5 a2 84 3c 76 85 f0 3b
       0.0074284445 0.0033275122 0.016190866 0.0073401285
000230 5e 4f f2 3a 05 91 d8 3c 85 c5 c6 3b c7 6a 0f 3b
       0.0018486788 0.026436338 0.0060660266 0.0021883713
000240 71 f7 c9 3c 62 91 12 3c 85 c2 7e 3b 3e 41 e2 3c
       0.024654122 0.008945795 0.0038873267 0.027619
000250 36 79 04 3c 12 b2 6d 3b d8 e4 f0 3c 29 bc 03 3c
       0.00808554 0.0036269468 0.029405996 0.008040466
000260 92 be 82 3b 0c 2f ac 3c ef 1a c0 3b ec b6 0c 3b
       0.003990003 0.021018527 0.0058625857 0.0021471335
000270 58 4c ec 3c 7b 7d 0c 3c 09 cc 82 3b 95 d6 80 3c
       0.028844997 0.008574839 0.003991608 0.01572732
000280 76 9d b8 3b e7 7a 28 3b de bf 94 3c 8f 43 a8 3b
       0.005634005 0.002570802 0.018157896 0.0051350067
000290 a1 21 b7 3a 98 ae 65 3c 39 7f ae 3b 09 0d fd 3a
       0.0013971814 0.014018677 0.0053252247 0.0019306253
0002a0 60 fb be 3c 17 09 d3 3b 4f 59 2f 3b 58 00 a4 3b
       0.023313224 0.0064402926 0.0026756113 0.005004924
0002b0 53 13 9d 3b 2a 01 f6 3a 21 fc 22 3c 06 f5 ab 3b
       0.0047935634 0.0018768657 0.0099478075 0.005247715
0002c0 33 f8 0b 3b 0a 93 fe 3b b2 ab c7 3b b6 cb 11 3b
       0.0021357655 0.0077689933 0.0060934657 0.0022246665
0002d0 61 a1 4f 3c 53 2a e8 3b 7b 88 50 3b 8a 8d 8e 3c
       0.012672753 0.0070851236 0.003181963 0.017401475
0002e0 34 b3 b2 3b 91 d0 e0 3a 21 19 2e 3c e3 d3 a2 3b
       0.0054534916 0.0017152001 0.010626108 0.0049691065
0002f0 af 09 f4 3a bc 04 a1 bb 64 d8 d1 3b 35 07 4b 3b
       0.0018618609 -0.0049138945 0.0064039696 0.0030979638
000300 d8 ec 5e bc cb 44 c8 3b 02 63 e1 3a 37 da 34 3b
       -0.013606273 0.0061117164 0.0017195644 0.0027595886
000310 b8 23 d0 3b c4 87 04 3b c1 8d 8d 3a 71 dc 21 3b
       0.0063519143 0.0020222524 0.0010799692 0.0024698044
000320 aa d4 c9 3a a7 33 2a bb 43 ae e0 3b 6a b8 52 3b
       0.0015398462 -0.0025970729 0.006856711 0.0032153376
000330 97 d0 21 bc 08 90 fd 3b e4 55 6b 3b a6 f4 5b bb
       -0.009876392 0.007738117 0.003590935 -0.003356257
000340 97 7c 20 3c ef 8a 8d 3b 12 bf 02 3c 60 de 1c 3c
       0.0097953295 0.0043195407 0.007980125 0.009574503
000350 01 da 8e 3b f5 5a 34 3c bc 97 20 3c 37 da 8b 3b
       0.004359484 0.011008014 0.009801801 0.0042679566
000360 9a 25 55 3c 88 d7 1e 3c 0c ff 85 3b a0 69 49 3c
       0.013009453 0.009694941 0.004089242 0.012293249
000370 62 27 7c 3c 4c 32 6c 3b 2a 89 3a 3c cc f7 73 3c
       0.015390249 0.0036040721 0.0113852415 0.014890622
000380 47 46 8d 3b 03 6d 5f bb 05 08 4f 3c 19 4c 8e 3b
       0.004311356 -0.0034092076 0.012636189 0.0043425676
000390 2c 5c af bc 33 e8 82 3c d1 29 52 3b 85 45 5c bc
       -0.021406256 0.015979862 0.0032068382 -0.013444309
0003a0 67 7c 42 3c 8b be 93 3b 54 5f a2 bc 61 4a 75 3c
       0.01187048 0.0045087985 -0.019820847 0.014971347
0003b0 2f 28 88 3b a9 2e b3 bc 05 78 4a 3c b5 c2 81 3b
       0.004155181 -0.021872835 0.012357716 0.0039599785
0003c0 4a ab f5 bc 35 c3 83 3c 74 f6 86 3b 62 6e 0b bd
       -0.029988904 0.016084293 0.004118735 -0.034040816
0003d0 b1 81 6f 3c 8a 96 8c 3b 92 b4 9e bc 80 bf 33 3c
       0.014618323 0.0042904066 -0.019373212 0.01097095
0003e0 4c e6 83 3b 71 df f7 bc 24 18 53 3c d9 ec 71 3b
       0.0040252563 -0.030257912 0.012884174 0.0036914854
0003f0 54 06 b0 bc 5e 51 62 3c 44 ab 8c 3b af e1 a1 bc
       -0.021487392 0.013813345 0.0042928774 -0.019760935
