test_dataset/gait_809/20250819_c1_a2_Take2/split_subjects/0/fit-smplx/smplx-params_cut.npz (npz, 36486 bytes, 10 tensors)

betas f4 [69, 11]
0	0x3efbc29e	0.4917192
1	0xbfcf06d0	-1.6173954
2	0x3f6d36ce	0.9266175
3	0xbf07ba7d	-0.53018934
4	0xbf1ce740	-0.6129036
5	0xbe9fb415	-0.3119208
6	0xbef4df8c	-0.47826803
7	0x3ed2692d	0.41095868
8	0x3f1fd9e3	0.62441844
9	0x3e0e3c78	0.13890254
10	0x3eaf642e	0.3425612
11	0x3f0446a1	0.5167027
12	0xbfcd3b72	-1.6033766
13	0x3f78c577	0.9717631
14	0xbed07b58	-0.40719104
15	0xbf375113	-0.71608084
16	0xbe9d52f5	-0.30727354
17	0xbef5acea	-0.47983485
18	0x3e8038a0	0.250432
19	0x3f0e98dd	0.55702
20	0x3e1697da	0.14706364
21	0x3eb203b6	0.34768456
22	0x3f0b4995	0.5440915
23	0xbfc78bc8	-1.5589533
24	0x3f6d1133	0.9260437
25	0xbe5d5f54	-0.21618396
26	0xbf4fece3	-0.81220835
27	0xbea10235	-0.31446996
28	0xbf008d07	-0.5021519
29	0x3e61272f	0.21987604
30	0x3f0b5c8b	0.54438084
31	0x3e14d7c6	0.14535436
32	0x3eb6852e	0.35648483
33	0x3f116194	0.5678952
34	0xbfd29c99	-1.645404
35	0x3f81ea98	1.0149717
36	0x3c5d6edb	0.0135152
37	0xbf6764f0	-0.90388393
38	0xbeaa3e2e	-0.33250564
39	0xbf005499	-0.50129086
40	0x3e737457	0.23774849
41	0x3ee66ffb	0.4500731
42	0x3e091057	0.1338514
43	0x3eb8728f	0.360249
44	0x3f142d0c	0.57881236
45	0xbfcce26d	-1.60066
46	0x3f843613	1.0329002
47	0xbb83ef42	-0.0040263245
48	0xbf6a07a1	-0.9141789
49	0xbec5bbd3	-0.3861986
50	0xbf01cc08	-0.5070195
51	0x3e8998ed	0.26874486
52	0x3ef4d35b	0.478175
53	0x3e03ab8e	0.12858412
54	0x3eb8b615	0.36076418
55	0x3f14f549	0.58186775
56	0xbfd198c4	-1.6374745
57	0x3f92159a	1.1412842
58	0xbc640cfd	-0.013919112
59	0xbf64a54f	-0.8931474
60	0xbecfc2e1	-0.40578368
61	0xbef07b18	-0.46968913
62	0x3e9b93d5	0.30386224
63	0x3f0b84ba	0.544994
64	0x3ded4339	0.11585087
65	0x3eb8ea04	0.3611604
66	0x3f16b53b	0.58870286
67	0xbfd37b5d	-1.6522022
68	0x3f9c318c	1.220262
69	0xbd11b40c	-0.035572097
70	0xbf540550	-0.82820606
71	0xbee0bd07	-0.43894216
72	0xbee0df34	-0.4392029
73	0x3e84951d	0.25895014
74	0x3ef7e013	0.48413143
75	0x3e06dec1	0.13170911
76	0x3eb95211	0.36195424
77	0x3f174323	0.5908682
78	0xbfccb0b0	-1.5991421
79	0x3f914e68	1.1352053
80	0xbbb1bacd	-0.0054238797
81	0xbf4a004a	-0.7890669
82	0xbeb9276f	-0.36162898
83	0xbedd16d5	-0.43181482
84	0x3e86028a	0.26173812
85	0x3ee0cd8e	0.43906826
86	0x3e038a68	0.12845767
87	0x3eba9b87	0.36446783
88	0x3f1d966d	0.61557657
89	0xbfc4da96	-1.5379207
90	0x3f8a8222	1.0820963
91	0xbd012279	-0.031527016
92	0xbf407609	-0.7518011
93	0xbec2ab55	-0.3802134
94	0xbeae9cfc	-0.34104145
95	0x3e953604	0.29142773
96	0x3ef12f33	0.47106323
97	0x3df2229f	0.1182301
98	0x3ebb56fc	0.365898
99	0x3f227300	0.63456726
100	0xbfbe7c9d	-1.4881779
101	0x3f7f63b5	0.99761516
102	0xbdd84706	-0.10560422
103	0xbf37d0e7	-0.71803135
104	0xbe9ff2b4	-0.31239855
105	0xbeab5735	-0.3346497
106	0x3e97c727	0.2964413
107	0x3efdc835	0.49566808
108	0x3ddd259c	0.10798189
109	0x3ebb8a8b	0.36629137
110	0x3f209f6a	0.62743247
111	0xbfbda4f5	-1.4815966
112	0x3f6bce6d	0.92111856
113	0xbdd7429b	-0.10510751
114	0xbf2eb14f	-0.682393
115	0xbe85a331	-0.26101068
116	0xbe8d57e0	-0.27606106
117	0x3eb0c2ea	0.34523708
118	0x3eedcfe3	0.46447667
119	0x3dc7cc6b	0.097557865
120	0x3eb9d1d0	0.36292887
121	0x3f2481d7	0.6426062
122	0xbfbb37ad	-1.4626366
123	0x3f48f620	0.78500557
124	0xbe08b9dc	-0.1335215
125	0xbf1fcae6	-0.62418973
126	0xbe279774	-0.16366369
127	0xbe95240c	-0.29129064
128	0x3ee4ecc9	0.44711903
129	0x3ecb8887	0.397526
130	0x3db71c06	0.08940892
131	0x3eb965b6	0.36210412
132	0x3f2ee3f4	0.6831658
133	0xbfbbb7a3	-1.4665416
134	0x3f126867	0.57190555
135	0xbdcd7e5c	-0.10033867
136	0xbf220a22	-0.6329671
137	0xbbf9e603	-0.0076262965
138	0xbea39181	-0.31946948
139	0x3ef07010	0.46960497
140	0x3e8e12a5	0.277486
141	0x3dbcc866	0.092179105
142	0x3eb7a2a7	0.3586628
143	0x3f4fed33	0.8122131
144	0xbff2f02f	-1.8979548
145	0x3f4d6807	0.8023686
146	0x3de575f8	0.112041414
147	0xbf8d4e7e	-1.1039579
148	0x3daafa85	0.08348564
149	0xbf03a789	-0.51427513
150	0x3f4e25a0	0.8052616
151	0x3d61ebbe	0.055156462
152	0x3df3bbc1	0.119010456
153	0x3eade2f6	0.3396222
154	0x3f6178fe	0.88075244
155	0xbff2ee93	-1.8979057
156	0x3f47c9d9	0.7804237
157	0x3e55879f	0.20852517
158	0xbf954b5f	-1.1663626
159	0x3d99adaa	0.07503827
160	0xbf190422	-0.5977193
161	0x3f43aed1	0.76438624
162	0x3daecae1	0.0853479
163	0x3e0f4b15	0.13993485
164	0x3eafa7c5	0.34307685
165	0x3f67829a	0.9043366
166	0xbfeaf7fb	-1.8356928
167	0x3f3d9c59	0.7406669
168	0x3e496164	0.19666058
169	0xbf91a716	-1.1379116
170	0x3c8a3e67	0.016875459
171	0xbf2fcf87	-0.68676037
172	0x3f22976b	0.63512295
173	0x3e0cf7e5	0.1376644
174	0x3e014d1e	0.12627074
175	0x3eb296ed	0.34880772
176	0x3f6ff022	0.9372579
177	0xbfe5aee1	-1.7943994
178	0x3f4aa30f	0.7915506
179	0x3e2ba794	0.16763145
180	0xbf8b62b5	-1.0889498
181	0x3db3ef31	0.087858565
182	0xbf34d9be	-0.7064475
183	0x3f11a11a	0.56886446
184	0x3e120edb	0.1426348
185	0x3de26ad3	0.11055531
186	0x3eb49625	0.352708
187	0x3f73049b	0.949289
188	0xbfe08af0	-1.75424
189	0x3f53127d	0.82450086
190	0x3e09b487	0.13447772
191	0xbf951850	-1.1648045
192	0x3e0f4a99	0.139933
193	0xbf2468c8	-0.64222383
194	0x3f1b18e8	0.6058488
195	0x3e3b2f80	0.18279839
196	0x3e01e66d	0.12685557
197	0x3eb58b01	0.35457614
198	0x3f72f537	0.9490542
199	0xbfe398c1	-1.7780992
200	0x3f63419c	0.88771987
201	0x3dcccbcf	0.09999811
202	0xbfa414aa	-1.2818806
203	0x3de28364	0.11060217
204	0xbf21aac6	-0.63151205
205	0x3f2c7a8e	0.67374504
206	0x3e2d01c9	0.16895212
207	0x3de4d7a9	0.111739464
208	0x3eb3a0b7	0.35083553
209	0x3f759924	0.959368
210	0xbfe33e5e	-1.7753408
211	0x3f76614b	0.9624221
212	0x3e081c1e	0.13291976
213	0xbf98fd7c	-1.1952357
214	0x3d8498c9	0.06474454
215	0xbf126850	-0.5719042
216	0x3f1e3f91	0.61815745
217	0x3e75e88f	0.24014495
218	0x3e052c44	0.13005167
219	0x3eb5e871	0.355289
220	0x3f67bc33	0.90521544
221	0xbfe6f27a	-1.8042748
222	0x3f871584	1.0553441
223	0x3e2c5c71	0.16832139
224	0xbf9251a7	-1.1431168
225	0x3cd02b84	0.025411375
226	0xbf1133bb	-0.5671956
227	0x3f086316	0.53276193
228	0x3e9c242a	0.3049634
229	0x3e0e9be9	0.13926663
230	0x3eb51be8	0.35372853
231	0x3f5a594e	0.8529252
232	0xbfee6358	-1.8624067
233	0x3f951d84	1.1649632
234	0x3e7250f1	0.23663689
235	0xbf8e2f13	-1.1108116
236	0xbd30b58b	-0.043141883
237	0xbf198f62	-0.5998441
238	0x3f0a330e	0.53984153
239	0x3e98b42d	0.29824963
240	0x3e09059b	0.13381045
241	0x3eb424ba	0.3518427
242	0x3f49eb99	0.7887512
243	0xbff46a8b	-1.9095014
244	0x3f9e3ac1	1.236168
245	0x3e8e29e3	0.27766332
246	0xbf9abc4d	-1.2088715
247	0xbdd24d9a	-0.102687076
248	0xbf164daa	-0.58712256
249	0x3f0fbafd	0.56144696
250	0x3e9857e4	0.29754555
251	0x3e2db832	0.16964796
252	0x3eb2593f	0.34833714
253	0x3f425cf6	0.759231
254	0xbff9f254	-1.9527078
255	0x3f9e6dde	1.2377279

global_orient f4 [69, 3]
0	0xbc2586b1	-0.010102914
1	0xc03e0034	-2.9687624
2	0xbd4c2cbb	-0.049847346
3	0x3b288025	0.0025711146
4	0xc03d0804	-2.9536142
5	0xbd885799	-0.06657333
6	0x3c90f16f	0.01769325
7	0xc03ceb9b	-2.9518802
8	0xbda24682	-0.079236045
9	0x3cce9b34	0.025220491
10	0xc03e4dd2	-2.9734998
11	0xbda3fc94	-0.0800716
12	0x3d2c5010	0.04206854
13	0xc03eb910	-2.9800453
14	0xbd9f4e40	-0.07778597
15	0x3d8060df	0.06268477
16	0xc03f1d9c	-2.9861822
17	0xbda32947	-0.079668574
18	0x3df4daa9	0.119557686
19	0xc03ce184	-2.9512644
20	0xbdb81be6	-0.08989696
21	0x3e1970df	0.14984463
22	0xc03b2a93	-2.9244735
23	0xbdb577f3	-0.08860769
24	0x3e29abda	0.16569462
25	0xc039ca0e	-2.9029574
26	0xbda18691	-0.07886995
27	0x3e436340	0.1908083
28	0xc0367bda	-2.8513093
29	0xbd8f5519	-0.06998653
30	0x3e558265	0.20850523
31	0xc0355716	-2.8334403
32	0xbd8babb4	-0.06819859
33	0x3e4e7d5a	0.20165005
34	0xc0334da6	-2.8016143
35	0xbd77c0af	-0.06048649
36	0x3e3fcaba	0.18729678
37	0xc0315ea1	-2.7714007
38	0xbd48d7ac	-0.049033806
39	0x3e20f3cf	0.15718006
40	0xc02de777	-2.7172525
41	0xbd6efe13	-0.058347773
42	0x3de6e2dc	0.11273739
43	0xc02d0b15	-2.7038014
44	0xbd2da9ca	-0.04239825
45	0x3d856ad7	0.06514519
46	0xc02ac2ee	-2.6681476
47	0xbd337f84	-0.04382278
48	0x3d0b4e28	0.034010082
49	0xc027e626	-2.6234221
50	0xbd801c6d	-0.06255422
51	0x3d2bdccb	0.04195861
52	0xc026faee	-2.6090655
53	0xbd9bef90	-0.07614052
54	0x3d6a8140	0.05725217
55	0xc026a0ee	-2.6035724
56	0xbda54af8	-0.0807094
57	0x3d45b0d9	0.04826436
58	0xc027b95a	-2.620688
59	0xbdaedfa6	-0.08538751
60	0x3d2b212e	0.04177969
61	0xc02ac0f6	-2.6680274
62	0xbd974b41	-0.073874004
63	0x3ca63049	0.020286696
64	0xc02f0105	-2.7344372
65	0xbd82400f	-0.063598745
66	0xbb8034f1	-0.003912561
67	0xc0336783	-2.8031929
68	0xbd0630ed	-0.032761503
69	0xbcb667bc	-0.022266261
70	0xc0373f55	-2.8632405
71	0xbc1209ff	-0.008913516
72	0xbd182802	-0.03714753
73	0xc03b590a	-2.9273095
74	0xbabd91a7	-0.0014462963
75	0xbd427be0	-0.047481418
76	0xc03ea719	-2.9789488
77	0x3a6ffe30	0.00091550034
78	0xbd5d0876	-0.053963147
79	0xc040c076	-3.011747
80	0x3b697030	0.0035619847
81	0xbd55637e	-0.052096836
82	0xc042e367	-3.0451295
83	0x3c443689	0.011975893
84	0xbd689ae8	-0.056788355
85	0xc04352c9	-3.0519278
86	0x3ca86587	0.020556225
87	0xbd7c10ae	-0.061539344
88	0xc045dfa8	-3.091776
89	0xbc8b4863	-0.01700229
90	0xbd6b3e2b	-0.057432335
91	0xc0472ed2	-3.1122327
92	0xbd3eca4a	-0.046579637
93	0xbd7c39fe	-0.061578743
94	0xc0483e77	-3.1288126
95	0xbdccd11c	-0.10000822
96	0xbd4ac071	-0.049499933
97	0xc047e38d	-3.1232636
98	0xbde8abba	-0.11360879
99	0xbcc299c9	-0.023754971
100	0xc046c95f	-3.1060407
101	0xbdf05d23	-0.117365144
102	0xbb331025	-0.0027322855
103	0xc043f4a5	-3.061807
104	0xbdf70e44	-0.12063268
105	0x3ce1a41a	0.02754407
106	0xc040f3d4	-3.014882
107	0xbdf205dd	-0.118175246
108	0x3d5ab429	0.05339447
109	0xc03e8fba	-2.9775224
110	0xbdcc3eb8	-0.099729
111	0x3d993ab9	0.074819036
112	0xc03b3789	-2.9252646
113	0xbd8f8d2a	-0.07009347
114	0x3db01be0	0.08599067
115	0xc0377d9d	-2.8670418
116	0xbd1a14fe	-0.037617676
117	0x3d7641fc	0.06012152
118	0xc0356628	-2.8343601
119	0xbccae907	-0.02476932
120	0x3cb34678	0.021884188
121	0xc032d597	-2.7942865
122	0xbc97cb0e	-0.018529441
123	0x3c6ac3dc	0.014328923
124	0xc030f4c0	-2.7649384
125	0xbc972898	-0.018451974
126	0xbc740411	-0.014893548
127	0xc030a144	-2.7598429
128	0xbcbffe94	-0.023436822
129	0xbd498d01	-0.049206737
130	0xc02dd1b1	-2.7159235
131	0xbd3c9357	-0.04603895
132	0xbd95b462	-0.07309796
133	0xc02b52dc	-2.6769323
134	0xbda12096	-0.078675434
135	0xbda3c744	-0.07996991
136	0xc02811c3	-2.626084
137	0xbdeedcec	-0.11663231
138	0xbd9e5355	-0.07730738
139	0xc027b7ea	-2.6206002
140	0xbe0c8db3	-0.13725929
141	0xbd8e4e47	-0.06948524
142	0xc02861a6	-2.63096
143	0xbe112544	-0.14174372
144	0xbd93857d	-0.07203195
145	0xc02b036a	-2.6720834
146	0xbe0c9520	-0.13728762
147	0xbdc7b7b8	-0.097518384
148	0xc02df427	-2.7180269
149	0xbdf8c574	-0.12147036
150	0xbde75263	-0.11295011
151	0xc032e644	-2.7953043
152	0xbda94c5d	-0.08266518
153	0xbe02935c	-0.12751526
154	0xc035ec1f	-2.8425367
155	0xbd82e3a6	-0.06391077
156	0xbe147feb	-0.14501922
157	0xc03879a0	-2.8824234
158	0xbd88fd25	-0.066889085
159	0xbe0705a8	-0.13185751
160	0xc03ab3cd	-2.9172242
161	0xbdafa082	-0.08575536
162	0xbdf7c70a	-0.120985106
163	0xc03da38b	-2.9631069
164	0xbdb62b09	-0.08894927
165	0xbde6e3a7	-0.1127389
166	0xc040d094	-3.0127306
167	0xbdc061f5	-0.09393684
168	0xbdd8fdac	-0.10595259
169	0xc0441b5e	-3.0641704
170	0xbdc37f24	-0.095457345
171	0xbdc5f49a	-0.09665795
172	0xc0474fe8	-3.114252
173	0xbdc19abd	-0.09453342
174	0x3db35706	0.08756833
175	0x4048249f	3.1272352
176	0x3db28eee	0.08718668
177	0x3d9706ce	0.07374345
178	0x404612ea	3.0949044
179	0x3dbaec3d	0.0912709
180	0x3d6b0714	0.057379797
181	0x4046c695	3.1058705
182	0x3dc5c713	0.09657111
183	0x3d006c9d	0.03135358
184	0x40487a63	3.13247
185	0x3db32b75	0.08748523
186	0xba5f2ca1	-0.0008513425
187	0xc048a0e2	-3.1348195
188	0xbdc3c871	-0.095597155
189	0x3d147ad5	0.036249954
190	0xc04751eb	-3.1143749
191	0xbdaca207	-0.08429342
192	0x3d5ccb64	0.053904906
193	0xc048779b	-3.1323001
194	0xbdabe77e	-0.08393763
195	0x3d7ee207	0.062227275
196	0xc047ef85	-3.123994
197	0xbdc181cb	-0.09448584
198	0x3db95437	0.09049266
199	0xc04655dd	-3.0989907
200	0xbdb5cdc7	-0.088771395
201	0x3de37000	0.11105347
202	0xc044e8d1	-3.07671
203	0xbdac55ec	-0.08414826
204	0x3dffbfbd	0.12487743
205	0xc0427224	-3.0382166
206	0xbdb08923	-0.08619907

body_pose f4 [69, 63]
0	0xbedc7640	-0.43058968
1	0xbdd55abc	-0.10417697
2	0x3d1a9237	0.037737098
3	0x3bf6e910	0.0075351074
4	0x3e380fde	0.17974803
5	0xbd374971	-0.044747774
6	0x3e4e25d5	0.2013162
7	0x3db6e9c3	0.08931305
8	0x3d3172ca	0.043322362
9	0x3f28bedf	0.65916246
10	0xbdfc342d	-0.12314639
11	0x3d882dd5	0.06649367
12	0x3f17314b	0.5905959
13	0x3dc38d90	0.09548485
14	0xbc93e8e7	-0.018055392
15	0xbb8f0c53	-0.004365483
16	0x3d946ff1	0.07247914
17	0xbdbd22d5	-0.09235159
18	0x3c70d8b0	0.0147001
19	0xbe6bca55	-0.23026402
20	0xbe06b600	-0.13155365
21	0xbe556b70	-0.20841765
22	0x3d060ebb	0.03272889
23	0x3e8e19be	0.27754015
24	0x3e13d2db	0.14435904
25	0x3d257c2f	0.040401634
26	0x3b9471d6	0.004530172
27	0x377679d1	1.4691105e-05
28	0xb784a32e	-1.5811613e-05
29	0x3784ec5c	1.584569e-05
30	0x377667f2	1.4686944e-05
31	0x37843577	1.5760523e-05
32	0xb77d61e0	-1.5102763e-05
33	0x3d9405ee	0.072276935
34	0x3d50674c	0.05087976
35	0xbd415cd9	-0.047207687
36	0x3d1cc2d4	0.03827174
37	0x3d2760f8	0.04086396
38	0xbed2694d	-0.41095963
39	0xbcc47830	-0.023983091
40	0xbda84f15	-0.08218209
41	0x3f12a506	0.57283056
42	0x3d67f336	0.05662843
43	0x3d4f3d9a	0.050595857
44	0x3d0e8e76	0.03480383
45	0x3d59f922	0.053216107
46	0xbe00ad13	-0.12566023
47	0xbf3df772	-0.74205697
48	0x3ca1f232	0.019768808
49	0x3dddf176	0.10837071
50	0x3f3c13f1	0.7346793
51	0x3e063308	0.13105404
52	0xbf1e7fd1	-0.6191378
53	0xbe5c7a8e	-0.21531126
54	0x3e0d250a	0.1378366
55	0x3f1544ce	0.5830811
56	0x3e03940c	0.12849444
57	0x3e52b997	0.2057861
58	0x3d94b8b7	0.07261794
59	0x3dcab0cf	0.09897005
60	0x3e0d1d81	0.13780786
61	0xbd897685	-0.06712059
62	0xbc560cd5	-0.013064583
63	0xbed35064	-0.4127227
64	0xbdc7e2c1	-0.09760047
65	0x3cd7e98a	0.026356477
66	0x3d5fd9b0	0.054650962
67	0x3dc50a09	0.09621055
68	0xbcdd75ad	-0.027033651
69	0x3e2e0c0b	0.16996782
70	0x3d89a4d5	0.06720892
71	0x3d0ca4a1	0.03433669
72	0x3f36c2fe	0.71391284
73	0xbe12e9e2	-0.14347032
74	0x3d859c0f	0.065239064
75	0x3f1c4442	0.61041653
76	0x3dd9bd07	0.10631757
77	0xbd517ff3	-0.051147413
78	0xbbcffb50	-0.0063470975
79	0x3d90c9ce	0.07069741
80	0xbd9d3523	-0.07676151
81	0x3d825096	0.06363027
82	0xbe7ee455	-0.2489179
83	0xbe0375aa	-0.12837854
84	0xbe4efec3	-0.20214371
85	0x3cc50944	0.02405227
86	0x3e8ecab7	0.27889034
87	0x3e2bb437	0.16767965
88	0x3d5200bc	0.05127023
89	0x3c12ce61	0.008960337
90	0x3772ae5b	1.4464919e-05
91	0xb783fbb5	-1.5733627e-05
92	0x378546a0	1.5887723e-05
93	0x37750b75	1.46058055e-05
94	0x378533cd	1.5878957e-05
95	0xb77d574e	-1.5100302e-05
96	0x3e1992c3	0.14997391
97	0x3d2d21e1	0.042268638
98	0xbd385782	-0.04500533
99	0x3d0aea00	0.033914566
100	0x3d646002	0.055755623
101	0xbed46fab	-0.41491446
102	0xbc764d78	-0.015033118
103	0xbdd94392	-0.10608591
104	0x3f09f547	0.5388989
105	0x3dfcf306	0.123510405
106	0x3d2d0c74	0.042248204
107	0x3d1add04	0.037808433
108	0x3d6904cf	0.05688935
109	0xbe13b640	-0.14424992
110	0xbf3e1988	-0.7425771
111	0xbc566726	-0.013086116
112	0x3dbce073	0.09222498
113	0x3f452287	0.7700581
114	0x3e05e9e9	0.13077511
115	0xbf20b5ff	-0.62777704
116	0xbe7b68a1	-0.24551632
117	0x3dfed1d9	0.12442369
118	0x3f1e0f05	0.6174167
119	0x3df14675	0.11781017
120	0x3e4e3859	0.20138682
121	0x3ddcb054	0.107758194
122	0x3d99d181	0.07510663
123	0x3defe77a	0.117140725
124	0xbd659938	-0.056054324
125	0x3c63c622	0.013902219
126	0xbebba082	-0.36645895
127	0xbde6b775	-0.112654604
128	0x3cdaa19d	0.026688391
129	0x3d5d33a2	0.05400432
130	0x3df327d0	0.11872828
131	0xbc8da84f	-0.01729217
132	0x3e173be8	0.14768946
133	0x3db14566	0.08655815
134	0x3cb4073d	0.021976108
135	0x3f383136	0.7195009
136	0xbe152d73	-0.14568119
137	0x3d75f612	0.060049124
138	0x3f2ba30f	0.6704568
139	0x3dce2064	0.10064772
140	0xbd2479ae	-0.040155105
141	0xbbb57655	-0.005537788
142	0x3d76fc67	0.060299303
143	0xbd4d6b14	-0.050150946
144	0x3d7616c5	0.06008031
145	0xbe8dbc6f	-0.27682826
146	0xbe185721	-0.14876987
147	0xbe2653db	-0.16242926
148	0x3cb06876	0.021534186
149	0x3e8e43b2	0.27786022
150	0x3e3ee0c4	0.18640429
151	0x3d5d355b	0.054005962
152	0xbafe4acc	-0.0019400953
153	0x3774674b	1.4567583e-05
154	0xb7832123	-1.5631847e-05
155	0x378581fa	1.591536e-05
156	0x3776fd8c	1.4721776e-05
157	0x37873b72	1.6120935e-05
158	0xb77c7252	-1.5046988e-05
159	0x3e511198	0.20416868
160	0x3d1b6980	0.03794241
161	0xbc8827fa	-0.016620625
162	0x3cbd24dd	0.023088867
163	0x3da4ac38	0.080406606
164	0xbecbff08	-0.3984301
165	0xbcd43df8	-0.025908455
166	0xbe19e5bf	-0.15029047
167	0x3f016dd9	0.5055824
168	0x3e457355	0.19282277
169	0x3cc25483	0.023721939
170	0x3d19f9fd	0.037591923
171	0x3d76ca08	0.060251266
172	0xbe19796b	-0.14987724
173	0xbf413dc2	-0.7548486
174	0x3bb7d50c	0.005610114
175	0x3d96c425	0.0736163
176	0x3f4d40ab	0.801768
177	0x3dfc2f39	0.123136945
178	0xbf2bb527	-0.6707329
179	0xbe79b192	-0.24384144
180	0x3d430844	0.047615305
181	0x3f37234b	0.7153823
182	0x3e05769c	0.13033527
183	0x3e2d2344	0.16907984
184	0x3dffff0f	0.124998204
185	0x3bff5ab4	0.007792795
186	0x3ddf1360	0.10892367
187	0xbd4f6f61	-0.05064333
188	0x3d2a345c	0.04155384
189	0xbeab98be	-0.3351497
190	0xbddc6f8a	-0.10763462
191	0x3d322b5c	0.043498382
192	0x3da5710f	0.08078205
193	0x3dbc734a	0.09201677
194	0xbcb62011	-0.022232087
195	0x3e00f899	0.12594832
196	0x3dbb8870	0.09156883
197	0xbc9a091d	-0.018803174
198	0x3f3f4d3d	0.7472723
199	0xbd9b03a3	-0.07569053
200	0x3d38dfb7	0.045135226
201	0x3f3ba9d8	0.73306036
202	0x3e0ebd66	0.13939437
203	0xbd84f1e8	-0.064914525
204	0xbc63491a	-0.013872409
205	0x3d8cbf0c	0.06872377
206	0xbccf57ca	-0.025310416
207	0x3c14758a	0.009061227
208	0xbea8af31	-0.3294616
209	0xbe1f8c52	-0.15580872
210	0xbd868001	-0.065673836
211	0xbcfe4e3a	-0.03104316
212	0x3e9d9102	0.30774695
213	0x3e525254	0.20539218
214	0x3d9d62f6	0.07684891
215	0x3c1c42b4	0.009537388
216	0x37825712	1.5537753e-05
217	0x37789fef	1.4819189e-05
218	0x3785b789	1.59403e-05
219	0x377e0458	1.5140591e-05
220	0x3786f15a	1.6086433e-05
221	0xb780c152	-1.534881e-05
222	0x3e79ef01	0.24407579
223	0x3d00e56f	0.031468805
224	0x3c59db02	0.013296844
225	0x3ca96cf0	0.020681828
226	0x3dda1d2a	0.10650094
227	0xbecfd7ac	-0.40594232
228	0xbd092af8	-0.033488244
229	0xbe3a548b	-0.18196313
230	0x3ee94870	0.45563078
231	0x3e6cbe0a	0.23119369
232	0x3c4609cc	0.012087297
233	0x3d09fce6	0.03368845
234	0x3d9ad629	0.07560379
235	0xbe1ad6a3	-0.1512094
236	0xbf3f45e4	-0.7471602
237	0xbbc05b42	-0.005870254
238	0x3d1ad2e0	0.037798762
239	0x3f529cca	0.8227049
240	0x3e030b27	0.12797223
241	0xbf3776df	-0.7166576
242	0xbe6f6fff	-0.23382567
243	0x3d08a752	0.033362694
244	0x3f4eb3c0	0.80743027
245	0x3e37889d	0.17923208
246	0x3e373d26	0.1789442
247	0x3da56372	0.08075608
248	0xbcb39b95	-0.021924773
249	0x3d870ca4	0.06594208
250	0x3c4ec9bf	0.012621342
251	0x3d84ae8b	0.06478604
252	0xbe95ff3a	-0.29296285
253	0xbe0d0673	-0.13771991
254	0x3d6ecce3	0.058300864
255	0x3cdab3f4	0.026697136

transl f4 [69, 3]
0	0x3ec12788	0.37725472
1	0x3fafc237	1.3731145
2	0x3f91d2dd	1.1392475
3	0x3eb9679d	0.36211863
4	0x3faf5ded	1.3700539
5	0x3f8e5523	1.1119732
6	0x3eb28b0f	0.34871718
7	0x3faeea86	1.3665321
8	0x3f8aeee2	1.0854151
9	0x3ead643a	0.3386553
10	0x3fae76bf	1.3629988
11	0x3f87ae8d	1.0600144
12	0x3ea8712d	0.32898846
13	0x3fae5d89	1.3622295
14	0x3f84cdda	1.0375321
15	0x3ea39d6f	0.3195605
16	0x3fae611a	1.3623383
17	0x3f81f639	1.0153266
18	0x3e9ea14b	0.30982432
19	0x3fae8693	1.3634819
20	0x3f7e8609	0.9942327
21	0x3e997be2	0.29977328
22	0x3faecd43	1.3656391
23	0x3f7943c4	0.9736903
24	0x3e950090	0.29101992
25	0x3faefb7f	1.36705
26	0x3f7407a4	0.9532416
27	0x3e9051a9	0.28187302
28	0x3faf2382	1.3682711
29	0x3f6e6b51	0.931325
30	0x3e8bed33	0.27329406
31	0x3faf4cbc	1.3695292
32	0x3f681180	0.906517
33	0x3e87c75b	0.26519284
34	0x3faf532d	1.3697258
35	0x3f60f371	0.8787146
36	0x3e836207	0.25660726
37	0x3faf62e4	1.3702054
38	0x3f5926d2	0.8482486
39	0x3e7d7f70	0.24755645
40	0x3fae1e1a	1.3602936
41	0x3f5036b0	0.81333447
42	0x3e712361	0.23548652
43	0x3fad7bf3	1.3553451
44	0x3f45d349	0.7727552
45	0x3e611730	0.21981502
46	0x3facafc0	1.3491135
47	0x3f3b15da	0.7308022
48	0x3e4fbc83	0.20286755
49	0x3fabf083	1.3432773
50	0x3f308634	0.6895478
51	0x3e40abda	0.18815556
52	0x3fabb97f	1.3415984
53	0x3f26815a	0.65041125
54	0x3e346202	0.17615512
55	0x3fabf76d	1.3434883
56	0x3f1dcafa	0.6163784
57	0x3e2837f7	0.16427599
58	0x3facd979	1.3503867
59	0x3f15bc64	0.58490586
60	0x3e1cdf38	0.15319526
61	0x3fae07f2	1.3596175
62	0x3f0e5028	0.5559106
63	0x3e11c379	0.14234723
64	0x3faf2eee	1.3686197
65	0x3f06e611	0.52694803
66	0x3e072f43	0.13201623
67	0x3fb084b0	1.3790493
68	0x3eff5d3b	0.49875817
69	0x3df81905	0.12114147
70	0x3fb1809d	1.3867375
71	0x3ef122b3	0.47096786
72	0x3dddff54	0.108397156
73	0x3fb1c69e	1.3888738
74	0x3ee257a8	0.442075
75	0x3dc34232	0.0953411
76	0x3fb1d6ff	1.3893737
77	0x3ed2bffd	0.411621
78	0x3da57a36	0.080799505
79	0x3fb1a688	1.3878946
80	0x3ec2f0dc	0.38074386
81	0x3d85c961	0.065325506
82	0x3fb0f7d1	1.3825628
83	0x3eb20e72	0.34776646
84	0x3d4f1b9e	0.050563447
85	0x3fb07c33	1.3787903
86	0x3ea01831	0.31268457
87	0x3ceabe33	0.028655147
88	0x3faf28fc	1.3684382
89	0x3e8c242e	0.27371353
90	0x3c12ca23	0.008959326
91	0x3fae6f79	1.3627769
92	0x3e7248ab	0.23660533
93	0xbc2666e0	-0.010156363
94	0x3faddc3d	1.3582836
95	0x3e4cbb19	0.19993247
96	0xbce4d2d6	-0.027932566
97	0x3fadb209	1.3569957
98	0x3e2b2eea	0.16717115
99	0xbd3376a5	-0.04381432
100	0x3fadef9e	1.358875
101	0x3e0cfd30	0.13768458
102	0xbd70ff8b	-0.058837455
103	0x3fae4e80	1.3617706
104	0x3ddeb952	0.10875191
105	0xbd94931d	-0.07254622
106	0x3faee04f	1.3662204
107	0x3da63dc8	0.081172526
108	0xbdadcf31	-0.08486784
109	0x3faf7b0c	1.3709426
110	0x3d5b51c0	0.05354476
111	0xbdc7e99c	-0.09761354
112	0x3fb033e1	1.3765832
113	0x3cccc2b7	0.024995191
114	0xbddf62ac	-0.10907492
115	0x3fb0c426	1.380986
116	0xbbb6033a	-0.005554584
117	0xbdf906ad	-0.121594764
118	0x3fb0d18d	1.381395
119	0xbd1d7701	-0.03844357
120	0xbe0a1ff2	-0.13488749
121	0x3fb082aa	1.3789876
122	0xbd9818d6	-0.07426612
123	0xbe18a7cf	-0.14907764
124	0x3faf3461	1.368786
125	0xbde421e5	-0.11139277
126	0xbe267f29	-0.16259445
127	0x3fae3926	1.361119
128	0xbe1e3c2e	-0.15452644
129	0xbe36d9ab	-0.17856471
130	0x3fac9af5	1.3484789
131	0xbe4d5081	-0.20050241
132	0xbe472bca	-0.19450298
133	0x3fab1c38	1.3367987
134	0xbe7e1931	-0.24814297
135	0xbe5706ee	-0.20998737
136	0x3faaa729	1.3332263
137	0xbe956e84	-0.2918588
138	0xbe640d1a	-0.22270623
139	0x3faab845	1.3337485
140	0xbea9d080	-0.33166885
141	0xbe702075	-0.23449881
142	0x3fab3d83	1.3378147
143	0xbebbaf33	-0.36657104
144	0xbe7ad3ef	-0.24494909
145	0x3fac42ce	1.3457887
146	0xbecc07a7	-0.39849588
147	0xbe82b4fb	-0.25528702
148	0x3fadaf03	1.3569034
149	0xbedb3637	-0.428148
150	0xbe87c063	-0.26513967
151	0x3faf6152	1.3701575
152	0xbee9aed7	-0.45641205
153	0xbe8cee8f	-0.27525756
154	0x3fb0b5e8	1.3805513
155	0xbef8f397	-0.48623344
156	0xbe9292a0	-0.2862749
157	0x3fb15121	1.3852884
158	0xbf04854d	-0.517659
159	0xbe999228	-0.2999432
160	0x3fb1f005	1.3901373
161	0xbf0cca83	-0.5499651
162	0xbea093c9	-0.3136275
163	0x3fb20749	1.3908473
164	0xbf15ceb0	-0.58518505
165	0xbea85e46	-0.32884425
166	0x3fb1b137	1.3882207
167	0xbf1f63e5	-0.622618
168	0xbeb0d015	-0.34533754
169	0x3fb10dbf	1.383232
170	0xbf29ddf8	-0.6635432
171	0xbeba9410	-0.36441088
172	0x3fb01762	1.3757136
173	0xbf348b59	-0.7052513
174	0xbec3d5d2	-0.3824907
175	0x3faf44ad	1.3692833
176	0xbf3ecbff	-0.74530023
177	0xbecb8322	-0.39748484
178	0x3faef61e	1.3668859
179	0xbf487f72	-0.78319466
180	0xbed2f95f	-0.4120588
181	0x3faf2e11	1.3685933
182	0xbf512183	-0.8169176
183	0xbeda24e5	-0.42606273
184	0x3fafc3a3	1.3731579
185	0xbf58dde6	-0.8471359
186	0xbee0c80e	-0.4390263
187	0x3fb089a6	1.3792007
188	0xbf5f89e4	-0.8731978
189	0xbee68dd1	-0.45030072
190	0x3fb154c8	1.3853998
191	0xbf65f718	-0.8983016
192	0xbeeac6dd	-0.45854846
193	0x3fb1ecc4	1.390038
194	0xbf6c0da5	-0.9220832
195	0xbeef76b4	-0.4677025
196	0x3fb2a8ac	1.3957725
197	0xbf71db24	-0.9447501
198	0xbef490c5	-0.477667
199	0x3fb33db8	1.400321
200	0xbf779833	-0.9671661
201	0xbef9317d	-0.4867057
202	0x3fb33d91	1.4003164
203	0xbf7d7a3e	-0.9901465
204	0xbefdb6db	-0.4955357
205	0x3fb2e2dd	1.3975483
206	0xbf81d144	-1.0141988

left_hand_pose f4 [69, 12]
0	0x3ec29208	0.38002038
1	0x3caa7378	0.020807013
2	0x3e97e7c6	0.29669017
3	0xbe969268	-0.29408574
4	0x3efb0d3e	0.4903354
5	0xbecea468	-0.40359807
6	0x3e8a360f	0.26994368
7	0x3d21accd	0.039471436
8	0xbf1ff2df	-0.62479967
9	0xbf53deb8	-0.82761717
10	0x3ebb44c6	0.36575907
11	0xbf9c0837	-1.2190007
12	0x3eb972d7	0.36220428
13	0x3ce11e76	0.027480345
14	0x3eabc75c	0.33550537
15	0xbe1b4129	-0.15161575
16	0x3eb9e6bb	0.36308846
17	0xbe4694f3	-0.19392757
18	0x3e7d1a7f	0.24717139
19	0xbe4f949d	-0.20271535
20	0xbf239c7f	-0.6391067
21	0xbf653550	-0.89534473
22	0x3f0bc3f8	0.545959
23	0xbfc99c53	-1.5750831
24	0x3ee6d6e1	0.45085815
25	0xbd224421	-0.039615754
26	0x3ebc5fc7	0.36791822
27	0x3c926573	0.01787064
28	0x3eb7f347	0.35927793
29	0xbd969b65	-0.07353858
30	0x3e999bf9	0.3000181
31	0xbeb3c9c5	-0.35114875
32	0xbf2fa26c	-0.6860721
33	0xbf81b43c	-1.0133128
34	0x3ed78f1f	0.4210138
35	0xbfbde2cc	-1.4834838
36	0x3f0a1704	0.5394137
37	0x3d8708ae	0.065934524
38	0x3ef442fd	0.47707358
39	0x3eada770	0.33916807
40	0x3d5e34ec	0.05424969
41	0xbebce1f8	-0.3689115
42	0x3ebf2fec	0.3734125
43	0xbe87e920	-0.26545048
44	0xbf1b17ee	-0.6058339
45	0xbf796431	-0.97418505
46	0x3f1cc7db	0.61242455
47	0xbfcf585e	-1.6198843
48	0x3f019d90	0.50631046
49	0x3e1df8a5	0.15426882
50	0x3eac0ea0	0.33604908
51	0x3e773e44	0.24144846
52	0x3e977b41	0.29586223
53	0xbeadf655	-0.33977
54	0x3e87cff9	0.26525858
55	0xbe98b913	-0.298287
56	0xbef92179	-0.4865835
57	0xbf740d5b	-0.9533288
58	0x3f1f1b8d	0.62151414
59	0xbfcdc0dc	-1.6074481
60	0x3eefb341	0.46816447
61	0x3e784664	0.24245602
62	0x3e8f32c4	0.2796842
63	0x3e508a7e	0.2036533
64	0x3e4d8f4a	0.20074192
65	0xbe7d3d88	-0.24730504
66	0x3e94e43e	0.29080385
67	0xbe9af7e5	-0.30267254
68	0xbef383d3	-0.4756151
69	0xbf589303	-0.8459932
70	0x3f273d74	0.65328145
71	0xbfc293e9	-1.5201389
72	0x3ee52351	0.44753507
73	0x3e67e9b2	0.22647741
74	0x3e8ed2d7	0.27895233
75	0x3e6eda6c	0.23325509
76	0x3e42a83d	0.1900949
77	0xbea4c9d9	-0.32185248
78	0x3e95121c	0.2911538
79	0xbe784db5	-0.24248393
80	0xbee19cea	-0.44065028
81	0xbf512a57	-0.8170523
82	0x3f323318	0.6960921
83	0xbfbd4163	-1.478558
84	0x3eebfb9e	0.46090406
85	0x3e200b6c	0.15629357
86	0x3ecfd188	0.40589547
87	0x3e4ad986	0.19809541
88	0x3ea554f7	0.32291386
89	0xbec98c62	-0.39364916
90	0x3ed1f893	0.4100996
91	0xbeae81be	-0.3408336
92	0xbe92b3bd	-0.28652754
93	0xbf7b2e73	-0.9811775
94	0x3f3c99ed	0.7367237
95	0xbfcf4649	-1.6193324
96	0x3ef097fd	0.46990958
97	0x3db24812	0.087051526
98	0x3ecaf5b5	0.39640585
99	0x3e8b85ea	0.27250606
100	0x3e6cf6b1	0.2314098
101	0xbefb28e2	-0.4905463
102	0x3ee5a19d	0.44849864
103	0xbea731ce	-0.32655185
104	0xbe850a22	-0.25984293
105	0xbf7457a2	-0.9544622
106	0x3f2bd2cb	0.6711852
107	0xbfcce38a	-1.600694
108	0x3ef1b2ed	0.47206822
109	0x3e251063	0.16119532
110	0x3ea4a41a	0.3215645
111	0x3e4c9bc6	0.19981298
112	0x3e8e8600	0.2783661
113	0xbedea13b	-0.43482384
114	0x3eea811a	0.45801622
115	0xbe69bc35	-0.22825702
116	0xbe830947	-0.25593016
117	0xbf6e8b17	-0.93180984
118	0x3f0e1bad	0.5551098
119	0xbfce9fd9	-1.6142532
120	0x3ee6aaf9	0.45052317
121	0x3dfa7f19	0.12231273
122	0x3e8c2e28	0.27378964
123	0x3e1bfac6	0.15232381
124	0x3e315aeb	0.17319839
125	0xbe8ae9a3	-0.27131376
126	0x3f14b749	0.5809217
127	0xbe87f9d6	-0.26557797
128	0xbe47f6f5	-0.195278
129	0xbf676b45	-0.90398055
130	0x3f26afb2	0.6511184
131	0xbfcf08fb	-1.6174616
132	0x3ed1eb53	0.4099985
133	0x3ddb2ee7	0.10702305
134	0x3e950928	0.29108548
135	0x3e2dd373	0.16975193
136	0x3e2203bf	0.15821742
137	0xbe742800	-0.23843384
138	0x3f0d46cd	0.5518616
139	0xbebdfbe4	-0.3710624
140	0xbe5b0242	-0.2138758
141	0xbf7bd217	-0.98367447
142	0x3f0ec782	0.55773175
143	0xbfdd02a2	-1.7266428
144	0x3ed61d34	0.41819155
145	0x3dbe4c0d	0.09291849
146	0x3ea2764f	0.31730887
147	0x3e402d1f	0.18767212
148	0x3dee4141	0.1163354
149	0xbe64f576	-0.22359261
150	0x3ef78876	0.483463
151	0xbe9d766f	-0.3075442
152	0xbdfa2edb	-0.12215968
153	0xbf524c5b	-0.8214776
154	0x3f374e1d	0.71603566
155	0xbfcc7b35	-1.59751
156	0x3ed160c4	0.4089414
157	0x3dc93429	0.09824402
158	0x3ebb42bb	0.3657435
159	0x3e4bfd9c	0.19920963
160	0x3cd41b3d	0.025891894
161	0xbe4cdc0e	-0.20005819
162	0x3eff1400	0.49819946
163	0xbea3b837	-0.31976482
164	0xbe2984a7	-0.16554509
165	0xbf487307	-0.7830052
166	0x3f4e534f	0.8059587
167	0xbfc587c1	-1.5432054
168	0x3ebfb6f8	0.37444282
169	0x3e14a0fe	0.14514539
170	0x3ed8744b	0.42276224
171	0x3e732466	0.23744354
172	0xbc92a7f3	-0.01790235
173	0xbe8ca438	-0.2746904
174	0x3efeb4b5	0.49747244
175	0xbeb21f32	-0.34789425
176	0xbe228224	-0.15869957
177	0xbf62cc71	-0.885932
178	0x3f1fff66	0.6249908
179	0xbfd950b6	-1.6977756
180	0x3eb7e303	0.35915384
181	0x3e130ce3	0.14360385
182	0x3eb4e13b	0.35328087
183	0x3e584aa5	0.21122225
184	0x3dda7f0f	0.10668766
185	0xbe8631ee	-0.26209968
186	0x3ec5fc4f	0.3866906
187	0xbe76de6f	-0.24108289
188	0xbebc0800	-0.36724854
189	0xbf546113	-0.82960624
190	0x3f2511b5	0.64480144
191	0xbfbac9af	-1.4592799
192	0x3ea50b88	0.3223536
193	0x3e16366a	0.14669195
194	0x3ea726e8	0.3264687
195	0x3e57194d	0.21005745
196	0x3e760eaf	0.24029039
197	0xbe6492d5	-0.22321637
198	0x3e4ec5a8	0.20192587
199	0xbe790d7a	-0.24321547
200	0xbebf4913	-0.3736044
201	0xbf4b017a	-0.7929913
202	0x3f3322b9	0.6997486
203	0xbfcc2bc7	-1.595086
204	0x3eae8216	0.34083623
205	0x3de2ce4d	0.11074505
206	0x3eb2db0f	0.34932753
207	0x3ea1da90	0.31612062
208	0x3dc9d41c	0.0985491
209	0xbe860e58	-0.26182818
210	0x3e5ccfa9	0.21563591
211	0xbe1ae501	-0.1512642
212	0xbf0c305e	-0.547613
213	0xbf3adc10	-0.7299204
214	0x3f2667ef	0.6500234
215	0xbfb1fccd	-1.3905274
216	0x3e86fb53	0.2636362
217	0x3e4d5b7b	0.20054428
218	0x3e751cea	0.23936811
219	0x3e6287a2	0.22122052
220	0x3db6c9cf	0.08925211
221	0xbe3ee522	-0.18642095
222	0x3e85d7a3	0.2614108
223	0xbe5af18b	-0.21381204
224	0xbf2b700d	-0.6696785
225	0xbf428a5a	-0.7599236
226	0x3f37dc30	0.71820354
227	0xbfbc04ef	-1.4689006
228	0x3e9482fb	0.2900618
229	0x3e8287a3	0.25494108
230	0x3e651133	0.22369842
231	0x3e8e9a7d	0.2785224
232	0x3d8659c5	0.06560091
233	0xbea7e848	-0.32794404
234	0x3e27a7a5	0.16372545
235	0xbdc940a4	-0.09826782
236	0xbf3acaa5	-0.7296546
237	0xbf2e823d	-0.6816748
238	0x3f3de08e	0.7417077
239	0xbfac2366	-1.3448303
240	0x3e8bfaa9	0.27339676
241	0x3e7bca7a	0.24588957
242	0x3e8ef43d	0.27920714
243	0x3e8520ef	0.2600169
244	0x3dfd33b4	0.12363377
245	0xbe828c0a	-0.25497466
246	0x3e597152	0.21234635
247	0xbe3bf101	-0.18353654
248	0xbf0eade3	-0.5573408
249	0xbf5042b4	-0.8135178
250	0x3f35b937	0.7098574
251	0xbfbb1d49	-1.4618312
252	0x3e8b7bda	0.2724293
253	0x3e44c28a	0.19214836
254	0x3e8fd7f9	0.28094462
255	0x3ed36190	0.41285372

right_hand_pose f4 [69, 12]
0	0x3ec93458	0.39297748
1	0xbcaa9077	-0.02082084
2	0x3eb02b2a	0.34407932
3	0x3dbe80b6	0.093018934
4	0x3d90be6e	0.070675716
5	0xbef05910	-0.4694295
6	0x3eb6161a	0.35563737
7	0x3d9ec657	0.07752674
8	0xbee1bfda	-0.44091684
9	0xbf156b5f	-0.5836696
10	0x3f6792b1	0.9045821
11	0xbfa9d10b	-1.326692
12	0x3ec1b0b9	0.3783014
13	0x3d59066e	0.052984647
14	0x3eb17633	0.3466049
15	0x3d5417a0	0.051780343
16	0x3e0438ac	0.12912244
17	0xbf058745	-0.5215953
18	0x3f0ae193	0.5425045
19	0xbd5a7df9	-0.053342793
20	0xbf3b20ce	-0.7309693
21	0xbf51b1b3	-0.8191177
22	0x3f4de232	0.8042327
23	0xbfa30bc9	-1.2737972
24	0x3eb419d9	0.3517597
25	0x3da10603	0.07862475
26	0x3eb02abb	0.344076
27	0x3ce35ef6	0.027755242
28	0x3e4a6ae9	0.19767345
29	0xbf07ef2a	-0.5309931
30	0x3efa49fe	0.48884577
31	0xbdf412cc	-0.11917648
32	0xbefd735f	-0.49502084
33	0xbf47b8d6	-0.7801641
34	0x3f61a995	0.88149387
35	0xbfba7256	-1.4566143
36	0x3ea3dd39	0.32004717
37	0x3d8b5a1d	0.06804297
38	0x3e931708	0.2872851
39	0x3c994280	0.018708467
40	0x3eb1ac97	0.34701988
41	0xbeaca496	-0.3371932
42	0x3ea504f9	0.32230356
43	0xbe3aef10	-0.18255258
44	0xbf0e9755	-0.55699664
45	0xbf410be5	-0.75408775
46	0x3f78a4fa	0.97126734
47	0xbfbdf33e	-1.4839857
48	0x3e9c8be7	0.30575487
49	0x3da81f5b	0.082091056
50	0x3eba1d9e	0.3635072
51	0x3e09d2ef	0.13459371
52	0x3e77ba56	0.24192175
53	0xbed56cc0	-0.41684532
54	0x3ed4f3d4	0.41592276
55	0xbe3a13f3	-0.18171673
56	0xbf1169eb	-0.56802243
57	0xbf3a2e7c	-0.7272718
58	0x3f90c2cf	1.1309451
59	0xbfcf7d3c	-1.6210093
60	0x3e827438	0.25479293
61	0x3e2c8271	0.16846634
62	0x3ea7deff	0.3278732
63	0x3e262b6d	0.16227503
64	0x3e8d748d	0.27627984
65	0xbece9c50	-0.40353632
66	0x3ea91841	0.33026317
67	0xbe4dc955	-0.20096333
68	0xbf1d0538	-0.6133609
69	0xbf6a7647	-0.91586727
70	0x3f37e6d8	0.71836615
71	0xbfc54859	-1.5412704
72	0x3e73c704	0.23806387
73	0x3e229ee1	0.1588092
74	0x3eb39f38	0.35082412
75	0x3e1e4109	0.15454496
76	0x3e4d2a25	0.20035608
77	0xbee7423a	-0.45167714
78	0x3ef232f6	0.47304505
79	0xbe00bdc5	-0.12572391
80	0xbf08f5e2	-0.5350019
81	0xbf410d23	-0.7541067
82	0x3f77624e	0.96634376
83	0xbfc14a20	-1.5100746
84	0x3e76d7d1	0.24105765
85	0x3d981615	0.07426087
86	0x3ec5598e	0.38544887
87	0x3e685883	0.22690015
88	0x3d0145e1	0.031560782
89	0xbf09edd1	-0.53878504
90	0x3f1ba146	0.6079296
91	0xbdf0e9cb	-0.117633425
92	0xbf07149d	-0.5276583
93	0xbf37bb4f	-0.71770185
94	0x3f858e6e	1.0434091
95	0xbfb761dc	-1.4326739
96	0x3e67bbb3	0.22630195
97	0x3dd2d492	0.10294451
98	0x3ed3524c	0.41273725
99	0x3e621824	0.22079521
100	0x3c6bb9fa	0.014387602
101	0xbf1c7977	-0.6112284
102	0x3f1bcbd6	0.60857904
103	0xbe0ca7fb	-0.13735954
104	0xbed29578	-0.4112966
105	0xbf3e7e61	-0.7441159
106	0x3f8ecfdf	1.1157187
107	0xbfc64daa	-1.5492451
108	0x3e5f5c89	0.21812643
109	0x3cbbc105	0.022919187
110	0x3ed44eb8	0.41466308
111	0x3e4c1467	0.19929658
112	0xbd287fe9	-0.04113761
113	0xbf125e6c	-0.57175326
114	0x3f33e051	0.70264155
115	0xbe482fe6	-0.19549522
116	0xbed2a5de	-0.41142172
117	0xbf3223d5	-0.69585925
118	0x3f9b8120	1.2148781
119	0xbfbf153e	-1.4928358
120	0x3e51bb15	0.20481522
121	0x3de93cb2	0.1138853
122	0x3ed32333	0.41237792
123	0x3e4f6b2f	0.20255731
124	0x3da87baf	0.08226716
125	0xbf110bb5	-0.5665849
126	0x3eea85f1	0.45805314
127	0xbe39d758	-0.18148553
128	0xbf150de8	-0.58224344
129	0xbf3db12f	-0.74098486
130	0x3f9d7243	1.2300495
131	0xbfbfcbc3	-1.4984058
132	0x3e731563	0.23738627
133	0x3d8db7cb	0.06919821
134	0x3edb1434	0.4278885
135	0x3e8848e6	0.26618117
136	0xbc995b98	-0.018720433
137	0xbf10ad25	-0.565142
138	0x3ef0d89d	0.47040263
139	0xbb84e457	-0.0040555405
140	0xbf10000d	-0.5625008
141	0xbf089572	-0.53353035
142	0x3f97b4e4	1.1852078
143	0xbf967909	-1.1755687
144	0x3e5fbdf5	0.21849807
145	0xbc2b12e4	-0.010441516
146	0x3eca616b	0.3952745
147	0x3e5cce84	0.21563154
148	0x3d9fdd74	0.07805911
149	0xbf1a5047	-0.60278744
150	0x3ed7c665	0.4214355
151	0xbd8c13b7	-0.06839698
152	0xbebf1fe6	-0.37329024
153	0xbf226b67	-0.6344513
154	0x3f808c57	1.0042828
155	0xbfacf819	-1.3513213
156	0x3e78c5ff	0.2429428
157	0x3d769011	0.060195986
158	0x3ecf07d6	0.40435666
159	0x3e557a8f	0.20847534
160	0x3e115d46	0.14195737
161	0xbf5e2535	-0.86775523
162	0x3ec1600f	0.377686
163	0x3d2e0251	0.042482678
164	0xbeb0ed39	-0.34555987
165	0xbf23cc3f	-0.6398353
166	0x3f81f68d	1.0153366
167	0xbfb0358f	-1.3766345
168	0x3e93cc72	0.28866917
169	0x3cd5fa60	0.026120365
170	0x3f062c88	0.524117
171	0x3e4e0353	0.20118456
172	0x3e2b6183	0.16736417
173	0xbf72ce1d	-0.94845754
174	0x3ef8d3e5	0.48599163
175	0xbcb0d6dc	-0.021586828
176	0xbdca15f6	-0.0986747
177	0xbf32db7a	-0.69866145
178	0x3f9704cd	1.179834
179	0xbfba1110	-1.4536457
180	0x3eb8c0a2	0.36084467
181	0xbd747847	-0.059685018
182	0x3f1085f0	0.5645437
183	0x3e9ead8a	0.30991775
184	0x3de2aaa4	0.11067703
185	0xbf6b227a	-0.9184948
186	0x3f00b0f9	0.5027004
187	0xbd49bbff	-0.049251553
188	0xbe7ed1b3	-0.24884681
189	0xbf3cf528	-0.7381158
190	0x3f91139b	1.1334108
191	0xbfaf2cd2	-1.3685553
192	0x3eb9aa56	0.36262769
193	0xbd853575	-0.06504337
194	0x3ee5beeb	0.4487222
195	0x3ea1dc13	0.31613216
196	0xbd1f6aa2	-0.038920052
197	0xbf25cc37	-0.6476473
198	0x3f0c8f20	0.5490589
199	0xbd9cb3c4	-0.07651475
200	0xbefee9fe	-0.49787897
201	0xbf3f4699	-0.747171
202	0x3f8a69e8	1.081357
203	0xbfb2e716	-1.3976772
204	0x3ed7f0aa	0.421758
205	0xbddf9335	-0.109167494
206	0x3f05cc6c	0.5226505
207	0x3ec4943a	0.38394338
208	0xbd5c7868	-0.053825766
209	0xbf473cbf	-0.77827066
210	0x3f0b3997	0.5438475
211	0xbe2999de	-0.16562602
212	0xbeeda755	-0.46416727
213	0xbf50a255	-0.814977
214	0x3fa46205	1.2842413
215	0xbfd17835	-1.6364809
216	0x3ed185fd	0.40922537
217	0xbd1fb485	-0.038990516
218	0x3ef23f52	0.47313935
219	0x3e5ea5ab	0.21742885
220	0x3d8918b8	0.06694168
221	0xbf27229f	-0.652872
222	0x3f1f5095	0.62232333
223	0xbeb28920	-0.34870243
224	0xbeaa3965	-0.33246914
225	0xbf7bc4dc	-0.9834726
226	0x3f983291	1.1890432
227	0xbfe88d91	-1.8168203
228	0x3ec298e0	0.3800726
229	0x3cd4faa6	0.025998425
230	0x3ec2f958	0.3808086
231	0x3e47d8a5	0.19516237
232	0xbdd9f49e	-0.1064236
233	0xbed3646a	-0.41287547
234	0x3f09f699	0.53891903
235	0xbe9e19ec	-0.30879152
236	0xbe6ebd82	-0.23314479
237	0xbf53afb0	-0.8268995
238	0x3f4d91bb	0.8030049
239	0xbfc48add	-1.5354878
240	0x3e8d9cbb	0.27658638
241	0x3defa925	0.11702184
242	0x3e9e170d	0.3087696
243	0xbd4c4164	-0.04986705
244	0xbd33f914	-0.04393871
245	0xbe3e68c1	-0.18594648
246	0x3f2a22c0	0.66459274
247	0xbeefa69d	-0.46806803
248	0xbc0637e9	-0.008192041
249	0xbf87cc29	-1.060918
250	0x3eebdc8d	0.46066704
251	0xbfd86f19	-1.6908904
252	0x3e5f7f27	0.21825849
253	0x3e1fae30	0.15593791
254	0x3e8928cc	0.26788938
255	0xbdf469de	-0.11934255

jaw_pose f4 [69, 3]
0	0x3ceb6c1c	0.028738074
1	0x3c91adda	0.017783094
2	0x3b92e84b	0.004483258
3	0x3d03a9c6	0.03214433
4	0x3c50db81	0.012747646
5	0x3bafd4cb	0.005365943
6	0x3d0a717a	0.033799626
7	0x3be2b187	0.0069181356
8	0x3b163a73	0.0022923022
9	0x3d557c8c	0.05212073
10	0x3bbbc955	0.0057307878
11	0x3ab8252c	0.0014049164
12	0x3d874c40	0.066063404
13	0x3bdcf47f	0.0067430134
14	0x3aec1031	0.0018010197
15	0x3d6d3419	0.057911012
16	0x3c0e86a3	0.008699092
17	0x3b4dafad	0.0031385229
18	0x3d57237c	0.052524075
19	0x3c0dbe29	0.008651295
20	0x3b4be5cc	0.0031112311
21	0x3d641477	0.05568358
22	0x3bb771d1	0.005598285
23	0x3a9de39f	0.0012045986
24	0x3d6e7427	0.05821624
25	0x3c14736d	0.009060723
26	0x3b521653	0.0032056763
27	0x3d6c945b	0.05775867
28	0x3c0c3f1c	0.008559968
29	0x3b49a057	0.0030765736
30	0x3d8cb1dc	0.068698615
31	0x3b9dca7e	0.0048153987
32	0x3a7d20bf	0.00096560636
33	0x3d9eab00	0.077474594
34	0x3bc6e8a6	0.0060702143
35	0x3a9c1033	0.0011906683
36	0x3d9d5c76	0.07683651
37	0x3bcf5eef	0.0063284556
38	0x3aa54bd2	0.0012611097
39	0x3d9692eb	0.07352241
40	0x3b6dd9c4	0.0036293129
41	0x3a9b5e83	0.0011853728
42	0x3db03fea	0.08605941
43	0x3b6634cf	0.0035126691
44	0x3a6b703b	0.0008981262
45	0x3d9f5121	0.07779146
46	0x3ba27d3d	0.004958777
47	0x3a8531b3	0.0010161906
48	0x3d9dd0cc	0.077058405
49	0x3bfbdb35	0.0076860436
50	0x3b36ad6e	0.0027874368
51	0x3d9db796	0.07701032
52	0x3bd45327	0.006479639
53	0x3aa9db59	0.0012959047
54	0x3d8dfe68	0.0693329
55	0x3bf5a134	0.0074960236
56	0x3b3e91e2	0.0029078652
57	0x3da64d2a	0.081201866
58	0x3bdba5cc	0.006703114
59	0x3ac3178a	0.0014884335
60	0x3d9ce226	0.07660322
61	0x3bf13a69	0.0073616994
62	0x3b47ece1	0.003050618
63	0x3d97a7a3	0.07405021
64	0x3b2efd36	0.0026701218
65	0x3a2a9fa6	0.0006508775
66	0x3d635c77	0.055508103
67	0x3bab7477	0.0052323896
68	0x3a6eed3c	0.000911433
69	0x3d778359	0.060427997
70	0x3ba89ab4	0.005145395
71	0x3abcd6da	0.0014407292
72	0x3d88b3b8	0.06674904
73	0x3bc476e5	0.0059956186
74	0x3ab83d83	0.0014056418
75	0x3d8dfd54	0.06933084
76	0x3bd8ba16	0.00661398
77	0x3b421c10	0.0029618777
78	0x3d9e6952	0.07734932
79	0x3beefd75	0.007293398
80	0x3b434324	0.0029794658
81	0x3d946d74	0.07247439
82	0x3beff674	0.0073230807
83	0x3b4d43ec	0.0031321002
84	0x3d951a02	0.07280351
85	0x3bfd994d	0.007739222
86	0x3b574365	0.0032846567
87	0x3d962052	0.07330383
88	0x3c0d9f8f	0.008643999
89	0x3b84bc3a	0.0040507587
90	0x3db91d7e	0.09038828
91	0x3c03bc19	0.008040451
92	0x3b543d9d	0.0032385357
93	0x3dcba2b6	0.09943144
94	0x3c0267de	0.007959334
95	0x3b37cbd5	0.0028045077
96	0x3db4a313	0.088201664
97	0x3c05846d	0.008149249
98	0x3b662173	0.0035115152
99	0x3dc895fa	0.09794231
100	0x3bee4027	0.007270831
101	0x3b024727	0.0019878836
102	0x3dbbfe71	0.0917939
103	0x3c26e8a1	0.010187299
104	0x3b660793	0.003509973
105	0x3d8a09de	0.06740163
106	0x3bea5a61	0.0071518873
107	0x3acedeb8	0.0015782928
108	0x3d66334f	0.056201275
109	0x3bfc7356	0.007704179
110	0x3b5e05d0	0.0033877976
111	0x3d2775b4	0.040883735
112	0x3bdb6447	0.0066953036
113	0x3aac7de3	0.0013160076
114	0x3d15f9ae	0.036615066
115	0x3bf028ce	0.007329083
116	0x3b0350aa	0.0020037093
117	0x3d3d9d44	0.04629256
118	0x3c067960	0.008207649
119	0x3b2328c5	0.0024896127
120	0x3d2cf2e0	0.04222381
121	0x3be72e75	0.0070550987
122	0x3b123dc5	0.002231465
123	0x3d35aeb3	0.04435606
124	0x3bfb398d	0.0076667727
125	0x3b3286f6	0.0027241088
126	0x3d43bdf3	0.04778857
127	0x3c1bf854	0.009519655
128	0x3b44037d	0.0029909306
129	0x3d5f7007	0.054550197
130	0x3bda0e87	0.006654564
131	0x3a96156b	0.0011450475
132	0x3d67495c	0.056466445
133	0x3bded468	0.006800223
134	0x3ad76b20	0.0016435124
135	0x3d6cf734	0.05785294
136	0x3c000ba6	0.007815277
137	0x3b4704f3	0.003036794
138	0x3d4e27c7	0.050330903
139	0x3bbf6015	0.0058403113
140	0x3a98b3ee	0.0011650303
141	0x3d53bd1d	0.051694024
142	0x3bdf16d6	0.006808142
143	0x3b042eb9	0.002016945
144	0x3d891eef	0.06695353
145	0x3b961bb7	0.0045809406
146	0x3a921074	0.001114382
147	0xbddbfdff	-0.10741805
148	0xbccbd57a	-0.024882067
149	0xbbd5a733	-0.006520176
150	0x3cbd54da	0.02311175
151	0x3be6b44a	0.007040535
152	0x3b1dbf52	0.0024070335
153	0x3d2f8928	0.04285541
154	0x3b4f6f8a	0.0031652176
155	0xb6a192cb	-4.815263e-06
156	0x3d3cdbe6	0.04610815
157	0x3bd9dae9	0.0066484106
158	0x3b1233d8	0.0022308733
159	0x3d20f2de	0.039294116
160	0xbc0c5830	-0.008565947
161	0xbad4e4d2	-0.001624251
162	0xbd245aba	-0.040125586
163	0xbd34ca3b	-0.044138175
164	0xbc1cb0ed	-0.009563667
165	0xbdb735f4	-0.089458376
166	0xbd388355	-0.045047123
167	0xbc2ac2bc	-0.010422405
168	0x3d8393a9	0.06424648
169	0x3c3cbeef	0.0115201315
170	0x3b72ddb7	0.0037058422
171	0x3dd0eb36	0.10201113
172	0x3c77cc24	0.0151243545
173	0x3b8330a2	0.0040036
174	0x3dd24fd0	0.10269129
175	0x3c207b36	0.009795001
176	0x3b988bf1	0.004655354
177	0x3d3f4289	0.046694312
178	0xbcac1748	-0.021007195
179	0xbbe393c5	-0.0069451057
180	0x3dec08bf	0.11525106
181	0x3cbd330d	0.023095632
182	0x3bfd43db	0.0077290363
183	0x3d226ba3	0.03965343
184	0xbcc30348	-0.023805276
185	0xbbcc58a5	-0.006236153
186	0x3da9bf1d	0.08288405
187	0x3c1845a4	0.009293947
188	0x3b8e8bde	0.0043501696
189	0x3da2af94	0.07943645
190	0x3c1166e6	0.008874631
191	0x3b81acd5	0.0039573708
192	0x3da5f047	0.0810247
193	0x3c31e3ac	0.010857504
194	0x3b8b4f79	0.0042514172
195	0x3d8fab14	0.070150524
196	0x3c3fd5aa	0.011708656
197	0x3b78d3a3	0.0037967942
198	0x3db0b957	0.08629101
199	0x3c1a517c	0.009418841
200	0x3b73c2a2	0.0037194868
201	0x3da27c41	0.07933856
202	0x3bddadf2	0.0067651207
203	0x3ac62219	0.0015116363
204	0x3d8dcb03	0.06923487
205	0x3bfbeed9	0.007688385
206	0x3b3edffd	0.0029125207

leye_pose f4 [69, 3]
0	0x00000000	0.0
1	0x00000000	0.0
2	0x00000000	0.0
3	0x00000000	0.0
4	0x00000000	0.0
5	0x00000000	0.0
6	0x00000000	0.0
7	0x00000000	0.0
8	0x00000000	0.0
9	0x00000000	0.0
10	0x00000000	0.0
11	0x00000000	0.0
12	0x00000000	0.0
13	0x00000000	0.0
14	0x00000000	0.0
15	0x00000000	0.0
16	0x00000000	0.0
17	0x00000000	0.0
18	0x00000000	0.0
19	0x00000000	0.0
20	0x00000000	0.0
21	0x00000000	0.0
22	0x00000000	0.0
23	0x00000000	0.0
24	0x00000000	0.0
25	0x00000000	0.0
26	0x00000000	0.0
27	0x00000000	0.0
28	0x00000000	0.0
29	0x00000000	0.0
30	0x00000000	0.0
31	0x00000000	0.0
32	0x00000000	0.0
33	0x00000000	0.0
34	0x00000000	0.0
35	0x00000000	0.0
36	0x00000000	0.0
37	0x00000000	0.0
38	0x00000000	0.0
39	0x00000000	0.0
40	0x00000000	0.0
41	0x00000000	0.0
42	0x00000000	0.0
43	0x00000000	0.0
44	0x00000000	0.0
45	0x00000000	0.0
46	0x00000000	0.0
47	0x00000000	0.0
48	0x00000000	0.0
49	0x00000000	0.0
50	0x00000000	0.0
51	0x00000000	0.0
52	0x00000000	0.0
53	0x00000000	0.0
54	0x00000000	0.0
55	0x00000000	0.0
56	0x00000000	0.0
57	0x00000000	0.0
58	0x00000000	0.0
59	0x00000000	0.0
60	0x00000000	0.0
61	0x00000000	0.0
62	0x00000000	0.0
63	0x00000000	0.0
64	0x00000000	0.0
65	0x00000000	0.0
66	0x00000000	0.0
67	0x00000000	0.0
68	0x00000000	0.0
69	0x00000000	0.0
70	0x00000000	0.0
71	0x00000000	0.0
72	0x00000000	0.0
73	0x00000000	0.0
74	0x00000000	0.0
75	0x00000000	0.0
76	0x00000000	0.0
77	0x00000000	0.0
78	0x00000000	0.0
79	0x00000000	0.0
80	0x00000000	0.0
81	0x00000000	0.0
82	0x00000000	0.0
83	0x00000000	0.0
84	0x00000000	0.0
85	0x00000000	0.0
86	0x00000000	0.0
87	0x00000000	0.0
88	0x00000000	0.0
89	0x00000000	0.0
90	0x00000000	0.0
91	0x00000000	0.0
92	0x00000000	0.0
93	0x00000000	0.0
94	0x00000000	0.0
95	0x00000000	0.0
96	0x00000000	0.0
97	0x00000000	0.0
98	0x00000000	0.0
99	0x00000000	0.0
100	0x00000000	0.0
101	0x00000000	0.0
102	0x00000000	0.0
103	0x00000000	0.0
104	0x00000000	0.0
105	0x00000000	0.0
106	0x00000000	0.0
107	0x00000000	0.0
108	0x00000000	0.0
109	0x00000000	0.0
110	0x00000000	0.0
111	0x00000000	0.0
112	0x00000000	0.0
113	0x00000000	0.0
114	0x00000000	0.0
115	0x00000000	0.0
116	0x00000000	0.0
117	0x00000000	0.0
118	0x00000000	0.0
119	0x00000000	0.0
120	0x00000000	0.0
121	0x00000000	0.0
122	0x00000000	0.0
123	0x00000000	0.0
124	0x00000000	0.0
125	0x00000000	0.0
126	0x00000000	0.0
127	0x00000000	0.0
128	0x00000000	0.0
129	0x00000000	0.0
130	0x00000000	0.0
131	0x00000000	0.0
132	0x00000000	0.0
133	0x00000000	0.0
134	0x00000000	0.0
135	0x00000000	0.0
136	0x00000000	0.0
137	0x00000000	0.0
138	0x00000000	0.0
139	0x00000000	0.0
140	0x00000000	0.0
141	0x00000000	0.0
142	0x00000000	0.0
143	0x00000000	0.0
144	0x00000000	0.0
145	0x00000000	0.0
146	0x00000000	0.0
147	0x00000000	0.0
148	0x00000000	0.0
149	0x00000000	0.0
150	0x00000000	0.0
151	0x00000000	0.0
152	0x00000000	0.0
153	0x00000000	0.0
154	0x00000000	0.0
155	0x00000000	0.0
156	0x00000000	0.0
157	0x00000000	0.0
158	0x00000000	0.0
159	0x00000000	0.0
160	0x00000000	0.0
161	0x00000000	0.0
162	0x00000000	0.0
163	0x00000000	0.0
164	0x00000000	0.0
165	0x00000000	0.0
166	0x00000000	0.0
167	0x00000000	0.0
168	0x00000000	0.0
169	0x00000000	0.0
170	0x00000000	0.0
171	0x00000000	0.0
172	0x00000000	0.0
173	0x00000000	0.0
174	0x00000000	0.0
175	0x00000000	0.0
176	0x00000000	0.0
177	0x00000000	0.0
178	0x00000000	0.0
179	0x00000000	0.0
180	0x00000000	0.0
181	0x00000000	0.0
182	0x00000000	0.0
183	0x00000000	0.0
184	0x00000000	0.0
185	0x00000000	0.0
186	0x00000000	0.0
187	0x00000000	0.0
188	0x00000000	0.0
189	0x00000000	0.0
190	0x00000000	0.0
191	0x00000000	0.0
192	0x00000000	0.0
193	0x00000000	0.0
194	0x00000000	0.0
195	0x00000000	0.0
196	0x00000000	0.0
197	0x00000000	0.0
198	0x00000000	0.0
199	0x00000000	0.0
200	0x00000000	0.0
201	0x00000000	0.0
202	0x00000000	0.0
203	0x00000000	0.0
204	0x00000000	0.0
205	0x00000000	0.0
206	0x00000000	0.0
