test_dataset/gait_809/20250819_c1_a2_Take2/split_subjects/0/fit-smplx/smplx-params.npz (npz, 53706 bytes, 10 tensors)

betas f4 [104, 11]
0	0xbd9c19e0	-0.07622123
1	0xbfb21746	-1.3913352
2	0x3e58761d	0.21138807
3	0xbe96840a	-0.29397613
4	0xbf32c85e	-0.69836986
5	0xbdf8d411	-0.121498235
6	0xbeaf4cfc	-0.34238422
7	0x3f20a5c4	0.6275294
8	0x3edd2387	0.43191168
9	0x3d0fe1b6	0.035127364
10	0x3e8d7446	0.27627772
11	0x3e182d6c	0.14861077
12	0xbfec7bb3	-1.847525
13	0x3f8e68c7	1.1125726
14	0xbeea2e3e	-0.45738405
15	0xbf64a82d	-0.89319116
16	0xbee7aa81	-0.45247272
17	0xbe4ee6fc	-0.20205301
18	0x3ec4fa92	0.3847242
19	0x3f1b380e	0.6063241
20	0x3c834b47	0.016027106
21	0x3ea4a8b8	0.32159972
22	0x3e84702f	0.2586684
23	0xbfef0866	-1.8674438
24	0x3fa18826	1.2619674
25	0xbec56d83	-0.38560113
26	0xbf56df27	-0.83934253
27	0xbeb1c116	-0.34717625
28	0xbe8a9d15	-0.2707297
29	0x3db85748	0.090010226
30	0x3edbe640	0.42949104
31	0x3cc3555e	0.023844417
32	0x3ea96174	0.33082163
33	0x3eb0feea	0.34569484
34	0xbff10691	-1.8830129
35	0x3fa4dc95	1.2879816
36	0xbedaa22e	-0.42701858
37	0xbf3ed621	-0.74545485
38	0xbeabf79c	-0.33587348
39	0xbea02dd9	-0.3128498
40	0x3ccddec1	0.025130631
41	0x3ede469a	0.4341324
42	0x3cb2e429	0.02183731
43	0x3eab546e	0.33462852
44	0x3ec731a7	0.3890507
45	0xbfe25ffd	-1.7685543
46	0x3fbe07c0	1.4846115
47	0xbf31a61f	-0.69394106
48	0xbf1e0f46	-0.61742055
49	0xbeb7d7c1	-0.35906795
50	0xbea22e50	-0.3167596
51	0x3e82bd76	0.25535172
52	0x3f13ac6b	0.57684964
53	0x3d63176e	0.055442266
54	0x3eb348fe	0.35016626
55	0x3f00bedb	0.5029122
56	0xbfef001d	-1.867191
57	0x3fe67272	1.8003676
58	0xbf52325d	-0.821081
59	0xbf30acfb	-0.6901395
60	0xbe916723	-0.28399
61	0xbed05376	-0.40688676
62	0x3f052795	0.5201352
63	0x3f2870fa	0.6579739
64	0x3dc8d972	0.098070994
65	0x3eb922df	0.36159417
66	0x3f151b50	0.582448
67	0xbffa52ed	-1.9556557
68	0x3fec62ec	1.8467689
69	0xbf2d53f4	-0.6770623
70	0xbf4bd174	-0.79616475
71	0xbe23dcbe	-0.16002175
72	0xbeff8307	-0.49904653
73	0x3f233c3c	0.63763785
74	0x3f1a31e0	0.60232353
75	0x3dc18a9d	0.094502665
76	0x3eb9c9c1	0.3628674
77	0x3f2e8609	0.6817327
78	0xbffa1ed8	-1.9540663
79	0x3fe92793	1.8215202
80	0xbf31b2ab	-0.6941325
81	0xbf410089	-0.7539144
82	0xbe11f9c9	-0.14255442
83	0xbee4d769	-0.44695595
84	0x3f595329	0.8489252
85	0x3f1b9ca5	0.60785896
86	0x3d780c2c	0.060558483
87	0x3ebb3621	0.36564735
88	0x3f2fe1a0	0.6870365
89	0xbfed2f40	-1.8530045
90	0x3fc3d351	1.5298864
91	0xbf339ac8	-0.7015805
92	0xbf3a2721	-0.72715956
93	0xbe173691	-0.14766909
94	0xbee2be2a	-0.4428571
95	0x3f525107	0.8215489
96	0x3f342bd4	0.70379376
97	0x3daa558a	0.083170965
98	0x3eb98b3d	0.36239043
99	0x3f2f3437	0.6843905
100	0xbfd25872	-1.6433241
101	0x3fab156c	1.3365912
102	0xbf5fe706	-0.8746189
103	0xbf1bb31b	-0.6082017
104	0xbe6f90d9	-0.23395099
105	0xbeb65607	-0.3561251
106	0x3f64a9d7	0.89321655
107	0x3f388f2b	0.72093457
108	0x3df864e5	0.12128619
109	0x3ec072a1	0.37587455
110	0x3f2a9742	0.6663705
111	0xbfd7999d	-1.6843754
112	0x3fa619b7	1.2976598
113	0xbf48d671	-0.7845221
114	0xbf285771	-0.65758425
115	0xbe8329e8	-0.2561791
116	0xbef966b6	-0.48711175
117	0x3f65f434	0.8982575
118	0x3f433ad6	0.7626165
119	0x3e057306	0.13032159
120	0x3eb9d6b1	0.3629661
121	0x3f24f724	0.64439607
122	0xbfcd9653	-1.60615
123	0x3f99fe51	1.2030736
124	0xbf3301ff	-0.6992492
125	0xbf17616e	-0.5913304
126	0xbe508a48	-0.2036525
127	0xbecacd01	-0.3960953
128	0x3f74c22d	0.9560879
129	0x3f37ad39	0.7174869
130	0x3de03ba7	0.10948878
131	0x3ebb968c	0.36638296
132	0x3f1b6033	0.60693663
133	0xbfd62cd3	-1.6732429
134	0x3f895b8a	1.073106
135	0xbf2a62cc	-0.66557
136	0xbf411c54	-0.7543385
137	0xbe365be8	-0.17808497
138	0xbeda7a1d	-0.4267129
139	0x3f85ff79	1.0468589
140	0x3f1ff24d	0.62479097
141	0x3dfae69f	0.12251019
142	0x3eb5f4c1	0.35538295
143	0x3f0cfdad	0.5507458
144	0xbfd72659	-1.6808578
145	0x3f74e4b5	0.9566148
146	0xbf287a2e	-0.6581143
147	0xbf458a1b	-0.7716386
148	0xbe38e6be	-0.18056771
149	0xbed794aa	-0.4210561
150	0x3f6bfed0	0.9218569
151	0x3f1b48cc	0.60657954
152	0x3e0178ef	0.12643789
153	0x3eb10b29	0.34578827
154	0x3f044427	0.5166649
155	0xbfd8cb73	-1.6937088
156	0x3f69fb40	0.91399
157	0xbf038e80	-0.5138931
158	0xbf27f0d8	-0.65601873
159	0xbe276f19	-0.16350974
160	0xbec029d9	-0.37531927
161	0x3f3bed92	0.7340938
162	0x3f02ebf2	0.51141274
163	0x3ddba462	0.10724713
164	0x3ead962f	0.33903643
165	0x3f02e8f6	0.5113672
166	0xbfd275b7	-1.6442174
167	0x3f699a0c	0.9125068
168	0xbf0b783e	-0.5448035
169	0xbf359193	-0.70925254
170	0xbe445d8a	-0.19176307
171	0xbebf4b80	-0.3736229
172	0x3f34dfb0	0.7065382
173	0x3f0ba42c	0.5454738
174	0x3dda349d	0.106545664
175	0x3eae84ab	0.34085593
176	0x3f01f8c8	0.50770235
177	0xbfd0c6f5	-1.6310717
178	0x3f60d2a8	0.87821436
179	0xbf130358	-0.5742698
180	0xbf3016ea	-0.68784964
181	0xbe630912	-0.22171429
182	0xbedf8157	-0.43653366
183	0x3f21c677	0.6319346
184	0x3f1453c8	0.5794034
185	0x3df209bf	0.11818265
186	0x3eaea683	0.34111413
187	0x3ef6c8b4	0.482
188	0xbfc7725a	-1.5581772
189	0x3f6378f2	0.8885642
190	0xbf1efa54	-0.6210072
191	0xbf140db8	-0.57833433
192	0xbe7a9b4c	-0.24473304
193	0xbeef8c93	-0.46786937
194	0x3eda1abd	0.42598525
195	0x3f1f8d18	0.62324667
196	0x3e02143b	0.1270303
197	0x3eb0d739	0.34539202
198	0x3efbc29e	0.4917192
199	0xbfcf06d0	-1.6173954
200	0x3f6d36ce	0.9266175
201	0xbf07ba7d	-0.53018934
202	0xbf1ce740	-0.6129036
203	0xbe9fb415	-0.3119208
204	0xbef4df8c	-0.47826803
205	0x3ed2692d	0.41095868
206	0x3f1fd9e3	0.62441844
207	0x3e0e3c78	0.13890254
208	0x3eaf642e	0.3425612
209	0x3f0446a1	0.5167027
210	0xbfcd3b72	-1.6033766
211	0x3f78c577	0.9717631
212	0xbed07b58	-0.40719104
213	0xbf375113	-0.71608084
214	0xbe9d52f5	-0.30727354
215	0xbef5acea	-0.47983485
216	0x3e8038a0	0.250432
217	0x3f0e98dd	0.55702
218	0x3e1697da	0.14706364
219	0x3eb203b6	0.34768456
220	0x3f0b4995	0.5440915
221	0xbfc78bc8	-1.5589533
222	0x3f6d1133	0.9260437
223	0xbe5d5f54	-0.21618396
224	0xbf4fece3	-0.81220835
225	0xbea10235	-0.31446996
226	0xbf008d07	-0.5021519
227	0x3e61272f	0.21987604
228	0x3f0b5c8b	0.54438084
229	0x3e14d7c6	0.14535436
230	0x3eb6852e	0.35648483
231	0x3f116194	0.5678952
232	0xbfd29c99	-1.645404
233	0x3f81ea98	1.0149717
234	0x3c5d6edb	0.0135152
235	0xbf6764f0	-0.90388393
236	0xbeaa3e2e	-0.33250564
237	0xbf005499	-0.50129086
238	0x3e737457	0.23774849
239	0x3ee66ffb	0.4500731
240	0x3e091057	0.1338514
241	0x3eb8728f	0.360249
242	0x3f142d0c	0.57881236
243	0xbfcce26d	-1.60066
244	0x3f843613	1.0329002
245	0xbb83ef42	-0.0040263245
246	0xbf6a07a1	-0.9141789
247	0xbec5bbd3	-0.3861986
248	0xbf01cc08	-0.5070195
249	0x3e8998ed	0.26874486
250	0x3ef4d35b	0.478175
251	0x3e03ab8e	0.12858412
252	0x3eb8b615	0.36076418
253	0x3f14f549	0.58186775
254	0xbfd198c4	-1.6374745
255	0x3f92159a	1.1412842

global_orient f4 [104, 3]
0	0xbe2b8517	-0.16749988
1	0x3efd2f88	0.49450326
2	0x3c5d18c7	0.013494677
3	0xbde0f617	-0.10984438
4	0x3edb2050	0.4279809
5	0x3c9d622e	0.019211855
6	0xbdcc98c8	-0.09990078
7	0x3ec18883	0.37799463
8	0x3c8c830a	0.017152328
9	0xbdb30eab	-0.08743032
10	0x3eaf6a89	0.34260967
11	0x3ce2839e	0.02765065
12	0xbdc88fbd	-0.09793041
13	0x3ea0f509	0.31436947
14	0x3d23a157	0.039948788
15	0xbdd34e71	-0.10317696
16	0x3e96f020	0.29480076
17	0x3d280716	0.041022383
18	0xbddc9d89	-0.10772235
19	0x3e9123a6	0.2834751
20	0x3d2cdbb1	0.0422017
21	0xbde33bee	-0.11095415
22	0x3e8dab58	0.27669787
23	0x3d32da07	0.04366496
24	0xbdbd53ef	-0.09244525
25	0x3e8b1f2b	0.27172217
26	0x3d55ce38	0.05219862
27	0xbd98f575	-0.07468692
28	0x3e85f860	0.26166058
29	0x3d65d6ee	0.056113176
30	0xbd6d86e5	-0.057989974
31	0x3e7d28ec	0.24722642
32	0x3d835e66	0.064144894
33	0xbd4669d9	-0.048440788
34	0x3e649d46	0.2232562
35	0x3d80444a	0.06263025
36	0xbd0ec77c	-0.034858212
37	0x3e4b6d6d	0.19865961
38	0x3d4fa9d5	0.050699074
39	0xbcb698c2	-0.022289637
40	0x3e3cf408	0.18452466
41	0x3d0cacba	0.034344412
42	0xbc213a7f	-0.009840607
43	0x3e27f27b	0.16401093
44	0x3cbeac99	0.02327566
45	0xbc2b87d6	-0.0104693975
46	0x3e0ccb05	0.13749321
47	0x3c50811e	0.012726096
48	0xbc6f0e98	-0.014590882
49	0x3e124142	0.14282706
50	0x3c557023	0.013027224
51	0xbccc6a08	-0.024952903
52	0x3e18a2fe	0.14905927
53	0x3bec3cbe	0.0072093895
54	0xbd0931c7	-0.033494737
55	0x3e308a64	0.17240292
56	0x3bde7308	0.006788615
57	0xbd3812d7	-0.044939842
58	0x3e3fbc9c	0.18724293
59	0xbae37d7b	-0.0017356122
60	0xbd5b2fd4	-0.05351241
61	0x3e412599	0.18861999
62	0xbc43c6a3	-0.011949214
63	0xbd5c06d0	-0.053717434
64	0x3e2aefb8	0.16693008
65	0xbc8a9afd	-0.016919607
66	0xbd554f3b	-0.052077513
67	0x3e241aef	0.160259
68	0xbce6b9d5	-0.028164783
69	0xbd5a0a71	-0.053232614
70	0x3e1d68ae	0.15371963
71	0xbd2b8f06	-0.041884445
72	0xbd789869	-0.060692225
73	0x3e3f192d	0.18661948
74	0xbda54f02	-0.0807171
75	0xbd76fc30	-0.0602991
76	0x3e592820	0.21206713
77	0xbdd0d6a8	-0.101971924
78	0xbd5d4400	-0.054019928
79	0x3e6e9642	0.23299506
80	0xbde86c87	-0.11348825
81	0xbd4764bf	-0.048680063
82	0x3e910afe	0.283287
83	0xbe07e78e	-0.13271925
84	0xbd434e5f	-0.047682162
85	0x3e99958f	0.29996917
86	0xbe154750	-0.14577985
87	0xbd2ee7ed	-0.04270165
88	0x3eaa2edd	0.3323888
89	0xbe11c688	-0.1423589
90	0xbd0f1b5d	-0.034938205
91	0x3eba3aca	0.36372977
92	0xbe08a877	-0.13345514
93	0xbd2d1a7d	-0.04226159
94	0x3ed6c02e	0.41943496
95	0xbde92842	-0.11384632
96	0xbcfcaed2	-0.03084508
97	0x3eded954	0.43525183
98	0xbda7f8bb	-0.082017384
99	0xbd040008	-0.032226592
100	0x3ef1d8ce	0.4723572
101	0xbd4439e1	-0.04790676
102	0xbd3ee9c0	-0.04660964
103	0x3f046b99	0.5172668
104	0xbccf984d	-0.025341177
105	0xbd6955bd	-0.056966532
106	0x3f07fb1c	0.5311754
107	0xbd00955b	-0.031392436
108	0xbd77b70b	-0.060477298
109	0x3f0948cb	0.536267
110	0xbd2fb836	-0.042900287
111	0xbd826286	-0.06366448
112	0x3f04e98e	0.51918876
113	0xbd1365b1	-0.035985652
114	0xbd5e84d8	-0.05432591
115	0x3ef1d08b	0.47229418
116	0xbcfbb151	-0.0307242
117	0xbd3bdde4	-0.04586591
118	0x3ed0111d	0.40638056
119	0xbc6fb3dc	-0.014630284
120	0xbcbda551	-0.023150118
121	0x3ead2a4d	0.33821335
122	0x3b35303d	0.002764716
123	0xbbcab24b	-0.006185805
124	0x3e8e776f	0.27825496
125	0x3c7d2bd9	0.015452349
126	0xba810406	-0.0009843118
127	0x3e5b30b1	0.21405293
128	0x3ccf1b74	0.025281645
129	0x3a20c233	0.00061324536
130	0x3e262ab1	0.16227223
131	0x3d024645	0.031805295
132	0x3b1ac91e	0.002361841
133	0x3e0478d2	0.12936714
134	0x3d128f64	0.03578128
135	0x3c00c203	0.007858756
136	0x3dc49b04	0.095998794
137	0x3d0c075c	0.034186706
138	0x3c5c88a4	0.013460312
139	0x3db66bec	0.08907303
140	0x3d184f98	0.03718528
141	0xbc3422c7	-0.01099462
142	0x3d495d21	0.04916108
143	0x3d22ffcf	0.03979474
144	0xbcf5268b	-0.029925605
145	0x3ce957c7	0.028484238
146	0x3d172267	0.036898043
147	0xbd82dc42	-0.06389667
148	0x3c2d5383	0.010578993
149	0x3d2126af	0.039343532
150	0xbd94e92e	-0.07271038
151	0x3c820d79	0.015875565
152	0x3d01c330	0.031680286
153	0xbd9aae54	-0.07552782
154	0x3d083402	0.033252724
155	0x3c7a7655	0.015287002
156	0xbda1370a	-0.07871826
157	0x3d9e9314	0.07742897
158	0x3ae9b186	0.0017829395
159	0xbda0424a	-0.07825144
160	0x3dfe92a4	0.12430313
161	0xbc956954	-0.0182387
162	0xbd88d354	-0.06680933
163	0x3e25d920	0.16196108
164	0xbd1282f5	-0.03576942
165	0xbd437555	-0.04771932
166	0x3e5bb9c6	0.21457586
167	0xbd50a2c2	-0.050936468
168	0xbcd58e7f	-0.026068924
169	0x3e8bcefb	0.2730635
170	0xbd7415f3	-0.059591245
171	0xbc8e0807	-0.017337812
172	0x3e9cef58	0.30651355
173	0xbd2c5f94	-0.042083338
174	0xbc5718b4	-0.013128448
175	0x3eb1bf9f	0.34716508
176	0xbc7e0a25	-0.015505348
177	0xbc581578	-0.013188712
178	0x3ec0cc78	0.37655997
179	0xbc27cce9	-0.0102417255
180	0xbc896fe5	-0.016776988
181	0x3ec36339	0.38161638
182	0x3c2ead12	0.01066138
183	0xbd08be55	-0.03338464
184	0x3ed98966	0.4248764
185	0x3d122700	0.035681725
186	0xbd6c5446	-0.057697557
187	0x3eecddbf	0.4626293
188	0x3d5b9346	0.053607248
189	0xbdb1c173	-0.08679476
190	0x3f030ee7	0.51194614
191	0x3d73c261	0.059511546
192	0xbdd17ee9	-0.10229284
193	0x3f043db4	0.5165665
194	0x3d6bfc29	0.057613526
195	0xbdd7af87	-0.10531526
196	0x3f019641	0.50619894
197	0x3d53773a	0.051627375
198	0xbdce6841	-0.100784786
199	0x3eee381e	0.4652719
200	0x3d58985c	0.052879676
201	0xbdb42ad5	-0.08797232
202	0x3ed6b2af	0.419332
203	0x3d90a429	0.07062561
204	0xbd6faee4	-0.058516398
205	0x3eaf9445	0.34292808
206	0x3da3bf0f	0.07995426
207	0xbd36b0da	-0.044602253
208	0x3e97593c	0.29560268
209	0x3db640c9	0.088990755
210	0xbd3ce12d	-0.04611318
211	0x3e827f61	0.25487807
212	0x3dccc02d	0.09997592
213	0xbd6f9bb4	-0.0584981
214	0x3e6185df	0.22023724
215	0x3db835fd	0.089946724
216	0xbd751458	-0.059833854
217	0x3e32f3ab	0.17475764
218	0x3da6ac68	0.08138353
219	0xbd7ee3f8	-0.062229127
220	0x3e00590c	0.12533969
221	0x3d98f449	0.07468469
222	0xbd7ee70f	-0.062232073
223	0x3d97d284	0.074131995
224	0x3d8d76d4	0.0690743
225	0xbd788025	-0.060669083
226	0x3cc801b6	0.024414878
227	0x3d7e15d7	0.062032547
228	0xbd644513	-0.055729937
229	0xbc434c27	-0.011920012
230	0x3d6544e0	0.055973887
231	0xbd716eaf	-0.058943447
232	0xbd362ba3	-0.04447521
233	0x3d431179	0.047624085
234	0xbd7e945c	-0.062153205
235	0xbd0a07a5	-0.033698697
236	0x3d17438e	0.03692966
237	0xbd64b8df	-0.05584037
238	0xbbfdce41	-0.0077455346
239	0x3ca3f131	0.02001247
240	0xbd79bd3d	-0.060971487
241	0x3bae359b	0.005316449
242	0x3a0e56f7	0.0005429829
243	0xbd5da5c4	-0.054113165
244	0x3cd3ed60	0.025870025
245	0xbcbea303	-0.02327109
246	0xbd5b730b	-0.05357651
247	0x3bfc8142	0.0077058384
248	0xbd0cee4a	-0.034406938
249	0xbd77a7cf	-0.06046277
250	0x3c7ed68d	0.015554083
251	0xbd231a60	-0.039820075
252	0xbd6a7ffc	-0.05725096
253	0x3d23edba	0.040021636
254	0xbd6f0bff	-0.05836105
255	0xbd5fd3e6	-0.05464544

body_pose f4 [104, 63]
0	0x3d36a493	0.044590544
1	0xbdcf85f9	-0.10132975
2	0x3d837dbc	0.06420466
3	0xbe0490cd	-0.12945862
4	0xbd78f327	-0.060778763
5	0xbd779e9b	-0.060453992
6	0x3e1473bd	0.14497276
7	0xbc8c574d	-0.017131472
8	0x3e0406d8	0.12893236
9	0x3f1a15a3	0.60189265
10	0xbe45e644	-0.1932612
11	0x3d4726e3	0.04862107
12	0x3f1cc875	0.61243373
13	0x3d2a314c	0.04155092
14	0x3d262a0c	0.040567443
15	0x3cb3ffd4	0.021972574
16	0xbcf7e6aa	-0.030261356
17	0xbcbc1e33	-0.022963619
18	0xbb31f40e	-0.0027153525
19	0xbe96f3f6	-0.29483002
20	0xbe294d91	-0.16533495
21	0x3cbafd62	0.0228259
22	0x3e2c5f9d	0.16833349
23	0x3debdc2f	0.11516606
24	0x3e218851	0.15774657
25	0xbc739407	-0.014866835
26	0x3d25cb6a	0.040477194
27	0x37822a38	1.5516867e-05
28	0xb786b4d7	-1.6058255e-05
29	0x3782acc7	1.5577663e-05
30	0x37748e19	1.4576618e-05
31	0x3786200a	1.5988964e-05
32	0x3777c24f	1.4767588e-05
33	0xbe16872d	-0.14700003
34	0x3dcd63fb	0.100288354
35	0xbd743492	-0.059620447
36	0x3ca40d89	0.020025985
37	0x3dc42238	0.09576839
38	0xbec2304c	-0.37927473
39	0x3e3ea63c	0.18618101
40	0x3e0ab035	0.1354378
41	0x3ea0251e	0.31278318
42	0xbc27bf22	-0.010238441
43	0x3dbf0d48	0.09328705
44	0x3d1f3579	0.038869355
45	0x3d74dc26	0.059780262
46	0xbc7c7420	-0.015408546
47	0xbf5fc221	-0.8740559
48	0x3d27bd49	0.040952
49	0x3d9619f9	0.07329173
50	0x3f49f9c3	0.7889673
51	0x3d6b81d7	0.05749687
52	0xbf1163a8	-0.5679269
53	0xbdd587a4	-0.10426262
54	0x3d814393	0.06311717
55	0x3f1a9ab4	0.6039231
56	0x3d86cd7c	0.06582162
57	0x3e6970c8	0.22796929
58	0xbc47855c	-0.012177791
59	0x3e08bb15	0.13352616
60	0x3e4dbd77	0.20091806
61	0x3c6f5edd	0.0146100195
62	0xbdb214bd	-0.08695362
63	0xbde4ff0f	-0.11181461
64	0xbde4c5f7	-0.11170571
65	0xbc11b5e4	-0.008893464
66	0xbe382bed	-0.17985506
67	0x3b42bb58	0.0029713716
68	0xbdb20725	-0.08692769
69	0x3e086547	0.13319884
70	0x3c61f426	0.01379112
71	0x3df77d0f	0.120844
72	0x3f410a00	0.75405884
73	0xbe1d36a2	-0.15352872
74	0x3d4b40a7	0.049622204
75	0x3f1404b3	0.5781967
76	0x3da34de1	0.079738386
77	0x3d80bd28	0.06286079
78	0xbd508929	-0.050912056
79	0x3bea54b8	0.0071512125
80	0xbc65c3ab	-0.014023702
81	0x3dd1f020	0.10250878
82	0xbe899181	-0.26868823
83	0xbe2df6f5	-0.16988738
84	0x3c5941f9	0.013260358
85	0x3e297c48	0.16551316
86	0x3de3c3a1	0.11121298
87	0x3deef357	0.11667507
88	0x3ce1e60c	0.027575515
89	0x3d6dfccf	0.058102425
90	0x37822916	1.551634e-05
91	0xb789539b	-1.6370604e-05
92	0x37834ac2	1.5651229e-05
93	0x37837ecb	1.567546e-05
94	0x37855662	1.589506e-05
95	0x37808bca	1.5323883e-05
96	0xbd4e4b96	-0.050365053
97	0x3db9bf42	0.09069683
98	0xbde0318f	-0.109469526
99	0x3cdb17ae	0.02674469
100	0x3c9aafb4	0.01888261
101	0xbead9905	-0.33905807
102	0x3d891cde	0.06694959
103	0xbd20fdd8	-0.039304584
104	0x3ef6eed5	0.4822909
105	0xbbaa5bba	-0.005198923
106	0x3d800ce2	0.06252457
107	0x3d8fdb0c	0.07024202
108	0x3dbbcadf	0.09169554
109	0xbd9a6ad2	-0.075399056
110	0xbf6cbc5a	-0.924749
111	0x3daa6c9e	0.08321498
112	0x3da34280	0.07971668
113	0x3f0f30ab	0.55933636
114	0x3df4d10b	0.11953934
115	0xbefa8384	-0.48928463
116	0xbe5d5dd8	-0.2161783
117	0x3e679407	0.22615062
118	0x3f02cb74	0.51091695
119	0x3e290d64	0.16509014
120	0x3cc71800	0.024303436
121	0x3ee5e532	0.44901425
122	0x3ed009e0	0.40632534
123	0x3e5bf434	0.21479875
124	0xbb5dc98d	-0.0033842057
125	0xbd63939e	-0.0555607
126	0xbe095978	-0.13413036
127	0xbde9faf7	-0.11424821
128	0xbd273669	-0.040823374
129	0xbe25139d	-0.16120763
130	0x3b1f5640	0.0024312884
131	0xbdf3b71f	-0.11900162
132	0x3e16d3f9	0.14729299
133	0x3ce21663	0.027598565
134	0x3e097b59	0.1342596
135	0x3f4fd233	0.81180114
136	0xbe1dda49	-0.154153
137	0x3d98f9aa	0.07469495
138	0x3f0a6f14	0.5407574
139	0x3d474846	0.04865291
140	0x3df17452	0.117897645
141	0xbd70caca	-0.058787145
142	0x3cdc0bbc	0.026861064
143	0x3a703d40	0.00091644004
144	0x3dd364f2	0.10321988
145	0xbe63dfc9	-0.22253336
146	0xbde816b6	-0.11332457
147	0x3d0f1271	0.034929696
148	0x3e4b36c8	0.19845116
149	0x3dc44c14	0.09584823
150	0x3dca2d13	0.098718785
151	0x3d2880d4	0.041138485
152	0x3d88aeda	0.06673975
153	0x3784f664	1.585036e-05
154	0xb784b23c	-1.5818623e-05
155	0x378269d2	1.5546484e-05
156	0x3779e317	1.489443e-05
157	0x37830327	1.5617885e-05
158	0x377b610c	1.4983361e-05
159	0xbd1f82f5	-0.03894325
160	0x3db4cfca	0.08828695
161	0xbe0c020c	-0.13672656
162	0x3d5a76d1	0.05333597
163	0x3d1a0b88	0.037608653
164	0xbe9b590b	-0.30341372
165	0x3d4d9120	0.05018723
166	0xbd553d84	-0.05206062
167	0x3ef55e51	0.4792352
168	0x3c641de7	0.013923145
169	0x3dbf30de	0.093354926
170	0x3db86ea5	0.09005479
171	0x3da1ad73	0.07894411
172	0xbd192880	-0.03739214
173	0xbf845875	-1.0339495
174	0x3dc04fa4	0.0939019
175	0x3df540e5	0.11975268
176	0x3f0288c3	0.5098993
177	0xbd95dfd4	-0.073180825
178	0xbf15f607	-0.5857853
179	0xbe644f56	-0.2229589
180	0x3e59909d	0.21246572
181	0x3ee77c63	0.45212087
182	0x3e304d19	0.1721691
183	0x3d44b6b1	0.04802579
184	0x3f07c936	0.530414
185	0x3ecd6376	0.40114945
186	0x3e42bc6d	0.19017191
187	0x3cf65369	0.03006907
188	0x378bc9cc	1.666406e-05
189	0xbe1686af	-0.14699815
190	0xbde71393	-0.1128303
191	0xbd8246a2	-0.063611284
192	0xbe1d5c3d	-0.15367217
193	0x3d4a4893	0.04938562
194	0xbdd8c69b	-0.10584756
195	0x3e16b321	0.1471677
196	0x3d4745a7	0.04865041
197	0x3e0b3908	0.13595974
198	0x3f5adbeb	0.8549182
199	0xbe13842f	-0.14405893
200	0x3d9ed103	0.077547096
201	0x3f107e94	0.5644314
202	0x3d95ef2b	0.07321008
203	0x3dc904ac	0.09815344
204	0xbd7463ad	-0.05966537
205	0x3cdab574	0.026697852
206	0x3c209280	0.009800553
207	0x3ddbd738	0.10734409
208	0xbe4ede9c	-0.20202106
209	0xbe1b3d6a	-0.15160146
210	0x3b9c84d0	0.0047765747
211	0x3e54f050	0.20794797
212	0x3e050ac6	0.12992391
213	0x3dbedb18	0.093191326
214	0x3d00d06a	0.03144876
215	0x3d68bc85	0.05682041
216	0x37828232	1.5557835e-05
217	0x37779200	1.47563405e-05
218	0x37833598	1.5641373e-05
219	0xb782b162	-1.5579808e-05
220	0x3787d013	1.6190146e-05
221	0x3776b6d4	1.4705311e-05
222	0xbd018cff	-0.031628605
223	0x3dcb12dd	0.09915707
224	0xbe077d4e	-0.13231394
225	0x3da079fa	0.07835765
226	0x3c7d1657	0.015447221
227	0xbe7a06d5	-0.24416669
228	0x3ced86fc	0.02899503
229	0xbd0fcf43	-0.03510977
230	0x3ef562c4	0.47926915
231	0x3c44f940	0.012022316
232	0x3dd96b35	0.10616151
233	0x3dd3b17f	0.10336589
234	0x3e0d0638	0.13771904
235	0xbd0eb1dd	-0.034837592
236	0xbf85fb88	-1.0467386
237	0x3dadabf9	0.08480067
238	0x3e07f6dc	0.13277763
239	0x3effafb8	0.4993875
240	0x3e2a01a8	0.16602194
241	0xbf219eb1	-0.6313277
242	0xbe5c32bf	-0.21503733
243	0x3e3f64b5	0.1869076
244	0x3edaabea	0.42709285
245	0x3e1d41fb	0.15357201
246	0x3e3d2a53	0.18473177
247	0x3f1d6b7e	0.61492145
248	0x3e3c7a26	0.18405971
249	0x3e38a227	0.18030606
250	0xbc0a90f0	-0.008457407
251	0x3d448e0e	0.047987036
252	0xbe452a30	-0.19254375
253	0xbe07a9a2	-0.13248304
254	0xbdc394cd	-0.09549866
255	0xbe00acc4	-0.12565905

transl f4 [104, 3]
0	0xbefbc402	-0.4917298
1	0x3fb2882e	1.3947809
2	0xbfb69746	-1.4264915
3	0xbefc2637	-0.49247906
4	0x3fb211b4	1.3911653
5	0xbfb45501	-1.4088441
6	0xbefb7a3c	-0.49116695
7	0x3fb1eb88	1.3900003
8	0xbfb316ff	-1.3991393
9	0xbef99b46	-0.48751277
10	0x3fb1991a	1.3874848
11	0xbfb1a35e	-1.3877981
12	0xbef84bb2	-0.4849525
13	0x3fb1d188	1.3892069
14	0xbfb08c95	-1.3792902
15	0xbef75700	-0.48308563
16	0x3fb1e22d	1.3897148
17	0xbfaf5808	-1.369874
18	0xbef5ea48	-0.48030305
19	0x3fb1ded4	1.3896127
20	0xbfae0546	-1.3595359
21	0xbef4566e	-0.4772219
22	0x3fb205d6	1.3908031
23	0xbfacabea	-1.3489964
24	0xbef2199f	-0.47285172
25	0x3fb210ba	1.3911355
26	0xbfab13f7	-1.3365468
27	0xbef031a1	-0.46912864
28	0x3fb2a113	1.3955406
29	0xbfa96d30	-1.3236446
30	0xbeedcb21	-0.46444038
31	0x3fb24935	1.3928591
32	0xbfa79e3a	-1.3095162
33	0xbeeb4034	-0.4594742
34	0x3fb250eb	1.3930944
35	0xbfa5b78f	-1.2946643
36	0xbee714e5	-0.4513313
37	0x3fb1c799	1.3889037
38	0xbfa371e6	-1.2769134
39	0xbee1fb51	-0.44137052
40	0x3fb148c9	1.3850337
41	0xbfa0f5b9	-1.2574989
42	0xbedd599d	-0.43232432
43	0x3fb0e399	1.3819457
44	0xbf9e6483	-1.2374424
45	0xbed759a6	-0.42060584
46	0x3fb05a64	1.3777585
47	0xbf9b8d4e	-1.2152498
48	0xbed01281	-0.40639117
49	0x3fb01e6b	1.3759283
50	0xbf9893aa	-1.1920063
51	0xbec90b58	-0.39266467
52	0x3fb02025	1.375981
53	0xbf956b56	-1.1673381
54	0xbec12788	-0.37725472
55	0x3fafc237	1.3731145
56	0xbf91d2dd	-1.1392475
57	0xbeb9679d	-0.36211863
58	0x3faf5ded	1.3700539
59	0xbf8e5523	-1.1119732
60	0xbeb28b0f	-0.34871718
61	0x3faeea86	1.3665321
62	0xbf8aeee2	-1.0854151
63	0xbead643a	-0.3386553
64	0x3fae76bf	1.3629988
65	0xbf87ae8d	-1.0600144
66	0xbea8712d	-0.32898846
67	0x3fae5d89	1.3622295
68	0xbf84cdda	-1.0375321
69	0xbea39d6f	-0.3195605
70	0x3fae611a	1.3623383
71	0xbf81f639	-1.0153266
72	0xbe9ea14b	-0.30982432
73	0x3fae8693	1.3634819
74	0xbf7e8609	-0.9942327
75	0xbe997be2	-0.29977328
76	0x3faecd43	1.3656391
77	0xbf7943c4	-0.9736903
78	0xbe950090	-0.29101992
79	0x3faefb7f	1.36705
80	0xbf7407a4	-0.9532416
81	0xbe9051a9	-0.28187302
82	0x3faf2382	1.3682711
83	0xbf6e6b51	-0.931325
84	0xbe8bed33	-0.27329406
85	0x3faf4cbc	1.3695292
86	0xbf681180	-0.906517
87	0xbe87c75b	-0.26519284
88	0x3faf532d	1.3697258
89	0xbf60f371	-0.8787146
90	0xbe836207	-0.25660726
91	0x3faf62e4	1.3702054
92	0xbf5926d2	-0.8482486
93	0xbe7d7f70	-0.24755645
94	0x3fae1e1a	1.3602936
95	0xbf5036b0	-0.81333447
96	0xbe712361	-0.23548652
97	0x3fad7bf3	1.3553451
98	0xbf45d349	-0.7727552
99	0xbe611730	-0.21981502
100	0x3facafc0	1.3491135
101	0xbf3b15da	-0.7308022
102	0xbe4fbc83	-0.20286755
103	0x3fabf083	1.3432773
104	0xbf308634	-0.6895478
105	0xbe40abda	-0.18815556
106	0x3fabb97f	1.3415984
107	0xbf26815a	-0.65041125
108	0xbe346202	-0.17615512
109	0x3fabf76d	1.3434883
110	0xbf1dcafa	-0.6163784
111	0xbe2837f7	-0.16427599
112	0x3facd979	1.3503867
113	0xbf15bc64	-0.58490586
114	0xbe1cdf38	-0.15319526
115	0x3fae07f2	1.3596175
116	0xbf0e5028	-0.5559106
117	0xbe11c379	-0.14234723
118	0x3faf2eee	1.3686197
119	0xbf06e611	-0.52694803
120	0xbe072f43	-0.13201623
121	0x3fb084b0	1.3790493
122	0xbeff5d3b	-0.49875817
123	0xbdf81905	-0.12114147
124	0x3fb1809d	1.3867375
125	0xbef122b3	-0.47096786
126	0xbdddff54	-0.108397156
127	0x3fb1c69e	1.3888738
128	0xbee257a8	-0.442075
129	0xbdc34232	-0.0953411
130	0x3fb1d6ff	1.3893737
131	0xbed2bffd	-0.411621
132	0xbda57a36	-0.080799505
133	0x3fb1a688	1.3878946
134	0xbec2f0dc	-0.38074386
135	0xbd85c961	-0.065325506
136	0x3fb0f7d1	1.3825628
137	0xbeb20e72	-0.34776646
138	0xbd4f1b9e	-0.050563447
139	0x3fb07c33	1.3787903
140	0xbea01831	-0.31268457
141	0xbceabe33	-0.028655147
142	0x3faf28fc	1.3684382
143	0xbe8c242e	-0.27371353
144	0xbc12ca23	-0.008959326
145	0x3fae6f79	1.3627769
146	0xbe7248ab	-0.23660533
147	0x3c2666e0	0.010156363
148	0x3faddc3d	1.3582836
149	0xbe4cbb19	-0.19993247
150	0x3ce4d2d6	0.027932566
151	0x3fadb209	1.3569957
152	0xbe2b2eea	-0.16717115
153	0x3d3376a5	0.04381432
154	0x3fadef9e	1.358875
155	0xbe0cfd30	-0.13768458
156	0x3d70ff8b	0.058837455
157	0x3fae4e80	1.3617706
158	0xbddeb952	-0.10875191
159	0x3d94931d	0.07254622
160	0x3faee04f	1.3662204
161	0xbda63dc8	-0.081172526
162	0x3dadcf31	0.08486784
163	0x3faf7b0c	1.3709426
164	0xbd5b51c0	-0.05354476
165	0x3dc7e99c	0.09761354
166	0x3fb033e1	1.3765832
167	0xbcccc2b7	-0.024995191
168	0x3ddf62ac	0.10907492
169	0x3fb0c426	1.380986
170	0x3bb6033a	0.005554584
171	0x3df906ad	0.121594764
172	0x3fb0d18d	1.381395
173	0x3d1d7701	0.03844357
174	0x3e0a1ff2	0.13488749
175	0x3fb082aa	1.3789876
176	0x3d9818d6	0.07426612
177	0x3e18a7cf	0.14907764
178	0x3faf3461	1.368786
179	0x3de421e5	0.11139277
180	0x3e267f29	0.16259445
181	0x3fae3926	1.361119
182	0x3e1e3c2e	0.15452644
183	0x3e36d9ab	0.17856471
184	0x3fac9af5	1.3484789
185	0x3e4d5081	0.20050241
186	0x3e472bca	0.19450298
187	0x3fab1c38	1.3367987
188	0x3e7e1931	0.24814297
189	0x3e5706ee	0.20998737
190	0x3faaa729	1.3332263
191	0x3e956e84	0.2918588
192	0x3e640d1a	0.22270623
193	0x3faab845	1.3337485
194	0x3ea9d080	0.33166885
195	0x3e702075	0.23449881
196	0x3fab3d83	1.3378147
197	0x3ebbaf33	0.36657104
198	0x3e7ad3ef	0.24494909
199	0x3fac42ce	1.3457887
200	0x3ecc07a7	0.39849588
201	0x3e82b4fb	0.25528702
202	0x3fadaf03	1.3569034
203	0x3edb3637	0.428148
204	0x3e87c063	0.26513967
205	0x3faf6152	1.3701575
206	0x3ee9aed7	0.45641205
207	0x3e8cee8f	0.27525756
208	0x3fb0b5e8	1.3805513
209	0x3ef8f397	0.48623344
210	0x3e9292a0	0.2862749
211	0x3fb15121	1.3852884
212	0x3f04854d	0.517659
213	0x3e999228	0.2999432
214	0x3fb1f005	1.3901373
215	0x3f0cca83	0.5499651
216	0x3ea093c9	0.3136275
217	0x3fb20749	1.3908473
218	0x3f15ceb0	0.58518505
219	0x3ea85e46	0.32884425
220	0x3fb1b137	1.3882207
221	0x3f1f63e5	0.622618
222	0x3eb0d015	0.34533754
223	0x3fb10dbf	1.383232
224	0x3f29ddf8	0.6635432
225	0x3eba9410	0.36441088
226	0x3fb01762	1.3757136
227	0x3f348b59	0.7052513
228	0x3ec3d5d2	0.3824907
229	0x3faf44ad	1.3692833
230	0x3f3ecbff	0.74530023
231	0x3ecb8322	0.39748484
232	0x3faef61e	1.3668859
233	0x3f487f72	0.78319466
234	0x3ed2f95f	0.4120588
235	0x3faf2e11	1.3685933
236	0x3f512183	0.8169176
237	0x3eda24e5	0.42606273
238	0x3fafc3a3	1.3731579
239	0x3f58dde6	0.8471359
240	0x3ee0c80e	0.4390263
241	0x3fb089a6	1.3792007
242	0x3f5f89e4	0.8731978
243	0x3ee68dd1	0.45030072
244	0x3fb154c8	1.3853998
245	0x3f65f718	0.8983016
246	0x3eeac6dd	0.45854846
247	0x3fb1ecc4	1.390038
248	0x3f6c0da5	0.9220832
249	0x3eef76b4	0.4677025
250	0x3fb2a8ac	1.3957725
251	0x3f71db24	0.9447501
252	0x3ef490c5	0.477667
253	0x3fb33db8	1.400321
254	0x3f779833	0.9671661
255	0x3ef9317d	0.4867057

left_hand_pose f4 [104, 12]
0	0x3d2ab5e0	0.041677356
1	0x3e9c2b76	0.30501908
2	0x3d9f0d83	0.07766249
3	0xbe820649	-0.2539542
4	0x3ec5239f	0.3850374
5	0xbe2af1d0	-0.16693807
6	0xbca7e2a4	-0.020493813
7	0x3f015b03	0.505295
8	0xbf53ebc5	-0.8278163
9	0xbda15746	-0.07877974
10	0x3f55d12f	0.83522314
11	0xbf94360f	-1.1578997
12	0xbf11d39a	-0.56963503
13	0xbe79ca89	-0.24393667
14	0xbf3bf8be	-0.73426425
15	0xbee429d4	-0.44563162
16	0x3e8619e6	0.26191634
17	0xbf153a88	-0.58292437
18	0xbf85430d	-1.0411087
19	0xbf2dd1b4	-0.67898107
20	0xbfe73131	-1.8061887
21	0xc00270a8	-2.038126
22	0xbed9ad35	-0.4251496
23	0xc031b3b1	-2.7765925
24	0xbfaa18d2	-1.3288825
25	0xbe79a27f	-0.24378394
26	0xbf99e505	-1.2023016
27	0xbf121238	-0.5705905
28	0x3f78aa56	0.9713491
29	0x3e107c51	0.14109923
30	0xbf9643f4	-1.1739488
31	0x3ec2f775	0.3807942
32	0xbf8be855	-1.0930277
33	0x3f07d073	0.53052443
34	0xbe51ce0f	-0.20488761
35	0xbff2b863	-1.896252
36	0xbfa8008e	-1.3125169
37	0x3f2e9e3b	0.6821019
38	0xbf8f0c01	-1.1175538
39	0xbf1c3d7e	-0.6103133
40	0x3fc17ad5	1.511561
41	0xbf11891b	-0.5684983
42	0xbff8a1a9	-1.9424335
43	0x3eaa77f3	0.3329464
44	0xbfc1e7e7	-1.5148896
45	0x3f1a167f	0.60190576
46	0xbf3ca940	-0.73695755
47	0xbf983361	-1.189068
48	0xbfb068fe	-1.3782041
49	0x3eebbe2c	0.46043527
50	0xbe1656b9	-0.1468152
51	0xbf1e0e2f	-0.6174039
52	0x3fd2de29	1.6474048
53	0x3f069c26	0.52582014
54	0xbf749d1a	-0.9555222
55	0x3fea05ca	1.8283017
56	0xbd677d19	-0.056515787
57	0x3f5965a2	0.84920704
58	0xbe83cc98	-0.2574203
59	0x3f58d601	0.84701544
60	0xbf5f4cc1	-0.8722649
61	0x3daa007b	0.08300873
62	0x3ee79187	0.45228216
63	0xbfaa19c1	-1.328911
64	0x3f9d450b	1.2286695
65	0x3f935f59	1.1513473
66	0xbe166587	-0.14687167
67	0x400e957f	2.2278745
68	0xc00b063c	-2.1722555
69	0x3fc3c248	1.5293665
70	0x3df994a0	0.12186551
71	0xbf329341	-0.6975594
72	0xbf58dc53	-0.8471119
73	0x3f49681d	0.7867449
74	0x3ed53e35	0.41649023
75	0xbfc98133	-1.5742553
76	0xbdbfbf32	-0.093626395
77	0x3f42a9f8	0.760406
78	0xbfd630cd	-1.6733643
79	0x401563ff	2.3342283
80	0xc0146d18	-2.3191586
81	0x4018bb82	2.3864446
82	0x3eeb02d2	0.4590059
83	0xbfa5bd71	-1.2948438
84	0xbe8d7f10	-0.27636003
85	0x3dc67291	0.096898206
86	0x3e8e8727	0.27837488
87	0xbfd000c4	-1.6250234
88	0xbf3551e6	-0.7082809
89	0x3d837c36	0.06420176
90	0xbf7e182a	-0.9925562
91	0x3fbc5d92	1.4716055
92	0xbfd8d6a9	-1.6940509
93	0xbec9b045	-0.39392295
94	0xbf84fb34	-1.0389161
95	0xbf0d4733	-0.55186766
96	0x3df2e6b5	0.1186041
97	0xbeaf87d0	-0.34283304
98	0x3eaf9b25	0.34298053
99	0xbf488393	-0.78325766
100	0xbd119b91	-0.03554875
101	0xbf21e9e2	-0.632475
102	0x3ef9927b	0.48744568
103	0x3eaa70e9	0.3328927
104	0xbe9e8085	-0.30957428
105	0xbf46e741	-0.77696615
106	0xbeaa5e95	-0.33275285
107	0xbfb7cb5d	-1.4358937
108	0x3e1466d8	0.14492357
109	0xbe88af1d	-0.266961
110	0x3e9c9b47	0.30587217
111	0xbf30fcf4	-0.69135976
112	0x3d86f4ed	0.06589685
113	0xbea85bba	-0.32882482
114	0x3f3a1288	0.72684526
115	0xbe27aa51	-0.16373564
116	0xbeb2e4b2	-0.34940106
117	0xbf974ca9	-1.182027
118	0xbdd09714	-0.10185066
119	0xbfc94643	-1.5724567
120	0x3e750459	0.2392744
121	0xbdb66249	-0.08905465
122	0x3e040280	0.12891579
123	0xbf27e61d	-0.655855
124	0x3eff149b	0.49820408
125	0xbea3f41d	-0.3202218
126	0x3ee412f7	0.4454572
127	0x3d894b8e	0.06703864
128	0xbd57f8af	-0.052727398
129	0xbf7bac39	-0.98309666
130	0xbf359480	-0.7092972
131	0xbfcf9f6c	-1.6220527
132	0x3decdd53	0.11565652
133	0x3d3a19cf	0.04543477
134	0xbdaa2a2d	-0.08308826
135	0xbf5b8285	-0.8574603
136	0x3f3d110d	0.7385414
137	0xbe9f647d	-0.31131354
138	0x3d77413a	0.06036494
139	0x3c698c55	0.014254649
140	0xbf0d80a3	-0.5527441
141	0xbf20bbf9	-0.62786824
142	0x3e90d349	0.28286198
143	0xbff50620	-1.9142494
144	0x3e32650e	0.17421362
145	0x3c4dff38	0.012573056
146	0xbda81f4b	-0.08209094
147	0xbf6227e7	-0.88342136
148	0x3ec2a17e	0.38013834
149	0x3ec7aa4b	0.3899711
150	0x3dc48a6e	0.09596716
151	0x3ebe336a	0.371486
152	0xbf414a3a	-0.75503886
153	0xbf087c17	-0.53314346
154	0x3e9c7722	0.3055964
155	0xbf6d7b17	-0.92765945
156	0x3e833ef2	0.2563396
157	0x3de5a2ef	0.11212718
158	0x3e68482a	0.22683778
159	0xbf263d12	-0.64936936
160	0x3e2904ce	0.16505739
161	0x3a4c94b9	0.0007804144
162	0x3e2c724f	0.1684048
163	0x3ef0ad38	0.47007155
164	0xbf28f762	-0.66002476
165	0xbedd19fa	-0.4318388
166	0x3eda8edc	0.42687118
167	0xbf8f0872	-1.1174452
168	0x3ed6d963	0.41962728
169	0x3ed49cd6	0.41525906
170	0x3f341e66	0.70358884
171	0x3eae1d33	0.34006652
172	0xbf245dd2	-0.6420566
173	0xbf5851ed	-0.8450001
174	0xbead6644	-0.33867085
175	0x3f480248	0.7812848
176	0xbf650083	-0.89453906
177	0xbe53904c	-0.20660514
178	0x3f1f7a13	0.62295645
179	0xbfc5090c	-1.5393386
180	0x3ebd9cbf	0.3703365
181	0x3ea74c4c	0.32675397
182	0x3f1c7445	0.61114913
183	0x3d96d942	0.073656574
184	0xbe36fe59	-0.17870463
185	0xbf28e7d2	-0.6597873
186	0x3da819c7	0.08208042
187	0x3eb04ec9	0.34435108
188	0xbf872610	-1.0558491
189	0xbedef004	-0.43542492
190	0x3f7a2481	0.9771195
191	0xbf84024c	-1.0313201
192	0x3ec6e9a1	0.3885012
193	0x3e37e274	0.17957479
194	0x3f07156d	0.5276707
195	0xbd22ade9	-0.039716635
196	0x3d134779	0.035956834
197	0xbefc6f13	-0.49303493
198	0x3ddf7c07	0.10912328
199	0x3dd47498	0.10373801
200	0xbf56beaf	-0.8388471
201	0xbef0f511	-0.4706197
202	0x3f6230e3	0.88355845
203	0xbf7b04b8	-0.98054075
204	0x3e96738d	0.29385033
205	0x3eb29522	0.34879404
206	0x3e1c2377	0.15247904
207	0xbf200410	-0.625062
208	0x3f717073	0.9431221
209	0xbe4103d2	-0.18849114
210	0xbd5f1b9a	-0.054469682
211	0xbce815e1	-0.028330745
212	0xbf3d5386	-0.7395557
213	0xbf78b36e	-0.9714879
214	0x3e17367e	0.14766881
215	0xbfa11174	-1.2583451
216	0x3ec29208	0.38002038
217	0x3caa7378	0.020807013
218	0x3e97e7c6	0.29669017
219	0xbe969268	-0.29408574
220	0x3efb0d3e	0.4903354
221	0xbecea468	-0.40359807
222	0x3e8a360f	0.26994368
223	0x3d21accd	0.039471436
224	0xbf1ff2df	-0.62479967
225	0xbf53deb8	-0.82761717
226	0x3ebb44c6	0.36575907
227	0xbf9c0837	-1.2190007
228	0x3eb972d7	0.36220428
229	0x3ce11e76	0.027480345
230	0x3eabc75c	0.33550537
231	0xbe1b4129	-0.15161575
232	0x3eb9e6bb	0.36308846
233	0xbe4694f3	-0.19392757
234	0x3e7d1a7f	0.24717139
235	0xbe4f949d	-0.20271535
236	0xbf239c7f	-0.6391067
237	0xbf653550	-0.89534473
238	0x3f0bc3f8	0.545959
239	0xbfc99c53	-1.5750831
240	0x3ee6d6e1	0.45085815
241	0xbd224421	-0.039615754
242	0x3ebc5fc7	0.36791822
243	0x3c926573	0.01787064
244	0x3eb7f347	0.35927793
245	0xbd969b65	-0.07353858
246	0x3e999bf9	0.3000181
247	0xbeb3c9c5	-0.35114875
248	0xbf2fa26c	-0.6860721
249	0xbf81b43c	-1.0133128
250	0x3ed78f1f	0.4210138
251	0xbfbde2cc	-1.4834838
252	0x3f0a1704	0.5394137
253	0x3d8708ae	0.065934524
254	0x3ef442fd	0.47707358
255	0x3eada770	0.33916807

right_hand_pose f4 [104, 12]
0	0x3e8d0ced	0.27548924
1	0x3b37b716	0.0028032712
2	0x3f28ff40	0.6601448
3	0x3e851aee	0.25997108
4	0xbd045add	-0.032313216
5	0xbf6800ec	-0.90626407
6	0x3f1321bb	0.57473344
7	0x3e460f1e	0.19341704
8	0xbf01bbae	-0.50677
9	0xbf04e7b0	-0.5191603
10	0x3f950513	1.1642174
11	0xbf3bc76b	-0.7335116
12	0x3eaaaf14	0.333367
13	0xbddbe3fd	-0.10736845
14	0x3f10c4b5	0.5655015
15	0x3e89e0f3	0.26929435
16	0xbd0201cf	-0.031740006
17	0xbf56d437	-0.83917564
18	0x3ed67d00	0.41892242
19	0x3e659d9d	0.22423406
20	0xbf097d74	-0.5370705
21	0xbeede39b	-0.46462712
22	0x3f779bc2	0.9672204
23	0xbf43d58f	-0.7649774
24	0x3ec5e48a	0.38650924
25	0xbdf85552	-0.121256486
26	0x3f039b5d	0.5140894
27	0x3e0644d2	0.1311219
28	0x3de66cb1	0.112512
29	0xbf3955c6	-0.72396505
30	0x3f04a3ab	0.5181224
31	0x3e436d31	0.19084622
32	0xbefd7dc3	-0.4951001
33	0xbf10e519	-0.56599575
34	0x3f2edbf7	0.6830439
35	0xbf6177bc	-0.88073325
36	0x3ee776a2	0.45207697
37	0xbe20ffba	-0.15722552
38	0x3f06a9fd	0.5260313
39	0x3e7b6c9a	0.24553147
40	0xbd455df2	-0.048185296
41	0xbf63056b	-0.8868014
42	0x3f1ad2eb	0.60478085
43	0x3e4403fe	0.19142148
44	0xbec33aa3	-0.38130674
45	0xbf13d6f7	-0.57749885
46	0x3f3aa07e	0.7290114
47	0xbf85131d	-1.0396458
48	0x3f008e3d	0.5021704
49	0xbde9bbac	-0.11412749
50	0x3ed73fdb	0.42040905
51	0x3e24c685	0.16091354
52	0xbd1784a0	-0.036991715
53	0xbf2de6e3	-0.6793043
54	0x3f1cbd6b	0.6122653
55	0x3e1dd9b9	0.15415086
56	0xbf21c888	-0.6319661
57	0xbf1ce74d	-0.61290437
58	0x3f35a34b	0.7095229
59	0xbf547582	-0.829918
60	0x3f021d88	0.5082631
61	0xbe060008	-0.1308595
62	0x3ec540d1	0.38526013
63	0x3df314c0	0.11869192
64	0xbd80ade1	-0.06283165
65	0xbf334a36	-0.7003511
66	0x3f4946c9	0.78623635
67	0x3dbf5ca2	0.0934384
68	0xbeace6f4	-0.33769953
69	0xbf169fe3	-0.5883772
70	0x3f80958d	1.0045639
71	0xbf989cd8	-1.1922865
72	0x3eee5d97	0.46555778
73	0xbce088a9	-0.027408915
74	0x3ed0619b	0.40699467
75	0xbc9e93ef	-0.01935765
76	0x3d176b8a	0.03696779
77	0xbf1f9e58	-0.6235099
78	0x3f887698	1.0661192
79	0xbe2ab6a2	-0.16671231
80	0xbed3991d	-0.41327754
81	0xbf62a5df	-0.8853435
82	0x3f83bf5d	1.0292774
83	0xbfcb2919	-1.5871917
84	0x3eca02c6	0.3945524
85	0x3dafbc6c	0.085808605
86	0x3e999e8e	0.3000378
87	0xbe01d583	-0.12679105
88	0x3e5094c8	0.20369256
89	0xbe90a720	-0.28252506
90	0x3f3a3870	0.72742367
91	0xbe826af5	-0.25472227
92	0xbf2df74f	-0.6795549
93	0xbf759e43	-0.95944613
94	0x3f71d2c5	0.94462234
95	0xbfbcf2f0	-1.4761639
96	0x3e983cd0	0.29733896
97	0x3e3da5b3	0.1852024
98	0x3e61b13f	0.2204027
99	0xbdcec9d4	-0.100970894
100	0x3e5e4fdd	0.21710153
101	0xbe319581	-0.17342187
102	0x3f0a2b4c	0.53972316
103	0xbe6f8452	-0.2339032
104	0xbf3d00b1	-0.7382918
105	0xbf59b2a3	-0.85038203
106	0x3f7596aa	0.9593302
107	0xbfc24447	-1.5177087
108	0x3e9c285b	0.3049954
109	0x3e674a0e	0.22586843
110	0x3ddb823e	0.10718201
111	0xbe1e3beb	-0.15452544
112	0x3e8ffd83	0.28123102
113	0xbd17d0e6	-0.037064455
114	0x3e44d7df	0.19222973
115	0x3ddf0b7f	0.108908646
116	0xbf6f0745	-0.9337047
117	0xbe8aba51	-0.27095273
118	0x3fbfb5a8	1.4977312
119	0xbf4c28fc	-0.7975004
120	0x3e520fe7	0.20513879
121	0x3e0b5392	0.13606098
122	0x3e3268bc	0.17422765
123	0xbe9ccad6	-0.30623502
124	0x3f197d47	0.59956783
125	0xbe89db23	-0.26925
126	0x3e678407	0.22608958
127	0x3c197def	0.009368404
128	0xbe99e1cb	-0.3005508
129	0xbeb0a480	-0.34500504
130	0x3faf3d45	1.3690573
131	0xbfccae65	-1.5990721
132	0x3e2c96c1	0.16854383
133	0x3dfc474d	0.12318287
134	0x3cb7f5cd	0.022456074
135	0xbec5e765	-0.38653103
136	0x3ed14899	0.408757
137	0x3e19f376	0.15034279
138	0x3e282b36	0.16422734
139	0x3e1d64b4	0.15370446
140	0xbf347531	-0.7049132
141	0xbebd1660	-0.36931133
142	0x3f796a95	0.97428256
143	0xbf4d51a6	-0.8020271
144	0x3e3ce50a	0.18446746
145	0x3e0ad8b9	0.13559236
146	0x3e9e8434	0.30960238
147	0xbe453970	-0.19260192
148	0x3e3a74d1	0.18208624
149	0xbeb23224	-0.3480388
150	0x3eccf85c	0.40033233
151	0x3c5e60dc	0.013572898
152	0xbf522e21	-0.8210164
153	0xbf229675	-0.6351083
154	0x3f527bfc	0.82220435
155	0xbf932734	-1.1496339
156	0x3e620150	0.22070813
157	0x3d871ecb	0.0659767
158	0x3ed1e79b	0.40997013
159	0xbd12a809	-0.035804782
160	0x3e196386	0.14979371
161	0xbef91624	-0.48649704
162	0x3eb4d264	0.35316765
163	0x3d7a9370	0.061175764
164	0xbf200421	-0.625063
165	0xbf277467	-0.6541199
166	0x3f322405	0.6958621
167	0xbfa0f97d	-1.2576138
168	0x3e867e9a	0.26268464
169	0xbd4ce0f5	-0.050019223
170	0x3ee30d1b	0.44345936
171	0x3d94cf8b	0.07266148
172	0x3e60d4c8	0.2195617
173	0xbf10a6b3	-0.5650436
174	0x3e6107a3	0.2197557
175	0x3d7c51e3	0.06160153
176	0xbf1ed916	-0.62049997
177	0xbf3392da	-0.7014595
178	0x3f20fa4a	0.6288191
179	0xbf912954	-1.1340737
180	0x3eb2b734	0.34905398
181	0xbdb37572	-0.08762635
182	0x3eff2ea9	0.49840286
183	0x3e333793	0.17501669
184	0xbcbfb1ed	-0.023400271
185	0xbf280b02	-0.65641797
186	0x3ed44f7b	0.4146689
187	0x3dc9ae5d	0.0984771
188	0xbf0ddd01	-0.5541535
189	0xbf172ae9	-0.5904985
190	0x3f566277	0.83743995
191	0xbf772cf7	-0.96552986
192	0x3ec13616	0.37736577
193	0xbdb909e2	-0.09035088
194	0x3ee592d6	0.4483859
195	0x3ddd2d67	0.107996754
196	0x3dd86203	0.10565569
197	0xbf0dd43d	-0.55401975
198	0x3ed6b89b	0.41937718
199	0x3c00f58d	0.007871044
200	0xbed4b460	-0.41543865
201	0xbf25f940	-0.6483345
202	0x3f308f45	0.6896861
203	0xbf81e190	-1.0146961
204	0x3ecc0c35	0.39853063
205	0xbbe183d5	-0.0068821707
206	0x3ebaa9d3	0.3645769
207	0x3c218fdf	0.009860962
208	0x3dda7ea2	0.106686845
209	0xbedba1ce	-0.42896885
210	0x3ecbd6ed	0.39812413
211	0x3dbcfa64	0.09227446
212	0xbeef762e	-0.4676985
213	0xbf1703de	-0.58990276
214	0x3f2a292a	0.6646906
215	0xbf838c82	-1.0277255
216	0x3ec93458	0.39297748
217	0xbcaa9077	-0.02082084
218	0x3eb02b2a	0.34407932
219	0x3dbe80b6	0.093018934
220	0x3d90be6e	0.070675716
221	0xbef05910	-0.4694295
222	0x3eb6161a	0.35563737
223	0x3d9ec657	0.07752674
224	0xbee1bfda	-0.44091684
225	0xbf156b5f	-0.5836696
226	0x3f6792b1	0.9045821
227	0xbfa9d10b	-1.326692
228	0x3ec1b0b9	0.3783014
229	0x3d59066e	0.052984647
230	0x3eb17633	0.3466049
231	0x3d5417a0	0.051780343
232	0x3e0438ac	0.12912244
233	0xbf058745	-0.5215953
234	0x3f0ae193	0.5425045
235	0xbd5a7df9	-0.053342793
236	0xbf3b20ce	-0.7309693
237	0xbf51b1b3	-0.8191177
238	0x3f4de232	0.8042327
239	0xbfa30bc9	-1.2737972
240	0x3eb419d9	0.3517597
241	0x3da10603	0.07862475
242	0x3eb02abb	0.344076
243	0x3ce35ef6	0.027755242
244	0x3e4a6ae9	0.19767345
245	0xbf07ef2a	-0.5309931
246	0x3efa49fe	0.48884577
247	0xbdf412cc	-0.11917648
248	0xbefd735f	-0.49502084
249	0xbf47b8d6	-0.7801641
250	0x3f61a995	0.88149387
251	0xbfba7256	-1.4566143
252	0x3ea3dd39	0.32004717
253	0x3d8b5a1d	0.06804297
254	0x3e931708	0.2872851
255	0x3c994280	0.018708467

jaw_pose f4 [104, 3]
0	0x3cbe2334	0.023210146
1	0x3cb7d021	0.02243811
2	0x3bd1b19d	0.006399347
3	0x3bb9be3c	0.0056684297
4	0x3ccea724	0.025226183
5	0x3c18936b	0.009312491
6	0x3cebacee	0.028768983
7	0x3cbdf28f	0.02318695
8	0x3be0fb1a	0.006865871
9	0x3d3d95f2	0.046285577
10	0x3ccb5093	0.024818694
11	0x3c1a60f8	0.009422533
12	0x3d4fb53c	0.050709948
13	0x3cd18d11	0.025579961
14	0x3c2f70aa	0.010708014
15	0x3d3b9adc	0.045801982
16	0x3cd4e969	0.025990205
17	0x3c2ab34c	0.010418724
18	0x3d230277	0.039797273
19	0x3cc1d589	0.023661392
20	0x3bfab62d	0.0076511116
21	0x3d2f10d9	0.042740677
22	0x3cb66ca8	0.022268608
23	0x3bf3a5bb	0.007435528
24	0x3d09e6c4	0.03366734
25	0x3c9fb367	0.019494725
26	0x3b9e5813	0.0048322766
27	0x3ceb7864	0.02874393
28	0x3c92c2b8	0.017915115
29	0x3b9f9ea7	0.0048712078
30	0x3c697859	0.0142498845
31	0x3caadafa	0.02085637
32	0x3c053663	0.008130643
33	0x3c54b996	0.0129837
34	0x3ca00393	0.019532954
35	0x3b9fba17	0.0048744786
36	0x3c9111b2	0.017708633
37	0x3cab9151	0.020943316
38	0x3c0630ca	0.008190343
39	0x3cadef5b	0.021232298
40	0x3cb49618	0.022044227
41	0x3bec87eb	0.007218351
42	0x3ceb6d47	0.028738631
43	0x3cb2f41f	0.021844922
44	0x3bbc249c	0.005741669
45	0x3cab83af	0.020936815
46	0x3c885c32	0.016645525
47	0x3bb18162	0.005417035
48	0x3ca19999	0.019726561
49	0x3c86edca	0.016470809
50	0x3b949bbe	0.0045351675
51	0x3cc85f7d	0.024459595
52	0x3c76805d	0.015045253
53	0x3b9fb750	0.0048741475
54	0x3ceb6c1c	0.028738074
55	0x3c91adda	0.017783094
56	0x3b92e84b	0.004483258
57	0x3d03a9c6	0.03214433
58	0x3c50db81	0.012747646
59	0x3bafd4cb	0.005365943
60	0x3d0a717a	0.033799626
61	0x3be2b187	0.0069181356
62	0x3b163a73	0.0022923022
63	0x3d557c8c	0.05212073
64	0x3bbbc955	0.0057307878
65	0x3ab8252c	0.0014049164
66	0x3d874c40	0.066063404
67	0x3bdcf47f	0.0067430134
68	0x3aec1031	0.0018010197
69	0x3d6d3419	0.057911012
70	0x3c0e86a3	0.008699092
71	0x3b4dafad	0.0031385229
72	0x3d57237c	0.052524075
73	0x3c0dbe29	0.008651295
74	0x3b4be5cc	0.0031112311
75	0x3d641477	0.05568358
76	0x3bb771d1	0.005598285
77	0x3a9de39f	0.0012045986
78	0x3d6e7427	0.05821624
79	0x3c14736d	0.009060723
80	0x3b521653	0.0032056763
81	0x3d6c945b	0.05775867
82	0x3c0c3f1c	0.008559968
83	0x3b49a057	0.0030765736
84	0x3d8cb1dc	0.068698615
85	0x3b9dca7e	0.0048153987
86	0x3a7d20bf	0.00096560636
87	0x3d9eab00	0.077474594
88	0x3bc6e8a6	0.0060702143
89	0x3a9c1033	0.0011906683
90	0x3d9d5c76	0.07683651
91	0x3bcf5eef	0.0063284556
92	0x3aa54bd2	0.0012611097
93	0x3d9692eb	0.07352241
94	0x3b6dd9c4	0.0036293129
95	0x3a9b5e83	0.0011853728
96	0x3db03fea	0.08605941
97	0x3b6634cf	0.0035126691
98	0x3a6b703b	0.0008981262
99	0x3d9f5121	0.07779146
100	0x3ba27d3d	0.004958777
101	0x3a8531b3	0.0010161906
102	0x3d9dd0cc	0.077058405
103	0x3bfbdb35	0.0076860436
104	0x3b36ad6e	0.0027874368
105	0x3d9db796	0.07701032
106	0x3bd45327	0.006479639
107	0x3aa9db59	0.0012959047
108	0x3d8dfe68	0.0693329
109	0x3bf5a134	0.0074960236
110	0x3b3e91e2	0.0029078652
111	0x3da64d2a	0.081201866
112	0x3bdba5cc	0.006703114
113	0x3ac3178a	0.0014884335
114	0x3d9ce226	0.07660322
115	0x3bf13a69	0.0073616994
116	0x3b47ece1	0.003050618
117	0x3d97a7a3	0.07405021
118	0x3b2efd36	0.0026701218
119	0x3a2a9fa6	0.0006508775
120	0x3d635c77	0.055508103
121	0x3bab7477	0.0052323896
122	0x3a6eed3c	0.000911433
123	0x3d778359	0.060427997
124	0x3ba89ab4	0.005145395
125	0x3abcd6da	0.0014407292
126	0x3d88b3b8	0.06674904
127	0x3bc476e5	0.0059956186
128	0x3ab83d83	0.0014056418
129	0x3d8dfd54	0.06933084
130	0x3bd8ba16	0.00661398
131	0x3b421c10	0.0029618777
132	0x3d9e6952	0.07734932
133	0x3beefd75	0.007293398
134	0x3b434324	0.0029794658
135	0x3d946d74	0.07247439
136	0x3beff674	0.0073230807
137	0x3b4d43ec	0.0031321002
138	0x3d951a02	0.07280351
139	0x3bfd994d	0.007739222
140	0x3b574365	0.0032846567
141	0x3d962052	0.07330383
142	0x3c0d9f8f	0.008643999
143	0x3b84bc3a	0.0040507587
144	0x3db91d7e	0.09038828
145	0x3c03bc19	0.008040451
146	0x3b543d9d	0.0032385357
147	0x3dcba2b6	0.09943144
148	0x3c0267de	0.007959334
149	0x3b37cbd5	0.0028045077
150	0x3db4a313	0.088201664
151	0x3c05846d	0.008149249
152	0x3b662173	0.0035115152
153	0x3dc895fa	0.09794231
154	0x3bee4027	0.007270831
155	0x3b024727	0.0019878836
156	0x3dbbfe71	0.0917939
157	0x3c26e8a1	0.010187299
158	0x3b660793	0.003509973
159	0x3d8a09de	0.06740163
160	0x3bea5a61	0.0071518873
161	0x3acedeb8	0.0015782928
162	0x3d66334f	0.056201275
163	0x3bfc7356	0.007704179
164	0x3b5e05d0	0.0033877976
165	0x3d2775b4	0.040883735
166	0x3bdb6447	0.0066953036
167	0x3aac7de3	0.0013160076
168	0x3d15f9ae	0.036615066
169	0x3bf028ce	0.007329083
170	0x3b0350aa	0.0020037093
171	0x3d3d9d44	0.04629256
172	0x3c067960	0.008207649
173	0x3b2328c5	0.0024896127
174	0x3d2cf2e0	0.04222381
175	0x3be72e75	0.0070550987
176	0x3b123dc5	0.002231465
177	0x3d35aeb3	0.04435606
178	0x3bfb398d	0.0076667727
179	0x3b3286f6	0.0027241088
180	0x3d43bdf3	0.04778857
181	0x3c1bf854	0.009519655
182	0x3b44037d	0.0029909306
183	0x3d5f7007	0.054550197
184	0x3bda0e87	0.006654564
185	0x3a96156b	0.0011450475
186	0x3d67495c	0.056466445
187	0x3bded468	0.006800223
188	0x3ad76b20	0.0016435124
189	0x3d6cf734	0.05785294
190	0x3c000ba6	0.007815277
191	0x3b4704f3	0.003036794
192	0x3d4e27c7	0.050330903
193	0x3bbf6015	0.0058403113
194	0x3a98b3ee	0.0011650303
195	0x3d53bd1d	0.051694024
196	0x3bdf16d6	0.006808142
197	0x3b042eb9	0.002016945
198	0x3d891eef	0.06695353
199	0x3b961bb7	0.0045809406
200	0x3a921074	0.001114382
201	0xbddbfdff	-0.10741805
202	0xbccbd57a	-0.024882067
203	0xbbd5a733	-0.006520176
204	0x3cbd54da	0.02311175
205	0x3be6b44a	0.007040535
206	0x3b1dbf52	0.0024070335
207	0x3d2f8928	0.04285541
208	0x3b4f6f8a	0.0031652176
209	0xb6a192cb	-4.815263e-06
210	0x3d3cdbe6	0.04610815
211	0x3bd9dae9	0.0066484106
212	0x3b1233d8	0.0022308733
213	0x3d20f2de	0.039294116
214	0xbc0c5830	-0.008565947
215	0xbad4e4d2	-0.001624251
216	0xbd245aba	-0.040125586
217	0xbd34ca3b	-0.044138175
218	0xbc1cb0ed	-0.009563667
219	0xbdb735f4	-0.089458376
220	0xbd388355	-0.045047123
221	0xbc2ac2bc	-0.010422405
222	0x3d8393a9	0.06424648
223	0x3c3cbeef	0.0115201315
224	0x3b72ddb7	0.0037058422
225	0x3dd0eb36	0.10201113
226	0x3c77cc24	0.0151243545
227	0x3b8330a2	0.0040036
228	0x3dd24fd0	0.10269129
229	0x3c207b36	0.009795001
230	0x3b988bf1	0.004655354
231	0x3d3f4289	0.046694312
232	0xbcac1748	-0.021007195
233	0xbbe393c5	-0.0069451057
234	0x3dec08bf	0.11525106
235	0x3cbd330d	0.023095632
236	0x3bfd43db	0.0077290363
237	0x3d226ba3	0.03965343
238	0xbcc30348	-0.023805276
239	0xbbcc58a5	-0.006236153
240	0x3da9bf1d	0.08288405
241	0x3c1845a4	0.009293947
242	0x3b8e8bde	0.0043501696
243	0x3da2af94	0.07943645
244	0x3c1166e6	0.008874631
245	0x3b81acd5	0.0039573708
246	0x3da5f047	0.0810247
247	0x3c31e3ac	0.010857504
248	0x3b8b4f79	0.0042514172
249	0x3d8fab14	0.070150524
250	0x3c3fd5aa	0.011708656
251	0x3b78d3a3	0.0037967942
252	0x3db0b957	0.08629101
253	0x3c1a517c	0.009418841
254	0x3b73c2a2	0.0037194868
255	0x3da27c41	0.07933856
