test_dataset/gait_809/20250819_c1_a4_Take1/split_subjects/0/fit-smplx/smplx-params.npz (npz, 43866 bytes, 10 tensors)

global_orient f4 [84, 3]
0	0x3d86ba6a	0.065785244
1	0xc047e37c	-3.1232595
2	0xbdbb5164	-0.091463834
3	0x3d8950e7	0.06704884
4	0xc046b7fa	-3.104979
5	0xbda57444	-0.080788165
6	0x3da4b25c	0.08041832
7	0xc044bcd0	-3.0740242
8	0xbd6f129e	-0.058367364
9	0x3dbb1aab	0.09135946
10	0xc0428859	-3.039572
11	0xbd33d0fb	-0.04390047
12	0x3deb0470	0.11475456
13	0xc04039c6	-3.0035262
14	0xbd26ee2e	-0.04075449
15	0x3e05fed5	0.13085492
16	0xc03e1bb5	-2.970441
17	0xbd1eaf08	-0.03874114
18	0x3e1d3cbd	0.15355201
19	0xc03c42a5	-2.9415677
20	0xbd10a28b	-0.035311263
21	0x3e3e4db9	0.18584336
22	0xc03a6b56	-2.9128013
23	0xbccdbf7b	-0.025115719
24	0x3e57bcc8	0.21068108
25	0xc037d2b3	-2.872235
26	0xbc4f755d	-0.012662259
27	0x3e6609cc	0.22464675
28	0xc0350e27	-2.8289888
29	0xba818b99	-0.0009883522
30	0x3e6a5148	0.22882569
31	0xc030b546	-2.761064
32	0x3c0b3ad6	0.008497914
33	0x3e69cc16	0.22831759
34	0xc02da109	-2.7129538
35	0x3c969d3f	0.018385528
36	0x3e5fd92a	0.21860185
37	0xc0295612	-2.6458783
38	0x3cebaa1f	0.028767643
39	0x3e5758e0	0.21029997
40	0xc02585cd	-2.5862916
41	0x3d19501a	0.037429906
42	0x3e46ce8d	0.1941473
43	0xc021202f	-2.5175893
44	0x3d105efb	0.03524683
45	0x3e2e006a	0.16992345
46	0xc01d6ad7	-2.459646
47	0x3c819f6c	0.015823089
48	0x3e057339	0.13032235
49	0xc01b9685	-2.431062
50	0xbc8a6be8	-0.016897157
51	0x3db23c0a	0.08702858
52	0xc01b44b1	-2.4260676
53	0xbd48a1ae	-0.048982315
54	0x3d47ef8d	0.048812438
55	0xc01bc969	-2.434168
56	0xbd943882	-0.072373405
57	0x3d13ffb8	0.036132544
58	0xc01dba8a	-2.4645104
59	0xbdb85949	-0.09001405
60	0x3d04dd07	0.03243735
61	0xc020bb0e	-2.511417
62	0xbdc4b908	-0.096056044
63	0x3ce6268c	0.028094552
64	0xc0242b57	-2.5651453
65	0xbdbe989e	-0.09306453
66	0x3c8d61a5	0.017258475
67	0xc028c1f1	-2.6368372
68	0xbda21ab2	-0.07915248
69	0x3c36d3f7	0.011158935
70	0xc02ea84e	-2.7290225
71	0xbd73463c	-0.059393153
72	0x3bb64ea5	0.0055635744
73	0xc0336bf8	-2.803465
74	0xbd055a73	-0.032556962
75	0x3c1c11ab	0.009525697
76	0xc03722cf	-2.8614995
77	0xbc17aec4	-0.009257976
78	0x3bb14983	0.0054103746
79	0xc03a6614	-2.9124804
80	0x3c27f37f	0.010250925
81	0x3c59a4d7	0.01328393
82	0xc03dd803	-2.9663093
83	0x3cc289f6	0.023747426
84	0x3c49ff92	0.012328999
85	0xc03f7bc5	-2.9919293
86	0x3d018e6a	0.031629957
87	0x3be95363	0.007120536
88	0xc04056da	-3.005301
89	0x3d01b659	0.03166804
90	0x3b1a7962	0.0023570885
91	0xc0411504	-3.0169077
92	0x3c7a6fca	0.015285442
93	0xbae2359e	-0.0017258411
94	0xc043c540	-3.0589142
95	0xbc642b02	-0.0139262695
96	0xbbbe35f8	-0.0058047734
97	0xc044f7f8	-3.0776348
98	0xbd1b4cf4	-0.037915185
99	0xbc0a70eb	-0.008449773
100	0xc0445290	-3.0675392
101	0xbd695651	-0.056967083
102	0xbc41a3e9	-0.011818864
103	0xc040e79e	-3.0141368
104	0xbd8da769	-0.069166966
105	0xbc2f669d	-0.010705617
106	0xc03e81ba	-2.976668
107	0xbda65539	-0.08121724
108	0x3b1cb3b7	0.002391083
109	0xc03c9860	-2.9468002
110	0xbdb7f177	-0.08981603
111	0x3c8f3bbd	0.01748454
112	0xc0398c33	-2.899182
113	0xbdc6e6d8	-0.09711999
114	0x3d072098	0.03299007
115	0xc03701cb	-2.8594844
116	0xbdcd9471	-0.100380786
117	0x3d3e33d5	0.04643615
118	0xc034746a	-2.8196054
119	0xbdc6d922	-0.097093835
120	0x3d92dfd3	0.07171597
121	0xc03192d8	-2.7745876
122	0xbdb5c7fa	-0.08876033
123	0x3db568e1	0.08857895
124	0xc02f9126	-2.7432342
125	0xbda529b7	-0.08064597
126	0x3dd101d3	0.10205426
127	0xc02c9dde	-2.6971354
128	0xbd8e3e20	-0.06945443
129	0x3dd00cc6	0.10158686
130	0xc02a23e9	-2.6584418
131	0xbd6b4127	-0.05743518
132	0x3dcb6d57	0.09932964
133	0xc027d557	-2.6223962
134	0xbd3894d9	-0.045063827
135	0x3d989fe6	0.07452373
136	0xc025d158	-2.5909023
137	0xbd5d5235	-0.054033477
138	0x3d42facd	0.047602464
139	0xc022d367	-2.544153
140	0xbda264d0	-0.07929385
141	0x3c6cf1ee	0.014461977
142	0xc022bb77	-2.542692
143	0xbdd1a3b4	-0.10236302
144	0xbba133be	-0.004919498
145	0xc023c290	-2.5587502
146	0xbdf1108c	-0.11770734
147	0xbc46ab45	-0.012125795
148	0xc024ef88	-2.5771198
149	0xbe040beb	-0.12895171
150	0xbc1952d4	-0.009358127
151	0xc027a479	-2.6194136
152	0xbe05cf04	-0.13067251
153	0xbc9a8dfd	-0.018866533
154	0xc02c0a19	-2.6881163
155	0xbe02e7b0	-0.12783694
156	0xbd156125	-0.036469597
157	0xc02faa67	-2.7447755
158	0xbdf5e4df	-0.12006544
159	0xbd575a0e	-0.052576117
160	0xc032dbf6	-2.7946754
161	0xbddc1350	-0.10745871
162	0xbda024bf	-0.07819509
163	0xc0376164	-2.8653193
164	0xbdbe6518	-0.09296626
165	0xbdbb064f	-0.09132063
166	0xc03b370e	-2.9252353
167	0xbd9ac6fe	-0.07557486
168	0xbdbf1938	-0.09330982
169	0xc03ebfd1	-2.9804575
170	0xbd714890	-0.05890709
171	0xbdb9e2d0	-0.09076464
172	0xc041efb0	-3.0302544
173	0xbd3fae54	-0.04679711
174	0xbdbfb227	-0.09360152
175	0xc0437ec6	-3.0546126
176	0xbd3871ee	-0.045030527
177	0xbdb6974e	-0.08915578
178	0xc042bdf1	-3.042843
179	0xbd7dc449	-0.06195477
180	0xbdacd025	-0.08438138
181	0xc0446bce	-3.0690799
182	0xbdf09d3d	-0.11748741
183	0xbdb2f9ee	-0.087390766
184	0xc0426eab	-3.0380046
185	0xbe3121e3	-0.17298083
186	0xbd9d9b25	-0.07695607
187	0xc0401930	-3.0015373
188	0xbe643655	-0.22286351
189	0xbd50f5df	-0.05101573
190	0xc03e6758	-2.9750576
191	0xbe86d600	-0.26335144
192	0xbcb379a5	-0.02190859
193	0xc03ac6aa	-2.9183755
194	0xbe8f20f3	-0.27954826
195	0x3c1361a8	0.008995451
196	0xc0371e86	-2.861238
197	0xbe8b9252	-0.2726007
198	0x3d941093	0.07229724
199	0xc0355c9a	-2.833777
200	0xbe76ec88	-0.24113667
201	0x3d9fb6cd	0.07798538
202	0xc0300c4a	-2.75075
203	0xbe614052	-0.21997193
204	0x3dcbc508	0.0994969
205	0xc0318463	-2.7737052
206	0xbe363c3a	-0.17796412
207	0x3dce5dfb	0.10076519
208	0xc0305fff	-2.7558591
209	0xbe20cfe7	-0.15704308
210	0x3dc1085b	0.09425422
211	0xc02e6458	-2.7248745
212	0xbe11018a	-0.14160743
213	0x3db09fb7	0.08624213
214	0xc02c781f	-2.6948316
215	0xbe185a84	-0.14878279
216	0x3da4bc80	0.08043766
217	0xc029930d	-2.6496003
218	0xbe31d877	-0.17367731
219	0x3d9d215d	0.07672379
220	0xc0267e8a	-2.6014733
221	0xbe4c19e2	-0.19931749
222	0x3d869373	0.065710925
223	0xc023924b	-2.555804
224	0xbe5d1e7a	-0.21593657
225	0x3d659a5c	0.05605541
226	0xc020c384	-2.5119333
227	0xbe551d20	-0.20811892
228	0x3d26d650	0.040731728
229	0xc01ed766	-2.4818969
230	0xbe4a863a	-0.19777766
231	0x3ccf928b	0.025338432
232	0xc01c44b5	-2.4416935
233	0xbe41759e	-0.18892524
234	0x3c84e422	0.016222063
235	0xc01abee4	-2.417901
236	0xbe41973f	-0.18905352
237	0x3c4cc77d	0.012498734
238	0xc01c497c	-2.4419851
239	0xbe390d29	-0.18071426
240	0x3c2c526f	0.010517701
241	0xc01eef6b	-2.483363
242	0xbe2dfdda	-0.16991368
243	0xbaed64ba	-0.0018111684
244	0xc02129d2	-2.5181775
245	0xbe24d690	-0.16097474
246	0xbd25e234	-0.040498927
247	0xc022e7d2	-2.5453992
248	0xbe1ba514	-0.15199691
249	0xbd77dac3	-0.06051136
250	0xc0256d34	-2.5847902
251	0xbe1193d5	-0.1421655

body_pose f4 [84, 63]
0	0xbee7f4bf	-0.45303914
1	0xbd774df6	-0.060377084
2	0x3e5052dd	0.2034411
3	0x3d8e3bc7	0.069449954
4	0x3e25d5ea	0.16194883
5	0xbda07c12	-0.078361645
6	0x3e136d61	0.14397193
7	0xbbada014	-0.005298624
8	0x3d355b6c	0.04427664
9	0x3f2c86c2	0.67393124
10	0xbe2c8a6d	-0.1684968
11	0xbe62ea08	-0.22159588
12	0x3f15b319	0.58476406
13	0x3e32c751	0.17458846
14	0xbc465092	-0.01210417
15	0xbc8a9b78	-0.016919836
16	0x3d45a7fc	0.048255906
17	0xbdfe7525	-0.12424687
18	0xbcf6ae1f	-0.030112324
19	0xbc966af9	-0.018361555
20	0xbc97dc61	-0.018537702
21	0xbdf54b2f	-0.11977231
22	0x3e956caf	0.29184482
23	0x3dde6aa0	0.10860181
24	0x3e481a05	0.19541176
25	0x3d144771	0.036200944
26	0xbd22b035	-0.039718825
27	0xb784ef1a	-1.5846967e-05
28	0x37787e31	1.4811333e-05
29	0x378d2fc4	1.6830752e-05
30	0xb77c5c76	-1.5041898e-05
31	0x378a5b76	1.6493472e-05
32	0xb770fb52	-1.436363e-05
33	0xbdc31a54	-0.09526506
34	0x3e3850a8	0.17999518
35	0xbc45c660	-0.012071222
36	0xbd29d9fb	-0.041467648
37	0x3d3ee7ea	0.04660789
38	0xbe9a1305	-0.30092636
39	0xbd7ec540	-0.06219983
40	0xbdfb060f	-0.12257015
41	0x3e894ac5	0.26814857
42	0xbe367c7b	-0.17820923
43	0x3e61456e	0.21999142
44	0xbdca6e71	-0.09884346
45	0x3e5e51fd	0.21710964
46	0xbefda77f	-0.49541852
47	0xbf675ac0	-0.9037285
48	0x3c9b46ad	0.0189546
49	0x3d6a421b	0.05719195
50	0x3f62aaea	0.88542044
51	0x3a83a972	0.0010045005
52	0xbfcb97b1	-1.5905668
53	0xbdbc1268	-0.09183198
54	0xbe262f06	-0.16228876
55	0x3fd8edd3	1.6947578
56	0x3ed651d7	0.41859314
57	0xbd2cf78a	-0.04222826
58	0x3d1ed3d7	0.038776245
59	0x3dd1208b	0.10211285
60	0x3ddb0127	0.10693579
61	0x3da383dc	0.079841346
62	0xbecc4d33	-0.39902648
63	0xbedd085f	-0.4317045
64	0xbd303884	-0.043022648
65	0x3e5216ab	0.2051646
66	0x3dc75a6b	0.09734043
67	0x3e26c565	0.16286238
68	0xbd93e800	-0.07221985
69	0x3e00146d	0.12507792
70	0xbd7a934f	-0.06117564
71	0x3ca1c0d1	0.019745262
72	0x3f2fb774	0.686393
73	0xbe2da398	-0.16956937
74	0xbe80853c	-0.2510165
75	0x3f1c3eac	0.6103313
76	0x3e28907a	0.16461363
77	0xbd2a6f5c	-0.041610107
78	0xbd6b0253	-0.057375263
79	0x3d57811a	0.052613355
80	0xbe255fd3	-0.16149835
81	0xbd2fb91b	-0.04290114
82	0xbcf1dbf9	-0.029523836
83	0xbd4bfb8a	-0.049800433
84	0xbd11300d	-0.035446215
85	0x3e75eb56	0.24015555
86	0x3dc167f5	0.09443656
87	0x3e5e9dd3	0.21739893
88	0x3dca39a4	0.09874275
89	0x3c8a3dbf	0.016875146
90	0x3777e34a	1.4775267e-05
91	0xb785123f	-1.5863332e-05
92	0x378b446d	1.6601954e-05
93	0xb778f474	-1.4838868e-05
94	0xb770430f	-1.4320728e-05
95	0xb76dab66	-1.4166208e-05
96	0xbd9b46cf	-0.07581865
97	0x3e549d19	0.20763053
98	0x3cd83b5a	0.026395489
99	0xbd4404ab	-0.047856014
100	0x3d69595e	0.056969993
101	0xbe913769	-0.28362587
102	0xbd8fdb29	-0.07024223
103	0xbe150b3b	-0.14555065
104	0x3e92b84e	0.28656238
105	0xbe1d6956	-0.15372214
106	0x3e7a2242	0.24427131
107	0xbd8bf09f	-0.06833004
108	0x3e7ac7d0	0.24490285
109	0xbf025395	-0.50908786
110	0xbf713b65	-0.94231254
111	0x3a4b4549	0.000775416
112	0x3c8dce35	0.017310241
113	0x3f544ee5	0.82932884
114	0x3c698b03	0.014254334
115	0xbfcad5dd	-1.5846516
116	0xbdb3e48e	-0.08783828
117	0xbe345353	-0.1760991
118	0x3fd6300c	1.6733413
119	0x3eff792b	0.4989713
120	0x3d89b4a4	0.067239076
121	0x3c4f32cb	0.012646387
122	0x3dc8d66b	0.09806522
123	0x3d93bc7c	0.07213685
124	0x3d6667fa	0.056251504
125	0xbebc2fe0	-0.36755276
126	0xbed416f4	-0.41423762
127	0xbd93bf73	-0.072142504
128	0x3e4c2be7	0.19938622
129	0x3dadef51	0.084929116
130	0x3e108550	0.14113355
131	0xbd8579cb	-0.06517371
132	0x3dd9fa7b	0.106434785
133	0xbdaf0765	-0.08546332
134	0x3b96f25a	0.0046065273
135	0x3f2ecce8	0.6828141
136	0xbe44abb2	-0.19206122
137	0xbe8b6e42	-0.27232558
138	0x3f27ccd9	0.6554695
139	0x3e3682c9	0.17823328
140	0xbca0c2dc	-0.019624166
141	0xbda9aadc	-0.08284542
142	0x3d9f97c2	0.077926174
143	0xbe2e273b	-0.17007153
144	0xbd9e3e68	-0.07726747
145	0xbce64d06	-0.0281129
146	0xbd069663	-0.032858264
147	0xbbeccbeb	-0.0072264574
148	0x3e77c00e	0.24194357
149	0x3d8fe482	0.07026006
150	0x3e6f0d44	0.23344904
151	0x3e0a1dca	0.13487926
152	0x3d799ed4	0.060942486
153	0x377696f5	1.469789e-05
154	0x377924b6	1.4850104e-05
155	0x378a8ff7	1.651792e-05
156	0x3784cfff	1.5832482e-05
157	0xb7713de8	-1.4379133e-05
158	0xb76d40a7	-1.4141354e-05
159	0xbd9354dd	-0.07193921
160	0x3e53680d	0.20645161
161	0x3d4ce526	0.05002322
162	0xbcbce808	-0.02305986
163	0x3d0c79ad	0.034295727
164	0xbe857f17	-0.26073524
165	0xbd9ca1d0	-0.07648051
166	0xbe37c753	-0.1794713
167	0x3e9523a1	0.29128745
168	0xbe0b5153	-0.13605241
169	0x3e837e37	0.25682232
170	0xbd065e45	-0.032804746
171	0x3e6ba104	0.23010641
172	0xbf095ec3	-0.5366022
173	0xbf73effa	-0.9528805
174	0xbc494348	-0.0122841075
175	0xbd23ea13	-0.040018152
176	0x3f55a852	0.8345996
177	0x3d227543	0.03966261
178	0xbfcbe77b	-1.5930017
179	0xbe059add	-0.13047357
180	0xbe4a097a	-0.19730178
181	0x3fd675b5	1.6754671
182	0x3f061b05	0.5238498
183	0x3db20096	0.08691518
184	0x3c6f4a16	0.014605066
185	0x3e08d106	0.13360986
186	0x3d3303ca	0.043704785
187	0x3d4dd1c0	0.05024886
188	0xbea605f5	-0.3242642
189	0xbecbdde0	-0.39817715
190	0xbdb914e3	-0.09037187
191	0x3e46df7d	0.19421192
192	0x3d2a66b6	0.04160186
193	0x3e1230e3	0.14276461
194	0xbd7481b6	-0.059694014
195	0x3dc4d64c	0.096111864
196	0xbdbc1ed4	-0.091855675
197	0xbbb14389	-0.005409662
198	0x3f31f2f5	0.6951135
199	0xbe38dde6	-0.18053398
200	0xbe8b6174	-0.27222788
201	0x3f3ead68	0.74483347
202	0x3e1cda22	0.15317586
203	0x3c5f3753	0.01362403
204	0xbdc0c9fe	-0.09413527
205	0x3dbdbf86	0.09265046
206	0xbe2c4a6b	-0.16825263
207	0xbd826fab	-0.06368955
208	0xbd3d8c08	-0.046276122
209	0xbd6d65f5	-0.057958562
210	0x3dc92069	0.09820635
211	0x3e52304a	0.20526233
212	0x3d349020	0.04408276
213	0x3e7fd029	0.2498175
214	0x3e030f47	0.12798797
215	0x3db75327	0.08951407
216	0xb7842fe2	-1.5757923e-05
217	0x37782b38	1.4792015e-05
218	0xb76ce3d6	-1.4119743e-05
219	0x37844bcd	1.5770924e-05
220	0x3785a9c3	1.5933887e-05
221	0xb7715cb5	-1.4386304e-05
222	0xbd9b1de0	-0.075740576
223	0x3e62a751	0.22134139
224	0x3d90076b	0.07032665
225	0xbc2e7513	-0.01064803
226	0x3d4d2a0b	0.050088923
227	0xbe5fb53e	-0.21846482
228	0xbdc5f625	-0.09666089
229	0xbe5e1a6e	-0.2168977
230	0x3e99220b	0.29908785
231	0xbe21b303	-0.15790944
232	0x3e9132f6	0.28359193
233	0xbc4539ef	-0.012037738
234	0x3e6b0e07	0.2295457
235	0xbf12337d	-0.57109815
236	0xbf7be2ea	-0.9839312
237	0xbc360a8a	-0.011110911
238	0xbcf3d1f6	-0.029763203
239	0x3f4eeb1c	0.808275
240	0x3d12cb34	0.03583832
241	0xbfcdc3bd	-1.607536
242	0xbe13f004	-0.14447027
243	0xbe3ec44c	-0.18629569
244	0x3fd6b32f	1.6773432
245	0x3f0cec42	0.55048
246	0x3da379eb	0.079822384
247	0x3cd865f5	0.026415804
248	0x3e132850	0.14370847
249	0x3d7d042a	0.06177155
250	0x3dacc1dd	0.08435414
251	0xbe9ad328	-0.30239224
252	0xbebcb0eb	-0.36853728
253	0xbdd3f7e3	-0.10350015
254	0x3e2d2e17	0.16912113
255	0xbd034434	-0.032047465

transl f4 [84, 3]
0	0x3ea27023	0.3172618
1	0x3fae8074	1.3632951
2	0x3f57f6c8	0.84360933
3	0x3e9a3fa5	0.30126682
4	0x3fae7782	1.3630221
5	0x3f5141f3	0.81741256
6	0x3e928a1b	0.2862099
7	0x3faeb67a	1.3649437
8	0x3f4b24d0	0.79353046
9	0x3e8b694d	0.27228776
10	0x3faee2eb	1.3663
11	0x3f459b79	0.7719036
12	0x3e83f70a	0.25774413
13	0x3faf4adb	1.3694719
14	0x3f409897	0.75232834
15	0x3e7a5f4e	0.24450418
16	0x3fafe664	1.3742185
17	0x3f3bd854	0.73376966
18	0x3e6d8ad2	0.23197487
19	0x3fb0595e	1.3777273
20	0x3f36fd01	0.71479803
21	0x3e613c67	0.21995698
22	0x3fb0ad62	1.3802912
23	0x3f321008	0.6955571
24	0x3e55cc6a	0.20878759
25	0x3fb0dd2a	1.3817494
26	0x3f2d21e5	0.67629844
27	0x3e4ad70a	0.19808593
28	0x3fb0f683	1.382523
29	0x3f282c73	0.65692824
30	0x3e3f98c4	0.18710619
31	0x3fb0e127	1.3818711
32	0x3f2301ee	0.6367482
33	0x3e35addc	0.17742103
34	0x3fb0a42e	1.3800104
35	0x3f1d8e8e	0.61545646
36	0x3e2a3cfc	0.16624826
37	0x3fb04d17	1.3773526
38	0x3f17a4b7	0.5923571
39	0x3e1e2ce1	0.15446807
40	0x3fb0016f	1.3750437
41	0x3f111982	0.56679547
42	0x3e0ffef5	0.14062102
43	0x3faf9570	1.371748
44	0x3f09a256	0.5376333
45	0x3dfdbfc4	0.12390092
46	0x3faec30d	1.3653275
47	0x3f0130ba	0.50464976
48	0x3dd7747d	0.10520265
49	0x3fadcdf1	1.3578473
50	0x3eefa172	0.4680286
51	0x3db03700	0.086042404
52	0x3facf3a9	1.3511859
53	0x3edcc869	0.4312165
54	0x3d85f41c	0.06540701
55	0x3fac5959	1.3464767
56	0x3ecaad8a	0.39585525
57	0x3d3f6cf9	0.046734784
58	0x3fac15b4	1.3444123
59	0x3eb9f32b	0.36318335
60	0x3d01740b	0.031604808
61	0x3facabb3	1.3489898
62	0x3eab5a90	0.3346753
63	0x3c9b115e	0.01892918
64	0x3fad80a2	1.3554881
65	0x3e9e0ca2	0.30869013
66	0x3bf64118	0.007515084
67	0x3fae7375	1.3628985
68	0x3e920123	0.28516492
69	0xbb781d5f	-0.0037859303
70	0x3faf3ee1	1.3691064
71	0x3e8683d4	0.26272452
72	0xbc80b73a	-0.01571237
73	0x3fb007cd	1.3752381
74	0x3e76aeaa	0.24090067
75	0xbce7e58e	-0.028307702
76	0x3fb0736d	1.3785225
77	0x3e608318	0.21925008
78	0xbd26c1af	-0.040712055
79	0x3fb0a10e	1.379915
80	0x3e492634	0.1964348
81	0xbd5dea01	-0.05417824
82	0x3fb06c7a	1.3783104
83	0x3e304593	0.1721404
84	0xbd8cf874	-0.06883326
85	0x3fb0354f	1.3766268
86	0x3e170963	0.14749674
87	0xbdaec14a	-0.08532961
88	0x3fafd209	1.3735973
89	0x3df65764	0.12028387
90	0xbdd5fafb	-0.10448261
91	0x3faf4a59	1.3694564
92	0x3db69761	0.08915592
93	0xbdfea61b	-0.12434026
94	0x3faea425	1.3643843
95	0x3d616861	0.055031184
96	0xbe132dab	-0.1437289
97	0x3fade1f5	1.3584582
98	0x3cafb796	0.021449845
99	0xbe2567ab	-0.16152827
100	0x3fad9c47	1.3563317
101	0xbc2a878f	-0.010408296
102	0xbe3733c9	-0.17890848
103	0x3fad7d19	1.3553802
104	0xbd213b85	-0.039363403
105	0xbe480ee5	-0.19536932
106	0x3fadb96b	1.357221
107	0xbd898cdb	-0.06716319
108	0xbe555fae	-0.2083728
109	0x3fae2606	1.3605354
110	0xbdc0be8b	-0.09411343
111	0xbe5f61a8	-0.21814597
112	0x3fae8af9	1.3636161
113	0xbdf41799	-0.119185634
114	0xbe69193e	-0.22763535
115	0x3faf096b	1.3674749
116	0xbe137fce	-0.14404222
117	0xbe71e388	-0.23621953
118	0x3faf743d	1.3707348
119	0xbe2c47eb	-0.1682431
120	0xbe7ae786	-0.24502382
121	0x3fafb625	1.3727461
122	0xbe46679f	-0.19375466
123	0xbe81e1ee	-0.25367683
124	0x3fafca0d	1.3733536
125	0xbe616c10	-0.22013879
126	0xbe8651eb	-0.26234373
127	0x3fafaa92	1.3723929
128	0xbe7dbf2c	-0.24779958
129	0xbe8afe9b	-0.27147374
130	0x3faf29e7	1.3684663
131	0xbe8e5ddc	-0.27805984
132	0xbe8f9238	-0.28041244
133	0x3faea657	1.3644513
134	0xbe9ee87d	-0.3103675
135	0xbe943f82	-0.28954703
136	0x3fadaeaf	1.3568934
137	0xbeb21c8c	-0.34787405
138	0xbe99a9a3	-0.30012235
139	0x3facdfc4	1.3505788
140	0xbec6dd21	-0.38840583
141	0xbea004f5	-0.31253782
142	0x3fac3b74	1.3455644
143	0xbedc3028	-0.4300549
144	0xbea6c05f	-0.32568642
145	0x3fac41b6	1.3457553
146	0xbeef932f	-0.4679198
147	0xbeaca7b0	-0.33721685
148	0x3fac7941	1.3474504
149	0xbf00d186	-0.5031971
150	0xbeb1ce03	-0.34727487
151	0x3fad20a0	1.3525581
152	0xbf08fddf	-0.53512377
153	0xbeb6aed6	-0.35680264
154	0x3fade8b6	1.3586643
155	0xbf107368	-0.56426096
156	0xbebb2114	-0.36548674
157	0x3faeccfe	1.3656309
158	0xbf173b17	-0.5907454
159	0xbebfba5e	-0.37446874
160	0x3faf8cfb	1.3714899
161	0xbf1d8db0	-0.6154432
162	0xbec4ba41	-0.3842335
163	0x3faff5bb	1.3746866
164	0xbf23f8ae	-0.6405133
165	0xbeca5d89	-0.39524487
166	0x3fb0520f	1.3775042
167	0xbf2a8db3	-0.66622466
168	0xbed06c36	-0.40707558
169	0x3fb06119	1.3779632
170	0xbf3171b3	-0.69314116
171	0xbed78f15	-0.4210135
172	0x3fb03f94	1.3769403
173	0xbf38d768	-0.72203684
174	0xbedf2d0a	-0.4358905
175	0x3fafe24a	1.3740933
176	0xbf40e58f	-0.7535028
177	0xbee762fd	-0.4519271
178	0x3faf7905	1.3708807
179	0xbf4a162c	-0.7894008
180	0xbeef407d	-0.46728888
181	0x3fae2568	1.3605165
182	0xbf543f73	-0.82909316
183	0xbef5d552	-0.48014313
184	0x3fadec3f	1.3587722
185	0xbf5e264b	-0.8677718
186	0xbefcddcb	-0.49387965
187	0x3fad2753	1.3527626
188	0xbf6756e8	-0.90366983
189	0xbf015e65	-0.5053466
190	0x3fad3804	1.353272
191	0xbf6f3462	-0.93439305
192	0xbf03d6b8	-0.5149951
193	0x3fad7516	1.3551357
194	0xbf75cee3	-0.9601881
195	0xbf06015b	-0.5234582
196	0x3fae9974	1.364058
197	0xbf7b3ecb	-0.9814269
198	0xbf07cf74	-0.53050923
199	0x3fb1d1f0	1.3892193
200	0xbf7ee020	-0.9956074
201	0xbf093077	-0.53589576
202	0x3fb17b13	1.3865684
203	0xbf81d3e0	-1.0142784
204	0xbf0a626d	-0.54056436
205	0x3fb4426d	1.4082772
206	0xbf837551	-1.0270177
207	0xbf0b1835	-0.5433381
208	0x3fb4c1ac	1.4121604
209	0xbf85822f	-1.0430354
210	0xbf0bc7f0	-0.54601955
211	0x3fb4e973	1.4133743
212	0xbf87ac9d	-1.0599552
213	0xbf0c6644	-0.54843545
214	0x3fb4cc87	1.4124917
215	0xbf89ed95	-1.0775629
216	0xbf0ca9a9	-0.5494638
217	0x3fb48a43	1.4104694
218	0xbf8c8df5	-1.0980822
219	0xbf0cd219	-0.55008084
220	0x3fb46f41	1.4096452
221	0xbf8f7866	-1.1208618
222	0xbf0cdbd8	-0.55022955
223	0x3fb3b787	1.4040383
224	0xbf92b222	-1.1460612
225	0xbf0cf317	-0.55058426
226	0x3fb1ca99	1.3889953
227	0xbf95f3dc	-1.1715045
228	0xbf0cfc6b	-0.5507266
229	0x3fb107da	1.3830521
230	0xbf995fbd	-1.1982342
231	0xbf0d02c3	-0.5508234
232	0x3fb0aaa3	1.3802074
233	0xbf9c4dec	-1.221128
234	0xbf0be0e8	-0.54640055
235	0x3fb217ca	1.391351
236	0xbf9f8d0f	-1.2464923
237	0xbf0b4e86	-0.5441669
238	0x3fb27ca7	1.3944291
239	0xbfa2517c	-1.2681117
240	0xbf0a437f	-0.5400924
241	0x3fb2f6e3	1.3981594
242	0xbfa4b9a4	-1.2869153
243	0xbf089c56	-0.5336355
244	0x3fb36080	1.4013824
245	0xbfa68b9b	-1.3011354
246	0xbf07cb6e	-0.53044784
247	0x3fb37624	1.4020429
248	0xbfa8001b	-1.3125032
249	0xbf0672a5	-0.52518684
250	0x3fb3a86b	1.4035772
251	0xbfa95d2d	-1.323156

left_hand_pose f4 [84, 12]
0	0x3dc4deaf	0.09612786
1	0x3e05a030	0.13049388
2	0x3ede3d13	0.4340597
3	0x3efad377	0.4898946
4	0xbe51872e	-0.20461723
5	0xbf23f796	-0.6404966
6	0x3efd1cc0	0.49435997
7	0x3e053de7	0.13011895
8	0xbeccd193	-0.40003642
9	0xbf08b81f	-0.53405946
10	0x3f2feb0b	0.6871802
11	0xbf78073d	-0.96886045
12	0x3de0c06a	0.109742
13	0x3e045832	0.12924269
14	0x3f0717a9	0.5277048
15	0x3f1f6038	0.62256193
16	0xbe2a1cb7	-0.16612516
17	0xbf0a3294	-0.53983426
18	0x3f00a17a	0.50246394
19	0xbda59b55	-0.08086268
20	0xbee5f27e	-0.4491157
21	0xbf23327a	-0.63748896
22	0x3f6de13c	0.92921805
23	0xbf9d261e	-1.2277257
24	0x3dd9495e	0.10609697
25	0x3e3cc349	0.1843387
26	0x3ed5b5ee	0.41740364
27	0x3f2bb1cb	0.67068166
28	0xbe71f59a	-0.23628846
29	0xbee27f60	-0.44237804
30	0x3ee42dac	0.44566095
31	0xbdd755ec	-0.10514435
32	0xbf138d79	-0.57637745
33	0xbf140add	-0.57829076
34	0x3f820763	1.0158504
35	0xbf9a4f76	-1.20555
36	0x3dde63fc	0.10858914
37	0x3e68928d	0.22712155
38	0x3ebf128e	0.37318844
39	0x3f2b1f38	0.6684451
40	0xbe358d57	-0.17729698
41	0xbef48419	-0.47757033
42	0x3ee3df73	0.44506416
43	0xbd76aef1	-0.06022543
44	0xbf06c732	-0.526477
45	0xbf1ea902	-0.61976635
46	0x3f87325c	1.0562243
47	0xbf999c73	-1.200087
48	0x3e1cadc6	0.15300664
49	0x3e001dc1	0.1251135
50	0x3ec226e1	0.37920287
51	0x3f3f958d	0.7483757
52	0xbe90f076	-0.28308457
53	0xbef85db8	-0.48509002
54	0x3ed14c85	0.40878692
55	0xbde5a8f0	-0.11213863
56	0xbf36d4bc	-0.71418357
57	0xbf11d2dc	-0.5696237
58	0x3f9c5000	1.2211914
59	0xbf89f759	-1.077861
60	0x3e0fd9cb	0.14047925
61	0x3e434d0a	0.19072357
62	0x3ec915df	0.392745
63	0x3f34fc4a	0.7069746
64	0xbe566cfc	-0.20940012
65	0xbec6c626	-0.3882305
66	0x3eddd4a1	0.43326285
67	0xbe383e56	-0.1799253
68	0xbf0f1e3d	-0.55905515
69	0xbf3f05d3	-0.7461826
70	0x3f77aa74	0.96744466
71	0xbf98eba9	-1.1946918
72	0x3e469333	0.1939209
73	0x3e0efede	0.13964412
74	0x3eb975d4	0.36222708
75	0x3f35b82a	0.7098414
76	0xbe88bfc2	-0.267088
77	0xbf09780c	-0.536988
78	0x3ef0966e	0.4698977
79	0xbd7ef24d	-0.062242795
80	0xbf0e3b67	-0.5555939
81	0xbf0d14f2	-0.55110085
82	0x3fa1b071	1.2631971
83	0xbf92f003	-1.1479496
84	0x3e3b6b98	0.18302763
85	0x3e338b77	0.1753367
86	0x3ead3ca8	0.3383534
87	0x3f2a8995	0.66616184
88	0xbe616760	-0.2201209
89	0xbf0778f9	-0.52918965
90	0x3ef9499c	0.48688972
91	0xbe0eafbd	-0.13934226
92	0xbf15d48f	-0.58527464
93	0xbf3fb458	-0.7488456
94	0x3f9b8fc8	1.2153254
95	0xbfa55958	-1.291789
96	0x3e27a78a	0.16372505
97	0x3e64d347	0.22346221
98	0x3e83aa82	0.25716025
99	0x3f26e7d0	0.6519747
100	0xbe617279	-0.22016324
101	0xbec5fa6c	-0.3866762
102	0x3f10ef2a	0.56614935
103	0xbe291a19	-0.16513862
104	0xbf455bf0	-0.7709341
105	0xbf3208c7	-0.69544643
106	0x3f93254f	1.1495761
107	0xbfaa9fe7	-1.3330048
108	0x3e358038	0.17724693
109	0x3e28820a	0.16455856
110	0x3e702b10	0.23453927
111	0x3f35e070	0.7104559
112	0xbe7f1f1e	-0.24914214
113	0xbeb4b441	-0.35293773
114	0x3ef9ef72	0.48815495
115	0xbe5cd30b	-0.21564882
116	0xbf5da8a1	-0.8658543
117	0xbf3f4af0	-0.7472372
118	0x3f8dab0c	1.1067824
119	0xbfaaee1b	-1.3353914
120	0x3e1b0cfa	0.15141669
121	0x3e32b70b	0.17452638
122	0x3e8d7b42	0.276331
123	0x3f1a1aef	0.6019735
124	0xbdeb4892	-0.11488451
125	0xbe9280a3	-0.28613767
126	0x3f01cde7	0.5070481
127	0xbeab377a	-0.33440763
128	0xbf1833dc	-0.5945413
129	0xbf51bec9	-0.8193174
130	0x3f9870a0	1.190937
131	0xbfc03e94	-1.5019097
132	0x3e175324	0.1477781
133	0x3e2eaa49	0.17057146
134	0x3ea5ef27	0.3240902
135	0x3f10454f	0.56355757
136	0xbd3bfa41	-0.045892958
137	0xbea5719c	-0.3231324
138	0x3f0e308a	0.55542815
139	0xbebf2474	-0.373325
140	0xbf223b1d	-0.6337145
141	0xbf5c83fe	-0.86138904
142	0x3fb6a48f	1.4268969
143	0xbfbaba33	-1.4588073
144	0x3e1c4759	0.15261592
145	0x3e4c8188	0.19971287
146	0x3e92943b	0.28628716
147	0x3f12e04e	0.5737351
148	0xbd45d9a4	-0.04830326
149	0xbeb55661	-0.35417464
150	0x3f005999	0.50136715
151	0xbe9afc5b	-0.30270657
152	0xbf4772d7	-0.77909607
153	0xbf55db77	-0.83538
154	0x3fad7a4f	1.3552951
155	0xbfaad3f2	-1.334593
156	0x3e07bda6	0.13255939
157	0x3e593168	0.21210253
158	0x3e92a929	0.28644684
159	0x3f0f124b	0.5588729
160	0xbc8b5b12	-0.0170112
161	0xbea96f82	-0.33092886
162	0x3ef8cbac	0.4859289
163	0xbeaf8fe4	-0.34289467
164	0xbf48ec4d	-0.78485566
165	0xbf5a2a1b	-0.852205
166	0x3fa552c1	1.291588
167	0xbfb868b0	-1.4406948
168	0x3deac1e5	0.11462764
169	0x3e92f5f5	0.28703275
170	0x3e89ed12	0.26938683
171	0x3f0c2742	0.547474
172	0xbc1b1c00	-0.009467125
173	0xbe9fa865	-0.31183162
174	0x3edf3960	0.4359846
175	0xbe80fc5a	-0.2519253
176	0xbf455358	-0.770803
177	0xbf4355eb	-0.76302975
178	0x3f96ab64	1.1771054
179	0xbfb2af9b	-1.395984
180	0x3e07fda5	0.13280351
181	0x3e8608d3	0.26178607
182	0x3e9d85ea	0.3076623
183	0x3f02bd89	0.5107046
184	0xbcfb11ce	-0.030648138
185	0xbeb881dd	-0.36036578
186	0x3eccf1c9	0.40028217
187	0xbe83a1f1	-0.2570949
188	0xbf3d8e9f	-0.7404575
189	0xbf2bb70f	-0.670762
190	0x3fb7141f	1.4303015
191	0xbfa2a82d	-1.2707573
192	0x3e0905c6	0.13381109
193	0x3e6dcaf1	0.23221947
194	0x3ea77ce2	0.32712466
195	0x3ed37099	0.41296843
196	0x3d55fac3	0.052241098
197	0xbed834f7	-0.4222791
198	0x3ef15679	0.47136286
199	0xbe31a1f0	-0.1734693
200	0xbf1d9f5a	-0.61571276
201	0xbf2b7e4e	-0.669896
202	0x3fa41a1c	1.2820468
203	0xbfa23a30	-1.2674007
204	0x3e003b2d	0.12522574
205	0x3e87299f	0.26398942
206	0x3e98111d	0.29700556
207	0x3eac220f	0.33619735
208	0xbc8eea3d	-0.017445678
209	0xbedf1267	-0.43568727
210	0x3f1755b4	0.5911515
211	0xbe56437f	-0.20924185
212	0xbf359941	-0.7093697
213	0xbf506223	-0.81399745
214	0x3fa3c21e	1.2793615
215	0xbfbaa3b1	-1.4581205
216	0x3e37d908	0.17953885
217	0x3e7082f2	0.23487452
218	0x3edd6d75	0.43247572
219	0x3ec310f1	0.38098863
220	0xbc295e85	-0.010337477
221	0xbedf4d8e	-0.43613857
222	0x3ee014ad	0.43765774
223	0xbea51e3c	-0.3224963
224	0xbf477a96	-0.77921426
225	0xbf541b01	-0.82853705
226	0x3fb0f7ca	1.3825619
227	0xbfcf149e	-1.6178167
228	0x3e1e570c	0.15462893
229	0x3e381f6c	0.17980736
230	0x3ebf169e	0.37321943
231	0x3eccf456	0.40030164
232	0xbe08a8b5	-0.13345607
233	0xbe911443	-0.2833577
234	0x3f188fed	0.59594613
235	0xbe93a7a9	-0.28838852
236	0xbf3b46e4	-0.73155046
237	0xbf4fc33f	-0.81157297
238	0x3f9c0f66	1.2192199
239	0xbfc34790	-1.5256214
240	0x3e129730	0.14315486
241	0x3e656e56	0.22405371
242	0x3ed54f6c	0.41662157
243	0x3ebc57ad	0.3678564
244	0x3d3634f4	0.044484094
245	0xbecfef41	-0.40612224
246	0x3ef338a6	0.47504157
247	0xbeae7f8f	-0.34081694
248	0xbf21c8bc	-0.6319692
249	0xbf58a438	-0.8462558
250	0x3fa3d47c	1.279922
251	0xbfd0f40d	-1.6324478
252	0x3e10e6e5	0.1415058
253	0x3e562f7d	0.20916553
254	0x3eeabb51	0.45846036
255	0x3ee5c1dc	0.44874465

right_hand_pose f4 [84, 12]
0	0x3ec35045	0.38147178
1	0xbc8e2da9	-0.017355757
2	0x3f2b9ad4	0.67033124
3	0x3f4978e7	0.7870011
4	0xbf01f29e	-0.5076083
5	0xbf7377db	-0.9510476
6	0x3f009840	0.50232315
7	0x3ebe2113	0.3713461
8	0xbf2ee6ec	-0.6832111
9	0xbea1c43c	-0.31595027
10	0x3fa0c35c	1.2559619
11	0xbf00b34f	-0.50273603
12	0x3ede5e70	0.43431425
13	0x3bdb28bf	0.006688207
14	0x3f19892f	0.5997495
15	0x3f423889	0.75867516
16	0xbeb7d346	-0.35903376
17	0xbf3bdf09	-0.733872
18	0x3eda1a20	0.42598057
19	0x3e7939ee	0.24338505
20	0xbf29cad5	-0.6632512
21	0xbefb623c	-0.49098384
22	0x3f8dce45	1.1078573
23	0xbf686a14	-0.9078686
24	0x3eedaff3	0.464233
25	0x3def5bc1	0.116874225
26	0x3f0b0521	0.543047
27	0x3f4d849c	0.8028047
28	0xbee6b781	-0.45061877
29	0xbf407377	-0.75176185
30	0x3f178f5e	0.59203136
31	0x3e3e0de1	0.18559982
32	0xbef0074b	-0.46880564
33	0xbefff960	-0.49994946
34	0x3f9a7ae6	1.2068756
35	0xbf8f3b46	-1.1189964
36	0x3ef5ccce	0.48007816
37	0x3e4ce216	0.2000812
38	0x3ed56cc2	0.41684538
39	0x3f399464	0.7249205
40	0xbec3b020	-0.3822031
41	0xbf4c0fc4	-0.79711556
42	0x3f0f045f	0.55866045
43	0x3e7f4b7a	0.24931136
44	0xbedb5b6c	-0.42843187
45	0xbee28f88	-0.4425013
46	0x3f80d426	1.0064743
47	0xbf8630f0	-1.0483685
48	0x3f126331	0.57182604
49	0x3e10a139	0.14124002
50	0x3ef8e9ca	0.48615867
51	0x3f436c15	0.76336795
52	0xbf00412c	-0.50099444
53	0xbf2131c0	-0.6296654
54	0x3f25629d	0.64603597
55	0x3dd323b0	0.10309541
56	0xbf1a064d	-0.60165864
57	0xbeeb9d39	-0.4601839
58	0x3f9de28f	1.2334765
59	0xbf8b9f4d	-1.090799
60	0x3f0a3f19	0.5400253
61	0x3e281102	0.16412738
62	0x3eaeb538	0.34122634
63	0x3f1a6eb8	0.60325193
64	0xbe86193c	-0.26191127
65	0xbf1ec7d9	-0.62023693
66	0x3f10f75b	0.56627434
67	0x3d4682ec	0.0484647
68	0xbf1a4499	-0.6026092
69	0xbf1e17c1	-0.61754996
70	0x3f8f9919	1.1218597
71	0xbf9dc200	-1.2324829
72	0x3f0be953	0.546529
73	0x3e59c767	0.21267472
74	0x3ea4af53	0.32165012
75	0x3f1ad9e3	0.6048872
76	0xbeb13fda	-0.34619027
77	0xbf07ebf0	-0.5309439
78	0x3f1ef126	0.62086713
79	0x3d79c24d	0.060976315
80	0xbf12294d	-0.5709427
81	0xbf0d2132	-0.5512878
82	0x3f81f20d	1.0151993
83	0xbfa09bab	-1.2547506
84	0x3f0d0f7c	0.5510175
85	0x3da9e369	0.08295328
86	0x3eb4d34c	0.35317457
87	0x3f2295e4	0.63509965
88	0xbece713d	-0.4032077
89	0xbf11a8b0	-0.5689802
90	0x3f36b1c9	0.7136503
91	0x3d8a264e	0.06745587
92	0xbee9bb00	-0.45650482
93	0xbf1a7232	-0.603305
94	0x3f947883	1.1599277
95	0xbf9e3b6d	-1.2361885
96	0x3f0b40c5	0.54395705
97	0x3db9870b	0.090589605
98	0x3ea45c6b	0.3210176
99	0x3f1f055a	0.6211754
100	0xbee921e1	-0.4553366
101	0xbf0d84b3	-0.5528061
102	0x3f3e2569	0.74275833
103	0xbbd96094	-0.0066338275
104	0xbf1e20bc	-0.617687
105	0xbf3094df	-0.6897716
106	0x3f9848e7	1.1897248
107	0xbf9e4e28	-1.2367601
108	0x3f0fe699	0.5621124
109	0x3d83532b	0.064123474
110	0x3eb0520d	0.344376
111	0x3f29ed47	0.6637768
112	0xbedef3ef	-0.43545482
113	0xbeffff46	-0.49999446
114	0x3f22b7ea	0.6356188
115	0xbcb63f1d	-0.022246892
116	0xbf21f1a1	-0.6325932
117	0xbf21d87d	-0.6322096
118	0x3f933598	1.150073
119	0xbfa0852b	-1.254064
120	0x3f0d52ea	0.5520464
121	0x3d89930e	0.067175016
122	0x3e9ff20d	0.31239358
123	0x3f1249e3	0.5714399
124	0xbece0eec	-0.4024576
125	0xbf0acf16	-0.5422224
126	0x3f41ca81	0.7569962
127	0xbc091b5c	-0.008368339
128	0xbec3b915	-0.38227144
129	0xbf279e0d	-0.6547554
130	0x3f864e71	1.0492688
131	0xbfb6df4b	-1.4286894
132	0x3f0f09fa	0.558746
133	0x3df1d35f	0.11807894
134	0x3ea3bbff	0.31979367
135	0x3f29ba99	0.6630035
136	0xbee62a9d	-0.44954386
137	0xbf06d4cd	-0.5266846
138	0x3f331ebb	0.69968766
139	0x3cc539cb	0.02407541
140	0xbec2a4d1	-0.3801637
141	0xbf1e1c34	-0.61761785
142	0x3f6f3d6a	0.93453085
143	0xbfad03b9	-1.3516761
144	0x3f0ffaea	0.5624224
145	0x3e7817b8	0.24227798
146	0x3eb14c49	0.34628513
147	0x3f20ee88	0.6286397
148	0xbed8e0b8	-0.42358947
149	0xbee57653	-0.44816837
150	0x3f325034	0.6965363
151	0xbcfdfdfd	-0.0310049
152	0xbebc097f	-0.36725995
153	0xbf136ecf	-0.57590955
154	0x3f8385f0	1.027525
155	0xbfb8bf63	-1.4433407
156	0x3f0896ef	0.53355306
157	0x3e504180	0.20337486
158	0x3e86a7b8	0.26299834
159	0x3f08f8ba	0.53504527
160	0xbeba0671	-0.3633304
161	0xbed7e087	-0.42163488
162	0x3f268bb9	0.6505695
163	0x3c1a31b0	0.0094112605
164	0xbea86668	-0.3289063
165	0xbf2077ef	-0.62683004
166	0x3f48b5a3	0.78402156
167	0xbfa85991	-1.3152333
168	0x3f0cc54b	0.54988545
169	0x3e1b1fa0	0.15148783
170	0x3e984440	0.2973957
171	0x3f108519	0.5645309
172	0xbeeae672	-0.4587894
173	0xbef68e48	-0.48155427
174	0x3f1eff7a	0.62108576
175	0x3dd6381a	0.10459919
176	0xbedcadec	-0.43101442
177	0xbef938f8	-0.48676276
178	0x3f62e48f	0.8863
179	0xbf9c2387	-1.2198342
180	0x3f0c35d3	0.5476963
181	0x3e48bd24	0.19603401
182	0x3e9e7de1	0.30955413
183	0x3f04b3f0	0.5183706
184	0xbed03972	-0.40668827
185	0xbf151a7b	-0.5824353
186	0x3f293e2c	0.6611049
187	0x3dfd5f19	0.12371654
188	0xbf02d145	-0.5110057
189	0xbf026d34	-0.5094788
190	0x3f81be1d	1.0136143
191	0xbfb7456f	-1.4318064
192	0x3f0ade4c	0.5424545
193	0x3e6d0bef	0.23149084
194	0x3ea7cb00	0.32772064
195	0x3ef479e9	0.4774926
196	0xbeb27574	-0.34855235
197	0xbf300e69	-0.6877199
198	0x3f407282	0.75174725
199	0x3db40d4b	0.08791598
200	0xbf1cfc75	-0.6132272
201	0xbf18b74d	-0.59654695
202	0x3fa1bc5c	1.2635608
203	0xbfbe1c69	-1.485242
204	0x3f0e3dc5	0.55563
205	0x3e849e2f	0.25901935
206	0x3ec45290	0.3834424
207	0x3f0044d3	0.5010502
208	0xbef924a4	-0.48660767
209	0xbf55ddb6	-0.8354143
210	0x3f820210	1.015688
211	0x3e004f48	0.12530243
212	0xbefc0208	-0.492203
213	0xbf14098d	-0.57827073
214	0x3fbfda84	1.4988561
215	0xbfb2cff4	-1.3969712
216	0x3f15be98	0.5849395
217	0x3e4a1583	0.19734769
218	0x3ed34498	0.4126327
219	0x3f14978c	0.5804374
220	0xbf01943c	-0.5061681
221	0xbf2e067a	-0.6797863
222	0x3f6e3b49	0.9305921
223	0x3cf86002	0.030319218
224	0xbf1eb9a9	-0.62002045
225	0xbf14c3cc	-0.5811126
226	0x3fc2c431	1.5216123
227	0xbfade9ae	-1.3586938
228	0x3f1b9059	0.6076713
229	0x3e21c659	0.1579832
230	0x3eeb153b	0.45914635
231	0x3f1bb443	0.6082193
232	0xbef35fcd	-0.47534028
233	0xbf080053	-0.53125495
234	0x3f63513a	0.88795817
235	0xbd5b9e8c	-0.053618
236	0xbf0b842d	-0.5449856
237	0xbf0f0137	-0.5586123
238	0x3fbeed9f	1.4916266
239	0xbfa880c9	-1.3164302
240	0x3f203285	0.62577087
241	0x3e42bcb0	0.19017291
242	0x3ef90882	0.48639303
243	0x3f39ebdb	0.7262551
244	0xbf0149a6	-0.50503004
245	0xbf236247	-0.63821834
246	0x3f46fb44	0.7772715
247	0x3d499a1c	0.049219236
248	0xbedea9cc	-0.4348892
249	0xbef7d156	-0.48401898
250	0x3fb870d5	1.4409434
251	0xbf9f3128	-1.2436876
252	0x3f1e8999	0.6192871
253	0x3e380b7b	0.1797313
254	0x3eca6b41	0.39534953
255	0x3f377651	0.7166491

jaw_pose f4 [84, 3]
0	0xbd057569	-0.032582674
1	0xbaa20c7f	-0.0012363343
2	0x3a0134b3	0.0004928812
3	0xbd12d578	-0.03584811
4	0x3b9c47b1	0.0047692885
5	0x3b3a73ef	0.002845045
6	0xbd10669c	-0.035254106
7	0x3b44b105	0.0030012738
8	0x3b1b5ba6	0.002370575
9	0xbd51da19	-0.051233385
10	0x3b8f2365	0.004368233
11	0x3b12f73f	0.0022425202
12	0xbd49f0e6	-0.049302004
13	0x3b9c9c66	0.0047793863
14	0x3afdd283	0.0019365106
15	0xbd7a4d99	-0.06110916
16	0x3b4a9701	0.003091276
17	0x3ae770b2	0.0017657487
18	0xbd905ec2	-0.070493236
19	0x3baa39fa	0.0051948996
20	0x3ae2b1e4	0.0017295447
21	0xbd98ecfb	-0.074670754
22	0x3bd90371	0.0066227247
23	0x3b411785	0.0029463482
24	0xbdb9a04b	-0.090637766
25	0x3bfc7984	0.0077049155
26	0x3b656926	0.00350053
27	0xbdc6784a	-0.09690912
28	0x3bda4096	0.0066605313
29	0x3aefb670	0.0018288624
30	0xbdeb6c2e	-0.11495243
31	0x3bfa9f3c	0.0076483767
32	0x3b5f33e7	0.0034058036
33	0xbe011b0f	-0.12607978
34	0x3be1d31b	0.006891621
35	0x3aee63b3	0.0018187672
36	0xbe16c538	-0.1472367
37	0x3bad9de8	0.005298365
38	0x3b022f0d	0.001986447
39	0xbe03225f	-0.1280608
40	0x3be9e950	0.0071384087
41	0x3b3ebd0f	0.0029104387
42	0xbe071119	-0.13190116
43	0x3bbdc61b	0.0057914383
44	0x3ad83443	0.0016495067
45	0xbe1ab379	-0.15107526
46	0x3baac94f	0.005211986
47	0x3b01565d	0.0019735314
48	0xbe21982d	-0.15780707
49	0x3bf3ce65	0.0074403756
50	0x3b3fd588	0.0029271562
51	0xbe22a529	-0.15883316
52	0x3bcf08cf	0.0063181887
53	0x3aec2bea	0.0018018459
54	0xbe1ff4a4	-0.15620667
55	0x3beb3ae4	0.007178651
56	0x3b4c49cf	0.0031171923
57	0xbe149eaa	-0.1451365
58	0x3c0f3ed5	0.008743008
59	0x3b6693c2	0.0035183285
60	0xbde5d08e	-0.11221419
61	0x3bf3b6e8	0.0074375756
62	0x3b196c87	0.0023410635
63	0xbdd22deb	-0.102626644
64	0x3c2a6eef	0.010402425
65	0x3b824e92	0.0039766515
66	0xbdd6fbda	-0.104972556
67	0x3c153896	0.009107729
68	0x3b647013	0.003485684
69	0xbde4cf8f	-0.11172401
70	0x3bee2bb2	0.0072683925
71	0x3af0b0c6	0.001836323
72	0xbdd3844e	-0.103279695
73	0x3c092433	0.008370447
74	0x3b6bf81a	0.0036006034
75	0xbdea1b93	-0.114310406
76	0x3bb0a9e5	0.0053913468
77	0x3b11b920	0.0022235587
78	0xbde28fc5	-0.11062578
79	0x3b3abf36	0.0028495318
80	0x3aec0904	0.0018008058
81	0xbdc43378	-0.095801294
82	0x3bbbd336	0.0057319654
83	0x3b0b2901	0.0021234157
84	0xbda4e507	-0.08051496
85	0x3ba19f15	0.004932294
86	0x3b0b771d	0.0021280714
87	0xbda9661c	-0.08271429
88	0x3bc2d6b4	0.0059460048
89	0x3b06d29e	0.0020572315
90	0xbda25bb6	-0.07927649
91	0x3c0186da	0.007905686
92	0x3b6d3485	0.0036194634
93	0xbd7fa9cb	-0.062417787
94	0x3b3a8016	0.0028457693
95	0x3b0967f8	0.0020966511
96	0xbd60da2a	-0.054895557
97	0x3b71794e	0.0036845985
98	0x3b20dbf4	0.0024545165
99	0xbd318e43	-0.043348562
100	0x3a8ba9ef	0.0010655503
101	0x3ad483cc	0.0016213595
102	0xbd058152	-0.032594033
103	0x3b20915c	0.0024500703
104	0x3b0a6beb	0.0021121453
105	0xbcf82866	-0.030292701
106	0x3b356804	0.0027680406
107	0x3ae8d671	0.0017764104
108	0xbc797ed7	-0.015227995
109	0x3b0052f0	0.0019580685
110	0x3b173c90	0.002307687
111	0xbc8bb04b	-0.017051836
112	0x395454dc	0.00020249508
113	0x3ad3dcef	0.0016163866
114	0xbce608bb	-0.028080335
115	0xba6c1df5	-0.00090071495
116	0x3a81768a	0.0009877246
117	0xbcbe36a5	-0.023219416
118	0xbaabcac3	-0.0013106692
119	0x3a776aef	0.00094382366
120	0xbcc81fad	-0.024429167
121	0xba27eb65	-0.0006405621
122	0x3aa9f6fc	0.0012967284
123	0xbcc23af3	-0.02370975
124	0x3ab44bd0	0.0013755504
125	0x3ae3fe07	0.0017394432
126	0xbc3b52f8	-0.0114333555
127	0xbb3d413b	-0.0028877992
128	0x3a20f25e	0.0006139631
129	0xbc89a51d	-0.016802365
130	0xb9cd77ca	-0.00039189897
131	0x3ab9e2c6	0.0014181964
132	0xbc524c00	-0.012835503
133	0xbb1873f5	-0.0023262475
134	0x3a42b523	0.0007427504
135	0xbd0c11bd	-0.034196604
136	0xbb240ae7	-0.0025030912
137	0x3a5e8160	0.00084879063
138	0xbd1d4e8d	-0.03840499
139	0xbae04272	-0.0017109646
140	0x3aae498d	0.0013297066
141	0xbcbd9b0b	-0.02314522
142	0xbb7b23af	-0.003832083
143	0x3a33cf2d	0.00068591797
144	0x3b060cc0	0.0020454377
145	0xbb8a9a32	-0.0042298073
146	0x3a254283	0.00063041615
147	0x3c798117	0.015228531
148	0xb86372e3	-5.4228014e-05
149	0x3aaf4429	0.0013371754
150	0x3d088cbb	0.033337336
151	0xba3d22c2	-0.0007214957
152	0x3aaa33db	0.0012985425
153	0x3cfc8398	0.030824468
154	0xbb594f27	-0.003315875
155	0x39d91af6	0.00041409553
156	0x3cc96946	0.024586331
157	0xbbc6d32e	-0.006067655
158	0xb9ed11e1	-0.00045217483
159	0x3cbe5a4d	0.023236418
160	0xbb8ac1ed	-0.0042345435
161	0x3a2d0c66	0.0006601274
162	0x3d012129	0.031525765
163	0xbb902756	-0.0043992205
164	0x398c9133	0.00026811063
165	0x3d36cc7d	0.04462861
166	0xbb4902dc	-0.003067187
167	0x39f0316c	0.0004581319
168	0x3d356672	0.044287153
169	0xba775e73	-0.0009436376
170	0x3adccf85	0.0016846514
171	0x3d0c97f4	0.0343246
172	0xbb41ffc9	-0.0029601923
173	0x3a8b5974	0.0010631518
174	0x3d0a89cc	0.03382282
175	0xba892e91	-0.0010466148
176	0x3aa063f2	0.0012236817
177	0x3c96b6e4	0.018397756
178	0xb882bfd1	-6.234612e-05
179	0x3adef5d2	0.0017010516
180	0xbc5a0c77	-0.013308636
181	0x3999dbab	0.000293461
182	0x3ac1b5db	0.0014778929
183	0x3bf8fe92	0.0075987065
184	0x3b0d4059	0.0021553247
185	0x3ab2bd25	0.0013636692
186	0xbd8bb255	-0.068211235
187	0x3b8a76d2	0.0042255903
188	0x3ace4c73	0.0015739336
189	0xbdabab99	-0.08382339
190	0x3bbfaf15	0.005849729
191	0x3ad14545	0.0015966078
192	0xbd534498	-0.051579088
193	0x3c072d83	0.008250597
194	0x3b4c96a1	0.0031217712
195	0xbcdb73c9	-0.02678861
196	0x3bb92d34	0.0056511406
197	0x3ac434c3	0.0014969337
198	0x3d51d594	0.051229075
199	0x3b69c37a	0.0035669492
200	0x3ace0ca3	0.0015720319
201	0x3ac90790	0.0015337337
202	0x3c117696	0.008878371
203	0x3b4f9e8a	0.003168019
204	0x3d2996f0	0.04140371
205	0x3bfe8118	0.007766854
206	0x3b3ea198	0.0029088017
207	0x3d222d9e	0.039594285
208	0x3b45e90c	0.0030198721
209	0x3a724474	0.00092417677
210	0x3d6cf6ae	0.05785244
211	0x3ae0dab5	0.0017155024
212	0x3a524d09	0.00080223434
213	0x3d829066	0.06375198
214	0x3ae174a6	0.0017200902
215	0x39f2066b	0.0004616262
216	0x3d8a7ca1	0.06762052
217	0xba06405c	-0.00051212846
218	0xb9c338c5	-0.00037235595
219	0xbcaa58b3	-0.020794248
220	0x3c84142e	0.016122904
221	0x3bd088b0	0.0063639507
222	0xbc4f01d2	-0.012634711
223	0x3c2fc4ba	0.010728056
224	0x3b87a2b7	0.00413927
225	0xbd7584cd	-0.0599411
226	0x3c1f901b	0.009738947
227	0x3b821c21	0.0039706384
228	0xbd2eb023	-0.042648446
229	0x3c6cf3dd	0.014462438
230	0x3b9a804b	0.0047150007
231	0xbd14c9e3	-0.036325347
232	0x39770711	0.00023558388
233	0x398c4d89	0.0002676065
234	0x3d9574ed	0.072976924
235	0xbbe7f622	-0.007078902
236	0xbb3581b6	-0.0027695722
237	0x3dd9c579	0.10633368
238	0xbbd58bc3	-0.006516905
239	0xbadb3775	-0.0016724902
240	0x3ca4e9eb	0.020131072
241	0xbd2c4a5b	-0.0420631
242	0xbc350e34	-0.01105075
243	0x3c79a3ed	0.015236837
244	0xbd3dab78	-0.046306103
245	0xbc538128	-0.012909211
246	0x3db073d0	0.086158395
247	0xbc119879	-0.00888645
248	0xbb4696b5	-0.003030223
249	0x3dd2e7f6	0.10298149
250	0xbbca1b07	-0.0061677727
251	0xbaa21163	-0.0012364801

leye_pose f4 [84, 3]
0	0x00000000	0.0
1	0x00000000	0.0
2	0x00000000	0.0
3	0x00000000	0.0
4	0x00000000	0.0
5	0x00000000	0.0
6	0x00000000	0.0
7	0x00000000	0.0
8	0x00000000	0.0
9	0x00000000	0.0
10	0x00000000	0.0
11	0x00000000	0.0
12	0x00000000	0.0
13	0x00000000	0.0
14	0x00000000	0.0
15	0x00000000	0.0
16	0x00000000	0.0
17	0x00000000	0.0
18	0x00000000	0.0
19	0x00000000	0.0
20	0x00000000	0.0
21	0x00000000	0.0
22	0x00000000	0.0
23	0x00000000	0.0
24	0x00000000	0.0
25	0x00000000	0.0
26	0x00000000	0.0
27	0x00000000	0.0
28	0x00000000	0.0
29	0x00000000	0.0
30	0x00000000	0.0
31	0x00000000	0.0
32	0x00000000	0.0
33	0x00000000	0.0
34	0x00000000	0.0
35	0x00000000	0.0
36	0x00000000	0.0
37	0x00000000	0.0
38	0x00000000	0.0
39	0x00000000	0.0
40	0x00000000	0.0
41	0x00000000	0.0
42	0x00000000	0.0
43	0x00000000	0.0
44	0x00000000	0.0
45	0x00000000	0.0
46	0x00000000	0.0
47	0x00000000	0.0
48	0x00000000	0.0
49	0x00000000	0.0
50	0x00000000	0.0
51	0x00000000	0.0
52	0x00000000	0.0
53	0x00000000	0.0
54	0x00000000	0.0
55	0x00000000	0.0
56	0x00000000	0.0
57	0x00000000	0.0
58	0x00000000	0.0
59	0x00000000	0.0
60	0x00000000	0.0
61	0x00000000	0.0
62	0x00000000	0.0
63	0x00000000	0.0
64	0x00000000	0.0
65	0x00000000	0.0
66	0x00000000	0.0
67	0x00000000	0.0
68	0x00000000	0.0
69	0x00000000	0.0
70	0x00000000	0.0
71	0x00000000	0.0
72	0x00000000	0.0
73	0x00000000	0.0
74	0x00000000	0.0
75	0x00000000	0.0
76	0x00000000	0.0
77	0x00000000	0.0
78	0x00000000	0.0
79	0x00000000	0.0
80	0x00000000	0.0
81	0x00000000	0.0
82	0x00000000	0.0
83	0x00000000	0.0
84	0x00000000	0.0
85	0x00000000	0.0
86	0x00000000	0.0
87	0x00000000	0.0
88	0x00000000	0.0
89	0x00000000	0.0
90	0x00000000	0.0
91	0x00000000	0.0
92	0x00000000	0.0
93	0x00000000	0.0
94	0x00000000	0.0
95	0x00000000	0.0
96	0x00000000	0.0
97	0x00000000	0.0
98	0x00000000	0.0
99	0x00000000	0.0
100	0x00000000	0.0
101	0x00000000	0.0
102	0x00000000	0.0
103	0x00000000	0.0
104	0x00000000	0.0
105	0x00000000	0.0
106	0x00000000	0.0
107	0x00000000	0.0
108	0x00000000	0.0
109	0x00000000	0.0
110	0x00000000	0.0
111	0x00000000	0.0
112	0x00000000	0.0
113	0x00000000	0.0
114	0x00000000	0.0
115	0x00000000	0.0
116	0x00000000	0.0
117	0x00000000	0.0
118	0x00000000	0.0
119	0x00000000	0.0
120	0x00000000	0.0
121	0x00000000	0.0
122	0x00000000	0.0
123	0x00000000	0.0
124	0x00000000	0.0
125	0x00000000	0.0
126	0x00000000	0.0
127	0x00000000	0.0
128	0x00000000	0.0
129	0x00000000	0.0
130	0x00000000	0.0
131	0x00000000	0.0
132	0x00000000	0.0
133	0x00000000	0.0
134	0x00000000	0.0
135	0x00000000	0.0
136	0x00000000	0.0
137	0x00000000	0.0
138	0x00000000	0.0
139	0x00000000	0.0
140	0x00000000	0.0
141	0x00000000	0.0
142	0x00000000	0.0
143	0x00000000	0.0
144	0x00000000	0.0
145	0x00000000	0.0
146	0x00000000	0.0
147	0x00000000	0.0
148	0x00000000	0.0
149	0x00000000	0.0
150	0x00000000	0.0
151	0x00000000	0.0
152	0x00000000	0.0
153	0x00000000	0.0
154	0x00000000	0.0
155	0x00000000	0.0
156	0x00000000	0.0
157	0x00000000	0.0
158	0x00000000	0.0
159	0x00000000	0.0
160	0x00000000	0.0
161	0x00000000	0.0
162	0x00000000	0.0
163	0x00000000	0.0
164	0x00000000	0.0
165	0x00000000	0.0
166	0x00000000	0.0
167	0x00000000	0.0
168	0x00000000	0.0
169	0x00000000	0.0
170	0x00000000	0.0
171	0x00000000	0.0
172	0x00000000	0.0
173	0x00000000	0.0
174	0x00000000	0.0
175	0x00000000	0.0
176	0x00000000	0.0
177	0x00000000	0.0
178	0x00000000	0.0
179	0x00000000	0.0
180	0x00000000	0.0
181	0x00000000	0.0
182	0x00000000	0.0
183	0x00000000	0.0
184	0x00000000	0.0
185	0x00000000	0.0
186	0x00000000	0.0
187	0x00000000	0.0
188	0x00000000	0.0
189	0x00000000	0.0
190	0x00000000	0.0
191	0x00000000	0.0
192	0x00000000	0.0
193	0x00000000	0.0
194	0x00000000	0.0
195	0x00000000	0.0
196	0x00000000	0.0
197	0x00000000	0.0
198	0x00000000	0.0
199	0x00000000	0.0
200	0x00000000	0.0
201	0x00000000	0.0
202	0x00000000	0.0
203	0x00000000	0.0
204	0x00000000	0.0
205	0x00000000	0.0
206	0x00000000	0.0
207	0x00000000	0.0
208	0x00000000	0.0
209	0x00000000	0.0
210	0x00000000	0.0
211	0x00000000	0.0
212	0x00000000	0.0
213	0x00000000	0.0
214	0x00000000	0.0
215	0x00000000	0.0
216	0x00000000	0.0
217	0x00000000	0.0
218	0x00000000	0.0
219	0x00000000	0.0
220	0x00000000	0.0
221	0x00000000	0.0
222	0x00000000	0.0
223	0x00000000	0.0
224	0x00000000	0.0
225	0x00000000	0.0
226	0x00000000	0.0
227	0x00000000	0.0
228	0x00000000	0.0
229	0x00000000	0.0
230	0x00000000	0.0
231	0x00000000	0.0
232	0x00000000	0.0
233	0x00000000	0.0
234	0x00000000	0.0
235	0x00000000	0.0
236	0x00000000	0.0
237	0x00000000	0.0
238	0x00000000	0.0
239	0x00000000	0.0
240	0x00000000	0.0
241	0x00000000	0.0
242	0x00000000	0.0
243	0x00000000	0.0
244	0x00000000	0.0
245	0x00000000	0.0
246	0x00000000	0.0
247	0x00000000	0.0
248	0x00000000	0.0
249	0x00000000	0.0
250	0x00000000	0.0
251	0x00000000	0.0

reye_pose f4 [84, 3]
0	0x00000000	0.0
1	0x00000000	0.0
2	0x00000000	0.0
3	0x00000000	0.0
4	0x00000000	0.0
5	0x00000000	0.0
6	0x00000000	0.0
7	0x00000000	0.0
8	0x00000000	0.0
9	0x00000000	0.0
10	0x00000000	0.0
11	0x00000000	0.0
12	0x00000000	0.0
13	0x00000000	0.0
14	0x00000000	0.0
15	0x00000000	0.0
16	0x00000000	0.0
17	0x00000000	0.0
18	0x00000000	0.0
19	0x00000000	0.0
20	0x00000000	0.0
21	0x00000000	0.0
22	0x00000000	0.0
23	0x00000000	0.0
24	0x00000000	0.0
25	0x00000000	0.0
26	0x00000000	0.0
27	0x00000000	0.0
28	0x00000000	0.0
29	0x00000000	0.0
30	0x00000000	0.0
31	0x00000000	0.0
32	0x00000000	0.0
33	0x00000000	0.0
34	0x00000000	0.0
35	0x00000000	0.0
36	0x00000000	0.0
37	0x00000000	0.0
38	0x00000000	0.0
39	0x00000000	0.0
40	0x00000000	0.0
41	0x00000000	0.0
42	0x00000000	0.0
43	0x00000000	0.0
44	0x00000000	0.0
45	0x00000000	0.0
46	0x00000000	0.0
47	0x00000000	0.0
48	0x00000000	0.0
49	0x00000000	0.0
50	0x00000000	0.0
51	0x00000000	0.0
52	0x00000000	0.0
53	0x00000000	0.0
54	0x00000000	0.0
55	0x00000000	0.0
56	0x00000000	0.0
57	0x00000000	0.0
58	0x00000000	0.0
59	0x00000000	0.0
60	0x00000000	0.0
61	0x00000000	0.0
62	0x00000000	0.0
63	0x00000000	0.0
64	0x00000000	0.0
65	0x00000000	0.0
66	0x00000000	0.0
67	0x00000000	0.0
68	0x00000000	0.0
69	0x00000000	0.0
70	0x00000000	0.0
71	0x00000000	0.0
72	0x00000000	0.0
73	0x00000000	0.0
74	0x00000000	0.0
75	0x00000000	0.0
76	0x00000000	0.0
77	0x00000000	0.0
78	0x00000000	0.0
79	0x00000000	0.0
80	0x00000000	0.0
81	0x00000000	0.0
82	0x00000000	0.0
83	0x00000000	0.0
84	0x00000000	0.0
85	0x00000000	0.0
86	0x00000000	0.0
87	0x00000000	0.0
88	0x00000000	0.0
89	0x00000000	0.0
90	0x00000000	0.0
91	0x00000000	0.0
92	0x00000000	0.0
93	0x00000000	0.0
94	0x00000000	0.0
95	0x00000000	0.0
96	0x00000000	0.0
97	0x00000000	0.0
98	0x00000000	0.0
99	0x00000000	0.0
100	0x00000000	0.0
101	0x00000000	0.0
102	0x00000000	0.0
103	0x00000000	0.0
104	0x00000000	0.0
105	0x00000000	0.0
106	0x00000000	0.0
107	0x00000000	0.0
108	0x00000000	0.0
109	0x00000000	0.0
110	0x00000000	0.0
111	0x00000000	0.0
112	0x00000000	0.0
113	0x00000000	0.0
114	0x00000000	0.0
115	0x00000000	0.0
116	0x00000000	0.0
117	0x00000000	0.0
118	0x00000000	0.0
119	0x00000000	0.0
120	0x00000000	0.0
121	0x00000000	0.0
122	0x00000000	0.0
123	0x00000000	0.0
124	0x00000000	0.0
125	0x00000000	0.0
126	0x00000000	0.0
127	0x00000000	0.0
128	0x00000000	0.0
129	0x00000000	0.0
130	0x00000000	0.0
131	0x00000000	0.0
132	0x00000000	0.0
133	0x00000000	0.0
134	0x00000000	0.0
135	0x00000000	0.0
136	0x00000000	0.0
137	0x00000000	0.0
138	0x00000000	0.0
139	0x00000000	0.0
140	0x00000000	0.0
141	0x00000000	0.0
142	0x00000000	0.0
143	0x00000000	0.0
144	0x00000000	0.0
145	0x00000000	0.0
146	0x00000000	0.0
147	0x00000000	0.0
148	0x00000000	0.0
149	0x00000000	0.0
150	0x00000000	0.0
151	0x00000000	0.0
152	0x00000000	0.0
153	0x00000000	0.0
154	0x00000000	0.0
155	0x00000000	0.0
156	0x00000000	0.0
157	0x00000000	0.0
158	0x00000000	0.0
159	0x00000000	0.0
160	0x00000000	0.0
161	0x00000000	0.0
162	0x00000000	0.0
163	0x00000000	0.0
164	0x00000000	0.0
165	0x00000000	0.0
166	0x00000000	0.0
167	0x00000000	0.0
168	0x00000000	0.0
169	0x00000000	0.0
170	0x00000000	0.0
171	0x00000000	0.0
172	0x00000000	0.0
173	0x00000000	0.0
174	0x00000000	0.0
175	0x00000000	0.0
176	0x00000000	0.0
177	0x00000000	0.0
178	0x00000000	0.0
179	0x00000000	0.0
180	0x00000000	0.0
181	0x00000000	0.0
182	0x00000000	0.0
183	0x00000000	0.0
184	0x00000000	0.0
185	0x00000000	0.0
186	0x00000000	0.0
187	0x00000000	0.0
188	0x00000000	0.0
189	0x00000000	0.0
190	0x00000000	0.0
191	0x00000000	0.0
192	0x00000000	0.0
193	0x00000000	0.0
194	0x00000000	0.0
195	0x00000000	0.0
196	0x00000000	0.0
197	0x00000000	0.0
198	0x00000000	0.0
199	0x00000000	0.0
200	0x00000000	0.0
201	0x00000000	0.0
202	0x00000000	0.0
203	0x00000000	0.0
204	0x00000000	0.0
205	0x00000000	0.0
206	0x00000000	0.0
207	0x00000000	0.0
208	0x00000000	0.0
209	0x00000000	0.0
210	0x00000000	0.0
211	0x00000000	0.0
212	0x00000000	0.0
213	0x00000000	0.0
214	0x00000000	0.0
215	0x00000000	0.0
216	0x00000000	0.0
217	0x00000000	0.0
218	0x00000000	0.0
219	0x00000000	0.0
220	0x00000000	0.0
221	0x00000000	0.0
222	0x00000000	0.0
223	0x00000000	0.0
224	0x00000000	0.0
225	0x00000000	0.0
226	0x00000000	0.0
227	0x00000000	0.0
228	0x00000000	0.0
229	0x00000000	0.0
230	0x00000000	0.0
231	0x00000000	0.0
232	0x00000000	0.0
233	0x00000000	0.0
234	0x00000000	0.0
235	0x00000000	0.0
236	0x00000000	0.0
237	0x00000000	0.0
238	0x00000000	0.0
239	0x00000000	0.0
240	0x00000000	0.0
241	0x00000000	0.0
242	0x00000000	0.0
243	0x00000000	0.0
244	0x00000000	0.0
245	0x00000000	0.0
246	0x00000000	0.0
247	0x00000000	0.0
248	0x00000000	0.0
249	0x00000000	0.0
250	0x00000000	0.0
251	0x00000000	0.0
