test_dataset/gait_753/20250617_c2_a3_Take1/split_subjects/0/fit-smplx/smplx-params_cut.npz (npz, 59118 bytes, 10 tensors)

betas f4 [115, 11]
00000000: 59f3 bf3e d19c 98bf 0a53 993f 5b2c a83d
00000010: 7956 2dbf 2aec 78be a382 c9be 95d4 6abe
00000020: 7d56 5bbe 44cd 393e 4d8a 3d3f aa86 c83e
00000030: 59a9 93bf 436c 943f 174e 363e a13c 37bf
00000040: c7bf 4fbe 4b02 dfbe 799f 3abe 614a 7abe
00000050: b73f 433e f948 3f3f eaa6 c93e baab 94bf
00000060: 45cb 8b3f ff48 833e 130a 2dbf b26a 10be
00000070: 3e24 0fbf c50d 87be 5b6a b5be 0b25 613e
00000080: 2535 3f3f bd4c a33e 9c9e a3bf 2498 753f
00000090: 7f33 c63e b82a 1fbf 69f7 94bc e56c 0fbf
000000a0: af04 a8be 4b6b d6be 5e68 673e cb62 3b3f
000000b0: 7b63 9c3e 35dc b7bf 8c0d 5c3f a49b 023f
000000c0: e2ca 21bf 4055 233e 1552 1cbf 8f75 82be
000000d0: 14fc 0ebf f9b1 5f3e 446c 383f 46c8 873e
000000e0: 28f6 bcbf 215c 603f 63f7 0d3f d4c1 39bf
000000f0: 7c7b 593e fbb1 24bf 0a3d 34be fdc8 19bf
00000100: 0f07 673e f123 363f b88e 9d3e e9c2 bfbf
00000110: c170 6b3f 6b4c 1e3f d319 44bf 0407 433e
00000120: 0ffb 29bf f341 4abe 20a4 2bbf 70ff 6a3e
00000130: a0ad 363f 9bc5 ac3e 3ed4 a9bf f48f 793f
00000140: 001a df3e 1e68 51bf 2ed6 0d3d b1d4 14bf
00000150: acc3 31be 84d8 06bf 962a 673e 3ab3 373f
00000160: 0fad 883e 68d2 9abf d066 773f 263a 853e
00000170: ddbf 1dbf da94 ab3d af7b 07bf c60d 9bbd
00000180: a83d a8be 5a9e 6a3e 8703 3a3f e7cd 6d3e
00000190: d37f 93bf 9d9f 823f afde 363d 93a1 e2be
000001a0: ef25 6ebd b191 e7be 4bc0 27be b771 3bbe
000001b0: 9af1 563e 74ba 3a3f 7c47 623e ef15 88bf
000001c0: ecd7 753f 24e2 153d 1959 b1be 78f4 b4bd
000001d0: 26e8 d9be c347 5fbe 21f8 26be 727c 613e
000001e0: d93c 3c3f a01a a23e 035c a0bf 0f99 743f
000001f0: fb84 cd3d bbc5 11bf 7986 2fbe d0e9 00bf
00000200: 8b45 6bbe 40f3 c0be 8edb 7b3e 6619 3b3f
00000210: d5f4 b93e 78d4 aabf 31af 773f 2165 593e
00000220: 42ab 10bf 39d5 c4bd 2530 10bf ad0c 9ebe
00000230: 9bce 06bf 477f 8e3e 5c6e 3b3f 3312 d13e
00000240: c559 b5bf bd11 823f 7d00 ac3e f600 1abf
00000250: 9730 b43d b5ee 21bf 88a1 5abe 5f72 15bf
00000260: 54d7 993e ec49 3b3f 234e ea3e d7ea b3bf
00000270: 0857 853f f8cd c23e cb4a 2fbf e30e 053e
00000280: da79 1fbf cefa 04be fee4 0dbf 52e7 a43e
00000290: 6468 3a3f e747 003f f0f7 acbf a49d 853f
000002a0: 154d dc3e f652 40bf 93bd 083e ddfd 16bf
000002b0: 31cc 6ebd 2608 0ebf 3cf2 923e 9ea6 3a3f
000002c0: c7eb 023f e75e 98bf 176c 8c3f c2f6 7a3e
000002d0: 01f3 4fbf acec 683c b9f2 11bf 0b8c d03d
000002e0: 795f 0bbf 9395 863e bfcb 3b3f a5bc 033f
000002f0: 1679 8ebf f75a 883f 52b8 3b3e 4837 36bf
00000300: ff41 c53d 673a 09bf fc84 253e 2e30 d2be
00000310: 93aa 833e 6973 3f3f 4397 0e3f 2613 93bf
00000320: 0dc9 963f 2430 833e f941 4abf f4a1 fa3c
00000330: 54c4 01bf 6dea 23be 71fc b7be 140f 333e
00000340: beca 3e3f a4b9 0e3f 9dc9 96bf de22 923f
00000350: 3c49 a73e b0c2 38bf a8e7 723d 562a 0abf
00000360: a6be 1abe 12b1 bbbe c189 343e 9d68 3f3f
00000370: 8c8c 033f 9cae 9bbf f37f 8a3f 3ec7 d43e
00000380: 4d14 30bf 9cd5 013e 72bb 1bbf 9a32 3ebe
00000390: 3eb3 dfbe a2cb 3d3e f07e 3e3f cd04 de3e
000003a0: e457 aabf 5e2f 7c3f cdfc 093f 5741 1ebf
000003b0: e05d 833e e381 28bf 6a07 6bbe d176 02bf
000003c0: 6179 3b3e f40d 3b3f 3b07 b33e e1b5 b5bf
000003d0: c501 5d3f 7651 273f 9444 1bbf 2d35 c53e
000003e0: 1e68 39bf a250 62be 4932 18bf 0a58 3f3e
000003f0: d36c 373f 7faa 9e3e d5cb b9bf 3134 663f
0.37490347 -1.1922857 1.1978467 0.08211585 -0.6771007 -0.2430884 -0.3935748 -0.22932656
-0.21419711 0.18144709 0.74039155 0.3916524 -1.1536056 1.1595539 0.17803226 -0.7157689
-0.20288001 -0.43556437 -0.18224896 -0.24442436 0.19067274 0.7472072 0.39385158 -1.1614907
1.0921408 0.2564163 -0.675935 -0.14103201 -0.55914676 -0.26377693 -0.35432705 0.21986787
0.7469047 0.31894484 -1.2782779 0.95935273 0.38711163 -0.6217456 -0.01818438 -0.56025535
-0.32816073 -0.41878733 0.22598407 0.7319762 0.30544648 -1.4364077 0.8595817 0.5101874
-0.632002 0.15950489 -0.6106275 -0.25480315 -0.5585339 0.21845235 0.720402 0.26519984
-1.4762621 0.8764058 0.5545561 -0.72561383 0.21238512 -0.64334077 -0.1760141 -0.6007231
0.22561286 0.7114859 0.30772948 -1.4981357 0.91968924 0.61835355 -0.76601905 0.19045645
-0.6639871 -0.1975172 -0.6704731 0.22949004 0.7135868 0.3374451 -1.3267896 0.9748528
0.43574524 -0.81799495 0.034628086 -0.5813704 -0.17359799 -0.52674127 0.22574839 0.71757853
0.26694533 -1.2095461 0.96641254 0.26020926 -0.61620885 0.083780006 -0.529231 -0.075709864
-0.3285954 0.22911969 0.7266163 0.23223077 -1.1523384 1.020496 0.04464596 -0.44263896
-0.058141645 -0.4522834 -0.16381948 -0.18305098 0.20990601 0.72940755 0.22097582 -1.0631694
0.96032596 0.036592618 -0.3463829 -0.08835691 -0.42559928 -0.21804719 -0.16305591 0.22020128
0.73530346 0.31660938 -1.252808 0.9554605 0.1003513 -0.5694234 -0.17141141 -0.5035677
-0.22975747 -0.37685585 0.24595472 0.7308563 0.36319605 -1.334609 0.96751696 0.21229984
-0.5651132 -0.096109815 -0.5632346 -0.30869046 -0.52659005 0.2783148 0.7321527 0.40834197
-1.416802 1.0161663 0.33594123 -0.60157716 0.0879833 -0.63254863 -0.21350682 -0.5837764
0.30047095 0.7315967 0.4576274 -1.4056042 1.0417185 0.38047767 -0.684735 0.1299396
-0.62295306 -0.129863 -0.5542754 0.32207733 0.7281554 0.50109714 -1.3513165 1.0438733
0.4302756 -0.7512659 0.13353567 -0.58981115 -0.0583002 -0.55481184 0.28700435 0.7291049
0.5114102 -1.1903962 1.0970486 0.24508193 -0.8123017 0.014216583 -0.5701099 0.10182961
-0.54442555 0.2628599 0.73357767 0.51459724 -1.1130702 1.065276 0.18332031 -0.711781
0.096317284 -0.5360474 0.16164011 -0.41052383 0.25716075 0.74785477 0.5569956 -1.1490219
1.1780106 0.25622666 -0.79006916 0.030594803 -0.506902 -0.16007395 -0.35934785 0.1748622
0.7452811 0.55752015 -1.1780277 1.1416891 0.3267306 -0.7217207 0.059302956 -0.5397085
-0.15111789 -0.3665853 0.17630674 0.74769 0.5138633 -1.2162662 1.0820297 0.4155826
-0.68780977 0.12679142 -0.60832894 -0.1857399 -0.43691438 0.18534711 0.7441244 0.43363038
-1.3308072 0.98509777 0.5390137 -0.6181845 0.25657558 -0.6582319 -0.22952047 -0.5096255
0.18308021 0.73068166 0.34966454 -1.419613 0.86330825 0.65358675 -0.60651517 0.38517132
-0.72424495 -0.22101071 -0.5945173 0.18685928 0.7165043 0.30989453 -1.451533 0.8992339

global_orient f4 [115, 3]
00000000: da78 77bd 84a6 37c0 789d bebd f53e 45bd
00000010: d5f1 3dc0 8c27 bbbd 49b0 1abd 41e5 42c0
00000020: fa20 44bd 8517 21bc 7d64 44c0 6056 0bbd
00000030: a6e6 503c 0f29 44c0 f113 0dbd 2706 f23c
00000040: afe3 42c0 051f 36bd b8b1 9a3d eb4b 40c0
00000050: 87d8 8fbd acf8 a83d 6b23 3cc0 7b24 65bd
00000060: ebb2 9b3d 23ce 38c0 b954 3dbd c8b9 863d
00000070: e663 30c0 5caf 33bd 22c3 773d ccbb 26c0
00000080: 0eb0 2ebc a396 533c a4b5 1dc0 f83e 63bb
00000090: 975a c7ba e3d4 1bc0 c7b2 08ba 0ba7 63bc
000000a0: 2341 1dc0 b72b aabb 4c8d c2bc a3f9 21c0
000000b0: 6f00 60bc 3983 20bd ab33 29c0 2540 98bc
000000c0: ac2d 92bd 643a 2ec0 17a5 25bc bb32 63bd
000000d0: b6c9 33c0 5b67 bf3b a493 403c a304 45c0
000000e0: 1532 ccbc 7211 9ebc b32b 4440 a028 d13c
000000f0: 13dd 05bd 17bc 4040 0146 dc3c 1f99 51bd
00000100: 5339 4140 f571 063d 70cd 86bd 266d 4340
00000110: 4f96 033d 2be9 b5bd 0188 4640 fec7 213d
00000120: 1a42 d23d e05a 47c0 7cfc afbd f101 4d3d
00000130: 7a11 44c0 1190 1cbe c4aa 513b e416 3dc0
00000140: d31e 65be b11e 183c 2bc5 30c0 c9f1 74be
00000150: bcdd 5e3d 5540 23c0 272d 4cbe 0941 8e3d
00000160: 4d94 1ac0 a303 29be 6905 723d 7b47 16c0
00000170: 8440 13be 4071 533d 859c 18c0 df9e 23be
00000180: f9ab 223d 83f3 1cc0 2137 51be 4681 503c
00000190: b27e 24c0 ecd1 85be ba37 b1bc 2b38 2cc0
000001a0: e647 9dbe 5139 5bbb 64b3 34c0 722a c9be
000001b0: 0e58 3f3d 6797 3fc0 ab9c f2be 3a6b 85bd
000001c0: 77f8 4240 45a5 003f c764 2ebd a2fe 3940
000001d0: 4652 ee3e 483a e8bc bb2b 3540 e4d5 e63e
000001e0: 3a6c 4cbc dedb 3040 b05b dc3e ac1e e7bc
000001f0: efa8 2c40 bc2e de3e 0693 8dbd 576e 2c40
00000200: 44df d93e ae6d 03be c4e2 3140 82c6 c83e
00000210: 846f 26be 6ce9 2f40 f2a4 c63e c6fb 45be
00000220: 9321 2b40 f09a ba3e 7bb9 6fbe cdfe 2440
00000230: d255 ad3e 17ff 8abe 3ba0 2040 1388 a83e
00000240: b966 9cbe c378 1c40 5504 9e3e 0b35 acbe
00000250: 9228 1a40 04c2 8a3e ed7f b3be cb66 1840
00000260: b383 803e fa9d b4be 4d9a 1640 cfbf 673e
00000270: babe abbe 738a 1340 ba75 4f3e e0fe a2be
00000280: e460 1040 6fca 453e d737 9bbe 4286 0d40
00000290: 74d2 3e3e b7a8 8cbe c061 0940 69ec 343e
000002a0: 20ce 6bbe a88f 0440 e89c 273e 992b 30be
000002b0: 32c5 fe3f be71 233e 185b ebbd 2a56 ec3f
000002c0: d287 263e 7970 92bd 1001 e23f 7607 233e
000002d0: e10f 42bd 409c d73f bdad 183e 25ce 37bd
000002e0: fd63 ce3f c0b2 003e 3fb9 21bd 4549 c63f
000002f0: 6152 d73d 2d48 b3bc c928 b93f ac3f c03d
00000300: 1f55 b1ba 1980 ab3f 60c8 ae3d c42e 8e3c
00000310: ab5f 9d3f bed5 933d 90a4 053d 2f9d 8e3f
00000320: e3ed 7e3d b328 fc3c 29f4 7d3f e613 603d
00000330: fde2 5e3c d93e 623f 2b5e 603d e5bd 80bc
00000340: 7973 4c3f f5e6 443d dac8 17bd c27c 393f
00000350: 568c f63c 65b3 29bd eff3 2f3f 9e57 cc3b
00000360: 18ce ccbc bafc 253f 5aca 58bc 32e3 31bc
00000370: fe03 103f 2480 16bc 7a5e 2b3c ffaa 063f
00000380: 72e7 123d 2fae d23c 781f 073f 849a 9a3d
00000390: 2de6 aa3c 5107 073f e346 843d 81a2 d939
000003a0: 1441 0c3f 8118 b73d e99c 68bc 180b 123f
000003b0: 299a 973d d2eb b1bc c4ca 183f b994 693d
000003c0: a2e4 96bc 0b21 173f 0281 483d ee27 48bc
000003d0: 03b7 0f3f e7c8 743d 64d8 4dbc 325d fa3e
000003e0: 440c 9d3d d285 9ebc 5b3d c33e 0ba6 bc3d
000003f0: fe66 e2bc 4d00 a93e 141a e43d 9060 22bd
-0.060417987 -2.8695383 -0.093073785 -0.048155744 -2.9678853 -0.09138402 -0.037765775 -3.0452425
-0.04788301 -0.009832268 -3.0686333 -0.03401792 0.012750303 -3.065006 -0.034442846 0.02954395
-3.0451467 -0.044463176 0.075534284 -3.0046337 -0.07023721 0.082505554 -2.9396617 -0.055942994
0.07602485 -2.8875816 -0.046223376 0.06578404 -2.7560973 -0.043868408 0.060488828 -2.6052122
-0.010662092 0.012914333 -2.4642115 -0.0034674983 -0.0015209493 -2.4348686 -0.0005214628 -0.013894807
-2.4571006 -0.0051931995 -0.023749016 -2.5308616 -0.013671978 -0.039187644 -2.6437786 -0.018585274
-0.071376175 -2.722314 -0.010110161 -0.055468302 -2.8091865 0.0058411784 0.01175395 -3.078408
-0.024926225 -0.019295428 3.0651672 0.025532067 -0.032681536 3.01148 0.02688885 -0.05117142
3.0191238 0.03282352 -0.06582153 3.053537 0.032125767 -0.08882364 3.102051 0.039497368
0.10266514 -3.1149216 -0.085930794 0.05005068 -3.0635667 -0.15289332 0.0031992653 -2.9545221
-0.2237504 0.009284661 -2.7620342 -0.23920359 0.05441068 -2.5508015 -0.19939099 0.06945998
-2.4153016 -0.16505294 0.05908719 -2.3481128 -0.1438008 0.051621675 -2.3845532 -0.15978573
0.039714787 -2.4523628 -0.20431186 0.012726134 -2.5702329 -0.2613672 -0.021633018 -2.6909282
-0.30718917 -0.0033450911 -2.8234491 -0.39290196 0.046714835 -2.9936159 -0.47385153 -0.065145925
3.046415 0.5025218 -0.042576578 2.9061666 0.46547145 -0.028348103 2.830794 0.4508506
-0.012476975 2.7634196 0.43038702 -0.028212868 2.697811 0.4339503 -0.06912808 2.6942346
0.4255315 -0.12834808 2.7794657 0.3921395 -0.16253477 2.748622 0.38797718 -0.19334325
2.6739242 0.36446333 -0.23410599 2.5780518 0.33854538 -0.27147743 2.5097797 0.32916316
-0.3054712 2.4448707 0.3086268 -0.3363422 2.4087262 0.27101147 -0.35058537 2.381274
0.2510048 -0.35276777 2.3531678 0.22631763 -0.3354395 2.3053253 0.20259753 -0.3183508
2.2559137 0.19315504 -0.3031604 2.2113194 0.18634969 -0.2747247 2.1465912 0.17668308
-0.23027849 2.071268 0.16368449 -0.17204131 1.9903929 0.15961358 -0.11491984 1.8463795
0.16262749 -0.07150359 1.7656574 0.15920815 -0.047378425 1.6844559 0.14910026 -0.04487433
1.6124264 0.12568188 -0.039483305 1.549111 0.105137594 -0.021885002 1.4465572 0.093871444
-0.0013529396 1.3398467 0.08534312 0.017356284 1.229482 0.072185025 0.032627642 1.1141719
0.062238585 0.030781126 0.99200684 0.054706477 0.013603923 0.8837715 0.054777306 -0.015715549
0.798637 0.04807182 -0.03705678 0.7245599 0.030096214 -0.04143085 0.6873159 0.0062360307
-0.025000617 0.64838755 -0.013231838 -0.01085739 0.5625609 -0.009185825 0.010459537 0.5260467
0.035865255 0.025717823 0.5278239 0.07549003 0.02086171 0.5274554 0.06458833 0.0004151054
0.547868 0.089402206 -0.014197567 0.5704818 0.074024506 -0.021718893 0.59684396 0.0570266
-0.018419567 0.59034795 0.048951156 -0.012216551 0.5613863 0.059761908 -0.012563799 0.48899227
0.07668355 -0.01935092 0.38132748 0.09211358 -0.027637001 0.33008042 0.111377865 -0.03964287

body_pose f4 [115, 63]
00000000: 38fe a3bd 17a3 8fbd 0c16 b1bd 778d 10be
00000010: c226 853d bee6 073e 3682 423e 0c9b c6bb
00000020: c95f 4f3d 6314 7a3f 4f53 5dbd 7e92 3abe
00000030: 5af5 bb3e 8035 2a3e 3d94 06be 6463 673d
00000040: f2d8 093d 1267 45bd b1da f63e b307 993d
00000050: 7d6d 07bd d6d7 27be 79a7 10bd 7f0f 31be
00000060: d636 1c3e 551a 4b3d b2fe 973b f471 8937
00000070: 7d1b 82b7 9f45 8237 6936 8037 7676 8137
00000080: dab3 81b7 6948 7c3e db1f 13bd 68b3 4c3d
00000090: fda6 61bd 8f73 8a3e d5eb a8be 5a76 833c
000000a0: 7e2d 94be 39b6 953e 8a90 93bd c14f 3c3d
000000b0: 170d b0bc ee65 7c3e ea0d 35be a700 04bf
000000c0: fec9 3f3e 8619 703b e8ce f83e 6e7f b13d
000000d0: e5c6 b5bf 7176 32be 7e4a b93e 6071 a43f
000000e0: b478 283f a1d0 ad3e 9146 b0be 576c 213c
000000f0: e276 e33e 2757 b0be 17fd 06be 0566 9ebe
00000100: 8b5a a3bd 3f7c 7b3c 7235 5b3d ca62 893c
00000110: af96 013e d6be 453e 895a 453d dcb7 023c
00000120: 32c8 853f 449d 8b3b 7301 8ebe be1c 303e
00000130: a125 503e 12d2 23be 552c 823d 5ef3 ad3d
00000140: e1dd 0cbd 52df 9b3e 1c73 da3d 6f31 fe3c
00000150: a75a 663b b975 283d a1fb 56be a582 243e
00000160: 448c f13d ee86 113c a540 8637 5c92 80b7
00000170: ad56 7cb7 b454 8537 e034 8237 2370 80b7
00000180: c241 813e c0e5 07bd 96d5 a53d 2b63 d8bc
00000190: 44c6 a33e df11 b1be 9bbe 0bbb 19d2 9dbe
000001a0: 0a46 a43e e97c 81bd 72f1 053d fa83 9dbb
000001b0: 34e8 8a3e 8809 03be f20b 11bf b801 233e
000001c0: e56d 773c 2cb9 eb3e d189 dc3d 9a2f b7bf
000001d0: abbe 51be 5db7 d03e b2ac 9f3f 8bc8 303f
000001e0: ae95 c13e 58e0 d4be 2f2b f73d 3182 123f
000001f0: 7c12 c5be 69f0 acbe 6e98 06bf 6557 f9bd
00000200: 4383 ce3d 0b7d 2b3e 5189 503c 68a7 c13d
00000210: 0709 443e 4504 c63d 84e3 80bc b5e6 753f
00000220: 3e04 ed3c 5894 abbe b3c9 2a3d b7f5 8c3e
00000230: 585e 03be cd5d 803d 48ee fd3d fa4b 1dbd
00000240: 1468 d13e 8d1c c43d c658 f0bc 9bc3 723d
00000250: c249 833d c03b 36be 05cb 123e 8a10 2a3e
00000260: bb3c f3bb 89b5 8837 d65b 8037 3d99 8137
00000270: 089e 8537 586e 8337 1a3f 82b7 ac88 753e
00000280: fb01 24bd e1f0 b63d d147 ecbc bf44 bc3e
00000290: 70dc b4be 544b 7ebc a0e6 a0be 6883 aa3e
000002a0: b9ab adbd 3d4c 033d 6211 803c c903 8c3e
000002b0: 7c4d 62bd 1d47 0dbf f43e ef3d e312 bebd
000002c0: 0d39 063f b5fb b93d 35dc b5bf 43c1 86be
000002d0: 8c59 b73e c056 a73f 8e85 373f 3a72 a43e
000002e0: 9aed d5be 00e8 463d 9fbf 023f 3c6f c9be
000002f0: 575c 9cbe bcd1 2fbf a44d fcbd 4154 073e
00000300: 8648 693e fc1e 5d3d 46f8 b63d 0c38 593e
00000310: aae2 043e 42fd 1abc bb1e 523f 532c 133d
00000320: fac0 75be 7dd1 323d 7296 8b3e 611c eabd
00000330: 5344 513d f2ae 1b3e be47 63bd ea88 c03e
00000340: 6ee4 1a3e c674 8b3d 790f 963c 9cdf 903d
00000350: b54e 6cbe f601 0a3e d12e 373e 2e12 9cbc
00000360: f908 8537 d195 7eb7 59de 8337 b117 8637
00000370: 3454 8337 a06d 81b7 0f30 563e 8403 57bd
00000380: e0f1 bc3d 471d 04bc fc36 c53e 4edf b1be
00000390: c202 bbbb a5c8 a6be bb3e a03e 1d1e cdbd
000003a0: 3bd3 b33c ad84 553c 3a05 913e e6bf 2d3b
000003b0: 4ca7 07bf 55fe 2f3e 282f bdbd ebb9 023f
000003c0: ef89 c33d 1a3e b4bf ee82 27be 05cf 9b3e
000003d0: 843e aa3f 79e2 3c3f cd32 ae3e 81af bcbe
000003e0: 720d f9bc 763d 143f 3b6e cdbe 59cb 8ebe
000003f0: b111 3dbf e93c c1bd 839a db3d 1b9c 8a3e
-0.08007473 -0.07013529 -0.08646783 -0.14116465 0.06501533 0.13271615 0.18994984 -0.0060609635
0.050628457 0.9768736 -0.054034527 -0.18219945 0.36710626 0.16621971 -0.13142486 0.05649127
0.03365416 -0.048194 0.48213723 0.07472172 -0.0330634 -0.16390929 -0.035315964 -0.17291068
0.15255293 0.04958566 0.0046385163 1.6384736e-05 -1.5510008e-05 1.5529627e-05 1.5284126e-05 1.5433161e-05
-1.5461748e-05 0.24636997 -0.03591905 0.049975783 -0.055090893 0.2704129 -0.32992426 0.016047645
-0.28940958 0.29240587 -0.07205303 0.045974497 -0.021490617 0.24648258 -0.17681089 -0.51563495
0.18729398 0.0036636307 0.48595357 0.086668834 -1.4201323 -0.17427994 0.36189646 1.2847099
0.6580918 0.33948234 -0.34428838 0.00985249 0.44426638 -0.34441492 -0.13182484 -0.3093721
-0.07976254 0.015349447 0.053517766 0.01677074 0.12655137 0.1931108 0.048182044 0.007978406
1.045172 0.004260691 -0.2773548 0.17198464 0.20326854 -0.15998104 0.06356112 0.08493684
-0.034391288 0.30443817 0.106664866 0.031029431 0.0035149248 0.041127894 -0.20994426 0.16065462
0.11794332 0.008882267 1.6004147e-05 -1.5326943e-05 -1.5040551e-05 1.5894278e-05 1.552183e-05 -1.5311007e-05
0.25245482 -0.03317809 0.08097379 -0.026414474 0.31987202 -0.34583947 -0.0021323327 -0.30824354
0.32084686 -0.06322653 0.032700963 -0.0048069926 0.27130282 -0.12796605 -0.5665885 0.15918624
0.0151018845 0.46039712 0.10768474 -1.4311402 -0.2048289 0.40764895 1.2474577 0.69056004
0.3780951 -0.4157741 0.120687835 0.57229906 -0.38490665 -0.33777168 -0.5257634 -0.12174872
0.1008363 0.16746919 0.012728051 0.09455758 0.19144069 0.09668783 -0.015733488 0.96055156
0.028932687 -0.33511615 0.04169626 0.27531216 -0.12828958 0.06267891 0.12398964 -0.038402535
0.40899718 0.09575758 -0.029339205 0.059268575 0.064105526 -0.1779623 0.14335258 0.16607872
-0.007423011 1.6296997e-05 1.5301554e-05 1.5449355e-05 1.5928425e-05 1.56678e-05 -1.5526592e-05 0.23977917
-0.04004095 0.08932663 -0.028842838 0.367712 -0.3532443 -0.015520889 -0.31425953 0.3330338
-0.08480019 0.03205513 0.015633289 0.27346638 -0.055249676 -0.55186635 0.11681929 -0.09280946
0.524308 0.090812124 -1.4207827 -0.26319322 0.35810506 1.3073349 0.71688163 0.32118398
-0.41782838 0.048561096 0.5107364 -0.39342678 -0.305392 -0.68679404 -0.12319496 0.13215734
0.22781572 0.053984627 0.08934073 0.21212786 0.1297709 -0.009459795 0.8207814 0.035930943
-0.23999396 0.043656815 0.27263218 -0.11431194 0.05109055 0.15203455 -0.05548834 0.37604457
0.15126202 0.06809382 0.018317925 0.070739 -0.230769 0.1347731 0.17888953 -0.019051638
1.5859014e-05 -1.5174462e-05 1.5719956e-05 1.5985077e-05 1.5655627e-05 -1.5429046e-05 0.2091677 -0.052493587
0.092258215 -0.008063621 0.38518512 -0.3474068 -0.005707116 -0.32574955 0.3129786 -0.10015509
0.021951308 0.013032121 0.283243 0.0026512085 -0.5298965 0.17186864 -0.0923751 0.5106494
0.09547793 -1.4081452 -0.1635854 0.3043138 1.3300328 0.7378307 0.34023133 -0.3685265
-0.030401919 0.5790628 -0.40123162 -0.27889517 -0.7385512 -0.09435446 0.1072283 0.27072224

transl f4 [115, 3]
00000000: c693 aa3e 48ac 783f f5e6 7a3f 7538 a63e
00000010: 5a2d 7b3f 0a3a 713f 9eb1 a13e 49e8 7d3f
00000020: fbea 673f f620 9c3e 819f 7f3f 1710 5e3f
00000030: ca5f 963e c526 803f b660 533f 77cc 903e
00000040: 9b54 7f3f 69ff 473f 0871 8a3e 5bd4 7c3f
00000050: 0ca3 3b3f 3cf3 833e c838 793f b0b7 2f3f
00000060: 90d0 773e d3e3 773f 3484 243f ada3 683e
00000070: 0f11 783f 410d 1a3f 49b0 593e eceb 793f
00000080: 6a77 113f 16cc 4b3e 7932 7b3f 9af7 073f
00000090: 5891 3c3e 6985 7c3f ebaf fd3e d5d4 2c3e
000000a0: de22 7d3f 20ec e83e 85b7 1b3e c3ba 7c3f
000000b0: b3e4 d13e 455a 093e a7f5 7a3f 801a b83e
000000c0: a781 ef3d 974f 783f 5b02 9e3e 1f56 d63d
000000d0: 8b11 783f d6ce 853e 5ca1 b73d adc2 783f
000000e0: 6981 5c3e 7ade a13d 9821 7b3f 8200 323e
000000f0: 23b6 883d e9c7 7c3f 2327 073e b02f 5b3d
00000100: 6e6f 7d3f e90c b03d 4c9b 243d b78b 7c3f
00000110: 943e 143d 80ee d53c 9a96 793f 9252 8bbc
00000120: 9e46 263c 6221 753f 845b 98bd d8ef e1bb
00000130: 2b1b 733f 522e 00be 4cc1 ccbc 1ae4 733f
00000140: dd0f 2bbe 8d98 34bd 61b3 763f 96cc 4dbe
00000150: 20e8 83bd 7a5e 7a3f 3f0e 6cbe f4ae acbd
00000160: 8e56 7d3f aad8 85be 6dc1 d2bd cfb4 7e3f
00000170: 4ba0 98be 5007 f8bd 8bd4 7e3f fd05 aebe
00000180: 6fdf 0ebe ce6d 7d3f 3c7b c6be fd19 22be
00000190: 7358 7a3f 2896 e0be a98d 34be 0bec 753f
000001a0: f417 f9be ada1 43be 6a5d 743f c92c 07bf
000001b0: 56e4 4bbe fb85 753f caa1 0fbf c99a 4fbe
000001c0: 5f57 783f 1c98 16bf f66b 54be 19ed 7a3f
000001d0: ac4c 1cbf 537d 5abe d562 7c3f 2815 20bf
000001e0: 8176 64be 0193 7c3f 6d11 24bf 52ab 71be
000001f0: 1e80 7b3f f4d2 29bf 7231 7fbe b09a 793f
00000200: 9a28 30bf c4aa 84be b15a 763f 0f1c 36bf
00000210: 48ca 8abe 8ca5 743f f6b9 3bbf 812a 90be
00000220: d8c1 733f c639 40bf 7777 94be 8a44 743f
00000230: 5ea2 43bf 4c79 97be 5fc5 753f 07f5 45bf
00000240: 671b 9abe d393 773f 1800 48bf 5a1b 9cbe
00000250: 85d7 783f 4153 49bf 3b3c 9dbe 7acf 793f
00000260: 1f3d 4abf f43c 9ebe bc37 7a3f 82b8 4abf
00000270: cbe3 9ebe 015c 7a3f dc89 4abf a539 9fbe
00000280: eb48 7a3f 4121 4abf bb0c 9fbe ff11 7a3f
00000290: fb2b 49bf 78b2 9ebe 49f9 793f 8d99 47bf
000002a0: a00e 9ebe b6b2 793f 788a 45bf fc3e 9ebe
000002b0: c1f7 783f cdb5 42bf d0dc 9ebe 3a69 783f
000002c0: 361c 40bf ae1b 9fbe 5e05 783f e93e 3dbf
000002d0: cdb6 9ebe 0eef 773f 80e1 39bf dd74 9dbe
000002e0: d7ed 773f d52c 36bf 4cd3 9bbe 9c82 783f
000002f0: bd7c 32bf 8b5c 99be 14d7 793f cdbf 2ebf
00000300: 3df4 96be cf9b 7b3f e4f4 2abf 095b 94be
00000310: fcda 7c3f dbf6 26bf 3f17 92be 8934 7d3f
00000320: 5ca8 22bf 497b 8fbe 6cc4 7c3f a901 1ebf
00000330: 5ec7 8cbe 75dd 7b3f 92c8 18bf 1674 89be
00000340: 1aa4 7a3f 9be5 12bf 8004 85be 7a74 793f
00000350: 61bf 0cbf acda 7ebe 2eda 773f f1fa 05bf
00000360: 93b7 71be f7f2 753f 3109 fdbe 4414 65be
00000370: 20f9 743f 779d ecbe aab1 58be 50e7 743f
00000380: 7d6d ddbe d907 4bbe b196 753f 2813 cfbe
00000390: b609 3dbe dda3 763f 93f2 c1be 44a0 31be
000003a0: b252 783f 5abf b6be 48cf 25be 1d39 7a3f
000003b0: 8c9c acbe 9fc2 19be 61db 7b3f c9fd a1be
000003c0: 7017 0cbe 30bf 7c3f 0b1e 95be 558b fdbd
000003d0: dd62 7d3f 26c3 85be 50c5 e2bd 894e 7d3f
000003e0: 7a1f 67be 43bc c9bd 52f0 7b3f a02e 3dbe
000003f0: 31da b2bd 6853 7a3f 85b9 10be 225b 9fbd
0.33315867 0.9713788 0.9800866 0.32464948 0.98116076 0.94229186 0.31580824 0.99182564
0.90592927 0.30493897 0.9985276 0.867433 0.29369956 1.0011832 0.82569444 0.28280994
0.9973847 0.781241 0.2703936 0.9876153 0.73295665 0.2577151 0.97352266 0.6863966
0.24200654 0.9683201 0.64264226 0.22718687 0.9690103 0.60176474 0.21258654 0.97625613
0.56822836 0.19902071 0.9812389 0.53112185 0.18414819 0.9864107 0.49548277 0.16878064
0.9888133 0.4549265 0.15206726 0.98722476 0.40994796 0.13413341 0.98031086 0.35957718
0.11694651 0.96996444 0.30861172 0.10465645 0.9690177 0.26134366 0.08966324 0.9717205
0.21533741 0.07903762 0.98098135 0.17383006 0.06675365 0.9874254 0.13198523 0.053512275
0.98998153 0.085962124 0.040187165 0.9865069 0.03619249 0.026114702 0.97495425 -0.017007146
0.010148672 0.95754063 -0.0743933 -0.0068950467 0.9496333 -0.1251767 -0.024994515 0.9526993
-0.1670527 -0.044090796 0.9636746 -0.20097575 -0.06440759 0.9780041 -0.2305231 -0.08431807
0.98960197 -0.26141864 -0.10290799 0.9949464 -0.29809794 -0.1211077 0.99543065 -0.33988944
-0.1395242 0.98995674 -0.38765895 -0.15830226 0.9779121 -0.4386456 -0.17632164 0.960633
-0.48651087 -0.19104643 0.9545504 -0.5280271 -0.19911322 0.9590756 -0.56106246 -0.2027389
0.9700832 -0.5882585 -0.20744309 0.9801803 -0.6105449 -0.2133687 0.98588306 -0.6253228
-0.2231083 0.9866181 -0.6408909 -0.2360051 0.98242366 -0.66337514 -0.24921206 0.9750166
-0.68811953 -0.25911534 0.96232134 -0.71136564 -0.27107453 0.95565104 -0.7333063 -0.28157428
0.9521766 -0.75088155 -0.28997394 0.9541708 -0.7641963 -0.2958473 0.9600429 -0.7732701
-0.3009903 0.96709937 -0.78125143 -0.30489618 0.97203857 -0.7864266 -0.30710015 0.9758221
-0.78999513 -0.3090588 0.97741294 -0.79187787 -0.31033167 0.97796637 -0.79116607 -0.31098667
0.97767514 -0.7895699 -0.310644 0.9768371 -0.78582734 -0.30995536 0.97646004 -0.77968675
-0.30870533 0.97538316 -0.7716441 -0.30907428 0.9725304 -0.76058656 -0.31027842 0.97035563
-0.75043046 -0.31075805 0.9688319 -0.7392412 -0.3099884 0.96849144 -0.7260971 -0.30753222
0.9684729 -0.7116216 -0.30434644 0.97074294 -0.69721586 -0.29953417 0.9759381 -0.68261415
-0.29483214 0.9828462 -0.66779923 -0.28975704 0.98771644 -0.6522042 -0.2853336 0.9890829
-0.63538146 -0.28023747 0.98737216 -0.61721283 -0.27495855 0.9838479 -0.59681046 -0.2684638
0.9790665 -0.573816 -0.25979996 0.97443354 -0.5497952 -0.24888104 0.9681729 -0.5233603
-0.23605184 0.9607386 -0.49421075 -0.22371012 0.95692635 -0.46213886 -0.21161523 0.95665455
-0.43247595 -0.19827212 0.9593306 -0.40444303 -0.18460736 0.96343786 -0.37880382 -0.17346293
0.97001183 -0.35692865 -0.16192353 0.977434 -0.33713186 -0.15015648 0.9838162 -0.31638935
-0.13680816 0.9872923 -0.29124483 -0.12380091 0.9897898 -0.2612545 -0.110727906 0.9894796
-0.22570601 -0.09850361 0.98413575 -0.18474817 -0.08733023 0.9778352 -0.1413327 -0.07781054

left_hand_pose f4 [115, 12]
00000000: 0574 a0bb 09af e03e af22 bd3e 9e05 033f
00000010: f772 42be 9867 bebe aec3 bcbe 13d0 07be
00000020: 5bb2 e7be 5a5e 50bf 850f 133f 27a1 8bbf
00000030: c100 c43d 3007 e73e 259a ad3e 9aa7 233f
00000040: 9ed1 97be 1aea fcbe 25e8 ccbe be8d 82bc
00000050: f6cb 05bf 5911 56bf 798c f83e c0fe 70bf
00000060: a704 8c3d 30dc bd3e 9d82 8f3e 1d6a 2e3f
00000070: 62bd 32be 2351 e7be 6a35 05bf 48ab 36be
00000080: 3826 b5be 1a44 5dbf c93b af3e a293 75bf
00000090: a2f0 903d 98b6 db3e 8778 a23e f9ca 1e3f
000000a0: d825 4fbe f451 b8be 11bd 07bf ed66 78bb
000000b0: 3bfd f3be 5c18 51bf c9fb 3e3e 4167 66bf
000000c0: 717e 2bbc 16b5 ff3e 84d0 993e 5b19 283f
000000d0: 11ee 58be ba82 bebe 4d7b f1be 41f3 523e
000000e0: 0578 dcbe 667b 30bf 388b 673e d0d7 29bf
000000f0: e59f b9bd 1797 073f 6a64 9f3e 9264 233f
00000100: ed1b 38be f4f9 a2be 6db1 15bf 22ac 603e
00000110: 957e 1fbf eeb5 28bf 5b6a 353e 7824 08bf
00000120: 08ff 66be d36b 043f 829c a53e a577 2a3f
00000130: 11cf 83be ab56 e9be c70e d0be 51c1 2f3e
00000140: 8bf8 babe c691 0abf 354f 7d3e 16ba d1be
00000150: 6eac 48be a0bf 003f 9fa7 a03e bbba 133f
00000160: 081e b0be e8b1 13bf c79b 84be 35d4 a63d
00000170: 4816 b0be 2503 0ebf 2fbd 073f 653b 27bf
00000180: 4852 cebd cbcd d93e dd1b 803e fae8 0d3f
00000190: 4903 b0be cb87 1dbf e4ce e2bc b4d8 2abd
000001a0: 6ffb 07bf fd3b 3cbf 48a5 2f3f 3788 50bf
000001b0: 049b 92bd af62 e83e 74ad 913d 8901 163f
000001c0: d2d9 11bf df11 82bf c820 b93e 1009 3b3d
000001d0: 51c6 debe 0b0b 33bf e526 8a3f 022d 52bf
000001e0: 2d58 85be 8e49 a53e 99f7 3a3d c0fa 2c3f
000001f0: 550f a5bb bbdc 0abf 4a6a e63d 6583 4ebe
00000200: ee97 00bf 43da 62bf c8cf c83e 0711 41bf
00000210: 97b1 15be 13bb 9c3e 077c 3f3e b386 373f
00000220: cd01 5b3d d267 3abf b2f6 163d 8f8f 03bf
00000230: 0aca 03bf 77eb 77bf efae 383f a7fe 8abf
00000240: bf7f 86bd 9aba a03e 47d2 433e 58d0 233f
00000250: 2086 1abd f14f 3dbf 62bf d33d f813 2cbf
00000260: c22f f2be e9a0 8abf be0b 923f d26e aebf
00000270: cbdf c5bd b2fd 9b3e 4efe 173e e55c 153f
00000280: 5951 1cbe 04a3 2ebf 392f 7e3e a7b3 24bf
00000290: 3a34 07bf 4f01 8fbf df92 aa3f d816 b7bf
000002a0: 7f2d d3bd f1bf 8f3e f867 2c3e c1ad 0b3f
000002b0: 581b 5bbd 4d68 19bf 33ee 4c3e 6091 3ebf
000002c0: 4476 f5be e8aa 9dbf ecbb 943f 0eaf bebf
000002d0: c8a9 1bbe 6049 9a3e fc3a 403e 9916 253f
000002e0: 39d2 593d 8b01 21bf 4abc fcbb b2ca 39bf
000002f0: ada3 0cbf 4ac8 91bf bdda 823f a1a5 9ebf
00000300: 7fab d6bd 8e56 d93e e0ae 803e 55fe 1e3f
00000310: 3e88 d33a 3ef0 f0be 793c 88bc 8ff2 e9be
00000320: d3d4 33bf 3cf4 89bf 80d2 a13f 8d00 90bf
00000330: 3753 47be f184 ba3e 20bd 373e 3886 1c3f
00000340: 2e76 17be cf77 b9be 4f14 053b 68fe a1be
00000350: 997a 04bf 5f6d 7dbf f7d7 733f 5a39 7ebf
00000360: eb97 46be b112 b93e 2fee 303e 4fae 1f3f
00000370: 5010 6bbe 9523 f2be 7cf5 80be 003b 12be
00000380: 1b70 d6be 7bb2 5dbf afc2 233f 1545 25bf
00000390: 7985 99bd 2a4e c33e 7065 343e 8015 3a3f
000003a0: 4c8c 9fbe 4562 0dbf 23ec 04be ec0e 4e3d
000003b0: f236 bebe f764 50bf 2842 8e3e 14c2 14bf
000003c0: 1744 fabd 0d17 db3e b75f 7e3e 220d 1d3f
000003d0: 886d 71be 3b8f d4be 80ff 86be a909 0a3e
000003e0: ae93 c1be b990 3fbf 211c e33e 97c8 1dbf
000003f0: 951f cbbd 903a ee3e e34b af3e 0ba9 173f
-0.004896643 0.4388354 0.36940524 0.51180446 -0.18989168 -0.3718841 -0.36868042 -0.13262968
-0.45253262 -0.8139397 0.57445556 -1.0908555 0.09570456 0.4512267 0.33906665 0.63927615
-0.29652113 -0.49397355 -0.40020862 -0.015936729 -0.52264345 -0.8362022 0.48544672 -0.9413872
0.06836825 0.37082052 0.28029338 0.68130666 -0.17455056 -0.4517909 -0.5203463 -0.17838776
-0.3538072 -0.8643204 0.342253 -0.95928395 0.07077147 0.42912745 0.3173258 0.6202846
-0.2022928 -0.36000025 -0.5302287 -0.0037903145 -0.47654137 -0.81677794 0.18650736 -0.900013
-0.010467158 0.49942845 0.30041897 0.6566369 -0.21184565 -0.3720911 -0.47164384 0.20600607
-0.43060318 -0.6893829 0.22611701 -0.6634493 -0.090637006 0.5296492 0.31131297 0.63825333
-0.17979403 -0.31831324 -0.58473855 0.21940663 -0.62302524 -0.659026 0.17716353 -0.53180647
-0.22558224 0.51727027 0.32345968 0.66588813 -0.25743917 -0.45573935 -0.40636274 0.17163588
-0.36517748 -0.5412868 0.24737246 -0.40962285 -0.19597027 0.50292397 0.31377885 0.57706803
-0.34397912 -0.5769334 -0.259001 0.08145944 -0.34392 -0.5547355 0.53023046 -0.65325004
-0.10074288 0.4253982 0.25021258 0.5543362 -0.34377506 -0.6153533 -0.027686544 -0.04171057
-0.5311803 -0.73529035 0.68611574 -0.8145785 -0.07158473 0.4538779 0.07113162 0.5859609
-0.5697299 -1.0161704 0.36157823 0.04566294 -0.43510678 -0.69938725 1.079312 -0.82099926
-0.26043835 0.3228268 0.045646284 0.67570114 -0.005037228 -0.5424306 0.11250742 -0.2016731
-0.50231826 -0.8861429 0.39221025 -0.75416607 -0.14618526 0.30611476 0.18699656 0.7168991
0.053468514 -0.7281467 0.03685636 -0.5139093 -0.5148016 -0.96843666 0.7214193 -1.0858964
-0.065673344 0.31392366 0.19123183 0.6398978 -0.037725568 -0.73950106 0.10339238 -0.6721797
-0.4730206 -1.0830356 1.1409833 -1.362757 -0.09661826 0.30466992 0.14843103 0.5834487
-0.15265407 -0.6821749 0.24822702 -0.6433663 -0.52814066 -1.1172274 1.3326072 -1.4303846
-0.10311412 0.28076127 0.16836536 0.54562 -0.053492874 -0.59924775 0.20012741 -0.74440575
-0.47941792 -1.2317781 1.1619849 -1.4897172 -0.15201485 0.30134106 0.18772501 0.64487606
0.053179 -0.6289298 -0.0077128755 -0.72574914 -0.5493725 -1.1389248 1.0223004 -1.2394296
-0.10481929 0.42448848 0.2513342 0.6210683 0.0016138626 -0.4705829 -0.016630398 -0.4569287
-0.7024662 -1.077766 1.2642365 -1.1250168 -0.19465338 0.3642955 0.17943239 0.611423
-0.14791176 -0.3622422 0.0020306294 -0.3163941 -0.5174957 -0.9899501 0.9525141 -0.9930626
-0.1939389 0.36147073 0.1727836 0.6237535 -0.22955441 -0.47292772 -0.2518729 -0.14280319
-0.41882405 -0.86600465 0.6396894 -0.64558536 -0.07496161 0.38145572 0.1761682 0.72689056
-0.31161726 -0.5522807 -0.12980704 0.0503072 -0.37151295 -0.8140406 0.27784848 -0.5810864
-0.12220018 0.42791024 0.248412 0.61348164 -0.23576939 -0.41515526 -0.26366806 0.13480248
-0.37807983 -0.74830204 0.44357398 -0.616342 -0.09918133 0.46529055 0.34237584 0.59242314

right_hand_pose f4 [115, 12]
00000000: 57d4 c13e 8090 0e3f 45ff 3b3e d4a8 483f
00000010: 2ac6 1cbf a2a4 e4be 9e3c 243e 80b7 123e
00000020: bcca 53bf 8447 8ebf 9a3f 923f fb4b bbbf
00000030: 8b41 d73e 5e50 e83e d609 1a3e 9e84 333f
00000040: 60cf 09bf 47c4 08bf e0d8 4f3e 72b3 60be
00000050: ba8d 33bf 16fa 8cbf e2c7 be3f 7141 d7bf
00000060: 708f cd3e 1152 ea3e fed4 e23d 429a 3a3f
00000070: ddd5 0ebf a71e 11bf 16ce 5e3e 3da6 aabe
00000080: cd1e 53bf 270f a0bf feaf ce3f eebc debf
00000090: 0e0b ab3e ae60 e53e b93c 383e 269a 3a3f
000000a0: 6053 f7be 34a9 03bf f122 433e 5667 01bf
000000b0: b8ab 4ebf 7177 a1bf 0108 0140 cdac ebbf
000000c0: 707f cd3e d0a2 093f 9318 743e 8a97 563f
000000d0: 2dbd 18bf 4534 e2be efed b2bb 0069 96be
000000e0: c1b8 53bf 522b 8cbf 302b d13f 5d2c d6bf
000000f0: e3b1 a13e 8384 fb3e 7660 393e 145d ff3e
00000100: 2443 1abf 3646 f1be 597f 9a3e 331f 2bbe
00000110: 86e1 1abf 0722 89bf 1c65 bb3f fe8f debf
00000120: eb8f 8a3e 8ed0 033f 4e38 6b3e eeed 103f
00000130: f47f 2ebf efc4 f8be 242f 793e e4a5 3fbd
00000140: 4040 21bf d444 85bf cefa b73f 063f c8bf
00000150: 71fa 9c3e f846 053f 932e 813e 44e4 1f3f
00000160: fc0e 23bf 59f3 e2be e15f f33d 81b0 afbc
00000170: 8cc6 51bf b368 7abf b8cf d93f e479 bbbf
00000180: 8b79 a43e b1b7 003f 75aa 543e 80ba 3b3f
00000190: c6fb 2fbf bb4a 08bf 2250 903d d7f7 9f3c
000001a0: c14d 45bf 8eba 5cbf ad04 ae3f c147 aabf
000001b0: c145 aa3e 3cab e53e ca9f 7e3e a06b 4a3f
000001c0: 34d5 fcbe 13c2 f1be c34f fbbd 7554 82be
000001d0: 53d9 54bf 92aa 86bf 2bd8 a43f 853f cbbf
000001e0: 94e9 a23e 09a9 eb3e 8eeb 473e aef9 373f
000001f0: 0a5d b2be 7352 b3be 50e4 6cbd 0091 9dbe
00000200: e6c8 67bf 23e5 90bf ebec 963f 24c1 cebf
00000210: ecfb b63e 8cdb ea3e a138 233e 6b26 4f3f
00000220: 4c64 08bf 327a e8be e171 9f3c ea1e 1cbe
00000230: f0c3 4cbf 45bb 8abf a339 943f 3223 b3bf
00000240: 674f a93e 7422 033f f200 553e 4456 483f
00000250: 4902 05bf e5cc babe 2cd3 b5bd 96b1 2dbe
00000260: d3a6 3abf a884 7cbf d707 9b3f f9eb b3bf
00000270: ba8f ab3e 2d4c da3e 2036 1a3e 2a08 3b3f
00000280: 3142 10bf f675 f0be bc0b 873e 0486 8fbe
00000290: 8aef 43bf 288d 91bf 09aa c73f 7bcc c6bf
000002a0: 1eb8 bc3e e1d9 b23e 7770 d13d f3ac 273f
000002b0: 7f6a 27bf fd8a 15bf ec5c 0d3f d1d8 3abf
000002c0: a9bc 5bbf 7b13 babf 34fd 0f40 2b3a 04c0
000002d0: 9b43 873e 9c60 b53e e2c2 e43a 3747 963e
000002e0: c4dd ffbe 3c46 32be ab76 533f daa9 37bf
000002f0: b3c8 2bbf 95a3 bcbf 23f7 f03f fcf9 0dc0
00000300: afc0 783e e42d f43e bb1f c83d f4cd 043f
00000310: 0a6f 15bf 16e5 bdbe fb07 063f 87f4 0abf
00000320: 0a78 5fbf 2610 aebf 52a9 1b40 482b febf
00000330: 6a5c 723e 92a0 f23e c44f d03d 1c0c 163f
00000340: 0206 2dbf d279 d1be 9a58 1b3f e229 09bf
00000350: 6426 6cbf d4aa aebf a942 2040 c0d8 efbf
00000360: b0d3 893e 4593 c03e daaa 203d a8c3 ac3e
00000370: 1042 26bf f657 04bf 86d3 413f 5cc3 10bf
00000380: 09a6 54bf 21e6 a5bf 783e 3140 0f3d edbf
00000390: bcf9 9c3e 31ea ca3e 39a2 033d 09fb 173f
000003a0: b281 0dbf 46da 11bf 7758 de3e 7a00 2ebf
000003b0: 1382 72bf cc35 bdbf 9008 0540 0ddd ddbf
000003c0: f167 a23e a713 063f 4afa b13d 9d88 333f
000003d0: 1679 2bbf 31c2 32bf 914e ad3e 02c9 e7be
000003e0: 77fe 5bbf 564b 96bf 49d9 0140 106d cdbf
000003f0: 2b30 963e c72d ea3e 6d99 283e 7c73 353f
0.37857315 0.5568924 0.18359096 0.7838261 -0.61239874 -0.44656855 0.16038749 0.14327812
-0.82731223 -1.1115575 1.142566 -1.4632562 0.42042193 0.45373815 0.15042815 0.7012423
-0.53832054 -0.53424495 0.20297575 -0.21943453 -0.7013813 -1.101382 1.4904749 -1.6816846
0.40148497 0.45765737 0.11075781 0.7289163 -0.5579508 -0.56687397 0.21758303 -0.33329955
-0.82468873 -1.2504624 1.6147459 -1.7401407 0.33406872 0.44800323 0.17991914 0.7289146
-0.48305798 -0.5143006 0.19056298 -0.50548303 -0.8073077 -1.2614576 2.0161135 -1.841211
0.4013629 0.5376406 0.238375 0.8382498 -0.5966366 -0.44180503 -0.005460493 -0.29376984
-0.8270379 -1.095072 1.6341305 -1.6732289 0.3158103 0.49124536 0.18103203 0.498757
-0.602587 -0.4712388 0.30175284 -0.1671112 -0.6050037 -1.0713509 1.4640231 -1.7387693
0.27062926 0.51490104 0.22970697 0.5661305 -0.6816399 -0.48587748 0.24334389 -0.046789065
-0.6298866 -1.041163 1.4373415 -1.5644233 0.30659822 0.52061415 0.25230846 0.6245768
-0.6369474 -0.44326285 0.11883522 -0.021446468 -0.81943583 -0.9781601 1.7016516 -1.4646573
0.3212398 0.5028029 0.20768149 0.7333145 -0.6874355 -0.5323903 0.07046534 0.019527359
-0.7707177 -0.8622216 1.3595177 -1.3303148 0.33256343 0.44857204 0.24865642 0.7907047
-0.4938141 -0.4721838 -0.12271073 -0.2545506 -0.8314411 -1.0520804 1.2878469 -1.587876
0.3181883 0.460274 0.1952345 0.71865356 -0.34836608 -0.3502384 -0.057834923 -0.3077469
-0.9054092 -1.1319927 1.1791052 -1.6152692 0.35739076 0.45870626 0.15939571 0.80917996
-0.5327804 -0.45405728 0.019463481 -0.15246168 -0.79986477 -1.08384 1.1580089 -1.3995116
0.33068392 0.51224446 0.20801142 0.7825663 -0.5195661 -0.36484447 -0.088781685 -0.16962275
-0.72910804 -0.9863992 1.2111768 -1.4056388 0.33508092 0.42636243 0.1505971 0.7305933
-0.56351 -0.46964997 0.2637614 -0.28031933 -0.7653738 -1.1371202 1.5598766 -1.5531152
0.3685922 0.34931853 0.10226529 0.65498275 -0.65396875 -0.58415204 0.5521991 -0.72987086
-0.8583475 -1.4537195 2.2498293 -2.0660503 0.26418766 0.3542527 0.0017453099 0.29351208
-0.4997388 -0.17409605 0.8260295 -0.7174355 -0.6710312 -1.4737421 1.882542 -2.2183828
0.24292253 0.47691262 0.09771677 0.5187676 -0.5837256 -0.3708884 0.5235593 -0.5427937
-0.8729254 -1.3598678 2.4322095 -1.9856958 0.23668066 0.4738813 0.10171464 0.5861223
-0.6758729 -0.40913254 0.6068207 -0.53579533 -0.9224608 -1.3645883 2.5040686 -1.8738022
0.26919317 0.37612358 0.039225437 0.33743024 -0.64944553 -0.5169672 0.75713384 -0.56548095
-0.8306585 -1.2960855 2.7694378 -1.8534259 0.30659282 0.396318 0.03213713 0.59367424
-0.55276024 -0.56973684 0.43426868 -0.6796948 -0.9472973 -1.4782043 2.0786476 -1.7333084
0.31719926 0.5237374 0.08690317 0.7013033 -0.6698164 -0.6982756 0.33849004 -0.45270544
-0.8593516 -1.1741741 2.028887 -1.6048908 0.29333624 0.4573805 0.16464777 0.7087934

jaw_pose f4 [115, 3]
00000000: 0376 953d ddfa 743b 7d00 903a a933 9a3d
00000010: e141 ca3b daf8 4c3b cae9 973d 7713 f43b
00000020: b014 823b d3c9 843d 685d 353c 6d11 853b
00000030: f205 6d3d 7815 263c ca44 a53b d393 223d
00000040: ba7c 3c3c bccd 953b f40c 3e3d 69ad 1c3c
00000050: bc7c a23b 405c 643d 0e71 203c 8681 ae3b
00000060: 2f53 6d3d d98a 253c 892e a73b 0bcd 753d
00000070: 099c 513c 5c62 9c3b 1285 4e3d 911f 263c
00000080: 38e2 af3b ed76 963d 0b44 1a3c d9ca ae3b
00000090: f709 8d3d d190 1d3c 5b97 ab3b a302 873d
000000a0: 021c 193c 3007 a13b 2981 833d b6b1 073c
000000b0: 0056 993b 9272 aa3d e08c 053c 9163 903b
000000c0: 7590 b03d 06c3 0a3c 08a7 8e3b f2f8 9a3d
000000d0: 4083 df3b 3174 0c3b 13bb 913d 0a47 813b
000000e0: 95c8 013b fa43 7e3d 3c3e b13b 40c2 dd3a
000000f0: 12ad 783d 8447 cf3b 6d7d 413b 037a 463d
00000100: a523 c83b 3c74 e33a 6507 373d a524 d13b
00000110: b34d 413b 4f3c 2e3d d55e ad3b 6391 ef3a
00000120: 71f6 883d b911 f53b b541 7c3b 6918 583d
00000130: ec2c ff3b 9149 823b 1796 483d 15c0 b73b
00000140: 6a78 e03a f0be 933d 69ce 363b fb7d b33a
00000150: 2420 863d 26e0 453b 0e08 c93a ec74 903d
00000160: 0abf 413b a7d9 423a f0ab 833d 2fef 603b
00000170: c8f2 c33a fe02 af3d f1fd 923b f6a3 b63a
00000180: 4908 cd3d feee 4f3b 4be4 a83a bac5 d73d
00000190: dc98 b73b fa23 fa3a 2cd2 e83d 0ee8 113a
000001a0: 2bdc 1a38 2b74 da3d d56e 64b9 e7f0 7937
000001b0: 3f76 c53d df58 b8ba 2171 5dba 6c6b 0b3e
000001c0: d018 d63a f9b8 1c3a 2330 023e 7285 433b
000001d0: f0c7 b83a 285a f53d d204 863a 8c1a 1b3a
000001e0: 4475 ab3d 0908 4cb7 8673 6f39 d8a2 bc3d
000001f0: ea3c 0bbb 8d68 35ba 69db 9a3d 3cc3 debb
00000200: b202 4dbb 29b0 a83d ddb7 28bc 032a 89bb
00000210: 5c1e 873d 3cd3 fdbb 0bbe 38bb 0c5f a33d
00000220: 4065 0bbc 53c6 82bb 1042 b93d 3985 0ebc
00000230: 7086 85bb 4a88 c03d d287 0dbc 35a8 73bb
00000240: 297b e63d bf32 d5bb 22c2 bfba 15ff 013e
00000250: b6f7 07bc 6c51 73bb dd4f f93d 7c8b 27bc
00000260: 44a5 91bb 2a7b 003e e5eb 1bbc fc97 99bb
00000270: a729 033e f98d 61bc a7e1 82bb 3835 ea3d
00000280: 5534 38bc 4a18 a5bb f341 f93d 4610 3ebc
00000290: 95eb a2bb afaa fa3d 60fe 20bc 2318 91bb
000002a0: 68b8 e83d ade1 1bbc 614f 93bb b073 f03d
000002b0: f7e4 03bc b8b1 6abb 7290 fa3d f7d3 03bc
000002c0: d795 69bb 59ac e73d af9b 12bc 8029 86bb
000002d0: 3a82 ce3d 57fd 46bc 5af6 80bb 3dfb ca3d
000002e0: 30bc 55bc c557 87bb 995d c93d bf34 33bc
000002f0: 7684 a5bb 5b08 e43d 7a53 57bc 17e4 85bb
00000300: ea6f da3d 5769 69bc 1972 88bb 9c45 cd3d
00000310: 3a43 2ebc 8755 a3bb 4f22 dc3d b780 4cbc
00000320: 3a6e 94bb bd65 d13d 70c2 2bbc 066b 9abb
00000330: c931 f33d c63c 25bc c9aa 8fbb 4ae4 133e
00000340: 8228 21bc d765 8fbb 5cc3 193e b058 1cbc
00000350: 94a5 92bb 30c8 1c3e 4397 01bc 8e6d 7dbb
00000360: 9ad2 173e 99d3 babb 2265 1fbb ac94 133e
00000370: d9a3 a2bb 0824 c7ba 1e79 083e f2d4 83bb
00000380: e407 a6ba 77e3 023e a4d4 a9bb d4f0 6bba
00000390: f12c 033e eb75 a3bb bdc4 5cba 628b 013e
000003a0: 2750 97bb 2cc5 32ba 7082 f53d 7668 1abb
000003b0: d0b3 72b9 bffd 033e eb8c 0ebb 7468 9eb9
000003c0: 9933 003e 36ca 19bb b1a5 2eba 071a 093e
000003d0: 4ba6 7aba 819f 99b9 a54c 0b3e 6eb1 92bb
000003e0: 0187 00bb 973e 1a3e 2f62 22bb 36c7 b9ba
000003f0: 9a4b 1d3e 54f2 49bb 3723 f2ba 17a9 263e
0.072978996 0.0037380971 0.0010986474 0.07529385 0.006172404 0.0031276257 0.074176386 0.0074486095
0.0039697513 0.064838074 0.011069633 0.004060915 0.057866998 0.0101369545 0.0050436007 0.039691757
0.0115043465 0.0045716446 0.04639907 0.009562829 0.004958717 0.05575204 0.009792579 0.005325499
0.05794066 0.010103905 0.005101983 0.060009997 0.012793549 0.0047724675 0.050419874 0.010139362
0.0053675435 0.07346902 0.009415637 0.00533424 0.06886666 0.009617046 0.005236549 0.065923
0.0093450565 0.004914187 0.0642112 0.008282116 0.0046794415 0.08322634 0.008151263 0.0044064005
0.08621303 0.008469349 0.004353408 0.07567014 0.006821066 0.002143156 0.0711576 0.003945236
0.0019803394 0.062076546 0.0054090302 0.0016918853 0.060711928 0.006325664 0.0029524222 0.048456203
0.006107765 0.0017353366 0.044684786 0.006382542 0.0029495775 0.042537984 0.005290846 0.0018277582
0.0668763 0.0074789193 0.0038491313 0.052757654 0.0077873375 0.003976055 0.04897126 0.0056076148
0.001712573 0.07214153 0.0027894026 0.0013694161 0.06549099 0.0030193417 0.0015337483 0.07053551
0.002956333 0.00074329454 0.06429279 0.0034322252 0.0014949674 0.085454926 0.0044858386 0.0013934362
0.10011346 0.0031728144 0.001288542 0.1053576 0.005602939 0.0019084208 0.11368212 0.000556589
3.692151e-05 0.106666885 -0.00021785063 1.4897646e-05 0.09641694 -0.0014064572 -0.00084473385 0.13615197
0.0016334299 0.0005978491 0.12713675 0.0029834178 0.0014097672 0.119800866 0.0010224825 0.00059167366
0.08371976 -1.2161218e-05 0.00022835852 0.092107475 -0.0021246024 -0.00069201813 0.075613804 -0.006798176
-0.0031282124 0.08236725 -0.010297743 -0.0041859164 0.065975875 -0.0077461284 -0.0028189446 0.07977113
-0.008508027 -0.0039909272 0.090458035 -0.008698755 -0.004074864 0.09400995 -0.008638339 -0.0037179117
0.1125396 -0.0065062935 -0.001463 0.12694962 -0.008298805 -0.0037127389 0.12173436 -0.010226127
-0.00444475 0.12546983 -0.009516691 -0.0046873074 0.12808858 -0.013766759 -0.003994185 0.11435932
-0.011242946 -0.005038296 0.12170782 -0.01160056 -0.004971931 0.122395866 -0.009826273 -0.004427926
0.11363298 -0.0095142545 -0.0044955467 0.11740816 -0.008050195 -0.0035811495 0.12234582 -0.008046142
-0.003564229 0.113121696 -0.008948251 -0.0040943027 0.100834325 -0.012145362 -0.0039356174 0.09911201
-0.013045356 -0.004130336 0.098323055 -0.010937869 -0.005051191 0.11134406 -0.013142461 -0.0040860283
0.10665877 -0.014246306 -0.004163992 0.100230426 -0.010636145 -0.004984561 0.10748731 -0.01248186
-0.0045297416 0.10224483 -0.010483369 -0.004712465 0.1187473 -0.01008529 -0.004384373 0.14442554
-0.009836318 -0.004376154 0.1501593 -0.009542629 -0.004475305 0.1531074 -0.007909599 -0.0038670036
0.14826432 -0.005701494 -0.0024321754 0.14412183 -0.00496338 -0.0015193233 0.13327453 -0.004023188
-0.0012667147 0.12782083 -0.0051828194 -0.0009000425 0.12810113 -0.004988422 -0.000842165 0.12650827
-0.004617709 -0.0006819542 0.119877696 -0.0023560799 -0.00023145904 0.12889765 -0.0021751474 -0.00030213932
0.12519683 -0.0023466474 -0.0006662263 0.13388835 -0.0009561523 -0.00029301274 0.13603456 -0.0044767177
-0.0019611719 0.15062939 -0.002477776 -0.0014173749 0.15360871 -0.0030814605 -0.001847363 0.1627544

leye_pose f4 [115, 3]
00000000: 0000 0000 0000 0000 0000 0000 0000 0000
00000010: 0000 0000 0000 0000 0000 0000 0000 0000
00000020: 0000 0000 0000 0000 0000 0000 0000 0000
00000030: 0000 0000 0000 0000 0000 0000 0000 0000
00000040: 0000 0000 0000 0000 0000 0000 0000 0000
00000050: 0000 0000 0000 0000 0000 0000 0000 0000
00000060: 0000 0000 0000 0000 0000 0000 0000 0000
00000070: 0000 0000 0000 0000 0000 0000 0000 0000
00000080: 0000 0000 0000 0000 0000 0000 0000 0000
00000090: 0000 0000 0000 0000 0000 0000 0000 0000
000000a0: 0000 0000 0000 0000 0000 0000 0000 0000
000000b0: 0000 0000 0000 0000 0000 0000 0000 0000
000000c0: 0000 0000 0000 0000 0000 0000 0000 0000
000000d0: 0000 0000 0000 0000 0000 0000 0000 0000
000000e0: 0000 0000 0000 0000 0000 0000 0000 0000
000000f0: 0000 0000 0000 0000 0000 0000 0000 0000
00000100: 0000 0000 0000 0000 0000 0000 0000 0000
00000110: 0000 0000 0000 0000 0000 0000 0000 0000
00000120: 0000 0000 0000 0000 0000 0000 0000 0000
00000130: 0000 0000 0000 0000 0000 0000 0000 0000
00000140: 0000 0000 0000 0000 0000 0000 0000 0000
00000150: 0000 0000 0000 0000 0000 0000 0000 0000
00000160: 0000 0000 0000 0000 0000 0000 0000 0000
00000170: 0000 0000 0000 0000 0000 0000 0000 0000
00000180: 0000 0000 0000 0000 0000 0000 0000 0000
00000190: 0000 0000 0000 0000 0000 0000 0000 0000
000001a0: 0000 0000 0000 0000 0000 0000 0000 0000
000001b0: 0000 0000 0000 0000 0000 0000 0000 0000
000001c0: 0000 0000 0000 0000 0000 0000 0000 0000
000001d0: 0000 0000 0000 0000 0000 0000 0000 0000
000001e0: 0000 0000 0000 0000 0000 0000 0000 0000
000001f0: 0000 0000 0000 0000 0000 0000 0000 0000
00000200: 0000 0000 0000 0000 0000 0000 0000 0000
00000210: 0000 0000 0000 0000 0000 0000 0000 0000
00000220: 0000 0000 0000 0000 0000 0000 0000 0000
00000230: 0000 0000 0000 0000 0000 0000 0000 0000
00000240: 0000 0000 0000 0000 0000 0000 0000 0000
00000250: 0000 0000 0000 0000 0000 0000 0000 0000
00000260: 0000 0000 0000 0000 0000 0000 0000 0000
00000270: 0000 0000 0000 0000 0000 0000 0000 0000
00000280: 0000 0000 0000 0000 0000 0000 0000 0000
00000290: 0000 0000 0000 0000 0000 0000 0000 0000
000002a0: 0000 0000 0000 0000 0000 0000 0000 0000
000002b0: 0000 0000 0000 0000 0000 0000 0000 0000
000002c0: 0000 0000 0000 0000 0000 0000 0000 0000
000002d0: 0000 0000 0000 0000 0000 0000 0000 0000
000002e0: 0000 0000 0000 0000 0000 0000 0000 0000
000002f0: 0000 0000 0000 0000 0000 0000 0000 0000
00000300: 0000 0000 0000 0000 0000 0000 0000 0000
00000310: 0000 0000 0000 0000 0000 0000 0000 0000
00000320: 0000 0000 0000 0000 0000 0000 0000 0000
00000330: 0000 0000 0000 0000 0000 0000 0000 0000
00000340: 0000 0000 0000 0000 0000 0000 0000 0000
00000350: 0000 0000 0000 0000 0000 0000 0000 0000
00000360: 0000 0000 0000 0000 0000 0000 0000 0000
00000370: 0000 0000 0000 0000 0000 0000 0000 0000
00000380: 0000 0000 0000 0000 0000 0000 0000 0000
00000390: 0000 0000 0000 0000 0000 0000 0000 0000
000003a0: 0000 0000 0000 0000 0000 0000 0000 0000
000003b0: 0000 0000 0000 0000 0000 0000 0000 0000
000003c0: 0000 0000 0000 0000 0000 0000 0000 0000
000003d0: 0000 0000 0000 0000 0000 0000 0000 0000
000003e0: 0000 0000 0000 0000 0000 0000 0000 0000
000003f0: 0000 0000 0000 0000 0000 0000 0000 0000
0.0 0.0 0.0 0.0 0.0 0.0 0.0 0.0
0.0 0.0 0.0 0.0 0.0 0.0 0.0 0.0
0.0 0.0 0.0 0.0 0.0 0.0 0.0 0.0
0.0 0.0 0.0 0.0 0.0 0.0 0.0 0.0
0.0 0.0 0.0 0.0 0.0 0.0 0.0 0.0
0.0 0.0 0.0 0.0 0.0 0.0 0.0 0.0
0.0 0.0 0.0 0.0 0.0 0.0 0.0 0.0
0.0 0.0 0.0 0.0 0.0 0.0 0.0 0.0
0.0 0.0 0.0 0.0 0.0 0.0 0.0 0.0
0.0 0.0 0.0 0.0 0.0 0.0 0.0 0.0
0.0 0.0 0.0 0.0 0.0 0.0 0.0 0.0
0.0 0.0 0.0 0.0 0.0 0.0 0.0 0.0
0.0 0.0 0.0 0.0 0.0 0.0 0.0 0.0
0.0 0.0 0.0 0.0 0.0 0.0 0.0 0.0
0.0 0.0 0.0 0.0 0.0 0.0 0.0 0.0
0.0 0.0 0.0 0.0 0.0 0.0 0.0 0.0
0.0 0.0 0.0 0.0 0.0 0.0 0.0 0.0
0.0 0.0 0.0 0.0 0.0 0.0 0.0 0.0
0.0 0.0 0.0 0.0 0.0 0.0 0.0 0.0
0.0 0.0 0.0 0.0 0.0 0.0 0.0 0.0
0.0 0.0 0.0 0.0 0.0 0.0 0.0 0.0
0.0 0.0 0.0 0.0 0.0 0.0 0.0 0.0
0.0 0.0 0.0 0.0 0.0 0.0 0.0 0.0
0.0 0.0 0.0 0.0 0.0 0.0 0.0 0.0
0.0 0.0 0.0 0.0 0.0 0.0 0.0 0.0
0.0 0.0 0.0 0.0 0.0 0.0 0.0 0.0
0.0 0.0 0.0 0.0 0.0 0.0 0.0 0.0
0.0 0.0 0.0 0.0 0.0 0.0 0.0 0.0
0.0 0.0 0.0 0.0 0.0 0.0 0.0 0.0
0.0 0.0 0.0 0.0 0.0 0.0 0.0 0.0
0.0 0.0 0.0 0.0 0.0 0.0 0.0 0.0
0.0 0.0 0.0 0.0 0.0 0.0 0.0 0.0
