test_dataset/gait_753/20250617_c2_a3_Take1/split_subjects/0/fit-smplx/smplx-params.npz (npz, 66990 bytes, 10 tensors)

betas f4 [131, 11]
0	0xbf1d35cc	-0.6141021
1	0xc014083a	-2.313002
2	0x3e77a673	0.24184589
3	0xbf8e0420	-1.1095009
4	0xbf22d362	-0.63603795
5	0xbfa4b3ca	-1.2867367
6	0xbd83a208	-0.064273894
7	0xbeb5d3b5	-0.35513082
8	0x3f0af61e	0.54281795
9	0xbd852ebe	-0.06503056
10	0x3f1c79fe	0.61123645
11	0xbef9200d	-0.48657265
12	0xbfec237d	-1.844833
13	0x40119122	2.2744832
14	0xbf381c76	-0.7191843
15	0xbed63c52	-0.41842896
16	0xbf570049	-0.8398481
17	0xbef78ac3	-0.48348054
18	0xbf0ba2f9	-0.5454555
19	0x3f06d655	0.52670795
20	0x3ea9946f	0.33121058
21	0x3f318e63	0.6935789
22	0xbe72fcda	-0.23729268
23	0xbfbefaa0	-1.4920235
24	0x3ff70350	1.9297886
25	0xbe7c4ee0	-0.24639463
26	0xbf1246bd	-0.5713919
27	0xbeb4c9e5	-0.35310283
28	0xbed93856	-0.42425793
29	0x3af3f318	0.0018611876
30	0xbe1a7639	-0.15084161
31	0x3e8e3c06	0.2778017
32	0x3f3630e3	0.71168345
33	0xbcc22592	-0.023699556
34	0xbfae69a4	-1.3625989
35	0x3fcdc775	1.6076494
36	0xbe4ce211	-0.20008112
37	0xbf0ae19a	-0.5425049
38	0xbec438ec	-0.38324678
39	0xbec310b1	-0.38098672
40	0xbdb69a9b	-0.089162074
41	0xbe3cdb4c	-0.1844303
42	0x3e676cde	0.22600123
43	0x3f3b8992	0.7325679
44	0x3dafeed2	0.08590473
45	0xbfb3099d	-1.3987309
46	0x3faf5eea	1.370084
47	0x3c8b7bda	0.01702683
48	0xbf014343	-0.5049326
49	0xbe95a497	-0.29227135
50	0xbed3754f	-0.41300437
51	0xbe55086a	-0.20803991
52	0xbea3feec	-0.32030427
53	0x3e7bda88	0.24595082
54	0x3f3c0e20	0.73459053
55	0x3e2e706a	0.1703507
56	0xbfb25733	-1.3932861
57	0x3f9b0db7	1.211356
58	0x3d828398	0.06372756
59	0xbf0e9a89	-0.5570455
60	0xbe3e14a3	-0.1856256
61	0xbedf722c	-0.43641794
62	0xbe0b5ab6	-0.13608822
63	0xbed87d9c	-0.42283332
64	0x3e68a379	0.2271861
65	0x3f3bc826	0.7335228
66	0x3e9056d9	0.2819126
67	0xbfb627b3	-1.4230865
68	0x3fa1373a	1.2594979
69	0x3dab7a80	0.083729744
70	0xbf15f1cf	-0.58572096
71	0xbe299dcb	-0.165641
72	0xbee76a84	-0.45198452
73	0xbdfe083e	-0.12403916
74	0xbea96d0a	-0.33091003
75	0x3e62031a	0.22071496
76	0x3f3bf458	0.73419714
77	0x3e8fd8ad	0.28094998
78	0xbfa90c01	-1.3206788
79	0x3f942cfd	1.1576229
80	0x3e2870dc	0.16449302
81	0xbf0e7bf7	-0.55657905
82	0xbe0c944e	-0.13728449
83	0xbedbc0a3	-0.42920408
84	0xbe552828	-0.208161
85	0xbeada86c	-0.33917558
86	0x3e67a78f	0.22622512
87	0x3f3ac7c5	0.72961074
88	0x3e9f0caf	0.31064364
89	0xbfa1d092	-1.2641776
90	0x3fa8a13f	1.3174208
91	0x3ded09a2	0.11574103
92	0xbf261397	-0.6487364
93	0xbe7f74b7	-0.24946867
94	0xbec7b28a	-0.39003402
95	0xbe7c2de0	-0.24626875
96	0xbe80aef6	-0.25133485
97	0x3e68e6ab	0.22744243
98	0x3f3c29f8	0.7350154
99	0x3eb4bf51	0.35302213
100	0xbfa53dca	-1.2909482
101	0x3fa41eff	1.2821959
102	0x3e01dd5a	0.12682095
103	0xbf2f01e9	-0.6836229
104	0xbe676dcf	-0.22600482
105	0xbed4461e	-0.41459745
106	0xbe48a69f	-0.19594811
107	0xbe93a670	-0.2883792
108	0x3e485fdb	0.19567816
109	0x3f3c18fc	0.73475623
110	0x3ebff359	0.37490347
111	0xbf989cd1	-1.1922857
112	0x3f99530a	1.1978467
113	0x3da82c5b	0.08211585
114	0xbf2d5679	-0.6771007
115	0xbe78ec2a	-0.2430884
116	0xbec982a3	-0.3935748
117	0xbe6ad495	-0.22932656
118	0xbe5b567d	-0.21419711
119	0x3e39cd44	0.18144709
120	0x3f3d8a4d	0.74039155
121	0x3ec886aa	0.3916524
122	0xbf93a959	-1.1536056
123	0x3f946c43	1.1595539
124	0x3e364e17	0.17803226
125	0xbf373ca1	-0.7157689
126	0xbe4fbfc7	-0.20288001
127	0xbedf024b	-0.43556437
128	0xbe3a9f79	-0.18224896
129	0xbe7a4a61	-0.24442436
130	0x3e433fb7	0.19067274
131	0x3f3f48f9	0.7472072
132	0x3ec9a6ea	0.39385158
133	0xbf94abba	-1.1614907
134	0x3f8bcb45	1.0921408
135	0x3e8348ff	0.2564163
136	0xbf2d0a13	-0.675935
137	0xbe106ab2	-0.14103201
138	0xbf0f243e	-0.55914676
139	0xbe870dc5	-0.26377693
140	0xbeb56a5b	-0.35432705
141	0x3e61250b	0.21986787
142	0x3f3f3525	0.7469047
143	0x3ea34cbd	0.31894484
144	0xbfa39e9c	-1.2782779
145	0x3f759824	0.95935273
146	0x3ec6337f	0.38711163
147	0xbf1f2ab8	-0.6217456
148	0xbc94f769	-0.01818438
149	0xbf0f6ce5	-0.56025535
150	0xbea804af	-0.32816073
151	0xbed66b4b	-0.41878733
152	0x3e67685e	0.22598407
153	0x3f3b62cb	0.7319762
154	0x3e9c637b	0.30544648
155	0xbfb7dc35	-1.4364077
156	0x3f5c0d8c	0.8595817
157	0x3f029ba4	0.5101874
158	0xbf21cae2	-0.632002
159	0x3e235540	0.15950489
160	0xbf1c5215	-0.6106275
161	0xbe82758f	-0.25480315
162	0xbf0efc14	-0.5585339
163	0x3e5fb1f9	0.21845235
164	0x3f386c44	0.720402
165	0x3e87c846	0.26519984
166	0xbfbcf628	-1.4762621
167	0x3f605c21	0.8764058
168	0x3f0df763	0.5545561
169	0xbf39c1d4	-0.72561383
170	0x3e597b7c	0.21238512
171	0xbf24b1fb	-0.64334077
172	0xbe343d0a	-0.1760141
173	0xbf19c8fd	-0.6007231
174	0x3e67070f	0.22561286
175	0x3f3623f1	0.7114859
176	0x3e9d8eb8	0.30772948
177	0xbfbfc2e9	-1.4981357
178	0x3f6b70c1	0.91968924
179	0x3f1e4c6b	0.61835355
180	0xbf4419d3	-0.76601905
181	0x3e430704	0.19045645
182	0xbf29fb0f	-0.6639871
183	0xbe4a41f3	-0.1975172
184	0xbf2ba420	-0.6704731
185	0x3e6aff70	0.22949004
186	0x3f36ada0	0.7135868
187	0x3eacc59b	0.3374451
188	0xbfa9d43e	-1.3267896
189	0x3f798ff4	0.9748528
190	0x3edf1a00	0.43574524
191	0xbf51681e	-0.81799495
192	0x3d0dd62e	0.034628086
193	0xbf14d4b1	-0.5813704
194	0xbe31c3ac	-0.17359799
195	0xbf06d884	-0.52674127
196	0x3e672a96	0.22574839
197	0x3f37b33a	0.71757853
198	0x3e88ad0f	0.26694533
199	0xbf9ad268	-1.2095461
200	0x3f7766d0	0.96641254
201	0x3e853a26	0.26020926
202	0xbf1dbfdd	-0.61620885
203	0x3dab94da	0.083780006
204	0xbf077baf	-0.529231
205	0xbd9b0dc6	-0.075709864
206	0xbea83da8	-0.3285954
207	0x3e6a9e5a	0.22911969
208	0x3f3a0387	0.7266163
209	0x3e6dcde7	0.23223077
210	0xbf937fd3	-1.1523384
211	0x3f829f9d	1.020496
212	0x3d36deaf	0.04464596
213	0xbee2a193	-0.44263896
214	0xbd6e25ef	-0.058141645
215	0xbee791b1	-0.4522834
216	0xbe27c04b	-0.16381948
217	0xbe3b71b7	-0.18305098
218	0x3e56f19a	0.20990601
219	0x3f3aba74	0.72940755
220	0x3e62477c	0.22097582
221	0xbf8815ef	-1.0631694
222	0x3f75d7ec	0.96032596
223	0x3d15e224	0.036592618
224	0xbeb15919	-0.3463829
225	0xbdb4f478	-0.08835691
226	0xbed9e826	-0.42559928
227	0xbe5f47c3	-0.21804719
228	0xbe26f821	-0.16305591
229	0x3e617c72	0.22020128
230	0x3f3c3cd9	0.73530346
231	0x3ea21aa0	0.31660938
232	0xbfa05c03	-1.252808
233	0x3f74990f	0.9554605
234	0x3dcd84fb	0.1003513
235	0xbf11c5bb	-0.5694234
236	0xbe2f8679	-0.17141141
237	0xbf00e9d0	-0.5035677
238	0xbe6b458b	-0.22975747
239	0xbec0f340	-0.37685585
240	0x3e7bdb8e	0.24595472
241	0x3f3b1966	0.7308563
242	0x3eb9f4d5	0.36319605
243	0xbfaad478	-1.334609
244	0x3f77af31	0.96751696
245	0x3e596521	0.21229984
246	0xbf10ab42	-0.5651132
247	0xbdc4d539	-0.096109815
248	0xbf103025	-0.5632346
249	0xbe9e0cad	-0.30869046
250	0xbf06ce9b	-0.52659005
251	0x3e8e7f47	0.2783148
252	0x3f3b6e5c	0.7321527
253	0x3ed11233	0.40834197
254	0xbfb559c5	-1.416802
255	0x3f8211bd	1.0161663

global_orient f4 [131, 3]
0	0xbece70fa	-0.4032057
1	0x3ed0959e	0.4073915
2	0xbca593d9	-0.0202121
3	0xbdd84fdb	-0.10562106
4	0x3ecbb011	0.39782766
5	0xbd4e353d	-0.05034374
6	0xbd5b702d	-0.053573776
7	0x3eeffdde	0.46873373
8	0xbd60968b	-0.05483107
9	0xbce64b2e	-0.02811202
10	0x3f247b4b	0.6425063
11	0xbd5e5dea	-0.054288782
12	0xbbf4424f	-0.0074541937
13	0x3f3c739c	0.73613906
14	0xbd2c0b52	-0.042002983
15	0x3c359d47	0.011084861
16	0x3f3cd5cd	0.73763734
17	0xbc4a5dc2	-0.012351455
18	0x3c0a9675	0.008458723
19	0x3f2afe84	0.6679461
20	0x3c29c9c3	0.010363045
21	0x3c3a4a38	0.011370234
22	0x3f18318a	0.5945059
23	0x3d601f1c	0.05471717
24	0xbbc8d578	-0.006128963
25	0x3efb613c	0.4909762
26	0x3d89f118	0.06735438
27	0xbd218e7b	-0.03944252
28	0x3eca5304	0.3951646
29	0x3d8f492f	0.069963805
30	0xbd83fb13	-0.06444373
31	0x3e8a3a5f	0.2699766
32	0x3d2b5922	0.04183305
33	0xbd7b8431	-0.061405364
34	0x3e30125b	0.17194502
35	0x3d048a04	0.032358184
36	0xbd00b1c2	-0.031419523
37	0x3dc41673	0.09574594
38	0x3ccb0140	0.02478087
39	0xbcb58a2f	-0.022160618
40	0x3d95016d	0.072756626
41	0x3bd1e21b	0.0064051277
42	0xbcb8041c	-0.022462897
43	0x3d9c670b	0.076368414
44	0xbc083da5	-0.008315478
45	0xbcef051b	-0.02917724
46	0x3dc492ae	0.095982894
47	0xbc9ed1a4	-0.019387074
48	0xbd3f21bd	-0.046663035
49	0x3e0a75f2	0.13521555
50	0xbd4d8bde	-0.050182216
51	0xbd1b50fc	-0.03791903
52	0x3e4d161a	0.20027962
53	0xbd651016	-0.055923544
54	0xbd026521	-0.031834725
55	0x3e815f57	0.2526805
56	0xbd5676db	-0.052359443
57	0xbd00bf06	-0.031432174
58	0x3ec4d1de	0.38441366
59	0xbd411095	-0.047134954
60	0xbc02dc1e	-0.00798705
61	0x3f0923f8	0.5357051
62	0xbd3999ba	-0.04531262
63	0xbb315446	-0.0027058288
64	0x3f2d66ae	0.677348
65	0xbc251c69	-0.010077574
66	0xb9d7246d	-0.00041035135
67	0x3f34ebd6	0.7067236
68	0x3a9ce052	0.0011968708
69	0xbb850fcb	-0.0040607206
70	0x3f2f3832	0.6844512
71	0x3c320228	0.010864772
72	0xbc2b79b5	-0.010466029
73	0x3f1c4fe7	0.6105942
74	0x3c94ee6d	0.018180097
75	0xbc619001	-0.013767243
76	0x3efeb5bd	0.4974803
77	0x3cedcd89	0.02902867
78	0xbbefc5b4	-0.007317269
79	0x3ed634f1	0.41837266
80	0x3d53982b	0.05165879
81	0x3b86ffcb	0.0041198484
82	0x3ea9eb6a	0.3318742
83	0x3d203ed3	0.039122414
84	0xbc849d9a	-0.016188432
85	0x3d8126b3	0.063062094
86	0xbbfa23ad	-0.0076336474
87	0xbc88674a	-0.016650815
88	0xbd9c2e1d	-0.07625983
89	0xbc4e2b53	-0.0125835715
90	0xbc9212f5	-0.017831305
91	0xbe04ef68	-0.12981951
92	0xbcb18afc	-0.021672718
93	0xbcb1e154	-0.02171389
94	0xbdf99456	-0.12186496
95	0xbd0aa809	-0.033851657
96	0xbcac3b2f	-0.021024315
97	0xbdb28e78	-0.0871858
98	0xbd30708f	-0.043076094
99	0xbcd084c1	-0.025453927
100	0xbd1bc03b	-0.038025122
101	0xbd6a76a5	-0.057242054
102	0xbd61d773	-0.05513711
103	0x3cc2fdc4	0.023802646
104	0xbd86e947	-0.06587463
105	0xbdcc237a	-0.09967704
106	0x3d9738af	0.073838584
107	0xbd05a700	-0.032629967
108	0xbe1a63f8	-0.15077198
109	0x3e3711ac	0.17877835
110	0xbb0d4835	-0.0021557931
111	0xbe2ee828	-0.17080748
112	0x3ebd441c	0.36966026
113	0xbbd93f6a	-0.006629874
114	0xbe1b319c	-0.15155643
115	0x3f1542e4	0.5830519
116	0xbd29665b	-0.04135738
117	0xbe059c6e	-0.13047954
118	0x3f386554	0.72029614
119	0xbd60e9a0	-0.054910302
120	0xbded5c97	-0.11589926
121	0x3f49f4a1	0.788889
122	0xbd430fdf	-0.047622558
123	0xbe028019	-0.12744178
124	0x3f40715c	0.7517297
125	0xbd28a45d	-0.041172374
126	0xbe23975c	-0.15975708
127	0x3f2e6337	0.6812014
128	0xbcfe6524	-0.031054087
129	0xbe4a1fc4	-0.1973868
130	0x3f0f1b66	0.5590118
131	0xbc1d76fc	-0.009610888
132	0xbe65200a	-0.22375503
133	0x3ede38df	0.43402764
134	0x3c81159f	0.01575738
135	0xbe8c95a3	-0.27457914
136	0x3e956e8f	0.29185912
137	0x3b193454	0.0023377137
138	0xbea0937c	-0.31362522
139	0x3de2edbc	0.110805005
140	0xbcfd498e	-0.030918863
141	0xbea75780	-0.32683945
142	0xbd5b65db	-0.053563934
143	0xbd2d8d05	-0.042370815
144	0xbea21596	-0.31657094
145	0xbe4bb109	-0.19891752
146	0xbced368e	-0.028956678
147	0xbea0b395	-0.3138701
148	0xbe8d605d	-0.27612582
149	0xbca1abb1	-0.01973519
150	0xbe9ca263	-0.3059264
151	0xbeb140b1	-0.34619668
152	0xbc114ea3	-0.008868846
153	0xbea104b1	-0.31448892
154	0xbed2453b	-0.41068444
155	0xbca77ec9	-0.020446198
156	0xbe9e13f8	-0.3087461
157	0xbed46111	-0.41480306
158	0xbd4d708b	-0.050156157
159	0xbe8e1a24	-0.2775432
160	0xbeaa6cfc	-0.33286273
161	0xbdba0a92	-0.090840474
162	0xbe8ddcd7	-0.2770755
163	0xbeb985b8	-0.36234832
164	0xbdedb8aa	-0.116074875
165	0xbe884632	-0.26616055
166	0xbee01be6	-0.43771285
167	0xbe109562	-0.14119485
168	0xbe823000	-0.25427246
169	0xbf087763	-0.5330717
170	0xbe340cfe	-0.17583081
171	0xbe810dff	-0.2520599
172	0xbf193b44	-0.5985606
173	0xbe54e033	-0.2078865
174	0xbe7682b5	-0.24073298
175	0xbf29692b	-0.661761
176	0xbe73fd76	-0.23827156
177	0xbe5aba15	-0.21360047
178	0xbf32aee8	-0.69798136
179	0xbe87ba14	-0.26509154
180	0xbe4c2c96	-0.19938883
181	0xbf39af64	-0.7253325
182	0xbe8e967f	-0.27849194
183	0xbe39a0d8	-0.18127763
184	0xbf415132	-0.7551452
185	0xbe90ac0d	-0.28256264
186	0xbe288e08	-0.1646043
187	0xbf4e8ce3	-0.80683726
188	0xbe8b899f	-0.27253434
189	0xbe230710	-0.15920663
190	0xbf5bd97c	-0.8587873
191	0xbe865912	-0.2623983
192	0xbe1f52ee	-0.15558979
193	0xbf67cb4e	-0.90544593
194	0xbe8198d3	-0.25311908
195	0xbe19e966	-0.1503044
196	0xbf794799	-0.97374874
197	0xbe6f5146	-0.23370847
198	0xbe11ba5c	-0.14231247
199	0xbf86ed81	-1.054123
200	0xbe4d0437	-0.20021139
201	0xbe116e81	-0.1420231
202	0xbf91e4aa	-1.1397908
203	0xbe1cc152	-0.15308121
204	0xbe1a3e1a	-0.15062752
205	0xbfa4b246	-1.2866905
206	0xbdd9fd48	-0.10644013
207	0xbe1a6c1d	-0.15080304
208	0xbfaf438d	-1.369249
209	0xbd8ab556	-0.06772868
210	0xbe13e51a	-0.14442864
211	0xbfb9cf94	-1.4516473
212	0xbd3bfb4e	-0.04589396
213	0xbdfe5799	-0.12419052
214	0xbfc33643	-1.5250934
215	0xbd359fcc	-0.044341847
216	0xbdd883d6	-0.10572021
217	0xbfcb7646	-1.5895469
218	0xbd229eab	-0.0397021
219	0xbdc6d487	-0.09708505
220	0xbfd8ae09	-1.6928111
221	0xbcb96b64	-0.022634216
222	0xbdba22ec	-0.09088692
223	0xbfe664b2	-1.799948
224	0xbabcda12	-0.0014408252
225	0xbda24a7d	-0.07924364
226	0xbff49202	-1.9107058
227	0x3c9c1605	0.019053468
228	0xbd907408	-0.07053381
229	0xc001abeb	-2.026118
230	0x3d177473	0.03697629
231	0xbd835b0b	-0.064138494
232	0xc0098121	-2.1485064
233	0x3d13d129	0.036088143
234	0xbd8792b6	-0.0661978
235	0xc0107158	-2.256918
236	0x3c86ad98	0.016440198
237	0xbd73bdc8	-0.05950716
238	0xc015e6c5	-2.34221
239	0xbc9f5dee	-0.019453969
240	0xbd1bd86c	-0.038048193
241	0xc01aa582	-2.4163518
242	0xbd3fe38d	-0.04684787
243	0xbc028cfa	-0.007968182
244	0xc01d0a2b	-2.4537456
245	0xbd58d672	-0.052938886
246	0x3c8c104a	0.017097611
247	0xc01f8ca7	-2.4929597
248	0xbd0451f4	-0.03230472
249	0x3c475b64	0.012167785
250	0xc0250dcf	-2.5789678
251	0xbc6ba26b	-0.014381985
252	0xbd44a9e6	-0.04801359
253	0xc0275dc9	-2.6150992
254	0x3c656a5a	0.014002407
255	0xbdced39f	-0.10098957

body_pose f4 [131, 63]
0	0x3dab9ce8	0.08379537
1	0xbd8960ae	-0.06707893
2	0xbdffcadc	-0.12489864
3	0x3ecaaa12	0.39582878
4	0x3cc32279	0.023820149
5	0x3e1cf01e	0.15325972
6	0x3d423c7d	0.047420967
7	0xbc499883	-0.012304428
8	0x3de608f8	0.112321794
9	0x3ebd8a41	0.37019542
10	0xbe152940	-0.14566517
11	0x3e3f2dad	0.18669768
12	0x3f5233f5	0.8211053
13	0xbe6d8aa0	-0.23197412
14	0x3d4f1789	0.050559554
15	0x3ed7e21c	0.42164695
16	0xbd1f008a	-0.038818873
17	0xbd4d0195	-0.050050337
18	0xbe1c4759	-0.15261592
19	0xbd72626b	-0.05917589
20	0xbe3172a3	-0.17328887
21	0x3e02dbe0	0.12779188
22	0xbe4c2725	-0.19936807
23	0x3df7aaf6	0.12093155
24	0x3f1abcd2	0.60444367
25	0x3d4b6740	0.049659014
26	0xbd4f32aa	-0.050585426
27	0x3780143a	1.5268208e-05
28	0x377bccd0	1.50084525e-05
29	0x378414c2	1.5745292e-05
30	0xb7808354	-1.5319943e-05
31	0x3786de83	1.607766e-05
32	0x37810edc	1.5384918e-05
33	0x3ee0b8a8	0.43890882
34	0xbc72cbca	-0.014819095
35	0x3e4a8962	0.1977897
36	0xbac710e5	-0.001518753
37	0xbec0b76b	-0.37639937
38	0xbeb07084	-0.34460843
39	0x3dac0499	0.083993144
40	0x3e86850a	0.26273376
41	0x3e923943	0.28559312
42	0xbf28345b	-0.6570489
43	0x3da0e14c	0.07855472
44	0xbdbafe5a	-0.09130545
45	0x3c5d38c0	0.0135023
46	0xbe956a7f	-0.29182813
47	0xbe957400	-0.29190063
48	0x3e4b51b0	0.1985538
49	0x3e8a92f6	0.27065247
50	0x3e8c8495	0.27444902
51	0xbdb163ee	-0.08661638
52	0xbf90bb2d	-1.1307122
53	0x3e9248b5	0.28571096
54	0x3c9daebd	0.01924836
55	0x3f9b6873	1.214125
56	0x3f23abf4	0.63934255
57	0xbaf204ac	-0.0018464527
58	0xbe99e706	-0.3005907
59	0xbbf5bed7	-0.0074995565
60	0x3edad64e	0.42741627
61	0xbf35b7f8	-0.7098384
62	0xbcdb24c6	-0.026750933
63	0xbe138dd8	-0.14409578
64	0xbe0474e1	-0.12935211
65	0xbe2ebcc9	-0.17064203
66	0xbdca6a2a	-0.098835304
67	0x3cb8cee0	0.022559583
68	0x3db85b0e	0.09001742
69	0x3e7365a0	0.23769236
70	0x3c0aca51	0.008471088
71	0x3dd5a5bf	0.10432004
72	0x3ea4b0aa	0.32166034
73	0xbe1de8ff	-0.15420912
74	0x3e3bfc6c	0.1835801
75	0x3f756c19	0.9586807
76	0xbd0f6816	-0.035011373
77	0x3d975dcd	0.07390938
78	0x3d90686b	0.07051166
79	0xbd080f5f	-0.033217784
80	0xbd1f44b0	-0.038883865
81	0xbc5af839	-0.013364845
82	0xbd78abff	-0.060710903
83	0xbd4dcad1	-0.05024225
84	0x3de863d3	0.11347165
85	0xbdf4474e	-0.11927663
86	0x3b88cab3	0.0041745543
87	0x3e23a9a8	0.15982687
88	0xbcb747f4	-0.022373177
89	0xbcc306d5	-0.023806969
90	0x3782421a	1.5527989e-05
91	0x377d064c	1.5081441e-05
92	0x378311c3	1.5624688e-05
93	0x3780d98f	1.5360098e-05
94	0x37817500	1.543248e-05
95	0xb77c6590	-1.5044017e-05
96	0x3e402664	0.18764645
97	0xbcfd98b1	-0.030956598
98	0x3cef4dd4	0.029211916
99	0xbd8076a8	-0.06272632
100	0x3d546729	0.051856194
101	0xbeba6830	-0.36407614
102	0xbc6e6768	-0.014551021
103	0xbe81f3b9	-0.25381258
104	0x3ebd308f	0.3695111
105	0xbda56ad9	-0.0807702
106	0x3c848b4e	0.016179707
107	0x3d14c740	0.036322832
108	0x3e43c055	0.19116338
109	0xbe893416	-0.2679755
110	0xbf015bd1	-0.50530726
111	0x3dc39710	0.09550297
112	0xbd878d88	-0.06618792
113	0x3f198102	0.59962475
114	0x3d85041b	0.06494924
115	0xbf9843fe	-1.189575
116	0xbdc9b91c	-0.0984976
117	0xbca4db0c	-0.020123981
118	0x3f86316c	1.0483832
119	0x3f304d8a	0.68868315
120	0x3eb9f4f3	0.36319694
121	0xbede0ff4	-0.43371546
122	0x3e08d11b	0.13361017
123	0x3f1373cd	0.5759857
124	0xbeebca2d	-0.46052685
125	0xbf04af53	-0.51830024
126	0xbda906e9	-0.08253271
127	0xbe304f6a	-0.17217794
128	0xbe581549	-0.2110187
129	0xbeb66152	-0.35621125
130	0x3d0be8ee	0.034157686
131	0x3d177353	0.036975216
132	0x3e71cdd0	0.23613667
133	0xbd092d83	-0.03349067
134	0x3e047df2	0.1293867
135	0x3e8250ad	0.25452176
136	0xbe6a528b	-0.2288305
137	0x3e7ff118	0.24994314
138	0x3f856935	1.0422732
139	0xbc2742a7	-0.010208762
140	0x3d65527c	0.055986866
141	0x3d169dd6	0.036771618
142	0xbd874f78	-0.06606954
143	0xbd6c2042	-0.05764795
144	0x3dc1c0ef	0.09460627
145	0x3bdc4048	0.00672153
146	0x3d897512	0.067117825
147	0x3d042f30	0.032271564
148	0xbdd38aba	-0.10329194
149	0xbd65bb2c	-0.056086704
150	0x3e1337e7	0.14376794
151	0xbd3dae5f	-0.04630887
152	0xbd19ac93	-0.037518095
153	0x3782dd76	1.5600333e-05
154	0xb7818fbd	-1.5444932e-05
155	0x3782e011	1.5601547e-05
156	0x37818db9	1.5443993e-05
157	0x378285ed	1.5559572e-05
158	0xb7802f7d	-1.5280903e-05
159	0x3e5da6e3	0.21645693
160	0xbd30b2d9	-0.043139312
161	0x3da4c3b4	0.0804514
162	0xbd950f79	-0.07278342
163	0x3d0bffed	0.034179617
164	0xbeccbc81	-0.39987567
165	0xbca780b7	-0.020447118
166	0xbe8ec1c0	-0.27882195
167	0x3ebb3daa	0.36570483
168	0xbe00a319	-0.12562217
169	0x3ca68023	0.020324772
170	0xbb9128b5	-0.0044299015
171	0x3e4b4eda	0.19854298
172	0xbeaf4e46	-0.34239405
173	0xbf043426	-0.5164207
174	0x3df7771e	0.12083267
175	0xbcc90dfa	-0.024542797
176	0x3f14720e	0.57986534
177	0x3d971fe6	0.07379131
178	0xbfa42166	-1.2822692
179	0xbe62df61	-0.22155525
180	0x3e78e574	0.2430628
181	0x3f9b3402	1.2125247
182	0x3f192509	0.59822136
183	0x3ea10239	0.31447008
184	0xbe8a35dc	-0.26994216
185	0xbd0ae563	-0.033910166
186	0x3efe4ee4	0.49669564
187	0xbed20f34	-0.41027224
188	0xbeae92eb	-0.34096465
189	0x3bfb10f2	0.007661932
190	0xbe60cf02	-0.21953967
191	0xbe667987	-0.22507297
192	0xbee56dea	-0.4481042
193	0x3e08fb98	0.13377225
194	0xbdcd77a8	-0.10032588
195	0x3e6bb005	0.23016365
196	0xbdc20b01	-0.09474755
197	0x3e19d86f	0.15023969
198	0x3e261d93	0.16222219
199	0xbe9dfc69	-0.30856636
200	0x3e8d0dce	0.27549595
201	0x3f768bfb	0.96307343
202	0xbd838c76	-0.06423275
203	0x3e5cb521	0.2155347
204	0x3d012124	0.031525746
205	0xbe00369a	-0.12520829
206	0xbd227c03	-0.039669048
207	0x3e139ae3	0.14414553
208	0xbd992c25	-0.07479123
209	0x3de72046	0.112854525
210	0x3e1d187c	0.15341371
211	0xbd98d368	-0.074621975
212	0xbd4e1830	-0.050316036
213	0x3e05b322	0.13056615
214	0xbdce83a0	-0.10083699
215	0xbc5514a1	-0.013005407
216	0x37824ea4	1.5533828e-05
217	0xb7836591	-1.5663712e-05
218	0x37830165	1.5617066e-05
219	0x37841c77	1.5748881e-05
220	0x3783bbf9	1.5703949e-05
221	0xb7808ace	-1.5323425e-05
222	0x3e5f68d4	0.21817333
223	0xbd1ea343	-0.038729917
224	0x3deac5a5	0.11463479
225	0xbd934dfe	-0.0719261
226	0x3cb3225e	0.021866973
227	0xbed415a9	-0.41422775
228	0x3b52de90	0.0032176115
229	0xbe96f951	-0.29487088
230	0x3eaf145e	0.34195226
231	0xbe1a3c44	-0.15062052
232	0x3b8dfb7e	0.0043329587
233	0xbd31096b	-0.043221872
234	0x3e6d6309	0.2318231
235	0xbebfe12e	-0.37476486
236	0xbeff45c1	-0.49857906
237	0x3e2bf8d3	0.16794138
238	0xbc1255cc	-0.008931588
239	0x3f023b78	0.5087199
240	0x3dab7aad	0.08373008
241	0xbfb6c256	-1.4278057
242	0xbe6ad28d	-0.22931881
243	0x3e95d663	0.29265127
244	0x3fa52c5a	1.290416
245	0x3f133df3	0.575164
246	0x3eb8b990	0.36079073
247	0xbea4f586	-0.3221857
248	0x3d91afa2	0.071135774
249	0x3edcd2de	0.4312963
250	0xbe728698	-0.23684156
251	0xbe25213d	-0.1612596
252	0x3dd06063	0.10174634
253	0xbe01e3ec	-0.12684602
254	0xbe20e0dc	-0.15710777
255	0xbf0dfded	-0.55465585

transl f4 [131, 3]
0	0xbeee8bd9	-0.4659107
1	0x3f834fb5	1.02587
2	0xbfaf1592	-1.3678458
3	0xbee99a11	-0.45625356
4	0x3f78cc7f	0.97187036
5	0xbfa9ed8f	-1.3275622
6	0xbee3c47c	-0.44485843
7	0x3f7a5eb4	0.97800756
8	0xbfa64a1c	-1.2991366
9	0xbedca0f9	-0.43091562
10	0x3f7cac44	0.98700356
11	0xbfa24f6b	-1.2680486
12	0xbed58410	-0.41702318
13	0x3f7e58c9	0.99354225
14	0xbf9df436	-1.2340152
15	0xbecf524b	-0.40492472
16	0x3f7f2b3a	0.99675333
17	0xbf9916b7	-1.1960057
18	0xbec8ab95	-0.39193407
19	0x3f7eaa13	0.9947826
20	0xbf93c7bc	-1.1545329
21	0xbec0691b	-0.3758019
22	0x3f7ce391	0.9878474
23	0xbf8e13a9	-1.109975
24	0xbeb7e93b	-0.35920128
25	0x3f79c525	0.97566444
26	0xbf88644d	-1.0655609
27	0xbeb01e7f	-0.34398267
28	0x3f77e750	0.9683733
29	0xbf8298e6	-1.0202911
30	0xbeaa93c6	-0.33315867
31	0x3f78ac48	0.9713788
32	0xbf7ae6f5	-0.9800866
33	0xbea63875	-0.32464948
34	0x3f7b2d5a	0.98116076
35	0xbf713a0a	-0.94229186
36	0xbea1b19e	-0.31580824
37	0x3f7de849	0.99182564
38	0xbf67eafb	-0.90592927
39	0xbe9c20f6	-0.30493897
40	0x3f7f9f81	0.9985276
41	0xbf5e1017	-0.867433
42	0xbe965fca	-0.29369956
43	0x3f8026c5	1.0011832
44	0xbf5360b6	-0.82569444
45	0xbe90cc77	-0.28280994
46	0x3f7f549b	0.9973847
47	0xbf47ff69	-0.781241
48	0xbe8a7108	-0.2703936
49	0x3f7cd45b	0.9876153
50	0xbf3ba30c	-0.73295665
51	0xbe83f33c	-0.2577151
52	0x3f7938c8	0.97352266
53	0xbf2fb7b0	-0.6863966
54	0xbe77d090	-0.24200654
55	0x3f77e3d3	0.9683201
56	0xbf248434	-0.64264226
57	0xbe68a3ad	-0.22718687
58	0x3f78110f	0.9690103
59	0xbf1a0d41	-0.60176474
60	0xbe59b049	-0.21258654
61	0x3f79ebec	0.97625613
62	0xbf11776a	-0.56822836
63	0xbe4bcc16	-0.19902071
64	0x3f7b3279	0.9812389
65	0xbf07f79a	-0.53112185
66	0xbe3c9158	-0.18414819
67	0x3f7c8569	0.9864107
68	0xbefdafeb	-0.49548277
69	0xbe2cd4d5	-0.16878064
70	0x3f7d22de	0.9888133
71	0xbee8ec20	-0.4549265
72	0xbe1bb785	-0.15206726
73	0x3f7cbac3	0.98722476
74	0xbed1e4b3	-0.40994796
75	0xbe095a45	-0.13413341
76	0x3f7af5a7	0.98031086
77	0xbeb81a80	-0.35957718
78	0xbdef81a7	-0.11694651
79	0x3f784f97	0.96996444
80	0xbe9e025b	-0.30861172
81	0xbdd6561f	-0.10465645
82	0x3f78118b	0.9690177
83	0xbe85ced6	-0.26134366
84	0xbdb7a15c	-0.08966324
85	0x3f78c2ad	0.9717205
86	0xbe5c8169	-0.21533741
87	0xbda1de7a	-0.07903762
88	0x3f7b2198	0.98098135
89	0xbe320082	-0.17383006
90	0xbd88b623	-0.06675365
91	0x3f7cc7e9	0.9874254
92	0xbe072723	-0.13198523
93	0xbd5b2fb0	-0.053512275
94	0x3f7d6f6e	0.98998153
95	0xbdb00ce9	-0.085962124
96	0xbd249b4c	-0.040187165
97	0x3f7c8bb7	0.9865069
98	0xbd143e94	-0.03619249
99	0xbcd5ee80	-0.026114702
100	0x3f79969a	0.97495425
101	0x3c8b5292	0.017007146
102	0xbc26469e	-0.010148672
103	0x3f752162	0.95754063
104	0x3d985b84	0.0743933
105	0x3be1efd8	0.0068950467
106	0x3f731b2b	0.9496333
107	0x3e002e52	0.1251767
108	0x3cccc14c	0.024994515
109	0x3f73e41a	0.9526993
110	0x3e2b0fdd	0.1670527
111	0x3d34988d	0.044090796
112	0x3f76b361	0.9636746
113	0x3e4dcc96	0.20097575
114	0x3d83e820	0.06440759
115	0x3f7a5e7a	0.9780041
116	0x3e6c0e3f	0.2305231
117	0x3dacaef4	0.08431807
118	0x3f7d568e	0.98960197
119	0x3e85d8aa	0.26141864
120	0x3dd2c16d	0.10290799
121	0x3f7eb4cf	0.9949464
122	0x3e98a04b	0.29809794
123	0x3df80750	0.1211077
124	0x3f7ed48b	0.99543065
125	0x3eae05fd	0.33988944
126	0x3e0edf6f	0.1395242
127	0x3f7d6dce	0.98995674
128	0x3ec67b3c	0.38765895
129	0x3e2219fd	0.15830226
130	0x3f7a5873	0.9779121
131	0x3ee09628	0.4386456
132	0x3e348da9	0.17632164
133	0x3f75ec0b	0.960633
134	0x3ef917f4	0.48651087
135	0x3e43a1ad	0.19104643
136	0x3f745d6a	0.9545504
137	0x3f072cc9	0.5280271
138	0x3e4be456	0.19911322
139	0x3f7585fb	0.9590756
140	0x3f0fa1ca	0.56106246
141	0x3e4f9ac9	0.2027389
142	0x3f78575f	0.9700832
143	0x3f16981c	0.5882585
144	0x3e546bf6	0.20744309
145	0x3f7aed19	0.9801803
146	0x3f1c4cac	0.6105449
147	0x3e5a7d53	0.2133687
148	0x3f7c62d5	0.98588306
149	0x3f201528	0.6253228
150	0x3e647681	0.2231083
151	0x3f7c9301	0.9866181
152	0x3f24116d	0.6408909
153	0x3e71ab52	0.2360051
154	0x3f7b801e	0.98242366
155	0x3f29d2f4	0.66337514
156	0x3e7f3172	0.24921206
157	0x3f799ab0	0.9750166
158	0x3f30289a	0.68811953
159	0x3e84aac4	0.25911534
160	0x3f765ab1	0.96232134
161	0x3f361c0f	0.71136564
162	0x3e8aca48	0.27107453
163	0x3f74a58c	0.95565104
164	0x3f3bb9f6	0.7333063
165	0x3e902a81	0.28157428
166	0x3f73c1d8	0.9521766
167	0x3f4039c6	0.75088155
168	0x3e947777	0.28997394
169	0x3f74448a	0.9541708
170	0x3f43a25e	0.7641963
171	0x3e97794c	0.2958473
172	0x3f75c55f	0.9600429
173	0x3f45f507	0.7732701
174	0x3e9a1b67	0.3009903
175	0x3f7793d3	0.96709937
176	0x3f480018	0.78125143
177	0x3e9c1b5a	0.30489618
178	0x3f78d785	0.97203857
179	0x3f495341	0.7864266
180	0x3e9d3c3b	0.30710015
181	0x3f79cf7a	0.9758221
182	0x3f4a3d1f	0.78999513
183	0x3e9e3cf4	0.3090588
184	0x3f7a37bc	0.97741294
185	0x3f4ab882	0.79187787
186	0x3e9ee3cb	0.31033167
187	0x3f7a5c01	0.97796637
188	0x3f4a89dc	0.79116607
189	0x3e9f39a5	0.31098667
190	0x3f7a48eb	0.97767514
191	0x3f4a2141	0.7895699
192	0x3e9f0cbb	0.310644
193	0x3f7a11ff	0.9768371
194	0x3f492bfb	0.78582734
195	0x3e9eb278	0.30995536
196	0x3f79f949	0.97646004
197	0x3f47998d	0.77968675
198	0x3e9e0ea0	0.30870533
199	0x3f79b2b6	0.97538316
200	0x3f458a78	0.7716441
201	0x3e9e3efc	0.30907428
202	0x3f78f7c1	0.9725304
203	0x3f42b5cd	0.76058656
204	0x3e9edcd0	0.31027842
205	0x3f78693a	0.97035563
206	0x3f401c36	0.75043046
207	0x3e9f1bae	0.31075805
208	0x3f78055e	0.9688319
209	0x3f3d3ee9	0.7392412
210	0x3e9eb6cd	0.3099884
211	0x3f77ef0e	0.96849144
212	0x3f39e180	0.7260971
213	0x3e9d74dd	0.30753222
214	0x3f77edd7	0.9684729
215	0x3f362cd5	0.7116216
216	0x3e9bd34c	0.30434644
217	0x3f78829c	0.97074294
218	0x3f327cbd	0.69721586
219	0x3e995c8b	0.29953417
220	0x3f79d714	0.9759381
221	0x3f2ebfcd	0.68261415
222	0x3e96f43d	0.29483214
223	0x3f7b9bcf	0.9828462
224	0x3f2af4e4	0.66779923
225	0x3e945b09	0.28975704
226	0x3f7cdafc	0.98771644
227	0x3f26f6db	0.6522042
228	0x3e92173f	0.2853336
229	0x3f7d3489	0.9890829
230	0x3f22a85c	0.63538146
231	0x3e8f7b49	0.28023747
232	0x3f7cc46c	0.98737216
233	0x3f1e01a9	0.61721283
234	0x3e8cc75e	0.27495855
235	0x3f7bdd75	0.9838479
236	0x3f18c892	0.59681046
237	0x3e897416	0.2684638
238	0x3f7aa41a	0.9790665
239	0x3f12e59b	0.573816
240	0x3e850480	0.25979996
241	0x3f79747a	0.97443354
242	0x3f0cbf61	0.5497952
243	0x3e7edaac	0.24888104
244	0x3f77da2e	0.9681729
245	0x3f05faf1	0.5233603
246	0x3e71b793	0.23605184
247	0x3f75f2f7	0.9607386
248	0x3efd0931	0.49421075
249	0x3e651444	0.22371012
250	0x3f74f920	0.95692635
251	0x3eec9d77	0.46213886
252	0x3e58b1aa	0.21161523
253	0x3f74e750	0.95665455
254	0x3edd6d7d	0.43247595
255	0x3e4b07d9	0.19827212

left_hand_pose f4 [131, 12]
0	0xbe7d7584	-0.2475186
1	0x3eb37e04	0.3505708
2	0x3e608d9c	0.2192902
3	0x3e58b87f	0.2116413
4	0xbd5669d5	-0.052347023
5	0xbf3a342c	-0.7273586
6	0x3ebc4926	0.36774558
7	0xbd1f7400	-0.038928986
8	0xbef6eb3f	-0.48226354
9	0xbf25a5bf	-0.64706033
10	0x3f285272	0.657508
11	0xbf1e2511	-0.6177531
12	0xbd2251ba	-0.03962872
13	0x3f081f66	0.5317291
14	0x3e8d5e62	0.2761107
15	0x3f0d9fc1	0.5532189
16	0xbf09ae4a	-0.5378157
17	0xbef71c25	-0.4826366
18	0x3d0c672f	0.03427809
19	0x3d945ea1	0.072446115
20	0xbefd8b4e	-0.49520344
21	0xbf1b3211	-0.6062327
22	0x3f36f5ce	0.7146882
23	0xbf38ca2e	-0.721835
24	0xbcb695f3	-0.022288298
25	0x3f18ca39	0.5968357
26	0x3dd5e0be	0.10443257
27	0x3f52b992	0.8231441
28	0xbea3059c	-0.31840217
29	0xbf5c9c38	-0.8617587
30	0xbeb58e8c	-0.35460317
31	0xbd4ad784	-0.049521938
32	0xbf72d379	-0.9485393
33	0xbf11b555	-0.56917316
34	0x3f81b694	1.0133843
35	0xbedeffe8	-0.43554616
36	0x3d9276e8	0.07151586
37	0x3ee86a27	0.45393488
38	0x3e7f427a	0.24927703
39	0x3f1e534d	0.61845857
40	0xbed1e831	-0.4099746
41	0xbedea0d3	-0.43482074
42	0xbe361594	-0.17781669
43	0xbdc210a7	-0.094758324
44	0xbe8da85b	-0.27667508
45	0xbf4c8a23	-0.7989828
46	0x3f306575	0.6890481
47	0xbf823f68	-1.01756
48	0x3d1a3615	0.037649233
49	0x3ee54098	0.44775844
50	0x3e855542	0.2604161
51	0x3f09890b	0.53724736
52	0xbe2e5859	-0.1702589
53	0xbee49cd0	-0.44650888
54	0xbe84f900	-0.25971222
55	0xbe859b5a	-0.26095086
56	0xbf121589	-0.5706411
57	0xbf6a2764	-0.91466355
58	0x3f49fa0e	0.7889718
59	0xbfa0dea9	-1.256795
60	0x3aa5b7d3	0.0012643285
61	0x3edd7cb8	0.43259215
62	0x3e4bc5ae	0.19899628
63	0x3efc789d	0.4931077
64	0xbe505ca9	-0.20347847
65	0xbf0d1081	-0.5510331
66	0xbdade981	-0.08491803
67	0xbed7ee99	-0.42174223
68	0xbf03dc4d	-0.5150803
69	0xbf5e0642	-0.867283
70	0x3f7ec375	0.99516994
71	0xbfa20c28	-1.265996
72	0xbda2d4ce	-0.079507455
73	0x3ed14725	0.4087459
74	0x3e28fa53	0.16501741
75	0x3f12bdff	0.5732116
76	0xbe17f81b	-0.14840738
77	0xbf299936	-0.66249406
78	0xbd779a6e	-0.06045001
79	0xbe9a0ec1	-0.3008938
80	0xbf1358cd	-0.57557374
81	0xbf7bf5a2	-0.9842168
82	0x3f6828f4	0.9068749
83	0xbf857197	-1.042529
84	0xbd502d4e	-0.050824456
85	0x3edc1b80	0.4298973
86	0x3e8058c3	0.2506772
87	0x3f03576f	0.5130529
88	0xbe0af692	-0.13570622
89	0xbedcda96	-0.43135518
90	0xbe0caa23	-0.13736777
91	0xbeb49d68	-0.3527634
92	0xbf0a683e	-0.5406531
93	0xbf5ff461	-0.8748227
94	0x3f3a0425	0.72662574
95	0xbf910887	-1.1330727
96	0xbd1f9ba9	-0.03896681
97	0x3ed05323	0.40688428
98	0x3e70cbf2	0.23515299
99	0x3f1092da	0.5647408
100	0xbdaa1fd3	-0.08306851
101	0xbeee2ce7	-0.46518633
102	0xbdd926db	-0.10603114
103	0xbe938035	-0.28808752
104	0xbf0683d9	-0.52544934
105	0xbf6f63a4	-0.93511415
106	0x3f26b8be	0.65125644
107	0xbf97467b	-1.1818384
108	0xbd6715b1	-0.05641717
109	0x3ed94bca	0.42440635
110	0x3e98a18d	0.29810753
111	0x3f01d399	0.507135
112	0xbe3231a7	-0.17401753
113	0xbecb6bb7	-0.39730617
114	0xbe5cfff9	-0.21582021
115	0xbe8d0aea	-0.2754739
116	0xbf041077	-0.51587623
117	0xbf69b9c5	-0.91299087
118	0x3f5c7b05	0.8612521
119	0xbf91ba06	-1.1384895
120	0xbba07405	-0.004896643
121	0x3ee0af09	0.4388354
122	0x3ebd22af	0.36940524
123	0x3f03059e	0.51180446
124	0xbe4272f7	-0.18989168
125	0xbebe6798	-0.3718841
126	0xbebcc3ae	-0.36868042
127	0xbe07d013	-0.13262968
128	0xbee7b25b	-0.45253262
129	0xbf505e5a	-0.8139397
130	0x3f130f85	0.57445556
131	0xbf8ba127	-1.0908555
132	0x3dc400c1	0.09570456
133	0x3ee70730	0.4512267
134	0x3ead9a25	0.33906665
135	0x3f23a79a	0.63927615
136	0xbe97d19e	-0.29652113
137	0xbefcea1a	-0.49397355
138	0xbecce825	-0.40020862
139	0xbc828dbe	-0.015936729
140	0xbf05cbf6	-0.52264345
141	0xbf561159	-0.8362022
142	0x3ef88c79	0.48544672
143	0xbf70fec0	-0.9413872
144	0x3d8c04a7	0.06836825
145	0x3ebddc30	0.37082052
146	0x3e8f829d	0.28029338
147	0x3f2e6a1d	0.68130666
148	0xbe32bd62	-0.17455056
149	0xbee75123	-0.4517909
150	0xbf05356a	-0.5203463
151	0xbe36ab48	-0.17838776
152	0xbeb52638	-0.3538072
153	0xbf5d441a	-0.8643204
154	0x3eaf3bc9	0.342253
155	0xbf7593a2	-0.95928395
156	0x3d90f0a2	0.07077147
157	0x3edbb698	0.42912745
158	0x3ea27887	0.3173258
159	0x3f1ecaf9	0.6202846
160	0xbe4f25d8	-0.2022928
161	0xbeb851f4	-0.36000025
162	0xbf07bd11	-0.5302287
163	0xbb7866ed	-0.0037903145
164	0xbef3fd3b	-0.47654137
165	0xbf51185c	-0.81677794
166	0x3e3efbc9	0.18650736
167	0xbf666741	-0.900013
168	0xbc2b7e71	-0.010467158
169	0x3effb516	0.49942845
170	0x3e99d084	0.30041897
171	0x3f28195b	0.6566369
172	0xbe58ee11	-0.21184565
173	0xbebe82ba	-0.3720911
174	0xbef17b4d	-0.47164384
175	0x3e52f341	0.20600607
176	0xbedc7805	-0.43060318
177	0xbf307b66	-0.6893829
178	0x3e678b38	0.22611701
179	0xbf29d7d0	-0.6634493
180	0xbdb99fe5	-0.090637006
181	0x3f079717	0.5296492
182	0x3e9f646a	0.31131297
183	0x3f236492	0.63825333
184	0xbe381bed	-0.17979403
185	0xbea2f9f4	-0.31831324
186	0xbf15b16d	-0.58473855
187	0x3e60ac22	0.21940663
188	0xbf1f7e95	-0.62302524
189	0xbf28b5ee	-0.659026
190	0x3e356a5b	0.17716353
191	0xbf082478	-0.53180647
192	0xbe66ff08	-0.22558224
193	0x3f046bd3	0.51727027
194	0x3ea59c82	0.32345968
195	0x3f2a77a5	0.66588813
196	0xbe83cf11	-0.25743917
197	0xbee956ab	-0.45573935
198	0xbed00ec7	-0.40636274
199	0x3e2fc151	0.17163588
200	0xbebaf88b	-0.36517748
201	0xbf0a91c6	-0.5412868
202	0x3e7d4f35	0.24737246
203	0xbed1ba16	-0.40962285
204	0xbe48ac6e	-0.19597027
205	0x3f00bfa0	0.50292397
206	0x3ea0a79f	0.31377885
207	0x3f13babb	0.57706803
208	0xbeb01e08	-0.34397912
209	0xbf13b1e8	-0.5769334
210	0xbe849bc7	-0.259001
211	0x3da6d435	0.08145944
212	0xbeb01648	-0.34392
213	0xbf0e0325	-0.5547355
214	0x3f07bd2f	0.53023046
215	0xbf273b65	-0.65325004
216	0xbdce5248	-0.10074288
217	0x3ed9cdcb	0.4253982
218	0x3e801bdd	0.25021258
219	0x3f0de8fa	0.5543362
220	0xbeb00349	-0.34377506
221	0xbf1d87cb	-0.6153533
222	0xbce2cee4	-0.027686544
223	0xbd2ad8b4	-0.04171057
224	0xbf07fb6f	-0.5311803
225	0xbf3c3bfd	-0.73529035
226	0x3f2fa548	0.68611574
227	0xbf508837	-0.8145785
228	0xbd929b04	-0.07158473
229	0x3ee862af	0.4538779
230	0x3d91ad74	0.07113162
231	0x3f160189	0.5859609
232	0xbf11d9d2	-0.5697299
233	0xbf8211df	-1.0161704
234	0x3eb920c8	0.36157823
235	0x3d3b0910	0.04566294
236	0xbedec651	-0.43510678
237	0xbf330b0b	-0.69938725
238	0x3f8a26e5	1.079312
239	0xbf522d02	-0.82099926
240	0xbe85582d	-0.26043835
241	0x3ea5498e	0.3228268
242	0x3d3af799	0.045646284
243	0x3f2cfac0	0.67570114
244	0xbba50f55	-0.005037228
245	0xbf0adcbb	-0.5424306
246	0x3de66a4a	0.11250742
247	0xbe4e8365	-0.2016731
248	0xbf0097ee	-0.50231826
249	0xbf62da43	-0.8861429
250	0x3ec8cfc8	0.39221025
251	0xbf411107	-0.75416607
252	0xbe15b197	-0.14618526
253	0x3e9cbb13	0.30611476
254	0x3e3f7c07	0.18699656
255	0x3f3786b3	0.7168991

right_hand_pose f4 [131, 12]
0	0xbdac1516	-0.08402459
1	0x3e3aa58c	0.18227214
2	0xbe34aae3	-0.17643313
3	0xbeaf0d37	-0.3418977
4	0xbf075664	-0.52866197
5	0xbeac13af	-0.33608767
6	0x3fd6b95b	1.6775316
7	0xbed456c5	-0.4147245
8	0xbf061914	-0.52382016
9	0xbf888314	-1.0665002
10	0x4016ced4	2.3563738
11	0xbfd0770d	-1.6286331
12	0x3e8fc305	0.28078476
13	0x3eaff6b1	0.34367898
14	0x3d2625ca	0.040563382
15	0x3eac7ad7	0.3368747
16	0xbf01d050	-0.50708485
17	0xbf594284	-0.8486712
18	0x3f1a5696	0.6028837
19	0xbee1eb21	-0.44124702
20	0xbf402494	-0.75055814
21	0xbf9f03a6	-1.2422988
22	0x400bda8e	2.1852145
23	0xbfdc199c	-1.7195315
24	0x3eeac6df	0.45854852
25	0x3ed67d21	0.4189234
26	0x3da44a14	0.08021942
27	0x3f0d87a1	0.5528508
28	0xbf19067c	-0.5977552
29	0xbf0df88b	-0.5545737
30	0x3e80c488	0.2514994
31	0xbd10b300	-0.035326958
32	0xbf4c9252	-0.7991077
33	0xbf942a12	-1.1575339
34	0x3fab430b	1.3379835
35	0xbfc5d5f9	-1.5455924
36	0x3f03db1d	0.51506215
37	0x3f03a2b2	0.5142013
38	0x3d673d9e	0.056455247
39	0x3f58eb58	0.84734106
40	0xbf1ed0d3	-0.6203739
41	0xbf0d0d8a	-0.55098784
42	0x3cff22df	0.031144558
43	0x3e1da9fd	0.15396877
44	0xbf2da8da	-0.6783577
45	0xbf703846	-0.93835866
46	0x3f1744f3	0.59089583
47	0xbf9fedcc	-1.2494445
48	0x3ee6fb9a	0.45113832
49	0x3edace00	0.4273529
50	0xbe316ff3	-0.17327861
51	0x3f1f5c30	0.6225004
52	0xbf2cfe27	-0.67575306
53	0xbf2dc3d0	-0.6787691
54	0x3e706c2c	0.23478764
55	0x3ee3bb0a	0.44478637
56	0xbede066c	-0.43364275
57	0xbf777b47	-0.9667248
58	0x3c40db63	0.011771056
59	0xbf7cecf9	-0.9879909
60	0x3f0d4bb7	0.55193657
61	0x3ecc54d7	0.39908478
62	0xbcfee590	-0.031115323
63	0x3f45a04c	0.7719772
64	0xbf3cfd0a	-0.73823607
65	0xbf101bc2	-0.56292355
66	0xbc7e0d57	-0.01550611
67	0x3e2a90cd	0.166568
68	0xbf0c26b5	-0.5474656
69	0xbf79329e	-0.9734286
70	0x3ebb22ac	0.3654989
71	0xbf9feadf	-1.2493552
72	0x3ef5f070	0.48035002
73	0x3f065c2c	0.52484393
74	0x3e80a82b	0.25128302
75	0x3f847849	1.0349208
76	0xbdef8de6	-0.11696987
77	0xbf02ad7d	-0.5104597
78	0x3f034656	0.512792
79	0x3f898316	1.0743129
80	0xbf294b86	-0.66130865
81	0xbf5aa98e	-0.8541497
82	0x3ea2c1c3	0.31788453
83	0xbfd7a0a8	-1.6845903
84	0x3eb05a24	0.34443772
85	0x3f150893	0.5821621
86	0x3e39ed96	0.18157038
87	0x3f50a58f	0.8150262
88	0xbf10aad0	-0.5651064
89	0xbf198211	-0.5996409
90	0x3ed65da7	0.41868326
91	0x3e2529c0	0.16129208
92	0xbf1b0ae4	-0.6056349
93	0xbf82455e	-1.0177419
94	0x3fa376a7	1.2770585
95	0xbfb4e4d6	-1.4132335
96	0x3ec0e426	0.37674063
97	0x3f004e89	0.50119835
98	0x3e2c039b	0.1679825
99	0x3f54148c	0.8284385
100	0xbf2d342a	-0.6765772
101	0xbf0f43a1	-0.5596257
102	0xbc723da0	-0.0147852
103	0x3c6db40c	0.014508259
104	0xbf23e6f4	-0.6402428
105	0xbf5be28d	-0.85892564
106	0x3fba19b0	1.4539089
107	0xbf9f9679	-1.2467796
108	0x3eb0bb78	0.34518027
109	0x3ee2b0b7	0.44275448
110	0x3ded5a6e	0.11589514
111	0x3f1e1694	0.617532
112	0xbf44758f	-0.7674188
113	0xbf3d0707	-0.7383885
114	0x3e68f983	0.22751431
115	0x3e7fefc2	0.24993804
116	0xbf5ace48	-0.8547101
117	0xbf7b0692	-0.980569
118	0x3f9669b8	1.1751013
119	0xbfa57108	-1.2925119
120	0x3ec1d457	0.37857315
121	0x3f0e9080	0.5568924
122	0x3e3bff45	0.18359096
123	0x3f48a8d4	0.7838261
124	0xbf1cc62a	-0.61239874
125	0xbee4a4a2	-0.44656855
126	0x3e243c9e	0.16038749
127	0x3e12b780	0.14327812
128	0xbf53cabc	-0.82731223
129	0xbf8e4784	-1.1115575
130	0x3f923f9a	1.142566
131	0xbfbb4bfb	-1.4632562
132	0x3ed7418b	0.42042193
133	0x3ee8505e	0.45373815
134	0x3e1a09d6	0.15042815
135	0x3f33849e	0.7012423
136	0xbf09cf60	-0.53832054
137	0xbf08c447	-0.53424495
138	0x3e4fd8e0	0.20297575
139	0xbe60b372	-0.21943453
140	0xbf338dba	-0.7013813
141	0xbf8cfa16	-1.101382
142	0x3fbec7e2	1.4904749
143	0xbfd74171	-1.6816846
144	0x3ecd8f70	0.40148497
145	0x3eea5211	0.45765737
146	0x3de2d4fe	0.11075781
147	0x3f3a9a42	0.7289163
148	0xbf0ed5dd	-0.5579508
149	0xbf111ea7	-0.56687397
150	0x3e5ece16	0.21758303
151	0xbeaaa63d	-0.33329955
152	0xbf531ecd	-0.82468873
153	0xbfa00f27	-1.2504624
154	0x3fceaffe	1.6147459
155	0xbfdebcee	-1.7401407
156	0x3eab0b0e	0.33406872
157	0x3ee560ae	0.44800323
158	0x3e383cb9	0.17991914
159	0x3f3a9a26	0.7289146
160	0xbef75360	-0.48305798
161	0xbf03a934	-0.5143006
162	0x3e4322f1	0.19056298
163	0xbf016756	-0.50548303
164	0xbf4eabb8	-0.8073077
165	0xbfa17771	-1.2614576
166	0x40010801	2.0161135
167	0xbfebaccd	-1.841211
168	0x3ecd7f70	0.4013629
169	0x3f09a2d0	0.5376406
170	0x3e741893	0.238375
171	0x3f56978a	0.8382498
172	0xbf18bd2d	-0.5966366
173	0xbee23445	-0.44180503
174	0xbbb2edef	-0.005460493
175	0xbe966900	-0.29376984
176	0xbf53b8c1	-0.8270379
177	0xbf8c2b52	-1.095072
178	0x3fd12b30	1.6341305
179	0xbfd62c5d	-1.6732289
180	0x3ea1b1e3	0.3158103
181	0x3efb8483	0.49124536
182	0x3e396076	0.18103203
183	0x3eff5d14	0.498757
184	0xbf1a4324	-0.602587
185	0xbef14636	-0.4712388
186	0x3e9a7f59	0.30175284
187	0xbe2b1f33	-0.1671112
188	0xbf1ae186	-0.6050037
189	0xbf892207	-1.0713509
190	0x3fbb651c	1.4640231
191	0xbfde8ffe	-1.7387693
192	0x3e8a8feb	0.27062926
193	0x3f03d08e	0.51490104
194	0x3e6b384e	0.22970697
195	0x3f10edee	0.5661305
196	0xbf2e7ff4	-0.6816399
197	0xbef8c4ef	-0.48587748
198	0x3e792f24	0.24334389
199	0xbd3fa5e4	-0.046789065
200	0xbf214040	-0.6298866
201	0xbf8544d4	-1.041163
202	0x3fb7face	1.4373415
203	0xbfc83f06	-1.5644233
204	0x3e9cfa71	0.30659822
205	0x3f0546f8	0.52061415
206	0x3e812e93	0.25230846
207	0x3f1fe444	0.6245768
208	0xbf230efc	-0.6369474
209	0xbee2f359	-0.44326285
210	0x3df35fe1	0.11883522
211	0xbcafb081	-0.021446468
212	0xbf51c68c	-0.81943583
213	0xbf7a68b3	-0.9781601
214	0x3fd9cfb8	1.7016516
215	0xbfbb79e4	-1.4646573
216	0x3ea4798b	0.3212398
217	0x3f00b7b1	0.5028029
218	0x3e54aa75	0.20768149
219	0x3f3bba80	0.7333145
220	0xbf2ffbc6	-0.6874355
221	0xbf084abb	-0.5323903
222	0x3d905022	0.07046534
223	0x3c9ff7d7	0.019527359
224	0xbf454dc1	-0.7707177
225	0xbf5cba8e	-0.8622216
226	0x3fae04ad	1.3595177
227	0xbfaa47c1	-1.3303148
228	0x3eaa45c1	0.33256343
229	0x3ee5ab3c	0.44857204
230	0x3e7e9fca	0.24865642
231	0x3f4a6ba0	0.7907047
232	0xbefcd534	-0.4938141
233	0xbef1c213	-0.4721838
234	0xbdfb4fc3	-0.12271073
235	0xbe825475	-0.2545506
236	0xbf54d953	-0.8314411
237	0xbf86aa92	-1.0520804
238	0x3fa4d82b	1.2878469
239	0xbfcb3f85	-1.587876
240	0x3ea2e994	0.3181883
241	0x3eeba909	0.460274
242	0x3e47eb8e	0.1952345
243	0x3f37f9ae	0.71865356
244	0xbeb25d0a	-0.34836608
245	0xbeb35273	-0.3502384
246	0xbd6ce450	-0.057834923
247	0xbe9d9100	-0.3077469
248	0xbf67c8e6	-0.9054092
249	0xbf90e523	-1.1319927
250	0x3f96eceb	1.1791052
251	0xbfcec124	-1.6152692
252	0x3eb6fbec	0.35739076
253	0x3eeadb8c	0.45870626
254	0x3e2338a1	0.15939571
255	0x3f4f266b	0.80917996

jaw_pose f4 [131, 3]
0	0xbde6f671	-0.11277474
1	0x3c111e0e	0.008857263
2	0x3b32a613	0.0027259632
3	0x3d0b9387	0.03407624
4	0x3c4adb94	0.012381453
5	0x3ba61364	0.0050682295
6	0x3d18d86c	0.03731577
7	0x3c03cd95	0.00804462
8	0x3b256c0b	0.00252414
9	0x3d3c8514	0.04602535
10	0x3b9e9d80	0.004840553
11	0x3b20b4f0	0.002452191
12	0x3d7057fc	0.05867766
13	0x3b88c89d	0.0041743056
14	0x3ab5f8b6	0.0013883326
15	0x3dac1d91	0.08404077
16	0x3b92cdf2	0.004480117
17	0x3acebd18	0.0015772907
18	0x3d926f13	0.07150092
19	0x3baa7029	0.005201359
20	0x3af93bb2	0.0019014983
21	0x3d8cba2d	0.06871448
22	0x3b7f9266	0.0038997172
23	0x3ac3898d	0.0014918313
24	0x3da4ab8c	0.080405325
25	0x3b793581	0.0038026276
26	0x3ab7f6f7	0.0014035393
27	0x3d935a15	0.07194916
28	0x3b90bb06	0.004416826
29	0x3ab31492	0.0013662747
30	0x3d957603	0.072978996
31	0x3b74fadd	0.0037380971
32	0x3a90007d	0.0010986474
33	0x3d9a33a9	0.07529385
34	0x3bca41e1	0.006172404
35	0x3b4cf8da	0.0031276257
36	0x3d97e9ca	0.074176386
37	0x3bf41377	0.0074486095
38	0x3b8214b0	0.0039697513
39	0x3d84c9d3	0.064838074
40	0x3c355d68	0.011069633
41	0x3b85116d	0.004060915
42	0x3d6d05f2	0.057866998
43	0x3c261578	0.0101369545
44	0x3ba544ca	0.0050436007
45	0x3d2293d3	0.039691757
46	0x3c3c7cba	0.0115043465
47	0x3b95cdbc	0.0045716446
48	0x3d3e0cf4	0.04639907
49	0x3c1cad69	0.009562829
50	0x3ba27cbc	0.004958717
51	0x3d645c40	0.05575204
52	0x3c20710e	0.009792579
53	0x3bae8186	0.005325499
54	0x3d6d532f	0.05794066
55	0x3c258ad9	0.010103905
56	0x3ba72e89	0.005101983
57	0x3d75cd0b	0.060009997
58	0x3c519c09	0.012793549
59	0x3b9c625c	0.0047724675
60	0x3d4e8512	0.050419874
61	0x3c261f91	0.010139362
62	0x3bafe238	0.0053675435
63	0x3d9676ed	0.07346902
64	0x3c1a440b	0.009415637
65	0x3baecad9	0.00533424
66	0x3d8d09f7	0.06886666
67	0x3c1d90d1	0.009617046
68	0x3bab975b	0.005236549
69	0x3d8702a3	0.065923
70	0x3c191c02	0.0093450565
71	0x3ba10730	0.004914187
72	0x3d838129	0.0642112
73	0x3c07b1b6	0.008282116
74	0x3b995600	0.0046794415
75	0x3daa7292	0.08322634
76	0x3c058ce0	0.008151263
77	0x3b906391	0.0044064005
78	0x3db09075	0.08621303
79	0x3c0ac306	0.008469349
80	0x3b8ea708	0.004353408
81	0x3d9af8f2	0.07567014
82	0x3bdf8340	0.006821066
83	0x3b0c7431	0.002143156
84	0x3d91bb13	0.0711576
85	0x3b81470a	0.003945236
86	0x3b01c895	0.0019803394
87	0x3d7e43fa	0.062076546
88	0x3bb13e3c	0.0054090302
89	0x3addc240	0.0016918853
90	0x3d78ad12	0.060711928
91	0x3bcf4784	0.006325664
92	0x3b417d6d	0.0029524222
93	0x3d467a03	0.048456203
94	0x3bc823a5	0.006107765
95	0x3ae3743c	0.0017353366
96	0x3d370765	0.044684786
97	0x3bd124a5	0.006382542
98	0x3b414db3	0.0029495775
99	0x3d2e3c4f	0.042537984
100	0x3bad5ed5	0.005290846
101	0x3aef9163	0.0018277582
102	0x3d88f671	0.0668763
103	0x3bf511b9	0.0074789193
104	0x3b7c41b5	0.0038491313
105	0x3d581869	0.052757654
106	0x3bff2cec	0.0077873375
107	0x3b824991	0.003976055
108	0x3d489617	0.04897126
109	0x3bb7c015	0.0056076148
110	0x3ae0786a	0.001712573
111	0x3d93bef0	0.07214153
112	0x3b36ce69	0.0027894026
113	0x3ab37dfb	0.0013694161
114	0x3d862024	0.06549099
115	0x3b45e026	0.0030193417
116	0x3ac9080e	0.0015337483
117	0x3d9074ec	0.07053551
118	0x3b41bf0a	0.002956333
119	0x3a42d9a7	0.00074329454
120	0x3d83abf0	0.06429279
121	0x3b60ef2f	0.0034322252
122	0x3ac3f2c8	0.0014949674
123	0x3daf02fe	0.085454926
124	0x3b92fdf1	0.0044858386
125	0x3ab6a3f6	0.0013934362
126	0x3dcd0849	0.10011346
127	0x3b4feefe	0.0031728144
128	0x3aa8e44b	0.001288542
129	0x3dd7c5ba	0.1053576
130	0x3bb798dc	0.005602939
131	0x3afa23fa	0.0019084208
132	0x3de8d22c	0.11368212
133	0x3a11e80e	0.000556589
134	0x381adc2b	3.692151e-05
135	0x3dda742b	0.106666885
136	0xb9646ed5	-0.00021785063
137	0x3779f0e7	1.4897646e-05
138	0x3dc5763f	0.09641694
139	0xbab858df	-0.0014064572
140	0xba5d7121	-0.00084473385
141	0x3e0b6b6c	0.13615197
142	0x3ad618d0	0.0016334299
143	0x3a1cb8f9	0.0005978491
144	0x3e023023	0.12713675
145	0x3b438572	0.0029834178
146	0x3ab8c7f0	0.0014097672
147	0x3df55a28	0.119800866
148	0x3a8604d2	0.0010224825
149	0x3a1b1a8c	0.00059167366
150	0x3dab7544	0.08371976
151	0xb74c0809	-1.2161218e-05
152	0x396f7386	0.00022835852
153	0x3dbca2d8	0.092107475
154	0xbb0b3cea	-0.0021246024
155	0xba35688d	-0.00069201813
156	0x3d9adb69	0.075613804
157	0xbbdec33c	-0.006798176
158	0xbb4d02b2	-0.0031282124
159	0x3da8b029	0.08236725
160	0xbc28b7dd	-0.010297743
161	0xbb892a03	-0.0041859164
162	0x3d871e5c	0.065975875
163	0xbbfdd33c	-0.0077461284
164	0xbb38be0b	-0.0028189446
165	0x3da35f0c	0.07977113
166	0xbc0b6540	-0.008508027
167	0xbb82c653	-0.0039909272
168	0x3db94210	0.090458035
169	0xbc0e8539	-0.008698755
170	0xbb858670	-0.004074864
171	0x3dc0884a	0.09400995
172	0xbc0d87d2	-0.008638339
173	0xbb73a835	-0.0037179117
174	0x3de67b29	0.1125396
175	0xbbd532bf	-0.0065062935
176	0xbabfc222	-0.001463
177	0x3e01ff15	0.12694962
178	0xbc07f7b6	-0.008298805
179	0xbb73516c	-0.0037127389
180	0x3df94fdd	0.12173436
181	0xbc278b7c	-0.010226127
182	0xbb91a544	-0.00444475
183	0x3e007b2a	0.12546983
184	0xbc1bebe5	-0.009516691
185	0xbb9997fc	-0.0046873074
186	0x3e0329a7	0.12808858
187	0xbc618df9	-0.013766759
188	0xbb82e1a7	-0.003994185
189	0x3dea3538	0.11435932
190	0xbc383455	-0.011242946
191	0xbba5184a	-0.005038296
192	0x3df941f3	0.12170782
193	0xbc3e1046	-0.01160056
194	0xbba2eb95	-0.004971931
195	0x3dfaaaaf	0.122395866
196	0xbc20fe60	-0.009826273
197	0xbb911823	-0.004427926
198	0x3de8b868	0.11363298
199	0xbc1be1ad	-0.0095142545
200	0xbb934f61	-0.0044955467
201	0x3df073b0	0.11740816
202	0xbc03e4f7	-0.008050195
203	0xbb6ab1b8	-0.0035811495
204	0x3dfa9072	0.12234582
205	0xbc03d3f7	-0.008046142
206	0xbb6995d7	-0.003564229
207	0x3de7ac59	0.113121696
208	0xbc129baf	-0.008948251
209	0xbb862980	-0.0040943027
210	0x3dce823a	0.100834325
211	0xbc46fd57	-0.012145362
212	0xbb80f65a	-0.0039356174
213	0x3dcafb3d	0.09911201
214	0xbc55bc30	-0.013045356
215	0xbb8757c5	-0.004130336
216	0x3dc95d99	0.098323055
217	0xbc3334bf	-0.010937869
218	0xbba58476	-0.005051191
219	0x3de4085b	0.11134406
220	0xbc57537a	-0.013142461
221	0xbb85e417	-0.0040860283
222	0x3dda6fea	0.10665877
223	0xbc696957	-0.014246306
224	0xbb887219	-0.004163992
225	0x3dcd459c	0.100230426
226	0xbc2e433a	-0.010636145
227	0xbba35587	-0.004984561
228	0x3ddc224f	0.10748731
229	0xbc4c80b7	-0.01248186
230	0xbb946e3a	-0.0045297416
231	0x3dd165bd	0.10224483
232	0xbc2bc270	-0.010483369
233	0xbb9a6b06	-0.004712465
234	0x3df331c9	0.1187473
235	0xbc253cc6	-0.01008529
236	0xbb8faac9	-0.004384373
237	0x3e13e44a	0.14442554
238	0xbc212882	-0.009836318
239	0xbb8f65d7	-0.004376154
240	0x3e19c35c	0.1501593
241	0xbc1c58b0	-0.009542629
242	0xbb92a594	-0.004475305
243	0x3e1cc830	0.1531074
244	0xbc019743	-0.007909599
245	0xbb7d6d8e	-0.0038670036
246	0x3e17d29a	0.14826432
247	0xbbbad399	-0.005701494
248	0xbb1f6522	-0.0024321754
249	0x3e1394ac	0.14412183
250	0xbba2a3d9	-0.00496338
251	0xbac72408	-0.0015193233
252	0x3e08791e	0.13327453
253	0xbb83d4f2	-0.004023188
254	0xbaa607e4	-0.0012667147
255	0x3e02e377	0.12782083
