test_dataset/gait_809/20250819_c1_a4_Take2/split_subjects/0/fit-smplx/smplx-params.npz (npz, 88146 bytes, 10 tensors)

betas f4 [174, 11]
000000 e2 c4 ed 3e 5d 9b 36 c0 2f 6d ad bf dd af 00 c0
       0.46439272 -2.8532326 -1.3548945 -2.0107338
000010 cb 89 dc bf 45 10 ae bf e3 77 95 be 0d b4 76 3f
       -1.7229551 -1.3598715 -0.2919303 0.96368486
000020 73 d1 be be c7 f2 90 be a8 5a 86 3e cc d1 fe 3e
       -0.37269172 -0.28310224 0.2624104 0.49769437
000030 4e 03 85 c0 4a 94 2e 3e 7b 95 c0 bf f5 cb e9 bf
       -4.1566534 0.17048755 -1.5045618 -1.8265368
000040 30 48 cb bf 1f 68 91 3c 35 e4 ee be 38 20 8d 3e
       -1.5881405 0.017749844 -0.46658483 0.27563643
000050 16 d1 af be f9 cc 97 3e e2 6d 42 3f 83 10 3c c0
       -0.34339207 0.2964857 0.7594892 -2.9385078
000060 71 cf d2 3f 90 71 14 3d 69 cc ad bf 79 41 33 bf
       1.6469556 0.036241114 -1.3578006 -0.7002178
000070 31 8e c3 be 33 ca c9 3f 93 31 c3 be a7 a5 60 3e
       -0.3819442 1.5764831 -0.3812376 0.21938191
000080 46 ff ba 3e b6 08 6f 3f d8 f9 16 c0 2b 76 c9 3f
       0.36522883 0.93372667 -2.3589993 1.5739187
000090 25 fd 02 be 7e 10 ac bf 4c 2b 01 be 36 97 0c bf
       -0.1279188 -1.3442533 -0.12614173 -0.5491823
0000a0 9e da 05 40 09 39 55 be f4 86 ed 3d 8e b2 bf 3e
       2.0914683 -0.20822538 0.11598006 0.37440914
0000b0 44 a9 7f 3f 11 c5 17 c0 27 64 cc 3f 7a 17 44 bd
       0.99867654 -2.371403 1.5968064 -0.04787395
0000c0 3a db a8 bf a4 22 d3 bb 6c 14 3f bf a5 f8 0e 40
       -1.3191903 -0.0064433385 -0.74640536 2.233926
0000d0 21 a4 39 be 46 8e b4 3d 59 10 c3 3e a2 f7 84 3f
       -0.18129016 0.08816199 0.3809841 1.0388072
0000e0 91 2a 13 c0 93 ae c4 3f 97 a2 8f bd c5 b7 9d bf
       -2.299473 1.5365776 -0.070134334 -1.2321707
0000f0 cb f1 38 3c 7e 41 61 bf 82 42 0e 40 bc b0 10 be
       0.011288117 -0.8799056 2.2228093 -0.14129919
000100 68 50 e3 3d e1 6f c4 3e 41 8c 85 3f f4 91 0d c0
       0.11099321 0.38366607 1.0433427 -2.2120333
000110 78 fa b3 3f 34 11 2d bd a4 ee 93 bf 37 65 f3 3c
       1.4060812 -0.042252734 -1.1557202 0.029711349
000120 df 37 84 bf 9e 61 1b 40 3f bd c2 bd d0 65 91 3d
       -1.032955 2.427833 -0.09508752 0.07099497
000130 68 c5 c3 3e c5 10 89 3f 4f 4a 1d c0 e0 6f e2 3f
       0.38236547 1.0708243 -2.4576604 1.7690392
000140 2f 09 d5 3d 7e b2 b3 bf 9e f0 e6 3c bb 85 8d bf
       0.10402142 -1.4038846 0.028190907 -1.1056436
000150 dc 49 10 40 17 11 02 be 89 0d d0 3d 65 06 c6 3e
       2.254508 -0.12701832 0.101588316 0.38676754
000160 f2 b3 94 3f 41 2d 22 c0 2c b0 ee 3f 84 33 28 3e
       1.1617415 -2.534012 1.8647513 0.16425902
000170 a6 f1 c0 bf e4 7c 13 3d ea 67 80 bf cf 78 05 40
       -1.5073745 0.036007777 -1.0031712 2.0854986
000180 0d 08 0a be 09 91 cd 3d c8 56 ca 3e 90 36 90 3f
       -0.13479634 0.10037429 0.39519334 1.1266651
000190 ab 4b 1a c0 80 d9 e2 3f da 9a cc 3d 81 a9 c7 bf
       -2.4108684 1.7722626 0.09990473 -1.5598603
0001a0 76 d2 22 3d ea 16 2f bf a8 61 04 40 fd 82 fd bd
       0.039751492 -0.6839434 2.0684605 -0.123785
0001b0 4a 4e c3 3d 60 04 ca 3e 16 62 96 3f 1b 96 1a c0
       0.09536417 0.39456463 1.1748683 -2.4154117
0001c0 d1 19 f1 3f 32 52 66 3d 25 38 c8 bf 25 b6 e3 bb
       1.8836004 0.05623073 -1.5642134 -0.0069492036
0001d0 84 23 39 bf e9 28 07 40 8b 2b 9b bd 18 db e6 3d
       -0.7231982 2.111872 -0.075766645 0.112722576
0001e0 3a cf ce 3e ea 70 8f 3f 9f f6 17 c0 82 c5 db 3f
       0.40392476 1.1206334 -2.3744276 1.716965
0001f0 40 84 85 3d 32 41 ce bf 24 94 38 3c 86 fa 1a bf
       0.06519365 -1.6113646 0.011265788 -0.6053852
000200 a5 f6 09 40 9c dd 2d bd 53 30 0a 3e 64 f7 c8 3e
       2.155679 -0.04244767 0.13494997 0.39251244
000210 54 4c 91 3f dc 89 0b c0 4e da aa 3f 00 a6 2a 3d
       1.1351418 -2.1802893 1.3347871 0.041662216
000220 a1 98 af bf 9e dd 5b bc c7 ac 0c bf 0b 05 0b 40
       -1.3718454 -0.013419537 -0.5495114 2.1721828
000230 25 72 29 bd 01 ae f2 3d 72 af c6 3e ad 6f 90 3f
       -0.041368622 0.11849595 0.3880573 1.1284081
000240 2f 66 09 c0 e2 b6 a9 3f ef 74 93 bd 8e d9 9c bf
       -2.1468618 1.3258936 -0.07200038 -1.2253892
000250 8d 91 5f bd 51 30 0c bf 9e e5 0a 40 04 8f 02 3d
       -0.054582167 -0.54761225 2.1702647 0.03187467
000260 95 42 f3 3d c9 18 c9 3e c5 94 84 3f 01 54 08 c0
       0.11877934 0.39276722 1.0357901 -2.1301272
000270 3e 65 a9 3f 33 23 bf bd b7 e5 9d bf 60 40 fb bd
       1.3234022 -0.093328856 -1.2335728 -0.12268138
000280 f9 33 f4 be da 61 0a 40 94 5c 32 3d 69 e2 f6 3d
       -0.47695902 2.1622224 0.04354532 0.12054903
000290 b6 ec c6 3e 92 62 84 3f ed cc 05 c0 9b 48 9f 3f
       0.3885247 1.0342581 -2.0906327 1.2444032
0002a0 a5 a8 e7 bd 80 c7 9c bf 95 e2 12 be b2 4c f9 be
       -0.11311463 -1.2248383 -0.14344247 -0.48691326
0002b0 e8 4f 06 40 80 65 80 3d 0e dc ff 3d 23 38 c4 3e
       2.098627 0.062693596 0.12493144 0.3832408
0002c0 ea 6e 75 3f e7 e4 06 c0 dd 1a a5 3f b9 a7 cf bd
       0.95872366 -2.107721 1.2898823 -0.101394124
0002d0 b0 0b a2 bf 4d c4 2b be e5 f7 ed be 00 4b fa 3f
       -1.2659817 -0.16774102 -0.4647819 1.9554138
0002e0 0d ac d8 3c 97 3a 0b 3e 53 02 c1 3e 7b d0 95 3f
       0.026449228 0.13596569 0.37697086 1.1704248
0002f0 71 22 12 c0 75 07 c9 3f a5 4b 6f 3c 4b 27 b1 bf
       -2.2833521 1.5705401 0.014605437 -1.3840116
000300 8d e2 16 be 25 45 e6 be 16 d0 ea 3f 24 5b 2b 3d
       -0.1473486 -0.44974628 1.8344753 0.041834965
000310 e6 2f 22 3e 12 fe cb 3e 00 29 98 3f 32 6e 18 c0
       0.15838584 0.39842278 1.1887512 -2.3817258
000320 56 a2 d7 3f 71 32 a4 3d 3d 04 bc bf e3 11 02 be
       1.6846416 0.080174334 -1.4688793 -0.12702136
000330 39 14 f3 be ef 6e dc 3f 6b f2 45 3b 14 fd 20 3e
       -0.47476366 1.7221354 0.0030204307 0.15721542
000340 4b b4 cc 3e f7 22 98 3f 82 8f 06 c0 03 66 9f 3f
       0.39981303 1.188567 -2.102509 1.2453007
000350 ea 57 5f bd 23 92 a4 bf df 4d 45 be 61 29 c9 be
       -0.0545272 -1.2857097 -0.19267987 -0.39289382
000360 89 40 d2 3f 96 16 92 3d 8e 53 3b 3e 10 7a ce 3e
       1.6425945 0.07133214 0.18293592 0.403275
000370 2b 21 99 3f 44 0c 0f c0 cb b1 a7 3f ad b8 55 3d
       1.1963247 -2.2351236 1.3101133 0.052178074
000380 27 16 b2 bf ae e5 7b bd 25 34 01 bf 03 74 d8 3f
       -1.391301 -0.061498336 -0.5047019 1.6910404
000390 a8 bc d8 bc 2a a1 22 3e ef 2c cc 3e 13 0d 92 3f
       -0.026457146 0.15881792 0.39878032 1.141024
0003a0 40 61 07 c0 47 b6 9e 3f 53 07 e6 3d 1d bf a4 bf
       -2.1153107 1.2399377 0.11231866 -1.2870823
0003b0 b5 60 56 3d 6e 28 06 bf 22 09 c3 3f cf 47 51 bd
       0.05233832 -0.5240544 1.5237162 -0.051093873
0003c0 7b fd 54 3e 87 81 d3 3e 3b 6b 8c 3f 04 63 00 c0
       0.2079982 0.4130976 1.0970224 -2.0060434
0003d0 df f1 68 3f 03 b5 14 3e 68 0f 91 bf 2b 71 d9 3d
       0.90994066 0.14522175 -1.1332827 0.10617288
0003e0 28 87 0d bf 01 98 cb 3f 45 44 b2 bd fa d8 49 3e
       -0.5528436 1.5905763 -0.08704428 0.19711676
0003f0 36 21 cc 3e 90 fc 89 3f 91 f4 09 c0 b1 d4 8e 3f
       0.39869088 1.0780201 -2.1555521 1.1158658

global_orient f4 [174, 3]
000000 dc c5 92 3d a5 e1 2b c0 d5 d4 2b bf 0a 81 08 3d
       0.07166645 -2.6856472 -0.6712163 0.033326186
000010 46 ef 29 c0 ac dd 19 bf 9e 52 89 3d e0 37 29 c0
       -2.655229 -0.6010387 0.06705211 -2.6440353
000020 7c 1f bf be 82 de a7 3d d5 5e 28 c0 06 8b 84 be
       -0.37328708 0.08196737 -2.630788 -0.25887316
000030 a1 ff ba 3d cc 9b 27 c0 a7 53 59 be 2f 98 c3 3d
       0.091307886 -2.618884 -0.21223317 0.09550511
000040 90 f0 26 c0 c9 36 41 be 8e 92 f7 3d 28 7c 27 c0
       -2.6084328 -0.18868555 0.120885 -2.616953
000050 a8 e1 37 be 8d bf e0 3d e9 d2 24 c0 66 8b 31 be
       -0.17957175 0.109740354 -2.575373 -0.17338333
000060 f7 f2 ca 3d 78 5d 23 c0 f9 f0 2d be 27 ee c1 3d
       0.09909623 -2.5525799 -0.16986455 0.09469252
000070 52 d8 21 c0 74 a5 29 be dc 7f 8e 3d fe 58 22 c0
       -2.5288281 -0.16567022 0.06957981 -2.5366817
000080 59 7e 20 be e4 e1 58 3d be e5 21 c0 20 1c 0f be
       -0.15673198 0.0529498 -2.5296474 -0.13975573
000090 f2 0a 2a 3d 9e 10 22 c0 75 07 07 be 6a 08 cc 3c
       0.041514345 -2.5322642 -0.13186438 0.024906356
0000a0 16 b8 22 c0 0e 6a 07 be ef 11 85 3b ba 17 23 c0
       -2.5424857 -0.1322405 0.0040609757 -2.5483232
0000b0 f1 44 04 be ed cf 09 bc 23 59 23 c0 a8 15 06 be
       -0.12916924 -0.00841139 -2.5523155 -0.13094199
0000c0 f3 0b e3 bc 20 55 23 c0 77 4f 0f be 1e a4 15 bd
       -0.027715659 -2.5520706 -0.13995157 -0.036533467
0000d0 2b ae 23 c0 15 e3 09 be b9 40 2d bd 2c cd 23 c0
       -2.5575054 -0.13465531 -0.042298052 -2.5593977
0000e0 0d 18 0a be 80 44 19 bd e0 f3 24 c0 60 73 f2 bd
       -0.13485737 -0.037418842 -2.577385 -0.11838412
0000f0 33 c8 26 bd 3e f7 25 c0 74 c6 d4 bd 27 e4 33 bd
       -0.04071827 -2.5932155 -0.103894144 -0.043918755
000100 5b 94 25 c0 f5 90 ab bd 18 7f 3d bd e1 f0 26 c0
       -2.58718 -0.08377258 -0.046263784 -2.608452
000110 11 2f 8f bd 74 be 0a bd 79 e5 29 c0 66 b4 89 bd
       -0.06991399 -0.033873037 -2.654631 -0.067238614
000120 99 d7 f1 bc 93 ca 2b c0 93 7b 98 bd ca 2c c3 bc
       -0.02952175 -2.6842391 -0.07445445 -0.023825068
000130 7b 85 2d c0 fe f7 b9 bd 83 a8 86 bc b0 2d 2e c0
       -2.711272 -0.09080504 -0.016437775 -2.7215385
000140 99 fd d5 bd ab 25 45 bc dc 0c 2c c0 ce bf e9 bd
       -0.104487605 -0.0120329065 -2.6882849 -0.11413537
000150 3b ba 04 3a 0f cf 29 c0 f0 e5 e7 bd 13 5b 66 3c
       0.0005063151 -2.6532629 -0.11323154 0.0140598
000160 9c ae 27 c0 b3 00 db bd 3e 59 19 3d 82 0c 26 c0
       -2.6200323 -0.10693493 0.037438624 -2.5945134
000170 2a b2 cc bd ac bf 80 3d 71 96 24 c0 fa b5 a5 bd
       -0.099949196 0.062865585 -2.5716822 -0.0809135
000180 75 c9 b2 3d fd f9 24 c0 ff df 6e bd 2e 59 d4 3d
       0.08729831 -2.577758 -0.058319088 0.10368572
000190 ce 2f 26 c0 45 d5 dc bc 72 17 e7 3d 4d 27 27 c0
       -2.5966678 -0.026957164 0.11283769 -2.6117737
0001a0 51 0b d6 bb 11 28 ff 3d 95 37 25 c0 27 6f 2e bc
       -0.0065321107 0.12458814 -2.5815175 -0.010646618
0001b0 2a 33 08 3e 96 a0 24 c0 4a 3b c1 bc 22 f7 0c 3e
       0.13300768 -2.5723014 -0.023587842 0.13766149
0001c0 c9 04 24 c0 30 bb f6 bc a3 90 08 3e d8 5e 22 c0
       -2.562792 -0.030118555 0.13336425 -2.5370388
0001d0 1d 38 29 bd a2 44 02 3e ec 30 20 c0 d7 b9 48 bd
       -0.04131328 0.12721494 -2.502986 -0.049005356
0001e0 25 14 f1 3d 0a 3f 1e c0 af 18 52 bd 2d 5d d1 3d
       0.117714204 -2.4725976 -0.05129307 0.1022285
0001f0 14 aa 1c c0 a6 32 6f bd 16 39 aa 3d 21 ea 19 c0
       -2.4478807 -0.05839791 0.083116695 -2.404915
000200 72 eb 9e bd ad f0 76 3d 4e 89 17 c0 05 e9 c2 bd
       -0.077597514 0.06028812 -2.3677554 -0.09517101
000210 03 a9 3a 3d a5 37 17 c0 51 d0 c5 bd 24 51 ba 3c
       0.04557134 -2.3627713 -0.09658874 0.022743769
000220 8f 1a 18 c0 37 88 be bd a6 ac 1a 3c a7 1f 18 c0
       -2.376621 -0.09303325 0.009440577 -2.376932
000230 c8 b2 b2 bd 83 76 ec ba dd e3 17 c0 05 75 a9 bd
       -0.08725506 -0.001804069 -2.3732827 -0.08274273
000240 eb 12 87 bc b0 41 19 c0 b3 6a 9c bd 91 72 0e bd
       -0.016488513 -2.3946342 -0.07637539 -0.034777228
000250 32 1e 1a c0 6a da 89 bd 75 a2 68 bd 5d 9b 1b c0
       -2.408093 -0.06731112 -0.056795556 -2.4313576
000260 ae 1c 72 bd 93 d7 8e bd 8a 97 1c c0 30 53 7a bd
       -0.059109382 -0.06974711 -2.4467492 -0.06111449
000270 10 88 af bd c9 12 1e c0 8a c2 5d bd 13 d0 cc bd
       -0.08570874 -2.4698966 -0.054140605 -0.100006245
000280 b2 ab 1f c0 b2 44 35 bd 33 30 e3 bd df 95 21 c0
       -2.4948545 -0.044254966 -0.11093178 -2.5247724
000290 e7 db 0b bd da 46 f0 bd b6 f6 23 c0 1a 99 be bc
       -0.034145262 -0.11732264 -2.561933 -0.023266364
0002a0 9c 4e 03 be ff df 25 c0 25 01 3f bc 45 73 fd bd
       -0.12822956 -2.5917966 -0.011657988 -0.123755015
0002b0 86 f6 27 c0 31 5f 71 ba 5e 6b fc bd 1c 26 2a c0
       -2.6244216 -0.0009207605 -0.12325166 -2.658576
0002c0 b3 d2 23 3c 22 90 06 be 3a 5d 2c c0 b7 e8 74 3c
       0.009998965 -0.1314092 -2.69319 0.014948062
0002d0 43 fd 05 be 19 0a 2f c0 04 41 08 3d c3 9b 06 be
       -0.13084893 -2.7349913 0.03326513 -0.13145356
0002e0 81 03 31 c0 6c d8 53 3d a6 30 08 be 7d aa 33 c0
       -2.7658389 0.051720068 -0.13299808 -2.8072808
0002f0 dd 03 7d 3d bf 35 07 be 0b 33 36 c0 ad 5f 78 3d
       0.061771262 -0.13204096 -2.8468654 0.06063812
000300 69 41 01 be 2e 3f 39 c0 80 c2 43 3d df 2a ed bd
       -0.12622608 -2.8944812 0.04779291 -0.11580443
000310 f5 35 3c c0 e7 ff 02 3d 0a a5 cf bd 50 e5 3e c0
       -2.9407933 0.03198233 -0.101389006 -2.9827461
000320 9e 96 6d 3c 98 f5 b1 bd dc 67 41 c0 d0 2a 22 bc
       0.014501242 -0.086894214 -3.021964 -0.009897903
000330 d1 f1 9e bd 7a 08 42 c0 17 ae d0 bc 3e 68 85 bd
       -0.077609666 -3.0317674 -0.025473638 -0.06514023
000340 5a 77 41 c0 7d c6 16 bd ab 43 4a bd 1a 9c 40 c0
       -3.0229096 -0.036810387 -0.04938094 -3.0095277
000350 11 db 45 bd 5b 06 0a bd cf 50 3f c0 42 ae 61 bd
       -0.04830462 -0.033697467 -2.9893072 -0.055097826
000360 f9 23 36 bc 97 6c 3e c0 97 fc 81 bd ed 03 31 3c
       -0.011116975 -2.9753778 -0.06347006 0.010804159
000370 8e 5a 3d c0 a0 35 87 bd 79 bb 24 3d 42 4a 3b c0
       -2.958652 -0.06602025 0.04021785 -2.9264073
000380 f0 d0 88 bd 32 39 50 3d fe 2b 39 c0 e0 20 89 bd
       -0.06680477 0.050835796 -2.89331 -0.066957235
000390 e7 c7 82 3d 2a 2f 37 c0 3e f0 81 bd 10 d0 97 3d
       0.063857846 -2.8622537 -0.06344651 0.07412732
0003a0 5a dc 35 c0 67 05 75 bd 81 dc 9a 3d 77 2c 35 c0
       -2.8415742 -0.059819605 0.07561589 -2.830839
0003b0 84 68 66 bd d0 b6 9d 3d 31 8a 33 c0 32 40 4d bd
       -0.056252018 0.07700884 -2.8053095 -0.05011005
0003c0 a1 65 99 3d df 8a 32 c0 55 b5 42 bd a9 33 8f 3d
       0.07490087 -2.789726 -0.047536213 0.06992275
0003d0 1c c6 31 c0 4c ce 3e bd 07 bd 50 3d d3 f5 30 c0
       -2.7777166 -0.04658346 0.05096152 -2.765004
0003e0 23 e5 62 bd 0c d0 3a 3d 74 6a 2f c0 f4 f7 9c bd
       -0.055394303 0.045608565 -2.7408724 -0.07664481
0003f0 c2 fb f7 3c 82 39 2e c0 68 31 d2 bd 81 91 11 3c
       0.030271415 -2.72226 -0.1026333 0.0088847885

body_pose f4 [174, 63]
000000 35 e3 80 3e fb 53 e9 bd 52 6b 3e 3d cb d4 a8 3d
       0.25173345 -0.11392971 0.046489067 0.08243712
000010 30 3a 15 be 66 83 91 bc 87 b9 81 3d 6c 23 27 3c
       -0.14572978 -0.017762851 0.06334215 0.010201316
000020 f7 c4 07 3e d1 42 0c 3f 2b ec 3b be 84 e4 bc 3c
       0.1325873 0.54789454 -0.1835181 0.023058183
000030 1d 5b ff 3e 8b ae 5a 3e 3d 7c dd bc b6 ff 91 3e
       0.498742 0.21355645 -0.02703678 0.28515404
000040 e9 69 06 bc 06 3a cc bc c6 4d 3b be ef 35 4c be
       -0.008203962 -0.024930011 -0.18291387 -0.19942449
000050 4d da 46 be 6d 18 18 3d 47 e2 c4 3d 21 6e 31 3e
       -0.19419213 0.03713267 0.096134715 0.17327167
000060 7b 31 ed 3e 28 30 90 3d 46 da cb 3c 5a f0 80 37
       0.46326813 0.07040435 0.024884354 1.5370711e-05
000070 6c cd 81 b7 0a 9e 87 37 b3 49 74 37 11 b0 89 37
       -1.5473655e-05 1.6166847e-05 1.4560693e-05 1.641366e-05
000080 30 3a 7d 37 58 0d a8 3e 3d 0c 33 3d 4a f3 b5 3d
       1.5093523e-05 0.3282268 0.043712843 0.08884294
000090 49 e2 e1 3d f9 d4 21 bf 1a ab 4e be 3b 17 82 3d
       0.110294886 -0.63215595 -0.20182458 0.06352087
0000a0 36 c7 c1 3e 06 63 9b 3e 4c c5 60 bf ff 8d 27 3e
       0.37847298 0.30348986 -0.8780105 0.16362761
0000b0 a1 c4 9a bd 36 23 4e bc 28 d3 eb be a3 6a 4a bf
       -0.07557035 -0.012581637 -0.46059537 -0.79068965
0000c0 39 15 97 bd 8f 14 7a 3e 6c 31 52 3f 5e 9b 87 be
       -0.07377095 0.24421905 0.8210666 -0.26485723
0000d0 ed 98 91 bf f3 95 3c 3e 58 90 af be a5 9b b5 3f
       -1.1374794 0.18416576 -0.34289813 1.4188124
0000e0 ae 9e 72 3c 4e e3 51 be b8 e7 0e be c1 c1 59 3e
       0.01480834 -0.20496866 -0.13955581 0.21265317
0000f0 0f af c5 be e7 d4 6b bd 8a cc aa be ac fc 1e 3e
       -0.38610122 -0.057576086 -0.33359176 0.15526074
000100 94 d6 34 be 97 ed 5a 3c bc ca ea 3c ed cb 87 3c
       -0.1765998 0.01336231 0.028661124 0.016576732
000110 d8 da f8 bc 2f 9b 05 3e 8a 89 63 bc d6 1f d8 3d
       -0.03037779 0.13047479 -0.013887772 0.10552947
000120 6e 40 1c 3f 5c 3d 93 be 6f 1c 8f bd 7c 6d e4 3e
       0.6103581 -0.2875775 -0.06987845 0.4461478
000130 e3 d5 4e 3e 4c b4 1d 3d e1 32 69 3e b2 c1 41 bc
       0.20198779 0.038502023 0.22773315 -0.011825966
000140 c5 2d 85 bd 88 4e 45 be 5b f0 ae 3b 4b 48 53 be
       -0.065028705 -0.19268239 0.005338711 -0.20633046
000150 97 06 82 3d 53 c6 18 ba 3b b8 ea 3d c5 89 bd 3e
       0.06348913 -0.00058278925 0.114609204 0.37019172
000160 a3 3c 24 3d c1 cd 17 3d 9a 1e 79 37 9e fb 83 b7
       0.04009689 0.037061457 1.48486815e-05 -1.5733585e-05
000170 8c 56 84 37 2b ef 78 37 51 53 85 37 83 e7 7c b7
       1.5775928e-05 1.48376375e-05 1.5893633e-05 -1.50742735e-05
000180 7b 3c af 3e d4 5a 3d 3d 60 db 97 3d 85 11 0d 3e
       0.3422583 0.0462292 0.07414889 0.13776214
000190 e4 18 39 bf 30 0f 73 be 57 17 4e 3d 74 14 06 3f
       -0.72303605 -0.23736262 0.050315227 0.5237496
0001a0 1f 39 11 3e 31 5f 51 bf c9 ae 36 3e e4 f2 81 bd
       0.14181946 -0.81785876 0.17840113 -0.06345156
0001b0 b8 db d6 3b 80 27 a6 be ba 8b 2a bf f6 95 68 bd
       0.0065569542 -0.3245201 -0.66619456 -0.05678364
0001c0 1e 87 51 3e 38 d8 54 3f dd 57 8e be 18 b6 93 bf
       0.204617 0.83142424 -0.2780141 -1.1539946
0001d0 5d cc 56 3e be 6d b8 be cf 81 a3 3f 1d 5a 7f 3d
       0.20976396 -0.36021227 1.277399 0.062341798
0001e0 a2 d5 40 be 72 2f bb bd c5 c7 12 3e 16 8c dc be
       -0.18831494 -0.09139909 0.14334019 -0.43075627
0001f0 22 5b bb 3d 0f f2 cb be 72 86 23 3b 1b 07 e2 bd
       0.091482416 -0.39833114 0.0024951962 -0.110365115
000200 2c 89 7c 3c 81 ec c8 bd b2 de 88 bd a8 29 0e bd
       0.015413564 -0.098107345 -0.06683101 -0.034707695
000210 e0 96 c3 3e 94 f7 27 bc ea b8 a9 3d f1 7f 17 3f
       0.38201046 -0.010251898 0.08287223 0.591796
000220 e1 4c a7 be ac 05 f4 ba 24 48 d6 3e 53 c3 13 3e
       -0.3267584 -0.0018617413 0.41851914 0.14429979
000230 cb a0 2f 3c 48 52 27 3d 77 1e ea 3c ce 7a 84 bd
       0.010719488 0.040849954 0.02857898 -0.06468736
000240 b8 69 29 be 41 72 28 be 48 d0 fc 3c cd 5d 86 3d
       -0.16544235 -0.16449834 0.030861035 0.0656086
000250 a7 bc 52 3d 0c 34 94 3d 03 93 8f 3d 2d 38 14 bc
       0.051449444 0.0723649 0.07010462 -0.0090465965
000260 79 0c 61 3d d4 d6 7a 37 af c7 85 b7 0b af 84 37
       0.054943535 1.495118e-05 -1.594782e-05 1.5817137e-05
000270 e2 82 83 b7 4e c6 7f 37 bc 81 7b b7 23 ee 61 be
       -1.5677364e-05 1.5245356e-05 -1.4990972e-05 -0.22063498
000280 b6 f1 98 3d 4a 48 8f 3d 82 83 8f 3b 73 c1 fa bd
       0.07467978 0.0699621 0.0043796906 -0.12243929
000290 c9 dd a4 be 77 82 2d bd e4 f0 1d bd 24 ab 82 3e
       -0.3220046 -0.04236075 -0.03855981 0.25521195
0002a0 f9 bc 54 be df ca 73 3d f2 b0 3a 3c cf b3 2b 3e
       -0.20775212 0.059519645 0.011394726 0.1676781
0002b0 85 f9 ef be 7a ce 6d bf 90 75 b7 3d 24 cf 16 3e
       -0.46870056 -0.92893183 0.0895797 0.14727455
0002c0 73 49 62 3f 7c 27 47 3b c9 59 aa bf fd 3f 0b be
       0.88393325 0.0030388525 -1.330865 -0.13598628
0002d0 ac dd 3a be 8e 26 b2 3f 21 e3 2d 3f 20 f1 f1 3d
       -0.18248624 1.3918016 0.67924696 0.11813569
0002e0 f2 04 96 bd 39 38 d3 3d c4 07 7a be 36 c2 56 3e
       -0.07325162 0.10313458 -0.24417025 0.20972523
0002f0 90 61 a6 be d4 76 87 bd e2 bb 3e be eb 01 47 3c
       -0.3249631 -0.066144615 -0.18626359 0.012146453
000300 0f 0a 1c be eb dd d3 bc ab 12 15 bd 3c 93 98 3e
       -0.15238212 -0.025862655 -0.036394756 0.2979983
000310 f8 97 38 bd 3b 5a 8e 3d be 3e 15 3f dc 4a a7 be
       -0.045066804 0.06950804 0.5829886 -0.326743
000320 24 fc 19 bd 23 b6 d7 3e cb e1 de 3d 3a 9b 0f 3d
       -0.037593976 0.42131147 0.1088291 0.035060145
000330 8c cd 31 bd 90 9a 74 3c 4b 2f 6c bd 73 61 12 be
       -0.043408915 0.014929429 -0.05766229 -0.14294986
000340 8a 18 10 be bb 85 d6 3c 11 03 02 3c aa d7 58 bd
       -0.14071861 0.026186815 0.007935301 -0.05294005
000350 67 ec 0b 3d fb 05 a9 3d e1 bb 22 3b 2b 47 91 3d
       0.034160998 0.08253094 0.0024831223 0.07093652
000360 07 16 7e 37 5a 69 86 b7 19 f9 84 37 ec a7 84 b7
       1.5144708e-05 -1.6023103e-05 1.5851621e-05 -1.5813821e-05
000370 b2 03 7e 37 15 b3 82 37 97 5e ec bd 2c 2b 90 3d
       1.514044e-05 1.55806e-05 -0.11541479 0.070394844
000380 13 33 44 3d 98 70 ae 3b 36 29 09 bd cd 0a b0 be
       0.04790027 0.005323481 -0.033486567 -0.3438324
000390 8e 2c 06 bd ef 3c 02 be 84 ab c0 3e 91 40 48 be
       -0.032757334 -0.12718557 0.37630856 -0.1955588
0003a0 79 da 7c 3d fb a5 53 3c 2a 34 33 3e d9 88 ea be
       0.06173179 0.012917991 0.17500368 -0.4580753
0003b0 81 13 72 bf dd b8 26 3d 3c 73 0f 3e 37 8c 6b 3f
       -0.9456101 0.040703643 0.14008802 0.92010826
0003c0 87 15 d8 3c 63 87 ad bf 77 b1 5c be 91 6d 02 be
       0.026377453 -1.3556942 -0.21552072 -0.12737109
0003d0 3f 66 b7 3f d2 b6 12 3f f9 e2 1a 3e 3f 13 55 3c
       1.4328078 0.5731021 0.15125646 0.013005077
0003e0 e5 4a 23 3d df 3b 2d bd ab 09 a1 3d e0 eb 25 be
       0.039866347 -0.042293426 0.07863172 -0.1620326
0003f0 5c 6d c1 bd e3 3b 38 be 45 fc c0 3c fb b3 55 be
       -0.09444687 -0.17991595 0.023557791 -0.20869438

transl f4 [174, 3]
000000 8e 26 0c 3f df 9b ba 3f c5 dc ae 3f 56 4f 0d 3f
       0.5474633 1.4578818 1.3661124 0.5519918
000010 f1 26 b8 3f fa f5 af 3f a4 73 0a 3f 42 ed b2 3f
       1.4386884 1.3746941 0.54082704 1.3978655
000020 f7 40 aa 3f 4a 2b 09 3f 8f 74 b2 3f af b6 a7 3f
       1.3301076 0.5358168 1.3941821 1.3102626
000030 ab a8 08 3f ba 46 b2 3f ad 0f a6 3f aa 2a 08 3f
       0.53382367 1.3927834 1.2973534 0.531901
000040 6a 2f b2 3f 4b 87 a4 3f e7 15 08 3f 1a 15 b2 3f
       1.392072 1.2853788 0.5315842 1.391269
000050 65 f7 a2 3f 92 86 07 3f 85 1a b2 3f e2 45 a1 3f
       1.2731749 0.52939713 1.3914343 1.2599452
000060 b1 18 07 3f 6e e8 b1 3f 08 85 9f 3f 86 b8 06 3f
       0.5277205 1.3899057 1.2462473 0.5262531
000070 81 ce b1 3f 70 a4 9d 3f b1 34 06 3f 8d aa b1 3f
       1.3891145 1.2315807 0.5242415 1.3880173
000080 3b 00 9c 3f 91 d1 05 3f 7f 5b b1 3f 55 12 9a 3f
       1.218757 0.522729 1.3856047 1.2036844
000090 26 1a 05 3f b4 43 b1 3f c4 9a 98 3f 97 f2 03 3f
       0.51993024 1.3848786 1.1922231 0.5154204
0000a0 52 6e b1 3f d2 22 97 3f 88 96 02 3f 72 7f b1 3f
       1.3861792 1.1807501 0.5101094 1.3867018
0000b0 9d cd 95 3f c6 dd 00 3f 35 75 b1 3f fe 82 94 3f
       1.1703373 0.503384 1.3863894 1.1602476
0000c0 8d 2e fe 3e 6e 8f b1 3f 5a 44 93 3f 29 40 fa 3e
       0.4964489 1.3871896 1.1505234 0.48877075
0000d0 45 98 b1 3f db 29 92 3f 4a 19 f6 3e 9f 7f b1 3f
       1.3874594 1.1419023 0.4806617 1.3867072
0000e0 13 1d 91 3f 4c 6d f1 3e f7 a3 b1 3f e1 4f 90 3f
       1.1336998 0.471537 1.3878163 1.1274377
0000f0 85 3f ec 3e 3f 72 b1 3f e9 25 8f 3f d2 b8 e8 3e
       0.46142212 1.386299 1.1183444 0.45453507
000100 37 08 b2 3f f4 fe 8d 3f 56 14 e1 3e ee 9d b1 3f
       1.3908757 1.109343 0.43960828 1.3876321
000110 96 fe 8c 3f cc 92 d7 3e 05 07 b1 3f 53 ac 8b 3f
       1.1015193 0.42104185 1.3830267 1.0911964
000120 5d bb cd 3e 6f 62 b0 3f 7c 67 8a 3f f3 1c c2 3e
       0.4018201 1.378004 1.0812831 0.37912712
000130 7b 2b b0 3f eb 74 89 3f 58 fe b8 3e c6 b2 af 3f
       1.3763269 1.0738806 0.3613155 1.3726432
000140 cd 49 88 3f 97 e2 af 3e 63 4c af 3f e6 26 87 3f
       1.0647522 0.34352562 1.3695186 1.0558746
000150 0b 6a a8 3e 9c 3c af 3f 08 c5 85 3f ff 8a a1 3e
       0.32893404 1.3690372 1.0450754 0.31551358
000160 ec 71 af 3f 9b b2 84 3f 42 31 9b 3e 19 01 b0 3f
       1.3706641 1.0367006 0.30311018 1.3750335
000170 a9 b3 83 3f 44 94 95 3e b4 9c b0 3f 00 bf 82 3f
       1.0289203 0.2921468 1.3797822 1.0214539
000180 a7 33 91 3e 0d 23 b1 3f f4 d2 81 3f 96 9a 8d 3e
       0.2835972 1.3838822 1.0142503 0.27657002
000190 32 95 b1 3f 7d ae 80 3f f0 c1 8a 3e 46 f1 b1 3f
       1.3873656 1.005325 0.27101088 1.3901756
0001a0 e1 3f 7f 3f 32 c5 88 3e e8 1e b1 3f 00 af 7c 3f
       0.99706846 0.26712948 1.3837557 0.9870453
0001b0 3d bb 86 3e d8 5b b1 3f 42 69 7a 3f 41 6e 84 3e
       0.26314726 1.3856153 0.9781686 0.25865367
0001c0 cd 60 b1 3f bf f3 77 3f e7 63 82 3e e3 8c b1 3f
       1.3857666 0.968563 0.25466844 1.387112
0001d0 fd 60 75 3f 97 4b 80 3e de 79 b1 3f 06 53 72 3f
       0.9585112 0.2505767 1.3865316 0.94657934
0001e0 3a 51 7c 3e 26 79 b1 3f 06 f6 6e 3f 1e b2 77 3e
       0.2464036 1.3865097 0.9334415 0.2418904
0001f0 45 46 b1 3f 03 f2 6a 3f f2 df 72 3e 55 12 b1 3f
       1.384957 0.9177553 0.23718241 1.383372
000200 fa 17 66 3f 83 69 6d 3e e3 e3 b0 3f 35 95 60 3f
       0.89880335 0.23184781 1.3819546 0.8772767
000210 66 4b 68 3e 80 b4 b0 3f 17 7e 5a 3f 68 e8 62 3e
       0.22685012 1.3805084 0.8534865 0.22158968
000220 d0 76 b0 3f 4c f1 53 3f 4f 6a 5e 3e ed 62 b0 3f
       1.3786259 0.82790065 0.21720241 1.378019
000230 e7 3b 4d 3f 1b 89 59 3e a7 8f b0 3f 13 25 47 3f
       0.8016953 0.21243708 1.3793839 0.77790946
000240 d4 d3 55 3e 20 9f b0 3f 3d 49 41 3f bb 50 52 3e
       0.20881587 1.3798561 0.7550238 0.20538609
000250 1c 95 b0 3f cd c1 3b 3f c9 76 4f 3e 1a aa b0 3f
       1.3795505 0.7334259 0.20260157 1.3801911
000260 44 f7 36 3f ad 00 4c 3e cf e5 b0 3f 63 51 32 3f
       0.7147105 0.19922133 1.3820132 0.69655436
000270 ed 56 49 3e 03 2e b1 3f a5 24 2e 3f 48 ff 45 3e
       0.19662066 1.3842167 0.68024665 0.19335663
000280 25 7c b1 3f 98 43 2a 3f 8d 63 42 3e 94 b3 b1 3f
       1.3866011 0.6650939 0.18983288 1.3882928
000290 53 db 26 3f 8c c8 3e 3e c7 de b1 3f c9 62 23 3f
       0.6517841 0.1863119 1.3896111 0.6382261
0002a0 b0 2d 3a 3e 99 00 b2 3f fa cc 1f 3f 01 0f 35 3e
       0.18181491 1.3906432 0.62422144 0.17681505
0002b0 41 fa b1 3f 92 2d 1c 3f ef 2c 2f 3e 80 dd b1 3f
       1.3904496 0.61007035 0.17106985 1.3895721
0002c0 2e 66 18 3f d5 e5 28 3e 74 b4 b1 3f bc 71 14 3f
       0.59530914 0.16493924 1.3883195 0.57986045
0002d0 e7 65 21 3e e2 6c b1 3f 19 32 10 3f 22 08 19 3e
       0.15761529 1.3861353 0.5632644 0.14944509
0002e0 1f 36 b1 3f 29 9a 0b 3f e3 17 0e 3e 02 e9 b0 3f
       1.3844641 0.54532105 0.138763 1.3821108
0002f0 0e 77 06 3f 9d 47 01 3e 45 91 b0 3f cb 84 00 3f
       0.52525413 0.12624975 1.3794333 0.50202626
000300 2f c9 e7 3d 8d 34 b0 3f d7 dc f2 3e 54 b9 ca 3d
       0.113176696 1.3766037 0.47434112 0.0989863
000310 57 a8 af 3f cb 84 e3 3e 1a ef af 3d 6d 59 af 3f
       1.3723248 0.4443725 0.08590527 1.3699166
000320 54 d1 d3 3e 8e 31 96 3d 0c 00 af 3f b1 37 c4 3e
       0.41370642 0.073336706 1.3671889 0.3832374
000330 fb 6f 78 3d 1a cb ae 3f 0f df b5 3e cf 0c 4e 3d
       0.060653668 1.3655732 0.35521743 0.050305184
000340 97 e1 ae 3f 2e ad a8 3e 44 7a 25 3d 06 41 af 3f
       1.3662595 0.32944626 0.040399805 1.3691719
000350 fe e1 9c 3e 01 da 06 3d 2d e0 af 3f 90 db 92 3e
       0.30641168 0.03292275 1.3740288 0.28683138
000360 e4 c8 de 3c 8a 80 b0 3f e6 b2 89 3e cf bb b2 3c
       0.027195401 1.3789227 0.268943 0.02181807
000370 89 00 b1 3f 6c 98 81 3e 82 11 92 3c 88 64 b1 3f
       1.3828288 0.253116 0.017830614 1.3858805
000380 e5 9e 74 3e 38 67 66 3c 98 95 b1 3f e8 43 66 3e
       0.23888738 0.014062695 1.3873777 0.22486842
000390 fa 92 36 3c 2b 8d b1 3f 7b 21 58 3e 94 bf 02 3c
       0.01114344 1.3871206 0.21106522 0.007980246
0003a0 96 5f b1 3f 84 a0 4a 3e c4 59 b1 3b 4d 2d b1 3f
       1.3857296 0.19787794 0.005412312 1.384195
0003b0 67 bc 3c 3e fc f0 41 3b b5 fe b0 3f 1b ef 2c 3e
       0.18431245 0.00295931 1.382773 0.16888086
0003c0 00 14 1f ba 5d eb b0 3f 55 40 1b 3e c5 18 48 bb
       -0.0006068349 1.3821827 0.1516126 -0.0030532342
0003d0 f9 c9 b0 3f f8 1c 05 3e 3c ba c5 bb 91 b2 b0 3f
       1.3811637 0.12999332 -0.0060341638 1.3804494
0003e0 9d 01 d7 3d 05 3d 1e bc de 7a b0 3f d3 cc 9c 3d
       0.104983546 -0.009658103 1.3787496 0.076562546
0003f0 94 89 61 bc b4 20 b0 3f 85 6e 39 3d 2b 05 94 bc
       -0.013765711 1.375998 0.045271415 -0.01806887

left_hand_pose f4 [174, 12]
000000 7e 6a 85 3e 55 69 1a be 23 64 6e 3e f9 32 e5 bd
       0.2605781 -0.15079243 0.23280387 -0.11191363
000010 af 1e d0 be 24 49 b6 bf 3f ed f5 3f 82 c6 47 bb
       -0.4064841 -1.4241071 1.9213027 -0.003048331
000020 34 0f a4 bf 6a 44 2f bf 74 34 42 40 13 fd ad bf
       -1.281714 -0.68463767 3.0344515 -1.3592857
000030 3f 43 ca 3e 41 1f df 3d e8 c9 5d 3e 4f 1c 19 3f
       0.3950443 0.10894633 0.21659052 0.5980882
000040 e6 7f be be 4b ce 92 bf 48 26 64 3f 2d b9 ac 3d
       -0.37206954 -1.1469206 0.8912091 0.08433757
000050 8e 49 91 bf 3c ac 2f bf bf 1a d9 3f 22 0d 82 bf
       -1.1350572 -0.68622184 1.6961287 -1.0160258
000060 48 a4 05 3f ef a0 06 3e 14 b7 88 3e d2 4d 27 3f
       0.522038 0.13147329 0.26702178 0.6535312
000070 35 7b b2 be 68 cf 89 bf 4b 93 7f 3f 4e 95 15 be
       -0.34859625 -1.076642 0.99834126 -0.14607736
000080 ed c6 99 bf 88 1a 55 bf c2 cf 18 40 5e e3 b1 bf
       -1.2013832 -0.8324361 2.3876805 -1.3897512
000090 27 b5 0e 3f 36 0d f4 3d 0b 8f 2e 3e 13 56 28 3f
       0.55745167 0.11916582 0.17046754 0.6575634
0000a0 06 2c 8b be ae f0 6c bf f4 0f 58 3f e7 6e 16 be
       -0.27182025 -0.9255475 0.8439934 -0.14690743
0000b0 cd f6 5b bf 78 91 67 bf 14 20 e2 3f 8c d5 a4 bf
       -0.85923463 -0.9045634 1.766604 -1.2877669
0000c0 ec a4 25 3f 42 6b 22 3e 4d 82 3e 3e 59 2b 4e 3f
       0.64704776 0.15861228 0.18604393 0.80534893
0000d0 1f 76 ca be a9 fc 4c bf 5f 07 4a 3f 25 74 4b be
       -0.39543244 -0.8007303 0.789175 -0.19868524
0000e0 0e 1b 7c bf 2f 1f 69 bf 72 f0 e0 3f dd 97 ad bf
       -0.9847878 -0.9106321 1.7573378 -1.356197
0000f0 89 b6 2f 3f 30 ec 3c 3e 95 fa 19 3e c6 c1 3f 3f
       0.686379 0.18449473 0.15036996 0.7490505
000100 8b 82 db be 69 0a 4d bf ca aa 83 3f 99 9d 7f be
       -0.42873034 -0.8009401 1.0286496 -0.24962462
000110 15 c9 85 bf da 8d 69 bf 6c 31 0e 40 0d 53 b2 bf
       -1.045199 -0.91232073 2.2217665 -1.3931595
000120 c4 9c 2b 3f 6a a6 0c 3e e1 7c 15 3e 0f 1e 2c 3f
       0.6703608 0.13735357 0.14598419 0.67233366
000130 ce 5c 36 be b8 48 1b bf b2 f9 57 3f 69 95 eb be
       -0.1780884 -0.60657835 0.8436538 -0.46012428
000140 54 38 38 bf d1 75 84 bf 9b da f4 3f e6 9e d9 bf
       -0.7196095 -1.0348455 1.9129213 -1.7001617
000150 06 84 3b 3f 3e 8e 4f 3e a5 2c 4c 3e 6b d2 3d 3f
       0.73248327 0.20269105 0.19938906 0.741492
000160 3a 86 2c be fb 9c 2b bf ab 0e 45 3f c4 f7 b5 be
       -0.16848078 -0.6703641 0.76975507 -0.35540593
000170 99 37 43 bf 0d eb 91 bf 8c bf eb 3f 10 09 d1 bf
       -0.7625671 -1.1399857 1.841783 -1.6330891
000180 21 3b 3d 3f 4f 21 80 3e ab 66 31 3e 88 bf 41 3f
       0.7391835 0.25025412 0.17324321 0.7568288
000190 ca 9b 18 be 66 f8 3e bf 17 6c 0b 3f f6 5a 88 be
       -0.14903179 -0.74597776 0.54461807 -0.26631898
0001a0 34 e4 34 bf a7 df 86 bf 79 c6 9e 3f 62 49 d9 bf
       -0.7066071 -1.0537003 1.2404319 -1.697552
0001b0 f4 f3 2c 3f f5 eb cd 3e f9 97 07 3d 84 83 0f 3f
       0.6755974 0.40219083 0.033103917 0.5606005
0001c0 eb ff 1e 3d 13 1b fe be 26 93 e4 3e 17 3c 7c be
       0.03881828 -0.4963003 0.44643515 -0.24632297
0001d0 74 a9 71 bf 49 cc 86 bf a8 7c 9f 3f 44 ff e6 bf
       -0.9439919 -1.0531093 1.2459917 -1.8046651
0001e0 2a 94 29 3f fd bd df 3e d3 e3 65 3d 4c 16 1a 3f
       0.66241705 0.43699637 0.056125473 0.6019027
0001f0 6b 00 1b be 46 85 35 bf 3c 9c 17 3f 34 e1 2e bd
       -0.15136878 -0.70906484 0.5922277 -0.04269524
000200 d1 80 29 bf b7 c6 7d bf 77 08 92 3f 7d 86 e7 bf
       -0.66212183 -0.9913134 1.1408833 -1.8087918
000210 d5 54 2e 3f d1 00 b6 3e 70 f2 c7 3d 25 91 0f 3f
       0.68098193 0.35547498 0.09763038 0.5608085
000220 51 fa 22 be 22 77 03 bf 29 f2 0e 3f e6 15 0e be
       -0.159158 -0.5135366 0.5583826 -0.13875541
000230 f8 5c 6c bf 88 9a 87 bf 9e c5 ac 3f c8 24 ce bf
       -0.9232936 -1.0594034 1.3497808 -1.6104975
000240 be 0d 28 3f 1f 0b c7 3e 0b 66 c9 3d 2a f2 01 3f
       0.6564597 0.38875672 0.09833916 0.5076014
000250 7b cb dc b9 19 3b 29 bf 1e 0f 08 3f ae 62 8a be
       -0.00042113275 -0.661058 0.53148067 -0.27028412
000260 59 58 5c bf 00 98 84 bf 24 80 bc 3f 9d e3 f6 bf
       -0.8607231 -1.0358887 1.4726605 -1.9288212
000270 75 75 2d 3f 96 9c cb 3e 0d 15 4f 3e 9d 41 2b 3f
       0.6775735 0.39767903 0.20222874 0.6689699
000280 2c c0 c2 bc 9e 45 0b bf ce bd ad 3e 55 2a e6 be
       -0.023773275 -0.544031 0.33933872 -0.44954172
000290 b7 c1 79 bf 5e e5 7d bf 1b 91 b9 3f bc 8e ed bf
       -0.9756121 -0.9917811 1.4497408 -1.8559184
0002a0 f6 bf 2e 3f b1 d1 c2 3e 18 17 49 3e eb 57 14 3f
       0.6826166 0.38050607 0.19637716 0.5794665
0002b0 1c 1c 6e 3d 9e fc 12 bf 35 7f e8 3e cb 9b b0 be
       0.058132276 -0.57416713 0.4540955 -0.3449386
0002c0 da 42 64 bf b7 a5 80 bf e4 ce bd 3f f5 c3 ef bf
       -0.8916451 -1.0050572 1.4828763 -1.8731676
0002d0 66 b8 2b 3f eb 44 d4 3e dd 0b 24 3e 1b b5 1a 3f
       0.67078245 0.4145883 0.1602015 0.60432595
0002e0 b1 3a 81 3d 60 eb 5d bf 90 e1 c9 3e 6f e5 6a be
       0.063100226 -0.8668728 0.39429903 -0.22939084
0002f0 a4 9b 3f bf e6 ab 84 bf 41 a5 ae 3f fe f8 01 c0
       -0.74846864 -1.0364959 1.3644181 -2.0308223
000300 ca 22 24 3f 2c 88 bf 3e 25 64 02 3e 9b 34 14 3f
       0.64115584 0.37408578 0.12733515 0.5789277
000310 aa 8a 9d 3d 78 1d 57 bf cb 4f df 3e 00 19 82 be
       0.07692464 -0.8402934 0.43615565 -0.25409698
000320 b7 07 0b bf 18 f2 7d bf 5e bd 7b 3f 1a f6 fd bf
       -0.54308647 -0.9919753 0.98335826 -1.9840729
000330 e0 30 2c 3f a0 28 9e 3e 5a 1e 40 3e 7b 99 15 3f
       0.6726208 0.3089037 0.18761578 0.5843732
000340 75 2e 05 3e e4 75 51 bf dc a6 f7 3e b2 ad 8c be
       0.13006003 -0.8182051 0.4836949 -0.2747627
000350 2d 25 18 bf 92 b9 81 bf f7 a4 6f 3f 35 0b 05 c0
       -0.59431726 -1.0134757 0.9361109 -2.078809
000360 7b 8a 20 3f c1 69 e8 3e c8 69 a3 3d f7 8c e5 3e
       0.62711304 0.45393184 0.079791605 0.4483411
000370 33 d3 f4 3d e6 b6 1e bf 31 f7 97 3e 4c 40 38 be
       0.119543456 -0.6199783 0.2968078 -0.17993277
000380 7e 10 0b bf fb 57 84 bf 23 33 2f 3f 15 18 01 c0
       -0.5432204 -1.033935 0.68437403 -2.0170949
000390 f4 5c 1e 3f 69 10 d2 3e f6 80 cb 3d 9b 42 d1 3e
       0.61860585 0.41028145 0.09936707 0.40871128
0003a0 58 b5 c3 3d 49 d7 fc be 47 eb d0 3e 55 78 2d be
       0.09556073 -0.49383 0.40804502 -0.16940434
0003b0 ee bc 3b bf ea f9 76 bf 2c 40 82 3f e3 49 06 c0
       -0.7333516 -0.9647509 1.0175834 -2.0982597
0003c0 0e 03 1b 3f b8 71 a4 3e c6 30 18 3e d8 e0 ef 3e
       0.60551536 0.3211801 0.14862356 0.4685123
0003d0 0b e5 e4 3d d9 9e f9 be 60 c5 bc 3e 81 d9 73 be
       0.11176499 -0.48754004 0.36869335 -0.2381344
0003e0 72 26 fe be 8a 55 91 bf ba 8a 5f 3f 81 30 03 c0
       -0.49638706 -1.135423 0.87321055 -2.0498354
0003f0 49 d1 14 3f 5b 8c 9c 3e 3f ec 46 3e 80 e8 06 3f
       0.58131844 0.30575833 0.19426058 0.52698517

right_hand_pose f4 [174, 12]
000000 20 27 9d 3e 91 6f be bd 05 ff 0a 3e ef 3c e6 bd
       0.30693913 -0.09298623 0.13573845 -0.11242091
000010 e1 12 b3 3d be 90 b8 bf 16 25 87 3f a9 9c a0 3e
       0.08743835 -1.4419172 1.0558193 0.31369522
000020 70 93 a0 bf 6a f2 94 be c0 22 f9 3f 9e 0f 5c bf
       -1.2544994 -0.29091197 1.946373 -0.8596133
000030 58 87 bc 3e 9c de 2f 3e 7c 5d 11 3e 2e 15 5f 3e
       0.3682201 0.17174762 0.14195818 0.21785423
000040 b5 50 38 be e5 b8 5c bf 22 87 3e 3f f3 27 bc 3d
       -0.17999537 -0.86219627 0.74424946 0.09187307
000050 f9 fc 55 bf 8a e2 24 bf 3c b1 6a 3f c1 97 89 bf
       -0.8358913 -0.6440817 0.9167669 -1.0749437
000060 dd 8a 0d 3f 5d f4 e7 3d 32 ba d8 3d 8f 34 ac 3e
       0.55290014 0.113259055 0.10582389 0.3363385
000070 2c 2d 0d bf 35 5e 89 bf a5 ba 60 3f 5f db be 3e
       -0.5514705 -1.0731875 0.87784797 0.37276742
000080 9d 06 38 bf 06 2d 6c bf a1 0c c7 3f a0 6a 56 bf
       -0.7188509 -0.922562 1.5550729 -0.83756447
000090 ec 16 03 3f b7 3a c6 3e 44 8f 07 3c 3e 8a 27 3e
       0.5120685 0.3871667 0.008273903 0.16361329
0000a0 29 d1 22 bf 0b d6 8f bf a6 70 b1 3f 1a 0c 70 3e
       -0.63600403 -1.1237196 1.3862503 0.23442116
0000b0 3f 21 b0 be de f4 48 bf 53 e9 9c 3f 67 c7 c9 bf
       -0.34400365 -0.7849864 1.2258705 -1.5763978
0000c0 10 6a fb 3e 92 63 dc 3e 91 5f 33 3b c6 3d 41 3e
       0.49104357 0.43044716 0.0027370194 0.18871221
0000d0 72 b1 0f bf 59 4d 8b bf 38 a1 bf 3f e8 14 14 3f
       -0.56130135 -1.088298 1.4971075 0.578444
0000e0 19 50 86 be a9 37 49 bf f6 16 62 3f 79 fa dd bf
       -0.26232985 -0.78600556 0.88316286 -1.7342063
0000f0 39 80 ca 3e 58 cc bc 3e 66 d8 da bd 4c a3 46 3d
       0.3955095 0.36874652 -0.10685806 0.048495576
000100 a1 13 e5 be bc f1 17 bf 2e 9c a4 3f bd 59 8f 3e
       -0.44741538 -0.5935323 1.2860162 0.27998152
000110 f3 cb b9 be 83 a9 73 bf ee 06 42 3f c2 ac cf bf
       -0.36288413 -0.9518053 0.75791824 -1.6224597
000120 bb 8c bb 3e 71 4b 6f 3e b7 72 0e be a4 0a e3 3d
       0.36630806 0.23368622 -0.13910948 0.11086014
000130 ed ae d1 be e9 be 59 bf f4 b7 b9 3f 16 28 be 3e
       -0.4095377 -0.8505693 1.4509263 0.37139958
000140 85 f5 85 3d 29 a2 75 bf cb 5f 32 3d 2e 59 c1 bf
       0.0654097 -0.9595056 0.043548387 -1.510534
000150 75 e8 b2 3e 59 01 be 3e ab 30 1e be 23 70 8d 3d
       0.34942976 0.37110403 -0.15448253 0.06906154
000160 27 f9 c3 be 5a 8a 0b bf 60 c7 7d 3f c3 62 98 3e
       -0.38276026 -0.5450798 0.9913235 0.2976285
000170 64 34 8b be fa 0b 7d bf 23 4b 48 3e 58 5f d9 bf
       -0.27188408 -0.988464 0.19559912 -1.6982222
000180 7c c2 0b 3f 4f 3d fc 3e 23 00 24 3d 52 e5 47 3e
       0.54593635 0.49265525 0.040039193 0.19521073
000190 0b e2 a3 bf 07 83 8d bf 6b 5e 01 40 c8 22 bd 3e
       -1.2803358 -1.1055611 2.0213878 0.36940598
0001a0 de 2e 45 bf 8f 9f 48 bf d9 89 09 40 a9 fc ad bf
       -0.7702464 -0.7836847 2.1490386 -1.3592731
0001b0 33 b5 fe 3e 16 af e3 3e dd 17 cb bb d4 88 9e 3e
       0.4974762 0.44469517 -0.006197913 0.30963767
0001c0 38 70 40 bf 97 bf 26 bf 0a 49 94 3f 57 19 0e 3f
       -0.7517123 -0.6513609 1.158479 0.55507416
0001d0 c3 b7 b7 bc 2b cd 28 bf 18 72 8f be d8 f0 c3 bf
       -0.022426492 -0.6593806 -0.28016734 -1.5307875
0001e0 4b d8 f7 3e fd c0 c1 3e 03 de f2 bd 4a 1a 92 3e
       0.48407206 0.3784255 -0.118587516 0.28535682
0001f0 dd de a1 be f8 d7 07 bf 10 5a 66 3f 2e a7 14 3f
       -0.31615344 -0.5306392 0.89981174 0.58067596
000200 82 a9 e2 bd e3 6b 55 bf 84 52 1c bf 57 5a d8 bf
       -0.11067487 -0.8336775 -0.6106341 -1.690257
000210 01 ba f2 3e cc 71 c5 3e 89 63 19 be 9c b2 81 3e
       0.47407535 0.38563383 -0.14979376 0.2533158
000220 f4 85 01 bf 7a 00 cf be ac bf 6d 3f 00 6d bc 3e
       -0.5059502 -0.4043005 0.92870593 0.3680191
000230 12 8d 88 be 9f ef 7e bf 8b 82 de be 4c ca b8 bf
       -0.26670128 -0.9958438 -0.4345897 -1.4436736
000240 15 fd 01 3f 1d 28 d7 3e 5a 99 13 be 49 b6 4e 3e
       0.507768 0.42022792 -0.14413968 0.20186724
000250 7e f0 ae be 52 d4 01 bf 66 d3 7a 3f bc 6b d7 3e
       -0.34167856 -0.507146 0.9797882 0.42074382
000260 60 d1 c9 be 57 25 71 bf c3 44 ca bd 8a 45 b6 bf
       -0.39417553 -0.941976 -0.098763965 -1.4239972
000270 e5 24 18 3f e9 c3 e9 3e 66 3c 91 bd 1c b8 c3 3e
       0.59431297 0.4565728 -0.07091598 0.38226402
000280 cb c3 dc be da 29 51 bf ab ac 50 3f b1 f7 3b 3f
       -0.43118128 -0.81704485 0.8151347 0.7342482
000290 9a de 38 bf 75 99 85 bf 1b c2 29 3e 8b 2e 90 bf
       -0.72214663 -1.0437456 0.16577952 -1.1264204
0002a0 c3 b4 0b 3f 39 91 b8 3e e7 d2 81 be bc fb 5e 3e
       0.54572695 0.36048296 -0.25356218 0.21775717
0002b0 4a fc 22 be cb 22 55 bf 5a db 4a 3f 6c c9 eb 3e
       -0.15916553 -0.83256215 0.79240954 0.4605211
0002c0 71 db 89 bf c4 0f 85 bf ac 18 3c 3f e7 85 65 bf
       -1.0770093 -1.0395436 0.73475146 -0.89657444
0002d0 41 d8 16 3f 94 2b a8 3e 50 35 54 bd 3d 42 b5 3e
       0.5892373 0.32845747 -0.051808655 0.35402098
0002e0 96 09 f2 bd 9e b5 67 bf 10 d2 34 3f 09 b9 d6 3e
       -0.118182346 -0.905115 0.7063303 0.41938046
0002f0 42 be f6 be 74 75 84 bf 4d 9a fb 3e fb fb b3 bf
       -0.4819203 -1.0348344 0.4914116 -1.4061273
000300 f9 83 0f 3f a8 2d af 3e 8e 26 08 bd d7 b2 81 3e
       0.5606075 0.3421452 -0.033239894 0.25331756
000310 38 4b 1d be 32 ad 6c bf 4f 0c 5f 3f 6f b0 50 3e
       -0.15360725 -0.92451775 0.87128156 0.20379804
000320 55 67 80 be 80 ce 7c bf eb 02 f2 3e b8 b0 b8 bf
       -0.25078836 -0.98752594 0.4726785 -1.442893
000330 1b ff 1d 3f 90 b1 b2 3e de cd f8 bc 93 5c 21 3e
       0.61717385 0.34901094 -0.030371603 0.1575797
000340 13 ae 38 bf 71 f6 98 bf de cb af 3f de 94 a7 3e
       -0.72140616 -1.1950208 1.373409 0.32730764
000350 d7 15 0b bf a5 b4 39 bf 7c 66 e3 3f 39 5f 9e bf
       -0.543302 -0.72541267 1.7765651 -1.237281
000360 0d e3 1b 3f 77 ca b1 3e b3 f9 10 3e e8 61 9b 3d
       0.60893327 0.3472478 0.14157753 0.075870335
000370 cd 13 29 bf 3d a5 6e bf b4 c8 b4 3f 75 f1 95 3e
       -0.6604584 -0.93220884 1.412375 0.2928578
000380 38 b6 9f 3d a0 8f 3e bf 54 05 51 3f 3d f9 b1 bf
       0.07798427 -0.74437904 0.81648755 -1.3904186
000390 cd 4f 04 3f 91 fa 9b 3e 23 f9 4e bd 62 cf 0d 3e
       0.51684266 0.30464604 -0.050530564 0.13848642
0003a0 f0 0e 0e be 39 4e 67 bf 70 46 1a 3f fb d8 c8 3e
       -0.13872886 -0.90353733 0.6026373 0.39228043
0003b0 e8 b1 82 be 9a 8b 46 bf 83 30 64 3e aa b2 d2 bf
       -0.25526357 -0.77556765 0.22284131 -1.6460774
0003c0 28 3b 26 3f bb 8f 64 3e 91 76 30 3d 72 3c 95 3e
       0.64934015 0.22320454 0.043081824 0.2914768
0003d0 4b c9 c2 be a3 1a 52 bf 3a ec 00 3f 29 8c c6 3e
       -0.380442 -0.82071894 0.50360453 0.3877881
0003e0 77 57 c6 be 37 97 57 bf 90 c6 1e 3e 24 65 af bf
       -0.38738605 -0.8421511 0.15505433 -1.3702741
0003f0 d1 c2 2a 3f 70 5b 8d 3e e0 3c 0f 3e 6e 1d b9 3e
       0.66703516 0.27608824 0.13988066 0.36155266

jaw_pose f4 [174, 3]
000000 3e eb d5 bd 31 31 66 3b 3c ef 98 3a c0 54 2e be
       -0.104452595 0.0035124535 0.0011667977 -0.17024517
000010 6c 08 04 3b 9d d3 84 3a 96 cb 66 bd 8b b9 1a 3b
       0.0020146621 0.0010133866 -0.0563465 0.0023609127
000020 d1 8e c6 3a a4 57 8a bc 64 09 5d 3a 5e 85 79 3a
       0.0015148764 -0.016887493 0.000843188 0.00095184695
000030 21 b5 9f 3b 2b 25 6a b9 e4 5b 77 3a c6 ab a4 3c
       0.004873887 -0.00022329825 0.0009435995 0.02010144
000040 e7 2f 03 39 72 1d 57 3a 7f 9b 7e 3c aa e7 9b bb
       0.00012510979 0.0008205987 0.015540003 -0.004757841
000050 70 ae 94 ba db d0 88 3c 88 cb bc bb 21 ca 81 ba
       -0.001134349 0.016701153 -0.0057615675 -0.0009902158
000060 f5 29 9e 3c cf dc cc bb d7 95 9a ba d8 49 1d 3d
       0.019307116 -0.0062519084 -0.0011793923 0.0384005
000070 20 bf fe bb 75 6e 0e bb 6b 9a e0 3c b5 98 cf bb
       -0.0077742487 -0.0021733318 0.027417382 -0.006335343
000080 ea f8 cc ba a6 cd 2b 3c 29 72 d1 bb 10 1e 77 ba
       -0.0015638147 0.010486042 -0.006391783 -0.0009426782
000090 fd ed 97 3c 5a de d9 bb a7 5f 92 ba 97 6b a4 3c
       0.018546099 -0.006648821 -0.0011167423 0.020070834
0000a0 55 81 25 bc 8a b0 39 bb 1f 01 dd 3c 29 ea 07 bc
       -0.010101636 -0.0028333985 0.026978074 -0.008295574
0000b0 98 f3 0a bb e2 30 b0 3c b6 2b 03 bc 41 84 ba ba
       -0.0021202322 0.021507684 -0.008006027 -0.0014230089
0000c0 91 82 e7 3c 3a a5 16 bc 26 a3 20 bb ea 74 12 3d
       0.028260501 -0.0091946665 -0.0024511307 0.03575603
0000d0 9a 60 1b bc 9e 9b 1b bb 87 de 21 3d 84 38 26 bc
       -0.009483481 -0.0023743878 0.03951886 -0.01014531
0000e0 e1 b4 35 bb 03 12 3c 3d b3 43 2a bc ea d1 4d bb
       -0.002772622 0.045915615 -0.010392117 -0.0031405636
0000f0 c5 41 15 3d 9c 46 28 bc 08 98 6d bb cb e0 31 3d
       0.036439676 -0.010270741 -0.0036253948 0.04342727
000100 da ce 14 bc 3c 9f 37 bb fe f5 27 3d 60 9e 01 bc
       -0.00908252 -0.0028018495 0.04100608 -0.007911295
000110 b7 f1 10 bb 31 fc 3a 3d 69 c3 d2 bb 9c 4c 01 bb
       -0.002211673 0.045650665 -0.006431986 -0.00197295
000120 4e 30 41 3d d4 1e cb bb 69 f6 d5 ba 33 d9 40 3d
       0.047165208 -0.0061987434 -0.0016324046 0.047082137
000130 96 72 ee bb 04 a2 03 bb 67 6f 3a 3d 02 c3 b6 bb
       -0.0072768433 -0.0020085583 0.045516398 -0.005577446
000140 98 ab 0f ba ae 8e 24 3d e6 d0 92 bb 48 0c 9c b9
       -0.00054805866 0.040175132 -0.004480469 -0.0002976379
000150 33 6e 2e 3d 54 02 00 bc 67 18 09 bb 0c 3f 27 3d
       0.042585563 -0.007813055 -0.0020919086 0.04083161
000160 a3 9b 2a bb 10 1d 1c 38 ab 0c 32 3d d6 9c 5a bb
       -0.0026032708 3.7220365e-05 0.043469112 -0.0033357642
000170 15 f4 03 ba 66 59 2d 3d d7 9c e1 b9 4f d1 19 3a
       -0.00050336245 0.042321585 -0.000430322 0.0005867676
000180 86 3e 0c 3d 09 fc e3 3a 1a fd af 3a c0 7f 0e 3d
       0.034239314 0.0017393838 0.001342687 0.0347898
000190 b5 d6 fb ba 71 2d b2 39 2a 97 09 3d 1f 97 ad bb
       -0.0019213768 0.00033984662 0.033591427 -0.005297556
0001a0 29 65 9c ba 7e fd 1a 3c ce 43 ac bb b3 3b bc b9
       -0.0011932004 0.009459851 -0.0052571064 -0.00035902634
0001b0 15 69 90 3c 40 c0 94 bb 9f 52 65 ba a7 7e 7f 3c
       0.017628232 -0.0045395195 -0.0008747968 0.015594161
0001c0 bf 6e ef bb 6d 11 f7 ba 74 bb 17 3c 74 7e dd bb
       -0.007306903 -0.0018849798 0.009261001 -0.006759459
0001d0 09 31 c1 ba 6f 94 9b 3c 69 08 0f bc 50 50 15 bb
       -0.0014739345 0.018991677 -0.0087300325 -0.0022783466
0001e0 51 43 84 3c cc 80 e5 bb 02 40 ea ba 01 5e 09 3c
       0.01614538 -0.007003879 -0.0017871859 0.008384229
0001f0 99 ba cd bb ea d2 a2 ba a7 f8 45 3c 14 93 ed bb
       -0.0062783477 -0.0012422476 0.012083209 -0.007250199
000200 29 ae a6 ba c4 fd 09 3c 82 12 15 bc 77 a2 13 bb
       -0.0012716699 0.008422319 -0.009098651 -0.0022527257
000210 b1 8a a3 3b d0 dc 21 bc 46 0a 35 bb f4 8b d2 3b
       0.0049908985 -0.009879306 -0.0027624532 0.006425375
000220 3c 29 11 bc 19 d4 08 bb 8f 4a 75 3b 0c 21 fe bb
       -0.008859929 -0.0020878373 0.0037428474 -0.0077554043
000230 bd 21 df ba c4 88 8c 3c b9 e0 03 bc 1a 00 f2 ba
       -0.0017023605 0.017155059 -0.0080491835 -0.0018463165
000240 dd c6 9a 3c 5c ee f4 bb 21 39 bd ba 67 e4 87 3c
       0.018893654 -0.0074747037 -0.0014436581 0.016588403
000250 6b 94 68 bb 9d b3 c7 b8 25 84 57 3c 30 d0 8e bb
       -0.0035488855 -9.522515e-05 0.013154064 -0.004358314
000260 69 48 8a b9 7d 20 7e 3c 71 17 bb bb b9 3c 4a ba
       -0.0002637536 0.0155106755 -0.0057095815 -0.0007714737
000270 56 ce 6f 3c 38 b7 7f bb a3 65 96 b8 78 e8 a9 3c
       0.014636597 -0.003901912 -7.171489e-05 0.020740733
000280 ca 80 78 bb f3 e9 c9 b9 49 f3 ab 3c 76 d6 86 bb
       -0.003791856 -0.00038512013 0.02099003 -0.004114921
000290 52 1c db b8 24 eb b5 3c 74 94 76 bb e6 75 f4 b9
       -0.00010448009 0.02220685 -0.0037625106 -0.00046627148
0002a0 89 83 69 3c d3 59 17 bb e3 2a c5 39 72 59 a4 3c
       0.014252552 -0.002309431 0.0003760672 0.020062182
0002b0 33 83 eb ba aa 4a 83 39 6d bb 8f 3c da aa f7 ba
       -0.0017968178 0.00025041896 0.017545426 -0.0018895522
0002c0 42 38 b8 38 4e e1 93 3c 3d 4e af 3a 6f ab a1 3a
       8.7842825e-05 0.01805177 0.0013374757 0.0012334416
0002d0 83 8c 82 3c a2 e7 fa ba ff 20 01 3a 91 b6 97 3c
       0.015936142 -0.0019142518 0.0004925876 0.018519672
0002e0 22 be 2a b9 0d 9c 7b 3a 57 79 ab 3c 80 65 fe ba
       -0.00016283293 0.00095981435 0.020931883 -0.0019408911
0002f0 f3 2f eb 39 ed 5d cb 3c 9a 33 f8 ba b0 1f 3c 3a
       0.00044858418 0.02482506 -0.0018936277 0.00071763527
000300 46 13 cc 3c 2b 25 d1 ba 7e 28 27 3a af d3 0c 3d
       0.024911534 -0.0015956511 0.0006376578 0.034381565
000310 1c df f7 b9 e5 f5 8a 3a 2c 3f 20 3d 01 d5 48 ba
       -0.0004727774 0.0010601847 0.039122745 -0.00076611346
000320 6a 35 5c 3a f1 ad 2f 3d 02 d8 cc 37 fa f2 c2 3a
       0.00084002933 0.042890493 2.4419282e-05 0.0014873438
000330 2f 8e 4b 3d 1f 9b eb b9 eb 8f 96 3a f4 e7 63 3d
       0.049696144 -0.00044938267 0.0011486983 0.05564113
000340 53 af 01 3b e7 f6 09 3b d8 d2 3e 3d e6 6b ef 39
       0.001978834 0.0021051706 0.046587795 0.00045666023
000350 a9 1a d9 3a f4 b4 2c 3d 89 79 cd 3a 07 ea 18 3b
       0.0016563731 0.042164758 0.0015676479 0.002333285
000360 68 cd 25 3d 03 52 bd ba a4 8a 6b 3a e5 18 2c 3d
       0.040479094 -0.0014443997 0.00089851976 0.04201593
000370 dc 1d 40 ba 7e 59 96 3a a8 5c 1f 3d 96 ab 3d bb
       -0.0007328668 0.0011470763 0.038906723 -0.0028941385
000380 b6 60 2e 3a 50 b1 b1 3c d4 cc 2a ba 78 0e d7 3a
       0.00066519843 0.021690995 -0.0006515507 0.001640751
000390 a8 96 a1 3c 03 0a 97 ba f1 7b ae 3a ad e5 d1 3c
       0.019725159 -0.001152337 0.0013312084 0.025622213
0003a0 1c a4 cd 3a cf 36 0b 3b fa ad 08 3d b4 cf d6 ba
       0.0015689167 0.0021242385 0.033369042 -0.0016388805
0003b0 d5 a7 a7 3a 18 ae 02 3d b7 d8 a1 ba 98 1a 98 3a
       0.0012791107 0.03190431 -0.0012347911 0.0011604605
0003c0 a1 fb f1 3c ce 7b c2 ba 1e 7a 96 3a 77 3f ae 3c
       0.029538931 -0.0014837922 0.0011480486 0.021270497
0003d0 fc 52 a5 bb 3b f7 88 b8 13 e0 35 3c b0 51 b7 bb
       -0.005045293 -6.5310356e-05 0.011100787 -0.0055944547
0003e0 7e 74 91 b9 2b c9 96 3c be d0 f4 bb bd ee a4 ba
       -0.0002774335 0.018406471 -0.007471173 -0.0012583357
0003f0 2e e8 51 3c fb 46 6e bb c2 b6 60 37 24 31 32 3c
       0.012811704 -0.0036358226 1.3393992e-05 0.010875974
