test_dataset/gait_809/20250819_c1_a4_Take2/split_subjects/0/fit-smplx/smplx-params_cut.npz (npz, 61086 bytes, 10 tensors)

betas f4 [119, 11]
000000 e5 d4 2c 3f 8d eb d0 bf 74 3d 14 3f 44 c0 14 bf
       0.6751235 -1.6321884 0.5790627 -0.58105874
000010 ee 6b 1a bf e0 e8 3b 3e aa d6 01 bf 1b f2 d9 3f
       -0.6032094 0.18350554 -0.50718176 1.702701
000020 8c bc 65 bd 75 5c 04 3e 4e 3e b7 3e 9c 0b 57 3f
       -0.056088015 0.12925895 0.35789722 0.8400209
000030 11 af 0e c0 ed de a2 3f 5f 65 a3 be 87 fe 8d bf
       -2.2294352 1.2724282 -0.31913278 -1.10933
000040 03 4b 40 3e 56 33 39 bf c0 d3 ea 3f f7 33 bf bd
       0.18778615 -0.7234396 1.8345871 -0.093360834
000050 fd 10 04 3e 76 98 b2 3e d3 0b 6a 3f 42 1a 17 c0
       0.12897106 0.34881943 0.9142429 -2.3609776
000060 40 cf b5 3f c5 c0 f0 bd 55 f5 a4 bf 1f 60 64 3e
       1.4203873 -0.11755518 -1.2887369 0.22302292
000070 d5 90 47 bf b8 f4 e5 3f ee dd 92 be f3 10 1a 3e
       -0.7795537 1.7965307 -0.28684944 0.15045528
000080 58 3b b6 3e 58 95 81 3f cb 7d 15 c0 54 83 b2 3f
       0.3559215 1.0123701 -2.3358028 1.3946328
000090 1d 83 3c bd 32 a1 a2 bf b0 08 72 3e ca cd 62 bf
       -0.046023477 -1.2705443 0.23636127 -0.8859526
0000a0 9f cb e8 3f 69 92 b7 be 16 a4 28 3e af cb b9 3e
       1.818714 -0.3585389 0.16468844 0.3628821
0000b0 17 4e 89 3f ea 7c 1e c0 10 3f cd 3f cc 21 64 3d
       1.0726956 -2.4763741 1.603487 0.055696294
0000c0 cd 9e ae bf 76 42 ae 3e 3a 78 5f bf 00 e4 dd 3f
       -1.3642212 0.3403508 -0.87292826 1.7335205
0000d0 37 f8 d9 be 3c 08 35 3e 75 a0 bd 3e a2 04 8b 3f
       -0.42572185 0.17678922 0.37036481 1.0860789
0000e0 5b 02 21 c0 07 54 dc 3f 5c 60 52 3d 6b c3 ac bf
       -2.5157688 1.7213143 0.051361427 -1.3497137
0000f0 b9 13 b1 3e 3d 56 85 bf af d3 db 3f 1b c1 d9 be
       0.3458536 -1.0416943 1.7173976 -0.4253014
000100 e9 e8 26 3e 41 63 be 3e d9 68 8b 3f a1 92 1d c0
       0.16299786 0.371851 1.0891372 -2.4620745
000110 05 ea d0 3f 4b 2a 96 3d 5b fd a5 bf aa 55 bc 3e
       1.6321417 0.073322855 -1.2967943 0.36784106
000120 27 d3 80 bf af 30 dc 3f 46 b2 e6 be 21 e2 21 3e
       -1.0064439 1.7202357 -0.45057887 0.15808918
000130 7e 08 bf 3e e7 7c 8e 3f b4 ff 1c c0 80 63 ce 3f
       0.37311167 1.1131867 -2.4531069 1.6124115
000140 70 fa 83 3c 62 e8 aa bf 03 e8 b9 3e ac fc 71 bf
       0.016110629 -1.3352168 0.36309823 -0.9452617
000150 3b fe d6 3f 63 bc f2 be ac 45 21 3e 15 61 be 3e
       1.6796335 -0.47409353 0.15749234 0.37183443
000160 2c 27 91 3f 53 12 1d c0 ef e1 ce 3f fe 1d 55 3d
       1.1340079 -2.4542434 1.61627 0.052030556
000170 2e ad ae bf 3f 52 a4 3e b8 a0 7f bf fd 3c da 3f
       -1.36466 0.32094 -0.9985461 1.7049862
000180 cd 2c e6 be 5f 9b 19 3e 28 af be 3e a2 27 90 3f
       -0.44956055 0.15000676 0.3724301 1.1262095
000190 0d af 1d c0 70 90 cf 3f a6 21 42 3d e2 1f b1 bf
       -2.4638093 1.6215954 0.04739537 -1.3837855
0001a0 6b 96 88 3e e1 95 83 bf 1f 5b da 3f 59 7e db be
       0.2667726 -1.0280114 1.7059058 -0.42869833
0001b0 ab 88 05 3e db a9 be 3e 84 c0 8e 3f b3 9f 1c c0
       0.13040416 0.37238964 1.1152501 -2.4472473
0001c0 f5 99 c6 3f 9f a7 95 3d 05 71 b6 bf 25 99 86 3e
       1.5515734 0.07307362 -1.4253241 0.26288715
0001d0 c8 cf 62 bf 7f 25 db 3f 4c 93 e5 be 94 c2 fb 3d
       -0.885983 1.7120818 -0.4483894 0.12292972
0001e0 bd 2e bd 3e 18 7d 8b 3f 3f be 18 c0 26 59 c6 3f
       0.3694972 1.089755 -2.3866117 1.5495956
0001f0 c3 ae b2 3c d9 97 bc bf a0 0a 52 3e fa a7 48 bf
       0.021811849 -1.473384 0.20511866 -0.7838131
000200 52 21 d8 3f 43 d2 d3 be 7e 63 e7 3d 4f 9f bc 3e
       1.6885169 -0.41371354 0.112982735 0.36840293
000210 95 d6 86 3f 69 b2 14 c0 39 90 c0 3f 81 40 79 bd
       1.0534235 -2.3233893 1.5044013 -0.06085253
000220 40 31 b8 bf ea aa 39 3e 71 10 47 bf 59 a4 e0 3f
       -1.439003 0.18131605 -0.7775946 1.7550155
000230 dc 34 c1 be 5e 41 e9 3d 55 c7 ba 3e d9 88 85 3f
       -0.3773564 0.11389421 0.36480203 1.0432388
000240 cf ac 16 c0 da 74 bb 3f dc 86 8d ba 98 7e b7 bf
       -2.3542974 1.4645035 -0.0010797638 -1.4335508
000250 0b 18 61 3e 18 8a 4c bf 7d 88 e2 3f 9f 82 b9 be
       0.21981828 -0.79898214 1.7697903 -0.36232468
000260 00 10 de 3d db b2 b9 3e fb cd 7b 3f a3 cb 17 c0
       0.108428955 0.36269268 0.98361176 -2.371804
000270 da 01 c3 3f 3f ac b2 39 52 41 ad bf e2 af 35 3e
       1.523494 0.0003407914 -1.3535559 0.17742875
000280 55 d5 61 bf 40 66 e1 3f cb 33 bc be 36 a5 0f 3e
       -0.88216144 1.7609329 -0.36758265 0.14027867
000290 64 a8 b8 3e 98 2d 80 3f 39 5f 19 c0 85 b3 cc 3f
       0.36065972 1.0013914 -2.396437 1.5992285
0002a0 52 52 05 bd c6 db b0 bf 6e 6b 11 3e 86 ce 51 bf
       -0.03254921 -1.381707 0.14201137 -0.81955755
0002b0 f9 6f dc 3f 0c 83 bf be d3 cd 02 3e 2e d5 b9 3e
       1.7221671 -0.37404668 0.12773828 0.36295456
0002c0 2a 2d 86 3f ed 8c 1b c0 a3 dc d7 3f 49 db 8a bc
       1.0482533 -2.4304764 1.6864208 -0.016950266
0002d0 fd 4b b1 bf bb 07 05 3e e9 b9 51 bf 95 36 d1 3f
       -1.3851315 0.1299123 -0.819243 1.6344782
0002e0 83 b1 c6 be 0f 06 ff 3d b7 84 bb 3e cb e8 8a 3f
       -0.38807306 0.124523275 0.3662469 1.0852293
0002f0 11 34 1f c0 13 f6 e6 3f 49 4a 0f bc 69 f5 b6 bf
       -2.487553 1.8043846 -0.008745738 -1.4293643
000300 8f 51 e9 3d 97 97 52 bf 4d b9 c2 3f e7 0d ca be
       0.11392509 -0.8226256 1.5212799 -0.39463732
000310 ab 21 00 3e e7 d1 bd 3e af aa 88 3f 3a 2e 1f c0
       0.12512843 0.37074205 1.0677088 -2.4871964
000320 a0 4e ec 3f 63 24 f8 bc 5e 0d b6 bf a5 53 d5 3d
       1.8461494 -0.030290788 -1.4222829 0.104163446
000330 21 c9 49 bf 19 f3 b6 3f b5 1f c4 be 56 c8 04 3e
       -0.78822523 1.4292938 -0.3830544 0.12967047
000340 1d 79 bd 3e b8 76 88 3f d6 81 1b c0 4e ef e6 3f
       0.37006465 1.066123 -2.4297996 1.804178
000350 d2 79 89 bd 78 1b b3 bf ce 8f bb 3d 3d 8a 47 bf
       -0.067126885 -1.3992758 0.09158288 -0.7794531
000360 b0 46 ad 3f 22 69 b5 be 0e 1d 0b 3e 1b d8 bd 3e
       1.3537197 -0.35431772 0.13585302 0.37078938
000370 2a 19 84 3f 75 72 1b c0 56 c8 e8 3f 53 d5 91 bd
       1.032018 -2.428861 1.8186138 -0.071207665
000380 19 70 af bf eb ce 9a 3d b0 a8 61 bf af 48 af 3f
       -1.3706084 0.07558998 -0.8814802 1.3694056
000390 0c f8 9b be bb bc f9 3d 82 2f bc 3e 75 53 85 3f
       -0.30462682 0.121942006 0.36754996 1.0416094
0003a0 59 46 1c c0 9a e8 e0 3f 8d 6f 0b bd e6 3c ad bf
       -2.4417937 1.7570984 -0.03404193 -1.353421
0003b0 68 bf a5 3d 9c 3c 74 bf 24 2b ac 3f 7c c4 8f be
       0.080931485 -0.9540498 1.3450665 -0.28079593
0003c0 ea 21 12 3e 9b 62 bc 3e 73 df 82 3f 4f 0b 1b c0
       0.1427075 0.3679398 1.0224441 -2.4225652
0003d0 ff 92 d9 3f 5c 9a 26 bd a1 9b af bf 27 1f d6 3d
       1.6997985 -0.040674552 -1.3719369 0.104551606
0003e0 1a c9 88 bf d0 71 ae 3f 8b 34 8b be 69 a7 20 3e
       -1.0686371 1.3628483 -0.27188525 0.15688862
0003f0 ac 8a bb 3e 15 d3 82 3f 15 47 1b c0 83 ad d6 3f
       0.36629236 1.0220667 -2.4262135 1.6771702

global_orient f4 [119, 3]
000000 72 17 e7 3d 4d 27 27 c0 51 0b d6 bb 11 28 ff 3d
       0.11283769 -2.6117737 -0.0065321107 0.12458814
000010 95 37 25 c0 27 6f 2e bc 2a 33 08 3e 96 a0 24 c0
       -2.5815175 -0.010646618 0.13300768 -2.5723014
000020 4a 3b c1 bc 22 f7 0c 3e c9 04 24 c0 30 bb f6 bc
       -0.023587842 0.13766149 -2.562792 -0.030118555
000030 a3 90 08 3e d8 5e 22 c0 1d 38 29 bd a2 44 02 3e
       0.13336425 -2.5370388 -0.04131328 0.12721494
000040 ec 30 20 c0 d7 b9 48 bd 25 14 f1 3d 0a 3f 1e c0
       -2.502986 -0.049005356 0.117714204 -2.4725976
000050 af 18 52 bd 2d 5d d1 3d 14 aa 1c c0 a6 32 6f bd
       -0.05129307 0.1022285 -2.4478807 -0.05839791
000060 16 39 aa 3d 21 ea 19 c0 72 eb 9e bd ad f0 76 3d
       0.083116695 -2.404915 -0.077597514 0.06028812
000070 4e 89 17 c0 05 e9 c2 bd 03 a9 3a 3d a5 37 17 c0
       -2.3677554 -0.09517101 0.04557134 -2.3627713
000080 51 d0 c5 bd 24 51 ba 3c 8f 1a 18 c0 37 88 be bd
       -0.09658874 0.022743769 -2.376621 -0.09303325
000090 a6 ac 1a 3c a7 1f 18 c0 c8 b2 b2 bd 83 76 ec ba
       0.009440577 -2.376932 -0.08725506 -0.001804069
0000a0 dd e3 17 c0 05 75 a9 bd eb 12 87 bc b0 41 19 c0
       -2.3732827 -0.08274273 -0.016488513 -2.3946342
0000b0 b3 6a 9c bd 91 72 0e bd 32 1e 1a c0 6a da 89 bd
       -0.07637539 -0.034777228 -2.408093 -0.06731112
0000c0 75 a2 68 bd 5d 9b 1b c0 ae 1c 72 bd 93 d7 8e bd
       -0.056795556 -2.4313576 -0.059109382 -0.06974711
0000d0 8a 97 1c c0 30 53 7a bd 10 88 af bd c9 12 1e c0
       -2.4467492 -0.06111449 -0.08570874 -2.4698966
0000e0 8a c2 5d bd 13 d0 cc bd b2 ab 1f c0 b2 44 35 bd
       -0.054140605 -0.100006245 -2.4948545 -0.044254966
0000f0 33 30 e3 bd df 95 21 c0 e7 db 0b bd da 46 f0 bd
       -0.11093178 -2.5247724 -0.034145262 -0.11732264
000100 b6 f6 23 c0 1a 99 be bc 9c 4e 03 be ff df 25 c0
       -2.561933 -0.023266364 -0.12822956 -2.5917966
000110 25 01 3f bc 45 73 fd bd 86 f6 27 c0 31 5f 71 ba
       -0.011657988 -0.123755015 -2.6244216 -0.0009207605
000120 5e 6b fc bd 1c 26 2a c0 b3 d2 23 3c 22 90 06 be
       -0.12325166 -2.658576 0.009998965 -0.1314092
000130 3a 5d 2c c0 b7 e8 74 3c 43 fd 05 be 19 0a 2f c0
       -2.69319 0.014948062 -0.13084893 -2.7349913
000140 04 41 08 3d c3 9b 06 be 81 03 31 c0 6c d8 53 3d
       0.03326513 -0.13145356 -2.7658389 0.051720068
000150 a6 30 08 be 7d aa 33 c0 dd 03 7d 3d bf 35 07 be
       -0.13299808 -2.8072808 0.061771262 -0.13204096
000160 0b 33 36 c0 ad 5f 78 3d 69 41 01 be 2e 3f 39 c0
       -2.8468654 0.06063812 -0.12622608 -2.8944812
000170 80 c2 43 3d df 2a ed bd f5 35 3c c0 e7 ff 02 3d
       0.04779291 -0.11580443 -2.9407933 0.03198233
000180 0a a5 cf bd 50 e5 3e c0 9e 96 6d 3c 98 f5 b1 bd
       -0.101389006 -2.9827461 0.014501242 -0.086894214
000190 dc 67 41 c0 d0 2a 22 bc d1 f1 9e bd 7a 08 42 c0
       -3.021964 -0.009897903 -0.077609666 -3.0317674
0001a0 17 ae d0 bc 3e 68 85 bd 5a 77 41 c0 7d c6 16 bd
       -0.025473638 -0.06514023 -3.0229096 -0.036810387
0001b0 ab 43 4a bd 1a 9c 40 c0 11 db 45 bd 5b 06 0a bd
       -0.04938094 -3.0095277 -0.04830462 -0.033697467
0001c0 cf 50 3f c0 42 ae 61 bd f9 23 36 bc 97 6c 3e c0
       -2.9893072 -0.055097826 -0.011116975 -2.9753778
0001d0 97 fc 81 bd ed 03 31 3c 8e 5a 3d c0 a0 35 87 bd
       -0.06347006 0.010804159 -2.958652 -0.06602025
0001e0 79 bb 24 3d 42 4a 3b c0 f0 d0 88 bd 32 39 50 3d
       0.04021785 -2.9264073 -0.06680477 0.050835796
0001f0 fe 2b 39 c0 e0 20 89 bd e7 c7 82 3d 2a 2f 37 c0
       -2.89331 -0.066957235 0.063857846 -2.8622537
000200 3e f0 81 bd 10 d0 97 3d 5a dc 35 c0 67 05 75 bd
       -0.06344651 0.07412732 -2.8415742 -0.059819605
000210 81 dc 9a 3d 77 2c 35 c0 84 68 66 bd d0 b6 9d 3d
       0.07561589 -2.830839 -0.056252018 0.07700884
000220 31 8a 33 c0 32 40 4d bd a1 65 99 3d df 8a 32 c0
       -2.8053095 -0.05011005 0.07490087 -2.789726
000230 55 b5 42 bd a9 33 8f 3d 1c c6 31 c0 4c ce 3e bd
       -0.047536213 0.06992275 -2.7777166 -0.04658346
000240 07 bd 50 3d d3 f5 30 c0 23 e5 62 bd 0c d0 3a 3d
       0.05096152 -2.765004 -0.055394303 0.045608565
000250 74 6a 2f c0 f4 f7 9c bd c2 fb f7 3c 82 39 2e c0
       -2.7408724 -0.07664481 0.030271415 -2.72226
000260 68 31 d2 bd 81 91 11 3c 95 c7 2c c0 67 b4 03 be
       -0.1026333 0.0088847885 -2.6996815 -0.12861787
000270 03 8f af bb 48 f3 2c c0 14 86 13 be 4f 68 67 bc
       -0.0053576245 -2.7023487 -0.14406615 -0.01412399
000280 fc 0b 2d c0 cc 41 1d be 15 aa a8 bc 20 1a 2f c0
       -2.7038565 -0.15357131 -0.020588914 -2.7359695
000290 9c 29 20 be 5a 22 0c bd 07 c1 30 c0 5e a4 19 be
       -0.15640873 -0.034212448 -2.7617815 -0.15004107
0002a0 ec ae 3d bd 30 71 32 c0 9e e1 13 be 30 71 6b bd
       -0.046309397 -2.7881584 -0.14441535 -0.05748099
0002b0 c2 90 33 c0 a4 d2 0c be a7 4e 93 bd aa 38 34 c0
       -2.8057103 -0.13752228 -0.07192736 -2.8159585
0002c0 fd 37 02 be cd a2 a9 bd 22 f3 34 c0 f6 99 f7 bd
       -0.1271667 -0.08283005 -2.8273396 -0.120899126
0002d0 a4 4e c4 bd 04 17 36 c0 33 28 e8 bd 50 42 d3 bd
       -0.09585312 -2.8451548 -0.113357924 -0.103153825
0002e0 af 49 38 c0 fe fc d0 bd ec e9 e0 bd 52 db 3a c0
       -2.8794973 -0.102045044 -0.10982117 -2.9196362
0002f0 d0 01 bb bd b2 d4 f2 bd b3 93 3c c0 ee 45 a2 bd
       -0.09131205 -0.11856975 -2.9465148 -0.07923494
000300 e4 a5 03 be 68 ff 3d c0 ca e2 a0 bd 6f 04 08 be
       -0.12856251 -2.9687138 -0.078557566 -0.13282941
000310 a0 ca 3e c0 38 ec 94 bd 20 14 0c be 6f 7b 40 c0
       -2.9811172 -0.07271618 -0.13679552 -3.0075338
000320 fa 0b 8d bd 8f a8 0a be 4b f7 41 c0 4c 6a 7e bd
       -0.0688705 -0.13540863 -3.0307186 -0.06211309
000330 d6 58 08 be ca 67 43 c0 dc 67 56 bd af 3d 00 be
       -0.13315138 -3.0532098 -0.05234514 -0.1252353
000340 9e 39 44 c0 62 f4 2e bd d4 7d e9 bd 2d 32 44 c0
       -3.0660167 -0.04271353 -0.11400953 -3.0655625
000350 7e 05 5a bd 0d 26 d4 bd 1e 13 45 c0 cb 93 8b bd
       -0.053227894 -0.1035882 -3.0792918 -0.06815299
000360 56 0b b2 bd 65 a5 45 c0 0b 8d bf bd a1 0c 8e bd
       -0.086935684 -3.08822 -0.09353074 -0.069360025
000370 cf d5 45 c0 c7 e2 db bd 11 cb 56 bd 29 a7 45 c0
       -3.0911748 -0.10736614 -0.052439753 -3.0883276
000380 e0 e3 ed bd 8c 10 05 bd 9a 0b 45 c0 7b 71 fb bd
       -0.11615729 -0.032486483 -3.078833 -0.12277504
000390 4d 30 54 ba 2f 25 45 c0 2f a7 df bd 80 05 ac 3c
       -0.00080943556 -3.0803945 -0.109205596 0.020998716
0003a0 df b4 44 c0 b5 37 e2 bd 50 50 41 3d 71 f3 43 c0
       -3.0735395 -0.110457815 0.047195733 -3.0617335
0003b0 41 bc eb bd 74 3d b4 3d f4 f9 42 c0 97 ae ee bd
       -0.11510516 0.08800784 -3.046506 -0.11654394
0003c0 80 31 ed 3d 84 66 41 c0 7a 9a ff bd fb 5a 11 3e
       0.11581707 -3.021882 -0.12480636 0.14194863
0003d0 82 77 40 c0 1a 42 04 be 8d 3b 26 3e c2 63 3f c0
       -3.0072942 -0.1291584 0.16233654 -2.9904637
0003e0 b5 86 fe bd c7 51 37 3e 5a f8 3e c0 c3 ce eb bd
       -0.12428037 0.1790229 -2.9839082 -0.11514046
0003f0 d4 5d 41 3e 8d 24 3e c0 28 68 d5 bd 0a a0 47 3e
       0.18883449 -2.970981 -0.10420257 0.19494644

body_pose f4 [119, 63]
000000 ad 7d 93 be 5c 89 2c be b3 fd db 3d 76 3d e3 be
       -0.2880682 -0.16849273 0.10741749 -0.44382828
000010 20 ee df 3d 22 b1 e7 bd fb 4a a4 3d d5 85 dc bc
       0.109340906 -0.11313082 0.08022114 -0.026919285
000020 4a 44 d0 3c a8 e3 0b 3f 76 26 20 be 86 69 33 b9
       0.025423188 0.5464425 -0.15639672 -0.00017110081
000030 a7 bc 3f 3f 75 09 ca 3c 49 eb f8 3d 53 20 03 bc
       0.74897236 0.024662713 0.12154252 -0.008003312
000040 fa 66 f4 3c ec 27 09 bd d1 2f be 3d e6 3f a4 be
       0.02983426 -0.033485338 0.09286464 -0.3208
000050 7f cf 8a bd 35 59 41 3e e7 97 60 3e b9 b8 0d 3c
       -0.06777858 0.18881686 0.21932946 0.008649998
000060 41 17 c6 3d 6b c8 9e 3d 2f 04 8b 3c d7 e5 87 37
       0.09672404 0.077530704 0.016969768 1.6200282e-05
000070 fa e3 89 b7 32 21 81 b7 5b 05 87 37 f2 1c 81 37
       -1.6437833e-05 -1.5393456e-05 1.6095748e-05 1.5391477e-05
000080 e0 44 78 37 80 c6 22 bd fd fe 09 bc 03 53 ee 3b
       1.4797988e-05 -0.039740086 -0.00842261 0.0072730794
000090 cb 46 ba bd 2d 6c cb 3d 3c 2b d9 be f2 b4 73 3d
       -0.09095534 0.09932742 -0.42415798 0.059498735
0000a0 1b 0f 1b be 60 89 e5 3e a9 2d 49 bd 24 2c 04 3d
       -0.15142481 0.4483137 -0.04911581 0.03226866
0000b0 0f 38 7e 3d b1 12 db 3d 2b 3e 9a be 04 9d 3b bf
       0.06206518 0.106969245 -0.30125555 -0.7328646
0000c0 b7 d2 66 3d d3 23 af bd 77 a0 38 3f ce 4d f9 bd
       0.056353297 -0.08551755 0.7211985 -0.12173043
0000d0 ed e9 be bf 0a 5d 2f be 22 08 a9 3d 9e cd 0e 3f
       -1.4915138 -0.17125335 0.08253504 0.55782497
0000e0 6e 18 96 3e 15 26 a3 be ab 7b 6e be f4 30 69 be
       0.29315513 -0.31864992 -0.23289363 -0.2277258
0000f0 ea 20 c2 3d 52 73 2d be 56 ae 8f 3d 0f 5f ad be
       0.09478934 -0.16938522 0.07015674 -0.33861586
000100 26 88 42 be 06 da 15 3e 87 96 09 bf 0a 7b da 3d
       -0.18997249 0.1463395 -0.5374531 0.10667999
000110 61 3b 1d be 42 24 c9 3d b3 22 f4 bc 88 54 63 3d
       -0.15354683 0.09821369 -0.029801702 0.055500537
000120 c7 f6 2b 3f c9 7b 96 be 5f 7c 13 be 31 cf 51 3f
       0.6717343 -0.29391316 -0.14402913 0.81956774
000130 a5 e9 5f 3d 58 ef 7c 3e 36 03 27 bd 97 5f 77 3d
       0.05466618 0.24700677 -0.040774547 0.060393896
000140 2b 67 95 bd ae 8a 18 be c4 a8 db bd 8a 12 2d bd
       -0.07295068 -0.14896652 -0.10725549 -0.04225401
000150 84 ed 5c bb 8b 41 06 3d 0a eb c7 3d 6b 21 00 3e
       -0.0033710906 0.03277735 0.09761627 0.12512748
000160 68 41 22 3d 17 84 09 3d 96 11 71 37 e0 fb 82 b7
       0.039613158 0.033573236 1.4368814e-05 -1.5614496e-05
000170 e2 b2 87 37 e1 7e 78 37 8d bc 75 b7 de 38 87 37
       1.6176553e-05 1.4811493e-05 -1.4647038e-05 1.6119735e-05
000180 71 2d 70 bd 52 12 d7 3c 04 8d 13 3d 35 18 aa bd
       -0.058637086 0.026253853 0.036023155 -0.083053984
000190 04 e6 f5 3d a5 c0 b3 be 85 6b bd 3d 13 b3 45 be
       0.120067626 -0.35107914 0.09249023 -0.19306593
0001a0 5c 62 bf 3e a4 b7 5d bd 7a f4 5f bc 4f c9 2f 3d
       0.3737973 -0.05413021 -0.013669128 0.042916592
0001b0 06 f2 f1 3d 5c 27 8f be 88 f2 51 bf c7 3e c1 3d
       0.118137404 -0.27959716 -0.820107 0.09435802
0001c0 c6 e4 35 bd 72 3a 47 3f 07 db 10 be 87 6a c3 bf
       -0.04440763 0.77823555 -0.14146052 -1.5266885
0001d0 1c 1d 2e be fd 68 b5 3d 08 27 28 3f 56 83 ad 3e
       -0.17003292 0.088579156 0.65684557 0.33889264
0001e0 0c 3f 71 be a0 b2 8d be 29 88 90 be 64 d8 b7 3d
       -0.23559207 -0.27675343 -0.28228882 0.0897682
0001f0 d4 fe 52 be b8 42 de 3d 1c 32 9e be 3f 7c 42 be
       -0.20605022 0.10852569 -0.30897605 -0.18992709
000200 2f dd 23 3e bf a5 0e bf e7 f4 c7 3d df e3 0b be
       0.16002344 -0.5572166 0.09763508 -0.13661145
000210 10 0d fe 3d be cf 4b bd 3e ed 8b 3d 42 0c 26 3f
       0.12404835 -0.049758665 0.0683236 0.64862454
000220 6f 4a 96 be 96 ba 10 be dc 95 3b 3f f8 2e 93 3c
       -0.29353663 -0.14133677 0.7327554 0.017966732
000230 81 c2 5b 3e 7d 56 5e bd 7c 66 7c 3d 74 75 a5 bd
       0.21460916 -0.0542817 0.061621174 -0.08079043
000240 11 c2 33 be 7d 75 b6 bd 33 8c 6f 3c ef d3 83 bc
       -0.17554499 -0.08909128 0.014620828 -0.016092269
000250 00 12 15 bd 47 1c a4 3d 78 11 0a 3e 72 12 28 3d
       -0.03639412 0.08013206 0.13483226 0.041033216
000260 f4 97 21 3d a0 ee 89 b7 58 76 81 b7 20 67 87 37
       0.039451554 -1.6442791e-05 -1.5433106e-05 1.6141275e-05
000270 4e 76 7b 37 d4 7b 84 37 dc 7a 85 37 75 1c 96 bd
       1.4988311e-05 1.5793288e-05 1.5912046e-05 -0.073296465
000280 f7 12 19 3c ec 10 05 3d 5c ea 90 bd 40 cc 04 3e
       0.0093429005 0.03248684 -0.070759505 0.1296854
000290 c8 05 b9 be 73 f7 b4 3d fd 3f 3f be c3 70 b7 3e
       -0.36137223 0.0883626 -0.18676753 0.35828218
0002a0 bd 60 63 bd 58 b3 54 bc 72 2a 54 3d ba dd 0c 3e
       -0.05551218 -0.012982212 0.05179829 0.13756457
0002b0 37 c7 87 be b2 8f 52 bf b2 51 c3 3d d7 be 55 bd
       -0.26519176 -0.8225051 0.095370665 -0.052183952
0002c0 7e 64 48 3f ff f4 0e be b8 8e c4 bf 8e e7 24 be
       0.7827834 -0.13960646 -1.5356054 -0.16103956
0002d0 06 d0 86 3d 6e f0 3b 3f 44 6e b6 3e 84 70 58 be
       0.06582646 0.7341374 0.35631 -0.21136671
0002e0 a0 fc b1 be 8e 77 98 be 90 4c 04 3e 4e 2e 79 be
       -0.3476305 -0.29778713 0.12919831 -0.2433407
0002f0 bd 9d d3 3d 73 8c 90 be 3a 5f 2f be 3d ba 28 3e
       0.103328206 -0.28232154 -0.1712617 0.16477294
000300 76 b4 12 bf 57 5e 98 3d 78 0a 00 be f4 f5 0d 3e
       -0.5730661 0.07439869 -0.12503994 0.13863355
000310 44 5d 87 bd 76 e1 9b 3d 77 5e 22 3f 95 53 a3 be
       -0.06609586 0.07611363 0.6342539 -0.31899706
000320 40 51 03 be 5c 99 27 3f fe ee 83 bc 97 56 34 3e
       -0.12823963 0.6546838 -0.016105171 0.17611156
000330 c5 6f 56 bd 88 4f 50 3d e1 3e ac bd 70 aa 58 be
       -0.052352685 0.050857097 -0.08410431 -0.21158767
000340 ae d7 c4 bd 16 c5 41 3c 8e 18 d1 bb d1 8a bc bd
       -0.0961145 0.011826774 -0.006381101 -0.09206165
000350 cd ad e2 3c cf c2 0f 3e c7 0a 31 3d 95 02 21 3d
       0.027670765 0.14039157 0.04322317 0.039309103
000360 93 ec 6e 37 09 39 81 b7 5a 34 88 37 a9 7d 7d 37
       1.4240987e-05 -1.5404557e-05 1.6236841e-05 1.5109233e-05
000370 b7 10 83 37 42 52 86 37 d0 bc b9 bd 79 cb bd bb
       1.56242e-05 1.6012349e-05 -0.09069216 -0.005792078
000380 93 da 1e 3d 29 39 87 bd ff 8c 07 3e 5c 10 bc be
       0.038782667 -0.06602699 0.1323738 -0.3673123
000390 5a 69 aa 3d 57 77 31 be 12 e9 b4 3e 09 82 88 bd
       0.083208755 -0.17330681 0.3533407 -0.06665427
0003a0 d3 83 55 bc ae 60 2b 3d 5b 2d 1f 3e 3f 58 7c be
       -0.013031918 0.041840248 0.15544645 -0.24643038
0003b0 43 2d 54 bf 32 6c b6 3d f9 e2 25 bd 34 1c 49 3f
       -0.82881564 0.08907355 -0.04049966 0.7855866
0003c0 40 37 0d be 20 45 c9 bf 02 4a 1f be e1 cd b5 3d
       -0.13790607 -1.572422 -0.15555575 0.08877159
0003d0 03 44 46 3f 91 c9 b0 3e 7f 7a 85 be ec 36 8a be
       0.7744753 0.34528783 -0.2607002 -0.26995027
0003e0 f3 27 a8 be 47 6d 00 3e 1f f8 7c be fa 94 95 3d
       -0.3284298 0.12541686 -0.24704026 0.07303806
0003f0 73 bf 88 be ac 3a 38 be 6d e0 2d 3e 40 3d 15 bf
       -0.26708564 -0.17991132 0.16980143 -0.58296585

transl f4 [119, 3]
000000 f0 c1 8a 3e 46 f1 b1 3f e1 3f 7f 3f 32 c5 88 3e
       0.27101088 1.3901756 0.99706846 0.26712948
000010 e8 1e b1 3f 00 af 7c 3f 3d bb 86 3e d8 5b b1 3f
       1.3837557 0.9870453 0.26314726 1.3856153
000020 42 69 7a 3f 41 6e 84 3e cd 60 b1 3f bf f3 77 3f
       0.9781686 0.25865367 1.3857666 0.968563
000030 e7 63 82 3e e3 8c b1 3f fd 60 75 3f 97 4b 80 3e
       0.25466844 1.387112 0.9585112 0.2505767
000040 de 79 b1 3f 06 53 72 3f 3a 51 7c 3e 26 79 b1 3f
       1.3865316 0.94657934 0.2464036 1.3865097
000050 06 f6 6e 3f 1e b2 77 3e 45 46 b1 3f 03 f2 6a 3f
       0.9334415 0.2418904 1.384957 0.9177553
000060 f2 df 72 3e 55 12 b1 3f fa 17 66 3f 83 69 6d 3e
       0.23718241 1.383372 0.89880335 0.23184781
000070 e3 e3 b0 3f 35 95 60 3f 66 4b 68 3e 80 b4 b0 3f
       1.3819546 0.8772767 0.22685012 1.3805084
000080 17 7e 5a 3f 68 e8 62 3e d0 76 b0 3f 4c f1 53 3f
       0.8534865 0.22158968 1.3786259 0.82790065
000090 4f 6a 5e 3e ed 62 b0 3f e7 3b 4d 3f 1b 89 59 3e
       0.21720241 1.378019 0.8016953 0.21243708
0000a0 a7 8f b0 3f 13 25 47 3f d4 d3 55 3e 20 9f b0 3f
       1.3793839 0.77790946 0.20881587 1.3798561
0000b0 3d 49 41 3f bb 50 52 3e 1c 95 b0 3f cd c1 3b 3f
       0.7550238 0.20538609 1.3795505 0.7334259
0000c0 c9 76 4f 3e 1a aa b0 3f 44 f7 36 3f ad 00 4c 3e
       0.20260157 1.3801911 0.7147105 0.19922133
0000d0 cf e5 b0 3f 63 51 32 3f ed 56 49 3e 03 2e b1 3f
       1.3820132 0.69655436 0.19662066 1.3842167
0000e0 a5 24 2e 3f 48 ff 45 3e 25 7c b1 3f 98 43 2a 3f
       0.68024665 0.19335663 1.3866011 0.6650939
0000f0 8d 63 42 3e 94 b3 b1 3f 53 db 26 3f 8c c8 3e 3e
       0.18983288 1.3882928 0.6517841 0.1863119
000100 c7 de b1 3f c9 62 23 3f b0 2d 3a 3e 99 00 b2 3f
       1.3896111 0.6382261 0.18181491 1.3906432
000110 fa cc 1f 3f 01 0f 35 3e 41 fa b1 3f 92 2d 1c 3f
       0.62422144 0.17681505 1.3904496 0.61007035
000120 ef 2c 2f 3e 80 dd b1 3f 2e 66 18 3f d5 e5 28 3e
       0.17106985 1.3895721 0.59530914 0.16493924
000130 74 b4 b1 3f bc 71 14 3f e7 65 21 3e e2 6c b1 3f
       1.3883195 0.57986045 0.15761529 1.3861353
000140 19 32 10 3f 22 08 19 3e 1f 36 b1 3f 29 9a 0b 3f
       0.5632644 0.14944509 1.3844641 0.54532105
000150 e3 17 0e 3e 02 e9 b0 3f 0e 77 06 3f 9d 47 01 3e
       0.138763 1.3821108 0.52525413 0.12624975
000160 45 91 b0 3f cb 84 00 3f 2f c9 e7 3d 8d 34 b0 3f
       1.3794333 0.50202626 0.113176696 1.3766037
000170 d7 dc f2 3e 54 b9 ca 3d 57 a8 af 3f cb 84 e3 3e
       0.47434112 0.0989863 1.3723248 0.4443725
000180 1a ef af 3d 6d 59 af 3f 54 d1 d3 3e 8e 31 96 3d
       0.08590527 1.3699166 0.41370642 0.073336706
000190 0c 00 af 3f b1 37 c4 3e fb 6f 78 3d 1a cb ae 3f
       1.3671889 0.3832374 0.060653668 1.3655732
0001a0 0f df b5 3e cf 0c 4e 3d 97 e1 ae 3f 2e ad a8 3e
       0.35521743 0.050305184 1.3662595 0.32944626
0001b0 44 7a 25 3d 06 41 af 3f fe e1 9c 3e 01 da 06 3d
       0.040399805 1.3691719 0.30641168 0.03292275
0001c0 2d e0 af 3f 90 db 92 3e e4 c8 de 3c 8a 80 b0 3f
       1.3740288 0.28683138 0.027195401 1.3789227
0001d0 e6 b2 89 3e cf bb b2 3c 89 00 b1 3f 6c 98 81 3e
       0.268943 0.02181807 1.3828288 0.253116
0001e0 82 11 92 3c 88 64 b1 3f e5 9e 74 3e 38 67 66 3c
       0.017830614 1.3858805 0.23888738 0.014062695
0001f0 98 95 b1 3f e8 43 66 3e fa 92 36 3c 2b 8d b1 3f
       1.3873777 0.22486842 0.01114344 1.3871206
000200 7b 21 58 3e 94 bf 02 3c 96 5f b1 3f 84 a0 4a 3e
       0.21106522 0.007980246 1.3857296 0.19787794
000210 c4 59 b1 3b 4d 2d b1 3f 67 bc 3c 3e fc f0 41 3b
       0.005412312 1.384195 0.18431245 0.00295931
000220 b5 fe b0 3f 1b ef 2c 3e 00 14 1f ba 5d eb b0 3f
       1.382773 0.16888086 -0.0006068349 1.3821827
000230 55 40 1b 3e c5 18 48 bb f9 c9 b0 3f f8 1c 05 3e
       0.1516126 -0.0030532342 1.3811637 0.12999332
000240 3c ba c5 bb 91 b2 b0 3f 9d 01 d7 3d 05 3d 1e bc
       -0.0060341638 1.3804494 0.104983546 -0.009658103
000250 de 7a b0 3f d3 cc 9c 3d 94 89 61 bc b4 20 b0 3f
       1.3787496 0.076562546 -0.013765711 1.375998
000260 85 6e 39 3d 2b 05 94 bc b0 c9 af 3f 43 94 53 3c
       0.045271415 -0.01806887 1.3733425 0.012913766
000270 46 16 ba bc d5 77 af 3f 83 2d 9d bc 27 c3 e7 bc
       -0.022715699 1.3708445 -0.01918674 -0.028291298
000280 bb 43 af 3f 9f 99 49 bd 99 83 07 bd 20 1a af 3f
       1.3692545 -0.04921877 -0.033084486 1.3679848
000290 52 c6 9a bd d1 55 19 bd dc 30 af 3f 59 f4 ca bd
       -0.07557358 -0.037435357 1.3686786 -0.09909887
0002a0 f4 f3 2c bd d8 67 af 3f 82 97 f3 bd bd b2 3d bd
       -0.04222484 1.3703566 -0.11894132 -0.046313036
0002b0 e8 c9 af 3f 71 92 0b be 90 be 4c bd 0d 33 b0 3f
       1.3733492 -0.13630082 -0.049986422 1.376558
0002c0 96 e8 1a be ac b7 5e bd 5a a4 b0 3f 2f c0 27 be
       -0.15127787 -0.054374382 1.3800156 -0.16381906
0002d0 d3 f0 74 bd 7c d4 b0 3f 98 f5 32 be 8c c5 83 bd
       -0.05979998 1.3814845 -0.17476499 -0.064341635
0002e0 67 f1 b0 3f ad 01 3d be 31 af 8f bd 92 05 b1 3f
       1.382367 -0.1845767 -0.07015837 1.3829825
0002f0 52 f3 46 be 15 3f 9d bd 31 10 b1 3f 9f 4e 52 be
       -0.19428757 -0.076780476 1.3833066 -0.20537804
000300 ae 95 ab bd 08 15 b1 3f 57 18 5d be c4 1f be bd
       -0.083781585 1.3834543 -0.21591316 -0.092834026
000310 48 10 b1 3f 26 15 68 be 6d 6b d2 bd fc d9 b0 3f
       1.3833094 -0.22664317 -0.10274396 1.3816524
000320 45 98 73 be 47 a9 e9 bd 0d b6 b0 3f 05 eb 7e be
       -0.23788555 -0.1140924 1.3805557 -0.2489434
000330 0c c3 02 be b8 98 b0 3f 6e 94 85 be 4e 84 12 be
       -0.12769717 1.3796606 -0.26089805 -0.14308283
000340 e4 5f b0 3f 26 9b 8b be 1c 09 25 be 72 17 b0 3f
       1.3779263 -0.27266806 -0.16116756 1.3757155
000350 8a 6f 92 be 81 c2 38 be 95 d8 af 3f 1d a6 99 be
       -0.28600723 -0.18042947 1.373797 -0.30009547
000360 ce ea 4d be d2 b8 af 3f 1e 1a a1 be 9f 11 64 be
       -0.20109102 1.3728278 -0.31465238 -0.22272347
000370 a7 b3 af 3f 2a ac a8 be f7 78 7b be e7 b5 af 3f
       1.37267 -0.3294385 -0.24557863 1.3727387
000380 ec 81 b0 be ae 14 89 be a9 7f af 3f 30 d8 b7 be
       -0.34474123 -0.2677359 1.3710834 -0.35907125
000390 da 7f 93 be a5 95 af 3f 58 c1 be be bc 25 9d be
       -0.2880848 1.3717543 -0.37256885 -0.30692852
0003a0 f3 ad af 3f 18 67 c4 be 68 79 a5 be 71 ca af 3f
       1.372496 -0.38359904 -0.32319188 1.3733655
0003b0 f0 d8 c9 be 0f 4c ac be a3 10 b0 3f 1d a5 ce be
       -0.39423323 -0.33651778 1.3755077 -0.40360346
0003c0 1b f4 b1 be 41 8b b0 3f 87 56 d3 be 5c 1a b6 be
       -0.3475655 1.3792497 -0.41276953 -0.35566986
0003d0 20 1a b1 3f 2a 6d d7 be c1 86 b9 be 1d 94 b1 3f
       1.3836098 -0.42075473 -0.36235622 1.3873326
0003e0 00 2f dc be 5a 68 bc be 40 0b b2 3f f8 e2 e0 be
       -0.43004608 -0.36798364 1.3909683 -0.43923163
0003f0 cb a8 be be 02 23 b2 3f 51 fc e5 be c4 d1 c0 be
       -0.37238154 1.3916934 -0.44919065 -0.37660038

left_hand_pose f4 [119, 12]
000000 99 9f b6 3e 0f 00 90 3e 32 55 c7 3e f9 52 fd 3e
       0.35668638 0.28125045 0.38932186 0.49477366
000010 15 8e 70 3e fb a8 07 bf b9 aa 96 3e 93 41 dd bd
       0.234917 -0.5299222 0.29427126 -0.10803523
000020 93 28 10 bf e9 72 4c bf 2f 87 6a 3f 8f 17 b4 bf
       -0.5631191 -0.7986284 0.91612524 -1.406969
000030 e7 9e da 3e a4 cb 81 3e f2 b4 18 3f 15 1d 14 3f
       0.42699358 0.25350678 0.596511 0.57856876
000040 8d 78 83 bd 7f 0b 09 bf da de b8 3e 43 1b 89 be
       -0.064194776 -0.53533167 0.36107522 -0.26778612
000050 73 16 07 bf d0 39 3e bf 13 83 ae 3f ba c9 b1 bf
       -0.5276863 -0.74306965 1.3633751 -1.3889687
000060 96 2f f0 3e 8d 14 99 3e f3 b1 1a 3f 74 fd e1 3e
       0.46911305 0.29898492 0.6042778 0.44138682
000070 ac 33 b8 be fc ca 16 bf 52 fe 40 3f 68 ad 96 bd
       -0.35976923 -0.5890348 0.7538806 -0.07357293
000080 8c 53 f6 be 65 6a 16 bf 9e 31 c8 3f 9b 75 86 bf
       -0.48110616 -0.58756095 1.5640142 -1.050464
000090 b2 d2 ce 3e bb f4 a0 3e 9e 47 17 3f 90 bc b4 3e
       0.40395123 0.31436715 0.59093654 0.35300112
0000a0 32 d8 63 be e2 9c 01 bf 47 33 34 3f b6 b3 ab bd
       -0.2225044 -0.5063001 0.70390743 -0.083838865
0000b0 5c 3d 14 bf 8d 15 41 bf ce f3 a7 3f 53 22 95 bf
       -0.57906127 -0.7542351 1.3121278 -1.16511
0000c0 61 66 b0 3e 09 a6 9d 3e a9 a7 2a 3f d9 47 a1 3e
       0.3445311 0.30790737 0.6666208 0.31500128
0000d0 b4 94 dd 3c af d3 01 be c3 d5 95 3e e0 3e 87 be
       0.027048446 -0.12678407 0.2926465 -0.26415157
0000e0 56 2b 2e bf dd 29 7e bf 07 22 73 3f 05 d9 bd bf
       -0.68034875 -0.9928263 0.94973797 -1.4831854
0000f0 45 1e 4b 3e a0 53 d2 3e 79 67 08 3f 03 1e 97 3e
       0.19835766 0.41079426 0.53282887 0.29515085
000100 1b 69 2a 3e a8 29 21 3e b7 8a 04 3e 47 3f 93 bd
       0.16641657 0.15738547 0.1294354 -0.071898036
000110 b6 99 3a bf ba a9 6e bf 40 a3 0f 3f 7f b3 ac bf
       -0.72890794 -0.9322773 0.56108475 -1.3492278
000120 18 52 d6 3d 37 25 a0 3e f0 af 05 3f d2 01 86 3e
       0.10464877 0.31278393 0.52221584 0.26173264
000130 ae 1c 4a bb da 8c de 3c b9 84 b6 3e c6 cd 69 ba
       -0.0030839848 0.027166773 0.35648134 -0.0008918907
000140 ba 74 ba be b3 80 3c bf f7 5b 2f 3f 34 eb a0 bf
       -0.3641718 -0.7363388 0.684997 -1.2571778
000150 03 c7 00 3e 36 0b 9b 3e de e1 e7 3e df f1 82 3e
       0.12575917 0.3028199 0.4528951 0.25575158
000160 81 10 1a be ae c5 c1 be 3a 79 08 3f 97 c6 c9 3a
       -0.15045358 -0.3784613 0.5330998 0.0015394267
000170 9d 25 04 bf 44 7e 40 bf 72 eb 49 3f 42 b4 93 bf
       -0.51619893 -0.75192666 0.78874886 -1.1539385
000180 e1 f1 d4 3d d2 31 b4 3e 4d 73 f2 3e f0 12 b6 3e
       0.10397697 0.3519426 0.47353593 0.35561323
000190 9b 3b f5 bd 60 a2 c4 be 34 ba d6 3e 98 a2 b1 bd
       -0.119742595 -0.38405132 0.41938937 -0.086735904
0001a0 ea 98 39 bf f7 e9 5e bf 7c 3c 12 3f d2 8e 9e bf
       -0.72498953 -0.8707575 0.5712354 -1.2387335
0001b0 05 73 d7 3d 12 46 bb 3e 29 ea e7 3e bf 52 b2 3e
       0.10519985 0.36576897 0.45295838 0.34828755
0001c0 04 69 c6 be fa 5a 2c be be e7 1a 3f ae 25 8a bd
       -0.38751996 -0.1683158 0.6050986 -0.06745468
0001d0 05 9b 5e bf ec 37 46 bf 9f f6 2b 3f 34 97 8f bf
       -0.8695529 -0.7742908 0.6717319 -1.1218019
0001e0 f4 7d f4 3d 32 63 e4 3e 57 9b 08 3f 4b 32 dc 3e
       0.11938086 0.4460693 0.5336203 0.4300712
0001f0 a5 84 ba be 7e 3d d2 be 9e 1f 09 3f b0 3e 97 3d
       -0.36429325 -0.4106254 0.5356387 0.073850036
000200 e0 9d 68 bf e8 f7 2d bf 18 8c 50 3f 72 a6 b1 bf
       -0.908659 -0.679564 0.81463766 -1.387892
000210 4d 66 06 3e db 15 d6 3e 01 65 09 3f 62 b7 ca 3e
       0.13124962 0.4181355 0.53669745 0.39593035
000220 0f d3 ba be 34 5b d1 be e0 11 fb 3e 0f 5e 66 3e
       -0.3648915 -0.40889895 0.49037075 0.22496818
000230 4c 10 46 bf 50 b0 0b bf 9f a1 64 3f 4a 3a a8 bf
       -0.7736862 -0.54565907 0.89309114 -1.3142788
000240 9a 42 89 3d 94 1c 09 3f 04 ee ec 3e 1b a7 9e 3e
       0.06702156 0.5355923 0.46275342 0.30986866
000250 c8 38 ca be 73 7f 63 be 33 89 ab 3e 3b c7 0e 3e
       -0.39496446 -0.22216587 0.33503112 0.13943188
000260 b0 dd 4e bf ab f4 13 bf ae 05 16 3f b1 92 9f bf
       -0.8080702 -0.5779521 0.58602417 -1.2466642
000270 9f 60 ee 3d d1 e5 f2 3e cf 77 0a 3f af fb ee 3e
       0.11639523 0.4744096 0.54089063 0.46676394
000280 35 44 1c bf 32 21 c5 be f4 eb a7 3e c7 65 75 3e
       -0.61041576 -0.3850189 0.32797205 0.23964606
000290 8d 23 24 bf a2 43 aa be 96 3c 44 3f 3e 9f 79 bf
       -0.64116746 -0.33254725 0.76654947 -0.9750861
0002a0 43 79 70 3c b8 85 05 3f f6 4f e6 3e 14 6d 5a 3e
       0.014677349 0.52157164 0.4498288 0.21330673
0002b0 f9 ae 89 be d9 87 af be a9 15 94 3e ed 1c 23 3e
       -0.26891306 -0.3428333 0.28922775 0.15929003
0002c0 97 c4 26 bf 45 7d 03 bf 49 27 2b 3f f8 d6 91 bf
       -0.6514372 -0.5136302 0.6685682 -1.1393728
0002d0 61 43 36 be 05 1d 21 3f 6d 53 9b 3e 13 57 8d 3d
       -0.1779914 0.62934905 0.30337086 0.06901374
0002e0 1a c3 53 be b5 7e 5d be 58 4a cc 3e 22 3c 6e 3e
       -0.20679894 -0.21630366 0.3990047 0.23265126
0002f0 a7 f7 3e bf 58 e7 c2 be fd 57 fb 3e 3b b3 8a bf
       -0.7459664 -0.38067126 0.49090567 -1.0835947
000300 db a5 4a be 5d 29 02 3f ce 20 b7 3e 2d bd 1e 3e
       -0.19789831 0.50844365 0.35767215 0.15501852
000310 76 42 c1 be 56 26 ba be ff 7c 2b 3f f6 97 3f 3e
       -0.37746018 -0.36357373 0.66987604 0.18710312
000320 96 e0 27 bf 40 2a bd be 7e 54 16 3f 12 f2 61 bf
       -0.65577066 -0.36946297 0.58722675 -0.88259995
000330 43 b1 4e be 6b 69 d5 3e 3d 88 cc 3e d7 0f 4c 3e
       -0.20184807 0.4168199 0.39947692 0.19927917
000340 63 bd f2 be 54 5d 9d be 0a 08 36 3f a7 75 3c 3e
       -0.47410116 -0.30735266 0.71106017 0.18404256
000350 10 04 01 bf 65 37 d0 be 3a 6f d8 3e c0 d0 49 bf
       -0.50396824 -0.40667263 0.4227236 -0.7883415
000360 1a 67 58 be 15 ee 9e 3e 81 5c ba 3e 9d a6 37 3e
       -0.2113308 0.31041017 0.363987 0.17934652
000370 8a 98 9d be 72 24 8c be 96 3d 2f 3f 3d 7b 39 3e
       -0.3078044 -0.27371556 0.6845335 0.18113418
000380 b5 88 e9 be dc 39 0a bf 28 3d e9 3e 44 7a 57 bf
       -0.45612112 -0.53994536 0.4555447 -0.8417094
000390 8b 4a 31 be cb 01 a1 3e b5 5a af 3e 1b cf 74 3e
       -0.17313592 0.3144668 0.3424889 0.2390713
0003a0 dc 93 b5 be 45 4b 84 be 68 09 29 3f 5d 80 17 3e
       -0.3546437 -0.25838676 0.6602998 0.1479506
0003b0 06 27 38 bf 01 b3 1b bf c2 b0 b1 3e 4d f5 70 bf
       -0.71934545 -0.60820013 0.34705168 -0.941243
0003c0 a7 08 17 be 5a 23 9d 3e 49 28 9f 3e 15 8b 12 3e
       -0.14749394 0.30691034 0.31085423 0.14310868
0003d0 ff 0c 53 be 64 c0 80 be c3 c9 0d 3f a6 de f6 3d
       -0.20610426 -0.25146782 0.5538599 0.120541856
0003e0 c0 7a 22 bf 7f 7a 07 bf 38 77 c3 3e e9 0f 82 bf
       -0.6346855 -0.5292129 0.38176894 -1.0161105
0003f0 fb 9a 81 bd 20 52 5c 3e 77 81 b3 3e 8a 20 34 3e
       -0.06328388 0.21515703 0.3505971 0.17590538

right_hand_pose f4 [119, 12]
000000 9e 40 17 3f da dd e5 3d 21 93 4d 3e fd 86 3a 3d
       0.59082973 0.112239555 0.20075656 0.04553889
000010 3d 56 12 3e fd 7b 08 bd 4f 50 58 3e ce 4b 91 be
       0.1429071 -0.03332137 0.21124385 -0.28378147
000020 0c 9b 5c bf 70 d8 5f bf 0b a1 23 3f 56 db a1 bf
       -0.8617408 -0.8743963 0.6391761 -1.2645061
000030 b0 fa 07 3f 11 a7 ec 3d 78 1d 67 3e 8c 07 72 bd
       0.53116894 0.11555303 0.22569835 -0.05908923
000040 8c 3c 6d 3e ff dd fc 3d 8e 92 e9 3e a5 f4 f5 be
       0.23167628 0.1234703 0.45619625 -0.4803821
000050 da 63 c9 be 4f 6f 6a bf 03 86 77 3f db ed ee bf
       -0.39333993 -0.91576093 0.9668886 -1.8666338
000060 22 66 da 3e 48 64 54 3d 24 d0 16 3e 7b dc 02 3d
       0.42656046 0.05185345 0.14727837 0.031948548
000070 e4 ba a3 be 2f 0d e5 3e ca 23 50 3f 19 b8 23 bf
       -0.31978524 0.4473662 0.8130461 -0.63952786
000080 95 c2 09 bf f5 06 7e bf cd 1c 43 3f d7 77 ed bf
       -0.53812534 -0.99229366 0.7621582 -1.8552197
000090 3a 79 d1 3e d2 93 02 3e 38 93 18 3e c0 84 95 3d
       0.409128 0.12751701 0.1489991 0.07300711
0000a0 68 19 7d be 3a 2a 0b 3e 01 01 32 3f a9 5a 03 bf
       -0.24716723 0.13590327 0.6953278 -0.5131021
0000b0 39 9e e9 be 0a 31 63 bf 5e 10 ad 3f 8a 00 ed bf
       -0.45628527 -0.887467 1.352062 -1.851579
0000c0 cd 59 e1 3e ad 5b 1f 3e f6 f9 15 3e 1e c8 08 3d
       0.44013825 0.15562315 0.14646134 0.03339397
0000d0 37 e9 8f bd df 66 f0 bd 98 af 23 3f e4 af af be
       -0.07026904 -0.11738371 0.6393981 -0.3431388
0000e0 0b 15 10 bf c4 3a 6e bf aa da 8d 3f 73 d9 c9 bf
       -0.5628211 -0.9305842 1.1082356 -1.5769485
0000f0 c0 f1 fe 3e 2d 8c 9d bc 66 a8 82 3e ee c4 25 3e
       0.49793816 -0.01923188 0.25519103 0.16188404
000100 fa 60 c8 bd 3a ad b8 be c6 22 26 3f 12 e7 67 be
       -0.09784122 -0.3606966 0.6489681 -0.2264674
000110 98 46 dc be 88 79 56 bf ab fb 9b 3f b5 5b ca bf
       -0.4302261 -0.8377919 1.2186178 -1.5809237
000120 ce 10 01 3f 9d de 08 3c b0 c9 90 3e b1 fd 35 3e
       0.50416267 0.008353856 0.28278875 0.17772557
000130 fb ea dd bb eb da d3 be 4b d3 0f 3f 0c f5 96 be
       -0.0067723966 -0.4137796 0.5618178 -0.2948383
000140 65 e0 d7 be ab d8 64 bf a5 d5 83 3f 84 4e e3 bf
       -0.42163387 -0.8939311 1.0299574 -1.7758336
000150 51 5d 04 3f db 81 af 3c 23 9f 99 3e a3 b4 00 3e
       0.5170489 0.021424225 0.30004224 0.12568907
000160 33 ef 4c 3e 88 af a1 be ea 81 f0 3e 9a 27 dd be
       0.20013122 -0.31579232 0.46974117 -0.43194276
000170 75 2c e3 be 2a 95 80 bf 5b 65 91 3f 6a ae ec bf
       -0.44369856 -1.0045521 1.1359056 -1.8490727
000180 ff 28 f7 3e a5 9d 3f 3d 75 b7 81 3e a3 3d ad 3b
       0.48273465 0.0467812 0.2533528 0.0052868887
000190 3c 9e ae 3e d7 52 ed bd 63 95 c2 3e e2 49 f7 be
       0.34105098 -0.11588066 0.38004598 -0.48298556
0001a0 5c 69 70 be 6c 46 71 bf 40 e1 81 3f 06 5f f0 bf
       -0.23477691 -0.9424808 1.0146866 -1.8778999
0001b0 64 02 01 3f bd a6 61 3b c6 6a a2 3e 7e ef 34 3a
       0.5039427 0.003443166 0.31722087 0.0006902142
0001c0 79 59 a3 3e 84 45 0f be 07 b0 e9 3e 61 98 04 bf
       0.319042 -0.13991362 0.4564211 -0.5179501
0001d0 4a 2b 5c be 4f 1c 54 bf 87 51 9e 3f a2 e1 f0 bf
       -0.21500888 -0.82855695 1.236863 -1.8818858
0001e0 0a 01 fd 3e ba da 13 3d 49 c3 a1 3e c8 70 82 3d
       0.49414855 0.036097266 0.31594303 0.063691676
0001f0 88 31 63 3e 9e c3 8c be 6f 97 05 3f c6 10 e3 be
       0.22186863 -0.27492994 0.52184194 -0.44348735
000200 23 ed aa be 58 b6 6b bf 66 38 9d 3f 96 75 00 c0
       -0.33384046 -0.9207511 1.2282836 -2.0071769
000210 c5 c8 fe 3e b2 07 74 bc f1 8e b7 3e cb 1d 3b 3d
       0.4976255 -0.014894413 0.35851243 0.04568271
000220 06 e4 4d 3e f4 a0 5e be 43 03 21 3f 86 60 09 bf
       0.20106515 -0.21741086 0.628956 -0.5366291
000230 ba 20 8c be 30 cd 72 bf dd 06 ae 3f 06 6f f5 bf
       -0.27368718 -0.9484434 1.3595845 -1.9174507
000240 e3 d0 01 3f 88 6b fe 3c 61 b2 ba 3e c3 0e 11 3e
       0.5070936 0.031057134 0.36464217 0.14165787
000250 b3 ee 1d 3e 8f 1b a1 be ab f8 1d 3f c8 8f f4 be
       0.15423088 -0.31466338 0.6170756 -0.47765946
000260 3f 37 cd be 16 7d 6f bf da 34 b3 3f 89 8e 00 c0
       -0.40081212 -0.9355024 1.4000504 -2.0086997
000270 16 ce 00 3f 6b ee 6c 3d 33 d6 b0 3e 69 0c 81 3d
       0.5031446 0.05784456 0.3453842 0.06301195
000280 b5 ba 90 3e 26 b5 94 be 7f 2d 1b 3f 2f 23 04 bf
       0.28267446 -0.29044455 0.60616297 -0.51616186
000290 02 e4 59 be 5f d9 72 bf ff 45 9d 3f 24 64 03 c0
       -0.21278384 -0.9486293 1.2286986 -2.052987
0002a0 47 c6 fd 3e e6 a0 88 3d 03 28 9d 3e 99 6c b9 3d
       0.49565336 0.06671314 0.3069459 0.090539165
0002b0 db e7 96 3e b7 95 81 be c2 0c 09 3f c9 f9 e5 be
       0.29473767 -0.25309536 0.5353509 -0.44917133
0002c0 cf 46 ac be 23 77 70 bf 12 35 8a 3f 49 b4 fd bf
       -0.33647773 -0.9393179 1.0797446 -1.9820644
0002d0 15 1a 00 3f 58 15 28 3d cb 12 b4 3e 07 5d 2c 3e
       0.500398 0.04103598 0.35170588 0.16832362
0002e0 74 08 6d 3e aa 1c bb be ff 66 16 3f 2c 8c da be
       0.23147756 -0.36545306 0.5875091 -0.42685068
0002f0 14 95 8f be 29 44 7c bf 66 07 81 3f 0f 99 fa bf
       -0.28043425 -0.98541504 1.0080383 -1.957796
000300 b5 d3 ee 3e cb 5b c7 3d e2 88 95 3e 83 3e fa 3d
       0.46645895 0.09734305 0.29205996 0.122189544
000310 bf c3 87 3e e3 cc b8 be f1 a4 10 3f 6e 9c db be
       0.2651653 -0.36093816 0.5650168 -0.42892784
000320 ee 47 b0 be f4 59 82 bf 63 eb 83 3f 17 b1 fa bf
       -0.34429878 -1.0183702 1.0306209 -1.9585294
000330 ad 2d e4 3e 41 5d f3 3d 20 83 a0 3e cd 6b cd 3d
       0.44566098 0.11883021 0.3135004 0.10030327
000340 a5 d0 8e 3e b9 9b a9 be 3b 65 14 3f ef cd e5 be
       0.27893558 -0.3312662 0.57966965 -0.44883677
000350 74 77 b3 be 7c 75 7c bf f0 30 8e 3f a3 fe fa bf
       -0.35052073 -0.98616767 1.1108685 -1.9608959
000360 bc d1 da 3e 6d dc 01 3e 79 9b a3 3e 7f 63 ab 3d
       0.4273814 0.12681742 0.31954554 0.08368587
000370 a6 b4 a4 3e 2c ac ae be 89 10 fa 3e dc 42 cc be
       0.32169074 -0.34115732 0.4884074 -0.3989476
000380 95 6e 6a be c7 f2 5f bf 5a 05 8e 3f 99 b3 f7 bf
       -0.22893746 -0.87479824 1.1095383 -1.9351684
000390 25 81 cf 3e 53 fb c1 3d e9 48 a4 3e 2b ad 94 3d
       0.40528217 0.094717644 0.32086876 0.07259592
0003a0 27 2d 57 3e 62 96 a1 be 2b 68 13 3f 16 66 c8 be
       0.21013318 -0.31560045 0.5758082 -0.39140385
0003b0 aa c0 46 be db 5e 54 bf eb 48 83 3f bf ae ed bf
       -0.19409433 -0.8295724 1.0256628 -1.8568953
0003c0 a7 8f c8 3e 98 2c 58 3d 5a 5e b2 3e 5c b5 ff 3d
       0.39172098 0.052776903 0.3483761 0.124857634
0003d0 36 dd 8f 3e cd f0 da be 68 e7 00 3f 94 37 c5 be
       0.28098458 -0.4276184 0.503531 -0.38518965
0003e0 de 93 49 be af e2 69 bf 0f 81 70 3f 97 ba f2 bf
       -0.19685313 -0.91361517 0.9394693 -1.8963193
0003f0 29 26 b3 3e 2a 6f aa 3d 66 2f 9e 3e 83 a5 be 3d
       0.3499005 0.08321984 0.30895537 0.093089126

jaw_pose f4 [119, 3]
000000 2a 97 09 3d 1f 97 ad bb 29 65 9c ba 7e fd 1a 3c
       0.033591427 -0.005297556 -0.0011932004 0.009459851
000010 ce 43 ac bb b3 3b bc b9 15 69 90 3c 40 c0 94 bb
       -0.0052571064 -0.00035902634 0.017628232 -0.0045395195
000020 9f 52 65 ba a7 7e 7f 3c bf 6e ef bb 6d 11 f7 ba
       -0.0008747968 0.015594161 -0.007306903 -0.0018849798
000030 74 bb 17 3c 74 7e dd bb 09 31 c1 ba 6f 94 9b 3c
       0.009261001 -0.006759459 -0.0014739345 0.018991677
000040 69 08 0f bc 50 50 15 bb 51 43 84 3c cc 80 e5 bb
       -0.0087300325 -0.0022783466 0.01614538 -0.007003879
000050 02 40 ea ba 01 5e 09 3c 99 ba cd bb ea d2 a2 ba
       -0.0017871859 0.008384229 -0.0062783477 -0.0012422476
000060 a7 f8 45 3c 14 93 ed bb 29 ae a6 ba c4 fd 09 3c
       0.012083209 -0.007250199 -0.0012716699 0.008422319
000070 82 12 15 bc 77 a2 13 bb b1 8a a3 3b d0 dc 21 bc
       -0.009098651 -0.0022527257 0.0049908985 -0.009879306
000080 46 0a 35 bb f4 8b d2 3b 3c 29 11 bc 19 d4 08 bb
       -0.0027624532 0.006425375 -0.008859929 -0.0020878373
000090 8f 4a 75 3b 0c 21 fe bb bd 21 df ba c4 88 8c 3c
       0.0037428474 -0.0077554043 -0.0017023605 0.017155059
0000a0 b9 e0 03 bc 1a 00 f2 ba dd c6 9a 3c 5c ee f4 bb
       -0.0080491835 -0.0018463165 0.018893654 -0.0074747037
0000b0 21 39 bd ba 67 e4 87 3c 6b 94 68 bb 9d b3 c7 b8
       -0.0014436581 0.016588403 -0.0035488855 -9.522515e-05
0000c0 25 84 57 3c 30 d0 8e bb 69 48 8a b9 7d 20 7e 3c
       0.013154064 -0.004358314 -0.0002637536 0.0155106755
0000d0 71 17 bb bb b9 3c 4a ba 56 ce 6f 3c 38 b7 7f bb
       -0.0057095815 -0.0007714737 0.014636597 -0.003901912
0000e0 a3 65 96 b8 78 e8 a9 3c ca 80 78 bb f3 e9 c9 b9
       -7.171489e-05 0.020740733 -0.003791856 -0.00038512013
0000f0 49 f3 ab 3c 76 d6 86 bb 52 1c db b8 24 eb b5 3c
       0.02099003 -0.004114921 -0.00010448009 0.02220685
000100 74 94 76 bb e6 75 f4 b9 89 83 69 3c d3 59 17 bb
       -0.0037625106 -0.00046627148 0.014252552 -0.002309431
000110 e3 2a c5 39 72 59 a4 3c 33 83 eb ba aa 4a 83 39
       0.0003760672 0.020062182 -0.0017968178 0.00025041896
000120 6d bb 8f 3c da aa f7 ba 42 38 b8 38 4e e1 93 3c
       0.017545426 -0.0018895522 8.7842825e-05 0.01805177
000130 3d 4e af 3a 6f ab a1 3a 83 8c 82 3c a2 e7 fa ba
       0.0013374757 0.0012334416 0.015936142 -0.0019142518
000140 ff 20 01 3a 91 b6 97 3c 22 be 2a b9 0d 9c 7b 3a
       0.0004925876 0.018519672 -0.00016283293 0.00095981435
000150 57 79 ab 3c 80 65 fe ba f3 2f eb 39 ed 5d cb 3c
       0.020931883 -0.0019408911 0.00044858418 0.02482506
000160 9a 33 f8 ba b0 1f 3c 3a 46 13 cc 3c 2b 25 d1 ba
       -0.0018936277 0.00071763527 0.024911534 -0.0015956511
000170 7e 28 27 3a af d3 0c 3d 1c df f7 b9 e5 f5 8a 3a
       0.0006376578 0.034381565 -0.0004727774 0.0010601847
000180 2c 3f 20 3d 01 d5 48 ba 6a 35 5c 3a f1 ad 2f 3d
       0.039122745 -0.00076611346 0.00084002933 0.042890493
000190 02 d8 cc 37 fa f2 c2 3a 2f 8e 4b 3d 1f 9b eb b9
       2.4419282e-05 0.0014873438 0.049696144 -0.00044938267
0001a0 eb 8f 96 3a f4 e7 63 3d 53 af 01 3b e7 f6 09 3b
       0.0011486983 0.05564113 0.001978834 0.0021051706
0001b0 d8 d2 3e 3d e6 6b ef 39 a9 1a d9 3a f4 b4 2c 3d
       0.046587795 0.00045666023 0.0016563731 0.042164758
0001c0 89 79 cd 3a 07 ea 18 3b 68 cd 25 3d 03 52 bd ba
       0.0015676479 0.002333285 0.040479094 -0.0014443997
0001d0 a4 8a 6b 3a e5 18 2c 3d dc 1d 40 ba 7e 59 96 3a
       0.00089851976 0.04201593 -0.0007328668 0.0011470763
0001e0 a8 5c 1f 3d 96 ab 3d bb b6 60 2e 3a 50 b1 b1 3c
       0.038906723 -0.0028941385 0.00066519843 0.021690995
0001f0 d4 cc 2a ba 78 0e d7 3a a8 96 a1 3c 03 0a 97 ba
       -0.0006515507 0.001640751 0.019725159 -0.001152337
000200 f1 7b ae 3a ad e5 d1 3c 1c a4 cd 3a cf 36 0b 3b
       0.0013312084 0.025622213 0.0015689167 0.0021242385
000210 fa ad 08 3d b4 cf d6 ba d5 a7 a7 3a 18 ae 02 3d
       0.033369042 -0.0016388805 0.0012791107 0.03190431
000220 b7 d8 a1 ba 98 1a 98 3a a1 fb f1 3c ce 7b c2 ba
       -0.0012347911 0.0011604605 0.029538931 -0.0014837922
000230 1e 7a 96 3a 77 3f ae 3c fc 52 a5 bb 3b f7 88 b8
       0.0011480486 0.021270497 -0.005045293 -6.5310356e-05
000240 13 e0 35 3c b0 51 b7 bb 7e 74 91 b9 2b c9 96 3c
       0.011100787 -0.0055944547 -0.0002774335 0.018406471
000250 be d0 f4 bb bd ee a4 ba 2e e8 51 3c fb 46 6e bb
       -0.007471173 -0.0012583357 0.012811704 -0.0036358226
000260 c2 b6 60 37 24 31 32 3c 38 a4 8a bb 60 56 5a 39
       1.3393992e-05 0.010875974 -0.004231002 0.00020822277
000270 4e f0 97 3b 75 87 46 bb 8a fd 27 39 01 dc 9e bb
       0.004636801 -0.003029314 0.00016020812 -0.004848004
000280 d6 3f 0b bb 51 7e 68 3a 21 f6 a8 3b 5f 08 79 bb
       -0.0021247766 0.000886892 0.005156294 -0.0037999374
000290 4b 7e 15 39 6c b2 6a 3c 5e ab fc ba bd a4 0c 3a
       0.00014256795 0.014324766 -0.0019277146 0.0005365124
0002a0 7c 9c 26 3c d7 9d f9 ba ba 37 a5 39 69 13 e8 3a
       0.010169145 -0.0019044232 0.00031512772 0.001770598
0002b0 67 ff 9b 3a 88 93 bf 3a d7 25 27 bb 4c c5 d4 ba
       0.0011901677 0.0014616111 -0.0025504732 -0.0016233115
0002c0 6f 6e 46 3a c8 6b aa 3b 3e df 58 bb fd d2 18 39
       0.00075695565 0.005200837 -0.0033092047 0.00014574449
0002d0 37 d8 f6 bb 2b 91 85 3a 31 24 c9 3a 37 55 09 bc
       -0.007533099 0.0010190358 0.0015345869 -0.008382133
0002e0 ea ae a7 ba a9 fd 60 3a 54 10 2e bc 1b f5 62 3a
       -0.0012793217 0.000858272 -0.01062401 0.00086577394
0002f0 78 9a a6 3a b8 38 81 bb 71 db 20 3b ac 6a f5 3a
       0.001271083 -0.003943529 0.002454486 0.0018723807
000300 84 ec 07 bc 70 c9 05 3a c4 6f a2 3a 66 a1 c7 39
       -0.008296136 0.0005103564 0.0012392928 0.0003807649
000310 2c 83 c9 39 30 96 ab 3a 91 c9 87 3a 01 ee 7d b9
       0.00038435438 0.0013091024 0.0010359754 -0.00024216624
000320 f2 04 90 3a 7c 84 f8 bb fd 00 50 3b c5 40 ca 3a
       0.0010987802 -0.0075841527 0.003173887 0.001543068
000330 d2 23 d4 bb 51 01 dd 3b f1 04 70 3b 47 70 06 bc
       -0.0064739967 0.0067445417 0.003662404 -0.00820548
000340 49 ae a9 3b 94 3f 19 3b 12 89 56 bb e9 fe 9a 3b
       0.005178247 0.0023383843 -0.003273551 0.0047300947
000350 04 9e 01 3b 0e 83 38 bb 14 1f c2 3b 30 27 12 3b
       0.0019778023 -0.0028154287 0.005924115 0.002230119
000360 fe 42 e7 bb 54 2d e3 3b 1a 92 6b 3b cf 3e e4 3a
       -0.0070575466 0.006932894 0.0035945238 0.0017413738
000370 07 57 e5 3b 34 18 02 3b 4a 0e 81 3c a4 78 a0 3b
       0.0069989 0.0019850852 0.015753884 0.004897194
000380 8e 09 cc 3a 9d ac cc 3c c5 d4 d1 3b 6b 4e 15 3b
       0.0015566812 0.024984652 0.006403538 0.0022782336
000390 09 23 01 3d 30 f5 8b 3b 3a cc ef 3a 74 9f dc 3c
       0.031527553 0.004271172 0.0018295117 0.026931502
0003a0 c2 8d f4 3b 85 a0 40 3b 6f bc 55 3c 62 85 29 3c
       0.007463188 0.0029392552 0.013045414 0.010346742
0003b0 3e 21 59 3b 8c a9 57 3c 39 7c 2a 3c 0f a0 7e 3b
       0.0033131386 0.013162982 0.010405594 0.0038852727
0003c0 34 40 db 3c 2f a1 2e 3c 22 06 97 3b 5c 9e c1 3c
       0.026764013 0.010658546 0.0046088854 0.023635082
0003d0 7f 3b 26 3c 46 86 87 3b fe 82 fc 3c 7e ba 57 3c
       0.010146021 0.0041358797 0.03082418 0.013167022
0003e0 90 bb 8d 3b e4 f5 42 bd 82 7d ae 3c f6 e0 12 3c
       0.0043253377 -0.04759778 0.021300081 0.008964768
0003f0 62 01 9c ba 21 76 14 3c 15 d7 2a 3b 74 69 46 3b
       -0.0011902268 0.009061367 0.002606814 0.0030275257
