test_dataset/gait_753/20250617_c1_a3_Take1/split_subjects/0/fit-smplx/smplx-params_cut.npz (npz, 116682 bytes, 10 tensors)

global_orient f4 [232, 3]
000000 a5 a5 db bd 3b 8d 0e c0 5b 7b 2e be 35 3d b1 bd
       -0.107249536 -2.22737 -0.17039244 -0.086542524
000010 1b ff 0a c0 85 a1 30 be 8b 73 89 bd 4d 66 09 c0
       -2.1718204 -0.17249115 -0.06711491 -2.146869
000020 94 3d 2e be 12 a1 7b bd f2 7a 0a c0 a2 17 22 be
       -0.17015678 -0.061432905 -2.163754 -0.15829328
000030 80 3e 80 bd 8e ab 0b c0 a4 5b 1e be 94 fa 99 bd
       -0.06261921 -2.1823459 -0.15464646 -0.07518497
000040 f0 f3 0e c0 1a 1a 11 be 18 ac c2 bd 6a 12 14 c0
       -2.2336388 -0.14170113 -0.095054805 -2.313624
000050 19 35 f4 bd 5d be f9 bd 20 67 19 c0 f9 41 ed bd
       -0.1192419 -0.12194512 -2.3969193 -0.11584849
000060 ec 46 27 be 3b cd 1b c0 6e cf 16 be 9c 83 37 be
       -0.16335648 -2.4344013 -0.14727566 -0.17921299
000070 1c 2b 20 c0 8a 4c 47 be 45 3f 2c be 04 a3 24 c0
       -2.5026312 -0.19462791 -0.1682101 -2.5724497
000080 30 0d 7b be d3 4d 2e be 2d a7 27 c0 14 d8 8f be
       -0.2451675 -0.17021875 -2.6195786 -0.28094542
000090 c7 d2 37 be 9b 35 2b c0 11 55 8d be 70 5c 32 be
       -0.17951499 -2.6751468 -0.27603963 -0.17418075
0000a0 84 15 2e c0 f6 24 7e be 98 30 1a be f3 3b 31 c0
       -2.7200632 -0.24818787 -0.150576 -2.769284
0000b0 ae e6 5d be a2 82 f1 bd 6b fe 35 c0 73 62 57 be
       -0.21670029 -0.11792494 -2.8436534 -0.21033649
0000c0 e6 47 b4 bd 00 e2 39 c0 91 f4 5c be ad e6 65 bd
       -0.08802776 -2.904419 -0.2157767 -0.056128193
0000d0 82 a4 3b c0 18 93 65 be ff b7 ad bc 80 fd 39 c0
       -2.9319158 -0.22419393 -0.0212059 -2.9060974
0000e0 c4 29 66 be c9 e6 05 3c f9 c7 35 c0 c2 d2 66 be
       -0.2247687 0.008172699 -2.8403304 -0.22541335
0000f0 8a 1e 1f 3c 09 ac 31 c0 74 2c 79 be e0 c7 4f bb
       0.009711871 -2.7761252 -0.24333364 -0.0031704828
000100 3e 5f 2e c0 1c de 81 be 4b e2 83 bc d5 b9 2a c0
       -2.7245631 -0.25364769 -0.016099116 -2.6675923
000110 30 be 7c be f6 1c fa bc 47 fb 24 c0 3e bd 6c be
       -0.24681926 -0.030531388 -2.5778368 -0.23119065
000120 d8 6f 13 bd 94 15 1f c0 84 ec 5e be 8a 6a 16 bd
       -0.035995334 -2.485692 -0.21769911 -0.036722697
000130 eb 87 19 c0 5f 65 57 be 3f 57 14 bd 40 bd 14 c0
       -2.3989208 -0.21034764 -0.036216017 -2.324051
000140 7b 22 49 be a8 43 04 bd 53 98 10 c0 14 3b 3c be
       -0.1964206 -0.032291085 -2.2592971 -0.18381912
000150 97 46 12 bd 96 7b 0e c0 f9 4d 2d be 99 1f 5a bd
       -0.03571185 -2.226293 -0.16924275 -0.05325279
000160 ac b9 0d c0 14 13 24 be b5 6c 89 bd 03 5d 0e c0
       -2.2144575 -0.16022903 -0.06710187 -2.224427
000170 6a b8 1a be 1a 45 a7 bd e2 dd 0e c0 d3 df 10 be
       -0.15109411 -0.08167477 -2.2322927 -0.14147882
000180 d2 7f d1 bd 84 47 0e c0 c1 7f 02 be 5b 59 04 be
       -0.10229458 -2.223115 -0.12744047 -0.12924711
000190 79 eb 0e c0 1e b1 f3 bd c9 a8 1c be ef 2b 0e c0
       -2.233122 -0.11899017 -0.15298761 -2.2214315
0001a0 b2 04 0a be e1 7a 21 be 2f 2c 11 c0 4c ae 21 be
       -0.13478354 -0.15769531 -2.2683218 -0.15789145
0001b0 2b 88 15 be 5d ea 15 c0 20 22 41 be 17 ef 15 be
       -0.14602725 -2.3424294 -0.18860674 -0.14641987
0001c0 69 d6 1b c0 54 38 59 be 98 da 1d be 8c c4 21 c0
       -2.4349616 -0.21212894 -0.15415418 -2.5276213
0001d0 ff b8 65 be 38 5f 20 be 73 41 26 c0 30 1c 6c be
       -0.22433852 -0.15661323 -2.5977447 -0.23057628
0001e0 81 8c 20 be ed f8 29 c0 65 e9 6c be 6c 39 2a be
       -0.15678598 -2.6558182 -0.23135908 -0.16623467
0001f0 8d bb 2e c0 d7 81 6b be 90 11 2d be 34 ba 33 c0
       -2.7301972 -0.22998749 -0.16901231 -2.80824
000200 a3 0f 6e be ca 9e 32 be b3 d5 36 c0 d2 d6 74 be
       -0.23248152 -0.17443386 -2.8567932 -0.23910072
000210 41 1e 3b be b2 b9 3a c0 77 10 7f be 49 3e 3e be
       -0.1827326 -2.917584 -0.24908625 -0.18578447
000220 e4 7f 3d c0 94 e4 84 be 29 df 32 be ca 26 40 c0
       -2.9609308 -0.2595564 -0.17467941 -3.0023675
000230 02 7b 89 be c9 d5 20 be 5b 40 42 c0 66 91 84 be
       -0.2685166 -0.15706553 -3.035178 -0.2589218
000240 c4 08 05 be 6f 39 44 c0 ec c4 75 be dc 83 bc bd
       -0.12991625 -3.0660055 -0.24000901 -0.09204838
000250 04 e5 45 c0 8a 44 60 be cf f8 6a bd 79 f8 46 c0
       -3.092103 -0.21901146 -0.05736619 -3.1089156
000260 51 e7 47 be 64 e4 a7 bc 40 86 46 c0 58 45 33 be
       -0.19521834 -0.020494647 -3.101944 -0.17506921
000270 76 75 d5 bb da 14 46 c0 37 29 31 be f2 78 84 bc
       -0.0065142466 -3.0950227 -0.17300878 -0.016170952
000280 a8 01 45 c0 da bf 33 be 19 05 54 bd 61 71 43 c0
       -3.078226 -0.17553654 -0.051762674 -3.053795
000290 0e 8f 2d be 5b 4f a6 bd e0 ec 3f c0 a6 6e 26 be
       -0.16949102 -0.081206046 -2.9988327 -0.16253147
0002a0 d3 5a e8 bd aa 57 3b c0 03 d7 25 be b8 ab e8 bd
       -0.11345448 -2.9272256 -0.16195302 -0.11360878
0002b0 d8 20 37 c0 1f b4 32 be 9e 0c f6 bd d7 6d 33 c0
       -2.8613796 -0.17451523 -0.12014125 -2.803579
0002c0 54 2e 3c be 36 1d e2 bd 2a 5c 31 c0 97 6e 39 be
       -0.18377048 -0.11040728 -2.7712502 -0.18108593
0002d0 4b 71 df bd c0 0b 2f c0 17 77 2a be 41 f0 e8 bd
       -0.10910281 -2.7350922 -0.16646992 -0.1137395
0002e0 41 29 2d c0 2a 67 19 be 91 fd e6 bd c8 df 29 c0
       -2.705643 -0.1498076 -0.11278833 -2.6542835
0002f0 e6 43 0f be d2 e0 ec bd 9c c7 26 c0 cc af 0b be
       -0.13990745 -0.115663186 -2.6059332 -0.1364128
000300 aa 4e df bd 54 b5 26 c0 b3 c9 04 be bb 63 e1 bd
       -0.10903676 -2.6048174 -0.12967567 -0.1100535
000310 5e b6 26 c0 ad e8 fd bd 18 2d da bd 23 e0 27 c0
       -2.6048808 -0.12397895 -0.10653132 -2.6230552
000320 10 de fb bd 6f dc d4 bd bd 5f 2b c0 c2 ad 07 be
       -0.122982144 -0.10393607 -2.6777184 -0.13249877
000330 86 ab f1 bd 23 bf 2e c0 4d bf 0d be ea 89 0b be
       -0.118002936 -2.730416 -0.13842507 -0.13626829
000340 d1 7b 2e c0 fa 00 2e be d4 40 12 be 26 25 2f c0
       -2.7263072 -0.1699256 -0.14282542 -2.7366424
000350 7c 9c 4b be b1 21 0d be 83 13 33 c0 f0 11 5d be
       -0.19883913 -0.13782384 -2.798066 -0.21588874
000360 f6 f9 ef bd 6f 7b 38 c0 47 d6 57 be 6e 36 c7 bd
       -0.11717598 -2.8825338 -0.21077834 -0.097271785
000370 ff 5a 3c c0 1f 41 42 be 28 8e ab bd 7e 2a 3e c0
       -2.943054 -0.18970154 -0.083767235 -2.9713435
000380 00 3a 23 be 8b e1 98 bd 9d 71 40 c0 83 a3 0a be
       -0.15940094 -0.07464894 -3.0069344 -0.13538937
000390 39 d4 85 bd a2 a0 42 c0 45 33 01 be 80 94 7b bd
       -0.06534619 -3.0410542 -0.12617214 -0.061420918
0003a0 b7 a7 44 c0 c7 08 03 be 47 b4 5a bd b9 95 45 c0
       -3.0727365 -0.12796317 -0.053394582 -3.0872633
0003b0 12 b7 06 be b7 31 5f bd ef 32 46 c0 47 0f 0a be
       -0.13155773 -0.05449077 -3.0968587 -0.1348239
0003c0 86 dd 36 bd 87 da 46 c0 18 cd 12 be 5e f9 00 bd
       -0.044644855 -3.1070879 -0.1433605 -0.031487815
0003d0 15 b1 47 c0 33 41 16 be d8 56 43 bc ab e4 48 c0
       -3.1201832 -0.14673309 -0.011922561 -3.1389568
0003e0 29 db 1a be 32 54 a2 3c f3 e2 47 c0 51 36 1e be
       -0.15122665 0.019815538 -3.123227 -0.15450408
0003f0 9e 41 e8 3c 5c 0b 46 c0 4d ee 3f be c9 18 80 3c
       0.028351601 -3.0944433 -0.18743248 0.015636818

body_pose f4 [232, 63]
000000 7f 3b 68 3d d1 83 41 be 30 58 91 be 03 ab 1c be
       0.056697365 -0.1889794 -0.28387594 -0.15299611
000010 b2 65 86 3d 9c d5 0a be 89 76 2d 3e 7a 53 72 bd
       0.065623656 -0.13558048 0.16939749 -0.05916164
000020 4e 36 92 3d 1c cb 77 3e 68 c7 5f be da 44 24 3e
       0.07139264 0.24198574 -0.21853411 0.1604189
000030 38 46 94 3f 83 02 4f bd e1 d3 9e 3e 7e ae fd 3d
       1.1583929 -0.050539505 0.31021026 0.12386797
000040 44 4d a9 bd b6 f8 9c 3d 8a 90 46 be da d2 50 be
       -0.082666904 0.07664625 -0.19391075 -0.20392933
000050 23 f3 a1 bd 98 5a 16 be 05 fc 4c be 60 89 bc bd
       -0.07907703 -0.14682996 -0.20018013 -0.0920589
000060 d0 5b 61 3d a1 04 e0 bd d5 e7 13 bc b1 b0 83 37
       0.0550192 -0.10938383 -0.009027441 1.5698695e-05
000070 48 89 80 b7 9f e1 77 b7 48 19 82 37 3a 09 7e b7
       -1.5322716e-05 -1.4774879e-05 1.550898e-05 -1.5141728e-05
000080 17 2f 80 b7 63 df a4 3e 96 e6 b1 bd 39 27 45 3d
       -1.5280717e-05 0.3220168 -0.08686559 0.04813311
000090 6c 26 e2 bd 0a db 04 3b 7c c7 ec be 9b d8 e2 bd
       -0.11042485 0.002027216 -0.46245944 -0.110764705
0000a0 8b 63 d2 bd 2d 3f 08 3f 89 a0 ce bd e8 cb 9e bc
       -0.102728926 0.532214 -0.100892134 -0.01938434
0000b0 0a 98 e0 bd c6 5d 7c bd 3e 01 60 be 03 a0 ce be
       -0.10966499 -0.061612867 -0.21875474 -0.40356454
0000c0 ba db 2e 3d ba e9 bc 3d 7a 88 ee 3e 09 d1 d9 bc
       0.042690016 0.09224267 0.46588498 -0.026588934
0000d0 ba 97 b6 be 94 e9 c9 be 1c 6e b7 3a c3 d0 75 3f
       -0.35662633 -0.39436018 0.0013994607 0.9602167
0000e0 96 da 71 3e e2 0f a0 bd 23 c4 2c be 90 0f af 3c
       0.2361854 -0.078155294 -0.16871695 0.021369725
0000f0 4c 6a ff 3c 87 2a 4d 3d 03 11 e1 bd b9 d2 ee 3d
       0.031178616 0.050089385 -0.10989573 0.11661286
000100 a0 33 3c be 6d 6b 89 be 5b ac 56 be 3e b3 0a 3e
       -0.18379068 -0.26839772 -0.20964186 0.13544938
000110 1e 49 56 be 29 7c 23 3e 7d 03 d9 bd af b6 de 3d
       -0.2092633 0.15965332 -0.105963685 0.10874688
000120 12 d1 4e 3e 18 b5 82 be 50 11 50 3e 3b e6 9a 3f
       0.20196941 -0.2552879 0.20319104 1.2101511
000130 f6 7f 09 bc 4f 4e bc 3e 7e 73 fe 3d 34 29 06 be
       -0.008392325 0.36778495 0.12424372 -0.13101655
000140 47 34 ac 3d d9 28 51 be 76 19 69 be 34 53 9e bd
       0.084084086 -0.20425738 -0.22763619 -0.077307135
000150 d6 c1 73 be f9 71 eb bd 49 48 55 bc c9 36 4c 3d
       -0.23804411 -0.11496348 -0.013017722 0.049856935
000160 b6 f4 00 be 36 e5 83 bc 04 cf 82 37 50 d5 7f 37
       -0.1259335 -0.016100507 1.5593607e-05 1.524885e-05
000170 e4 d5 84 37 cf d9 81 37 69 ee 7c b7 0a 0f 81 37
       1.5835227e-05 1.5479423e-05 -1.507588e-05 1.5385001e-05
000180 c8 ce a6 3e 7f 7e 67 bd 8d 26 c0 3d ca 90 1d be
       0.32579637 -0.05651712 0.09382353 -0.15387264
000190 45 9b df 3c 8a a4 07 bf 12 d4 e6 bd 76 2b 00 be
       0.027295718 -0.5298544 -0.11270918 -0.12516579
0001a0 4c a2 04 3f 4e c9 bd bd f3 3e 5a bc ae d1 f0 bd
       0.51810145 -0.092669114 -0.013320672 -0.11758743
0001b0 e8 e5 0b be 9e fd 66 be eb d7 45 be 86 1a 28 3d
       -0.13661921 -0.22557685 -0.19320647 0.04104092
0001c0 87 f4 d8 3d fc 56 fe 3e 4f 5e 44 3c 78 6d 0b bf
       0.10593515 0.4967574 0.011985376 -0.5446391
0001d0 ea 8b 97 be ba 10 4f bc b9 c0 84 3f ff 3a 7c 3e
       -0.29598933 -0.012638265 1.0371314 0.2463188
0001e0 97 e1 1d bc b9 27 79 bd 2c f1 d2 bd eb e2 56 3c
       -0.009636304 -0.060828898 -0.10299906 0.013115625
0001f0 21 fb 6a 3d 1f 66 0b be f2 e1 20 3e 13 5d 4a be
       0.0573684 -0.13613175 0.15711191 -0.19762067
000200 6d 8c 75 be 09 79 a0 be 75 41 2d 3e cd d0 93 be
       -0.2397935 -0.31342342 0.16919501 -0.2887024
000210 2a 91 20 3e 7c d3 12 be aa 0f 03 3e c7 fa 6a 3e
       0.15680376 -0.14338487 0.12798944 0.22947226
000220 dd 8a 95 be bd 01 52 3e 43 7c 9f 3f 6f 02 40 bd
       -0.29207507 0.20508476 1.2459797 -0.04687732
000230 0f 5d ae 3e a1 c6 e3 3d c8 f9 17 be f3 95 bd 3d
       0.34055373 0.1112187 -0.14841378 0.09257116
000240 e1 a5 65 be 38 53 5e be 17 77 53 bd 6c 83 d5 bd
       -0.22426559 -0.21711433 -0.051627245 -0.10425457
000250 a2 32 91 bd c3 0a 9e bd 8d d5 57 3d b8 b0 13 be
       -0.070897356 -0.077168964 0.052693892 -0.14422882
000260 30 1d 12 bc 56 6d 7f b7 44 24 7e 37 d2 25 84 37
       -0.008918092 -1.5224641e-05 1.51480235e-05 1.5753238e-05
000270 3b 9a 82 37 85 85 81 37 d8 6e 80 37 a3 01 a7 3e
       1.5569027e-05 1.5440173e-05 1.5310405e-05 0.32618436
000280 d5 c2 44 bd b1 1b e3 3d 23 b4 23 be f0 a1 5e bc
       -0.04803737 0.11089266 -0.15986685 -0.013588414
000290 86 06 f2 be 77 13 e2 bd 5c 01 fc bd 2a 7e 01 3f
       -0.47270602 -0.11038869 -0.12304947 0.50583136
0002a0 f9 98 e2 bd 31 a6 36 3b 45 76 f2 bd 64 4b e2 bd
       -0.110643335 0.0027870054 -0.118389644 -0.11049536
0002b0 3b 3a 90 be 58 f0 c8 bc 9c b2 30 3d 2a c3 d2 3d
       -0.28169426 -0.024528667 0.043139085 0.10291131
0002c0 10 f8 02 3f b8 56 8a bc c3 1d d3 be a3 07 97 be
       0.51159763 -0.016887054 -0.41233644 -0.29498014
0002d0 85 22 f8 3b ca 48 85 3f e7 05 98 3e ca 54 13 bd
       0.0075724744 1.0412838 0.29692003 -0.035969533
0002e0 20 cc 07 be 28 9e a4 bd f6 17 9b 3c 83 29 a7 3d
       -0.13261461 -0.080379784 0.018932324 0.081622146
0002f0 a4 5d 12 be af 37 48 3e 5a a0 4c be 8a 8f 61 be
       -0.14293534 0.19552492 -0.19983044 -0.22027412
000300 d4 5e d4 be 3a e2 0f 3e d4 aa b6 be e8 8c 2d 3e
       -0.41478598 0.14051142 -0.35677207 0.16948283
000310 c9 0a 21 be d4 22 03 3e 33 83 64 3e 0e 6b 9e be
       -0.1572677 0.12806255 0.22315674 -0.3094105
000320 a1 8a 34 3e 35 42 9a 3f 55 43 59 bd a8 63 6f 3e
       0.17631008 1.2051455 -0.05304273 0.2337786
000330 bc 61 d0 3d 38 1f 1d be 48 86 cb 3d 02 95 06 be
       0.10174891 -0.1534394 0.099377215 -0.1314278
000340 f2 53 51 be ed de 23 3b c6 79 16 bd 1a 21 f5 bc
       -0.20442179 0.00250047 -0.036737226 -0.02992301
000350 14 ae 57 bd 96 84 1c 3d a3 c6 0f be 53 17 bd 3a
       -0.05265625 0.03821238 -0.14040618 0.0014426507
000360 ef ce 7b b7 c6 b0 7c 37 60 07 84 37 95 6e 84 37
       -1.5008946e-05 1.5061529e-05 1.573906e-05 1.578712e-05
000370 8f b7 7e b7 6b 30 7f 37 42 e1 a2 3e 7b 08 db bc
       -1.5182318e-05 1.5210458e-05 0.31812483 -0.026737442
000380 21 93 0d 3e 7e bb 24 be cb 2d 85 bd 0a f4 de be
       0.13825656 -0.16087148 -0.06502875 -0.43545562
000390 ee ae b4 bd 8b a0 f8 bd cc 08 01 3f a8 e7 e6 bd
       -0.08822428 -0.12139996 0.5040405 -0.11274654
0003a0 8e ca 52 3c 4f 0b 17 be 4d ed 36 be de 28 ab be
       0.012865676 -0.14750408 -0.1786396 -0.33429617
0003b0 99 a6 04 3e 32 60 5b 3d 09 04 d4 3d 46 32 f7 3e
       0.12954177 0.053558536 0.10352332 0.48280543
0003c0 ef f6 7e 3b 4a 69 2c be 0b 24 a1 be 3e b8 d4 3c
       0.0038904508 -0.1683704 -0.3147281 0.02596676
0003d0 70 13 83 3f 6d e0 cb 3e c1 d1 6e 3d 72 e6 17 be
       1.0240307 0.3981966 0.058305506 -0.14834002
0003e0 55 91 41 bd 48 2c 9e 3d 35 d0 3c 3d 7b f9 12 be
       -0.04725774 0.0772329 0.046097 -0.14352982
0003f0 ce e1 53 3e 3b 5c 45 be c0 78 5d be 6f 8d e2 be
       0.20691606 -0.19273464 -0.21628094 -0.4424853

transl f4 [232, 3]
000000 ca c3 13 3f f4 17 81 3f 30 47 73 3f e0 a4 10 3f
       0.57720625 1.0085435 0.950305 0.5650158
000010 df be 81 3f da c9 6e 3f e5 f8 0d 3f 23 01 82 3f
       1.0136374 0.9327675 0.5545791 1.0156597
000020 07 f1 69 3f ff 74 0b 3f 20 05 82 3f c8 fc 64 3f
       0.91383404 0.54475397 1.0157814 0.89448214
000030 2c 06 09 3f bd be 81 3f 73 5d 5f 3f 2d 3a 06 3f
       0.5352504 1.0136334 0.8725197 0.5243252
000040 64 4e 81 3f 2d 53 59 3f e1 25 03 3f 08 5a 80 3f
       1.0102048 0.8489254 0.51229674 1.0027475
000050 80 28 53 3f 54 64 00 3f a6 f3 7e 3f 0c 16 4c 3f
       0.82483673 0.5015309 0.9959053 0.7972114
000060 f2 ef f9 3e ce 89 7d 3f 1c fb 44 3f fe af f3 3e
       0.48815876 0.990384 0.7694566 0.4759521
000070 79 57 7c 3f 22 14 3e 3f b8 4c ee 3e cf 67 7c 3f
       0.9857097 0.7424947 0.46542907 0.985959
000080 15 0e 38 3f 82 c0 e9 3e ad 77 7e 3f 45 ff 32 3f
       0.7189649 0.45654684 0.9940136 0.6992076
000090 d3 c5 e4 3e e9 69 80 3f df 06 2f 3f fa f1 df 3e
       0.44682178 1.0032321 0.6836986 0.437393
0000a0 38 73 81 3f 7e 69 2b 3f 06 72 db 3e 73 e0 81 3f
       1.0113287 0.66957843 0.4286043 1.0146621
0000b0 a5 ec 27 3f e0 df d6 3e 23 0a 82 3f d4 0b 24 3f
       0.65595466 0.41967678 1.0159343 0.6408055
0000c0 8a 4d d1 3e db b0 81 3f 7e 17 20 3f 4d 2c cb 3e
       0.4087947 1.0132097 0.62535846 0.39682236
0000d0 24 ff 80 3f 68 dc 1b 3f 89 98 c3 3e c8 10 80 3f
       1.0077863 0.6088319 0.38202313 1.0005121
0000e0 d1 02 17 3f 07 97 bb 3e 96 4d 7e 3f ba 27 12 3f
       0.5898867 0.36638662 0.99337137 0.5709187
0000f0 3a a5 b3 3e fe c7 7d 3f 2e 9f 0d 3f c6 03 ab 3e
       0.35086995 0.9913329 0.55321014 0.33401316
000100 8a d0 7d 3f 6c ec 09 3f f9 45 a2 3e ee 41 7e 3f
       0.9914633 0.53876376 0.3169401 0.9931935
000110 bb 0f 07 3f 39 d7 99 3e a3 77 7f 3f ab 26 05 3f
       0.5275838 0.30047014 0.99791926 0.5201213
000120 74 c9 92 3e b3 9b 80 3f e7 41 03 3f d6 21 8c 3e
       0.28669322 1.0047516 0.51272434 0.27369565
000130 3b 72 81 3f 02 38 01 3f 52 58 86 3e 83 10 82 3f
       1.0112985 0.50476086 0.26239258 1.0161289
000140 77 da fd 3e cf 6f 80 3e aa 3b 82 3f aa bd f8 3e
       0.49580738 0.25085303 1.0174458 0.48582202
000150 f2 eb 75 3e 67 19 82 3f fb 72 f3 3e 2d 7e 6a 3e
       0.24015787 1.0164002 0.4754866 0.22899695
000160 15 be 81 3f 63 c4 ed 3e ed a5 5f 3e d6 57 81 3f
       1.0136133 0.46438894 0.2184064 1.010493
000170 36 48 e7 3e b9 88 54 3e aa c3 80 3f 88 cd df 3e
       0.4517228 0.2075528 1.0059712 0.43711495
000180 29 d3 49 3e 39 2d 80 3f 77 fc d6 3e 06 4d 3f 3e
       0.19709457 1.0013801 0.4198949 0.18681726
000190 c2 fe 7e 3f 6c c2 cc 3e 6d 60 32 3e b8 74 7e 3f
       0.9960748 0.39992082 0.17419596 0.9939685
0001a0 48 9b c1 3e 63 10 27 3e 94 7e 7e 3f 50 9f b6 3e
       0.37813783 0.16314845 0.9941189 0.3566842
0001b0 67 6f 1f 3e cd 92 7f 3f 6f 47 ac 3e e2 9b 1a 3e
       0.1556984 0.99833375 0.3364825 0.15098527
0001c0 49 70 80 3f c5 07 a3 3e 53 f4 16 3e 48 0e 81 3f
       1.0034267 0.31841865 0.1474164 1.0082483
0001d0 48 7a 9a 3e 77 13 14 3e 4e 9d 81 3f cf 73 93 3e
       0.30171418 0.1446055 1.012613 0.28799292
0001e0 69 92 12 3e 16 07 82 3f a4 18 8d 3e 6b a6 11 3e
       0.14313664 1.0158412 0.27557862 0.1422364
0001f0 5c 49 82 3f 0e 1d 87 3e 6a 0a 11 3e 0a 6b 82 3f
       1.0178638 0.26389354 0.14164129 1.0188916
000200 49 7d 81 3e 68 26 10 3e fe 65 82 3f 8d ae 78 3e
       0.25290897 0.14077151 1.0187376 0.24285336
000210 30 e0 0e 3e 7e 4a 82 3f 8a 33 6e 3e 12 8c 0d 3e
       0.13952708 1.0178983 0.23261848 0.13822964
000220 78 36 82 3f d5 84 64 3e 5c 07 0b 3e d4 16 82 3f
       1.0172873 0.22316296 0.13577026 1.0163217
000230 7e fc 59 3e b4 70 07 3e bb f3 81 3f 90 0c 4f 3e
       0.21287724 0.13226587 1.0152506 0.20219636
000240 f0 5c 02 3e 2e 87 81 3f 8c cd 43 3e ce 02 fb 3d
       0.12730765 1.0119379 0.19121379 0.12256394
000250 7f 27 81 3f 7c dd 36 3e b1 80 f1 3d 05 73 80 3f
       1.0090178 0.17857927 0.11792124 1.0035101
000260 8d 09 27 3e ca 71 e5 3d 4f b6 7f 3f cf c2 15 3e
       0.16312237 0.11203344 0.99887556 0.14625095
000270 a4 c1 d8 3d 2c d7 7e 3f 87 ea 01 3e 9f 9b ca 3d
       0.10583809 0.99547076 0.12687121 0.098929636
000280 12 9c 7e 3f 15 e8 dd 3d 8c db ba 3d e9 b0 7e 3f
       0.99456894 0.10835282 0.091239065 0.99488693
000290 74 91 b7 3d 3a 95 a8 3d ee c8 7e 3f dc bb 94 3d
       0.0896329 0.08231588 0.99525344 0.07262394
0002a0 c2 7a 95 3d 3e 49 7f 3f ee fb 67 3d e6 b1 84 3d
       0.07298805 0.99721134 0.056636743 0.06479244
0002b0 14 aa 7f 3f 21 ae 30 3d 54 fb 64 3d 56 3a 80 3f
       0.99868894 0.043134812 0.055903748 1.0017803
0002c0 a3 50 ff 3c 75 2f 47 3d b0 9f 80 3f 08 b1 a8 3c
       0.03116638 0.048629243 1.0048733 0.020592228
0002d0 17 2e 2b 3d 15 c2 80 3f 77 86 21 3c 0a 6f 16 3d
       0.041792 1.0059229 0.009858719 0.03672699
0002e0 6f d3 80 3f af 6b 7c ba 0d 36 01 3d 84 fe 80 3f
       1.0064524 -0.0009629083 0.031545687 1.0077672
0002f0 90 2c 4c bc 7e 05 d5 3c 95 15 81 3f eb b7 c8 bc
       -0.012461796 0.026003595 1.0084711 -0.024501761
000300 ab 15 bb 3c ab f6 80 3f c1 bc 1b bd 44 dc ac 3c
       0.02283748 1.0075277 -0.038021807 0.021101125
000310 22 d3 80 3f 2f 70 57 bd e2 76 a4 3c cd 92 80 3f
       1.0064433 -0.05259722 0.020076219 1.00448
000320 4e b4 8c bd a8 b0 a9 3c c9 cf 7f 3f ca b8 b3 bd
       -0.06870328 0.02071412 0.9992643 -0.0877548
000330 aa da ad 3c b0 0c 7e 3f 6c 2e e1 bd 13 f7 9e 3c
       0.021222431 0.9923811 -0.109951824 0.019404924
000340 36 d8 7c 3f d4 cb 08 be 8f b6 92 3c 71 9c 7c 3f
       0.9876741 -0.13359004 0.017909316 0.9867621
000350 99 10 21 be 7c a6 8a 3c 47 23 7d 3f 15 98 37 be
       -0.15728988 0.016925089 0.98881954 -0.17929108
000360 a4 ab 84 3c 70 72 7e 3f 35 a6 4b be ce 19 78 3c
       0.016195126 0.9939337 -0.19887622 0.015142871
000370 7f f7 7f 3f 27 d6 5c be 29 19 78 3c 26 aa 80 3f
       0.99987024 -0.21566068 0.015142717 1.0051925
000380 e5 ad 6d be 4e 79 6a 3c f6 43 81 3f bd f3 7b be
       -0.23210867 0.014311148 1.0098865 -0.24604698
000390 16 7a 51 3c 44 81 81 3f 07 e0 84 be 85 04 1a 3c
       0.012785455 1.0117574 -0.2595217 0.009400492
0003a0 3b 84 81 3f 62 89 8b be d8 1b d1 3b e5 54 81 3f
       1.0118479 -0.27253252 0.006381493 1.0104033
0003b0 9c 75 92 be 7d 09 6b 3a ea 08 81 3f 56 77 99 be
       -0.28605354 0.00089659524 1.0080845 -0.2997386
0003c0 b3 30 ce bb af c9 80 3f b9 16 a1 be c2 56 78 bc
       -0.0062924265 1.0061549 -0.3146265 -0.015157403
0003d0 3d 54 80 3f b4 00 a9 be d2 b7 cf bc 4f 8d 7f 3f
       1.0025707 -0.3300835 -0.025356207 0.99824995
0003e0 92 e7 b1 be d3 39 16 bd 0f e9 7d 3f 78 d6 bb be
       -0.34746987 -0.03667624 0.99183744 -0.36687064
0003f0 60 c0 3d bd d3 aa 7c 3f 45 ce c6 be 4e 85 74 bd
       -0.04632604 0.9869816 -0.38829246 -0.05969744

left_hand_pose f4 [232, 12]
000000 4e de 1c 3f af 9a 49 3d 98 97 ae b9 c4 29 23 3f
       0.6127671 0.049219783 -0.00033300812 0.63735604
000010 78 32 c3 bd 8a fe 3c bf 89 d7 c7 3e f2 da 0a bf
       -0.095311105 -0.73825896 0.39031628 -0.54240334
000020 75 3f 92 3e d2 b6 89 bf bf bd 65 3f 40 11 e6 bf
       0.2856404 -1.0758917 0.89742655 -1.7974014
000030 76 0d 1b 3f 3b 4f d6 3d b8 bf 85 3d 79 3d 3f 3f
       0.60567415 0.10464331 0.06530708 0.74703175
000040 5d 75 3b be d2 6e 42 bf 73 cc cb 3e 47 73 16 bf
       -0.1830649 -0.7595035 0.3980442 -0.5876965
000050 52 7d 18 3e 80 47 9d bf f0 fa 5e 3f 82 1c df bf
       0.14891556 -1.2287445 0.8710165 -1.7430575
000060 ff 00 15 3f e3 79 0b 3e 81 ef 0b 3e d1 02 51 3f
       0.58204645 0.13620715 0.13665582 0.8164492
000070 74 68 d7 bd 47 41 28 bf 08 8c 23 3e 1e 4f 35 bf
       -0.1051797 -0.65724605 0.15971386 -0.7082385
000080 b3 84 04 3e 7c 1e ab bf 85 dc 72 3f 7b 02 e0 bf
       0.12941246 -1.3368678 0.94867736 -1.7500757
000090 42 a7 21 3f df a6 00 3e 9f e6 dc 3d d8 d6 27 3f
       0.6314584 0.12563656 0.10786175 0.655622
0000a0 27 92 0a be 90 8e 68 bf a7 c4 ff 3e 70 8b 1c bf
       -0.13532315 -0.90842533 0.4995472 -0.61150265
0000b0 72 5b cf 3b 5f 2e a0 bf 25 b1 ca 3f cc bf d3 bf
       0.00632804 -1.2514151 1.583531 -1.6542907
0000c0 13 b1 37 3f 80 bb 1c bd 54 cb 14 3d 73 96 d3 3e
       0.7175457 -0.03826475 0.03632672 0.4132572
0000d0 52 08 68 bd d4 b4 45 bf c0 4e 4b 3f bb 38 53 bf
       -0.05664856 -0.77229047 0.7941704 -0.8250844
0000e0 7a bc 3d be f1 03 bc bf f8 a6 02 40 36 41 ed bf
       -0.1852893 -1.4688703 2.041441 -1.8535526
0000f0 16 ee 4e 3f e5 a3 cc bd cd e5 c0 3d b4 7f cb 3e
       0.8083204 -0.09992198 0.09418831 0.39745867
000100 c1 c6 51 3e 04 10 a0 be c7 f9 0a 3f 88 3c 8c bf
       0.20485975 -0.3126222 0.5428738 -1.0955973
000110 eb aa 27 be 7f 6d d2 bf f8 81 e4 3f 3d 14 0b c0
       -0.16373794 -1.6439666 1.7852163 -2.1731102
000120 c3 9c 50 3f 31 72 64 bd 28 3d 6c 3d b3 10 c9 3e
       0.814892 -0.055772964 0.05767551 0.39270553
000130 82 9e 79 3d 3a a0 d0 be 8a 10 36 3f 47 c8 86 bf
       0.06094218 -0.40747243 0.71118987 -1.052987
000140 b3 20 00 be 45 66 d3 bf 5c a9 de 3f 42 d1 0f c0
       -0.12512474 -1.6515585 1.7395434 -2.247147
000150 0b 7d 48 3f 8d da 14 3d 78 b6 77 3d 6a 88 00 3f
       0.783158 0.03634124 0.06047675 0.5020815
000160 1b a6 4d be bb 91 0f bf 6e f4 4f 3f 93 5d 65 bf
       -0.20082895 -0.5608174 0.81232345 -0.8959591
000170 f2 72 07 be ac 08 c5 bf 4d 6d f1 3f 7e 5b 06 c0
       -0.13227442 -1.5393271 1.8861481 -2.0993342
000180 1f 9a 46 3f e6 8b ec 3d 1d 40 36 3d e3 bf 3a 3f
       0.7757892 0.11550121 0.044494737 0.72949046
000190 97 2b f2 be 48 01 4d bf 5c 13 4d 3f df 1e 28 bf
       -0.4729888 -0.8008008 0.80107665 -0.65672106
0001a0 99 45 ee bd 23 2b a4 bf de aa de 3f 42 ec d5 bf
       -0.116343684 -1.2825664 1.7395895 -1.6712725
0001b0 c7 fb 40 3f 8b 24 07 3e 04 c7 91 3d f6 9a 3f 3f
       0.7538418 0.13197534 0.07118037 0.74845827
0001c0 3c 58 b5 be d4 96 43 bf 0e 16 28 3f cd 40 25 bf
       -0.3541888 -0.7640202 0.6565865 -0.64552003
0001d0 93 40 98 3b ce 83 9f bf 49 06 d8 3f 7a cd db bf
       0.0046463697 -1.2462099 1.6876918 -1.7172081
0001e0 2b b0 2c 3f 1c bf 68 3d 43 d2 2c 3d 8f 17 36 3f
       0.6745631 0.05682288 0.04219271 0.711297
0001f0 01 d0 85 be 11 50 3f bf 1d 31 0d 3f 31 56 49 bf
       -0.26135257 -0.74731547 0.55153066 -0.7864714
000200 04 94 31 3e 21 c9 a7 bf fd 90 bc 3f e9 94 e5 bf
       0.1734162 -1.3108255 1.4731747 -1.7936069
000210 f4 76 26 3f d8 f3 c4 3d b3 29 13 3d b5 a5 44 3f
       0.6502526 0.09616822 0.03592844 0.7681535
000220 51 0b 99 be a9 45 44 bf e4 c2 dc 3e 12 0d 2d bf
       -0.29891446 -0.7666879 0.4311744 -0.6759807
000230 bb fe a5 3e 1b 3f 9f bf 76 1a 90 3f 79 a1 dd bf
       0.32420906 -1.2441133 1.1258075 -1.7314903
000240 b6 8d 18 3f e1 db aa 3d 00 b9 67 3c 0b c4 33 3f
       0.59591234 0.0834272 0.0141432285 0.7022101
000250 2f 45 a5 be f7 ca 34 bf 9b 1b df 3e 72 bc 32 bf
       -0.32279345 -0.706222 0.4357575 -0.69818795
000260 ef 6b 6e 3e 4a f3 a2 bf 9f b3 9b 3f 42 fe df bf
       0.23283361 -1.2730496 1.2164191 -1.7499468
000270 42 63 11 3f 7e ae 0b 3e 94 fb e5 3d 83 a6 51 3f
       0.5679208 0.13640782 0.11229625 0.818947
000280 8e d6 01 be b7 4a 1f bf cd 9b 11 3d 29 93 36 bf
       -0.12679502 -0.6222338 0.035548974 -0.713183
000290 a6 a7 ca 3e 24 39 9a bf f7 e4 3e 3f 49 da f8 bf
       0.3958103 -1.2048688 0.7456812 -1.9441615
0002a0 80 01 08 3f b2 b0 10 3e 5d 3a 34 3e 1d b0 54 3f
       0.5312729 0.14129904 0.17600389 0.8308123
0002b0 75 9c da bd 05 dc 07 bf c7 71 88 bd 4f 82 30 bf
       -0.10674373 -0.530701 -0.06662326 -0.68948835
0002c0 80 c9 03 3f 90 7f 91 bf 5a 2c e3 3e 93 21 f6 bf
       0.5147934 -1.1367054 0.44369775 -1.9228996
0002d0 6f eb 10 3f 1b 74 54 3e 45 ad 42 3e db 17 62 3f
       0.56609243 0.20747416 0.1901141 0.8831765
0002e0 3f 28 43 be cc b7 17 bf 68 9b c6 bd d3 21 f3 be
       -0.19058321 -0.59264827 -0.0969761 -0.47486743
0002f0 ee b5 80 3e 64 ff 87 bf 26 fe f4 3e 52 a2 d0 bf
       0.251388 -1.0624814 0.4785015 -1.6299536
000300 45 6d 0f 3f 7d f1 22 3e 12 df 3c 3e 2b 49 5b 3f
       0.5602611 0.15912433 0.1844447 0.8565852
000310 77 b6 95 bd d1 34 14 bf f3 c5 1c be 77 06 17 bf
       -0.07310193 -0.5789309 -0.15309887 -0.5899424
000320 1f 68 bf 3e 4d d6 92 bf ff 00 fa 3e 87 3b cf bf
       0.37384126 -1.147165 0.48828885 -1.6190041
000330 23 db 26 3f 87 ab a8 3d 4e dd 4f 3e 8f 15 46 3f
       0.65178126 0.08235841 0.20299265 0.77376646
000340 00 b7 8d bc 96 3a e0 be 45 49 af bd 50 c6 11 bf
       -0.017299175 -0.43794698 -0.08558897 -0.56943226
000350 fd b9 c4 3e a6 b6 8d bf 8b 71 30 3f 4f 9a cd bf
       0.38423148 -1.1071365 0.6892325 -1.6062716
000360 3d 17 53 3f e6 43 b9 3d 85 f0 9b 3e b8 d6 64 3f
       0.82457334 0.09046154 0.3045694 0.89390135
000370 8a 96 65 be 16 ff ab be 73 35 02 be 4e 62 fc be
       -0.22420707 -0.33593053 -0.12715702 -0.4929375
000380 d5 be e6 3e fa 1f 75 bf fb 7f 5d 3f c5 4b c7 bf
       0.45067468 -0.9575192 0.8652341 -1.5569998
000390 c0 f0 68 3f 7e 4c b5 3d 9d f0 ad 3e 3f e0 6d 3f
       0.90992355 0.0885248 0.33972636 0.929203
0003a0 7a 02 70 be 45 6d 96 be 10 cf 83 be fd 6b 0e bf
       -0.23438445 -0.2938024 -0.25743914 -0.5563353
0003b0 d2 1e dd 3e 75 4a 6e bf cd 35 80 3f c3 8c c3 bf
       0.43187577 -0.9308236 1.0016419 -1.5277332
0003c0 42 f0 6b 3f ad 6b ab 3d f6 34 a5 3e 9a a3 63 3f
       0.9216348 0.08370147 0.32266968 0.8892151
0003d0 17 de 0a be 4c 68 84 be c1 a7 88 be 0e 4b 24 bf
       -0.13561283 -0.25860822 -0.26690486 -0.64177024
0003e0 7a 00 f7 3e 2a c7 7b bf 21 a7 83 3f 1d cb d8 bf
       0.4824255 -0.98350775 1.0285379 -1.6936985
0003f0 78 ef 64 3f 78 e0 f7 3d fd 50 89 3e 27 9d 65 3f
       0.894279 0.12103361 0.26819602 0.8969292

right_hand_pose f4 [232, 12]
000000 dc e3 3f 3d 60 35 17 3f 57 f6 b9 3d bd 81 30 3f
       0.046848163 0.5906582 0.09080189 0.68947965
000010 11 a0 74 3a 3c 35 84 be 6e 11 72 be b0 3d 86 3e
       0.0009331713 -0.25821865 -0.23639461 0.2621894
000020 b1 43 33 bf 43 6d 47 bf 8c 4b 01 3e 67 79 41 bf
       -0.70025164 -0.77901095 0.12626475 -0.7557587
000030 1f f4 4d 3d e6 de 21 3f 4d e5 ed 3d 60 72 2e 3f
       0.05028164 0.6323074 0.11616001 0.6814327
000040 48 84 40 be 55 db 80 be b1 a8 76 be 1b da e5 3d
       -0.18800461 -0.25167337 -0.24087788 0.11223241
000050 ef a5 44 bf 02 0c 45 bf e3 23 89 3e 36 3c 5e bf
       -0.76815695 -0.7697145 0.26785192 -0.86810625
000060 8d 4d ed 3d c3 e1 21 3f f5 a2 0f 3e 10 20 45 3f
       0.11587057 0.6323511 0.14027007 0.7700205
000070 53 0d bd be 23 37 5d be f4 13 0f be bd 0d 5d 3e
       -0.36924228 -0.21603064 -0.13972455 0.21587272
000080 9f 63 50 bf bb 82 3d bf dd b7 86 3e 40 6d 48 bf
       -0.8140201 -0.74027604 0.26312152 -0.782917
000090 86 59 12 3e a4 8b 00 3f cd 61 f3 3d 3f 35 31 3f
       0.14291963 0.50213075 0.118838884 0.6922187
0000a0 bb bb 4c be 61 d2 76 be 5f 9f 97 bd 52 b5 4a bd
       -0.19993488 -0.2410369 -0.074034445 -0.049489327
0000b0 4b f4 32 bf 77 30 81 bf 9b 59 e8 3e 24 e6 8f bf
       -0.6990401 -1.0092915 0.45380864 -1.1242108
0000c0 3c 42 1b 3e ec 4b 0e 3f cc c5 99 3d c9 56 32 3f
       0.15161985 0.555846 0.0750843 0.69663674
0000d0 6c 2c 2d be 58 78 ae be 69 49 7c be 5a e5 3c 3d
       -0.16911477 -0.3407619 -0.24637379 0.046117164
0000e0 92 2a 43 bf c6 85 6a bf 22 84 73 3e 00 dd 65 bf
       -0.7623683 -0.9161037 0.23780873 -0.89790344
0000f0 39 d7 7f 3e 07 e6 10 3f a5 ab e8 3d be 55 31 3f
       0.24984445 0.56600994 0.113608636 0.6927146
000100 af 89 bb be 47 08 44 be d8 96 b8 be 39 4b 20 3e
       -0.36628482 -0.19143783 -0.36052585 0.15653695
000110 99 b5 3a bf a7 bb 3c bf 25 c4 cc 3d 7c 78 4b bf
       -0.72933346 -0.73723835 0.09998349 -0.7948072
000120 6f b0 68 3e ad 2f 2b 3f 94 63 01 3e 0d c1 2f 3f
       0.22723554 0.6686962 0.12635642 0.6865395
000130 e1 22 ef be 76 da 86 bc 9f b3 e1 be 38 83 35 3e
       -0.46706298 -0.016461592 -0.44082353 0.17725837
000140 da 3e 4b bf e8 3d 4f bf 19 01 04 bd df 31 7a bf
       -0.7939278 -0.80953836 -0.03222761 -0.9773235
000150 30 95 81 3e 8f 2d 26 3f a6 fb 13 3e 2a 87 37 3f
       0.25309134 0.64913267 0.14451465 0.7169062
000160 fb 9c 91 be 4b be 80 be 02 32 da be 30 2c 1f 3d
       -0.2844008 -0.25145182 -0.42616278 0.0388605
000170 30 cc 46 bf 5c a8 66 bf 6e 84 bf 3e 1b 01 9e bf
       -0.77655315 -0.90100646 0.37405723 -1.2344087
000180 18 30 71 3e c7 68 19 3f 3a 07 08 3e bc a8 2c 3f
       0.23553503 0.599255 0.13284007 0.6744497
000190 c1 a9 79 be 4f 1a 26 be 0d 13 95 be 85 9e 7c bd
       -0.24381162 -0.16220973 -0.29116097 -0.061674614
0001a0 ad 9c 1b bf 6a 3d 8a bf 98 be 59 3e bb da af bf
       -0.60785943 -1.0799992 0.21264112 -1.3738626
0001b0 dd ff 3c 3e e6 3d 26 3f d6 12 10 3e 7c 47 32 3f
       0.18456979 0.649382 0.14069685 0.69640326
0001c0 ea 10 57 be e0 fe b0 bd 6c 6b 9e be 46 09 0d be
       -0.21002546 -0.086423635 -0.3094133 -0.13773069
0001d0 0d 91 2a bf 84 25 7f bf 0a 07 e2 3e 4e 4b b4 bf
       -0.6662758 -0.9966662 0.44145995 -1.4085481
0001e0 e7 f8 71 3e 29 13 24 3f ba f1 20 3e 3b 3a 3a 3f
       0.23630105 0.64091736 0.15717211 0.727451
0001f0 2b 90 4d be 52 b1 7f be a1 44 a5 be c7 95 34 be
       -0.20074527 -0.24969986 -0.32278922 -0.1763526
000200 f9 51 38 bf 56 e4 6c bf 6e 1b 19 3f bd e0 b7 bf
       -0.7200008 -0.92535913 0.5980748 -1.436546
000210 18 0e a7 3e 7c 0e 16 3f 2d 29 b3 3d 4a aa 37 3f
       0.3262794 0.5861585 0.08748088 0.71744215
000220 7a 00 4e be 10 6c a1 be 3f 4f d5 bd a9 54 bb bd
       -0.2011737 -0.31527758 -0.104155056 -0.09147007
000230 3b fa 42 bf 98 f5 6e bf b0 e4 ed 3e 66 49 af bf
       -0.7616307 -0.93343496 0.46463537 -1.3694274
000240 78 93 99 3e 98 02 19 3f 74 02 09 3d f3 06 34 3f
       0.29995322 0.5976958 0.033449605 0.70323104
000250 2e b6 c0 bd 8f fb af be 2f 9a eb bd ac 71 70 3d
       -0.09409748 -0.3437161 -0.115040176 0.058702156
000260 44 cc 31 bf 2b 97 51 bf f9 55 cc 3e 94 d8 9a bf
       -0.6945231 -0.8187129 0.39909342 -1.2097344
000270 5b fe ad 3e b7 50 29 3f e1 96 b0 3d 45 05 4d 3f
       0.3398312 0.66138786 0.08622528 0.80086166
000280 9b 02 44 be 30 de 8e be bf e1 d2 be f9 33 b1 3e
       -0.19141619 -0.2790389 -0.41187856 0.34609964
000290 df 28 66 bf 38 1d 29 bf bc cf b9 3d c9 65 74 bf
       -0.89906114 -0.6606021 0.09072825 -0.9546781
0002a0 16 db aa 3e fc 9f 15 3f 6d 48 0f 3e db b7 4f 3f
       0.33370274 0.5844724 0.13992472 0.81139916
0002b0 03 8d 39 be 7e 75 40 be 3a d3 e5 be 1c 76 bc 3e
       -0.18120198 -0.1879482 -0.44887716 0.3680886
0002c0 c7 a1 65 bf 79 cc 19 bf 2e ba 86 3e ab e8 58 bf
       -0.8969998 -0.60077626 0.2631392 -0.84730023
0002d0 92 39 95 3e 88 cb 0c 3f d9 94 2c 3e 7f 42 47 3f
       0.29145485 0.54998064 0.16853656 0.7783584
0002e0 23 5d 76 be 75 6b 89 be b1 0a 99 be 56 2c 0e 3e
       -0.24058966 -0.26839796 -0.2989097 0.138841
0002f0 b6 ab 3b bf 3b 7d 42 bf 93 b0 80 3e 01 7a 83 bf
       -0.73308885 -0.75972337 0.25134715 -1.0271608
000300 fd 2e 8a 3e 7c fe 09 3f 9a 11 40 3e bb e7 41 3f
       0.26988974 0.5390394 0.18756714 0.7574422
000310 af 55 f4 be 8f 36 aa be e2 ac 28 be 37 77 d9 bc
       -0.4772162 -0.3324475 -0.164722 -0.026546104
000320 77 58 2e bf 70 be 5d bf 2c e5 10 3f 22 bf 89 bf
       -0.68103737 -0.8661871 0.5659969 -1.0761454
000330 9e 36 99 3e d3 e8 15 3f c2 4b 12 3e fb f2 56 3f
       0.29924482 0.58558387 0.14286712 0.8396451
000340 b7 e2 d3 be f4 f3 d3 be ee b3 b5 bd 61 2d 60 3e
       -0.41383907 -0.4139706 -0.088722095 0.2189231
000350 7c 89 66 bf 21 07 3d bf cc df 0c 3f 1d 3b 62 bf
       -0.90053535 -0.73839 0.55028987 -0.8837145
000360 d3 16 c2 3e 64 ca 23 3f 0f c0 76 3e be be 5d 3f
       0.37908038 0.639807 0.24096702 0.86619174
000370 37 1c f1 be 35 f3 d6 be 5d 2d 97 be 85 56 88 3e
       -0.4709184 -0.41982427 -0.29526797 0.2662851
000380 29 15 61 bf a7 5e 20 bf 4f 55 07 3f 8f 56 4f bf
       -0.8792291 -0.6264443 0.52864546 -0.8099145
000390 1b 14 c7 3e 74 f4 21 3f 8e 41 87 3e cb fd 5d 3f
       0.38882527 0.6326363 0.26417202 0.8671538
0003a0 ad 78 fd be ac 6f b4 be 0d ec 03 bf 6d 26 3d 3e
       -0.4950613 -0.3524145 -0.5153206 0.1847169
0003b0 f4 66 2d bf 10 90 35 bf de f1 26 3e 03 ef 81 bf
       -0.6773522 -0.70922947 0.16303203 -1.0151066
0003c0 41 4f c8 3e 5e dd 14 3f 09 eb 8e 3e df a4 56 3f
       0.39122966 0.5815028 0.27913693 0.83845323
0003d0 01 db f1 be 97 94 b0 be 3b 07 d5 be 09 cc 78 3d
       -0.472374 -0.34488365 -0.4160708 0.060741458
0003e0 1e 72 02 bf fc 65 38 bf d9 db 2c 3e 81 9f 8d bf
       -0.5095538 -0.72030616 0.1688074 -1.1064302
0003f0 6e d3 b6 3e c3 94 1b 3f 34 0e 55 3e 0e 07 49 3f
       0.35708183 0.6077387 0.208062 0.7852639

jaw_pose f4 [232, 3]
000000 17 51 a9 3d da 2a aa bb f8 e4 80 ba ba 05 c5 3d
       0.0826742 -0.0051930966 -0.0009833863 0.09620233
000010 32 85 c2 bb 75 3c 0b bb fe 40 be 3d c6 ea 2a bb
       -0.0059362883 -0.0021245752 0.0928974 -0.0026079877
000020 0b 55 85 ba a5 a4 b2 3d 9e 64 8c bb 8b bc 84 ba
       -0.001017244 0.0872281 -0.0042844554 -0.0010126991
000030 2e a8 92 3d ce ec a6 bb 32 e7 96 ba 27 ba 88 3d
       0.07160984 -0.0050941473 -0.0011512993 0.06676131
000040 a0 74 9a bb b2 2f b6 ba c5 66 77 3d 3e fd 43 bb
       -0.00471361 -0.0013899712 0.060400743 -0.0029905583
000050 39 f5 11 ba 19 02 3a 3d 95 ea d7 ba 5c c0 6a b9
       -0.0005567852 0.045412157 -0.0016473109 -0.00022387638
000060 20 c8 78 3d 3a ae 00 bb ba 12 43 b9 3f 5e 7f 3d
       0.06073773 -0.0019635097 -0.00018603625 0.06234574
000070 ab ba c1 bb e8 14 0e bb e0 f3 97 3d 3d d8 a5 bb
       -0.005912145 -0.0021679942 0.07419562 -0.005061178
000080 72 f1 b3 ba 82 a9 c7 3d 7b 84 23 bb ed 0d 87 ba
       -0.0013728573 0.09749128 -0.002495079 -0.0010303833
000090 a6 2f cd 3d 9d 84 5f bb 74 e2 aa ba 12 3f ce 3d
       0.10018854 -0.0034106143 -0.0013037459 0.100706235
0000a0 8f c1 39 bb 82 17 a8 ba 19 8e a9 3d f2 30 95 bb
       -0.002834413 -0.0012824389 0.08279056 -0.004552954
0000b0 45 b7 a1 ba a4 2f 7c 3d ae 03 1e bb f2 eb 1d ba
       -0.0012337944 0.06156887 -0.002411108 -0.00060242333
0000c0 4e 2d 74 3d 03 c9 38 bb a6 6d f0 b9 92 90 49 3d
       0.05961352 -0.0028195984 -0.00045858062 0.04921014
0000d0 7e 00 42 bb 05 0b fc b9 b8 94 35 3d 6a 58 a8 ba
       -0.0029602344 -0.00048073396 0.044331282 -0.0012843732
0000e0 4d 96 4c 39 db 09 13 3d 82 3e ba b9 a4 73 17 3a
       0.00019510947 0.03589807 -0.00035523257 0.00057774247
0000f0 cf 66 39 3d 27 9b 6e ba 24 91 26 3a b4 57 0e 3d
       0.04526406 -0.0009102099 0.0006354025 0.03475161
000100 d7 39 74 ba 07 24 c0 39 ea 23 09 3d 8d 51 d2 ba
       -0.000931648 0.00036647936 0.033481516 -0.0016046033
000110 1b 4a 30 39 52 3f 10 3d d7 14 3b bb d3 2d de 37
       0.00016812274 0.035216637 -0.0028546357 2.64858e-05
000120 c3 98 fd 3c c1 d8 23 bb 43 69 8a 38 1f 81 c9 3c
       0.030956632 -0.0025001022 6.599959e-05 0.024597703
000130 46 58 dc bb 47 8d e5 ba a3 68 a2 3c 81 d6 8a bb
       -0.00672439 -0.0017513417 0.019825285 -0.0042369966
000140 f0 e0 75 ba c4 11 96 3c 60 e7 94 bb e0 13 f1 b9
       -0.00093795266 0.018319018 -0.0045441836 -0.0004598191
000150 a9 f0 8f 3c 1b 78 7b bb 86 d6 21 ba c2 7c 70 3c
       0.01757081 -0.003837115 -0.0006173629 0.014678182
000160 64 99 b9 bb 7e 65 76 ba ce df 1b 3c d6 27 e9 bb
       -0.0056640375 -0.0009399279 0.009513808 -0.0071153445
000170 d3 92 0c bb d3 87 a7 ba 2b 63 93 bb ef 15 8f ba
       -0.0021449819 -0.0012781568 -0.0044979057 -0.0010916571
000180 67 31 68 3c 20 a6 f0 bb 7f 38 1b bb c8 f6 7e 3c
       0.014171935 -0.0073440224 -0.0023684797 0.015561767
000190 2a 54 c9 bb 99 59 a1 ba 45 c2 13 3d ec a8 df bb
       -0.0061440663 -0.0012310027 0.03607394 -0.006825557
0001a0 57 3a ff ba 23 6d f9 3c 40 67 9d bb 69 3f b1 ba
       -0.0019472343 0.030447548 -0.004803568 -0.0013522926
0001b0 3f d6 35 3d cf c3 91 bb e3 dd 29 ba 27 07 55 3d
       0.044393774 -0.004448391 -0.0006479902 0.052008774
0001c0 40 2c 52 bb 25 2e 70 ba 73 35 6f 3d 41 62 b1 bb
       -0.0032069832 -0.00091621495 0.058400583 -0.005413324
0001d0 ca 52 be ba 4f 74 66 3d 38 7b 73 bb bf cb a6 ba
       -0.0014520523 0.056263264 -0.0037152302 -0.0012725516
0001e0 45 ce 3d 3d e1 38 36 bb 28 a1 f5 b9 47 7d 5d 3d
       0.046339292 -0.0027804899 -0.00046850112 0.054074552
0001f0 a3 d3 ac bb 59 2d d1 ba 63 e2 65 3d 50 0a cd ba
       -0.0052742525 -0.0015958949 0.056124102 -0.0015643332
000200 08 7f 3a b8 21 83 61 3d bf b2 fd b9 12 6f 3e 39
       -4.4464163e-05 0.055056695 -0.00048389097 0.00018161189
000210 b9 a9 52 3d 2f c4 9c ba c3 93 b5 37 56 0d 5f 3d
       0.05143139 -0.0011960323 2.1645688e-05 0.054456078
000220 7b bf eb 39 4a 02 39 3a fe 66 da 3c 6e c6 4c 39
       0.00044965357 0.0007057531 0.026660439 0.00019528877
000230 74 ee 36 3a 15 5e 00 3d 5f b1 13 ba 17 b1 db 39
       0.00069782813 0.031339724 -0.00056340353 0.00041902877
000240 f0 51 bc 3c fa a9 a9 3a 0f 5d a5 3a f9 ea 0b 3c
       0.02298829 0.0012944334 0.0012616235 0.008539909
000250 26 73 70 3b 24 cc cd 3a 1a 8c 1a bb 68 b4 fa 3a
       0.0036689728 0.0015701097 -0.0023582042 0.0019127252
000260 8b 19 af 3a 85 04 fb b9 42 d8 59 3b f9 88 0c 3b
       0.0013359053 -0.00047877818 0.0033240472 0.0021443947
000270 b8 87 87 bb 07 32 4d 3b e7 b2 eb 3a a5 a0 97 bb
       -0.004136052 0.0031310336 0.0017982394 -0.0046273046
000280 26 67 52 3b 15 b8 0a 3b 36 32 83 bc 4d eb e8 3a
       0.0032104938 0.002116685 -0.016015153 0.001777032
000290 1e 47 c5 3a 1c 50 c2 bb 40 c5 5a 3b 71 05 12 3b
       0.0015051102 -0.00592996 0.003338173 0.0022281075
0002a0 e5 8b 56 ba 1e 23 3e 3b 79 f2 c3 3a 01 c5 70 bb
       -0.0008184298 0.002901263 0.0014949582 -0.0036738517
0002b0 90 9e e1 3a db f3 cd 3a af 81 c8 3a a4 d0 b3 ba
       0.0017213393 0.0015712933 0.0015297438 -0.0013718796
0002c0 a0 99 d7 39 9a d8 c0 bb d8 7c 93 b8 bf c3 65 3a
       0.00041122455 -0.005885196 -7.03276e-05 0.0008764825
0002d0 bb e2 89 3a 91 c0 49 ba ea 5c 01 3a 36 d8 c9 3a
       0.0010519841 -0.0007696236 0.0004934805 0.0015399519
0002e0 08 10 cd ba da 5d 83 b8 a7 a1 f3 3b 95 20 31 bb
       -0.0015645036 -6.264048e-05 0.007435042 -0.0027027477
0002f0 3d d2 1a b9 68 7c d0 3b ea 57 a0 bb eb 9e 54 ba
       -0.00014764904 0.0063624866 -0.0048932927 -0.0008110839
000300 66 1f 5a 39 ba fe 8f bb 91 98 a4 ba 41 3b 81 bb
       0.00020801797 -0.0043943794 -0.0012557675 -0.003943831
000310 10 eb aa bb 98 90 7a ba 31 46 ae bb e8 76 4c bb
       -0.00521601 -0.00095582893 -0.005318426 -0.0031198803
000320 34 87 67 ba 7d dd 85 bb 5d 5f b8 bb 6c 81 9c ba
       -0.00088320975 -0.0040852414 -0.0056266026 -0.0011940426
000330 91 57 48 bc 4b bb 72 bb 3a a0 8f ba 11 30 cd bb
       -0.012227909 -0.0037037905 -0.0010957785 -0.0062618335
000340 be 56 5e bb 27 70 14 ba 9c eb cf 3b 66 af 7e bb
       -0.0033926214 -0.0005662464 0.0063452255 -0.003886187
000350 45 69 4f ba c8 63 83 3c 64 6d 92 bb 66 46 88 ba
       -0.000791211 0.01603879 -0.004468607 -0.0010396957
000360 05 52 c6 3b 01 56 46 ba 56 92 10 39 cd 5b 5c 3b
       0.006052258 -0.0007565916 0.00013787425 0.0033624053
000370 0e 66 c2 ba 4b f0 44 b9 26 38 ff ba 38 79 62 39
       -0.001483144 -0.00018781533 -0.001947169 0.00021598197
000380 5b 88 0d 3a e4 e9 7b 3a b6 24 9e b9 9d b1 ba 39
       0.00053990417 0.00096097426 -0.0003016346 0.00035609017
000390 df a8 e4 3b d4 f7 39 3a 26 ce 15 3a 0a 4f fa 3b
       0.006978139 0.0007094119 0.00057146174 0.0076388167
0003a0 84 bf 32 ba 64 d5 eb 38 2a 02 a0 3a 29 a1 94 b8
       -0.0006818699 0.0001124542 0.0012207676 -7.087208e-05
0003b0 4f 17 b3 39 0b f4 38 bc e2 a5 8a 39 fb af 09 3a
       0.00034158907 -0.011288653 0.00026445003 0.00052523584
0003c0 04 3d 18 bc bb 95 8b 39 d3 a7 f8 39 a0 70 2d bc
       -0.009291891 0.00026623704 0.00047427285 -0.010585934
0003d0 fa 65 39 bb 95 60 14 ba 8a 65 72 bc 7d c4 d4 ba
       -0.0028289543 -0.0005660144 -0.014794717 -0.0016232874
0003e0 ef d2 02 b9 d0 13 bd bc fe e0 e6 3a 6c c4 ba 3a
       -0.00012476345 -0.023080736 0.001761466 0.0014249212
0003f0 da 84 c9 bc dd b0 88 39 5b 97 6c 3a 62 09 e7 bc
       -0.024599481 0.00026071715 0.0009025239 -0.028202716

leye_pose f4 [232, 3]
000000 00 00 00 00 00 00 00 00 00 00 00 00 00 00 00 00
       0.0 0.0 0.0 0.0
000010 00 00 00 00 00 00 00 00 00 00 00 00 00 00 00 00
       0.0 0.0 0.0 0.0
000020 00 00 00 00 00 00 00 00 00 00 00 00 00 00 00 00
       0.0 0.0 0.0 0.0
000030 00 00 00 00 00 00 00 00 00 00 00 00 00 00 00 00
       0.0 0.0 0.0 0.0
000040 00 00 00 00 00 00 00 00 00 00 00 00 00 00 00 00
       0.0 0.0 0.0 0.0
000050 00 00 00 00 00 00 00 00 00 00 00 00 00 00 00 00
       0.0 0.0 0.0 0.0
000060 00 00 00 00 00 00 00 00 00 00 00 00 00 00 00 00
       0.0 0.0 0.0 0.0
000070 00 00 00 00 00 00 00 00 00 00 00 00 00 00 00 00
       0.0 0.0 0.0 0.0
000080 00 00 00 00 00 00 00 00 00 00 00 00 00 00 00 00
       0.0 0.0 0.0 0.0
000090 00 00 00 00 00 00 00 00 00 00 00 00 00 00 00 00
       0.0 0.0 0.0 0.0
0000a0 00 00 00 00 00 00 00 00 00 00 00 00 00 00 00 00
       0.0 0.0 0.0 0.0
0000b0 00 00 00 00 00 00 00 00 00 00 00 00 00 00 00 00
       0.0 0.0 0.0 0.0
0000c0 00 00 00 00 00 00 00 00 00 00 00 00 00 00 00 00
       0.0 0.0 0.0 0.0
0000d0 00 00 00 00 00 00 00 00 00 00 00 00 00 00 00 00
       0.0 0.0 0.0 0.0
0000e0 00 00 00 00 00 00 00 00 00 00 00 00 00 00 00 00
       0.0 0.0 0.0 0.0
0000f0 00 00 00 00 00 00 00 00 00 00 00 00 00 00 00 00
       0.0 0.0 0.0 0.0
000100 00 00 00 00 00 00 00 00 00 00 00 00 00 00 00 00
       0.0 0.0 0.0 0.0
000110 00 00 00 00 00 00 00 00 00 00 00 00 00 00 00 00
       0.0 0.0 0.0 0.0
000120 00 00 00 00 00 00 00 00 00 00 00 00 00 00 00 00
       0.0 0.0 0.0 0.0
000130 00 00 00 00 00 00 00 00 00 00 00 00 00 00 00 00
       0.0 0.0 0.0 0.0
000140 00 00 00 00 00 00 00 00 00 00 00 00 00 00 00 00
       0.0 0.0 0.0 0.0
000150 00 00 00 00 00 00 00 00 00 00 00 00 00 00 00 00
       0.0 0.0 0.0 0.0
000160 00 00 00 00 00 00 00 00 00 00 00 00 00 00 00 00
       0.0 0.0 0.0 0.0
000170 00 00 00 00 00 00 00 00 00 00 00 00 00 00 00 00
       0.0 0.0 0.0 0.0
000180 00 00 00 00 00 00 00 00 00 00 00 00 00 00 00 00
       0.0 0.0 0.0 0.0
000190 00 00 00 00 00 00 00 00 00 00 00 00 00 00 00 00
       0.0 0.0 0.0 0.0
0001a0 00 00 00 00 00 00 00 00 00 00 00 00 00 00 00 00
       0.0 0.0 0.0 0.0
0001b0 00 00 00 00 00 00 00 00 00 00 00 00 00 00 00 00
       0.0 0.0 0.0 0.0
0001c0 00 00 00 00 00 00 00 00 00 00 00 00 00 00 00 00
       0.0 0.0 0.0 0.0
0001d0 00 00 00 00 00 00 00 00 00 00 00 00 00 00 00 00
       0.0 0.0 0.0 0.0
0001e0 00 00 00 00 00 00 00 00 00 00 00 00 00 00 00 00
       0.0 0.0 0.0 0.0
0001f0 00 00 00 00 00 00 00 00 00 00 00 00 00 00 00 00
       0.0 0.0 0.0 0.0
000200 00 00 00 00 00 00 00 00 00 00 00 00 00 00 00 00
       0.0 0.0 0.0 0.0
000210 00 00 00 00 00 00 00 00 00 00 00 00 00 00 00 00
       0.0 0.0 0.0 0.0
000220 00 00 00 00 00 00 00 00 00 00 00 00 00 00 00 00
       0.0 0.0 0.0 0.0
000230 00 00 00 00 00 00 00 00 00 00 00 00 00 00 00 00
       0.0 0.0 0.0 0.0
000240 00 00 00 00 00 00 00 00 00 00 00 00 00 00 00 00
       0.0 0.0 0.0 0.0
000250 00 00 00 00 00 00 00 00 00 00 00 00 00 00 00 00
       0.0 0.0 0.0 0.0
000260 00 00 00 00 00 00 00 00 00 00 00 00 00 00 00 00
       0.0 0.0 0.0 0.0
000270 00 00 00 00 00 00 00 00 00 00 00 00 00 00 00 00
       0.0 0.0 0.0 0.0
000280 00 00 00 00 00 00 00 00 00 00 00 00 00 00 00 00
       0.0 0.0 0.0 0.0
000290 00 00 00 00 00 00 00 00 00 00 00 00 00 00 00 00
       0.0 0.0 0.0 0.0
0002a0 00 00 00 00 00 00 00 00 00 00 00 00 00 00 00 00
       0.0 0.0 0.0 0.0
0002b0 00 00 00 00 00 00 00 00 00 00 00 00 00 00 00 00
       0.0 0.0 0.0 0.0
0002c0 00 00 00 00 00 00 00 00 00 00 00 00 00 00 00 00
       0.0 0.0 0.0 0.0
0002d0 00 00 00 00 00 00 00 00 00 00 00 00 00 00 00 00
       0.0 0.0 0.0 0.0
0002e0 00 00 00 00 00 00 00 00 00 00 00 00 00 00 00 00
       0.0 0.0 0.0 0.0
0002f0 00 00 00 00 00 00 00 00 00 00 00 00 00 00 00 00
       0.0 0.0 0.0 0.0
000300 00 00 00 00 00 00 00 00 00 00 00 00 00 00 00 00
       0.0 0.0 0.0 0.0
000310 00 00 00 00 00 00 00 00 00 00 00 00 00 00 00 00
       0.0 0.0 0.0 0.0
000320 00 00 00 00 00 00 00 00 00 00 00 00 00 00 00 00
       0.0 0.0 0.0 0.0
000330 00 00 00 00 00 00 00 00 00 00 00 00 00 00 00 00
       0.0 0.0 0.0 0.0
000340 00 00 00 00 00 00 00 00 00 00 00 00 00 00 00 00
       0.0 0.0 0.0 0.0
000350 00 00 00 00 00 00 00 00 00 00 00 00 00 00 00 00
       0.0 0.0 0.0 0.0
000360 00 00 00 00 00 00 00 00 00 00 00 00 00 00 00 00
       0.0 0.0 0.0 0.0
000370 00 00 00 00 00 00 00 00 00 00 00 00 00 00 00 00
       0.0 0.0 0.0 0.0
000380 00 00 00 00 00 00 00 00 00 00 00 00 00 00 00 00
       0.0 0.0 0.0 0.0
000390 00 00 00 00 00 00 00 00 00 00 00 00 00 00 00 00
       0.0 0.0 0.0 0.0
0003a0 00 00 00 00 00 00 00 00 00 00 00 00 00 00 00 00
       0.0 0.0 0.0 0.0
0003b0 00 00 00 00 00 00 00 00 00 00 00 00 00 00 00 00
       0.0 0.0 0.0 0.0
0003c0 00 00 00 00 00 00 00 00 00 00 00 00 00 00 00 00
       0.0 0.0 0.0 0.0
0003d0 00 00 00 00 00 00 00 00 00 00 00 00 00 00 00 00
       0.0 0.0 0.0 0.0
0003e0 00 00 00 00 00 00 00 00 00 00 00 00 00 00 00 00
       0.0 0.0 0.0 0.0
0003f0 00 00 00 00 00 00 00 00 00 00 00 00 00 00 00 00
       0.0 0.0 0.0 0.0
