test_dataset/gait_700/20250820_c2_a3_Take1/split_subjects/0/fit-smplx/smplx-params.npz (npz, 111850 bytes, 10 tensors)

betas f4 [224, 10]
-2.0617092 -1.2066793 -0.14393988 0.24445333 -0.3421511 0.08314912 0.032114223 1.0861733
0.002848044 -0.11028147 -2.256479 -1.814613 -0.23975511 -0.5870197 -0.26645494 0.114749
0.15386294 0.9884982 0.32739055 -0.05346653 -2.239199 -1.7593646 -0.35274565 -1.158696
-0.6088871 0.21815053 0.09933017 1.233189 0.3063204 -0.13277552 -2.2016466 -1.4615245
-0.5449898 -1.1016463 -0.76962376 0.31367484 0.09790919 0.98364234 0.3309475 -0.1423166
-2.1175356 -0.96254855 -0.5735243 -0.800231 -0.95200974 0.38157043 -0.053459257 0.8144378
0.4026275 -0.09076523 -2.0890543 -0.7098519 -0.5677915 -0.7197942 -1.0251143 0.3550018
-0.026659252 0.63271505 0.4565028 -0.032502566 -2.1367133 -0.6081619 -0.55170715 -0.8328952
-0.76077116 0.16713597 -0.061582204 0.74407476 0.17605421 -0.038679052 -2.1384852 -0.54668134
-0.3256924 -0.96791744 -0.6527822 -0.17372724 -0.103029795 0.8772806 -0.009642483 0.053766202
-2.1175873 -0.57186526 -0.2530162 -0.9361603 -0.6655322 -0.36120123 -0.10000015 1.039992
-0.039046217 0.039887104 -2.0585394 -0.6403454 -0.24503323 -0.8458105 -0.6476537 -0.40318993
-0.13013561 1.2083769 -0.056813408 -0.017329859 -2.0121205 -0.67519903 -0.17687057 -0.7925853
-0.7009106 -0.42563722 -0.17615373 1.2846264 -0.08301204 0.008277014 -1.9979692 -0.6913267
-0.20073314 -0.7580642 -0.71615356 -0.4360278 -0.13864225 1.3500663 -0.04804105 0.011010565
-1.9973073 -0.75129265 -0.17075808 -0.69286567 -0.77788067 -0.43690333 -0.1632287 1.3634552
-0.109543845 0.0032988065 -1.9789433 -0.81748015 -0.091456294 -0.67717355 -0.82837075 -0.46774733
-0.21329017 1.3147126 -0.23031096 0.0277435 -1.9642345 -0.8924788 -0.0844356 -0.6128609
-0.9014254 -0.43686047 -0.28203407 1.2825379 -0.280705 0.054148376 -1.9654157 -0.7997282
-0.17245956 -0.6737907 -0.8606984 -0.41703844 -0.2503567 1.244624 -0.26127806 0.0483325
-1.9257178 -0.841266 -0.22751625 -0.53502536 -0.89295304 -0.38784394 -0.25487506 1.1215485
-0.17782977 0.073290616 -1.9096304 -0.7863989 -0.28749937 -0.54712456 -0.8514039 -0.41423965
-0.305253 1.1566226 -0.2821702 0.108709894 -1.8966002 -0.7802525 -0.35577 -0.53418046
-0.80187786 -0.3410181 -0.29010335 1.1412685 -0.2849761 0.120601155 -1.8907051 -0.7719124
-0.39535287 -0.47956342 -0.8391266 -0.29026833 -0.29061612 1.0719762 -0.25712404 0.107536435
-1.8749537 -0.76509905 -0.39573938 -0.4973244 -0.782823 -0.2818518 -0.28839383 0.99379057
-0.29499006 0.09134298 -1.8695054 -0.8154986 -0.38775823 -0.42160124 -0.8495136 -0.27853444
-0.27074826 0.9817777 -0.29808354 0.06588438 -1.9123939 -0.8169105 -0.28641316 -0.4364879
-0.8894904 -0.33925965 -0.2535749 0.9246367 -0.29890278 0.083296485 -1.9131511 -0.77710533
-0.29002905 -0.51789075 -0.79606843 -0.34385824 -0.29892737 0.9490185 -0.24474451 0.073769554
-1.890123 -0.7759037 -0.33855826 -0.4732961 -0.8124394 -0.30768082 -0.31328434 0.90192986
-0.1584345 0.07379373 -1.8915111 -0.8037134 -0.371623 -0.38913527 -0.882783 -0.302664
00000000: 0bf3 03c0 7874 9abf fa64 13be f951 7a3e
00000010: 6e2e afbe 164a aa3d 348a 033d ba07 8b3f
00000020: 40a6 3a3b 40db e1bd 276a 10c0 3d45 e8bf
00000030: 5d82 75be ec46 16bf c86c 88be 8601 eb3d
00000040: 3f8e 1d3e 380e 7d3f bc9f a73e b8ff 5abd
00000050: 094f 0fc0 dc32 e1bf 149b b4be 2750 94bf
00000060: 06e0 1bbf da62 5f3e 9e6d cb3d 23d9 9d3f
00000070: 07d6 9c3e 4ef6 07be c7e7 0cc0 3c13 bbbf
00000080: 7484 0bbf bf02 8dbf 1006 45bf fd99 a03e
00000090: 9d84 c83d fccf 7b3f f371 a93e 71bb 11be
000000a0: b485 07c0 9569 76bf 7dd2 12bf f0db 4cbf
000000b0: e9b6 73bf 335d c33e 18f8 5abd ff7e 503f
000000c0: 3125 ce3e 1fe3 b9bd 11b3 05c0 dbb8 35bf
000000d0: c95a 11bf 6f44 38bf f236 83bf ccc2 b53e
000000e0: 8164 dabc 9df9 213f bcba e93e 6921 05bd
000000f0: e9bf 08c0 80b0 1bbf ae3c 0dbf 9f38 55bf
00000100: e6c1 42bf b125 2b3e 9f3d 7cbd af7b 3e3f
00000110: 8e47 343e ed6d 1ebd f1dc 08c0 4ff3 0bbf
00000120: 27c1 a6be 70c9 77bf bc1c 27bf 8ee5 31be
00000130: 4901 d3bd 7695 603f 81fb 1dbc f339 5c3d
00000140: 8d86 07c0 c365 12bf 578b 81be 34a8 6fbf
00000150: 5160 2abf 5eef b8be e1cc ccbd 751e 853f
00000160: edee 1fbd a960 233d 1cbf 03c0 aded 23bf
00000170: fee9 7abe 0987 58bf a2cc 25bf e96e cebe
00000180: 4542 05be 18ac 9a3f 2db5 68bd 59f7 8dbc
00000190: 95c6 00c0 d8d9 2cbf 8f1d 35be dfe6 4abf
000001a0: e16e 33bf 1fed d9be a561 34be a36e a43f
000001b0: 3702 aabd 509c 073c 74bd ffbf c9fa 30bf
000001c0: fd8c 4dbe 7f10 42bf d755 37bf 093f dfbe
000001d0: 3cf8 0dbe f9ce ac3f b1c6 44bd a865 343c
000001e0: c4a7 ffbf b754 40bf 35db 2ebe a55f 31bf
000001f0: 3023 47bf cbb1 dfbe 6d25 27be b385 ae3f
00000200: 8658 e0bd ca30 583b 044e fdbf 6146 51bf
00000210: 704d bbbd 3f5b 2dbf 1b10 54bf 947c efbe
00000220: bd68 5abe 8148 a83f a3d6 6bbe 5646 e33c
00000230: 096c fbbf 7e79 64bf 92ec acbd 74e4 1cbf
00000240: d1c3 66bf 2dac dfbe c566 90be 342a a43f
00000250: 91b8 8fbe b0ca 5d3d be92 fbbf fdba 4cbf
00000260: 3d99 30be 8c7d 2cbf bb56 5cbf 1086 d5be
00000270: c12e 80be d74f 9f3f 3dc6 85be 4df8 453d
00000280: ec7d f6bf 355d 57bf 05fa 68be 6cf7 08bf
00000290: 9298 64bf 7b93 c6be fc7e 82be e78e 8f3f
000002a0: 0219 36be 6419 963d c56e f4bf 7051 49bf
000002b0: 1e33 93be 5b10 0cbf 9bf5 59bf 3817 d4be
000002c0: 1f4a 9cbe 360c 943f 9d78 90be 4ba3 de3d
000002d0: ccc3 f2bf a1be 47bf 7c27 b6be 0dc0 08bf
000002e0: de47 4dbf ed99 aebe 6d88 94be 1615 923f
000002f0: 63e8 91be bdfd f63d a002 f2bf 0d9c 45bf
00000300: b16b cabe 5689 f5be 00d1 56bf 0d9e 94be
00000310: a3cb 94be 8436 893f c3a5 83be 103c dc3d
00000320: 7cfe efbf 88dd 43bf 5a9e cabe 4ea1 febe
00000330: 1767 48bf e14e 90be 5ba8 93be 0f69 7e3f
00000340: f008 97be 0712 bb3d f44b efbf 84c4 50bf
00000350: 3f88 c6be 1edc d7be b979 59bf 119c 8ebe
00000360: 849f 8abe c955 7b3f 689e 98be 64ee 863d
00000370: 53c9 f4bf 0c21 51bf bfa4 92be 587b dfbe
00000380: a5b5 63bf 71b3 adbe 92d4 81be feb4 6c3f
00000390: c909 99be 5997 aa3d 23e2 f4bf 60f0 46bf
000003a0: b07e 94be 7d94 04bf 24cb 4bbf 300e b0be
000003b0: 020d 99be e0f2 723f 4e9e 7abe 7e14 973d
000003c0: 8def f1bf a0a1 46bf 8257 adbe de53 f2be
000003d0: 07fc 4fbf 5788 9dbe ce66 a0be e0e4 663f
000003e0: a73c 22be 2b21 973d 091d f2bf 29c0 4dbf
000003f0: 5f45 bebe bd3c c7be 11fe 61bf c7f6 9abe

global_orient f4 [224, 3]
0.009801102 -2.867287 -0.42524323 -0.011307464 -2.6946838 -0.22933777 -0.021495007 -2.5830574
-0.10790172 -0.044573393 -2.5625753 -0.054374747 -0.049071267 -2.5468829 -0.04502642 -0.06190064
-2.542384 -0.045900274 -0.061412796 -2.5315754 -0.06261056 -0.0591613 -2.5210927 -0.08249677
-0.055159297 -2.5232496 -0.07799072 -0.04225872 -2.530467 -0.07677139 -0.032514915 -2.5464625
-0.07854808 -0.021446954 -2.5555334 -0.08492035 -0.016025236 -2.5782306 -0.102814905 -0.016461253
-2.6204474 -0.12784933 -0.0071589174 -2.6498744 -0.14444354 -0.018377705 -2.6433997 -0.15823129
-0.022954334 -2.644701 -0.16043046 -0.021505805 -2.6618202 -0.16795339 -0.022826944 -2.6737409
-0.16609722 -0.027289098 -2.6808777 -0.16068637 -0.028800908 -2.691352 -0.14557976 -0.024891956
-2.6982598 -0.122059256 -0.025557308 -2.70093 -0.0939012 -0.032151263 -2.7142153 -0.07160358
-0.03872885 -2.6962495 -0.053170305 -0.042800047 -2.6798737 -0.037644435 -0.043212637 -2.6748993
-0.029846894 -0.038388595 -2.6738272 -0.029200513 -0.031943154 -2.6649883 -0.0381831 -0.019082187
-2.660445 -0.05241268 -0.008737111 -2.6518652 -0.06398059 -0.010179502 -2.636966 -0.0779961
-0.0053527136 -2.621452 -0.08924019 -0.00405911 -2.6062064 -0.091247596 -0.014919024 -2.5921848
-0.091434635 -0.0068012965 -2.5859764 -0.09451769 -0.007669309 -2.5750382 -0.103734195 -0.015996186
-2.5543542 -0.10671986 -0.020829797 -2.5422542 -0.10901003 -0.017570136 -2.5327127 -0.114165
-0.013184078 -2.5415967 -0.1194509 0.002127643 -2.5471482 -0.12473607 0.014067856 -2.549987
-0.11979405 0.025828114 -2.551085 -0.120889544 0.030375361 -2.554878 -0.1156515 0.028516153
-2.564629 -0.1207471 0.02998905 -2.5937133 -0.12969986 0.020541437 -2.6223063 -0.13111326
0.020840652 -2.629631 -0.12803757 0.028270701 -2.6329515 -0.124662876 0.025510259 -2.6336257
-0.11301396 0.021135563 -2.6510394 -0.1095341 0.01311536 -2.66276 -0.109714895 0.0073971446
-2.6796007 -0.10754867 0.0032751295 -2.682138 -0.10207202 -0.0031266334 -2.677019 -0.08814582
-0.009603901 -2.6511087 -0.081721194 -0.016927218 -2.6266656 -0.08516041 -0.02837588 -2.608914
-0.08340789 -0.029388957 -2.593379 -0.09135291 -0.030244453 -2.5781825 -0.09729809 -0.03614591
-2.5681038 -0.10947336 -0.016238237 -2.5578396 -0.117813 0.0009863672 -2.5603805 -0.13072395
0.014744956 -2.5472128 -0.13249893 0.016211364 -2.536612 -0.11896864 0.011017694 -2.5271616
-0.10772416 -0.00025985646 -2.5272515 -0.11473395 -0.0074837813 -2.5363948 -0.11109534 -0.011327879
-2.5314245 -0.123493604 -0.029904382 -2.523724 -0.12536424 -0.042484723 -2.5185106 -0.12696576
-0.03875157 -2.515061 -0.11483487 -0.03206805 -2.5284424 -0.12534791 -0.03005687 -2.56601
-0.13971107 -0.01927622 -2.6114028 -0.12672625 -0.0074345353 -2.6478019 -0.08484881 -0.007741893
-2.6701849 -0.052984346 0.015952392 -2.7264879 -0.044561356 0.031134563 -2.7969499 -0.047278695
0.042357564 -2.862556 -0.056320414 0.035751525 -2.9222836 -0.07597308 0.023295585 -2.9786448
-0.07716544 0.009671193 -3.0442305 -0.08614538 -0.00078073976 -3.1114643 -0.09921343 0.008015922
00000000: cd94 203c a181 37c0 7bb9 d9be f142 39bc
00000010: b375 2cc0 85d7 6abe 4c16 b0bc d050 25c0
00000020: 94fb dcbd 9792 36bd 3c01 24c0 0eb8 5ebd
00000030: f4fe 48bd 2100 23c0 a06d 38bd 878b 7dbd
00000040: 6bb6 22c0 ed01 3cbd fc8b 7bbd 5505 22c0
00000050: f739 80bd 1f53 72bd 9559 21c0 11f4 a8bd
00000060: b7ee 61bd ec7c 21c0 99b9 9fbd 7b17 2dbd
00000070: 2cf3 21c0 523a 9dbd 5c2e 05bd 3ef9 22c0
00000080: d1dd a0bd 86b1 afbc dc8d 23c0 b8ea adbd
00000090: 5b47 83bc bb01 25c0 9f90 d2bd c0d9 86bc
000000a0: 69b5 27c0 efea 02be 5a95 eabb 8b97 29c0
000000b0: 02e9 13be d78c 96bc 762d 29c0 6207 22be
000000c0: ba0a bcbc c842 29c0 e247 24be f12c b0bc
000000d0: 435b 2ac0 f9fb 2bbe 92ff babc 921e 2bc0
000000e0: 6415 2abe 638d dfbc 8093 2bc0 f88a 24be
000000f0: e2ef ebbc 1c3f 2cc0 dc12 15be 37ea cbbc
00000100: 4ab0 2cc0 34fa f9bd 8f5d d1bc 0adc 2cc0
00000110: 464f c0bd 0bb1 03bd b4b5 2dc0 e6a4 92bd
00000120: 25a2 1ebd 5a8f 2cc0 1bc9 59bd 1a4f 2fbd
00000130: 0d83 2bc0 0d31 1abd bcff 30bd 8d31 2bc0
00000140: 7981 f4bc 5c3d 1dbd fc1f 2bc0 ea35 efbc
00000150: d3d6 02bd 2b8f 2ac0 e265 1cbd 3f52 9cbc
00000160: bb44 2ac0 aeae 56bd 1a26 0fbc 29b8 29c0
00000170: 4108 83bd edc7 26bc 0dc4 28c0 6bbc 9fbd
00000180: d165 afbb dfc5 27c0 90c3 b6bd 4802 85bb
00000190: 16cc 26c0 05e0 babd ec6e 74bc 5be6 25c0
000001a0: 1542 bbbd 69dd debb a380 25c0 7e92 c1bd
000001b0: d44e fbbb 6dcd 24c0 9872 d4bd 6f0a 83bc
000001c0: 8a7a 23c0 f18f dabd 40a3 aabc 4bb4 22c0
000001d0: a740 dfbd 3fef 8fbc f717 22c0 57cf e9bd
000001e0: 0802 58bc 85a9 22c0 aca2 f4bd ed6f 0b3b
000001f0: 7a04 23c0 a075 ffbd dd7c 663c fd32 23c0
00000200: 9556 f5bd 7b95 d33c fa44 23c0 f094 f7bd
00000210: c0d5 f83c 1f83 23c0 b2da ecbd b59a e93c
00000220: e222 24c0 414a f7bd 99ab f53c 66ff 25c0
00000230: 0ad0 04be 8446 a83c ded3 27c0 8e42 06be
00000240: 04ba aa3c e04b 28c0 481c 03be f597 e73c
00000250: 4782 28c0 404f ffbd e4fa d03c 538d 28c0
00000260: dd73 e7bd 7d24 ad3c a1aa 29c0 6a53 e0bd
00000270: cfe1 563c a96a 2ac0 34b2 e0bd bf63 f23b
00000280: 947e 2bc0 7a42 dcbd 8ea3 563b 26a8 2bc0
00000290: 230b d1bd 34e8 4cbb 4754 2bc0 cc85 b4bd
000002a0: ae59 1dbc c4ab 29c0 715d a7bd f3aa 8abc
000002b0: 4a1b 28c0 9568 aebd 8974 e8bc 72f8 26c0
000002c0: c1d1 aabd 1cc1 f0bc ecf9 25c0 3c17 bbbd
000002d0: 37c3 f7bc f100 25c0 3944 c7bd bc0d 14bd
000002e0: d05b 24c0 9233 e0bd 0d06 85bc a5b3 23c0
000002f0: f147 f1bd fe48 813a 46dd 23c0 80dc 05be
00000300: d494 713c 8905 23c0 cdad 07be b2cd 843c
00000310: da57 22c0 d5a5 f3bd 8f83 343c 04bd 21c0
00000320: 7c9e dcbd 583d 88b9 7dbe 21c0 a2f9 eabd
00000330: 823a f5bb 4b54 22c0 f485 e3bd 9198 39bc
00000340: dc02 22c0 37ea fcbd 09fa f4bc b284 21c0
00000350: 7c5f 00be 7604 2ebd 472f 21c0 5003 02be
00000360: f7b9 1ebd c2f6 20c0 8b2e ebbd ca59 03bd
00000370: 00d2 21c0 345b 00be d339 f6bc 8239 24c0
00000380: 6b10 0fbe 2ae9 9dbc 3921 27c0 87c4 01be
00000390: 679d f3bb 9675 29c0 37c5 adbd b5af fdbb
000003a0: 4fe4 2ac0 1d06 59bd 97ae 823c c77e 2ec0
000003b0: f885 36bd e90d ff3c 3a01 33c0 4ea7 41bd
000003c0: 207f 2d3d 1e34 37c0 3cb0 66bd 3170 123d
000003d0: b206 3bc0 c697 9bbd 62d6 be3c 1ea2 3ec0
000003e0: ea08 9ebd ec73 1e3c acd4 42c0 fd6c b0bd
000003f0: 8faa 4cba 3b22 47c0 6930 cbbd 3755 033c

body_pose f4 [224, 63]
0.19951206 0.08370666 -0.11978028 -0.25150305 0.08619035 0.14168361 0.4300426 0.012657886
-0.06957774 0.19372247 -0.12904574 0.20300186 0.40751246 0.06384512 -0.06083292 0.12151453
0.012069006 -0.006436769 -0.24398293 0.088774756 0.0004965749 0.09638333 -0.06229839 -0.043285757
0.009271947 -0.00689215 -0.015006381 1.4634502e-05 -1.4624947e-05 -1.5172351e-05 -1.6732996e-05 -1.6143644e-05
-1.5370744e-05 0.08943746 0.047972865 0.09635599 0.033695962 -0.33387348 -0.24691087 0.09286666
0.44354707 0.1549557 0.08493618 0.026270196 0.09849162 -0.074909955 -0.20206898 -0.6360511
-0.1791985 0.14144492 0.8785701 -0.010557063 -0.6181945 0.026077159 -0.16762024 -0.002852243
0.009830725 0.026173485 0.0690677 0.14341983 -0.13959357 -0.33754584 -0.33133453 0.045636978
0.057201765 -0.17263131 -0.35076743 0.0012511208 0.021169296 0.33324504 -0.05114188 -0.07638805
0.17071734 -0.20722075 0.23833488 0.35207337 0.0023668208 0.005631939 -0.027685434 -0.090051815
-0.028310321 -0.24790262 -0.0626323 -0.028235704 0.05397069 -0.12173213 -0.020671483 0.022465289
-0.07896571 0.019017175 -1.631627e-05 -1.5126739e-05 1.6010179e-05 -1.6941309e-05 -1.593312e-05 1.550432e-05
0.21754174 0.046149213 0.08902985 0.008765864 -0.20449334 -0.30424795 0.040883314 0.27565163
0.27354997 0.115804404 0.0400801 0.04698069 0.0007617221 -0.18779977 -0.6211833 -0.100084476
0.07105793 0.7854473 0.008606082 -0.6730921 -0.0236902 -0.14043759 0.0257435 0.016129313
0.08523 0.16066399 0.14250058 -0.00664933 -0.27563012 -0.34362504 -0.05966951 0.036971338
-0.20581137 -0.41388187 -0.04846826 -0.03347038 0.24490061 -0.0906932 -0.111318044 0.3098399
-0.2728051 0.25432545 0.29481515 -0.05283468 0.031130927 -0.08106273 -0.12696701 -0.01789341
-0.33822253 -0.04296565 0.0916362 0.088035576 -0.14012215 0.0077594183 0.045089062 -0.10087249
0.03659327 1.462485e-05 -1.5600448e-05 1.6140408e-05 -1.6285463e-05 1.4547379e-05 1.5058384e-05 0.29733953
0.032835547 0.07555204 0.015329834 -0.19824386 -0.30440053 -0.018047731 0.1552691 0.3038995
0.09788484 0.06522706 0.0060104746 0.009636143 -0.19367935 -0.656375 -0.08842085 0.031272467
0.75565404 0.00442207 -0.69376177 -0.033489548 -0.09038583 0.051552627 0.0009649017 0.11963212
0.25349554 0.14786115 0.069471925 -0.2843824 -0.32760307 -0.023579795 -0.09173174 -0.18678777
-0.40653136 -0.048111852 -0.02780248 0.1736309 -0.13720758 -0.11599866 0.31851348 -0.2389981
0.15100244 0.2591029 -0.0018380377 0.0022305597 -0.07891505 -0.12130579 -0.026621196 -0.25287277
0.09198779 0.14775734 0.101220384 -0.13364933 -0.029042548 0.07258811 -0.07290672 -0.006441856
1.4871107e-05 -1.5751159e-05 1.5904105e-05 -1.6172602e-05 1.4476977e-05 -1.5854386e-05 0.29398298 0.028413266
0.07166034 0.013489161 -0.16852288 -0.28859004 0.0049885875 0.0929943 0.28573334 0.109671764
0.08460967 0.03786989 -0.014839237 -0.21461463 -0.7022315 -0.09999792 0.025939422 0.76253897
-0.01017422 -0.6993937 0.0015791073 -0.10394433 0.14085929 0.07479279 0.15939818 0.30724907
0.17059498 0.03986134 -0.28439692 -0.3431528 -0.006438636 -0.12814319 -0.1990801 -0.36853257
00000000: e44c 4c3e 666e ab3d 5d4f f5bd 02c5 80be
00000010: 9184 b03d 8215 113e 8b2e dc3e 0663 4f3c
00000020: c67e 8ebd 2f5f 463e 9124 04be b8df 4f3e
00000030: 79a5 d03e 3bc1 823d f12b 79bd 9cdc f83d
00000040: 15bd 453c 88eb d2bb a9d6 79be 8acf b53d
00000050: 942c 023a a064 c53d 992c 7fbd 684c 31bd
00000060: 5de9 173c 8bd7 e1bb 53dd 75bc b586 7537
00000070: ab5d 75b7 c08c 7eb7 d65d 8cb7 366c 87b7
00000080: 6cf0 80b7 fd2a b73d 327f 443d 4a56 c53d
00000090: c704 0a3d 77f1 aabe 34d6 7cbe e030 be3d
000000a0: 9a18 e33e b5ac 1e3e 05f3 ad3d 9834 d73c
000000b0: f9b5 c93d 646a 99bd 2ceb 4ebe 3fd4 22bf
000000c0: d07f 37be f0d6 103e f8e9 603f 88f7 2cbc
000000d0: ff41 1ebf c49f d53c a4a4 2bbe b2ec 3abb
000000e0: 0d11 213c c769 d63c 5e73 8d3d a6dc 123e
000000f0: 9ef1 0ebe cfd2 acbe aea4 a9be d7ed 3a3d
00000100: 664c 6a3d 43c6 30be ca97 b3be a6fc a33a
00000110: 3b6b ad3c 189f aa3e 267a 51bd 5771 9cbd
00000120: 87d0 2e3e ad31 54be 0f0e 743e f642 b43e
00000130: aa1c 1b3b 218c b83b 90cc e2bc 166d b8bd
00000140: 0ceb e7bc 2fda 7dbe 5d45 80bd 904e e7bc
00000150: 5f10 5d3d b24e f9bd 3e57 a9bc 2009 b83c
00000160: c6b8 a1bd e8c9 9b3c ecde 88b7 d9c8 7db7
00000170: 994d 8637 2f1d 8eb7 1da8 85b7 460f 8237
00000180: 43c3 5e3e f506 3d3d 4855 b63d b39e 0f3c
00000190: b466 51be 63c6 9bbe 4375 273d 3622 8d3e
000001a0: be0e 8c3e dc2a ed3d 082b 243d d36e 403d
000001b0: 4eae 473a 954e 40be de05 1fbf 17f9 ccbd
000001c0: d286 913d 1313 493f 8600 0d3c c44f 2cbf
000001d0: f311 c2bc dfce 0fbe 08e4 d23c 9f21 843c
000001e0: 118d ae3d 1a85 243e aceb 113e 9fe2 d9bb
000001f0: 641f 8dbe 9fef afbe 0468 74bd 426f 173d
00000200: 37c0 52be 53e8 d3be a786 46bd 3d18 09bd
00000210: 3ac7 7a3e 5bbd b9bd b7fa e3bd 56a3 9e3e
00000220: 1cad 8bbe f236 823e 03f2 963e 2d69 58bd
00000230: 4906 ff3c 3704 a6bd a403 02be 3395 92bc
00000240: 812b adbe c0fc 2fbd c3ab bb3d ff4b b43d
00000250: 2e7c 0fbe b842 fe3b 4faf 383d 3c96 cebd
00000260: d3e2 153d 415d 7537 b5dd 82b7 4365 8737
00000270: c49c 88b7 8410 7437 44a3 7c37 e33c 983e
00000280: 917e 063d 07bb 9a3d fc29 7b3c 7000 4bbe
00000290: 63da 9bbe d6d8 93bc ddfe 1e3e b798 9b3e
000002a0: d977 c83d c495 853d 84f3 c43b eae0 1d3c
000002b0: e153 46be 3108 28bf fe15 b5bd 8f17 003d
000002c0: 8b72 413f 03e7 903b 5f9a 31bf 562c 09bd
000002d0: 351c b9bd d928 533d 75f1 7c3a af01 f53d
000002e0: 2bca 813e ea68 173e 4c47 8e3d 929a 91be
000002f0: 97bb a7be 6a2a c1bc dadd bbbd 4b45 3fbe
00000300: e124 d0be ef10 45bd 07c2 e3bc 4ccc 313e
00000310: 2580 0cbe b590 edbd 3314 a33e ebbb 74be
00000320: 62a0 1a3e 23a9 843e 50ea f0ba 952e 123b
00000330: 379e a1bd 2c6f f8bd b214 dabc 8a78 81be
00000340: 1864 bc3d b34d 173e a24c cf3d 5fdb 08be
00000350: a3ea edbc 13a9 943d 1e50 95bd 3416 d3bb
00000360: eb7e 7937 5b21 84b7 ce69 8537 66aa 87b7
00000370: 25e2 7237 09ff 84b7 f084 963e f0c2 e83c
00000380: a8c2 923d a401 5d3c 4391 2cbe 13c2 93be
00000390: 4e77 a33b cc73 be3d a44b 923e 979b e03d
000003a0: d647 ad3d 751d 1b3d 4520 73bc f0c3 5bbe
000003b0: 72c5 33bf b6cb ccbd e97e d43c c135 433f
000003c0: c6b1 26bc 770b 33bf 0cfa ce3a c4e0 d4bd
000003d0: 6b3d 103e f62c 993d 4739 233e c04f 9d3e
000003e0: 73b0 2e3e a545 233d 799c 91be b9b1 afbe
000003f0: 32fb d2bb f837 03be a7db 4bbe 4db0 bcbe

transl f4 [224, 3]
0.556021 1.4951447 1.5789477 0.5409054 1.4819614 1.5514076 0.53540766 1.4788289
1.5213094 0.52707034 1.476108 1.4911714 0.51815367 1.4772081 1.464297 0.5083794
1.4781446 1.4353547 0.49871552 1.480557 1.406842 0.48956567 1.4844671 1.3802983
0.47940207 1.4848429 1.353372 0.46896735 1.4869325 1.3275275 0.45901778 1.4894574
1.3043715 0.44821084 1.4909215 1.2826219 0.43719316 1.4927591 1.2615021 0.4259907
1.4945804 1.2409875 0.4146404 1.495348 1.2208116 0.40331256 1.4939779 1.2002407
0.3922699 1.4906875 1.178911 0.3805055 1.4854981 1.1569976 0.3680309 1.4803876
1.1332488 0.35447228 1.4763017 1.107067 0.34034345 1.4728999 1.07976 0.32549253
1.4717062 1.0508811 0.30969173 1.47113 1.0201418 0.29483154 1.4741002 0.98825294
0.2796566 1.4789567 0.9576092 0.26632693 1.4837593 0.9299416 0.25533435 1.4871314
0.9033688 0.2462291 1.4884355 0.8769935 0.23858352 1.4913069 0.85135263 0.23114526
1.49348 0.82706326 0.22445764 1.496003 0.8023496 0.21876115 1.4973414 0.7779893
0.21269651 1.4981906 0.7533338 0.20672235 1.4990761 0.72775936 0.20019197 1.4974623
0.70000166 0.19172095 1.4952444 0.6705645 0.18216705 1.4918902 0.63878673 0.1720811
1.4869887 0.60490394 0.16183557 1.4837837 0.56912374 0.15253666 1.4830538 0.5335602
0.14394912 1.4843218 0.49972743 0.13529375 1.4861722 0.46751866 0.12696435 1.4883769
0.43738472 0.11842614 1.490883 0.41031808 0.11053178 1.492813 0.38658345 0.10265539
1.4937711 0.3641168 0.09429382 1.4945474 0.34211156 0.08519348 1.4933423 0.32020423
0.07469583 1.4918973 0.29892707 0.0629455 1.4903362 0.2777214 0.051091924 1.4883131
0.2546131 0.039061226 1.4847702 0.22972299 0.025902191 1.4806439 0.20367305 0.010177962
1.4768337 0.17660807 -0.0076526343 1.4736261 0.14782631 -0.026450854 1.4716324 0.116931744
-0.044186622 1.473533 0.08725245 -0.060330626 1.4782251 0.06125819 -0.073512055 1.4814696
0.036692206 -0.084945135 1.4844024 0.014027782 -0.09480496 1.4880881 -0.0067276116 -0.10305323
1.4921615 -0.026085265 -0.109618895 1.4954948 -0.045183867 -0.11644537 1.4994717 -0.064208195
-0.122469306 1.500833 -0.08411784 -0.12889716 1.5019709 -0.10567635 -0.1356456 1.5017059
-0.12840457 -0.14223023 1.4999354 -0.15166268 -0.15042388 1.496942 -0.17761159 -0.15951353
1.4931228 -0.20455301 -0.16963099 1.4887959 -0.23274565 -0.18070984 1.4842305 -0.2626782
-0.1902676 1.4813992 -0.29317108 -0.19775975 1.4827386 -0.32209274 -0.20464155 1.485016
-0.3516536 -0.21144657 1.48926 -0.37893587 -0.21720138 1.4916581 -0.4015055 -0.22138949
1.492971 -0.41980892 -0.22453724 1.4937513 -0.43660617 -0.22798285 1.4940121 -0.45452186
-0.23244165 1.4945548 -0.47086793 -0.23741387 1.4955858 -0.48514935 -0.24301782 1.496573
-0.49992624 -0.24890001 1.4982057 -0.51379764 -0.25465545 1.499166 -0.52787584 -0.2607802
00000000: 6457 0e3f e760 bf3f f51a ca3f c778 0a3f
00000010: e9b0 bd3f 8694 c63f 7a10 093f 444a bd3f
00000020: 44ba c23f 15ee 063f 1bf1 bc3f b4de be3f
00000030: b8a5 043f 2815 bd3f 166e bb3f 2725 023f
00000040: d833 bd3f b4b9 b73f a457 ff3e e482 bd3f
00000050: 6613 b43f 5aa8 fa3e 0503 be3f 9dad b03f
00000060: 3074 f53e 550f be3f 4b3b ad3f 7d1c f03e
00000070: ce53 be3f 6cec a93f 6104 eb3e 8aa6 be3f
00000080: a5f5 a63f e47b e53e 84d6 be3f f42c a43f
00000090: c8d7 df3e bb12 bf3f e778 a13f 741b da3e
000000a0: 694e bf3f aed8 9e3f bf4b d43e 9067 bf3f
000000b0: 8e43 9c3f fc7e ce3e ab3a bf3f 7da1 993f
000000c0: 9ad7 c83e d9ce be3f 8ee6 963f 9ed1 c23e
000000d0: cd24 be3f 7f18 943f 8c6e bc3e 577d bd3f
000000e0: 4c0e 913f 647d b53e 74f7 bc3f 5fb4 8d3f
000000f0: 7f41 ae3e fc87 bc3f 9335 8a3f f5a6 a63e
00000100: de60 bc3f 4683 863f ea8f 9e3e fd4d bc3f
00000110: 0294 823f 29f4 963e 51af bc3f 25fe 7c3f
00000120: 262f 8f3e 744e bd3f e025 753f 015c 883e
00000130: d3eb bd3f a710 6e3f 2fbb 823e 525a be3f
00000140: 2d43 673f 7b23 7c3e 0e85 be3f a582 603f
00000150: 3d4f 743e 25e3 be3f 3ff2 593f 58b1 6c3e
00000160: 5a2a bf3f 6bba 533f 39d8 653e 077d bf3f
00000170: c966 4d3f ec02 603e e2a8 bf3f 4f2a 473f
00000180: 1dcd 593e b6c4 bf3f 7cda 403f 06af 533e
00000190: bae1 bf3f 704e 3a3f 20ff 4c3e d8ac bf3f
000001a0: 4f33 333f 7f52 443e 2b64 bf3f 1daa 2b3f
000001b0: 008a 3a3e 42f6 be3f 8787 233f 0736 303e
000001c0: a555 be3f fcda 1a3f 39b8 253e a0ec bd3f
000001d0: 18b2 113f 9232 1c3e b5d4 bd3f 6797 083f
000001e0: 6667 133e 42fe bd3f 46dc ff3e 728a 0a3e
000001f0: e43a be3f 9b5e ef3e f102 023e 2283 be3f
00000200: e4f0 df3e 6789 f23d 41d5 be3f 3615 d23e
00000210: 7c5e e23d 7f14 bf3f 44ee c53e fd3c d23d
00000220: e433 bf3f 846d ba3e 1e1d c13d 544d bf3f
00000230: 3f29 af3e eb79 ae3d d725 bf3f cff1 a33e
00000240: 21fa 983d 7ef6 be3f f80c 993e 92e9 803d
00000250: 56c3 be3f 8031 8e3e c445 513d 0b81 be3f
00000260: a65c 823e aafe 1f3d f30c be3f 813c 6b3e
00000270: d530 d43c bd85 bd3f ab8f 503e 77c1 263c
00000280: e308 bd3f bfd8 343e f3c2 fabb c89f bc3f
00000290: c85f 173e 76af d8bc 735e bc3f e979 ef3d
000002a0: 08fd 34bd bb9c bc3f 6ab1 b23d 3f1d 77bd
000002b0: 7b36 bd3f dee9 7a3d 7d8d 96bd cca0 bd3f
000002c0: 914a 163d b7f7 adbd e600 be3f c8d4 653c
000002d0: 1a29 c2bd ac79 be3f 4c73 dcbb 920d d3bd
000002e0: 26ff be3f c4b0 d5bc df7f e0bd 606c bf3f
000002f0: b812 39bd e97a eebd b0ee bf3f 967f 83bd
00000300: 30d1 fabd 4c1b c03f f945 acbd 9efd 03be
00000310: 9540 c03f d86c d8bd aee6 0abe e637 c03f
00000320: 7d7c 03be cda4 11be e2fd bf3f 764d 1bbe
00000330: b808 1abe cc9b bf3f d0df 35be 8457 23be
00000340: a61e bf3f 5876 51be bfb3 2dbe dd90 be3f
00000350: e054 6ebe 000c 39be 44fb bd3f c27d 86be
00000360: 82d5 42be 7d9e bd3f 851a 96be 8881 4abe
00000370: 61ca bd3f 57e9 a4be 8e8d 51be 0115 be3f
00000380: f10b b4be 7385 58be 12a0 be3f e203 c2be
00000390: 0a6a 5ebe a7ee be3f 2192 cdbe edb3 62be
000003a0: ac19 bf3f 32f1 d6be 17ed 65be 3e33 bf3f
000003b0: d88a dfbe 5674 69be ca3b bf3f 17b7 e8be
000003c0: 2f05 6ebe 924d bf3f 9a15 f1be 9f1c 73be
000003d0: 5b6f bf3f 7f65 f8be aad9 78be b48f bf3f
000003e0: 55f6 ffbe a5df 7ebe 34c5 bf3f 3e88 03bf
000003f0: 3362 82be ace4 bf3f df22 07bf fb84 85be

left_hand_pose f4 [224, 12]
0.08035224 -0.023058785 0.31156328 -0.1886887 0.42240053 -0.36201885 0.53459823 -0.08531593
-0.29868892 -0.60684025 0.8084537 -0.933392 0.09554053 -0.1137028 0.3515823 -0.277683
0.4894819 -0.2258072 0.5790851 -0.23353659 -0.25818768 -0.7635041 0.61631256 -1.087781
0.104786314 -0.09970965 0.23934388 -0.57748157 0.8116637 -0.0007549338 0.4372581 -0.2478228
-0.20337562 -0.82522076 0.45155722 -0.9711023 0.0869004 -0.1761645 0.17048487 -0.8997448
1.0175596 0.3191684 0.39936775 -0.39934728 -0.51251554 -0.9615797 0.26174915 -1.3402303
-0.050897058 -0.2300952 0.20482583 -0.8775696 1.1430185 0.003965387 0.4756334 -0.79850656
-0.5424087 -1.3985102 0.2091105 -2.3134642 0.042753022 -0.12352615 0.21380274 -0.73726255
0.91606873 0.25987417 0.37384805 -0.38518664 -0.5583895 -0.97864234 0.26841834 -1.4191668
0.018108323 -0.07166378 0.21999162 -0.81874514 0.9904278 0.20928012 0.42513242 -0.44217587
-0.7193284 -1.1014876 0.5674161 -1.5454488 0.07274516 -0.0212848 0.17300048 -0.6089537
0.6708878 0.07704368 0.388145 -0.109817885 -0.8326896 -0.74127597 0.63091063 -1.0637237
0.06390775 0.063725 0.24806695 -0.5150386 0.61720467 -0.14616045 0.4068105 -0.15795505
-0.70140386 -0.781267 0.6842529 -1.565811 0.063679464 -0.0035606713 0.17634057 -0.6117969
0.62647617 -0.01976691 0.47564325 -0.13811614 -0.74529755 -0.8979033 0.74446166 -1.3817594
0.047827397 0.05198659 0.2797874 -0.58327323 0.63765514 -0.19709566 0.62209135 -0.34760034
-0.6931251 -1.0927364 0.6465898 -1.7710538 0.040101614 0.018893952 0.26579797 -0.60889834
0.68817055 -0.10725327 0.5765532 -0.42108226 -0.6545703 -1.10664 0.60580266 -1.7703478
0.059964724 -0.055000924 0.12652132 -0.87497944 0.90869385 0.12857041 0.5781872 -0.37248975
-0.46739143 -1.1164025 0.50097775 -1.3870519 0.12302421 0.4059165 0.20400524 -0.7145516
0.5532839 -0.38107133 0.72137487 -0.09745771 -0.71640706 -1.1531938 0.60456634 -1.2434869
-0.20047055 0.16222286 -0.15936965 -1.1232337 1.7608881 -0.57583433 0.011086781 -0.6273061
-0.03408013 -1.3164269 0.6432001 -2.2955203 0.041944377 -0.0075495015 0.13034122 -0.9507933
0.93847114 -0.005890984 0.5571653 -0.37862736 -0.23347722 -1.1195214 0.530297 -1.7437365
0.13999121 -0.13090368 0.3117272 -0.8912929 0.9544098 -0.0501697 0.66804427 -0.5013603
-0.44579974 -1.2482685 0.5215547 -1.9165123 0.31315014 -0.002042349 0.326603 -0.4343956
0.4204478 -0.39293003 0.96185553 -0.05124708 -0.96575063 -0.903232 0.96716446 -0.78303045
0.3167265 0.1742547 0.44361928 -0.25003555 0.21098346 -0.5486989 0.9385647 -0.23146546
-0.74768025 -1.0544409 0.8441684 -1.5669689 0.29367387 0.045509275 0.442683 -0.57383066
0.7249942 -0.33178186 0.99924153 -0.6306098 -0.4529477 -1.3382828 0.983163 -1.8663827
0.2815902 -0.04543239 0.39529154 -0.6215206 0.6244054 -0.1618507 1.2198337 -0.73273456
-0.6958123 -1.5076752 0.8365129 -1.7926251 0.21674697 0.14545242 0.17027321 -0.5937204
00000000: b78f a43d c7e5 bcbc 3985 9f3e 9c37 41be
00000010: e244 d83e 895a b9be 6edb 083f 1eba aebd
00000020: c1ed 98be e259 1bbf d2f6 4e3f c7f2 6ebf
00000030: c1aa c33d 03dd e8bd 9802 b43e 772c 8ebe
00000040: 5f9d fa3e 013a 67be ec3e 143f 3724 6fbe
00000050: 2d31 84be 0175 43bf a9c6 1d3f 683c 8bbf
00000060: 359a d63d 9334 ccbd 9016 753e d5d5 13bf
00000070: 31c9 4f3f c0e6 45ba 4be0 df3e 43c5 7dbe
00000080: b341 50be ab41 53bf 8232 e73e 299a 78bf
00000090: d6f8 b13d 7764 34be 9693 2e3e ad55 66bf
000000a0: 653f 823f 0a6a a33e ee79 cc3e 3f77 ccbe
000000b0: 3834 03bf 162a 76bf fc03 863e ab8c abbf
000000c0: 6f79 50bd 139e 6bbe ddbd 513e 67a8 60bf
000000d0: 6e4e 923f 14f0 813b 3986 f33e ed6a 4cbf
000000e0: 4cdb 0abf 6202 b3bf 1021 563e cc0f 14c0
000000f0: cb1d 2f3d 47fb fcbd 1bef 5a3e 3dbd 3cbf
00000100: 7b83 6a3f 3a0e 853e 0369 bf3e 2f37 c5be
00000110: 9df2 0ebf 4e88 7abf 216e 893e 42a7 b5bf
00000120: e857 943c 76c4 92bd 7c45 613e 4899 51bf
00000130: ad8c 7d3f 874d 563e f5aa d93e e064 e2be
00000140: e825 38bf 8cfd 8cbf 2e42 113f 44d1 c5bf
00000150: 6afb 943d 765d aebc 0a27 313e 64e4 1bbf
00000160: 4ebf 2b3f 14c9 9d3d f1ba c63e 33e8 e0bd
00000170: 252b 55bf 43c4 3dbf 5c83 213f 1928 88bf
00000180: 11e2 823d 4182 823d 4305 7e3e 92d9 03bf
00000190: 2001 1e3f 16ab 15be 7749 d03e f8be 21be
000001a0: 348f 33bf 1d01 48bf 332b 2f3f 7f6c c8bf
000001b0: 616a 823d 275a 69bb 9f92 343e b99e 1cbf
000001c0: be60 203f 37ee a1bc 8387 f33e 516e 0dbe
000001d0: d2cb 3ebf fedc 65bf 0a95 3e3f 7edd b0bf
000001e0: a9e6 433d e4ef 543d 4b40 8f3e 6551 15bf
000001f0: 5e3d 233f 72d3 49be 6141 1f3f acf8 b1be
00000200: a670 31bf c9de 8bbf e986 253f e4b1 e2bf
00000210: 9741 243d 7dc7 9a3c ac16 883e c3e0 1bbf
00000220: f22b 303f 9aa7 dbbd fe98 133f 1898 d7be
00000230: eb91 27bf 61a6 8dbf e215 1b3f c29a e2bf
00000240: 929d 753d a648 61bd ce8e 013e a7fe 5fbf
00000250: 29a0 683f f6a7 033e 1404 143f fab6 bebe
00000260: ee4d efbe 47e6 8ebf 1440 003f eb8a b1bf
00000270: 1ef4 fb3d 4ad4 cf3e c0e6 503e dbec 36bf
00000280: 03a4 0d3f c81b c3be 06ac 383f e897 c7bd
00000290: 7466 37bf db9b 93bf dcc4 1a3f 942a 9fbf
000002a0: 2748 4dbe c01d 263e cc31 23be 1fc6 8fbf
000002b0: c864 e13f e169 13bf 54a5 353c 2297 20bf
000002c0: 9b97 0bbd ad80 a8bf c3a8 243f cee9 12c0
000002d0: decd 2b3d cf61 f7bb 2b78 053e 3167 73bf
000002e0: a53f 703f 2809 c1bb 63a2 0e3f 72db c1be
000002f0: a714 6fbe 7a4c 8fbf 8bc1 073f c232 dfbf
00000300: db59 0f3e 9d0b 06be b59a 9f3e c62b 64bf
00000310: 3354 743f be7e 4dbd f304 2b3f 2659 00bf
00000320: dd3f e4be 43c7 9fbf 9c84 053f 4650 f5bf
00000330: 3755 a03e eed8 05bb 8238 a73e 1a69 debe
00000340: ef44 d73e 202e c9be 2a3c 763f 75e8 51bd
00000350: 6f3b 77bf 363a 67bf 1798 773f af74 48bf
00000360: fa29 a23e d36f 323e 1122 e33e a904 80be
00000370: 0c0c 583e 8877 0cbf c745 703f 4805 6dbe
00000380: f967 3fbf ebf7 86bf 6c1b 583f 7092 c8bf
00000390: 6c5c 963e ef67 3a3d 59a7 e23e 91e6 12bf
000003a0: 3899 393f 50df a9be 4bce 7f3f a56f 21bf
000003b0: c3e8 e7be da4c abbf 92b0 7b3f a1e5 eebf
000003c0: 972c 903e 5017 3abd a763 ca3e f91b 1fbf
000003d0: 08d9 1f3f 31bc 25be 8323 9c3f 7e94 3bbf
000003e0: c120 32bf 80fb c0bf b625 563f bd74 e5bf
000003f0: ebf2 5d3e 7bf1 143e 1a5c 2e3e 0ffe 17bf

right_hand_pose f4 [224, 12]
-0.09371051 -0.48021874 0.0058362167 -1.4352632 1.3109941 0.8946641 0.6764757 -0.98333794
-0.6590788 -1.1999875 1.3150516 -1.9383892 -0.11478734 -0.58602124 -0.013193921 -1.5380397
1.3352851 0.5570585 0.6504031 -0.7963911 -0.6898377 -1.3628963 1.250424 -2.7740064
-0.041558683 -0.4108559 0.10261733 -1.2984425 0.95163935 0.6483928 0.73579156 -0.83219314
-1.3306487 -1.4622462 0.7919869 -2.2844553 -0.0043591447 -0.30318275 0.15705314 -1.1110219
0.7260514 0.214899 0.9152582 -0.65519994 -1.2224474 -1.4586421 1.068254 -2.2603245
-0.021929333 -0.28714156 0.08632386 -1.0745314 0.62448543 0.23769827 0.9576855 -0.64687306
-1.4253987 -1.3701445 1.0689454 -2.3251808 -0.16425532 -0.044215485 -0.062944256 -1.010727
0.4562645 -0.03310119 1.0305667 -0.6963838 -1.7191827 -1.6181937 1.1328589 -2.9675698
-0.077742256 0.053351965 0.028432835 -0.90057826 0.36117303 0.19430093 0.91750413 -0.48253474
-1.422142 -1.0416139 1.2761768 -2.0078037 -0.13951683 -0.1344079 0.015705582 -1.0027089
0.7147415 0.3105296 0.7350844 -0.71228004 -1.2971846 -1.4150621 0.7438995 -2.3819373
-0.19836862 0.108596265 0.018780988 -0.9162634 0.62501127 0.055441502 0.6494213 -0.6130954
-1.2552308 -1.4590487 0.68701756 -2.6263268 -0.19839834 0.041178267 -0.08389964 -0.9380398
0.5536886 0.2728555 0.7777156 -0.57343 -1.7364943 -1.3629827 0.8125215 -2.0287514
-0.25364384 0.2154437 -0.10264069 -0.86065733 0.53483546 0.07936401 0.6057921 -0.54247516
-1.714277 -1.4406899 0.74065477 -2.3897252 -0.24643743 0.07721606 -0.08714529 -0.7989503
0.5148987 0.07147923 0.68817735 -0.49863905 -1.4385087 -1.2207634 1.0377975 -2.186522
-0.2338604 0.16056865 -0.07203557 -0.7083932 0.39411902 0.04118501 0.7017184 -0.41092196
-1.4775612 -1.1927361 0.8069221 -2.019295 -0.2131662 0.29603592 -0.10674937 -0.7175872
0.3335233 -0.026417173 0.74283975 -0.19648482 -1.3976328 -1.0184418 0.8455855 -1.6626648
-0.23191154 0.28840634 -0.03659754 -0.6758174 0.30848846 -0.09414199 0.7616971 -0.30780438
-1.2792081 -1.0643846 0.80784965 -1.8211505 -0.26193884 0.4616459 -0.055636365 -0.63055515
0.2890301 -0.06262543 0.6637168 -0.25729087 -1.4943306 -1.1060876 0.7282278 -1.8188853
-0.281931 0.50941277 -0.053724203 -0.6495121 0.33313617 -0.03244915 0.63958716 -0.24405344
-1.3049355 -1.0062829 0.756209 -1.6786072 -0.2559263 0.5093538 -0.043558713 -0.51202214
0.22170568 -0.099863976 0.5774492 -0.09403408 -1.2440405 -0.8477034 0.8132323 -1.3142765
-0.32570484 0.6278246 -0.09140448 -0.59067684 0.3623945 -0.12707563 0.51246816 -0.14311671
-1.3363333 -1.0005997 0.7519299 -1.5706891 -0.3406743 0.6498013 -0.099994235 -0.5472046
0.34703565 -0.13234663 0.5296825 -0.12744352 -1.2781044 -0.94624484 0.75997865 -1.4271779
-0.3256652 0.64515585 -0.07719933 -0.5091999 0.29922304 -0.08725427 0.5290725 -0.053234655
-1.0972933 -0.7713186 0.7865541 -1.0915513 -0.3047913 0.6246255 -0.042274125 -0.53548676
00000000: 4ceb bfbd 3bdf f5be bc3d bf3b b4b6 b7bf
00000010: a8ce a73f b508 653f 832d 2d3f 09bc 7bbf
00000020: 63b9 28bf 3199 99bf 9c53 a83f 231d f8bf
00000030: a015 ebbd 7d05 16bf 512b 58bc 7cde c4bf
00000040: 9fea aa3f 639b 0e3f d180 263f 4ae0 4bbf
00000050: 3499 30bf 6373 aebf e50d a03f 5289 31c0
00000060: 7039 2abd b45b d2be 0929 d23d 5d33 a6bf
00000070: a39e 733f 12fd 253f d65c 3c3f 9c0a 55bf
00000080: b252 aabf e22a bbbf a7bf 4a3f 8434 12c0
00000090: 28d7 8ebb c53a 9bbe 8ad2 203e f735 8ebf
000000a0: 81de 393f 7c0e 5c3e 5d4e 6a3f 2fbb 27bf
000000b0: 2879 9cbf c9b4 babf 8cbc 883f 28a9 10c0
000000c0: 25a5 b3bc 3804 93be 90ca b03d 3f8a 89bf
000000d0: 47de 1f3f 2d67 733e e02a 753f 7999 25bf
000000e0: 7773 b6bf e560 afbf 34d3 883f c3cf 14c0
000000f0: 8c32 28be 4c1b 35bd ebe8 80bd 815f 81bf
00000100: 809b e93e 1d95 07bd 9ce9 833f 3546 32bf
00000110: 2e0e dcbf f920 cfbf 8501 913f aaec 3dc0
00000120: 5537 9fbd 9787 5a3d faeb e83c 4c8c 66bf
00000130: aceb b83e d3f6 463e 8de1 6a3f cb0e f7be
00000140: c008 b6bf 9b53 85bf c359 a33f db7f 00c0
00000150: 80dd 0ebe 39a2 09be fea8 803c c458 80bf
00000160: 4df9 363f bcfd 9e3e 7e2e 3c3f fc57 36bf
00000170: 250a a6bf c120 b5bf 3370 3e3f a971 18c0
00000180: 2521 4bbe b867 de3d 96da 993c 3d90 6abf
00000190: bd00 203f a116 633d 7940 263f d2f3 1cbf
000001a0: 67ab a0bf 1cc2 babf 62e0 2f3f bd15 28c0
000001b0: ef28 4bbe 8baa 283d 93d3 abbd 6023 70bf
000001c0: 89be 0d3f b7b3 8b3e 5f18 473f 4fcc 12bf
000001d0: 7245 debf 3876 aebf 6901 503f 10d7 01c0
000001e0: 9bdd 81be 469d 5c3e 4835 d2bd 0a54 5cbf
000001f0: faea 083f 9989 a23d 3115 1b3f a7df 0abf
00000200: 6e6d dbbf 8768 b8bf 8d9b 3d3f 42f1 18c0
00000210: 185a 7cbe 7423 9e3d 3b79 b2bd 0288 4cbf
00000220: 67d0 033f b463 923d 642c 303f 9e4d ffbe
00000230: 0e21 b8bf fa41 9cbf 8cd6 843f faef 0bc0
00000240: 1a79 6fbe 1c6c 243e 6387 93bd 4259 35bf
00000250: f8c9 c93e 9db1 283d d1a3 333f 5d64 d2be
00000260: ba20 bdbf 94ab 98bf 7292 4e3f 213c 01c0
00000270: 3e48 5abe 0592 973e 6a9f dabd cbb3 37bf
00000280: 91c3 aa3e d468 d8bc bf2a 3e3f 5133 49be
00000290: a2e5 b2bf 4d5c 82bf 4b78 583f 33d2 d4bf
000002a0: 387a 6dbe ffa9 933e 4de7 15bd 5e02 2dbf
000002b0: 33f2 9d3e 84cd c0bd 95fe 423f 8998 9dbe
000002c0: 17bd a3bf c13d 88bf 3ccf 4e3f 761b e9bf
000002d0: d91c 86be da5c ec3e f5e2 63bd 106c 21bf
000002e0: c1fb 933e c341 80bd 58e9 293f a1bb 83be
000002f0: 3a46 bfbf 4794 8dbf 236d 3a3f 3cd1 e8bf
00000300: 4359 90be e068 023f e90d 5cbd 6d46 26bf
00000310: d390 aa3e 66e9 04bd fcbb 233f 25e9 79be
00000320: 2008 a7bf e1cd 80bf ea96 413f 9adc d6bf
00000330: c608 83be 0365 023f 9f6a 32bd e213 03bf
00000340: d006 633e 7c85 ccbd b6d3 133f f194 c0bd
00000350: b83c 9fbf 1703 59bf fe2f 503f 363a a8bf
00000360: c9c2 a6be 1db9 203f 4632 bbbd 9936 17bf
00000370: c68b b93e 1d20 02be 1d31 033f 308d 12be
00000380: f80c abbf a713 80bf 7a7e 403f 570c c9bf
00000390: dd6c aebe 6159 263f c7c9 ccbd 9a15 0cbf
000003a0: a8ae b13e e085 07be 4699 073f 8e80 02be
000003b0: ed98 a3bf 1a3d 72bf f68d 423f c4ad b6bf
000003c0: 97bd a6be ef28 253f af1a 9ebd ed5a 02bf
000003d0: c333 993e 5eb2 b2bd 4c71 073f 950c 5abd
000003e0: 1b74 8cbf 2375 45bf 9c5b 493f f4b7 8bbf
000003f0: 9b0d 9cbe 75e7 1f3f a227 2dbd a915 09bf

jaw_pose f4 [224, 3]
0.004994598 -0.014075222 -0.004793615 -0.0021933976 -0.005840341 -0.00197642 -0.01581673 -0.0026736571
-0.0003434771 -0.02738587 -0.0009929142 -8.809075e-05 -0.0055161268 0.00011010144 0.00032603752 0.0072403704
-0.0001091728 0.00024885227 0.02016495 -0.00086712994 -0.00022865468 0.0018195066 -0.0029904987 -0.00025451038
0.0023711626 -0.0051681567 -0.0005870118 -0.013781466 -0.0023544433 -0.0006638859 -0.016044654 -0.0031219302
-0.00030880398 -0.015483159 -0.006630544 -0.0016718761 0.0015202371 -0.0064595765 -0.0007424311 0.003029941
-0.0057522836 -0.00077172986 0.00019136399 -0.0037737086 -0.0007365835 -0.005449207 -0.004740148 -0.0005297374
-0.004740758 -0.0072555216 -0.0017587991 -0.0075932504 -0.0071734637 -0.0010609577 0.01125584 -0.005942968
-0.0013540848 0.0070492825 -0.006287517 -0.0010330991 0.032123208 -0.00525669 -0.001121118 0.027927345
-0.0053183916 -0.0009217208 0.0345786 -0.0065252134 -0.0016240821 0.035880294 -0.006082024 -0.0010022355
0.0525835 -0.004730365 -0.0009068917 0.05227994 -0.0044029215 -0.001260291 0.04532339 -0.0057357135
-0.00085742725 0.04201356 -0.004570074 -0.0007655585 0.052193183 -0.006019507 -0.0008705342 0.03511153
-0.0055952054 -0.00081661413 0.042326458 -0.007171683 -0.0021232269 0.045387086 -0.0072651785 -0.0018593161
0.0496585 -0.004582358 -0.0013000494 0.045773488 -0.0042691133 -0.0009387623 0.055778626 -0.0035531975
-0.00088780624 0.05316645 -0.0027880734 -0.000721551 0.04783951 -0.004887293 -0.0008278847 0.053524762
-0.0045402003 -0.0012870302 0.060157757 -0.006284076 -0.0017448536 0.0627911 -0.0068902676 -0.0014998302
0.04779612 -0.002515657 -0.0009319473 0.043055423 -0.0017653698 -0.00044172592 0.043904155 -0.0036252406
-0.00093631906 0.036698755 -0.006308797 -0.0019927078 0.04700202 -0.0039945487 -0.0010540972 0.04190445
-0.0053317714 -0.00087975786 0.038218524 -0.006508545 -0.0020790913 0.032065213 -0.0041413596 -0.0011668471
0.031564683 -0.007201345 -0.0023757839 0.016097544 -0.008151651 -0.0023391335 0.037362598 -0.0046896
-0.0015212336 0.03953011 -0.007057966 -0.0022814104 0.055004302 -0.0058559817 -0.0010561467 0.04257464
-0.006969455 -0.001873268 0.039751675 -0.00017268141 7.8662495e-05 0.03799272 -0.0035793022 -0.00051864545
0.042068493 -0.0019125163 -0.0005105272 0.026568016 -0.005596494 -0.0014206961 0.03847877 -0.003874539
-0.0008313664 0.035170548 -0.0030178025 -0.0006551337 0.03887953 -0.0061843363 -0.001897661 0.04030943
-0.006571964 -0.0013197723 0.037193332 -0.0034248258 -0.0011546605 0.053064555 -0.0061623026 -0.0018228269
0.047636468 -0.005236353 -0.0010142309 0.048628565 -0.0027150728 -0.00059151265 0.05827302 -0.0017098737
-0.0002331608 0.042823963 -0.0060664085 -0.0014809478 0.035265896 -0.004422831 -0.000687295 0.030666966
-0.0064537316 -0.0015046006 0.034912698 -0.0051485198 -0.0008917358 0.041154973 -0.0045751673 -0.00079062243
0.027358914 -0.0031707066 -0.00070805865 0.027415574 -0.0013425391 -0.0004985672 0.046100892 0.0010482129
0.000436889 0.058925956 -0.00063140166 -0.00021369182 0.055793073 -0.00240692 -0.0008890347 0.04879496
-0.0028728647 -0.001004633 0.047261108 -0.0056278417 -0.0014021265 0.044043683 -0.0046256045 -0.0012850002
0.019943712 -0.0026207955 -0.0009886579 0.038742825 -0.006744689 -0.0030687635 0.043994848 -0.0021037369
-0.0007242343 0.07097384 0.0022273264 0.00016700958 0.056686968 -0.0018478506 -0.00089502207 0.07507695
00000000: baa9 a33b c39b 66bc c213 9dbb 1bbf 0fbb
00000010: 5560 bfbb d386 01bb 1692 81bc 8638 2fbb
00000020: b714 b4b9 5558 e0bc ac24 82ba 5cbd b8b8
00000030: a0c0 b4bb 43e6 e638 04f0 aa39 a140 ed3b
00000040: b3f3 e4b8 6378 8239 f730 a53c 1b50 63ba
00000050: 06c3 6fb9 837c ee3a 3efc 43bb ce6f 85b9
00000060: 8265 1b3b a459 a9bb b2e1 19ba a8cb 61bc
00000070: 014d 1abb a108 2eba 1470 83bc 4c99 4cbb
00000080: f8e6 a1b9 13ad 7dbc 0945 d9bb da22 dbba
00000090: b142 c73a dbaa d3bb b59f 42ba fa91 463b
000000a0: a77d bcbb ea4d 4aba e1a8 4839 5350 77bb
000000b0: 4817 41ba 438f b2bb 3e53 9bbb 13de 0aba
000000c0: 5c58 9bbb babf edbb 8187 e6ba cdd0 f8bb
000000d0: 600f ebbb d50f 8bba 6a6a 383c 3bbd c2bb
000000e0: 8c7b b1ba abfd e63b 8407 cebb 0e69 87ba
000000f0: a093 033d 5040 acbb 7af2 92ba e3c7 e43c
00000100: e745 aebb a39f 71ba 4aa2 0d3d 75d1 d5bb
00000110: 27df d4ba 37f7 123d b74b c7bb 715d 83ba
00000120: cc61 573d 2d01 9bbb 79bc 6dba 7e23 563d
00000130: 6246 90bb 5930 a5ba 05a5 393d a7f2 bbbb
00000140: f8c4 60ba 6916 2c3d 8fc0 95bb c3af 48ba
00000150: 85c8 553d 493f c5bb 9034 64ba 1cd1 0f3d
00000160: fc57 b7bb 0c12 56ba 825e 2d3d 7000 ebbb
00000170: d625 0bbb cfe7 393d bc10 eebb 4cb4 f3ba
00000180: b666 4b3d 9b27 96bb 6b66 aaba fb7c 3b3d
00000190: ebe3 8bbb 4617 76ba 2178 643d c3dc 68bb
000001a0: abbb 68ba 10c5 593d 1cb8 36bb 7826 3dba
000001b0: 5df3 433d 9625 a0bb 6706 59ba c83c 5b3d
000001c0: f6c5 94bb 91b1 a8ba fb67 763d a6ea cdbb
000001d0: 92b3 e4ba 9f98 803d c1c7 e1bb f395 c4ba
000001e0: ddc5 433d b9dd 24bb ed4d 74ba e25a 303d
000001f0: fb63 e7ba 7397 e7b9 d8d4 333d 7295 6dbb
00000200: 4f73 75ba 6f51 163d 06ba cebb 1798 02bb
00000210: 3185 403d b4e4 82bb a229 8aba 00a4 2b3d
00000220: 24b6 aebb 8d9f 66ba 078b 1c3d a245 d5bb
00000230: 5d41 08bb d056 033d 3eb4 87bb e4f0 98ba
00000240: f849 013d 43f9 ebbb 0ab3 1bbb ffde 833c
00000250: 818e 05bc 264c 19bb 8609 193d 37ab 99bb
00000260: 2164 c7ba 53ea 213d 8346 e7bb b783 15bb
00000270: 314c 613d 89e3 bfbb 676e 8aba bf62 2e3d
00000280: 0760 e4bb 7288 f5ba a7d2 223d d011 35b9
00000290: 9bf7 a438 419e 1b3d ba92 6abb b5f5 07ba
000002a0: 0350 2c3d 66ad faba e7d4 05ba 2ba5 d93c
000002b0: cb62 b7bb a736 baba ea9b 1d3d faeb 7dbb
000002c0: 0ef0 59ba fe0e 103d 53c6 45bb 47bd 2bba
000002d0: 2440 1f3d f9a5 cabb f0ba f8ba 801b 253d
000002e0: a159 d7bb 36fc acba 0958 183d 0b73 60bb
000002f0: fa57 97ba 385a 593d 24ed c9bb eceb eeba
00000300: 751e 433d b695 abbb f1ef 84ba bf2e 473d
00000310: 5def 31bb be0f 1bba b1af 6e3d d71d e0ba
00000320: a07c 74b9 2e68 2f3d b9c8 c6bb 5d1c c2ba
00000330: f972 103d 65ed 90bb 962b 34ba 4a39 fb3c
00000340: d379 d3bb 0536 c5ba 9e00 0f3d eab4 a8bb
00000350: 60c3 69ba 1e92 283d 49eb 95bb c641 4fba
00000360: cd1f e03c a1cb 4fbb 039d 39ba a096 e03c
00000370: 23f8 afba 47b2 02ba 4ad4 3c3d 3064 893a
00000380: 400e e539 585c 713d a684 25ba 7612 60b9
00000390: 4787 643d 6bbd 1dbb 1c0e 69ba 39dd 473d
000003a0: ac46 3cbb e4ad 83ba dd94 413d c269 b8bb
000003b0: 8fc7 b7ba 2667 343d 6292 97bb 746d a8ba
000003c0: ff60 a33c a7c1 2bbb db95 81ba ccb0 1e3d
000003d0: 8d02 ddbb 4f1d 49bb f133 343d d9de 09bb
000003e0: 8bda 3dba bc5a 913d 56f8 113b 4b1f 2f39
000003f0: 9830 683d 9433 f2ba ea9f 6aba f2c1 993d

leye_pose f4 [224, 3]
0.0 0.0 0.0 0.0 0.0 0.0 0.0 0.0
0.0 0.0 0.0 0.0 0.0 0.0 0.0 0.0
0.0 0.0 0.0 0.0 0.0 0.0 0.0 0.0
0.0 0.0 0.0 0.0 0.0 0.0 0.0 0.0
0.0 0.0 0.0 0.0 0.0 0.0 0.0 0.0
0.0 0.0 0.0 0.0 0.0 0.0 0.0 0.0
0.0 0.0 0.0 0.0 0.0 0.0 0.0 0.0
0.0 0.0 0.0 0.0 0.0 0.0 0.0 0.0
0.0 0.0 0.0 0.0 0.0 0.0 0.0 0.0
0.0 0.0 0.0 0.0 0.0 0.0 0.0 0.0
0.0 0.0 0.0 0.0 0.0 0.0 0.0 0.0
0.0 0.0 0.0 0.0 0.0 0.0 0.0 0.0
0.0 0.0 0.0 0.0 0.0 0.0 0.0 0.0
0.0 0.0 0.0 0.0 0.0 0.0 0.0 0.0
0.0 0.0 0.0 0.0 0.0 0.0 0.0 0.0
0.0 0.0 0.0 0.0 0.0 0.0 0.0 0.0
0.0 0.0 0.0 0.0 0.0 0.0 0.0 0.0
0.0 0.0 0.0 0.0 0.0 0.0 0.0 0.0
0.0 0.0 0.0 0.0 0.0 0.0 0.0 0.0
0.0 0.0 0.0 0.0 0.0 0.0 0.0 0.0
0.0 0.0 0.0 0.0 0.0 0.0 0.0 0.0
0.0 0.0 0.0 0.0 0.0 0.0 0.0 0.0
0.0 0.0 0.0 0.0 0.0 0.0 0.0 0.0
0.0 0.0 0.0 0.0 0.0 0.0 0.0 0.0
0.0 0.0 0.0 0.0 0.0 0.0 0.0 0.0
0.0 0.0 0.0 0.0 0.0 0.0 0.0 0.0
0.0 0.0 0.0 0.0 0.0 0.0 0.0 0.0
0.0 0.0 0.0 0.0 0.0 0.0 0.0 0.0
0.0 0.0 0.0 0.0 0.0 0.0 0.0 0.0
0.0 0.0 0.0 0.0 0.0 0.0 0.0 0.0
0.0 0.0 0.0 0.0 0.0 0.0 0.0 0.0
0.0 0.0 0.0 0.0 0.0 0.0 0.0 0.0
00000000: 0000 0000 0000 0000 0000 0000 0000 0000
00000010: 0000 0000 0000 0000 0000 0000 0000 0000
00000020: 0000 0000 0000 0000 0000 0000 0000 0000
00000030: 0000 0000 0000 0000 0000 0000 0000 0000
00000040: 0000 0000 0000 0000 0000 0000 0000 0000
00000050: 0000 0000 0000 0000 0000 0000 0000 0000
00000060: 0000 0000 0000 0000 0000 0000 0000 0000
00000070: 0000 0000 0000 0000 0000 0000 0000 0000
00000080: 0000 0000 0000 0000 0000 0000 0000 0000
00000090: 0000 0000 0000 0000 0000 0000 0000 0000
000000a0: 0000 0000 0000 0000 0000 0000 0000 0000
000000b0: 0000 0000 0000 0000 0000 0000 0000 0000
000000c0: 0000 0000 0000 0000 0000 0000 0000 0000
000000d0: 0000 0000 0000 0000 0000 0000 0000 0000
000000e0: 0000 0000 0000 0000 0000 0000 0000 0000
000000f0: 0000 0000 0000 0000 0000 0000 0000 0000
00000100: 0000 0000 0000 0000 0000 0000 0000 0000
00000110: 0000 0000 0000 0000 0000 0000 0000 0000
00000120: 0000 0000 0000 0000 0000 0000 0000 0000
00000130: 0000 0000 0000 0000 0000 0000 0000 0000
00000140: 0000 0000 0000 0000 0000 0000 0000 0000
00000150: 0000 0000 0000 0000 0000 0000 0000 0000
00000160: 0000 0000 0000 0000 0000 0000 0000 0000
00000170: 0000 0000 0000 0000 0000 0000 0000 0000
00000180: 0000 0000 0000 0000 0000 0000 0000 0000
00000190: 0000 0000 0000 0000 0000 0000 0000 0000
000001a0: 0000 0000 0000 0000 0000 0000 0000 0000
000001b0: 0000 0000 0000 0000 0000 0000 0000 0000
000001c0: 0000 0000 0000 0000 0000 0000 0000 0000
000001d0: 0000 0000 0000 0000 0000 0000 0000 0000
000001e0: 0000 0000 0000 0000 0000 0000 0000 0000
000001f0: 0000 0000 0000 0000 0000 0000 0000 0000
00000200: 0000 0000 0000 0000 0000 0000 0000 0000
00000210: 0000 0000 0000 0000 0000 0000 0000 0000
00000220: 0000 0000 0000 0000 0000 0000 0000 0000
00000230: 0000 0000 0000 0000 0000 0000 0000 0000
00000240: 0000 0000 0000 0000 0000 0000 0000 0000
00000250: 0000 0000 0000 0000 0000 0000 0000 0000
00000260: 0000 0000 0000 0000 0000 0000 0000 0000
00000270: 0000 0000 0000 0000 0000 0000 0000 0000
00000280: 0000 0000 0000 0000 0000 0000 0000 0000
00000290: 0000 0000 0000 0000 0000 0000 0000 0000
000002a0: 0000 0000 0000 0000 0000 0000 0000 0000
000002b0: 0000 0000 0000 0000 0000 0000 0000 0000
000002c0: 0000 0000 0000 0000 0000 0000 0000 0000
000002d0: 0000 0000 0000 0000 0000 0000 0000 0000
000002e0: 0000 0000 0000 0000 0000 0000 0000 0000
000002f0: 0000 0000 0000 0000 0000 0000 0000 0000
00000300: 0000 0000 0000 0000 0000 0000 0000 0000
00000310: 0000 0000 0000 0000 0000 0000 0000 0000
00000320: 0000 0000 0000 0000 0000 0000 0000 0000
00000330: 0000 0000 0000 0000 0000 0000 0000 0000
00000340: 0000 0000 0000 0000 0000 0000 0000 0000
00000350: 0000 0000 0000 0000 0000 0000 0000 0000
00000360: 0000 0000 0000 0000 0000 0000 0000 0000
00000370: 0000 0000 0000 0000 0000 0000 0000 0000
00000380: 0000 0000 0000 0000 0000 0000 0000 0000
00000390: 0000 0000 0000 0000 0000 0000 0000 0000
000003a0: 0000 0000 0000 0000 0000 0000 0000 0000
000003b0: 0000 0000 0000 0000 0000 0000 0000 0000
000003c0: 0000 0000 0000 0000 0000 0000 0000 0000
000003d0: 0000 0000 0000 0000 0000 0000 0000 0000
000003e0: 0000 0000 0000 0000 0000 0000 0000 0000
000003f0: 0000 0000 0000 0000 0000 0000 0000 0000
