test_dataset/gait_700/20250820_c2_a3_Take1/split_subjects/0/fit-smplx/smplx-params_cut.npz (npz, 88426 bytes, 10 tensors)

betas f4 [176, 10]
-1.9654157 -0.7997282 -0.17245956 -0.6737907 -0.8606984 -0.41703844 -0.2503567 1.244624
-0.26127806 0.0483325 -1.9257178 -0.841266 -0.22751625 -0.53502536 -0.89295304 -0.38784394
-0.25487506 1.1215485 -0.17782977 0.073290616 -1.9096304 -0.7863989 -0.28749937 -0.54712456
-0.8514039 -0.41423965 -0.305253 1.1566226 -0.2821702 0.108709894 -1.8966002 -0.7802525
-0.35577 -0.53418046 -0.80187786 -0.3410181 -0.29010335 1.1412685 -0.2849761 0.120601155
-1.8907051 -0.7719124 -0.39535287 -0.47956342 -0.8391266 -0.29026833 -0.29061612 1.0719762
-0.25712404 0.107536435 -1.8749537 -0.76509905 -0.39573938 -0.4973244 -0.782823 -0.2818518
-0.28839383 0.99379057 -0.29499006 0.09134298 -1.8695054 -0.8154986 -0.38775823 -0.42160124
-0.8495136 -0.27853444 -0.27074826 0.9817777 -0.29808354 0.06588438 -1.9123939 -0.8169105
-0.28641316 -0.4364879 -0.8894904 -0.33925965 -0.2535749 0.9246367 -0.29890278 0.083296485
-1.9131511 -0.77710533 -0.29002905 -0.51789075 -0.79606843 -0.34385824 -0.29892737 0.9490185
-0.24474451 0.073769554 -1.890123 -0.7759037 -0.33855826 -0.4732961 -0.8124394 -0.30768082
-0.31328434 0.90192986 -0.1584345 0.07379373 -1.8915111 -0.8037134 -0.371623 -0.38913527
-0.882783 -0.302664 -0.33900198 0.868077 -0.2289909 0.07745913 -1.8922236 -0.80041564
-0.4037387 -0.382852 -0.9456213 -0.35149786 -0.3781235 0.9002731 -0.26640823 0.07375616
-1.8733051 -0.78947127 -0.42130995 -0.40847433 -0.9974411 -0.3462717 -0.393237 0.93289965
-0.2746358 0.08300442 -1.8869513 -0.7654126 -0.43118146 -0.46892723 -0.97746164 -0.3059103
-0.41249517 0.92604506 -0.27646387 0.06937259 -1.9371493 -0.734091 -0.429337 -0.5288143
-0.8942787 -0.3203876 -0.44424182 0.9039575 -0.25663564 0.07467635 -1.9323069 -0.7377796
-0.4697638 -0.51891625 -0.865063 -0.26433378 -0.51589674 0.9077663 -0.2475164 0.061753485
-1.889542 -0.7864891 -0.44607812 -0.48157015 -0.87010145 -0.24209096 -0.53210336 0.8877725
-0.269411 0.04331398 -1.8567108 -0.80702364 -0.47736692 -0.44447464 -0.8639321 -0.21815456
-0.49711025 0.88136625 -0.26651195 0.06644778 -1.8226416 -0.8336295 -0.4999181 -0.3988971
-0.8601691 -0.18043073 -0.5382186 0.8193041 -0.30037263 0.06885263 -1.809733 -0.8677643
-0.49681675 -0.3420201 -0.8737149 -0.13922156 -0.539723 0.8105343 -0.30397692 0.07545352
-1.8249668 -0.8585054 -0.4624897 -0.37936217 -0.8586347 -0.13747439 -0.5005115 0.81950945
-0.28586796 0.054052137 -1.8177457 -0.87470335 -0.42781514 -0.3425258 -0.88731164 -0.15048009
-0.469678 0.86471796 -0.2907501 0.07943669 -1.8362678 -0.8682386 -0.41072574 -0.34924668
-0.86714154 -0.18304352 -0.49453342 0.8596535 -0.27357033 0.09597225 -1.8410987 -0.8557435
-0.38133192 -0.35158414 -0.8498999 -0.17364818 -0.49847403 0.876568 -0.27343267 0.08892064
-1.8435093 -0.81820184 -0.3924692 -0.41338113 -0.85004145 -0.15609245 -0.5592025 0.8914045
-0.24565691 0.084282696 -1.8495871 -0.8064808 -0.38136837 -0.43576324 -0.8523518 -0.19827148
00000000: be92 fbbf fdba 4cbf 3d99 30be 8c7d 2cbf
00000010: bb56 5cbf 1086 d5be c12e 80be d74f 9f3f
00000020: 3dc6 85be 4df8 453d ec7d f6bf 355d 57bf
00000030: 05fa 68be 6cf7 08bf 9298 64bf 7b93 c6be
00000040: fc7e 82be e78e 8f3f 0219 36be 6419 963d
00000050: c56e f4bf 7051 49bf 1e33 93be 5b10 0cbf
00000060: 9bf5 59bf 3817 d4be 1f4a 9cbe 360c 943f
00000070: 9d78 90be 4ba3 de3d ccc3 f2bf a1be 47bf
00000080: 7c27 b6be 0dc0 08bf de47 4dbf ed99 aebe
00000090: 6d88 94be 1615 923f 63e8 91be bdfd f63d
000000a0: a002 f2bf 0d9c 45bf b16b cabe 5689 f5be
000000b0: 00d1 56bf 0d9e 94be a3cb 94be 8436 893f
000000c0: c3a5 83be 103c dc3d 7cfe efbf 88dd 43bf
000000d0: 5a9e cabe 4ea1 febe 1767 48bf e14e 90be
000000e0: 5ba8 93be 0f69 7e3f f008 97be 0712 bb3d
000000f0: f44b efbf 84c4 50bf 3f88 c6be 1edc d7be
00000100: b979 59bf 119c 8ebe 849f 8abe c955 7b3f
00000110: 689e 98be 64ee 863d 53c9 f4bf 0c21 51bf
00000120: bfa4 92be 587b dfbe a5b5 63bf 71b3 adbe
00000130: 92d4 81be feb4 6c3f c909 99be 5997 aa3d
00000140: 23e2 f4bf 60f0 46bf b07e 94be 7d94 04bf
00000150: 24cb 4bbf 300e b0be 020d 99be e0f2 723f
00000160: 4e9e 7abe 7e14 973d 8def f1bf a0a1 46bf
00000170: 8257 adbe de53 f2be 07fc 4fbf 5788 9dbe
00000180: ce66 a0be e0e4 663f a73c 22be 2b21 973d
00000190: 091d f2bf 29c0 4dbf 5f45 bebe bd3c c7be
000001a0: 11fe 61bf c7f6 9abe ab91 adbe 4b3a 5e3f
000001b0: 977c 6abe e4a2 9e3d 6234 f2bf 0ae8 4cbf
000001c0: d7b6 cebe 2d05 c4be 3d14 72bf 87f7 b3be
000001d0: 6799 c1be 4c78 663f a966 88be 780d 973d
000001e0: 76c8 efbf ca1a 4abf f0b5 d7be 8c23 d1be
000001f0: 4d58 7fbf 864a b1be 5c56 c9be 83d2 6e3f
00000200: 109d 8cbe 39fe a93d 9f87 f1bf 15f2 43bf
00000210: d1c3 dcbe 3b17 f0be ed3a 7abf 46a0 9cbe
00000220: 9132 d3be 4a11 6d3f ac8c 8dbe 3713 8e3d
00000230: 82f4 f7bf 63ed 3bbf 0fd2 dbbe 6060 07bf
00000240: 73ef 64bf d809 a4be aa73 e3be c269 673f
00000250: bf65 83be eaef 983d d555 f7bf 20df 3cbf
00000260: e184 f0be b2d7 04bf c574 5dbf c256 87be
00000270: cf11 04bf 5f63 683f f074 7dbe 39f1 7c3d
00000280: 83dc f1bf 5a57 49bf 5a64 e4be 5d90 f6be
00000290: f8be 5ebf b1e6 77be ed37 08bf 0f45 633f
000002a0: 3df0 89be 006a 313d b3a8 edbf 1a99 4ebf
000002b0: 7069 f4be 2e92 e3be a72a 5dbf e963 5fbe
000002c0: 3c85 febe 38a1 613f 4174 88be c615 883d
000002d0: 524c e9bf be68 55bf 44f5 ffbe 3e3c ccbe
000002e0: 0b34 5cbf d5c2 38be b2c8 09bf eabd 513f
000002f0: 71ca 99be 9c02 8d3d 55a5 e7bf cd25 5ebf
00000300: c45e febe 421d afbe c8ab 5fbf 1990 0ebe
00000310: 492b 0abf 2d7f 4f3f dda2 9bbe 6087 9a3d
00000320: 8398 e9bf 03c7 5bbf 73cb ecbe c23b c2be
00000330: 7ccf 5bbf 16c6 0cbe 8621 00bf 5fcb 513f
00000340: 495d 92be c665 5d3d e4ab e8bf 8fec 5fbf
00000350: 960a dbbe 8b5f afbe db26 63bf 7417 1abe
00000360: a379 f0be 285e 5d3f 32dd 94be b4af a23d
00000370: d30a ebbf e344 5ebf a54a d2be 76d0 b2be
00000380: fdfc 5dbf c36f 3bbe 7c33 fdbe 4012 5c3f
00000390: 6911 8cbe 198d c43d 1fa9 ebbf 0212 5bbf
000003a0: f03d c3be d602 b4be 0a93 59bf d4d0 31be
000003b0: fd37 ffbe c366 603f 5eff 8bbe 061c b63d
000003c0: 1df8 ebbf ad75 51bf b9f1 c8be b1a6 d3be
000003d0: 519c 59bf b3d6 1fbe e527 0fbf 1633 643f
000003e0: 7c8d 7bbe 689c ac3d 45bf ecbf 8775 4ebf
000003f0: b742 c3be 5c1c dfbe ba33 5abf ae07 4bbe

global_orient f4 [176, 3]
-0.018377705 -2.6433997 -0.15823129 -0.022954334 -2.644701 -0.16043046 -0.021505805 -2.6618202
-0.16795339 -0.022826944 -2.6737409 -0.16609722 -0.027289098 -2.6808777 -0.16068637 -0.028800908
-2.691352 -0.14557976 -0.024891956 -2.6982598 -0.122059256 -0.025557308 -2.70093 -0.0939012
-0.032151263 -2.7142153 -0.07160358 -0.03872885 -2.6962495 -0.053170305 -0.042800047 -2.6798737
-0.037644435 -0.043212637 -2.6748993 -0.029846894 -0.038388595 -2.6738272 -0.029200513 -0.031943154
-2.6649883 -0.0381831 -0.019082187 -2.660445 -0.05241268 -0.008737111 -2.6518652 -0.06398059
-0.010179502 -2.636966 -0.0779961 -0.0053527136 -2.621452 -0.08924019 -0.00405911 -2.6062064
-0.091247596 -0.014919024 -2.5921848 -0.091434635 -0.0068012965 -2.5859764 -0.09451769 -0.007669309
-2.5750382 -0.103734195 -0.015996186 -2.5543542 -0.10671986 -0.020829797 -2.5422542 -0.10901003
-0.017570136 -2.5327127 -0.114165 -0.013184078 -2.5415967 -0.1194509 0.002127643 -2.5471482
-0.12473607 0.014067856 -2.549987 -0.11979405 0.025828114 -2.551085 -0.120889544 0.030375361
-2.554878 -0.1156515 0.028516153 -2.564629 -0.1207471 0.02998905 -2.5937133 -0.12969986
0.020541437 -2.6223063 -0.13111326 0.020840652 -2.629631 -0.12803757 0.028270701 -2.6329515
-0.124662876 0.025510259 -2.6336257 -0.11301396 0.021135563 -2.6510394 -0.1095341 0.01311536
-2.66276 -0.109714895 0.0073971446 -2.6796007 -0.10754867 0.0032751295 -2.682138 -0.10207202
-0.0031266334 -2.677019 -0.08814582 -0.009603901 -2.6511087 -0.081721194 -0.016927218 -2.6266656
-0.08516041 -0.02837588 -2.608914 -0.08340789 -0.029388957 -2.593379 -0.09135291 -0.030244453
-2.5781825 -0.09729809 -0.03614591 -2.5681038 -0.10947336 -0.016238237 -2.5578396 -0.117813
0.0009863672 -2.5603805 -0.13072395 0.014744956 -2.5472128 -0.13249893 0.016211364 -2.536612
-0.11896864 0.011017694 -2.5271616 -0.10772416 -0.00025985646 -2.5272515 -0.11473395 -0.0074837813
-2.5363948 -0.11109534 -0.011327879 -2.5314245 -0.123493604 -0.029904382 -2.523724 -0.12536424
-0.042484723 -2.5185106 -0.12696576 -0.03875157 -2.515061 -0.11483487 -0.03206805 -2.5284424
-0.12534791 -0.03005687 -2.56601 -0.13971107 -0.01927622 -2.6114028 -0.12672625 -0.0074345353
-2.6478019 -0.08484881 -0.007741893 -2.6701849 -0.052984346 0.015952392 -2.7264879 -0.044561356
0.031134563 -2.7969499 -0.047278695 0.042357564 -2.862556 -0.056320414 0.035751525 -2.9222836
-0.07597308 0.023295585 -2.9786448 -0.07716544 0.009671193 -3.0442305 -0.08614538 -0.00078073976
-3.1114643 -0.09921343 0.008015922 -3.189922 -0.111635685 0.016178621 -3.2771118 -0.122819416
0.029549612 -3.3364782 -0.13732041 0.038931377 -3.416503 -0.15348946 0.03400734 -3.5069482
-0.14549872 0.039772693 -3.5745273 -0.13011718 0.037006162 -3.632924 -0.1341633 0.03131532
-3.678211 -0.11737898 0.025870422 -3.7078438 -0.08979253 0.016031593 -3.7276077 -0.07326068
0.016215466 -3.7666695 -0.057997487 0.013629269 -3.804329 -0.049125317 0.035521932 -3.846016
-0.030985847 0.06937101 -3.8930528 -0.031084575 0.09743363 -3.95742 -0.010525094 0.12639694
00000000: d78c 96bc 762d 29c0 6207 22be ba0a bcbc
00000010: c842 29c0 e247 24be f12c b0bc 435b 2ac0
00000020: f9fb 2bbe 92ff babc 921e 2bc0 6415 2abe
00000030: 638d dfbc 8093 2bc0 f88a 24be e2ef ebbc
00000040: 1c3f 2cc0 dc12 15be 37ea cbbc 4ab0 2cc0
00000050: 34fa f9bd 8f5d d1bc 0adc 2cc0 464f c0bd
00000060: 0bb1 03bd b4b5 2dc0 e6a4 92bd 25a2 1ebd
00000070: 5a8f 2cc0 1bc9 59bd 1a4f 2fbd 0d83 2bc0
00000080: 0d31 1abd bcff 30bd 8d31 2bc0 7981 f4bc
00000090: 5c3d 1dbd fc1f 2bc0 ea35 efbc d3d6 02bd
000000a0: 2b8f 2ac0 e265 1cbd 3f52 9cbc bb44 2ac0
000000b0: aeae 56bd 1a26 0fbc 29b8 29c0 4108 83bd
000000c0: edc7 26bc 0dc4 28c0 6bbc 9fbd d165 afbb
000000d0: dfc5 27c0 90c3 b6bd 4802 85bb 16cc 26c0
000000e0: 05e0 babd ec6e 74bc 5be6 25c0 1542 bbbd
000000f0: 69dd debb a380 25c0 7e92 c1bd d44e fbbb
00000100: 6dcd 24c0 9872 d4bd 6f0a 83bc 8a7a 23c0
00000110: f18f dabd 40a3 aabc 4bb4 22c0 a740 dfbd
00000120: 3fef 8fbc f717 22c0 57cf e9bd 0802 58bc
00000130: 85a9 22c0 aca2 f4bd ed6f 0b3b 7a04 23c0
00000140: a075 ffbd dd7c 663c fd32 23c0 9556 f5bd
00000150: 7b95 d33c fa44 23c0 f094 f7bd c0d5 f83c
00000160: 1f83 23c0 b2da ecbd b59a e93c e222 24c0
00000170: 414a f7bd 99ab f53c 66ff 25c0 0ad0 04be
00000180: 8446 a83c ded3 27c0 8e42 06be 04ba aa3c
00000190: e04b 28c0 481c 03be f597 e73c 4782 28c0
000001a0: 404f ffbd e4fa d03c 538d 28c0 dd73 e7bd
000001b0: 7d24 ad3c a1aa 29c0 6a53 e0bd cfe1 563c
000001c0: a96a 2ac0 34b2 e0bd bf63 f23b 947e 2bc0
000001d0: 7a42 dcbd 8ea3 563b 26a8 2bc0 230b d1bd
000001e0: 34e8 4cbb 4754 2bc0 cc85 b4bd ae59 1dbc
000001f0: c4ab 29c0 715d a7bd f3aa 8abc 4a1b 28c0
00000200: 9568 aebd 8974 e8bc 72f8 26c0 c1d1 aabd
00000210: 1cc1 f0bc ecf9 25c0 3c17 bbbd 37c3 f7bc
00000220: f100 25c0 3944 c7bd bc0d 14bd d05b 24c0
00000230: 9233 e0bd 0d06 85bc a5b3 23c0 f147 f1bd
00000240: fe48 813a 46dd 23c0 80dc 05be d494 713c
00000250: 8905 23c0 cdad 07be b2cd 843c da57 22c0
00000260: d5a5 f3bd 8f83 343c 04bd 21c0 7c9e dcbd
00000270: 583d 88b9 7dbe 21c0 a2f9 eabd 823a f5bb
00000280: 4b54 22c0 f485 e3bd 9198 39bc dc02 22c0
00000290: 37ea fcbd 09fa f4bc b284 21c0 7c5f 00be
000002a0: 7604 2ebd 472f 21c0 5003 02be f7b9 1ebd
000002b0: c2f6 20c0 8b2e ebbd ca59 03bd 00d2 21c0
000002c0: 345b 00be d339 f6bc 8239 24c0 6b10 0fbe
000002d0: 2ae9 9dbc 3921 27c0 87c4 01be 679d f3bb
000002e0: 9675 29c0 37c5 adbd b5af fdbb 4fe4 2ac0
000002f0: 1d06 59bd 97ae 823c c77e 2ec0 f885 36bd
00000300: e90d ff3c 3a01 33c0 4ea7 41bd 207f 2d3d
00000310: 1e34 37c0 3cb0 66bd 3170 123d b206 3bc0
00000320: c697 9bbd 62d6 be3c 1ea2 3ec0 ea08 9ebd
00000330: ec73 1e3c acd4 42c0 fd6c b0bd 8faa 4cba
00000340: 3b22 47c0 6930 cbbd 3755 033c af27 4cc0
00000350: 40a1 e4bd 0789 843c 33bc 51c0 bf88 fbbd
00000360: 0712 f23c dc88 55c0 b99d 0cbe 8276 1f3d
00000370: fca7 5ac0 572c 1dbe 484b 0b3d d771 60c0
00000380: 9efd 14be b1e8 223d 0ec5 64c0 703d 05be
00000390: c693 173d d481 68c0 1b62 09be 7e44 003d
000003a0: cf67 6bc0 6464 f0bd 35ee d33c 504d 6dc0
000003b0: 25e5 b7bd b054 833c 2091 6ec0 b209 96bd
000003c0: 4cd6 843c 1d11 71c0 c68e 6dbd 4c4d 5f3c
000003d0: 207a 73c0 a137 49bd 727f 113d 2025 76c0
000003e0: 08d6 fdbc 6312 8e3d c727 79c0 14a5 febc
000003f0: 488b c73d 5f46 7dc0 7271 2cbc 336e 013e

body_pose f4 [176, 63]
-0.52077943 -0.054534428 0.054496888 0.0446572 0.13461271 0.11527074 0.17246513 -0.043517053
0.11768484 0.8881709 -0.30451548 -0.1281995 0.2813819 -0.04815275 -0.0010919658 -0.020567901
-0.002246956 -0.06442354 0.029696796 -0.015432919 0.045948755 -0.3452552 -0.18772453 0.024694765
0.12081828 -0.012388551 -0.0076490124 -1.69664e-05 1.550228e-05 1.6055266e-05 -1.8112949e-05 1.4603647e-05
-1.5387364e-05 0.29980335 -0.06755542 -0.0072099655 0.03421115 -0.0051838625 -0.3421257 -0.03377754
0.09606675 0.2866687 0.044154584 0.052035093 0.0318909 -0.032186378 -0.040768087 -0.878182
-0.05365828 0.19512945 0.6583597 0.055558357 -0.42317998 -0.10418914 -0.06292581 0.4714051
0.037108414 0.18605678 0.26373348 0.11579658 0.018176636 0.024801996 -0.16909914 -0.5266571
-0.05087044 0.018800337 0.09085842 0.063133515 0.1141167 0.17709549 -0.034208663 0.13461481
0.74051416 -0.24231179 -0.048386615 0.25922877 -0.014638654 -0.038397044 -0.015729623 -0.008809115
-0.07137169 0.09415622 -0.064308934 -0.034611918 -0.28271586 -0.15686297 0.032941956 0.11517482
-0.0124086905 -0.014438026 1.4662252e-05 1.5607538e-05 1.588761e-05 -1.7094744e-05 1.4594391e-05 -1.5618572e-05
0.31667 -0.06975044 -0.00080235576 0.047344405 0.011265422 -0.3391048 -0.033261705 0.10880907
0.28127247 0.028929666 0.047938485 0.02097366 -0.02481421 -0.022995172 -0.88077223 -0.05226755
0.20844463 0.67503405 0.0398579 -0.40934566 -0.11805354 -0.071826555 0.50137764 0.035416603
0.14994948 0.25209588 0.11831494 -0.0070110345 0.015660418 -0.16443363 -0.5083653 -0.10795938
-0.010716463 0.14316225 0.024111126 0.11210641 0.18050045 -0.025321035 0.14676352 0.62132585
-0.24023823 -0.014213306 0.2591231 -0.00042301655 -0.04245605 -0.0098120235 -0.0060865246 -0.06916167
0.09967919 -0.030445889 0.0064240196 -0.28132522 -0.120064564 0.12409931 0.11005034 0.006079268
-0.013356858 1.4562008e-05 1.5522804e-05 1.5746296e-05 -1.6801692e-05 1.5444919e-05 -1.542305e-05 0.3239642
-0.06270171 0.0021685455 0.050927088 0.03461913 -0.31532517 -0.043590005 0.108534284 0.27105948
0.03530073 0.018889455 0.017512655 -0.03675938 -0.02281185 -0.92609805 -0.045009527 0.21081126
0.68662083 0.04280945 -0.46501118 -0.08324362 -0.06275386 0.5346861 0.03446738 0.1184369
0.29120263 0.067319535 0.0142670935 0.009957844 -0.16821371 -0.4813601 -0.12234312 -0.04179137
0.15865606 0.01838093 0.106273785 0.16814223 -0.020365234 0.15305468 0.498998 -0.2690754
0.030270964 0.27188838 0.019678645 -0.049901295 -0.0025286237 -0.00441619 -0.0708979 0.12535167
-0.045039803 -0.0053651775 -0.29726613 -0.09380107 0.12888378 0.11363096 0.009976388 -0.0157662
1.503935e-05 1.52858e-05 1.567744e-05 -1.6955997e-05 1.5643349e-05 -1.5368994e-05 0.3291188 -0.08587824
-0.0009232594 0.05909282 0.036225468 -0.31003156 -0.06029042 0.11048322 0.276742 0.05134908
0.03167211 0.021107297 -0.010181833 -0.006351658 -0.92144716 -0.04749426 0.21296237 0.6909818
0.027798474 -0.42177334 -0.095080055 -0.057125553 0.54562736 0.055227257 0.081253715 0.17617854
0.046262916 0.037017703 0.006582138 -0.18155964 -0.46330023 -0.1247415 -0.06403817 0.1819503
00000000: cd51 05bf 7e5f 5fbd 2138 5f3d 78ea 363d
00000010: ead7 093e 1113 ec3d b39a 303e f03e 32bd
00000020: c004 f13d 2b5f 633f 74e9 9bbe bb46 03be
00000030: 4a11 903e d13b 45bd 4b20 8fba 047e a8bc
00000040: ab41 13bb 7df0 83bd b246 f33c 5bda 7cbc
00000050: c334 3c3d 4ac5 b0be dc3a 40be ad4c ca3c
00000060: 936f f73d 59f9 4abc 91a4 fabb 1153 8eb7
00000070: e50a 8237 6cae 8637 43f1 97b7 3002 7537
00000080: 1d14 81b7 d37f 993e 7f5a 8abd 9341 ecbb
00000090: fe20 0c3d 64dd a9bb 1a2b afbe 515a 0abd
000000a0: a5be c43d 3dc6 923e 70db 343d c022 553d
000000b0: 08a0 023d ddd5 03bd 70fc 26bd 89d0 60bf
000000c0: c9c8 5bbd 04d0 473e 438a 283f 2991 633d
000000d0: 0cab d8be 1e61 d5bd 3fdf 80bd 025c f13e
000000e0: fefe 173d ab85 3e3e 1308 873e c226 ed3d
000000f0: 2be7 943c 8e2d cb3c 5328 2dbe 00d3 06bf
00000100: 865d 50bd 2a03 9a3c fb13 ba3d 254c 813d
00000110: 04b6 e93d 8558 353e 621e 0cbd 77d8 093e
00000120: 5692 3d3f 9520 78be 0b31 46bd a2b9 843e
00000130: f7d6 6fbc 3846 1dbd 69db 80bc 1b54 10bc
00000140: 522b 92bd fad4 c03d 67b4 83bd 3ac5 0dbd
00000150: 22c0 90be b0a0 20be 25ee 063d c7e0 eb3d
00000160: d24d 4bbc 788d 6cbc e5fd 7537 efec 8237
00000170: 6246 8537 af66 8fb7 6fda 7437 a104 83b7
00000180: 9222 a23e 52d9 8ebd 2f55 52ba 35ec 413d
00000190: 9b92 383c 259f adbe 6d3d 08bd 4ad7 de3d
000001a0: f202 903e e8fd ec3c 255b 443d f4d0 ab3c
000001b0: 2c47 cbbc 5f60 bcbc 4a7a 61bf 8016 56bd
000001c0: 8272 553e 08cf 2c3f 0a42 233d c195 d1be
000001d0: 0ec6 f1bd cd19 93bd 495a 003f 0011 113d
000001e0: 5b8c 193e b612 813e 1a4f f23d d2bc e5bb
000001f0: 474a 803c 4a61 28be 3a24 02bf cf19 ddbd
00000200: 1b94 2fbc 2099 123e b284 c53c 0c98 e53d
00000210: 1cd5 383e 0f6e cfbc 2d49 163e 360f 1f3f
00000220: 0301 76be edde 68bc c8ab 843e 52c8 ddb9
00000230: 65e6 2dbd 9cc2 20bc 7871 c7bb a2a4 8dbd
00000240: 9a24 cc3d a869 f9bc 9580 d23b dc09 90be
00000250: 69e4 f5bd c727 fe3d 1362 e13d 9934 c73b
00000260: b9d6 5abc 594f 7437 f836 8237 ea16 8437
00000270: 5cf1 8cb7 b68f 8137 bf60 81b7 a3de a53e
00000280: c169 80bd 281e 0e3b ec98 503d cacc 0d3d
00000290: 4d72 a1be 6f8b 32bd 3947 de3d 4fc8 8a3e
000002a0: 8097 103d 0fbe 9a3c b376 8f3c 0191 16bd
000002b0: ebdf babc c314 6dbf e95b 38bd e8de 573e
000002c0: 62c6 2f3f f658 2f3d f215 eebe a27b aabd
000002d0: 1985 80bd 30e1 083f ab2d 0d3d 0c8f f23d
000002e0: 8318 953e d3de 893d 87c0 693c 3a26 233c
000002f0: 3740 2cbe d574 f6be 088f fabd 6d2d 2bbd
00000300: bc76 223e 9b93 963c 12a6 d93d 7a2d 2c3e
00000310: fed4 a6bc 5eba 1c3e aa7c ff3e 40c4 89be
00000320: d0fa f73c f434 8b3e 1c35 a13c 4d65 4cbd
00000330: 44b7 25bb b0b5 90bb eb32 91bd 305c 003e
00000340: a87b 38bd 5fce afbb 4433 98be c61a c0bd
00000350: 1cfa 033e 59b7 e83d 0174 233c 1e28 81bc
00000360: 8451 7c37 013a 8037 0c83 8337 ba3c 8eb7
00000370: d639 8337 aaec 80b7 4282 a83e eee0 afbd
00000380: e406 72ba 500b 723d 2861 143d 75bc 9ebe
00000390: 16f3 76bd 0745 e23d 21b1 8d3e 6a53 523d
000003a0: 9dba 013d 36e9 ac3c b4d1 26bc 9221 d0bb
000003b0: f6e3 6bbf 5789 42bd cf12 5a3e 2fe4 303f
000003c0: a0b9 e33c adf2 d7be 55b9 c2bd 7cfc 69bd
000003d0: 3cae 0b3f fa35 623d 5968 a63d 2668 343e
000003e0: 2f7e 3d3d e09f 173d faae d73b c5ea 39be
000003f0: b035 edbe 7978 ffbd 7226 83bd 2e51 3a3e

transl f4 [176, 3]
0.40331256 1.4939779 1.2002407 0.3922699 1.4906875 1.178911 0.3805055 1.4854981
1.1569976 0.3680309 1.4803876 1.1332488 0.35447228 1.4763017 1.107067 0.34034345
1.4728999 1.07976 0.32549253 1.4717062 1.0508811 0.30969173 1.47113 1.0201418
0.29483154 1.4741002 0.98825294 0.2796566 1.4789567 0.9576092 0.26632693 1.4837593
0.9299416 0.25533435 1.4871314 0.9033688 0.2462291 1.4884355 0.8769935 0.23858352
1.4913069 0.85135263 0.23114526 1.49348 0.82706326 0.22445764 1.496003 0.8023496
0.21876115 1.4973414 0.7779893 0.21269651 1.4981906 0.7533338 0.20672235 1.4990761
0.72775936 0.20019197 1.4974623 0.70000166 0.19172095 1.4952444 0.6705645 0.18216705
1.4918902 0.63878673 0.1720811 1.4869887 0.60490394 0.16183557 1.4837837 0.56912374
0.15253666 1.4830538 0.5335602 0.14394912 1.4843218 0.49972743 0.13529375 1.4861722
0.46751866 0.12696435 1.4883769 0.43738472 0.11842614 1.490883 0.41031808 0.11053178
1.492813 0.38658345 0.10265539 1.4937711 0.3641168 0.09429382 1.4945474 0.34211156
0.08519348 1.4933423 0.32020423 0.07469583 1.4918973 0.29892707 0.0629455 1.4903362
0.2777214 0.051091924 1.4883131 0.2546131 0.039061226 1.4847702 0.22972299 0.025902191
1.4806439 0.20367305 0.010177962 1.4768337 0.17660807 -0.0076526343 1.4736261 0.14782631
-0.026450854 1.4716324 0.116931744 -0.044186622 1.473533 0.08725245 -0.060330626 1.4782251
0.06125819 -0.073512055 1.4814696 0.036692206 -0.084945135 1.4844024 0.014027782 -0.09480496
1.4880881 -0.0067276116 -0.10305323 1.4921615 -0.026085265 -0.109618895 1.4954948 -0.045183867
-0.11644537 1.4994717 -0.064208195 -0.122469306 1.500833 -0.08411784 -0.12889716 1.5019709
-0.10567635 -0.1356456 1.5017059 -0.12840457 -0.14223023 1.4999354 -0.15166268 -0.15042388
1.496942 -0.17761159 -0.15951353 1.4931228 -0.20455301 -0.16963099 1.4887959 -0.23274565
-0.18070984 1.4842305 -0.2626782 -0.1902676 1.4813992 -0.29317108 -0.19775975 1.4827386
-0.32209274 -0.20464155 1.485016 -0.3516536 -0.21144657 1.48926 -0.37893587 -0.21720138
1.4916581 -0.4015055 -0.22138949 1.492971 -0.41980892 -0.22453724 1.4937513 -0.43660617
-0.22798285 1.4940121 -0.45452186 -0.23244165 1.4945548 -0.47086793 -0.23741387 1.4955858
-0.48514935 -0.24301782 1.496573 -0.49992624 -0.24890001 1.4982057 -0.51379764 -0.25465545
1.499166 -0.52787584 -0.2607802 1.4995509 -0.5420371 -0.26621982 1.4987118 -0.55638415
-0.27142608 1.4988261 -0.57223445 -0.2771186 1.4967443 -0.5878261 -0.28135693 1.495942
-0.6032961 -0.28674507 1.4927801 -0.61907136 -0.2933215 1.4907211 -0.63610417 -0.30111495
1.4898001 -0.65248954 -0.3096819 1.4906989 -0.66654956 -0.31793553 1.4932855 -0.67801315
-0.32431516 1.4971001 -0.6866316 -0.32940197 1.4991802 -0.6940602 -0.3341018 1.500277
-0.69950914 -0.33822206 1.5012323 -0.7046793 -0.3408972 1.5028545 -0.70816946 -0.34189546
00000000: fc7e ce3e ab3a bf3f 7da1 993f 9ad7 c83e
00000010: d9ce be3f 8ee6 963f 9ed1 c23e cd24 be3f
00000020: 7f18 943f 8c6e bc3e 577d bd3f 4c0e 913f
00000030: 647d b53e 74f7 bc3f 5fb4 8d3f 7f41 ae3e
00000040: fc87 bc3f 9335 8a3f f5a6 a63e de60 bc3f
00000050: 4683 863f ea8f 9e3e fd4d bc3f 0294 823f
00000060: 29f4 963e 51af bc3f 25fe 7c3f 262f 8f3e
00000070: 744e bd3f e025 753f 015c 883e d3eb bd3f
00000080: a710 6e3f 2fbb 823e 525a be3f 2d43 673f
00000090: 7b23 7c3e 0e85 be3f a582 603f 3d4f 743e
000000a0: 25e3 be3f 3ff2 593f 58b1 6c3e 5a2a bf3f
000000b0: 6bba 533f 39d8 653e 077d bf3f c966 4d3f
000000c0: ec02 603e e2a8 bf3f 4f2a 473f 1dcd 593e
000000d0: b6c4 bf3f 7cda 403f 06af 533e bae1 bf3f
000000e0: 704e 3a3f 20ff 4c3e d8ac bf3f 4f33 333f
000000f0: 7f52 443e 2b64 bf3f 1daa 2b3f 008a 3a3e
00000100: 42f6 be3f 8787 233f 0736 303e a555 be3f
00000110: fcda 1a3f 39b8 253e a0ec bd3f 18b2 113f
00000120: 9232 1c3e b5d4 bd3f 6797 083f 6667 133e
00000130: 42fe bd3f 46dc ff3e 728a 0a3e e43a be3f
00000140: 9b5e ef3e f102 023e 2283 be3f e4f0 df3e
00000150: 6789 f23d 41d5 be3f 3615 d23e 7c5e e23d
00000160: 7f14 bf3f 44ee c53e fd3c d23d e433 bf3f
00000170: 846d ba3e 1e1d c13d 544d bf3f 3f29 af3e
00000180: eb79 ae3d d725 bf3f cff1 a33e 21fa 983d
00000190: 7ef6 be3f f80c 993e 92e9 803d 56c3 be3f
000001a0: 8031 8e3e c445 513d 0b81 be3f a65c 823e
000001b0: aafe 1f3d f30c be3f 813c 6b3e d530 d43c
000001c0: bd85 bd3f ab8f 503e 77c1 263c e308 bd3f
000001d0: bfd8 343e f3c2 fabb c89f bc3f c85f 173e
000001e0: 76af d8bc 735e bc3f e979 ef3d 08fd 34bd
000001f0: bb9c bc3f 6ab1 b23d 3f1d 77bd 7b36 bd3f
00000200: dee9 7a3d 7d8d 96bd cca0 bd3f 914a 163d
00000210: b7f7 adbd e600 be3f c8d4 653c 1a29 c2bd
00000220: ac79 be3f 4c73 dcbb 920d d3bd 26ff be3f
00000230: c4b0 d5bc df7f e0bd 606c bf3f b812 39bd
00000240: e97a eebd b0ee bf3f 967f 83bd 30d1 fabd
00000250: 4c1b c03f f945 acbd 9efd 03be 9540 c03f
00000260: d86c d8bd aee6 0abe e637 c03f 7d7c 03be
00000270: cda4 11be e2fd bf3f 764d 1bbe b808 1abe
00000280: cc9b bf3f d0df 35be 8457 23be a61e bf3f
00000290: 5876 51be bfb3 2dbe dd90 be3f e054 6ebe
000002a0: 000c 39be 44fb bd3f c27d 86be 82d5 42be
000002b0: 7d9e bd3f 851a 96be 8881 4abe 61ca bd3f
000002c0: 57e9 a4be 8e8d 51be 0115 be3f f10b b4be
000002d0: 7385 58be 12a0 be3f e203 c2be 0a6a 5ebe
000002e0: a7ee be3f 2192 cdbe edb3 62be ac19 bf3f
000002f0: 32f1 d6be 17ed 65be 3e33 bf3f d88a dfbe
00000300: 5674 69be ca3b bf3f 17b7 e8be 2f05 6ebe
00000310: 924d bf3f 9a15 f1be 9f1c 73be 5b6f bf3f
00000320: 7f65 f8be aad9 78be b48f bf3f 55f6 ffbe
00000330: a5df 7ebe 34c5 bf3f 3e88 03bf 3362 82be
00000340: ace4 bf3f df22 07bf fb84 85be 49f1 bf3f
00000350: f2c2 0abf f74d 88be cad5 bf3f 316f 0ebf
00000360: 5cf8 8abe 89d9 bf3f f57d 12bf 7de2 8dbe
00000370: 5195 bf3f c57b 16bf 040e 90be 077b bf3f
00000380: 9d71 1abf 40d0 92be 6b13 bf3f 767b 1ebf
00000390: 3c2e 96be f3cf be3f b9d7 22bf bd2b 9abe
000003a0: c5b1 be3f 8e09 27bf a08e 9ebe 39cf be3f
000003b0: fea2 2abf 72c8 a2be fb23 bf3f 4592 2dbf
000003c0: a30c a6be faa0 bf3f 17c7 2fbf 60a7 a8be
000003d0: 23e5 bf3f eead 31bf 640f abbe 1409 c03f
000003e0: 0813 33bf 712b adbe 6128 c03f dd65 34bf
000003f0: 148a aebe 895d c03f 984a 35bf ec0c afbe

left_hand_pose f4 [176, 12]
0.041944377 -0.0075495015 0.13034122 -0.9507933 0.93847114 -0.005890984 0.5571653 -0.37862736
-0.23347722 -1.1195214 0.530297 -1.7437365 0.13999121 -0.13090368 0.3117272 -0.8912929
0.9544098 -0.0501697 0.66804427 -0.5013603 -0.44579974 -1.2482685 0.5215547 -1.9165123
0.31315014 -0.002042349 0.326603 -0.4343956 0.4204478 -0.39293003 0.96185553 -0.05124708
-0.96575063 -0.903232 0.96716446 -0.78303045 0.3167265 0.1742547 0.44361928 -0.25003555
0.21098346 -0.5486989 0.9385647 -0.23146546 -0.74768025 -1.0544409 0.8441684 -1.5669689
0.29367387 0.045509275 0.442683 -0.57383066 0.7249942 -0.33178186 0.99924153 -0.6306098
-0.4529477 -1.3382828 0.983163 -1.8663827 0.2815902 -0.04543239 0.39529154 -0.6215206
0.6244054 -0.1618507 1.2198337 -0.73273456 -0.6958123 -1.5076752 0.8365129 -1.7926251
0.21674697 0.14545242 0.17027321 -0.5937204 0.5973016 0.085565165 0.7891717 -0.59992844
-0.7511182 -1.3060386 0.55225927 -1.8003504 0.07326172 0.29280454 -0.14169167 -0.9927572
0.76972425 0.76851857 0.7741137 -0.8919126 -0.51377565 -1.1878654 0.27184334 -1.2926509
0.20218906 0.1356497 0.23733743 -0.5497731 0.9622882 -0.17310476 0.31937093 -0.432531
0.04676663 -0.9985584 0.8864301 -1.6743608 0.0572811 0.20418645 0.15188439 -0.64858156
0.8471885 -0.06186313 0.6556281 -0.7847517 -0.558059 -1.5768538 0.5308726 -2.3733933
0.014773202 0.32135034 0.067513764 -0.5929554 0.778762 -0.043994848 0.43437412 -0.6920492
-0.60950565 -1.4290313 0.407922 -2.5184033 0.117971465 0.14450936 0.33226472 -0.43888938
0.6980539 -0.20136032 0.7790267 -0.7216372 -0.4433971 -1.4803209 0.7261373 -2.0567932
0.10184411 0.12600547 0.18502544 -0.42522174 0.5951756 -0.0020219854 0.5506011 -0.5505251
-0.28968784 -1.0889804 0.75133896 -1.7243878 0.11431081 0.06212003 0.25227943 -0.41564703
0.6539193 -0.13692024 0.66324645 -0.56931585 -0.35038733 -1.1874725 0.6954301 -1.8859153
0.066765785 0.18626647 0.048801824 -0.51934737 0.6170605 0.060548812 0.6029818 -0.48891297
-0.59174466 -1.1269424 0.5876719 -1.6677202 0.037674673 0.1558633 0.0697287 -0.5207911
0.658908 0.083302155 0.61993694 -0.5078568 -0.44464707 -1.0830364 0.60898066 -1.619363
0.025542574 0.14371717 0.17296721 -0.4803907 0.60596865 -0.004282825 0.7234926 -0.57503587
-0.4570424 -1.1947523 0.65723956 -1.8014351 0.024137484 0.1083443 0.14017397 -0.43044645
0.5946162 0.020417701 0.6124897 -0.49755195 -0.58514214 -1.0803319 0.6927384 -1.6065662
0.061110307 0.07156934 0.2004174 -0.29407093 0.49409962 -0.12038516 0.6166149 -0.4027387
-0.66404283 -0.99005765 0.81214327 -1.4585606 0.04771061 0.11365211 0.21293828 -0.3340928
0.5847076 -0.19629633 0.58913106 -0.42337218 -0.63747364 -1.0833954 0.79969245 -1.6546873
0.043387 0.013602198 0.28669408 -0.27979612 0.53712744 -0.30781153 0.7257067 -0.44113106
-0.6125477 -1.1480424 0.74583626 -1.6681362 0.04341929 0.0007291104 0.32711485 -0.26668137
00000000: decd 2b3d cf61 f7bb 2b78 053e 3167 73bf
00000010: a53f 703f 2809 c1bb 63a2 0e3f 72db c1be
00000020: a714 6fbe 7a4c 8fbf 8bc1 073f c232 dfbf
00000030: db59 0f3e 9d0b 06be b59a 9f3e c62b 64bf
00000040: 3354 743f be7e 4dbd f304 2b3f 2659 00bf
00000050: dd3f e4be 43c7 9fbf 9c84 053f 4650 f5bf
00000060: 3755 a03e eed8 05bb 8238 a73e 1a69 debe
00000070: ef44 d73e 202e c9be 2a3c 763f 75e8 51bd
00000080: 6f3b 77bf 363a 67bf 1798 773f af74 48bf
00000090: fa29 a23e d36f 323e 1122 e33e a904 80be
000000a0: 0c0c 583e 8877 0cbf c745 703f 4805 6dbe
000000b0: f967 3fbf ebf7 86bf 6c1b 583f 7092 c8bf
000000c0: 6c5c 963e ef67 3a3d 59a7 e23e 91e6 12bf
000000d0: 3899 393f 50df a9be 4bce 7f3f a56f 21bf
000000e0: c3e8 e7be da4c abbf 92b0 7b3f a1e5 eebf
000000f0: 972c 903e 5017 3abd a763 ca3e f91b 1fbf
00000100: 08d9 1f3f 31bc 25be 8323 9c3f 7e94 3bbf
00000110: c120 32bf 80fb c0bf b625 563f bd74 e5bf
00000120: ebf2 5d3e 7bf1 143e 1a5c 2e3e 0ffe 17bf
00000130: c2e8 183f ca3c af3d 2807 4a3f e994 19bf
00000140: 4849 40bf 462c a7bf dd60 0d3f e271 e6bf
00000150: 3e0a 963d 7aea 953e 9f17 11be 5625 7ebf
00000160: a60c 453f a2bd 443f 512c 463f 6254 64bf
00000170: cd86 03bf f90b 98bf 0d2f 8b3e 9675 a5bf
00000180: a60a 4f3e c1e7 0a3e 9508 733e eebd 0cbf
00000190: 8558 763f 6042 31be 9684 a33e b474 ddbe
000001a0: 5e8e 3f3d 86a1 7fbf 15ed 623f 7451 d6bf
000001b0: 969f 6a3d 4116 513e 9587 1b3e 7109 26bf
000001c0: 58e1 583f 3264 7dbd 3ed7 273f 7de5 48bf
000001d0: f4dc 0ebf 58d6 c9bf 44e7 073f ade5 17c0
000001e0: 4d0b 723c 0888 a43e a844 8a3d edcb 17bf
000001f0: f25c 473f f133 34bd 4966 de3e 232a 31bf
00000200: 9008 1cbf 7fea b6bf 27db d03e 852d 21c0
00000210: 069b f13d 43fa 133e 9a1e aa3e 1cb6 e0be
00000220: a9b3 323f 6631 4ebe 4b6e 473f 37bd 38bf
00000230: f204 e3be 287b bdbf 22e4 393f 80a2 03c0
00000240: a593 d03d 9407 013e 4f77 3d3e aab6 d9be
00000250: 6e5d 183f 4983 04bb 32f4 0c3f 37ef 0cbf
00000260: f751 94be b663 8bbf c057 403f bdb8 dcbf
00000270: c91b ea3d 9371 7e3d c52a 813e b0cf d4be
00000280: 4167 273f d234 0cbe 85ca 293f afbe 11bf
00000290: f865 b3be 19ff 97bf b507 323f ac65 f1bf
000002a0: 80bc 883d a3bc 3e3e 6ce4 473d f3f3 04bf
000002b0: adf7 1d3f 0802 783d 045d 1a3f cd52 fabe
000002c0: 947c 17bf a63f 90bf aa71 163f db77 d5bf
000002d0: c250 1a3d a19a 1f3e eccd 8e3d 9152 05bf
000002e0: 32ae 283f 529a aa3d 30b4 1e3f e702 02bf
000002f0: c8a8 e3be f0a0 8abf 28e6 1b3f 4947 cfbf
00000300: a93e d13c 982a 133e 511e 313e c5f5 f5be
00000310: c320 1b3f f156 8cbb d036 393f 8d35 13bf
00000320: 7601 eabe a5ed 98bf da40 283f 6d95 e6bf
00000330: f9bb c53c 9ee3 dd3d c489 0f3e 7a63 dcbe
00000340: c438 183f 0643 a73c 20cc 1c3f 21bf febe
00000350: e0cb 15bf 5148 8abf 4e57 313f f6a3 cdbf
00000360: cd4e 7a3d f292 923d 383a 4d3e 7790 96be
00000370: a0fa fc3e 7f8c f6bd 79da 1d3f c433 cebe
00000380: b6fe 29bf 6b74 7dbf 9fe8 4f3f 1db2 babf
00000390: 336c 433d 70c2 e83d 7e0c 5a3e 360e abbe
000003a0: 66af 153f e801 49be 4bd1 163f 3dc4 d8be
000003b0: 7931 23bf b3ac 8abf a5b8 4c3f cbcc d3bf
000003c0: 91b6 313d c1db 5e3c 91c9 923e 7041 8fbe
000003d0: 2f81 093f 7999 9dbe eac7 393f eedb e1be
000003e0: edcf 1cbf 0ef3 92bf 20ef 3e3f 7d85 d5bf
000003f0: 6dd8 313d c521 3f3a 997b a73e 768a 88be

right_hand_pose f4 [176, 12]
-0.26193884 0.4616459 -0.055636365 -0.63055515 0.2890301 -0.06262543 0.6637168 -0.25729087
-1.4943306 -1.1060876 0.7282278 -1.8188853 -0.281931 0.50941277 -0.053724203 -0.6495121
0.33313617 -0.03244915 0.63958716 -0.24405344 -1.3049355 -1.0062829 0.756209 -1.6786072
-0.2559263 0.5093538 -0.043558713 -0.51202214 0.22170568 -0.099863976 0.5774492 -0.09403408
-1.2440405 -0.8477034 0.8132323 -1.3142765 -0.32570484 0.6278246 -0.09140448 -0.59067684
0.3623945 -0.12707563 0.51246816 -0.14311671 -1.3363333 -1.0005997 0.7519299 -1.5706891
-0.3406743 0.6498013 -0.099994235 -0.5472046 0.34703565 -0.13234663 0.5296825 -0.12744352
-1.2781044 -0.94624484 0.75997865 -1.4271779 -0.3256652 0.64515585 -0.07719933 -0.5091999
0.29922304 -0.08725427 0.5290725 -0.053234655 -1.0972933 -0.7713186 0.7865541 -1.0915513
-0.3047913 0.6246255 -0.042274125 -0.53548676 0.3814427 -0.064531334 0.52393544 -0.027714813
-1.08937 -0.7430519 0.6783591 -1.0001216 -0.352085 0.6273579 -0.07680097 -0.517269
0.3586545 -0.12861867 0.52125573 -0.036260366 -1.2411916 -0.8650949 0.6576598 -1.2262212
-0.33523616 0.51234 -0.0151841985 -0.47595853 0.48288423 -0.13104236 0.47617495 -0.09186125
-1.1423384 -0.8789326 0.7661654 -1.1949401 -0.36158156 0.4743399 -0.035223335 -0.47176638
0.32146275 -0.09150653 0.6294693 -0.13861218 -1.3786571 -0.9205808 0.7593338 -1.3161478
-0.33519822 0.38046035 -0.016254408 -0.41700003 0.19956797 -0.030755447 0.70379496 -0.1507111
-1.358292 -0.82715446 0.84975135 -1.128866 -0.3458785 0.31298512 -0.03981725 -0.49946025
0.20666541 0.074237265 0.77823853 -0.2092043 -1.2512325 -0.8455153 0.8084153 -1.1878912
-0.38314998 0.27697608 -0.08159266 -0.5155171 0.33127528 0.111807406 0.60329854 -0.28678235
-1.3248893 -0.9581738 0.7186038 -1.5147822 -0.32079038 0.2973083 -0.029133892 -0.3974248
0.15363726 0.00016228399 0.736837 -0.16254468 -1.230141 -0.738952 0.9355009 -1.2386456
-0.21670936 0.19685136 0.06555376 -0.35291815 0.2630335 -0.034282368 0.7223211 -0.14704828
-1.0946885 -0.6845335 0.9932497 -0.9144935 -0.1781499 0.2120613 0.053230003 -0.42013562
0.48256847 -0.020346383 0.5325358 -0.13429016 -1.042112 -0.813273 0.669443 -1.0207609
-0.1989385 0.30556092 0.014065622 -0.49821752 0.47965765 -0.027454965 0.48048922 -0.18892495
-1.0145942 -0.91709924 0.606617 -1.3249854 -0.16495322 0.33420473 0.02865952 -0.4807444
0.49310285 -0.0072137867 0.45661396 -0.13473378 -0.93296117 -0.8314328 0.56080574 -1.1309294
-0.17243806 0.36727086 0.035784435 -0.47187763 0.3459132 0.0012980605 0.5657212 -0.16113804
-0.99661744 -0.8542141 0.6085633 -1.195997 -0.13659856 0.28731912 0.035232596 -0.44681492
0.43196952 0.068576366 0.43386385 -0.20206752 -0.99851716 -0.8507299 0.5131053 -1.2327778
-0.13769455 0.33535624 -0.0029529475 -0.4553913 0.45310795 -0.032364108 0.42527643 -0.1302482
-0.99334383 -0.8614652 0.59360534 -1.3197935 -0.12602662 0.3730629 -0.020918759 -0.5197026
00000000: d91c 86be da5c ec3e f5e2 63bd 106c 21bf
00000010: c1fb 933e c341 80bd 58e9 293f a1bb 83be
00000020: 3a46 bfbf 4794 8dbf 236d 3a3f 3cd1 e8bf
00000030: 4359 90be e068 023f e90d 5cbd 6d46 26bf
00000040: d390 aa3e 66e9 04bd fcbb 233f 25e9 79be
00000050: 2008 a7bf e1cd 80bf ea96 413f 9adc d6bf
00000060: c608 83be 0365 023f 9f6a 32bd e213 03bf
00000070: d006 633e 7c85 ccbd b6d3 133f f194 c0bd
00000080: b83c 9fbf 1703 59bf fe2f 503f 363a a8bf
00000090: c9c2 a6be 1db9 203f 4632 bbbd 9936 17bf
000000a0: c68b b93e 1d20 02be 1d31 033f 308d 12be
000000b0: f80c abbf a713 80bf 7a7e 403f 570c c9bf
000000c0: dd6c aebe 6159 263f c7c9 ccbd 9a15 0cbf
000000d0: a8ae b13e e085 07be 4699 073f 8e80 02be
000000e0: ed98 a3bf 1a3d 72bf f68d 423f c4ad b6bf
000000f0: 97bd a6be ef28 253f af1a 9ebd ed5a 02bf
00000100: c333 993e 5eb2 b2bd 4c71 073f 950c 5abd
00000110: 1b74 8cbf 2375 45bf 9c5b 493f f4b7 8bbf
00000120: 9b0d 9cbe 75e7 1f3f a227 2dbd a915 09bf
00000130: 754c c33e 0129 84bd a220 063f 2d0a e3bc
00000140: 7a70 8bbf a638 3ebf f1a8 2d3f fc03 80bf
00000150: 7c44 b4be 879a 203f d449 9dbd be6b 04bf
00000160: 90a1 b73e 9db4 03be 0471 053f c085 14bd
00000170: 5edf 9ebf dc76 5dbf 655c 283f d1f4 9cbf
00000180: 13a4 abbe b728 033f 25c7 78bc d6b0 f3be
00000190: 9a3c f73e f82f 06be 34cd f33e c021 bcbd
000001a0: 2538 92bf ba01 61bf 6a23 443f ccf3 98bf
000001b0: 3821 b9be aedc f23e 5846 10bd 5d8b f1be
000001c0: c496 a43e c767 bbbd e624 213f 5af0 0dbe
000001d0: d677 b0bf 2fab 6bbf b363 423f 8877 a8bf
000001e0: 1a9f abbe b3cb c23e f727 85bc 0781 d5be
000001f0: 8c5b 4c3e d9f2 fbbc e82b 343f 0354 1abe
00000200: 83dc adbf 65c0 53bf 4e89 593f ae7e 90bf
00000210: fd16 b1be 963f a03e 6a17 23bd 41b9 ffbe
00000220: 19a0 533e b509 983d a43a 473f a739 56be
00000230: 6328 a0bf b173 58bf 4ef4 4e3f d20c 98bf
00000240: 3c2c c4be cfcf 8d3e 0d1a a7bd eef8 03bf
00000250: ea9c a93e 48fb e43d c671 1a3f 23d5 92be
00000260: f995 a9bf e14a 75bf 6bf6 373f 62e4 c1bf
00000270: a33e a4be cb38 983e 33aa eebc 437b cbbe
00000280: 1653 1d3e c72a 2a39 5aa1 3c3f 1d72 26be
00000290: 4375 9dbf f52b 3dbf fd7c 6f3f f08b 9ebf
000002a0: 0fe9 5dbe 6793 493e 0d41 863d b0b1 b4be
000002b0: 54ac 863e ab6b 0cbd 09ea 383f d393 16be
000002c0: c11e 8cbf 963d 2fbf 9d45 7e3f 3f1c 6abf
000002d0: ed6c 36be 9926 593e b407 5a3d 041c d7be
000002e0: 3713 f73e 75ad a6bc 4454 083f 5c83 09be
000002f0: ed63 85bf a932 50bf 9e60 2b3f 4ba8 82bf
00000300: 89b6 4bbe 7b72 9c3e 7f73 663c 5e16 ffbe
00000310: b095 f53e 3ce9 e0bc af02 f63e 8b75 41be
00000320: 39de 81bf 04c7 6abf 404b 1b3f 1f99 a9bf
00000330: 7fe9 28be e21c ab3e 5fc7 ea3c 2124 f6be
00000340: fa77 fc3e a161 ecbb 4ec9 e93e a7f7 09be
00000350: 8bd6 6ebf c8d8 54bf f790 0f3f 4bc2 90bf
00000360: 9a93 30be ed0a bc3e b392 123d f299 f1be
00000370: 891b b13e af23 aa3a 1bd3 103f 5f01 25be
00000380: 5222 7fbf c6ad 5abf ceca 1b3f 6e16 99bf
00000390: 7ee0 0bbe 7e1b 933e 0e50 103d edc4 e4be
000003a0: 1c2b dd3e c471 8c3d 6723 de3e caea 4ebe
000003b0: d29e 7fbf 6fc9 59bf de5a 033f aacb 9dbf
000003c0: cdff 0cbe d0b3 ab3e 3d86 41bb 0c29 e9be
000003d0: c4fd e73e 3a90 04bd d5bd d93e c95f 05be
000003e0: c84b 7ebf fc88 5cbf 85f6 173f feee a8bf
000003f0: 1f0d 01be 1a02 bf3e d15d abbc 3b0b 05bf

jaw_pose f4 [176, 3]
-0.005449207 -0.004740148 -0.0005297374 -0.004740758 -0.0072555216 -0.0017587991 -0.0075932504 -0.0071734637
-0.0010609577 0.01125584 -0.005942968 -0.0013540848 0.0070492825 -0.006287517 -0.0010330991 0.032123208
-0.00525669 -0.001121118 0.027927345 -0.0053183916 -0.0009217208 0.0345786 -0.0065252134 -0.0016240821
0.035880294 -0.006082024 -0.0010022355 0.0525835 -0.004730365 -0.0009068917 0.05227994 -0.0044029215
-0.001260291 0.04532339 -0.0057357135 -0.00085742725 0.04201356 -0.004570074 -0.0007655585 0.052193183
-0.006019507 -0.0008705342 0.03511153 -0.0055952054 -0.00081661413 0.042326458 -0.007171683 -0.0021232269
0.045387086 -0.0072651785 -0.0018593161 0.0496585 -0.004582358 -0.0013000494 0.045773488 -0.0042691133
-0.0009387623 0.055778626 -0.0035531975 -0.00088780624 0.05316645 -0.0027880734 -0.000721551 0.04783951
-0.004887293 -0.0008278847 0.053524762 -0.0045402003 -0.0012870302 0.060157757 -0.006284076 -0.0017448536
0.0627911 -0.0068902676 -0.0014998302 0.04779612 -0.002515657 -0.0009319473 0.043055423 -0.0017653698
-0.00044172592 0.043904155 -0.0036252406 -0.00093631906 0.036698755 -0.006308797 -0.0019927078 0.04700202
-0.0039945487 -0.0010540972 0.04190445 -0.0053317714 -0.00087975786 0.038218524 -0.006508545 -0.0020790913
0.032065213 -0.0041413596 -0.0011668471 0.031564683 -0.007201345 -0.0023757839 0.016097544 -0.008151651
-0.0023391335 0.037362598 -0.0046896 -0.0015212336 0.03953011 -0.007057966 -0.0022814104 0.055004302
-0.0058559817 -0.0010561467 0.04257464 -0.006969455 -0.001873268 0.039751675 -0.00017268141 7.8662495e-05
0.03799272 -0.0035793022 -0.00051864545 0.042068493 -0.0019125163 -0.0005105272 0.026568016 -0.005596494
-0.0014206961 0.03847877 -0.003874539 -0.0008313664 0.035170548 -0.0030178025 -0.0006551337 0.03887953
-0.0061843363 -0.001897661 0.04030943 -0.006571964 -0.0013197723 0.037193332 -0.0034248258 -0.0011546605
0.053064555 -0.0061623026 -0.0018228269 0.047636468 -0.005236353 -0.0010142309 0.048628565 -0.0027150728
-0.00059151265 0.05827302 -0.0017098737 -0.0002331608 0.042823963 -0.0060664085 -0.0014809478 0.035265896
-0.004422831 -0.000687295 0.030666966 -0.0064537316 -0.0015046006 0.034912698 -0.0051485198 -0.0008917358
0.041154973 -0.0045751673 -0.00079062243 0.027358914 -0.0031707066 -0.00070805865 0.027415574 -0.0013425391
-0.0004985672 0.046100892 0.0010482129 0.000436889 0.058925956 -0.00063140166 -0.00021369182 0.055793073
-0.00240692 -0.0008890347 0.04879496 -0.0028728647 -0.001004633 0.047261108 -0.0056278417 -0.0014021265
0.044043683 -0.0046256045 -0.0012850002 0.019943712 -0.0026207955 -0.0009886579 0.038742825 -0.006744689
-0.0030687635 0.043994848 -0.0021037369 -0.0007242343 0.07097384 0.0022273264 0.00016700958 0.056686968
-0.0018478506 -0.00089502207 0.07507695 0.0005041326 -0.00017063116 0.07514292 -0.0017265917 -0.0008104324
0.06321516 0.0007673712 0.00010144985 0.04987572 0.0026444467 0.0005567088 0.07362311 0.0033732373
0.0008904359 0.082627736 0.0060270554 0.0012986318 0.077249706 0.005203973 0.0007411807 0.07486999
0.0069905543 0.0017281846 0.08386475 0.006801995 0.00098391 0.07024779 0.0056998967 0.0012072346
0.06968785 0.008022407 0.002575019 0.074285276 0.008653218 0.0027392923 0.067990586 0.009044897
0.003488992 0.07510536 0.007321218 0.0015565883 0.068101004 0.0078488095 0.0028573954 0.06728017
00000000: 438f b2bb 3e53 9bbb 13de 0aba 5c58 9bbb
00000010: babf edbb 8187 e6ba cdd0 f8bb 600f ebbb
00000020: d50f 8bba 6a6a 383c 3bbd c2bb 8c7b b1ba
00000030: abfd e63b 8407 cebb 0e69 87ba a093 033d
00000040: 5040 acbb 7af2 92ba e3c7 e43c e745 aebb
00000050: a39f 71ba 4aa2 0d3d 75d1 d5bb 27df d4ba
00000060: 37f7 123d b74b c7bb 715d 83ba cc61 573d
00000070: 2d01 9bbb 79bc 6dba 7e23 563d 6246 90bb
00000080: 5930 a5ba 05a5 393d a7f2 bbbb f8c4 60ba
00000090: 6916 2c3d 8fc0 95bb c3af 48ba 85c8 553d
000000a0: 493f c5bb 9034 64ba 1cd1 0f3d fc57 b7bb
000000b0: 0c12 56ba 825e 2d3d 7000 ebbb d625 0bbb
000000c0: cfe7 393d bc10 eebb 4cb4 f3ba b666 4b3d
000000d0: 9b27 96bb 6b66 aaba fb7c 3b3d ebe3 8bbb
000000e0: 4617 76ba 2178 643d c3dc 68bb abbb 68ba
000000f0: 10c5 593d 1cb8 36bb 7826 3dba 5df3 433d
00000100: 9625 a0bb 6706 59ba c83c 5b3d f6c5 94bb
00000110: 91b1 a8ba fb67 763d a6ea cdbb 92b3 e4ba
00000120: 9f98 803d c1c7 e1bb f395 c4ba ddc5 433d
00000130: b9dd 24bb ed4d 74ba e25a 303d fb63 e7ba
00000140: 7397 e7b9 d8d4 333d 7295 6dbb 4f73 75ba
00000150: 6f51 163d 06ba cebb 1798 02bb 3185 403d
00000160: b4e4 82bb a229 8aba 00a4 2b3d 24b6 aebb
00000170: 8d9f 66ba 078b 1c3d a245 d5bb 5d41 08bb
00000180: d056 033d 3eb4 87bb e4f0 98ba f849 013d
00000190: 43f9 ebbb 0ab3 1bbb ffde 833c 818e 05bc
000001a0: 264c 19bb 8609 193d 37ab 99bb 2164 c7ba
000001b0: 53ea 213d 8346 e7bb b783 15bb 314c 613d
000001c0: 89e3 bfbb 676e 8aba bf62 2e3d 0760 e4bb
000001d0: 7288 f5ba a7d2 223d d011 35b9 9bf7 a438
000001e0: 419e 1b3d ba92 6abb b5f5 07ba 0350 2c3d
000001f0: 66ad faba e7d4 05ba 2ba5 d93c cb62 b7bb
00000200: a736 baba ea9b 1d3d faeb 7dbb 0ef0 59ba
00000210: fe0e 103d 53c6 45bb 47bd 2bba 2440 1f3d
00000220: f9a5 cabb f0ba f8ba 801b 253d a159 d7bb
00000230: 36fc acba 0958 183d 0b73 60bb fa57 97ba
00000240: 385a 593d 24ed c9bb eceb eeba 751e 433d
00000250: b695 abbb f1ef 84ba bf2e 473d 5def 31bb
00000260: be0f 1bba b1af 6e3d d71d e0ba a07c 74b9
00000270: 2e68 2f3d b9c8 c6bb 5d1c c2ba f972 103d
00000280: 65ed 90bb 962b 34ba 4a39 fb3c d379 d3bb
00000290: 0536 c5ba 9e00 0f3d eab4 a8bb 60c3 69ba
000002a0: 1e92 283d 49eb 95bb c641 4fba cd1f e03c
000002b0: a1cb 4fbb 039d 39ba a096 e03c 23f8 afba
000002c0: 47b2 02ba 4ad4 3c3d 3064 893a 400e e539
000002d0: 585c 713d a684 25ba 7612 60b9 4787 643d
000002e0: 6bbd 1dbb 1c0e 69ba 39dd 473d ac46 3cbb
000002f0: e4ad 83ba dd94 413d c269 b8bb 8fc7 b7ba
00000300: 2667 343d 6292 97bb 746d a8ba ff60 a33c
00000310: a7c1 2bbb db95 81ba ccb0 1e3d 8d02 ddbb
00000320: 4f1d 49bb f133 343d d9de 09bb 8bda 3dba
00000330: bc5a 913d 56f8 113b 4b1f 2f39 9830 683d
00000340: 9433 f2ba ea9f 6aba f2c1 993d c427 043a
00000350: 74eb 32b9 88e4 993d ce4e e2ba 3373 54ba
00000360: f376 813d 6929 493a 79c1 d438 7c4a 4c3d
00000370: 744e 2d3b 18f0 113a b7c7 963d 8811 5d3b
00000380: 246c 693a bb38 a93d 9b7e c53b da36 aa3a
00000390: 1835 9e3d 1786 aa3b cb4b 423a 7055 993d
000003a0: 0511 e53b 4184 e23a 48c1 ab3d 45e3 de3b
000003b0: 8bf6 803a 13de 8f3d 33c6 ba3b 123c 9e3a
000003c0: 81b8 8e3d 6a70 033c a6c1 283b e122 983d
000003d0: 3ac6 0d3c b385 333b a63e 8b3d 0c31 143c
000003e0: 93a7 643b d7d0 993d d4e6 ef3b 7006 cc3a
000003f0: 8a78 8b3d 4b98 003c 2443 3b3b 30ca 893d

leye_pose f4 [176, 3]
0.0 0.0 0.0 0.0 0.0 0.0 0.0 0.0
0.0 0.0 0.0 0.0 0.0 0.0 0.0 0.0
0.0 0.0 0.0 0.0 0.0 0.0 0.0 0.0
0.0 0.0 0.0 0.0 0.0 0.0 0.0 0.0
0.0 0.0 0.0 0.0 0.0 0.0 0.0 0.0
0.0 0.0 0.0 0.0 0.0 0.0 0.0 0.0
0.0 0.0 0.0 0.0 0.0 0.0 0.0 0.0
0.0 0.0 0.0 0.0 0.0 0.0 0.0 0.0
0.0 0.0 0.0 0.0 0.0 0.0 0.0 0.0
0.0 0.0 0.0 0.0 0.0 0.0 0.0 0.0
0.0 0.0 0.0 0.0 0.0 0.0 0.0 0.0
0.0 0.0 0.0 0.0 0.0 0.0 0.0 0.0
0.0 0.0 0.0 0.0 0.0 0.0 0.0 0.0
0.0 0.0 0.0 0.0 0.0 0.0 0.0 0.0
0.0 0.0 0.0 0.0 0.0 0.0 0.0 0.0
0.0 0.0 0.0 0.0 0.0 0.0 0.0 0.0
0.0 0.0 0.0 0.0 0.0 0.0 0.0 0.0
0.0 0.0 0.0 0.0 0.0 0.0 0.0 0.0
0.0 0.0 0.0 0.0 0.0 0.0 0.0 0.0
0.0 0.0 0.0 0.0 0.0 0.0 0.0 0.0
0.0 0.0 0.0 0.0 0.0 0.0 0.0 0.0
0.0 0.0 0.0 0.0 0.0 0.0 0.0 0.0
0.0 0.0 0.0 0.0 0.0 0.0 0.0 0.0
0.0 0.0 0.0 0.0 0.0 0.0 0.0 0.0
0.0 0.0 0.0 0.0 0.0 0.0 0.0 0.0
0.0 0.0 0.0 0.0 0.0 0.0 0.0 0.0
0.0 0.0 0.0 0.0 0.0 0.0 0.0 0.0
0.0 0.0 0.0 0.0 0.0 0.0 0.0 0.0
0.0 0.0 0.0 0.0 0.0 0.0 0.0 0.0
0.0 0.0 0.0 0.0 0.0 0.0 0.0 0.0
0.0 0.0 0.0 0.0 0.0 0.0 0.0 0.0
0.0 0.0 0.0 0.0 0.0 0.0 0.0 0.0
00000000: 0000 0000 0000 0000 0000 0000 0000 0000
00000010: 0000 0000 0000 0000 0000 0000 0000 0000
00000020: 0000 0000 0000 0000 0000 0000 0000 0000
00000030: 0000 0000 0000 0000 0000 0000 0000 0000
00000040: 0000 0000 0000 0000 0000 0000 0000 0000
00000050: 0000 0000 0000 0000 0000 0000 0000 0000
00000060: 0000 0000 0000 0000 0000 0000 0000 0000
00000070: 0000 0000 0000 0000 0000 0000 0000 0000
00000080: 0000 0000 0000 0000 0000 0000 0000 0000
00000090: 0000 0000 0000 0000 0000 0000 0000 0000
000000a0: 0000 0000 0000 0000 0000 0000 0000 0000
000000b0: 0000 0000 0000 0000 0000 0000 0000 0000
000000c0: 0000 0000 0000 0000 0000 0000 0000 0000
000000d0: 0000 0000 0000 0000 0000 0000 0000 0000
000000e0: 0000 0000 0000 0000 0000 0000 0000 0000
000000f0: 0000 0000 0000 0000 0000 0000 0000 0000
00000100: 0000 0000 0000 0000 0000 0000 0000 0000
00000110: 0000 0000 0000 0000 0000 0000 0000 0000
00000120: 0000 0000 0000 0000 0000 0000 0000 0000
00000130: 0000 0000 0000 0000 0000 0000 0000 0000
00000140: 0000 0000 0000 0000 0000 0000 0000 0000
00000150: 0000 0000 0000 0000 0000 0000 0000 0000
00000160: 0000 0000 0000 0000 0000 0000 0000 0000
00000170: 0000 0000 0000 0000 0000 0000 0000 0000
00000180: 0000 0000 0000 0000 0000 0000 0000 0000
00000190: 0000 0000 0000 0000 0000 0000 0000 0000
000001a0: 0000 0000 0000 0000 0000 0000 0000 0000
000001b0: 0000 0000 0000 0000 0000 0000 0000 0000
000001c0: 0000 0000 0000 0000 0000 0000 0000 0000
000001d0: 0000 0000 0000 0000 0000 0000 0000 0000
000001e0: 0000 0000 0000 0000 0000 0000 0000 0000
000001f0: 0000 0000 0000 0000 0000 0000 0000 0000
00000200: 0000 0000 0000 0000 0000 0000 0000 0000
00000210: 0000 0000 0000 0000 0000 0000 0000 0000
00000220: 0000 0000 0000 0000 0000 0000 0000 0000
00000230: 0000 0000 0000 0000 0000 0000 0000 0000
00000240: 0000 0000 0000 0000 0000 0000 0000 0000
00000250: 0000 0000 0000 0000 0000 0000 0000 0000
00000260: 0000 0000 0000 0000 0000 0000 0000 0000
00000270: 0000 0000 0000 0000 0000 0000 0000 0000
00000280: 0000 0000 0000 0000 0000 0000 0000 0000
00000290: 0000 0000 0000 0000 0000 0000 0000 0000
000002a0: 0000 0000 0000 0000 0000 0000 0000 0000
000002b0: 0000 0000 0000 0000 0000 0000 0000 0000
000002c0: 0000 0000 0000 0000 0000 0000 0000 0000
000002d0: 0000 0000 0000 0000 0000 0000 0000 0000
000002e0: 0000 0000 0000 0000 0000 0000 0000 0000
000002f0: 0000 0000 0000 0000 0000 0000 0000 0000
00000300: 0000 0000 0000 0000 0000 0000 0000 0000
00000310: 0000 0000 0000 0000 0000 0000 0000 0000
00000320: 0000 0000 0000 0000 0000 0000 0000 0000
00000330: 0000 0000 0000 0000 0000 0000 0000 0000
00000340: 0000 0000 0000 0000 0000 0000 0000 0000
00000350: 0000 0000 0000 0000 0000 0000 0000 0000
00000360: 0000 0000 0000 0000 0000 0000 0000 0000
00000370: 0000 0000 0000 0000 0000 0000 0000 0000
00000380: 0000 0000 0000 0000 0000 0000 0000 0000
00000390: 0000 0000 0000 0000 0000 0000 0000 0000
000003a0: 0000 0000 0000 0000 0000 0000 0000 0000
000003b0: 0000 0000 0000 0000 0000 0000 0000 0000
000003c0: 0000 0000 0000 0000 0000 0000 0000 0000
000003d0: 0000 0000 0000 0000 0000 0000 0000 0000
000003e0: 0000 0000 0000 0000 0000 0000 0000 0000
000003f0: 0000 0000 0000 0000 0000 0000 0000 0000
