test_dataset/gait_753/20250617_c2_a1_Take1/split_subjects/0/fit-smplx/smplx-params.npz (npz, 77322 bytes, 10 tensors)

global_orient f4 [152, 3]
0.0520252 -2.7577052 -0.11807734 0.022154551 -2.6474 -0.08233577 0.001937074 -2.5435257
-0.040683452 0.0045925286 -2.5360568 -0.036416423 -0.01365239 -2.5623953 -0.029248945 -0.053847753
-2.613149 -0.024195591 -0.079201035 -2.6992373 -0.042171165 -0.066977836 -2.7890303 -0.0841251
-0.052296378 -2.901754 -0.109684624 -0.041277587 -3.0032852 -0.11211092 -0.016974254 -3.1229317
-0.10037143 0.015736518 -3.189602 -0.08974013 0.035342414 -3.2219348 -0.0849046 0.048465427
-3.2248538 -0.09363412 0.07691277 -3.1720061 -0.1259712 0.12596151 -3.0804183 -0.117634006
0.12952201 -2.9557393 -0.118725635 0.08618434 -2.8174045 -0.12578188 -0.009444081 -2.7418802
-0.11393809 -0.03853717 -2.6139288 -0.10135211 -0.044333987 -2.4911435 -0.08097146 -0.040878247
-2.4495661 -0.05846476 -0.031391058 -2.4484828 -0.038457245 -0.04682838 -2.4885137 -0.038076233
-0.067807704 -2.566722 -0.06138458 -0.055225547 -2.6512523 -0.11164373 -0.032288723 -2.6792784
-0.1674577 -0.02360658 -2.787536 -0.18609582 -0.023021013 -2.873485 -0.17367694 -0.021028738
-2.9657366 -0.14977641 -0.01594449 -3.0253458 -0.13317738 0.0040736557 -3.0530205 -0.11962151
0.018470818 -3.0611086 -0.113549374 0.020226968 -3.0324607 -0.12635995 0.030180255 -2.9672878
-0.14280768 0.008962701 -2.8851452 -0.16061293 -0.041870236 -2.7703087 -0.16358608 -0.08617953
-2.6796706 -0.16921023 -0.0806935 -2.5451396 -0.15753525 -0.04225334 -2.413092 -0.14705163
-0.025848776 -2.296911 -0.124542706 -0.023092652 -2.2527273 -0.10198472 -0.022035714 -2.2593262
-0.07409153 -0.0190833 -2.2974734 -0.058928702 -0.037249103 -2.3580074 -0.06520029 -0.06864521
-2.451281 -0.08911077 -0.11589372 -2.4679701 -0.081739336 -0.11961844 -2.5367908 -0.10833629
-0.048340607 -2.787582 -0.15783526 -0.0031317174 -3.0105934 -0.18019901 0.00856115 -3.1280017
-0.19749236 0.001843825 -3.1906056 -0.21467787 -0.0046998705 -3.2180324 -0.22641662 0.00293912
-3.2558153 -0.2415319 0.009809666 -3.2538712 -0.25578853 0.018992808 -3.2799783 -0.29445714
0.031382225 -3.2829196 -0.32357913 0.0399721 -3.295871 -0.34443998 0.044451173 -3.3516924
-0.36455473 0.05764782 -3.418111 -0.378373 0.09619475 -3.513933 -0.39403528 0.14047739
-3.596612 -0.39896515 0.17994772 -3.666783 -0.3726823 0.1923169 -3.7142637 -0.31677306
0.1903882 -3.759201 -0.2553185 0.174817 -3.7983541 -0.21128765 0.1475833 -3.8478968
-0.18157905 0.121298365 -3.9095287 -0.1754716 0.079834536 -4.0260835 -0.17816761 0.05088824
-4.1793847 -0.19143769 0.050238267 -4.319697 -0.24045779 0.07916862 -4.4703646 -0.2650238
0.13966827 -4.6796713 -0.2990784 0.18489397 -4.865613 -0.3133564 0.19660367 -4.992702
-0.30897135 0.17497966 -5.0828443 -0.29140022 0.15041198 -5.1535625 -0.3028143 0.14779456
-5.258862 -0.31975025 0.16559991 -5.30504 -0.33109102 0.17669874 -5.3476577 -0.3089879
0.16172488 -5.3513293 -0.25804073 0.10290131 -5.3067136 -0.14983805 0.045222774 -5.281425
-0.05013892 -0.0068185898 -5.287137 0.0043005096 -0.04295648 -5.3032603 0.010356781 -0.08267163
00000000: 6018 553d 3e7e 30c0 88d2 f1bd 767d b53c
00000010: 006f 29c0 a89f a8bd 6be5 fd3a 20c9 22c0
00000020: b1a3 26bd ec7c 963b c14e 22c0 6329 15bd
00000030: 46ae 5fbc 49fe 23c0 7c9b efbc 768f 5cbd
00000040: d53d 27c0 d535 c6bc 2734 a2bd 4ec0 2cc0
00000050: acbb 2cbd ad2b 89bd 797f 32c0 c849 acbd
00000060: ba34 56bd 56b6 39c0 55a2 e0bd b012 29bd
00000070: d335 40c0 699a e5bd 970d 8bbc 1dde 47c0
00000080: 898f cdbd dfe9 803c 7022 4cc0 acc9 b7bd
00000090: 35c3 103d 2e34 4ec0 77e2 adbd af83 463d
000000a0: 0164 4ec0 3fc3 bfbd 7184 9d3d 2602 4bc0
000000b0: 98fe 00be 0efc 003e 9325 45c0 19ea f0bd
000000c0: 6ba1 043e d52a 3dc0 6d26 f3bd 6a81 b03d
000000d0: 5b50 34c0 f7cc 00be 59bb 1abc f77a 2fc0
000000e0: 6058 e9bd 27d9 1dbd 9c4a 27c0 b291 cfbd
000000f0: 8e97 35bd e56e 1fc0 5dd4 a5bd f36f 27bd
00000100: b1c5 1cc0 bf78 6fbd e993 00bd f1b3 1cc0
00000110: 5885 1dbd 1ecf 3fbd cf43 1fc0 d3f5 1bbd
00000120: c4de 8abd 2c45 24c0 666e 7bbd 2f34 62bd
00000130: 1eae 29c0 78a5 e4bd 2e41 04bd 4c79 2bc0
00000140: 087a 2bbe 9662 c1bc fd66 32c0 e78f 3ebe
00000150: 9096 bcbc 2ee7 37c0 5ed8 31be 7644 acbc
00000160: a1ce 3dc0 fd5e 19be 059e 82bc 449f 41c0
00000170: a75f 08be 4d7c 853b b064 43c0 1ffc f4bd
00000180: 1d50 973c 34e9 43c0 938c e8bd 07b3 a53c
00000190: d613 42c0 8164 01be 953c f73c 0be8 3dc0
000001a0: 2d3c 12be 4bd8 123c 38a6 38c0 b777 24be
000001b0: 2080 2bbd bd4c 31c0 1c83 27be e57e b0bd
000001c0: b97f 2bc0 7245 2dbe a242 a5bd 91e3 22c0
000001d0: ec50 21be d711 2dbd 1970 1ac0 b494 16be
000001e0: d0c0 d3bc 9700 13c0 3f10 ffbd cd2c bdbc
000001f0: af2c 10c0 5ddd d0bd 3e84 b4bc cd98 10c0
00000200: 4dbd 97bd 9554 9cbc ce09 13c0 395f 71bd
00000210: 8492 18bd 98e9 16c0 bb87 85bd dc95 8cbd
00000220: cae1 1cc0 b57f b6bd b059 edbd 39f3 1dc0
00000230: f466 a7bd 83fa f4bd c85a 22c0 6bdf ddbd
00000240: cd00 46bd be67 32c0 919f 21be 803d 4dbb
00000250: 90ad 40c0 1786 38be 1144 0c3c 2e31 48c0
00000260: 703b 4abe 80ac f13a e232 4cc0 84d4 5bbe
00000270: 5f01 9abb 3ef4 4dc0 c2d9 67be 409e 403b
00000280: 475f 50c0 2354 77be b9b8 203c 6d3f 50c0
00000290: b7f6 82be ce96 9b3c 2aeb 51c0 16c3 96be
000002a0: a68a 003d 5b1b 52c0 2aac a5be c9b9 233d
000002b0: 8def 52c0 705a b0be 6f12 363d 2182 56c0
000002c0: eba6 babe 1f20 6c3d 55c2 5ac0 1bba c1be
000002d0: c101 c53d 47e4 60c0 febe c9be 4ed9 0f3e
000002e0: e42e 66c0 2945 ccbe 3744 383e 93ac 6ac0
000002f0: 37d0 bebe b9ee 443e 7fb6 6dc0 1430 a2be
00000300: 20f5 423e c096 70c0 1bb9 82be 3a03 333e
00000310: 3c18 73c0 ca5b 58be 1420 173e f143 76c0
00000320: dcef 39be 476b f83d b835 7ac0 d4ae 33be
00000330: 4a80 a33d add5 80c0 9271 36be 3070 503d
00000340: 85bd 85c0 3e08 44be a4c6 4d3d f53a 8ac0
00000350: 913a 76be 2823 a23d 3a0d 8fc0 33b1 87be
00000360: 3305 0f3e debf 95c0 ce20 99be d854 3d3e
00000370: 1ab3 9bc0 4070 a0be 7952 493e 37c4 9fc0
00000380: 7e31 9ebe de2d 333e a9a6 a2c0 6932 95be
00000390: 9905 1a3e fce9 a4c0 7a0a 9bbe 7557 173e
000003a0: 9948 a8c0 4eb6 a3be 0693 293e e3c2 a9c0
000003b0: c384 a9be 84f0 343e 0320 abc0 a933 9ebe
000003c0: 359b 253e 173e abc0 ea1d 84be ecbd d23d
000003d0: 99d0 a9c0 256f 19be 843b 393d 6f01 a9c0
000003e0: 785e 4dbd 7a6e dfbb 3a30 a9c0 4aeb 8c3b
000003f0: 22f3 2fbd 4fb4 a9c0 7daf 293c be4f a9bd

body_pose f4 [152, 63]
-0.03797307 -0.18595909 -0.14461708 -0.5318035 0.18638144 0.005445828 0.40866932 -0.015228498
0.11965631 0.3494641 -0.14017883 0.16919012 1.2790718 -0.1564349 0.24671507 0.14841391
-0.034142643 -0.00083247497 -0.56198907 -0.014738389 0.052996546 -0.3511703 -0.10459835 0.17323169
-0.0062040645 0.02076845 -0.12708807 -1.5757738e-05 1.5149736e-05 1.5695376e-05 1.5119414e-05 1.589494e-05
-1.5206575e-05 0.2190357 -0.0033553792 0.06821582 -0.15352093 -0.04424274 -0.5199417 -0.0070459377
-0.19364393 0.49430394 -0.15027189 0.023497187 -0.08700739 -0.014608239 -0.2730406 -0.30249426
0.1726155 0.0068174093 0.602855 -0.013113305 -0.8217867 -0.14560492 0.20350161 1.0290792
0.3300792 0.03455295 -0.21820827 0.05054757 0.48324868 -0.05026133 -0.29836798 0.069417596
-0.19209357 -0.15538934 -0.68720096 0.17921996 -0.08475959 0.39689574 -0.048550535 0.10684098
0.21675396 -0.17587724 0.18347113 1.2534418 -0.086807914 0.17693354 0.104174845 -0.08985538
0.04716492 -0.49004805 -0.07379071 -0.028159028 -0.18684705 -0.052663043 0.010391845 0.006366468
-0.010845205 -0.108566225 -1.5762613e-05 1.5207718e-05 1.5699647e-05 1.52193825e-05 -1.4753083e-05 -1.541577e-05
0.24219072 0.013475448 0.05303151 -0.15285051 -0.060364094 -0.45894858 0.0106405765 -0.18183702
0.4890899 -0.14617956 0.037756763 -0.079955384 -0.0010984861 -0.3202225 -0.32087776 0.17628154
0.013423229 0.5891573 -0.012223676 -0.9789357 -0.12746543 0.18895309 1.0410547 0.39595652
0.030107735 -0.20575632 -0.006771923 0.40672326 -0.24700207 -0.15142831 0.11864408 -0.20403555
-0.1652345 -0.74300665 0.10959561 -0.19665863 0.37504482 -0.11996737 0.109535106 0.17581847
-0.1466988 0.19568282 1.0677202 -0.075342864 0.09655688 0.071820736 -0.13330996 0.06973603
-0.3047554 -0.17911127 -0.035676267 -0.05136629 -0.10496275 -0.053978875 0.0222473 -0.021251563
-0.09954632 -1.5093068e-05 -1.5455245e-05 1.5826363e-05 -1.5130767e-05 -1.5078671e-05 1.5065988e-05 0.2276525
0.037963547 0.04629066 -0.13946058 -0.047303483 -0.37702373 0.019516638 -0.17075849 0.48119372
-0.15035258 0.050674465 -0.07802447 0.056735396 -0.37141168 -0.28543156 0.14848337 0.024514215
0.5316703 -0.0005282595 -1.1367283 -0.051743936 0.18368313 1.0649163 0.5573588 0.020116644
-0.1746931 -0.04867544 0.24939777 -0.3475374 -0.12841478 0.071337275 -0.1023177 -0.12008824
-0.75974387 0.070181824 -0.20062454 0.35556448 -0.13190985 0.09948182 0.34045598 -0.22622183
0.15266821 0.7915618 -0.0010516274 0.08219733 0.053751674 -0.13274796 0.057709362 -0.43031758
-0.14449985 -0.07636373 -0.08196648 -0.051055994 -0.058924094 0.071567334 -0.006089026 -0.06208423
-1.5770343e-05 1.5287764e-05 1.5619828e-05 -1.4883581e-05 -1.5278782e-05 -1.6051961e-05 0.18893741 0.045393135
0.058422163 -0.13948548 -0.049795702 -0.29052258 0.03432374 -0.17880957 0.45017594 -0.16071784
0.06090887 -0.076331474 0.07159817 -0.37561125 -0.28172868 0.1262484 0.039606605 0.5648126
-0.037002627 -1.215681 0.04655612 0.054369867 1.0715089 0.59598607 -0.13002454 -0.2042151
-0.07688404 0.24283217 -0.4117737 -0.15301178 0.13653114 -0.098419935 -0.14790818 -0.73597705
00000000: a689 1bbd 0f6c 3ebe 8016 14be 4624 08bf
00000010: c7da 3e3e eb72 b23b 1b3d d13e f380 79bc
00000020: 5e0e f53d f5ec b23e 0a8b 0fbe 2d40 2d3e
00000030: a0b8 a33f 7830 20be e0a2 7c3e d1f9 173e
00000040: 28d9 0bbd 733a 5aba 84de 0fbf 4979 71bc
00000050: e812 593d 98cc b3be a937 d6bd a663 313e
00000060: 774b cbbb 9922 aa3c 6023 02be 7c2f 84b7
00000070: 9f2b 7e37 90a9 8337 63a9 7d37 2056 8537
00000080: be1f 7fb7 e54a 603e ece5 5bbb bcb4 8b3d
00000090: 9734 1dbe e037 35bd e61a 05bf 9ce1 e6bb
000000a0: 984a 46be 6815 fd3e e0e0 19be 2c7d c03c
000000b0: ee30 b2bd 6557 6fbc facb 8bbe 87e0 9abe
000000c0: 1ec2 303e 9364 df3b b554 1a3f 30d9 56bc
000000d0: 9d60 52bf 7519 15be ba62 503e deb8 833f
000000e0: 2400 a93e 6587 0d3d fd71 5fbe f80a 4f3d
000000f0: 5f6c f73e d3de 4dbd b0c3 98be d02a 8e3d
00000100: 2db4 44be 621e 1fbe 67ec 2fbf 7085 373e
00000110: 7096 adbd eb35 cb3e eddc 46bd 72cf da3d
00000120: c0f4 5d3e 2a19 34be dbdf 3b3e c870 a03f
00000130: 59c8 b1bd 112e 353e 9f59 d53d 1906 b8bd
00000140: 0130 413d 94e7 fabe 951f 97bd c3ad e6bc
00000150: d554 3fbe 34b5 57bd 8f42 2a3c ce9d d03b
00000160: 16b0 31bc f857 debd f439 84b7 a724 7f37
00000170: bcb2 8337 c056 7f37 0284 77b7 1d51 81b7
00000180: d800 783e 20c8 5c3c 9237 593d d884 1cbe
00000190: 5740 77bd 4ffb eabe d055 2e3c 7c33 3abe
000001a0: fe69 fa3e 18b0 15be d6a6 1a3d a6bf a3bd
000001b0: 14fb 8fba 34f4 a3be 174a a4be 2683 343e
000001c0: 1aed 5b3c 03d3 163f d045 48bc 889b 7abf
000001d0: 4c86 02be eb7c 413e 4841 853f d0ba ca3e
000001e0: 7fa4 f63c c9b1 52be 02e7 ddbb 083e d03e
000001f0: 1cee 7cbe 0610 1bbe abfb f23d b2ee 50be
00000200: 3c33 29be af35 3ebf aa73 e03d e160 49be
00000210: e005 c03e 74b1 f5bd f153 e03d c209 343e
00000220: 3638 16be 1461 483e 0eab 883f 5c4d 9abd
00000230: 9dbf c53d c016 933d 6882 08be c4d1 8e3d
00000240: e608 9cbe f268 37be 4721 12bd 7565 52bd
00000250: b6f6 d6bd f418 5dbd f83f b63c c217 aebc
00000260: f1de cbbd 3c38 7db7 e3a5 81b7 dbc2 8437
00000270: 26da 7db7 66fa 7cb7 edc3 7c37 bd1d 693e
00000280: aa7f 1b3d 469b 3d3d c1ce 0ebe 4cc1 41bd
00000290: 4109 c1be 5be1 9f3c 50db 2ebe 065f f63e
000002a0: 07f6 19be 0790 4f3d 4bcb 9fbd 6063 683d
000002b0: ac29 bebe 1624 92be 060c 183e 09d2 c83c
000002c0: 8b1b 083f e57a 0aba 5080 91bf 73f1 53bd
000002d0: 6e17 3c3e 2d4f 883f 11af 0e3f a9cb a43c
000002e0: bfe2 32be e65f 47bd 2162 7f3e 6cf0 b1be
000002f0: 2a7f 03be 4719 923d f18b d1bd d3f0 f5bd
00000300: 937e 42bf 7dbb 8f3d 8570 4dbe 8c0c b63e
00000310: 6013 07be 20bd cb3d 3f50 ae3e b2a6 67be
00000320: 0e55 1c3e cba3 4a3f c3d6 89ba 1357 a83d
00000330: b72a 5c3d 15ef 07be a760 6c3d 9652 dcbe
00000340: c5f7 13be 9664 9cbd 0bde a7bd 1720 51bd
00000350: 645a 71bd e591 923d 7486 c7bb 094c 7ebd
00000360: 8e4a 84b7 393e 8037 5307 8337 7eb4 79b7
00000370: ef2a 80b7 53a7 86b7 cf78 413e 27ee 393d
00000380: 144c 6f3d 48d5 0ebe 94f6 4bbd 60bf 94be
00000390: 0d97 0c3d db19 37be 767d e63e 3893 24be
000003a0: 947b 793d ad53 9cbd 10a2 923d 1e50 c0be
000003b0: be3e 90be 4347 013e 893a 223d 8f97 103f
000003c0: 1190 17bd 6f9b 9bbf a1b1 3e3d f0b2 5e3d
000003d0: 3427 893f 8b92 183f 2725 05be c31d 51be
000003e0: 6175 9dbd ffa8 783e 01d4 d2be 1faf 1cbe
000003f0: d2ce 0b3e 6490 c9bd 3e75 17be fe68 3cbf

transl f4 [152, 3]
0.69735986 0.9760647 1.227669 0.68506354 0.98556805 1.1938316 0.6720769 0.9907574
1.1604475 0.6612895 0.9919176 1.1213683 0.64762145 0.9878896 1.0796018 0.6316334
0.9790016 1.0334208 0.61523825 0.9684358 0.9874303 0.6015163 0.96317405 0.9446747
0.5900068 0.96989894 0.9047303 0.5831504 0.9842174 0.86905557 0.5732096 0.99627763
0.8342448 0.5607017 1.0045528 0.7990928 0.54760075 1.0059042 0.7600546 0.53324795
1.0003847 0.71834326 0.5174142 0.9899018 0.67342544 0.49774477 0.9785736 0.6286434
0.47993416 0.9679921 0.5903976 0.45843545 0.9673845 0.559594 0.44499925 0.9650351
0.5291634 0.4276524 0.97316855 0.49828365 0.40980804 0.9820976 0.4666348 0.39333493
0.98670703 0.43234968 0.3779735 0.9852274 0.39473498 0.36070076 0.9789317 0.3505637
0.34048992 0.96897596 0.30077222 0.32079542 0.96057075 0.25463265 0.30417648 0.9601285
0.21211682 0.2919886 0.9675965 0.17230915 0.2812423 0.9807756 0.1394301 0.26726687
0.99110967 0.10720444 0.2521639 0.99735534 0.073162295 0.23821096 0.9981108 0.037721694
0.22208992 0.9913074 -0.001323574 0.2032181 0.9790691 -0.04303952 0.18163835 0.962523
-0.0859837 0.16284898 0.94984996 -0.12463251 0.14494364 0.9458734 -0.15756194 0.12894467
0.95463276 -0.18839662 0.113582574 0.9666077 -0.21424171 0.09884981 0.9809308 -0.23832384
0.08287744 0.99036473 -0.26460168 0.066396594 0.99481314 -0.2933716 0.048988782 0.99554926
-0.32230487 0.031036397 0.99244887 -0.352917 0.0101505285 0.9851623 -0.38668448 -0.012068264
0.9749723 -0.42300817 -0.031693984 0.97093827 -0.4528957 -0.04900531 0.9711515 -0.4873772
-0.060302686 0.9739877 -0.52304757 -0.070168644 0.9857374 -0.5499904 -0.07696767 0.992457
-0.5743973 -0.08454508 0.993052 -0.5974981 -0.09321743 0.98919207 -0.6215853 -0.10375985
0.98259723 -0.6501721 -0.11765232 0.9742542 -0.6796639 -0.13331312 0.96225345 -0.7165937
-0.14938429 0.9501577 -0.7540044 -0.16356768 0.94039863 -0.7847993 -0.17589928 0.9389445
-0.80838376 -0.18618302 0.94356316 -0.8284282 -0.19176595 0.9519175 -0.84509885 -0.19622466
0.9624558 -0.8583477 -0.20109351 0.9712792 -0.8686552 -0.20658758 0.9773887 -0.87812585
-0.21147351 0.981362 -0.8874658 -0.21381474 0.9836015 -0.8973549 -0.21338446 0.98237014
-0.90879935 -0.21015055 0.97922117 -0.92153585 -0.20634021 0.97427696 -0.93380606 -0.20041421
0.96853656 -0.9461946 -0.19239019 0.9624608 -0.9546865 -0.18310092 0.95876694 -0.9594224
-0.17371051 0.9584143 -0.95759124 -0.16997823 0.96369493 -0.9554275 -0.17019731 0.9686762
-0.9553191 -0.17099482 0.97463435 -0.95576966 -0.17014728 0.9787326 -0.9582352 -0.16623506
0.98035055 -0.960592 -0.15979059 0.9804426 -0.9640552 -0.15187246 0.9796686 -0.9667769
-0.14297397 0.9773471 -0.9678518 -0.13528723 0.97668344 -0.9687498 -0.1261546 0.9768494
-0.96959937 -0.117232576 0.97900647 -0.96700406 -0.10611139 0.9805129 -0.9604214 -0.094102256
00000000: 2d86 323f 60df 793f 4224 9d3f 5360 2f3f
00000010: 304e 7c3f 79cf 983f 3b0d 2c3f 47a2 7d3f
00000020: 8b89 943f 454a 293f 50ee 7d3f ff88 8f3f
00000030: 85ca 253f 55e6 7c3f 6430 8a3f bab2 213f
00000040: d99f 7a3f 2247 843f 4180 1d3f 69eb 773f
00000050: 3bc8 7c3f f9fc 193f 9392 763f 33d6 713f
00000060: b00a 173f 4c4b 783f 689c 673f 5849 153f
00000070: acf5 7b3f 6d7a 5e3f ddbd 123f 0d0c 7f3f
00000080: 1191 553f 268a 0f3f 3095 803f 5991 4c3f
00000090: 902f 0c3f 78c1 803f f092 423f f082 083f
000000a0: 9b0c 803f 58e5 373f 4275 043f 346a 7d3f
000000b0: 9c65 2c3f 67d8 fe3e cd83 7a3f c6ee 203f
000000c0: eeb9 f53e 55ce 773f 4c24 173f 0db8 ea3e
000000d0: 83a6 773f 8d41 0f3f f1d6 e33e 8a0c 773f
000000e0: 4177 073f 41f5 da3e 9321 793f 091f ff3e
000000f0: 5cd2 d13e c06a 7b3f c2ea ee3e 3263 c93e
00000100: d598 7c3f f05c dd3e be85 c13e dd37 7c3f
00000110: b41a ca3e c5ad b83e 459b 7a3f 167d b33e
00000120: b254 ae3e cf0e 783f d1fe 993e 4c3f a43e
00000130: f7e7 753f 365f 823e 05bd 9b3e fbca 753f
00000140: 2735 593e 887f 953e 67b4 773f cf71 303e
00000150: fefe 8f3e 1c14 7b3f c4c6 0e3e 34d7 883e
00000160: 5db9 7d3f 008e db3d a01b 813e ae52 7f3f
00000170: 1dd6 953d 93ed 733e 3084 7f3f 1082 1a3d
00000180: 8a6b 633e 52c6 7d3f c67b adba 6818 503e
00000190: 46a4 7a3f 354a 30bd 67ff 393e e867 763f
000001a0: 3918 b0bd e2c1 263e 5e29 733f 543f ffbd
000001b0: 1b6c 143e c224 723f eb57 21be 120a 043e
000001c0: d062 743f 0beb 40be fb9d e83d 9a73 773f
000001d0: 2e62 5bbe c571 ca3d 481e 7b3f 2a0b 74be
000001e0: a6bb a93d 8b88 7d3f df79 87be f0fa 873d
000001f0: 13ac 7e3f cd34 96be 76a8 483d 51dc 7e3f
00000200: 2505 a5be 0b40 fe3c 2111 7e3f 89b1 b4be
00000210: 674e 263c 9933 7c3f 82fb c5be f8b9 45bc
00000220: c997 793f 8794 d8be 8dd1 01bd 698f 783f
00000230: f2e1 e7be cbb9 48bd 629d 783f 8189 f9be
00000240: f3ff 76bd 4257 793f 72e6 05bf 94b4 8fbd
00000250: 4959 7c3f 2ccc 0cbf 3aa1 9dbd a911 7e3f
00000260: b40b 13bf f925 adbd a838 7e3f a3f5 18bf
00000270: c8e8 bebd b13b 7d3f 3720 1fbf 0b80 d4bd
00000280: 7e8b 7b3f ae71 26bf b3f3 f0bd b968 793f
00000290: 74fe 2dbf 3c83 08be 3e56 763f af72 37bf
000002a0: 32f8 18be 893d 733f 6f06 41bf 497e 27be
000002b0: f7bd 703f 9be8 48bf f11e 34be ab5e 703f
000002c0: 3df2 4ebf c3a6 3ebe 5b8d 713f df13 54bf
000002d0: 4b5e 44be deb0 733f 6658 58bf 1eef 48be
000002e0: 8163 763f adbc 5bbf 75eb 4dbe c1a5 783f
000002f0: 3060 5ebf b28b 53be 2536 7a3f dbcc 60bf
00000300: 838c 58be 8a3a 7b3f f530 63bf 40f2 5abe
00000310: 4fcd 7b3f 0db9 65bf 7581 5abe 9c7c 7b3f
00000320: 13a7 68bf b531 57be 3dae 7a3f c6e9 6bbf
00000330: d94a 53be 376a 793f ea0d 6fbf 6239 4dbe
00000340: 03f2 773f cf39 72bf ef01 45be d563 763f
00000350: 5666 74bf cf7e 3bbe c071 753f b59c 75bf
00000360: 2be1 31be a45a 753f b324 75bf c60e 2ebe
00000370: b6b4 763f e696 74bf 3448 2ebe 2afb 773f
00000380: cb8f 74bf 4419 2fbe a381 793f 52ad 74bf
00000390: 173b 2ebe 388e 7a3f e74e 75bf 8639 2abe
000003a0: 41f8 7a3f 5be9 75bf 25a0 23be 49fe 7a3f
000003b0: 52cc 76bf 7484 1bbe 90cb 7a3f b17e 77bf
000003c0: c567 12be 6b33 7a3f 23c5 77bf bc88 0abe
000003d0: ed07 7a3f fdff 77bf ac2e 01be cd12 7a3f
000003e0: aa37 78bf a217 f0bd 2ba0 7a3f 948d 77bf
000003f0: ee50 d9bd e502 7b3f 2dde 75bf afb8 c0bd

left_hand_pose f4 [152, 12]
0.17424017 0.19687036 0.19182554 0.5881346 -0.12761879 -0.9237243 -0.05690233 -0.13944429
-0.16397323 -0.8977764 0.25703758 -1.1857764 0.12962829 0.30820015 0.1273222 0.66936624
-0.13600467 -0.7985516 -0.08363408 -0.47535893 -0.36594445 -0.9945693 0.8081226 -1.3522513
0.1270545 0.2467312 0.13002622 0.61546165 -0.08600149 -0.6788794 0.049797203 -0.5873639
-0.1996047 -1.0730013 0.8653254 -1.5588737 0.12878196 0.2609205 0.1506975 0.5194341
-0.024464758 -0.50431406 0.08850871 -0.66847634 -0.43840685 -1.2046878 1.0355422 -1.5989709
0.17298226 0.26612368 0.19711572 0.58446354 -0.20008764 -0.5431523 0.077701405 -0.45889363
-0.3275545 -1.099612 1.0072001 -1.4266889 0.1602235 0.26380667 0.2063659 0.55128
-0.19677283 -0.5595122 0.083345935 -0.44832528 -0.24107806 -1.0222627 0.94171125 -1.4461132
0.07954728 0.35439855 0.15467773 0.54920465 -0.15295133 -0.58526003 0.036081877 -0.3187054
-0.3676299 -1.0217011 0.9579795 -1.3358264 0.12438841 0.3723464 0.20438688 0.72528976
-0.14263126 -0.52465767 -0.10096357 -0.1314252 -0.35796455 -0.89123744 0.38671005 -1.1403857
0.094018705 0.43357584 0.11015434 0.66960573 -0.24968576 -0.40842116 -0.055375334 0.082037024
-0.35186148 -0.84094375 0.03994363 -0.9885696 0.17355023 0.4228007 0.2510459 0.77485627
-0.37379816 -0.58264166 -0.18523109 -0.020316726 -0.35513067 -0.8213441 0.49197024 -1.0757664
0.17800719 0.4375685 0.27259934 0.7477024 -0.28486755 -0.38790977 -0.40810198 -0.01850054
-0.2622791 -0.74846494 0.19979188 -1.0147421 0.13842122 0.46561486 0.23664306 0.8077865
-0.37191957 -0.2950108 -0.24259388 -0.004856049 -0.36023033 -0.81216776 0.14816628 -0.9964803
0.044843137 0.45393318 0.23324561 0.7900127 -0.33557802 -0.13077757 -0.22836706 -0.09168579
-0.32859075 -0.887544 0.14598362 -0.93729943 0.06736282 0.49093506 0.30277684 0.8808407
-0.31796378 -0.232885 -0.28264946 -0.024391893 -0.45471776 -0.88697654 0.35288644 -0.8817393
0.008429735 0.51240057 0.24216396 0.871314 -0.21462792 -0.3193835 -0.34439114 0.028529486
-0.51178503 -0.85920894 0.37624335 -0.76200426 0.123496436 0.4947169 0.31543007 0.93788755
-0.27833244 -0.36333048 -0.36817437 0.037998818 -0.44012192 -0.6669462 0.361617 -0.8930711
0.103056125 0.48831004 0.28734684 0.8612358 -0.39217094 -0.43909913 -0.34898287 -0.13909672
-0.48786464 -0.7588038 0.5734648 -1.0801452 0.110416286 0.48631984 0.25598386 0.82926303
-0.38637203 -0.55526197 -0.06500879 -0.027921585 -0.578207 -0.73010534 0.49347594 -0.88102615
-0.07102247 0.44317943 0.08256868 0.60744905 -0.3436048 -0.5397098 0.028668774 -0.26052478
-0.40725186 -0.8925687 0.8632929 -1.08047 -0.049469333 0.44267777 0.09714763 0.7154897
-0.19273178 -0.6648793 -0.04858874 -0.111327685 -0.35398716 -0.8911286 0.4597572 -1.0220114
0.023213882 0.30617657 0.09974801 0.6911974 -0.22590183 -0.8795462 0.051726136 -0.2633489
-0.2186018 -0.8800332 0.50483495 -1.0935464 0.10004505 0.27062678 0.15837802 0.6144622
00000000: 046c 323e 6298 493e ea6d 443e fd8f 163f
00000010: 80ae 02be 3279 6cbf 6b12 69bd 7cca 0ebe
00000020: 99e8 27be add4 65bf 6e9a 833e 85c7 97bf
00000030: 47bd 043e 69cc 9d3e c060 023e 965b 2b3f
00000040: cf44 0bbe e16d 4cbf 5848 abbd 3f62 f3be
00000050: 125d bbbe 189c 7ebf 1fe1 4e3f 9216 adbf
00000060: 931a 023e 1ba7 7c3e 9825 053e e58e 1d3f
00000070: 8d21 b0bd 0acb 2dbf 27f8 4b3d 7b5d 16bf
00000080: 2d65 4cbe 1b58 89bf f785 5d3f 2c89 c7bf
00000090: 6bdf 033e 5f97 853e 7250 1a3e a2f9 043f
000000a0: 516a c8bc ba1a 01bf 0e44 b53d 4421 2bbf
000000b0: dd76 e0be 3633 9abf a68c 843f 14ab ccbf
000000c0: 4322 313e 5d41 883e b4d8 493e 679f 153f
000000d0: c6e3 4cbe 070c 0bbf ea21 9f3d 1bf4 eabe
000000e0: 39b5 a7be 16c0 8cbf efeb 803f be9d b6bf
000000f0: a111 243e ab11 873e 9551 533e b020 0d3f
00000100: d17e 49be 313c 0fbf 46b1 aa3d e48a e5be
00000110: 2bdd 76be 81d9 82bf fd13 713f 3d1a b9bf
00000120: afe9 a23d ba73 b53e d763 1e3e ad98 0c3f
00000130: 469f 1cbe 9ad3 15bf 97ca 133d 5b2d a3be
00000140: fc39 bcbe 1ac7 82bf 253e 753f 5cfc aabf
00000150: 5abf fe3d 30a4 be3e cb4a 513e 97ac 393f
00000160: ee0d 12be f74f 06bf fdc5 cebd 5494 06be
00000170: 2147 b7be 2328 64bf dcfe c53e 29f8 91bf
00000180: e18c c03d a7fd dd3e 9998 e13d 486b 2b3f
00000190: a0ad 7fbe 941c d1be 3fd1 62bd 0703 a83d
000001a0: 3027 b4be 1748 57bf ef9b 233d e612 7dbf
000001b0: 27b7 313e 5579 d83e 1789 803e fb5c 463f
000001c0: 7962 bfbe 0128 15bf 38ad 3dbe 436f a6bc
000001d0: b0d3 b5be 9b43 52bf 86e3 fb3e b7b2 89bf
000001e0: 8447 363e fa08 e03e 2492 8b3e 6d69 3f3f
000001f0: 29da 91be 1c9c c6be bef2 d0be 728e 97bc
00000200: 7249 86be 669b 3fbf 3e96 4c3e 12e3 81bf
00000210: 4bbe 0d3e 1265 ee3e 8f52 723e 19cb 4e3f
00000220: 3e6c bebe a80b 97be 886a 78be 7e1f 9fbb
00000230: 1c70 b8be 3aea 4fbf e7b8 173e 5519 7fbf
00000240: 70ad 373d ee69 e83e f0d7 6e3e 463e 4a3f
00000250: e2d0 abbe 8eea 05be 0ed9 69be c2c5 bbbd
00000260: 0c3d a8be 1536 63bf bb7c 153e dbf2 6fbf
00000270: 85f5 893d d75b fb3e 9105 9b3e c77e 613f
00000280: 26cc a2be 6879 6ebe 6eb7 90be 82d1 c7bc
00000290: c4d0 e8be e510 63bf 88ad b43e abb9 61bf
000002a0: df1c 0a3c af2c 033f d4f9 773e 6f0e 5f3f
000002b0: 6cc7 5bbe 3c86 a3be 0954 b0be abb6 e93c
000002c0: 5804 03bf 1ef5 5bbf f8a2 c03e b612 43bf
000002d0: b3eb fc3d 894b fd3e 0d80 a13e 6619 703f
000002e0: 9781 8ebe 7406 babe 5a81 bcbe a6a4 1b3d
000002f0: a957 e1be fcbc 2abf dd25 b93e 4fa0 64bf
00000300: 170f d33d c603 fa3e 201f 933e f379 5c3f
00000310: a1ca c8be 9ad1 e0be e2ad b2be 5f6f 0ebe
00000320: 65c9 f9be f740 42bf 97ce 123f 3342 8abf
00000330: ef21 e23d eafe f83e 5110 833e 954a 543f
00000340: 8ed2 c5be a625 0ebf 5423 85bd cfbb e4bc
00000350: 6005 14bf 2fe8 3abf e1a8 fc3e ee8a 61bf
00000360: 3b74 91bd 6ae8 e23e c519 a93d c881 1b3f
00000370: f8ec afbe 6c2a 0abf c7da ea3c 8163 85be
00000380: 5183 d0be 627f 64bf c300 5d3f d74c 8abf
00000390: 5ba0 4abd a9a6 e23e 56f5 c63d 552a 373f
000003a0: 7b5b 45be 8835 2abf fd04 47bd c5ff e3bd
000003b0: ce3d b5be 0121 64bf 4c65 eb3e 45d1 82bf
000003c0: 0a2b be3c 2dc3 9c3e af48 cc3d 50f2 303f
000003d0: cf52 67be f129 61bf c9de 533d abd5 86be
000003e0: 26d9 5fbe db49 61bf dd3c 013f 54f9 8bbf
000003f0: 6be4 cc3d 988f 8a3e d92d 223e 654d 1d3f

right_hand_pose f4 [152, 12]
0.387723 0.47966942 0.31649044 0.5799218 -0.5671643 -0.84054834 -0.08213656 0.30305156
-0.88310266 -0.72203267 0.8332745 -1.1979427 0.4526385 0.4840064 0.1531105 0.67643946
-0.5500727 -0.35754701 0.008053366 0.09574139 -0.89838076 -0.9081762 0.78460604 -1.2448964
0.5746749 0.55053365 0.095444515 0.7783774 -0.847876 -0.5014183 0.118334986 -0.017464861
-0.8367585 -0.9612256 1.1792679 -1.2668368 0.62347907 0.64332026 0.16592583 1.0989145
-0.99053866 -0.04768637 -0.48769972 0.15937403 -0.7991044 -1.0037544 0.1348641 -0.999768
0.6728234 0.43487298 -0.13417426 0.65700024 -0.7099618 -0.061931215 0.011912496 0.11660269
-0.8108207 -1.1848418 0.3350531 -1.2020096 0.6317371 0.61655957 0.0621633 0.74930966
-0.6786432 -0.38820288 0.120389 -0.06700966 -0.9368493 -1.2123269 1.1335006 -1.6068573
0.3471283 0.80447567 0.44396675 1.0305356 0.047086786 -0.21258792 -0.76713175 -0.8016173
-0.7100714 -1.7169093 0.36501262 -2.080063 0.44114265 0.5458677 0.5305359 1.5804428
-0.4069939 0.44999143 -1.2729816 -0.46746045 -0.8233529 -1.2522298 -0.7828583 -1.5135859
0.52389 0.45312023 0.055399388 0.82232064 -0.7661578 -0.5100154 0.33679745 -0.14147155
-0.6919922 -1.0484192 1.2226607 -1.3991903 0.5153246 0.38858473 0.062328357 0.7197483
-0.6304831 -0.5424222 0.36069995 -0.5408055 -0.72579205 -1.3047016 1.7255527 -1.8566312
0.5066935 0.43486845 0.13819624 0.87793505 -0.562183 -0.51022744 0.33926684 -0.6734287
-0.6410024 -1.4116266 1.5666505 -2.0909967 0.44200808 0.4128308 -0.009764699 0.817103
-0.5362899 -0.5517524 0.36358115 -0.5481305 -0.49981722 -1.3040687 1.3996648 -1.811367
0.50873333 0.40548933 0.08607492 0.787784 -0.6464743 -0.51741016 0.26962286 -0.5650646
-0.55279857 -1.2570274 1.6282669 -1.7596519 0.5139174 0.38712305 -0.01768291 0.6855988
-0.7231452 -0.5472631 0.45405552 -0.32953966 -0.5518168 -1.22518 1.5668557 -1.7308577
0.42542198 0.49573264 0.0210223 0.61553514 -0.7689368 -0.59850514 0.41846213 -0.32563558
-0.5953733 -1.1040937 1.8564 -1.6527243 0.41506958 0.5465672 0.11318099 0.66558605
-0.73503506 -0.5548269 0.34907982 -0.31219923 -0.75244087 -1.1429279 1.9306769 -1.6908439
0.41651377 0.39400676 0.048064344 0.51184005 -0.58338386 -0.6952477 0.6585854 -0.53795373
-0.5910498 -1.2419891 1.9452631 -1.9369156 0.5059001 0.28226417 0.06695624 0.56204927
-0.4490003 -0.645525 0.77063364 -0.75661355 -0.6382775 -1.4094359 2.135453 -2.2243602
0.62640077 0.2722604 0.07778237 0.7799996 -0.62931937 -0.6884438 0.6905555 -0.7192361
-0.67929447 -1.3831502 2.0885875 -2.0578463 0.5556005 0.4259569 0.12522666 0.80553144
-0.38488925 -0.45470616 0.2765603 -0.5480161 -0.62138546 -1.1996596 1.5685567 -1.9613179
0.47797224 0.5268958 0.10879399 0.8839991 -0.3188243 -0.26487502 -0.1842348 -0.3131266
-0.68622154 -1.0711019 0.8604689 -1.4809644 0.55568725 0.49097538 0.11534545 1.0447099
00000000: a183 c63e 3b97 f53e 090b a23e c175 143f
00000010: ae31 11bf 2d2e 57bf 3637 a8bd 9329 9b3e
00000020: 0413 62bf 22d7 38bf 7a51 553f 3056 99bf
00000030: 3cc0 e73e b0cf f73e 00c9 1c3e 232b 2d3f
00000040: 91d1 0cbf 6710 b7be 44f2 033c 1014 c43d
00000050: 48fc 65bf 3c7e 68bf f1db 483f c458 9fbf
00000060: e51d 133f c6ef 0c3f 6a78 c33d be43 473f
00000070: 670e 59bf f35c 00bf 9d59 f23d 7812 8fbc
00000080: ce35 56bf e212 76bf 40f2 963f b527 a2bf
00000090: 539c 1f3f a3b0 243f 76e8 293e 3ba9 8c3f
000000a0: f193 7dbf c852 43bd c7b3 f9be f232 233e
000000b0: 1b92 4cbf 067b 80bf d119 0a3e ccf0 7fbf
000000c0: 283e 2c3f aca7 de3e fa64 09be 2b31 283f
000000d0: 0ec0 35bf 96ab 7dbd a12c 433c 64cd ee3d
000000e0: f291 4fbf e5a8 97bf 148c ab3e 73db 99bf
000000f0: 86b9 213f d9d6 1d3f f29e 7e3d c2d2 3f3f
00000100: 90bb 2dbf 87c2 c6be 828e f63d 5c3c 89bd
00000110: 5bd5 6fbf 872d 9bbf 8c16 913f 80ad cdbf
00000120: cdba b13e 1ef2 4d3f 9c4f e33e 97e8 833f
00000130: 13de 403d a6b0 59be bf62 44bf cb36 4dbf
00000140: 3dc7 35bf afc3 dbbf efe2 ba3e c11f 05c0
00000150: 73dd e13e fcbd 0b3f 33d1 073f f34b ca3f
00000160: 8161 d0be 4765 e63e 10f1 a2bf fa56 efbe
00000170: 41c7 52bf 1149 a0bf 6769 48bf 2fbd c1bf
00000180: a81d 063f 60ff e73e 78ea 623d 9b83 523f
00000190: eb22 44bf 5f90 02bf b770 ac3e ebdd 10be
000001a0: 6726 31bf 9a32 86bf 2580 9c3f ab18 b3bf
000001b0: 50ec 033f 94f4 c63e 054c 7f3d 6d41 383f
000001c0: 5767 21bf 2edc 0abf aaad b83e 3b72 0abf
000001d0: 82cd 39bf 7600 a7bf e9de dc3f 17a6 edbf
000001e0: aab6 013f 14a7 de3e 5183 0d3e 5ac0 603f
000001f0: 3aeb 0fbf 449e 02bf 62b4 ad3e d365 2cbf
00000200: bc18 24bf 2eb0 b4bf 0188 c83f e4d2 05c0
00000210: e24e e23e 8f5e d33e 1efc 1fbc aa2d 513f
00000220: 4b4a 09bf a53f 0dbf 4f27 ba3e 4852 0cbf
00000230: 0be8 ffbe b9eb a6bf 3728 b33f e0da e7bf
00000240: 593c 023f 4c9c cf3e 0c48 b03d 36ac 493f
00000250: 577f 25bf fe74 04bf 020c 8a3e 13a8 10bf
00000260: 3584 0dbf 46e6 a0bf 0d6b d03f 463c e1bf
00000270: 1790 033f fe34 c63e c0db 90bc 6783 2f3f
00000280: 0b20 39bf 6f19 0cbf f779 e83e 6cb9 a8be
00000290: de43 0dbf b3d2 9cbf ba8e c83f bf8c ddbf
000002a0: e9d0 d93e abd0 fd3e f536 ac3c b693 1d3f
000002b0: 0bd9 44bf a237 19bf ab40 d63e b5b9 a6be
000002c0: 626a 18bf f152 8dbf 849e ed3f 788c d3bf
000002d0: 0084 d43e d4eb 0b3f 6fcb e73d d963 2a3f
000002e0: 422b 3cbf 2309 0ebf 97ba b23e 94d8 9fbe
000002f0: f79f 40bf 764b 92bf 6c20 f73f 936d d8bf
00000300: 4b41 d53e 41bb c93e 1edf 443d f307 033f
00000310: a558 15bf c1fb 31bf 0e99 283f 56b7 09bf
00000320: 0a4f 17bf 80f9 9ebf 62fe f83f daec f7bf
00000330: ab82 013f ee84 903e 5a20 893d 76e2 0f3f
00000340: 5ee3 e5be 2041 25bf 3f48 453f 6db1 41bf
00000350: 2766 23bf 6568 b4bf 43ab 0840 eb5b 0ec0
00000360: cd5b 203f b765 8b3e 5d4c 9f3d 0eae 473f
00000370: 131b 21bf da3d 30bf 3fc8 303f db1f 38bf
00000380: 3ee6 2dbf 110b b1bf 6bab 0540 c1b3 03c0
00000390: d63b 0e3f 0617 da3e 6b3b 003e 4f37 4e3f
000003a0: 3410 c5be 3fcf e8be 5099 8d3e c84a 0cbf
000003b0: 1e13 1fbf 728e 99bf 77c6 c83f 770c fbbf
000003c0: c7b8 f43e a5e2 063f 62cf de3d c44d 623f
000003d0: f03c a3be b39d 87be 0ca8 3cbe 2152 a0be
000003e0: 37ac 2fbf de19 89bf b147 5c3f 3e90 bdbf
000003f0: 8541 0e3f 2061 fb3e 3c3a ec3d 0eb9 853f

jaw_pose f4 [152, 3]
0.09547228 -0.0025155612 -0.00067228434 0.09874988 -0.003959464 -0.0008851793 0.08736375 -0.0017876286
-0.0005290754 0.0678808 -0.0014639441 -7.628602e-05 0.07040274 -0.0014203459 -7.225564e-05 0.07430805
-0.0015914965 -0.0005805589 0.09786829 -0.003277425 -0.0011212355 0.08990451 -0.005347393 -0.0014889285
0.082788 -0.004222672 -0.0013147861 0.09462444 -0.0029016805 -0.0014880352 0.08255086 -0.002088814
-0.0008627295 0.06687791 -0.00086977077 -0.0001898414 0.050696656 -0.0017577274 -0.00033273653 0.05865624
-0.0008314609 -3.5454505e-05 0.065642804 -0.0016401511 -0.00028939932 0.07275664 -0.00019735911 4.5493747e-05
0.06512488 3.0922096e-05 0.00018459515 0.059641533 -0.0009115666 0.00012822426 0.038147002 -2.5746394e-05
0.00047216704 0.055643845 -0.0021124806 -0.00041508142 0.055085693 -0.0025308263 -0.00048544322 0.03719138
-3.0708885e-05 0.00019436168 0.03363132 0.0003635003 0.000539036 0.03558727 0.0012318853 0.00086929544
0.055185974 0.0010601985 0.00074255804 0.06724477 -0.0015019715 -9.76095e-05 0.05331403 -0.0019074129
-0.00043970442 0.06298748 -0.0022844311 -0.0004108551 0.07402339 -0.002325427 -0.0006812242 0.066494815
-0.0018297981 -0.0003167714 0.047866974 -0.0029539366 -0.00045126592 0.037979983 -0.0020261044 1.8454944e-05
0.027890947 -0.006113954 -0.0018297238 0.028675273 -0.0055170152 -0.0009133275 0.044307824 -0.005023611
-0.00062825996 0.053860158 -0.004968065 -0.0006209887 0.04389664 -0.0010358953 0.00051522657 0.04321161
-0.00088089926 0.00045148286 0.059735335 -0.0019738493 6.177039e-05 0.05632722 -0.0012454138 0.00016020345
0.06634715 0.0010864902 0.0011710409 0.05532594 -0.001363795 0.00042836176 0.032970287 -0.0017191609
-0.00021193759 0.021260174 -0.002132847 -0.00037020282 0.02333788 -0.0022329218 -0.00036764523 0.039708667
-0.0016776505 -0.00019440758 0.075307176 -0.0016304678 -0.00039647712 0.07292216 -0.0026685481 -0.0008220877
0.06893 -0.0032599985 -0.0011919236 0.08438434 -0.00029904864 -0.00021171011 0.09675136 -0.0011121532
-0.0004917025 0.09006052 -0.0007956642 -0.00016123151 0.07935463 0.0011860807 0.0006055131 0.06210045
0.0023867711 0.0015253 0.05516267 0.0021246513 0.0015071504 0.06285931 0.0016468149 0.0010035058
0.07779161 0.0005992669 0.00058818527 0.07827674 0.0038347275 0.0013576867 0.048448473 0.0035508855
0.0021085178 0.03607087 0.0047495384 0.0017004773 0.03726769 0.005486945 0.0018461847 0.06383403
0.008046354 0.0043167686 0.07430548 0.004157677 0.002628269 0.07294255 0.007263778 0.003919291
0.059169643 0.008838325 0.0046499157 0.05707924 0.008209494 0.004914786 0.068893984 0.0074235224
0.004188752 0.073880635 0.0034140283 0.0022938007 0.06440671 0.0059913904 0.0038459222 0.078316666
0.006479448 0.0032087795 0.09278068 0.005469952 0.0025960219 0.08806839 0.0013221998 0.0011005555
0.097293705 0.0021231824 0.0011280354 0.09946177 0.0030847592 0.0017537023 0.095911704 0.0037367553
0.00190375 0.09884499 0.006639131 0.0037685025 0.099038005 0.006075364 0.003310967 0.09460158
0.0071870815 0.0045926142 0.0895352 0.007041022 0.00450923 0.094339676 0.0076564276 0.0049800044
0.0912287 0.0069621527 0.0040252404 0.09591502 0.005187251 0.002680261 0.10718212 0.0036461798
0.0023334913 0.104712896 0.0052291704 0.0031359578 0.10387567 0.0039534075 0.0027299456 0.10710153
00000000: f986 c33d 1ddc 24bb 3d3c 30ba 613d ca3d
00000010: 64be 81bb 610b 68ba c4eb b23d dd4e eaba
00000020: a6b1 0aba 1705 8b3d d0e1 bfba bffb 9fb8
00000030: 502f 903d e62a baba f487 97b8 d22e 983d
00000040: c399 d0ba a630 18ba 2c6f c83d 11ca 56bb
00000050: 6cf6 92ba db1f b83d 2f39 afbb 2628 c3ba
00000060: c18c a93d 575e 8abb e754 acba 75ca c13d
00000070: 1f2a 3ebb 2d0a c3ba 6d10 a93d 7ce4 08bb
00000080: cc28 62ba 49f7 883d 5401 64ba 2a10 47b9
00000090: 4ca7 4f3d 8b63 e6ba 2473 aeb9 8741 703d
000000a0: 65f6 59ba fcb4 14b8 bc6f 863d 57fa d6ba
000000b0: 85ba 97b9 6f01 953d 2ff2 4eb9 8ad0 3e38
000000c0: 3160 853d 59b2 0138 e28f 4139 ae4a 743d
000000d0: 33f6 6eba f073 0639 0840 1c3d f6f9 d7b7
000000e0: 308d f739 cdea 633d 8b71 0abb 499f d9b9
000000f0: 89a1 613d 38dc 25bb 1683 feb9 fd55 183d
00000100: 6acd 00b8 91cd 4b39 ffc0 093d 2f94 be39
00000110: 184e 0d3a f5c3 113d 3677 a13a 6ee1 633a
00000120: b00a 623d 5cf6 8a3a 3aa8 423a a0b7 893d
00000130: cddd c4ba b4b3 ccb8 d05f 5a3d 2802 faba
00000140: 2188 e6b9 94ff 803d 65b6 15bb 0a68 d7b9
00000150: 9399 973d 3166 18bb 2f94 32ba 6f2e 883d
00000160: d6d5 efba 5614 a6b9 2910 443d d596 41bb
00000170: e397 ecb9 e690 1b3d 64c8 04bb b1cf 9a37
00000180: 8e7b e43c 9057 c8bb 58d3 efba 68e8 ea3c
00000190: 14c8 b4bb 5f6c 6fba 1f7c 353d 1a9d a4bb
000001a0: d0b1 24ba 789c 5c3d 26cb a2bb d9c9 22ba
000001b0: f7cc 333d e1c6 87ba 4510 073a a8fe 303d
000001c0: 26ec 66ba 01b5 ec39 0aad 743d b25b 01bb
000001d0: ba8a 8138 5fb7 663d 273d a3ba 49fc 2739
000001e0: 04e1 873d 9068 8e3a 9d7d 993a 749d 623d
000001f0: 5ec1 b2ba be95 e039 da0b 073d 7855 e1ba
00000200: 903b 5eb9 d129 ae3c 3cc7 0bbb c817 c2b9
00000210: 152f bf3c 3656 12bb 82c0 c0b9 8ea5 223d
00000220: 9ce4 dbba e3d9 4bb9 a63a 9a3d 6cb5 d5ba
00000230: 42de cfb9 3758 953d cfe2 2ebb 5f81 57ba
00000240: 2c2b 8d3d b3a5 55bb 523a 9cba b2d1 ac3d
00000250: a1c9 9cb9 80fe 5db9 9425 c63d abc5 91ba
00000260: 99e5 00ba a671 b83d 1f94 50ba 4110 29b9
00000270: ae84 a23d 4476 9b3a 4cbb 1e3a 0b5d 7e3d
00000280: 606b 1c3b 93ec c73a 40f2 613d bc3d 0b3b
00000290: 938b c53a 62bc 803d f0d9 d73a 1188 833a
000002a0: 3551 9f3d 1f18 1d3a 7230 1a3a 8e4f a03d
000002b0: 0d50 7b3b 68f4 b13a e871 463d f9b5 683b
000002c0: 0f2f 0a3b 0cbf 133d 04a2 9b3b 8de2 de3a
000002d0: 01a6 183d d5cb b33b aefb f13a 6abb 823d
000002e0: dbd4 033c ae73 8d3b 792d 983d 1f3d 883b
000002f0: 093f 2c3b e762 953d fc04 ee3b 656d 803b
00000300: de5b 723d 9fce 103c 525e 983b eccb 693d
00000310: 1d81 063c 370c a13b 4a18 8d3d 0541 f33b
00000320: cc41 893b bb4e 973d e4bd 5f3b 9753 163b
00000330: aae7 833d 6d53 c43b de0b 7c3b 7d64 a03d
00000340: 8d51 d43b 634a 523b cc03 be3d 483d b33b
00000350: 0522 2a3b 335d b43d aa4d ad3a 8440 903a
00000360: ec41 c73d 1725 0b3b 96da 933a 9db2 cb3d
00000370: ac29 4a3b 7cdc e53a 5b6d c43d 5ae4 743b
00000380: 4087 f93a 3e6f ca3d 118d d93b fbf8 763b
00000390: 70d4 ca3d d913 c73b cffc 583b 79be c13d
000003a0: 9c81 eb3b a47d 963b 3b5e b73d 60b8 e63b
000003b0: 2ac2 933b 2935 c13d c5e2 fa3b 4e2f a33b
000003c0: 1dd6 ba3d c522 e43b 2ae6 833b 186f c43d
000003d0: d1f9 a93b 51a7 2f3b 4d82 db3d bff4 6e3b
000003e0: 7ded 183b b773 d63d 7659 ab3b a484 4d3b
000003f0: c4bc d43d 968b 813b e3e8 323b 0c58 db3d

leye_pose f4 [152, 3]
0.0 0.0 0.0 0.0 0.0 0.0 0.0 0.0
0.0 0.0 0.0 0.0 0.0 0.0 0.0 0.0
0.0 0.0 0.0 0.0 0.0 0.0 0.0 0.0
0.0 0.0 0.0 0.0 0.0 0.0 0.0 0.0
0.0 0.0 0.0 0.0 0.0 0.0 0.0 0.0
0.0 0.0 0.0 0.0 0.0 0.0 0.0 0.0
0.0 0.0 0.0 0.0 0.0 0.0 0.0 0.0
0.0 0.0 0.0 0.0 0.0 0.0 0.0 0.0
0.0 0.0 0.0 0.0 0.0 0.0 0.0 0.0
0.0 0.0 0.0 0.0 0.0 0.0 0.0 0.0
0.0 0.0 0.0 0.0 0.0 0.0 0.0 0.0
0.0 0.0 0.0 0.0 0.0 0.0 0.0 0.0
0.0 0.0 0.0 0.0 0.0 0.0 0.0 0.0
0.0 0.0 0.0 0.0 0.0 0.0 0.0 0.0
0.0 0.0 0.0 0.0 0.0 0.0 0.0 0.0
0.0 0.0 0.0 0.0 0.0 0.0 0.0 0.0
0.0 0.0 0.0 0.0 0.0 0.0 0.0 0.0
0.0 0.0 0.0 0.0 0.0 0.0 0.0 0.0
0.0 0.0 0.0 0.0 0.0 0.0 0.0 0.0
0.0 0.0 0.0 0.0 0.0 0.0 0.0 0.0
0.0 0.0 0.0 0.0 0.0 0.0 0.0 0.0
0.0 0.0 0.0 0.0 0.0 0.0 0.0 0.0
0.0 0.0 0.0 0.0 0.0 0.0 0.0 0.0
0.0 0.0 0.0 0.0 0.0 0.0 0.0 0.0
0.0 0.0 0.0 0.0 0.0 0.0 0.0 0.0
0.0 0.0 0.0 0.0 0.0 0.0 0.0 0.0
0.0 0.0 0.0 0.0 0.0 0.0 0.0 0.0
0.0 0.0 0.0 0.0 0.0 0.0 0.0 0.0
0.0 0.0 0.0 0.0 0.0 0.0 0.0 0.0
0.0 0.0 0.0 0.0 0.0 0.0 0.0 0.0
0.0 0.0 0.0 0.0 0.0 0.0 0.0 0.0
0.0 0.0 0.0 0.0 0.0 0.0 0.0 0.0
00000000: 0000 0000 0000 0000 0000 0000 0000 0000
00000010: 0000 0000 0000 0000 0000 0000 0000 0000
00000020: 0000 0000 0000 0000 0000 0000 0000 0000
00000030: 0000 0000 0000 0000 0000 0000 0000 0000
00000040: 0000 0000 0000 0000 0000 0000 0000 0000
00000050: 0000 0000 0000 0000 0000 0000 0000 0000
00000060: 0000 0000 0000 0000 0000 0000 0000 0000
00000070: 0000 0000 0000 0000 0000 0000 0000 0000
00000080: 0000 0000 0000 0000 0000 0000 0000 0000
00000090: 0000 0000 0000 0000 0000 0000 0000 0000
000000a0: 0000 0000 0000 0000 0000 0000 0000 0000
000000b0: 0000 0000 0000 0000 0000 0000 0000 0000
000000c0: 0000 0000 0000 0000 0000 0000 0000 0000
000000d0: 0000 0000 0000 0000 0000 0000 0000 0000
000000e0: 0000 0000 0000 0000 0000 0000 0000 0000
000000f0: 0000 0000 0000 0000 0000 0000 0000 0000
00000100: 0000 0000 0000 0000 0000 0000 0000 0000
00000110: 0000 0000 0000 0000 0000 0000 0000 0000
00000120: 0000 0000 0000 0000 0000 0000 0000 0000
00000130: 0000 0000 0000 0000 0000 0000 0000 0000
00000140: 0000 0000 0000 0000 0000 0000 0000 0000
00000150: 0000 0000 0000 0000 0000 0000 0000 0000
00000160: 0000 0000 0000 0000 0000 0000 0000 0000
00000170: 0000 0000 0000 0000 0000 0000 0000 0000
00000180: 0000 0000 0000 0000 0000 0000 0000 0000
00000190: 0000 0000 0000 0000 0000 0000 0000 0000
000001a0: 0000 0000 0000 0000 0000 0000 0000 0000
000001b0: 0000 0000 0000 0000 0000 0000 0000 0000
000001c0: 0000 0000 0000 0000 0000 0000 0000 0000
000001d0: 0000 0000 0000 0000 0000 0000 0000 0000
000001e0: 0000 0000 0000 0000 0000 0000 0000 0000
000001f0: 0000 0000 0000 0000 0000 0000 0000 0000
00000200: 0000 0000 0000 0000 0000 0000 0000 0000
00000210: 0000 0000 0000 0000 0000 0000 0000 0000
00000220: 0000 0000 0000 0000 0000 0000 0000 0000
00000230: 0000 0000 0000 0000 0000 0000 0000 0000
00000240: 0000 0000 0000 0000 0000 0000 0000 0000
00000250: 0000 0000 0000 0000 0000 0000 0000 0000
00000260: 0000 0000 0000 0000 0000 0000 0000 0000
00000270: 0000 0000 0000 0000 0000 0000 0000 0000
00000280: 0000 0000 0000 0000 0000 0000 0000 0000
00000290: 0000 0000 0000 0000 0000 0000 0000 0000
000002a0: 0000 0000 0000 0000 0000 0000 0000 0000
000002b0: 0000 0000 0000 0000 0000 0000 0000 0000
000002c0: 0000 0000 0000 0000 0000 0000 0000 0000
000002d0: 0000 0000 0000 0000 0000 0000 0000 0000
000002e0: 0000 0000 0000 0000 0000 0000 0000 0000
000002f0: 0000 0000 0000 0000 0000 0000 0000 0000
00000300: 0000 0000 0000 0000 0000 0000 0000 0000
00000310: 0000 0000 0000 0000 0000 0000 0000 0000
00000320: 0000 0000 0000 0000 0000 0000 0000 0000
00000330: 0000 0000 0000 0000 0000 0000 0000 0000
00000340: 0000 0000 0000 0000 0000 0000 0000 0000
00000350: 0000 0000 0000 0000 0000 0000 0000 0000
00000360: 0000 0000 0000 0000 0000 0000 0000 0000
00000370: 0000 0000 0000 0000 0000 0000 0000 0000
00000380: 0000 0000 0000 0000 0000 0000 0000 0000
00000390: 0000 0000 0000 0000 0000 0000 0000 0000
000003a0: 0000 0000 0000 0000 0000 0000 0000 0000
000003b0: 0000 0000 0000 0000 0000 0000 0000 0000
000003c0: 0000 0000 0000 0000 0000 0000 0000 0000
000003d0: 0000 0000 0000 0000 0000 0000 0000 0000
000003e0: 0000 0000 0000 0000 0000 0000 0000 0000
000003f0: 0000 0000 0000 0000 0000 0000 0000 0000

reye_pose f4 [152, 3]
0.0 0.0 0.0 0.0 0.0 0.0 0.0 0.0
0.0 0.0 0.0 0.0 0.0 0.0 0.0 0.0
0.0 0.0 0.0 0.0 0.0 0.0 0.0 0.0
0.0 0.0 0.0 0.0 0.0 0.0 0.0 0.0
0.0 0.0 0.0 0.0 0.0 0.0 0.0 0.0
0.0 0.0 0.0 0.0 0.0 0.0 0.0 0.0
0.0 0.0 0.0 0.0 0.0 0.0 0.0 0.0
0.0 0.0 0.0 0.0 0.0 0.0 0.0 0.0
0.0 0.0 0.0 0.0 0.0 0.0 0.0 0.0
0.0 0.0 0.0 0.0 0.0 0.0 0.0 0.0
0.0 0.0 0.0 0.0 0.0 0.0 0.0 0.0
0.0 0.0 0.0 0.0 0.0 0.0 0.0 0.0
0.0 0.0 0.0 0.0 0.0 0.0 0.0 0.0
0.0 0.0 0.0 0.0 0.0 0.0 0.0 0.0
0.0 0.0 0.0 0.0 0.0 0.0 0.0 0.0
0.0 0.0 0.0 0.0 0.0 0.0 0.0 0.0
0.0 0.0 0.0 0.0 0.0 0.0 0.0 0.0
0.0 0.0 0.0 0.0 0.0 0.0 0.0 0.0
0.0 0.0 0.0 0.0 0.0 0.0 0.0 0.0
0.0 0.0 0.0 0.0 0.0 0.0 0.0 0.0
0.0 0.0 0.0 0.0 0.0 0.0 0.0 0.0
0.0 0.0 0.0 0.0 0.0 0.0 0.0 0.0
0.0 0.0 0.0 0.0 0.0 0.0 0.0 0.0
0.0 0.0 0.0 0.0 0.0 0.0 0.0 0.0
0.0 0.0 0.0 0.0 0.0 0.0 0.0 0.0
0.0 0.0 0.0 0.0 0.0 0.0 0.0 0.0
0.0 0.0 0.0 0.0 0.0 0.0 0.0 0.0
0.0 0.0 0.0 0.0 0.0 0.0 0.0 0.0
0.0 0.0 0.0 0.0 0.0 0.0 0.0 0.0
0.0 0.0 0.0 0.0 0.0 0.0 0.0 0.0
0.0 0.0 0.0 0.0 0.0 0.0 0.0 0.0
0.0 0.0 0.0 0.0 0.0 0.0 0.0 0.0
00000000: 0000 0000 0000 0000 0000 0000 0000 0000
00000010: 0000 0000 0000 0000 0000 0000 0000 0000
00000020: 0000 0000 0000 0000 0000 0000 0000 0000
00000030: 0000 0000 0000 0000 0000 0000 0000 0000
00000040: 0000 0000 0000 0000 0000 0000 0000 0000
00000050: 0000 0000 0000 0000 0000 0000 0000 0000
00000060: 0000 0000 0000 0000 0000 0000 0000 0000
00000070: 0000 0000 0000 0000 0000 0000 0000 0000
00000080: 0000 0000 0000 0000 0000 0000 0000 0000
00000090: 0000 0000 0000 0000 0000 0000 0000 0000
000000a0: 0000 0000 0000 0000 0000 0000 0000 0000
000000b0: 0000 0000 0000 0000 0000 0000 0000 0000
000000c0: 0000 0000 0000 0000 0000 0000 0000 0000
000000d0: 0000 0000 0000 0000 0000 0000 0000 0000
000000e0: 0000 0000 0000 0000 0000 0000 0000 0000
000000f0: 0000 0000 0000 0000 0000 0000 0000 0000
00000100: 0000 0000 0000 0000 0000 0000 0000 0000
00000110: 0000 0000 0000 0000 0000 0000 0000 0000
00000120: 0000 0000 0000 0000 0000 0000 0000 0000
00000130: 0000 0000 0000 0000 0000 0000 0000 0000
00000140: 0000 0000 0000 0000 0000 0000 0000 0000
00000150: 0000 0000 0000 0000 0000 0000 0000 0000
00000160: 0000 0000 0000 0000 0000 0000 0000 0000
00000170: 0000 0000 0000 0000 0000 0000 0000 0000
00000180: 0000 0000 0000 0000 0000 0000 0000 0000
00000190: 0000 0000 0000 0000 0000 0000 0000 0000
000001a0: 0000 0000 0000 0000 0000 0000 0000 0000
000001b0: 0000 0000 0000 0000 0000 0000 0000 0000
000001c0: 0000 0000 0000 0000 0000 0000 0000 0000
000001d0: 0000 0000 0000 0000 0000 0000 0000 0000
000001e0: 0000 0000 0000 0000 0000 0000 0000 0000
000001f0: 0000 0000 0000 0000 0000 0000 0000 0000
00000200: 0000 0000 0000 0000 0000 0000 0000 0000
00000210: 0000 0000 0000 0000 0000 0000 0000 0000
00000220: 0000 0000 0000 0000 0000 0000 0000 0000
00000230: 0000 0000 0000 0000 0000 0000 0000 0000
00000240: 0000 0000 0000 0000 0000 0000 0000 0000
00000250: 0000 0000 0000 0000 0000 0000 0000 0000
00000260: 0000 0000 0000 0000 0000 0000 0000 0000
00000270: 0000 0000 0000 0000 0000 0000 0000 0000
00000280: 0000 0000 0000 0000 0000 0000 0000 0000
00000290: 0000 0000 0000 0000 0000 0000 0000 0000
000002a0: 0000 0000 0000 0000 0000 0000 0000 0000
000002b0: 0000 0000 0000 0000 0000 0000 0000 0000
000002c0: 0000 0000 0000 0000 0000 0000 0000 0000
000002d0: 0000 0000 0000 0000 0000 0000 0000 0000
000002e0: 0000 0000 0000 0000 0000 0000 0000 0000
000002f0: 0000 0000 0000 0000 0000 0000 0000 0000
00000300: 0000 0000 0000 0000 0000 0000 0000 0000
00000310: 0000 0000 0000 0000 0000 0000 0000 0000
00000320: 0000 0000 0000 0000 0000 0000 0000 0000
00000330: 0000 0000 0000 0000 0000 0000 0000 0000
00000340: 0000 0000 0000 0000 0000 0000 0000 0000
00000350: 0000 0000 0000 0000 0000 0000 0000 0000
00000360: 0000 0000 0000 0000 0000 0000 0000 0000
00000370: 0000 0000 0000 0000 0000 0000 0000 0000
00000380: 0000 0000 0000 0000 0000 0000 0000 0000
00000390: 0000 0000 0000 0000 0000 0000 0000 0000
000003a0: 0000 0000 0000 0000 0000 0000 0000 0000
000003b0: 0000 0000 0000 0000 0000 0000 0000 0000
000003c0: 0000 0000 0000 0000 0000 0000 0000 0000
000003d0: 0000 0000 0000 0000 0000 0000 0000 0000
000003e0: 0000 0000 0000 0000 0000 0000 0000 0000
000003f0: 0000 0000 0000 0000 0000 0000 0000 0000
