test_dataset/gait_753/20250617_c2_a1_Take1/split_subjects/0/fit-smplx/smplx-params_cut.npz (npz, 25170 bytes, 10 tensors)

global_orient f4 [46, 3]
-0.016974254 -3.1229317 -0.10037143 0.015736518 -3.189602 -0.08974013 0.035342414 -3.2219348
-0.0849046 0.048465427 -3.2248538 -0.09363412 0.07691277 -3.1720061 -0.1259712 0.12596151
-3.0804183 -0.117634006 0.12952201 -2.9557393 -0.118725635 0.08618434 -2.8174045 -0.12578188
-0.009444081 -2.7418802 -0.11393809 -0.03853717 -2.6139288 -0.10135211 -0.044333987 -2.4911435
-0.08097146 -0.040878247 -2.4495661 -0.05846476 -0.031391058 -2.4484828 -0.038457245 -0.04682838
-2.4885137 -0.038076233 -0.067807704 -2.566722 -0.06138458 -0.055225547 -2.6512523 -0.11164373
-0.032288723 -2.6792784 -0.1674577 -0.02360658 -2.787536 -0.18609582 -0.023021013 -2.873485
-0.17367694 -0.021028738 -2.9657366 -0.14977641 -0.01594449 -3.0253458 -0.13317738 0.0040736557
-3.0530205 -0.11962151 0.018470818 -3.0611086 -0.113549374 0.020226968 -3.0324607 -0.12635995
0.030180255 -2.9672878 -0.14280768 0.008962701 -2.8851452 -0.16061293 -0.041870236 -2.7703087
-0.16358608 -0.08617953 -2.6796706 -0.16921023 -0.0806935 -2.5451396 -0.15753525 -0.04225334
-2.413092 -0.14705163 -0.025848776 -2.296911 -0.124542706 -0.023092652 -2.2527273 -0.10198472
-0.022035714 -2.2593262 -0.07409153 -0.0190833 -2.2974734 -0.058928702 -0.037249103 -2.3580074
-0.06520029 -0.06864521 -2.451281 -0.08911077 -0.11589372 -2.4679701 -0.081739336 -0.11961844
-2.5367908 -0.10833629 -0.048340607 -2.787582 -0.15783526 -0.0031317174 -3.0105934 -0.18019901
0.00856115 -3.1280017 -0.19749236 0.001843825 -3.1906056 -0.21467787 -0.0046998705 -3.2180324
-0.22641662 0.00293912 -3.2558153 -0.2415319 0.009809666 -3.2538712 -0.25578853 0.018992808
-3.2799783 -0.29445714
00000000: 970d 8bbc 1dde 47c0 898f cdbd dfe9 803c
00000010: 7022 4cc0 acc9 b7bd 35c3 103d 2e34 4ec0
00000020: 77e2 adbd af83 463d 0164 4ec0 3fc3 bfbd
00000030: 7184 9d3d 2602 4bc0 98fe 00be 0efc 003e
00000040: 9325 45c0 19ea f0bd 6ba1 043e d52a 3dc0
00000050: 6d26 f3bd 6a81 b03d 5b50 34c0 f7cc 00be
00000060: 59bb 1abc f77a 2fc0 6058 e9bd 27d9 1dbd
00000070: 9c4a 27c0 b291 cfbd 8e97 35bd e56e 1fc0
00000080: 5dd4 a5bd f36f 27bd b1c5 1cc0 bf78 6fbd
00000090: e993 00bd f1b3 1cc0 5885 1dbd 1ecf 3fbd
000000a0: cf43 1fc0 d3f5 1bbd c4de 8abd 2c45 24c0
000000b0: 666e 7bbd 2f34 62bd 1eae 29c0 78a5 e4bd
000000c0: 2e41 04bd 4c79 2bc0 087a 2bbe 9662 c1bc
000000d0: fd66 32c0 e78f 3ebe 9096 bcbc 2ee7 37c0
000000e0: 5ed8 31be 7644 acbc a1ce 3dc0 fd5e 19be
000000f0: 059e 82bc 449f 41c0 a75f 08be 4d7c 853b
00000100: b064 43c0 1ffc f4bd 1d50 973c 34e9 43c0
00000110: 938c e8bd 07b3 a53c d613 42c0 8164 01be
00000120: 953c f73c 0be8 3dc0 2d3c 12be 4bd8 123c
00000130: 38a6 38c0 b777 24be 2080 2bbd bd4c 31c0
00000140: 1c83 27be e57e b0bd b97f 2bc0 7245 2dbe
00000150: a242 a5bd 91e3 22c0 ec50 21be d711 2dbd
00000160: 1970 1ac0 b494 16be d0c0 d3bc 9700 13c0
00000170: 3f10 ffbd cd2c bdbc af2c 10c0 5ddd d0bd
00000180: 3e84 b4bc cd98 10c0 4dbd 97bd 9554 9cbc
00000190: ce09 13c0 395f 71bd 8492 18bd 98e9 16c0
000001a0: bb87 85bd dc95 8cbd cae1 1cc0 b57f b6bd
000001b0: b059 edbd 39f3 1dc0 f466 a7bd 83fa f4bd
000001c0: c85a 22c0 6bdf ddbd cd00 46bd be67 32c0
000001d0: 919f 21be 803d 4dbb 90ad 40c0 1786 38be
000001e0: 1144 0c3c 2e31 48c0 703b 4abe 80ac f13a
000001f0: e232 4cc0 84d4 5bbe 5f01 9abb 3ef4 4dc0
00000200: c2d9 67be 409e 403b 475f 50c0 2354 77be
00000210: b9b8 203c 6d3f 50c0 b7f6 82be ce96 9b3c
00000220: 2aeb 51c0 16c3 96be

body_pose f4 [46, 63]
-0.58609456 -0.14861752 0.16059892 0.09244864 0.11881897 0.090949886 0.2678403 0.11692501
-0.030407742 1.1285902 0.02840973 -0.31127995 0.17429152 0.1799211 -0.12217225 0.120383315
0.10550947 -0.017123494 0.20507556 0.12155913 -0.005594009 -0.18262215 0.08621539 -0.11549951
0.07054799 0.14774185 -0.05067127 -1.5133607e-05 1.5095002e-05 -1.5187233e-05 -1.5068249e-05 -1.5094673e-05
-1.5634701e-05 0.26358628 0.028302735 0.05942106 -0.034651585 0.33556655 -0.41064072 -0.032814074
-0.27038383 0.48372072 -0.112870425 0.083421536 0.005719068 0.21938092 -0.030432587 -0.5067163
0.114122115 -0.0049911835 0.5150726 0.16977279 -1.050572 -0.20914084 0.40661708 1.0240555
0.5367582 0.35335913 -0.21835716 -0.04956702 0.36193874 -0.36001515 -0.26201248 -0.6869291
-0.15930703 0.2704952 0.1998811 0.056519944 0.06672009 0.28586826 0.14692013 -0.024394004
0.9075191 0.016444694 -0.27123114 0.036658 0.24050325 -0.0971817 0.08857211 0.15072526
-0.04094927 0.29298764 0.1737618 0.097468786 -0.07380739 0.10090064 -0.1820395 0.09535443
0.1811311 -0.06289904 -1.4791782e-05 1.534992e-05 1.582311e-05 1.621723e-05 1.5505793e-05 1.50648475e-05
0.23009507 0.0011420747 0.054780353 -0.0044845487 0.35507828 -0.4246993 -0.022108871 -0.29013392
0.49242523 -0.13608357 0.06327028 0.00086510164 0.25102895 0.021276426 -0.5461383 0.18964697
-0.037189167 0.49681005 0.19023791 -1.0036181 -0.2565255 0.34864295 1.0477256 0.514406
0.37522125 -0.14017107 -0.08290148 0.37897906 -0.28173715 -0.19449475 -0.7060585 -0.100141354
0.27057502 0.2591271 0.031246632 0.023300866 0.27897593 0.18053317 -0.01320995 0.63836306
-0.06108886 -0.12409279 0.060266674 0.21663383 -0.06448349 0.08104431 0.1706592 -0.06415588
0.28569448 0.08998813 0.0948468 -0.041097425 0.10096438 -0.16760318 0.11769641 0.18001561
-0.066516384 -1.4777442e-05 -1.508589e-05 1.5967187e-05 1.5989186e-05 1.5500193e-05 1.494136e-05 0.20442003
-0.016824724 0.03820917 0.025346411 0.37038273 -0.38785157 0.012561515 -0.29157397 0.49422845
-0.14037414 0.043702506 -0.017784627 0.26553693 0.053465813 -0.5810818 0.18155439 -0.03925708
0.5078687 0.22535597 -0.99498266 -0.29308227 0.3673218 0.98507535 0.5430875 0.39902508
-0.11437072 -0.07609519 0.34664375 -0.29582512 -0.1273065 -0.642804 -0.0785009 0.2186579
0.2688231 0.045479253 0.028951647 0.25853372 0.19187915 0.008669596 0.4339252 -0.0938681
-0.050148368 0.22094728 0.23985597 -0.07962534 0.07302299 0.16317858 -0.08699319 0.32667893
0.0897242 0.099714585 0.023004137 0.044751458 -0.14867088 0.1390954 0.16577615 -0.061192356
-1.4689105e-05 -1.5117976e-05 1.5918698e-05 -1.4697633e-05 1.548119e-05 1.5065395e-05 0.19668983 -0.016054794
0.012658702 0.045628466 0.3979404 -0.35760322 0.037084214 -0.29563648 0.43803388 -0.10560779
0.036833864 -0.026829204 0.29103544 0.033565316 -0.5924633 0.24654934 -0.0068746107 0.53114694
0.19193889 -1.0443026 -0.30025572 0.30871916 1.0181506 0.58178306 0.39206347 -0.14721362
-0.04024537 0.33435833 -0.32434273 0.016626582 -0.51816 -0.06805139 0.1087461 0.2837812
00000000: 4b0a 16bf 312f 18be 0b74 243e b655 bd3d
00000010: 5c57 f33d ef43 ba3d 5d22 893e 6176 ef3d
00000020: a819 f9bc a575 903f 86bb e83c 1660 9fbe
00000030: 7a79 323e 3d3d 383e 7235 fabd 878b f63d
00000040: 5915 d83d 9246 8cbc 54ff 513e fef3 f83d
00000050: f34d b7bb 4d01 3bbe b291 b03d 028b ecbd
00000060: 777b 903d a449 173e ad8c 4fbd 59e6 7db7
00000070: 8a40 7d37 abcc 7eb7 a3cd 7cb7 203f 7db7
00000080: 4427 83b7 c8f4 863e 23db e73c 7f63 733d
00000090: d2ee 0dbd 61cf ab3e 803f d2be 0d68 06bd
000000a0: c06f 8abe 3eaa f73e 9c28 e7bd e9d8 aa3d
000000b0: 0567 bb3b 64a5 603e c34d f9bc 29b8 01bf
000000c0: dbb8 e93d 158d a3bb ccdb 033f ebd8 2d3e
000000d0: 2579 86bf 0429 56be 1d30 d03e 4014 833f
000000e0: fc68 093f 7deb b43e 0599 5fbe ca06 4bbd
000000f0: 0950 b93e e853 b8be 8026 86be 96da 2fbf
00000100: 6221 23be 597e 8a3e a2ad 4c3e 7581 673d
00000110: 8ba4 883d 535d 923e 3b72 163e efd5 c7bc
00000120: 2c53 683f 06b7 863c cfde 8abe b326 163d
00000130: 7c46 763e 3307 c7bd 4b65 b53d b957 1a3e
00000140: 6cba 27bd 7a02 963e 9dee 313e b79d c73d
00000150: 5428 97bd ffa4 ce3d 9068 3abe 2f49 c33d
00000160: 6e7a 393e 36d1 80bd 382a 78b7 b4c3 8037
00000170: dfbb 8437 3c0a 8837 7012 8237 07bf 7c37
00000180: 0b9e 6b3e abb1 953a 5d61 603d 1ff3 92bb
00000190: d2cc b53e 3072 d9be aa1d b5bc 6f8c 94be
000001a0: 291f fc3e 7e59 0bbe d993 813d fdc7 623a
000001b0: de86 803e e64b ae3c b8cf 0bbf d132 423e
000001c0: ab53 18bd e35d fe3e bacd 423e 8f76 80bf
000001d0: 4f57 83be 5481 b23e df1b 863f 1db0 033f
000001e0: 001d c03e 0189 0fbe 40c8 a9bd 8b09 c23e
000001f0: da3f 90be a229 47be 40c0 34bf e916 cdbd
00000200: cf88 8a3e 4fac 843e f0f8 ff3c 75e1 be3c
00000210: efd5 8e3e b0dd 383e 8c6e 58bc c36b 233f
00000220: 5038 7abd 5c24 febd 30da 763d 42d5 5d3e
00000230: ec0f 84bd 8ffa a53d 49c1 2e3e 2864 83bd
00000240: 8c46 923e b24b b83d 0a3f c23d c655 28bd
00000250: 6ac6 ce3d 2ba0 2bbe d10a f13d 0356 383e
00000260: be39 88bd a1ec 77b7 6719 7db7 46f1 8537
00000270: 8420 8637 6906 8237 a7ac 7a37 7c53 513e
00000280: 01d4 89bc 3881 1c3d 47a3 cf3c cea2 bd3e
00000290: 7b94 c6be d0ce 4d3c 2f49 95be 830b fd3e
000002a0: 3dbe 0fbe 6601 333d 11b1 91bc 75f4 873e
000002b0: f8fe 5a3d c7c1 14bf 65e9 393e 08cc 20bd
000002c0: af03 023f b7c3 663e 2fb7 7ebf e10e 96be
000002d0: 9a11 bc3e e62d 7c3f c807 0b3f 044d cc3e
000002e0: 323b eabd ccd7 9bbd 4a7b b13e 6476 97be
000002f0: a35c 02be ce8e 24bf 14c5 a0bd dbe7 5f3e
00000300: 2ea3 893e 7448 3a3d 012c ed3c 885e 843e
00000310: f87b 443e ec0a 0e3c 722b de3e eb3d c0bd
00000320: 6068 4dbd 0140 623e ce9c 753e 9c12 a3bd
00000330: 148d 953d 4918 273e 7c29 b2bd 7642 a73e
00000340: 52c1 b73d 2937 cc3d 2c73 bc3c 4e4d 373d
00000350: 2e3d 18be 066f 0e3e 39c1 293e d6a4 7abd
00000360: 3a71 76b7 36a3 7db7 2589 8537 da95 76b7
00000370: 9add 8137 61c1 7c37 0f69 493e 5885 83bc
00000380: 7266 4f3c eae4 3a3d d8be cb3e c517 b7be
00000390: 9ee5 173d aa5d 97be fa45 e03e e648 d8bd
000003a0: 1bdf 163d ebc8 dbbc 9902 953e c97b 093d
000003b0: adab 17bf 6e77 7c3e 6a44 e1bb 3ff9 073f
000003c0: a18b 443e b5ab 85bf 1ebb 99be 7010 9e3e
000003d0: c252 823f bcef 143f 8bbc c83e 2bbf 16be
000003e0: 54d8 24bd 0431 ab3e 4010 a6be 7834 883c
000003f0: 22a6 04bf 875e 8bbd 46b6 de3d c54b 913e

transl f4 [46, 3]
0.5732096 0.99627763 0.8342448 0.5607017 1.0045528 0.7990928 0.54760075 1.0059042
0.7600546 0.53324795 1.0003847 0.71834326 0.5174142 0.9899018 0.67342544 0.49774477
0.9785736 0.6286434 0.47993416 0.9679921 0.5903976 0.45843545 0.9673845 0.559594
0.44499925 0.9650351 0.5291634 0.4276524 0.97316855 0.49828365 0.40980804 0.9820976
0.4666348 0.39333493 0.98670703 0.43234968 0.3779735 0.9852274 0.39473498 0.36070076
0.9789317 0.3505637 0.34048992 0.96897596 0.30077222 0.32079542 0.96057075 0.25463265
0.30417648 0.9601285 0.21211682 0.2919886 0.9675965 0.17230915 0.2812423 0.9807756
0.1394301 0.26726687 0.99110967 0.10720444 0.2521639 0.99735534 0.073162295 0.23821096
0.9981108 0.037721694 0.22208992 0.9913074 -0.001323574 0.2032181 0.9790691 -0.04303952
0.18163835 0.962523 -0.0859837 0.16284898 0.94984996 -0.12463251 0.14494364 0.9458734
-0.15756194 0.12894467 0.95463276 -0.18839662 0.113582574 0.9666077 -0.21424171 0.09884981
0.9809308 -0.23832384 0.08287744 0.99036473 -0.26460168 0.066396594 0.99481314 -0.2933716
0.048988782 0.99554926 -0.32230487 0.031036397 0.99244887 -0.352917 0.0101505285 0.9851623
-0.38668448 -0.012068264 0.9749723 -0.42300817 -0.031693984 0.97093827 -0.4528957 -0.04900531
0.9711515 -0.4873772 -0.060302686 0.9739877 -0.52304757 -0.070168644 0.9857374 -0.5499904
-0.07696767 0.992457 -0.5743973 -0.08454508 0.993052 -0.5974981 -0.09321743 0.98919207
-0.6215853 -0.10375985 0.98259723 -0.6501721 -0.11765232 0.9742542 -0.6796639 -0.13331312
0.96225345 -0.7165937
00000000: ddbd 123f 0d0c 7f3f 1191 553f 268a 0f3f
00000010: 3095 803f 5991 4c3f 902f 0c3f 78c1 803f
00000020: f092 423f f082 083f 9b0c 803f 58e5 373f
00000030: 4275 043f 346a 7d3f 9c65 2c3f 67d8 fe3e
00000040: cd83 7a3f c6ee 203f eeb9 f53e 55ce 773f
00000050: 4c24 173f 0db8 ea3e 83a6 773f 8d41 0f3f
00000060: f1d6 e33e 8a0c 773f 4177 073f 41f5 da3e
00000070: 9321 793f 091f ff3e 5cd2 d13e c06a 7b3f
00000080: c2ea ee3e 3263 c93e d598 7c3f f05c dd3e
00000090: be85 c13e dd37 7c3f b41a ca3e c5ad b83e
000000a0: 459b 7a3f 167d b33e b254 ae3e cf0e 783f
000000b0: d1fe 993e 4c3f a43e f7e7 753f 365f 823e
000000c0: 05bd 9b3e fbca 753f 2735 593e 887f 953e
000000d0: 67b4 773f cf71 303e fefe 8f3e 1c14 7b3f
000000e0: c4c6 0e3e 34d7 883e 5db9 7d3f 008e db3d
000000f0: a01b 813e ae52 7f3f 1dd6 953d 93ed 733e
00000100: 3084 7f3f 1082 1a3d 8a6b 633e 52c6 7d3f
00000110: c67b adba 6818 503e 46a4 7a3f 354a 30bd
00000120: 67ff 393e e867 763f 3918 b0bd e2c1 263e
00000130: 5e29 733f 543f ffbd 1b6c 143e c224 723f
00000140: eb57 21be 120a 043e d062 743f 0beb 40be
00000150: fb9d e83d 9a73 773f 2e62 5bbe c571 ca3d
00000160: 481e 7b3f 2a0b 74be a6bb a93d 8b88 7d3f
00000170: df79 87be f0fa 873d 13ac 7e3f cd34 96be
00000180: 76a8 483d 51dc 7e3f 2505 a5be 0b40 fe3c
00000190: 2111 7e3f 89b1 b4be 674e 263c 9933 7c3f
000001a0: 82fb c5be f8b9 45bc c997 793f 8794 d8be
000001b0: 8dd1 01bd 698f 783f f2e1 e7be cbb9 48bd
000001c0: 629d 783f 8189 f9be f3ff 76bd 4257 793f
000001d0: 72e6 05bf 94b4 8fbd 4959 7c3f 2ccc 0cbf
000001e0: 3aa1 9dbd a911 7e3f b40b 13bf f925 adbd
000001f0: a838 7e3f a3f5 18bf c8e8 bebd b13b 7d3f
00000200: 3720 1fbf 0b80 d4bd 7e8b 7b3f ae71 26bf
00000210: b3f3 f0bd b968 793f 74fe 2dbf 3c83 08be
00000220: 3e56 763f af72 37bf

left_hand_pose f4 [46, 12]
0.17800719 0.4375685 0.27259934 0.7477024 -0.28486755 -0.38790977 -0.40810198 -0.01850054
-0.2622791 -0.74846494 0.19979188 -1.0147421 0.13842122 0.46561486 0.23664306 0.8077865
-0.37191957 -0.2950108 -0.24259388 -0.004856049 -0.36023033 -0.81216776 0.14816628 -0.9964803
0.044843137 0.45393318 0.23324561 0.7900127 -0.33557802 -0.13077757 -0.22836706 -0.09168579
-0.32859075 -0.887544 0.14598362 -0.93729943 0.06736282 0.49093506 0.30277684 0.8808407
-0.31796378 -0.232885 -0.28264946 -0.024391893 -0.45471776 -0.88697654 0.35288644 -0.8817393
0.008429735 0.51240057 0.24216396 0.871314 -0.21462792 -0.3193835 -0.34439114 0.028529486
-0.51178503 -0.85920894 0.37624335 -0.76200426 0.123496436 0.4947169 0.31543007 0.93788755
-0.27833244 -0.36333048 -0.36817437 0.037998818 -0.44012192 -0.6669462 0.361617 -0.8930711
0.103056125 0.48831004 0.28734684 0.8612358 -0.39217094 -0.43909913 -0.34898287 -0.13909672
-0.48786464 -0.7588038 0.5734648 -1.0801452 0.110416286 0.48631984 0.25598386 0.82926303
-0.38637203 -0.55526197 -0.06500879 -0.027921585 -0.578207 -0.73010534 0.49347594 -0.88102615
-0.07102247 0.44317943 0.08256868 0.60744905 -0.3436048 -0.5397098 0.028668774 -0.26052478
-0.40725186 -0.8925687 0.8632929 -1.08047 -0.049469333 0.44267777 0.09714763 0.7154897
-0.19273178 -0.6648793 -0.04858874 -0.111327685 -0.35398716 -0.8911286 0.4597572 -1.0220114
0.023213882 0.30617657 0.09974801 0.6911974 -0.22590183 -0.8795462 0.051726136 -0.2633489
-0.2186018 -0.8800332 0.50483495 -1.0935464 0.10004505 0.27062678 0.15837802 0.6144622
-0.115667604 -0.75035954 0.056735285 -0.50978136 -0.48279515 -1.0272896 0.9104836 -1.3376617
0.10459787 0.2010977 0.12668404 0.65814006 -0.09857731 -0.762485 0.2736669 -0.6689825
-0.3126485 -1.19754 1.0900528 -1.6010741 0.10069735 0.21201663 0.13094284 0.61873275
-0.1163367 -0.6743926 0.22307235 -0.83208454 -0.30783418 -1.2734184 1.4494286 -1.7362219
0.027674126 0.3531174 0.13750258 0.6132599 -0.14453611 -0.53105503 0.14844456 -0.57558984
-0.40858388 -1.103469 1.2030829 -1.5153276 0.10830179 0.36829022 0.16922708 0.7116328
-0.23687993 -0.61681986 0.029977402 -0.35478908 -0.45335972 -0.97792906 0.9837127 -1.3181409
0.20583774 0.4282749 0.22321476 0.7954276 -0.44452372 -0.5755063 -0.074004054 -0.15709886
-0.46991742 -0.92105204 0.8930906 -1.1432015 0.28983203 0.35972565 0.18003778 0.8920995
-0.39420527 -0.58309126 -0.15134062 -0.1455031 -0.42922774 -0.9440668 0.43299505 -1.1127
0.27656996 0.42861977 0.22081694 0.81019634 -0.4551163 -0.3106732 -0.30042335 0.0012816462
-0.2005092 -0.80990416 0.2688389 -1.134461 0.25273788 0.4309785 0.19402203 0.7978042
-0.23581013 -0.33024168 -0.2906558 -0.02411698 -0.32338357 -0.8475403 0.28782636 -1.0958356
0.25970873 0.43675113 0.22007495 0.8931829 -0.40980247 -0.38370454 -0.21671912 -0.049297728
-0.16101167 -0.7844004 0.15719184 -1.1433331 0.24293424 0.4486312 0.29082653 0.89689606
00000000: 8447 363e fa08 e03e 2492 8b3e 6d69 3f3f
00000010: 29da 91be 1c9c c6be bef2 d0be 728e 97bc
00000020: 7249 86be 669b 3fbf 3e96 4c3e 12e3 81bf
00000030: 4bbe 0d3e 1265 ee3e 8f52 723e 19cb 4e3f
00000040: 3e6c bebe a80b 97be 886a 78be 7e1f 9fbb
00000050: 1c70 b8be 3aea 4fbf e7b8 173e 5519 7fbf
00000060: 70ad 373d ee69 e83e f0d7 6e3e 463e 4a3f
00000070: e2d0 abbe 8eea 05be 0ed9 69be c2c5 bbbd
00000080: 0c3d a8be 1536 63bf bb7c 153e dbf2 6fbf
00000090: 85f5 893d d75b fb3e 9105 9b3e c77e 613f
000000a0: 26cc a2be 6879 6ebe 6eb7 90be 82d1 c7bc
000000b0: c4d0 e8be e510 63bf 88ad b43e abb9 61bf
000000c0: df1c 0a3c af2c 033f d4f9 773e 6f0e 5f3f
000000d0: 6cc7 5bbe 3c86 a3be 0954 b0be abb6 e93c
000000e0: 5804 03bf 1ef5 5bbf f8a2 c03e b612 43bf
000000f0: b3eb fc3d 894b fd3e 0d80 a13e 6619 703f
00000100: 9781 8ebe 7406 babe 5a81 bcbe a6a4 1b3d
00000110: a957 e1be fcbc 2abf dd25 b93e 4fa0 64bf
00000120: 170f d33d c603 fa3e 201f 933e f379 5c3f
00000130: a1ca c8be 9ad1 e0be e2ad b2be 5f6f 0ebe
00000140: 65c9 f9be f740 42bf 97ce 123f 3342 8abf
00000150: ef21 e23d eafe f83e 5110 833e 954a 543f
00000160: 8ed2 c5be a625 0ebf 5423 85bd cfbb e4bc
00000170: 6005 14bf 2fe8 3abf e1a8 fc3e ee8a 61bf
00000180: 3b74 91bd 6ae8 e23e c519 a93d c881 1b3f
00000190: f8ec afbe 6c2a 0abf c7da ea3c 8163 85be
000001a0: 5183 d0be 627f 64bf c300 5d3f d74c 8abf
000001b0: 5ba0 4abd a9a6 e23e 56f5 c63d 552a 373f
000001c0: 7b5b 45be 8835 2abf fd04 47bd c5ff e3bd
000001d0: ce3d b5be 0121 64bf 4c65 eb3e 45d1 82bf
000001e0: 0a2b be3c 2dc3 9c3e af48 cc3d 50f2 303f
000001f0: cf52 67be f129 61bf c9de 533d abd5 86be
00000200: 26d9 5fbe db49 61bf dd3c 013f 54f9 8bbf
00000210: 6be4 cc3d 988f 8a3e d92d 223e 654d 1d3f
00000220: 23e3 ecbd 9017 40bf 4263 683d 0881 02bf
00000230: ed30 f7be 3a7e 83bf 7415 693f 8038 abbf
00000240: 6837 d63d 8eec 4d3e 76b9 013e de7b 283f
00000250: e7e2 c9bd 3832 43bf 111e 8c3e 7042 2bbf
00000260: 7713 a0be fe48 99bf da86 8b3f ffef ccbf
00000270: 6a3a ce3d e31a 593e e115 063e 4565 1e3f
00000280: f041 eebd fea4 2cbf 146d 643e 7e03 55bf
00000290: 719c 9dbe 60ff a2bf e086 b93f 853c debf
000002a0: d9b4 e23c cecb b43e 7acd 0c3e 9afe 1c3f
000002b0: 4601 14be 39f3 07bf da01 183e db59 13bf
000002c0: e831 d1be 793e 8dbf 9ffe 993f 41f6 c1bf
000002d0: 54cd dd3d 8990 bc3e dd49 2d3e 912d 363f
000002e0: a790 72be e8e7 1dbf 2b93 f53c eaa6 b5be
000002f0: c41e e8be 8f59 7abf 98d4 7b3f d7b8 a8bf
00000300: 21c7 523e d946 db3e 6992 643e 25a1 4b3f
00000310: 9d98 e3be 6254 13bf 708f 97bd 86de 20be
00000320: 0499 f0be 11ca 6bbf 96a1 643f 6d54 92bf
00000330: dd64 943e f62d b83e d35b 383e a260 643f
00000340: 46d5 c9be 7845 15bf 09f9 1abe c4fe 14be
00000350: bdc3 dbbe 5dae 71bf 87b1 dd3e f46c 8ebf
00000360: 949a 8d3e 0d74 db3e d61d 623e 0769 4f3f
00000370: 0105 e9be 8f10 9fbe 17d1 99be e9fc a73a
00000380: 4952 4dbe e155 4fbf 41a5 893e 0536 91bf
00000390: dc66 813e 37a9 dc3e b6ad 463e e53c 4c3f
000003a0: 3678 71be 7015 a9be d6d0 94be f990 c5bc
000003b0: 8892 a5be 67f8 58bf fa5d 933e 5744 8cbf
000003c0: 8bf8 843e d89d df3e 545b 613e a2a7 643f
000003d0: a1d1 d1be ec74 c4be 9eeb 5dbe 6aec 49bd
000003e0: 3ee0 24be 77ce 48bf e6f6 203e bd58 92bf
000003f0: c1c3 783e fdb2 e53e 37e7 943e fb9a 653f

right_hand_pose f4 [46, 12]
0.5066935 0.43486845 0.13819624 0.87793505 -0.562183 -0.51022744 0.33926684 -0.6734287
-0.6410024 -1.4116266 1.5666505 -2.0909967 0.44200808 0.4128308 -0.009764699 0.817103
-0.5362899 -0.5517524 0.36358115 -0.5481305 -0.49981722 -1.3040687 1.3996648 -1.811367
0.50873333 0.40548933 0.08607492 0.787784 -0.6464743 -0.51741016 0.26962286 -0.5650646
-0.55279857 -1.2570274 1.6282669 -1.7596519 0.5139174 0.38712305 -0.01768291 0.6855988
-0.7231452 -0.5472631 0.45405552 -0.32953966 -0.5518168 -1.22518 1.5668557 -1.7308577
0.42542198 0.49573264 0.0210223 0.61553514 -0.7689368 -0.59850514 0.41846213 -0.32563558
-0.5953733 -1.1040937 1.8564 -1.6527243 0.41506958 0.5465672 0.11318099 0.66558605
-0.73503506 -0.5548269 0.34907982 -0.31219923 -0.75244087 -1.1429279 1.9306769 -1.6908439
0.41651377 0.39400676 0.048064344 0.51184005 -0.58338386 -0.6952477 0.6585854 -0.53795373
-0.5910498 -1.2419891 1.9452631 -1.9369156 0.5059001 0.28226417 0.06695624 0.56204927
-0.4490003 -0.645525 0.77063364 -0.75661355 -0.6382775 -1.4094359 2.135453 -2.2243602
0.62640077 0.2722604 0.07778237 0.7799996 -0.62931937 -0.6884438 0.6905555 -0.7192361
-0.67929447 -1.3831502 2.0885875 -2.0578463 0.5556005 0.4259569 0.12522666 0.80553144
-0.38488925 -0.45470616 0.2765603 -0.5480161 -0.62138546 -1.1996596 1.5685567 -1.9613179
0.47797224 0.5268958 0.10879399 0.8839991 -0.3188243 -0.26487502 -0.1842348 -0.3131266
-0.68622154 -1.0711019 0.8604689 -1.4809644 0.55568725 0.49097538 0.11534545 1.0447099
-0.38949397 -0.4191323 -0.29490614 -0.2534399 -0.72642916 -1.0610278 0.7846204 -1.2302947
0.5767129 0.4626052 0.11402065 1.020553 -0.35164082 -0.3169584 -0.32539064 -0.25700954
-0.7071155 -1.0672843 0.7514854 -1.3688248 0.6091392 0.45092186 0.1517936 0.96608853
-0.3632057 -0.31368858 -0.1845793 -0.3179182 -0.6719277 -1.1408356 0.87845224 -1.5266162
0.5544449 0.47833797 0.031678572 0.85333025 -0.3252601 -0.39950433 -0.03467939 -0.37079892
-0.8231309 -1.1094224 1.0534043 -1.6203139 0.4829383 0.5313998 0.08626059 0.857092
-0.39860433 -0.38541922 -0.034707107 -0.3623912 -0.802347 -1.1397156 1.1392376 -1.6117915
0.507847 0.44430283 0.10864994 0.91867185 -0.47472793 -0.5560746 0.123850614 -0.4592824
-0.7875337 -1.172275 1.4450872 -1.566509 0.5058963 0.39540282 0.10452981 0.7762274
-0.56898016 -0.5308176 0.3573912 -0.39861497 -0.70589745 -1.1422633 1.7274704 -1.6674933
0.50977045 0.33233568 0.11795692 0.75069565 -0.5209858 -0.4217931 0.2149718 -0.42187834
-0.66061515 -1.1413805 1.5068809 -1.7232555 0.5790898 0.436602 0.21130125 0.9395569
-0.7318718 -0.49195093 0.18248805 -0.36885184 -0.60804945 -1.0687056 1.2914016 -1.7071753
0.5452493 0.47240692 0.20814084 0.95256543 -0.71346694 -0.4004263 0.030501708 -0.36254007
-0.45038182 -1.1059127 1.0511299 -1.6490923 0.5460041 0.47784537 0.19037543 0.89273536
00000000: aab6 013f 14a7 de3e 5183 0d3e 5ac0 603f
00000010: 3aeb 0fbf 449e 02bf 62b4 ad3e d365 2cbf
00000020: bc18 24bf 2eb0 b4bf 0188 c83f e4d2 05c0
00000030: e24e e23e 8f5e d33e 1efc 1fbc aa2d 513f
00000040: 4b4a 09bf a53f 0dbf 4f27 ba3e 4852 0cbf
00000050: 0be8 ffbe b9eb a6bf 3728 b33f e0da e7bf
00000060: 593c 023f 4c9c cf3e 0c48 b03d 36ac 493f
00000070: 577f 25bf fe74 04bf 020c 8a3e 13a8 10bf
00000080: 3584 0dbf 46e6 a0bf 0d6b d03f 463c e1bf
00000090: 1790 033f fe34 c63e c0db 90bc 6783 2f3f
000000a0: 0b20 39bf 6f19 0cbf f779 e83e 6cb9 a8be
000000b0: de43 0dbf b3d2 9cbf ba8e c83f bf8c ddbf
000000c0: e9d0 d93e abd0 fd3e f536 ac3c b693 1d3f
000000d0: 0bd9 44bf a237 19bf ab40 d63e b5b9 a6be
000000e0: 626a 18bf f152 8dbf 849e ed3f 788c d3bf
000000f0: 0084 d43e d4eb 0b3f 6fcb e73d d963 2a3f
00000100: 422b 3cbf 2309 0ebf 97ba b23e 94d8 9fbe
00000110: f79f 40bf 764b 92bf 6c20 f73f 936d d8bf
00000120: 4b41 d53e 41bb c93e 1edf 443d f307 033f
00000130: a558 15bf c1fb 31bf 0e99 283f 56b7 09bf
00000140: 0a4f 17bf 80f9 9ebf 62fe f83f daec f7bf
00000150: ab82 013f ee84 903e 5a20 893d 76e2 0f3f
00000160: 5ee3 e5be 2041 25bf 3f48 453f 6db1 41bf
00000170: 2766 23bf 6568 b4bf 43ab 0840 eb5b 0ec0
00000180: cd5b 203f b765 8b3e 5d4c 9f3d 0eae 473f
00000190: 131b 21bf da3d 30bf 3fc8 303f db1f 38bf
000001a0: 3ee6 2dbf 110b b1bf 6bab 0540 c1b3 03c0
000001b0: d63b 0e3f 0617 da3e 6b3b 003e 4f37 4e3f
000001c0: 3410 c5be 3fcf e8be 5099 8d3e c84a 0cbf
000001d0: 1e13 1fbf 728e 99bf 77c6 c83f 770c fbbf
000001e0: c7b8 f43e a5e2 063f 62cf de3d c44d 623f
000001f0: f03c a3be b39d 87be 0ca8 3cbe 2152 a0be
00000200: 37ac 2fbf de19 89bf b147 5c3f 3e90 bdbf
00000210: 8541 0e3f 2061 fb3e 3c3a ec3d 0eb9 853f
00000220: c16b c7be 8298 d6be f0fd 96be e0c2 81be
00000230: 43f7 39bf c2cf 87bf e2dc 483f 4c7a 9dbf
00000240: 75a3 133f 97da ec3e a983 e93d 7ba1 823f
00000250: 440a b4be 5f48 a2be 9a99 a6be c196 83be
00000260: 8505 35bf c69c 88bf 5961 403f a735 afbf
00000270: 8cf0 1b3f 3bdf e63e c86f 1b3e 9451 773f
00000280: 19f6 b9be ca9b a0be 5b02 3dbe 2dc6 a2be
00000290: 7403 2cbf e706 92bf 3fe2 603f 2968 c3bf
000002a0: 1af0 0d3f b7e8 f43e 64c1 013d da73 5a3f
000002b0: 7e88 a6be d58b ccbe fa0b 0ebd 5bd9 bdbe
000002c0: b5b8 52bf 8e01 8ebf f4d5 863f 7266 cfbf
000002d0: b043 f73e d109 083f 64a9 b03d 626a 5b3f
000002e0: de15 ccbe ab55 c5be 0a29 0ebd 578b b9be
000002f0: 9d66 4dbf 33e2 91bf 8ad2 913f 2f4f cebf
00000300: 4302 023f a97b e33e dc83 de3d 142e 6b3f
00000310: 8a0f f3be e85a 0ebf 64a5 fd3d 1027 ebbe
00000320: cf9b 49bf 1b0d 96bf 9ef8 b83f 5e83 c8bf
00000330: 6b82 013f 3d72 ca3e ba13 d63d d7b6 463f
00000340: afa8 11bf aae3 07bf fbfb b63e 4317 ccbe
00000350: b2b5 34bf af35 92bf c01d dd3f 6c70 d5bf
00000360: 5180 023f e727 aa3e 6693 f13d 972d 403f
00000370: 535f 05bf 44f5 d7be 9121 5c3e 7000 d8be
00000380: 131e 29bf c218 92bf 79e1 c03f a393 dcbf
00000390: 3b3f 143f 4c8a df3e 5b5f 583e cd86 703f
000003a0: f35b 3bbf fee0 fbbe 26de 3a3e 26da bcbe
000003b0: 21a9 1bbf 58cb 88bf a64c a53f b884 dabf
000003c0: 7595 0b3f 52df f13e df22 553e 54db 733f
000003d0: c5a5 36bf ad04 cdbe b8de f93c da9e b9be
000003e0: 7298 e6be 8c8e 8dbf 6d8b 863f 7515 d3bf
000003f0: edc6 0b3f 26a8 f43e c7f1 423e 4e8a 643f

jaw_pose f4 [46, 3]
0.08255086 -0.002088814 -0.0008627295 0.06687791 -0.00086977077 -0.0001898414 0.050696656 -0.0017577274
-0.00033273653 0.05865624 -0.0008314609 -3.5454505e-05 0.065642804 -0.0016401511 -0.00028939932 0.07275664
-0.00019735911 4.5493747e-05 0.06512488 3.0922096e-05 0.00018459515 0.059641533 -0.0009115666 0.00012822426
0.038147002 -2.5746394e-05 0.00047216704 0.055643845 -0.0021124806 -0.00041508142 0.055085693 -0.0025308263
-0.00048544322 0.03719138 -3.0708885e-05 0.00019436168 0.03363132 0.0003635003 0.000539036 0.03558727
0.0012318853 0.00086929544 0.055185974 0.0010601985 0.00074255804 0.06724477 -0.0015019715 -9.76095e-05
0.05331403 -0.0019074129 -0.00043970442 0.06298748 -0.0022844311 -0.0004108551 0.07402339 -0.002325427
-0.0006812242 0.066494815 -0.0018297981 -0.0003167714 0.047866974 -0.0029539366 -0.00045126592 0.037979983
-0.0020261044 1.8454944e-05 0.027890947 -0.006113954 -0.0018297238 0.028675273 -0.0055170152 -0.0009133275
0.044307824 -0.005023611 -0.00062825996 0.053860158 -0.004968065 -0.0006209887 0.04389664 -0.0010358953
0.00051522657 0.04321161 -0.00088089926 0.00045148286 0.059735335 -0.0019738493 6.177039e-05 0.05632722
-0.0012454138 0.00016020345 0.06634715 0.0010864902 0.0011710409 0.05532594 -0.001363795 0.00042836176
0.032970287 -0.0017191609 -0.00021193759 0.021260174 -0.002132847 -0.00037020282 0.02333788 -0.0022329218
-0.00036764523 0.039708667 -0.0016776505 -0.00019440758 0.075307176 -0.0016304678 -0.00039647712 0.07292216
-0.0026685481 -0.0008220877 0.06893 -0.0032599985 -0.0011919236 0.08438434 -0.00029904864 -0.00021171011
0.09675136 -0.0011121532 -0.0004917025 0.09006052 -0.0007956642 -0.00016123151 0.07935463 0.0011860807
0.0006055131 0.06210045 0.0023867711 0.0015253 0.05516267 0.0021246513 0.0015071504 0.06285931
0.0016468149 0.0010035058
00000000: 6d10 a93d 7ce4 08bb cc28 62ba 49f7 883d
00000010: 5401 64ba 2a10 47b9 4ca7 4f3d 8b63 e6ba
00000020: 2473 aeb9 8741 703d 65f6 59ba fcb4 14b8
00000030: bc6f 863d 57fa d6ba 85ba 97b9 6f01 953d
00000040: 2ff2 4eb9 8ad0 3e38 3160 853d 59b2 0138
00000050: e28f 4139 ae4a 743d 33f6 6eba f073 0639
00000060: 0840 1c3d f6f9 d7b7 308d f739 cdea 633d
00000070: 8b71 0abb 499f d9b9 89a1 613d 38dc 25bb
00000080: 1683 feb9 fd55 183d 6acd 00b8 91cd 4b39
00000090: ffc0 093d 2f94 be39 184e 0d3a f5c3 113d
000000a0: 3677 a13a 6ee1 633a b00a 623d 5cf6 8a3a
000000b0: 3aa8 423a a0b7 893d cddd c4ba b4b3 ccb8
000000c0: d05f 5a3d 2802 faba 2188 e6b9 94ff 803d
000000d0: 65b6 15bb 0a68 d7b9 9399 973d 3166 18bb
000000e0: 2f94 32ba 6f2e 883d d6d5 efba 5614 a6b9
000000f0: 2910 443d d596 41bb e397 ecb9 e690 1b3d
00000100: 64c8 04bb b1cf 9a37 8e7b e43c 9057 c8bb
00000110: 58d3 efba 68e8 ea3c 14c8 b4bb 5f6c 6fba
00000120: 1f7c 353d 1a9d a4bb d0b1 24ba 789c 5c3d
00000130: 26cb a2bb d9c9 22ba f7cc 333d e1c6 87ba
00000140: 4510 073a a8fe 303d 26ec 66ba 01b5 ec39
00000150: 0aad 743d b25b 01bb ba8a 8138 5fb7 663d
00000160: 273d a3ba 49fc 2739 04e1 873d 9068 8e3a
00000170: 9d7d 993a 749d 623d 5ec1 b2ba be95 e039
00000180: da0b 073d 7855 e1ba 903b 5eb9 d129 ae3c
00000190: 3cc7 0bbb c817 c2b9 152f bf3c 3656 12bb
000001a0: 82c0 c0b9 8ea5 223d 9ce4 dbba e3d9 4bb9
000001b0: a63a 9a3d 6cb5 d5ba 42de cfb9 3758 953d
000001c0: cfe2 2ebb 5f81 57ba 2c2b 8d3d b3a5 55bb
000001d0: 523a 9cba b2d1 ac3d a1c9 9cb9 80fe 5db9
000001e0: 9425 c63d abc5 91ba 99e5 00ba a671 b83d
000001f0: 1f94 50ba 4110 29b9 ae84 a23d 4476 9b3a
00000200: 4cbb 1e3a 0b5d 7e3d 606b 1c3b 93ec c73a
00000210: 40f2 613d bc3d 0b3b 938b c53a 62bc 803d
00000220: f0d9 d73a 1188 833a

leye_pose f4 [46, 3]
0.0 0.0 0.0 0.0 0.0 0.0 0.0 0.0
0.0 0.0 0.0 0.0 0.0 0.0 0.0 0.0
0.0 0.0 0.0 0.0 0.0 0.0 0.0 0.0
0.0 0.0 0.0 0.0 0.0 0.0 0.0 0.0
0.0 0.0 0.0 0.0 0.0 0.0 0.0 0.0
0.0 0.0 0.0 0.0 0.0 0.0 0.0 0.0
0.0 0.0 0.0 0.0 0.0 0.0 0.0 0.0
0.0 0.0 0.0 0.0 0.0 0.0 0.0 0.0
0.0 0.0 0.0 0.0 0.0 0.0 0.0 0.0
0.0 0.0 0.0 0.0 0.0 0.0 0.0 0.0
0.0 0.0 0.0 0.0 0.0 0.0 0.0 0.0
0.0 0.0 0.0 0.0 0.0 0.0 0.0 0.0
0.0 0.0 0.0 0.0 0.0 0.0 0.0 0.0
0.0 0.0 0.0 0.0 0.0 0.0 0.0 0.0
0.0 0.0 0.0 0.0 0.0 0.0 0.0 0.0
0.0 0.0 0.0 0.0 0.0 0.0 0.0 0.0
0.0 0.0 0.0 0.0 0.0 0.0 0.0 0.0
0.0 0.0
00000000: 0000 0000 0000 0000 0000 0000 0000 0000
00000010: 0000 0000 0000 0000 0000 0000 0000 0000
00000020: 0000 0000 0000 0000 0000 0000 0000 0000
00000030: 0000 0000 0000 0000 0000 0000 0000 0000
00000040: 0000 0000 0000 0000 0000 0000 0000 0000
00000050: 0000 0000 0000 0000 0000 0000 0000 0000
00000060: 0000 0000 0000 0000 0000 0000 0000 0000
00000070: 0000 0000 0000 0000 0000 0000 0000 0000
00000080: 0000 0000 0000 0000 0000 0000 0000 0000
00000090: 0000 0000 0000 0000 0000 0000 0000 0000
000000a0: 0000 0000 0000 0000 0000 0000 0000 0000
000000b0: 0000 0000 0000 0000 0000 0000 0000 0000
000000c0: 0000 0000 0000 0000 0000 0000 0000 0000
000000d0: 0000 0000 0000 0000 0000 0000 0000 0000
000000e0: 0000 0000 0000 0000 0000 0000 0000 0000
000000f0: 0000 0000 0000 0000 0000 0000 0000 0000
00000100: 0000 0000 0000 0000 0000 0000 0000 0000
00000110: 0000 0000 0000 0000 0000 0000 0000 0000
00000120: 0000 0000 0000 0000 0000 0000 0000 0000
00000130: 0000 0000 0000 0000 0000 0000 0000 0000
00000140: 0000 0000 0000 0000 0000 0000 0000 0000
00000150: 0000 0000 0000 0000 0000 0000 0000 0000
00000160: 0000 0000 0000 0000 0000 0000 0000 0000
00000170: 0000 0000 0000 0000 0000 0000 0000 0000
00000180: 0000 0000 0000 0000 0000 0000 0000 0000
00000190: 0000 0000 0000 0000 0000 0000 0000 0000
000001a0: 0000 0000 0000 0000 0000 0000 0000 0000
000001b0: 0000 0000 0000 0000 0000 0000 0000 0000
000001c0: 0000 0000 0000 0000 0000 0000 0000 0000
000001d0: 0000 0000 0000 0000 0000 0000 0000 0000
000001e0: 0000 0000 0000 0000 0000 0000 0000 0000
000001f0: 0000 0000 0000 0000 0000 0000 0000 0000
00000200: 0000 0000 0000 0000 0000 0000 0000 0000
00000210: 0000 0000 0000 0000 0000 0000 0000 0000
00000220: 0000 0000 0000 0000

reye_pose f4 [46, 3]
0.0 0.0 0.0 0.0 0.0 0.0 0.0 0.0
0.0 0.0 0.0 0.0 0.0 0.0 0.0 0.0
0.0 0.0 0.0 0.0 0.0 0.0 0.0 0.0
0.0 0.0 0.0 0.0 0.0 0.0 0.0 0.0
0.0 0.0 0.0 0.0 0.0 0.0 0.0 0.0
0.0 0.0 0.0 0.0 0.0 0.0 0.0 0.0
0.0 0.0 0.0 0.0 0.0 0.0 0.0 0.0
0.0 0.0 0.0 0.0 0.0 0.0 0.0 0.0
0.0 0.0 0.0 0.0 0.0 0.0 0.0 0.0
0.0 0.0 0.0 0.0 0.0 0.0 0.0 0.0
0.0 0.0 0.0 0.0 0.0 0.0 0.0 0.0
0.0 0.0 0.0 0.0 0.0 0.0 0.0 0.0
0.0 0.0 0.0 0.0 0.0 0.0 0.0 0.0
0.0 0.0 0.0 0.0 0.0 0.0 0.0 0.0
0.0 0.0 0.0 0.0 0.0 0.0 0.0 0.0
0.0 0.0 0.0 0.0 0.0 0.0 0.0 0.0
0.0 0.0 0.0 0.0 0.0 0.0 0.0 0.0
0.0 0.0
00000000: 0000 0000 0000 0000 0000 0000 0000 0000
00000010: 0000 0000 0000 0000 0000 0000 0000 0000
00000020: 0000 0000 0000 0000 0000 0000 0000 0000
00000030: 0000 0000 0000 0000 0000 0000 0000 0000
00000040: 0000 0000 0000 0000 0000 0000 0000 0000
00000050: 0000 0000 0000 0000 0000 0000 0000 0000
00000060: 0000 0000 0000 0000 0000 0000 0000 0000
00000070: 0000 0000 0000 0000 0000 0000 0000 0000
00000080: 0000 0000 0000 0000 0000 0000 0000 0000
00000090: 0000 0000 0000 0000 0000 0000 0000 0000
000000a0: 0000 0000 0000 0000 0000 0000 0000 0000
000000b0: 0000 0000 0000 0000 0000 0000 0000 0000
000000c0: 0000 0000 0000 0000 0000 0000 0000 0000
000000d0: 0000 0000 0000 0000 0000 0000 0000 0000
000000e0: 0000 0000 0000 0000 0000 0000 0000 0000
000000f0: 0000 0000 0000 0000 0000 0000 0000 0000
00000100: 0000 0000 0000 0000 0000 0000 0000 0000
00000110: 0000 0000 0000 0000 0000 0000 0000 0000
00000120: 0000 0000 0000 0000 0000 0000 0000 0000
00000130: 0000 0000 0000 0000 0000 0000 0000 0000
00000140: 0000 0000 0000 0000 0000 0000 0000 0000
00000150: 0000 0000 0000 0000 0000 0000 0000 0000
00000160: 0000 0000 0000 0000 0000 0000 0000 0000
00000170: 0000 0000 0000 0000 0000 0000 0000 0000
00000180: 0000 0000 0000 0000 0000 0000 0000 0000
00000190: 0000 0000 0000 0000 0000 0000 0000 0000
000001a0: 0000 0000 0000 0000 0000 0000 0000 0000
000001b0: 0000 0000 0000 0000 0000 0000 0000 0000
000001c0: 0000 0000 0000 0000 0000 0000 0000 0000
000001d0: 0000 0000 0000 0000 0000 0000 0000 0000
000001e0: 0000 0000 0000 0000 0000 0000 0000 0000
000001f0: 0000 0000 0000 0000 0000 0000 0000 0000
00000200: 0000 0000 0000 0000 0000 0000 0000 0000
00000210: 0000 0000 0000 0000 0000 0000 0000 0000
00000220: 0000 0000 0000 0000

expression f4 [46, 10]
-0.68677604 -0.28365958 1.6896507 2.6744845 -2.0340621 0.8255058 -1.1656758 0.55791056
-1.705252 -2.7922316 -0.7300097 -0.09707969 1.6148984 2.5498147 -1.9585594 0.8243857
-1.3197256 0.4522431 -1.3745872 -2.9948742 -0.47712868 0.002271407 1.7239623 2.5819068
-2.0732827 1.0976888 -1.037834 0.60413224 -1.8473963 -3.4590495 -0.32133386 -0.23040444
1.7558029 2.6956635 -1.8798596 0.98669213 -0.8142938 0.69655937 -1.9195236 -2.9957669
-0.59350806 -0.22819677 1.762625 2.9043086 -2.1394045 1.1161335 -1.2728742 0.7518569
-2.0039215 -3.158039 -0.78288144 -0.4256069 1.3187953 2.8576467 -2.3801453 0.90106064
-1.3703058 0.59457487 -1.650128 -2.634389 -0.55419123 -0.090786226 1.5080308 2.7908766
-1.98675 1.3475672 -1.3972386 0.7177411 -1.7001894 -3.0792885 -0.39927655 -0.039085828
1.496512 2.557238 -1.6871556 1.3727047 -1.1678292 0.50567293 -1.8752158 -3.4474187
-0.31514835 0.28063825 1.7762766 2.893373 -1.6838094 1.8644029 -1.0971999 0.68616176
-2.1622174 -3.8643389 -0.32576808 0.10239319 1.9645194 2.5835383 -1.7813289 1.7738411
-0.8070461 0.605039 -2.1123755 -3.7130146 -0.46682185 0.06860968 1.57484 2.962757
-2.0455112 1.8557587 -1.1700022 0.55949986 -2.1705978 -3.2685485 -0.41566786 0.4098949
1.7325904 2.623135 -1.7231263 1.7252512 -0.9753456 0.5044162 -2.0103018 -3.7418768
-0.09489555 0.551836 1.8306674 2.5560467 -1.5243795 1.8632474 -1.1501255 0.7859987
-2.3310542 -4.207389 0.069548324 0.49392006 1.7084655 2.476252 -1.4677838 1.8279032
-1.3113633 0.8045214 -2.5298755 -4.3120904 0.12199577 0.2682486 1.696604 2.6445441
-1.5678377 1.9374788 -1.3541261 0.8172335 -2.5503955 -4.082358 0.2553537 0.123494506
1.6010607 2.7052276 -1.531525 2.0797553 -1.0702245 0.66563296 -2.571579 -3.934348
0.1597999 0.3371181 1.6779194 2.530056 -1.4327676 1.9691323 -1.0685345 0.54590774
-2.510018 -4.14481 -0.082275115 0.18502142 1.940484 2.3680875 -1.5220271 1.5504313
-1.0402302 0.44525632 -2.5529144 -3.8130713 -0.15687072 0.16998655 2.2005649 2.261968
-1.6355101 1.2343006 -1.0818155 0.5035308 -2.229893 -3.7930598 -0.1283404 0.13225494
2.3621328 2.2289388 -1.6042175 1.0456306 -1.1472569 0.298795 -2.2316167 -3.861352
0.048483726 0.46364802 2.4341645 2.0774758 -1.4706101 1.1849393 -1.1410983 0.2639473
-2.617369 -4.34627 0.11544958 0.60204196 2.8701599 1.7098006 -1.4652 1.0886041
-0.88689506 0.37969023 -2.597233 -4.842151 0.27142993 0.8359487 2.827917 1.4544938
-1.3050932 0.90123856 -0.74158245 -0.05915599 -2.6763732 -5.1307 0.3648812 0.6942786
3.0307376 1.7803676 -1.276312 1.08793 -0.7235009 0.028643012 -3.1139634 -5.5247726
0.25224903 0.40353364 2.8729455 1.7042948 -1.3533024 0.9497756 -0.5937853 0.3465537
-3.0027428 -5.1293206 0.14498304 0.4426887 2.8247938 1.7101617 -1.2746478 0.9058278
00000000: 8ed0 2fbf d43b 91be 7946 d83f c12a 2b40
00000010: 132e 02c0 5954 533f dd34 95bf 3ad3 0e3f
00000020: b345 dabf ecb3 32c0 eae1 3abf b7d1 c6bd
00000030: feb4 ce3f 2a30 2340 13b2 fabf f10a 533f
00000040: c5ec a8bf 688c e73e 79f2 afbf 05ac 3fc0
00000050: 364a f4be e3db 143b ccaa dc3f f63d 2540
00000060: aab0 04c0 1181 8c3f bfd7 84bf 69a8 1a3f
00000070: 7b77 ecbf 1161 5dc0 df85 a4be 24ef 6bbe
00000080: 26be e03f c085 2c40 3d9f f0bf db97 7c3f
00000090: 8f75 50bf b751 323f f3b2 f5bf a5ba 3fc0
000000a0: 25f0 17bf 6aac 69be b29d e13f 31e0 3940
000000b0: 01ec 08c0 76dd 8e3f 8bed a2bf b279 403f
000000c0: 4040 00c0 501d 4ac0 eb6a 48bf 26e9 d9be
000000d0: 49ce a83f afe3 3640 4d54 18c0 e9ab 663f
000000e0: 2e66 afbf 0f36 183f 6537 d3bf d499 28c0
000000f0: 7adf 0dbf 21ee b9bd 2707 c13f b99d 3240
00000100: d34d febf 157d ac3f b7d8 b2bf e1bd 373f
00000110: ce9f d9bf 1013 45c0 fa6d ccbe 7618 20bd
00000120: b58d bf3f caa9 2340 b7f4 d7bf cab4 af3f
00000130: 6d7b 95bf c873 013f 1207 f0bf 82a2 5cc0
00000140: 205b a1be d1af 8f3e 085d e33f 062d 3940
00000150: 1187 d7bf c1a4 ee3f 0c71 8cbf 4ca8 2f3f
00000160: c561 0ac0 5451 77c0 13cb a6be 85b3 d13d
00000170: 5f75 fb3f b158 2540 9602 e4bf 3a0d e33f
00000180: 939a 4ebf d6e3 1a3f 2931 07c0 08a2 6dc0
00000190: 4603 efbe 3b83 8c3d 5b94 c93f d09d 3d40
000001a0: a8e9 02c0 8089 ed3f a2c2 95bf 623b 0f3f
000001b0: 13eb 0ac0 e62f 51c0 6bd2 d4be bfdd d13e
000001c0: 86c5 dd3f 72e1 2740 678f dcbf 08d5 dc3f
000001d0: 40b0 79bf 6c21 013f c9a8 00c0 e97a 6fc0
000001e0: 9958 c2bd 2045 0d3f 4f53 ea3f 4596 2340
000001f0: de1e c3bf e47e ee3f 5037 93bf 3637 493f
00000200: fe2f 15c0 eea2 86c0 5a6f 8e3d 17e3 fc3e
00000210: ffae da3f ea7a 1e40 57e0 bbbf bbf8 e93f
00000220: c1da a7bf 1df5 4d3f 7be9 21c0 a5fc 89c0
00000230: ebd8 f93d e157 893e 522a d93f 3640 2940
00000240: e8ae c8bf 4eff f73f 0154 adbf 3736 513f
00000250: ae39 23c0 ada2 82c0 b8bd 823e b0ea fc3d
00000260: 8fef cc3f 7322 2d40 0309 c4bf b61a 0540
00000270: 1efd 88bf ec66 2a3f c094 24c0 5ccc 7bc0
00000280: 96a2 233e be9a ac3e 10c6 d63f 70ec 2140
00000290: ee64 b7bf 870c fc3f bdc5 88bf 9cc0 0b3f
000002a0: 23a4 20c0 49a2 84c0 db7f a8bd 4176 3d3e
000002b0: c861 f83f bf8e 1740 c9d1 c2bf 8874 c63f
000002c0: 4326 85bf a3f8 e33e f362 23c0 5c09 74c0
000002d0: b8a2 20be f410 2e3e 0ed6 0c40 15c4 1040
000002e0: 6558 d1bf 90fd 9d3f ee78 8abf 65e7 003f
000002f0: 91b6 0ec0 7ec1 72c0 aa6b 03be d76d 073e
00000300: 2f2d 1740 efa6 0e40 0057 cdbf 39d7 853f
00000310: 50d9 92bf a9fb 983e cfd2 0ec0 6420 77c0
00000320: df96 463d 4663 ed3e 5ac9 1b40 5df5 0440
00000330: f43c bcbf 17ac 973f 820f 92bf 1a24 873e
00000340: f982 27c0 a514 8bc0 d470 ec3d 6c1f 1a3f
00000350: b3b0 3740 bfda da3f ac8b bbbf 6157 8b3f
00000360: 8e0b 63bf c266 c23e 1139 26c0 e7f2 9ac0
00000370: ddf8 8a3e bc00 563f 98fc 3440 da2c ba3f
00000380: 4b0d a7bf 92b7 663f 59d8 3dbf 8d4d 72bd
00000390: b349 2bc0 b22e a4c0 b5d1 ba3e 3ebc 313f
000003a0: 9bf7 4140 16e3 e33f 315e a3bf 4a41 8b3f
000003b0: 5b37 39bf c0a4 ea3c 2d4b 47c0 f0ca b0c0
000003c0: c926 813e f69b ce3e 57de 3740 5526 da3f
000003d0: 0339 adbf 7e24 733f 5002 18bf 7d6f b13e
000003e0: f02c 40c0 6523 a4c0 6f76 143e 18a8 e23e
000003f0: 6cc9 3440 94e6 da3f a927 a3bf 55e4 673f

betas f4 [46, 11]
0.5001831 -1.453979 1.2838966 0.43142188 -0.88443154 0.044247203 -0.65728563 -0.085113466
-0.7193687 0.11157395 0.7352465 0.5001831 -1.453979 1.2838966 0.43142188 -0.88443154
0.044247203 -0.65728563 -0.085113466 -0.7193687 0.11157395 0.7352465 0.5001831 -1.453979
1.2838966 0.43142188 -0.88443154 0.044247203 -0.65728563 -0.085113466 -0.7193687 0.11157395
0.7352465 0.5001831 -1.453979 1.2838966 0.43142188 -0.88443154 0.044247203 -0.65728563
-0.085113466 -0.7193687 0.11157395 0.7352465 0.5001831 -1.453979 1.2838966 0.43142188
-0.88443154 0.044247203 -0.65728563 -0.085113466 -0.7193687 0.11157395 0.7352465 0.5001831
-1.453979 1.2838966 0.43142188 -0.88443154 0.044247203 -0.65728563 -0.085113466 -0.7193687
0.11157395 0.7352465 0.5001831 -1.453979 1.2838966 0.43142188 -0.88443154 0.044247203
-0.65728563 -0.085113466 -0.7193687 0.11157395 0.7352465 0.5001831 -1.453979 1.2838966
0.43142188 -0.88443154 0.044247203 -0.65728563 -0.085113466 -0.7193687 0.11157395 0.7352465
0.5001831 -1.453979 1.2838966 0.43142188 -0.88443154 0.044247203 -0.65728563 -0.085113466
-0.7193687 0.11157395 0.7352465 0.5001831 -1.453979 1.2838966 0.43142188 -0.88443154
0.044247203 -0.65728563 -0.085113466 -0.7193687 0.11157395 0.7352465 0.5001831 -1.453979
1.2838966 0.43142188 -0.88443154 0.044247203 -0.65728563 -0.085113466 -0.7193687 0.11157395
0.7352465 0.5001831 -1.453979 1.2838966 0.43142188 -0.88443154 0.044247203 -0.65728563
-0.085113466 -0.7193687 0.11157395 0.7352465 0.5001831 -1.453979 1.2838966 0.43142188
-0.88443154 0.044247203 -0.65728563 -0.085113466 -0.7193687 0.11157395 0.7352465 0.5001831
-1.453979 1.2838966 0.43142188 -0.88443154 0.044247203 -0.65728563 -0.085113466 -0.7193687
0.11157395 0.7352465 0.5001831 -1.453979 1.2838966 0.43142188 -0.88443154 0.044247203
-0.65728563 -0.085113466 -0.7193687 0.11157395 0.7352465 0.5001831 -1.453979 1.2838966
0.43142188 -0.88443154 0.044247203 -0.65728563 -0.085113466 -0.7193687 0.11157395 0.7352465
0.5001831 -1.453979 1.2838966 0.43142188 -0.88443154 0.044247203 -0.65728563 -0.085113466
-0.7193687 0.11157395 0.7352465 0.5001831 -1.453979 1.2838966 0.43142188 -0.88443154
0.044247203 -0.65728563 -0.085113466 -0.7193687 0.11157395 0.7352465 0.5001831 -1.453979
1.2838966 0.43142188 -0.88443154 0.044247203 -0.65728563 -0.085113466 -0.7193687 0.11157395
0.7352465 0.5001831 -1.453979 1.2838966 0.43142188 -0.88443154 0.044247203 -0.65728563
-0.085113466 -0.7193687 0.11157395 0.7352465 0.5001831 -1.453979 1.2838966 0.43142188
-0.88443154 0.044247203 -0.65728563 -0.085113466 -0.7193687 0.11157395 0.7352465 0.5001831
-1.453979 1.2838966 0.43142188 -0.88443154 0.044247203 -0.65728563 -0.085113466 -0.7193687
0.11157395 0.7352465 0.5001831 -1.453979 1.2838966 0.43142188 -0.88443154 0.044247203
-0.65728563 -0.085113466 -0.7193687 0.11157395 0.7352465 0.5001831 -1.453979 1.2838966
00000000: 000c 003f fc1b babf b956 a43f 54e3 dc3e
00000010: 1b6a 62bf 8e3c 353d df43 28bf f84f aebd
00000020: 8c28 38bf e280 e43d 1d39 3c3f 000c 003f
00000030: fc1b babf b956 a43f 54e3 dc3e 1b6a 62bf
00000040: 8e3c 353d df43 28bf f84f aebd 8c28 38bf
00000050: e280 e43d 1d39 3c3f 000c 003f fc1b babf
00000060: b956 a43f 54e3 dc3e 1b6a 62bf 8e3c 353d
00000070: df43 28bf f84f aebd 8c28 38bf e280 e43d
00000080: 1d39 3c3f 000c 003f fc1b babf b956 a43f
00000090: 54e3 dc3e 1b6a 62bf 8e3c 353d df43 28bf
000000a0: f84f aebd 8c28 38bf e280 e43d 1d39 3c3f
000000b0: 000c 003f fc1b babf b956 a43f 54e3 dc3e
000000c0: 1b6a 62bf 8e3c 353d df43 28bf f84f aebd
000000d0: 8c28 38bf e280 e43d 1d39 3c3f 000c 003f
000000e0: fc1b babf b956 a43f 54e3 dc3e 1b6a 62bf
000000f0: 8e3c 353d df43 28bf f84f aebd 8c28 38bf
00000100: e280 e43d 1d39 3c3f 000c 003f fc1b babf
00000110: b956 a43f 54e3 dc3e 1b6a 62bf 8e3c 353d
00000120: df43 28bf f84f aebd 8c28 38bf e280 e43d
00000130: 1d39 3c3f 000c 003f fc1b babf b956 a43f
00000140: 54e3 dc3e 1b6a 62bf 8e3c 353d df43 28bf
00000150: f84f aebd 8c28 38bf e280 e43d 1d39 3c3f
00000160: 000c 003f fc1b babf b956 a43f 54e3 dc3e
00000170: 1b6a 62bf 8e3c 353d df43 28bf f84f aebd
00000180: 8c28 38bf e280 e43d 1d39 3c3f 000c 003f
00000190: fc1b babf b956 a43f 54e3 dc3e 1b6a 62bf
000001a0: 8e3c 353d df43 28bf f84f aebd 8c28 38bf
000001b0: e280 e43d 1d39 3c3f 000c 003f fc1b babf
000001c0: b956 a43f 54e3 dc3e 1b6a 62bf 8e3c 353d
000001d0: df43 28bf f84f aebd 8c28 38bf e280 e43d
000001e0: 1d39 3c3f 000c 003f fc1b babf b956 a43f
000001f0: 54e3 dc3e 1b6a 62bf 8e3c 353d df43 28bf
00000200: f84f aebd 8c28 38bf e280 e43d 1d39 3c3f
00000210: 000c 003f fc1b babf b956 a43f 54e3 dc3e
00000220: 1b6a 62bf 8e3c 353d df43 28bf f84f aebd
00000230: 8c28 38bf e280 e43d 1d39 3c3f 000c 003f
00000240: fc1b babf b956 a43f 54e3 dc3e 1b6a 62bf
00000250: 8e3c 353d df43 28bf f84f aebd 8c28 38bf
00000260: e280 e43d 1d39 3c3f 000c 003f fc1b babf
00000270: b956 a43f 54e3 dc3e 1b6a 62bf 8e3c 353d
00000280: df43 28bf f84f aebd 8c28 38bf e280 e43d
00000290: 1d39 3c3f 000c 003f fc1b babf b956 a43f
000002a0: 54e3 dc3e 1b6a 62bf 8e3c 353d df43 28bf
000002b0: f84f aebd 8c28 38bf e280 e43d 1d39 3c3f
000002c0: 000c 003f fc1b babf b956 a43f 54e3 dc3e
000002d0: 1b6a 62bf 8e3c 353d df43 28bf f84f aebd
000002e0: 8c28 38bf e280 e43d 1d39 3c3f 000c 003f
000002f0: fc1b babf b956 a43f 54e3 dc3e 1b6a 62bf
00000300: 8e3c 353d df43 28bf f84f aebd 8c28 38bf
00000310: e280 e43d 1d39 3c3f 000c 003f fc1b babf
00000320: b956 a43f 54e3 dc3e 1b6a 62bf 8e3c 353d
00000330: df43 28bf f84f aebd 8c28 38bf e280 e43d
00000340: 1d39 3c3f 000c 003f fc1b babf b956 a43f
00000350: 54e3 dc3e 1b6a 62bf 8e3c 353d df43 28bf
00000360: f84f aebd 8c28 38bf e280 e43d 1d39 3c3f
00000370: 000c 003f fc1b babf b956 a43f 54e3 dc3e
00000380: 1b6a 62bf 8e3c 353d df43 28bf f84f aebd
00000390: 8c28 38bf e280 e43d 1d39 3c3f 000c 003f
000003a0: fc1b babf b956 a43f 54e3 dc3e 1b6a 62bf
000003b0: 8e3c 353d df43 28bf f84f aebd 8c28 38bf
000003c0: e280 e43d 1d39 3c3f 000c 003f fc1b babf
000003d0: b956 a43f 54e3 dc3e 1b6a 62bf 8e3c 353d
000003e0: df43 28bf f84f aebd 8c28 38bf e280 e43d
000003f0: 1d39 3c3f 000c 003f fc1b babf b956 a43f
