test_dataset/gait_700/20250820_c1_a3_Take1/split_subjects/0/fit-smplx/smplx-params.npz (npz, 85010 bytes, 10 tensors)

betas f4 [169, 10]
0	0xbfc38461	-1.5274774
1	0xbec522a8	-0.38503003
2	0x3f1341cf	0.5752229
3	0x3d8226fe	0.063550934
4	0xbe162bbe	-0.14665124
5	0xbe2d0757	-0.16897331
6	0x3ef3b0e2	0.47595888
7	0x3e8917e8	0.26776052
8	0x3ee49e77	0.4465215
9	0xbeb4f386	-0.35342044
10	0xbffe2044	-1.9853597
11	0xbf898fda	-1.0747025
12	0xbcd58b86	-0.026067507
13	0x3e85d477	0.2613866
14	0xbeccd762	-0.40008074
15	0x3db38ca9	0.08767063
16	0x3edc4c91	0.43027166
17	0x3ea00ed6	0.3126132
18	0x3f2edcfc	0.68305945
19	0xbf175594	-0.59114957
20	0xc0109f81	-2.2597353
21	0xbff836de	-1.9391744
22	0xbedd4d5f	-0.43223092
23	0xbe495fcc	-0.1966545
24	0xbf5a02f9	-0.85160786
25	0x3df07096	0.11740224
26	0x3e39d248	0.18146622
27	0x3f5549a0	0.8331547
28	0x3f10e520	0.56599617
29	0xbebec98a	-0.37263137
30	0xc021ac13	-2.5261276
31	0xc01f23b3	-2.486554
32	0xbe81db02	-0.25362402
33	0xbf0ae563	-0.54256266
34	0xbf78e8a8	-0.97230005
35	0xbc9b1bf0	-0.01893422
36	0x3d1a87c5	0.037727136
37	0x3f8d5cd3	1.1043953
38	0x3edefa3c	0.4355029
39	0x3cd23aa4	0.025662728
40	0xc024f5c5	-2.5775006
41	0xc01931e4	-2.39367
42	0x3e1014c0	0.14070415
43	0xbf51c0c5	-0.8193477
44	0xbf413dad	-0.75484735
45	0x3e80a2ac	0.2512411
46	0xbd63b9ef	-0.055597242
47	0x3fb18711	1.3869344
48	0x3f0159c6	0.5052761
49	0x3e31f9d4	0.17380458
50	0xc01acb56	-2.4186606
51	0xbfedff27	-1.8593491
52	0x3c6ba093	0.014381546
53	0xbf83a8d4	-1.0285897
54	0xbf61b806	-0.8817142
55	0x3efea2bd	0.49733534
56	0xbe27aa9b	-0.16373675
57	0x3fceda33	1.6160339
58	0x3eadf2da	0.33974344
59	0x3da59a3d	0.08086059
60	0xc016a28e	-2.3536716
61	0xbfb6fbce	-1.4295595
62	0xbe062002	-0.13098148
63	0xbf76280d	-0.9615486
64	0xbf486874	-0.7828438
65	0x3ea1b06a	0.31579906
66	0xbda0d127	-0.07852393
67	0x3fa5ae19	1.2943755
68	0x3e818d3b	0.25303063
69	0xbca7b665	-0.020472715
70	0xc019583a	-2.39601
71	0xbfbe993e	-1.4890516
72	0xbe87c379	-0.2651632
73	0xbf68bb42	-0.9091073
74	0xbf5ab612	-0.8543407
75	0x3e4bad11	0.19890238
76	0xbdce733b	-0.10080572
77	0x3f8230f6	1.0171192
78	0x3ec0f01e	0.37683195
79	0x3cd52356	0.026017826
80	0xc014cbf4	-2.3249483
81	0xbfa7d441	-1.311165
82	0xbe4c2d68	-0.19939196
83	0xbf377c53	-0.7167408
84	0xbf87b19d	-1.0601078
85	0xbcae2cf3	-0.021261668
86	0xbd212014	-0.039337233
87	0x3f310926	0.69154584
88	0x3f04ce0a	0.5187689
89	0x3def9109	0.11697585
90	0xc00b8ec6	-2.1805892
91	0xbf504710	-0.8135843
92	0xbe5020f8	-0.20325077
93	0xbf35f60b	-0.71078557
94	0xbf7e9269	-0.99442154
95	0xbe744600	-0.23854828
96	0xbdab1179	-0.08352942
97	0x3f36b544	0.7137034
98	0x3e51e7ee	0.2049863
99	0x3c0d4d56	0.008624395
100	0xc0046946	-2.0689254
101	0xbf37b1b4	-0.7175553
102	0xbe7375b5	-0.2377537
103	0xbf345149	-0.7043653
104	0xbf5ec774	-0.8702309
105	0xbe95e9f1	-0.29280046
106	0xbe4011a6	-0.18756732
107	0x3f778c22	0.966982
108	0xbc729b49	-0.014807531
109	0xbd8b6417	-0.068062
110	0xc000ec17	-2.0144098
111	0xbf3e877a	-0.7442547
112	0xbeb50a15	-0.35359254
113	0xbf0dc563	-0.55379313
114	0xbf3beb2d	-0.73405725
115	0xbe7f256d	-0.2491662
116	0xbe711a73	-0.23545246
117	0x3f7c6de8	0.98605204
118	0xbe13df0f	-0.14440559
119	0xbd24e2b7	-0.040255275
120	0xbffbd2b8	-1.9673681
121	0xbf590995	-0.84780246
122	0xbec07667	-0.37590334
123	0xbecbad3b	-0.39780602
124	0xbf390545	-0.72273666
125	0xbe31797a	-0.17331496
126	0xbe8421f0	-0.25807142
127	0x3f58a901	0.8463288
128	0xbe8f3a03	-0.27973947
129	0xbd554c6c	-0.052074835
130	0xbff9096a	-1.9455998
131	0xbf4edc8f	-0.80805296
132	0xbeff8a1e	-0.49910063
133	0xbec8bed5	-0.39208093
134	0xbf2c4a0d	-0.6730049
135	0xbddc9253	-0.10770097
136	0xbea5800e	-0.3232426
137	0x3f601325	0.8752921
138	0xbe934b4f	-0.28768393
139	0x3ca3be05	0.01998807
140	0xbffa1c14	-1.9539819
141	0xbf5a2a51	-0.8522082
142	0xbed9eec4	-0.42564976
143	0xbeff3473	-0.49844703
144	0xbf575014	-0.84106565
145	0xbdb95321	-0.09049059
146	0xbea99f7a	-0.33129483
147	0x3fadaf2a	1.3569081
148	0xbe91cd3f	-0.28476903
149	0x3db74c88	0.08950144
150	0xbffa372c	-1.9548087
151	0xbf57b8bb	-0.8426625
152	0xbee2a950	-0.442698
153	0xbefae86a	-0.49005443
154	0xbf468b02	-0.7755586
155	0xbdcdf933	-0.100572966
156	0xbe8cf0dd	-0.27527514
157	0x3fb5d7ac	1.4206443
158	0xbe8801e6	-0.26563948
159	0x3d919403	0.07108309
160	0xbff8abfb	-1.9427484
161	0xbf5f1dd5	-0.87154895
162	0xbed577b6	-0.41692895
163	0xbf009b36	-0.50236833
164	0xbf50b9f9	-0.8153377
165	0xbe0d44b4	-0.1379574
166	0xbe8ed995	-0.27900377
167	0x3fbfb184	1.4976048
168	0xbe9fc294	-0.3120314
169	0x3d565a7e	0.052332394
170	0xbff64609	-1.9240123
171	0xbf54855d	-0.83015996
172	0xbede58ae	-0.43427032
173	0xbef83169	-0.48475197
174	0xbf501e89	-0.8129659
175	0xbe55d207	-0.208809
176	0xbe7ae5eb	-0.24501769
177	0x3fbc5389	1.4712993
178	0xbe52a98b	-0.20572488
179	0x3db6be4d	0.08923016
180	0xbff2a3d0	-1.8956242
181	0xbf516f3a	-0.81810343
182	0xbefe0244	-0.49611104
183	0xbebf3162	-0.37342364
184	0xbf2a07cf	-0.66418165
185	0xbe3d1e64	-0.18468624
186	0xbe88b492	-0.26700264
187	0x3fac5fd2	1.3466742
188	0xbe7d6159	-0.24744166
189	0x3ce74e33	0.02823553
190	0xbff3dbe9	-1.9051486
191	0xbf49903a	-0.787357
192	0xbf06c6b7	-0.52646965
193	0xbe9c710b	-0.30554995
194	0xbf31a467	-0.69391483
195	0xbe119d37	-0.14220129
196	0xbe963fec	-0.29345644
197	0x3f76c8de	0.9640025
198	0xbe923837	-0.28558514
199	0x3a5db905	0.0008458051
200	0xbfee3cda	-1.861232
201	0xbf45f15f	-0.7732143
202	0xbf113317	-0.5671858
203	0xbea0d037	-0.31408855
204	0xbf3ac8ba	-0.72962534
205	0xbde22af3	-0.11043348
206	0xbea467b7	-0.32110378
207	0x3f6232b0	0.88358593
208	0xbe8ff357	-0.2811534
209	0x3d1a895d	0.037728656
210	0xbfefc983	-1.8733371
211	0xbf3b7bf6	-0.73236024
212	0xbf0864a6	-0.5327858
213	0xbeae193c	-0.34003627
214	0xbf39f188	-0.7263417
215	0xbe282bf9	-0.16423024
216	0xbeb65568	-0.35612035
217	0x3f5813f3	0.8440544
218	0xbe5f8220	-0.21826982
219	0x3d0f0eb6	0.03492614
220	0xbfef8168	-1.8711367
221	0xbf350dc5	-0.70724136
222	0xbf0612df	-0.52372545
223	0xbed925cb	-0.42411646
224	0xbf37aad1	-0.7174502
225	0xbe385f04	-0.18004996
226	0xbeb5ece3	-0.35532293
227	0x3f55f33f	0.8357429
228	0xbe2eab45	-0.17057522
229	0x3da8ee0a	0.08248527
230	0xbfef7b65	-1.8709532
231	0xbf4c5e94	-0.79831815
232	0xbecc21be	-0.39869493
233	0xbebe003d	-0.37109557
234	0xbf5ac3c3	-0.8545496
235	0xbe5c2010	-0.21496606
236	0xbec550ad	-0.38538113
237	0x3f60cc31	0.8781157
238	0xbe6e0ff5	-0.23248275
239	0x3d467b19	0.04845724
240	0xbfec068e	-1.84395
241	0xbf3c267f	-0.7349624
242	0xbeedd4de	-0.46451467
243	0xbeed6532	-0.46366268
244	0xbf6156fb	-0.88023347
245	0xbe8781b4	-0.26466143
246	0xbe9de3d8	-0.30837893
247	0x3f694f2c	0.9113643
248	0xbe485dad	-0.19566984
249	0x3d7f1662	0.062277205
250	0xbfe789e3	-1.8088955
251	0xbf422f44	-0.7585337
252	0xbee60122	-0.4492274
253	0xbef1f880	-0.47259903
254	0xbf71e5e5	-0.94491416
255	0xbe85b54c	-0.2611488

global_orient f4 [169, 3]
0	0xbc3acb6b	-0.011401038
1	0xc0315eb5	-2.7714055
2	0xbf1ce037	-0.61279625
3	0xbc94f566	-0.018183421
4	0xc02f03b6	-2.7346015
5	0xbf10f1f5	-0.566192
6	0xbb8d8f2b	-0.0043200455
7	0xc02c1030	-2.688488
8	0xbf00f9e6	-0.50381315
9	0x3bf2dd0f	0.007411606
10	0xc02720a5	-2.6113675
11	0xbed9df5e	-0.42553228
12	0x3cb59e95	0.022170344
13	0xc02c0c6f	-2.688259
14	0xbe8b3139	-0.2718599
15	0x3d524ccc	0.05134277
16	0xc02cb87f	-2.6987607
17	0xbe102c63	-0.14079432
18	0x3d6a986c	0.057274267
19	0xc02e7604	-2.725953
20	0xbdbbd369	-0.09171183
21	0x3d4d8c96	0.0501829
22	0xc03043e1	-2.754143
23	0xbd2fd2a5	-0.042925496
24	0x3d3a6794	0.045508936
25	0xc02fef44	-2.7489786
26	0xbd15f3d1	-0.036609475
27	0x3d0fbd0b	0.035092395
28	0xc02f1c6b	-2.7361095
29	0xbd83d093	-0.06436267
30	0x3cc0b7af	0.023525087
31	0xc02d608d	-2.709018
32	0xbdd1a337	-0.10236209
33	0x3b499d52	0.0030763936
34	0xc02c31a0	-2.6905289
35	0xbdfbd32e	-0.12296139
36	0xbc485c06	-0.012228971
37	0xc0297241	-2.6475985
38	0xbdf63e87	-0.12023645
39	0xbc9b318d	-0.018944526
40	0xc027effd	-2.6240227
41	0xbe094b6f	-0.13407682
42	0xbbafc902	-0.005364538
43	0xc0223a96	-2.5348258
44	0xbe027976	-0.12741646
45	0xbc0e7f5f	-0.00869736
46	0xc0201793	-2.5014389
47	0xbdf997ba	-0.12187143
48	0xbc7acf82	-0.015308263
49	0xc01d01f6	-2.4532447
50	0xbde3b04f	-0.111176126
51	0xbc6f604c	-0.014610361
52	0xc01bf034	-2.4365358
53	0xbdf47299	-0.1193592
54	0xbd077c01	-0.033077244
55	0xc01ba6b1	-2.432049
56	0xbe06dbd5	-0.13169797
57	0xbd339961	-0.043847445
58	0xc01dd441	-2.46608
59	0xbe22a631	-0.1588371
60	0xbd385409	-0.045002017
61	0xc01df3db	-2.4680088
62	0xbe2216bd	-0.15828986
63	0xbd427877	-0.047478165
64	0xc01d5f2d	-2.458934
65	0xbe1c6089	-0.152712
66	0xbd1a63d3	-0.037692856
67	0xc01d4c8a	-2.4577966
68	0xbe211cf7	-0.15733705
69	0xbcb089f1	-0.02155015
70	0xc01d0f73	-2.454068
71	0xbe209138	-0.15680397
72	0x39b12ef1	0.00033795045
73	0xc01e0153	-2.4688308
74	0xbe20198d	-0.15634747
75	0x3beba9af	0.0071918587
76	0xc01eedcc	-2.483264
77	0xbe1afee9	-0.15136303
78	0x3c51ae29	0.012797871
79	0xc0200bd1	-2.5007212
80	0xbe178a2c	-0.14798802
81	0x3c557b6f	0.013029917
82	0xc020f622	-2.5150228
83	0xbe114ac8	-0.14188683
84	0x3c579fa3	0.013160619
85	0xc02282a7	-2.5392244
86	0xbe140e0a	-0.1445848
87	0x3c869fc5	0.016433606
88	0xc02414c5	-2.5637677
89	0xbe18024e	-0.14844629
90	0x3c511a70	0.012762651
91	0xc024eb3a	-2.576857
92	0xbe253b62	-0.16135934
93	0x3c57ea70	0.013178453
94	0xc025fca3	-2.5935447
95	0xbe27ba15	-0.16379578
96	0x3bd7bd56	0.00658385
97	0xc025f02a	-2.5927835
98	0xbe2b130e	-0.16706488
99	0x3c18d812	0.009328859
100	0xc0273c9c	-2.6130743
101	0xbe315253	-0.1731656
102	0x39c85ab6	0.00038214558
103	0xc027b621	-2.6204913
104	0xbe356a7f	-0.17716406
105	0xbbacc2d0	-0.005272247
106	0xc0299c9f	-2.6501844
107	0xbe38388e	-0.17990324
108	0xbc00ce2b	-0.007861654
109	0xc02b3598	-2.675146
110	0xbe38dab2	-0.18052176
111	0xbc522e7a	-0.012828464
112	0xc02c24c4	-2.689744
113	0xbe36e9f2	-0.1786268
114	0xbca98834	-0.02069483
115	0xc02c478b	-2.6918666
116	0xbe30734e	-0.17231485
117	0xbd023a1f	-0.03179371
118	0xc02ba704	-2.6820688
119	0xbe3bf7c8	-0.1835624
120	0xbd450998	-0.048104852
121	0xc02b45c7	-2.6761339
122	0xbe4031a5	-0.18768938
123	0xbd881577	-0.06644719
124	0xc02b3eb0	-2.6757011
125	0xbe4bec65	-0.19914396
126	0xbd96798f	-0.07347404
127	0xc029fcde	-2.6560588
128	0xbe53359b	-0.20625918
129	0xbd832a08	-0.06404501
130	0xc0297dd5	-2.6483052
131	0xbe587238	-0.21137321
132	0xbd0947c7	-0.033515718
133	0xc0299cb4	-2.6501894
134	0xbe5f3efb	-0.21801369
135	0xbcbf0d6f	-0.023321835
136	0xc028c3e5	-2.6369565
137	0xbe5c4665	-0.21511228
138	0xbc752aa6	-0.014963781
139	0xc0276969	-2.6158087
140	0xbe60618b	-0.2191221
141	0xb99eea12	-0.00030310504
142	0xc025ef74	-2.59274
143	0xbe5d7ac2	-0.2162886
144	0x3b9dbc48	0.0048137046
145	0xc02560b9	-2.5840285
146	0xbe58f678	-0.2118777
147	0x3b33a4bb	0.002741142
148	0xc025603e	-2.5839992
149	0xbe511593	-0.20418386
150	0xbc59bb28	-0.01328925
151	0xc025b278	-2.5890179
152	0xbe4a3b1a	-0.19749108
153	0xbcf89089	-0.030342357
154	0xc026bc6a	-2.60525
155	0xbe4497f4	-0.1919859
156	0xbd06d2d0	-0.03291589
157	0xc027e087	-2.623079
158	0xbe395de0	-0.18102217
159	0xbd0c4e68	-0.03425446
160	0xc02910fe	-2.6416621
161	0xbe34984d	-0.17636223
162	0xbd1522b2	-0.03641004
163	0xc0297984	-2.6480417
164	0xbe29be78	-0.16576564
165	0xbd32067b	-0.04346321
166	0xc02b0cb7	-2.672651
167	0xbe1c4c2c	-0.15263432
168	0xbd2e43a7	-0.042544987
169	0xc02c07fc	-2.6879873
170	0xbe1f8af2	-0.15580347
171	0xbd11a410	-0.035556853
172	0xc02e32d1	-2.7218516
173	0xbe2990c7	-0.16559134
174	0xbcc4d06b	-0.024025163
175	0xc0306151	-2.7559397
176	0xbe2ba754	-0.1676305
177	0xbc869055	-0.016426245
178	0xc033c93c	-2.8091574
179	0xbe25504d	-0.16143914
180	0xbc65eb3a	-0.014033133
181	0xc03821da	-2.8770661
182	0xbe17c994	-0.1482299
183	0xbb6c7209	-0.0036078712
184	0xc03c3288	-2.9405842
185	0xbe18566c	-0.14876717
186	0x3c1b45bf	0.009477078
187	0xc040e774	-3.0141268
188	0xbe19dfb3	-0.1502674
189	0x3c2024a8	0.0097743645
190	0xc046886d	-3.1020768
191	0xbe1f99ae	-0.15585968
192	0x3c058a2b	0.008150618
193	0xc04c7e34	-3.1952028
194	0xbe262c14	-0.16227752
195	0x3bffb616	0.0078036888
196	0xc0525940	-3.2866974
197	0xbe2aafa8	-0.1666857
198	0x3c158528	0.009125985
199	0xc057baae	-3.370769
200	0xbe2f0e6c	-0.17095345
201	0x3a7d132d	0.00096540415
202	0xc05d1bab	-3.4548137
203	0xbe3e35da	-0.1857523
204	0xbba68549	-0.005081807
205	0xc062f3e4	-3.546136
206	0xbe532427	-0.2061926
207	0xbc178b06	-0.009249454
208	0xc0681ee2	-3.626885
209	0xbe63cd62	-0.22246316
210	0x3a8b02c0	0.0010605678
211	0xc06d8848	-3.711443
212	0xbe67c419	-0.22633399
213	0x3bf9fc99	0.007628989
214	0xc0727090	-3.7881203
215	0xbe693f3b	-0.22778027
216	0x3cf1fccb	0.029539486
217	0xc0772075	-3.861356
218	0xbe57589c	-0.21029896
219	0x3d26f974	0.04076524
220	0xc07bb02b	-3.9326274
221	0xbe49f6de	-0.19723079
222	0x3d3d3274	0.046190694
223	0xc07ec2ff	-3.9806516
224	0xbe3cf1c6	-0.18451604
225	0x3d5988a1	0.053108815
226	0xc0807be7	-4.015125
227	0xbe29bfbe	-0.1657705
228	0x3d38a347	0.04507759
229	0xc081b65a	-4.0535097
230	0xbe0b69e2	-0.1361461
231	0x3d45a0a0	0.048248887
232	0xc083538d	-4.103949
233	0xbdc58c8f	-0.0964595
234	0x3d3b03e1	0.045657996
235	0xc0854d8b	-4.1657157
236	0xbd94e848	-0.07270867
237	0x3d8d3d10	0.068964124
238	0xc087538b	-4.228948
239	0xbd3a232e	-0.045443706
240	0x3dbd49c5	0.09242586
241	0xc08949bb	-4.2902503
242	0xbd096f17	-0.03355321
243	0x3dd66a34	0.104694754
244	0xc08c198f	-4.37812
245	0xbb6d0bce	-0.0036170366
246	0x3ded4090	0.1158458
247	0xc08e38d9	-4.4444394
248	0x3ca50087	0.020141853
249	0x3e0d33a2	0.13789228
250	0xc0906bba	-4.51315
251	0x3d6d3e72	0.05792088
252	0x3e22ddd6	0.15904936
253	0xc092f134	-4.5919437
254	0x3de1c476	0.110238
255	0x3e222d89	0.15837683

body_pose f4 [169, 63]
0	0x3be2b20f	0.006918199
1	0xbc575f10	-0.013145223
2	0x3d0b50a5	0.034012455
3	0x3e9df289	0.30849102
4	0xbda5c547	-0.08094268
5	0x3e0d72e8	0.13813365
6	0x3e8beee4	0.27330697
7	0x392feee5	0.00016778296
8	0x3e81eeca	0.25377494
9	0x3eb39d30	0.35080862
10	0xbc948557	-0.018129988
11	0x3d9c8166	0.07641868
12	0x3d264de4	0.040601626
13	0x3dab6f88	0.08370882
14	0xbd784951	-0.060616795
15	0x3ecd399a	0.4008301
16	0xbd87a3ff	-0.06623077
17	0x3c4aceff	0.012378453
18	0x3e6cf540	0.2314043
19	0xbdc05537	-0.093912534
20	0xbdaf154e	-0.085489854
21	0xbc2ec66d	-0.010667426
22	0x3d8f8ea6	0.0700963
23	0x3d1e8cb6	0.03870841
24	0x3e9e87b8	0.3096292
25	0xbc9fc892	-0.019504819
26	0xbdaf7f75	-0.085692324
27	0xb7b8db2e	-2.2036573e-05
28	0x3777c767	1.4768774e-05
29	0xb78e3504	-1.6952406e-05
30	0x37817025	1.543022e-05
31	0x378238c0	1.5523634e-05
32	0xb78598c2	-1.5925969e-05
33	0x3e1fe0c2	0.15613082
34	0x3c95e852	0.018299256
35	0xbe0860ce	-0.13318178
36	0x3d00eaae	0.031473808
37	0xbf067eab	-0.5253703
38	0xbea5e073	-0.32397804
39	0x3dc154fa	0.09440036
40	0x3f1dc4f3	0.61628646
41	0x3dae7ae1	0.08519531
42	0xbea3d619	-0.3199928
43	0xbca104b7	-0.019655569
44	0xbd11edb3	-0.03562708
45	0xbdf096a3	-0.11747482
46	0xbe9d266b	-0.30693373
47	0xbf4376de	-0.7635325
48	0xbd85ebdb	-0.065391265
49	0x3ebdd4be	0.37076372
50	0x3ef43265	0.47694698
51	0xbda53dc7	-0.08068424
52	0xbe83ebd1	-0.2576585
53	0xbe0976fc	-0.13424295
54	0xbe1c7170	-0.15277648
55	0x3ef4b7d2	0.47796494
56	0x3d7c7920	0.06163895
57	0xbe0bca9d	-0.1365151
58	0x3e44a87b	0.19204895
59	0x3e94060b	0.2891086
60	0xbe3c9f6a	-0.18420187
61	0x3d7a9df3	0.06118579
62	0xbe6b59da	-0.22983494
63	0xbce26efc	-0.027640812
64	0xbe13fc0e	-0.1445162
65	0xbcaeeab2	-0.021352146
66	0x3ea8e0b4	0.32983935
67	0xbda227d2	-0.07917751
68	0x3d98a6dd	0.07453702
69	0x3e99559d	0.2994813
70	0x3c371ca2	0.01117626
71	0x3e8d67ed	0.27618352
72	0x3e85174b	0.25994334
73	0xbd9d85b4	-0.076915175
74	0x3db5e499	0.08881492
75	0xbc8cc919	-0.017185735
76	0xbd6b2247	-0.057405736
77	0x3c0d1b67	0.00861249
78	0x3ea1d3af	0.31606814
79	0xbd501801	-0.050804142
80	0xbb439f5f	-0.0029849631
81	0x3e2b1f28	0.16711104
82	0x3d1c53ff	0.038166042
83	0x3d526bfe	0.05137252
84	0xbdcf12a4	-0.10110977
85	0x3debc50c	0.11512193
86	0x3d15226d	0.036409784
87	0x3e8a584f	0.270205
88	0xbc3b4a7f	-0.0114313355
89	0xbd212bc6	-0.039348386
90	0xb7896338	-1.6377875e-05
91	0xb77d5b03	-1.5101165e-05
92	0xb782f34d	-1.5610503e-05
93	0x377c1217	1.5024582e-05
94	0x377c3b97	1.5034245e-05
95	0xb7867fba	-1.6033522e-05
96	0x3d183ba1	0.03716624
97	0x3c9429b2	0.018086288
98	0xbe054397	-0.13014065
99	0x3c6f8861	0.014619918
100	0xbef9859f	-0.48734757
101	0xbec6eace	-0.38851017
102	0x3cf8c75f	0.030368505
103	0x3eeaff75	0.45898023
104	0x3dd6100f	0.10452282
105	0xbe0bc8e1	-0.13650848
106	0xbc428d56	-0.011874517
107	0xbc8d08d2	-0.01721612
108	0xbda84768	-0.08216745
109	0xbe854cac	-0.26035058
110	0xbf4a9f57	-0.79149383
111	0xbd8c18fb	-0.06840702
112	0x3e99255b	0.29911312
113	0x3f071dac	0.5277965
114	0xbda6fdf4	-0.081539065
115	0xbe8c22b5	-0.2737023
116	0xbdf60116	-0.12011926
117	0xbdefc071	-0.11706627
118	0x3f116d22	0.5680715
119	0x3dc47331	0.095922835
120	0xbd47fd76	-0.048825704
121	0x3e400442	0.18751624
122	0x3e73ae4c	0.23796958
123	0xbdd210f6	-0.10257141
124	0x3d5e67d0	0.054298222
125	0xbe468cde	-0.19389674
126	0xbdfadfcf	-0.12249719
127	0xbd5bbd5d	-0.053647388
128	0xbb9ca63c	-0.004780559
129	0x3e99c8bf	0.3003597
130	0xbe0a3edc	-0.13500541
131	0x3d03da87	0.032190826
132	0x3eccd17d	0.40003577
133	0x3c885d98	0.016646191
134	0x3eadbf57	0.33935043
135	0x3e7dbac8	0.24778283
136	0xbe02fd28	-0.12791884
137	0x3d85ab9c	0.065268725
138	0x3c3a8712	0.011384742
139	0xbdef1580	-0.11674023
140	0x3d5a1ceb	0.053250235
141	0x3e6ab474	0.229204
142	0xbc9accce	-0.018896487
143	0xbcfc58c2	-0.030804042
144	0x3e3fae76	0.18718895
145	0xbcd6f328	-0.026238993
146	0x3ce53923	0.027981346
147	0xbe699da6	-0.22814044
148	0x3dedf4d2	0.116189614
149	0x3d633646	0.05547168
150	0x3e3c0ef7	0.18365084
151	0xbd309d34	-0.04311867
152	0xbd67d04e	-0.05659514
153	0xb7854c51	-1.5890373e-05
154	0x37812b4e	1.5398164e-05
155	0xb78342ac	-1.5647463e-05
156	0x37736682	1.4507796e-05
157	0x377908ff	1.4843651e-05
158	0xb7827a37	-1.5554118e-05
159	0xbe0ba72b	-0.13637988
160	0x3b0782a1	0.0020677226
161	0xbe123882	-0.14279369
162	0xbc33a36a	-0.010964254
163	0xbec7c287	-0.390156
164	0xbee541a8	-0.44776654
165	0xbd16af9a	-0.03678856
166	0x3eae404c	0.3403343
167	0x3e06b493	0.13154821
168	0x3d22d367	0.03975239
169	0xbda3168b	-0.07963284
170	0x3c1b3c53	0.009474832
171	0xbda36a0c	-0.07979211
172	0xbe561cd6	-0.20909438
173	0xbf49e1e2	-0.78860295
174	0xbd18dc6e	-0.037319593
175	0x3e791d9d	0.24327703
176	0x3f18d954	0.59706616
177	0xbc143c94	-0.009047646
178	0xbea916be	-0.33025163
179	0xbd8cdec3	-0.06878426
180	0xbdbc75d0	-0.092021585
181	0x3f206196	0.62648904
182	0x3dc49d85	0.09600357
183	0xbd4430d5	-0.047898132
184	0x3e960716	0.2930228
185	0x3e4d628e	0.20057127
186	0xbdd15e36	-0.102230474
187	0x3d5b771a	0.05358038
188	0xbe3822b5	-0.1798199
189	0xbe316d32	-0.17326811
190	0xbca1aabd	-0.019734735
191	0xbd26152e	-0.040547542
192	0x3e65e678	0.22451198
193	0xbdd64338	-0.1046204
194	0x3d8cc987	0.06874376
195	0x3ef2062d	0.47270337
196	0x3c755a14	0.01497509
197	0x3ec59fd5	0.38598505
198	0x3e763fff	0.2404785
199	0xbe6fc0aa	-0.2341334
200	0x3db1f041	0.08688403
201	0x3d8624fb	0.06550022
202	0xbd42e090	-0.04757744
203	0xbcc1631b	-0.023606827
204	0x3d94deb4	0.0726904
205	0xbc35d9b1	-0.011099265
206	0xbd76deb3	-0.060270976
207	0x3e39fd26	0.18162975
208	0xbd608ac8	-0.054819852
209	0x3c717022	0.014736207
210	0xbe90eb25	-0.283044
211	0x3c8073d8	0.015680239
212	0x3c2e4ecc	0.010638904
213	0x3d49c8c2	0.049263723
214	0xbd7cf8fe	-0.061760895
215	0xbdb48f52	-0.08816399
216	0xb7847c2d	-1.579345e-05
217	0x378184ef	1.54399e-05
218	0x377f6834	1.5223446e-05
219	0x37751d9e	1.4610034e-05
220	0x377a64ad	1.4924602e-05
221	0xb782ef04	-1.5608508e-05
222	0xbe1a5b5e	-0.15073916
223	0xbc59a8f6	-0.013284912
224	0xbdd0e319	-0.101995654
225	0x3bad8b2b	0.005296131
226	0xbe6ee86d	-0.23330851
227	0xbee38d4f	-0.44443747
228	0xbd1e9837	-0.038719382
229	0x3e4298d0	0.19003606
230	0x3e4bc8cc	0.19900817
231	0x3e1f8478	0.15577877
232	0xbdda79fe	-0.106677994
233	0x3d799697	0.06093463
234	0xbd52fa80	-0.051508427
235	0xbe147a56	-0.14499792
236	0xbf56cc36	-0.8390535
237	0x3b2e5b40	0.0026604682
238	0x3e276dd4	0.1635049
239	0x3f298111	0.66212565
240	0xbd20b574	-0.039235547
241	0xbe830411	-0.2558904
242	0xbe033ef1	-0.12816979
243	0xbcb68c47	-0.022283686
244	0x3f29a732	0.66270745
245	0x3e028cc4	0.1274901
246	0xbd296e52	-0.041364975
247	0x3e6c2969	0.23062672
248	0x3ea08436	0.3135087
249	0x3bfd4ceb	0.0077301166
250	0x3ce59c55	0.028028646
251	0xbe05c984	-0.13065153
252	0xbe97777b	-0.29583344
253	0x3c40f03b	0.011776025
254	0xbd61f037	-0.055160727
255	0x3dcc8978	0.099871576

transl f4 [169, 3]
0	0x3f1c5cd5	0.6107915
1	0x3fc6ab58	1.552104
2	0x3fd9b91c	1.7009616
3	0x3f15da40	0.5853615
4	0x3fc20002	1.5156252
5	0x3fd566fa	1.6672051
6	0x3f1267de	0.5718974
7	0x3fbf3a1a	1.4939606
8	0x3fd2948a	1.645158
9	0x3f0c5d34	0.54829717
10	0x3fbc9f0b	1.4736036
11	0x3fcd648a	1.6046307
12	0x3f090da5	0.53536445
13	0x3fbb9df5	1.465758
14	0x3fc847a4	1.5646863
15	0x3f078b8f	0.52947325
16	0x3fbbbe2b	1.466741
17	0x3fc3e912	1.5305502
18	0x3f043a34	0.5165131
19	0x3fbc6a22	1.4719889
20	0x3fbfbe91	1.4980031
21	0x3f00c22f	0.502963
22	0x3fbd702e	1.479986
23	0x3fbb646b	1.464002
24	0x3efa6f99	0.48913267
25	0x3fbe7e4e	1.4882295
26	0x3fb81e98	1.4384336
27	0x3ef5b4c8	0.47989488
28	0x3fbf9978	1.496871
29	0x3fb50188	1.4141092
30	0x3ef04ebd	0.46935073
31	0x3fc08890	1.5041676
32	0x3fb16630	1.385931
33	0x3eeb6b76	0.45980424
34	0x3fc102d2	1.5078986
35	0x3fada99a	1.3567383
36	0x3ee61085	0.44934478
37	0x3fc12774	1.5090165
38	0x3fa9e28b	1.327226
39	0x3ee15360	0.44008923
40	0x3fc13fe6	1.5097625
41	0x3fa60e06	1.297303
42	0x3edbc1a8	0.42921185
43	0x3fc0eb6c	1.5071845
44	0x3fa265ca	1.2687314
45	0x3ed7a8de	0.42121023
46	0x3fc08e37	1.50434
47	0x3f9e70c4	1.2378163
48	0x3ed26af2	0.41097218
49	0x3fbff8aa	1.4997761
50	0x3f9a6e4a	1.2064908
51	0x3ece018b	0.40235552
52	0x3fbf75a0	1.4957771
53	0x3f9608e0	1.1721458
54	0x3ec8ef66	0.39245147
55	0x3fbeefc9	1.4916927
56	0x3f91330d	1.1343704
57	0x3ec44190	0.3833127
58	0x3fbe6c14	1.4876733
59	0x3f8c11fc	1.0942988
60	0x3ebed4fb	0.37271866
61	0x3fbddab2	1.4832366
62	0x3f86b36b	1.0523504
63	0x3eb91ca4	0.36154664
64	0x3fbd6817	1.4797391
65	0x3f814ed6	1.0102184
66	0x3eb3a4f1	0.35086778
67	0x3fbd6af6	1.4798267
68	0x3f788303	0.9707491
69	0x3eae4ac8	0.3404143
70	0x3fbd8676	1.4806659
71	0x3f6f63c5	0.9351161
72	0x3ea93b13	0.33052883
73	0x3fbdecc0	1.4837875
74	0x3f6707d2	0.9024631
75	0x3ea40fc1	0.3204327
76	0x3fbe8c01	1.4886476
77	0x3f5f5731	0.8724242
78	0x3e9e2732	0.3088928
79	0x3fbf45c5	1.4943167
80	0x3f5884e8	0.845778
81	0x3e98bacb	0.29830012
82	0x3fbfeedf	1.4994773
83	0x3f522847	0.8209271
84	0x3e92fe1d	0.28709498
85	0x3fc062f7	1.5030202
86	0x3f4c1062	0.797125
87	0x3e8cd5ae	0.27506775
88	0x3fc0a75f	1.5051078
89	0x3f462d73	0.774131
90	0x3e867e31	0.2626815
91	0x3fc0c4b5	1.506003
92	0x3f4035ba	0.7508198
93	0x3e80081c	0.25006187
94	0x3fc08a66	1.5042236
95	0x3f3a4596	0.7276243
96	0x3e719619	0.23592414
97	0x3fc04252	1.5020239
98	0x3f3419ad	0.7035168
99	0x3e628609	0.22121443
100	0x3fbfc497	1.498187
101	0x3f2d8d76	0.6779398
102	0x3e540236	0.20703968
103	0x3fbf3026	1.4936569
104	0x3f2643ea	0.6494738
105	0x3e44a133	0.19202118
106	0x3fbe8eb8	1.4887304
107	0x3f1edfde	0.62060344
108	0x3e33a736	0.17544255
109	0x3fbe1922	1.485142
110	0x3f170ef7	0.5900721
111	0x3e203a4f	0.15647243
112	0x3fbdb34f	1.4820346
113	0x3f0eb121	0.5573903
114	0x3e0c426b	0.13697211
115	0x3fbdae5a	1.4818833
116	0x3f06a27b	0.52591676
117	0x3df46b0a	0.119344786
118	0x3fbe0a3e	1.4846876
119	0x3efe7ff2	0.4970699
120	0x3dd55a8d	0.10417662
121	0x3fbe46df	1.4865378
122	0x3ef1149a	0.4708603
123	0x3db773a4	0.089576036
124	0x3fbe8569	1.4884464
125	0x3ee456d4	0.44597495
126	0x3d9e7742	0.077375904
127	0x3fbf2da2	1.4935801
128	0x3ed865b7	0.42265102
129	0x3d8a7b43	0.067617916
130	0x3fbfe8f7	1.499297
131	0x3ecd38b5	0.40082327
132	0x3d71124d	0.058855344
133	0x3fc0923e	1.504463
134	0x3ec29deb	0.38011107
135	0x3d5220b7	0.05130073
136	0x3fc1294e	1.509073
137	0x3eb82deb	0.35972533
138	0x3d34d7b1	0.04415101
139	0x3fc15c23	1.5106243
140	0x3ead9866	0.33905333
141	0x3d1be7bd	0.0380628
142	0x3fc177d5	1.5114695
143	0x3ea3160b	0.31852755
144	0x3d00db6c	0.031459257
145	0x3fc16b13	1.5110801
146	0x3e9807d8	0.29693484
147	0x3cd337df	0.025783477
148	0x3fc111e7	1.5083588
149	0x3e8c380b	0.27386507
150	0x3ca840c1	0.02053869
151	0x3fc0ca3f	1.5061721
152	0x3e801f61	0.2502394
153	0x3c858e5f	0.01630324
154	0x3fc085aa	1.5040791
155	0x3e67ae51	0.2262509
156	0x3c46ccc3	0.01213378
157	0x3fc03aca	1.5017941
158	0x3e4eb182	0.20184901
159	0x3c04e1fd	0.00811052
160	0x3fc002be	1.5000837
161	0x3e352218	0.17688787
162	0x3b7c9d46	0.003854589
163	0x3fbfd4e5	1.4986845
164	0x3e1a26ff	0.15053938
165	0x393fe3e7	0.0001830008
166	0x3fbfa913	1.4973472
167	0x3dfe77f5	0.12425224
168	0xbb389e7f	-0.0028170643
169	0x3fbf9a3c	1.4968944
170	0x3dc61fcb	0.09674033
171	0xbba56eb9	-0.0050485996
172	0x3fbfa412	1.4971945
173	0x3d92e4ca	0.07172544
174	0xbbd0e6ec	-0.0063751843
175	0x3fbfddb7	1.4989537
176	0x3d44ba9c	0.048029527
177	0xbc01ff0f	-0.007934346
178	0x3fbfefc1	1.4995042
179	0x3ce0f647	0.027461184
180	0xbc13cd1d	-0.009021071
181	0x3fc02380	1.5010834
182	0x3c0b7a0b	0.008512984
183	0xbc1748d4	-0.009233672
184	0x3fc061f3	1.5029892
185	0xbbdfee79	-0.006833848
186	0xbc14f3b5	-0.009091307
187	0x3fc0b4d2	1.5055182
188	0xbcab2855	-0.020893255
189	0xbc223ce0	-0.009902209
190	0x3fc0fb22	1.507664
191	0xbd0d1fd0	-0.034454167
192	0xbc307cef	-0.010771974
193	0x3fc13eae	1.5097253
194	0xbd416a06	-0.047220252
195	0xbc5f657d	-0.013635037
196	0x3fc178c2	1.5114977
197	0xbd71bb01	-0.05901623
198	0xbc8e215b	-0.01734989
199	0x3fc1ccf3	1.514067
200	0xbd902874	-0.07038966
201	0xbca594d0	-0.02021256
202	0x3fc1ded9	1.5146133
203	0xbda817b8	-0.08207649
204	0xbcbc33f8	-0.022974
205	0x3fc20b8f	1.5159777
206	0xbdc0f6bb	-0.0942206
207	0xbcd58fc3	-0.026069527
208	0x3fc1f3a9	1.5152484
209	0xbdda7a69	-0.10667879
210	0xbcf24870	-0.029575557
211	0x3fc1d171	1.5142041
212	0xbdf33bf6	-0.11876671
213	0xbd054076	-0.032532178
214	0x3fc1ba8d	1.5135056
215	0xbe0564d6	-0.13026747
216	0xbd14ad80	-0.036298275
217	0x3fc1a9eb	1.512998
218	0xbe115e3e	-0.14196107
219	0xbd26ac0d	-0.040691424
220	0x3fc1ad11	1.5130941
221	0xbe1cba0e	-0.15305349
222	0xbd42ca38	-0.047556132
223	0x3fc1e0c6	1.514672
224	0xbe283053	-0.16424684
225	0xbd64babc	-0.055842146
226	0x3fc1e921	1.514927
227	0xbe32f8fa	-0.1747779
228	0xbd8484e9	-0.06470663
229	0x3fc1ebc8	1.515008
230	0xbe3d15ac	-0.18465298
231	0xbd9582bc	-0.07300326
232	0x3fc21389	1.5162212
233	0xbe46c0fe	-0.19409558
234	0xbda337ef	-0.07969653
235	0x3fc249fa	1.5178826
236	0xbe4dbe7b	-0.20092194
237	0xbdadf5e4	-0.084941655
238	0x3fc28cda	1.5199234
239	0xbe5490a5	-0.20758303
240	0xbdb6ae0a	-0.08919914
241	0x3fc2d277	1.5220479
242	0xbe58a844	-0.21157938
243	0xbdbd4486	-0.092415854
244	0x3fc2e1db	1.5225176
245	0xbe5c34f9	-0.21504582
246	0xbdc126d9	-0.09431238
247	0x3fc2f136	1.5229862
248	0xbe5e20cf	-0.21692203
249	0xbdc32951	-0.09529365
250	0x3fc2e8bd	1.5227276
251	0xbe6052ec	-0.21906632
252	0xbdc3e802	-0.09565736
253	0x3fc2df43	1.5224384
254	0xbe5fbf99	-0.21850432
255	0xbdc3fbc5	-0.095695056

left_hand_pose f4 [169, 12]
0	0x3cb5158e	0.022105005
1	0xbeb156ae	-0.34636444
2	0x3ede1878	0.43378043
3	0xbf8fb191	-1.1226064
4	0x3fbe4cd2	1.4867194
5	0x3ec1130e	0.3770985
6	0x3f553630	0.8328581
7	0xbf8f1709	-1.1178905
8	0xbdc6ecbe	-0.09713124
9	0xbfc6455f	-1.548992
10	0x3ed557bf	0.41668507
11	0xbfc1d311	-1.5142537
12	0xbc3977e4	-0.011320088
13	0xbf001690	-0.5003443
14	0x3e1b609d	0.15173574
15	0xbfa3fa3a	-1.2810738
16	0x3fa90a7d	1.3206326
17	0x3eaae09c	0.33374488
18	0x3f24040a	0.64068663
19	0xbf444847	-0.76672786
20	0x3c49fb20	0.012327939
21	0xbfaa39a4	-1.329884
22	0x3e4043e0	0.18775892
23	0xbfe92e8d	-1.8217331
24	0x3bd181ef	0.006393663
25	0xbf13eaeb	-0.5778033
26	0x3d2c081d	0.041999925
27	0xbfc30e49	-1.5238734
28	0x3fc71c95	1.5555598
29	0x3eb2d8c1	0.34930995
30	0x3eb8b0d0	0.36072397
31	0xbf0027f7	-0.5006098
32	0x3e249df1	0.16075875
33	0xbf93e85f	-1.1555289
34	0x3d8abbe3	0.06774118
35	0xc00896f7	-2.1342142
36	0x3df10dcf	0.11770212
37	0xbf05540c	-0.5208137
38	0x3e57b9f3	0.21067028
39	0xbfd01e97	-1.6259335
40	0x3fb82a86	1.4387977
41	0x3e1a7ee4	0.15087467
42	0x3f020bcf	0.5079927
43	0xbea0ec5d	-0.3143033
44	0xbe85533c	-0.26040065
45	0xbfb878bc	-1.4411845
46	0xba58d88d	-0.00082720147
47	0xbff9d21f	-1.9517249
48	0x3d9e9641	0.077435024
49	0xbeda3d3c	-0.42624843
50	0x3ea1cc31	0.31601098
51	0xbf8baa1d	-1.091129
52	0x3ea6a369	0.32546547
53	0xbee44677	-0.4458501
54	0x3f9941ce	1.1973207
55	0xbe1dd0dd	-0.15411706
56	0x3e6a161b	0.22859995
57	0xbf94f2f4	-1.1636643
58	0x3f671a6f	0.9027471
59	0xc00500e1	-2.0781786
60	0xbe3df22f	-0.18549417
61	0xbf9a8e9b	-1.207477
62	0x3e2ff4a6	0.1718317
63	0xbf78720a	-0.9704901
64	0x3e8b3d82	0.27195364
65	0x3d27dd2e	0.040982418
66	0x3fb18893	1.3869804
67	0xbfbffb93	-1.4998649
68	0xbf82627b	-1.0186304
69	0xc0185e29	-2.380747
70	0x3ea3e7d4	0.32012808
71	0xc08395ab	-4.11202
72	0xbe3f2485	-0.18666275
73	0xbf839347	-1.027932
74	0x3d785ef9	0.060637448
75	0xbf6a0905	-0.9142001
76	0x3f19f6b9	0.60142094
77	0x3effdce0	0.49973202
78	0x3f6361f9	0.8882137
79	0xbfa01178	-1.2505331
80	0xbf245a1f	-0.64200014
81	0xbfecade5	-1.8490568
82	0x3f13fc79	0.5780712
83	0xc05fb02a	-3.4951272
84	0xbeb8fda6	-0.36131018
85	0xbfb39023	-1.4028362
86	0xbf16e3b2	-0.58941185
87	0xbf5648be	-0.83704746
88	0xbee4155d	-0.4454755
89	0x3f082833	0.5318634
90	0x3f50aa06	0.81509435
91	0xbf94e251	-1.1631566
92	0xbf9f5268	-1.2447023
93	0xbfa415b3	-1.2819122
94	0xbd9605cf	-0.07325327
95	0xc038bcb4	-2.8865175
96	0xbe29587a	-0.16537657
97	0xbf269c65	-0.6508239
98	0xbd9411b0	-0.07229936
99	0xbfaae149	-1.3350002
100	0x3f42829d	0.7598055
101	0x3ea59dac	0.32346857
102	0x3f5c6a57	0.8609976
103	0xbf98db93	-1.1942009
104	0xbfb2b57a	-1.3961632
105	0xbff273ed	-1.8941628
106	0x3e85e9ab	0.26154837
107	0xc061d065	-3.5283444
108	0x3d4a6954	0.049416855
109	0xbefd2197	-0.4943969
110	0x3e6691ca	0.22516552
111	0xbf9ee6d5	-1.2414194
112	0x3f9baf2c	1.2162833
113	0x3ea350cf	0.3189759
114	0x3eda988c	0.4269451
115	0xbf3ca608	-0.73690844
116	0xbf78708d	-0.9704674
117	0xbfc428d5	-1.5324961
118	0x3ea01b43	0.312708
119	0xbfe0c807	-1.7561044
120	0x3d474658	0.04865107
121	0xbe18a598	-0.14906919
122	0x3e95cbcd	0.2925705
123	0xbf8cd3d4	-1.1002145
124	0x3f95507f	1.166519
125	0xbab7bed2	-0.0014018661
126	0x3e89f4b5	0.2694451
127	0xbeeb06a1	-0.45903495
128	0xbf5f8da4	-0.873255
129	0xbfab45be	-1.3380659
130	0x3e5c88c5	0.21536548
131	0xc00951cf	-2.1456182
132	0x3e01c56c	0.12672967
133	0xbda19850	-0.078903794
134	0x3eeada8a	0.45869857
135	0xbf329390	-0.6975641
136	0x3f099993	0.5374996
137	0xbefd4892	-0.4946943
138	0x3f43c0a6	0.76465833
139	0xbe0a7811	-0.13522364
140	0xbf4f0ad9	-0.8087593
141	0xbf8ff2db	-1.1245989
142	0x3ebac752	0.36480194
143	0xbfd80019	-1.687503
144	0x3e1bda55	0.15220006
145	0xbd9f00a4	-0.07763794
146	0x3ee2350c	0.44181097
147	0xbf018762	-0.505972
148	0x3ecca767	0.39971468
149	0xbf067db4	-0.5253556
150	0x3f350e77	0.70725197
151	0xbdbc0df0	-0.09182346
152	0xbf70fc62	-0.94135106
153	0xbf866597	-1.0499753
154	0x3ea6bb59	0.3256481
155	0xbfaf1213	-1.3677391
156	0x3da02da5	0.07821206
157	0xbd9fa01d	-0.07794211
158	0x3eaa5a46	0.33271998
159	0xbeff4a62	-0.49861437
160	0x3f11044c	0.5664718
161	0xbe4c2f18	-0.1993984
162	0x3efbf615	0.49211183
163	0xbe7ee70d	-0.24892826
164	0xbf06720b	-0.52517766
165	0xbf878335	-1.0586916
166	0x3e8d2c6a	0.27572948
167	0xbfce9ae4	-1.6141019
168	0x3dfba262	0.122868314
169	0xbdc8f93b	-0.09813162
170	0x3e8c727c	0.27431095
171	0xbf0142be	-0.50492465
172	0x3ee07c73	0.43844947
173	0xbe4547f3	-0.19265728
174	0x3f260c8d	0.648629
175	0xbd9b1a96	-0.0757343
176	0xbf11c9c8	-0.5694852
177	0xbf5d6714	-0.8648541
178	0x3f02546e	0.5091008
179	0xbf7dd316	-0.99150217
180	0x3de3c994	0.11122432
181	0x3d74774f	0.059684094
182	0x3e31f4ed	0.17378588
183	0xbf1df054	-0.61694837
184	0x3f06a5ba	0.5259663
185	0xbe252237	-0.16126333
186	0x3f001608	0.50033617
187	0x3d88aff3	0.06674185
188	0xbe6610d2	-0.22467354
189	0xbf1de52a	-0.616778
190	0x3f149e42	0.5805398
191	0xbf6577b7	-0.89635795
192	0x3d927adb	0.07152339
193	0x3cb695e4	0.02228827
194	0x3ec858da	0.39130288
195	0xbf0a0106	-0.5390781
196	0x3f3adfda	0.7299782
197	0xbead47d0	-0.3384385
198	0x3f2dd26e	0.67899215
199	0xbe77eb17	-0.24210773
200	0xbd050b35	-0.03248139
201	0xbf5d15c3	-0.8636133
202	0x3f488a94	0.78336453
203	0xbfafab61	-1.3724176
204	0x3da6de42	0.08147861
205	0x3c1386cd	0.009004307
206	0x3ed7335c	0.42031372
207	0xbeada7b0	-0.33916998
208	0x3eee308e	0.4652142
209	0xbef01d9d	-0.46897593
210	0x3f2e03ee	0.67974746
211	0xbe2e0855	-0.16995366
212	0xbed9f858	-0.42572284
213	0xbf722ccb	-0.945996
214	0x3f16b30c	0.58866954
215	0xbfae4d04	-1.3617253
216	0x3d36ab6b	0.04459707
217	0xbd6ee1db	-0.05832086
218	0x3ec87b88	0.39156747
219	0xbea4bcf5	-0.32175413
220	0x3ee6fbe9	0.45114067
221	0xbecf805b	-0.40527615
222	0x3f35a4de	0.7095469
223	0xbea26c40	-0.31723213
224	0xbec39f10	-0.38207293
225	0xbf83a746	-1.0285423
226	0x3f1e9c79	0.6195751
227	0xbfd0bfef	-1.6308573
228	0x3d8e90ed	0.06961236
229	0xbd805258	-0.06265706
230	0x3ee699c1	0.4503918
231	0xbe827bea	-0.25485164
232	0x3ee2a55e	0.4426679
233	0xbeeab622	-0.4584208
234	0x3f402b0e	0.75065696
235	0xbe9ccfd1	-0.306273
236	0xbe98c7d8	-0.2983997
237	0xbf849bd7	-1.0360059
238	0x3f10d3dd	0.5657328
239	0xbfd178d9	-1.6365005
240	0x3da94c3b	0.08266493
241	0xbc948d51	-0.018133791
242	0x3ec85790	0.39129305
243	0xbe5f730d	-0.21821232
244	0x3ecc4901	0.39899448
245	0xbed6cb44	-0.41951954
246	0x3f2f62bf	0.6851005
247	0xbe835fb5	-0.25658956
248	0xbee85fc3	-0.4538556
249	0xbf6b5ae5	-0.9193557
250	0x3f32ca2d	0.69839746
251	0xbfc3bf56	-1.5292766
252	0x3dbc9af4	0.092092425
253	0xbc00c1ca	-0.007858703
254	0x3ec918fa	0.39276868
255	0xbe3f334a	-0.18671909

right_hand_pose f4 [169, 12]
0	0x3df4b947	0.11949401
1	0x3d580778	0.052741498
2	0x3ee2f364	0.44326317
3	0xbee8d28a	-0.4547313
4	0x3f0fbfaa	0.5615183
5	0xbe382527	-0.17982922
6	0x3f3dfee8	0.7421708
7	0xbe0e7ae3	-0.13914065
8	0x3c0a1902	0.008428814
9	0xbf00a669	-0.5025392
10	0x3f6b97b7	0.92028373
11	0xbe8e51a1	-0.27796653
12	0x3db62a22	0.08894755
13	0x3c48424d	0.012222839
14	0x3eac1b9f	0.33614823
15	0xbea59e86	-0.32347506
16	0x3ec06f5e	0.37584966
17	0xbed23de8	-0.41062856
18	0x3efb7e8a	0.4911998
19	0x3e66c0f7	0.22534548
20	0x3d61f1d6	0.055162273
21	0xbeac444e	-0.33645862
22	0x3f531b0d	0.8246315
23	0xbefc6b3d	-0.49300566
24	0x3e2609b4	0.16214639
25	0xbd427599	-0.04747543
26	0x3ec10e48	0.37706208
27	0xbd3868bd	-0.04502176
28	0x3e5affb3	0.21386604
29	0xbf11d3ae	-0.5696362
30	0x3eb4c9cd	0.35310212
31	0x3efedc26	0.49777335
32	0xbecc55d9	-0.39909247
33	0xbde72481	-0.112862594
34	0x3f3e04f6	0.7422632
35	0xbcb28af9	-0.021794783
36	0x3e1e922f	0.15485452
37	0x3d34d3bb	0.044147234
38	0x3ea5319b	0.32264408
39	0xbd8c28ef	-0.06843745
40	0x3dcaf117	0.099092655
41	0xbef1b705	-0.47209945
42	0x3ef62ca0	0.4808092
43	0x3ef88e22	0.4854594
44	0xbf166b1c	-0.58757186
45	0xbe438296	-0.19092783
46	0x3f24c6ad	0.64365655
47	0xbd0ee15c	-0.03488289
48	0x3e207c8c	0.15672511
49	0x3d0707e7	0.03296652
50	0x3e4801d7	0.19531952
51	0xbd910a69	-0.07082064
52	0x3e477153	0.19476824
53	0xbe4f8b1d	-0.20267911
54	0x3e4622a8	0.19349158
55	0x3eff054b	0.49808726
56	0xbf4c696e	-0.7984837
57	0xbde3f612	-0.111309186
58	0x3eba6253	0.3640314
59	0xbc97668d	-0.018481517
60	0x3e2c2a45	0.16813
61	0x3dcfa174	0.101382166
62	0x3e71b643	0.23604684
63	0xbe0fd6c9	-0.14046778
64	0x3e3205dc	0.17385048
65	0xbea1ea10	-0.31623888
66	0x3ec74d6a	0.3892625
67	0x3ed23217	0.4105384
68	0xbf2d45b9	-0.67684513
69	0xbdc2f3fd	-0.09519193
70	0x3f4bfd64	0.7968352
71	0xbdb438fe	-0.08799933
72	0x3e1b5072	0.15167406
73	0x3d960911	0.07325948
74	0x3e527b87	0.20554934
75	0xbe2c88ae	-0.16849014
76	0x3d9c1168	0.076205075
77	0xbe5c9e8c	-0.21544856
78	0x3f01427d	0.5049208
79	0x3ebb33a3	0.36562833
80	0xbf0b4831	-0.5440703
81	0xbd9a7372	-0.07541551
82	0x3f79c726	0.975695
83	0xbde12b82	-0.109946266
84	0x3de10f6b	0.10989269
85	0x3e429151	0.19000746
86	0x3e4e7f38	0.20165718
87	0xbeb51849	-0.3537009
88	0x3e0e2d13	0.13884382
89	0xbddf0426	-0.10889463
90	0x3f36d645	0.714207
91	0x3e1ec224	0.15503746
92	0xbf3b161d	-0.7308062
93	0xbeb414b3	-0.35172042
94	0x3f39ca32	0.7257415
95	0xbeeb08ee	-0.4590525
96	0x3dcb2f92	0.09921183
97	0x3e68dd57	0.22740684
98	0x3e7fd965	0.24985273
99	0xbeeee6c2	-0.4666043
100	0x3eb2e3db	0.34939465
101	0xbe2a45b7	-0.16628157
102	0x3f25fdc6	0.6484035
103	0x3ca413e1	0.02002901
104	0xbf78157a	-0.9690777
105	0xbf1da84a	-0.61584914
106	0x3f22a86d	0.6353825
107	0xbf2cf6ea	-0.6756426
108	0x3d749e4a	0.05972127
109	0x3e93213f	0.28736302
110	0x3e85fc66	0.26169127
111	0xbeff75b0	-0.49894476
112	0x3e8fd7a5	0.2809421
113	0xbeb1b649	-0.34709385
114	0x3f396b63	0.72429484
115	0x3c9d39ef	0.019192664
116	0xbf2249ae	-0.63393676
117	0xbf236a52	-0.63834107
118	0x3f52f22b	0.8240077
119	0xbf57b39f	-0.84258455
120	0x3d009ee2	0.031401522
121	0x3e7a72a2	0.24457791
122	0x3e91a4a8	0.28445935
123	0xbf12405f	-0.5712947
124	0x3f0f1f9a	0.55907595
125	0xbe5ab225	-0.21357019
126	0x3f07fce4	0.53120255
127	0xbd9d8467	-0.07691269
128	0xbf0c4420	-0.5479145
129	0xbf4b047e	-0.7930373
130	0x3f0b89f9	0.54507405
131	0xbf6e4c5e	-0.9308528
132	0x3c396657	0.011315904
133	0x3df9479c	0.121718615
134	0x3e7227f7	0.23648058
135	0xbf1e7877	-0.61902565
136	0x3f3197e4	0.6937239
137	0xbc17550c	-0.009236585
138	0x3ec4a505	0.3840715
139	0xbd99e3fc	-0.07514188
140	0xbeac12bd	-0.33608046
141	0xbf33b0bc	-0.7019155
142	0x3ef440b4	0.47705615
143	0xbf5bcf77	-0.8586344
144	0x3d2aef10	0.041731894
145	0x3e1c58be	0.15268227
146	0x3d03bf67	0.032164957
147	0xbf373f42	-0.715809
148	0x3eb2c743	0.3491765
149	0x3d9e391a	0.07725735
150	0x3ee143d6	0.43997067
151	0x3e8fd3d2	0.28091294
152	0xbe96c7ed	-0.29449406
153	0xbe3b5e6a	-0.18297735
154	0x3f2c7d8f	0.6737909
155	0xbed42496	-0.41434163
156	0x3db04eda	0.0860879
157	0x3ea01f48	0.31273866
158	0x3e746bec	0.23869294
159	0xbf1a9d12	-0.6039592
160	0x3eb2a013	0.34887752
161	0xbeaa8e61	-0.3331175
162	0x3f0e03f7	0.554748
163	0x3e5daa13	0.2164691
164	0xbef2a857	-0.47394058
165	0xbefc4442	-0.49270827
166	0x3f3affbf	0.7304649
167	0xbf526fea	-0.8220202
168	0x3d6bfa40	0.057611704
169	0x3d6667a2	0.056251176
170	0x3e803468	0.25039983
171	0xbf2ff10f	-0.687272
172	0x3eece737	0.46270153
173	0xbe17e2c7	-0.14832602
174	0x3f2f4c2e	0.68475616
175	0x3ce7c956	0.028294247
176	0xbec101f9	-0.37696818
177	0xbf33cddf	-0.7023601
178	0x3f2b46f5	0.66905147
179	0xbf751f65	-0.9575103
180	0x3d997f0e	0.07494937
181	0x3e84b655	0.25920358
182	0x3e628a0b	0.22122972
183	0xbf721ed9	-0.9457832
184	0x3f4c265f	0.7974605
185	0xbeba8767	-0.3643143
186	0x3f31a43a	0.69391215
187	0xbc33d22c	-0.010975402
188	0xbf59d4eb	-0.8509051
189	0xbf96fae3	-1.1795315
190	0x3e694adc	0.22782463
191	0xbf897c32	-1.0741026
192	0x3d1b8782	0.037971027
193	0xbd904d47	-0.070459895
194	0x3d83f349	0.06442887
195	0xbf773e9d	-0.96579915
196	0x3f0c2db2	0.54757226
197	0x3e009e19	0.1256031
198	0x3f4266f0	0.7593832
199	0xbd449a13	-0.0479985
200	0xbf205e3c	-0.6264379
201	0xbf56146f	-0.8362493
202	0x3eaf49d0	0.34236002
203	0xbf7de87a	-0.99182856
204	0x3e13c378	0.14430034
205	0x3c80035c	0.015626602
206	0x3df522aa	0.11969502
207	0xbf408694	-0.7520535
208	0x3e626db6	0.22112164
209	0xbebd97e1	-0.37029937
210	0x3f4664c2	0.77497494
211	0x3ebdddd9	0.3708332
212	0xbeff102c	-0.49817026
213	0xbea058b3	-0.31317672
214	0x3f7302bc	0.9492605
215	0xbf5f4e45	-0.87228805
216	0x3dd95226	0.10611372
217	0x3cd9a6ea	0.026568849
218	0xbdab4b0f	-0.08363926
219	0xbf5f53cf	-0.87237257
220	0x3e22282d	0.15835638
221	0xbe137613	-0.1440051
222	0x3f2f8c13	0.6857311
223	0x3f0f0fd8	0.5588355
224	0xbf29cae7	-0.6632523
225	0xbeb2de0f	-0.34935042
226	0x3f27520e	0.6535958
227	0xbf6853d7	-0.9075293
228	0xbc2ede66	-0.010673141
229	0xbd1459d3	-0.036218476
230	0xbb2b81a2	-0.0026169796
231	0xbf835236	-1.0259464
232	0x3f373e5c	0.7157953
233	0xbcf96a5a	-0.03044622
234	0x3f0af059	0.5427299
235	0xbe219dcf	-0.15782855
236	0xbf368e5d	-0.7131098
237	0xbf929700	-1.1452332
238	0x3caec810	0.021335632
239	0xc00abe59	-2.167868
240	0x3d98f890	0.074692845
241	0x3d31ba95	0.04339083
242	0x3d756d61	0.059918765
243	0xbf2df5d2	-0.6795322
244	0x3eb27702	0.3485642
245	0xbd100fa7	-0.035171177
246	0x3ede8a2c	0.43464792
247	0x3d812d20	0.06307435
248	0xbe704aed	-0.23466082
249	0xbf03cadf	-0.5148143
250	0x3f481371	0.78154665
251	0xbfa0d6cf	-1.2565554
252	0x3dbd5fde	0.09246801
253	0x3e4d2466	0.20033416
254	0x3e963a69	0.29341438
255	0xbf0a5567	-0.54036564

jaw_pose f4 [169, 3]
0	0x3e6cb2fa	0.23115149
1	0x3bd262ec	0.006420484
2	0x3b2d77f3	0.00264692
3	0x3e1a6408	0.15077221
4	0xbc15e7ec	-0.009149533
5	0xbaf1f0d1	-0.001845861
6	0x3e04feed	0.12987871
7	0xbc02d105	-0.007984404
8	0xbb4b11a0	-0.0030985847
9	0x3d9b6a03	0.075885795
10	0xbc50f44f	-0.01275356
11	0xbb5628b5	-0.0032678072
12	0xbc36b550	-0.011151627
13	0xbbfdf937	-0.007750656
14	0xbab6f67c	-0.0013958956
15	0xbd39f5ec	-0.045400545
16	0xbbc82700	-0.006108165
17	0xba3ee8f0	-0.0007282635
18	0xbd408fc7	-0.047012117
19	0xbbec9f9a	-0.0072211744
20	0xbadd1fd4	-0.0016870447
21	0xbc0dcbe9	-0.008654573
22	0xbb47d6cc	-0.003049302
23	0xb98bd50f	-0.00026670887
24	0x3c5813f5	0.013188352
25	0x39566b28	0.00020448549
26	0x39add97c	0.0003315917
27	0xbc47e9be	-0.012201725
28	0xbb216ac3	-0.0024630285
29	0xb912bf8c	-0.00013995002
30	0xbcb1c9f0	-0.021702737
31	0xbb872270	-0.0041239783
32	0xb9fb9db6	-0.00047991954
33	0xbc7ffff8	-0.015624993
34	0xba6b19bd	-0.0008968374
35	0x393f2ff6	0.00018233046
36	0x3c696021	0.01424411
37	0xbbabb845	-0.0052404725
38	0xbabb0da7	-0.0014271036
39	0x3c5567b4	0.013025213
40	0xba8e1433	-0.001083976
41	0x39c477fd	0.0003747343
42	0x3c989812	0.0186272
43	0xbb4a6089	-0.0030880293
44	0xb9d4d762	-0.00040596264
45	0x3c12d945	0.008962934
46	0xbb74b189	-0.0037337265
47	0xb9315417	-0.00016911361
48	0x3c47fcba	0.012206251
49	0xbaa1561b	-0.0012308987
50	0xb9880ced	-0.00025949572
51	0x3ca65d91	0.020308288
52	0xbbbcd5ed	-0.0057628066
53	0xbadb8b4c	-0.0016749888
54	0x3cf7dc25	0.03025634
55	0xbb529a95	-0.0032135595
56	0xba262961	-0.00063385634
57	0x3d1a492d	0.037667442
58	0xbbcafedb	-0.006194932
59	0xbae80689	-0.0017702143
60	0x3d22705d	0.03965794
61	0xbbe4891b	-0.006974352
62	0xbac69e61	-0.0015153402
63	0x3d07e519	0.03317747
64	0xbbe8efbb	-0.007108656
65	0xba806a49	-0.00097973
66	0x3d30699d	0.04306947
67	0xbb9d9f94	-0.004810283
68	0xba5794a2	-0.0008223747
69	0x3d3055ca	0.043050565
70	0xbbcb567a	-0.006205377
71	0xba673d38	-0.0008821073
72	0x3d07256f	0.032994684
73	0xbba695fd	-0.005083798
74	0xba36a281	-0.0006966964
75	0x3cc7d19d	0.024391944
76	0xbc05f4e4	-0.008176062
77	0xbb0801f4	-0.0020753117
78	0x3d0304df	0.031987067
79	0xbc03cdd1	-0.008044676
80	0xbb32604a	-0.0027218037
81	0x3cd54825	0.026035378
82	0xbbea5bcb	-0.007152056
83	0xbaabb8d1	-0.0013101344
84	0x3d2b274e	0.04178553
85	0xbbad8d92	-0.0052964175
86	0xba21f91a	-0.00061787816
87	0x3d275b56	0.04085859
88	0xbc012793	-0.00788297
89	0xbb12041e	-0.0022280286
90	0x3d06efa0	0.032943368
91	0xbc00bad3	-0.007857042
92	0xbb1ecad7	-0.0024229789
93	0x3d2a1bb9	0.041530345
94	0xbbf39f39	-0.0074347523
95	0xbae48163	-0.001743358
96	0x3d07ce8a	0.033155955
97	0xbbbdee31	-0.005796217
98	0xba742c96	-0.0009314505
99	0x3ce118a0	0.027477562
100	0xbbde879c	-0.0067910682
101	0xbab7502c	-0.0013985685
102	0x3d3a3bac	0.045467064
103	0xbc0b03db	-0.008484806
104	0xbb4ac267	-0.0030938627
105	0x3d1366e9	0.035986815
106	0xbba95b0d	-0.005168325
107	0xbae46d95	-0.0017427678
108	0x3cdb71e1	0.0267877
109	0xbbd2e531	-0.006436013
110	0xba946fa5	-0.0011324777
111	0x3d161457	0.03664049
112	0xbb857aba	-0.004073468
113	0xbaabac94	-0.0013097697
114	0x3d1d88bc	0.03846048
115	0xbbef7528	-0.0073076673
116	0xbb29e2eb	-0.0025922607
117	0x3d61cbc3	0.055125963
118	0xbc119dde	-0.008887736
119	0xbb450555	-0.0030062993
120	0x3cfabc3a	0.030607332
121	0xbbba91ee	-0.0056936657
122	0xbaf02d4d	-0.0018324048
123	0x3d0c82fc	0.034304604
124	0xbbcaa19b	-0.0061838157
125	0xba8a2d84	-0.0010542129
126	0x3d208b1a	0.039195158
127	0xbc205173	-0.009785044
128	0xbb434a1d	-0.0029798814
129	0x3d38986a	0.04506723
130	0xbc0a4171	-0.008438454
131	0xbb47f9ab	-0.0030513804
132	0x3d53d714	0.051718786
133	0xbbdc2a2e	-0.0067188954
134	0xbaa14e4c	-0.001230666
135	0x3d1c5cf5	0.03817459
136	0xbc0a198d	-0.008428943
137	0xbb2d638b	-0.0026457037
138	0x3d009eeb	0.031401556
139	0xbc2ec9f2	-0.010668265
140	0xbb5f7d54	-0.00341018
141	0x3ce9d165	0.02854223
142	0xbc0884c7	-0.008332438
143	0xbb227e95	-0.0024794687
144	0x3c811aea	0.015759904
145	0xbc02ad96	-0.007975956
146	0xbb2fc8c9	-0.0026822558
147	0x3cc8fdaf	0.024535028
148	0xbbeb7d49	-0.007186566
149	0xbab4ce2b	-0.0013794353
150	0x3cebbca9	0.028776484
151	0xbbb8059b	-0.0056159026
152	0xbad025db	-0.0015880422
153	0x3ca2f244	0.019890912
154	0xbba3e350	-0.005001463
155	0xba97d059	-0.0011582478
156	0x3c077fd7	0.0082702255
157	0xbbdb57ef	-0.006693832
158	0xbaec7a78	-0.001804187
159	0x3c8aa1b7	0.016922815
160	0xbc066556	-0.008202871
161	0xbb285ee6	-0.002569133
162	0x3c8625ce	0.016375449
163	0xbc0806d5	-0.00830241
164	0xbb37b503	-0.0028031475
165	0x3cd538d6	0.026028078
166	0xbc00cc08	-0.007861145
167	0xbb3af31f	-0.002852626
168	0x3cf17808	0.02947618
169	0xbc0dc908	-0.008653887
170	0xbb433573	-0.0029786497
171	0x3cadffb3	0.021240091
172	0xbbe7a834	-0.007069612
173	0xba9e195b	-0.0012062
174	0x3c72974c	0.01480658
175	0xbc014ab9	-0.00789135
176	0xbb252593	-0.0025199398
177	0x3cb1c97d	0.021702522
178	0xbbf5b9d9	-0.0074989614
179	0xbaf8ab71	-0.0018971992
180	0x3c9847a2	0.018588845
181	0xbbc562d7	-0.0060237455
182	0xba948e31	-0.001133388
183	0x3c2b3e25	0.010451828
184	0xbbd87d74	-0.006606752
185	0xba904438	-0.0011006659
186	0x3c268d7a	0.010165567
187	0xbadf6b96	-0.0017045613
188	0xba06b15f	-0.00051381247
189	0x3c821525	0.015879223
190	0xbb34b1b4	-0.002757174
191	0xba1af1af	-0.00059106475
192	0x3c920ea9	0.017829256
193	0x3a765e5c	0.0009398216
194	0xb8700434	-5.7224373e-05
195	0xbabac06c	-0.001424802
196	0x3af70570	0.0018846225
197	0x395e991e	0.0002122861
198	0x3d0cb5c5	0.034353036
199	0x3b898fbf	0.004198044
200	0x3a2bca4e	0.0006553278
201	0x3d06520a	0.032793082
202	0x3b547e47	0.00324239
203	0x3a238fe2	0.0006239397
204	0x3ce50392	0.027955804
205	0x3b02075e	0.0019840817
206	0x39994c6e	0.0002923938
207	0x3ca1b995	0.019741813
208	0x3b62c818	0.0034604128
209	0x3a638f15	0.00086806837
210	0x3cf6b5ef	0.03011605
211	0x3b78ac12	0.0037944359
212	0x3a517c28	0.0007991218
213	0x3d2a2f78	0.041549176
214	0x3b653cc6	0.003497885
215	0x3a3ddc37	0.00072425924
216	0x3d178ba6	0.036998414
217	0x3b265d8f	0.0025385355
218	0x3a12220d	0.0005574532
219	0x3d041675	0.03224798
220	0xba8230dc	-0.0009932774
221	0xba054e83	-0.00050852465
222	0x3c2bfdf2	0.010497557
223	0x39e606d6	0.00043874112
224	0xb8a5070c	-7.869126e-05
225	0x3cb035a6	0.021509957
226	0x3b60ec4e	0.0034320536
227	0x396d1657	0.00022610404
228	0x3cd35e23	0.025801724
229	0x3b83909d	0.004015042
230	0x39ef9aec	0.00045701058
231	0x3cc375b3	0.023859834
232	0x3b0ac09c	0.0021171933
233	0x38ac9123	8.228633e-05
234	0x3c581bc6	0.013190215
235	0xb9d3ca1c	-0.0004039564
236	0xb9ece713	-0.0004518559
237	0x3cc9679d	0.02458554
238	0x3b1cadef	0.0023907383
239	0x3a07c32e	0.00051789253
240	0x3cdfbb35	0.027310947
241	0x39ff1f9d	0.00048660944
242	0xb9375c1c	-0.00017486553
243	0x3be4b769	0.006979872
244	0x3ae63f28	0.001756643
245	0x3987ec00	0.0002592504
246	0x3c03b202	0.008038046
247	0x3b8455b3	0.0040385365
248	0x3a12b709	0.00055967324
249	0x3cb528ec	0.02211424
250	0x3b8c628c	0.0042842086
251	0x3a3352b0	0.00068406295
252	0x3ce3ce7c	0.02780842
253	0x3bace798	0.0052766316
254	0x3a540e02	0.00080892455
255	0x3d05173b	0.032492857
