test_dataset/gait_700/20250820_c1_a3_Take1/split_subjects/0/fit-smplx/smplx-params_cut.npz (npz, 66954 bytes, 10 tensors)

betas f4 [132, 10]
00000000: 2c37 fabf bbb8 57bf 50a9 e2be 6ae8 fabe
00000010: 028b 46bf 33f9 cdbd ddf0 8cbe acd7 b53f
00000020: e601 88be 0394 913d fbab f8bf d51d 5fbf
00000030: b677 d5be 369b 00bf f9b9 50bf b444 0dbe
00000040: 95d9 8ebe 84b1 bf3f 94c2 9fbe 7e5a 563d
00000050: 0946 f6bf 5d85 54bf ae58 debe 6931 f8be
00000060: 891e 50bf 07d2 55be ebe5 7abe 8953 bc3f
00000070: 8ba9 52be 4dbe b63d d0a3 f2bf 3a6f 51bf
00000080: 4402 febe 6231 bfbe cf07 2abf 641e 3dbe
00000090: 92b4 88be d25f ac3f 5961 7dbe 334e e73c
000000a0: e9db f3bf 3a90 49bf b7c6 06bf 0b71 9cbe
000000b0: 67a4 31bf 379d 11be ec3f 96be dec8 763f
000000c0: 3738 92be 05b9 5d3a da3c eebf 5ff1 45bf
000000d0: 1733 11bf 37d0 a0be bac8 3abf f32a e2bd
000000e0: b767 a4be b032 623f 57f3 8fbe 5d89 1a3d
000000f0: 83c9 efbf f67b 3bbf a664 08bf 3c19 aebe
00000100: 88f1 39bf f92b 28be 6855 b6be f313 583f
00000110: 2082 5fbe b60e 0f3d 6881 efbf c50d 35bf
00000120: df12 06bf cb25 d9be d1aa 37bf 045f 38be
00000130: e3ec b5be 3ff3 553f 45ab 2ebe 0aee a83d
00000140: 657b efbf 945e 4cbf be21 ccbe 3d00 bebe
00000150: c3c3 5abf 1020 5cbe ad50 c5be 31cc 603f
00000160: f50f 6ebe 197b 463d 8e06 ecbf 7f26 3cbf
00000170: ded4 edbe 3265 edbe fb56 61bf b481 87be
00000180: d8e3 9dbe 2c4f 693f ad5d 48be 6216 7f3d
00000190: e389 e7bf 442f 42bf 2201 e6be 80f8 f1be
000001a0: e5e5 71bf 4cb5 85be 4a51 d0be 2379 6e3f
000001b0: 22f9 2dbe 1eb9 3d3d 44d9 e7bf 2e6c 4cbf
000001c0: 44b4 d5be dc65 e8be bfca 7fbf 6f3a 90be
000001d0: f9f9 e2be e36f 723f 2089 46be 62da 673d
000001e0: f359 e8bf 9e38 54bf 0e70 c1be 891d d1be
000001f0: 66a8 79bf cbcc 8fbe c829 ffbe db46 6e3f
00000200: c1fe 51be 3ceb c63c 65dd e2bf 75cf 62bf
00000210: ac9b bbbe 9cc2 b7be 9897 81bf 1fec 89be
00000220: 5791 cebe e20d 743f e972 8cbe 1c15 303d
00000230: ff0c e6bf 111e 62bf 0c1f b0be 7154 d5be
00000240: d3c7 74bf 0d92 9ebe dcc8 03bf b75a 773f
00000250: 3e33 7abe 0d54 153d 9e09 e7bf 070a 74bf
00000260: 25a6 a0be 8b2b bbbe e6da 6abf 3789 8dbe
00000270: f046 f8be 75f9 833f eb76 a4be b9c1 5d3c
00000280: a7d4 e4bf e55a 7dbf 7806 9bbe ad01 9abe
00000290: 90ac 78bf b151 79be 2852 05bf 36dd 803f
000002a0: fef8 9fbe 263b 833c 681d e2bf cc76 7bbf
000002b0: 5e52 adbe 4f3e 86be b287 7cbf 8d7d 3ebe
000002c0: 9c05 11bf 15bc 673f aefb acbe adea 853c
000002d0: cbae e1bf 6a5f 71bf 1925 c5be 9e8a 90be
000002e0: 6bf1 7dbf 337e 34be 7615 0dbf 7c91 593f
000002f0: e427 adbe d2cb 4b3d b78f e3bf 613e 66bf
00000300: 34bc d1be a77b 95be 0999 7cbf 1f1b 2bbe
00000310: d079 01bf 8852 503f 6776 aabe eb21 383d
00000320: 70c0 e3bf c5de 64bf d257 dfbe b5aa 8abe
00000330: 5b77 73bf 4100 1dbe 8b73 efbe 9758 5e3f
00000340: c23e aabe 3011 593d 00f4 e3bf 2a4f 59bf
00000350: 9eb1 e8be 6e92 92be 99f8 6cbf f577 20be
00000360: e993 e8be 7339 4f3f b95a b1be baf3 6d3d
00000370: 4d07 e8bf acaf 5bbf 066a cebe 1400 89be
00000380: 3b1a 70bf a438 2dbe f83a f4be 7eb1 533f
00000390: 002f b1be f378 9e3d e275 e8bf 7dea 57bf
000003a0: 77d5 c7be eaec 8fbe f7a9 6fbf ea25 30be
000003b0: 489b ffbe 8321 563f a6f0 abbe c0d9 b23d
000003c0: 37b7 e4bf 5d47 52bf 40b9 f8be a08c 7dbe
000003d0: d787 6dbf ae09 09be e9a9 0ebf 6075 4f3f
000003e0: 84c5 aebe 843e 9b3d a2e8 e5bf 3edc 5abf
000003f0: 917d f3be b11f 70be e6ea 74bf b2a1 29be
-1.9548087 -0.8426625 -0.442698 -0.49005443 -0.7755586 -0.100572966 -0.27527514 1.4206443
-0.26563948 0.07108309 -1.9427484 -0.87154895 -0.41692895 -0.50236833 -0.8153377 -0.1379574
-0.27900377 1.4976048 -0.3120314 0.052332394 -1.9240123 -0.83015996 -0.43427032 -0.48475197
-0.8129659 -0.208809 -0.24501769 1.4712993 -0.20572488 0.08923016 -1.8956242 -0.81810343
-0.49611104 -0.37342364 -0.66418165 -0.18468624 -0.26700264 1.3466742 -0.24744166 0.02823553
-1.9051486 -0.787357 -0.52646965 -0.30554995 -0.69391483 -0.14220129 -0.29345644 0.9640025
-0.28558514 0.0008458051 -1.861232 -0.7732143 -0.5671858 -0.31408855 -0.72962534 -0.11043348
-0.32110378 0.88358593 -0.2811534 0.037728656 -1.8733371 -0.73236024 -0.5327858 -0.34003627
-0.7263417 -0.16423024 -0.35612035 0.8440544 -0.21826982 0.03492614 -1.8711367 -0.70724136
-0.52372545 -0.42411646 -0.7174502 -0.18004996 -0.35532293 0.8357429 -0.17057522 0.08248527
-1.8709532 -0.79831815 -0.39869493 -0.37109557 -0.8545496 -0.21496606 -0.38538113 0.8781157
-0.23248275 0.04845724 -1.84395 -0.7349624 -0.46451467 -0.46366268 -0.88023347 -0.26466143
-0.30837893 0.9113643 -0.19566984 0.062277205 -1.8088955 -0.7585337 -0.4492274 -0.47259903
-0.94491416 -0.2611488 -0.4068702 0.9315359 -0.16989568 0.04631912 -1.8113179 -0.7985257
-0.41739094 -0.45390213 -0.9991874 -0.2816958 -0.4433134 0.94701976 -0.19388247 0.05660475
-1.815245 -0.8289889 -0.37780803 -0.40842846 -0.9752258 -0.28085932 -0.49836564 0.93076867
-0.20507337 0.02428209 -1.7723814 -0.88597804 -0.36642206 -0.35890663 -1.0124388 -0.2693796
-0.4034526 0.95333683 -0.2743142 0.04298888 -1.7972716 -0.8832713 -0.34398687 -0.41665986
-0.9561741 -0.30970803 -0.5147836 0.96622795 -0.2443361 0.03645711 -1.804981 -0.953278
-0.31376758 -0.36556658 -0.9174026 -0.2764375 -0.4849162 1.0310503 -0.32121977 0.013534957
-1.7877396 -0.9896682 -0.30278373 -0.30079404 -0.9713831 -0.24347569 -0.52078485 1.0067508
-0.31244653 0.016019415 -1.7665224 -0.98228145 -0.33851904 -0.26219413 -0.98644555 -0.18602581
-0.56649184 0.90521365 -0.33785766 0.016347254 -1.7631468 -0.94286215 -0.38504866 -0.28230757
-0.991965 -0.17626266 -0.5511087 0.84987617 -0.33819497 0.049754925 -1.7778233 -0.8993893
-0.409639 -0.29195902 -0.98671013 -0.16709565 -0.50576496 0.8137593 -0.3329346 0.04495422
-1.7793102 -0.8940242 -0.4362169 -0.27083364 -0.95103997 -0.15332128 -0.4676784 0.8685393
-0.33251005 0.052994907 -1.7808838 -0.8488642 -0.4544801 -0.28627342 -0.9256683 -0.1567076
-0.45425346 0.80947036 -0.34639528 0.058093764 -1.8127228 -0.8581493 -0.40315264 -0.26757872
-0.93790025 -0.16916138 -0.4770124 0.82692707 -0.3460617 0.07737913 -1.8160975 -0.84342176
-0.39030048 -0.2811044 -0.9361872 -0.17201963 -0.49923158 0.83644885 -0.33582038 0.08732939
-1.7868413 -0.8214014 -0.48578835 -0.24760675 -0.927854 -0.13382599 -0.5572801 0.81038475
-0.34135067 0.07580283 -1.7961619 -0.8549231 -0.47556737 -0.2344959 -0.95670927 -0.16565588

global_orient f4 [132, 3]
00000000: 5f7f 0ebc 9317 20c0 ba97 f9bd 82cf 7abc
00000010: f601 1dc0 4fb0 e3bd 4c60 6fbc 34f0 1bc0
00000020: 9972 f4bd 017c 07bd b1a6 1bc0 d5db 06be
00000030: 6199 33bd 41d4 1dc0 31a6 22be 0954 38bd
00000040: dbf3 1dc0 bd16 22be 7778 42bd 2d5f 1dc0
00000050: 8960 1cbe d363 1abd 8a4c 1dc0 f71c 21be
00000060: f189 b0bc 730f 1dc0 3891 20be f12e b139
00000070: 5301 1ec0 8d19 20be afa9 eb3b cced 1ec0
00000080: e9fe 1abe 29ae 513c d10b 20c0 2c8a 17be
00000090: 6f7b 553c 22f6 20c0 c84a 11be a39f 573c
000000a0: a782 22c0 0a0e 14be c59f 863c c514 24c0
000000b0: 4e02 18be 701a 513c 3aeb 24c0 623b 25be
000000c0: 70ea 573c a3fc 25c0 15ba 27be 56bd d73b
000000d0: 2af0 25c0 0e13 2bbe 12d8 183c 9c3c 27c0
000000e0: 5352 31be b65a c839 21b6 27c0 7f6a 35be
000000f0: d0c2 acbb 9f9c 29c0 8e38 38be 2bce 00bc
00000100: 9835 2bc0 b2da 38be 7a2e 52bc c424 2cc0
00000110: f2e9 36be 3488 a9bc 8b47 2cc0 4e73 30be
00000120: 1f3a 02bd 04a7 2bc0 c8f7 3bbe 9809 45bd
00000130: c745 2bc0 a531 40be 7715 88bd b03e 2bc0
00000140: 65ec 4bbe 8f79 96bd defc 29c0 9b35 53be
00000150: 082a 83bd d57d 29c0 3872 58be c747 09bd
00000160: b49c 29c0 fb3e 5fbe 6f0d bfbc e5c3 28c0
00000170: 6546 5cbe a62a 75bc 6969 27c0 8b61 60be
00000180: 12ea 9eb9 74ef 25c0 c27a 5dbe 48bc 9d3b
00000190: b960 25c0 78f6 58be bba4 333b 3e60 25c0
000001a0: 9315 51be 28bb 59bc 78b2 25c0 1a3b 4abe
000001b0: 8990 f8bc 6abc 26c0 f497 44be d0d2 06bd
000001c0: 87e0 27c0 e05d 39be 684e 0cbd fe10 29c0
000001d0: 4d98 34be b222 15bd 8479 29c0 78be 29be
000001e0: 7b06 32bd b70c 2bc0 2c4c 1cbe a743 2ebd
000001f0: fc07 2cc0 f28a 1fbe 10a4 11bd d132 2ec0
00000200: c790 29be 6bd0 c4bc 5161 30c0 54a7 2bbe
00000210: 5590 86bc 3cc9 33c0 4d50 25be 3aeb 65bc
00000220: da21 38c0 94c9 17be 0972 6cbb 8832 3cc0
00000230: 6c56 18be bf45 1b3c 74e7 40c0 b3df 19be
00000240: a824 203c 6d88 46c0 ae99 1fbe 2b8a 053c
00000250: 347e 4cc0 142c 26be 16b6 ff3b 4059 52c0
00000260: a8af 2abe 2885 153c aeba 57c0 6c0e 2fbe
00000270: 2d13 7d3a ab1b 5dc0 da35 3ebe 4985 a6bb
00000280: e4f3 62c0 2724 53be 068b 17bc e21e 68c0
00000290: 62cd 63be c002 8b3a 4888 6dc0 19c4 67be
000002a0: 99fc f93b 9070 72c0 3b3f 69be cbfc f13c
000002b0: 7520 77c0 9c58 57be 74f9 263d 2bb0 7bc0
000002c0: def6 49be 7432 3d3d ffc2 7ec0 c6f1 3cbe
000002d0: a188 593d e77b 80c0 bebf 29be 47a3 383d
000002e0: 5ab6 81c0 e269 0bbe a0a0 453d 8d53 83c0
000002f0: 8f8c c5bd e103 3b3d 8b4d 85c0 48e8 94bd
00000300: 103d 8d3d 8b53 87c0 2e23 3abd c549 bd3d
00000310: bb49 89c0 176f 09bd 346a d63d 8f19 8cc0
00000320: ce0b 6dbb 9040 ed3d d938 8ec0 8700 a53c
00000330: a233 0d3e ba6b 90c0 723e 6d3d d6dd 223e
00000340: 34f1 92c0 76c4 e13d 892d 223e 44f3 94c0
00000350: 4c75 143e f481 243e f54c 96c0 534a 303e
00000360: fb67 283e 0a77 97c0 1263 3a3e a6fd 2d3e
00000370: fe4c 98c0 6f6a 3e3e 8775 2c3e 7eec 98c0
00000380: 9398 393e 37e4 2f3e a746 99c0 f17a 433e
00000390: 7354 1f3e 4fa7 99c0 0560 2c3e 1478 113e
000003a0: f695 99c0 8553 123e afa7 0a3e cbad 99c0
000003b0: eeb0 f03d d4c3 fe3d 7bc5 99c0 e780 bd3d
000003c0: dae6 f83d e61f 9ac0 7662 9c3d 5b35 003e
000003d0: 96ca 9ac0 dc9c 8b3d e1df 0c3e 92f8 9bc0
000003e0: fce7 863d 7d74 193e e77f 9dc0 a10a 6e3d
000003f0: 052f 1d3e ea8c 9fc0 503b 563d 36c3 223e
-0.00869736 -2.5014389 -0.12187143 -0.015308263 -2.4532447 -0.111176126 -0.014610361 -2.4365358
-0.1193592 -0.033077244 -2.432049 -0.13169797 -0.043847445 -2.46608 -0.1588371 -0.045002017
-2.4680088 -0.15828986 -0.047478165 -2.458934 -0.152712 -0.037692856 -2.4577966 -0.15733705
-0.02155015 -2.454068 -0.15680397 0.00033795045 -2.4688308 -0.15634747 0.0071918587 -2.483264
-0.15136303 0.012797871 -2.5007212 -0.14798802 0.013029917 -2.5150228 -0.14188683 0.013160619
-2.5392244 -0.1445848 0.016433606 -2.5637677 -0.14844629 0.012762651 -2.576857 -0.16135934
0.013178453 -2.5935447 -0.16379578 0.00658385 -2.5927835 -0.16706488 0.009328859 -2.6130743
-0.1731656 0.00038214558 -2.6204913 -0.17716406 -0.005272247 -2.6501844 -0.17990324 -0.007861654
-2.675146 -0.18052176 -0.012828464 -2.689744 -0.1786268 -0.02069483 -2.6918666 -0.17231485
-0.03179371 -2.6820688 -0.1835624 -0.048104852 -2.6761339 -0.18768938 -0.06644719 -2.6757011
-0.19914396 -0.07347404 -2.6560588 -0.20625918 -0.06404501 -2.6483052 -0.21137321 -0.033515718
-2.6501894 -0.21801369 -0.023321835 -2.6369565 -0.21511228 -0.014963781 -2.6158087 -0.2191221
-0.00030310504 -2.59274 -0.2162886 0.0048137046 -2.5840285 -0.2118777 0.002741142 -2.5839992
-0.20418386 -0.01328925 -2.5890179 -0.19749108 -0.030342357 -2.60525 -0.1919859 -0.03291589
-2.623079 -0.18102217 -0.03425446 -2.6416621 -0.17636223 -0.03641004 -2.6480417 -0.16576564
-0.04346321 -2.672651 -0.15263432 -0.042544987 -2.6879873 -0.15580347 -0.035556853 -2.7218516
-0.16559134 -0.024025163 -2.7559397 -0.1676305 -0.016426245 -2.8091574 -0.16143914 -0.014033133
-2.8770661 -0.1482299 -0.0036078712 -2.9405842 -0.14876717 0.009477078 -3.0141268 -0.1502674
0.0097743645 -3.1020768 -0.15585968 0.008150618 -3.1952028 -0.16227752 0.0078036888 -3.2866974
-0.1666857 0.009125985 -3.370769 -0.17095345 0.00096540415 -3.4548137 -0.1857523 -0.005081807
-3.546136 -0.2061926 -0.009249454 -3.626885 -0.22246316 0.0010605678 -3.711443 -0.22633399
0.007628989 -3.7881203 -0.22778027 0.029539486 -3.861356 -0.21029896 0.04076524 -3.9326274
-0.19723079 0.046190694 -3.9806516 -0.18451604 0.053108815 -4.015125 -0.1657705 0.04507759
-4.0535097 -0.1361461 0.048248887 -4.103949 -0.0964595 0.045657996 -4.1657157 -0.07270867
0.068964124 -4.228948 -0.045443706 0.09242586 -4.2902503 -0.03355321 0.104694754 -4.37812
-0.0036170366 0.1158458 -4.4444394 0.020141853 0.13789228 -4.51315 0.05792088 0.15904936
-4.5919437 0.110238 0.15837683 -4.6546955 0.1449787 0.16065198 -4.696894 0.17215852
0.16445915 -4.733281 0.18201855 0.1699129 -4.7593985 0.18595289 0.16841708 -4.7788687
0.18124609 0.17176901 -4.7898746 0.19089867 0.15559559 -4.8016734 0.16833504 0.14205962
-4.799556 0.14289673 0.13540529 -4.802465 0.11752497 0.12439695 -4.8053565 0.09253102
0.121534064 -4.816394 0.076359674 0.12520353 -4.8372297 0.06817028 0.13757278 -4.874093
0.06587216 0.14985843 -4.921863 0.058115605 0.15349968 -4.9859514 0.05230266 0.1589478

body_pose f4 [132, 63]
00000000: e4a8 04be 047a 543d 09af fcbd 4af4 00bf
00000010: 379f 91bc 20d3 dbbd 6903 043e 26ff 35be
00000020: 45c4 983c ffee f33e 738e 16be cf06 763e
00000030: fe44 193f f768 29bd 668d b33c 338a 8c3c
00000040: e308 c7bd eec2 dbbc b3fb 97be 52d6 70be
00000050: 0de1 36be 5537 f1ba 1572 30be e5d4 d23d
00000060: f868 103e a615 c2bd 38c3 353d 2609 8037
00000070: ea9b 7c37 a3b8 8137 9f65 90b7 7d00 8737
00000080: 5a15 8437 7dae 943e fc8f b3bb 9795 f0bc
00000090: 2a53 583a 34ec 15be 2f4c a5be 183e 233d
000000a0: 8256 923d d9ed d13e 1c06 51bc 8144 b73d
000000b0: 52ff be3c cdff 20bb 4802 41be 3fc4 4fbf
000000c0: 09d1 b73c 007e 143e 0b91 413f bd56 153b
000000d0: db28 12bf a94d c9bc 35a2 b5bc d12b c93e
000000e0: be6c 063e 89b7 8a3d 8142 803d 7ab4 213e
000000f0: 1fc5 953d a70b e7bd a901 01be 3fc9 9abd
00000100: 952b 1a3d e08d fbbd 3f37 eebe 040b f6bc
00000110: 459c 15be 8334 f73d dc2e 4abe 9b8b 103a
00000120: 38fc c73e cfc4 20be a45c 6a3e cf06 db3e
00000130: e609 ae3c 916f d73c 99b6 a63c 2074 dabd
00000140: e323 98bc dd4c abbe 9168 6cbe 6337 25be
00000150: 6885 bdbc b95a 32be 8a03 3e3d 1ea3 0a3e
00000160: 24d7 c9bd 703b 593d 1ace 7f37 1450 7637
00000170: a322 8337 0f9d 8ab7 1fa4 7f37 5a90 8437
00000180: 4cfa 953e 076a 57bc 5a5e fcbc 1d70 11bb
00000190: e1ac 1ebe 3c60 a4be fc5e 493d 3140 7e3d
000001a0: a06f cc3e f5a1 393c 2a94 993d 1b06 1e3d
000001b0: df6b e63b 2b2e 51be 4afe 4abf 2a83 fd3c
000001c0: 5ebc 123e b7f0 413f 3bc4 873b 2122 1bbf
000001d0: 572f 55bd 011f d13b 3bd3 d13e 86ee f93d
000001e0: 5949 973d 9c94 e73d 9192 363e c9ea f63d
000001f0: 7086 38be ba2a 91bd 6697 8f3b 3cc5 f93c
00000200: 1129 83bd a636 e3be 2771 ffbc fb66 07be
00000210: a9e1 003e 7b85 5bbe af3e 93bc e7b7 b43e
00000220: c774 2ebe b406 2f3e bc47 ab3e 58b7 2d3d
00000230: 5e51 893b 55d6 c83c ea74 d1bd 4256 0b3c
00000240: 5557 b7be 727e 49be 5b8c 12be d6e8 1dbd
00000250: bed7 3bbe 172d c63c ce81 073e 1e40 c3bd
00000260: db51 2b3d b84c 7e37 e7f5 7737 3f59 8337
00000270: 88f6 86b7 9b22 80b7 cac6 8337 d3ee 983e
00000280: 06fb 7fbb 1c1f d8bc d6ce 47bc 6f0a 19be
00000290: ac0d adbe 6586 3c3d 6320 613d 1e82 d03e
000002a0: d821 78bc 7961 b33d c179 fc3c 1aa5 5b3c
000002b0: 100b 65be 2e9c 43bf 1b95 9f3b 4388 0b3e
000002c0: a782 433f ddce 9d3c 12cf 11bf 6875 6ebd
000002d0: 9e11 24bc 927b b53e 3360 ef3d 71bf b13d
000002e0: 309b 593d c120 333e 2160 bd3d b755 31be
000002f0: 3867 93bd f2fa 093e 441b 0fbf b321 9cbd
00000300: 4ed2 d9be f0e6 6ebc 1caa 06be 9d84 fa3d
00000310: 4c2f 59be 61ee 2fbd c229 713e 146b dbba
00000320: afe5 b5ba e7fa 8e3e bc11 713c 10f0 2cbc
00000330: 5641 053d 3898 c3bd 4f63 7c3a 1216 bfbe
00000340: aabc 313e 2996 1f3e 6522 d1bb 9b10 31be
00000350: c135 c23d fc1b 073e f0d2 b5bd daa8 343d
00000360: 8d18 8337 30e4 7d37 882a 8237 7cfb 7137
00000370: 70e3 7cb7 1ccb 8137 84d4 a23e 2407 adbb
00000380: a32b 7e3a dea7 80bc 8051 19be d649 a3be
00000390: 8b56 533d a49b 353d ec1d c13e 939e 83bc
000003a0: 06d4 8b3d 61b7 b03c 9b6a 113c 17f2 67be
000003b0: d7cb 45bf 44cc 793b f86b fa3d 08f4 503f
000003c0: b5aa ca3c 00aa 10bf 4fb9 6dbd 2865 bbbc
000003d0: a4ae a03e 3cc3 e43d c8e6 9b3d a4b4 793d
000003e0: 8b45 0d3e ba16 7f3d b199 c6bc 2fc7 bcbd
000003f0: 6955 3a3e ee75 fabe 68ec 6cbd 53e9 c5be
-0.12955052 0.051874176 -0.12338073 -0.50372756 -0.017776115 -0.10733628 0.12891926 -0.17773113
0.018648276 0.47643277 -0.14702778 0.24026035 0.598709 -0.041359868 0.02191801 0.017155742
-0.09718492 -0.026826348 -0.2968422 -0.23519257 -0.17859288 -0.0018403331 -0.17231019 0.10294513
0.14102542 -0.09476785 0.04437563 1.526305e-05 1.5056672e-05 1.5463977e-05 -1.7213459e-05 1.6093481e-05
1.5745569e-05 0.29039374 -0.0054798108 -0.029368205 0.00082521385 -0.14640886 -0.32284686 0.03985414
0.07145406 0.41001776 -0.012757804 0.08948613 0.023315106 -0.0024566532 -0.18848526 -0.8115882
0.022438543 0.1450119 0.75611943 0.0022787296 -0.5709359 -0.024573164 -0.022172073 0.39291242
0.1312742 0.06773288 0.062626846 0.15791503 0.073129885 -0.112815194 -0.1259829 -0.07557916
0.03763922 -0.1228292 -0.46526524 -0.03003455 -0.14610393 0.12070563 -0.19744438 0.0005513967
0.39059615 -0.15700077 0.22886902 0.42778632 0.021244954 0.026298316 0.020350741 -0.1066668
-0.0185718 -0.3345708 -0.23086764 -0.1613441 -0.023134902 -0.1741742 0.046390094 0.13538787
-0.09855488 0.0530352 1.5247171e-05 1.4681387e-05 1.5632546e-05 -1.6524018e-05 1.5237397e-05 1.5802845e-05
0.29292524 -0.0131478375 -0.03080671 -0.002219207 -0.15495636 -0.3210467 0.04916285 0.062072936
0.39928913 0.0113301175 0.07498963 0.03858004 0.007031902 -0.20427768 -0.79294264 0.030946333
0.14329669 0.75757927 0.0041432655 -0.6059895 -0.0520471 0.00638187 0.4098147 0.12203698
0.07387037 0.11307642 0.17829348 0.120565005 -0.18020034 -0.070882276 0.004382062 0.030489556
-0.06404317 -0.4437763 -0.031181885 -0.13222878 0.12586083 -0.21437638 -0.017974226 0.35296556
-0.17036735 0.17092401 0.33453166 0.04241118 0.004190608 0.024516264 -0.10227378 0.008504452
-0.35808817 -0.19677141 -0.14311354 -0.038552128 -0.18344018 0.024191422 0.1323311 -0.09533714
0.04182611 1.5157442e-05 1.4779601e-05 1.5657975e-05 -1.6088845e-05 -1.5274903e-05 1.5708985e-05 0.29869708
-0.0039059534 -0.026382022 -0.01219531 -0.14945386 -0.33799493 0.046026606 0.054962527 0.40724272
-0.015144788 0.08758826 0.030819776 0.0134060625 -0.22367501 -0.76410186 0.0048700697 0.13626198
0.76371235 0.01926368 -0.5695659 -0.058217436 -0.010013966 0.3544584 0.116882704 0.08679093
0.053126514 0.17492963 0.09246851 -0.17317854 -0.07197422 0.13474634 -0.5590098 -0.07623615
-0.42543262 -0.014581427 -0.13150829 0.12232325 -0.21209449 -0.042951945 0.23551086 -0.0016740286
-0.0013877655 0.27925798 0.014713701 -0.010555282 0.032533012 -0.09550518 0.0009627835 -0.37321526
0.17357126 0.15584625 -0.006382274 -0.1729149 0.09482909 0.13194269 -0.08878124 0.044106342
1.562785e-05 1.5133104e-05 1.5517013e-05 1.4423273e-05 -1.5073325e-05 1.5472579e-05 0.31802762 -0.0052803922
0.00096958334 -0.015705045 -0.14972496 -0.3189227 0.051596206 0.044337884 0.3771814 -0.016066825
0.0682755 0.021571817 0.008875514 -0.22650944 -0.7726416 0.0038116137 0.12227625 0.8162236
0.024739603 -0.565094 -0.058038052 -0.022875383 0.3138324 0.111700505 0.076123774 0.060963288
0.1379606 0.062277533 -0.024243208 -0.09217679 0.18196644 -0.48918098 -0.057842642 -0.38654575

transl f4 [132, 3]
00000000: dea8 d73e 378e c03f c470 9e3f f26a d23e
00000010: aaf8 bf3f 4a6e 9a3f 8b01 ce3e a075 bf3f
00000020: e008 963f 66ef c83e c9ef be3f 0d33 913f
00000030: 9041 c43e 146c be3f fc11 8c3f fbd4 be3e
00000040: b2da bd3f 6bb3 863f a41c b93e 1768 bd3f
00000050: d64e 813f f1a4 b33e f66a bd3f 0383 783f
00000060: c84a ae3e 7686 bd3f c563 6f3f 133b a93e
00000070: c0ec bd3f d207 673f c10f a43e 018c be3f
00000080: 3157 5f3f 3227 9e3e c545 bf3f e884 583f
00000090: cbba 983e dfee bf3f 4728 523f 1dfe 923e
000000a0: f762 c03f 6210 4c3f aed5 8c3e 5fa7 c03f
000000b0: 732d 463f 317e 863e b5c4 c03f ba35 403f
000000c0: 1c08 803e 668a c03f 9645 3a3f 1996 713e
000000d0: 5242 c03f ad19 343f 0986 623e 97c4 bf3f
000000e0: 768d 2d3f 3602 543e 2630 bf3f ea43 263f
000000f0: 33a1 443e b88e be3f dedf 1e3f 36a7 333e
00000100: 2219 be3f f70e 173f 4f3a 203e 4fb3 bd3f
00000110: 21b1 0e3f 6b42 0c3e 5aae bd3f 7ba2 063f
00000120: 0a6b f43d 3e0a be3f f27f fe3e 8d5a d53d
00000130: df46 be3f 9a14 f13e a473 b73d 6985 be3f
00000140: d456 e43e 4277 9e3d a22d bf3f b765 d83e
00000150: 437b 8a3d f7e8 bf3f b538 cd3e 4d12 713d
00000160: 3e92 c03f eb9d c23e b720 523d 4e29 c13f
00000170: eb2d b83e b1d7 343d 235c c13f 6698 ad3e
00000180: bde7 1b3d d577 c13f 0b16 a33e 6cdb 003d
00000190: 136b c13f d807 983e df37 d33c e711 c13f
000001a0: 0b38 8c3e c140 a83c 3fca c03f 611f 803e
000001b0: 5f8e 853c aa85 c03f 51ae 673e c3cc 463c
000001c0: ca3a c03f 82b1 4e3e fde1 043c be02 c03f
000001d0: 1822 353e 469d 7c3b e5d4 bf3f ff26 1a3e
000001e0: e7e3 3f39 13a9 bf3f f577 fe3d 7f9e 38bb
000001f0: 3c9a bf3f cb1f c63d b96e a5bb 12a4 bf3f
00000200: cae4 923d ece6 d0bb b7dd bf3f 9cba 443d
00000210: 0fff 01bc c1ef bf3f 47f6 e03c 1dcd 13bc
00000220: 8023 c03f 0b7a 0b3c d448 17bc f361 c03f
00000230: 79ee dfbb b5f3 14bc d2b4 c03f 5528 abbc
00000240: e03c 22bc 22fb c03f d01f 0dbd ef7c 30bc
00000250: ae3e c13f 066a 41bd 7d65 5fbc c278 c13f
00000260: 01bb 71bd 5b21 8ebc f3cc c13f 7428 90bd
00000270: d094 a5bc d9de c13f b817 a8bd f833 bcbc
00000280: 8f0b c23f bbf6 c0bd c38f d5bc a9f3 c13f
00000290: 697a dabd 7048 f2bc 71d1 c13f f63b f3bd
000002a0: 7640 05bd 8dba c13f d664 05be 80ad 14bd
000002b0: eba9 c13f 3e5e 11be 0dac 26bd 11ad c13f
000002c0: 0eba 1cbe 38ca 42bd c6e0 c13f 5330 28be
000002d0: bcba 64bd 21e9 c13f faf8 32be e984 84bd
000002e0: c8eb c13f ac15 3dbe bc82 95bd 8913 c23f
000002f0: fec0 46be ef37 a3bd fa49 c23f 7bbe 4dbe
00000300: e4f5 adbd da8c c23f a590 54be 0aae b6bd
00000310: 77d2 c23f 44a8 58be 8644 bdbd dbe1 c23f
00000320: f934 5cbe d926 c1bd 36f1 c23f cf20 5ebe
00000330: 5129 c3bd bde8 c23f ec52 60be 02e8 c3bd
00000340: 43df c23f 99bf 5fbe c5fb c3bd d0c9 c23f
00000350: 25db 5ebe 2ee8 c2bd 2dcf c23f e0bb 5bbe
00000360: 44f8 c0bd 11dc c23f cac6 57be 5c68 bdbd
00000370: c3d3 c23f 9219 52be 1825 b8bd dfc3 c23f
00000380: c366 4bbe b24f b0bd 57ab c23f 6773 43be
00000390: d6f2 a6bd e170 c23f 49f3 38be 5d30 9bbd
000003a0: d72a c23f 7105 2dbe 564a 8dbd e6db c13f
000003b0: 982c 1fbe 4ce8 7abd 938a c13f 772b 0fbe
000003c0: c819 5cbd fe32 c13f c88e fabd 5ec6 40bd
000003d0: 7fe1 c03f dfd1 d2bd e7e6 2abd 35cb c03f
000003e0: 4ba3 a7bd 95fa 16bd e694 c03f 9df2 77bd
000003f0: 75a6 05bd 9b91 c03f e476 21bd 026b e6bc
0.42121023 1.50434 1.2378163 0.41097218 1.4997761 1.2064908 0.40235552 1.4957771
1.1721458 0.39245147 1.4916927 1.1343704 0.3833127 1.4876733 1.0942988 0.37271866
1.4832366 1.0523504 0.36154664 1.4797391 1.0102184 0.35086778 1.4798267 0.9707491
0.3404143 1.4806659 0.9351161 0.33052883 1.4837875 0.9024631 0.3204327 1.4886476
0.8724242 0.3088928 1.4943167 0.845778 0.29830012 1.4994773 0.8209271 0.28709498
1.5030202 0.797125 0.27506775 1.5051078 0.774131 0.2626815 1.506003 0.7508198
0.25006187 1.5042236 0.7276243 0.23592414 1.5020239 0.7035168 0.22121443 1.498187
0.6779398 0.20703968 1.4936569 0.6494738 0.19202118 1.4887304 0.62060344 0.17544255
1.485142 0.5900721 0.15647243 1.4820346 0.5573903 0.13697211 1.4818833 0.52591676
0.119344786 1.4846876 0.4970699 0.10417662 1.4865378 0.4708603 0.089576036 1.4884464
0.44597495 0.077375904 1.4935801 0.42265102 0.067617916 1.499297 0.40082327 0.058855344
1.504463 0.38011107 0.05130073 1.509073 0.35972533 0.04415101 1.5106243 0.33905333
0.0380628 1.5114695 0.31852755 0.031459257 1.5110801 0.29693484 0.025783477 1.5083588
0.27386507 0.02053869 1.5061721 0.2502394 0.01630324 1.5040791 0.2262509 0.01213378
1.5017941 0.20184901 0.00811052 1.5000837 0.17688787 0.003854589 1.4986845 0.15053938
0.0001830008 1.4973472 0.12425224 -0.0028170643 1.4968944 0.09674033 -0.0050485996 1.4971945
0.07172544 -0.0063751843 1.4989537 0.048029527 -0.007934346 1.4995042 0.027461184 -0.009021071
1.5010834 0.008512984 -0.009233672 1.5029892 -0.006833848 -0.009091307 1.5055182 -0.020893255
-0.009902209 1.507664 -0.034454167 -0.010771974 1.5097253 -0.047220252 -0.013635037 1.5114977
-0.05901623 -0.01734989 1.514067 -0.07038966 -0.02021256 1.5146133 -0.08207649 -0.022974
1.5159777 -0.0942206 -0.026069527 1.5152484 -0.10667879 -0.029575557 1.5142041 -0.11876671
-0.032532178 1.5135056 -0.13026747 -0.036298275 1.512998 -0.14196107 -0.040691424 1.5130941
-0.15305349 -0.047556132 1.514672 -0.16424684 -0.055842146 1.514927 -0.1747779 -0.06470663
1.515008 -0.18465298 -0.07300326 1.5162212 -0.19409558 -0.07969653 1.5178826 -0.20092194
-0.084941655 1.5199234 -0.20758303 -0.08919914 1.5220479 -0.21157938 -0.092415854 1.5225176
-0.21504582 -0.09431238 1.5229862 -0.21692203 -0.09529365 1.5227276 -0.21906632 -0.09565736
1.5224384 -0.21850432 -0.095695056 1.5217838 -0.21763285 -0.09516941 1.5219475 -0.21458387
-0.09422353 1.5223409 -0.21071926 -0.092484206 1.5220875 -0.20517567 -0.0899145 1.5216025
-0.19863419 -0.08608951 1.5208539 -0.19086991 -0.08151786 1.5190698 -0.18061556 -0.07577584
1.5169324 -0.16896607 -0.06898944 1.5145233 -0.15544355 -0.06125669 1.5120414 -0.13981424
-0.053735524 1.5093687 -0.122342646 -0.047064178 1.5068816 -0.10293936 -0.041724112 1.5062014
-0.081854425 -0.036860067 1.504544 -0.06053411 -0.03262945 1.5044435 -0.039420024 -0.028127197

left_hand_pose f4 [132, 12]
00000000: 94c9 e33d 4f77 743d edf4 313e 54f0 1dbf
00000010: baa5 063f 3722 25be 0816 003f f3af 883d
00000020: d210 66be 2ae5 1dbf 429e 143f b777 65bf
00000030: db7a 923d e495 b63c da58 c83e 0601 0abf
00000040: dadf 3a3f d047 adbe 6ed2 2d3f 17eb 77be
00000050: 350b 05bd c315 5dbf 948a 483f 61ab afbf
00000060: 42de a63d cd86 133c 5c33 d73e b0a7 adbe
00000070: 8e30 ee3e 9d1d f0be ee03 2e3f 5508 2ebe
00000080: 58f8 d9be cb2c 72bf 0cb3 163f 044d aebf
00000090: 6bab 363d dbe1 6ebd 887b c83e f5bc a4be
000000a0: e9fb e63e 5b80 cfbe dea4 353f 406c a2be
000000b0: 109f c3be 46a7 83bf 799c 1e3f efbf d0bf
000000c0: ed90 8e3d 5852 80bd c199 e63e ea7b 82be
000000d0: 5ea5 e23e 22b6 eabe 0e2b 403f d1cf 9cbe
000000e0: d8c7 98be d79b 84bf ddd3 103f d978 d1bf
000000f0: 3b4c a93d 518d 94bc 9057 c83e 0d73 5fbe
00000100: 0149 cc3e 44cb d6be bf62 2f3f b55f 83be
00000110: c35f e8be e55a 6bbf 2dca 323f 56bf c3bf
00000120: f49a bc3d cac1 00bc fa18 c93e 4a33 3fbe
00000130: 41ee cd3e 4d5f eebe 2e12 2e3f 9f38 9ebe
00000140: 5f10 12bf 75f0 7bbf f53d 533f fb15 cbbf
00000150: 8654 983d 3a0b 063d 696d 9f3e ffd1 2abe
00000160: c747 ba3e 68d6 c7be fc4d 093f 3942 6fbe
00000170: e54f a6be 3936 54bf 9af9 543f cd35 b9bf
00000180: 8d52 3cbc bef0 903c 0f60 2c3d 7b43 a7be
00000190: 6571 933e d71d 683d 4da6 ed3e 474c a0be
000001a0: ef12 66be 9165 2dbf f20e 1e3f abb9 98bf
000001b0: ffd7 e03d 91b9 1bbe ae3f da3e 9aea 04be
000001c0: d672 a93e abf0 b4be 49fe 383f d22f bfbe
000001d0: b083 d6be e245 76bf 4180 593f e2c0 a5bf
000001e0: b313 ee3d bbe0 15be dacf e03e 90f0 48be
000001f0: 5ad1 e43e a131 bbbe 56f0 383f 1106 d5be
00000200: 8d7f 23be 9bb1 83bf dfa2 463f 9259 c4bf
00000210: db0d 393e 1c3f 46be e376 0e3f 2b04 3fbe
00000220: 9087 073f ba53 0abf db0c 4a3f c4a4 e7be
00000230: bbb2 22be 2882 92bf aeae 563f 00e1 e8bf
00000240: 42f5 2f3e 3054 32be e1f3 f93e bb77 68be
00000250: d135 1a3f b6c7 f6be 75e0 3f3f 08b4 f7be
00000260: 0dce 673c 2000 98bf 92ad 3f3f 9f3a edbf
00000270: 71bb 1e3e 5878 c9bc 4b31 ae3e 296f a8be
00000280: 0051 333f ce11 e0be 4214 1a3f 59fc d9be
00000290: 23c0 bdbc d6e0 8dbf 98df 3f3f c307 f4bf
000002a0: 8ee7 223e 65f1 833c 35c1 aa3e 7257 80be
000002b0: 4af7 013f c3ff f6be 3698 333f a2cb e6be
000002c0: 5ce8 79be 3802 92bf 3c5d 4d3f f0db ffbf
000002d0: f63c 023e 5ae3 c7bc 2837 4c3e 9a3c acbe
000002e0: fa16 0b3f 1dec ddbd d0e8 243f dc1a f2be
000002f0: f4ae 89bc acd9 7ebf 9d30 393f 8a94 c0bf
00000300: 0a0a 093e ca8b 843c 6a13 843e 20de b8be
00000310: 6def 2f3f 4b4f acbe 8153 133f d2a4 03bf
00000320: 58c1 9cbe d7a1 9ebf db66 473f 8b64 04c0
00000330: ace0 153e 347c 1b3d 20af a03e 3957 a7be
00000340: a054 3a3f a52b d3be 1f5f 073f a031 11bf
00000350: 5da1 88be 9e47 a4bf c4c8 553f f508 0cc0
00000360: b229 173e 9d71 44bc 2798 b43e 3afc 91be
00000370: c6d5 133f d857 b3be 763e 323f 9c55 19bf
00000380: 9acb a8be 259d a2bf 1630 5d3f 4616 00c0
00000390: 8798 2b3e d1b0 16bd 6512 de3e e928 63be
000003a0: 92b3 0d3f 199a c8be 0530 403f 0ad6 23bf
000003b0: 8eac c0be 2ba1 adbf 767d 613f aee7 05c0
000003c0: 73d8 1c3e 248b ddbc 3d58 af3e 0744 8abe
000003d0: 3fca 063f 97dd 9abe 8631 3f3f 30a8 0ebf
000003e0: 8a50 c1be 2c56 98bf 7e05 5a3f 5e52 f5bf
000003f0: 47b1 333e 77ca 2ebe cc49 d43e e17c 75be
0.11122432 0.059684094 0.17378588 -0.61694837 0.5259663 -0.16126333 0.50033617 0.06674185
-0.22467354 -0.616778 0.5805398 -0.89635795 0.07152339 0.02228827 0.39130288 -0.5390781
0.7299782 -0.3384385 0.67899215 -0.24210773 -0.03248139 -0.8636133 0.78336453 -1.3724176
0.08147861 0.009004307 0.42031372 -0.33916998 0.4652142 -0.46897593 0.67974746 -0.16995366
-0.42572284 -0.945996 0.58866954 -1.3617253 0.04459707 -0.05832086 0.39156747 -0.32175413
0.45114067 -0.40527615 0.7095469 -0.31723213 -0.38207293 -1.0285423 0.6195751 -1.6308573
0.06961236 -0.06265706 0.4503918 -0.25485164 0.4426679 -0.4584208 0.75065696 -0.306273
-0.2983997 -1.0360059 0.5657328 -1.6365005 0.08266493 -0.018133791 0.39129305 -0.21821232
0.39899448 -0.41951954 0.6851005 -0.25658956 -0.4538556 -0.9193557 0.69839746 -1.5292766
0.092092425 -0.007858703 0.39276868 -0.18671909 0.40220836 -0.46557084 0.6799649 -0.30902573
-0.5705623 -0.98413783 0.82516414 -1.5866083 0.074379966 0.03272555 0.3113816 -0.1668167
0.36382887 -0.39030766 0.5363462 -0.23365106 -0.3248283 -0.8289524 0.8319336 -1.4469544
-0.011494291 0.01769292 0.042083796 -0.3266867 0.2879745 0.056669082 0.4641594 -0.31308195
-0.2246816 -0.67733103 0.61741555 -1.1931661 0.10978698 -0.15207507 0.4262671 -0.12980118
0.33095425 -0.35339865 0.7226301 -0.37341172 -0.41897345 -0.9620038 0.84961325 -1.2949488
0.11624851 -0.14636509 0.43908578 -0.19623017 0.44690973 -0.365613 0.72241724 -0.4160619
-0.15966626 -1.0288576 0.7759227 -1.5339835 0.18071692 -0.19360012 0.55650157 -0.18653934
0.52941227 -0.54034007 0.78925866 -0.45242894 -0.15888493 -1.144597 0.8386029 -1.8193665
0.17183402 -0.17414927 0.48818877 -0.22701924 0.6023837 -0.48199242 0.7495187 -0.4837954
0.014148247 -1.1875038 0.7487422 -1.8533515 0.1550119 -0.024593517 0.34021983 -0.32897308
0.7004547 -0.43763584 0.6018716 -0.42575338 -0.023162907 -1.108424 0.7495055 -1.9064869
0.15908644 0.016106317 0.3335053 -0.25066715 0.5076796 -0.48242006 0.7015413 -0.45077235
-0.24405044 -1.1406927 0.8022039 -1.9988995 0.12718567 -0.024400402 0.19942915 -0.33639985
0.54331934 -0.10836051 0.64417744 -0.47286117 -0.016807057 -0.9955089 0.72339803 -1.504533
0.13382736 0.016179938 0.25796062 -0.36106968 0.6872471 -0.33654246 0.5754929 -0.5142337
-0.3061626 -1.239314 0.7789132 -2.0686367 0.14636487 0.037960246 0.3138361 -0.32683733
0.7278538 -0.41244236 0.5287952 -0.56716347 -0.2668561 -1.2834356 0.8350947 -2.1880467
0.14761999 -0.011989978 0.35272333 -0.28512746 0.5774807 -0.35027957 0.6962656 -0.59896255
-0.32967836 -1.2704207 0.864015 -2.0013595 0.16757403 -0.03678972 0.4337341 -0.22183575
0.5535213 -0.39180067 0.7507327 -0.6399847 -0.3763165 -1.356481 0.88082063 -2.0922656
0.15316944 -0.027043886 0.34247008 -0.27005026 0.52652353 -0.30247185 0.7468494 -0.55725384
-0.3775676 -1.1901298 0.8516463 -1.9165761 0.17548095 -0.17069422 0.41462553 -0.23973419

right_hand_pose f4 [132, 12]
00000000: 0e7f 993d 55b6 843e 0b8a 623e d91e 72bf
00000010: 5f26 4c3f 6787 babe 3aa4 313f 2cd2 33bc
00000020: ebd4 59bf e3fa 96bf dc4a 693e 327c 89bf
00000030: 8287 1b3d 474d 90bd 49f3 833d 9d3e 77bf
00000040: b22d 0c3f 199e 003e f066 423f 139a 44bd
00000050: 3c5e 20bf 6f14 56bf d049 af3e 7ae8 7dbf
00000060: 78c3 133e 5c03 803c aa22 f53d 9486 40bf
00000070: b66d 623e e197 bdbe c264 463f d9dd bd3e
00000080: 2c10 ffbe b358 a0be bc02 733f 454e 5fbf
00000090: 2652 d93d eaa6 d93c 0f4b abbd cf53 5fbf
000000a0: 2d28 223e 1376 13be 138c 2f3f d80f 0f3f
000000b0: e7ca 29bf 0fde b2be 0e52 273f d753 68bf
000000c0: 66de 2ebc d359 14bd a281 2bbb 3652 83bf
000000d0: 5c3e 373f 5a6a f9bc 59f0 0a3f cf9d 21be
000000e0: 5d8e 36bf 0097 92bf 10c8 ae3c 59be 0ac0
000000f0: 90f8 983d 95ba 313d 616d 753d d2f5 2dbf
00000100: 0277 b23e a70f 10bd 2c8a de3e 202d 813d
00000110: ed4a 70be dfca 03bf 7113 483f cfd6 a0bf
00000120: de5f bd3d 6624 4d3e 693a 963e 6755 0abf
00000130: bc4e 1b3f 56da a4be d3d5 d53e 493b 09be
00000140: f8d5 90be 523c 71bf 01ee e53e 6191 d7bf
00000150: 65ec 9c3d edf6 733e 9e46 683e 3629 06bf
00000160: 0718 0b3f 44d7 81be 64ad b73e 63db dabd
00000170: 030d 8fbe 70a9 24bf 4187 703f f5bf d0bf
00000180: 8979 a83d e7fc 343e f77c bb3e 5022 d0be
00000190: 0899 e23e a1ce a4be ba50 083f 90ab 5cbe
000001a0: 8e47 0ebe dc9e 50bf ce78 743f 28b9 cabf
000001b0: 3370 0a3e 49c6 1a3e d70a cd3e ea9c 97be
000001c0: 12a3 113f 2916 09bf a8df fa3e 6d6c 55bd
000001d0: 7a99 f8be 640c 52bf 73bf 5d3f d299 bbbf
000001e0: 153c c33d 38b5 9d3d 6946 aa3e 4c58 ccbe
000001f0: 1ee5 013f 23db bdbe ea8e 203f 79db c3bd
00000200: a273 d1bd b1db 33bf 718b 6c3f 7a4e 8ebf
00000210: bfe7 ba3d fce3 d03d eaa2 be3e 8670 6abe
00000220: 5a02 af3e 879f c5be 0b98 113f 247f 3fbd
00000230: 4c7d c3be 2245 28bf 9eac 6a3f 5789 82bf
00000240: a945 b7bc ad82 0e3e dd6d 613e f3ac ddbe
00000250: c80b d03e cde7 05be 8996 1f3f ead1 5abe
00000260: fd5b fabe ccfa 4dbf ca60 553f b405 9bbf
00000270: 740b 4cbd 14c9 d03d 29d6 873e b45d c8be
00000280: 7c6f d23e 06a6 56be e2b6 2c3f 441f 7ebe
00000290: f2bb 2fbf d437 67bf 4c3e 4c3f 7d16 9fbf
000002a0: 250e 9dbc 5732 553d d947 9d3e 6437 9fbe
000002b0: 7125 ce3e 3651 84be ffc8 383f aaf9 09be
000002c0: 7538 40bf 62b6 4abf 07d8 583f eb22 83bf
000002d0: 3e04 85bd 4a6a 9d3d a300 8c3e 91ac a3be
000002e0: 37a1 bf3e 0357 80be 6bd4 423f 7f08 2dbe
000002f0: e4df 53bf 7ec8 56bf 8739 4a3f e04c 89bf
00000300: 51ab 05bd 95b2 643d e41e 933e b695 97be
00000310: 238b e63e 501b d5be d0e1 223f 373e 07bd
00000320: 14af 33bf 685a 35bf 8b42 543f a791 6fbf
00000330: 6426 44bd 089b 803d 8058 803e 66f4 9bbe
00000340: 8fb1 043f 781e c7be 55db 023f 52d2 c3bc
00000350: 5d6b 1ebf affc 34bf 6ba1 423f 8d5e 7fbf
00000360: 7f4a 77bd e1b0 863d bdd5 6b3e 67da a2be
00000370: e4bf 073f 16d5 bbbe 6d70 073f 157c 75bc
00000380: 66e9 2cbf 0387 34bf a30c 3f3f abe5 76bf
00000390: c67f cdbd 4658 0a3e 27c1 483e 0b66 b4be
000003a0: 5659 ef3e 82e5 82be 1ad2 1b3f 3faf a0bd
000003b0: 3f7d 2cbf fe54 47bf 7856 163f 6e16 86bf
000003c0: bf2e c4bd b27f eb3d bf00 733e 1c87 a3be
000003d0: 092f 043f 6e7e a4be 397c 063f dc34 02bd
000003e0: bc7d a1be 7bdb 21bf f328 503f 0cb2 81bf
000003f0: d2fe 5cbd 1a1f a83d 740f 883e 4d4d 72be
0.07494937 0.25920358 0.22122972 -0.9457832 0.7974605 -0.3643143 0.69391215 -0.010975402
-0.8509051 -1.1795315 0.22782463 -1.0741026 0.037971027 -0.070459895 0.06442887 -0.96579915
0.54757226 0.1256031 0.7593832 -0.0479985 -0.6264379 -0.8362493 0.34236002 -0.99182856
0.14430034 0.015626602 0.11969502 -0.7520535 0.22112164 -0.37029937 0.77497494 0.3708332
-0.49817026 -0.31317672 0.9492605 -0.87228805 0.10611372 0.026568849 -0.08363926 -0.87237257
0.15835638 -0.1440051 0.6857311 0.5588355 -0.6632523 -0.34935042 0.6535958 -0.9075293
-0.010673141 -0.036218476 -0.0026169796 -1.0259464 0.7157953 -0.03044622 0.5427299 -0.15782855
-0.7131098 -1.1452332 0.021335632 -2.167868 0.074692845 0.04339083 0.059918765 -0.6795322
0.3485642 -0.035171177 0.43464792 0.06307435 -0.23466082 -0.5148143 0.78154665 -1.2565554
0.09246801 0.20033416 0.29341438 -0.54036564 0.60667014 -0.32197827 0.41764697 -0.13401522
-0.28288245 -0.94232666 0.44908145 -1.6841241 0.07662276 0.23824663 0.22683188 -0.5240663
0.5433354 -0.25359547 0.35874474 -0.10686376 -0.27939615 -0.6432104 0.9395638 -1.6308581
0.08226306 0.176746 0.36618778 -0.40651178 0.4425738 -0.32188895 0.5324818 -0.21549821
-0.13894483 -0.814924 0.95496833 -1.5837755 0.13519363 0.15114702 0.40047333 -0.29611903
0.5688945 -0.5354944 0.4899876 -0.052105356 -0.48554593 -0.82050157 0.86620253 -1.4656317
0.09532944 0.0770058 0.33256844 -0.39911115 0.5074023 -0.3708125 0.6271807 -0.095633455
-0.10227133 -0.702571 0.9240027 -1.1117699 0.09126233 0.101997346 0.3723367 -0.22894487
0.34181482 -0.38598272 0.56872624 -0.04675211 -0.3818153 -0.6573049 0.9166964 -1.0198163
-0.022372084 0.13917036 0.22014566 -0.43296012 0.40633988 -0.13076706 0.62339073 -0.21369138
-0.48898306 -0.8046081 0.83350813 -1.2111115 -0.04981561 0.101946026 0.2653058 -0.3913399
0.4110068 -0.2096177 0.6746656 -0.24816614 -0.68646157 -0.9031956 0.7978256 -1.2428738
-0.019171784 0.05204996 0.30718878 -0.31096947 0.4026294 -0.2584321 0.72181696 -0.13474146
-0.75086147 -0.79184544 0.8470463 -1.0245031 -0.0649495 0.07686289 0.27344236 -0.31967595
0.37427685 -0.25066385 0.76105374 -0.16897772 -0.82763505 -0.83899677 0.7899403 -1.0726585
-0.032634083 0.05583437 0.28734505 -0.29606408 0.45028028 -0.416224 0.6362581 -0.033018317
-0.70189023 -0.70841074 0.82914037 -0.9358162 -0.047888175 0.0627957 0.2506752 -0.304599
0.5183343 -0.38890433 0.51115924 -0.023904 -0.61882573 -0.70698065 0.76027554 -0.9975365
-0.06037378 0.06576706 0.23030753 -0.31807253 0.53027177 -0.3668601 0.52905923 -0.014983197
-0.6754364 -0.7051851 0.7462866 -0.96444196 -0.100341365 0.13510236 0.19604932 -0.35234103
0.46747845 -0.25565726 0.60867465 -0.078459255 -0.6737861 -0.7786406 0.5872569 -1.0475595
-0.095792286 0.11498965 0.23730753 -0.31939018 0.5163427 -0.32127708 0.525333 -0.031788692
-0.3154124 -0.63225526 0.81312484 -1.013246 -0.053953953 0.08209057 0.2657429 -0.236623

jaw_pose f4 [132, 3]
00000000: 45d9 123c 89b1 74bb 1754 31b9 bafc 473c
00000010: 1b56 a1ba ed0c 88b9 915d a63c edd5 bcbb
00000020: 4c8b dbba 25dc f73c 959a 52bb 6129 26ba
00000030: 2d49 1a3d dbfe cabb 8906 e8ba 5d70 223d
00000040: 1b89 e4bb 619e c6ba 19e5 073d bbef e8bb
00000050: 496a 80ba 9d69 303d 949f 9dbb a294 57ba
00000060: ca55 303d 7a56 cbbb 383d 67ba 6f25 073d
00000070: fd95 a6bb 81a2 36ba 9dd1 c73c e4f4 05bc
00000080: f401 08bb df04 033d d1cd 03bc 4a60 32bb
00000090: 2548 d53c cb5b eabb d1b8 abba 4e27 2b3d
000000a0: 928d adbb 1af9 21ba 565b 273d 9327 01bc
000000b0: 1e04 12bb a0ef 063d d3ba 00bc d7ca 1ebb
000000c0: b91b 2a3d 399f f3bb 6381 e4ba 8ace 073d
000000d0: 31ee bdbb 962c 74ba a018 e13c 9c87 debb
000000e0: 2c50 b7ba ac3b 3a3d db03 0bbc 67c2 4abb
000000f0: e966 133d 0d5b a9bb 956d e4ba e171 db3c
00000100: 31e5 d2bb a56f 94ba 5714 163d ba7a 85bb
00000110: 94ac abba bc88 1d3d 2875 efbb ebe2 29bb
00000120: c3cb 613d de9d 11bc 5505 45bb 3abc fa3c
00000130: ee91 babb 4d2d f0ba fc82 0c3d 9ba1 cabb
00000140: 842d 8aba 1a8b 203d 7351 20bc 1d4a 43bb
00000150: 6a98 383d 7141 0abc abf9 47bb 14d7 533d
00000160: 2e2a dcbb 4c4e a1ba f55c 1c3d 8d19 0abc
00000170: 8b63 2dbb eb9e 003d f2c9 2ebc 547d 5fbb
00000180: 65d1 e93c c784 08bc 957e 22bb ea1a 813c
00000190: 96ad 02bc c9c8 2fbb affd c83c 497d ebbb
000001a0: 2bce b4ba a9bc eb3c 9b05 b8bb db25 d0ba
000001b0: 44f2 a23c 50e3 a3bb 59d0 97ba d77f 073c
000001c0: ef57 dbbb 787a ecba b7a1 8a3c 5665 06bc
000001d0: e65e 28bb ce25 863c d506 08bc 03b5 37bb
000001e0: d638 d53c 08cc 00bc 1ff3 3abb 0878 f13c
000001f0: 08c9 0dbc 7335 43bb b3ff ad3c 34a8 e7bb
00000200: 5b19 9eba 4c97 723c b94a 01bc 9325 25bb
00000210: 7dc9 b13c d9b9 f5bb 71ab f8ba a247 983c
00000220: d762 c5bb 318e 94ba 253e 2b3c 747d d8bb
00000230: 3844 90ba 7a8d 263c 966b dfba 5fb1 06ba
00000240: 2515 823c b4b1 34bb aff1 1aba a90e 923c
00000250: 5c5e 763a 3404 70b8 6cc0 baba 7005 f73a
00000260: 1e99 5e39 c5b5 0c3d bf8f 893b 4eca 2b3a
00000270: 0a52 063d 477e 543b e28f 233a 9203 e53c
00000280: 5e07 023b 6e4c 9939 95b9 a13c 18c8 623b
00000290: 158f 633a efb5 f63c 12ac 783b 287c 513a
000002a0: 782f 2a3d c63c 653b 37dc 3d3a a68b 173d
000002b0: 8f5d 263b 0d22 123a 7516 043d dc30 82ba
000002c0: 834e 05ba f2fd 2b3c d606 e639 0c07 a5b8
000002d0: a635 b03c 4eec 603b 5716 6d39 235e d33c
000002e0: 9d90 833b ec9a ef39 b375 c33c 9cc0 0a3b
000002f0: 2391 ac38 c61b 583c 1cca d3b9 13e7 ecb9
00000300: 9d67 c93c efad 1c3b 2ec3 073a 35bb df3c
00000310: 9d1f ff39 1c5c 37b9 69b7 e43b 283f e63a
00000320: 00ec 8739 02b2 033c b355 843b 09b7 123a
00000330: ec28 b53c 8c62 8c3b b052 333a 7cce e33c
00000340: 98e7 ac3b 020e 543a 3b17 053d 78ed 40b9
00000350: 62d0 84b9 85f0 413d c25f c13a 9635 c139
00000360: cd6f 1a3d 524b 1a3b 995c 6539 16cb 363d
00000370: e1ce 403b 27e2 473a fb58 013d 1420 3bba
00000380: f9da 17ba 4960 f93c 1dba b639 2c98 9eb8
00000390: 4e68 113d 3f1c c5b7 0482 74b9 288d 713d
000003a0: f0ae cc39 76fd 1838 dbb1 4b3d 67e5 7d3b
000003b0: 1c38 2d3a 5dee 783d eb32 0b3b 2727 473a
000003c0: 9a5b 5f3d 1b8f 3a3b bcc3 483a 1074 193d
000003d0: 032b 4e3a f1b3 8039 e310 163d a0e9 e539
000003e0: d0d4 f338 0f36 153d ed2b 5a3a bb75 0838
000003f0: 764a 103d 3589 053b a99d 8b39 0b53 093d
0.008962934 -0.0037337265 -0.00016911361 0.012206251 -0.0012308987 -0.00025949572 0.020308288 -0.0057628066
-0.0016749888 0.03025634 -0.0032135595 -0.00063385634 0.037667442 -0.006194932 -0.0017702143 0.03965794
-0.006974352 -0.0015153402 0.03317747 -0.007108656 -0.00097973 0.04306947 -0.004810283 -0.0008223747
0.043050565 -0.006205377 -0.0008821073 0.032994684 -0.005083798 -0.0006966964 0.024391944 -0.008176062
-0.0020753117 0.031987067 -0.008044676 -0.0027218037 0.026035378 -0.007152056 -0.0013101344 0.04178553
-0.0052964175 -0.00061787816 0.04085859 -0.00788297 -0.0022280286 0.032943368 -0.007857042 -0.0024229789
0.041530345 -0.0074347523 -0.001743358 0.033155955 -0.005796217 -0.0009314505 0.027477562 -0.0067910682
-0.0013985685 0.045467064 -0.008484806 -0.0030938627 0.035986815 -0.005168325 -0.0017427678 0.0267877
-0.006436013 -0.0011324777 0.03664049 -0.004073468 -0.0013097697 0.03846048 -0.0073076673 -0.0025922607
0.055125963 -0.008887736 -0.0030062993 0.030607332 -0.0056936657 -0.0018324048 0.034304604 -0.0061838157
-0.0010542129 0.039195158 -0.009785044 -0.0029798814 0.04506723 -0.008438454 -0.0030513804 0.051718786
-0.0067188954 -0.001230666 0.03817459 -0.008428943 -0.0026457037 0.031401556 -0.010668265 -0.00341018
0.02854223 -0.008332438 -0.0024794687 0.015759904 -0.007975956 -0.0026822558 0.024535028 -0.007186566
-0.0013794353 0.028776484 -0.0056159026 -0.0015880422 0.019890912 -0.005001463 -0.0011582478 0.0082702255
-0.006693832 -0.001804187 0.016922815 -0.008202871 -0.002569133 0.016375449 -0.00830241 -0.0028031475
0.026028078 -0.007861145 -0.002852626 0.02947618 -0.008653887 -0.0029786497 0.021240091 -0.007069612
-0.0012062 0.01480658 -0.00789135 -0.0025199398 0.021702522 -0.0074989614 -0.0018971992 0.018588845
-0.0060237455 -0.001133388 0.010451828 -0.006606752 -0.0011006659 0.010165567 -0.0017045613 -0.00051381247
0.015879223 -0.002757174 -0.00059106475 0.017829256 0.0009398216 -5.7224373e-05 -0.001424802 0.0018846225
0.0002122861 0.034353036 0.004198044 0.0006553278 0.032793082 0.00324239 0.0006239397 0.027955804
0.0019840817 0.0002923938 0.019741813 0.0034604128 0.00086806837 0.03011605 0.0037944359 0.0007991218
0.041549176 0.003497885 0.00072425924 0.036998414 0.0025385355 0.0005574532 0.03224798 -0.0009932774
-0.00050852465 0.010497557 0.00043874112 -7.869126e-05 0.021509957 0.0034320536 0.00022610404 0.025801724
0.004015042 0.00045701058 0.023859834 0.0021171933 8.228633e-05 0.013190215 -0.0004039564 -0.0004518559
0.02458554 0.0023907383 0.00051789253 0.027310947 0.00048660944 -0.00017486553 0.006979872 0.001756643
0.0002592504 0.008038046 0.0040385365 0.00055967324 0.02211424 0.0042842086 0.00068406295 0.02780842
0.0052766316 0.00080892455 0.032492857 -0.00018399011 -0.0002533226 0.047348518 0.001475327 0.00036851753
0.037704278 0.002354343 0.00021873637 0.04462727 0.0029420184 0.0007624947 0.031579 -0.0007138264
-0.00057928223 0.03044142 0.0003485241 -7.562371e-05 0.035499863 -2.3497383e-05 -0.00023318088 0.058972508
0.0003904025 3.6475678e-05 0.049730163 0.003874147 0.0006607787 0.060774196 0.0021240066 0.0007597082
0.054530717 0.0028466645 0.0007658561 0.0374642 0.00078646856 0.0002454813 0.0366372 0.00043852348
0.00011626782 0.036428507 0.00083225855 3.253457e-05 0.03522726 0.0020375971 0.00026629612 0.03352646

leye_pose f4 [132, 3]
00000000: 0000 0000 0000 0000 0000 0000 0000 0000
00000010: 0000 0000 0000 0000 0000 0000 0000 0000
00000020: 0000 0000 0000 0000 0000 0000 0000 0000
00000030: 0000 0000 0000 0000 0000 0000 0000 0000
00000040: 0000 0000 0000 0000 0000 0000 0000 0000
00000050: 0000 0000 0000 0000 0000 0000 0000 0000
00000060: 0000 0000 0000 0000 0000 0000 0000 0000
00000070: 0000 0000 0000 0000 0000 0000 0000 0000
00000080: 0000 0000 0000 0000 0000 0000 0000 0000
00000090: 0000 0000 0000 0000 0000 0000 0000 0000
000000a0: 0000 0000 0000 0000 0000 0000 0000 0000
000000b0: 0000 0000 0000 0000 0000 0000 0000 0000
000000c0: 0000 0000 0000 0000 0000 0000 0000 0000
000000d0: 0000 0000 0000 0000 0000 0000 0000 0000
000000e0: 0000 0000 0000 0000 0000 0000 0000 0000
000000f0: 0000 0000 0000 0000 0000 0000 0000 0000
00000100: 0000 0000 0000 0000 0000 0000 0000 0000
00000110: 0000 0000 0000 0000 0000 0000 0000 0000
00000120: 0000 0000 0000 0000 0000 0000 0000 0000
00000130: 0000 0000 0000 0000 0000 0000 0000 0000
00000140: 0000 0000 0000 0000 0000 0000 0000 0000
00000150: 0000 0000 0000 0000 0000 0000 0000 0000
00000160: 0000 0000 0000 0000 0000 0000 0000 0000
00000170: 0000 0000 0000 0000 0000 0000 0000 0000
00000180: 0000 0000 0000 0000 0000 0000 0000 0000
00000190: 0000 0000 0000 0000 0000 0000 0000 0000
000001a0: 0000 0000 0000 0000 0000 0000 0000 0000
000001b0: 0000 0000 0000 0000 0000 0000 0000 0000
000001c0: 0000 0000 0000 0000 0000 0000 0000 0000
000001d0: 0000 0000 0000 0000 0000 0000 0000 0000
000001e0: 0000 0000 0000 0000 0000 0000 0000 0000
000001f0: 0000 0000 0000 0000 0000 0000 0000 0000
00000200: 0000 0000 0000 0000 0000 0000 0000 0000
00000210: 0000 0000 0000 0000 0000 0000 0000 0000
00000220: 0000 0000 0000 0000 0000 0000 0000 0000
00000230: 0000 0000 0000 0000 0000 0000 0000 0000
00000240: 0000 0000 0000 0000 0000 0000 0000 0000
00000250: 0000 0000 0000 0000 0000 0000 0000 0000
00000260: 0000 0000 0000 0000 0000 0000 0000 0000
00000270: 0000 0000 0000 0000 0000 0000 0000 0000
00000280: 0000 0000 0000 0000 0000 0000 0000 0000
00000290: 0000 0000 0000 0000 0000 0000 0000 0000
000002a0: 0000 0000 0000 0000 0000 0000 0000 0000
000002b0: 0000 0000 0000 0000 0000 0000 0000 0000
000002c0: 0000 0000 0000 0000 0000 0000 0000 0000
000002d0: 0000 0000 0000 0000 0000 0000 0000 0000
000002e0: 0000 0000 0000 0000 0000 0000 0000 0000
000002f0: 0000 0000 0000 0000 0000 0000 0000 0000
00000300: 0000 0000 0000 0000 0000 0000 0000 0000
00000310: 0000 0000 0000 0000 0000 0000 0000 0000
00000320: 0000 0000 0000 0000 0000 0000 0000 0000
00000330: 0000 0000 0000 0000 0000 0000 0000 0000
00000340: 0000 0000 0000 0000 0000 0000 0000 0000
00000350: 0000 0000 0000 0000 0000 0000 0000 0000
00000360: 0000 0000 0000 0000 0000 0000 0000 0000
00000370: 0000 0000 0000 0000 0000 0000 0000 0000
00000380: 0000 0000 0000 0000 0000 0000 0000 0000
00000390: 0000 0000 0000 0000 0000 0000 0000 0000
000003a0: 0000 0000 0000 0000 0000 0000 0000 0000
000003b0: 0000 0000 0000 0000 0000 0000 0000 0000
000003c0: 0000 0000 0000 0000 0000 0000 0000 0000
000003d0: 0000 0000 0000 0000 0000 0000 0000 0000
000003e0: 0000 0000 0000 0000 0000 0000 0000 0000
000003f0: 0000 0000 0000 0000 0000 0000 0000 0000
0.0 0.0 0.0 0.0 0.0 0.0 0.0 0.0
0.0 0.0 0.0 0.0 0.0 0.0 0.0 0.0
0.0 0.0 0.0 0.0 0.0 0.0 0.0 0.0
0.0 0.0 0.0 0.0 0.0 0.0 0.0 0.0
0.0 0.0 0.0 0.0 0.0 0.0 0.0 0.0
0.0 0.0 0.0 0.0 0.0 0.0 0.0 0.0
0.0 0.0 0.0 0.0 0.0 0.0 0.0 0.0
0.0 0.0 0.0 0.0 0.0 0.0 0.0 0.0
0.0 0.0 0.0 0.0 0.0 0.0 0.0 0.0
0.0 0.0 0.0 0.0 0.0 0.0 0.0 0.0
0.0 0.0 0.0 0.0 0.0 0.0 0.0 0.0
0.0 0.0 0.0 0.0 0.0 0.0 0.0 0.0
0.0 0.0 0.0 0.0 0.0 0.0 0.0 0.0
0.0 0.0 0.0 0.0 0.0 0.0 0.0 0.0
0.0 0.0 0.0 0.0 0.0 0.0 0.0 0.0
0.0 0.0 0.0 0.0 0.0 0.0 0.0 0.0
0.0 0.0 0.0 0.0 0.0 0.0 0.0 0.0
0.0 0.0 0.0 0.0 0.0 0.0 0.0 0.0
0.0 0.0 0.0 0.0 0.0 0.0 0.0 0.0
0.0 0.0 0.0 0.0 0.0 0.0 0.0 0.0
0.0 0.0 0.0 0.0 0.0 0.0 0.0 0.0
0.0 0.0 0.0 0.0 0.0 0.0 0.0 0.0
0.0 0.0 0.0 0.0 0.0 0.0 0.0 0.0
0.0 0.0 0.0 0.0 0.0 0.0 0.0 0.0
0.0 0.0 0.0 0.0 0.0 0.0 0.0 0.0
0.0 0.0 0.0 0.0 0.0 0.0 0.0 0.0
0.0 0.0 0.0 0.0 0.0 0.0 0.0 0.0
0.0 0.0 0.0 0.0 0.0 0.0 0.0 0.0
0.0 0.0 0.0 0.0 0.0 0.0 0.0 0.0
0.0 0.0 0.0 0.0 0.0 0.0 0.0 0.0
0.0 0.0 0.0 0.0 0.0 0.0 0.0 0.0
0.0 0.0 0.0 0.0 0.0 0.0 0.0 0.0
