test_dataset/gait_809/20250819_c1_a5_Take1/split_subjects/0/fit-smplx/smplx-params_cut.npz (npz, 134394 bytes, 10 tensors)

betas f4 [268, 11]
0.5204575 -1.8616924 0.68369365 -0.45641723 -0.7418156 0.06447733 -0.45395967 1.8763747
0.033716917 0.14656816 0.34646034 0.59464777 -2.13149 0.9549111 -0.39918065 -1.1394378
-0.019154599 -0.5813149 2.0185416 -0.08874854 0.08878284 0.32877874 0.63333374 -2.1917684
1.2020468 -0.32929873 -1.1207219 -0.11522856 -0.5235427 1.993701 -0.09544609 0.08427439
0.34291425 0.6883575 -2.179362 1.1839937 -0.2328342 -1.2066383 -0.12806103 -0.46467462
2.0359788 -0.12694936 0.12408541 0.34881267 0.7251324 -2.070812 1.0908047 -0.3008828
-1.076065 -0.16008963 -0.3939122 2.097956 -0.06564176 0.12821732 0.35713923 0.76160973
-2.128303 1.098583 -0.21490799 -1.1948496 -0.13300164 -0.31808197 2.1090436 -0.03573598
0.11171121 0.35649773 0.8039152 -2.1163044 1.001472 -0.16582863 -1.2872214 -0.028104596
-0.43418336 2.1050806 -0.07918249 0.14936298 0.3550498 0.76449233 -2.0691068 1.067165
-0.2262928 -1.2554294 -0.0396561 -0.38085476 2.0813835 -0.0077615655 0.14396966 0.3593337
0.8512539 -2.1012907 1.060916 -0.16590928 -1.1919211 -0.009012756 -0.5373924 2.1037316
-0.10579722 0.12515275 0.36100665 0.8016226 -2.1705375 1.2591292 -0.12320049 -1.3513322
-0.058980532 -0.4430177 2.0758948 -0.10682255 0.14395383 0.35849646 0.7706056 -2.2351897
1.4972472 -0.10160228 -1.419905 -0.09050097 -0.42468807 2.0089185 -0.18490098 0.10761718
0.36401746 0.79733646 -2.1022978 1.4140464 -0.16675036 -1.2605591 -0.15205292 -0.4290401
1.9159507 -0.19487959 0.08623577 0.36811265 0.76386064 -2.1925368 1.5095155 -0.1474421
-1.3047594 -0.11876159 -0.39862502 1.8730305 -0.21224816 0.09050441 0.36446553 0.76864284
-2.2086244 1.3930969 -0.09898763 -1.324842 -0.06227171 -0.4082599 1.9082803 -0.19038785
0.10125922 0.35805926 0.74040544 -2.2421703 1.4300963 -0.12632658 -1.2567054 -0.026865438
-0.43620345 1.9658457 -0.13528776 0.107700124 0.35604152 0.7575557 -2.261347 1.4423598
-0.18695511 -1.3119583 0.007625986 -0.49317995 1.923739 -0.030527601 0.1492813 0.35317177
0.7697978 -2.2675261 1.4109197 -0.15796565 -1.2420566 0.04490738 -0.53432864 1.94464
0.018861495 0.15304154 0.35415587 0.77290744 -2.246656 1.4261966 -0.15811005 -1.3012086
0.12343854 -0.5728219 1.9352633 0.048322875 0.14583522 0.35501897 0.79836357 -2.2191334
1.379939 -0.18275525 -1.2724009 0.1692023 -0.5523736 1.9365466 0.058206756 0.16046138
0.3549968 0.8103799 -2.2252476 1.3846112 -0.16217923 -1.3081018 0.23229107 -0.66108525
1.9182421 0.029594675 0.17382117 0.35606995 0.8556881 -2.1913812 1.3045665 -0.13206506
-1.3144307 0.28519812 -0.6061221 1.8801067 0.020364126 0.15581095 0.358834 0.8964655
-2.208669 1.3859482 -0.13929255 -1.3955133 0.3211084 -0.671699 1.842318 0.02373545
0.18197836 0.36290142 0.91179264 -2.2372997 1.397672 -0.097514905 -1.3857929 0.37638953
-0.7491833 1.8818588 0.014324854 0.17763568 0.36393684 0.93334734 -2.2471378 1.4293795
00000000: b43c 053f f04b eebf 8c06 2f3f 85af e9be
00000010: a1e7 3dbf b10c 843d 676d e8be 0c2d f03f
00000020: c01a 0a3d f715 163e 4063 b13e d63a 183f
00000030: 556a 08c0 0e75 743f 6861 ccbe 19d9 91bf
00000040: 1bea 9cbc 0ed1 14bf c92f 0140 cbc1 b5bd
00000050: c7d3 b53d b055 a83e 2922 223f ef45 0cc0
00000060: abdc 993f d899 a8be d173 8fbf f4fc ebbd
00000070: e506 06bf 9831 ff3f 3d79 c3bd 0d98 ac3d
00000080: 7592 af3e 3238 303f ab7a 0bc0 1b8d 973f
00000090: 176c 6ebe 2073 9abf 6e22 03be d5e9 edbe
000000a0: 7a4d 0240 03ff 01be 7e20 fe3d 9397 b23e
000000b0: 47a2 393f 2f88 04c0 7d9f 8b3f 4f0d 9abe
000000c0: 7fbc 89bf 89ee 23be dcae c9be e944 0640
000000d0: 306f 86bd 674b 033e f4da b63e dbf8 423f
000000e0: 1e36 08c0 5e9e 8c3f d710 5cbe d5f0 98bf
000000f0: 9531 08be a4db a2be 92fa 0640 e45f 12bd
00000100: d9c8 e43d df86 b63e 63cd 4d3f 8871 07c0
00000110: 3c30 803f fbce 29be acc3 a4bf 9c3b e6bc
00000120: 484d debe a4b9 0640 6e2a a2bd 9cf2 183e
00000130: 16c9 b53e c5b5 433f 3f6c 04c0 dd98 883f
00000140: 4db9 67be e9b1 a0bf 6f6e 22bd 65ff c2be
00000150: 6335 0540 bb54 febb c86c 133e 96fa b73e
00000160: c7eb 593f 8c7b 06c0 18cc 873f 1fe4 29be
00000170: df90 98bf 3daa 13bc 8c92 09bf 8aa3 0640
00000180: 36ac d8bd 0b28 003e ddd5 b83e 2437 4d3f
00000190: 16ea 0ac0 252b a13f 8a50 fcbd 74f8 acbf
000001a0: 9295 71bd 37d3 e2be 76db 0440 c8c5 dabd
000001b0: a268 133e d98c b73e 6946 453f 590d 0fc0
000001c0: cca5 bf3f db14 d0bd 72bf b5bf 9358 b9bd
000001d0: b770 d9be 1f92 0040 af56 3dbe 6566 dc3d
000001e0: 7f60 ba3e 3e1e 4c3f 0c8c 06c0 79ff b43f
000001f0: 9bc0 2abe 005a a1bf c3b3 1bbe 25ab dbbe
00000200: df3d f53f 848e 47be 619c b03d 4379 bc3e
00000210: 5f8c 433f 8652 0cc0 ce37 c13f 10fb 16be
00000220: 5b02 a7bf 4739 f3bd 9418 ccbe 77bf ef3f
00000230: 9557 59be 605a b93d 3a9b ba3e c7c5 443f
00000240: 1a5a 0dc0 0051 b23f 07ba cabd 6c94 a9bf
00000250: 9f10 7fbd 7107 d1be 8742 f43f 08f5 42be
00000260: fe60 cf3d 8b53 b73e 368b 3d3f b87f 0fc0
00000270: 650d b73f c15b 01be b9db a0bf e814 dcbc
00000280: 0f56 dfbe d5a0 fb3f e088 0abe e291 dc3d
00000290: 134b b63e 2cef 413f e9b9 10c0 3f9f b83f
000002a0: 2971 3fbe 40ee a7bf 68e3 f93b 1582 fcbe
000002b0: 143d f63f 0515 fabc 32dd 183e eed2 b43e
000002c0: 7811 453f 261f 11c0 0499 b43f bfc1 21be
000002d0: b6fb 9ebf cdf0 373d c3c9 08bf f7e9 f83f
000002e0: 6c83 9a3c ecb6 1c3e eb53 b53e 43dd 453f
000002f0: 36c9 0fc0 9c8d b63f 9ae7 21be 018e a6bf
00000300: 58cd fc3d 75a4 12bf b5b6 f73f 35ee 453d
00000310: d455 153e 0cc5 b53e 8e61 4c3f 4806 0ec0
00000320: d7a1 b03f 3124 3bbe 08de a2bf 5e43 2d3e
00000330: 5b68 0dbf c2e0 f73f 356a 6e3d fd4f 243e
00000340: 24c2 b53e 0f75 4f3f 756a 0ec0 f13a b13f
00000350: 5012 26be e16f a7bf b6dd 6d3e e23c 29bf
00000360: f588 f53f 8870 f23c 2dfe 313e cd4e b63e
00000370: 600e 5b3f 973f 0cc0 09fc a63f 103c 07be
00000380: 443f a8bf 7d05 923e d12a 1bbf 56a7 f03f
00000390: abd2 a63c e88c 1f3e 17b9 b73e c37e 653f
000003a0: d55a 0dc0 c066 b13f b5a2 0ebe 2ea0 b2bf
000003b0: 5268 a43e 77f4 2bbf 14d1 eb3f d970 c23c
000003c0: 8958 3a3e 37ce b93e 3e6b 693f eb2f 0fc0
000003d0: ebe6 b23f e5b5 c7bd a961 b1bf 21b6 c03e
000003e0: 7aca 3fbf c0e0 f03f cbb2 6a3c 21e6 353e
000003f0: ee55 ba3e daef 6e3f 1bd1 0fc0 e8f5 b63f

global_orient f4 [268, 3]
0.07063087 -2.4207668 0.031362798 0.06042591 -2.3723857 0.011597772 0.04032311 -2.337031
-0.0010769224 0.023268059 -2.326658 -4.6098572e-05 0.008603763 -2.32573 0.0021074906 -0.010055358
-2.3249996 0.0067247315 -0.033132613 -2.3278615 0.012123218 -0.048346035 -2.3416476 0.020914689
-0.0550545 -2.350438 0.023000613 -0.06629592 -2.3537984 0.024393579 -0.07289931 -2.3752885
0.026619248 -0.07929299 -2.3904145 0.031216329 -0.08659441 -2.4064558 0.031181363 -0.09466143
-2.4206538 0.036748085 -0.092944644 -2.4435985 0.03985074 -0.09812642 -2.475291 0.04167448
-0.10425923 -2.493381 0.047571372 -0.10964996 -2.5152364 0.054178882 -0.11804547 -2.5420878
0.06245881 -0.121677995 -2.5723395 0.0664738 -0.12784943 -2.5997927 0.07410382 -0.13346462
-2.6404989 0.07937119 -0.1463923 -2.6829815 0.08815584 -0.15511252 -2.7234333 0.09212156
-0.16212678 -2.7643328 0.090310976 -0.16618511 -2.7971833 0.09137067 -0.15236957 -2.8133273
0.08457599 -0.14703205 -2.8437135 0.07964341 -0.13743801 -2.8710787 0.071804985 -0.1267464
-2.8989844 0.06276131 -0.11572944 -2.917606 0.050770767 -0.10505532 -2.93618 0.04371852
-0.10058906 -2.9482288 0.03848275 -0.10381782 -2.9742935 0.026783608 -0.10883655 -2.9896107
0.02191272 -0.110975936 -2.9918177 0.02014745 -0.104483336 -2.981153 0.02084783 -0.096555345
-2.9553423 0.036570676 -0.07932593 -2.9128585 0.03591451 -0.06222613 -2.8635383 0.035675075
-0.04072792 -2.8210106 0.036127567 -0.005465412 -2.79304 0.03154681 0.02690352 -2.7794487
0.03502834 0.052724507 -2.752857 0.014500702 0.083159655 -2.7299542 0.0023081433 0.10691266
-2.698724 0.00065527094 0.11484446 -2.6702409 -0.0021706987 0.10716647 -2.6434233 7.532585e-05
0.09839219 -2.6189442 0.004079541 0.084985375 -2.5856566 -0.002510375 0.067986555 -2.5792103
-0.015239833 0.043832034 -2.4684887 -0.047890335 0.029537614 -2.3928437 -0.06569942 0.023049615
-2.3403392 -0.073849276 0.011776187 -2.315655 -0.07599773 -0.0055544404 -2.3015463 -0.06035353
-0.030562365 -2.276479 -0.040906455 -0.043977637 -2.2452927 -0.0283998 -0.05871846 -2.2348847
-0.0049059647 -0.06295266 -2.2381139 0.014860341 -0.064047 -2.2521439 0.02417335 -0.055622168
-2.264641 0.026355889 -0.033003848 -2.2726507 0.027196268 -0.018542157 -2.2905195 0.016090851
-0.002666105 -2.3293521 0.00901017 0.02640693 -2.3529453 0.015572703 0.041977197 -2.3677278
0.026459886 0.06455166 -2.3453445 0.05171972 0.09158153 -2.3199053 0.07471292 0.10905274
-2.3000865 0.088652484 0.12941812 -2.298212 0.08639437 0.1500753 -2.3014722 0.085745305
0.16020173 -2.301196 0.077111974 0.15924482 -2.2783194 0.07936623 0.16262934 -2.2443237
0.07124597 0.18168896 -2.209162 0.070971146 0.19108765 -2.168819 0.07251291 0.24432178
-2.1726248 0.1294228 0.26585436 -2.1551158 0.13360116 0.25896534 -2.1110425 0.114676826
0.2594418 -2.0717876 0.10441453 0.25746134 -2.0185986 0.10874233 0.23994777 -1.9558237
0.09908882 0.25021434 -1.9405063 0.09560181 0.25667733 -1.9290648 0.100822106 0.26631185
00000000: eba6 903d d8ed 1ac0 4776 003d 2981 773d
00000010: 2bd5 17c0 9504 3e3c d829 253d ea91 15c0
00000020: 8527 8dba a89c be3c f7e7 14c0 f759 41b8
00000030: ccf6 0c3c c3d8 14c0 d31d 0a3b 3abf 24bc
00000040: cbcc 14c0 235b dc3b 10b6 07bd affb 14c0
00000050: 76a0 463c 7e06 46bd 8edd 15c0 4855 ab3c
00000060: d480 61bd 946d 16c0 c86b bc3c 28c6 87bd
00000070: a2a4 16c0 0bd5 c73c 3c4c 95bd ba04 18c0
00000080: 9c10 da3c 5d64 a2bd 8dfc 18c0 63b9 ff3c
00000090: 6958 b1bd 5f03 1ac0 0f70 ff3c dadd c1bd
000000a0: feeb 1ac0 2985 163d c359 bebd eb63 1cc0
000000b0: 883a 233d 81f6 c8bd 2b6b 1ec0 dcb2 2a3d
000000c0: dd85 d5bd 8e93 1fc0 33da 423d 2990 e0bd
000000d0: a2f9 20c0 adea 5d3d d3c1 f1bd 91b1 22c0
000000e0: cfd4 7f3d 5032 f9bd 36a1 24c0 6a23 883d
000000f0: f6ea 02be 0163 26c0 bec3 973d f3aa 08be
00000100: effd 28c0 5d8d a23d dde7 15be f8b5 2bc0
00000110: 0d8b b43d d1d5 1ebe bb4c 2ec0 3aaa bc3d
00000120: 9004 26be d4ea 30c0 f6f4 b83d 6e2c 2abe
00000130: 0d05 33c0 8c20 bb3d c506 1cbe 8e0d 34c0
00000140: 2d36 ad3d 928f 16be 67ff 35c0 161c a33d
00000150: 8dbc 0cbe c1bf 37c0 7e0e 933d cfc9 01be
00000160: f688 39c0 0089 803d 8e03 edbd 0fba 3ac0
00000170: 02f5 4f3d 3e27 d7bd 60ea 3bc0 3112 333d
00000180: a301 cebd c8af 3cc0 17a0 1d3d 709e d4bd
00000190: d35a 3ec0 4c69 db3c b2e5 debd c855 3fc0
000001a0: 4e82 b33c 5a47 e3bd f179 3fc0 440c a53c
000001b0: 5cfb d5bd 36cb 3ec0 12c9 aa3c cfbe c5bd
000001c0: 5424 3dc0 22cb 153d a275 a2bd 466c 3ac0
000001d0: 181b 133d d4e0 7ebd 3644 37c0 0720 123d
000001e0: 52d2 26bd 708b 34c0 80fa 133d 3317 b3bb
000001f0: 2bc1 32c0 3a37 013d c564 dc3c 7de2 31c0
00000200: e079 0f3d a7f5 573d cf2e 30c0 5a94 6d3c
00000210: 9c4f aa3d 92b7 2ec0 3844 173b 06f5 da3d
00000220: e5b7 2cc0 7dc6 2b3a 9233 eb3d 3ae5 2ac0
00000230: 4842 0ebb 187a db3d d92d 29c0 42f8 9d38
00000240: d881 c93d c89c 27c0 acad 853b d00c ae3d
00000250: 667b 25c0 1b85 24bb 893c 8b3d c811 25c0
00000260: 7eb0 79bc 3889 333d b8fb 1dc0 a828 44bd
00000270: def8 f13c 5a24 19c0 6b8d 86bd 8cd2 bc3c
00000280: 1ec8 15c0 4a3e 97bd e9f0 403c b133 14c0
00000290: b3a4 9bbd 0602 b6bb 894c 13c0 4335 77bd
000002a0: ed5d fabc d5b1 11c0 878d 27bd e521 34bd
000002b0: e0b2 0fc0 b3a6 e8bc c582 70bd 5a08 0fc0
000002c0: 37c2 a0bb 53ed 80bd 423d 0fc0 ca78 733c
000002d0: 132b 83bd 2023 10c0 3007 c63c 12d4 63bd
000002e0: e1ef 10c0 4ee8 d73c 0b2f 07bd 1c73 11c0
000002f0: b5ca de3c b9e5 97bc df97 12c0 f6d0 833c
00000300: d2b9 2ebb 1b14 15c0 649f 133c 5953 d83c
00000310: a896 16c0 a724 7f3c 48f0 2b3d da88 17c0
00000320: 67c2 d83c a933 843d 201a 16c0 0fd8 533d
00000330: 198f bb3d 5479 14c0 1603 993d 0b57 df3d
00000340: 9e34 13c0 6f8f b53d 2f86 043e e815 13c0
00000350: 88ef b03d 57ad 193e 524b 13c0 3c9b af3d
00000360: ec0b 243e cc46 13c0 e2ec 9d3d 1311 233e
00000370: fccf 11c0 c38a a23d 4e88 263e 00a3 0fc0
00000380: 68e9 913d ac0c 3a3e e962 0dc0 5259 913d
00000390: 7bac 433e eecd 0ac0 a681 943d 7d2f 7a3e
000003a0: 490c 0bc0 6987 043e 101e 883e 6bed 09c0
000003b0: bece 083e 1b97 843e 521b 07c0 afdb ea3d
000003c0: 8ed5 843e 2b98 04c0 49d7 d53d f9d1 833e
000003d0: b830 01c0 4cb4 de3d deb4 753e 6e58 fabf
000003e0: 14ef ca3d 181c 803e 8362 f8bf e2ca c33d
000003f0: 366b 833e 98eb f6bf d27b ce3d 075a 883e

body_pose f4 [268, 63]
-0.38020936 -0.121755496 0.039226655 -0.49679184 0.14483768 -0.14662355 0.18887992 -0.015007108
0.10593224 0.5728746 -0.33776033 -0.0071018855 0.56400377 -0.16301912 0.08606317 -0.018510738
0.031026362 -0.033860568 -0.12169324 -0.15899517 -0.090269566 0.069285825 0.067403845 -0.087460056
0.0770781 0.052588776 0.0605358 1.5373036e-05 -1.6232487e-05 1.5766233e-05 1.6249329e-05 1.4528556e-05
1.5007309e-05 -0.08860265 -0.073711544 0.08751475 0.0026604692 0.031562924 -0.49439913 0.06012954
0.027001193 0.43041003 0.027194384 -0.053561274 0.066182695 0.086189814 -0.10426067 -0.82337767
0.10669981 0.2056984 0.76061004 0.13154879 -0.7661624 -0.1212066 0.14870946 0.99583805
0.4722767 0.31625518 0.22072323 0.13895532 0.26691166 0.081516795 0.21917893 -0.37230977
-0.1728873 0.08118756 -0.5074484 0.023179527 -0.15954593 0.19632028 -0.02326407 0.09684489
0.6699714 -0.28873533 -0.06867602 0.6250394 0.06465827 0.14763558 -0.022919374 0.027297745
-0.02882365 -0.23350823 -0.19737649 -0.08599477 -0.05893847 -0.15868339 0.09266164 0.1035674
0.03734997 0.08893373 1.5575255e-05 1.4689654e-05 1.6372103e-05 1.4138691e-05 1.5154929e-05 -1.5272019e-05
-0.10827753 -0.027607787 0.10855348 -0.017764999 0.07760945 -0.4321418 0.054760933 -0.032595526
0.36724687 0.026728041 -0.10423679 0.04857956 0.08219671 -0.10820665 -0.879183 0.07725664
0.19606419 0.76163167 -0.023701161 -0.8292204 -0.1739852 0.11889656 1.0805161 0.58239794
0.20142412 0.11164349 0.097545184 0.12668787 0.09234352 0.2319829 -0.33661178 -0.1786905
0.082460426 -0.45547268 0.033351496 -0.17296708 0.2004353 -0.04574764 0.09463299 0.6231989
-0.35362804 -0.05812144 0.5876153 0.025845757 0.12484237 -0.027624546 0.022918103 -0.030770814
-0.3288686 -0.17404447 -0.16310269 -0.20985179 -0.1517472 0.24707477 0.14020623 0.038344808
0.098676436 1.5094779e-05 -1.5907915e-05 1.630966e-05 1.6727818e-05 1.5767666e-05 1.619618e-05 -0.1124955
-0.017007401 0.12268396 -0.012543536 0.056618348 -0.42820334 0.070186555 -0.027483838 0.3566957
0.01820719 -0.097270496 0.04258235 0.09507206 -0.10312089 -0.90053636 0.080562696 0.220801
0.7078376 -0.06909211 -0.87798274 -0.17206077 0.069355145 1.1694446 0.6198121 0.20978545
0.08275892 0.13874297 0.18407091 0.22505791 0.33528054 -0.3410925 -0.1791872 0.07458873
-0.42944583 0.0597582 -0.1938887 0.20760709 -0.021281237 0.096977025 0.6543772 -0.34654725
-0.042843875 0.57951325 0.02085995 0.18080594 -0.0395891 0.036539067 -0.02031335 -0.25418335
-0.2258993 -0.13460861 -0.14177269 -0.19071165 0.16536884 0.14455001 0.028925607 0.091774926
1.5116217e-05 -1.5721118e-05 1.6323667e-05 1.7333457e-05 1.5445581e-05 1.5957754e-05 -0.09922387 -0.034497138
0.11629166 -0.018260809 0.04103064 -0.46836525 0.06960435 -0.05963996 0.34627038 0.02155298
-0.122266226 0.057124343 0.088541925 -0.12388791 -0.8437454 0.0983474 0.22051774 0.71527934
-0.041561663 -0.84416395 -0.22477768 0.0558071 1.1640786 0.6545961 0.21406242 0.12310043
0.16442673 0.18303265 0.21267784 0.33249047 -0.32710734 -0.20494781 0.06102439 -0.41958532
00000000: cdaa c2be f25a f9bd 21ac 203d 805b febe
00000010: 5450 143e 7c24 16be bd69 413e 60e0 75bc
00000020: 01f3 d83d e9a7 123f ecee acbe efb6 e8bb
00000030: 8d62 103f 7cee 26be e341 b03d d5a3 97bc
00000040: ff2a fe3c 61b1 0abd 4e3a f9bd a1cf 22be
00000050: 40df b8bd bae5 8d3d 070b 8a3d 421e b3bd
00000060: 1fdb 9d3d 5467 573d 63f4 773d 58f5 8037
00000070: 002b 88b7 ba41 8437 2b4f 8837 acbf 7337
00000080: e7c7 7b37 4e75 b5bd 14f6 96bd ef3a b33d
00000090: 445b 2e3b 2048 013d e221 fdbe 644a 763d
000000a0: 9b31 dd3c b45e dc3e c2c6 de3c 1163 5bbd
000000b0: cb8a 873d 4984 b03d 9e86 d5bd e1c8 52bf
000000c0: 6e85 da3d 9aa2 523e 57b7 423f bab4 063e
000000d0: 3823 44bf 2a3b f8bd 4b47 183e 3eef 7e3f
000000e0: 40ce f13e 33ec a13e 4505 623e 4e4a 0e3e
000000f0: a5a8 883e 47f2 a63d 7170 603e 639f bebe
00000100: 5e09 31be aa45 a63d 23e8 01bf fee2 bd3c
00000110: 0260 23be 2f08 493e 4a94 bebc 9d56 c63d
00000120: 3f83 2b3f 1ed5 93be 03a6 8cbd 9502 203f
00000130: 8e6b 843d c82d 173e 69c1 bbbc 859f df3c
00000140: 931f ecbc c81c 6fbe 101d 4abe 071e b0bd
00000150: 7769 71bd e67d 22be 63c5 bd3d 251b d43d
00000160: 48fc 183d e322 b63d 9ba7 8237 9573 7637
00000170: d356 8937 3735 6d37 ed41 7e37 691c 80b7
00000180: 9cc0 ddbd ba29 e2bc 4951 de3d e787 91bc
00000190: b4f1 9e3d b141 ddbe 004d 603d e382 05bd
000001a0: c807 bc3e c4f4 da3c 197a d5bd 5cfb 463d
000001b0: c056 a83d 739b ddbd 2312 61bf bb38 9e3d
000001c0: 0dc5 483e 4bfa 423f f028 c2bc ca47 54bf
000001d0: 2d29 32be 0a80 f33d 5a4e 8a3f 0818 153f
000001e0: 2042 4e3e 58a5 e43d c5c5 c73d 77ba 013e
000001f0: 991e bd3d ed8c 6d3e 6158 acbe a4fa 36be
00000200: 03e1 a83d b733 e9be 949b 083d 481e 31be
00000210: e93e 4d3e e161 3bbd f1ce c13d f789 1f3f
00000220: bc0e b5be bf10 6ebd f56d 163f 7bba d33c
00000230: 5bad ff3d df4c e2bc bfbe bb3c 1313 fcbc
00000240: 7761 a8be b738 32be 6404 27be 63e3 56be
00000250: 9e63 1bbe 2b01 7d3e 3992 0f3e 720f 1d3d
00000260: df16 ca3d 953f 7d37 fd71 85b7 bad0 8837
00000270: b752 8c37 ce44 8437 08dd 8737 0a64 e6bd
00000280: 1b53 8bbc ba41 fb3d 6783 4dbc a4e8 673d
00000290: 783d dbbe f8bd 8f3d c925 e1bc d2a0 b63e
000002a0: 3f27 953c c135 c7bd d56a 2e3d 24b5 c23d
000002b0: 0c31 d3bd 8d89 66bf 0efe a43d a819 623e
000002c0: d834 353f 2a80 8dbd 7ac3 60bf b330 30be
000002d0: 120a 8e3d 5cb0 953f 01ac 1e3f ffd1 563e
000002e0: 827d a93d a312 0e3e 167d 3c3e 9575 663e
000002f0: e4a9 ab3e ada3 aebe d97c 37be fac1 983d
00000300: 53e0 dbbe 04c5 743d c28a 46be f496 543e
00000310: fd55 aebc e49b c63d 4485 273f a46e b1be
00000320: 0f7d 2fbd fb5a 143f 7ce2 aa3c 3125 393e
00000330: 2e28 22bd fda9 153d 2f68 a6bc 5224 82be
00000340: 2552 67be d7d6 09be dc2c 11be ea49 43be
00000350: 7356 293e eb04 143e 65f5 ec3c 7ef4 bb3d
00000360: a89b 7d37 d8e0 83b7 cfee 8837 5167 9137
00000370: 2291 8137 04dd 8537 e235 cbbd df4c 0dbd
00000380: 522a ee3d b197 95bc bf0f 283d 92cd efbe
00000390: ba8c 8e3d 0849 74bd 5a4a b13e e08f b03c
000003a0: b766 fabd 37fb 693d 7855 b53d f2b8 fdbd
000003b0: b3ff 57bf 5d6a c93d 67cf 613e 8c1c 373f
000003c0: 903c 2abd 211b 58bf 1f2c 66be fc95 643d
000003d0: 8700 953f 9c93 273f 2e33 5b3e 141c fc3d
000003e0: 7b5f 283e e96c 3b3e 38c8 593e 313c aa3e
000003f0: 9d7a a7be d7dd 51be b6f4 793d e3d3 d6be

transl f4 [268, 3]
0.46003467 1.3988352 1.2631783 0.46105507 1.3924552 1.2514248 0.46153572 1.392223
1.2412387 0.462586 1.3929666 1.2295176 0.463775 1.3941938 1.2177598 0.4650454
1.393721 1.2049848 0.46743482 1.393624 1.190558 0.46915504 1.3949379 1.1763237
0.47145462 1.3925065 1.1634862 0.472311 1.3912119 1.150566 0.47270617 1.3912879
1.1392897 0.47320542 1.3891709 1.1279144 0.47146755 1.3889673 1.117604 0.46924743
1.3873354 1.1078861 0.46699163 1.3863171 1.0995442 0.464696 1.3853748 1.091526
0.4629518 1.3841816 1.0838363 0.46123177 1.3830473 1.0770282 0.45877948 1.3818494
1.070615 0.4559313 1.3810712 1.0637456 0.45264408 1.3805232 1.057632 0.44859645
1.3803701 1.0506824 0.44460556 1.3798189 1.0443215 0.44015694 1.3790848 1.0362267
0.4340412 1.3793116 1.028037 0.42707297 1.3792081 1.019264 0.419815 1.3788024
1.0085304 0.4116087 1.3780401 0.99760526 0.40206385 1.3774374 0.9853204 0.39188072
1.3752625 0.9716724 0.38016888 1.3734845 0.9569536 0.36786523 1.372215 0.94238067
0.35448408 1.3714937 0.9277703 0.34015268 1.3724229 0.91305715 0.3244558 1.3724401
0.89523256 0.30779722 1.3720067 0.8779869 0.29241875 1.3708969 0.8593297 0.27833134
1.3706892 0.84090734 0.26581404 1.3696893 0.8234298 0.25498083 1.3701187 0.8069461
0.24572892 1.36983 0.7905197 0.23747319 1.3703872 0.7749865 0.22993954 1.3720992
0.7597166 0.22233073 1.3730503 0.7435726 0.21525605 1.3750764 0.72752124 0.2090367
1.3755994 0.7092667 0.20270336 1.3749709 0.6887366 0.19607449 1.3729808 0.6672148
0.18964049 1.3695846 0.64298296 0.18325509 1.3639601 0.61507285 0.17523685 1.3584644
0.58772546 0.17009477 1.3464391 0.5536907 0.16421896 1.3387146 0.52483636 0.15959895
1.3360635 0.49852034 0.15528515 1.3357737 0.47699302 0.1520875 1.339906 0.46109012
0.1504157 1.3448206 0.448205 0.14903013 1.352945 0.4393266 0.14668879 1.3598216
0.43430153 0.14351028 1.3649606 0.43059814 0.13934392 1.3690631 0.42641944 0.13351426
1.3708394 0.42234355 0.12649064 1.371103 0.4165275 0.11849669 1.3694503 0.4123677
0.11112571 1.3676882 0.4080545 0.10313489 1.3680351 0.40536943 0.09549869 1.3697414
0.40476128 0.08749153 1.3724759 0.40609807 0.080389924 1.3751044 0.40810972 0.071515195
1.3761 0.41013741 0.063361555 1.3761733 0.41091186 0.05539827 1.3737683 0.41099218
0.04975848 1.3721236 0.41046867 0.044405293 1.3694128 0.41027665 0.041247956 1.3660578
0.40917876 0.03877934 1.3630989 0.4089616 0.038103484 1.3603647 0.40867597 0.037362836
1.3642071 0.41285998 0.040512018 1.3600392 0.40998796 0.044281714 1.3503319 0.40265968
0.047323078 1.3441175 0.39726907 0.051486503 1.3379598 0.39041328 0.05672753 1.3338095
0.38455433 0.06318501 1.3312682 0.37732682 0.06987044 1.3287168 0.3702919 0.07718007
00000000: aa89 eb3e 080d b33f d4af a13f 690f ec3e
00000010: f93b b23f b02e a03f 694e ec3e 5d34 b23f
00000020: e9e0 9e3f 12d8 ec3e bb4c b23f d560 9d3f
00000030: eb73 ed3e f174 b23f 8edf 9b3f 6e1a ee3e
00000040: 7365 b23f f13c 9a3f 9e53 ef3e 4562 b23f
00000050: 3464 983f 1735 f03e 538d b23f c691 963f
00000060: 8062 f13e a73d b23f 1eed 943f bfd2 f13e
00000070: 3b13 b23f bf45 933f 8b06 f23e b915 b23f
00000080: 3fd4 913f fb47 f23e 5ad0 b13f 805f 903f
00000090: 3264 f13e aec9 b13f a60d 8f3f 3341 f03e
000000a0: 3594 b13f 36cf 8d3f 8719 ef3e d772 b13f
000000b0: ddbd 8c3f a2ec ed3e f653 b13f 20b7 8b3f
000000c0: 0508 ed3e dd2c b13f 26bb 8a3f 9226 ec3e
000000d0: b207 b13f 0fdc 893f 25e5 ea3e 71e0 b03f
000000e0: ea09 893f d46f e93e f1c6 b03f d128 883f
000000f0: f7c0 e73e fcb4 b03f 7c60 873f 6fae e53e
00000100: f8af b03f c37c 863f 57a3 e33e e89d b03f
00000110: 54ac 853f 405c e13e da85 b03f 14a3 843f
00000120: a63a de3e 488d b03f b796 833f 4fa9 da3e
00000130: e489 b03f 3e77 823f fef1 d63e 997c b03f
00000140: 8617 813f 60be d23e 9e63 b03f 0f63 7f3f
00000150: 50db cd3e de4f b03f f53d 7c3f 97a4 c83e
00000160: 9a08 b03f 86bf 783f 7fa5 c23e 57ce af3f
00000170: e9fa 743f d558 bc3e bea4 af3f dc3f 713f
00000180: f07e b53e 1b8d af3f 5b82 6d3f 7e28 ae3e
00000190: 8eab af3f 1dbe 693f 121f a63e 1eac af3f
000001a0: f62d 653f 9997 9d3e ea9d af3f c0c3 603f
000001b0: e9b7 953e 8d79 af3f 08fd 5b3f 7281 8e3e
000001c0: be72 af3f b445 573f c718 883e fb51 af3f
000001d0: 4ccc 523f d98c 823e 0d60 af3f 0594 4e3f
000001e0: 5da0 7b3e 9756 af3f 805f 4a3f 2c2c 733e
000001f0: d968 af3f 8465 463f 4575 6b3e f2a0 af3f
00000200: c97c 423f abaa 633e 1dc0 af3f c65a 3e3f
00000210: 156c 5c3e 8102 b03f d53e 3a3f b70d 563e
00000220: a413 b03f 8192 353f 7891 4f3e 0cff af3f
00000230: 0b51 303f c0c7 483e d6bd af3f 97ce 2a3f
00000240: 1e31 423e 8c4e af3f 889a 243f 39a7 3b3e
00000250: 3f96 ae3f 6a75 1d3f 4a71 333e 29e2 ad3f
00000260: 2d75 163f 532d 2e3e 1e58 ac3f acbe 0d3f
00000270: 0429 283e 005b ab3f ad5b 063f e86d 233e
00000280: 2104 ab3f 0f3e ff3e 1203 1f3e a2fa aa3f
00000290: 6e38 f43e d3bc 1b3e 0a82 ab3f 0114 ec3e
000002a0: 9306 1a3e 1523 ac3f 207b e53e 5b9b 183e
000002b0: 4d2d ad3f 6bef e03e 9635 163e a20e ae3f
000002c0: c55c de3e 5cf4 123e 07b7 ae3f 5c77 dc3e
000002d0: 2cb0 0e3e 763d af3f a653 da3e f6b7 083e
000002e0: aa77 af3f 6a3d d83e c386 013e 4e80 af3f
000002f0: 1843 d53e 65ae f23d 264a af3f dc21 d33e
00000300: e095 e33d 6810 af3f 85ec d03e 6338 d33d
00000310: c61b af3f 958c cf3e d194 c33d b053 af3f
00000320: df3c cf3e c22e b33d 4aad af3f 16ec cf3e
00000330: 79a3 a43d 6c03 b03f c2f3 d03e 8f76 923d
00000340: 0b24 b03f 88fd d13e b4c3 813d 7226 b03f
00000350: 0a63 d23e 4ce9 623d a4d7 af3f 916d d23e
00000360: 8ccf 4b3d bfa1 af3f f328 d23e 53e2 353d
00000370: eb48 af3f c80f d23e 9ef3 283d fbda ae3f
00000380: e17f d13e 16d7 1e3d 067a ae3f 6a63 d13e
00000390: 6612 1c3d 6e20 ae3f fa3d d13e c609 193d
000003a0: 579e ae3f 6262 d33e eeef 253d c415 ae3f
000003b0: f1e9 d13e be60 353d add7 ac3f 6929 ce3e
000003c0: d8d5 413d 0b0c ac3f da66 cb3e 83e3 523d
000003d0: 4442 ab3f 40e4 c73e 205b 683d 45ba aa3f
000003e0: 4ee4 c43e 2467 813d ff66 aa3f fb30 c13e
000003f0: 3c18 8f3d 6413 aa3f e696 bd3e 9610 9e3d

left_hand_pose f4 [268, 12]
-0.058498237 0.14639512 -0.011195566 -0.48966393 0.5278977 0.44251028 0.06178412 -0.053471934
-1.1843876 -0.40764344 0.77900064 -1.3723372 0.054250315 0.5620031 0.6418434 0.7388079
-0.072945215 0.39816812 -1.1963642 0.06281493 -1.3150877 -0.2572522 -0.7485403 -1.5153723
0.10457586 0.335587 0.49240348 -0.13104315 0.42688096 0.043482833 -0.29615042 0.45035782
-1.1990192 -0.12000314 1.2107917 -0.8915406 0.038181093 0.003110623 0.42432424 -0.6029145
0.41680264 0.39048764 -0.06023304 0.18872775 -0.8440387 -0.22641264 1.1499501 -1.3621777
0.100003704 0.03890409 0.15949245 -0.6666205 0.58012915 -0.25487587 -0.27059406 0.5575914
-0.86596817 -0.24418125 0.8280006 -0.6068701 0.098457485 -0.21133892 0.37773007 -0.9712283
0.6819456 -0.17292386 0.4260613 0.15025371 -0.09908886 -0.3503168 1.2087392 -1.5011581
0.17861082 -0.0018381561 0.3969249 -0.70059633 0.39155054 -0.37432888 0.17168057 0.3297678
-0.92861044 -0.69539016 0.4660604 -1.2945045 0.18453111 0.02568674 0.36284304 -0.8181801
0.50231993 -0.12389808 -0.055767357 0.628802 -0.71770144 -0.36679354 0.8354028 -1.6791443
-0.14511602 -0.20193614 -0.31592217 -1.5995995 1.7790873 -0.320324 0.11066589 0.6812885
0.647842 -0.21429075 0.10103762 -0.48517245 0.07259517 0.1192466 -0.15331228 -0.97761136
0.30540526 0.07632496 -0.4019988 1.342101 -0.85206294 0.20461783 0.21855466 0.06256685
0.1924595 0.06704231 -0.09897354 -0.7072844 -0.041755006 -0.49148762 -0.43522584 1.6312658
-1.0516107 0.47560397 0.32022145 -0.011357186 0.14913274 0.07421534 -0.1463619 -1.0150106
0.31481034 -0.39976904 -0.4278829 1.199482 -1.1810538 0.052959055 -0.64203125 -0.40007827
0.042855196 0.088011 -0.3790493 -0.9024898 -0.103169456 -0.17796147 -0.46235818 1.4150065
-1.3437707 0.077051505 -1.0807716 -0.20306994 -0.021893626 -0.0034296599 -0.085710295 -0.905305
-0.13603266 0.18565676 -0.22116105 0.987849 -0.812928 -0.27847144 -0.5084438 -0.77059877
-0.08608429 0.27425578 0.83400315 -0.3699292 -0.43442044 -0.61954147 -0.2654777 0.32010883
-0.8926855 -1.3014872 0.0569447 -2.6068559 0.089171536 0.024997603 0.4419549 -0.28317717
-0.011709323 -0.56739944 0.22033852 0.42137846 -0.7571937 -0.6279454 -0.008292264 -0.80688953
0.19259405 0.04231017 0.4693182 -0.14990875 0.049918547 -0.5619949 0.23571117 0.16510259
-0.6693555 -0.754449 0.097999774 -1.1704915 0.29147667 0.056472894 0.4329352 -0.12079756
0.15417536 -0.55474114 0.2155112 0.13675073 -0.40063092 -0.6838786 0.12820786 -1.2288142
0.29797843 0.10679152 0.45111346 -0.11169815 0.34609085 -0.44894594 0.1784485 -0.077269405
-0.403476 -0.8314164 0.25017196 -1.5612584 0.32438183 0.07226634 0.49874026 -0.0045853616
0.18920207 -0.5405566 0.42220587 -0.1746344 -0.34454858 -0.87068796 0.5149945 -1.6029525
0.36152607 0.05249827 0.42388564 -0.0738271 0.30840555 -0.42766082 0.4348457 -0.21063167
-0.3215994 -0.90755147 0.41546226 -1.4717768 0.40867895 0.072305486 0.4496183 0.0009353339
00000000: d99b 6fbd 9ae8 153e 9b6d 37bc 3bb5 fabe
00000010: 4e24 073f b590 e23e 5811 7d3d 6305 5bbd
00000020: 039a 97bf a4b6 d0be 966c 473f bfa8 afbf
00000030: 9435 5e3d 6fdf 0f3f d94f 243f 8422 3d3f
00000040: 4d64 95bd b1dc cb3e 7622 99bf 1da5 803d
00000050: cb54 a8bf 8fb6 83be 56a0 3fbf b8f7 c1bf
00000060: de2b d63d 0fd2 ab3e 4f1c fc3e 2d30 06be
00000070: 2490 da3e 0e1b 323d 07a1 97be 4d95 e63e
00000080: 7679 99bf 35c4 f5bd 39fb 9a3f 013c 64bf
00000090: c763 1c3d 98db 4b3b 0741 d93e 9b58 1abf
000000a0: 2867 d53e ffed c73e ecb6 76bd d941 413e
000000b0: ec12 58bf b7d8 67be 9131 933f d75b aebf
000000c0: bece cc3d e559 1f3d fd51 233e a4a7 2abf
000000d0: 5883 143f 177f 82be 4e8b 8abe 4fbe 0e3f
000000e0: 17b0 5dbf a60a 7abe d9f7 533f d75b 1bbf
000000f0: 14a4 c93d 3b69 58be d665 c13e 6ba2 78bf
00000100: fd93 2e3f f412 31be b524 da3e 1cdc 193e
00000110: 1aef cabd b95c b3be f7b7 9a3f f325 c0bf
00000120: c1e5 363e 49ee f0ba be39 cb3e 485a 33bf
00000130: 5079 c83e 09a8 bfbe 08cd 2f3e 53d7 a83e
00000140: 6ab9 6dbf 1705 32bf 789f ee3e 53b2 a5bf
00000150: b9f5 3c3e 006d d23c 90c6 b93e 4074 51bf
00000160: 0a98 003f 47be fdbd 506c 64bd 2bf9 203f
00000170: 48bb 37bf 5dcc bbbe f5dc 553f 33ee d6bf
00000180: 4b99 14be 59c8 4ebe 8dc0 a1be adbf ccbf
00000190: 22b9 e33f 8201 a4be cca4 e23d ec68 2e3f
000001a0: f9d8 253f 096f 5bbe d0ec ce3d 8668 f8be
000001b0: c7ac 943d 9037 f43d e5fd 1cbe bd44 7abf
000001c0: 145e 9c3e 4350 9c3d c9d2 cdbe f7c9 ab3f
000001d0: cc20 5abf 5687 513e cbcc 5f3e 0c23 803d
000001e0: 1a14 453e 7b4d 893d a4b2 cabd 9710 35bf
000001f0: 4c07 2bbd 44a4 fbbe ecd5 debe 51cd d03f
00000200: 2e9b 86bf 5d82 f33e 11f4 a33e 7e13 3abc
00000210: 41b6 183e 36fe 973d e5df 15be deeb 81bf
00000220: d22e a13e 87ae ccbe 7813 dbbe a088 993f
00000230: c52c 97bf 98eb 583d 295c 24bf 0fd7 ccbe
00000240: ee88 2f3d 1c3f b43d c012 c2be 9209 67bf
00000250: 824a d3bd 883b 36be 36ba ecbe ef1e b53f
00000260: ae00 acbf 2ecd 9d3d b956 8abf 91f1 4fbe
00000270: 435a b3bc 25c4 60bb e188 afbd 12c2 67bf
00000280: 254c 0bbe ce1c 3e3e 0b78 62be ace3 7c3f
00000290: 0d1c 50bf cf93 8ebe 5f29 02bf f645 45bf
000002a0: f64c b0bd 416b 8c3e 3b81 553f 5c67 bdbe
000002b0: 5b6c debe 459a 1ebf b1ec 87be 4ee5 a33e
000002c0: 0987 64bf 2297 a6bf d93e 693d bad6 26c0
000002d0: 919f b63d c6c7 cc3c ea47 e23e 99fc 90be
000002e0: 76d8 3fbc 1741 11bf 6ca0 613e ebbe d73e
000002f0: 72d7 41bf 08c1 20bf 47dc 07bc 5090 4ebf
00000300: 6037 453e 6e4d 2d3d 7a4a f03e ae81 19be
00000310: 6477 4c3d e6de 0fbf 455e 713e a710 293e
00000320: e25a 2bbf 9223 41bf 1bb4 c83d aad2 95bf
00000330: 6e3c 953e 1f50 673d afa9 dd3e b664 f7bd
00000340: 25e0 1d3e 8403 0ebf f8ae 5c3e 6208 0c3e
00000350: 7f1f cdbe ab12 2fbf ec48 033e c949 9dbf
00000360: a190 983e 83b5 da3d 58f8 e63e 00c2 e4bd
00000370: d232 b13e 3edc e5be 34bb 363e 6c3f 9ebd
00000380: 6894 cebe b5d7 54bf 8a16 803e 51d7 c7bf
00000390: 6015 a63e 6000 943d e25a ff3e cd40 96bb
000003a0: 30be 413e eb61 0abf 5e2b d83e 5cd3 32be
000003b0: ac68 b0be 68e5 5ebf aed6 033f 8c2d cdbf
000003c0: f219 b93e 6d08 573d 8a07 d93e aa32 97bd
000003d0: 55e7 9d3e 5cf6 dabe 18a4 de3e d4af 57be
000003e0: ada8 a4be 4b55 68bf 78b7 d43e 2f63 bcbf
000003f0: 5e3e d13e e614 943d 5f34 e63e 3231 753a

right_hand_pose f4 [268, 12]
0.45794037 0.08488206 0.45482817 0.33991155 -0.03713552 -0.26299474 0.28801283 -0.13767867
-0.378976 -0.59961194 1.2443721 -1.3371419 0.43372908 0.24668148 0.7311539 0.7926675
-0.043416124 0.1679596 -0.60447735 -0.36922666 -0.25448307 -0.79139173 -0.11591253 -1.7442406
0.36179143 0.18822685 0.58958375 0.0551047 0.41823137 -0.2978191 0.4942437 -0.5729249
-0.20917925 -0.9487139 1.451506 -1.611285 0.45402044 0.18818735 0.63072735 0.45076844
0.012718247 -0.22715695 0.13573518 -0.1466046 -0.677062 -0.617067 1.0866345 -1.1323307
0.4550478 0.12520978 0.50205976 0.052425094 0.45493588 -0.29447627 0.6554705 -0.18265362
-0.5039931 -0.9022819 0.8789299 -0.9581072 0.45672008 0.038542397 0.48919362 -0.37607756
1.1591622 -0.38090077 0.76833075 -0.4073631 -0.32091063 -1.0918694 1.0133971 -1.0805227
0.5167373 0.0126914745 0.5348847 -0.16148174 0.60166764 -0.5688613 0.64800024 -0.12037331
-0.53395814 -1.0061457 1.37026 -1.3813279 0.55332655 0.05042859 0.4900271 0.106686614
0.061438166 -0.56165695 0.4261258 0.06702757 -0.5042279 -0.5161674 1.4787971 -1.1987733
0.554968 0.061070196 0.5630375 0.25981173 -0.029535823 -0.4403668 0.451941 0.0053267824
-0.44183177 -0.49593306 1.310441 -1.2077525 0.60336983 0.14150582 0.6599291 0.45743623
-0.16328737 -0.44691536 0.4503096 -0.06972144 -0.49041858 -0.52819747 1.3093008 -1.1684878
0.6219667 0.20175852 0.6497302 0.54214895 -0.19764715 -0.37293312 0.2265416 -0.08347637
-0.5185875 -0.5639593 1.3876891 -1.2084619 0.60574317 0.18203865 0.5855911 0.4863907
-0.15690601 -0.39799127 0.2499075 0.0070572114 -0.4964935 -0.5122829 1.3670706 -1.1246778
0.58678526 0.11220221 0.61358124 0.5190593 -0.21074381 -0.41008633 0.44375727 -0.076235846
-0.41676277 -0.5394925 1.4082077 -1.0095193 0.5561313 0.14566797 0.56159157 0.47029823
-0.1078538 -0.32013714 0.28195134 -0.11676937 -0.4441522 -0.6081302 1.2567759 -1.2407676
0.557819 0.08045211 0.5555342 0.48743716 -0.18156464 -0.48378086 0.49967155 -0.05718046
-0.40116477 -0.57522345 1.2395364 -1.2403063 0.5413423 0.036095656 0.5576032 0.5341573
-0.13547948 -0.50190634 0.46979243 -0.12364772 -0.3129761 -0.72979265 0.96450907 -1.3402272
0.5311303 0.06013525 0.5707568 0.607551 -0.18531835 -0.49707526 0.47057182 -0.21202394
-0.35506314 -0.7632272 1.0249004 -1.4299566 0.55080765 0.035234172 0.5756943 0.59816015
-0.15151593 -0.554494 0.50756496 -0.2000535 -0.23293014 -0.7271406 1.092558 -1.2463034
0.54329133 0.0069784108 0.5527923 0.5589287 -0.046757035 -0.6453618 0.57811445 -0.27814648
-0.21853553 -0.84144795 1.0513767 -1.3593941 0.50665367 0.041239873 0.49495164 0.48542103
0.09624935 -0.5702616 0.48504248 -0.3263433 -0.12251765 -0.91091454 0.9426937 -1.4817173
0.5025048 0.04935579 0.51071364 0.49101597 0.094069496 -0.52118576 0.47852686 -0.34616208
-0.2010988 -0.95766747 0.92129475 -1.4475565 0.53170455 0.0094300015 0.57221526 0.5470485
00000000: 2977 ea3e a5d6 ad3d 3ddf e83e e308 ae3e
00000010: 6a1b 18bd 3fa7 86be 6b76 933e a3fb 0cbe
00000020: 2409 c2be 2b80 19bf 9647 9f3f 7727 abbf
00000030: bd11 de3e 129a 7c3e e72c 3b3f 42ec 4a3f
00000040: 1bd5 31bd 9afd 2b3e 07bf 1abf 470b bdbe
00000050: 9b4b 82be a698 4abf 8c63 edbd 4743 dfbf
00000060: ba3c b93e 8abe 403e f6ee 163f 77b5 613d
00000070: 6c22 d63e bf7b 98be 830d fd3e 35ab 12bf
00000080: 1633 56be eade 72bf f3ca b93f 963e cebf
00000090: 5e75 e83e 2fb4 403e 5977 213f 1fcb e63e
000000a0: 3260 503c d59b 68be 2afe 0a3e 841f 16be
000000b0: ef53 2dbf 1af8 1dbf d716 8b3f 36f0 90bf
000000c0: 06fc e83e fe36 003e fd86 003f b2bb 563d
000000d0: 5bed e83e 98c5 96be eacc 273f 8d09 3bbe
000000e0: b105 01bf f2fb 66bf 8d01 613f 8346 75bf
000000f0: 37d7 e93e a2de 1d3d 9677 fa3e 3d8d c0be
00000100: 6d5f 943f 6d05 c3be 53b1 443f e591 d0be
00000110: 664e a4be 60c2 8bbf ffb6 813f 914e 8abf
00000120: e548 043f e7ef 4f3c 34ee 083f 785b 25be
00000130: e406 1a3f e5a0 11bf 58e3 253f 4886 f6bd
00000140: 7bb1 08bf 62c9 80bf ae64 af3f 5acf b0bf
00000150: cfa6 0d3f 368e 4e3d d5e4 fa3e 837e da3d
00000160: 96a6 7b3d c0c8 0fbf 292d da3e c045 893d
00000170: 1415 01bf 8c23 04bf 3949 bd3f 6771 99bf
00000180: 6212 0e3f be24 7a3d 3a23 103f 0b06 853e
00000190: 1cf5 f1bc c277 e1be d064 e73e 4a8c ae3b
000001a0: c637 e2be f0ea fdbe 88bc a73f a297 9abf
000001b0: 7276 1a3f e7e6 103e 1df1 283f 1535 ea3e
000001c0: ce34 27be 17d2 e4be fb8e e63e 1dca 8ebd
000001d0: 2518 fbbe f337 07bf 2b97 a73f 0291 95bf
000001e0: 3639 1f3f c999 4e3e b854 263f 46ca 0a3f
000001f0: 0464 4abe 17f1 bebe 85fa 673e a9f5 aabd
00000200: 27c2 04bf a35f 10bf cc9f b13f e1ae 9abf
00000210: fc11 1b3f 5768 3a3e 4ce9 153f 3408 f93e
00000220: f8ab 20be 83c5 cbbe c0e7 7f3e 2e40 e73b
00000230: 6534 febe f924 03bf 2bfc ae3f 71f5 8fbf
00000240: 8f37 163f 46ca e53d a913 1d3f 12e1 043f
00000250: 3acd 57be d6f6 d1be 2734 e33e 8a21 9cbd
00000260: ee61 d5be 2e1c 0abf 2640 b43f ee37 81bf
00000270: 9f5e 0e3f fc29 153e 77c4 0f3f eeca f03e
00000280: 74e2 dcbd 04e9 a3be ed5b 903e c824 efbd
00000290: eb67 e3be 6cae 1bbf 08de a03f 79d1 9ebf
000002a0: 3acd 0e3f 13c4 a43d 7d37 0e3f 5d91 f93e
000002b0: 15ec 39be 20b2 f7be f3d4 ff3e 0f36 6abd
000002c0: 7865 cdbe d841 13bf 21a9 9e3f 5bc2 9ebf
000002d0: 6995 0a3f 0ad9 133d 15bf 0e3f 88be 083f
000002e0: 22bb 0abe ef7c 00bf a288 f03e 043b fdbd
000002f0: 673e a0be b1d3 3abf 11ea 763f 918c abbf
00000300: 28f8 073f 6150 763d 1e1d 123f 7688 1b3f
00000310: 18c4 3dbe a680 febe caee f03e ce1c 59be
00000320: d6ca b5be dc62 43bf f02f 833f d108 b7bf
00000330: bb01 0d3f b551 103d b460 133f 0621 193f
00000340: fe26 1bbe 52f3 0dbf c7ef 013f d3da 4cbe
00000350: 3d85 6ebe e325 3abf f1d8 8b3f df86 9fbf
00000360: 2415 0b3f 27ab e43b cc83 0d3f f415 0f3f
00000370: 4e84 3fbd 6e36 25bf 4fff 133f 3769 8ebe
00000380: c7c7 5fbe 2269 57bf 8393 863f a000 aebf
00000390: 0eb4 013f 24eb 283d 4d6a fd3e 1b89 f83e
000003a0: 611e c53d aafc 11bf 7d57 f83e 7816 a7be
000003b0: 89ea fabd b231 69bf 6054 713f eaa8 bdbf
000003c0: 28a4 003f 4c29 4a3d 21be 023f 7266 fb3e
000003d0: 82a7 c03d 6e6c 05bf 7901 f53e 283c b1be
000003e0: d8ec 4dbe b229 75bf f9d9 6b3f 8849 b9bf
000003f0: ca1d 083f 4b80 1a3c b37c 123f 5f0b 0c3f

jaw_pose f4 [268, 3]
0.04109983 -0.010484625 -0.0036414328 0.04394203 -0.010240896 -0.0032505079 0.040533967 -0.01133988
-0.003610191 0.045167394 -0.009646107 -0.0036295739 0.05193833 -0.011220373 -0.00390591 0.0404028
-0.009461146 -0.003193371 0.038639527 -0.0098766135 -0.003294366 0.03071105 -0.008805438 -0.002668371
0.029693618 -0.009845582 -0.002780025 0.024482269 -0.008601088 -0.0024749786 0.02021011 -0.0075151683
-0.0015445034 0.013463683 -0.009207494 -0.0027095522 0.033917267 -0.0075226887 -0.001258321 0.04003877
-0.0073755495 -0.0018867102 0.031704642 -0.008179627 -0.002608164 0.02953472 -0.006738485 -0.0013528452
0.03181455 -0.007037286 -0.0020360327 0.023556527 -0.0071557164 -0.0013669136 0.02614676 -0.0071706907
-0.0018362199 0.03617719 -0.008402156 -0.0031981908 0.034058206 -0.00894626 -0.0035992933 0.037934083
-0.009907865 -0.0038425678 0.044548847 -0.007948393 -0.002300613 0.03982705 -0.0076896036 -0.0023669184
0.033652265 -0.0062861545 -0.0013563583 0.03416757 -0.0058914125 -0.0014229341 0.03454464 -0.006383244
-0.0014368173 0.04184214 -0.006768619 -0.0025429572 0.043173186 -0.004636208 -0.0018747865 0.039094776
-0.0036903964 -0.0011996363 0.047382966 -0.0039395327 -0.0009255094 0.04259424 -0.003282032 -0.0010035223
0.04472527 -0.0039048188 -0.0006585216 0.04054967 -0.0021397052 -0.00012468804 0.046945985 0.00018003979
0.0007060737 0.050641995 -0.0024068784 -9.4724914e-05 0.043182112 -0.0030900738 -0.00029036467 0.034555934
-0.004206924 -0.00064253976 0.033354457 -0.00503518 -0.0006810802 0.030843789 -0.0057325526 -0.0008491337
0.037454356 -0.005995004 -0.0011835782 0.042016283 -0.006631828 -0.0017135813 0.046462175 -0.008694295
-0.0032666102 0.041982546 -0.006478829 -0.001963161 0.056441203 -0.006418294 -0.0011728811 0.0619994
-0.006319661 -0.0013326794 0.049896255 -0.005463485 -0.0010983591 0.05152655 -0.0022888877 -0.0007858555
0.039256006 -0.004211077 -0.0006083434 0.037875168 -0.002246013 -0.0004463895 0.036775704 -0.0037501547
-0.0005821604 0.042195454 -0.006147717 -0.0019225859 0.044094563 -0.00454319 -0.0013756204 0.034553353
-0.0046526785 -0.000638439 0.039443277 -0.0043848664 -0.00063335826 0.04595574 -0.00677766 -0.0023192267
0.05503334 -0.005733237 -0.0010509511 0.050965644 -0.0067867064 -0.0020880972 0.04026637 -0.008526674
-0.003188262 0.043638602 -0.009163453 -0.0034285593 0.041825112 -0.010841221 -0.0037110448 0.050332353
-0.009878033 -0.004183907 0.03921269 -0.009285682 -0.0033840726 0.041313495 -0.009168069 -0.0033414161
0.04663862 -0.006189788 -0.0016309886 0.03634683 -0.007015957 -0.0022984385 0.024484206 -0.007051602
-0.0019858202 0.024050836 -0.0048859348 -0.00088491215 0.028391939 -0.004214243 -0.0005999625 0.034778886
-0.005490817 -0.00074010435 0.010286433 -0.002860631 -0.00028515578 0.018345475 -0.0030774148 -0.00054588175
0.02307256 -0.002375882 -0.0006293781 0.023529802 -0.0027811055 -0.00048683447 0.031197567 -0.0031109813
-0.0010471755 0.032949306 -0.0030560251 -0.00054466905 0.036615867 -0.002293335 -0.00043305097 0.03914418
-0.0032414827 -0.001022157 0.026876593 -0.002700216 -0.00042420835 0.030145055 -0.0029663285 -0.00082671514
0.033542264 -0.0032035576 -0.0009355038 0.015504231 -0.004193051 -0.0008605636 0.017676597 -0.003494387
-0.0009807537 0.019615082 -0.0024586665 -0.00071398437 -0.012278199 -0.0027697366 -0.00071654574 0.023327595
00000000: 4c58 283d b4c7 2bbc 1ba5 6ebb 8ffc 333d
00000010: 6ec9 27bc 7906 55bb f206 263d e7ca 39bc
00000020: f498 6cbb 7201 393d b50a 1ebc 25de 6dbb
00000030: 49bd 543d a8d5 37bc 4cfa 7fbb 687d 253d
00000040: ec02 1bbc e047 51bb 7b44 1e3d 85d1 21bc
00000050: 4ae6 57bb bd95 fb3c af44 10bc d6df 2ebb
00000060: 0840 f33c 5d4f 21bc 1431 36bb 0a8f c83c
00000070: 94eb 0cbc 4033 22bb ac8f a53c cd41 f6bb
00000080: ef70 caba c896 5c3c 07db 16bc be92 31bb
00000090: d5ec 0a3d e380 f6bb 3fee a4ba b1ff 233d
000000a0: 98ae f1bb 7d4b f7ba badc 013d d803 06bc
000000b0: bbed 2abb ccf2 f13c 82ce dcbb f451 b1ba
000000c0: f94f 023d 0999 e6bb f66e 05bb 9ef9 c03c
000000d0: 807a eabb 022a b3ba bb31 d63c 1df8 eabb
000000e0: 51ad f0ba 882e 143d 32a9 09bc bd98 51bb
000000f0: 9e80 0b3d 5693 12bc 1fe2 6bbb c560 1b3d
00000100: 9954 22bc 97d3 7bbb da78 363d fa39 02bc
00000110: e2c5 16bb b021 233d 12f9 fbbb 4d1e 1bbb
00000120: f5d6 093d 16fc cdbb d5c7 b1ba 4bf3 0b3d
00000130: c00c c1bb bf81 baba ae7e 0d3d 882a d1bb
00000140: 9753 bcba aa62 2b3d 4bcb ddbb bea7 26bb
00000150: 5ed6 303d 55eb 97bb 65bb f5ba d821 203d
00000160: 94da 71bb 1d3d 9dba a414 423d 3217 81bb
00000170: e29d 72ba 4c77 2e3d 5c17 57bb 9f88 83ba
00000180: d831 373d fde7 7fbb a3a0 2cba 6917 263d
00000190: 4c3a 0cbb b1be 02b9 6f4a 403d 10c9 3c39
000001a0: ce17 393a fb6d 4f3d b8bc 1dbb 0da7 c6b8
000001b0: badf 303d d682 4abb 163c 98b9 868a 0d3d
000001c0: 3cda 89bb 1d70 28ba af9e 083d 27fe a4bb
000001d0: 858a 32ba 1dac fc3c 23d8 bbbb 6698 5eba
000001e0: bd69 193d bd71 c4bb 4b22 9bba 4419 2c3d
000001f0: ce4f d9bb 3f9a e0ba 1f4f 3e3d 8472 0ebc
00000200: a014 56bb e4f5 2b3d 5b4c d4bb 60a8 00bb
00000210: e42e 673d 8d50 d2bb 5cbb 99ba 15f3 7d3d
00000220: 2915 cfbb 4dad aeba 0460 4c3d 0907 b3bb
00000230: d1f6 8fba 810d 533d 2a01 16bb df01 4eba
00000240: e8ca 203d 13fd 89bb 3c79 1fba fe22 1b3d
00000250: d831 13bb 6209 eab9 1fa2 163d 28c5 75bb
00000260: 209c 18ba 24d5 2c3d ca72 c9bb 47ff fbba
00000270: 809c 343d 0adf 94bb 294e b4ba d187 0d3d
00000280: 7f75 98bb eb5c 27ba 468f 213d edae 8fbb
00000290: f407 26ba 163c 3c3d 2217 debb 2bfe 17bb
000002a0: a46a 613d e1dd bbbb 11c0 89ba 5ac1 503d
000002b0: 0563 debb 75d8 08bb 59ee 243d 76b3 0bbc
000002c0: 29f2 50bb 64be 323d 4f22 16bc aeb1 60bb
000002d0: cf50 2b3d 609f 31bc 0035 73bb 4c29 4e3d
000002e0: 79d7 21bc 2819 89bb 7c9d 203d f922 18bc
000002f0: 51c7 5dbb 5738 293d ab35 16bc a9fb 5abb
00000300: 2308 3f3d b5d3 cabb e5c6 d5ba 6ae0 143d
00000310: 1de6 e5bb 66a1 16bb 1a93 c83c 2011 e7bb
00000320: 8924 02bb 4206 c53c 311a a0bb 73f9 67ba
00000330: 3696 e83c a217 8abb cd46 1dba 4e74 0e3d
00000340: 50ec b3bb 9003 42ba 6d88 283c 6d79 3bbb
00000350: f680 95b9 4049 963c 74ae 49bb 8119 0fba
00000360: aa02 bd3c afb4 1bbb d9fc 24ba 92c1 c03c
00000370: 3543 36bb d13d ffb9 0a92 ff3c 9be1 4bbb
00000380: 6141 89ba daf5 063d 9847 48bb 1fc8 0eba
00000390: 85fa 153d c74b 16bb 1e0b e3b9 a655 203d
000003a0: 0e6f 54bb e6f9 85ba 4d2c dc3c 1bf6 30bb
000003b0: 4868 deb9 c3f2 f63c bc66 42bb eab7 58ba
000003c0: 9d63 093d c7f2 51bb 993c 75ba 7505 7e3c
000003d0: dc65 89bb 7297 61ba 83ce 903c 1602 65bb
000003e0: a28c 80ba cfaf a03c 9421 21bb ae2a 3bba
000003f0: 802a 49bc 7884 35bb 92d6 3bba 8319 bf3c

leye_pose f4 [268, 3]
0.0 0.0 0.0 0.0 0.0 0.0 0.0 0.0
0.0 0.0 0.0 0.0 0.0 0.0 0.0 0.0
0.0 0.0 0.0 0.0 0.0 0.0 0.0 0.0
0.0 0.0 0.0 0.0 0.0 0.0 0.0 0.0
0.0 0.0 0.0 0.0 0.0 0.0 0.0 0.0
0.0 0.0 0.0 0.0 0.0 0.0 0.0 0.0
0.0 0.0 0.0 0.0 0.0 0.0 0.0 0.0
0.0 0.0 0.0 0.0 0.0 0.0 0.0 0.0
0.0 0.0 0.0 0.0 0.0 0.0 0.0 0.0
0.0 0.0 0.0 0.0 0.0 0.0 0.0 0.0
0.0 0.0 0.0 0.0 0.0 0.0 0.0 0.0
0.0 0.0 0.0 0.0 0.0 0.0 0.0 0.0
0.0 0.0 0.0 0.0 0.0 0.0 0.0 0.0
0.0 0.0 0.0 0.0 0.0 0.0 0.0 0.0
0.0 0.0 0.0 0.0 0.0 0.0 0.0 0.0
0.0 0.0 0.0 0.0 0.0 0.0 0.0 0.0
0.0 0.0 0.0 0.0 0.0 0.0 0.0 0.0
0.0 0.0 0.0 0.0 0.0 0.0 0.0 0.0
0.0 0.0 0.0 0.0 0.0 0.0 0.0 0.0
0.0 0.0 0.0 0.0 0.0 0.0 0.0 0.0
0.0 0.0 0.0 0.0 0.0 0.0 0.0 0.0
0.0 0.0 0.0 0.0 0.0 0.0 0.0 0.0
0.0 0.0 0.0 0.0 0.0 0.0 0.0 0.0
0.0 0.0 0.0 0.0 0.0 0.0 0.0 0.0
0.0 0.0 0.0 0.0 0.0 0.0 0.0 0.0
0.0 0.0 0.0 0.0 0.0 0.0 0.0 0.0
0.0 0.0 0.0 0.0 0.0 0.0 0.0 0.0
0.0 0.0 0.0 0.0 0.0 0.0 0.0 0.0
0.0 0.0 0.0 0.0 0.0 0.0 0.0 0.0
0.0 0.0 0.0 0.0 0.0 0.0 0.0 0.0
0.0 0.0 0.0 0.0 0.0 0.0 0.0 0.0
0.0 0.0 0.0 0.0 0.0 0.0 0.0 0.0
00000000: 0000 0000 0000 0000 0000 0000 0000 0000
00000010: 0000 0000 0000 0000 0000 0000 0000 0000
00000020: 0000 0000 0000 0000 0000 0000 0000 0000
00000030: 0000 0000 0000 0000 0000 0000 0000 0000
00000040: 0000 0000 0000 0000 0000 0000 0000 0000
00000050: 0000 0000 0000 0000 0000 0000 0000 0000
00000060: 0000 0000 0000 0000 0000 0000 0000 0000
00000070: 0000 0000 0000 0000 0000 0000 0000 0000
00000080: 0000 0000 0000 0000 0000 0000 0000 0000
00000090: 0000 0000 0000 0000 0000 0000 0000 0000
000000a0: 0000 0000 0000 0000 0000 0000 0000 0000
000000b0: 0000 0000 0000 0000 0000 0000 0000 0000
000000c0: 0000 0000 0000 0000 0000 0000 0000 0000
000000d0: 0000 0000 0000 0000 0000 0000 0000 0000
000000e0: 0000 0000 0000 0000 0000 0000 0000 0000
000000f0: 0000 0000 0000 0000 0000 0000 0000 0000
00000100: 0000 0000 0000 0000 0000 0000 0000 0000
00000110: 0000 0000 0000 0000 0000 0000 0000 0000
00000120: 0000 0000 0000 0000 0000 0000 0000 0000
00000130: 0000 0000 0000 0000 0000 0000 0000 0000
00000140: 0000 0000 0000 0000 0000 0000 0000 0000
00000150: 0000 0000 0000 0000 0000 0000 0000 0000
00000160: 0000 0000 0000 0000 0000 0000 0000 0000
00000170: 0000 0000 0000 0000 0000 0000 0000 0000
00000180: 0000 0000 0000 0000 0000 0000 0000 0000
00000190: 0000 0000 0000 0000 0000 0000 0000 0000
000001a0: 0000 0000 0000 0000 0000 0000 0000 0000
000001b0: 0000 0000 0000 0000 0000 0000 0000 0000
000001c0: 0000 0000 0000 0000 0000 0000 0000 0000
000001d0: 0000 0000 0000 0000 0000 0000 0000 0000
000001e0: 0000 0000 0000 0000 0000 0000 0000 0000
000001f0: 0000 0000 0000 0000 0000 0000 0000 0000
00000200: 0000 0000 0000 0000 0000 0000 0000 0000
00000210: 0000 0000 0000 0000 0000 0000 0000 0000
00000220: 0000 0000 0000 0000 0000 0000 0000 0000
00000230: 0000 0000 0000 0000 0000 0000 0000 0000
00000240: 0000 0000 0000 0000 0000 0000 0000 0000
00000250: 0000 0000 0000 0000 0000 0000 0000 0000
00000260: 0000 0000 0000 0000 0000 0000 0000 0000
00000270: 0000 0000 0000 0000 0000 0000 0000 0000
00000280: 0000 0000 0000 0000 0000 0000 0000 0000
00000290: 0000 0000 0000 0000 0000 0000 0000 0000
000002a0: 0000 0000 0000 0000 0000 0000 0000 0000
000002b0: 0000 0000 0000 0000 0000 0000 0000 0000
000002c0: 0000 0000 0000 0000 0000 0000 0000 0000
000002d0: 0000 0000 0000 0000 0000 0000 0000 0000
000002e0: 0000 0000 0000 0000 0000 0000 0000 0000
000002f0: 0000 0000 0000 0000 0000 0000 0000 0000
00000300: 0000 0000 0000 0000 0000 0000 0000 0000
00000310: 0000 0000 0000 0000 0000 0000 0000 0000
00000320: 0000 0000 0000 0000 0000 0000 0000 0000
00000330: 0000 0000 0000 0000 0000 0000 0000 0000
00000340: 0000 0000 0000 0000 0000 0000 0000 0000
00000350: 0000 0000 0000 0000 0000 0000 0000 0000
00000360: 0000 0000 0000 0000 0000 0000 0000 0000
00000370: 0000 0000 0000 0000 0000 0000 0000 0000
00000380: 0000 0000 0000 0000 0000 0000 0000 0000
00000390: 0000 0000 0000 0000 0000 0000 0000 0000
000003a0: 0000 0000 0000 0000 0000 0000 0000 0000
000003b0: 0000 0000 0000 0000 0000 0000 0000 0000
000003c0: 0000 0000 0000 0000 0000 0000 0000 0000
000003d0: 0000 0000 0000 0000 0000 0000 0000 0000
000003e0: 0000 0000 0000 0000 0000 0000 0000 0000
000003f0: 0000 0000 0000 0000 0000 0000 0000 0000
