test_dataset/gait_809/20250819_c1_a5_Take1/split_subjects/0/fit-smplx/smplx-params.npz (npz, 152106 bytes, 10 tensors)

betas f4 [304, 11]
0	0x3e073d8a	0.13207069
1	0xc037a69c	-2.869544
2	0xbf196b91	-0.5992976
3	0xbfefe729	-1.874242
4	0xbfa86ff0	-1.3159161
5	0xbfc885ec	-1.566587
6	0x3e9aff7c	0.30273044
7	0xbe0c0476	-0.13673577
8	0x3f754e54	0.95822644
9	0xbefc73ee	-0.49307197
10	0x3e53ea71	0.20694901
11	0x3daaa072	0.08331384
12	0xc02f5694	-2.7396593
13	0x3f1c8ccc	0.6115234
14	0xbfc49be6	-1.5360076
15	0xbf8d5aca	-1.1043332
16	0xbfc6259f	-1.5480231
17	0x3f6c14f1	0.92219454
18	0xbe4e8a2a	-0.20169893
19	0x3f81706d	1.0112435
20	0xbe469244	-0.19391733
21	0x3e9fdb39	0.3122194
22	0x3edf3892	0.43597847
23	0xbfe0afb2	-1.7553618
24	0x3f863d5a	1.0487473
25	0xbf0c57af	-0.54821295
26	0xbfbe432b	-1.4864248
27	0x3e6d9302	0.2320061
28	0xbefba2ae	-0.49147552
29	0x3fa80072	1.3125136
30	0x3e532d70	0.20622802
31	0x3e9cb340	0.30605507
32	0x3eb43eb4	0.3520409
33	0x3f03fd0a	0.5155798
34	0xbfd03657	-1.6266583
35	0x3f408eed	0.7521809
36	0xbefcef7e	-0.49401468
37	0xbf7d2b77	-0.9889445
38	0x3de1865f	0.110119574
39	0xbf2c02b6	-0.67191637
40	0x3fb32382	1.3995211
41	0x3e419485	0.18904312
42	0x3e56d976	0.20981392
43	0x3eb8932b	0.3604978
44	0x3f18dd66	0.5971283
45	0xbfc9e8c6	-1.5774162
46	0x3f2bc20a	0.67092955
47	0xbf008f40	-0.5021858
48	0xbf78a3ac	-0.97124743
49	0x3e15fdd5	0.1464761
50	0xbf119534	-0.5686829
51	0x3fcb6891	1.5891286
52	0x3e025498	0.12727582
53	0x3e2d8ae2	0.16947511
54	0x3ebbab57	0.3665416
55	0x3f11e949	0.5699659
56	0xbfc3733b	-1.526954
57	0x3f27fb8b	0.656182
58	0xbf0ed09f	-0.5578708
59	0xbf2d8821	-0.6778584
60	0x3cb08ff1	0.021553012
61	0xbefb0a5f	-0.4903135
62	0x3fc30c17	1.5238065
63	0x3e5de2d8	0.21668565
64	0x3e412772	0.18862703
65	0x3ebee470	0.3728366
66	0x3f0a1c32	0.5394927
67	0xbfc1a478	-1.5128317
68	0x3f0c7a13	0.5487377
69	0xbf074d46	-0.52852285
70	0xbf22e4f6	-0.63630617
71	0x3bec8924	0.007218497
72	0xbeed4a5c	-0.46345794
73	0x3fcd46ee	1.6037271
74	0x3e3a8e01	0.18218233
75	0x3e1738f8	0.14767826
76	0x3ebb48dc	0.36579025
77	0x3f10fc3f	0.56634897
78	0xbfce59ce	-1.6121156
79	0x3f24f998	0.6444335
80	0xbf0a7d97	-0.54097885
81	0xbf40ad54	-0.7526448
82	0xbcb86ea9	-0.022513704
83	0xbee6b447	-0.45059416
84	0x3fd7fb4b	1.6873564
85	0x3db3b0d8	0.08773965
86	0x3e0c07c3	0.13674836
87	0x3eb9199f	0.3615236
88	0x3f1bb792	0.6082698
89	0xbfd628e9	-1.6731235
90	0x3f30435b	0.68852776
91	0xbefefeb0	-0.49803686
92	0xbf45ec84	-0.7731402
93	0xbc83b1f4	-0.016076066
94	0xbedbcee4	-0.42931283
95	0x3fdf47e4	1.7443814
96	0x3d0490e0	0.032364726
97	0x3df869fa	0.121295884
98	0x3eba27a8	0.3635838
99	0x3f0fc32c	0.56157184
100	0xbfcb114f	-1.5864657
101	0x3f0823e2	0.5317975
102	0xbf1c6d51	-0.61104304
103	0xbf2f9290	-0.6858301
104	0xbce7b815	-0.02828602
105	0xbec981f7	-0.39356968
106	0x3fe48266	1.7852294
107	0x3e1028c7	0.14078055
108	0x3e2fb2b7	0.17158018
109	0x3eb73135	0.3577973
110	0x3f08264f	0.53183454
111	0xbfdf2b44	-1.7435079
112	0x3f22235c	0.63335204
113	0xbf044d2e	-0.51680267
114	0xbf379836	-0.7171663
115	0x3c30c10f	0.010788216
116	0xbec41c01	-0.38302615
117	0x3fea40a2	1.8300974
118	0x3d5aa31f	0.05337822
119	0x3de1772c	0.11009058
120	0x3eb38266	0.35060424
121	0x3f053cb4	0.5204575
122	0xbfee4bf0	-1.8616924
123	0x3f2f068c	0.68369365
124	0xbee9af85	-0.45641723
125	0xbf3de7a1	-0.7418156
126	0x3d840cb1	0.06447733
127	0xbee86d67	-0.45395967
128	0x3ff02d0c	1.8763747
129	0x3d0a1ac0	0.033716917
130	0x3e1615f7	0.14656816
131	0x3eb16340	0.34646034
132	0x3f183ad6	0.59464777
133	0xc0086a55	-2.13149
134	0x3f74750e	0.9549111
135	0xbecc6168	-0.39918065
136	0xbf91d919	-1.1394378
137	0xbc9cea1b	-0.019154599
138	0xbf14d10e	-0.5813149
139	0x40012fc9	2.0185416
140	0xbdb5c1cb	-0.08874854
141	0x3db5d3c7	0.08878284
142	0x3ea855b0	0.32877874
143	0x3f222229	0.63333374
144	0xc00c45ef	-2.1917684
145	0x3f99dcab	1.2020468
146	0xbea899d8	-0.32929873
147	0xbf8f73d1	-1.1207219
148	0xbdebfcf4	-0.11522856
149	0xbf0606e5	-0.5235427
150	0x3fff3198	1.993701
151	0xbdc3793d	-0.09544609
152	0x3dac980d	0.08427439
153	0x3eaf9275	0.34291425
154	0x3f303832	0.6883575
155	0xc00b7aab	-2.179362
156	0x3f978d1b	1.1839937
157	0xbe6e6c17	-0.2328342
158	0xbf9a7320	-1.2066383
159	0xbe03226e	-0.12806103
160	0xbeede9d5	-0.46467462
161	0x40024d7a	2.0359788
162	0xbe01ff03	-0.12694936
163	0x3dfe207e	0.12408541
164	0x3eb29793	0.34881267
165	0x3f39a247	0.7251324
166	0xc004882f	-2.070812
167	0x3f8b9f7d	1.0908047
168	0xbe9a0d4f	-0.3008828
169	0xbf89bc7f	-1.076065
170	0xbe23ee89	-0.16008963
171	0xbec9aedc	-0.3939122
172	0x400644e9	2.097956
173	0xbd866f30	-0.06564176
174	0x3e034b67	0.12821732
175	0x3eb6daf4	0.35713923
176	0x3f42f8db	0.76160973
177	0xc008361e	-2.128303
178	0x3f8c9e5e	1.098583
179	0xbe5c10d7	-0.21490799
180	0xbf98f0d5	-1.1948496
181	0xbe083195	-0.13300164
182	0xbea2dba4	-0.31808197
183	0x4006fa92	2.1090436
184	0xbd125fe4	-0.03573598
185	0x3de4c8d9	0.11171121
186	0x3eb686df	0.35649773
187	0x3f4dcd63	0.8039152
188	0xc0077188	-2.1163044
189	0x3f80303c	1.001472
190	0xbe29cefb	-0.16582863
191	0xbfa4c3ac	-1.2872214
192	0xbce63b9c	-0.028104596
193	0xbede4d48	-0.43418336
194	0x4006b9a4	2.1050806
195	0xbda22a6e	-0.07918249
196	0x3e18f29c	0.14936298
197	0x3eb5c916	0.3550498
198	0x3f43b5c5	0.76449233
199	0xc0046c3f	-2.0691068
200	0x3f8898dd	1.067165
201	0xbe67b94d	-0.2262928
202	0xbfa0b1e9	-1.2554294
203	0xbd226e6f	-0.0396561
204	0xbec2ff65	-0.38085476
205	0x40053563	2.0813835
206	0xbbfe54bb	-0.0077615655
207	0x3e136cc8	0.14396966
208	0x3eb7fa96	0.3593337
209	0x3f59ebc7	0.8512539
210	0xc0067b8c	-2.1012907
211	0x3f87cc18	1.060916
212	0xbe29e41f	-0.16590928
213	0xbf9890df	-1.1919211
214	0xbc13aa3d	-0.009012756
215	0xbf09928c	-0.5373924
216	0x4006a38a	2.1037316
217	0xbdd8ac36	-0.10579722
218	0x3e00280b	0.12515275
219	0x3eb8d5dd	0.36100665
220	0x3f4d3724	0.8016226
221	0xc00aea16	-2.1705375
222	0x3fa12b25	1.2591292
223	0xbdfc508a	-0.12320049
224	0xbfacf874	-1.3513322
225	0xbd719592	-0.058980532
226	0xbee2d337	-0.4430177
227	0x4004db76	2.0758948
228	0xbddac5c8	-0.10682255
229	0x3e1368a2	0.14395383
230	0x3eb78cd9	0.35849646
231	0x3f454669	0.7706056
232	0xc00f0d59	-2.2351897
233	0x3fbfa5cc	1.4972472
234	0xbdd014db	-0.10160228
235	0xbfb5bf72	-1.419905
236	0xbdb95893	-0.09050097
237	0xbed970b7	-0.42468807
238	0x4000921f	2.0089185
239	0xbe3d56af	-0.18490098
240	0x3ddc6665	0.10761718
241	0x3eba607f	0.36401746
242	0x3f4c1e3e	0.79733646
243	0xc0068c0c	-2.1022978
244	0x3fb4ff79	1.4140464
245	0xbe2ac09b	-0.16675036
246	0xbfa15a00	-1.2605591
247	0xbe1bb3c3	-0.15205292
248	0xbedbab25	-0.4290401
249	0x3ff53ddf	1.9159507
250	0xbe478e84	-0.19487959
251	0x3db09c61	0.08623577
252	0x3ebc7943	0.36811265
253	0x3f438c5f	0.76386064
254	0xc00c5286	-2.1925368
255	0x3fc137ce	1.5095155

global_orient f4 [304, 3]
0	0xbdfe8523	-0.124277376
1	0xc024ede3	-2.5770195
2	0xbeebc919	-0.46051863
3	0xbda5bb22	-0.080923334
4	0xc021cb4f	-2.528034
5	0xbeabc3c0	-0.33547783
6	0x3be77325	0.007063287
7	0xc020354f	-2.5032537
8	0xbe014b2c	-0.12626332
9	0x3b14161c	0.0022596186
10	0xc01f3b89	-2.4880087
11	0xbdd24ce2	-0.102685705
12	0x3b3c9858	0.0028777327
13	0xc01f2f1c	-2.4872503
14	0xbd8d006a	-0.068848446
15	0x3c33693c	0.010950383
16	0xc02050cd	-2.5049317
17	0xbd36a86f	-0.044594225
18	0x3cbecab6	0.02329002
19	0xc020b08e	-2.510776
20	0xbcd4ca77	-0.025975449
21	0x3d1dc764	0.03852023
22	0xc0205643	-2.505265
23	0xbc3a2562	-0.011361452
24	0x3d5715ef	0.052511152
25	0xc0201794	-2.501439
26	0xbaadeb6c	-0.0013269014
27	0x3d85e9f5	0.065387644
28	0xc01f7d5e	-2.4920268
29	0x3c99b195	0.018761436
30	0x3d8e4507	0.0694676
31	0xc01da288	-2.4630451
32	0x3cdfa0a5	0.027298281
33	0x3d90a6eb	0.07063087
34	0xc01aedd8	-2.4207668
35	0x3d007647	0.031362798
36	0x3d778129	0.06042591
37	0xc017d52b	-2.3723857
38	0x3c3e0495	0.011597772
39	0x3d2529d8	0.04032311
40	0xc01591ea	-2.337031
41	0xba8d2785	-0.0010769224
42	0x3cbe9ca8	0.023268059
43	0xc014e7f7	-2.326658
44	0xb84159f7	-4.6098572e-05
45	0x3c0cf6cc	0.008603763
46	0xc014d8c3	-2.32573
47	0x3b0a1dd3	0.0021074906
48	0xbc24bf3a	-0.010055358
49	0xc014cccb	-2.3249996
50	0x3bdc5b23	0.0067247315
51	0xbd07b610	-0.033132613
52	0xc014fbaf	-2.3278615
53	0x3c46a076	0.012123218
54	0xbd46067e	-0.048346035
55	0xc015dd8e	-2.3416476
56	0x3cab5548	0.020914689
57	0xbd6180d4	-0.0550545
58	0xc0166d94	-2.350438
59	0x3cbc6bc8	0.023000613
60	0xbd87c628	-0.06629592
61	0xc016a4a2	-2.3537984
62	0x3cc7d50b	0.024393579
63	0xbd954c3c	-0.07289931
64	0xc01804ba	-2.3752885
65	0x3cda109c	0.026619248
66	0xbda2645d	-0.07929299
67	0xc018fc8d	-2.3904145
68	0x3cffb963	0.031216329
69	0xbdb15869	-0.08659441
70	0xc01a035f	-2.4064558
71	0x3cff700f	0.031181363
72	0xbdc1ddda	-0.09466143
73	0xc01aebfe	-2.4206538
74	0x3d168529	0.036748085
75	0xbdbe59c3	-0.092944644
76	0xc01c63eb	-2.4435985
77	0x3d233a88	0.03985074
78	0xbdc8f681	-0.09812642
79	0xc01e6b2b	-2.475291
80	0x3d2ab2dc	0.04167448
81	0xbdd585dd	-0.10425923
82	0xc01f938e	-2.493381
83	0x3d42da33	0.047571372
84	0xbde09029	-0.10964996
85	0xc020f9a2	-2.5152364
86	0x3d5deaad	0.054178882
87	0xbdf1c1d3	-0.11804547
88	0xc022b191	-2.5420878
89	0x3d7fd4cf	0.06245881
90	0xbdf93250	-0.121677995
91	0xc024a136	-2.5723395
92	0x3d88236a	0.0664738
93	0xbe02eaf6	-0.12784943
94	0xc0266301	-2.5997927
95	0x3d97c3be	0.07410382
96	0xbe08aaf3	-0.13346462
97	0xc028fdef	-2.6404989
98	0x3da28d5d	0.07937119
99	0xbe15e7dd	-0.1463923
100	0xc02bb5f8	-2.6829815
101	0x3db48b0d	0.08815584
102	0xbe1ed5d1	-0.15511252
103	0xc02e4cbb	-2.7234333
104	0x3dbcaa3a	0.09212156
105	0xbe260490	-0.16212678
106	0xc030ead4	-2.7643328
107	0x3db8f4f6	0.090310976
108	0xbe2a2c6e	-0.16618511
109	0xc033050d	-2.7971833
110	0x3dbb208c	0.09137067
111	0xbe1c06c5	-0.15236957
112	0xc0340d8e	-2.8133273
113	0x3dad362d	0.08457599
114	0xbe168f92	-0.14703205
115	0xc035ff67	-2.8437135
116	0x3da31c16	0.07964341
117	0xbe0cbc8d	-0.13743801
118	0xc037bfc1	-2.8710787
119	0x3d930e7e	0.071804985
120	0xbe01c9cf	-0.1267464
121	0xc03988f6	-2.8989844
122	0x3d808900	0.06276131
123	0xbded038e	-0.11572944
124	0xc03aba0f	-2.917606
125	0x3d4ff502	0.050770767
126	0xbdd7273e	-0.10505532
127	0xc03bea60	-2.93618
128	0x3d331231	0.04371852
129	0xbdce01a3	-0.10058906
130	0xc03cafc8	-2.9482288
131	0x3d1da017	0.03848275
132	0xbdd49e70	-0.10381782
133	0xc03e5ad3	-2.9742935
134	0x3cdb694c	0.026783608
135	0xbddee5b2	-0.10883655
136	0xc03f55c8	-2.9896107
137	0x3cb3824e	0.02191272
138	0xbde3475a	-0.110975936
139	0xc03f79f1	-2.9918177
140	0x3ca50c44	0.02014745
141	0xbdd5fb5c	-0.104483336
142	0xc03ecb36	-2.981153
143	0x3caac912	0.02084783
144	0xbdc5becf	-0.096555345
145	0xc03d2454	-2.9553423
146	0x3d15cb22	0.036570676
147	0xbda275a2	-0.07932593
148	0xc03a6c46	-2.9128585
149	0x3d131b18	0.03591451
150	0xbd7ee0d4	-0.06222613
151	0xc0374436	-2.8635383
152	0x3d122007	0.035675075
153	0xbd26d252	-0.04072792
154	0xc0348b70	-2.8210106
155	0x3d13fa80	0.036127567
156	0xbbb31733	-0.005465412
157	0xc032c12b	-2.79304
158	0x3d01373a	0.03154681
159	0x3cdc64c5	0.02690352
160	0xc031e27d	-2.7794487
161	0x3d0f79e0	0.03502834
162	0x3d57f5a7	0.052724507
163	0xc0302ecf	-2.752857
164	0x3c6d945a	0.014500702
165	0x3daa4f9c	0.083159655
166	0xc02eb792	-2.7299542
167	0x3b174438	0.0023081433
168	0x3ddaf506	0.10691266
169	0xc02cb7e5	-2.698724
170	0x3a2bc67d	0.00065527094
171	0x3deb3392	0.11484446
172	0xc02ae53a	-2.6702409
173	0xbb0e4248	-0.0021706987
174	0x3ddb7a18	0.10716647
175	0xc0292dd9	-2.6434233
176	0x389df842	7.532585e-05
177	0x3dc981d8	0.09839219
178	0xc0279cc8	-2.6189442
179	0x3b85adac	0.004079541
180	0x3dae0cd0	0.084985375
181	0xc0257b66	-2.5856566
182	0xbb24851b	-0.002510375
183	0x3d8b3c89	0.067986555
184	0xc02511c8	-2.5792103
185	0xbc79b07e	-0.015239833
186	0x3d338938	0.043832034
187	0xc01dfbb8	-2.4684887
188	0xbd4428a8	-0.047890335
189	0x3cf1f8de	0.029537614
190	0xc019245a	-2.3928437
191	0xbd868d6b	-0.06569942
192	0x3cbcd28c	0.023049615
193	0xc015c81e	-2.3403392
194	0xbd973e4a	-0.073849276
195	0x3c40f0e9	0.011776187
196	0xc01433b1	-2.315655
197	0xbd9ba4b3	-0.07599773
198	0xbbb60206	-0.0055544404
199	0xc0134c89	-2.3015463
200	0xbd773543	-0.06035353
201	0xbcfa5ded	-0.030562365
202	0xc011b1d5	-2.276479
203	0xbd278d87	-0.040906455
204	0xbd3421e5	-0.043977637
205	0xc00fb2e0	-2.2452927
206	0xbce8a6b3	-0.0283998
207	0xbd7082c5	-0.05871846
208	0xc00f085a	-2.2348847
209	0xbba0c237	-0.0049059647
210	0xbd80ed53	-0.06295266
211	0xc00f3d42	-2.2381139
212	0x3c7378ca	0.014860341
213	0xbd832b13	-0.064047
214	0xc0102320	-2.2521439
215	0x3cc60730	0.02417335
216	0xbd63d412	-0.055622168
217	0xc010efe1	-2.264641
218	0x3cd7e84e	0.026355889
219	0xbd072f0b	-0.033003848
220	0xc011731c	-2.2726507
221	0x3cdecab5	0.027196268
222	0xbc97e5b9	-0.018542157
223	0xc01297df	-2.2905195
224	0x3c83d0f6	0.016090851
225	0xbb2eb9d2	-0.002666105
226	0xc015141b	-2.3293521
227	0x3c139f64	0.00901017
228	0x3cd85359	0.02640693
229	0xc01696a8	-2.3529453
230	0x3c7f24a7	0.015572703
231	0x3d2bf048	0.041977197
232	0xc01788da	-2.3677278
233	0x3cd8c267	0.026459886
234	0x3d8433a9	0.06455166
235	0xc0161a20	-2.3453445
236	0x3d53d80f	0.05171972
237	0x3dbb8f19	0.09158153
238	0xc0147954	-2.3199053
239	0x3d990316	0.07471292
240	0x3ddf570b	0.10905274
241	0xc013349e	-2.3000865
242	0x3db58f6f	0.088652484
243	0x3e04862f	0.12941812
244	0xc01315e8	-2.298212
245	0x3db0ef88	0.08639437
246	0x3e19ad57	0.1500753
247	0xc0134b52	-2.3014722
248	0x3daf9b3c	0.085745305
249	0x3e240bec	0.16020173
250	0xc01346cc	-2.301196
251	0x3d9dece2	0.077111974
252	0x3e231113	0.15924482
253	0xc011cffc	-2.2783194
254	0x3da28ac3	0.07936623
255	0x3e26884e	0.16262934

body_pose f4 [304, 63]
0	0x3da8234c	0.08209857
1	0xbc85953c	-0.016306512
2	0xbd3a492e	-0.045479946
3	0x3e6d67e9	0.2318417
4	0xbb54300d	-0.0032377273
5	0xbd16b3db	-0.036792617
6	0xbe3fc169	-0.18726124
7	0xbb45a295	-0.003015672
8	0x3dc80dea	0.09768279
9	0x3f006ab3	0.5016281
10	0xbe3a8c66	-0.1821762
11	0x3e0e8e4d	0.13921471
12	0x3f3684e6	0.71296537
13	0x3bed806f	0.0072479765
14	0xbe3a1ee9	-0.18175854
15	0x3ea46676	0.32109421
16	0xbd9ffff2	-0.078124896
17	0xbbc7d0d7	-0.0060978937
18	0xbb84c2fd	-0.0040515647
19	0xbee2f354	-0.4432627
20	0xbe557790	-0.2084639
21	0xbd83dc56	-0.0643851
22	0x3cb24caf	0.021765081
23	0x3e235074	0.15948659
24	0x3f40d8be	0.7533072
25	0x3dfaef3c	0.122526616
26	0xbdefc8e9	-0.117082424
27	0x37855aa2	1.589704e-05
28	0xb789837a	-1.6392896e-05
29	0x3784c69b	1.582811e-05
30	0x37839383	1.5685107e-05
31	0x378b48a1	1.6603912e-05
32	0x377888f3	1.4813838e-05
33	0x3f1b909e	0.60767543
34	0x3d4daf7a	0.050216176
35	0xbe5ebb45	-0.21751125
36	0x3e34c8c3	0.1765471
37	0xbf64fe1b	-0.89450234
38	0xbe8edb98	-0.27901912
39	0x3e1a288e	0.15054533
40	0x3f22ff04	0.6367037
41	0x3e70a96e	0.23502132
42	0xbefb0740	-0.4902897
43	0x3dd62398	0.10456008
44	0x3c67a8a9	0.014139333
45	0xbe71ccee	-0.2361333
46	0xbe8545ef	-0.26029918
47	0xbf2dee0b	-0.6794135
48	0xbd3018ca	-0.04299239
49	0x3ec2164d	0.3790764
50	0x3e86e698	0.26347804
51	0xbf13a50c	-0.57673717
52	0xbe83d5a9	-0.25748947
53	0x3e2131cb	0.15741651
54	0xbdcb0727	-0.099134736
55	0x3f03e718	0.51524496
56	0x3e5ef9b7	0.21774946
57	0xbf0d5f3f	-0.5522346
58	0x3f18fd70	0.59761715
59	0x3eb47646	0.35246485
60	0xbe8ad196	-0.27113026
61	0xbc971321	-0.018441739
62	0xbe864a15	-0.26228395
63	0xbd02e079	-0.031952355
64	0xbd212435	-0.03934117
65	0xbd31abca	-0.04337672
66	0x3e1929b5	0.14957316
67	0xbcade5d4	-0.021227755
68	0xbd6ff191	-0.058579985
69	0x3cec823d	0.028870696
70	0x3d3dafeb	0.046310347
71	0x3e06f3bb	0.13178913
72	0x3efe86e3	0.49712285
73	0xbea0aa2c	-0.3137983
74	0x3dc229cd	0.09480629
75	0x3f350913	0.7071697
76	0xbd02a1cc	-0.031892583
77	0xbe15a37b	-0.14613144
78	0x3e72f04b	0.23724477
79	0x3c3c5d8f	0.0114969155
80	0xbd36fc56	-0.04467424
81	0x3e29aba7	0.16569386
82	0xbec91854	-0.39276373
83	0xbe336df3	-0.17522411
84	0x3d92ed94	0.07174221
85	0x3db751f2	0.08951177
86	0x3d7418cd	0.059593964
87	0x3eefb974	0.46821177
88	0x3e1f5700	0.15560532
89	0xbd9d74d3	-0.07688298
90	0x378a17de	1.6461996e-05
91	0x37769ccb	1.4699249e-05
92	0x378105d2	1.5380709e-05
93	0x37843f82	1.57652e-05
94	0x3780c81d	1.5351974e-05
95	0xb7823b8b	-1.5524934e-05
96	0x3d918f74	0.0710744
97	0xbc40d2d4	-0.011769015
98	0xbdb2ed5a	-0.087366775
99	0x3d4890cf	0.048966225
100	0xbef50dc1	-0.47862056
101	0xbeef7654	-0.46769965
102	0x3dce5bfd	0.10076139
103	0x3ecb0a28	0.39656186
104	0x3eb56ec3	0.35436067
105	0x3dd9d4c5	0.10636286
106	0xbb3b824e	-0.0028611603
107	0x3e0f286e	0.13980266
108	0xbe4d6e0e	-0.20061514
109	0xbea22b81	-0.31673816
110	0xbf3ddbb9	-0.74163395
111	0xbda739e0	-0.08165336
112	0x3e4df896	0.2011436
113	0x3f1ce137	0.6128115
114	0xbd4f0bb8	-0.050548285
115	0xbe90f64e	-0.28312916
116	0x3d0240be	0.031800024
117	0xbd41a207	-0.047273662
118	0x3f3b3493	0.73127097
119	0xbdc2752f	-0.09495007
120	0xbc87238a	-0.016496439
121	0x3eed8d65	0.46396938
122	0x3ebb2373	0.36550483
123	0xbb404ff3	-0.0029344528
124	0x3cd3737f	0.025811909
125	0xbdbcc44e	-0.0921713
126	0xbe3be8e3	-0.18350558
127	0xbe3fff32	-0.18749693
128	0xbcb17da3	-0.021666354
129	0xbda2d8ad	-0.07951484
130	0x3dc643c5	0.09680895
131	0xbd30b852	-0.04314453
132	0x3e0dee17	0.13860355
133	0x3c329a70	0.010901079
134	0x3e092b4c	0.13395423
135	0x3efd90f4	0.49524653
136	0xbea9fcfc	-0.33200824
137	0x3cdc38de	0.026882585
138	0x3f54b379	0.83086354
139	0xbdb23414	-0.08701339
140	0xbd4b09d9	-0.04956994
141	0xbbf69a86	-0.007525745
142	0x3d8a47bc	0.067519635
143	0xbde56804	-0.1120148
144	0x3d4df0a3	0.050278317
145	0xbe844c52	-0.25839478
146	0xbe209851	-0.15683104
147	0x3c923e5f	0.017852006
148	0x3dc6c21d	0.09704993
149	0xbc1baf10	-0.009502187
150	0x3e26f445	0.16304119
151	0x3da3b454	0.07993379
152	0xbd603440	-0.05473733
153	0x37843cd1	1.5763946e-05
154	0xb78d42e5	-1.683966e-05
155	0x37867f7f	1.6033415e-05
156	0x378225d9	1.5514832e-05
157	0x377951e3	1.4860622e-05
158	0x37833b65	1.5644075e-05
159	0x3e4fdff4	0.20300275
160	0xbc324082	-0.010879638
161	0x3c8ec58e	0.017428186
162	0xbd243fe6	-0.0401
163	0xbd0050cb	-0.03132705
164	0xbef977d7	-0.48724243
165	0x3d156e28	0.036482006
166	0x3dde5831	0.10856665
167	0x3ef431f2	0.47694355
168	0x3e077e8c	0.13231868
169	0x3cf3c436	0.029756647
170	0x3dd0338e	0.10166083
171	0xbdc5e821	-0.09663416
172	0xbe44c29d	-0.19214864
173	0xbf5a3c7b	-0.85248536
174	0x3d5eec67	0.05442467
175	0x3e74b692	0.2389777
176	0x3f3226e2	0.6959058
177	0x3e0c6c73	0.13713245
178	0xbe6c7990	-0.23093247
179	0xbd2ac076	-0.04168745
180	0x3d5fe228	0.05465904
181	0x3f412c00	0.75457764
182	0x3dbcc7ee	0.09217821
183	0x3e2d42c0	0.16919994
184	0x3eb6175a	0.3556469
185	0x3e994402	0.29934698
186	0x3e44f7fd	0.19235225
187	0x3d407665	0.04698791
188	0xbd3e699a	-0.04648743
189	0xbe3d83ac	-0.1850726
190	0xbe5c611f	-0.21521424
191	0xbd22c94f	-0.039742764
192	0xbe20bf81	-0.15698053
193	0x3db6a4bc	0.08918139
194	0xbd40efd3	-0.047103714
195	0x3e0ce71c	0.13760036
196	0x3b66a772	0.003519502
197	0x3defcdf3	0.117092036
198	0x3ef04e83	0.469349
199	0xbebbec61	-0.3670378
200	0x3b51415b	0.0031929824
201	0x3f5f76a3	0.872904
202	0xbe1b365b	-0.15157454
203	0xbd80d13a	-0.06289907
204	0xbceb14be	-0.028696414
205	0x3d49dfd4	0.049285725
206	0xbdfbfef8	-0.12304491
207	0x3e154a49	0.14579119
208	0xbe6e35df	-0.23262738
209	0xbd334bfd	-0.04377364
210	0x3b956b2f	0.0045598964
211	0x3d6d27ff	0.05789947
212	0xbd0c57fd	-0.0342636
213	0x3e1d3106	0.15350732
214	0x3db5f567	0.088846974
215	0xbcd3fbd4	-0.025876917
216	0x37847f8a	1.5795016e-05
217	0x375c3648	1.312566e-05
218	0x37854bec	1.589019e-05
219	0x378248b1	1.5531057e-05
220	0x37812c1f	1.5398544e-05
221	0x3783ca39	1.5710584e-05
222	0x3e4708bb	0.19436924
223	0xbc01d89f	-0.007925182
224	0x3d25e369	0.04050008
225	0xbc130e2e	-0.008975549
226	0xbde8736f	-0.11350142
227	0xbeca4def	-0.39512584
228	0x3d07ddd8	0.03317055
229	0x3dba6807	0.09101873
230	0x3eef27ae	0.4670996
231	0x3e00ce39	0.12578668
232	0x3c809112	0.015694175
233	0x3db06683	0.086133026
234	0xbca174f1	-0.019709082
235	0xbe418577	-0.18898569
236	0xbf4e24b9	-0.80524784
237	0x3d49fae0	0.04931152
238	0x3e74954e	0.2388508
239	0x3f382ee8	0.71946573
240	0x3e00c432	0.12574843
241	0xbe800064	-0.25000298
242	0xbe7694ca	-0.24080196
243	0x3d7cf14b	0.061753552
244	0x3f4c83d8	0.7988868
245	0x3def2507	0.11676984
246	0xbd6d625c	-0.05795513
247	0x3ec9a332	0.3938232
248	0x3eb64142	0.35596663
249	0x3e672c10	0.22575402
250	0x3e0a942f	0.1353309
251	0xbd16cf26	-0.036818646
252	0xbe5782cc	-0.21045989
253	0xbe679777	-0.22616373
254	0xbd58d9de	-0.05294215
255	0xbe5edfc7	-0.21765052

transl f4 [304, 3]
0	0x3ef3c6a3	0.47612485
1	0x3fc05a63	1.5027584
2	0x3fad2b90	1.3528919
3	0x3ee9e02b	0.4567884
4	0x3fb67002	1.4252932
5	0x3faab2ed	1.3335854
6	0x3ee72fe3	0.45153722
7	0x3fb2c511	1.396639
8	0x3fa86894	1.3156915
9	0x3ee6a97e	0.45051187
10	0x3fb2ef9f	1.3979377
11	0x3fa7eb0a	1.3118603
12	0x3ee69819	0.45037916
13	0x3fb31381	1.3990327
14	0x3fa72362	1.3057673
15	0x3ee70abb	0.45125374
16	0x3fb366a7	1.4015702
17	0x3fa680e0	1.300808
18	0x3ee7add2	0.45249802
19	0x3fb35a0c	1.4011855
20	0x3fa5dfee	1.2958963
21	0x3ee846f2	0.45366627
22	0x3fb33aca	1.4002316
23	0x3fa53f33	1.2909912
24	0x3ee8f53f	0.45499608
25	0x3fb31f13	1.3993858
26	0x3fa47cf4	1.2850633
27	0x3eea9f31	0.45824578
28	0x3fb31bce	1.399286
29	0x3fa3b052	1.2788184
30	0x3eeaf0d7	0.4588687
31	0x3fb31c74	1.3993058
32	0x3fa2c882	1.271744
33	0x3eeb89aa	0.46003467
34	0x3fb30d08	1.3988352
35	0x3fa1afd4	1.2631783
36	0x3eec0f69	0.46105507
37	0x3fb23bf9	1.3924552
38	0x3fa02eb0	1.2514248
39	0x3eec4e69	0.46153572
40	0x3fb2345d	1.392223
41	0x3f9ee0e9	1.2412387
42	0x3eecd812	0.462586
43	0x3fb24cbb	1.3929666
44	0x3f9d60d5	1.2295176
45	0x3eed73eb	0.463775
46	0x3fb274f1	1.3941938
47	0x3f9bdf8e	1.2177598
48	0x3eee1a6e	0.4650454
49	0x3fb26573	1.393721
50	0x3f9a3cf1	1.2049848
51	0x3eef539e	0.46743482
52	0x3fb26245	1.393624
53	0x3f986434	1.190558
54	0x3ef03517	0.46915504
55	0x3fb28d53	1.3949379
56	0x3f9691c6	1.1763237
57	0x3ef16280	0.47145462
58	0x3fb23da7	1.3925065
59	0x3f94ed1e	1.1634862
60	0x3ef1d2bf	0.472311
61	0x3fb2133b	1.3912119
62	0x3f9345bf	1.150566
63	0x3ef2068b	0.47270617
64	0x3fb215b9	1.3912879
65	0x3f91d43f	1.1392897
66	0x3ef247fb	0.47320542
67	0x3fb1d05a	1.3891709
68	0x3f905f80	1.1279144
69	0x3ef16432	0.47146755
70	0x3fb1c9ae	1.3889673
71	0x3f8f0da6	1.117604
72	0x3ef04133	0.46924743
73	0x3fb19435	1.3873354
74	0x3f8dcf36	1.1078861
75	0x3eef1987	0.46699163
76	0x3fb172d7	1.3863171
77	0x3f8cbddd	1.0995442
78	0x3eedeca2	0.464696
79	0x3fb153f6	1.3853748
80	0x3f8bb720	1.091526
81	0x3eed0805	0.4629518
82	0x3fb12cdd	1.3841816
83	0x3f8abb26	1.0838363
84	0x3eec2692	0.46123177
85	0x3fb107b2	1.3830473
86	0x3f89dc0f	1.0770282
87	0x3eeae525	0.45877948
88	0x3fb0e071	1.3818494
89	0x3f8909ea	1.070615
90	0x3ee96fd4	0.4559313
91	0x3fb0c6f1	1.3810712
92	0x3f8828d1	1.0637456
93	0x3ee7c0f7	0.45264408
94	0x3fb0b4fc	1.3805232
95	0x3f87607c	1.057632
96	0x3ee5ae6f	0.44859645
97	0x3fb0aff8	1.3803701
98	0x3f867cc3	1.0506824
99	0x3ee3a357	0.44460556
100	0x3fb09de8	1.3798189
101	0x3f85ac54	1.0443215
102	0x3ee15c40	0.44015694
103	0x3fb085da	1.3790848
104	0x3f84a314	1.0362267
105	0x3ede3aa6	0.4340412
106	0x3fb08d48	1.3793116
107	0x3f8396b7	1.028037
108	0x3edaa94f	0.42707297
109	0x3fb089e4	1.3792081
110	0x3f82773e	1.019264
111	0x3ed6f1fe	0.419815
112	0x3fb07c99	1.3788024
113	0x3f811786	1.0085304
114	0x3ed2be60	0.4116087
115	0x3fb0639e	1.3780401
116	0x3f7f630f	0.99760526
117	0x3ecddb50	0.40206385
118	0x3fb04fde	1.3774374
119	0x3f7c3df5	0.9853204
120	0x3ec8a497	0.39188072
121	0x3fb0089a	1.3752625
122	0x3f78bf86	0.9716724
123	0x3ec2a57f	0.38016888
124	0x3fafce57	1.3734845
125	0x3f74fae9	0.9569536
126	0x3ebc58d5	0.36786523
127	0x3fafa4be	1.372215
128	0x3f713fdc	0.94238067
129	0x3eb57ef0	0.35448408
130	0x3faf8d1b	1.3714937
131	0x3f6d825b	0.9277703
132	0x3eae287e	0.34015268
133	0x3fafab8e	1.3724229
134	0x3f69be1d	0.91305715
135	0x3ea61f12	0.3244558
136	0x3fafac1e	1.3724401
137	0x3f652df6	0.89523256
138	0x3e9d9799	0.30779722
139	0x3faf9dea	1.3720067
140	0x3f60c3c0	0.8779869
141	0x3e95b7e9	0.29241875
142	0x3faf798d	1.3708969
143	0x3f5bfd08	0.8593297
144	0x3e8e8172	0.27833134
145	0x3faf72be	1.3706892
146	0x3f5745b4	0.84090734
147	0x3e8818c7	0.26581404
148	0x3faf51fb	1.3696893
149	0x3f52cc4c	0.8234298
150	0x3e828cd9	0.25498083
151	0x3faf600d	1.3701187
152	0x3f4e9405	0.8069461
153	0x3e7ba05d	0.24572892
154	0x3faf5697	1.36983
155	0x3f4a5f80	0.7905197
156	0x3e732c2c	0.23747319
157	0x3faf68d9	1.3703872
158	0x3f466584	0.7749865
159	0x3e6b7545	0.22993954
160	0x3fafa0f2	1.3720992
161	0x3f427cc9	0.7597166
162	0x3e63aaab	0.22233073
163	0x3fafc01d	1.3730503
164	0x3f3e5ac6	0.7435726
165	0x3e5c6c15	0.21525605
166	0x3fb00281	1.3750764
167	0x3f3a3ed5	0.72752124
168	0x3e560db7	0.2090367
169	0x3fb013a4	1.3755994
170	0x3f359281	0.7092667
171	0x3e4f9178	0.20270336
172	0x3fafff0c	1.3749709
173	0x3f30510b	0.6887366
174	0x3e48c7c0	0.19607449
175	0x3fafbdd6	1.3729808
176	0x3f2ace97	0.6672148
177	0x3e42311e	0.18964049
178	0x3faf4e8c	1.3695846
179	0x3f249a88	0.64298296
180	0x3e3ba739	0.18325509
181	0x3fae963f	1.3639601
182	0x3f1d756a	0.61507285
183	0x3e33714a	0.17523685
184	0x3fade229	1.3584644
185	0x3f16752d	0.58772546
186	0x3e2e2d53	0.17009477
187	0x3fac581e	1.3464391
188	0x3f0dbeac	0.5536907
189	0x3e282904	0.16421896
190	0x3fab5b00	1.3387146
191	0x3f065bad	0.52483636
192	0x3e236de8	0.15959895
193	0x3fab0421	1.3360635
194	0x3eff3e0f	0.49852034
195	0x3e1f0312	0.15528515
196	0x3faafaa2	1.3357737
197	0x3ef4386e	0.47699302
198	0x3e1bbcd3	0.1520875
199	0x3fab820a	1.339906
200	0x3eec1401	0.46109012
201	0x3e1a0693	0.1504157
202	0x3fac2315	1.3448206
203	0x3ee57b20	0.448205
204	0x3e189b5b	0.14903013
205	0x3fad2d4d	1.352945
206	0x3ee0ef6b	0.4393266
207	0x3e163596	0.14668879
208	0x3fae0ea2	1.3598216
209	0x3ede5cc5	0.43430153
210	0x3e12f45c	0.14351028
211	0x3faeb707	1.3649606
212	0x3edc775c	0.43059814
213	0x3e0eb02c	0.13934392
214	0x3faf3d76	1.3690631
215	0x3eda53a6	0.42641944
216	0x3e08b7f6	0.13351426
217	0x3faf77aa	1.3708394
218	0x3ed83d6a	0.42234355
219	0x3e0186c3	0.12649064
220	0x3faf804e	1.371103
221	0x3ed54318	0.4165275
222	0x3df2ae65	0.11849669
223	0x3faf4a26	1.3694503
224	0x3ed321dc	0.4123677
225	0x3de395e0	0.11112571
226	0x3faf1068	1.3676882
227	0x3ed0ec85	0.4080545
228	0x3dd33863	0.10313489
229	0x3faf1bc6	1.3680351
230	0x3ecf8c95	0.40536943
231	0x3dc394d1	0.09549869
232	0x3faf53b0	1.3697414
233	0x3ecf3cdf	0.40476128
234	0x3db32ec2	0.08749153
235	0x3fafad4a	1.3724759
236	0x3ecfec16	0.40609807
237	0x3da4a379	0.080389924
238	0x3fb0036c	1.3751044
239	0x3ed0f3c2	0.40810972
240	0x3d92768f	0.071515195
241	0x3fb0240b	1.3761
242	0x3ed1fd88	0.41013741
243	0x3d81c3b4	0.063361555
244	0x3fb02672	1.3761733
245	0x3ed2630a	0.41091186
246	0x3d62e94c	0.05539827
247	0x3fafd7a4	1.3737683
248	0x3ed26d91	0.41099218
249	0x3d4bcf8c	0.04975848
250	0x3fafa1bf	1.3721236
251	0x3ed228f3	0.41046867
252	0x3d35e253	0.044405293
253	0x3faf48eb	1.3694128
254	0x3ed20fc8	0.41027665
255	0x3d28f39e	0.041247956

left_hand_pose f4 [304, 12]
0	0xbefe14f4	-0.4962536
1	0xbeecd139	-0.46253374
2	0xbddfc38e	-0.10925971
3	0xbf7c936a	-0.98662436
4	0x3f91a938	1.1379766
5	0x3e2ad14c	0.16681403
6	0x3e267f23	0.16259436
7	0xbf8c1448	-1.0943689
8	0xbf330472	-0.6992866
9	0xbfb6408d	-1.4238449
10	0x3f8b1000	1.0864258
11	0xc00c647c	-2.193633
12	0xbf1e5807	-0.6185307
13	0xbc21cb81	-0.009875179
14	0xbe57adb0	-0.2106235
15	0xbfa9594b	-1.3230375
16	0x3f85548e	1.0416429
17	0xbdbf8940	-0.0935235
18	0x3cb30e7d	0.021857494
19	0xbf4190da	-0.7561165
20	0xbf0a21b4	-0.53957677
21	0xbf9b74a3	-1.214497
22	0xbed48cf3	-0.41513786
23	0xc0191562	-2.39193
24	0xbe1dc0db	-0.154056
25	0xbe83e2ff	-0.25759122
26	0x3e72957d	0.23689838
27	0xbf5c896b	-0.86147183
28	0x3f3a37cb	0.72741383
29	0x3c7b0c0e	0.015322698
30	0xbc184890	-0.009294644
31	0xbeace213	-0.3376623
32	0xbf527398	-0.8220763
33	0xbfb9f262	-1.4527094
34	0x3ea7c489	0.32767132
35	0xbff1f816	-1.8903835
36	0xbc4aa3f2	-0.012368189
37	0xbbdd4dd1	-0.006753661
38	0x3e928135	0.28614202
39	0xbf612453	-0.8794605
40	0x3f4089e0	0.7521038
41	0x3daecdf9	0.0853538
42	0xbdb45bd3	-0.088065766
43	0xbe9529d9	-0.2913349
44	0xbf10f268	-0.5661988
45	0xbfc2001e	-1.5156286
46	0xbe7b9281	-0.24567606
47	0xbffb799e	-1.964649
48	0xbde403ac	-0.11133513
49	0x3e9d7672	0.3075443
50	0x3e8a1b0e	0.26973766
51	0xbe8148e6	-0.2525093
52	0x3f6e9c61	0.93207365
53	0x3d8f8848	0.070084155
54	0xbf2f4746	-0.6846813
55	0x3e111f45	0.14172085
56	0xbfc4831c	-1.5352511
57	0xbf3bc6e0	-0.73350334
58	0xbec6ee99	-0.3885391
59	0xc02429d6	-2.5650535
60	0x3e525283	0.20539288
61	0x3e6eb9cd	0.23313065
62	0x3f35e09f	0.7104587
63	0x3e608d2e	0.21928856
64	0x3ea6ae97	0.32555076
65	0xbec2b1a8	-0.38026166
66	0xbf093131	-0.53590685
67	0xbeefa929	-0.46808746
68	0xbecfacb9	-0.40561464
69	0xbf997683	-1.1989292
70	0xbf081984	-0.53163934
71	0xbfe68de4	-1.8012052
72	0xbe6506b7	-0.22365843
73	0xbe186acc	-0.1488449
74	0x3eefe45c	0.46853912
75	0xbd020808	-0.03174594
76	0x3fd9846b	1.6993536
77	0xbe76c094	-0.240969
78	0xbf2c2fd5	-0.67260486
79	0xbfb93bfe	-1.4471433
80	0x3d4504f7	0.048100438
81	0xbf553e48	-0.8329816
82	0x3eafed27	0.3436062
83	0xc04c9e8c	-3.197177
84	0x3e3c7731	0.18404843
85	0x3e40c3dc	0.18824714
86	0x3f97602e	1.1826227
87	0x3f2384ce	0.6387452
88	0x3fb9a7e2	1.4504359
89	0x3d9d9933	0.07695236
90	0xbf81fa85	-1.0154577
91	0xbf959eb6	-1.168906
92	0xbeb65939	-0.35614946
93	0xbfd60f6e	-1.6723459
94	0xbed39554	-0.41324866
95	0xbff7c5ad	-1.9357201
96	0x3cfca246	0.030839097
97	0x3eaacae0	0.33357906
98	0x3f009860	0.50232506
99	0xbd8a7c85	-0.067620315
100	0x400b9e94	2.1815538
101	0x3f582959	0.8443809
102	0xbfb2a9d8	-1.3958082
103	0x3df46de9	0.11935026
104	0x3dd3519d	0.10318301
105	0xbf7e4d73	-0.9933693
106	0x3ed6e6d3	0.4197298
107	0xbf1aacbd	-0.6041983
108	0x3d36e080	0.044647694
109	0x3e857fb5	0.26073995
110	0x3dd3a203	0.10333636
111	0xbea99299	-0.33119658
112	0x3eb8ef6c	0.36120164
113	0x3e952597	0.2913024
114	0x3e42c17c	0.19019121
115	0xbe486e7d	-0.19573398
116	0xbf8d7a23	-1.1052898
117	0xbf476f18	-0.7790389
118	0x3f16e0b5	0.58936626
119	0xbf3dcdde	-0.74142253
120	0x3dab8642	0.08375217
121	0x3f3c8b85	0.7365039
122	0x3ed97552	0.4247232
123	0x3e9e8de3	0.30967626
124	0xbf96b476	-1.1773822
125	0x3eb19085	0.34680572
126	0xbd996546	-0.074900195
127	0xbde76362	-0.11298253
128	0xbfe8899d	-1.8166996
129	0xbf355088	-0.70826006
130	0xbec27415	-0.3797919
131	0xbf8200ab	-1.0156454
132	0xbd6f9bd9	-0.058498237
133	0x3e15e89a	0.14639512
134	0xbc376d9b	-0.011195566
135	0xbefab53b	-0.48966393
136	0x3f07244e	0.5278977
137	0x3ee290b5	0.44251028
138	0x3d7d1158	0.06178412
139	0xbd5b0563	-0.053471934
140	0xbf979a03	-1.1843876
141	0xbed0b6a4	-0.40764344
142	0x3f476c96	0.77900064
143	0xbfafa8bf	-1.3723372
144	0x3d5e3594	0.054250315
145	0x3f0fdf6f	0.5620031
146	0x3f244fd9	0.6418434
147	0x3f3d2284	0.7388079
148	0xbd95644d	-0.072945215
149	0x3ecbdcb1	0.39816812
150	0xbf992276	-1.1963642
151	0x3d80a51d	0.06281493
152	0xbfa854cb	-1.3150877
153	0xbe83b68f	-0.2572522
154	0xbf3fa056	-0.7485403
155	0xbfc1f7b8	-1.5153723
156	0x3dd62bde	0.10457586
157	0x3eabd20f	0.335587
158	0x3efc1c4f	0.49240348
159	0xbe06302d	-0.13104315
160	0x3eda9024	0.42688096
161	0x3d321b0e	0.043482833
162	0xbe97a107	-0.29615042
163	0x3ee6954d	0.45035782
164	0xbf997976	-1.1990192
165	0xbdf5c435	-0.12000314
166	0x3f9afb39	1.2107917
167	0xbf643c01	-0.8915406
168	0x3d1c63c7	0.038181093
169	0x3b4bdb98	0.003110623
170	0x3ed94107	0.42432424
171	0xbf1a589b	-0.6029145
172	0x3ed56728	0.41680264
173	0x3ec7edff	0.39048764
174	0xbd76b6ec	-0.06023304
175	0x3e4141d9	0.18872775
176	0xbf5812ec	-0.8440387
177	0xbe67d8b7	-0.22641264
178	0x3f933191	1.1499501
179	0xbfae5bd7	-1.3621777
180	0x3dcccebe	0.100003704
181	0x3d1f59e5	0.03890409
182	0x3e2351fd	0.15949245
183	0xbf2aa7a4	-0.6666205
184	0x3f148358	0.58012915
185	0xbe827f17	-0.25487587
186	0xbe8a8b4e	-0.27059406
187	0x3f0ebe4f	0.5575914
188	0xbf5db017	-0.86596817
189	0xbe7a0aa6	-0.24418125
190	0x3f53f7d9	0.8280006
191	0xbf1b5bd7	-0.6068701
192	0x3dc9a414	0.098457485
193	0xbe58693b	-0.21133892
194	0x3ec165d6	0.37773007
195	0xbf78a26b	-0.9712283
196	0x3f2e93fd	0.6819456
197	0xbe3112f4	-0.17292386
198	0x3eda24b5	0.4260613
199	0x3e19dc1c	0.15025371
200	0xbdcaef1a	-0.09908886
201	0xbeb35cb9	-0.3503168
202	0x3f9ab7f7	1.2087392
203	0xbfc025f3	-1.5011581
204	0x3e36e5c1	0.17861082
205	0xbaf0ee49	-0.0018381561
206	0x3ecb39be	0.3969249
207	0xbf335a48	-0.70059633
208	0x3ec87950	0.39155054
209	0xbebfa809	-0.37432888
210	0x3e2fcd08	0.17168057
211	0x3ea8d753	0.3297678
212	0xbf6db96a	-0.92861044
213	0xbf320517	-0.69539016
214	0x3eee9f78	0.4660604
215	0xbfa5b253	-1.2945045
216	0x3e3cf5b9	0.18453111
217	0x3cd26d00	0.02568674
218	0x3eb9c690	0.36284304
219	0xbf517440	-0.8181801
220	0x3f00980a	0.50231993
221	0xbdfdbe47	-0.12389808
222	0xbd646c50	-0.055767357
223	0x3f20f92b	0.628802
224	0xbf37bb48	-0.71770144
225	0xbebbcc5d	-0.36679354
226	0x3f55dcf5	0.8354028
227	0xbfd6ee33	-1.6791443
228	0xbe14994b	-0.14511602
229	0xbe4ec859	-0.20193614
230	0xbea1c08d	-0.31592217
231	0xbfccbfad	-1.5995995
232	0x3fe3b922	1.7790873
233	0xbea40182	-0.320324
234	0x3de2a4cc	0.11066589
235	0x3f2e68ec	0.6812885
236	0x3f25d8f9	0.647842
237	0xbe5b6f09	-0.21429075
238	0x3dceecd0	0.10103762
239	0xbef86886	-0.48517245
240	0x3d94acc7	0.07259517
241	0x3df43790	0.1192466
242	0xbe1cfde5	-0.15331228
243	0xbf7a44bd	-0.97761136
244	0x3e9c5e14	0.30540526
245	0x3d9c5043	0.07632496
246	0xbecdd2c9	-0.4019988
247	0x3fabc9f7	1.342101
248	0xbf5a20cc	-0.85206294
249	0x3e518756	0.20461783
250	0x3e5fcccb	0.21855466
251	0x3d80230c	0.06256685
252	0x3e45141a	0.1924595
253	0x3d894d7b	0.06704231
254	0xbdcab2a4	-0.09897354
255	0xbf351097	-0.7072844

right_hand_pose f4 [304, 12]
0	0x3de2da10	0.11076748
1	0x3d8c44c5	0.06849054
2	0x3ecc0a0b	0.39851412
3	0xbe2ebbb5	-0.17063792
4	0x3e107175	0.1410578
5	0xbe98b199	-0.29822996
6	0x3f768273	0.962928
7	0xbe14c11a	-0.14526787
8	0xbf80b779	-1.0055991
9	0xbf4154a2	-0.75519764
10	0x3f2f7769	0.6854158
11	0xbf1dc3f1	-0.6162711
12	0x3e65fd0d	0.22459812
13	0x3c759002	0.014987947
14	0x3efb2b41	0.49056438
15	0x3e867e90	0.26268435
16	0xbe7bfc4a	-0.2460796
17	0xbf31f617	-0.6951613
18	0x3f3a45af	0.7276258
19	0x3e5d76c5	0.21627338
20	0xbf5920af	-0.84815496
21	0xbf049361	-0.5178738
22	0x3f66e2a5	0.9018958
23	0xbf155eac	-0.5834758
24	0x3e6fcaf1	0.2341726
25	0xbb7cd1ab	-0.003857712
26	0x3efff1bc	0.49989116
27	0x3ea13c28	0.31491208
28	0xbdc58dfd	-0.09646223
29	0xbf0d89d4	-0.55288434
30	0x3f0a6878	0.54065657
31	0x3da10b83	0.07863524
32	0xbefbbff3	-0.49169883
33	0xbf1af457	-0.60529083
34	0x3f120c74	0.5705025
35	0xbf86bf77	-1.052718
36	0x3e703840	0.23458958
37	0xbe2a4bb7	-0.16630445
38	0x3ea2c59d	0.31791392
39	0x3cd07db8	0.025450572
40	0x3e5e8020	0.21728563
41	0xbeeb15a0	-0.45914936
42	0x3f49b117	0.7878584
43	0xbd778125	-0.060425896
44	0xbebde513	-0.37088832
45	0xbf4a93ae	-0.7913159
46	0x3eff3abe	0.49849504
47	0xbf89e053	-1.0771583
48	0x3e8fda59	0.28096274
49	0xbba992af	-0.0051749568
50	0x3ed78d4a	0.42099983
51	0x3e447665	0.19185789
52	0x3e1b785d	0.15182634
53	0xbf059e5a	-0.5219475
54	0x3f1638d5	0.5868047
55	0xbddb2930	-0.10701215
56	0xbf03f218	-0.5154128
57	0xbf4fb413	-0.81134146
58	0x3f50e961	0.8160611
59	0xbfb7879d	-1.4338261
60	0x3e8b0fc7	0.27160475
61	0xbd432e2c	-0.047651455
62	0x3eaa2e36	0.3323838
63	0x3d47d77c	0.048789486
64	0x3e968a19	0.29402235
65	0xbee76296	-0.45192403
66	0x3efde434	0.49588168
67	0xbe2929a1	-0.16519786
68	0xbe8b42aa	-0.27199298
69	0xbf307ef6	-0.68943727
70	0x3f8efcf1	1.1170942
71	0xbfba64c4	-1.4562001
72	0x3e876251	0.26442197
73	0x3e0fa87f	0.1402912
74	0x3eadb3f6	0.33926362
75	0x3d3967b2	0.045264907
76	0x3e47333b	0.19453137
77	0xbf016d11	-0.5055705
78	0x3f14b7f9	0.5809322
79	0xbdb6d497	-0.08927267
80	0xbee3ac9e	-0.44467634
81	0xbf451c55	-0.76996356
82	0x3f83e3a9	1.0303851
83	0xbfc72782	-1.5558932
84	0x3e785510	0.24251199
85	0x3e1f7133	0.15570526
86	0x3ed11e4b	0.40843424
87	0x3c76c95d	0.015062657
88	0x3e704c43	0.23466592
89	0xbed52609	-0.4163058
90	0x3f130f76	0.57445467
91	0xbe72e5ae	-0.23720428
92	0xbe8d9d2d	-0.27658978
93	0xbf6fb700	-0.9363861
94	0x3f740824	0.9532492
95	0xbfcb8d9a	-1.5902588
96	0x3e8a8183	0.27051935
97	0x3e1b0ccf	0.15141605
98	0x3ed58845	0.41705528
99	0x3e187a29	0.1489035
100	0x3d34d37a	0.044146992
101	0xbf09ecbe	-0.53876865
102	0x3f1c4e47	0.6105694
103	0xbdeb9151	-0.11502326
104	0xbeb4a099	-0.35278776
105	0xbf4b4e46	-0.7941631
106	0x3f80f61d	1.0075108
107	0xbfb19633	-1.3873962
108	0x3eadb8c6	0.33930033
109	0x3dae3957	0.085070305
110	0x3edd8713	0.43267116
111	0x3e45ee6c	0.19329232
112	0xbe183dda	-0.14867344
113	0xbea9f7af	-0.3319678
114	0x3f2e5427	0.68097156
115	0xbdb04ae2	-0.08608033
116	0xbea26e53	-0.31724796
117	0xbf192a1f	-0.59829897
118	0x3f9826e6	1.1886871
119	0xbf8e05f2	-1.1095564
120	0x3edf1e97	0.43578026
121	0x3dc00dc7	0.09377628
122	0x3ef3daa7	0.47627756
123	0x3efedc87	0.49777624
124	0xbe86b9f0	-0.26313734
125	0xbe4fd50c	-0.20296115
126	0x3edcc073	0.43115577
127	0x3d0b4588	0.034001857
128	0xbed3d6dd	-0.41374865
129	0xbf22b236	-0.6355318
130	0x3f26f94d	0.6522415
131	0xbf8fbaa6	-1.1228836
132	0x3eea7729	0.45794037
133	0x3dadd6a5	0.08488206
134	0x3ee8df3d	0.45482817
135	0x3eae08e3	0.33991155
136	0xbd181b6a	-0.03713552
137	0xbe86a73f	-0.26299474
138	0x3e93766b	0.28801283
139	0xbe0cfba3	-0.13767867
140	0xbec20924	-0.378976
141	0xbf19802b	-0.59961194
142	0x3f9f4796	1.2443721
143	0xbfab2777	-1.3371419
144	0x3ede11bd	0.43372908
145	0x3e7c9a12	0.24668148
146	0x3f3b2ce7	0.7311539
147	0x3f4aec42	0.7926675
148	0xbd31d51b	-0.043416124
149	0x3e2bfd9a	0.1679596
150	0xbf1abf07	-0.60447735
151	0xbebd0b47	-0.36922666
152	0xbe824b9b	-0.25448307
153	0xbf4a98a6	-0.79139173
154	0xbded638c	-0.11591253
155	0xbfdf4347	-1.7442406
156	0x3eb93cba	0.36179143
157	0x3e40be8a	0.18822685
158	0x3f16eef6	0.58958375
159	0x3d61b577	0.0551047
160	0x3ed6226c	0.41823137
161	0xbe987bbf	-0.2978191
162	0x3efd0d83	0.4942437
163	0xbf12ab35	-0.5729249
164	0xbe563316	-0.20917925
165	0xbf72deea	-0.9487139
166	0x3fb9caf3	1.451506
167	0xbfce3e96	-1.611285
168	0x3ee8755e	0.45402044
169	0x3e40b42f	0.18818735
170	0x3f217759	0.63072735
171	0x3ee6cb1f	0.45076844
172	0x3c506032	0.012718247
173	0xbe689bd5	-0.22715695
174	0x3e0afe2a	0.13573518
175	0xbe161f84	-0.1466046
176	0xbf2d53ef	-0.677062
177	0xbf1df81a	-0.617067
178	0x3f8b16d7	1.0866345
179	0xbf90f036	-1.1323307
180	0x3ee8fc06	0.4550478
181	0x3e0036fe	0.12520978
182	0x3f0086fd	0.50205976
183	0x3d56bbb2	0.052425094
184	0x3ee8ed5b	0.45493588
185	0xbe96c598	-0.29447627
186	0x3f27ccea	0.6554705
187	0xbe3b098d	-0.18265362
188	0xbf0105b1	-0.5039931
189	0xbf66fbf2	-0.9022819
190	0x3f61018d	0.8789299
191	0xbf754683	-0.9581072
192	0x3ee9d737	0.45672008
193	0x3d1ddea2	0.038542397
194	0x3efa7796	0.48919362
195	0xbec08d3d	-0.37607756
196	0x3f945f6d	1.1591622
197	0xbec3056d	-0.38090077
198	0x3f44b153	0.76833075
199	0xbed091e5	-0.4073631
200	0xbea44e66	-0.32091063
201	0xbf8bc260	-1.0918694
202	0x3f81b6ff	1.0133971
203	0xbf8a4e91	-1.0805227
204	0x3f0448e5	0.5167373
205	0x3c4fefe7	0.0126914745
206	0x3f08ee34	0.5348847
207	0xbe255b78	-0.16148174
208	0x3f1a06e4	0.60166764
209	0xbf11a0e5	-0.5688613
210	0x3f25e358	0.64800024
211	0xbdf68648	-0.12037331
212	0xbf08b17b	-0.53395814
213	0xbf80c962	-1.0061457
214	0x3faf64ae	1.37026
215	0xbfb0cf5a	-1.3813279
216	0x3f0da6cf	0.55332655
217	0x3d4e8e36	0.05042859
218	0x3efae4d5	0.4900271
219	0x3dda7e83	0.106686614
220	0x3d7ba696	0.061438166
221	0xbf0fc8c0	-0.56165695
222	0x3eda2d29	0.4261258
223	0x3d8945c0	0.06702757
224	0xbf011514	-0.5042279
225	0xbf04238c	-0.5161674
226	0x3fbd4939	1.4787971
227	0xbf997167	-1.1987733
228	0x3f0e1262	0.554968
229	0x3d7a24be	0.061070196
230	0x3f10233a	0.5630375
231	0x3e85060b	0.25981173
232	0xbcf1f51c	-0.029535823
233	0xbee177c2	-0.4403668
234	0x3ee764d0	0.451941
235	0x3bae8c4a	0.0053267824
236	0xbee237c6	-0.44183177
237	0xbefdeaf0	-0.49593306
238	0x3fa7bc88	1.310441
239	0xbf9a97a2	-1.2077525
240	0x3f1a7672	0.60336983
241	0x3e10e6e7	0.14150582
242	0x3f28f11d	0.6599291
243	0x3eea3515	0.45743623
244	0xbe2734ce	-0.16328737
245	0xbee4d217	-0.44691536
246	0x3ee68efb	0.4503096
247	0xbd8eca1d	-0.06972144
248	0xbefb1825	-0.49041858
249	0xbf0737f3	-0.52819747
250	0x3fa7972b	1.3093008
251	0xbf959102	-1.1684878
252	0x3f1f3936	0.6219667
253	0x3e4e99c9	0.20175852
254	0x3f2654b8	0.6497302
255	0x3f0aca46	0.54214895

jaw_pose f4 [304, 3]
0	0xbde8634a	-0.11347063
1	0x3a3a9811	0.00071179966
2	0x3aa1437a	0.0012303435
3	0x3db99875	0.09062282
4	0xbb849ab1	-0.004046761
5	0xbaaf2fce	-0.0013365687
6	0x3db5bb4c	0.08873615
7	0xbb32426b	-0.0027200233
8	0xba066753	-0.0005127091
9	0x3d9ad6cb	0.075605
10	0xbb68a73f	-0.0035500077
11	0xb848f37e	-4.7910486e-05
12	0x3d7eb6d8	0.062186092
13	0xbbc6c3e4	-0.0060658325
14	0xba81e676	-0.0009910602
15	0x3d7a0560	0.061040282
16	0xbba8a193	-0.0051462143
17	0xba00b4eb	-0.00049097714
18	0x3d8c760b	0.068584524
19	0xbbeba256	-0.007190983
20	0xbb0247c1	-0.0019879194
21	0x3d668a3a	0.056284167
22	0xbbedb0e6	-0.007253754
23	0xbabd811e	-0.0014458036
24	0x3d1f2dfc	0.038862213
25	0xbc0eb9a8	-0.008711256
26	0xbb2496a8	-0.0025114212
27	0x3cfd8cb0	0.030950874
28	0xbc26d7dd	-0.010183302
29	0xbb48cd3e	-0.0030639912
30	0x3d192c3d	0.037395705
31	0xbc2d56a0	-0.010579735
32	0xbb572b5e	-0.0032832245
33	0x3d28584c	0.04109983
34	0xbc2bc7b4	-0.010484625
35	0xbb6ea51b	-0.0036414328
36	0x3d33fc8f	0.04394203
37	0xbc27c96e	-0.010240896
38	0xbb550679	-0.0032505079
39	0x3d2606f2	0.040533967
40	0xbc39cae7	-0.01133988
41	0xbb6c98f4	-0.003610191
42	0x3d390172	0.045167394
43	0xbc1e0ab5	-0.009646107
44	0xbb6dde25	-0.0036295739
45	0x3d54bd49	0.05193833
46	0xbc37d5a8	-0.011220373
47	0xbb7ffa4c	-0.00390591
48	0x3d257d68	0.0404028
49	0xbc1b02ec	-0.009461146
50	0xbb5147e0	-0.003193371
51	0x3d1e447b	0.038639527
52	0xbc21d185	-0.0098766135
53	0xbb57e64a	-0.003294366
54	0x3cfb95bd	0.03071105
55	0xbc1044af	-0.008805438
56	0xbb2edfd6	-0.002668371
57	0x3cf34008	0.029693618
58	0xbc214f5d	-0.009845582
59	0xbb363114	-0.002780025
60	0x3cc88f0a	0.024482269
61	0xbc0ceb94	-0.008601088
62	0xbb223340	-0.0024749786
63	0x3ca58fac	0.02021011
64	0xbbf641cd	-0.0075151683
65	0xbaca70ef	-0.0015445034
66	0x3c5c96c8	0.013463683
67	0xbc16db07	-0.009207494
68	0xbb3192be	-0.0027095522
69	0x3d0aecd5	0.033917267
70	0xbbf680e3	-0.0075226887
71	0xbaa4ee3f	-0.001258321
72	0x3d23ffb1	0.04003877
73	0xbbf1ae98	-0.0073755495
74	0xbaf74b7d	-0.0018867102
75	0x3d01dcba	0.031704642
76	0xbc0603d8	-0.008179627
77	0xbb2aedbb	-0.002608164
78	0x3cf1f2cc	0.02953472
79	0xbbdcce82	-0.006738485
80	0xbab151f4	-0.0013528452
81	0x3d024ff9	0.03181455
82	0xbbe69909	-0.007037286
83	0xbb056ef6	-0.0020360327
84	0x3cc0f99e	0.023556527
85	0xbbea7a80	-0.0071557164
86	0xbab32a02	-0.0013669136
87	0x3cd631bb	0.02614676
88	0xbbeaf81d	-0.0071706907
89	0xbaf0ad51	-0.0018362199
90	0x3d142e88	0.03617719
91	0xbc09a932	-0.008402156
92	0xbb5198bd	-0.0031981908
93	0x3d0b809e	0.034058206
94	0xbc129356	-0.00894626
95	0xbb6be21f	-0.0035992933
96	0x3d1b60c5	0.037934083
97	0xbc225499	-0.009907865
98	0xbb7bd397	-0.0038425678
99	0x3d3678da	0.044548847
100	0xbc0239fa	-0.007948393
101	0xbb16c5e2	-0.002300613
102	0x3d2321b0	0.03982705
103	0xbbfbf912	-0.0076896036
104	0xbb1b1e4d	-0.0023669184
105	0x3d09d6f5	0.033652265
106	0xbbcdfc16	-0.0062861545
107	0xbab1c7d5	-0.0013563583
108	0x3d0bf34b	0.03416757
109	0xbbc10cc0	-0.0058914125
110	0xbaba81bf	-0.0014229341
111	0x3d0d7eae	0.03454464
112	0xbbd12a88	-0.006383244
113	0xbabc5397	-0.0014368173
114	0x3d2b62aa	0.04184214
115	0xbbddcb4b	-0.006768619
116	0xbb26a7be	-0.0025429572
117	0x3d30d65e	0.043173186
118	0xbb97eb55	-0.004636208
119	0xbaf5bb65	-0.0018747865
120	0x3d2021d8	0.039094776
121	0xbb71da94	-0.0036903964
122	0xba9d3d1d	-0.0011996363
123	0x3d4214a4	0.047382966
124	0xbb811732	-0.0039395327
125	0xba729de2	-0.0009255094
126	0x3d2e774c	0.04259424
127	0xbb57175c	-0.003282032
128	0xba83889f	-0.0010035223
129	0x3d3731d8	0.04472527
130	0xbb7fe7fd	-0.0039048188
131	0xba2ca0a3	-0.0006585216
132	0x3d261769	0.04054967
133	0xbb0c3a4c	-0.0021397052
134	0xb902beb1	-0.00012468804
135	0x3d404a6f	0.046945985
136	0x393cc910	0.00018003979
137	0x3a3917ce	0.0007060737
138	0x3d4f6dfb	0.050641995
139	0xbb1dbcb8	-0.0024068784
140	0xb8c6a70d	-9.4724914e-05
141	0x3d30dfba	0.043182112
142	0xbb4a82d6	-0.0030900738
143	0xb9983c16	-0.00029036467
144	0x3d0d8a86	0.034555934
145	0xbb89da3c	-0.004206924
146	0xba28701d	-0.00064253976
147	0x3d089eaf	0.033354457
148	0xbba4fe27	-0.00503518
149	0xba328a85	-0.0006810802
150	0x3cfcac1d	0.030843789
151	0xbbbbd823	-0.0057325526
152	0xba5e9866	-0.0008491337
153	0x3d1969bd	0.037454356
154	0xbbc471bd	-0.005995004
155	0xba9b224b	-0.0011835782
156	0x3d2c1944	0.042016283
157	0xbbd94fce	-0.006631828
158	0xbae09a3f	-0.0017135813
159	0x3d3e4f1f	0.046462175
160	0xbc0e7284	-0.008694295
161	0xbb5614a0	-0.0032666102
162	0x3d2bf5e4	0.041982546
163	0xbbd44c5b	-0.006478829
164	0xbb00a860	-0.001963161
165	0x3d672ee4	0.056441203
166	0xbbd2508d	-0.006418294
167	0xba99bb5c	-0.0011728811
168	0x3d7df315	0.0619994
169	0xbbcf1529	-0.006319661
170	0xbaaead4d	-0.0013326794
171	0x3d4c6004	0.049896255
172	0xbbb30709	-0.005463485
173	0xba8ff6d1	-0.0010983591
174	0x3d530d81	0.05152655
175	0xbb16012a	-0.0022888877
176	0xba4e01df	-0.0007858555
177	0x3d20cae8	0.039256006
178	0xbb89fd13	-0.004211077
179	0xba1f793c	-0.0006083434
180	0x3d1b22fe	0.037875168
181	0xbb1331d8	-0.002246013
182	0xb9ea0962	-0.0004463895
183	0x3d16a21f	0.036775704
184	0xbb75c528	-0.0037501547
185	0xba189c20	-0.0005821604
186	0x3d2cd524	0.042195454
187	0xbbc972ca	-0.006147717
188	0xbafbff47	-0.0019225859
189	0x3d349c80	0.044094563
190	0xbb94df0a	-0.00454319
191	0xbab44e29	-0.0013756204
192	0x3d0d87d1	0.034553353
193	0xbb98757f	-0.0046526785
194	0xba275ceb	-0.000638439
195	0x3d218f46	0.039443277
196	0xbb8faeed	-0.0043848664
197	0xba2607f4	-0.00063335826
198	0x3d3c3c16	0.04595574
199	0xbbde1722	-0.00677766
200	0xbb17fe2b	-0.0023192267
201	0x3d616aa4	0.05503334
202	0xbbbbdde1	-0.005733237
203	0xba89c011	-0.0010509511
204	0x3d50c15a	0.050965644
205	0xbbde6305	-0.0067867064
206	0xbb08d875	-0.0020880972
207	0x3d24ee59	0.04026637
208	0xbc0bb376	-0.008526674
209	0xbb50f229	-0.003188262
210	0x3d32be64	0.043638602
211	0xbc16224f	-0.009163453
212	0xbb60b1ae	-0.0034285593
213	0x3d2b50cf	0.041825112
214	0xbc319f60	-0.010841221
215	0xbb733500	-0.0037110448
216	0x3d4e294c	0.050332353
217	0xbc21d779	-0.009878033
218	0xbb891928	-0.004183907
219	0x3d209d7c	0.03921269
220	0xbc1822f9	-0.009285682
221	0xbb5dc751	-0.0033840726
222	0x3d293857	0.041313495
223	0xbc1635ab	-0.009168069
224	0xbb5afba9	-0.0033414161
225	0x3d3f0823	0.04663862
226	0xbbcad3b5	-0.006189788
227	0xbad5c6e5	-0.0016309886
228	0x3d14e06a	0.03634683
229	0xbbe5e61d	-0.007015957
230	0xbb16a166	-0.0022984385
231	0x3cc8931a	0.024484206
232	0xbbe71120	-0.007051602
233	0xbb022489	-0.0019858202
234	0x3cc50642	0.024050836
235	0xbba01a31	-0.0048859348
236	0xba67f973	-0.00088491215
237	0x3ce89636	0.028391939
238	0xbb8a17a2	-0.004214243
239	0xba1d46cd	-0.0005999625
240	0x3d0e744e	0.034778886
241	0xbbb3ec50	-0.005490817
242	0xba420390	-0.00074010435
243	0x3c28886d	0.010286433
244	0xbb3b796d	-0.002860631
245	0xb99580f6	-0.00028515578
246	0x3c964940	0.018345475
247	0xbb49ae74	-0.0030774148
248	0xba0f1981	-0.00054588175
249	0x3cbd02aa	0.02307256
250	0xbb1bb4af	-0.002375882
251	0xba24fcd9	-0.0006293781
252	0x3cc0c192	0.023529802
253	0xbb364335	-0.0027811055
254	0xb9ff3dd1	-0.00048683447
255	0x3cff920a	0.031197567
