test_dataset/gait_700/20250820_c1_a5_Take3/split_subjects/0/fit-smplx/smplx-params.npz (npz, 106970 bytes, 10 tensors)

betas f4 [214, 10]
-2.548443 -1.5782928 0.6569724 0.512004 -0.5715699 -0.08082444 0.15871881 0.27826673
0.54394644 -0.3026908 -2.3678753 -2.3640764 0.14832965 0.5911187 -0.6577218 0.044993516
0.01938036 0.08785752 0.41723776 -1.0828782 -2.4888752 -2.8347402 -0.29540077 0.38565403
-1.0606005 0.12049696 -0.06099853 0.44814098 0.4310717 -1.5322539 -2.7142613 -3.3348665
-0.59162587 0.2142541 -1.0642389 0.2813354 -0.112532355 0.5848128 0.37810868 -1.3554692
-2.7648382 -3.6252606 -0.74963427 0.028683614 -0.9494422 0.18717293 0.0037051956 0.015946094
0.36995503 -0.75407594 -2.792938 -3.5174365 -0.3186121 0.038881052 -0.48664513 0.198752
0.12206772 -0.058280308 0.45357165 0.047905296 -2.7536523 -3.1652138 0.18561205 -0.2868458
-0.07304922 0.10073574 0.29802462 0.12187639 0.27546787 -0.0047338125 -2.5526586 -2.1328425
-0.084701315 -0.6071543 -0.3785577 0.3164397 -0.064735085 0.4388298 0.22264107 -0.07315758
-2.515658 -1.5888505 -0.42111474 -0.70693344 -0.44252223 0.24963664 -0.10076085 0.45146388
0.3156183 -0.045804188 -2.371751 -1.0257818 -0.5132563 -0.73505443 -0.66667116 0.17399926
-0.09471288 0.6283852 0.36692715 -0.0349821 -2.2182655 -0.88090056 -0.22122964 -0.72894007
-0.814533 -0.054799188 -0.12297738 0.6798071 0.18253967 -0.007754721 -2.162184 -0.77739173
-0.11075585 -0.8070156 -0.8777026 -0.25218853 -0.25603917 0.9527259 0.013451412 -0.015364154
-2.0797718 -0.82070404 -0.013213664 -0.6688226 -0.9033638 -0.2975425 -0.25247675 1.009649
-0.039420053 -0.007268736 -2.0339174 -0.8952229 0.06574391 -0.5489774 -0.8753408 -0.33467197
-0.35180295 1.1553586 -0.14405866 -0.043377392 -2.0096118 -0.9910121 0.0070230556 -0.39127058
-0.9424939 -0.2884838 -0.46500963 1.1607711 -0.29052436 -0.05005436 -1.9996691 -0.99426097
0.0058312993 -0.40300083 -0.92390746 -0.32481804 -0.46490538 1.1502998 -0.28825378 -0.015170191
-1.9691892 -1.0025139 -0.03317473 -0.29328153 -1.0540162 -0.28447193 -0.34578413 1.118292
-0.32862964 0.035269108 -1.9690993 -0.95307654 -0.11644789 -0.29127985 -1.0191644 -0.26551878
-0.3896491 0.9850958 -0.36109897 0.047332536 -1.956444 -0.9122943 -0.19435936 -0.28466335
-1.0441912 -0.24029426 -0.42674056 0.95195985 -0.34355462 0.048895516 -1.9580169 -0.93442273
-0.15566102 -0.2647558 -0.96351236 -0.26753742 -0.42032966 0.9313473 -0.36404055 0.047541242
-1.9608834 -0.9321237 -0.155532 -0.25670707 -0.9512029 -0.26701516 -0.3544412 0.936924
-0.40483788 0.06451268 -1.9359714 -0.9147306 -0.2105768 -0.2085836 -0.9979007 -0.24561124
-0.38222608 0.8989255 -0.36199996 0.07455349 -1.8875631 -0.920702 -0.28377476 -0.16873425
-0.9658836 -0.21689527 -0.44363138 0.93445075 -0.36632264 0.059245277 -1.926315 -0.8672106
-0.25281954 -0.27452475 -0.9266213 -0.30390263 -0.3853945 0.90225196 -0.29676354 0.054868493
-1.901674 -0.8512137 -0.30095482 -0.23381178 -0.84890115 -0.30380517 -0.4049755 0.91396457
-0.2813651 0.044460885 -1.9044219 -0.86860555 -0.2952662 -0.19327554 -0.920423 -0.30783835
00000000: b119 23c0 8005 cabf 582f 283f b212 033f
00000010: 6852 12bf 4987 a5bd 2f87 223e fa78 8e3e
00000020: 1340 0b3f 4afa 9abe 458b 17c0 074d 17c0
00000030: bae3 173e 8e53 173f 7560 28bf 1f4b 383d
00000040: 90c3 9e3c a5ee b33d 30a0 d53e c19b 8abf
00000050: bb49 1fc0 626c 35c0 c53e 97be 7274 c53e
00000060: c2c1 87bf 1cc7 f63d 98d9 79bd bc72 e53e
00000070: 6eb5 dc3e e520 c4bf 75b6 2dc0 746e 55c0
00000080: cb74 17bf 6d65 5b3e fb38 88bf 320b 903e
00000090: 5d77 e6bd 4bb6 153f 7697 c13e 0480 adbf
000000a0: 1cf3 30c0 4504 68c0 08e8 3fbf e6f9 ea3c
000000b0: a50e 73bf 43aa 3f3e ded2 723b 62a1 823c
000000c0: bf6a bd3e 1f0b 41bf 7fbf 32c0 ae1d 61c0
000000d0: 2021 a3be bd41 1f3d 8d29 f9be a585 4b3e
000000e0: a4fe f93d 55b7 6ebd 8b3a e83e 5838 443d
000000f0: d73b 30c0 dd92 4ac0 1611 3e3e 74dd 92be
00000100: d49a 95bd 8a4e ce3d af96 983e 549a f93d
00000110: 200a 8d3e 191e 9bbb c25e 23c0 7e80 08c0
00000120: e277 adbd 776e 1bbf 51d2 c1be 6204 a23e
00000130: d493 84bd 4dae e03e 05fc 633e a4d3 95bd
00000140: 8a00 21c0 745f cbbf 5a9c d7be 97f9 34bf
00000150: 4692 e2be bfa0 7f3e b45b cebd 4626 e73e
00000160: b998 a13e 2c9d 3bbd c5ca 17c0 d14c 83bf
00000170: c464 03bf 872c 3cbf f6aa 2abf dd2c 323e
00000180: d4f8 c1bd dadd 203f e0dd bb3e 6449 0fbd
00000190: 10f8 0dc0 b382 61bf 068a 62be d19b 3abf
000001a0: 3c85 50bf 1d75 60bd 91db fbbd d707 2e3f
000001b0: aeeb 3a3e 511b febb 3961 0ac0 2503 47bf
000001c0: f7d3 e2bd 9398 4ebf 1eb1 60bf db1e 81be
000001d0: 9117 83be d8e5 733f 5063 5c3c efb9 7bbc
000001e0: fb1a 05c0 a919 52bf 207e 58bc f537 2bbf
000001f0: da42 67bf 7e57 98be a244 81be 2e3c 813f
00000200: ec76 21bd 942e eebb b42b 02c0 542d 65bf
00000210: bea4 863d c889 0cbf 5616 60bf 205a abbe
00000220: 841f b4be cae2 933f 1d84 13be 7eac 31bd
00000230: 7b9d 00c0 f8b2 7dbf a921 e63b 9e54 c8be
00000240: 4847 71bf 26b4 93be be15 eebe 2694 943f
00000250: 9cbf 94be cd05 4dbd 28f5 ffbf e387 7ebf
00000260: 7c14 bf3b 2056 cebe 3385 6cbf 8d4e a6be
00000270: 1408 eebe 063d 933f 0096 93be 658c 78bc
00000280: 640e fcbf 6052 80bf 3ae2 07bd ff28 96be
00000290: 01ea 86bf 4ea6 91be 9e0a b1be 3124 8f3f
000002a0: 2542 a8be 5776 103d 720b fcbf d3fc 73bf
000002b0: 3b7c eebd a222 95be fb73 82bf 14f2 87be
000002c0: 1680 c7be 3d2f 7c3f f7e1 b8be c3df 413d
000002d0: c26c fabf 1f8c 69bf 2406 47be 65bf 91be
000002e0: 0fa8 85bf b30f 76be bd7d dabe a4b3 733f
000002f0: 64e6 afbe aa46 483d 4ca0 fabf 5436 6fbf
00000300: 9a65 1fbe 128e 87be bfa8 76bf aafa 88be
00000310: 7335 d7be c76c 6e3f 8663 babe 9bba 423d
00000320: 3afe fabf a99f 6ebf c843 1fbe 1c6f 83be
00000330: 0982 73bf 36b6 88be 5179 b5be 40da 6f3f
00000340: e946 cfbe 391f 843d e9cd f7bf c92b 6abf
00000350: 72a1 57be f096 55be 6c76 7fbf 8381 7bbe
00000360: 23b3 c3be fb1f 663f 0f58 b9be 80af 983d
00000370: ab9b f1bf 20b3 6bbf ed4a 91be acc8 2cbe
00000380: 2644 77bf cb19 5ebe a723 e3be 2a38 6f3f
00000390: a48e bbbe 2dab 723d 7d91 f6bf 8401 5ebf
000003a0: 9071 81be 828e 8cbe 0e37 6dbf 2099 9bbe
000003b0: 6e52 c5be fcf9 663f 64f1 97be c9bd 603d
000003c0: 0e6a f3bf 24e9 59bf c016 9abe 5b6c 6fbe
000003d0: 9651 59bf 5a8c 9bbe f358 cfbe 95f9 693f
000003e0: 160f 90be 9e1c 363d 19c4 f3bf ef5c 5ebf
000003f0: 222d 97be 06ea 45be d7a0 6bbf fd9c 9dbe

global_orient f4 [214, 3]
-0.095361024 -2.6869555 -0.5552909 -0.114347264 -2.6738465 -0.5281214 -0.11042412 -2.6598215
-0.5000304 -0.109572016 -2.6788905 -0.41762328 -0.11619536 -2.638954 -0.32472932 -0.123406135
-2.6914186 -0.26202163 -0.11206461 -2.5637631 -0.15884851 -0.103770465 -2.4513469 -0.049521286
-0.10327937 -2.4676597 -0.031202577 -0.08485826 -2.455746 -0.048391003 -0.05624549 -2.4601724
-0.069524474 -0.046021905 -2.488853 -0.086748034 -0.034800757 -2.531816 -0.102223076 -0.029923016
-2.560018 -0.11802384 -0.0029173468 -2.5907536 -0.13970426 -0.006012219 -2.620681 -0.15219274
-0.0015081667 -2.6497395 -0.1752145 -0.005541279 -2.6664562 -0.18972772 -0.0059449286 -2.6733208
-0.20512237 -0.011144804 -2.6883645 -0.21943185 -0.019707136 -2.7220888 -0.22005616 -0.027073668
-2.7284207 -0.22821152 -0.024533017 -2.7565122 -0.22094908 -0.014918781 -2.7597675 -0.22093405
-0.03010592 -2.7638104 -0.20813228 -0.038977865 -2.7698126 -0.19960506 -0.052202776 -2.7621293
-0.18533191 -0.07193038 -2.7332623 -0.17283632 -0.08694049 -2.7071059 -0.16930929 -0.086618535
-2.6868196 -0.17862865 -0.083477385 -2.6805236 -0.1881154 -0.07549359 -2.6733015 -0.19853182
-0.058339555 -2.6490912 -0.20647855 -0.047117036 -2.6259212 -0.21192266 -0.053896192 -2.610332
-0.2155166 -0.046074834 -2.5978646 -0.21664399 -0.045282796 -2.5735323 -0.20809853 -0.03518059
-2.542521 -0.1881879 -0.039491534 -2.5104733 -0.17576133 -0.046875093 -2.456311 -0.17842829
-0.04833745 -2.4014666 -0.1839809 -0.0496281 -2.3612678 -0.1800799 -0.058000084 -2.3241475
-0.17859247 -0.031185906 -2.2836523 -0.17744778 -0.02404647 -2.2448802 -0.1725411 -0.013819797
-2.205242 -0.16303124 -0.010190705 -2.1698022 -0.14506797 -0.00996816 -2.130913 -0.13578665
-0.011747846 -2.082926 -0.12893362 -0.001681552 -2.0462162 -0.12478923 0.0027486696 -2.0105617
-0.113007404 0.019722685 -1.9688444 -0.10906499 0.033421163 -1.9229366 -0.10184741 0.04756446
-1.8757753 -0.09976656 0.056161165 -1.8450012 -0.10470206 0.060112514 -1.8237046 -0.10658846
0.062360756 -1.8066183 -0.10584073 0.06380614 -1.773788 -0.102885254 0.05960917 -1.7408085
-0.09778525 0.05597057 -1.7291019 -0.08981169 0.0565734 -1.7081918 -0.063585594 0.06797905
-1.6781625 -0.03433801 0.07799464 -1.6524354 -0.015101331 0.08929995 -1.6383106 0.002276238
0.09697596 -1.6100806 0.031044347 0.10712279 -1.5948867 0.055832524 0.11833223 -1.5763768
0.07757962 0.12443836 -1.5289625 0.102616236 0.12700692 -1.5088239 0.12065579 0.13099954
-1.5015879 0.13489711 0.12499185 -1.4933192 0.14594634 0.12797974 -1.4782133 0.16424572
0.1287873 -1.4620912 0.18540812 0.12399112 -1.4587684 0.19718386 0.12239969 -1.4528917
0.21667248 0.11522578 -1.4486327 0.23936985 0.10688787 -1.4424396 0.27018246 0.095954366
-1.4340484 0.28421003 0.08384764 -1.4315741 0.30109143 0.07198272 -1.430271 0.30773848
0.068916954 -1.4308614 0.310612 0.062729284 -1.4371817 0.3296271 0.056246836 -1.447757
0.3296786 0.058845658 -1.4551479 0.3230665 0.06831224 -1.4670736 0.3176926 0.07554554
00000000: a44c c3bd 14f7 2bc0 8b27 0ebf e62e eabd
00000010: 4d20 2bc0 f732 07bf 0b26 e2bd 843a 2ac0
00000020: fe01 00bf 4b67 e0bd f172 2bc0 b8d2 d5be
00000030: d5f7 edbd 9fe4 28c0 ec42 a6be 5bbc fcbd
00000040: 3440 2cc0 b327 86be 2182 e5bd b214 24c0
00000050: 2fa9 22be 9c85 d4bd dee2 1cc0 d5d6 4abd
00000060: 2284 d3bd 23ee 1dc0 8c9c ffbc 2bca adbd
00000070: f12a 1dc0 a535 46bd ac61 66bd 7773 1dc0
00000080: d962 8ebd 7781 3cbd 5e49 1fc0 f4a8 b1bd
00000090: 3d8b 0ebd 4609 22c0 555a d1bd 1d21 f5bc
000000a0: 56d7 23c0 7cb6 f1bd f530 3fbb e8ce 25c0
000000b0: a20e 0fbe 2602 c5bb 3db9 27c0 6ad8 1bbe
000000c0: adad c5ba 5595 29c0 6e6b 33be 9e93 b5bb
000000d0: 38a7 2ac0 fc47 42be adcd c2bb b017 2bc0
000000e0: 990b 52be b298 36bc 2a0e 2cc0 beb2 60be
000000f0: dc70 a1bc b436 2ec0 6756 61be 99c9 ddbc
00000100: 729e 2ec0 48b0 69be 77f9 c8bc b26a 30c0
00000110: 7a40 62be e76d 74bc 08a0 30c0 893c 62be
00000120: b1a0 f6bc 45e2 30c0 a120 55be 41a7 1fbd
00000130: 9c44 31c0 4565 4cbe 94d2 55bd bac6 30c0
00000140: a6c7 3dbe 3c50 93bd c5ed 2ec0 01fc 30be
00000150: db0d b2bd 3941 2dc0 6a5f 2dbe 0f65 b1bd
00000160: daf4 2bc0 6eea 36be 31f6 aabd b38d 2bc0
00000170: 53a1 40be 629c 9abd 5f17 2bc0 ed4b 4bbe
00000180: 75f5 6ebd b68a 29c0 1d6f 53be cbfd 40bd
00000190: 180f 28c0 4102 59be 41c2 5cbd ae0f 27c0
000001a0: 62b0 5cbe f7b8 3cbd 6a43 26c0 ecd7 5dbe
000001b0: 747a 39bd c1b4 24c0 c817 55be 8619 10bd
000001c0: aab8 22c0 54b4 40be e0c1 21bd 98ab 20c0
000001d0: c7fa 33be 1900 40bd 3334 1dc0 e8b5 36be
000001e0: 7dfd 45bd a1b1 19c0 7d65 3cbe d646 4bbd
000001f0: 031f 17c0 de66 38be 7f91 6dbd d5be 14c0
00000200: f2e0 36be 9679 ffbc 5c27 12c0 dfb4 35be
00000210: 1afd c4bc 1eac 0fc0 9dae 30be 6e6c 62bc
00000220: af22 0dc0 a9f1 26be eaf6 26bc 0ade 0ac0
00000230: b38c 14be 7e51 23bc e160 08c0 a80b 0bbe
00000240: 0a7a 40bc a94e 05c0 2d07 04be 8667 dcba
00000250: 35f5 02c0 7f91 ffbd 0623 343b 0bad 00c0
00000260: 6d70 e7bd 7891 a13c 1803 fcbf 775d dfbd
00000270: a1e4 083d c922 f6bf 6095 d0bd f4d2 423d
00000280: 6819 f0bf 6952 ccbd 4009 663d 0029 ecbf
00000290: 096e d6bd 8a38 763d 276f e9bf 0d4b dabd
000002a0: fe6d 7f3d 453f e7bf 06c3 d8bd cbac 823d
000002b0: 7c0b e3bf 81b5 d2bd bf28 743d d0d2 debf
000002c0: a243 c8bd 6541 653d 3653 ddbf 31ef b7bd
000002d0: 82b9 673d 07a6 dabf 2a39 82bd 9a38 8b3d
000002e0: 07ce d6bf 03a6 0cbd a7bb 9f3d 0183 d3bf
000002f0: 936b 77bc e4e2 b63d 29b4 d1bf f02c 153b
00000300: 559b c63d 1f17 cebf b750 fe3c 3163 db3d
00000310: 3f25 ccbf a5b0 643d 2b58 f23d b7c6 c9bf
00000320: 10e2 9e3d 8ad9 fe3d 0bb5 c3bf 7628 d23d
00000330: 1a0e 023e 2421 c1bf 621a f73d be24 063e
00000340: 0834 c0bf 7822 0a3e bafb ff3d 1525 bfbf
00000350: f572 153e 1f0d 033e 1836 bdbf 0830 283e
00000360: d1e0 033e ce25 bbbf a0db 3d3e 0eef fd3d
00000370: ecb8 babf 91ea 493e b0ac fa3d 5bf8 b9bf
00000380: 64df 5d3e 7efb eb3d cc6c b9bf 5f1d 753e
00000390: 07e8 da3d dca1 b8bf 5b55 8a3e b983 c43d
000003a0: e68e b7bf fa83 913e 50b8 ab3d d23d b7bf
000003b0: a828 9a3e ad6b 933d 1f13 b7bf e68f 9d3e
000003c0: 5524 8d3d 7726 b7bf 8908 9f3e 3678 803d
000003d0: 92f5 b7bf e2c4 a83e 1563 663d 1a50 b9bf
000003e0: a2cb a83e 2508 713d 4942 babf f968 a53e
000003f0: 4ae7 8b3d 11c9 bbbf 9ba8 a23e 9fb7 9a3d

body_pose f4 [214, 63]
0.20360914 0.030675275 -0.19700791 -0.04243384 -0.024827026 0.016632872 0.28108287 -0.020197665
0.007951292 0.1773643 -0.13470615 0.18977985 0.36471385 0.029448707 -0.065884046 0.16505279
-0.015694702 -0.036542192 0.0047814418 0.04676911 0.04141229 0.28243628 -0.02099649 0.0064449683
0.285579 -0.01687182 0.056760658 1.5445492e-05 -1.4833422e-05 -1.4851426e-05 -1.1053377e-05 1.6453238e-05
-1.4003722e-05 0.045862302 0.05283055 -0.014285553 0.019598378 -0.3556096 -0.13016012 0.05271143
0.34010658 0.19560327 -0.047427274 0.023299986 -0.023749677 -0.015675958 -0.307194 -0.74942094
-0.028915279 0.32766545 0.75559825 -0.032987237 -0.51308423 -0.18250304 -0.09804159 0.30318823
0.17514034 -0.051604748 0.2868615 0.23199318 0.011293328 -0.32191128 -0.22589488 0.17256054
0.026918061 -0.17621236 -0.08323362 0.0073113446 -0.001008076 0.49418563 -0.03757619 -0.01866092
0.12494441 -0.06650515 0.17947845 0.28418392 0.10046894 -0.047228448 0.029233456 0.014472212
-0.06509141 -0.17735454 0.032725673 0.027940774 0.224251 -0.026899919 -0.04059137 0.29312053
-0.03373702 0.06645581 -1.5956173e-05 -1.4399802e-05 1.608382e-05 -1.6788095e-05 1.4561211e-05 -1.5345118e-05
-0.10046243 0.053178087 0.027877158 -0.03820272 -0.17537223 -0.24816158 -0.047506012 0.1725982
0.4840079 -0.053367987 0.05538219 -0.06857615 0.008513792 -0.35388395 -0.6616121 0.010635457
0.26544636 0.60110027 -0.02277747 -0.57251334 -0.17151421 -0.06353883 0.3916864 0.15980442
-0.01429386 0.2061664 0.21919711 0.09073816 -0.2045823 -0.2617747 0.13894644 0.03366915
-0.1414851 -0.13884117 0.10396355 -0.009659258 0.42456326 -0.028130477 -0.0061784266 0.17702451
-0.021001013 0.120720625 0.24874285 0.02492152 -0.0223364 0.06376942 0.0040283245 -0.04198456
-0.27546856 0.023133257 0.06911133 0.18600741 -0.066440165 -0.04326418 0.24752812 -0.017273922
0.060683098 1.4532349e-05 -1.4225544e-05 1.5800844e-05 1.470073e-05 -1.6124173e-05 -1.5446489e-05 -0.0012035781
0.03230266 -0.002007071 -0.02694009 -0.25133616 -0.2584341 -0.03835223 0.24974611 0.34031567
-0.087954715 0.020809365 -0.103995614 0.04019523 -0.3140381 -0.66930485 -0.016479319 0.31227094
0.6749315 -0.01774907 -0.577384 -0.14555988 -0.14143716 0.37599945 0.20169564 -0.015212538
0.16878328 0.18727446 -0.043867547 -0.5907626 -0.3818279 0.01991902 0.091324456 -0.10098661
-0.22940509 -0.0028541987 -0.02398021 0.46832508 -0.009231637 -0.038448893 0.24550529 -0.014666982
0.07249734 0.23471831 0.07096727 -0.02311206 0.034705218 -0.013928791 -0.022291819 -0.32537326
-0.041613545 0.03451905 0.17847079 -0.009533827 -0.046641026 0.09947926 -0.034034714 0.05890212
-1.5960299e-05 -1.43622565e-05 1.5983283e-05 1.4532245e-05 1.4156695e-05 -1.5410642e-05 -0.07846587 0.078940906
-0.022408897 -0.0073971725 -0.17790394 -0.2666857 -0.049019806 0.17906529 0.37039423 0.06081536
0.020024385 0.027874807 0.08326505 -0.22546431 -0.6925328 -0.037288934 0.20644581 0.74260193
0.024560768 -0.6355399 -0.11923154 -0.044173185 0.2671794 0.112057924 0.02517668 0.091085054
0.11346552 -0.006194173 -0.3843954 -0.24463294 -0.004816059 0.10331475 -0.1024725 -0.27201962
00000000: ea7e 503e b74a fb3c 71bc 49be 1bcf 2dbd
00000010: 0c62 cbbc a941 883c 18ea 8f3e 9375 a5bc
00000020: 2346 023c fd9e 353e 69f0 09be a655 423e
00000030: c6bb ba3e 6a3e f13c 37ee 86bd 9903 293e
00000040: 2d92 80bc 44ad 15bd a4ad 9c3b f790 3f3d
00000050: ef9f 293d 7d9b 903e d500 acbc 5030 d33b
00000060: 6937 923e c536 8abc dd7d 683d f190 8137
00000070: 10dd 78b7 642a 79b7 e571 39b7 0f05 8a37
00000080: 87f1 6ab7 1cda 3b3d d964 583d f40d 6abc
00000090: c78c a03c 7612 b6be b248 05be f1e7 573d
000000a0: 7322 ae3e 394c 483e 1a43 42bd 9ddf be3c
000000b0: af8e c2bc de6a 80bc 8848 9dbe 0dda 3fbf
000000c0: bcdf ecbc c4c3 a73e e36e 413f a01d 07bd
000000d0: 7d59 03bf 14e2 3abe 07ca c8bd 7d3b 9b3e
000000e0: fd57 333e 805f 53bd 83df 923e 9f8f 6d3e
000000f0: a707 393c 8ed1 a4be fd50 67be b6b3 303e
00000100: 4483 dc3c 0371 34be 6376 aabd 0194 ef3b
00000110: 6b21 84ba e605 fd3e 7ee9 19bd c9de 98bc
00000120: dbe2 ff3d da33 88bd 33c9 373e 8e80 913e
00000130: a9c2 cd3d 9e72 41bd 007b ef3c db1c 6d3c
00000140: a54e 85bd 6e9c 35be 5b0b 063d 0de4 e43c
00000150: 0ea2 653e 385d dcbc 2343 26bd e513 963e
00000160: d42f 0abd fc19 883d 9fd9 85b7 ae96 71b7
00000170: beeb 8637 29d4 8cb7 ed4b 7437 64b9 80b7
00000180: 3fbf cdbd 44d1 593d a35e e43c 757a 1cbd
00000190: c794 33be 121e 7ebe aa95 42bd 95bd 303e
000001a0: e2cf f73e 6498 5abd 6fd8 623d a771 8cbd
000001b0: 6f7d 0b3c 4730 b5be 695f 29bf 5740 2e3c
000001c0: 96e8 873e b5e1 193f d197 babc 3c90 12bf
000001d0: 6ca1 2fbe a520 82bd 1f8b c83e c5a3 233e
000001e0: cb30 6abc 491d 533e 3575 603e eed4 b93d
000001f0: 067e 51be 5507 86be fa47 0e3e aae8 093d
00000200: 78e1 10be 612c 0ebe d7ea d43d dd41 1ebc
00000210: 5b60 d93e e371 e6bc 6674 cabb ea45 353e
00000220: 510a acbc 603c f73d 72b6 7e3e 3728 cc3c
00000230: d3fa b6bc 8b99 823d 0900 843b 01f8 2bbd
00000240: 370a 8dbe f581 bd3c 3e8a 8d3d ba78 3e3e
00000250: c811 88bd c835 31bd 0378 7d3e 0a82 8dbc
00000260: d78e 783d f7cf 7337 3faa 6eb7 0e8c 8437
00000270: 28a3 7637 6642 87b7 1593 81b7 61c1 9dba
00000280: cb4f 043d 1089 03bb 77b1 dcbc 22af 80be
00000290: 7951 84be 3a17 1dbd 72bd 7f3e db3d ae3e
000002a0: 9a21 b4bd 6778 aa3c a7fb d4bd c1a3 243d
000002b0: 9ac9 a0be 9057 2bbf a3ff 86bc fae1 9f3e
000002c0: 50c8 2c3f 7f66 91bc 70cf 13bf a60d 15be
000002d0: e7d4 10be 0083 c03e 4d89 4e3e 023e 79bc
000002e0: 86d5 2c3e e0c4 3f3e 75ae 33bd 383c 17bf
000002f0: f27e c3be 362d a33c 5108 bb3d 11d2 cebd
00000300: 2be9 6abe 820d 3bbb 2572 c4bc 4ec8 ef3e
00000310: 4b40 17bc 967c 1dbd bd65 7b3e c84d 70bc
00000320: 7c79 943d ff59 703e 4a57 913d 8155 bdbc
00000330: 0f27 0e3d 9535 64bc 559d b6bc 5397 a6be
00000340: f772 2abd d963 0d3d 0cc1 363e c533 1cbc
00000350: a90a 3fbd c8bb cb3d fc67 0bbd 5943 713d
00000360: 7be2 85b7 6cf5 70b7 d713 8637 84cf 7337
00000370: 8b82 6d37 1a46 81b7 b7b2 a0bd c5ab a13d
00000380: dd92 b7bc fb63 f2bb 732c 36be 078b 88be
00000390: fec8 48bd e45c 373e 50a4 bd3e 8719 793d
000003a0: 2e0a a43c b559 e43c de86 aa3d 1ee0 66be
000003b0: d449 31bf 48bc 18bd 8866 533e 291b 3e3f
000003c0: aa33 c93c beb2 22bf aa2f f4bd f1ee 34bd
000003d0: bdcb 883e a07e e53d 533f ce3c cd8a ba3d
000003e0: 9c60 e83d 7df8 cabb 79cf c4be 0f81 7abe
000003f0: 08d0 9dbb af96 d33d 1add d1bd 2846 8bbe

transl f4 [214, 3]
0.64217556 1.496697 1.6922762 0.63733107 1.511702 1.6721078 0.6226077 1.4985646
1.6494433 0.61579263 1.4840553 1.6202214 0.6034255 1.4750372 1.5871869 0.5780001
1.4707593 1.5445106 0.56841 1.4677689 1.5162435 0.5631746 1.4725053 1.4851943
0.5557318 1.4746126 1.4467989 0.5515879 1.4781173 1.415019 0.54418904 1.4814597
1.3865842 0.53210694 1.4882836 1.3594303 0.5196669 1.4944216 1.334319 0.5060296
1.4986928 1.3107095 0.49089217 1.5018842 1.2868425 0.4769654 1.503393 1.2619358
0.46274284 1.5041838 1.2357289 0.44859773 1.5048466 1.2098593 0.43280607 1.5016685
1.1825994 0.41578794 1.4955424 1.1543777 0.4003226 1.488781 1.1244224 0.382702
1.4843696 1.0919319 0.3648424 1.4792192 1.05678 0.3441275 1.4768279 1.021137
0.32511073 1.4790022 0.9867644 0.30650565 1.4826219 0.9522931 0.28901702 1.4865282
0.9197746 0.27421722 1.4903533 0.890151 0.2615636 1.4954305 0.86228114 0.25024247
1.4999012 0.8345006 0.24135628 1.5030075 0.8060424 0.23219147 1.5046142 0.77780473
0.22365893 1.5034895 0.74953836 0.21567106 1.50068 0.72119296 0.20766641 1.4968332
0.6919458 0.2005555 1.4938455 0.6614562 0.19234614 1.4898114 0.63001454 0.1837338
1.4846518 0.59747416 0.17573616 1.4796984 0.5629618 0.16906357 1.4752414 0.52587765
0.16365272 1.4687886 0.48607174 0.15740213 1.4634237 0.44410688 0.15215719 1.4627017
0.40476644 0.14848088 1.4664931 0.3710329 0.1443247 1.4728194 0.34132364 0.14059672
1.4806309 0.31625858 0.13617308 1.488303 0.29637948 0.13330807 1.4952145 0.28086832
0.13040498 1.5005871 0.26733917 0.1273129 1.503177 0.2544844 0.1244376 1.5054139
0.24186465 0.12201482 1.5067519 0.23045258 0.11961684 1.5066794 0.22145392 0.117033996
1.5049742 0.21246506 0.11446255 1.5020157 0.20388079 0.11039866 1.4987656 0.19520018
0.10470139 1.4957082 0.18740106 0.09986287 1.4928305 0.18215339 0.0983361 1.492473
0.1788191 0.09886451 1.4922913 0.17471245 0.100300714 1.4913591 0.17168519 0.10265761
1.4902537 0.1669294 0.105403684 1.4871072 0.16159388 0.10887212 1.4832777 0.15431589
0.11314131 1.4763821 0.14756402 0.11726909 1.4666892 0.1399888 0.12082891 1.455508
0.13299273 0.12437288 1.4428678 0.12580666 0.12700321 1.4272795 0.11810568 0.12871426
1.409136 0.11083929 0.12976171 1.3894321 0.10389169 0.1310785 1.3706243 0.097938396
0.13159731 1.3514812 0.092840455 0.13313074 1.333496 0.088720314 0.13426177 1.3160268
0.08478692 0.13621773 1.3001485 0.0813446 0.13748556 1.2862808 0.07859096 0.13972583
1.2728187 0.07665205 0.13972999 1.2625941 0.074671894 0.1428919 1.2546023 0.07349429
0.14405085 1.2488708 0.07332532 0.14709115 1.2476666 0.07341068 0.14922628 1.2497215
0.07377917 0.15191597 1.2542521 0.07455869 0.15366337 1.2633164 0.07511265 0.15485716
00000000: 9e65 243f c493 bf3f 829c d83f 2128 233f
00000010: 737f c13f a107 d63f 3863 1f3f f7d0 bf3f
00000020: f520 d33f 96a4 1d3f 86f5 bd3f 6a63 cf3f
00000030: 187a 1a3f 05ce bc3f f128 cb3f d1f7 133f
00000040: d741 bc3f 86b2 c53f 5183 113f dadf bb3f
00000050: 4414 c23f 362c 103f 0e7b bc3f d91a be3f
00000060: 7044 0e3f 1bc0 bc3f b530 b93f dd34 0d3f
00000070: f332 bd3f 581f b53f f94f 0b3f 79a0 bd3f
00000080: 977b b13f 2938 083f 1480 be3f d001 ae3f
00000090: e408 053f 3549 bf3f f7ca aa3f 288b 013f
000000a0: 2ad5 bf3f 54c5 a73f 3856 fb3e be3d c03f
000000b0: 41b7 a43f cf34 f43e 2f6f c03f 1d87 a13f
000000c0: a1ec ec3e 1889 c03f 5d2c 9e3f 9aae e53e
000000d0: d09e c03f abdc 9a3f c298 dd3e ac36 c03f
000000e0: 6b5f 973f 28e2 d43e ef6d bf3f a6c2 933f
000000f0: 15f7 cc3e 6090 be3f 13ed 8f3f 84f1 c33e
00000100: d3ff bd3f 6dc4 8b3f a0cc ba3e 0e57 bd3f
00000110: 9144 873f 7b31 b03e b208 bd3f 9eb4 823f
00000120: ea74 a63e f24f bd3f 979c 7c3f 4fee 9c3e
00000130: 8ec6 bd3f 7bc9 733f 0afa 933e 8e46 be3f
00000140: 5976 6b3f 3366 8c3e e6c3 be3f f0e0 633f
00000150: aaeb 853e 446a bf3f 75be 5c3f c81f 803e
00000160: c3fc bf3f d5a1 553f 1a26 773e 8d62 c03f
00000170: cb58 4e3f 9ac3 6d3e 3397 c03f 361e 473f
00000180: d906 653e 5872 c03f bfe1 3f3f e0d8 5c3e
00000190: 4816 c03f 1aa0 383f 81a6 543e 3b98 bf3f
000001a0: 5c23 313f 6c5e 4d3e 5436 bf3f 3255 293f
000001b0: 63f6 443e 24b2 be3f a248 213f b724 3c3e
000001c0: 1209 be3f 11f4 183f 2ef4 333e c266 bd3f
000001d0: 441e 103f 001f 2d3e b6d4 bc3f eb9f 063f
000001e0: 9494 273e 4401 bc3f 65de f83e 062e 213e
000001f0: 7851 bb3f fa61 e33e 18cf 1b3e cf39 bb3f
00000200: 8c3d cf3e 5f0b 183e 0cb6 bb3f 06f8 bd3e
00000210: dbc9 133e 5985 bc3f f9c1 ae3e 96f8 0f3e
00000220: 5085 bd3f a5ec a13e f570 0b3e b680 be3f
00000230: 0dbf 973e e981 083e 3063 bf3f f9cd 8f3e
00000240: e288 053e 3d13 c03f aee0 883e 505e 023e
00000250: 1b68 c03f c74b 823e 24d9 fe3d 67b1 c03f
00000260: 5eab 773e e8e2 f93d 3fdd c03f c3fb 6b3e
00000270: acf9 f43d dfda c03f d1c4 623e 85af ef3d
00000280: ffa2 c03f 7190 593e 576b ea3d 0d42 c03f
00000290: 20c6 503e b118 e23d 8dd7 bf3f 8ee2 473e
000002a0: af6d d63d 5e73 bf3f 10e6 3f3e e884 cc3d
000002b0: 1215 bf3f 6b86 3a3e 7064 c93d 5b09 bf3f
000002c0: 5b1c 373e 7a79 ca3d 6703 bf3f d2e7 323e
000002d0: 766a cd3d dbe4 be3f 3ece 2f3e 273e d23d
000002e0: a2c0 be3f 8aef 2a3e e3dd d73d 8759 be3f
000002f0: de78 253e 59f8 de3d 0bdc bd3f fc04 1e3e
00000300: a2b6 e73d 17fa bc3f 061b 173e c72a f03d
00000310: 79bc bb3f 3959 0f3e 2675 f73d 164e ba3f
00000320: 3f2f 083e 35b7 fe3d e4af b83f 76d3 003e
00000330: 210d 023e 18b1 b63f 64e1 f13d accd 033e
00000340: 925e b43f b6ff e23d 41e0 043e e9d8 b13f
00000350: 2bc5 d43d 7139 063e 9e70 af3f ed93 c83d
00000360: 72c1 063e 56fd ac3f 2323 be3d 6d53 083e
00000370: ffaf aa3f ffb2 b53d eb7b 093e 9173 a83f
00000380: c4a4 ad3d a97c 0b3e 446b a63f ff97 a63d
00000390: 04c9 0c3e d9a4 a43f 4cf4 a03d 4a14 0f3e
000003a0: b9eb a23f c0fb 9c3d 6115 0f3e af9c a13f
000003b0: 94ed 983d 4152 123e cf96 a03f 2d84 963d
000003c0: 1182 133e 00db 9f3f 962b 963d 109f 163e
000003d0: 8ab3 9f3f 5758 963d c6ce 183e e0f6 9f3f
000003e0: 8919 973d dc8f 1b3e 558b a03f 3ab2 983d
000003f0: ee59 1d3e 5ab4 a13f a9d4 993d e092 1e3e

left_hand_pose f4 [214, 12]
-0.07988181 0.34512588 -0.16206335 -1.1279489 0.7921013 0.78682005 0.5316167 -0.27686062
-0.8420109 -0.92128336 -0.34840482 -0.78628796 -0.04923976 0.636376 -0.041957617 -0.8185951
0.5002093 0.30224657 0.36618036 0.10371989 -0.9856128 -0.77217495 -0.3744091 -1.007074
-0.03222186 0.5744663 -0.08739683 -0.818048 0.6947887 0.042590078 0.3016249 0.22434719
-0.8891612 -0.7901179 -0.39565077 -0.9541125 -0.062798865 0.58160603 -0.18905698 -0.74691385
0.5328323 -0.08340215 0.25008738 0.31643403 -0.6352725 -0.7144062 -0.3645906 -0.8928962
-0.16772398 0.6967534 -0.18220486 -0.7642079 0.540773 -0.10232872 0.4076193 0.18553427
-0.60121113 -0.8092763 -0.20534272 -1.0687138 -0.19631098 0.7890792 -0.116351545 -0.6888132
0.43881497 -0.16000639 0.40572876 0.22556373 -0.8507092 -0.8321791 -0.15093626 -1.1942623
-0.20737572 0.72968173 -0.12303656 -0.8191622 0.5063976 -0.049196646 0.32740444 0.16001065
-0.6198917 -0.7251997 -0.032807417 -1.0693489 -0.21378866 0.60949814 -0.14378487 -0.80355114
0.44336793 -0.009882491 0.37874395 0.07040655 -1.034598 -0.8367439 0.0018964511 -1.1812373
-0.27074146 0.65555865 -0.1696786 -0.9021945 0.6995531 0.09631401 0.16300824 -0.05291304
-1.2563274 -1.08194 -0.24546252 -1.5208125 -0.3040098 0.7632713 -0.18525438 -1.0356513
0.76964295 0.23121217 0.082906656 -0.016929647 -1.341909 -1.0554038 -0.25934228 -1.53254
-0.33890945 0.741321 -0.09663528 -1.1353179 0.7684773 0.24777055 0.1339654 -0.20724124
-1.5111386 -1.2206877 -0.21877544 -1.7794429 -0.35490483 0.66430146 -0.12524506 -1.3109716
0.7470229 0.32252955 0.43286833 -0.04822034 -1.3752148 -1.2023401 -0.088416316 -1.6899902
-0.29616427 0.6280144 0.017063571 -1.1422132 0.7061295 0.027718848 0.45842126 -0.111715645
-1.1987199 -1.0167629 0.35794067 -1.3728566 -0.30544624 0.5028095 -0.0010879474 -1.3268182
1.1482756 0.24734186 0.1965519 -0.12745592 -0.6370006 -0.9037131 0.22117116 -1.1905577
-0.38731062 0.6342341 -0.019951189 -1.13532 0.9906266 0.07239463 0.071832396 -0.04676062
-0.75238544 -0.9330004 0.11586737 -1.6185324 -0.29064754 0.5092173 0.017851762 -1.1068412
0.8152822 0.073982395 0.24079524 -0.05247538 -0.9730818 -0.9363284 0.14984095 -1.2958248
-0.282793 0.5099691 0.09541036 -0.96817815 0.7621447 -0.07324381 0.2576542 -0.1468398
-0.7814744 -0.9682491 0.35319272 -1.4870781 -0.25211307 0.4960663 0.030819012 -0.827702
0.58691096 -0.06174491 0.13049775 0.0021142073 -1.1640601 -0.8920382 0.4398228 -1.4839281
-0.22021784 0.38175762 0.05728127 -0.83206946 0.65844864 -0.08099894 0.30594277 -0.17031738
-0.89316463 -0.9680025 0.66711384 -1.5886921 -0.22859792 0.4431246 0.021189017 -0.8764643
0.36157694 0.31316647 0.52556795 -0.34470364 -1.0090207 -0.9405369 0.3038556 -1.5858347
-0.328064 0.5191291 -0.20591025 -1.0744007 0.28331068 0.8112179 0.43713844 -0.47923478
-0.9989477 -0.9874262 -0.107131615 -1.5077443 -0.30824536 0.5564413 -0.28544146 -0.90625376
00000000: 1399 a3bd 57b4 b03e eff3 25be a160 90bf
00000010: 27c7 4a3f 0a6d 493f 0818 083f adc0 8dbe
00000020: 078e 57bf 3ad9 6bbf 1e62 b2be 2b4a 49bf
00000030: a1af 49bd 8ae9 223f c0db 2bbd 738f 51bf
00000040: b70d 003f 10c0 9a3e fe7b bb3e 186b d43d
00000050: 1f51 7cbf 42ad 45bf 8db2 bfbe cde7 80bf
00000060: 12fb 03bd 3910 133f 1cfd b2bd 986b 51bf
00000070: acdd 313f ef72 2e3d 946e 9a3e 45bb 653e
00000080: 12a0 63bf 2b45 4abf bd92 cabe b840 74bf
00000090: b19c 80bd 22e4 143f 2798 41be bf35 3fbf
000000a0: b367 083f bfce aabd 740b 803e a403 a23e
000000b0: 38a1 22bf 53e3 36bf 9eab babe d894 64bf
000000c0: d6bf 2bbe 6e5e 323f e993 3abe 21a3 43bf
000000d0: 1970 0a3f b891 d1bd 7ab3 d03e b2fc 3d3e
000000e0: f9e8 19bf bb2c 4fbf 5d45 52be 9dcb 88bf
000000f0: bf05 49be 1801 4a3f b849 eebd 1056 30bf
00000100: 5bac e03e b7d8 23be aebb cf3e 2efa 663e
00000110: 14c8 59bf b109 55bf 098f 1abe 96dd 98bf
00000120: 4d5a 54be 6ccc 3a3f 98fa fbbd 9db4 51bf
00000130: 46a3 013f 6c82 49bd 8ea1 a73e d5d9 233e
00000140: 39b1 1ebf b0a6 39bf 1261 06bd 6de0 88bf
00000150: 6aeb 5abe 1208 1c3f 573c 13be 87b5 4dbf
00000160: 1f01 e33e 2cea 21bc baea c13e 4f31 903d
00000170: b56d 84bf d934 56bf 5792 f83a c932 97bf
00000180: a09e 8abe b1d2 273f 3ac0 2dbe 38f6 66bf
00000190: e915 333f 4840 c53d a2eb 263e 58bb 58bd
000001a0: 56cf a0bf 037d 8abf 875a 7bbe fca9 c2bf
000001b0: 2ca7 9bbe bf65 433f 53b3 3dbe 3990 84bf
000001c0: 5207 453f e2c2 6c3e f7ca a93d 0bb0 8abc
000001d0: adc3 abbf 7917 87bf 83c8 84be 452a c4bf
000001e0: 8a85 adbe 37c7 3d3f b8e8 c5bd 1952 91bf
000001f0: eeba 443f 90b7 7d3e 3a2e 093e 0c37 54be
00000200: fd6c c1bf 7f3f 9cbf ab06 60be c9c4 e3bf
00000210: 16b6 b5be a90f 2a3f 3e40 00be ebcd a7bf
00000220: e53c 3f3f 9822 a53e eba0 dd3e b182 45bd
00000230: 0a07 b0bf 48e6 99bf 9d13 b5bd 9951 d8bf
00000240: d8a2 97be 8dc5 203f e7c8 8b3c 0b34 92bf
00000250: e7c4 343f a312 e33c 31b6 ea3e 2ccb e4bd
00000260: a76f 99bf 4925 82bf 0044 b73e c4b9 afbf
00000270: 7363 9cbe 20b8 003f 7599 8eba 2ed5 a9bf
00000280: b2fa 923f 2f47 7d3e e744 493e ce83 02be
00000290: 7912 23bf be59 67bf b17a 623e 3264 98bf
000002a0: 944d c6be 2a5d 223f ad70 a3bc 2a52 91bf
000002b0: b499 7d3f a343 943d dd1c 933d 1088 3fbd
000002c0: 559c 40bf 1dd9 6ebf df4b ed3d 122c cfbf
000002d0: c1cf 94be 115c 023f dc3d 923c f9ac 8dbf
000002e0: 56b6 503f 1584 973d 0793 763e 6df0 56bd
000002f0: e41b 79bf 38b3 6fbf e86f 193e 96dd a5bf
00000300: 3eca 90be 568d 023f 8266 c33d 86da 77bf
00000310: ea1b 433f da00 96bd 40eb 833e 2c5d 16be
00000320: b50e 48bf 2cdf 77bf add5 b43e 9358 bebf
00000330: f714 81be 67fc fd3e 2778 fc3c 47e4 53bf
00000340: cc3f 163f 3be8 7cbd 34a1 053e 838e 0a3b
00000350: ecff 94bf 9e5c 64bf 7430 e13e 5bf1 bdbf
00000360: c980 61be bc75 c33e c49f 6a3d 8102 55bf
00000370: 1790 283f c6e2 a5bd 88a4 9c3e ae67 2ebe
00000380: 70a6 64bf 03cf 77bf f9c7 2a3f 435a cbbf
00000390: 9315 6abe 3ae1 e23e 9794 ad3c f75f 60bf
000003a0: 9d20 b93e 5b57 a03e 9f8b 063f ff7c b0be
000003b0: 9727 81bf 07c7 70bf f692 9b3e a2fc cabf
000003c0: 01f8 a7be a5e5 043f 23da 52be f685 89bf
000003d0: 190e 913e faab 4f3f 9cd0 df3e 435e f5be
000003e0: 09bb 7fbf f7c7 7cbf d267 dbbd c4fd c0bf
000003f0: 56d2 9dbe f072 0e3f 6225 92be 3f00 68bf

right_hand_pose f4 [214, 12]
-0.038076267 0.27151352 -0.16689628 -1.2786967 0.43689474 1.2965883 1.1607106 -0.4581763
-1.4760573 -1.185946 -0.6235091 -0.43986493 -0.0886054 0.43696216 -0.21155566 -1.4491825
0.8075737 0.8302412 0.514298 -0.10437612 -1.0583916 -0.9644451 -0.38244703 -1.1532058
-0.91890895 -0.92593056 -1.2267754 -1.4929785 0.3936668 0.89666843 -0.5301108 -0.7733276
-0.11750379 -1.8567551 0.9444806 -0.88525003 -0.41325298 0.03598738 -0.44069165 -2.0711105
1.5719904 -0.187379 -0.022547882 -0.25533116 -0.6092599 -1.0857575 0.44158408 -0.030635003
0.03237008 0.73926026 0.20485091 -0.99033135 -0.84646964 -0.9708701 1.2228522 1.2376419
-1.6280868 -0.35183528 0.46940818 0.5255294 0.27682894 -0.4304442 0.21558835 -1.7819902
2.1025937 -1.1264307 -0.9758175 1.4243122 -3.7239265 -1.2276691 0.098635614 -0.021543572
0.17607906 -0.25339302 0.3542751 -1.4539622 1.0825257 -0.1602263 0.11828072 0.59302264
-1.8062059 -0.8473582 -0.3165529 -0.53744686 -0.06310182 0.08214844 0.17822558 -1.3384175
0.7464609 -0.093044214 0.38479838 0.25031054 -1.1854085 -1.0235044 -0.34270778 -1.6272342
-0.12665547 0.2328632 0.1865842 -1.1222847 0.52338296 -0.09222438 0.50568956 0.16005418
-1.169986 -0.97031856 -0.10691611 -1.5699073 -0.12344131 0.3080791 0.15476403 -0.78550905
0.09753339 -0.20178205 0.5965498 0.36452475 -1.1252037 -0.57710224 0.33473176 -1.1608893
-0.1873756 0.29012582 0.15421304 -0.8735706 0.5559615 -0.24289078 0.52055246 0.085316665
-0.7548165 -0.87642115 0.28180677 -1.5221509 -0.2424367 0.34176207 0.1049597 -0.99757296
0.68694454 -0.13305682 0.46553278 -0.055225927 -0.87122893 -0.9863789 0.20374784 -1.6425208
-0.1903046 0.19041684 0.17013144 -0.9343368 0.67480963 -0.32436785 0.5988389 0.027930414
-0.4973114 -0.8712561 0.38822174 -1.3120258 -0.21226013 0.14737283 0.15577133 -0.8354413
0.6510012 -0.20463607 0.5484646 -0.048478175 -0.67685956 -0.9193299 0.36089763 -1.3610587
-0.21449633 0.17880102 0.120356776 -0.80959976 0.6235824 -0.32745695 0.5824297 0.0062121064
-0.746304 -0.88886756 0.47062832 -1.4012756 -0.20958962 0.27408326 0.031862795 -0.81710905
0.3986664 -0.37520975 0.86546594 0.19410194 -0.8855493 -0.81161094 0.3404428 -1.0819219
-0.1849421 0.32541177 0.19009012 -0.5650218 0.38645408 -0.43877995 0.5984055 0.08689569
-1.0889555 -0.85882896 0.41978702 -1.3336301 -0.18941149 0.31934303 0.20493387 -0.49457002
0.45435095 -0.42668793 0.5721017 0.025887579 -1.026898 -0.86386263 0.4881336 -1.1872811
-0.25376445 0.41730592 0.054290246 -0.59653604 0.37983176 -0.17277883 0.6814256 -0.018387066
-1.2234627 -0.8842128 0.41612673 -1.2685322 -0.25334752 0.4403125 0.038608726 -0.50317657
0.3491384 -0.12286685 0.594103 -0.0084952405 -1.2668344 -0.8253468 0.54318255 -1.1991265
-0.2243903 0.45011428 0.055645023 -0.43285602 0.27853018 -0.1337065 0.5769775 0.0030120797
-1.2307189 -0.7372785 0.68973744 -1.0098565 -0.24839953 0.46379626 0.016805388 -0.48233622
00000000: dcf5 1bbd d203 8b3e dce6 2abe 55ac a3bf
00000010: abb0 df3e 9bf6 a53f 2a92 943f 1696 eabe
00000020: 72ef bcbf 14cd 97bf 4b9e 1fbf fa35 e1be
00000030: bf76 b5bd 81b9 df3e 0ca2 58be d07e b9bf
00000040: 26bd 4e3f b08a 543f 09a9 033f 26c3 d5bd
00000050: 6079 87bf e0e5 76bf 19d0 c3be 3f9c 93bf
00000060: 9e3d 6bbf c909 6dbf fa06 9dbf eb19 bfbf
00000070: b28e c93e 108c 653f 57b5 07bf ccf8 45bf
00000080: d4a5 f0bd 27aa edbf 7bc9 713f bf9f 62bf
00000090: e595 d3be 8167 133d 56a2 e1be 138d 04c0
000000a0: fb36 c93f 48e0 3fbe 56b6 b8bc c4ba 82be
000000b0: 75f8 1bbf 1afa 8abf 4f17 e23e 42f6 fabc
000000c0: 7d96 043d 2940 3d3f 70c4 513e 5b86 7dbf
000000d0: 3cb2 58bf f18a 78bf 6c86 9c3f 0d6b 9e3f
000000e0: 2665 d0bf c123 b4be 4556 f03e 1889 063f
000000f0: 86bc 8d3e 2f63 dcbe 31c3 5c3e 4118 e4bf
00000100: e590 0640 e22e 90bf 2dcf 79bf dd4f b63f
00000110: d054 6ec0 4324 9dbf 7801 ca3d 257c b0bc
00000120: 124e 343e bbbc 81be 8c63 b53e 6f1b babf
00000130: 3490 8a3f 5d12 24be 2a3d f23d 55d0 173f
00000140: c131 e7bf 78ec 58bf 3913 a2be 1e96 09bf
00000150: 873b 81bd 713d a83d c480 363e 4451 abbf
00000160: 1018 3f3f f78d bebd 4b04 c53e b428 803e
00000170: 77bb 97bf 3102 83bf 6577 afbe 3649 d0bf
00000180: f9b1 01be b173 6e3e ee0f 3f3e 06a7 8fbf
00000190: 6dfc 053f 23e0 bcbd df74 013f 3ee5 233e
000001a0: 1ac2 95bf cc66 78bf d5f6 dabd b9f2 c8bf
000001b0: ccce fcbd 8bbc 9d3e 767a 1e3e 1f17 49bf
000001c0: 96bf c73d f49f 4ebe 7db7 183f fda2 ba3e
000001d0: ad06 90bf f9bc 13bf f661 ab3e 0598 94bf
000001e0: 64df 3fbe 5f8b 943e 06ea 1d3e 53a2 5fbf
000001f0: 7e53 0e3f 5cb8 78be ed42 053f 81ba ae3d
00000200: a73b 41bf 235d 60bf fa48 903e d7d5 c2bf
00000210: 5441 78be 70fb ae3e 1cf5 d63d f160 7fbf
00000220: 99db 2f3f 0c40 08be 505a ee3e 9534 62bd
00000230: dc08 5fbf 5483 7cbf 46a3 503e 1f3e d2bf
00000240: 36df 42be a2fc 423e f036 2e3e b230 6fbf
00000250: 53c0 2c3f 8b13 a6be 824d 193f 53ce e43c
00000260: 9a9f febe a40a 5fbf 00c5 c63e 76f0 a7bf
00000270: b85a 59be e7e8 163e 8582 1f3e 7bdf 55bf
00000280: 04a8 263f 1e8c 51be 2d68 0c3f 0d91 46bd
00000290: ab46 2dbf 3459 6bbf 93c7 b83e 2c37 aebf
000002a0: eda4 5bbe 9d17 373e 9d7d f63d ee41 4fbf
000002b0: 19a3 1f3f 70a8 a7be 1d1a 153f ed8e cb3b
000002c0: c70d 3fbf d38c 63bf 32f6 f03e 005d b3bf
000002d0: a99e 56be a454 8c3e 9082 023d 0f2e 51bf
000002e0: 011e cc3e 7e1b c0be 2d8f 5d3f a9c2 463e
000002f0: 5cb3 62bf bcc5 4fbf 854e ae3e 6b7c 8abf
00000300: 7661 3dbe 5f9c a63e fca6 423e 45a5 10bf
00000310: 4fdd c53e c4a7 e0be 1a31 193f 5ef6 b13d
00000320: e562 8bbf 37dc 5bbf 53ee d63e 64b4 aabf
00000330: 16f5 41be ee80 a33e 2fda 513e 4838 fdbe
00000340: b0a0 e83e d776 dabe 4275 123f 3012 d43c
00000350: 6571 83bf 1a26 5dbf a6ec f93e d4f8 97bf
00000360: 6aed 81be 1fa9 d53e 735f 5e3d 96b6 18bf
00000370: 4f79 c23e efec 30be e871 2e3f 79a0 96bc
00000380: 6d9a 9cbf c55b 62bf 900e d53e 435f a2bf
00000390: c4b6 81be a470 e13e 2f24 1e3d 2ed0 00bf
000003a0: 45c2 b23e 9da1 fbbd 2217 183f 9f2f 0bbc
000003b0: a127 a2bf ee49 53bf 030e 0b3f fa7c 99bf
000003c0: 92c6 65be 6175 e63e 09ec 633d 4e9f ddbe
000003d0: 829b 8e3e 5bea 08be ccb4 133f 5066 453b
000003e0: 3288 9dbf 49be 3cbf a292 303f fa42 81bf
000003f0: 725c 7ebe b476 ed3e 74ab 893c c6f4 f6be

jaw_pose f4 [214, 3]
-0.014409 0.0012583932 0.00054942846 0.54015684 0.009283585 0.0037992424 0.5769366 0.007121024
0.0053827614 0.327382 -0.008362302 -0.0045279884 0.25694546 -0.0042298883 -0.0018141293 0.133561
-0.0053486754 -0.0017605888 0.08107502 -0.010357801 -0.0037576228 0.02835162 0.003765572 0.0015915955
-0.03114014 0.0020435818 0.00069481024 -0.036895394 0.0013352556 0.00071164494 -0.04993154 -0.0005633022
0.00025011558 -0.013772561 -0.0031646623 -0.00034000055 0.019796416 -0.002858496 -0.0003534458 0.044116907
-0.00556673 -0.0014424019 0.026164537 -0.0036589305 -0.0011068076 0.0061669373 -0.00929753 -0.0021040656
0.017522955 -0.0029070927 -0.0006676654 -0.011955886 -0.00028562307 -0.0001236646 -0.017096 0.000627171
0.0005496237 -0.0052561252 -0.00245348 -0.00037707022 -0.008222661 0.0013270018 0.0005425075 0.0010701938
-0.0022420536 -0.00051892345 0.004919734 -0.0031248664 -0.0007666347 0.0317767 -0.0022076692 -0.00073187356
0.022483611 -0.0027578226 -0.00029476357 0.015192319 -0.0027024806 -0.00035837063 0.027705213 -0.0011979183
-6.8962945e-05 0.025690239 -0.000425408 -0.00015187409 0.039869558 -0.0024566143 -2.8590828e-05 0.037528817
-0.0030114576 -0.00044697043 0.035482336 -0.003725287 -0.00076156406 0.043173533 -0.0032046163 -0.00054356386
0.057464667 -0.002151098 -0.0005901933 0.06211317 -0.0018570911 -0.00040726774 0.05500351 -0.002916295
-0.00072009524 0.056820497 -0.003590998 -0.00053706235 0.057964474 -0.0019890221 -0.00023783243 0.062464084
-0.005482445 -0.0014022597 0.070434295 -0.003452511 -0.00097387575 0.05413696 -0.0017273953 -0.00029954745
0.07862384 -0.0042180973 -0.0006249108 0.0681246 -0.0038020574 -0.00082825666 0.057198517 -0.004442918
-0.0009213335 0.040620573 -0.0073766485 -0.0021459977 0.039233495 -0.0086934175 -0.002754664 0.03477387
-0.007491334 -0.0016049764 0.04653352 -0.008401186 -0.0027813022 0.052169442 -0.006329506 -0.0010402459
0.042076346 -0.006831972 -0.00115682 0.05269916 -0.007129536 -0.0018706969 0.056599624 -0.004254739
-0.0010430793 0.070140876 -0.007801381 -0.002930945 0.073408574 -0.007452358 -0.0025210578 0.0625855
-0.008094671 -0.0026152856 0.07691446 -0.008157094 -0.002748214 0.06546708 -0.0072501055 -0.0015374956
0.06789192 -0.0038388737 -0.0012110671 0.065757774 -0.00685087 -0.0020777404 0.07769051 -0.003982015
-0.0013337317 0.071411505 -0.008209711 -0.0026349912 0.07030617 -0.007183282 -0.0020638239 0.054485496
-0.009417473 -0.002850553 0.031406924 -0.0076217726 -0.0017230792 0.049891055 -0.008099271 -0.0024530108
0.04073946 -0.013584616 -0.0036794865 0.03863775 -0.008446236 -0.0018062247 0.014797847 -0.005635556
-0.0009453836 0.022107115 -0.006487223 -0.0013257385 0.010819744 -0.0043016826 -0.0009800632 0.0027812808
-0.0012789028 -0.00020180421 0.027481152 -0.005613745 -0.0015244406 -0.003924456 -0.0038641868 -0.00087176124
-0.0064615696 -0.0037550782 -0.0011875975 -0.0032652633 -0.005503325 -0.0010749885 0.0022370024 -0.004216287
-0.0017101287 -0.0054870574 -0.0064188493 -0.0017810347 -0.0021646076 -0.007011514 -0.002077422 -0.003975011
-0.007159634 -0.0022142793 -0.005384331 -0.00714761 -0.0022489436 -0.0072203157 -0.007271289 -0.0026446444
-0.0050636833 -0.0041403337 -0.0013800731 0.0049242754 -0.007999879 -0.0024578078 -0.0022123666 -0.006895403
-0.001502938 -0.007527643 -0.006203215 -0.0013347572 -0.010338662 -0.006468163 -0.0015715607 -0.013655476
00000000: ba13 6cbc abf0 a43a 8507 103a b847 0a3f
00000010: 2d1a 183c b6fc 783b 1eb2 133f 7b57 e93b
00000020: e061 b03b 9d9e a73e 0902 09bc 855f 94bb
00000030: 5b8e 833e e09a 8abb 14c8 edba 37c4 083e
00000040: f143 afbb 8fc3 e6ba a90a a63d c4b3 29bc
00000050: 7342 76bb a841 e83c d1c7 763b 159d d03a
00000060: 9b19 ffbc 9ded 053b ed23 363a a01f 17bd
00000070: be03 af3a af8d 3a3a 0485 4cbd 92aa 13ba
00000080: f221 8339 4fa6 61bc 3966 4fbb 1a42 b2b9
00000090: 182c a23c 9b55 3bbb b14e b9b9 eeb3 343d
000000a0: 1e69 b6bb fa0e bdba 0357 d63c abca 6fbb
000000b0: 4d12 91ba 0514 ca3b ab54 18bc 5de4 09bb
000000c0: 4d8c 8f3c ec84 3ebb 4406 2fba 9fe2 43bc
000000d0: aebf 95b9 f7ab 01b9 e90c 8cbc bc68 243a
000000e0: 9f14 103a 933b acbb 90ca 20bb 82b1 c5b9
000000f0: 57b8 06bc cbee ad3a 1037 0e3a bf45 8c3a
00000100: 6bef 12bb 5d08 08ba b835 a13b 8fca 4cbb
00000110: fcf7 48ba 4928 023d 8bae 10bb 34db 3fba
00000120: 8d2f b83c 96bc 34bb 7f8a 9ab9 34e9 783c
00000130: 1a1c 31bb b1e3 bbb9 0bf6 e23c 7803 9dba
00000140: 33a0 90b8 5674 d23c 4c09 dfb9 6440 1fb9
00000150: 434e 233d 26ff 20bb 56d6 efb7 d1b7 193d
00000160: e05b 45bb 5b57 eab9 ed55 113d f223 74bb
00000170: b3a3 47ba bbd6 303d 8a04 52bb f47d 0eba
00000180: 1260 6b3d 70f9 0cbb 34b7 1aba 616a 7e3d
00000190: a369 f3ba 8d86 d5b9 5c4b 613d 501f 3fbb
000001a0: c6c4 3cba 9cbc 683d f356 6bbb a5c9 0cba
000001b0: 286c 6d3d 415a 02bb a862 79b9 57da 7f3d
000001c0: 15a6 b3bb 07cc b7ba db3f 903d 8643 62bb
000001d0: b24b 7fba b8be 5d3d c569 e2ba 940c 9db9
000001e0: 8905 a13d f737 8abb 0ed1 23ba e984 8b3d
000001f0: f02b 79bb 5d1f 59ba fe48 6a3d e695 91bb
00000200: a585 71ba c261 263d d0b7 f1bb dea3 0cbb
00000210: 4db3 203d d66e 0ebc 9887 34bb 0c6f 0e3d
00000220: dd79 f5bb 125e d2ba ef99 3e3d 21a5 09bc
00000230: 8246 36bb a0af 553d bf67 cfbb dc58 88ba
00000240: 3f58 2c3d bcde dfbb 70a0 97ba 13db 573d
00000250: e29e e9bb 2c32 f5ba 02d5 673d 566b 8bbb
00000260: efb7 88ba 05a6 8f3d baa2 ffbb 1915 40bb
00000270: 3c57 963d e932 f4bb 5538 25bb d42c 803d
00000280: 839f 04bc 3665 2bbb 5485 9d3d 55a5 05bc
00000290: 611b 34bb 9b13 863d 4b92 edbb cb85 c9ba
000002a0: eb0a 8b3d 9d95 7bbb abbc 9eba 03ac 863d
000002b0: 437d e0bb b32a 08bb 341c 9f3d 907b 82bb
000002c0: 9cd0 aeba 3240 923d 0682 06bc d1af 2cbb
000002d0: aefc 8f3d bd61 ebbb 3841 07bb 2f2c 5f3d
000002e0: bf4b 1abc 58d0 3abb 8ca4 003d 10c0 f9bb
000002f0: f2d8 e1ba 905a 4c3d ceb2 04bc b1c2 20bb
00000300: 6cde 263d 0292 5ebc 8a23 71bb 9e42 1e3d
00000310: 1562 0abc d8be ecba ab72 723c 78aa b8bb
00000320: 9fd3 77ba fb19 b53c c592 d4bb 67c4 adba
00000330: 4c45 313c 21f5 8cbb 7775 80ba 2646 363b
00000340: dba0 a7ba 689b 53b9 2720 e13c 82f3 b7bb
00000350: bdcf c7ba b998 80bb 4c3e 7dbb e886 64ba
00000360: 93bb d3bb c217 76bb 29a9 9bba 07fe 55bb
00000370: 3c55 b4bb a1e6 8cba ac9a 123b c728 8abb
00000380: 6626 e0ba c6cc b3bb 3655 d2bb 9c71 e9ba
00000390: 17dc 0dbb d8c0 e5bb 5c25 08bb cf40 82bb
000003a0: 5d9b eabb 711d 11bb 0b6f b0bb 8036 eabb
000003b0: 0363 13bb 6698 ecbb fe43 eebb c551 2dbb
000003c0: 41ed a5bb a3ab 87bb 92e3 b4ba d15b a13b
000003d0: ed11 03bc 2c13 21bb 5afd 10bb d5f2 e1bb
000003e0: 3bfe c4ba 72aa f6bb 5744 cbbb 05f3 aeba
000003f0: 7e63 29bc e2f2 d3bb d4fc cdba 38bb 5fbc

leye_pose f4 [214, 3]
0.0 0.0 0.0 0.0 0.0 0.0 0.0 0.0
0.0 0.0 0.0 0.0 0.0 0.0 0.0 0.0
0.0 0.0 0.0 0.0 0.0 0.0 0.0 0.0
0.0 0.0 0.0 0.0 0.0 0.0 0.0 0.0
0.0 0.0 0.0 0.0 0.0 0.0 0.0 0.0
0.0 0.0 0.0 0.0 0.0 0.0 0.0 0.0
0.0 0.0 0.0 0.0 0.0 0.0 0.0 0.0
0.0 0.0 0.0 0.0 0.0 0.0 0.0 0.0
0.0 0.0 0.0 0.0 0.0 0.0 0.0 0.0
0.0 0.0 0.0 0.0 0.0 0.0 0.0 0.0
0.0 0.0 0.0 0.0 0.0 0.0 0.0 0.0
0.0 0.0 0.0 0.0 0.0 0.0 0.0 0.0
0.0 0.0 0.0 0.0 0.0 0.0 0.0 0.0
0.0 0.0 0.0 0.0 0.0 0.0 0.0 0.0
0.0 0.0 0.0 0.0 0.0 0.0 0.0 0.0
0.0 0.0 0.0 0.0 0.0 0.0 0.0 0.0
0.0 0.0 0.0 0.0 0.0 0.0 0.0 0.0
0.0 0.0 0.0 0.0 0.0 0.0 0.0 0.0
0.0 0.0 0.0 0.0 0.0 0.0 0.0 0.0
0.0 0.0 0.0 0.0 0.0 0.0 0.0 0.0
0.0 0.0 0.0 0.0 0.0 0.0 0.0 0.0
0.0 0.0 0.0 0.0 0.0 0.0 0.0 0.0
0.0 0.0 0.0 0.0 0.0 0.0 0.0 0.0
0.0 0.0 0.0 0.0 0.0 0.0 0.0 0.0
0.0 0.0 0.0 0.0 0.0 0.0 0.0 0.0
0.0 0.0 0.0 0.0 0.0 0.0 0.0 0.0
0.0 0.0 0.0 0.0 0.0 0.0 0.0 0.0
0.0 0.0 0.0 0.0 0.0 0.0 0.0 0.0
0.0 0.0 0.0 0.0 0.0 0.0 0.0 0.0
0.0 0.0 0.0 0.0 0.0 0.0 0.0 0.0
0.0 0.0 0.0 0.0 0.0 0.0 0.0 0.0
0.0 0.0 0.0 0.0 0.0 0.0 0.0 0.0
00000000: 0000 0000 0000 0000 0000 0000 0000 0000
00000010: 0000 0000 0000 0000 0000 0000 0000 0000
00000020: 0000 0000 0000 0000 0000 0000 0000 0000
00000030: 0000 0000 0000 0000 0000 0000 0000 0000
00000040: 0000 0000 0000 0000 0000 0000 0000 0000
00000050: 0000 0000 0000 0000 0000 0000 0000 0000
00000060: 0000 0000 0000 0000 0000 0000 0000 0000
00000070: 0000 0000 0000 0000 0000 0000 0000 0000
00000080: 0000 0000 0000 0000 0000 0000 0000 0000
00000090: 0000 0000 0000 0000 0000 0000 0000 0000
000000a0: 0000 0000 0000 0000 0000 0000 0000 0000
000000b0: 0000 0000 0000 0000 0000 0000 0000 0000
000000c0: 0000 0000 0000 0000 0000 0000 0000 0000
000000d0: 0000 0000 0000 0000 0000 0000 0000 0000
000000e0: 0000 0000 0000 0000 0000 0000 0000 0000
000000f0: 0000 0000 0000 0000 0000 0000 0000 0000
00000100: 0000 0000 0000 0000 0000 0000 0000 0000
00000110: 0000 0000 0000 0000 0000 0000 0000 0000
00000120: 0000 0000 0000 0000 0000 0000 0000 0000
00000130: 0000 0000 0000 0000 0000 0000 0000 0000
00000140: 0000 0000 0000 0000 0000 0000 0000 0000
00000150: 0000 0000 0000 0000 0000 0000 0000 0000
00000160: 0000 0000 0000 0000 0000 0000 0000 0000
00000170: 0000 0000 0000 0000 0000 0000 0000 0000
00000180: 0000 0000 0000 0000 0000 0000 0000 0000
00000190: 0000 0000 0000 0000 0000 0000 0000 0000
000001a0: 0000 0000 0000 0000 0000 0000 0000 0000
000001b0: 0000 0000 0000 0000 0000 0000 0000 0000
000001c0: 0000 0000 0000 0000 0000 0000 0000 0000
000001d0: 0000 0000 0000 0000 0000 0000 0000 0000
000001e0: 0000 0000 0000 0000 0000 0000 0000 0000
000001f0: 0000 0000 0000 0000 0000 0000 0000 0000
00000200: 0000 0000 0000 0000 0000 0000 0000 0000
00000210: 0000 0000 0000 0000 0000 0000 0000 0000
00000220: 0000 0000 0000 0000 0000 0000 0000 0000
00000230: 0000 0000 0000 0000 0000 0000 0000 0000
00000240: 0000 0000 0000 0000 0000 0000 0000 0000
00000250: 0000 0000 0000 0000 0000 0000 0000 0000
00000260: 0000 0000 0000 0000 0000 0000 0000 0000
00000270: 0000 0000 0000 0000 0000 0000 0000 0000
00000280: 0000 0000 0000 0000 0000 0000 0000 0000
00000290: 0000 0000 0000 0000 0000 0000 0000 0000
000002a0: 0000 0000 0000 0000 0000 0000 0000 0000
000002b0: 0000 0000 0000 0000 0000 0000 0000 0000
000002c0: 0000 0000 0000 0000 0000 0000 0000 0000
000002d0: 0000 0000 0000 0000 0000 0000 0000 0000
000002e0: 0000 0000 0000 0000 0000 0000 0000 0000
000002f0: 0000 0000 0000 0000 0000 0000 0000 0000
00000300: 0000 0000 0000 0000 0000 0000 0000 0000
00000310: 0000 0000 0000 0000 0000 0000 0000 0000
00000320: 0000 0000 0000 0000 0000 0000 0000 0000
00000330: 0000 0000 0000 0000 0000 0000 0000 0000
00000340: 0000 0000 0000 0000 0000 0000 0000 0000
00000350: 0000 0000 0000 0000 0000 0000 0000 0000
00000360: 0000 0000 0000 0000 0000 0000 0000 0000
00000370: 0000 0000 0000 0000 0000 0000 0000 0000
00000380: 0000 0000 0000 0000 0000 0000 0000 0000
00000390: 0000 0000 0000 0000 0000 0000 0000 0000
000003a0: 0000 0000 0000 0000 0000 0000 0000 0000
000003b0: 0000 0000 0000 0000 0000 0000 0000 0000
000003c0: 0000 0000 0000 0000 0000 0000 0000 0000
000003d0: 0000 0000 0000 0000 0000 0000 0000 0000
000003e0: 0000 0000 0000 0000 0000 0000 0000 0000
000003f0: 0000 0000 0000 0000 0000 0000 0000 0000
