test_dataset/gait_809/20250819_c2_a4_Take1/split_subjects/0/fit-smplx/smplx-params_cut.npz (npz, 40914 bytes, 10 tensors)

global_orient f4 [78, 3]
0	0xbd6fc88e	-0.058540873
1	0xc021991c	-2.52497
2	0xbdba58ed	-0.090989925
3	0xbd500d00	-0.050793648
4	0xc0211a97	-2.517248
5	0xbdb50e9f	-0.088406794
6	0xbd48bddc	-0.04900919
7	0xc0233d0e	-2.5506015
8	0xbda95eeb	-0.08270057
9	0xbd29bda6	-0.04144063
10	0xc0267aea	-2.601252
11	0xbda0ae3d	-0.07845733
12	0xbd1b0909	-0.037850413
13	0xc0299917	-2.6499689
14	0xbd9363ff	-0.07196807
15	0xbd3d2e50	-0.046186745
16	0xc02d3387	-2.70627
17	0xbd8862b4	-0.06659451
18	0xbd5e5ea6	-0.054289483
19	0xc0333a9b	-2.800452
20	0xbd7ea565	-0.06216945
21	0xbd6b2c63	-0.057415377
22	0xc037ef3b	-2.8739765
23	0xbd7d7715	-0.061881144
24	0xbd679a58	-0.056543678
25	0xc03cceb4	-2.9501162
26	0xbd849fc8	-0.06475788
27	0xbd86bb25	-0.06578664
28	0xc03ba1e5	-2.9317563
29	0xbd24f62b	-0.040273827
30	0xbd85a95d	-0.06526444
31	0xc03e90e2	-2.977593
32	0xbd395579	-0.04524753
33	0xbd8e2df4	-0.069423586
34	0xc03feaac	-2.9986982
35	0xbd7fa170	-0.06240982
36	0xbda08cb9	-0.07839341
37	0xc03ef51e	-2.9837108
38	0xbdd986bd	-0.106214024
39	0xbd964506	-0.07337384
40	0xc03ca758	-2.9477139
41	0xbe0ff4eb	-0.14058273
42	0xbd5589b4	-0.052133277
43	0xc03eed59	-2.9832366
44	0xbe3d7358	-0.18501031
45	0xbc9fef93	-0.019523418
46	0xc04089ee	-3.0084186
47	0xbe5d01f8	-0.21582782
48	0x3c0c08d4	0.008547027
49	0xc0415b5f	-3.0212018
50	0xbe736087	-0.23767291
51	0x3d35f05c	0.044418678
52	0xc04169b3	-3.0220764
53	0xbe830a5c	-0.2559384
54	0x3d2f4572	0.042790838
55	0xc04109b8	-3.0162182
56	0xbe840034	-0.25781405
57	0x3d552d07	0.052044895
58	0xc03e6114	-2.9746752
59	0xbe8306e9	-0.2559121
60	0x3d808a7c	0.06276414
61	0xc03a6236	-2.9122443
62	0xbe7a09a4	-0.2441774
63	0x3dfaae48	0.12240273
64	0xc038f6e2	-2.8900685
65	0xbe683868	-0.22677767
66	0x3e24c2b3	0.16089897
67	0xc03827db	-2.8774326
68	0xbe58f076	-0.21185479
69	0x3e4714ae	0.19441482
70	0xc036df70	-2.8573875
71	0xbe47982e	-0.19491646
72	0x3e309f1e	0.17248198
73	0xc032e613	-2.7952926
74	0xbe4241f3	-0.1897047
75	0x3e2cb934	0.16867524
76	0xc03065dc	-2.756217
77	0xbe30de79	-0.17272367
78	0x3e2fc039	0.17163171
79	0xc02dd741	-2.716263
80	0xbe248609	-0.16066755
81	0x3e1de71b	0.15420191
82	0xc02cdedb	-2.701102
83	0xbe236f3f	-0.15960406
84	0x3e09a00a	0.13439956
85	0xc02ade11	-2.6698039
86	0xbe2b98c5	-0.16757496
87	0x3e1d4848	0.15359604
88	0xc02aed00	-2.6707153
89	0xbe2f638b	-0.17127816
90	0x3e1daaea	0.1539723
91	0xc02a6a41	-2.6627352
92	0xbe366ba0	-0.17814493
93	0x3e187702	0.14889148
94	0xc02aa7dc	-2.6664953
95	0xbe3c6e8b	-0.18401544
96	0x3e113676	0.14180931
97	0xc02b9663	-2.6810539
98	0xbe418d71	-0.18901612
99	0x3e04252e	0.12904808
100	0xc02c6655	-2.6937459
101	0xbe48f829	-0.19625916
102	0x3de04e74	0.10952464
103	0xc02c6518	-2.6936703
104	0xbe50e78f	-0.20400833
105	0x3dac947d	0.084267594
106	0xc02b88a6	-2.6802154
107	0xbe4ed168	-0.2019707
108	0x3d87b372	0.06626023
109	0xc02a946d	-2.6653092
110	0xbe446973	-0.1918085
111	0x3d27afb5	0.04093905
112	0xc0295f74	-2.646451
113	0xbe37b361	-0.17939521
114	0xbbb94f65	-0.0056552165
115	0xc025ddb4	-2.5916567
116	0xbe29dc65	-0.1658798
117	0x3c1afd9b	0.009459878
118	0xc0263b3a	-2.597365
119	0xbe1fa569	-0.15590443
120	0x3bcabd34	0.0061871056
121	0xc026b307	-2.604677
122	0xbe1ae496	-0.15126261
123	0x3bc73433	0.0060792207
124	0xc0299c1b	-2.650153
125	0xbe18bae1	-0.14915039
126	0x3b69f751	0.003570039
127	0xc02bd9ef	-2.6851766
128	0xbe127834	-0.14303666
129	0xba65fe4a	-0.0008773549
130	0xc02f8403	-2.7424324
131	0xbe123ced	-0.14281054
132	0xbbc2b52b	-0.005942007
133	0xc03368a5	-2.803262
134	0xbe12b4d6	-0.14326796
135	0xbb26a581	-0.0025428238
136	0xc0369b90	-2.8532448
137	0xbe0e6e04	-0.13909155
138	0xbbb63704	-0.0055607576
139	0xc0391d77	-2.8924234
140	0xbe0abda1	-0.135489
141	0xbce70aa0	-0.028203309
142	0xc0398ce4	-2.8992243
143	0xbe07410c	-0.13208407
144	0xbd63eedf	-0.055647727
145	0xc0394ea8	-2.8954258
146	0xbe1b8b2b	-0.15189807
147	0xbd92462a	-0.07142289
148	0xc038c982	-2.887299
149	0xbe3ca7ab	-0.18423335
150	0xbda81370	-0.082068324
151	0xc03b24b6	-2.9241157
152	0xbe586940	-0.211339
153	0xbdbfcf4e	-0.09365712
154	0xc03b8c5d	-2.930442
155	0xbe699844	-0.22811991
156	0xbdcc8d9e	-0.09987949
157	0xc03ce630	-2.9515495
158	0xbe7b1cd5	-0.24522717
159	0xbdcc2a52	-0.099690095
160	0xc03ea5d6	-2.9788718
161	0xbe82e633	-0.25566253
162	0xbd95716f	-0.07297026
163	0xc042d05e	-3.0439677
164	0xbe926207	-0.28590414
165	0xbd1b84aa	-0.037968315
166	0xc04598f3	-3.0874603
167	0xbe957c5e	-0.29196447
168	0x3c23967f	0.0099846115
169	0xc0452b8d	-3.0807831
170	0xbe935a77	-0.28779957
171	0x3ce9cb48	0.028539315
172	0xc0451764	-3.0795527
173	0xbe96de08	-0.2946627
174	0x3d4a10a7	0.049332287
175	0xc0451aff	-3.0797727
176	0xbe953835	-0.29144445
177	0x3dad2f99	0.08456344
178	0xc04679cc	-3.101184
179	0xbe88fae4	-0.26753914
180	0x3dc43760	0.095808744
181	0xc0447bbd	-3.0700524
182	0xbe885c8b	-0.26633105
183	0x3dd65ef1	0.104673274
184	0xc042a815	-3.041509
185	0xbe8400dc	-0.25781906
186	0x3de07fe1	0.10961891
187	0xc040f893	-3.0151718
188	0xbe803c8a	-0.25046188
189	0x3ded12be	0.115758404
190	0xc03ed307	-2.98163
191	0xbe79189e	-0.24325797
192	0x3e027468	0.12739718
193	0xc03c1ffd	-2.9394524
194	0xbe779a7f	-0.2418003
195	0x3e07598d	0.13217755
196	0xc0394ecc	-2.8954344
197	0xbe74542a	-0.23860231
198	0x3e0c9dbf	0.1373205
199	0xc036938b	-2.8527553
200	0xbe7727cc	-0.24136275
201	0x3e0f708a	0.14007774
202	0xc0362062	-2.8457265
203	0xbe777a2c	-0.24167699
204	0x3e0b8446	0.13624677
205	0xc03421aa	-2.8145547
206	0xbe7fa4aa	-0.24965158
207	0x3e01b22e	0.12665626
208	0xc03473db	-2.8195713
209	0xbe8458f5	-0.2584912
210	0x3dcb2af5	0.09920303
211	0xc033987b	-2.8061817
212	0xbe8dc03d	-0.2768573
213	0x3dbd9ae3	0.09258058
214	0xc033a86e	-2.8071551
215	0xbe913962	-0.28364092
216	0x3daa8eed	0.08328042
217	0xc0333c22	-2.8005452
218	0xbe996add	-0.29964343
219	0x3d990857	0.07472294
220	0xc0326b90	-2.787815
221	0xbea255b6	-0.31706017
222	0x3d7bf499	0.061512563
223	0xc032e899	-2.7954466
224	0xbea87228	-0.32899594
225	0x3cc6f376	0.024286013
226	0xc035c693	-2.840245
227	0xbebd9706	-0.37029284
228	0x3c142e49	0.009044238
229	0xc037ca29	-2.8717139
230	0xbebd7aa6	-0.37007636
231	0xbb8b4ec7	-0.0042513344
232	0xc039336f	-2.8937643
233	0xbec47468	-0.3837006

body_pose f4 [78, 63]
0	0x3d64a8ef	0.05582517
1	0xbd2e50fa	-0.042557694
2	0xbdc2b245	-0.095066585
3	0xbf0ca7ae	-0.5494336
4	0xbda70df0	-0.08156955
5	0xbd138134	-0.03601189
6	0x3dedc894	0.11610523
7	0xbe6522ca	-0.22376552
8	0x3d3d60cf	0.046234902
9	0x3f7251ed	0.9465626
10	0xbd8d82f8	-0.06909746
11	0x3e396bb0	0.18107486
12	0x3f61848a	0.88092864
13	0xbe02bb98	-0.12766874
14	0xbe014e8a	-0.12627617
15	0x3c01e02d	0.007926983
16	0xbe0bbf89	-0.13647284
17	0xbd8d937b	-0.06912895
18	0xbe21334d	-0.15742226
19	0x3cfba815	0.030719796
20	0xbe0bce68	-0.13652956
21	0xbeadcd72	-0.33945805
22	0xbe609d50	-0.2193501
23	0x3e9cb70f	0.30608413
24	0x3dc8b69a	0.098004535
25	0xbb105fa3	-0.002202966
26	0x3cca2316	0.024674933
27	0x3781adfd	1.5459018e-05
28	0x378cf9e9	1.6805674e-05
29	0x3786b4d9	1.6058259e-05
30	0xb77c37a4	-1.5033325e-05
31	0x3786eadc	1.608341e-05
32	0xb786c139	-1.6064021e-05
33	0xbcef4b6b	-0.029210767
34	0x3df0a9f5	0.11751167
35	0xbe0cdd1c	-0.13756222
36	0xbdd07315	-0.101782
37	0xbe03c610	-0.12868524
38	0xbe93d9ff	-0.28877255
39	0xbdf18380	-0.1179266
40	0xbe6a32b7	-0.22870909
41	0x3ebf5f47	0.37377378
42	0xbd0b3e01	-0.03399468
43	0x3dcdeef8	0.10055345
44	0xbd8cb18c	-0.06869802
45	0x3e1b2980	0.1515255
46	0xbf147811	-0.57995707
47	0xbf809ce5	-1.004788
48	0xbc91b278	-0.017785296
49	0xbdabf0bc	-0.08395526
50	0x3f4bdff1	0.7963858
51	0x3c1e529c	0.00966325
52	0xbfbe25df	-1.4855307
53	0xbea4da1f	-0.32197663
54	0xbe54a781	-0.20767023
55	0x3fea675f	1.8312796
56	0x3eda043a	0.4258135
57	0x3d505f04	0.050871864
58	0xbcd03d11	-0.025419744
59	0x3de7ccda	0.11318369
60	0xbd8ee7a7	-0.06977778
61	0x3e33f009	0.17572035
62	0xbe510792	-0.20413044
63	0xbd0ffa49	-0.0351508
64	0xbd53a8e2	-0.05167473
65	0xbd970aae	-0.07375084
66	0xbf035a2e	-0.5130948
67	0xbda7cbd9	-0.08193178
68	0xbd63b5ca	-0.05559329
69	0x3dc809dd	0.09767506
70	0xbe878adc	-0.2647313
71	0x3d851af8	0.064992845
72	0x3f904e4a	1.1273892
73	0xbd990e86	-0.07473473
74	0x3d9db7f2	0.077011004
75	0x3f6a5a66	0.9154419
76	0xbe0f29e1	-0.1398082
77	0xbda048b9	-0.07826371
78	0xbcbe2a8a	-0.023213644
79	0xbe005042	-0.12530616
80	0xbdcd991c	-0.10038969
81	0xbe0f230d	-0.13978215
82	0x3e0c1293	0.1367896
83	0xbe0b0ec1	-0.13579847
84	0xbecd1391	-0.4005399
85	0xbe82226e	-0.25416893
86	0x3eda1713	0.4259573
87	0x3e1561b2	0.14588049
88	0xbd12879a	-0.03577385
89	0x3d05c8e6	0.032662295
90	0x3779c1f6	1.4886717e-05
91	0x3781f40d	1.5491643e-05
92	0x378aa35f	1.6526958e-05
93	0xb78401b5	-1.5736421e-05
94	0x37873526	1.6118003e-05
95	0x378630c5	1.5996755e-05
96	0xbd1192f5	-0.03554054
97	0x3e224ee0	0.15850401
98	0xbda152ac	-0.078770965
99	0xbdab4fe5	-0.08364848
100	0xbd586378	-0.052829236
101	0xbe36f236	-0.17865834
102	0xbd7e117b	-0.06202839
103	0xbe5b20b0	-0.21399188
104	0x3ea5fe49	0.32420567
105	0xbd88508b	-0.06655987
106	0x3ddad710	0.10685551
107	0xbe1498e7	-0.14511453
108	0x3e021fbf	0.12707423
109	0xbf261b74	-0.6488564
110	0xbf882de6	-1.0639007
111	0xbcc9ff9c	-0.024658017
112	0xbbc8074a	-0.0061043845
113	0x3f53559e	0.82552516
114	0xbb9e9e12	-0.004840621
115	0xbfc1b389	-1.5132915
116	0xbea53121	-0.32264045
117	0xbe6284d1	-0.22120978
118	0x3feb13a0	1.8365364
119	0x3ed1c0ac	0.4096731
120	0x3d319fe4	0.043365374
121	0x3b04f693	0.0020288571
122	0x3df23ecd	0.118283845
123	0xbdf270f0	-0.11837947
124	0x3e1b55ab	0.15169398
125	0xbe53c395	-0.20680077
126	0xbe0991f1	-0.13434578
127	0xbd428cf4	-0.047497705
128	0xbd5d44a4	-0.05402054
129	0xbeecf026	-0.4627697
130	0xbd867d41	-0.06566859
131	0xbd5baa84	-0.053629413
132	0x3db2e2a0	0.087346315
133	0xbe78fc9a	-0.2431511
134	0x3da6bf00	0.08141899
135	0x3f9bd1a2	1.217335
136	0xbd6fdcc5	-0.05856015
137	0xbcd3a35c	-0.025834732
138	0x3f6477a7	0.89245075
139	0xbdf126c5	-0.11774973
140	0xbd4f96fb	-0.050681096
141	0xbd463b26	-0.048396252
142	0xbdeed5b9	-0.11661858
143	0xbdec18b6	-0.11528151
144	0xbe5f8a1e	-0.21830031
145	0x3e073dda	0.13207188
146	0x3ca8d464	0.020609088
147	0xbee4b914	-0.44672453
148	0xbe7ff3ce	-0.24995348
149	0x3eda6eaa	0.42662555
150	0x3e2f761e	0.17134902
151	0xbd176b21	-0.0369674
152	0x3d10bb7e	0.035335056
153	0x37679d33	1.3805274e-05
154	0x377d0543	1.50812e-05
155	0x378c454a	1.6721566e-05
156	0x3778a786	1.48209565e-05
157	0x3787196b	1.610509e-05
158	0xb776309d	-1.4674061e-05
159	0xbc93a375	-0.018022278
160	0x3e23ce86	0.15996751
161	0xbd9a5f8c	-0.07537755
162	0xbdba4e54	-0.09096971
163	0xbd3ae9c0	-0.045633078
164	0xbe48c4e7	-0.19606362
165	0xbd6307e8	-0.05542746
166	0xbe57c650	-0.21071744
167	0x3eaa7406	0.33291644
168	0xbd82bc7b	-0.06383606
169	0x3db4dc66	0.088311
170	0xbe1e36e3	-0.15450625
171	0x3e1e2070	0.15442061
172	0xbf2be9e4	-0.67153764
173	0xbf84f493	-1.0387138
174	0xbccd4e06	-0.025061619
175	0xbc6bcf12	-0.014392631
176	0x3f522dda	0.82101214
177	0x3c9f430b	0.019441148
178	0xbfc30a1a	-1.5237458
179	0xbe8e4f79	-0.27795008
180	0xbe65a5db	-0.2242655
181	0x3fec4fe7	1.8461884
182	0x3ece89a1	0.40339378
183	0x3c2fd293	0.010731357
184	0xbb1f8742	-0.0024342095
185	0x3ddd5ba8	0.10808498
186	0xbe043ed7	-0.12914596
187	0x3e1a763c	0.15084165
188	0xbe45ce07	-0.19316874
189	0xbe69109c	-0.22760242
190	0xbb312ed0	-0.002703596
191	0xbce35b1e	-0.027753409
192	0xbeda622b	-0.4265302
193	0xbdba35ba	-0.09092279
194	0xbd4ce679	-0.050024483
195	0x3da9432c	0.08264765
196	0xbe5d719c	-0.2162537
197	0x3dd388a6	0.10328798
198	0x3fa4f084	1.28859
199	0x3a5e700d	0.0008485325
200	0xbd24264f	-0.040075596
201	0x3f6331f4	0.887481
202	0xbdbbe1d1	-0.091739304
203	0xbd5bfdfd	-0.05370902
204	0xbd8c2453	-0.06842866
205	0xbdca2a20	-0.09871316
206	0xbe12e12d	-0.1434371
207	0xbe918e00	-0.2842865
208	0x3e0c4bc6	0.1370078
209	0x3a13dc6d	0.0005640451
210	0xbedec214	-0.43507445
211	0xbe4ef054	-0.20208865
212	0x3f4325dd	0.7622965
213	0x3e44faf0	0.1923635
214	0xbd1da923	-0.03849138
215	0x3d3c4e75	0.04597326
216	0x3767ae27	1.3809221e-05
217	0x3779fd0f	1.4900476e-05
218	0x378a2b5c	1.6471073e-05
219	0xb783a7e5	-1.5694599e-05
220	0x378838a7	1.6238844e-05
221	0xb775e24d	-1.4655828e-05
222	0xbc130ca1	-0.008975179
223	0x3e126134	0.14294893
224	0xbd860488	-0.06543833
225	0xbdab297e	-0.083575234
226	0xbd169a04	-0.036767974
227	0xbe398894	-0.18118507
228	0xbd90f8a0	-0.070786715
229	0xbe632778	-0.22183025
230	0x3eaf515b	0.34241757
231	0xbda2911f	-0.07937836
232	0x3d8ec0e2	0.06970383
233	0xbe25ae7e	-0.16179845
234	0x3e1a0d93	0.1504424
235	0xbf2ed3f9	-0.68292195
236	0xbf83ccf1	-1.0296918
237	0x3a0a9f30	0.0005288003
238	0x3c9f7b2c	0.019467913
239	0x3f4e3f32	0.8056518
240	0x3cbdb8f9	0.02315949
241	0xbfc5e0f5	-1.5459276
242	0xbe85a882	-0.26105124
243	0xbe7908aa	-0.24319711
244	0x3fe90b33	1.8206543
245	0x3edea9f8	0.4348905
246	0xbc06e333	-0.008232879
247	0x3cdf060d	0.027224565
248	0x3d95edb2	0.073207274
249	0xbddf116e	-0.10891996
250	0x3e379281	0.1792698
251	0xbe64abaa	-0.2233111
252	0xbeaa85aa	-0.33305103
253	0xbd060a86	-0.03272488
254	0xbc82e98c	-0.015980504
255	0xbec09384	-0.37612545

transl f4 [78, 3]
0	0x3ea5e9c3	0.3240491
1	0x3fa6fcde	1.3045919
2	0x3f470bb0	0.7775221
3	0x3e9f0f42	0.31066328
4	0x3fa6057e	1.2970426
5	0x3f40aeb4	0.75266576
6	0x3e98c9d4	0.29841483
7	0x3fa67806	1.3005378
8	0x3f3ab5a1	0.72933394
9	0x3e9292ad	0.2862753
10	0x3fa6ba31	1.3025571
11	0x3f34fac7	0.70695156
12	0x3e8c6c76	0.274265
13	0x3fa6f1aa	1.30425
14	0x3f2fa863	0.6861631
15	0x3e8653a2	0.26235682
16	0x3fa720cc	1.3056884
17	0x3f2ab209	0.6667791
18	0x3e8062f5	0.25075498
19	0x3fa74abb	1.3069681
20	0x3f259754	0.64684033
21	0x3e740ba0	0.2383256
22	0x3fa743ee	1.3067605
23	0x3f2076bd	0.6268118
24	0x3e65f59e	0.22456977
25	0x3fa70a99	1.3050109
26	0x3f1ad5e6	0.60482633
27	0x3e5641e4	0.20923573
28	0x3fa8d5fc	1.3190303
29	0x3f167539	0.5877262
30	0x3e43cc74	0.19120961
31	0x3fa89a82	1.3172152
32	0x3f0fe22f	0.56204504
33	0x3e2d54d8	0.16926897
34	0x3fa85882	1.315201
35	0x3f08c5e9	0.53426987
36	0x3e14a7b6	0.14517102
37	0x3fa7a26e	1.3096445
38	0x3f00440b	0.50103825
39	0x3df7cb70	0.120993495
40	0x3fa6e8a6	1.3039749
41	0x3ef112a9	0.4708455
42	0x3dc6f1a1	0.09714056
43	0x3fa5e7ba	1.2961342
44	0x3ee05ae4	0.43819344
45	0x3d9b921d	0.07596228
46	0x3fa57526	1.2926376
47	0x3ed29bbd	0.41134444
48	0x3d6f9c4a	0.05849866
49	0x3fa5761d	1.292667
50	0x3ec6d95b	0.38837704
51	0x3d346d65	0.04404964
52	0x3fa5f1fe	1.2964475
53	0x3ebd75de	0.37003988
54	0x3d0329b2	0.032022186
55	0x3fa56783	1.2922214
56	0x3eb43f44	0.35204518
57	0x3c98fd08	0.018675342
58	0x3fa6340f	1.2984637
59	0x3eab8169	0.3349717
60	0x3bd4b353	0.0064911037
61	0x3fa732a0	1.3062325
62	0x3ea414ba	0.32047063
63	0xbbca72db	-0.0061782426
64	0x3fa9658a	1.3234112
65	0x3ea01fef	0.31274363
66	0xbc847c6f	-0.016172616
67	0x3fa9fffc	1.3281245
68	0x3e99a528	0.30008817
69	0xbcd22e00	-0.0256567
70	0x3faa8254	1.3321023
71	0x3e92e232	0.28688198
72	0xbd04bd3f	-0.03240704
73	0x3fa9371e	1.3219945
74	0x3e885636	0.26628274
75	0xbd2253e1	-0.039630774
76	0x3fa8dcac	1.3192344
77	0x3e803df7	0.25047275
78	0xbd3e4bae	-0.046458893
79	0x3fa8a788	1.3176126
80	0x3e6e4feb	0.23272674
81	0xbd56e51f	-0.0524646
82	0x3fa91db3	1.3212188
83	0x3e5c49c2	0.21512511
84	0xbd6fc2ef	-0.058535513
85	0x3fa8f851	1.320078
86	0x3e46439c	0.19361728
87	0xbd86fae2	-0.06590821
88	0x3fa95bb9	1.3231117
89	0x3e3173fb	0.173294
90	0xbd96f846	-0.07371573
91	0x3fa93649	1.3219692
92	0x3e160534	0.14650422
93	0xbdaa94f3	-0.08329191
94	0x3fa918c8	1.3210688
95	0x3df23862	0.118271604
96	0xbdbdc929	-0.09266884
97	0x3fa8eb64	1.3196836
98	0x3db83d31	0.08996046
99	0xbdd47eaf	-0.103757255
100	0x3fa8c340	1.3184586
101	0x3d77bf21	0.06048501
102	0xbdecfae5	-0.11571292
103	0x3fa895ea	1.317075
104	0x3d02f7d1	0.031974617
105	0xbe01f175	-0.12689765
106	0x3fa87da9	1.3163348
107	0x3ba0ab5e	0.004903241
108	0xbe0d3ac4	-0.13791949
109	0x3fa8979d	1.3171269
110	0xbcaf3a92	-0.021390233
111	0xbe160b29	-0.14652695
112	0x3fa8be60	1.3183098
113	0xbd368c39	-0.04456732
114	0xbe1f82fb	-0.15577309
115	0x3fa8338b	1.314073
116	0xbd858500	-0.06519508
117	0xbe2aa92a	-0.16666093
118	0x3fa79ed9	1.3095351
119	0xbda89c77	-0.08232968
120	0xbe36954b	-0.17830388
121	0x3fa72078	1.3056784
122	0xbdcf5bfc	-0.101249665
123	0xbe421a63	-0.18955378
124	0x3fa74c4d	1.307016
125	0xbdf0fa1a	-0.11766453
126	0xbe4e1e4c	-0.20128745
127	0x3fa7d8d8	1.311305
128	0xbe071b3e	-0.13193986
129	0xbe5ba803	-0.2145081
130	0x3fa7e7ed	1.3117653
131	0xbe18eecf	-0.14934848
132	0xbe6a5f92	-0.2288802
133	0x3fa7dd47	1.3114403
134	0xbe2af58a	-0.16695228
135	0xbe7c87a0	-0.24661112
136	0x3fa7dbd2	1.3113959
137	0xbe3d2a56	-0.18473181
138	0xbe88dec8	-0.2673247
139	0x3fa79263	1.3091549
140	0xbe5151bd	-0.20441337
141	0xbe93b27f	-0.2884712
142	0x3fa7e602	1.3117068
143	0xbe6547ef	-0.22390722
144	0xbea11856	-0.3146388
145	0x3fa77a23	1.3084148
146	0xbe7e86ac	-0.2485606
147	0xbeaf32fd	-0.34218588
148	0x3fa6e7df	1.3039511
149	0xbe8c760d	-0.27433816
150	0xbebca447	-0.36844084
151	0x3fa65db0	1.2997341
152	0xbe99de08	-0.3005221
153	0xbec9067c	-0.3926276
154	0x3fa634bf	1.2984847
155	0xbea62594	-0.32450545
156	0xbed41172	-0.4141956
157	0x3fa6a9bc	1.3020549
158	0xbeb16343	-0.34646043
159	0xbedcaa9d	-0.43098918
160	0x3fa75d48	1.3075342
161	0xbebb082f	-0.3652968
162	0xbee4ff90	-0.4472623
163	0x3fa72ec0	1.3061142
164	0xbec5efa6	-0.386594
165	0xbee9e4ff	-0.45682523
166	0x3fa688a1	1.3010446
167	0xbecdf8bb	-0.4022883
168	0xbeef9a25	-0.4679729
169	0x3fa849f8	1.3147573
170	0xbed36875	-0.41290632
171	0xbef3320a	-0.47499114
172	0x3fa7da25	1.3113447
173	0xbedbce87	-0.42931005
174	0xbef6e0a8	-0.48218274
175	0x3fa868f9	1.3157035
176	0xbee20923	-0.44147596
177	0xbefa2c07	-0.48861715
178	0x3fa99bdb	1.3250688
179	0xbee5e17b	-0.4489859
180	0xbefcd0e3	-0.49378118
181	0x3fa915ff	1.3209838
182	0xbeed1e1d	-0.46312037
183	0xbeff83b8	-0.4990518
184	0x3fa91fda	1.3212845
185	0xbef32eb5	-0.47496572
186	0xbf00bf6c	-0.50292087
187	0x3fa8db6d	1.3191963
188	0xbef9761c	-0.48722923
189	0xbf01ab88	-0.5065236
190	0x3fa89a19	1.3172027
191	0xbf001ace	-0.500409
192	0xbf02a60a	-0.51034606
193	0x3fa83c1d	1.3143345
194	0xbf0452be	-0.51688755
195	0xbf035b5a	-0.51311266
196	0x3fa7d269	1.3111087
197	0xbf08d311	-0.5344706
198	0xbf040e22	-0.51584065
199	0x3fa795a3	1.309254
200	0xbf0e3bc8	-0.5555997
201	0xbf0454e7	-0.5169205
202	0x3fa893eb	1.3170141
203	0xbf129c2b	-0.57269543
204	0xbf046fe4	-0.5173323
205	0x3fa8855d	1.3165699
206	0xbf18ddef	-0.59713644
207	0xbf041a14	-0.5160229
208	0x3fa86e3e	1.3158643
209	0xbf1fb539	-0.623859
210	0xbf038514	-0.51374936
211	0x3fa803d8	1.3126173
212	0xbf26e97f	-0.65200037
213	0xbf034a9f	-0.5128574
214	0x3fa75851	1.3073827
215	0xbf2cc5c6	-0.6748928
216	0xbf035ace	-0.5131043
217	0x3fa7473e	1.3068616
218	0xbf333ea4	-0.70017457
219	0xbf03945b	-0.5139825
220	0x3fa73782	1.3063815
221	0xbf38c4e3	-0.72175425
222	0xbf03e168	-0.5151582
223	0x3fa6efad	1.3041893
224	0xbf3ded88	-0.7419057
225	0xbf03ddf5	-0.51510555
226	0x3fa82047	1.313485
227	0xbf4390a2	-0.7639257
228	0xbf04d007	-0.51879925
229	0x3fa73b0e	1.3064897
230	0xbf4740a8	-0.7783303
231	0xbf05bfb0	-0.52245617
232	0x3fa70b9a	1.3050416
233	0xbf4bbcaf	-0.79584783

left_hand_pose f4 [78, 12]
0	0x3e84144a	0.2579673
1	0x3f1acfcb	0.60473317
2	0x3e981c25	0.29708973
3	0x3ed455f0	0.41471815
4	0xbe528f2e	-0.20562431
5	0xbed1ec14	-0.41000426
6	0x3e851b8a	0.25997573
7	0x3d89bb4e	0.06725179
8	0xbf6c8e27	-0.9240441
9	0xbf18dbbc	-0.5971029
10	0x3f448d09	0.767777
11	0xbf9f0da5	-1.2426039
12	0x3e882378	0.2658956
13	0x3f0e671a	0.5562607
14	0x3e9e8c81	0.3096657
15	0x3edd66f0	0.43242598
16	0xbe7b63a0	-0.24549723
17	0xbed4824a	-0.41505653
18	0x3e8f2970	0.27961302
19	0x3d9a19a8	0.07524425
20	0xbf3f7b99	-0.7479797
21	0xbf0dcd3d	-0.55391294
22	0x3f445bb0	0.76702404
23	0xbf956901	-1.167267
24	0x3e9d6fd0	0.3074937
25	0x3eefd9ca	0.46845847
26	0x3ec6c674	0.38823283
27	0x3f1f5261	0.62235075
28	0xbe9719d7	-0.29511902
29	0xbf0037a7	-0.5008492
30	0x3e8bf3d6	0.2733447
31	0x3dc47d0e	0.09594165
32	0xbf1429a8	-0.5787606
33	0xbf0f64a5	-0.56012946
34	0x3f1bdf3c	0.60887504
35	0xbf96d9e9	-1.1785251
36	0x3eabf06d	0.33581868
37	0x3efcf2fe	0.49404138
38	0x3ecce2d1	0.40016797
39	0x3f1f1e50	0.6215563
40	0xbec417ed	-0.38299504
41	0xbf17a744	-0.592396
42	0x3ee812e9	0.45326927
43	0x3d92beec	0.07165322
44	0xbf036aa5	-0.513346
45	0xbf1214c7	-0.57062954
46	0x3f41d61b	0.75717324
47	0xbf9a133b	-1.2037119
48	0x3ec4ad8e	0.38413662
49	0x3ee41938	0.4455049
50	0x3ef3611e	0.47535032
51	0x3f2e116d	0.6799534
52	0xbeba263d	-0.36357298
53	0xbf2cd30a	-0.6750952
54	0x3ebc7443	0.3680745
55	0x3dbbae7c	0.0916414
56	0xbee48121	-0.44629768
57	0xbf0f2741	-0.5591927
58	0x3f39ac9e	0.7252902
59	0xbf8ecb69	-1.1155826
60	0x3e9995db	0.29997143
61	0x3f08fe2d	0.5351284
62	0x3eb5b6ef	0.3549113
63	0x3eed6856	0.46368665
64	0xbe7737f8	-0.24142444
65	0xbf092811	-0.5357676
66	0x3ec3296b	0.38117537
67	0x3d6864eb	0.056736868
68	0xbf101cfb	-0.5629422
69	0xbf1eb68b	-0.6199729
70	0x3f405223	0.7512533
71	0xbfacadcd	-1.349054
72	0x3e8e0e65	0.27745357
73	0x3f1f81a4	0.6230719
74	0x3e9f4ecf	0.31114814
75	0x3ee9b684	0.4564706
76	0xbe8a35c3	-0.26994142
77	0xbf06c467	-0.52643436
78	0x3e5e3c27	0.21702634
79	0x3e0cf403	0.13764958
80	0xbf402b14	-0.7506573
81	0xbf07866d	-0.5293949
82	0x3f2d747f	0.67755884
83	0xbfaf3e03	-1.36908
84	0x3e83875b	0.25689206
85	0x3f1800ac	0.59376025
86	0x3ea57a55	0.32319894
87	0x3efea648	0.49736238
88	0xbeba3c9b	-0.36374363
89	0xbee67037	-0.45007488
90	0x3e9c42b1	0.30519632
91	0x3e2afc74	0.16697866
92	0xbf4d1e66	-0.8012451
93	0xbf026f1b	-0.50950783
94	0x3f335564	0.7005217
95	0xbf92fe2c	-1.1483817
96	0x3e4ded81	0.20110132
97	0x3f18e34c	0.5972183
98	0x3e8c059f	0.2734804
99	0x3f10323c	0.5632665
100	0xbef341e3	-0.47511205
101	0xbed730bd	-0.42029372
102	0x3e8cf485	0.27530304
103	0x3e9893ee	0.2980036
104	0xbf45b7aa	-0.77233374
105	0xbed346ca	-0.41264945
106	0x3f2629e5	0.64907676
107	0xbf7fe9da	-0.99966204
108	0x3e62b309	0.22138609
109	0x3f0cbd4e	0.54976356
110	0x3eb662d3	0.35622272
111	0x3f19948d	0.59992296
112	0xbf094be1	-0.5363141
113	0xbef92e0c	-0.48667943
114	0x3ecef75d	0.40423098
115	0x3e6b7e7b	0.22997467
116	0xbf4e31ff	-0.8054504
117	0xbeb9a625	-0.3625957
118	0x3f598e62	0.84982884
119	0xbf790844	-0.9727824
120	0x3e4897e4	0.19589192
121	0x3f10b794	0.5653012
122	0x3eb1e0b8	0.3474176
123	0x3f065874	0.5247872
124	0xbee66095	-0.4499556
125	0xbef615bd	-0.4806346
126	0x3ee6af27	0.45055506
127	0x3e838721	0.25689033
128	0xbf28611b	-0.6577317
129	0xbedff307	-0.43740103
130	0x3f5ec36a	0.8701693
131	0xbf6c16ec	-0.92222476
132	0x3e14db74	0.1453684
133	0x3f1253fd	0.57159406
134	0x3e86c689	0.26323345
135	0x3ef56f06	0.47936267
136	0xbedc82b5	-0.43068472
137	0xbeaf4997	-0.34235832
138	0x3ee636db	0.44963726
139	0x3e892f95	0.26794115
140	0xbf38d0b8	-0.7219348
141	0xbefc63a0	-0.49294758
142	0x3f1b6a64	0.60709214
143	0xbf62b7b0	-0.88561535
144	0x3e0ad7b8	0.13558853
145	0x3f193d8e	0.5985955
146	0x3e9b7b73	0.30367622
147	0x3ee77b08	0.45211053
148	0xbec0ea28	-0.37678647
149	0xbed3ea1e	-0.41389555
150	0x3ebd1aa5	0.3693439
151	0x3e34d31b	0.17658655
152	0xbf394078	-0.72363997
153	0xbf02d762	-0.511099
154	0x3f38e876	0.7222971
155	0xbf83467e	-1.0255888
156	0x3e15808c	0.14599818
157	0x3f16a49d	0.5884493
158	0x3eb31d1c	0.34983146
159	0x3ef21ff3	0.4729
160	0xbe877ff6	-0.26464814
161	0xbeff2a7e	-0.49837106
162	0x3ea79ae5	0.32735363
163	0x3e27b894	0.16379005
164	0xbf288373	-0.65825576
165	0xbef7d099	-0.48401335
166	0x3f39eed8	0.7263007
167	0xbf8a35b5	-1.079764
168	0x3e0d0403	0.13771062
169	0x3f15d830	0.58533
170	0x3ea4f973	0.32221565
171	0x3ef22d04	0.4729997
172	0xbeb206b0	-0.34770727
173	0xbed4144f	-0.41421744
174	0x3ee24fab	0.44201407
175	0x3e788a15	0.24271424
176	0xbf1e12a3	-0.6174719
177	0xbed33f29	-0.41259125
178	0x3f3d0e7d	0.7385023
179	0xbf671f01	-0.90281683
180	0x3de8059c	0.11329195
181	0x3f1a47d0	0.6026583
182	0x3e9d2253	0.3069025
183	0x3efd932f	0.49526355
184	0xbef2edfb	-0.4744719
185	0xbeefe10f	-0.46851394
186	0x3ee69d53	0.45041904
187	0x3eaa87cb	0.33306727
188	0xbf2b9cdb	-0.6703622
189	0xbecf5b9a	-0.40499574
190	0x3f34980b	0.705445
191	0xbf647306	-0.8923801
192	0x3dd4e474	0.103951365
193	0x3f1c77e7	0.61120456
194	0x3eab5e18	0.33470225
195	0x3f03d69a	0.5149933
196	0xbef1d37f	-0.4723167
197	0xbefabaaa	-0.48970538
198	0x3ec9547f	0.39322278
199	0x3eac0d33	0.3360382
200	0xbf3996b7	-0.724956
201	0xbeb7044f	-0.35745475
202	0x3f36d9be	0.71426
203	0xbf4e0dfc	-0.8049009
204	0x3deea2bb	0.11652132
205	0x3f0a5c8b	0.5404746
206	0x3edef5e4	0.43546975
207	0x3f11d222	0.5696126
208	0xbf189f29	-0.5961786
209	0xbf05e0b0	-0.5229597
210	0x3ecef5c6	0.40421885
211	0x3e59ddd4	0.21276027
212	0xbf244a64	-0.6417601
213	0xbeb6b588	-0.35685372
214	0x3f86c7cb	1.0529722
215	0xbf52053c	-0.8203924
216	0x3dafe855	0.08589236
217	0x3f26e5f6	0.6519464
218	0x3ed26899	0.41095427
219	0x3f151b38	0.5824466
220	0xbedd0a1e	-0.4317178
221	0xbf211067	-0.62915653
222	0x3e753f02	0.23949817
223	0x3e6ffef3	0.23437099
224	0xbf2e67fd	-0.68127424
225	0xbec9fb9b	-0.39449772
226	0x3f46e87e	0.77698505
227	0xbf7ffa83	-0.99991626
228	0x3e157302	0.14594653
229	0x3f17b4e7	0.5926041
230	0x3eec8a0c	0.4619907
231	0x3f18312f	0.5945005
232	0xbed693c6	-0.41909617
233	0xbf39fba2	-0.72649586
234	0x3ebcd8f6	0.36884278
235	0x3e493a4e	0.19651148
236	0xbf4bbb17	-0.7958235
237	0xbef81c2a	-0.48458987
238	0x3f7a7856	0.9783987
239	0xbf850d26	-1.0394638
240	0x3e272e08	0.16326153
241	0x3f065d98	0.5248656
242	0x3edeb0ce	0.43494266
243	0x3f1ce441	0.6128579
244	0xbf0de4c8	-0.5542722
245	0xbf0d9838	-0.5531039
246	0x3ef2802b	0.4736341
247	0x3e1245e3	0.14284472
248	0xbf3a2a4f	-0.7272081
249	0xbf035076	-0.5129465
250	0x3f413df6	0.7548517
251	0xbf72b97d	-0.9481428
252	0x3e67521f	0.2258992
253	0x3f061b14	0.5238507
254	0x3ef9d90a	0.487984
255	0x3f1fffcc	0.6249969

right_hand_pose f4 [78, 12]
0	0xbdb1e4e3	-0.08686235
1	0x3f0881ae	0.53322875
2	0x3f05fd25	0.5233939
3	0x3ec5954f	0.38590476
4	0xbf346e67	-0.7048096
5	0xbf45e146	-0.77296865
6	0x3f33a6e6	0.7017654
7	0x3ebd4b3c	0.36971462
8	0xbf07773e	-0.52916324
9	0xbe896e20	-0.2684183
10	0x3f9460d0	1.1592045
11	0xbee97a47	-0.45601103
12	0xbd5f919d	-0.054582227
13	0x3f02e74a	0.5113417
14	0x3f0584c3	0.52155703
15	0x3ece8652	0.40336853
16	0xbf65962e	-0.8968228
17	0xbf66ddbb	-0.90182084
18	0x3f78d33f	0.97197336
19	0x3ec212e0	0.37905025
20	0xbebd4231	-0.36964563
21	0xbe8d912c	-0.2764982
22	0x3f9ca63f	1.2238234
23	0xbf00da98	-0.5033355
24	0xbdd41981	-0.10356427
25	0x3f147ab8	0.57999754
26	0x3ecbe8fa	0.39826185
27	0x3e9926a6	0.299123
28	0xbf4c5f97	-0.7983336
29	0xbf20552f	-0.6262998
30	0x3f40dec2	0.753399
31	0x3ee95846	0.4557516
32	0xbf00835b	-0.5020043
33	0xbe268bf6	-0.16264328
34	0x3f743eea	0.954085
35	0xbeca8c4b	-0.3956016
36	0xbe25c2d6	-0.16187605
37	0x3f00c5d6	0.50301874
38	0x3ed25578	0.41080832
39	0x3e6d7109	0.2318765
40	0xbf38d506	-0.7220005
41	0xbf1b7297	-0.60721725
42	0x3f572c4b	0.8405196
43	0x3ec606c6	0.38677043
44	0xbead8866	-0.33893126
45	0xbe89b9f5	-0.26899686
46	0x3f372c30	0.715518
47	0xbedc2358	-0.42995715
48	0xbe32593b	-0.17416851
49	0x3f043b0d	0.51652604
50	0x3ee87231	0.4539962
51	0x3e8d84f0	0.27640486
52	0xbf6c9e67	-0.924292
53	0xbf060616	-0.52353036
54	0x3f50e70d	0.81602556
55	0x3ea5f2ea	0.3241189
56	0xbf0255d4	-0.50912213
57	0xbe7cc3f0	-0.24684119
58	0x3f6d4ec8	0.92698336
59	0xbf05ed79	-0.5231548
60	0xbe5c3643	-0.21505074
61	0x3efe3c7f	0.4965553
62	0x3ede52cd	0.43422547
63	0x3e885bdd	0.26632586
64	0xbf58a942	-0.84633267
65	0xbf2034ab	-0.62580365
66	0x3f47e596	0.78084695
67	0x3e9cca04	0.30622876
68	0xbee79918	-0.4523399
69	0xbe626d44	-0.22111994
70	0x3f73c3ef	0.95220846
71	0xbf0491ff	-0.5178527
72	0xbe4a1326	-0.19733867
73	0x3f0dec93	0.5543911
74	0x3f08357d	0.53206617
75	0x3e86170c	0.26189458
76	0xbf55a5b6	-0.8345598
77	0xbf392c7d	-0.7233351
78	0x3f4a3959	0.78993756
79	0x3eab4d61	0.33457473
80	0xbf16b1c4	-0.58865
81	0xbe230863	-0.15921168
82	0x3fc909ed	1.5706154
83	0xbf10737f	-0.56426233
84	0xbe1e7496	-0.15474162
85	0x3f1877ff	0.595581
86	0x3f15afff	0.58471674
87	0x3ebb03b7	0.36526272
88	0xbf6804e6	-0.90632474
89	0xbf83c715	-1.029513
90	0x3f3e9334	0.74443364
91	0x3f064db4	0.52462316
92	0xbf09cee3	-0.5383131
93	0xbb8a14cf	-0.0042139064
94	0x3fce9152	1.6138098
95	0xbec5a9b9	-0.3860605
96	0xbe2aa8f1	-0.16666009
97	0x3f09f021	0.5388203
98	0x3f15bc6d	0.5849064
99	0x3e94d9d7	0.2907245
100	0xbf532289	-0.8247457
101	0xbf73fd7e	-0.95308673
102	0x3f516269	0.81790787
103	0x3f0d7deb	0.5527026
104	0xbef802e1	-0.48439696
105	0xbd350c9b	-0.044201475
106	0x3fa40c00	1.2816162
107	0xbe9963db	-0.29958996
108	0xbdd71b4f	-0.105032556
109	0x3efd1480	0.49429703
110	0x3f2a5adc	0.6654489
111	0x3ecf7423	0.40518293
112	0xbf68779f	-0.9080753
113	0xbf765d58	-0.9623618
114	0x3f314ba3	0.6925604
115	0x3efaa974	0.48957407
116	0xbeea1b2e	-0.4572386
117	0x3c5ffb8a	0.013670811
118	0x3f8bfa03	1.0935673
119	0xbe59dcf6	-0.21275696
120	0xbd040e07	-0.03223994
121	0x3ee64712	0.44976097
122	0x3f1ed953	0.6205036
123	0x3ed5d2c2	0.41762358
124	0xbf558b6e	-0.8341588
125	0xbf9f1eb8	-1.243125
126	0x3f3256b8	0.6966357
127	0x3f31e3dd	0.69488317
128	0xbf2a6ab0	-0.6656904
129	0x3d5c1a74	0.053736165
130	0x3fa01c83	1.2508701
131	0xbe8707a1	-0.26373008
132	0xbc8daa6d	-0.01729318
133	0x3ee2d950	0.4430642
134	0x3f1aa6ab	0.60410565
135	0x3eab6881	0.33478168
136	0xbf20bf04	-0.62791467
137	0xbf8b15cf	-1.086603
138	0x3f0e5770	0.5560217
139	0x3f177a25	0.5917075
140	0xbf38fb0c	-0.7225807
141	0xbd38b6eb	-0.04509632
142	0x3f9459d0	1.1589909
143	0xbf182e9e	-0.5944613
144	0xbc09764b	-0.00839002
145	0x3edbbaa0	0.4291582
146	0x3f02ea55	0.5113881
147	0x3e945430	0.2897048
148	0xbf2ca61b	-0.67440957
149	0xbf846697	-1.0343808
150	0x3f1410e2	0.5783826
151	0x3f208dcd	0.6271637
152	0xbf009ff8	-0.5024409
153	0xbda0c5bd	-0.078502156
154	0x3f52c7c2	0.82336056
155	0xbf09d7b7	-0.5384478
156	0x3c799207	0.01523257
157	0x3eef040d	0.46682778
158	0x3f03086d	0.5118473
159	0x3e487713	0.19576673
160	0xbefe8ffd	-0.4971923
161	0xbf6357ad	-0.8880566
162	0x3ee938c5	0.45551124
163	0x3ee6e4be	0.4509639
164	0xbf092b98	-0.53582144
165	0xbe531ee6	-0.20617256
166	0x3f4f5ad5	0.80997974
167	0xbf5ef2c0	-0.8708916
168	0x3d68bf08	0.056822807
169	0x3ece4aa2	0.40291315
170	0x3eff9623	0.49919233
171	0x3e4f050f	0.20216773
172	0xbf05b3fd	-0.52227765
173	0xbf422734	-0.7584107
174	0x3effb83f	0.49945256
175	0x3ed16401	0.4089661
176	0xbef1505c	-0.47131622
177	0xbebcc2f9	-0.36867502
178	0x3f27e583	0.6558458
179	0xbf5651ff	-0.83718866
180	0x3cdeae70	0.027182788
181	0x3f06c0d4	0.5263798
182	0x3edbb468	0.42911077
183	0x3e6e55ac	0.23274869
184	0xbeff80d4	-0.49902976
185	0xbf401c03	-0.7504274
186	0x3edeba70	0.43501616
187	0x3edab16c	0.42713487
188	0xbeba8f03	-0.36437234
189	0xbe935afc	-0.28780353
190	0x3ec564fa	0.38553602
191	0xbf83faf9	-1.0310966
192	0x3ba8a48f	0.00514657
193	0x3f07d35a	0.5305687
194	0x3eb9a311	0.36257222
195	0x3e311431	0.17292859
196	0xbe886f4b	-0.2664741
197	0xbf472796	-0.7779478
198	0x3e95724c	0.29188764
199	0x3edc6a8f	0.43050048
200	0xbec03da7	-0.37547037
201	0xbe8c7bfe	-0.2743835
202	0x3f00ec3d	0.5036047
203	0xbf8ed0c7	-1.1157464
204	0x3d5b81d7	0.05359062
205	0x3ee844ea	0.45365077
206	0x3ee988b5	0.45612112
207	0x3e97f9ea	0.29682857
208	0xbeba8e95	-0.36436906
209	0xbf6ce330	-0.9253416
210	0x3effc0d6	0.4995181
211	0x3eddd4ce	0.4332642
212	0xbe8857af	-0.26629397
213	0xbecc1829	-0.39862183
214	0x3f4114fe	0.75422657
215	0xbf93ac3c	-1.1536937
216	0x3d907751	0.07054008
217	0x3ed9e00e	0.42553753
218	0x3edfb6d3	0.4369417
219	0x3e8eb0dc	0.27869308
220	0xbee85d2d	-0.45383587
221	0xbf6e3a72	-0.9305793
222	0x3f137ec8	0.5761533
223	0x3ed56dbe	0.4168529
224	0xbe1c8f4a	-0.15289035
225	0xbea6bc23	-0.32565412
226	0x3f4b752f	0.7947568
227	0xbf86b82f	-1.0524958
228	0x3e4cc5fd	0.19997402
229	0x3e8c15f2	0.27360493
230	0x3f063469	0.5242372
231	0x3eb098e7	0.34491655
232	0xbed052ff	-0.4068832
233	0xbf9c8398	-1.2227659
234	0x3f18d277	0.59696144
235	0x3ef2f953	0.47455844
236	0xbe4d8337	-0.20069586
237	0xbe75b662	-0.23995355
238	0x3f9db0e0	1.2319603
239	0xbf82dd95	-1.0223871
240	0x3e2df337	0.1698731
241	0x3eb90d88	0.36143136
242	0x3ee2e065	0.44311824
243	0x3e915f75	0.2839314
244	0xbec43ed4	-0.38329184
245	0xbf7ae647	-0.98007625
246	0x3f1d9cde	0.61567485
247	0x3ecfe86d	0.40607014
248	0xbe648a99	-0.22318496
249	0xbea4e5e5	-0.32206646
250	0x3f69b403	0.912903
251	0xbf879670	-1.0592785
252	0x3e54cd64	0.20781475
253	0x3eb322e4	0.34987557
254	0x3ef56bba	0.4793375
255	0x3e99dd1f	0.30051515

jaw_pose f4 [78, 3]
0	0x3d015964	0.03157939
1	0x39893985	0.00026173532
2	0x3ab5699c	0.0013840678
3	0x39d1f830	0.000400485
4	0xb9544062	-0.0002024188
5	0x3aec7523	0.001804028
6	0xbb8f39a6	-0.004370886
7	0xbb20c3b3	-0.0024530708
8	0x3a48cfae	0.0007660341
9	0xbc3f2cc0	-0.011668384
10	0xbb857267	-0.0040724757
11	0x39a3b59d	0.00031225095
12	0xbcaa87e5	-0.020816753
13	0xbb6c713f	-0.0036078242
14	0x39c4e230	0.00037552556
15	0xbcb789ff	-0.022404669
16	0xbb1c960e	-0.002389315
17	0x3a4fc416	0.00079256424
18	0xbc17012a	-0.009216586
19	0xbbcc5967	-0.0062362435
20	0xba3e8eef	-0.00072692236
21	0xbb96fbce	-0.004607654
22	0xbb65d117	-0.0035067254
23	0x39934897	0.0002809211
24	0xbb738bce	-0.0037162188
25	0xbb8ef0d5	-0.0043622055
26	0x39bbabe6	0.00035795494
27	0x3d209baf	0.03921097
28	0xbb47f0f2	-0.0030508605
29	0xb6e5a81e	-6.8443032e-06
30	0x3d1ed87f	0.038780686
31	0xbb196ba2	-0.0023410101
32	0x39a5aee8	0.00031601568
33	0x3d310edd	0.043227065
34	0x3a415be4	0.00073760585
35	0x3aa5f2a2	0.0012660811
36	0x3cfc3f58	0.030791923
37	0xb9602f98	-0.00021380035
38	0x3a954e02	0.0011391046
39	0x3cf80969	0.030277925
40	0x3a56c83e	0.00081932906
41	0x3aaca6b2	0.0013172238
42	0x3cc5b419	0.024133729
43	0xb9d5662b	-0.00040702647
44	0x3a0fe564	0.0005489199
45	0x3cd8e610	0.02647689
46	0x3ab69af9	0.0013931683
47	0x3a5959ec	0.00082912925
48	0x3c667b35	0.014067461
49	0x3a238c09	0.00062388234
50	0x3a4a4520	0.0007715989
51	0x3c0a8d8e	0.008456601
52	0xb99ec5e1	-0.0003028354
53	0x39d69de7	0.00040934907
54	0xbd26ec84	-0.040752903
55	0x3b5492c8	0.0032436121
56	0x3b10e0a5	0.0022106555
57	0xbd34fc8a	-0.044186153
58	0x3ba69805	0.00508404
59	0x3b21046b	0.0024569284
60	0xbd3f7e3a	-0.04675124
61	0x3b365b0a	0.002782526
62	0x3b0071b5	0.0019599025
63	0xbc2c7c6d	-0.010527712
64	0xb9acc5a4	-0.0003295365
65	0x3995d575	0.00028578533
66	0xbc2ba452	-0.010476189
67	0xba419951	-0.00073852116
68	0x3990066f	0.00027470614
69	0xbc673cd2	-0.014113622
70	0xbb1673bf	-0.0022957174
71	0xb5ef027f	-1.7807614e-06
72	0xbd8b1010	-0.06790173
73	0x3b1a2454	0.0023520188
74	0x3ada9fe3	0.001667973
75	0xbdad21ac	-0.08453688
76	0x3b074247	0.002063887
77	0x3aa969d1	0.0012925213
78	0xbdb86605	-0.09003834
79	0x397b47f1	0.00023964026
80	0x3a52c88a	0.0008040747
81	0xbd6fb8e3	-0.05852593
82	0xbaf3ce11	-0.0018600841
83	0xb97bb7e2	-0.00024005727
84	0xbd650895	-0.055916388
85	0xbaee8c9d	-0.0018199865
86	0xb9a0a75e	-0.00030642276
87	0xbce785b1	-0.028261991
88	0xbab791b3	-0.0014005214
89	0xb9f50497	-0.0004673346
90	0xbcba69e5	-0.022755573
91	0xbacf181b	-0.0015800031
92	0xb9a0f5fd	-0.00030700854
93	0xbc93c8a0	-0.018040001
94	0xbb01c201	-0.0019799473
95	0xb995ef95	-0.00028597997
96	0xbcb7ddd4	-0.022444643
97	0xb9fc3187	-0.00048102086
98	0xb82c6023	-4.109753e-05
99	0xbcab148f	-0.020883827
100	0xbb10f935	-0.0022121195
101	0xb8f0ee44	-0.00011488472
102	0xbccb5127	-0.02481897
103	0xbae5adcc	-0.0017523109
104	0xb8627eb7	-5.400061e-05
105	0xbcdf7ef7	-0.027282221
106	0xba975b4b	-0.0011547593
107	0xb8455a51	-4.7052574e-05
108	0xbc83aa56	-0.016072433
109	0x39a77b7e	0.0003194473
110	0x3a187f89	0.0005817344
111	0xbc62c4ac	-0.013840836
112	0x3a0b3fa3	0.0005311912
113	0x39ea717e	0.00044716516
114	0xbd09b2d8	-0.033617824
115	0x3b0a3063	0.002108597
116	0x3a9865ed	0.0011627056
117	0xbd3ebf88	-0.046569377
118	0xbb10eacb	-0.0022112604
119	0x3951b780	0.00020000152
120	0xbd8b4c19	-0.06801624
121	0xbb2324ee	-0.0024893838
122	0xb74bf173	-1.215596e-05
123	0xbd9f0251	-0.07764114
124	0xb99f8d9e	-0.00030432356
125	0x3a49c579	0.0007696967
126	0xbd66614c	-0.056245133
127	0xbb2d7f0d	-0.0026473433
128	0xb7b17ba9	-2.1157628e-05
129	0xbd2669fb	-0.040628415
130	0xbb047a4d	-0.0020214499
131	0x39a35c3d	0.00031158506
132	0xbd013823	-0.031547677
133	0xbb184880	-0.0023236573
134	0xb938c2dc	-0.00017620198
135	0xbcc8ea14	-0.02452568
136	0xbb262152	-0.002534945
137	0xb9114cf2	-0.00013856942
138	0xbcde712d	-0.027153576
139	0xbb05b4ec	-0.0020402027
140	0xb65eab0c	-3.318014e-06
141	0x3a01b7f0	0.00049483683
142	0xbaf26840	-0.0018494204
143	0xb9c1412c	-0.00036860385
144	0x3cd12f17	0.02553515
145	0xbb8c5d1d	-0.004283561
146	0xba0f299b	-0.0005461217
147	0x3d2c660b	0.042089503
148	0xbb12dc87	-0.0022409277
149	0xb9bcb68c	-0.00035994162
150	0x3d432cd1	0.047650162
151	0xbb334861	-0.0027356374
152	0xba0af0b1	-0.0005300148
153	0x3d949c83	0.07256415
154	0xba91b608	-0.0011116872
155	0xb90ea001	-0.00013601781
156	0x3db9e36e	0.09076582
157	0xbb7c0583	-0.0038455434
158	0xba6aa32a	-0.0008950705
159	0x3dc3dbb1	0.09563387
160	0xb9ee2bf7	-0.00045427654
161	0xb76975d4	-1.3915316e-05
162	0x3d550d2f	0.052014526
163	0x3b2403dd	0.0025026717
164	0x3a91c65a	0.0011121735
165	0xbb8614d3	-0.004091838
166	0x3a3d477d	0.00072204304
167	0x3a932117	0.0011225072
168	0x3cb3d35a	0.021951366
169	0x39c54a52	0.0003763014
170	0x3a849df1	0.0010117871
171	0xbc0b5a37	-0.008505396
172	0xbab2983f	-0.0013625695
173	0x3a951cef	0.0011376421
174	0xbc618d2a	-0.013766566
175	0xbacb5b42	-0.0015514868
176	0x3a77ca8c	0.0009452484
177	0x3c41e8ab	0.0118352575
178	0x3a906a94	0.0011018091
179	0x3aba6cd5	0.0014223108
180	0xbc0b6af5	-0.008509387
181	0x39b245fe	0.00034002954
182	0x3abe71c5	0.0014529756
183	0xbc407e1a	-0.011748815
184	0x3abc7940	0.0014379397
185	0x3aa4a97f	0.0012562721
186	0xbca8a95d	-0.020588571
187	0x3bc01210	0.005861528
188	0x3b42f298	0.0029746648
189	0x3c2cd9e4	0.010549996
190	0xbb7b0769	-0.0038303977
191	0x397c0f57	0.00024038307
192	0xbce6597d	-0.028118843
193	0x3ba33578	0.004980739
194	0x3b2c32cf	0.0026275401
195	0xbd04203b	-0.0322573
196	0x3b3b3415	0.002856498
197	0x3b1422ba	0.0022603706
198	0xbd322852	-0.043495484
199	0x3bd13051	0.0063839336
200	0x3b618804	0.0034413347
201	0x3b8a94d1	0.004229166
202	0x3b55eb63	0.0032641522
203	0x3b10ea44	0.002211229
204	0x3c7faa79	0.015604609
205	0x3a29523f	0.0006459094
206	0x3aaf2d48	0.0013364935
207	0x3c71eda4	0.014766131
208	0xba634feb	-0.00086712715
209	0x3a190da6	0.00058385206
210	0xbc589c4a	-0.013220856
211	0x3a0569a9	0.0005089292
212	0x3a9d5da5	0.0012006058
213	0xbd79c6b1	-0.060980503
214	0xba687f06	-0.00088690256
215	0x3a3782e6	0.00070004014
216	0xbda074d9	-0.07834787
217	0x3b5b4d9a	0.0033463002
218	0x3ab6d241	0.0013948159
219	0xbda36a29	-0.07979233
220	0x3b72f615	0.0037072946
221	0x3af3aa02	0.0018590095
222	0xbdab0527	-0.08350592
223	0x3b89df26	0.0042075096
224	0x3b0718a1	0.0020614045
225	0xbc9cff93	-0.019164836
226	0x398c6bbf	0.00026783158
227	0x3a4469c3	0.00074925664
228	0xbcf97f6e	-0.030456271
229	0x39b269b5	0.00034029564
230	0x3ab3f366	0.0013729155
231	0xbd1eef3f	-0.03880238
232	0xb9a2fd6a	-0.00031087856
233	0x3a98db7e	0.0011662093

leye_pose f4 [78, 3]
0	0x00000000	0.0
1	0x00000000	0.0
2	0x00000000	0.0
3	0x00000000	0.0
4	0x00000000	0.0
5	0x00000000	0.0
6	0x00000000	0.0
7	0x00000000	0.0
8	0x00000000	0.0
9	0x00000000	0.0
10	0x00000000	0.0
11	0x00000000	0.0
12	0x00000000	0.0
13	0x00000000	0.0
14	0x00000000	0.0
15	0x00000000	0.0
16	0x00000000	0.0
17	0x00000000	0.0
18	0x00000000	0.0
19	0x00000000	0.0
20	0x00000000	0.0
21	0x00000000	0.0
22	0x00000000	0.0
23	0x00000000	0.0
24	0x00000000	0.0
25	0x00000000	0.0
26	0x00000000	0.0
27	0x00000000	0.0
28	0x00000000	0.0
29	0x00000000	0.0
30	0x00000000	0.0
31	0x00000000	0.0
32	0x00000000	0.0
33	0x00000000	0.0
34	0x00000000	0.0
35	0x00000000	0.0
36	0x00000000	0.0
37	0x00000000	0.0
38	0x00000000	0.0
39	0x00000000	0.0
40	0x00000000	0.0
41	0x00000000	0.0
42	0x00000000	0.0
43	0x00000000	0.0
44	0x00000000	0.0
45	0x00000000	0.0
46	0x00000000	0.0
47	0x00000000	0.0
48	0x00000000	0.0
49	0x00000000	0.0
50	0x00000000	0.0
51	0x00000000	0.0
52	0x00000000	0.0
53	0x00000000	0.0
54	0x00000000	0.0
55	0x00000000	0.0
56	0x00000000	0.0
57	0x00000000	0.0
58	0x00000000	0.0
59	0x00000000	0.0
60	0x00000000	0.0
61	0x00000000	0.0
62	0x00000000	0.0
63	0x00000000	0.0
64	0x00000000	0.0
65	0x00000000	0.0
66	0x00000000	0.0
67	0x00000000	0.0
68	0x00000000	0.0
69	0x00000000	0.0
70	0x00000000	0.0
71	0x00000000	0.0
72	0x00000000	0.0
73	0x00000000	0.0
74	0x00000000	0.0
75	0x00000000	0.0
76	0x00000000	0.0
77	0x00000000	0.0
78	0x00000000	0.0
79	0x00000000	0.0
80	0x00000000	0.0
81	0x00000000	0.0
82	0x00000000	0.0
83	0x00000000	0.0
84	0x00000000	0.0
85	0x00000000	0.0
86	0x00000000	0.0
87	0x00000000	0.0
88	0x00000000	0.0
89	0x00000000	0.0
90	0x00000000	0.0
91	0x00000000	0.0
92	0x00000000	0.0
93	0x00000000	0.0
94	0x00000000	0.0
95	0x00000000	0.0
96	0x00000000	0.0
97	0x00000000	0.0
98	0x00000000	0.0
99	0x00000000	0.0
100	0x00000000	0.0
101	0x00000000	0.0
102	0x00000000	0.0
103	0x00000000	0.0
104	0x00000000	0.0
105	0x00000000	0.0
106	0x00000000	0.0
107	0x00000000	0.0
108	0x00000000	0.0
109	0x00000000	0.0
110	0x00000000	0.0
111	0x00000000	0.0
112	0x00000000	0.0
113	0x00000000	0.0
114	0x00000000	0.0
115	0x00000000	0.0
116	0x00000000	0.0
117	0x00000000	0.0
118	0x00000000	0.0
119	0x00000000	0.0
120	0x00000000	0.0
121	0x00000000	0.0
122	0x00000000	0.0
123	0x00000000	0.0
124	0x00000000	0.0
125	0x00000000	0.0
126	0x00000000	0.0
127	0x00000000	0.0
128	0x00000000	0.0
129	0x00000000	0.0
130	0x00000000	0.0
131	0x00000000	0.0
132	0x00000000	0.0
133	0x00000000	0.0
134	0x00000000	0.0
135	0x00000000	0.0
136	0x00000000	0.0
137	0x00000000	0.0
138	0x00000000	0.0
139	0x00000000	0.0
140	0x00000000	0.0
141	0x00000000	0.0
142	0x00000000	0.0
143	0x00000000	0.0
144	0x00000000	0.0
145	0x00000000	0.0
146	0x00000000	0.0
147	0x00000000	0.0
148	0x00000000	0.0
149	0x00000000	0.0
150	0x00000000	0.0
151	0x00000000	0.0
152	0x00000000	0.0
153	0x00000000	0.0
154	0x00000000	0.0
155	0x00000000	0.0
156	0x00000000	0.0
157	0x00000000	0.0
158	0x00000000	0.0
159	0x00000000	0.0
160	0x00000000	0.0
161	0x00000000	0.0
162	0x00000000	0.0
163	0x00000000	0.0
164	0x00000000	0.0
165	0x00000000	0.0
166	0x00000000	0.0
167	0x00000000	0.0
168	0x00000000	0.0
169	0x00000000	0.0
170	0x00000000	0.0
171	0x00000000	0.0
172	0x00000000	0.0
173	0x00000000	0.0
174	0x00000000	0.0
175	0x00000000	0.0
176	0x00000000	0.0
177	0x00000000	0.0
178	0x00000000	0.0
179	0x00000000	0.0
180	0x00000000	0.0
181	0x00000000	0.0
182	0x00000000	0.0
183	0x00000000	0.0
184	0x00000000	0.0
185	0x00000000	0.0
186	0x00000000	0.0
187	0x00000000	0.0
188	0x00000000	0.0
189	0x00000000	0.0
190	0x00000000	0.0
191	0x00000000	0.0
192	0x00000000	0.0
193	0x00000000	0.0
194	0x00000000	0.0
195	0x00000000	0.0
196	0x00000000	0.0
197	0x00000000	0.0
198	0x00000000	0.0
199	0x00000000	0.0
200	0x00000000	0.0
201	0x00000000	0.0
202	0x00000000	0.0
203	0x00000000	0.0
204	0x00000000	0.0
205	0x00000000	0.0
206	0x00000000	0.0
207	0x00000000	0.0
208	0x00000000	0.0
209	0x00000000	0.0
210	0x00000000	0.0
211	0x00000000	0.0
212	0x00000000	0.0
213	0x00000000	0.0
214	0x00000000	0.0
215	0x00000000	0.0
216	0x00000000	0.0
217	0x00000000	0.0
218	0x00000000	0.0
219	0x00000000	0.0
220	0x00000000	0.0
221	0x00000000	0.0
222	0x00000000	0.0
223	0x00000000	0.0
224	0x00000000	0.0
225	0x00000000	0.0
226	0x00000000	0.0
227	0x00000000	0.0
228	0x00000000	0.0
229	0x00000000	0.0
230	0x00000000	0.0
231	0x00000000	0.0
232	0x00000000	0.0
233	0x00000000	0.0

reye_pose f4 [78, 3]
0	0x00000000	0.0
1	0x00000000	0.0
2	0x00000000	0.0
3	0x00000000	0.0
4	0x00000000	0.0
5	0x00000000	0.0
6	0x00000000	0.0
7	0x00000000	0.0
8	0x00000000	0.0
9	0x00000000	0.0
10	0x00000000	0.0
11	0x00000000	0.0
12	0x00000000	0.0
13	0x00000000	0.0
14	0x00000000	0.0
15	0x00000000	0.0
16	0x00000000	0.0
17	0x00000000	0.0
18	0x00000000	0.0
19	0x00000000	0.0
20	0x00000000	0.0
21	0x00000000	0.0
22	0x00000000	0.0
23	0x00000000	0.0
24	0x00000000	0.0
25	0x00000000	0.0
26	0x00000000	0.0
27	0x00000000	0.0
28	0x00000000	0.0
29	0x00000000	0.0
30	0x00000000	0.0
31	0x00000000	0.0
32	0x00000000	0.0
33	0x00000000	0.0
34	0x00000000	0.0
35	0x00000000	0.0
36	0x00000000	0.0
37	0x00000000	0.0
38	0x00000000	0.0
39	0x00000000	0.0
40	0x00000000	0.0
41	0x00000000	0.0
42	0x00000000	0.0
43	0x00000000	0.0
44	0x00000000	0.0
45	0x00000000	0.0
46	0x00000000	0.0
47	0x00000000	0.0
48	0x00000000	0.0
49	0x00000000	0.0
50	0x00000000	0.0
51	0x00000000	0.0
52	0x00000000	0.0
53	0x00000000	0.0
54	0x00000000	0.0
55	0x00000000	0.0
56	0x00000000	0.0
57	0x00000000	0.0
58	0x00000000	0.0
59	0x00000000	0.0
60	0x00000000	0.0
61	0x00000000	0.0
62	0x00000000	0.0
63	0x00000000	0.0
64	0x00000000	0.0
65	0x00000000	0.0
66	0x00000000	0.0
67	0x00000000	0.0
68	0x00000000	0.0
69	0x00000000	0.0
70	0x00000000	0.0
71	0x00000000	0.0
72	0x00000000	0.0
73	0x00000000	0.0
74	0x00000000	0.0
75	0x00000000	0.0
76	0x00000000	0.0
77	0x00000000	0.0
78	0x00000000	0.0
79	0x00000000	0.0
80	0x00000000	0.0
81	0x00000000	0.0
82	0x00000000	0.0
83	0x00000000	0.0
84	0x00000000	0.0
85	0x00000000	0.0
86	0x00000000	0.0
87	0x00000000	0.0
88	0x00000000	0.0
89	0x00000000	0.0
90	0x00000000	0.0
91	0x00000000	0.0
92	0x00000000	0.0
93	0x00000000	0.0
94	0x00000000	0.0
95	0x00000000	0.0
96	0x00000000	0.0
97	0x00000000	0.0
98	0x00000000	0.0
99	0x00000000	0.0
100	0x00000000	0.0
101	0x00000000	0.0
102	0x00000000	0.0
103	0x00000000	0.0
104	0x00000000	0.0
105	0x00000000	0.0
106	0x00000000	0.0
107	0x00000000	0.0
108	0x00000000	0.0
109	0x00000000	0.0
110	0x00000000	0.0
111	0x00000000	0.0
112	0x00000000	0.0
113	0x00000000	0.0
114	0x00000000	0.0
115	0x00000000	0.0
116	0x00000000	0.0
117	0x00000000	0.0
118	0x00000000	0.0
119	0x00000000	0.0
120	0x00000000	0.0
121	0x00000000	0.0
122	0x00000000	0.0
123	0x00000000	0.0
124	0x00000000	0.0
125	0x00000000	0.0
126	0x00000000	0.0
127	0x00000000	0.0
128	0x00000000	0.0
129	0x00000000	0.0
130	0x00000000	0.0
131	0x00000000	0.0
132	0x00000000	0.0
133	0x00000000	0.0
134	0x00000000	0.0
135	0x00000000	0.0
136	0x00000000	0.0
137	0x00000000	0.0
138	0x00000000	0.0
139	0x00000000	0.0
140	0x00000000	0.0
141	0x00000000	0.0
142	0x00000000	0.0
143	0x00000000	0.0
144	0x00000000	0.0
145	0x00000000	0.0
146	0x00000000	0.0
147	0x00000000	0.0
148	0x00000000	0.0
149	0x00000000	0.0
150	0x00000000	0.0
151	0x00000000	0.0
152	0x00000000	0.0
153	0x00000000	0.0
154	0x00000000	0.0
155	0x00000000	0.0
156	0x00000000	0.0
157	0x00000000	0.0
158	0x00000000	0.0
159	0x00000000	0.0
160	0x00000000	0.0
161	0x00000000	0.0
162	0x00000000	0.0
163	0x00000000	0.0
164	0x00000000	0.0
165	0x00000000	0.0
166	0x00000000	0.0
167	0x00000000	0.0
168	0x00000000	0.0
169	0x00000000	0.0
170	0x00000000	0.0
171	0x00000000	0.0
172	0x00000000	0.0
173	0x00000000	0.0
174	0x00000000	0.0
175	0x00000000	0.0
176	0x00000000	0.0
177	0x00000000	0.0
178	0x00000000	0.0
179	0x00000000	0.0
180	0x00000000	0.0
181	0x00000000	0.0
182	0x00000000	0.0
183	0x00000000	0.0
184	0x00000000	0.0
185	0x00000000	0.0
186	0x00000000	0.0
187	0x00000000	0.0
188	0x00000000	0.0
189	0x00000000	0.0
190	0x00000000	0.0
191	0x00000000	0.0
192	0x00000000	0.0
193	0x00000000	0.0
194	0x00000000	0.0
195	0x00000000	0.0
196	0x00000000	0.0
197	0x00000000	0.0
198	0x00000000	0.0
199	0x00000000	0.0
200	0x00000000	0.0
201	0x00000000	0.0
202	0x00000000	0.0
203	0x00000000	0.0
204	0x00000000	0.0
205	0x00000000	0.0
206	0x00000000	0.0
207	0x00000000	0.0
208	0x00000000	0.0
209	0x00000000	0.0
210	0x00000000	0.0
211	0x00000000	0.0
212	0x00000000	0.0
213	0x00000000	0.0
214	0x00000000	0.0
215	0x00000000	0.0
216	0x00000000	0.0
217	0x00000000	0.0
218	0x00000000	0.0
219	0x00000000	0.0
220	0x00000000	0.0
221	0x00000000	0.0
222	0x00000000	0.0
223	0x00000000	0.0
224	0x00000000	0.0
225	0x00000000	0.0
226	0x00000000	0.0
227	0x00000000	0.0
228	0x00000000	0.0
229	0x00000000	0.0
230	0x00000000	0.0
231	0x00000000	0.0
232	0x00000000	0.0
233	0x00000000	0.0
