test_dataset/gait_809/20250819_c2_a4_Take1/split_subjects/0/fit-smplx/smplx-params.npz (npz, 79290 bytes, 10 tensors)

global_orient f4 [156, 3]
0	0x3d90ba08	0.07066733
1	0xc036d7d9	-2.8569243
2	0xbe912937	-0.28351757
3	0x3da7a655	0.08186022
4	0xc0379fab	-2.8691204
5	0xbe87b654	-0.26506293
6	0x3da88f17	0.08230417
7	0xc0377d8b	-2.8670375
8	0xbe7f16aa	-0.2491099
9	0x3db99276	0.09061138
10	0xc0374f25	-2.8642056
11	0xbe755754	-0.23959094
12	0x3dcf1c23	0.101127885
13	0xc036f0db	-2.8584507
14	0xbe6c2e30	-0.23064494
15	0x3dd562bb	0.10419222
16	0xc035f30d	-2.8429596
17	0xbe66f908	-0.22555935
18	0x3ddfa498	0.10920066
19	0xc034d28f	-2.8253515
20	0xbe594220	-0.21216631
21	0x3ddfbb50	0.10924399
22	0xc0346dbe	-2.8191981
23	0xbe49b01f	-0.19696091
24	0x3de00c7c	0.10939881
25	0xc033b16b	-2.8077037
26	0xbe3e40f1	-0.1857946
27	0x3ddf8a5b	0.10915061
28	0xc0330230	-2.7970085
29	0xbe3669c8	-0.1781379
30	0x3dda120b	0.10647973
31	0xc0350b97	-2.8288324
32	0xbe2e5a01	-0.17026521
33	0x3de33d91	0.11095727
34	0xc037986a	-2.8686776
35	0xbe24adb2	-0.16081885
36	0x3deb7526	0.11496954
37	0xc03925f7	-2.8929422
38	0xbe1b2c67	-0.15153657
39	0x3ddd210d	0.107973196
40	0xc0383785	-2.8783886
41	0xbdecbb84	-0.11559203
42	0x3dc2b56a	0.09507258
43	0xc0372a25	-2.8619473
44	0xbdc60142	-0.09668209
45	0x3da6c9e4	0.08143976
46	0xc037db94	-2.872777
47	0xbd9a7637	-0.07542079
48	0x3d8e269a	0.069409564
49	0xc03ac3df	-2.918205
50	0xbd968a00	-0.0735054
51	0x3d9794b0	0.07401407
52	0xc03db770	-2.9643211
53	0xbd81939c	-0.063269824
54	0x3d8b127e	0.067906365
55	0xc040348b	-3.003207
56	0xbd9fac0e	-0.07796489
57	0x3d68964d	0.056783963
58	0xc040f6b1	-3.0150568
59	0xbdb4489b	-0.08802911
60	0x3d455bb9	0.048183177
61	0xc041a0bc	-3.0254354
62	0xbdca3c95	-0.09874836
63	0x3d218e41	0.039442305
64	0xc042668f	-3.0375097
65	0xbdd0625a	-0.10175009
66	0x3d475c31	0.048671905
67	0xc0435135	-3.0518315
68	0xbdc4815f	-0.09594988
69	0x3d5dc13c	0.05413936
70	0xc042cfa7	-3.043924
71	0xbdc986cf	-0.09840166
72	0x3d42a2ce	0.047518544
73	0xc0412b86	-3.0182815
74	0xbde48320	-0.111578226
75	0x3d4dcfbd	0.050246943
76	0xc03fa226	-2.9942718
77	0xbdf14086	-0.11779885
78	0x3d76c9fd	0.060251225
79	0xc03ece0c	-2.981326
80	0xbdfdf99f	-0.12401127
81	0x3d9699f8	0.07353586
82	0xc03d6673	-2.959378
83	0xbdff11aa	-0.12454541
84	0x3db1453b	0.08655783
85	0xc03c8d06	-2.9461074
86	0xbdeb7b98	-0.11498183
87	0x3d9d079c	0.07667467
88	0xc0368b99	-2.8522704
89	0xbde42b53	-0.11141076
90	0x3d9b9467	0.07596665
91	0xc031d7d3	-2.7787979
92	0xbdd20191	-0.10254205
93	0x3dab4532	0.08362807
94	0xc02e84e7	-2.7268617
95	0xbda9f9f8	-0.08299631
96	0x3deb1953	0.114794396
97	0xc02f9e51	-2.7440379
98	0xbd45f38b	-0.048327964
99	0x3df335f6	0.118755266
100	0xc028c75a	-2.6371675
101	0xbd32940e	-0.043598227
102	0x3de85d83	0.11345961
103	0xc0261a15	-2.595342
104	0xbd2d7812	-0.042350836
105	0x3db46ac1	0.08809424
106	0xc0230a68	-2.5475101
107	0xbd60f20f	-0.054918345
108	0x3d29aac3	0.041422617
109	0xc0215b13	-2.5211837
110	0xbd88efad	-0.066863395
111	0x3abdfccb	0.0014494894
112	0xc0205314	-2.5050707
113	0xbd98febf	-0.07470464
114	0xbcabc40b	-0.020967504
115	0xc01ff460	-2.4992905
116	0xbda4e893	-0.080521725
117	0xbd6fc88e	-0.058540873
118	0xc021991c	-2.52497
119	0xbdba58ed	-0.090989925
120	0xbd500d00	-0.050793648
121	0xc0211a97	-2.517248
122	0xbdb50e9f	-0.088406794
123	0xbd48bddc	-0.04900919
124	0xc0233d0e	-2.5506015
125	0xbda95eeb	-0.08270057
126	0xbd29bda6	-0.04144063
127	0xc0267aea	-2.601252
128	0xbda0ae3d	-0.07845733
129	0xbd1b0909	-0.037850413
130	0xc0299917	-2.6499689
131	0xbd9363ff	-0.07196807
132	0xbd3d2e50	-0.046186745
133	0xc02d3387	-2.70627
134	0xbd8862b4	-0.06659451
135	0xbd5e5ea6	-0.054289483
136	0xc0333a9b	-2.800452
137	0xbd7ea565	-0.06216945
138	0xbd6b2c63	-0.057415377
139	0xc037ef3b	-2.8739765
140	0xbd7d7715	-0.061881144
141	0xbd679a58	-0.056543678
142	0xc03cceb4	-2.9501162
143	0xbd849fc8	-0.06475788
144	0xbd86bb25	-0.06578664
145	0xc03ba1e5	-2.9317563
146	0xbd24f62b	-0.040273827
147	0xbd85a95d	-0.06526444
148	0xc03e90e2	-2.977593
149	0xbd395579	-0.04524753
150	0xbd8e2df4	-0.069423586
151	0xc03feaac	-2.9986982
152	0xbd7fa170	-0.06240982
153	0xbda08cb9	-0.07839341
154	0xc03ef51e	-2.9837108
155	0xbdd986bd	-0.106214024
156	0xbd964506	-0.07337384
157	0xc03ca758	-2.9477139
158	0xbe0ff4eb	-0.14058273
159	0xbd5589b4	-0.052133277
160	0xc03eed59	-2.9832366
161	0xbe3d7358	-0.18501031
162	0xbc9fef93	-0.019523418
163	0xc04089ee	-3.0084186
164	0xbe5d01f8	-0.21582782
165	0x3c0c08d4	0.008547027
166	0xc0415b5f	-3.0212018
167	0xbe736087	-0.23767291
168	0x3d35f05c	0.044418678
169	0xc04169b3	-3.0220764
170	0xbe830a5c	-0.2559384
171	0x3d2f4572	0.042790838
172	0xc04109b8	-3.0162182
173	0xbe840034	-0.25781405
174	0x3d552d07	0.052044895
175	0xc03e6114	-2.9746752
176	0xbe8306e9	-0.2559121
177	0x3d808a7c	0.06276414
178	0xc03a6236	-2.9122443
179	0xbe7a09a4	-0.2441774
180	0x3dfaae48	0.12240273
181	0xc038f6e2	-2.8900685
182	0xbe683868	-0.22677767
183	0x3e24c2b3	0.16089897
184	0xc03827db	-2.8774326
185	0xbe58f076	-0.21185479
186	0x3e4714ae	0.19441482
187	0xc036df70	-2.8573875
188	0xbe47982e	-0.19491646
189	0x3e309f1e	0.17248198
190	0xc032e613	-2.7952926
191	0xbe4241f3	-0.1897047
192	0x3e2cb934	0.16867524
193	0xc03065dc	-2.756217
194	0xbe30de79	-0.17272367
195	0x3e2fc039	0.17163171
196	0xc02dd741	-2.716263
197	0xbe248609	-0.16066755
198	0x3e1de71b	0.15420191
199	0xc02cdedb	-2.701102
200	0xbe236f3f	-0.15960406
201	0x3e09a00a	0.13439956
202	0xc02ade11	-2.6698039
203	0xbe2b98c5	-0.16757496
204	0x3e1d4848	0.15359604
205	0xc02aed00	-2.6707153
206	0xbe2f638b	-0.17127816
207	0x3e1daaea	0.1539723
208	0xc02a6a41	-2.6627352
209	0xbe366ba0	-0.17814493
210	0x3e187702	0.14889148
211	0xc02aa7dc	-2.6664953
212	0xbe3c6e8b	-0.18401544
213	0x3e113676	0.14180931
214	0xc02b9663	-2.6810539
215	0xbe418d71	-0.18901612
216	0x3e04252e	0.12904808
217	0xc02c6655	-2.6937459
218	0xbe48f829	-0.19625916
219	0x3de04e74	0.10952464
220	0xc02c6518	-2.6936703
221	0xbe50e78f	-0.20400833
222	0x3dac947d	0.084267594
223	0xc02b88a6	-2.6802154
224	0xbe4ed168	-0.2019707
225	0x3d87b372	0.06626023
226	0xc02a946d	-2.6653092
227	0xbe446973	-0.1918085
228	0x3d27afb5	0.04093905
229	0xc0295f74	-2.646451
230	0xbe37b361	-0.17939521
231	0xbbb94f65	-0.0056552165
232	0xc025ddb4	-2.5916567
233	0xbe29dc65	-0.1658798
234	0x3c1afd9b	0.009459878
235	0xc0263b3a	-2.597365
236	0xbe1fa569	-0.15590443
237	0x3bcabd34	0.0061871056
238	0xc026b307	-2.604677
239	0xbe1ae496	-0.15126261
240	0x3bc73433	0.0060792207
241	0xc0299c1b	-2.650153
242	0xbe18bae1	-0.14915039
243	0x3b69f751	0.003570039
244	0xc02bd9ef	-2.6851766
245	0xbe127834	-0.14303666
246	0xba65fe4a	-0.0008773549
247	0xc02f8403	-2.7424324
248	0xbe123ced	-0.14281054
249	0xbbc2b52b	-0.005942007
250	0xc03368a5	-2.803262
251	0xbe12b4d6	-0.14326796
252	0xbb26a581	-0.0025428238
253	0xc0369b90	-2.8532448
254	0xbe0e6e04	-0.13909155
255	0xbbb63704	-0.0055607576

body_pose f4 [156, 63]
0	0xbd69911e	-0.05702316
1	0xbd4a9549	-0.049458776
2	0x3e13cab1	0.1443279
3	0xbe9aa330	-0.30202627
4	0x3c50f593	0.012753862
5	0x3ce31b33	0.02772293
6	0x3e3c9659	0.18416728
7	0xbd477047	-0.04869106
8	0x3de9e55d	0.11420701
9	0x3f36ccc9	0.7140623
10	0xbd74560e	-0.05965238
11	0x3dfb2fe1	0.122649916
12	0x3f58ee1a	0.84738314
13	0xbd4715f7	-0.04860493
14	0x3c62c67b	0.013841267
15	0xbc2c9bc1	-0.0105351815
16	0xbd2211dd	-0.039567817
17	0xbb9b7089	-0.00474364
18	0xbedc6061	-0.4304228
19	0x3e41b7f0	0.18917823
20	0xbc72c9bc	-0.014818605
21	0xbef12bf8	-0.47103858
22	0xbe32e565	-0.1747032
23	0x3f116162	0.5678922
24	0x3d4faeb6	0.050703727
25	0xbce842e0	-0.028352201
26	0x3d442a9b	0.047892194
27	0x37737e95	1.4513401e-05
28	0x377d72a1	1.5106664e-05
29	0x37893fb4	1.6361337e-05
30	0xb784e9ec	-1.5844555e-05
31	0x37861d1e	1.5987604e-05
32	0x3781e742	1.5485686e-05
33	0xbe1cbca5	-0.15306337
34	0x3ddc1953	0.10747018
35	0x3d8f0729	0.069837876
36	0xbcdb1f52	-0.026748333
37	0xbd2da005	-0.042388935
38	0xbe9cc562	-0.3061934
39	0x3bace9d7	0.0052768993
40	0xbe10cb28	-0.14139998
41	0x3e9d70ec	0.30750215
42	0xbe45ce7b	-0.19317047
43	0x3dce6807	0.100784354
44	0xbbf21395	-0.0073875883
45	0x3e5b61dd	0.2142405
46	0xbee5a7ae	-0.44854492
47	0xbf57d24c	-0.8430526
48	0x3dcf814b	0.101320826
49	0xbd4d43a2	-0.050113328
50	0x3f60ab3b	0.87761277
51	0xbd87dc51	-0.06633819
52	0xbfcf7caa	-1.620992
53	0xbf069412	-0.5256969
54	0xbe816c95	-0.25278154
55	0x3fe1c886	1.763932
56	0x3eef593f	0.46747777
57	0xbe189c8b	-0.14903466
58	0x3cfdc933	0.030979728
59	0x3e8cb4ed	0.27481785
60	0xbe56c06c	-0.2097184
61	0xbd741280	-0.059587955
62	0xbe3654d5	-0.17805798
63	0xbd92b9d1	-0.07164348
64	0xbd84bf0c	-0.06481752
65	0x3e219ec4	0.1578322
66	0xbea25b15	-0.31710115
67	0x3d0ddec0	0.03463626
68	0x3cd8021d	0.026368195
69	0x3e31717a	0.17328444
70	0xbd53e503	-0.051732074
71	0x3ddef9fa	0.10887523
72	0x3f3c2b6f	0.73503774
73	0xbd34f4e9	-0.044178877
74	0x3de6211c	0.11236784
75	0x3f5c043f	0.8594398
76	0xbe1878de	-0.14889857
77	0xbc6f8a74	-0.014620412
78	0xbc3ef99a	-0.011656189
79	0xbd3d674a	-0.046241082
80	0xbc9d158a	-0.01917531
81	0xbedd41a1	-0.43214133
82	0x3e3f5add	0.18687005
83	0xbd20d2e8	-0.039263636
84	0xbeeddc9c	-0.46457374
85	0xbd9ff24e	-0.07809888
86	0x3f0748ab	0.5284526
87	0x3d8ca841	0.068680294
88	0xbd0ba069	-0.034088526
89	0x3da755a0	0.081706285
90	0x37717aaa	1.4393279e-05
91	0xb7841f0a	-1.575008e-05
92	0xb76fe944	-1.42998215e-05
93	0xb7866778	-1.6022226e-05
94	0xb76b4cca	-1.402497e-05
95	0x3785fe48	1.5973244e-05
96	0xbe3ad3a9	-0.18244804
97	0x3e0bd0e9	0.13653912
98	0x3d5a0b03	0.053233158
99	0x3b186c10	0.002325777
100	0xbd783335	-0.06059571
101	0xbea8b729	-0.3295224
102	0xbd2900ac	-0.041260406
103	0xbe24f4c0	-0.1610899
104	0x3e91b74d	0.2846016
105	0xbe49bb7d	-0.19700427
106	0x3dbb5069	0.091461964
107	0xbc1ef5ce	-0.009702159
108	0x3e651203	0.22370152
109	0xbedc601c	-0.43042076
110	0xbf6aeecf	-0.91770643
111	0x3ca67363	0.020318693
112	0xbdd2d9cf	-0.1029545
113	0x3f5594af	0.8343
114	0xbd4d66b2	-0.050146766
115	0xbfd522c3	-1.6651233
116	0xbea2281c	-0.31671226
117	0xbe71fdf7	-0.23632036
118	0x3fd9d860	1.7019157
119	0x3f263ea0	0.6493931
120	0xbe3b4583	-0.18288235
121	0x3d820d6f	0.063502185
122	0x3dadd8b1	0.08488596
123	0xbda2bde6	-0.079463765
124	0x3cb4389c	0.02199965
125	0xbe2c0e66	-0.16802368
126	0xbda76e8f	-0.08175384
127	0xbd4f3451	-0.050587002
128	0x3e2fddd8	0.1717447
129	0xbea67ed1	-0.32518628
130	0x3d268343	0.040652525
131	0x3d1f44e9	0.038884077
132	0x3e264bfe	0.16239926
133	0xbd237257	-0.039903965
134	0x3de0e021	0.10980249
135	0x3f3d1daa	0.7387339
136	0xbd9e145b	-0.07718726
137	0x3dd1cb50	0.10243857
138	0x3f5dccde	0.8664073
139	0xbd83b9f1	-0.0643195
140	0x3cd3c5af	0.025851099
141	0xbc9df80c	-0.019283317
142	0xbd8585da	-0.06519671
143	0xbd308f6d	-0.04310553
144	0xbee2f323	-0.44326124
145	0x3e59dfa3	0.21276717
146	0x3c9fde69	0.019515233
147	0xbefc836a	-0.4931901
148	0xbe4e6b3e	-0.20158097
149	0x3f2d4dfb	0.67697114
150	0x3dab1b4e	0.08354817
151	0xbd58392b	-0.052788895
152	0x3db489cc	0.08815345
153	0xb78911ce	-1.6339964e-05
154	0x37801b2f	1.5271447e-05
155	0xb7737f77	-1.4513606e-05
156	0xb782f639	-1.5611864e-05
157	0x37853a7c	1.588207e-05
158	0xb77dff3f	-1.5139404e-05
159	0xbe5108cc	-0.20413512
160	0x3e0ad058	0.1355604
161	0x3d8e8c68	0.06960374
162	0x3cc79a69	0.02436562
163	0xbd41d8dc	-0.047325954
164	0xbe99c041	-0.3002949
165	0xbd58a7ba	-0.05289433
166	0xbe2f7f48	-0.17138398
167	0x3e89fb86	0.2694971
168	0xbe3f1d7c	-0.18663591
169	0x3de25d3a	0.11052938
170	0xbc54bb15	-0.012984057
171	0x3e603227	0.21894132
172	0xbee85fcf	-0.45385596
173	0xbf689fea	-0.9086901
174	0x3c344576	0.011002889
175	0xbdf3dd42	-0.11907436
176	0x3f613e94	0.8798611
177	0xbd320426	-0.043460988
178	0xbfd76663	-1.6828121
179	0xbe98d20a	-0.29847747
180	0xbe8032d2	-0.25038773
181	0x3fd9fb85	1.7029883
182	0x3f27946f	0.65460867
183	0xbe5969e1	-0.21231796
184	0x3d2e9997	0.042626943
185	0x3ca85d53	0.020552313
186	0xbcfaa7ec	-0.03059765
187	0x3b8d729f	0.0043166424
188	0xbe093a07	-0.13401042
189	0xbd9da74c	-0.07697925
190	0xbd4c2a0b	-0.049844783
191	0x3e3de999	0.18546142
192	0xbea58bb5	-0.3233315
193	0x3d2e81f1	0.04260439
194	0x3d49c354	0.049258545
195	0x3e1f5b88	0.1556226
196	0xbca096f2	-0.019603226
197	0x3df198a2	0.117966905
198	0x3f3942c3	0.72367495
199	0xbd84de91	-0.06487764
200	0x3dccfa57	0.10008686
201	0x3f5c0ba6	0.85955274
202	0xbd57502f	-0.052566703
203	0x3d067a4c	0.032831475
204	0xbc5c4752	-0.013444738
205	0xbd9b24c0	-0.07575369
206	0xbcca5122	-0.02469689
207	0xbee1b005	-0.44079605
208	0x3e4dbf0f	0.20092414
209	0x3cbf1c09	0.023328798
210	0xbf0212b7	-0.50809807
211	0xbe5a2157	-0.2130178
212	0x3f2e3fb6	0.68065965
213	0x3da6f94c	0.08153018
214	0xbdaee6b6	-0.08540098
215	0x3da03eb1	0.078244574
216	0xb788f936	-1.6328511e-05
217	0x377e987b	1.5175082e-05
218	0x3786c7d2	1.6067093e-05
219	0xb783c143	-1.5706411e-05
220	0xb777c052	-1.4767125e-05
221	0x378145ec	1.5410558e-05
222	0xbe55a23e	-0.20862672
223	0x3e1497ab	0.14510982
224	0x3d2de4f9	0.042454693
225	0x3cc782fe	0.024354454
226	0xbd58c071	-0.0529179
227	0xbea18153	-0.3154398
228	0xbd955327	-0.07291251
229	0xbe4bbb28	-0.19895613
230	0x3e88d623	0.26725873
231	0xbe4cc28b	-0.19996087
232	0x3def76b8	0.11692566
233	0x3b4bc5ac	0.0031093163
234	0x3e5dcc7a	0.21660033
235	0xbeeff814	-0.46868956
236	0xbf5dd33b	-0.8665044
237	0x3cde92be	0.027169582
238	0xbdd59735	-0.10429231
239	0x3f605a15	0.87637454
240	0xbd156a72	-0.036478467
241	0xbfd89a34	-1.6922059
242	0xbe9cc9ce	-0.30622715
243	0xbe6f247e	-0.23353764
244	0x3fdb1a21	1.7117349
245	0x3f1c9e3c	0.61178946
246	0xbe54983e	-0.20761201
247	0x3d70eade	0.058817737
248	0xbcab96c5	-0.020945916
249	0xbd263ad0	-0.04058343
250	0x3d73b00d	0.059494067
251	0xbde67ef5	-0.11254684
252	0xbd869fb2	-0.06573428
253	0xbd8492e5	-0.064733304
254	0x3e4128ac	0.18863171
255	0xbe96a733	-0.29424438

transl f4 [156, 3]
0	0x3f31cae8	0.69450235
1	0x3fa875b4	1.316092
2	0x3fa48074	1.2851701
3	0x3f3269bc	0.6969259
4	0x3fa85694	1.3151422
5	0x3fa3f9a6	1.2810562
6	0x3f3315ae	0.69954956
7	0x3fa8155d	1.313152
8	0x3fa33829	1.2751514
9	0x3f3359bf	0.70058817
10	0x3fa81a31	1.3132993
11	0x3fa2955b	1.270183
12	0x3f3402c8	0.70316744
13	0x3fa8007e	1.312515
14	0x3fa1c84d	1.2639252
15	0x3f3453f4	0.704406
16	0x3fa81cd7	1.3133801
17	0x3fa0f535	1.2574831
18	0x3f34fe14	0.7070019
19	0x3fa8713b	1.3159555
20	0x3fa02ea6	1.2514236
21	0x3f354d6e	0.70821273
22	0x3fa89788	1.3171244
23	0x3f9f65a1	1.245289
24	0x3f3525b4	0.70760655
25	0x3fa9463d	1.322456
26	0x3f9ed803	1.2409672
27	0x3f34bd6f	0.7060155
28	0x3fa9a027	1.3252
29	0x3f9e2baf	1.2357081
30	0x3f341841	0.7034951
31	0x3fa97b55	1.3240763
32	0x3f9da52e	1.2316034
33	0x3f32dc58	0.6986747
34	0x3fa9493c	1.3225474
35	0x3f9d245b	1.227672
36	0x3f30bf33	0.69041747
37	0x3fa8f60d	1.3200089
38	0x3f9ce285	1.2256628
39	0x3f2df372	0.67949593
40	0x3fa9ea97	1.3274716
41	0x3f9d147b	1.2271875
42	0x3f2a95b7	0.66634697
43	0x3fa9bbf0	1.3260479
44	0x3f9cde67	1.2255372
45	0x3f270524	0.6524222
46	0x3fa9adaa	1.3256123
47	0x3f9c5a32	1.2215025
48	0x3f230218	0.6367507
49	0x3fa93227	1.321843
50	0x3f9b3722	1.21262
51	0x3f1f1065	0.6213439
52	0x3fa8ee8b	1.3197798
53	0x3f9a1963	1.2038997
54	0x3f1a0378	0.6016154
55	0x3fa85a93	1.3152641
56	0x3f98c349	1.1934596
57	0x3f142f7c	0.57884955
58	0x3fa7b13d	1.3100964
59	0x3f976716	1.1828334
60	0x3f0e5a8f	0.5560693
61	0x3fa74196	1.306689
62	0x3f95fa35	1.1716982
63	0x3f08debb	0.5346486
64	0x3fa6f6b8	1.3044043
65	0x3f9469d1	1.1594793
66	0x3f04a61b	0.51815957
67	0x3fa6c9e9	1.3030368
68	0x3f92c3f5	1.1466051
69	0x3f00e9de	0.50356853
70	0x3fa6ee04	1.3041387
71	0x3f911394	1.13341
72	0x3efb7d16	0.4911887
73	0x3fa793c6	1.3091972
74	0x3f8f3c75	1.1190325
75	0x3ef6426a	0.48097545
76	0x3fa86058	1.3154402
77	0x3f8d5b1d	1.104343
78	0x3ef2543e	0.47329897
79	0x3fa8fd60	1.3202324
80	0x3f8b75bc	1.0895305
81	0x3eede034	0.46460116
82	0x3fa9fe2b	1.3280691
83	0x3f8957bf	1.0729903
84	0x3ee9e90e	0.4568562
85	0x3faa51ed	1.3306252
86	0x3f875490	1.0572681
87	0x3ee442c0	0.44582176
88	0x3fa9af9f	1.325672
89	0x3f84bb99	1.036975
90	0x3edef67c	0.43547428
91	0x3fa9a46b	1.3253301
92	0x3f8247de	1.0178182
93	0x3eda080d	0.42584267
94	0x3fa94c65	1.3226439
95	0x3f7fac2a	0.99872077
96	0x3ed5b898	0.41742396
97	0x3faa02b2	1.3282073
98	0x3f7b0c0c	0.9806526
99	0x3eced15f	0.40394112
100	0x3fa7c828	1.3107958
101	0x3f73f99d	0.95302755
102	0x3ec87003	0.39147958
103	0x3fa73ea0	1.3065987
104	0x3f6d11f2	0.9260551
105	0x3ec16218	0.37770152
106	0x3fa685ee	1.3009622
107	0x3f654227	0.89554065
108	0x3ebacc67	0.36484072
109	0x3fa61694	1.297564
110	0x3f5d42d5	0.864301
111	0x3eb365af	0.35038516
112	0x3fa5efb8	1.2963781
113	0x3f559d19	0.83442837
114	0x3eac39b7	0.33637783
115	0x3fa5d0d4	1.2954354
116	0x3f4e8946	0.8067821
117	0x3ea5e9c3	0.3240491
118	0x3fa6fcde	1.3045919
119	0x3f470bb0	0.7775221
120	0x3e9f0f42	0.31066328
121	0x3fa6057e	1.2970426
122	0x3f40aeb4	0.75266576
123	0x3e98c9d4	0.29841483
124	0x3fa67806	1.3005378
125	0x3f3ab5a1	0.72933394
126	0x3e9292ad	0.2862753
127	0x3fa6ba31	1.3025571
128	0x3f34fac7	0.70695156
129	0x3e8c6c76	0.274265
130	0x3fa6f1aa	1.30425
131	0x3f2fa863	0.6861631
132	0x3e8653a2	0.26235682
133	0x3fa720cc	1.3056884
134	0x3f2ab209	0.6667791
135	0x3e8062f5	0.25075498
136	0x3fa74abb	1.3069681
137	0x3f259754	0.64684033
138	0x3e740ba0	0.2383256
139	0x3fa743ee	1.3067605
140	0x3f2076bd	0.6268118
141	0x3e65f59e	0.22456977
142	0x3fa70a99	1.3050109
143	0x3f1ad5e6	0.60482633
144	0x3e5641e4	0.20923573
145	0x3fa8d5fc	1.3190303
146	0x3f167539	0.5877262
147	0x3e43cc74	0.19120961
148	0x3fa89a82	1.3172152
149	0x3f0fe22f	0.56204504
150	0x3e2d54d8	0.16926897
151	0x3fa85882	1.315201
152	0x3f08c5e9	0.53426987
153	0x3e14a7b6	0.14517102
154	0x3fa7a26e	1.3096445
155	0x3f00440b	0.50103825
156	0x3df7cb70	0.120993495
157	0x3fa6e8a6	1.3039749
158	0x3ef112a9	0.4708455
159	0x3dc6f1a1	0.09714056
160	0x3fa5e7ba	1.2961342
161	0x3ee05ae4	0.43819344
162	0x3d9b921d	0.07596228
163	0x3fa57526	1.2926376
164	0x3ed29bbd	0.41134444
165	0x3d6f9c4a	0.05849866
166	0x3fa5761d	1.292667
167	0x3ec6d95b	0.38837704
168	0x3d346d65	0.04404964
169	0x3fa5f1fe	1.2964475
170	0x3ebd75de	0.37003988
171	0x3d0329b2	0.032022186
172	0x3fa56783	1.2922214
173	0x3eb43f44	0.35204518
174	0x3c98fd08	0.018675342
175	0x3fa6340f	1.2984637
176	0x3eab8169	0.3349717
177	0x3bd4b353	0.0064911037
178	0x3fa732a0	1.3062325
179	0x3ea414ba	0.32047063
180	0xbbca72db	-0.0061782426
181	0x3fa9658a	1.3234112
182	0x3ea01fef	0.31274363
183	0xbc847c6f	-0.016172616
184	0x3fa9fffc	1.3281245
185	0x3e99a528	0.30008817
186	0xbcd22e00	-0.0256567
187	0x3faa8254	1.3321023
188	0x3e92e232	0.28688198
189	0xbd04bd3f	-0.03240704
190	0x3fa9371e	1.3219945
191	0x3e885636	0.26628274
192	0xbd2253e1	-0.039630774
193	0x3fa8dcac	1.3192344
194	0x3e803df7	0.25047275
195	0xbd3e4bae	-0.046458893
196	0x3fa8a788	1.3176126
197	0x3e6e4feb	0.23272674
198	0xbd56e51f	-0.0524646
199	0x3fa91db3	1.3212188
200	0x3e5c49c2	0.21512511
201	0xbd6fc2ef	-0.058535513
202	0x3fa8f851	1.320078
203	0x3e46439c	0.19361728
204	0xbd86fae2	-0.06590821
205	0x3fa95bb9	1.3231117
206	0x3e3173fb	0.173294
207	0xbd96f846	-0.07371573
208	0x3fa93649	1.3219692
209	0x3e160534	0.14650422
210	0xbdaa94f3	-0.08329191
211	0x3fa918c8	1.3210688
212	0x3df23862	0.118271604
213	0xbdbdc929	-0.09266884
214	0x3fa8eb64	1.3196836
215	0x3db83d31	0.08996046
216	0xbdd47eaf	-0.103757255
217	0x3fa8c340	1.3184586
218	0x3d77bf21	0.06048501
219	0xbdecfae5	-0.11571292
220	0x3fa895ea	1.317075
221	0x3d02f7d1	0.031974617
222	0xbe01f175	-0.12689765
223	0x3fa87da9	1.3163348
224	0x3ba0ab5e	0.004903241
225	0xbe0d3ac4	-0.13791949
226	0x3fa8979d	1.3171269
227	0xbcaf3a92	-0.021390233
228	0xbe160b29	-0.14652695
229	0x3fa8be60	1.3183098
230	0xbd368c39	-0.04456732
231	0xbe1f82fb	-0.15577309
232	0x3fa8338b	1.314073
233	0xbd858500	-0.06519508
234	0xbe2aa92a	-0.16666093
235	0x3fa79ed9	1.3095351
236	0xbda89c77	-0.08232968
237	0xbe36954b	-0.17830388
238	0x3fa72078	1.3056784
239	0xbdcf5bfc	-0.101249665
240	0xbe421a63	-0.18955378
241	0x3fa74c4d	1.307016
242	0xbdf0fa1a	-0.11766453
243	0xbe4e1e4c	-0.20128745
244	0x3fa7d8d8	1.311305
245	0xbe071b3e	-0.13193986
246	0xbe5ba803	-0.2145081
247	0x3fa7e7ed	1.3117653
248	0xbe18eecf	-0.14934848
249	0xbe6a5f92	-0.2288802
250	0x3fa7dd47	1.3114403
251	0xbe2af58a	-0.16695228
252	0xbe7c87a0	-0.24661112
253	0x3fa7dbd2	1.3113959
254	0xbe3d2a56	-0.18473181
255	0xbe88dec8	-0.2673247

left_hand_pose f4 [156, 12]
0	0x3e69d4cf	0.22835086
1	0x3e9c5074	0.3053013
2	0x3f0ba1d9	0.54543835
3	0x3f335e49	0.7006574
4	0xbeba9670	-0.364429
5	0xbfc9c4ce	-1.5763185
6	0x3eeb9c3c	0.46017635
7	0x3eaead17	0.34116432
8	0xbeaac00e	-0.3334965
9	0xbf366cb7	-0.71259636
10	0x3edb4ceb	0.4283212
11	0xbfc6ff4d	-1.5546662
12	0x3eab8948	0.33503175
13	0x3e347e51	0.17626311
14	0x3f1315b4	0.5745499
15	0x3f6a1aea	0.9144732
16	0xbed09c57	-0.40744278
17	0xbfb5fcaa	-1.4217732
18	0x3eda2f80	0.42614365
19	0x3e378ddc	0.17925209
20	0xbd52b103	-0.051438343
21	0xbf138c5f	-0.57636064
22	0x3e37b3ae	0.17939636
23	0xbfb0990b	-1.3796705
24	0x3ed231ec	0.41053712
25	0x3e937799	0.28802183
26	0x3f08b271	0.5339728
27	0x3f56aa20	0.8385334
28	0xbec6dd97	-0.38840935
29	0xbfae4619	-1.3615142
30	0x3f078ba6	0.5294746
31	0x3e4df67d	0.20113559
32	0xbe909183	-0.28236017
33	0xbf23dd87	-0.640099
34	0x3edcaa88	0.43098855
35	0xbfbeda47	-1.4910363
36	0x3f007581	0.50179297
37	0x3e6909ff	0.2275772
38	0x3f2089c5	0.6271022
39	0x3f6d4b0c	0.9269264
40	0xbedceeef	-0.43151042
41	0xbfb43aa4	-1.4080396
42	0x3f310b6e	0.69158065
43	0x3e065233	0.13117294
44	0xbe766561	-0.2406211
45	0xbf578c76	-0.841987
46	0x3f1ee860	0.62073326
47	0xbfc31cdd	-1.5243183
48	0x3ef0cf15	0.4703299
49	0x3ebcc888	0.36871743
50	0x3ef62228	0.48072934
51	0x3f3e9ae0	0.7445507
52	0xbe81736f	-0.2528338
53	0xbfaa3cc3	-1.3299793
54	0x3ef255a3	0.4733096
55	0x3da85d39	0.08220906
56	0xbe1bee65	-0.15227659
57	0xbf30b2fd	-0.69023114
58	0x3f37dd33	0.718219
59	0xbfe01003	-1.7504886
60	0x3ed6150a	0.41812927
61	0x3ec5af62	0.3861037
62	0x3ef5edc8	0.48032975
63	0x3f419c30	0.7562895
64	0xbe5b5721	-0.21419956
65	0xbfa617c2	-1.2976
66	0x3f0867dc	0.53283477
67	0x3dfb1138	0.122591436
68	0x3ddced8c	0.10787496
69	0xbf350206	-0.7070621
70	0x3f0d1288	0.551064
71	0xbfe2595b	-1.7683519
72	0x3ee410ff	0.44544217
73	0x3e971794	0.29510176
74	0x3ef9c35d	0.48781863
75	0x3f60cc3f	0.87811655
76	0xbe9e2c04	-0.30892956
77	0xbfb58875	-1.4182268
78	0x3f22e648	0.6363263
79	0x3e439c14	0.19102508
80	0x3e59d535	0.21272738
81	0xbf4c968d	-0.7991722
82	0x3e2761a5	0.16345842
83	0xbfc6f1e9	-1.5542575
84	0x3ed39540	0.41324806
85	0x3ef1d6f9	0.47234324
86	0x3eef56bf	0.4674587
87	0x3f52ecd3	0.82392615
88	0xbe83e49a	-0.25760347
89	0xbf9ed5df	-1.2409018
90	0x3ee08197	0.4384887
91	0x3e26b6e1	0.162807
92	0x3e903207	0.28163168
93	0xbf425d2d	-0.75923425
94	0xbdc6060c	-0.09669122
95	0xbfde8d90	-1.7386951
96	0x3ed77ff1	0.420898
97	0x3ee97587	0.4559748
98	0x3ef85491	0.4850202
99	0x3f6ed8cf	0.93299574
100	0xbea5925c	-0.32338226
101	0xbf9b864a	-1.2150357
102	0x3ea2b5d5	0.31779352
103	0x3e314dce	0.17314836
104	0x3e488dd5	0.19585355
105	0xbf43674a	-0.7632948
106	0xbdf724cf	-0.120675676
107	0xbfd5fda6	-1.6718032
108	0x3ed1439b	0.4087189
109	0x3eec149c	0.46109474
110	0x3ec31ce1	0.3810797
111	0x3f61ef6b	0.8825595
112	0xbece2c69	-0.40268257
113	0xbf898c09	-1.074586
114	0x3f043242	0.5163919
115	0x3e55006f	0.20800947
116	0x3e3d8fe1	0.18511917
117	0xbf286ed6	-0.6579412
118	0xbd4ebdb4	-0.050473884
119	0xbfbad1f3	-1.4595321
120	0x3ed8833c	0.42287624
121	0x3ed2b22d	0.41151562
122	0x3edbe17b	0.42945465
123	0x3f613f5c	0.87987304
124	0xbecea3b2	-0.40359265
125	0xbf75a954	-0.959615
126	0x3ef87319	0.48525313
127	0x3e28f0db	0.16498129
128	0x3eb26441	0.34842113
129	0xbf190160	-0.59767723
130	0xbe52a2ee	-0.20569965
131	0xbfb7d745	-1.436257
132	0x3ebcf981	0.36909106
133	0x3ef4e321	0.47829536
134	0x3e95c7b9	0.2925394
135	0x3f474161	0.77834135
136	0xbe98c4ed	-0.29837742
137	0xbf835e7f	-1.0263213
138	0x3ef96e46	0.48716944
139	0x3db48f34	0.08816376
140	0x3e5ac968	0.21365893
141	0xbf39d92b	-0.72597
142	0xbe954442	-0.2915364
143	0xbfd08674	-1.6291032
144	0x3ed4affb	0.41540512
145	0x3ee929e1	0.45539764
146	0x3eb5fbbc	0.3554362
147	0x3f567b46	0.8378185
148	0xbeb6d715	-0.3571097
149	0xbf841a9c	-1.032062
150	0x3f39ab10	0.72526646
151	0x3ccd276d	0.025043214
152	0xbe11ec55	-0.1425031
153	0xbf5f72a8	-0.87284327
154	0x3da7f606	0.08201222
155	0xbfd8c81f	-1.6936072
156	0x3edb1f2c	0.4279722
157	0x3edcfad9	0.43160132
158	0x3e9d575c	0.30730712
159	0x3f4cda24	0.80020356
160	0xbe9fa900	-0.31183624
161	0xbf86d5a0	-1.0533943
162	0x3f1f908d	0.6232994
163	0x3d70d387	0.05879548
164	0xbdea871c	-0.11451551
165	0xbf5c7eee	-0.8613118
166	0x3e4e926d	0.20173045
167	0xbfd23f55	-1.6425577
168	0x3f01f7c2	0.50768673
169	0x3eafae73	0.34312782
170	0x3ef1a3a8	0.47195172
171	0x3f6b15ac	0.91829944
172	0xbe9e09ba	-0.30866796
173	0xbf93730e	-1.1519487
174	0x3ef65173	0.48109016
175	0x3db3ecc0	0.08785391
176	0x3c411b31	0.011786268
177	0xbf2c7da0	-0.6737919
178	0x3e92fbd8	0.28707767
179	0xbfb840ae	-1.4394739
180	0x3f01f202	0.507599
181	0x3ea386a3	0.31938657
182	0x3ed17f4f	0.4091744
183	0x3f4a4efa	0.7902676
184	0xbd9b29d6	-0.07576339
185	0xbf8718a0	-1.055439
186	0x3eaff049	0.3436301
187	0xbc4f1f08	-0.012641676
188	0xbe18f14a	-0.14935794
189	0xbf49fb98	-0.78899527
190	0x3ee86340	0.45388222
191	0xbfbcd8bb	-1.4753641
192	0x3ec908b6	0.39264458
193	0x3efd7f34	0.4951111
194	0x3e815e03	0.25267038
195	0x3f2ff285	0.6872943
196	0x3e256057	0.16150032
197	0xbf915b52	-1.1355994
198	0x3e63178f	0.22176956
199	0xbd406e03	-0.046979915
200	0xbdf1b20f	-0.1180154
201	0xbf60a4ca	-0.8775145
202	0x3edb4180	0.4282341
203	0xbfe9160e	-1.8209856
204	0x3e94e283	0.29079065
205	0x3f2a59b6	0.6654314
206	0x3daf4572	0.085581675
207	0x3f0c63bb	0.54839677
208	0x3ea10d71	0.31455567
209	0xbf9a21d5	-1.2041575
210	0x3e1cb31e	0.15302703
211	0xbdf26b59	-0.11836881
212	0xbe333279	-0.17499723
213	0xbf6b9b61	-0.92033964
214	0x3f44eea9	0.76926666
215	0xbff0f421	-1.8824502
216	0x3ef622f2	0.48073536
217	0x3ee51c91	0.44748357
218	0x3ec623bd	0.3869914
219	0x3f4a976b	0.79137295
220	0xbd1a6c72	-0.037701078
221	0xbf60c97c	-0.8780744
222	0x3ece2b88	0.40267587
223	0xbd566315	-0.052340586
224	0xbeb5154e	-0.35367817
225	0xbf2aa4b5	-0.66657573
226	0x3f88b407	1.067994
227	0xbfb9f320	-1.4527321
228	0x3ee42eb4	0.44566882
229	0x3f036989	0.5133291
230	0x3e836763	0.25664815
231	0x3f28a2fc	0.65873694
232	0x3d277182	0.040879734
233	0xbf4a2df0	-0.78976345
234	0x3ed8c60f	0.42338607
235	0xbc598463	-0.013276192
236	0xbeba0282	-0.36330038
237	0xbf2bc0a9	-0.6709085
238	0x3f7e0a8e	0.99234855
239	0xbfca4a99	-1.5804015
240	0x3eca2eda	0.3948887
241	0x3f1f70a4	0.6228125
242	0x3e9fbe51	0.31199887
243	0x3f386aec	0.7203815
244	0x3db6a510	0.08918202
245	0xbf23a390	-0.6392145
246	0x3d43837f	0.047732826
247	0xbe330e23	-0.17485861
248	0xbeac33d0	-0.3363328
249	0xbf6bc2a1	-0.92093855
250	0x3ec4ab24	0.3841182
251	0xbfe7632d	-1.8077141
252	0x3ec875fd	0.39152518
253	0x3f2e0ff9	0.6799312
254	0x3e9df9f2	0.30854756
255	0x3f20c328	0.62797785

right_hand_pose f4 [156, 12]
0	0x3d970e4c	0.07375774
1	0x3f082486	0.5318073
2	0x3f2ec12c	0.68263507
3	0x3f2e94ed	0.6819599
4	0xbeff1900	-0.4982376
5	0xbff9f23f	-1.9527053
6	0x3f46dfdb	0.77685326
7	0x3f00394d	0.50087434
8	0xbe0d8ce3	-0.13823275
9	0xbf11fa50	-0.5702257
10	0x3ff1cf18	1.8891325
11	0xbfac5838	-1.3464422
12	0x3d963426	0.07334165
13	0x3ed831d4	0.42225516
14	0x3f3d161f	0.7386188
15	0x3f65fa90	0.89835453
16	0xbf292220	-0.66067696
17	0xbfd5c7e7	-1.670163
18	0x3f35bf18	0.7099471
19	0x3eed0803	0.46295175
20	0xbdde6753	-0.10859551
21	0xbe26e993	-0.16300039
22	0x3ff981b4	1.9492707
23	0xbf6ddc8c	-0.9291465
24	0x3d890b09	0.06691558
25	0x3eec6169	0.46168068
26	0x3f486723	0.78282374
27	0x3f7ee943	0.9957468
28	0xbf13dc5f	-0.57758135
29	0xbfec8284	-1.847733
30	0x3f07bdb7	0.53023857
31	0x3ee9abb5	0.45638815
32	0xbd92b117	-0.071626835
33	0xbe582d51	-0.21111037
34	0x4003db67	2.0602663
35	0xbf2b2cbf	-0.6686515
36	0xbbbfa7aa	-0.0058488445
37	0x3f1adc3d	0.60492307
38	0x3f3cd6cf	0.7376527
39	0x3f86ee95	1.054156
40	0xbf31e17d	-0.6948469
41	0xbfc6dc03	-1.5535892
42	0x3ec35a6d	0.38154927
43	0x3ebf9f63	0.3742629
44	0xbd9d9fcd	-0.07696495
45	0xbe7ac932	-0.24490812
46	0x3fdb61c4	1.7139211
47	0xbf2ce64b	-0.675389
48	0xbd5668e4	-0.052346125
49	0x3f2f23b2	0.6841384
50	0x3f3bc22a	0.73343146
51	0x3f98b566	1.1930358
52	0xbf57f0bd	-0.8435171
53	0xbfc9a40b	-1.5753187
54	0x3eae4e00	0.34043884
55	0x3ecb6d9d	0.39732066
56	0xbe34ea3e	-0.17667481
57	0xbe3622a3	-0.1778665
58	0x3fe1f2f4	1.7652268
59	0xbefeec61	-0.49789718
60	0xbd05e66d	-0.032690454
61	0x3f3601d5	0.71096545
62	0x3f4b8de2	0.7951337
63	0x3f9daa60	1.2317619
64	0xbf9bb778	-1.2165365
65	0xbfae7857	-1.3630475
66	0x3eddadfb	0.432968
67	0x3ebe3f21	0.3715754
68	0xbeede958	-0.4646709
69	0x3de81002	0.11331178
70	0x401a9557	2.415365
71	0xbebdabfc	-0.37045276
72	0xbe07a33d	-0.13245864
73	0x3f51c1d4	0.81936383
74	0x3f408483	0.75202197
75	0x3f7d5262	0.9895383
76	0xbf9ff835	-1.2497622
77	0xbf7e9de2	-0.9945966
78	0x3f0a7b7a	0.5409466
79	0x3e9fb1da	0.31190377
80	0xbf37c100	-0.7177887
81	0x3dc51288	0.09622675
82	0x40165949	2.3491995
83	0xbe3aa291	-0.18226077
84	0xbe3dcb2b	-0.18534534
85	0x3f461411	0.7737437
86	0x3f53cc47	0.8273358
87	0x3f7b5b18	0.98185873
88	0xbfa23d9e	-1.2675054
89	0xbf78f92d	-0.9725521
90	0x3ecd3521	0.40079597
91	0x3ec41cd5	0.38303247
92	0xbf2f6c24	-0.68524384
93	0x3e8b02d8	0.27150607
94	0x4013c9f1	2.3092005
95	0xbdab8a21	-0.083759554
96	0xbe3aad77	-0.18230234
97	0x3f228434	0.63482976
98	0x3f6d2212	0.9263011
99	0x3f9374c9	1.1520015
100	0xbf98cd94	-1.1937737
101	0xbf8c414c	-1.0957427
102	0x3e84a7fd	0.25909415
103	0x3f087df5	0.53317195
104	0xbf58d239	-0.84695774
105	0x3decc03f	0.115601055
106	0x3fca9dbc	1.5829387
107	0x3d7de1d1	0.061982933
108	0xbe1a4022	-0.15063527
109	0x3f219153	0.6311237
110	0x3f809114	1.0044274
111	0x3f927e40	1.1444778
112	0xbf8fcdad	-1.1234642
113	0xbfa004c4	-1.2501454
114	0x3e9ca4c7	0.30594465
115	0x3f1a2ff4	0.6022942
116	0xbf59cc8b	-0.8507773
117	0x3e9508b3	0.291082
118	0x3fda59e0	1.7058678
119	0x3e35fd24	0.17772347
120	0xbe95ca09	-0.29255703
121	0x3f151bea	0.5824572
122	0x3f7b722e	0.982211
123	0x3f5a42bf	0.85258096
124	0xbf5c523f	-0.86063
125	0xbf94b076	-1.1616352
126	0x3e6963fa	0.22792044
127	0x3ee8110e	0.45325512
128	0xbe5ea525	-0.21742685
129	0x3dd60038	0.104492605
130	0x3fae180d	1.360109
131	0xbd8a9c22	-0.06768061
132	0xbeb7e29d	-0.3591508
133	0x3efd5fb5	0.4948708
134	0x3f5fca7d	0.8741835
135	0x3f7d48e1	0.9893933
136	0xbf4235a7	-0.75863117
137	0xbfb93bf1	-1.4471418
138	0x3eab922d	0.3350996
139	0x3ef12e68	0.47105718
140	0xbf08aca4	-0.5338843
141	0x3d6640dc	0.0562142
142	0x3fbdfe11	1.484316
143	0x3e2a9a0d	0.16660328
144	0xbe9521ec	-0.29127443
145	0x3ebdc392	0.3706327
146	0x3f63d91d	0.89003164
147	0x3f881dee	1.0634134
148	0xbf740b6c	-0.9532993
149	0xbfa86869	-1.3156863
150	0x3f09356d	0.53597146
151	0x3edb0a65	0.42781368
152	0xbef8306d	-0.48474446
153	0xbc97ab2a	-0.018514235
154	0x3fd40359	1.6563522
155	0x3e229357	0.15876518
156	0xbe915997	-0.28388664
157	0x3f04b673	0.51840895
158	0x3f5e8561	0.8692227
159	0x3f840790	1.0314808
160	0xbf8007c8	-1.0002375
161	0xbfa3e62c	-1.2804618
162	0x3f022cd8	0.50849676
163	0x3ec62b0e	0.38704723
164	0xbee2b4af	-0.44278476
165	0xbe00a052	-0.12561157
166	0x3fc6898f	1.551073
167	0x3d1d5e97	0.038420286
168	0xbe77dddd	-0.24205728
169	0x3ef68039	0.481447
170	0x3f657e6f	0.8964605
171	0x3f86f06a	1.0542119
172	0xbf4f8ae6	-0.8107132
173	0xbf9dd823	-1.2331585
174	0x3ea3c2c1	0.31984523
175	0x3e592fa1	0.21209575
176	0xbea99d81	-0.33127978
177	0xbd0fd427	-0.035114434
178	0x3fc784b0	1.5587368
179	0xbdf36268	-0.11884004
180	0xbe5434b6	-0.20723233
181	0x3efb0002	0.49023443
182	0x3f5c01bf	0.85940164
183	0x3f7d8ea1	0.9904576
184	0xbf42f2f8	-0.7615199
185	0xbfa81cbc	-1.3133769
186	0x3e80615f	0.25074288
187	0x3e15be02	0.14623263
188	0xbf18f09c	-0.5974214
189	0xbdfc01bd	-0.12305019
190	0x4001eabd	2.0299523
191	0xbe3be4fe	-0.18349072
192	0xbe5c8ca6	-0.21538028
193	0x3eed2081	0.4631386
194	0x3f5b2189	0.85598046
195	0x3f5625a2	0.83651173
196	0xbf1d967a	-0.61557734
197	0xbf7394f7	-0.9514918
198	0x3e4004c8	0.18751824
199	0xbc812151	-0.015762957
200	0xbeb24a04	-0.34822094
201	0xbef36648	-0.47538972
202	0x3fbad4e4	1.4596219
203	0xbf271462	-0.65265477
204	0xbe25ea74	-0.16202718
205	0x3efa1864	0.48846734
206	0x3f5145d7	0.8174719
207	0x3f54cc61	0.8312436
208	0xbeef5c8c	-0.46750295
209	0xbfa37120	-1.2768898
210	0x3ce009de	0.027348455
211	0x3cc04738	0.02347146
212	0xbe644c69	-0.22294773
213	0xbebce285	-0.3689157
214	0x3fc356ce	1.5260866
215	0xbf3102d3	-0.69144934
216	0xbc26da6a	-0.01018391
217	0x3f101d06	0.56294286
218	0x3f651c1d	0.8949602
219	0x3f87c373	1.0606521
220	0xbf370361	-0.7148953
221	0xbfafd471	-1.3736707
222	0x3e6293a3	0.22126631
223	0x3e4e035b	0.20118468
224	0xbefa79d9	-0.48921087
225	0xbe8d4059	-0.27588156
226	0x3fe88f41	1.8168718
227	0xbed92236	-0.42408913
228	0x3e101d82	0.14073756
229	0x3f1e5fbf	0.61864847
230	0x3f6def80	0.92943573
231	0x3f9fc4e5	1.2481962
232	0xbf6a5297	-0.9153227
233	0xbfbf3044	-1.4936604
234	0x3dfbff5c	0.12304565
235	0x3eea620a	0.45777923
236	0xbdf18aff	-0.117940895
237	0xbe1522c1	-0.14564039
238	0x3f9a8175	1.2070757
239	0xbed40cf3	-0.4141613
240	0x3e80cf47	0.2515814
241	0x3f27163b	0.65268296
242	0x3f5fc1f7	0.8740534
243	0x3f886c76	1.06581
244	0xbf750f5a	-0.9572655
245	0xbfca6aaa	-1.5813801
246	0x3f1c2a68	0.61002207
247	0x3f01f959	0.507711
248	0xbd05945d	-0.032612193
249	0xbe1b52e7	-0.15168343
250	0x3fb980bf	1.4492415
251	0xbf272242	-0.6528665
252	0x3eb6c493	0.3569685
253	0x3f246f5b	0.64232415
254	0x3f367558	0.712728
255	0x3fab10f7	1.3364552

jaw_pose f4 [156, 3]
0	0xbcd46a7d	-0.025929684
1	0xbbbf1d32	-0.005832338
2	0xbb0f8d47	-0.0021904276
3	0xbd153fba	-0.036437728
4	0xbb9fd4f1	-0.0048776795
5	0xbaaa00d0	-0.0012970213
6	0xbd2b0672	-0.041754194
7	0xbbb2dab2	-0.0054581994
8	0xbaa70d6f	-0.0012745092
9	0xbd082f2c	-0.03324811
10	0xbbb807a1	-0.005616144
11	0xbaa180fe	-0.0012321768
12	0xbd0f1135	-0.03492852
13	0xbbdf37a4	-0.006812053
14	0xbb15cc20	-0.0022857264
15	0xbc8ef09a	-0.017448712
16	0xbc195ea5	-0.009360944
17	0xbb5a3bbe	-0.003329977
18	0xbb93fc09	-0.004516129
19	0xbb6248f1	-0.003452834
20	0xba8900a6	-0.0010452464
21	0xbb4096de	-0.00293868
22	0xbc04c746	-0.008104151
23	0xbb4d2d25	-0.0031307426
24	0x3c80082c	0.015628897
25	0xbb8242bc	-0.0039752405
26	0xbac0bad1	-0.0014704113
27	0x3ce8a48a	0.02839877
28	0xbba8bbdf	-0.005149349
29	0xba96231d	-0.0011454556
30	0x3c80ec31	0.015737625
31	0xbb6f62ee	-0.0036527473
32	0xba43aedc	-0.0007464716
33	0xba8331e4	-0.0010009375
34	0xbb83ea49	-0.0040257317
35	0xba020d96	-0.0004961131
36	0xbc91130b	-0.017709276
37	0xbb5ccfb6	-0.0033693141
38	0xba3e2d9b	-0.00072547205
39	0x3d38c728	0.045111805
40	0xbafa63ce	-0.001910323
41	0xba965c32	-0.0011471568
42	0x3d51b79d	0.051200498
43	0xbb83936f	-0.004015378
44	0xbaaa02cd	-0.0012970805
45	0x3d2df7b6	0.042472564
46	0xbbd44bfe	-0.0064787855
47	0xbb378fcf	-0.00280093
48	0x3d5dc226	0.054140233
49	0xbba3f288	-0.005003277
50	0xbb162ac0	-0.0022913665
51	0x3d75172e	0.05983656
52	0xbb8c55b7	-0.004282679
53	0xbb05797d	-0.0020366602
54	0x3d88531f	0.06656479
55	0xbb813515	-0.0039430954
56	0xbaf35cae	-0.0018567049
57	0x3d88b022	0.0667422
58	0xbac7f06f	-0.001525415
59	0xba67ddc1	-0.00088449946
60	0x3d78919a	0.06068573
61	0xbb7ecc15	-0.0038878967
62	0xba875273	-0.0010324254
63	0x3d88d308	0.06680876
64	0xbb1b4a33	-0.002369535
65	0xba749730	-0.000933039
66	0x3d77b185	0.06047203
67	0xbb1659c8	-0.0022941697
68	0xb9e35e04	-0.0004336686
69	0x3d8881b4	0.06665364
70	0xba59ad06	-0.00083036756
71	0xb9890550	-0.00026134634
72	0x3d5f84bd	0.05456995
73	0x3a5afd82	0.00083538156
74	0x3a468bd9	0.00075739395
75	0x3d5a65d5	0.05331977
76	0x39a5242f	0.0003149821
77	0x39f3ae46	0.00046478416
78	0x3d24f5e3	0.04027356
79	0xbae63d2d	-0.0017565839
80	0xb9b644d8	-0.00034765038
81	0x3d520674	0.051275685
82	0xbb5e2407	-0.0033895986
83	0xba3896be	-0.00070415053
84	0x3d7758c3	0.060387384
85	0xbb1a76b2	-0.0023569283
86	0xba03917b	-0.00050189317
87	0x3d416d90	0.047223628
88	0xbafcaf9a	-0.0019278408
89	0x39be21d4	0.00036264828
90	0x3d326679	0.043554757
91	0xbbb30092	-0.0054627145
92	0xba78d319	-0.0009491905
93	0x3d1ec5fa	0.038763024
94	0xbb267925	-0.0025401798
95	0x3748bec6	1.1965347e-05
96	0x3d4fded4	0.050749615
97	0xbbf71c36	-0.007541205
98	0xbb02778a	-0.0019907677
99	0x3c2a5334	0.010395814
100	0xbb036e33	-0.0020054698
101	0x3a71c8dd	0.00092233514
102	0x3c02d3f5	0.007985105
103	0xba1e3ecf	-0.0006036581
104	0x3ad2bfd2	0.0016078895
105	0xbbed7bdf	-0.0072474326
106	0xbac12a60	-0.001473736
107	0x3a762176	0.00093891413
108	0xbc2bae01	-0.0104784975
109	0xbadc7e77	-0.0016822357
110	0x3a83e36f	0.0010062287
111	0xbbe32554	-0.00693194
112	0xba908cc9	-0.0011028285
113	0x3ab4a041	0.001378067
114	0xbbba627b	-0.0056880093
115	0x3a0c0035	0.0005340607
116	0x3ac078e5	0.0014684467
117	0x3d015964	0.03157939
118	0x39893985	0.00026173532
119	0x3ab5699c	0.0013840678
120	0x39d1f830	0.000400485
121	0xb9544062	-0.0002024188
122	0x3aec7523	0.001804028
123	0xbb8f39a6	-0.004370886
124	0xbb20c3b3	-0.0024530708
125	0x3a48cfae	0.0007660341
126	0xbc3f2cc0	-0.011668384
127	0xbb857267	-0.0040724757
128	0x39a3b59d	0.00031225095
129	0xbcaa87e5	-0.020816753
130	0xbb6c713f	-0.0036078242
131	0x39c4e230	0.00037552556
132	0xbcb789ff	-0.022404669
133	0xbb1c960e	-0.002389315
134	0x3a4fc416	0.00079256424
135	0xbc17012a	-0.009216586
136	0xbbcc5967	-0.0062362435
137	0xba3e8eef	-0.00072692236
138	0xbb96fbce	-0.004607654
139	0xbb65d117	-0.0035067254
140	0x39934897	0.0002809211
141	0xbb738bce	-0.0037162188
142	0xbb8ef0d5	-0.0043622055
143	0x39bbabe6	0.00035795494
144	0x3d209baf	0.03921097
145	0xbb47f0f2	-0.0030508605
146	0xb6e5a81e	-6.8443032e-06
147	0x3d1ed87f	0.038780686
148	0xbb196ba2	-0.0023410101
149	0x39a5aee8	0.00031601568
150	0x3d310edd	0.043227065
151	0x3a415be4	0.00073760585
152	0x3aa5f2a2	0.0012660811
153	0x3cfc3f58	0.030791923
154	0xb9602f98	-0.00021380035
155	0x3a954e02	0.0011391046
156	0x3cf80969	0.030277925
157	0x3a56c83e	0.00081932906
158	0x3aaca6b2	0.0013172238
159	0x3cc5b419	0.024133729
160	0xb9d5662b	-0.00040702647
161	0x3a0fe564	0.0005489199
162	0x3cd8e610	0.02647689
163	0x3ab69af9	0.0013931683
164	0x3a5959ec	0.00082912925
165	0x3c667b35	0.014067461
166	0x3a238c09	0.00062388234
167	0x3a4a4520	0.0007715989
168	0x3c0a8d8e	0.008456601
169	0xb99ec5e1	-0.0003028354
170	0x39d69de7	0.00040934907
171	0xbd26ec84	-0.040752903
172	0x3b5492c8	0.0032436121
173	0x3b10e0a5	0.0022106555
174	0xbd34fc8a	-0.044186153
175	0x3ba69805	0.00508404
176	0x3b21046b	0.0024569284
177	0xbd3f7e3a	-0.04675124
178	0x3b365b0a	0.002782526
179	0x3b0071b5	0.0019599025
180	0xbc2c7c6d	-0.010527712
181	0xb9acc5a4	-0.0003295365
182	0x3995d575	0.00028578533
183	0xbc2ba452	-0.010476189
184	0xba419951	-0.00073852116
185	0x3990066f	0.00027470614
186	0xbc673cd2	-0.014113622
187	0xbb1673bf	-0.0022957174
188	0xb5ef027f	-1.7807614e-06
189	0xbd8b1010	-0.06790173
190	0x3b1a2454	0.0023520188
191	0x3ada9fe3	0.001667973
192	0xbdad21ac	-0.08453688
193	0x3b074247	0.002063887
194	0x3aa969d1	0.0012925213
195	0xbdb86605	-0.09003834
196	0x397b47f1	0.00023964026
197	0x3a52c88a	0.0008040747
198	0xbd6fb8e3	-0.05852593
199	0xbaf3ce11	-0.0018600841
200	0xb97bb7e2	-0.00024005727
201	0xbd650895	-0.055916388
202	0xbaee8c9d	-0.0018199865
203	0xb9a0a75e	-0.00030642276
204	0xbce785b1	-0.028261991
205	0xbab791b3	-0.0014005214
206	0xb9f50497	-0.0004673346
207	0xbcba69e5	-0.022755573
208	0xbacf181b	-0.0015800031
209	0xb9a0f5fd	-0.00030700854
210	0xbc93c8a0	-0.018040001
211	0xbb01c201	-0.0019799473
212	0xb995ef95	-0.00028597997
213	0xbcb7ddd4	-0.022444643
214	0xb9fc3187	-0.00048102086
215	0xb82c6023	-4.109753e-05
216	0xbcab148f	-0.020883827
217	0xbb10f935	-0.0022121195
218	0xb8f0ee44	-0.00011488472
219	0xbccb5127	-0.02481897
220	0xbae5adcc	-0.0017523109
221	0xb8627eb7	-5.400061e-05
222	0xbcdf7ef7	-0.027282221
223	0xba975b4b	-0.0011547593
224	0xb8455a51	-4.7052574e-05
225	0xbc83aa56	-0.016072433
226	0x39a77b7e	0.0003194473
227	0x3a187f89	0.0005817344
228	0xbc62c4ac	-0.013840836
229	0x3a0b3fa3	0.0005311912
230	0x39ea717e	0.00044716516
231	0xbd09b2d8	-0.033617824
232	0x3b0a3063	0.002108597
233	0x3a9865ed	0.0011627056
234	0xbd3ebf88	-0.046569377
235	0xbb10eacb	-0.0022112604
236	0x3951b780	0.00020000152
237	0xbd8b4c19	-0.06801624
238	0xbb2324ee	-0.0024893838
239	0xb74bf173	-1.215596e-05
240	0xbd9f0251	-0.07764114
241	0xb99f8d9e	-0.00030432356
242	0x3a49c579	0.0007696967
243	0xbd66614c	-0.056245133
244	0xbb2d7f0d	-0.0026473433
245	0xb7b17ba9	-2.1157628e-05
246	0xbd2669fb	-0.040628415
247	0xbb047a4d	-0.0020214499
248	0x39a35c3d	0.00031158506
249	0xbd013823	-0.031547677
250	0xbb184880	-0.0023236573
251	0xb938c2dc	-0.00017620198
252	0xbcc8ea14	-0.02452568
253	0xbb262152	-0.002534945
254	0xb9114cf2	-0.00013856942
255	0xbcde712d	-0.027153576

leye_pose f4 [156, 3]
0	0x00000000	0.0
1	0x00000000	0.0
2	0x00000000	0.0
3	0x00000000	0.0
4	0x00000000	0.0
5	0x00000000	0.0
6	0x00000000	0.0
7	0x00000000	0.0
8	0x00000000	0.0
9	0x00000000	0.0
10	0x00000000	0.0
11	0x00000000	0.0
12	0x00000000	0.0
13	0x00000000	0.0
14	0x00000000	0.0
15	0x00000000	0.0
16	0x00000000	0.0
17	0x00000000	0.0
18	0x00000000	0.0
19	0x00000000	0.0
20	0x00000000	0.0
21	0x00000000	0.0
22	0x00000000	0.0
23	0x00000000	0.0
24	0x00000000	0.0
25	0x00000000	0.0
26	0x00000000	0.0
27	0x00000000	0.0
28	0x00000000	0.0
29	0x00000000	0.0
30	0x00000000	0.0
31	0x00000000	0.0
32	0x00000000	0.0
33	0x00000000	0.0
34	0x00000000	0.0
35	0x00000000	0.0
36	0x00000000	0.0
37	0x00000000	0.0
38	0x00000000	0.0
39	0x00000000	0.0
40	0x00000000	0.0
41	0x00000000	0.0
42	0x00000000	0.0
43	0x00000000	0.0
44	0x00000000	0.0
45	0x00000000	0.0
46	0x00000000	0.0
47	0x00000000	0.0
48	0x00000000	0.0
49	0x00000000	0.0
50	0x00000000	0.0
51	0x00000000	0.0
52	0x00000000	0.0
53	0x00000000	0.0
54	0x00000000	0.0
55	0x00000000	0.0
56	0x00000000	0.0
57	0x00000000	0.0
58	0x00000000	0.0
59	0x00000000	0.0
60	0x00000000	0.0
61	0x00000000	0.0
62	0x00000000	0.0
63	0x00000000	0.0
64	0x00000000	0.0
65	0x00000000	0.0
66	0x00000000	0.0
67	0x00000000	0.0
68	0x00000000	0.0
69	0x00000000	0.0
70	0x00000000	0.0
71	0x00000000	0.0
72	0x00000000	0.0
73	0x00000000	0.0
74	0x00000000	0.0
75	0x00000000	0.0
76	0x00000000	0.0
77	0x00000000	0.0
78	0x00000000	0.0
79	0x00000000	0.0
80	0x00000000	0.0
81	0x00000000	0.0
82	0x00000000	0.0
83	0x00000000	0.0
84	0x00000000	0.0
85	0x00000000	0.0
86	0x00000000	0.0
87	0x00000000	0.0
88	0x00000000	0.0
89	0x00000000	0.0
90	0x00000000	0.0
91	0x00000000	0.0
92	0x00000000	0.0
93	0x00000000	0.0
94	0x00000000	0.0
95	0x00000000	0.0
96	0x00000000	0.0
97	0x00000000	0.0
98	0x00000000	0.0
99	0x00000000	0.0
100	0x00000000	0.0
101	0x00000000	0.0
102	0x00000000	0.0
103	0x00000000	0.0
104	0x00000000	0.0
105	0x00000000	0.0
106	0x00000000	0.0
107	0x00000000	0.0
108	0x00000000	0.0
109	0x00000000	0.0
110	0x00000000	0.0
111	0x00000000	0.0
112	0x00000000	0.0
113	0x00000000	0.0
114	0x00000000	0.0
115	0x00000000	0.0
116	0x00000000	0.0
117	0x00000000	0.0
118	0x00000000	0.0
119	0x00000000	0.0
120	0x00000000	0.0
121	0x00000000	0.0
122	0x00000000	0.0
123	0x00000000	0.0
124	0x00000000	0.0
125	0x00000000	0.0
126	0x00000000	0.0
127	0x00000000	0.0
128	0x00000000	0.0
129	0x00000000	0.0
130	0x00000000	0.0
131	0x00000000	0.0
132	0x00000000	0.0
133	0x00000000	0.0
134	0x00000000	0.0
135	0x00000000	0.0
136	0x00000000	0.0
137	0x00000000	0.0
138	0x00000000	0.0
139	0x00000000	0.0
140	0x00000000	0.0
141	0x00000000	0.0
142	0x00000000	0.0
143	0x00000000	0.0
144	0x00000000	0.0
145	0x00000000	0.0
146	0x00000000	0.0
147	0x00000000	0.0
148	0x00000000	0.0
149	0x00000000	0.0
150	0x00000000	0.0
151	0x00000000	0.0
152	0x00000000	0.0
153	0x00000000	0.0
154	0x00000000	0.0
155	0x00000000	0.0
156	0x00000000	0.0
157	0x00000000	0.0
158	0x00000000	0.0
159	0x00000000	0.0
160	0x00000000	0.0
161	0x00000000	0.0
162	0x00000000	0.0
163	0x00000000	0.0
164	0x00000000	0.0
165	0x00000000	0.0
166	0x00000000	0.0
167	0x00000000	0.0
168	0x00000000	0.0
169	0x00000000	0.0
170	0x00000000	0.0
171	0x00000000	0.0
172	0x00000000	0.0
173	0x00000000	0.0
174	0x00000000	0.0
175	0x00000000	0.0
176	0x00000000	0.0
177	0x00000000	0.0
178	0x00000000	0.0
179	0x00000000	0.0
180	0x00000000	0.0
181	0x00000000	0.0
182	0x00000000	0.0
183	0x00000000	0.0
184	0x00000000	0.0
185	0x00000000	0.0
186	0x00000000	0.0
187	0x00000000	0.0
188	0x00000000	0.0
189	0x00000000	0.0
190	0x00000000	0.0
191	0x00000000	0.0
192	0x00000000	0.0
193	0x00000000	0.0
194	0x00000000	0.0
195	0x00000000	0.0
196	0x00000000	0.0
197	0x00000000	0.0
198	0x00000000	0.0
199	0x00000000	0.0
200	0x00000000	0.0
201	0x00000000	0.0
202	0x00000000	0.0
203	0x00000000	0.0
204	0x00000000	0.0
205	0x00000000	0.0
206	0x00000000	0.0
207	0x00000000	0.0
208	0x00000000	0.0
209	0x00000000	0.0
210	0x00000000	0.0
211	0x00000000	0.0
212	0x00000000	0.0
213	0x00000000	0.0
214	0x00000000	0.0
215	0x00000000	0.0
216	0x00000000	0.0
217	0x00000000	0.0
218	0x00000000	0.0
219	0x00000000	0.0
220	0x00000000	0.0
221	0x00000000	0.0
222	0x00000000	0.0
223	0x00000000	0.0
224	0x00000000	0.0
225	0x00000000	0.0
226	0x00000000	0.0
227	0x00000000	0.0
228	0x00000000	0.0
229	0x00000000	0.0
230	0x00000000	0.0
231	0x00000000	0.0
232	0x00000000	0.0
233	0x00000000	0.0
234	0x00000000	0.0
235	0x00000000	0.0
236	0x00000000	0.0
237	0x00000000	0.0
238	0x00000000	0.0
239	0x00000000	0.0
240	0x00000000	0.0
241	0x00000000	0.0
242	0x00000000	0.0
243	0x00000000	0.0
244	0x00000000	0.0
245	0x00000000	0.0
246	0x00000000	0.0
247	0x00000000	0.0
248	0x00000000	0.0
249	0x00000000	0.0
250	0x00000000	0.0
251	0x00000000	0.0
252	0x00000000	0.0
253	0x00000000	0.0
254	0x00000000	0.0
255	0x00000000	0.0

reye_pose f4 [156, 3]
0	0x00000000	0.0
1	0x00000000	0.0
2	0x00000000	0.0
3	0x00000000	0.0
4	0x00000000	0.0
5	0x00000000	0.0
6	0x00000000	0.0
7	0x00000000	0.0
8	0x00000000	0.0
9	0x00000000	0.0
10	0x00000000	0.0
11	0x00000000	0.0
12	0x00000000	0.0
13	0x00000000	0.0
14	0x00000000	0.0
15	0x00000000	0.0
16	0x00000000	0.0
17	0x00000000	0.0
18	0x00000000	0.0
19	0x00000000	0.0
20	0x00000000	0.0
21	0x00000000	0.0
22	0x00000000	0.0
23	0x00000000	0.0
24	0x00000000	0.0
25	0x00000000	0.0
26	0x00000000	0.0
27	0x00000000	0.0
28	0x00000000	0.0
29	0x00000000	0.0
30	0x00000000	0.0
31	0x00000000	0.0
32	0x00000000	0.0
33	0x00000000	0.0
34	0x00000000	0.0
35	0x00000000	0.0
36	0x00000000	0.0
37	0x00000000	0.0
38	0x00000000	0.0
39	0x00000000	0.0
40	0x00000000	0.0
41	0x00000000	0.0
42	0x00000000	0.0
43	0x00000000	0.0
44	0x00000000	0.0
45	0x00000000	0.0
46	0x00000000	0.0
47	0x00000000	0.0
48	0x00000000	0.0
49	0x00000000	0.0
50	0x00000000	0.0
51	0x00000000	0.0
52	0x00000000	0.0
53	0x00000000	0.0
54	0x00000000	0.0
55	0x00000000	0.0
56	0x00000000	0.0
57	0x00000000	0.0
58	0x00000000	0.0
59	0x00000000	0.0
60	0x00000000	0.0
61	0x00000000	0.0
62	0x00000000	0.0
63	0x00000000	0.0
64	0x00000000	0.0
65	0x00000000	0.0
66	0x00000000	0.0
67	0x00000000	0.0
68	0x00000000	0.0
69	0x00000000	0.0
70	0x00000000	0.0
71	0x00000000	0.0
72	0x00000000	0.0
73	0x00000000	0.0
74	0x00000000	0.0
75	0x00000000	0.0
76	0x00000000	0.0
77	0x00000000	0.0
78	0x00000000	0.0
79	0x00000000	0.0
80	0x00000000	0.0
81	0x00000000	0.0
82	0x00000000	0.0
83	0x00000000	0.0
84	0x00000000	0.0
85	0x00000000	0.0
86	0x00000000	0.0
87	0x00000000	0.0
88	0x00000000	0.0
89	0x00000000	0.0
90	0x00000000	0.0
91	0x00000000	0.0
92	0x00000000	0.0
93	0x00000000	0.0
94	0x00000000	0.0
95	0x00000000	0.0
96	0x00000000	0.0
97	0x00000000	0.0
98	0x00000000	0.0
99	0x00000000	0.0
100	0x00000000	0.0
101	0x00000000	0.0
102	0x00000000	0.0
103	0x00000000	0.0
104	0x00000000	0.0
105	0x00000000	0.0
106	0x00000000	0.0
107	0x00000000	0.0
108	0x00000000	0.0
109	0x00000000	0.0
110	0x00000000	0.0
111	0x00000000	0.0
112	0x00000000	0.0
113	0x00000000	0.0
114	0x00000000	0.0
115	0x00000000	0.0
116	0x00000000	0.0
117	0x00000000	0.0
118	0x00000000	0.0
119	0x00000000	0.0
120	0x00000000	0.0
121	0x00000000	0.0
122	0x00000000	0.0
123	0x00000000	0.0
124	0x00000000	0.0
125	0x00000000	0.0
126	0x00000000	0.0
127	0x00000000	0.0
128	0x00000000	0.0
129	0x00000000	0.0
130	0x00000000	0.0
131	0x00000000	0.0
132	0x00000000	0.0
133	0x00000000	0.0
134	0x00000000	0.0
135	0x00000000	0.0
136	0x00000000	0.0
137	0x00000000	0.0
138	0x00000000	0.0
139	0x00000000	0.0
140	0x00000000	0.0
141	0x00000000	0.0
142	0x00000000	0.0
143	0x00000000	0.0
144	0x00000000	0.0
145	0x00000000	0.0
146	0x00000000	0.0
147	0x00000000	0.0
148	0x00000000	0.0
149	0x00000000	0.0
150	0x00000000	0.0
151	0x00000000	0.0
152	0x00000000	0.0
153	0x00000000	0.0
154	0x00000000	0.0
155	0x00000000	0.0
156	0x00000000	0.0
157	0x00000000	0.0
158	0x00000000	0.0
159	0x00000000	0.0
160	0x00000000	0.0
161	0x00000000	0.0
162	0x00000000	0.0
163	0x00000000	0.0
164	0x00000000	0.0
165	0x00000000	0.0
166	0x00000000	0.0
167	0x00000000	0.0
168	0x00000000	0.0
169	0x00000000	0.0
170	0x00000000	0.0
171	0x00000000	0.0
172	0x00000000	0.0
173	0x00000000	0.0
174	0x00000000	0.0
175	0x00000000	0.0
176	0x00000000	0.0
177	0x00000000	0.0
178	0x00000000	0.0
179	0x00000000	0.0
180	0x00000000	0.0
181	0x00000000	0.0
182	0x00000000	0.0
183	0x00000000	0.0
184	0x00000000	0.0
185	0x00000000	0.0
186	0x00000000	0.0
187	0x00000000	0.0
188	0x00000000	0.0
189	0x00000000	0.0
190	0x00000000	0.0
191	0x00000000	0.0
192	0x00000000	0.0
193	0x00000000	0.0
194	0x00000000	0.0
195	0x00000000	0.0
196	0x00000000	0.0
197	0x00000000	0.0
198	0x00000000	0.0
199	0x00000000	0.0
200	0x00000000	0.0
201	0x00000000	0.0
202	0x00000000	0.0
203	0x00000000	0.0
204	0x00000000	0.0
205	0x00000000	0.0
206	0x00000000	0.0
207	0x00000000	0.0
208	0x00000000	0.0
209	0x00000000	0.0
210	0x00000000	0.0
211	0x00000000	0.0
212	0x00000000	0.0
213	0x00000000	0.0
214	0x00000000	0.0
215	0x00000000	0.0
216	0x00000000	0.0
217	0x00000000	0.0
218	0x00000000	0.0
219	0x00000000	0.0
220	0x00000000	0.0
221	0x00000000	0.0
222	0x00000000	0.0
223	0x00000000	0.0
224	0x00000000	0.0
225	0x00000000	0.0
226	0x00000000	0.0
227	0x00000000	0.0
228	0x00000000	0.0
229	0x00000000	0.0
230	0x00000000	0.0
231	0x00000000	0.0
232	0x00000000	0.0
233	0x00000000	0.0
234	0x00000000	0.0
235	0x00000000	0.0
236	0x00000000	0.0
237	0x00000000	0.0
238	0x00000000	0.0
239	0x00000000	0.0
240	0x00000000	0.0
241	0x00000000	0.0
242	0x00000000	0.0
243	0x00000000	0.0
244	0x00000000	0.0
245	0x00000000	0.0
246	0x00000000	0.0
247	0x00000000	0.0
248	0x00000000	0.0
249	0x00000000	0.0
250	0x00000000	0.0
251	0x00000000	0.0
252	0x00000000	0.0
253	0x00000000	0.0
254	0x00000000	0.0
255	0x00000000	0.0
