test_dataset/gait_809/20250819_c1_a2_Take1/split_subjects/0/fit-smplx/smplx-params_cut.npz (npz, 42882 bytes, 10 tensors)

betas f4 [82, 11]
0	0x3f3bfb00	0.7342987
1	0xbfcd0e64	-1.6020017
2	0x3f287867	0.6580872
3	0xbea682a8	-0.32521558
4	0xbf85359e	-1.0406988
5	0xbe9d43dd	-0.30715838
6	0xbe9c3239	-0.30507067
7	0x3f9075e2	1.1285975
8	0x3e44ebbd	0.19230552
9	0x3dc05502	0.09391214
10	0x3ec55f00	0.38549042
11	0x3f45167c	0.76987433
12	0xbfc8075a	-1.5627244
13	0x3f21d0a4	0.63208985
14	0xbea91d3d	-0.3303012
15	0xbf5089db	-0.8146035
16	0xbec07d93	-0.37595806
17	0xbeabb725	-0.33538166
18	0x3f7a4ae1	0.97770506
19	0x3e3725f2	0.17885569
20	0x3de6aa51	0.11262954
21	0x3ec9038a	0.39260513
22	0x3f4e9d56	0.80708826
23	0xbfc54e32	-1.5414488
24	0x3f1c4890	0.6104822
25	0xbeb7f415	-0.35928407
26	0xbf4a7ea2	-0.79099476
27	0xbeab6731	-0.33477166
28	0xbeb48479	-0.3525732
29	0x3f78620a	0.97024596
30	0x3e4b48de	0.19852015
31	0x3e0213be	0.12702844
32	0x3ecb0586	0.39652652
33	0x3f63b9cb	0.8895537
34	0xbfc860dc	-1.5654559
35	0x3f1405ce	0.5782136
36	0xbecdeec9	-0.4022124
37	0xbf4c989a	-0.7992035
38	0xbea6b272	-0.32558018
39	0xbeb181e1	-0.34669402
40	0x3f909fff	1.1298827
41	0x3e5340b1	0.20630147
42	0x3e0e8f3c	0.13921827
43	0x3ecfa477	0.40555164
44	0x3f781f7a	0.9692303
45	0xbfe7b8a4	-1.8103223
46	0x3f3b7650	0.73227406
47	0xbe9ccdbc	-0.30625713
48	0xbf8b68b7	-1.0891331
49	0xbe987162	-0.29774004
50	0xbecfa8eb	-0.40558562
51	0x3f8c5787	1.0964211
52	0x3d9e17fb	0.07719418
53	0x3da0196e	0.0781735
54	0x3ecb5b19	0.3971794
55	0x3f9037f1	1.1267072
56	0xbff64152	-1.9238684
57	0x3f36c4a4	0.713938
58	0xbd61b00c	-0.055099532
59	0xbf921468	-1.1412477
60	0xbddb5e54	-0.10711351
61	0xbeaf5857	-0.34247085
62	0x3fab6f92	1.3393424
63	0x3c48f0a0	0.012264401
64	0x3d8bdb0f	0.068288915
65	0x3ece75ab	0.4032415
66	0x3f9aaa67	1.2083253
67	0xc002c526	-2.043283
68	0x3f25fd56	0.64839685
69	0x3e28a1f8	0.16468036
70	0xbf92084f	-1.1408786
71	0x3c5af845	0.013364856
72	0xbeda4a8a	-0.42634994
73	0x3fa98bbc	1.3245769
74	0xbe11d974	-0.14243108
75	0x3d9c049a	0.07618065
76	0x3eccdec0	0.40013695
77	0x3fa55d32	1.2919066
78	0xc005c614	-2.0902147
79	0x3f0ef4fc	0.55842566
80	0x3ea095e5	0.3136436
81	0xbf9b23b2	-1.2120268
82	0x3dff08e1	0.124528654
83	0xbf0a660e	-0.54061973
84	0x3f9d97c7	1.2311944
85	0xbe797dad	-0.24364348
86	0x3db1f63f	0.08689546
87	0x3ecc4adc	0.39900863
88	0x3faa742e	1.3316705
89	0xc00cc705	-2.1996472
90	0x3f27ac85	0.6549762
91	0x3ec9afa4	0.39391816
92	0xbfafeb99	-1.3743774
93	0x3d49e912	0.04929454
94	0xbf2560ad	-0.6460064
95	0x3f9c8cc0	1.2230453
96	0xbea5d811	-0.32391408
97	0x3dd6b561	0.10483814
98	0x3ecab55d	0.39591494
99	0x3fa4f740	1.2887955
100	0xbfff4348	-1.9942408
101	0x3f165321	0.58720595
102	0x3e8819ef	0.26582286
103	0xbf8b0abb	-1.086265
104	0xbdc17632	-0.09446372
105	0xbf39930c	-0.7249
106	0x3f8f96c3	1.1217884
107	0xbe90d663	-0.28288564
108	0x3dd1b10d	0.10238848
109	0x3ed2f72e	0.41204208
110	0x3f97d18b	1.1860822
111	0xbff46f47	-1.9096459
112	0x3f1c7baf	0.61126226
113	0x3e98dbb0	0.29855108
114	0xbf91c680	-1.1388702
115	0x3b8eb1cd	0.0043546916
116	0xbf3ef733	-0.74595946
117	0x3f7f60c1	0.9975701
118	0xbebe81a2	-0.37208277
119	0x3daebf4e	0.08532582
120	0x3ed00738	0.40630507
121	0x3f9b8d85	1.2152563
122	0xbff2ee27	-1.8978928
123	0x3f4d4bd7	0.8019385
124	0x3ea78224	0.32716477
125	0xbfa3a17d	-1.2783657
126	0xbca40925	-0.020023892
127	0xbf397889	-0.7244955
128	0x3f67fb0d	0.9061745
129	0xbec972a3	-0.39345273
130	0x3dbe491c	0.09291288
131	0x3ed4ecc1	0.4158688
132	0x3f95f52e	1.1715448
133	0xbfdfac0c	-1.747438
134	0x3f347861	0.70496184
135	0x3e6b038a	0.22950569
136	0xbf916a9c	-1.136066
137	0xba13f02e	-0.00056433945
138	0xbf5311c2	-0.8244897
139	0x3f6b14cd	0.91828614
140	0xbe9516c7	-0.2911894
141	0x3e1afa83	0.15134625
142	0x3ed6698b	0.41877398
143	0x3f92c54e	1.1466463
144	0xbfd63fef	-1.6738261
145	0x3f347efe	0.70506275
146	0x3e3a4008	0.18188488
147	0xbf889d02	-1.0672915
148	0xbd04e254	-0.032442406
149	0xbf4882c9	-0.7832456
150	0x3f84600c	1.0341811
151	0xbe4e294a	-0.20132938
152	0x3e50f668	0.20406497
153	0x3ed7c54f	0.42142722
154	0x3f8c20ef	1.094755
155	0xbfd988c8	-1.6994867
156	0x3f3e60e6	0.74366605
157	0x3e10faad	0.14158125
158	0xbf78a513	-0.97126883
159	0x3b578e19	0.0032891093
160	0xbf37bb39	-0.71770054
161	0x3f98a157	1.1924237
162	0xbe09e193	-0.13464956
163	0x3e719709	0.23592772
164	0x3ed630b7	0.4183404
165	0x3f90cc6b	1.1312383
166	0xbfdacf1e	-1.7094457
167	0x3f3dcd4e	0.74141395
168	0x3e148025	0.14502008
169	0xbf8057e6	-1.0026824
170	0x3c6eee56	0.014583191
171	0xbf3037ba	-0.6883503
172	0x3f856984	1.0422826
173	0xbe0a3e94	-0.13500434
174	0x3e92ef07	0.28697988
175	0x3ed79620	0.42106724
176	0x3f9e4089	1.2363445
177	0xc00f3881	-2.2378237
178	0x3f91138a	1.1334088
179	0x3ed0fc15	0.40817323
180	0xbfbab451	-1.4586278
181	0xbcc30bfe	-0.02380943
182	0xbf4c15a2	-0.7972051
183	0x3f9ef735	1.2419192
184	0xbe87c6ad	-0.26518765
185	0x3e1424a0	0.14467096
186	0x3ecc08d9	0.398505
187	0x3f9a17ba	1.2038491
188	0xc0143cec	-2.3162184
189	0x3f9cc3a6	1.2247207
190	0x3ec25b1f	0.37960145
191	0xbfc5ecf2	-1.5462935
192	0x3d1e2b21	0.03861535
193	0xbf3f86c2	-0.74815
194	0x3fa024ad	1.2511193
195	0xbebd3b83	-0.36959466
196	0x3dc8ec59	0.09810705
197	0x3ec95600	0.39323425
198	0x3f9b7e56	1.214793
199	0xc0167610	-2.350956
200	0x3f9f1c41	1.2430497
201	0x3ee1887c	0.44049442
202	0xbfd33f54	-1.6503701
203	0x3e280d27	0.16411267
204	0xbf3a29b1	-0.72719866
205	0x3fa3afd2	1.2788031
206	0xbedc5781	-0.4303551
207	0x3dfec2fa	0.124395326
208	0x3ec6ecc6	0.3885252
209	0x3f9fd96d	1.2488228
210	0xc0178f6a	-2.3681283
211	0x3f9816f6	1.1882007
212	0x3f0ff591	0.5623408
213	0xbfcf63fb	-1.6202387
214	0x3e8c00b0	0.27344275
215	0xbf407f20	-0.7519398
216	0x3fa79483	1.3092197
217	0xbefb4a07	-0.49079916
218	0x3e10aa6c	0.14127511
219	0x3ec62425	0.3869945
220	0x3fa54f08	1.2914743
221	0xc0173b59	-2.3629973
222	0x3f8f4d7b	1.119552
223	0x3f2b4e5a	0.6691643
224	0xbfcaff3b	-1.585914
225	0x3ea94965	0.33063808
226	0xbf52a19d	-0.8227785
227	0x3fa503ed	1.2891823
228	0xbf0c4e18	-0.5480666
229	0x3e1fbc92	0.15599278
230	0x3ec424b0	0.3830924
231	0x3fad5ae0	1.3543358
232	0xc0145f77	-2.3183267
233	0x3f8a2119	1.0791351
234	0x3f3d0ea1	0.73850447
235	0xbfc99d3b	-1.5751108
236	0x3e9b8bd1	0.3038011
237	0xbf676b9a	-0.9039856
238	0x3fa9d994	1.3269525
239	0xbf170ec3	-0.590069
240	0x3e30a39c	0.17249912
241	0x3ec4c464	0.38431084
242	0x3faed255	1.3657938
243	0xc00cbc53	-2.1989944
244	0x3f89aa4e	1.0755098
245	0x3f322384	0.6958544
246	0xbfd3fc87	-1.656144
247	0x3e85ff9e	0.26171583
248	0xbf717bc1	-0.9432946
249	0x3f97e764	1.186749
250	0xbf22c269	-0.63577896
251	0x3e1ef86e	0.15524456
252	0x3ec6d0a5	0.38831058
253	0x3facaa11	1.34894
254	0xbffc253b	-1.9698862
255	0x3f73bde0	0.952116

global_orient f4 [82, 3]
0	0xbc99da5f	-0.018780885
1	0xc02ce481	-2.7014468
2	0x3e275b83	0.16343503
3	0xbc2dcb26	-0.010607516
4	0xc02a9835	-2.66554
5	0x3e2dd2c7	0.16974936
6	0x3c15eef4	0.009151209
7	0xc02845ad	-2.6292527
8	0x3e32048c	0.17384547
9	0x3cc81645	0.024424681
10	0xc026a72d	-2.6039536
11	0x3e2b7f39	0.1674775
12	0x3cc94ed5	0.024573723
13	0xc01edf46	-2.4823775
14	0x3e01ffc2	0.1269522
15	0x3cbd1428	0.0230809
16	0xc01a44e4	-2.4104548
17	0x3dabaedb	0.083829604
18	0x3cf7a939	0.030232059
19	0xc0191af8	-2.392271
20	0x3d6e698f	0.058206137
21	0x3d107a63	0.035272967
22	0xc018b392	-2.38596
23	0x3d2ebb4f	0.0426591
24	0x3c68b3da	0.014203036
25	0xc0186e1b	-2.3817203
26	0x3cc3b276	0.023888808
27	0x3b1075f1	0.0022042955
28	0xc01aa2dd	-2.4161904
29	0x3c32804e	0.010894848
30	0x3be746d0	0.007058002
31	0xc019b57c	-2.401702
32	0xbc875ad2	-0.016522799
33	0x3cc80237	0.024415119
34	0xc01a0a17	-2.4068658
35	0xbc995456	-0.018716972
36	0x3d1accd2	0.037792988
37	0xc01af882	-2.4214177
38	0xbbb45525	-0.005503314
39	0x3ceae4c2	0.028673533
40	0xc01c78e3	-2.4448783
41	0x3ca7ef7d	0.02049994
42	0x383c1b38	4.4848042e-05
43	0xc01ec464	-2.4807367
44	0x3d54ada7	0.05192342
45	0xbd04f2b1	-0.03245801
46	0xc02198f4	-2.5249605
47	0x3dba401e	0.09094261
48	0xbcb3736b	-0.021905622
49	0xc029531a	-2.645697
50	0x3d580c06	0.05274584
51	0xbbc16dbe	-0.005902975
52	0xc031116e	-2.7666888
53	0x3d40a1eb	0.047029417
54	0x3b9140d9	0.0044327793
55	0xc0352311	-2.8302653
56	0x3cf0fd61	0.029417695
57	0x3c1f62b9	0.009728127
58	0xc0385963	-2.8804557
59	0x3af1c179	0.00184445
60	0x3c5aae9e	0.013347296
61	0xc03bd624	-2.934945
62	0xbce9cb95	-0.028539458
63	0x3c98d2ce	0.018655207
64	0xc03e33de	-2.9719157
65	0xbd8edae3	-0.06975343
66	0x3cc682f1	0.02423236
67	0xc04151db	-3.020621
68	0xbdc352f1	-0.09537304
69	0x3d28874e	0.04114466
70	0xc0443f24	-3.0663538
71	0xbe150f6e	-0.14556667
72	0x3d0c77d4	0.034293965
73	0xc045dde4	-3.0916681
74	0xbe3aa01f	-0.18225144
75	0x3d157837	0.0364916
76	0xc044db2a	-3.0758767
77	0xbe468d4d	-0.1938984
78	0x3d722ed9	0.05912671
79	0xc041979f	-3.0248792
80	0xbe487e54	-0.1957944
81	0x3db338fb	0.087511025
82	0xc03cf1c6	-2.9522567
83	0xbe416b82	-0.18888667
84	0x3e06478b	0.13113229
85	0xc037156e	-2.860683
86	0xbe3cce3f	-0.18438052
87	0x3e291b03	0.1651421
88	0xc03284e1	-2.7893603
89	0xbe2de277	-0.1698092
90	0x3e3634ae	0.17793533
91	0xc02e12bc	-2.7198935
92	0xbe20eaea	-0.15714613
93	0x3e34aa18	0.1764301
94	0xc029d3b7	-2.653547
95	0xbe24aa7a	-0.16080657
96	0x3e309329	0.17243637
97	0xc024e6b3	-2.5765808
98	0xbe25a176	-0.16174874
99	0x3e217e80	0.15770912
100	0xc022e2a3	-2.5450828
101	0xbe1a4deb	-0.15068786
102	0x3e0e3ac3	0.13889603
103	0xc020fed5	-2.5155537
104	0xbe22538d	-0.15852185
105	0x3df87017	0.121307544
106	0xc01f9fcb	-2.494128
107	0xbe2d97fe	-0.16952512
108	0x3dab1587	0.083537154
109	0xc01e2e54	-2.4715776
110	0xbe33b94e	-0.17551157
111	0x3cf82a43	0.03029359
112	0xc01d376c	-2.4565077
113	0xbe2a8531	-0.16652371
114	0xbb40a631	-0.0029395933
115	0xc019b8af	-2.4018972
116	0xbe274ab4	-0.1633709
117	0xbbfd5a1d	-0.0077316896
118	0xc016925d	-2.3526833
119	0xbe28617b	-0.16443436
120	0xbc1613bb	-0.009159978
121	0xc015d371	-2.3410304
122	0xbe2d73ca	-0.16938701
123	0xbc3179b5	-0.01083224
124	0xc0181a08	-2.3765888
125	0xbe2b48dc	-0.16727012
126	0xbcb52b2e	-0.022115316
127	0xc01d747b	-2.4602344
128	0xbe1d1aeb	-0.153423
129	0xbd0c25b5	-0.034215648
130	0xc023cd6a	-2.5594125
131	0xbe044664	-0.12917477
132	0xbd4eb6e4	-0.050467387
133	0xc0296c7e	-2.6472468
134	0xbde2ff41	-0.11083842
135	0xbd846c41	-0.0646596
136	0xc02e819b	-2.7266605
137	0xbdb97066	-0.090546414
138	0xbda8e625	-0.082470216
139	0xc034be10	-2.8241005
140	0xbd8b684e	-0.06807004
141	0xbdc070dc	-0.09396526
142	0xc0384ce9	-2.8796942
143	0xbd5874e5	-0.052845854
144	0xbdc8124c	-0.09769115
145	0xc03a2326	-2.9083953
146	0xbd4c3121	-0.04985154
147	0xbdb83e73	-0.08996286
148	0xc03b3dfe	-2.9256587
149	0xbd3dd810	-0.04634863
150	0xbdbdccf1	-0.09267605
151	0xc03b5dc6	-2.9275985
152	0xbd45c483	-0.04828311
153	0xbdaede45	-0.08538488
154	0xc03b7f64	-2.9296503
155	0xbd718480	-0.058964252
156	0xbdacca19	-0.084369846
157	0xc03c6dee	-2.9442096
158	0xbda3dfeb	-0.08001693
159	0xbd9b30d6	-0.07577674
160	0xc03fabd7	-2.9948633
161	0xbde91c44	-0.11382344
162	0xbd8d77f5	-0.069076456
163	0xc041f89f	-3.0307996
164	0xbe209f74	-0.15685827
165	0xbd519dce	-0.051175885
166	0xc04255e7	-3.036493
167	0xbe225719	-0.15853538
168	0xbd5020d0	-0.050812542
169	0xc041029d	-3.0157845
170	0xbe2c2e41	-0.1681452
171	0xbce16363	-0.027513212
172	0xc03dd844	-2.9663248
173	0xbe2f5fb4	-0.17126352
174	0xbc12adc1	-0.008952559
175	0xc03b846b	-2.9299572
176	0xbe140bbd	-0.14457603
177	0x3d22c619	0.039739702
178	0xc03953fc	-2.895751
179	0xbe01dd1c	-0.12682003
180	0x3d9559d2	0.072925225
181	0xc03702ee	-2.8595538
182	0xbde9eeb2	-0.11422481
183	0x3dc9927c	0.09842393
184	0xc03519b5	-2.829694
185	0xbdf0160a	-0.117229536
186	0x3de97a08	0.11400229
187	0xc03369e7	-2.8033388
188	0xbdf8a933	-0.12141647
189	0x3e0f0ea6	0.13970432
190	0xc032fc88	-2.7966633
191	0xbdfbfc77	-0.12304013
192	0x3e15ec69	0.14640965
193	0xc032b9ab	-2.7925823
194	0xbdeb5533	-0.1149086
195	0x3e1ad20f	0.15119193
196	0xc032b877	-2.7925088
197	0xbdb6e767	-0.08930855
198	0x3e0ea7ce	0.139312
199	0xc02e2345	-2.7209027
200	0xbdce8651	-0.100842126
201	0x3dedcd0b	0.116113745
202	0xc02a1ec1	-2.658127
203	0xbe0090bf	-0.12555216
204	0x3da4fabc	0.08055636
205	0xc0282671	-2.6273463
206	0xbe119d6a	-0.14220205
207	0x3d5ccd26	0.053906582
208	0xc024068b	-2.5628994
209	0xbe24a2bb	-0.16077702
210	0x3cb2bd52	0.02181879
211	0xc01f355e	-2.4876323
212	0xbe2f8ef1	-0.17144372
213	0x3b9138a5	0.0044318014
214	0xc01c6180	-2.443451
215	0xbe3a3abc	-0.18186468
216	0xbb8b665e	-0.0042541465
217	0xc01b9650	-2.4310493
218	0xbe35810b	-0.17725007
219	0xbc12c10a	-0.008957157
220	0xc01bb0e0	-2.4326706
221	0xbe25671d	-0.16152616
222	0xbc9e3274	-0.019311167
223	0xc01d05ec	-2.4534864
224	0xbe06a876	-0.131502
225	0xbd253eb9	-0.04034302
226	0xc01d6f75	-2.4599278
227	0xbde63e06	-0.11242299
228	0xbd783e92	-0.060606547
229	0xc01e9cde	-2.4783244
230	0xbdb29384	-0.087195426
231	0xbd89a8b8	-0.06721634
232	0xc01fc85b	-2.4966037
233	0xbd839844	-0.06425527
234	0xbda94a8d	-0.082661726
235	0xc0202dc8	-2.5027943
236	0xbd2325a8	-0.039830834
237	0xbdcf968a	-0.10136135
238	0xc01f078c	-2.4848356
239	0xbbf0a53b	-0.0073439158
240	0xbdd497f4	-0.10380545
241	0xc01e710c	-2.4756498
242	0x3c8204ca	0.015871424
243	0xbddcece1	-0.107873686
244	0xc01e31ef	-2.4717977
245	0x3d147fd7	0.03625473

body_pose f4 [82, 63]
0	0xbf078414	-0.5293591
1	0xbda47c5a	-0.08031531
2	0x3d8c2bfc	0.06844327
3	0xbe1be929	-0.15225662
4	0x3e35fb5e	0.1777167
5	0x3cdf12c2	0.027230624
6	0x3e491f02	0.19640735
7	0x3d59b10f	0.05314737
8	0x3d4d25b7	0.050084796
9	0x3f411b48	0.7543225
10	0xbe41f7f2	-0.1894224
11	0xbdb5d1f0	-0.08877933
12	0x3f77dc94	0.9682095
13	0xbcae0065	-0.021240423
14	0x3e3bc844	0.18338114
15	0x3d2e5f00	0.042571068
16	0x3d69c9a0	0.05707705
17	0xbe0ddc67	-0.13853608
18	0x3d91ae17	0.07113283
19	0xbebbb916	-0.36664647
20	0xbe22b593	-0.15889578
21	0xbd98c6fb	-0.074598275
22	0xbdde9d34	-0.10869828
23	0x3d25089c	0.040291414
24	0x3e5c2413	0.21498136
25	0x3dc0207f	0.09381198
26	0xbc15ff99	-0.0091551775
27	0x37769907	1.4698372e-05
28	0xb785e471	-1.5961212e-05
29	0x3784d663	1.5835458e-05
30	0x377c7209	1.5046921e-05
31	0x37818c56	1.5443347e-05
32	0x3782e17d	1.5602209e-05
33	0x3e80d37c	0.2516135
34	0x3c9cb729	0.019130306
35	0xbd7d5917	-0.06185254
36	0x3b8bdac1	0.004268021
37	0x3dd1e9e4	0.10249689
38	0xbeb482c6	-0.35256022
39	0x3b99252e	0.0046736216
40	0xb94101c0	-0.00018406566
41	0x3eb6fa33	0.35737762
42	0x3e486a34	0.19571763
43	0x3d8f0f56	0.06985347
44	0x3ce15e2d	0.027510727
45	0x3deb226a	0.11481173
46	0xbe6c356c	-0.23067254
47	0xbf32ebd1	-0.6989108
48	0x3e0d101b	0.13775675
49	0x3e942ab4	0.2893883
50	0x3f3c7a8a	0.7362448
51	0x3d858298	0.065190494
52	0xbf803472	-1.0016005
53	0xbe55db5d	-0.20884462
54	0x3e37afd2	0.17938164
55	0x3f378a21	0.71695143
56	0x3ee3e243	0.44508561
57	0x3e2cd4cc	0.1687805
58	0xbe0022db	-0.12513296
59	0xbcf66e29	-0.030081825
60	0x3e627edc	0.22118706
61	0x3df2d5bd	0.118571736
62	0xbe816ecf	-0.25279853
63	0xbef33a73	-0.4750553
64	0xbdb329b6	-0.0874819
65	0x3d94b002	0.07260133
66	0xbe90b916	-0.2826621
67	0x3db60140	0.08886957
68	0x3cbb4f32	0.022864912
69	0x3e498f5b	0.19683592
70	0x3d26a7e1	0.040687446
71	0x3d466f3a	0.048445918
72	0x3f3a27e3	0.7271711
73	0xbe503ef1	-0.2033651
74	0xbdaa1e1b	-0.083065234
75	0x3f90dcd7	1.1317395
76	0xbc2df2b7	-0.01061695
77	0x3e2eefc6	0.17083654
78	0x3d420836	0.04737111
79	0x3d41f90d	0.047356654
80	0xbdf69a03	-0.12041094
81	0x3d779394	0.060443476
82	0xbeb0853f	-0.3447666
83	0xbe062f40	-0.13103962
84	0x3d3258bf	0.043541666
85	0xbdf7cd43	-0.120996974
86	0xbd6e4e89	-0.058180366
87	0x3e5c46f2	0.21511438
88	0x3daa265d	0.083080985
89	0xbc346b06	-0.0110118445
90	0x3770ed2c	1.4360336e-05
91	0xb783dcae	-1.5719179e-05
92	0x3782709e	1.554965e-05
93	0x377c4787	1.5037024e-05
94	0x377f4241	1.521461e-05
95	0xb7804709	-1.5291867e-05
96	0x3e8e8fc2	0.27844054
97	0x3d5cab26	0.053874157
98	0xbd39c608	-0.045354873
99	0x3b4eee7c	0.0031575253
100	0x3dde07b0	0.1084131
101	0xbebe0ba7	-0.37118265
102	0xbb489e19	-0.0030611812
103	0xbdf2d13f	-0.11856317
104	0x3eecf8e3	0.46283635
105	0x3e4830fe	0.19549939
106	0x3db4d382	0.088294044
107	0x3ca88e38	0.020575628
108	0x3dddc0fb	0.10827824
109	0xbe654121	-0.22388126
110	0xbf2a8f65	-0.6662505
111	0x3dbdca3d	0.092670895
112	0x3e31950e	0.17342016
113	0x3f52c622	0.82333577
114	0x3d6f7e3e	0.058470003
115	0xbf761167	-0.96120304
116	0xbe25fd91	-0.16210009
117	0x3e2165a0	0.15761423
118	0x3f6acfe4	0.91723466
119	0x3e359c6b	0.1773545
120	0x3e3f000a	0.18652359
121	0xbdb8ca34	-0.09022942
122	0xbd2f5f84	-0.0428157
123	0x3eb20aa6	0.3477375
124	0x3da16447	0.078804545
125	0xbd8ba855	-0.06819216
126	0xbed6f2b0	-0.4198203
127	0xbdb693e3	-0.08914926
128	0x3dc1959f	0.09452366
129	0xbee8c306	-0.4546129
130	0x3de6d88b	0.11271771
131	0xbac5f074	-0.0015101568
132	0x3e57ed5f	0.21086644
133	0x3cc8e26d	0.02452203
134	0x3d686f7d	0.05674695
135	0x3f2f4c8d	0.6847618
136	0xbe6c911b	-0.23102228
137	0xbd85e94b	-0.06538638
138	0x3fa1e9c8	1.2649469
139	0xbd9e4b12	-0.07729162
140	0x3e5f7e36	0.2182549
141	0x3d54189c	0.05178128
142	0x3d2ff067	0.042953875
143	0xbdd35b88	-0.103201926
144	0x3d904c09	0.070457526
145	0xbec17ae3	-0.37789068
146	0xbe10e29f	-0.14148949
147	0x3e0dc4b4	0.13844568
148	0xbdff19b9	-0.12456078
149	0xbe0392e3	-0.12849002
150	0x3e5b65f9	0.21425618
151	0x3d96b5c4	0.07358888
152	0x3b65bdfb	0.0035055864
153	0xb786a43a	-1.6050519e-05
154	0x3778f797	1.4839598e-05
155	0xb7797e6b	-1.48709905e-05
156	0x37806267	1.5304611e-05
157	0x377e0f43	1.5143133e-05
158	0x377ec676	1.5185788e-05
159	0x3e9286b1	0.28618386
160	0x3d7f354f	0.0623067
161	0xbd2f9a4b	-0.042871755
162	0xbc3954d9	-0.011311733
163	0x3de89e86	0.11358361
164	0xbece0f88	-0.40246224
165	0x3b037ba5	0.0020062712
166	0xbe04a0f7	-0.12952028
167	0x3ee29ee2	0.44261843
168	0x3e428576	0.18996224
169	0x3dd4184c	0.10356197
170	0x3c920a4c	0.017827176
171	0x3dc5aa70	0.09651649
172	0xbe6de732	-0.23232725
173	0xbf1f6f8e	-0.62279594
174	0x3d9c48f9	0.07631106
175	0x3e342fd8	0.17596376
176	0x3f5343e9	0.825255
177	0x3d97d324	0.07413319
178	0xbf5ce2fc	-0.8628385
179	0xbe1df670	-0.1542604
180	0x3e15af32	0.14617613
181	0x3f795a6a	0.97403586
182	0x3e11d28e	0.14240476
183	0x3e5cef84	0.21575743
184	0xbe13792d	-0.14401694
185	0xbbd8c265	-0.0066149705
186	0x3e8a048a	0.26956588
187	0x3dbd52c0	0.09244299
188	0xbd0f4c33	-0.03498478
189	0xbebdbbc2	-0.3705731
190	0xbd9f771e	-0.07786392
191	0x3e001880	0.12509346
192	0xbf28e18c	-0.6596916
193	0x3d39745d	0.04527699
194	0xbd889271	-0.066685565
195	0x3e76effa	0.24114981
196	0x3ca7bda8	0.020476177
197	0x3d95a915	0.073076405
198	0x3f2c2dc6	0.67257345
199	0xbe6a8c76	-0.22905144
200	0xbd366ad0	-0.044535458
201	0x3fad0888	1.3518229
202	0xbcc76ba4	-0.02434332
203	0x3e8b0914	0.27155364
204	0x3d414104	0.047181144
205	0x3d794f8c	0.060866877
206	0xbdaa3d26	-0.083124444
207	0x3db9b2fc	0.09067342
208	0xbed30177	-0.41212055
209	0xbe205130	-0.1565597
210	0x3de002ff	0.109380715
211	0xbdf65462	-0.120278135
212	0xbcddb258	-0.02706258
213	0x3e598e99	0.21245803
214	0x3d5d90c9	0.054093156
215	0x3c4c8264	0.012482259
216	0x37820ad7	1.5502255e-05
217	0xb786837a	-1.6035268e-05
218	0x3781965b	1.5448013e-05
219	0x377f5743	1.5219502e-05
220	0x3780cc39	1.5353888e-05
221	0x37801a2c	1.5270976e-05
222	0x3e93bf3f	0.28856847
223	0x3da2a2f2	0.079412356
224	0xbca1bcad	-0.019743288
225	0xbc247a5f	-0.010038941
226	0x3dc68835	0.09693948
227	0xbedd6d58	-0.43247485
228	0xbc9b1132	-0.018929098
229	0xbe2e9926	-0.17050609
230	0x3ed6a45e	0.41922277
231	0x3e4b36b9	0.19845094
232	0x3de279d5	0.11058394
233	0x3c9d01e8	0.019165948
234	0x3d8422c5	0.06451944
235	0xbe5d5ac0	-0.2161665
236	0xbf13feb7	-0.5781054
237	0x3d86a55f	0.06574511
238	0x3e2c978b	0.16854684
239	0x3f512a1f	0.81704897
240	0x3dd4e033	0.10394325
241	0xbf444d2e	-0.76680267
242	0xbe2ddcab	-0.1697871
243	0x3e0e79c6	0.1391364
244	0x3f82aa15	1.0208155
245	0x3e3e5b10	0.18589425
246	0x3e49cced	0.19707079
247	0xbe2904e4	-0.16505772
248	0x3b1ee2da	0.00242441
249	0x3ea37c0d	0.3193058
250	0x3da984e7	0.08277302
251	0xbdab2415	-0.083564915
252	0xbea7932b	-0.32729468
253	0xbdfef3b9	-0.1244883
254	0x3e2682d6	0.16260847
255	0xbf4200af	-0.75782293

transl f4 [82, 3]
0	0x3ef3b307	0.47597525
1	0x3faba08d	1.3408371
2	0x3f7c784b	0.9862105
3	0x3eeef1b1	0.4666877
4	0x3faba029	1.3408252
5	0x3f73e7b7	0.95275444
6	0x3eeb4f47	0.4595892
7	0x3fabd793	1.3425163
8	0x3f6baecc	0.92063594
9	0x3ee70af0	0.45125532
10	0x3fac336c	1.3453193
11	0x3f62fcb9	0.88666874
12	0x3ee167b5	0.44024435
13	0x3fabb6e4	1.3415189
14	0x3f58bf2a	0.84666693
15	0x3edbd881	0.42938617
16	0x3fabe93e	1.3430555
17	0x3f4e333c	0.8054693
18	0x3ed5a34d	0.4172615
19	0x3fabd4ac	1.3424277
20	0x3f4263cf	0.75933546
21	0x3ece34dc	0.40274704
22	0x3fab6599	1.339038
23	0x3f35b7c2	0.7098352
24	0x3ec57051	0.38562253
25	0x3faa41df	1.3301352
26	0x3f27fb9c	0.656183
27	0x3ebbfc5f	0.3671598
28	0x3fa9df91	1.3271352
29	0x3f1a03a2	0.60161793
30	0x3eb3bb42	0.35103804
31	0x3fa937e2	1.3220179
32	0x3f0c9583	0.54915637
33	0x3eac978f	0.3370938
34	0x3fa9ccfb	1.326568
35	0x3f010633	0.50400084
36	0x3ea6f196	0.3260619
37	0x3faae553	1.3351234
38	0x3eed57da	0.46356088
39	0x3ea1c84d	0.3159813
40	0x3fac430d	1.3457962
41	0x3edb0407	0.4277651
42	0x3e9c9de8	0.30589223
43	0x3faddea0	1.3583565
44	0x3eca6f64	0.3953811
45	0x3e96d08f	0.29455993
46	0x3faf6019	1.3701202
47	0x3eba8fa5	0.36437717
48	0x3e8fb6b9	0.28069094
49	0x3faf18c5	1.3679434
50	0x3ea90db0	0.33018255
51	0x3e891a13	0.26777706
52	0x3fafd204	1.3735967
53	0x3e9669a3	0.2937747
54	0x3e80e660	0.25175762
55	0x3fb02ceb	1.3763708
56	0x3e835b4b	0.25655589
57	0x3e707444	0.23481852
58	0x3fb04d92	1.3773673
59	0x3e5c3ae6	0.21506843
60	0x3e5f00e1	0.21777679
61	0x3fb03082	1.3764803
62	0x3e2da9cc	0.16959304
63	0x3e4a1b04	0.19736868
64	0x3faf1ad3	1.3680061
65	0x3df4f0b9	0.11959977
66	0x3e34d76a	0.17660299
67	0x3fae0888	1.3596354
68	0x3d915ec8	0.07098156
69	0x3e1e2017	0.15441929
70	0x3fade81c	1.3586459
71	0x3cb53d91	0.022124084
72	0x3e0b07a6	0.13577136
73	0x3fad5466	1.3541381
74	0xbc973c1a	-0.018461276
75	0x3ded03b9	0.11572976
76	0x3faddfc1	1.3583909
77	0xbd629503	-0.05531789
78	0x3dc64d35	0.09682695
79	0x3faed500	1.3658752
80	0xbdb15b3e	-0.08659981
81	0x3da191f5	0.07889167
82	0x3fb0045d	1.3751332
83	0xbdea6ee1	-0.1144693
84	0x3d79a411	0.06094748
85	0x3fb0ef87	1.3823098
86	0xbe0f2ac3	-0.13981156
87	0x3d3736ca	0.044729985
88	0x3fb1c357	1.3887738
89	0xbe273c25	-0.16331537
90	0x3cf00da2	0.029303376
91	0x3fb23cb0	1.392477
92	0xbe3f64c1	-0.18690778
93	0x3c50e33c	0.012749489
94	0x3fb25f59	1.3935348
95	0xbe553d72	-0.20824221
96	0xbbc718d8	-0.0060759597
97	0x3fb27034	1.3940492
98	0xbe6afc0c	-0.22947711
99	0xbccbf044	-0.024894841
100	0x3fb21d1f	1.3915137
101	0xbe815384	-0.2525903
102	0xbd4147f8	-0.047187775
103	0x3fb190e4	1.3872342
104	0xbe8e7336	-0.27822274
105	0xbd96a8bb	-0.073564015
106	0x3fb0c89d	1.3811222
107	0xbe9de957	-0.30842087
108	0xbdd5f5d1	-0.104472764
109	0x3faf8c92	1.3714774
110	0xbeb06aef	-0.34456584
111	0xbe0c5ed4	-0.13708049
112	0x3fadf609	1.3590709
113	0xbec3afdd	-0.3822011
114	0xbe2df16e	-0.1698663
115	0x3facb96a	1.3494084
116	0xbed59462	-0.4171477
117	0xbe4b4ca2	-0.19853452
118	0x3fac3bf5	1.3455797
119	0xbee7027f	-0.45119092
120	0xbe631884	-0.2217732
121	0x3fac750c	1.347322
122	0xbef6ea4c	-0.4822563
123	0xbe74fabd	-0.23923774
124	0x3fad43a5	1.3536268
125	0xbf02389b	-0.50867623
126	0xbe822ea8	-0.2542622
127	0x3fae5769	1.3620425
128	0xbf080e2b	-0.5314662
129	0xbe898aa7	-0.26863596
130	0x3faf58b5	1.3698946
131	0xbf0d96e8	-0.5530839
132	0xbe907998	-0.2821777
133	0x3fb0150a	1.3756421
134	0xbf129308	-0.572556
135	0xbe9756cc	-0.29558408
136	0x3fb0f8fd	1.3825985
137	0xbf172ee0	-0.590559
138	0xbe9ea20b	-0.30983004
139	0x3fb18080	1.386734
140	0xbf1bee91	-0.609109
141	0xbea61bbb	-0.32443032
142	0x3fb1d74e	1.3893831
143	0xbf20f9ac	-0.6288097
144	0xbeade357	-0.3396251
145	0x3fb1e163	1.3896908
146	0xbf2650c2	-0.64966977
147	0xbeb64edc	-0.3560704
148	0x3fb1c663	1.3888668
149	0xbf2c440d	-0.6729134
150	0xbebf0031	-0.37304834
151	0x3fb1a030	1.387701
152	0xbf32dfec	-0.6987293
153	0xbec8cd17	-0.3921897
154	0x3fb118d6	1.3835704
155	0xbf3a0dd7	-0.7267737
156	0xbed3a53d	-0.41337004
157	0x3fb052a6	1.3775222
158	0xbf41c701	-0.7569428
159	0xbede5bf6	-0.43429536
160	0x3faf7ad9	1.3709365
161	0xbf498afe	-0.7872771
162	0xbee91284	-0.4552194
163	0x3faeddc8	1.3661432
164	0xbf50e0d6	-0.8159307
165	0xbef39d2e	-0.47580856
166	0x3fae876a	1.3635075
167	0xbf57ef0c	-0.8434913
168	0xbefca78f	-0.49346587
169	0x3faeb1c6	1.3648002
170	0xbf5e2ff3	-0.86791915
171	0xbf024765	-0.5089019
172	0x3faf0a7e	1.3675077
173	0xbf64029d	-0.8906649
174	0xbf05351d	-0.5203417
175	0x3faf7d74	1.371016
176	0xbf6896e1	-0.9085522
177	0xbf079bcb	-0.52972096
178	0x3fb01985	1.3757788
179	0xbf6c83f7	-0.9238886
180	0xbf097dfb	-0.53707856
181	0x3fb0dcf3	1.3817428
182	0xbf6fff01	-0.9374848
183	0xbf0b19c1	-0.5433617
184	0x3fb1555e	1.3854177
185	0xbf73616f	-0.95070547
186	0xbf0c5512	-0.54817307
187	0x3fb199d8	1.3875074
188	0xbf768aba	-0.9630543
189	0xbf0d3242	-0.5515481
190	0x3fb1bac5	1.3885123
191	0xbf79b7de	-0.97546184
192	0xbf0dc402	-0.5537721
193	0x3fb1e17f	1.3896941
194	0xbf7d10db	-0.98853844
195	0xbf0ed43a	-0.5579258
196	0x3fb226de	1.3918111
197	0xbf7ff256	-0.9997915
198	0xbf0e6c74	-0.55634236
199	0x3fb141eb	1.3848242
200	0xbf8270c6	-1.0190666
201	0xbf0e4d4a	-0.55586684
202	0x3fb0b76a	1.3805974
203	0xbf84d5f3	-1.0377792
204	0xbf0df64f	-0.5545396
205	0x3fb00842	1.375252
206	0xbf87a211	-1.0596334
207	0xbf0dcc5c	-0.5538995
208	0x3faf72da	1.3706925
209	0xbf8ac3a9	-1.0840961
210	0xbf0cb7df	-0.54968065
211	0x3faf5b86	1.3699806
212	0xbf8de1c9	-1.1084529
213	0xbf0ba7db	-0.54553
214	0x3faed93e	1.3660047
215	0xbf90f560	-1.1324883
216	0xbf0a6965	-0.5406707
217	0x3fae2c4d	1.360727
218	0xbf93a5a4	-1.1534925
219	0xbf08ddb5	-0.534633
220	0x3fadab98	1.3567991
221	0xbf9640fa	-1.1738579
222	0xbf074f6f	-0.5285558
223	0x3fad5d8d	1.3544174
224	0xbf987751	-1.1911412
225	0xbf065fb9	-0.5248981
226	0x3fad424a	1.3535855
227	0xbf9a5b8a	-1.2059186
228	0xbf05caf6	-0.5226282
229	0x3fad6323	1.3545879
230	0xbf9c0564	-1.2189145
231	0xbf054d8d	-0.5207146
232	0x3fad9b3e	1.3563001
233	0xbf9d88a3	-1.2307323
234	0xbf053a02	-0.5204164
235	0x3fadbbec	1.3572974
236	0xbf9e9dbb	-1.2391886
237	0xbf04f527	-0.5193657
238	0x3fadfd01	1.3592836
239	0xbf9f8c28	-1.2464647
240	0xbf050942	-0.5196725
241	0x3fae0e51	1.3598119
242	0xbf9ffc88	-1.2498941
243	0xbf053fe5	-0.5205062
244	0x3faded12	1.3587973
245	0xbfa0676f	-1.2531565

left_hand_pose f4 [82, 12]
0	0x3e68e53b	0.22743694
1	0x3eb41acc	0.35176694
2	0x3e8f4516	0.27982396
3	0x3e2caabc	0.16862005
4	0x3e9ed44f	0.31021354
5	0xbf00125e	-0.50028026
6	0xbdad0211	-0.0844766
7	0x3d93e89a	0.072220996
8	0xbf090357	-0.5352072
9	0xbf2a1dc5	-0.66451675
10	0x3f12ce8e	0.5734643
11	0xbfc30f46	-1.5239036
12	0x3e87700c	0.26452672
13	0x3e85dc52	0.26144654
14	0x3eb965b0	0.36210394
15	0x3e5ef0eb	0.2177159
16	0x3e38c25e	0.18042895
17	0xbf1fdd93	-0.6244747
18	0x3df92f9a	0.121672824
19	0x3ba70e89	0.0050981683
20	0xbeceb6e2	-0.40373904
21	0xbf2f3018	-0.6843276
22	0x3f29a9b3	0.66274565
23	0xbfac873d	-1.3478771
24	0x3e9eb47f	0.30997083
25	0x3e1b70d4	0.1517976
26	0x3ecde8a1	0.40216544
27	0x3e233e2b	0.15941684
28	0x3e752746	0.23940763
29	0xbf12172f	-0.57066625
30	0x3e6ac2a2	0.22925809
31	0xbc564620	-0.013078243
32	0xbead1a19	-0.33808973
33	0xbf290d5e	-0.6603602
34	0x3f485cfe	0.78266895
35	0xbf9ff10d	-1.2495438
36	0x3e882788	0.2659266
37	0x3e6aeba4	0.22941452
38	0x3eaa10ef	0.33216044
39	0x3e3a99a2	0.18222669
40	0x3dbbee78	0.09176344
41	0xbee0ad23	-0.43882093
42	0x3e85ad20	0.26108646
43	0x3c529f74	0.012855399
44	0xbedb9e34	-0.42894137
45	0xbf33e593	-0.7027218
46	0x3f257595	0.6463254
47	0xbf9cf4de	-1.2262228
48	0x3e81923b	0.25306877
49	0x3e71a021	0.2359624
50	0x3e9cf66a	0.3065675
51	0x3e3ac8f0	0.18240714
52	0xbcdf2486	-0.027239095
53	0xbeefab8f	-0.46810576
54	0x3ebd8d64	0.37021935
55	0x3d816352	0.06317772
56	0xbf186693	-0.59531516
57	0xbf26759e	-0.6502322
58	0x3f412723	0.7545034
59	0xbf9043dd	-1.127071
60	0x3e67e001	0.22644044
61	0x3e979c8a	0.29611617
62	0x3eb9773b	0.36223778
63	0x3dd37a6c	0.103260845
64	0x3dae3996	0.085070774
65	0xbeb315aa	-0.34977466
66	0x3e5d3e50	0.21605802
67	0xbe1c920f	-0.15290092
68	0xbf025326	-0.50908124
69	0xbf3aa883	-0.7291338
70	0x3f5257e8	0.82165384
71	0xbfa38bfa	-1.2777092
72	0x3e839f11	0.25707296
73	0x3e768736	0.24075016
74	0x3edc1aeb	0.42989287
75	0x3e20112f	0.15631555
76	0x3c9f9249	0.019478934
77	0xbf2669e7	-0.65005344
78	0x3efc1ae9	0.4923928
79	0xbdc64e77	-0.09682935
80	0xbf05c2a4	-0.52250123
81	0xbf4a7b59	-0.79094464
82	0x3f85a498	1.0440855
83	0xbf9c2863	-1.2199825
84	0x3e963903	0.2934037
85	0x3e3035fb	0.17208092
86	0x3f07816e	0.5293187
87	0x3e785cd4	0.24254161
88	0x3de4aec7	0.11166149
89	0xbf193a2b	-0.5985438
90	0x3ee21788	0.44158578
91	0xbe020f4d	-0.1270115
92	0xbe99863c	-0.29985225
93	0xbf4c1afb	-0.7972867
94	0x3f510bd8	0.816587
95	0xbfbeb1c9	-1.4898006
96	0x3eaaa42d	0.3332838
97	0x3d9ee583	0.0775862
98	0x3f21b8d9	0.6317268
99	0x3edaf9d2	0.42768723
100	0xbd10e0ac	-0.035370514
101	0xbf1483a7	-0.58013386
102	0x3eefb19f	0.46815202
103	0xbe8da10f	-0.2766194
104	0xbef57e98	-0.47948146
105	0xbf6423d4	-0.8911717
106	0x3f94dca6	1.1629837
107	0xbfcefb63	-1.6170467
108	0x3ecb3f50	0.3969674
109	0xbd97b28f	-0.07407104
110	0x3f3e49e1	0.7433148
111	0x3f08104b	0.5314986
112	0xbe0bf2de	-0.13666865
113	0xbef464fb	-0.47733292
114	0x3f2482bd	0.6426199
115	0xbf01e49a	-0.50739443
116	0xbe2bca95	-0.16776498
117	0xbf7d4639	-0.98935276
118	0x3f86c4b9	1.0528785
119	0xbfd04286	-1.6270301
120	0x3efb8c0f	0.49130294
121	0x3cb8b36c	0.022546493
122	0x3f3e4193	0.7431881
123	0x3f161014	0.58618283
124	0x3ccfad06	0.025351059
125	0xbf2c7c7d	-0.67377454
126	0x3eefe7bc	0.46856487
127	0xbed1c3ae	-0.40969604
128	0xbecc8473	-0.399448
129	0xbf6ed196	-0.9328855
130	0x3fb0dd65	1.3817564
131	0xbfc34241	-1.5254594
132	0x3f0137ab	0.5047557
133	0x3d7fca34	0.062448695
134	0x3f26c51a	0.65144503
135	0x3f14a349	0.58061653
136	0x3cadd592	0.021220002
137	0xbf0e4d5c	-0.5558679
138	0x3ea911ee	0.33021492
139	0xbeb80c89	-0.35947064
140	0xbe64e0fa	-0.22351447
141	0xbf52f958	-0.8241172
142	0x3fad1a47	1.3523644
143	0xbfb7f67b	-1.4372095
144	0x3ef8b6f3	0.4857708
145	0x3d1c229f	0.038118955
146	0x3f1ca70b	0.6119239
147	0x3f01e90a	0.50746214
148	0x3e6db475	0.2321337
149	0xbedf32f3	-0.4359356
150	0x3e90f305	0.2831041
151	0xbedce608	-0.4314425
152	0xbe12bb95	-0.1432937
153	0xbf6f5e32	-0.93503106
154	0x3fa44a92	1.2835257
155	0xbfc56160	-1.5420341
156	0x3eff7554	0.49894202
157	0xbd27af19	-0.04093847
158	0x3f1d32fa	0.6140591
159	0x3f050540	0.51961136
160	0x3d8c9882	0.06865026
161	0xbed632d3	-0.4183565
162	0x3f0292aa	0.5100504
163	0xbeed47cd	-0.46343842
164	0xbe29b8c5	-0.1657439
165	0xbf752f04	-0.95774865
166	0x3f9567de	1.1672323
167	0xbfaf6c46	-1.3704917
168	0x3f0872e7	0.5330033
169	0x3d864135	0.06555406
170	0x3f225b4d	0.63420564
171	0x3f0fb79c	0.5613954
172	0xbd1ec83e	-0.038765185
173	0xbee831a9	-0.45350388
174	0x3ef7e2b2	0.48415142
175	0xbed3bd9d	-0.413556
176	0xbe59e754	-0.21279651
177	0xbf6ae493	-0.91755027
178	0x3f9046e5	1.1271635
179	0xbfbc74e1	-1.4723169
180	0x3efe52e9	0.4967263
181	0x3e21f08c	0.15814418
182	0x3f0f53ef	0.5598745
183	0x3f040810	0.515748
184	0x3dc86afb	0.0978603
185	0xbee78987	-0.45222113
186	0x3ec46be1	0.38363555
187	0xbee36ac8	-0.44417405
188	0xbe3579ce	-0.17722246
189	0xbf7b8789	-0.98253685
190	0x3f811d6d	1.0087105
191	0xbfd2cb98	-1.6468382
192	0x3ef535b5	0.47892538
193	0x3df30fce	0.11868249
194	0x3f061f80	0.52391815
195	0x3ed5bd8f	0.41746184
196	0x3c86ef40	0.016471505
197	0xbeb0d45f	-0.34537026
198	0x3f132867	0.57483524
199	0xbf020932	-0.5079528
200	0xbe6d0347	-0.23145781
201	0xbf5ee5a8	-0.8706918
202	0x3f949a9f	1.1609687
203	0xbfbbc236	-1.4668643
204	0x3ee4c2c8	0.44679856
205	0x3e9b3caa	0.3031972
206	0x3f082449	0.53180367
207	0x3ee18e4d	0.4405388
208	0xbe17ad37	-0.1481217
209	0xbeae0197	-0.33985588
210	0x3f1307fd	0.57434064
211	0xbec5acf5	-0.38608518
212	0xbea29c4a	-0.31759864
213	0xbf444fd8	-0.7668433
214	0x3f99fc4c	1.203012
215	0xbfc14136	-1.5098026
216	0x3ec5e152	0.38648468
217	0x3eba40ab	0.36377463
218	0x3f06a792	0.5259944
219	0x3ed4b4fb	0.41544327
220	0xbda147d8	-0.07875031
221	0xbe9c2dfd	-0.30503836
222	0x3eea10e6	0.45716017
223	0xbec41a7c	-0.38301456
224	0xbe8e88c8	-0.2783873
225	0xbf4a7037	-0.79077476
226	0x3f9667b5	1.1750399
227	0xbfda8556	-1.7071941
228	0x3ea87229	0.32899597
229	0x3e6b247f	0.22963141
230	0x3f1148a0	0.5675144
231	0x3edaacdb	0.42710003
232	0xbdf6b0c3	-0.12045433
233	0xbeb1580a	-0.3463748
234	0x3f228353	0.63481635
235	0xbeffbdc4	-0.49949467
236	0xbe23dc19	-0.1600193
237	0xbf7ad53b	-0.97981614
238	0x3f705ee2	0.9389478
239	0xbfd5fd74	-1.6717973
240	0x3e8bb3db	0.27285656
241	0x3e86ad7d	0.26304236
242	0x3efd840d	0.4951481
243	0x3e9e0ac2	0.30867583
244	0x3df9e43b	0.12201735
245	0xbf1c288f	-0.6099939
246	0x3f0fb97c	0.561424
247	0xbed9df7b	-0.42553315
248	0xbe6a3927	-0.22873364
249	0xbf8a00b6	-1.0781467
250	0x3f81fd14	1.0155358
251	0xbfe9dd1c	-1.8270602
252	0x3e62e7a0	0.2215867
253	0x3e135aa3	0.14390044
254	0x3f0ca3fc	0.5493772
255	0x3eb54d3c	0.35410488

right_hand_pose f4 [82, 12]
0	0x3e93526c	0.2877382
1	0x3e9bf8ae	0.30463165
2	0x3e786991	0.2425902
3	0x3e0a9c01	0.13536073
4	0x3e4149bc	0.18875784
5	0xbee24361	-0.4419203
6	0x3e5bb004	0.21453863
7	0x3da41eb9	0.080136724
8	0xbf19b12b	-0.6003596
9	0xbf326b3f	-0.69694895
10	0x3f232548	0.6372876
11	0xbfb5cfd5	-1.420405
12	0x3e8bf11c	0.2733239
13	0x3e8fb7e0	0.28069973
14	0x3e892784	0.2678796
15	0x3e2a8a06	0.16654214
16	0x3d919ba8	0.07109767
17	0xbee79f7e	-0.4523887
18	0x3e6f8554	0.23390704
19	0x3de45860	0.11149669
20	0xbf306058	-0.6889701
21	0xbf0bb173	-0.5456764
22	0x3f486876	0.78284395
23	0xbfa86db8	-1.3158484
24	0x3e6b25c3	0.22963624
25	0x3e86d14f	0.26331565
26	0x3e472b51	0.19450118
27	0x3dbba5a9	0.091624565
28	0x3e1c5766	0.15267715
29	0xbef6996a	-0.4816392
30	0x3e6532c2	0.22382644
31	0x3de53fd7	0.11193817
32	0xbf1c5970	-0.6107397
33	0xbf1f55d4	-0.6224034
34	0x3f483589	0.7820669
35	0xbfb8a33e	-1.4424818
36	0x3e6c84b1	0.23097493
37	0x3e641448	0.22273362
38	0x3e5fda30	0.21860576
39	0x3e326557	0.1742147
40	0x3e755f90	0.23962235
41	0xbf046fcd	-0.51733094
42	0x3e06200d	0.13098164
43	0x3de902ba	0.11377473
44	0xbf1d24a1	-0.61384016
45	0xbf1f410d	-0.62208635
46	0x3f237578	0.6385112
47	0xbfb22d88	-1.3920145
48	0x3e276cb2	0.16350058
49	0x3e88092f	0.26569507
50	0x3e41d947	0.18930541
51	0x3e0b35d6	0.13594756
52	0x3edd12d5	0.4317843
53	0xbf081b3b	-0.5316655
54	0x3d116cdf	0.03550422
55	0xbd316242	-0.043306597
56	0xbf06a834	-0.5260041
57	0xbf33a003	-0.70166034
58	0x3f27b986	0.6551746
59	0xbfbff14f	-1.4995517
60	0x3d7ace46	0.061231874
61	0x3e5ffbee	0.21873447
62	0x3debf996	0.11522214
63	0x3df95426	0.12174253
64	0x3edd73d5	0.43252435
65	0xbf099788	-0.53746843
66	0x3d7c5c8c	0.061611697
67	0xbdd05da3	-0.1017411
68	0xbf05d20a	-0.5227362
69	0xbf395027	-0.7238793
70	0x3f3f478f	0.74718565
71	0xbfce2127	-1.6103867
72	0xbd233864	-0.0398487
73	0x3e9a80af	0.30176303
74	0x3db539e7	0.088489346
75	0x3db68f2c	0.089140266
76	0x3eac177d	0.3361167
77	0xbea9fecf	-0.33202216
78	0x3dbaac2e	0.09114872
79	0xbe5f3fe1	-0.21801712
80	0xbf2ba6c7	-0.6705136
81	0xbf560b12	-0.8361064
82	0x3f488296	0.7832426
83	0xbfcde664	-1.6085935
84	0x3d118130	0.035523593
85	0x3e7afe62	0.24511102
86	0x3e405c71	0.18785264
87	0x3e88302a	0.26599246
88	0x3a9fb16f	0.0012183617
89	0xbf089baa	-0.53362525
90	0x3e9e8706	0.3096239
91	0xbd947253	-0.07248368
92	0xbf324c55	-0.69647723
93	0xbf35cb08	-0.71012926
94	0x3f74e3f0	0.95660305
95	0xbfa17978	-1.2615194
96	0x3e80e87e	0.25177377
97	0x3c99f883	0.018795257
98	0x3f0a8f25	0.5412467
99	0x3f25130b	0.6448218
100	0xbec5e4c9	-0.38651112
101	0xbf8e74d9	-1.1129409
102	0x3f238414	0.6387341
103	0x3d0b1879	0.033958886
104	0xbefd307b	-0.4945105
105	0xbf29b18e	-0.6628655
106	0x3fac844f	1.3477877
107	0xbf9a5ff3	-1.2060531
108	0x3ed36610	0.41288805
109	0xbcbbdd0b	-0.02293255
110	0x3f10bca8	0.56537867
111	0x3f533d59	0.82515484
112	0xbf089aa0	-0.5336094
113	0xbf7f5dad	-0.9975231
114	0x3f13692d	0.5758236
115	0x3df1909f	0.117951624
116	0xbf1b5bcf	-0.60686964
117	0xbf261ce7	-0.6488785
118	0x3f8d377e	1.103256
119	0xbf91926b	-1.1372808
120	0x3f0ce003	0.55029315
121	0xbdf98c90	-0.12185013
122	0x3f189925	0.5960868
123	0x3f5920cd	0.84815675
124	0xbf1edf62	-0.62059605
125	0xbf8ef681	-1.1168977
126	0x3f421230	0.75809
127	0x3dbcf485	0.09226326
128	0xbed8618b	-0.4226192
129	0xbf1fecee	-0.624709
130	0x3fada006	1.356446
131	0xbf933dc2	-1.1503222
132	0x3f1dd98f	0.61660093
133	0xbdd15d36	-0.10222857
134	0x3f10bed1	0.5654116
135	0x3f46bcf4	0.7763207
136	0xbf0643df	-0.52447313
137	0xbf99ee53	-1.2025856
138	0x3f7ed4ef	0.9954366
139	0xbd84e3b6	-0.06488745
140	0xbe999975	-0.2999989
141	0xbf519a74	-0.818763
142	0x3fbb8807	1.4650887
143	0xbfbc6a0e	-1.4719865
144	0x3f26de5e	0.65183055
145	0xbdfa1719	-0.12211437
146	0x3f069132	0.525653
147	0x3f29a5ca	0.662686
148	0xbeb82136	-0.35962838
149	0xbf899fb2	-1.075186
150	0x3f82d276	1.0220478
151	0xbea6c03b	-0.32568535
152	0xbebb575b	-0.36590084
153	0xbf8cd0f0	-1.1001263
154	0x3fb496a7	1.4108475
155	0xbfc56ef2	-1.5424483
156	0x3f2951e3	0.66140574
157	0xbe02bef1	-0.12768151
158	0x3eddecc3	0.43344697
159	0x3f048e13	0.5177929
160	0xbe529531	-0.20564725
161	0xbf680912	-0.9063884
162	0x3f992748	1.1965113
163	0xbedcf41e	-0.43154997
164	0xbecf797a	-0.40522367
165	0xbf955b54	-1.1668496
166	0x3fb4848c	1.410295
167	0xbfdc0d35	-1.719153
168	0x3f35ba81	0.7098771
169	0xbcb90a8d	-0.022588039
170	0x3ed1d494	0.40982497
171	0x3f38828b	0.7207419
172	0xbed543c1	-0.41653255
173	0xbf612b5e	-0.879568
174	0x3f8c78ec	1.0974402
175	0xbeaf9fbb	-0.34301552
176	0xbee34f7b	-0.44396576
177	0xbf86e316	-1.0538051
178	0x3fbc7971	1.4724561
179	0xbfca8cf8	-1.582427
180	0x3f3d9809	0.7406011
181	0x3d92fcae	0.07177101
182	0x3ed8ecdf	0.42368218
183	0x3f6580c5	0.8964961
184	0xbeecf1e0	-0.46278286
185	0xbf643f74	-0.8915932
186	0x3f76f608	0.96469164
187	0xbe8eb68b	-0.27873644
188	0xbe963dc2	-0.29343992
189	0xbf7de776	-0.99181306
190	0x3f94ed1a	1.1634858
191	0xbfcb8bcf	-1.5902041
192	0x3f2907bd	0.6602743
193	0x3e2702b4	0.16309625
194	0x3e9c7225	0.30555835
195	0x3f5c2599	0.8599487
196	0xbcb9e878	-0.022693858
197	0xbf14e844	-0.5816691
198	0x3e83df34	0.25756228
199	0xbee44a66	-0.44588012
200	0xbe068d6a	-0.13139883
201	0xbf7b240a	-0.98101866
202	0x3f6903b1	0.9102126
203	0xbfee969c	-1.8639712
204	0x3f1356f6	0.57554567
205	0x3e24f8be	0.16110513
206	0x3e56232a	0.20911852
207	0x3f08de69	0.5346437
208	0x3eac04f0	0.33597517
209	0xbf322ded	-0.6960133
210	0x3ef8a54f	0.4856362
211	0xbf1b87ca	-0.6075407
212	0xbdee723c	-0.11642882
213	0xbf9c419d	-1.2207524
214	0x3fb47f32	1.4101317
215	0xc0022546	-2.033525
216	0x3f0108ec	0.5040424
217	0x3d8da6df	0.06916594
218	0x3e30722c	0.17231053
219	0x3eef1103	0.46692666
220	0x3eb04610	0.34428453
221	0xbf5a076d	-0.8516758
222	0x3f33046e	0.69928634
223	0xbf31e6d8	-0.69492865
224	0xbd48acef	-0.048993047
225	0xbfa7caa5	-1.3108717
226	0x3ff744cd	1.9317871
227	0xc00a76fc	-2.1635122
228	0x3f0c9277	0.5491099
229	0x3c91eb64	0.017812438
230	0x3ebd292b	0.3694547
231	0x3f2d430f	0.6768045
232	0x3dfb7e47	0.12279945
233	0xbf6b8b4d	-0.9200943
234	0x3f373b0b	0.7157447
235	0xbf69f6c6	-0.9139217
236	0xbe9bc5e0	-0.30424404
237	0xbfb3f59a	-1.4059327
238	0x401b0060	2.421898
239	0xc005507a	-2.083037
240	0x3f0d5ff1	0.5522452
241	0xbc90de9a	-0.01768427
242	0x3ed5918e	0.41712612
243	0x3f060244	0.5234721
244	0x3e7857fd	0.24252315
245	0xbf6c1328	-0.9221673
246	0x3f5c56bf	0.86069864
247	0xbf6e3bbc	-0.930599
248	0x3d88f469	0.066872425
249	0xbfcdadaf	-1.6068629
250	0x4015a666	2.3382812
251	0xc007e28b	-2.123202
252	0x3f0261ce	0.5093049
253	0xbdb0634b	-0.08612689
254	0x3eb4274d	0.35186234
255	0x3ed05b8e	0.4069485

jaw_pose f4 [82, 3]
0	0x3d5b64bb	0.05356286
1	0x3c69b282	0.014263751
2	0x3b9427a5	0.0045213276
3	0x3d3b2e01	0.04569817
4	0x3c334633	0.01094203
5	0x3ba224aa	0.0049482184
6	0x3d33c711	0.043891016
7	0x3c31533b	0.010823066
8	0x3b83ad2b	0.004018446
9	0x3d385cf6	0.04501053
10	0x3c09fea6	0.008422529
11	0x3b58c0e7	0.0033073963
12	0x3d4141e1	0.047181968
13	0x3c0df93c	0.008665379
14	0x3b5ab39c	0.0033371216
15	0x3d5a7474	0.053333715
16	0x3c0cbd0e	0.008589996
17	0x3b35c252	0.0027734232
18	0x3d8cd139	0.068758436
19	0x3c046867	0.008081532
20	0x3b492651	0.0030693004
21	0x3dc106b1	0.094251044
22	0x3b7fb10d	0.0039015443
23	0x3a97ef8f	0.001159178
24	0x3db62161	0.08893085
25	0x3bb07d1d	0.0053860084
26	0x3a7c86a8	0.00096331025
27	0x3def0358	0.1167056
28	0x3b65a13e	0.0035038735
29	0x3a354333	0.00069146155
30	0x3dca8961	0.09889484
31	0x3aea8aa2	0.0017894099
32	0x3982f288	0.00024976232
33	0x3ddfb4f8	0.10923189
34	0x3bb2c756	0.0054558916
35	0x3a853190	0.0010161866
36	0x3debd6a2	0.11515547
37	0x3b544b40	0.0032393485
38	0x3a4600a4	0.0007553196
39	0x3de5de00	0.11223984
40	0x3b302c1e	0.0026881765
41	0x3983905b	0.0002509382
42	0x3df8b6bc	0.12144229
43	0x3b346203	0.002752424
44	0x3987c866	0.00025898515
45	0x3dd8dc96	0.105889484
46	0x3ab866f6	0.0014068771
47	0x38072e5f	3.2229695e-05
48	0x3dd40e12	0.10354246
49	0x3b0346aa	0.0020031133
50	0x38e17ea6	0.00010752426
51	0x3deabf2b	0.11462244
52	0x3b750db6	0.0037392206
53	0x3a3623d1	0.0006948086
54	0x3dd3c265	0.10339812
55	0x3bc10663	0.005890654
56	0x3abad536	0.0014254216
57	0x3ddcc72a	0.10780175
58	0x3b94e320	0.004543677
59	0x3a989ebe	0.0011643989
60	0x3ddf5bfe	0.10906218
61	0x3b7d326e	0.0038634795
62	0x3a0610f2	0.00051142194
63	0x3dd0ba79	0.10191817
64	0x3b528a07	0.0032125728
65	0x397e4fab	0.00024253006
66	0x3ddba313	0.10724463
67	0x3bae576b	0.0053204796
68	0x3a440881	0.0007478074
69	0x3dd7f943	0.1054559
70	0x3aa34480	0.0012456328
71	0x36d2845e	6.2738973e-06
72	0x3d86b62a	0.06577714
73	0x3bc88678	0.0061195455
74	0x3b0315b5	0.0020001952
75	0x3d8942a6	0.06702165
76	0x3bd414af	0.0064721922
77	0x3ac8c94e	0.0015318783
78	0x3d95935c	0.07303497
79	0x3b955c26	0.004558104
80	0x3ab3222a	0.0013666798
81	0x3d68f7e5	0.056877036
82	0x3bcfefe0	0.006345734
83	0x3b0ca8ef	0.0021462997
84	0x3d3ae3ac	0.04562728
85	0x3bc9eaa0	0.0061620027
86	0x3aa4fb2c	0.0012587062
87	0x3d14919b	0.036271673
88	0x3bf5d7b6	0.0075025214
89	0x3b36d2df	0.0027896685
90	0x3d31edcc	0.04343967
91	0x3bea5931	0.0071517457
92	0x3adddf64	0.0016927538
93	0x3d434469	0.047672663
94	0x3bb35b06	0.0054734973
95	0x3ada3c84	0.0016650115
96	0x3d74d77a	0.059775807
97	0x3bea0785	0.0071420097
98	0x3b07c9f8	0.0020719748
99	0x3d4f66cf	0.050635155
100	0x3c034544	0.00801212
101	0x3b518228	0.0031968448
102	0x3d788450	0.060673058
103	0x3c33b8d9	0.010969364
104	0x3b4fbe48	0.003169911
105	0x3d7ed2fe	0.062212937
106	0x3c0a12fd	0.008427379
107	0x3b5171f9	0.0031958802
108	0x3d68e083	0.056854736
109	0x3c01b492	0.0079165865
110	0x3b31400b	0.002704623
111	0x3d944ba3	0.07240989
112	0x3bf1b189	0.0073759
113	0x3b1f7ab3	0.002433461
114	0x3dafa211	0.085758336
115	0x3bc9a7c7	0.006154034
116	0x3a8ce75b	0.0010750102
117	0x3db60b39	0.08888859
118	0x3bce3bd0	0.0062937513
119	0x3a8f078a	0.0010912281
120	0x3d7b8891	0.061409537
121	0x3bc3db85	0.0059770965
122	0x3aaf6c56	0.0013383727
123	0x3d8b7ca8	0.06810886
124	0x3bdfb99d	0.0068275467
125	0x3b052641	0.002031699
126	0x3d8fb61a	0.07017155
127	0x3be458be	0.0069685867
128	0x3b12dbc8	0.0022408832
129	0x3d6433c3	0.055713426
130	0x3c03ecce	0.008052064
131	0x3b5c47ee	0.003361221
132	0x3db1a19d	0.086734034
133	0x3bf7a1bc	0.007557122
134	0x3b39f8b0	0.002837699
135	0x3d9f46d2	0.0777718
136	0x3bd4a92e	0.0064898944
137	0x3aa52ea0	0.0012602396
138	0x3d9a79e7	0.07542782
139	0x3be5ab9a	0.007008982
140	0x3b028121	0.0019913393
141	0x3d9ad4a3	0.075600885
142	0x3ba684d1	0.005081751
143	0x3a5d4e72	0.000844217
144	0x3d854cdf	0.065088026
145	0x3bb2e54f	0.0054594646
146	0x3a5a1c4f	0.00083202583
147	0x3d53efd8	0.051742405
148	0x3bc8c113	0.006126532
149	0x3a8ed686	0.0010897673
150	0x3d62717b	0.055284005
151	0x3ba70d59	0.0050980267
152	0x3aa1bfaf	0.0012340451
153	0x3d856092	0.0651256
154	0x3b73d5cd	0.0037206293
155	0x3a92b8f9	0.0011194042
156	0x3d8d88b2	0.06910838
157	0x3b7f2924	0.0038934434
158	0x3a9d0676	0.0011980075
159	0x3d75006b	0.05981485
160	0x3bbcf596	0.005766581
161	0x3adcbed5	0.001684154
162	0x3d36a22f	0.044588264
163	0x3bf156ef	0.0073650996
164	0x3b307ec5	0.002693103
165	0x3d468ad3	0.048472237
166	0x3bbc81e3	0.0057527884
167	0x3a9d0023	0.001197819
168	0x3d56c75c	0.052436218
169	0x3bd60f8b	0.0065326146
170	0x3ad9f467	0.0016628624
171	0x3d51454f	0.05109149
172	0x3bdc1c20	0.00671722
173	0x3ae2af27	0.0017294631
174	0x3d3ccd6f	0.046094354
175	0x3bd47a38	0.006484296
176	0x3ab359e5	0.0013683407
177	0x3d5a8559	0.053349826
178	0x3b8b2608	0.004246477
179	0x3acf0c7f	0.0015796571
180	0x3d218644	0.039434686
181	0x3b68451e	0.0035441588
182	0x3a945952	0.0011318123
183	0x3d39eccc	0.045391843
184	0x3b618819	0.0034413396
185	0x3a8e8e78	0.0010876199
186	0x3d849d7e	0.06475352
187	0x3b1a997e	0.0023590024
188	0x3a5ab4ac	0.0008342962
189	0x3d6d1bf6	0.057887994
190	0x3b411c2e	0.002946626
191	0x3a6632ea	0.00087813905
192	0x3d70669f	0.058691617
193	0x3b5dac65	0.003382468
194	0x3aaa382c	0.0012986711
195	0x3d4d7972	0.050164647
196	0x3b8af313	0.0042404025
197	0x3a7280fe	0.0009250789
198	0x3d0228e4	0.031777278
199	0x3b312056	0.002702733
200	0x3a04757c	0.0005052907
201	0x3bef1e9f	0.0072973515
202	0x3a0393ed	0.0005019296
203	0x3985457d	0.0002541951
204	0xbd3d2573	-0.046178292
205	0x3a623ac2	0.00086299714
206	0x397a7851	0.00023886679
207	0x3c148606	0.009065157
208	0xb9b31f80	-0.0003416501
209	0xb810d10f	-3.4526976e-05
210	0x3ce84bf0	0.028356522
211	0x3a3ae83f	0.0007129944
212	0x397c426d	0.00024057338
213	0x3c4b76d5	0.0124184685
214	0xbb0f9ec8	-0.002191471
215	0xba1ab035	-0.00059008907
216	0xbcb90e90	-0.022589952
217	0xbb39601f	-0.0028286052
218	0xba4c48d0	-0.00077928323
219	0xbcd3406c	-0.025787555
220	0xbaf82f10	-0.0018934924
221	0xba12ead6	-0.0005604451
222	0x3c6e254c	0.014535259
223	0xbba76099	-0.005107951
224	0xbb02a7cc	-0.001993644
225	0xbbedb455	-0.0072541633
226	0xbbbc4caa	-0.0057464438
227	0xba95bafe	-0.0011423526
228	0xbc15b8d4	-0.009138305
229	0xbbc9d572	-0.006159478
230	0xbb039caa	-0.0020082393
231	0x3cfacee4	0.030616231
232	0xbb74fa4e	-0.0037380639
233	0xbaa9f6aa	-0.0012967188
234	0x3c409bbe	0.011755882
235	0xbb13aaad	-0.002253215
236	0xba5047bf	-0.00079452613
237	0xbcb47700	-0.0220294
238	0xbb5fd806	-0.003415586
239	0xba402dd0	-0.00073310453
240	0xbe03c871	-0.12869431
241	0xbb4d595a	-0.0031333775
242	0xba35556a	-0.000691733
243	0xbe9015cf	-0.2814164
244	0xbac07fd5	-0.0014686534
245	0xb98aab0f	-0.0002644886
