test_dataset/gait_809/20250819_c1_a2_Take1/split_subjects/0/fit-smplx/smplx-params.npz (npz, 49770 bytes, 10 tensors)

betas f4 [96, 11]
0	0xbe352ea0	-0.17693567
1	0xbfce025c	-1.609447
2	0xbc395e94	-0.011314053
3	0xbf65a7aa	-0.8970896
4	0xbf120e59	-0.5705314
5	0xbe9e7cee	-0.3095469
6	0xbe80436f	-0.25051448
7	0x3fe0ab1b	1.7552217
8	0x3de742e6	0.11292057
9	0x3e688590	0.227072
10	0x3e970a2d	0.2949995
11	0x3e2b44a1	0.16725399
12	0xbfadf75e	-1.3591115
13	0x3f2988bf	0.6622428
14	0xbf923e58	-1.1425276
15	0xbf811815	-1.0085474
16	0xbeaf6d4d	-0.34263077
17	0xbe97d69c	-0.2965592
18	0x400aae76	2.1668983
19	0x3ec668d1	0.38751844
20	0x3e4ac0e7	0.19800149
21	0x3ea73bcf	0.32662818
22	0x3eac4f72	0.33654362
23	0xbfb96640	-1.4484329
24	0x3f1c1a6a	0.60977805
25	0xbf873d51	-1.0565587
26	0xbf94df8e	-1.1630723
27	0xbe92de2b	-0.28685126
28	0xbe680a5d	-0.22660203
29	0x4014579d	2.3178475
30	0x3f0d99b7	0.55312675
31	0x3e3de669	0.18544926
32	0x3ead51b1	0.33851388
33	0x3ecb04f1	0.39652207
34	0xbfc27693	-1.5192436
35	0x3f24a0c0	0.64307785
36	0xbf8f87f5	-1.1213366
37	0xbf70aa20	-0.9400959
38	0xbe655ef2	-0.223995
39	0xbe3d17a1	-0.18466045
40	0x40122ffb	2.2841785
41	0x3ef99188	0.48743844
42	0x3e4ec94d	0.20193978
43	0x3eb349fe	0.3501739
44	0x3ed3c299	0.41359404
45	0xbfd44c3b	-1.6585764
46	0x3f2d4e2d	0.6769741
47	0xbf7deb5c	-0.99187255
48	0xbf69187d	-0.9105299
49	0xbd9840aa	-0.07434209
50	0xbe9c1d5d	-0.30491152
51	0x400efe21	2.2342608
52	0x3ecbb001	0.39782718
53	0x3e5b578b	0.21420114
54	0x3eb5f775	0.35540357
55	0x3ee25936	0.44208688
56	0xbfd8ff48	-1.6952906
57	0x3f1655b9	0.5872455
58	0xbf5f2134	-0.8716004
59	0xbf5ce63f	-0.8628883
60	0xbc8236d6	-0.015895288
61	0xbec6043a	-0.386751
62	0x40037511	2.0540202
63	0x3eafae24	0.34312546
64	0x3e6124c7	0.21986686
65	0x3eb67497	0.35635826
66	0x3ee7c836	0.45269936
67	0xbfd7033b	-1.6797861
68	0x3edc4497	0.4302108
69	0xbf4d0bfe	-0.80096424
70	0xbf6b753a	-0.9197575
71	0x3c84eea7	0.01622708
72	0xbea64c0a	-0.32479888
73	0x3ff4380e	1.9079607
74	0x3ebf9d79	0.3742483
75	0x3e5ad4f1	0.21370293
76	0x3eb5f0b2	0.35535198
77	0x3eff2c4e	0.4983849
78	0xbfe0fb1e	-1.7576635
79	0x3f1cfedd	0.6132639
80	0xbf32facf	-0.69913954
81	0xbf758997	-0.9591307
82	0xbc5d5dbe	-0.013511119
83	0xbebeec42	-0.37289625
84	0x3feb80ec	1.8398719
85	0x3ec0a05c	0.37622344
86	0x3e4daeb5	0.20086177
87	0x3eb7368a	0.35783798
88	0x3f034ab5	0.5128587
89	0xbfdd51e9	-1.7290622
90	0x3ef5a2a3	0.47975644
91	0xbf0d5fa0	-0.5522404
92	0xbf89b03b	-1.0756906
93	0x3bbf9bda	0.0058474364
94	0xbec0ff38	-0.37694716
95	0x3fe7bf91	1.8105336
96	0x3e8d86d5	0.2764193
97	0x3e2a919d	0.1665711
98	0x3eb6c1d5	0.35694757
99	0x3f10c6ac	0.5655315
100	0xbfdd2c98	-1.7279234
101	0x3f069c7d	0.5258253
102	0xbf12fe0b	-0.5741889
103	0xbf903f5e	-1.1269338
104	0xbd9d455c	-0.07679245
105	0xbea2867b	-0.31743225
106	0x3fe5d7d8	1.7956495
107	0x3e990264	0.29884636
108	0x3e39d81f	0.1814885
109	0x3ebb2f26	0.3655941
110	0x3f0d83c2	0.5527917
111	0xbfce3617	-1.6110257
112	0x3f11d3a0	0.5696354
113	0xbf063ac5	-0.52433425
114	0xbf5bcb21	-0.85856825
115	0xbe06300b	-0.13104264
116	0xbebeda47	-0.37275907
117	0x3fb9d9cb	1.451959
118	0x3e861abe	0.26192278
119	0x3e3816b8	0.17977417
120	0x3ebf1ac8	0.3732512
121	0x3f0bc7f7	0.54602
122	0xbfcad1d1	-1.5845281
123	0x3f172b46	0.59050405
124	0xbec1c66e	-0.37846702
125	0xbf50db51	-0.8158465
126	0xbe38587a	-0.18002501
127	0xbea9633c	-0.33083522
128	0x3fb48618	1.4103422
129	0x3e97327a	0.29530698
130	0x3e226dcf	0.15862201
131	0x3ebfd8b6	0.37470025
132	0x3f1c3a47	0.61026424
133	0xbfd247a8	-1.6428118
134	0x3f251bf9	0.6449581
135	0xbeb42c36	-0.3518998
136	0xbf710349	-0.9414564
137	0xbe9698fa	-0.29413587
138	0xbec12968	-0.37726903
139	0x3fbf528a	1.4947064
140	0x3e69ff74	0.22851354
141	0x3e1ab5bf	0.15108393
142	0x3ebf1a24	0.3732463
143	0x3f295204	0.6614077
144	0xbfccb945	-1.599404
145	0x3f134a07	0.5753483
146	0xbe920497	-0.28519127
147	0xbf7440f8	-0.95411634
148	0xbe92b67f	-0.28654858
149	0xbeb6cd3a	-0.3570345
150	0x3f9f8751	1.246317
151	0x3e32b2de	0.17451045
152	0x3de1a1d8	0.11017197
153	0x3ebfaaef	0.374351
154	0x3f3bfb00	0.7342987
155	0xbfcd0e64	-1.6020017
156	0x3f287867	0.6580872
157	0xbea682a8	-0.32521558
158	0xbf85359e	-1.0406988
159	0xbe9d43dd	-0.30715838
160	0xbe9c3239	-0.30507067
161	0x3f9075e2	1.1285975
162	0x3e44ebbd	0.19230552
163	0x3dc05502	0.09391214
164	0x3ec55f00	0.38549042
165	0x3f45167c	0.76987433
166	0xbfc8075a	-1.5627244
167	0x3f21d0a4	0.63208985
168	0xbea91d3d	-0.3303012
169	0xbf5089db	-0.8146035
170	0xbec07d93	-0.37595806
171	0xbeabb725	-0.33538166
172	0x3f7a4ae1	0.97770506
173	0x3e3725f2	0.17885569
174	0x3de6aa51	0.11262954
175	0x3ec9038a	0.39260513
176	0x3f4e9d56	0.80708826
177	0xbfc54e32	-1.5414488
178	0x3f1c4890	0.6104822
179	0xbeb7f415	-0.35928407
180	0xbf4a7ea2	-0.79099476
181	0xbeab6731	-0.33477166
182	0xbeb48479	-0.3525732
183	0x3f78620a	0.97024596
184	0x3e4b48de	0.19852015
185	0x3e0213be	0.12702844
186	0x3ecb0586	0.39652652
187	0x3f63b9cb	0.8895537
188	0xbfc860dc	-1.5654559
189	0x3f1405ce	0.5782136
190	0xbecdeec9	-0.4022124
191	0xbf4c989a	-0.7992035
192	0xbea6b272	-0.32558018
193	0xbeb181e1	-0.34669402
194	0x3f909fff	1.1298827
195	0x3e5340b1	0.20630147
196	0x3e0e8f3c	0.13921827
197	0x3ecfa477	0.40555164
198	0x3f781f7a	0.9692303
199	0xbfe7b8a4	-1.8103223
200	0x3f3b7650	0.73227406
201	0xbe9ccdbc	-0.30625713
202	0xbf8b68b7	-1.0891331
203	0xbe987162	-0.29774004
204	0xbecfa8eb	-0.40558562
205	0x3f8c5787	1.0964211
206	0x3d9e17fb	0.07719418
207	0x3da0196e	0.0781735
208	0x3ecb5b19	0.3971794
209	0x3f9037f1	1.1267072
210	0xbff64152	-1.9238684
211	0x3f36c4a4	0.713938
212	0xbd61b00c	-0.055099532
213	0xbf921468	-1.1412477
214	0xbddb5e54	-0.10711351
215	0xbeaf5857	-0.34247085
216	0x3fab6f92	1.3393424
217	0x3c48f0a0	0.012264401
218	0x3d8bdb0f	0.068288915
219	0x3ece75ab	0.4032415
220	0x3f9aaa67	1.2083253
221	0xc002c526	-2.043283
222	0x3f25fd56	0.64839685
223	0x3e28a1f8	0.16468036
224	0xbf92084f	-1.1408786
225	0x3c5af845	0.013364856
226	0xbeda4a8a	-0.42634994
227	0x3fa98bbc	1.3245769
228	0xbe11d974	-0.14243108
229	0x3d9c049a	0.07618065
230	0x3eccdec0	0.40013695
231	0x3fa55d32	1.2919066
232	0xc005c614	-2.0902147
233	0x3f0ef4fc	0.55842566
234	0x3ea095e5	0.3136436
235	0xbf9b23b2	-1.2120268
236	0x3dff08e1	0.124528654
237	0xbf0a660e	-0.54061973
238	0x3f9d97c7	1.2311944
239	0xbe797dad	-0.24364348
240	0x3db1f63f	0.08689546
241	0x3ecc4adc	0.39900863
242	0x3faa742e	1.3316705
243	0xc00cc705	-2.1996472
244	0x3f27ac85	0.6549762
245	0x3ec9afa4	0.39391816
246	0xbfafeb99	-1.3743774
247	0x3d49e912	0.04929454
248	0xbf2560ad	-0.6460064
249	0x3f9c8cc0	1.2230453
250	0xbea5d811	-0.32391408
251	0x3dd6b561	0.10483814
252	0x3ecab55d	0.39591494
253	0x3fa4f740	1.2887955
254	0xbfff4348	-1.9942408
255	0x3f165321	0.58720595

global_orient f4 [96, 3]
0	0xbd3857f5	-0.045005757
1	0x3e8bfd56	0.27341717
2	0x3cfc8b13	0.030828035
3	0x3dc513f3	0.09622946
4	0x3e9c9a92	0.30586678
5	0x3cb43420	0.021997511
6	0x3dfa5534	0.122232825
7	0x3ea4c7bd	0.32183638
8	0x3d0f2e99	0.03495655
9	0x3e03f33d	0.12885757
10	0x3ea22422	0.31668192
11	0x3d31d793	0.04341848
12	0x3e00b355	0.1256841
13	0x3ea2a8c2	0.31769377
14	0x3d396e12	0.045270987
15	0x3e0742ac	0.13209027
16	0x3e9618c0	0.29315758
17	0x3d441e0e	0.047880225
18	0x3e116b13	0.14201002
19	0x3e93cce9	0.28867272
20	0x3d30e1ba	0.04318402
21	0x3e12eed3	0.14348917
22	0x3e945eaf	0.28978488
23	0x3cdf085f	0.027225671
24	0x3e15b15c	0.14618438
25	0x3e90f5e0	0.28312588
26	0x3c7ba29e	0.015358595
27	0x3e10a221	0.14124347
28	0x3e8ddf19	0.27709273
29	0x3c2d25d9	0.010568106
30	0x3e12d891	0.14340426
31	0x3e80c73f	0.25152013
32	0x3c5a772b	0.013334076
33	0x3e16d24f	0.14728664
34	0x3e88388c	0.26605642
35	0x3bf8e9d4	0.007596234
36	0x3e09c04e	0.13452265
37	0x3e98b17a	0.29822904
38	0x3c5b5bab	0.013388555
39	0x3dff84f7	0.12476533
40	0x3ec14aca	0.37752372
41	0x3c8f17b4	0.017467357
42	0x3df39439	0.118935056
43	0x3edeed97	0.43540642
44	0x3c5fec8f	0.01366724
45	0x3dffa9dd	0.12483571
46	0x3ef11fcf	0.4709458
47	0x3bff9ea5	0.0078008943
48	0x3e044f61	0.12920906
49	0x3f01c737	0.506946
50	0xbbdedf8e	-0.006801552
51	0x3e006a3b	0.12540524
52	0x3f0852a7	0.5325112
53	0xbc95d2a6	-0.018288922
54	0x3dc9ba23	0.09849956
55	0x3f27f898	0.656137
56	0xbc9c30cc	-0.019066237
57	0x3d88036e	0.06641279
58	0x3f3acf1a	0.7297226
59	0xbc95cb7e	-0.01828551
60	0x3d3de0e6	0.046357058
61	0x3f3f9e87	0.7485127
62	0xbcc53e93	-0.02407769
63	0x3d0b6ab1	0.034037296
64	0x3f414b54	0.75505567
65	0xbce68e2f	-0.02814397
66	0x3c9c582b	0.01908501
67	0x3f427d73	0.7597267
68	0xbc39e88e	-0.011346949
69	0x3c0d378f	0.008619203
70	0x3f39b273	0.72537917
71	0xbae492ca	-0.0017438766
72	0xbc570cce	-0.0131256115
73	0x3f3d6584	0.73983026
74	0xbbb7b989	-0.0056068343
75	0xbc733ec6	-0.014846509
76	0x3f3c0b6e	0.7345494
77	0xbc9ea629	-0.01936634
78	0xbb8e7287	-0.004347149
79	0x3f384b87	0.71990246
80	0xbcf48ec8	-0.02985324
81	0x3c83c50b	0.016085168
82	0x3f324cbe	0.6964835
83	0xbcb84eda	-0.022498537
84	0x3d2529e1	0.040323142
85	0x3f290d51	0.66035944
86	0xb81214cd	-3.4828485e-05
87	0x3d8ec7e0	0.06971717
88	0x3f1d6c33	0.61493224
89	0x3ccbd66a	0.024882514
90	0x3d1ff133	0.039048385
91	0x3efd9a30	0.49531698
92	0x3c84d982	0.016216997
93	0x3d099b41	0.033595327
94	0x3ebfc08e	0.37451595
95	0x3b8a2cdb	0.004216773
96	0x3ca8e98a	0.020619173
97	0x3e9f528e	0.31117672
98	0xbb4b9e80	-0.0031069815
99	0x3aa6e763	0.0012733754
100	0x3e85b192	0.26112038
101	0xbbdc12f2	-0.0067161256
102	0xbc9ebeeb	-0.019378146
103	0x3e537018	0.20648229
104	0xbc147be9	-0.009062746
105	0xbd3fc75f	-0.046820994
106	0x3e2cde36	0.16881642
107	0xbc4d2940	-0.012522042
108	0xbd8120b4	-0.06305066
109	0x3df482da	0.119390205
110	0xbc833c28	-0.016019896
111	0xbdc234b8	-0.094827116
112	0x3d9282ea	0.07153876
113	0xbcdb920e	-0.026803043
114	0xbdf120a2	-0.11773802
115	0x3d35d681	0.04439402
116	0xbcb57d84	-0.022154577
117	0xbe00e35c	-0.1258673
118	0x3d737252	0.059435196
119	0xbcc20db5	-0.023688177
120	0xbe043a78	-0.12912929
121	0x3de10e20	0.10989022
122	0xbd1fb927	-0.038994934
123	0xbe027430	-0.12739635
124	0x3e3a8702	0.18215564
125	0xbd71c1b2	-0.059022613
126	0xbe02e99b	-0.12784426
127	0x3e8b6552	0.2722574
128	0xbdba3611	-0.090923436
129	0xbdf652a8	-0.12027484
130	0x3eaf6931	0.34259942
131	0xbdef8d88	-0.11696917
132	0xbde8b694	-0.11362949
133	0x3ed2e109	0.41187313
134	0xbe03bfea	-0.12866178
135	0xbdf2d499	-0.11856956
136	0x3ef4b740	0.4779606
137	0xbe05362c	-0.13008946
138	0xbdf9cf95	-0.12197796
139	0x3f0e10ea	0.5549456
140	0xbe05289c	-0.13003772
141	0xbdeaecbc	-0.11470935
142	0x3f167f3c	0.58787894
143	0xbdf5defa	-0.1200542
144	0xbdf94796	-0.12171857
145	0x3f1e3064	0.6179259
146	0xbdda6ae4	-0.10664919
147	0xbe061ec9	-0.13097681
148	0x3f23b58b	0.6394889
149	0xbdbff211	-0.093723424
150	0xbe0bc8a8	-0.13650763
151	0x3f29bd3b	0.6630437
152	0xbd851067	-0.06497269
153	0xbe053cf2	-0.1301153
154	0x3f2e0612	0.6797801
155	0xbcc1e822	-0.02367026
156	0xbe04c729	-0.12966599
157	0x3f3c1485	0.7346881
158	0x3b18e765	0.0023331281
159	0xbe07859d	-0.13234563
160	0x3f48a504	0.78376794
161	0x3bcbe94e	0.0062228804
162	0xbe0c0ed2	-0.13677529
163	0x3f4b8ade	0.7950877
164	0x3bf25db9	0.0073964265
165	0xbe08ec48	-0.13371384
166	0x3f427be4	0.7597029
167	0x3c0ddf31	0.00865917
168	0xbdf5492d	-0.11976848
169	0x3f2d4a24	0.67691255
170	0x3c8d6d8c	0.01726415
171	0xbdc8bdb9	-0.09801812
172	0x3f14361b	0.5789506
173	0x3cd4b02c	0.025962912
174	0xbda7e90c	-0.08198747
175	0x3efbc238	0.49171615
176	0x3d18e83e	0.03733086
177	0xbd860238	-0.06543392
178	0x3ed35766	0.41277617
179	0x3d3f6474	0.04672666
180	0xbd43b848	-0.047783166
181	0x3ea18ede	0.31554312
182	0x3d6d1fcf	0.057891663
183	0xbd156a83	-0.03647853
184	0x3e85170e	0.25994152
185	0x3d84d6a3	0.06486251
186	0xbd0bb93a	-0.034112193
187	0x3e6cbbb5	0.2311848
188	0x3d88e76e	0.06684767
189	0xbd013b03	-0.03155042
190	0x3e5b5e40	0.21422672
191	0x3d7ad63f	0.061239477
192	0xbd068a9e	-0.03284704
193	0x3e59444b	0.21217458
194	0x3d811f19	0.063047595
195	0xbd2433ce	-0.040088467
196	0x3e57314a	0.21014896
197	0x3d6dc729	0.058051262
198	0xbd5dd165	-0.054154772
199	0x3e47d251	0.19513823
200	0x3d69e284	0.057100788
201	0xbd9b4c45	-0.07582907
202	0x3e131b66	0.1436592
203	0x3d4ec6a0	0.050482392
204	0xbdd3904d	-0.103302576
205	0x3dd91a33	0.106007
206	0x3d3a55af	0.04549187
207	0xbdd57542	-0.10422756
208	0x3dcdfeba	0.10058351
209	0x3d09cf70	0.033645093
210	0xbde3d67b	-0.11124893
211	0x3df7539f	0.12076496
212	0x3d09b3e0	0.033618808
213	0xbdeba587	-0.11506181
214	0x3e2e625d	0.1702971
215	0x3c976ccd	0.018484497
216	0xbdc9383b	-0.09825178
217	0x3e5522ff	0.20814131
218	0x3bc75c8a	0.0060840296
219	0xbdb260b1	-0.08709849
220	0x3e78b518	0.24287832
221	0xbcdf950d	-0.027292753
222	0xbda26e6e	-0.07931219
223	0x3e8ed052	0.2789331
224	0xbd4f6770	-0.050635755
225	0xbda82f3f	-0.082121365
226	0x3e9da670	0.30791044
227	0xbd8d3474	-0.0689477
228	0xbdaf8d04	-0.085718185
229	0x3eaac12d	0.33350506
230	0xbda4d4bc	-0.08048388
231	0xbdb236eb	-0.08701881
232	0x3ead8fd4	0.33898795
233	0xbdca59f3	-0.09880438
234	0xbda6a3dd	-0.08136723
235	0x3eafa662	0.34306628
236	0xbdd452a4	-0.10367325
237	0xbd8188a7	-0.063248925
238	0x3eb0058c	0.34379232
239	0xbddb4a38	-0.107075155
240	0xbd956b17	-0.072958164
241	0x3ed4c0be	0.415533
242	0xbdce6b5a	-0.100790694
243	0xbdbd81d5	-0.09253279
244	0x3ef4e2f3	0.478294
245	0xbdaf42cb	-0.085576616
246	0xbdd89972	-0.10576142
247	0x3f026df2	0.50949013
248	0xbd75675c	-0.059913024
249	0xbdf9835b	-0.12183257
250	0x3f12d0ba	0.5734974
251	0xbd275143	-0.04084898
252	0xbe07f339	-0.13276376
253	0x3f260214	0.6484692
254	0xbc8a69de	-0.016896185
255	0xbe12096e	-0.1426141

body_pose f4 [96, 63]
0	0xbe96a2eb	-0.29421172
1	0xbc8b10f3	-0.016975855
2	0x3cb3e8ab	0.02196153
3	0xbe020db5	-0.12700541
4	0xbd253a18	-0.040338606
5	0x3d35e53b	0.044408064
6	0x3ea95495	0.33072343
7	0x3d1d42ca	0.038393773
8	0x3e4d27aa	0.20034662
9	0x3f59ed61	0.85127836
10	0xbde7ead3	-0.11324086
11	0xbcd18c6a	-0.02557965
12	0x3f0fad87	0.56124157
13	0x3e4f9116	0.2027019
14	0xbd9e9ad1	-0.07744373
15	0x3d55ee42	0.052229173
16	0x3ce146fe	0.027499672
17	0xbdbde088	-0.092713416
18	0xbda06ac6	-0.078328654
19	0xbb63edc2	-0.0034779166
20	0xbdb17a40	-0.086658955
21	0xbdb55c9c	-0.088555545
22	0x3e83403e	0.2563495
23	0x3e1c38fb	0.15256111
24	0x3dd151c1	0.102206714
25	0x39521eee	0.00020038683
26	0xbdd75fbe	-0.10516308
27	0x377859c3	1.4802851e-05
28	0xb7838a79	-1.5680898e-05
29	0x37874922	1.612731e-05
30	0x3777b82f	1.4765231e-05
31	0x3788d128	1.630986e-05
32	0x3784ec59	1.5845684e-05
33	0xbdc7058b	-0.09717854
34	0x3d3b8cbd	0.045788515
35	0xbc3ccec8	-0.01152391
36	0x3cf0bfa8	0.029388264
37	0xbe8bfe27	-0.2734234
38	0xbea01856	-0.31268567
39	0x3d9797fa	0.07402034
40	0x3e041e0a	0.12902084
41	0x3ec9635a	0.39333612
42	0xbdfa763c	-0.12229583
43	0x3d19c258	0.037538856
44	0x3c602e16	0.013682863
45	0x3dd2325d	0.10263512
46	0xbec5d3f4	-0.3863827
47	0xbf3eee96	-0.74582803
48	0x3ca4d73c	0.020122163
49	0x3e4bdfe2	0.19909623
50	0x3f3f9598	0.74837637
51	0x3db08a5f	0.08620142
52	0xbf104868	-0.56360483
53	0xbea029e2	-0.31281954
54	0xbd31f301	-0.043444637
55	0x3f2b78e2	0.6698133
56	0xbbdd6ed2	-0.0067575956
57	0x3dab5a65	0.08366851
58	0x3c4bb9cd	0.012434435
59	0x3e3e0fed	0.18560763
60	0x3e0d3863	0.13791041
61	0xbdb511d1	-0.08841289
62	0xbd9ef161	-0.07760883
63	0xbf0ae0aa	-0.5424906
64	0xbd76c88b	-0.060249846
65	0x3d5c9eca	0.05386237
66	0xbe9e2d8f	-0.30894133
67	0x3e077dc1	0.13231565
68	0x3cc408a6	0.023929905
69	0x3e75850c	0.23976535
70	0x3d1d51c1	0.038408045
71	0x3e37c019	0.17944373
72	0x3f5ac79a	0.8546082
73	0xbdf84ff9	-0.121246286
74	0xbd805f50	-0.062681794
75	0x3f17d816	0.59314096
76	0x3d932927	0.071855836
77	0xbb2aab85	-0.0026042175
78	0xbd258009	-0.040405307
79	0x3c57d61d	0.013173607
80	0xbddea25e	-0.10870813
81	0xbd2c619e	-0.042085283
82	0xbbc7e3ec	-0.0061001685
83	0xbd9315f3	-0.07181921
84	0xbe36745b	-0.17817824
85	0x3dd72654	0.105053574
86	0x3e9bca0d	0.3042759
87	0x3db742b2	0.08948268
88	0x3ceb3f80	0.028716803
89	0xbd9aac63	-0.075524114
90	0x37753bcf	1.4617063e-05
91	0xb7840756	-1.5739042e-05
92	0x37867c96	1.603206e-05
93	0x377062cd	1.4328119e-05
94	0x3785bc00	1.594238e-05
95	0x3784c46b	1.582709e-05
96	0xbae3ea2b	-0.0017388513
97	0x3d3d4651	0.046209637
98	0xbd8fa7c1	-0.070144184
99	0xbbf07ea1	-0.007339314
100	0xbe00c544	-0.12575251
101	0xbf067d4a	-0.52534926
102	0x3ca9db44	0.020734437
103	0x3cf62855	0.030048529
104	0x3f0203c2	0.50786984
105	0xbd7e193c	-0.062035784
106	0x3c9afdc9	0.018919842
107	0x3d5d4d11	0.054028574
108	0x3cf3ba6f	0.029751984
109	0xbe832a8c	-0.25618398
110	0xbf3b30aa	-0.7312113
111	0xbc51410d	-0.012771857
112	0x3e3c2084	0.18371779
113	0x3f2b975d	0.6702784
114	0x3e329032	0.17437819
115	0xbf1b7388	-0.6072316
116	0xbe6325ce	-0.2218239
117	0x3d6fe130	0.058564365
118	0x3f0c7c31	0.54877
119	0x3d87190b	0.065965734
120	0x3e8ac8ef	0.27106425
121	0x3cecada0	0.028891385
122	0x3ba13e51	0.004920759
123	0x3e05268f	0.1300299
124	0xbdb6f307	-0.089330725
125	0xbd7baa9a	-0.061441995
126	0xbf20395a	-0.6258751
127	0xbce9a75f	-0.028522192
128	0x3d6c97eb	0.057762068
129	0xbe9cf6f3	-0.30657157
130	0x3df72886	0.12068276
131	0xbcd9bc71	-0.026579114
132	0x3e4e7000	0.20159912
133	0x3c529083	0.012851837
134	0x3e3064f6	0.17226014
135	0x3f5c5c7c	0.8607862
136	0xbdfc501a	-0.12319966
137	0xbd62ffdc	-0.055419788
138	0x3f182c1e	0.5944232
139	0x3daa85bf	0.08326291
140	0x3d18d4f1	0.03731245
141	0xbcf6e6db	-0.030139377
142	0x3cbdef6b	0.023185452
143	0xbe0c494a	-0.13699833
144	0x3bcf8ca9	0.0063339067
145	0xbd94b7f0	-0.07261646
146	0xbda6fb0c	-0.08153352
147	0xbe28a6a8	-0.16469824
148	0x3dd9c508	0.10633284
149	0x3e8d2252	0.27565247
150	0x3df1c0ed	0.11804376
151	0x3cb1708e	0.021660116
152	0xbd854b16	-0.06508462
153	0x377b4526	1.4976866e-05
154	0xb788216b	-1.6228025e-05
155	0x3786a00c	1.6048572e-05
156	0x3770a7ef	1.4344215e-05
157	0x37876777	1.6141434e-05
158	0x3785efc1	1.596648e-05
159	0x3cc7779c	0.024349026
160	0x3d495f17	0.04916295
161	0xbdb6aa8f	-0.0891925
162	0xba80a988	-0.0009816149
163	0xbdc72327	-0.09723502
164	0xbf0ee1a6	-0.5581306
165	0x3c61c230	0.013779208
166	0x3d4f91d0	0.050676167
167	0x3f0846c6	0.5323299
168	0xbd1da7bb	-0.03849004
169	0x3d10ea4b	0.03537969
170	0x3d7c80e0	0.061646342
171	0x3d516b58	0.05112776
172	0xbe86e618	-0.26347423
173	0xbf31c761	-0.69444853
174	0xbcb1d47e	-0.02170777
175	0x3e498630	0.19680095
176	0x3f271dc5	0.652798
177	0x3e2276f2	0.15865687
178	0xbf261bed	-0.6488636
179	0xbe5be547	-0.21474181
180	0x3d42a545	0.047520895
181	0x3f05b987	0.5223622
182	0x3d9c1e71	0.07622994
183	0x3e8efb3a	0.27926046
184	0xbd4e1acc	-0.050318524
185	0x3c7fd73e	0.015615283
186	0x3dfd5599	0.12369842
187	0xbe1bb743	-0.15206628
188	0xbd42aed2	-0.047530003
189	0xbf2231d4	-0.6335728
190	0xbd6ab01c	-0.057296857
191	0x3dab7eae	0.083737716
192	0xbea9a1bc	-0.33131206
193	0x3e4cf495	0.20015176
194	0xbaace40d	-0.0013190523
195	0x3e421075	0.1895159
196	0x3cce2373	0.025163388
197	0x3e293036	0.16522297
198	0x3f411820	0.75427437
199	0xbdd98f4a	-0.10623033
200	0xbdc0498a	-0.093890265
201	0x3f1bc1a8	0.6084237
202	0x3da566fc	0.08076283
203	0x3cb42d93	0.021994388
204	0xbc46cbf1	-0.012133584
205	0x3d2d4266	0.04229965
206	0xbe24dedd	-0.1610064
207	0x3c96e11e	0.018417891
208	0xbdf5cafd	-0.120016076
209	0xbddfaa08	-0.10921103
210	0xbe2a2aec	-0.16617936
211	0x3d0314ee	0.032002382
212	0x3e85e0fe	0.26148218
213	0x3e0b2cdc	0.13591331
214	0x3cc3a462	0.023882095
215	0xbd3f21aa	-0.046662964
216	0x3780bb45	1.5345993e-05
217	0xb78abbb2	-1.6538284e-05
218	0x3789a7bf	1.6409786e-05
219	0x376fe842	1.4299587e-05
220	0x37875b31	1.6135718e-05
221	0x37863c68	1.6002174e-05
222	0x3d425bfe	0.04745101
223	0x3d76617f	0.060151573
224	0xbdb658d1	-0.08903659
225	0xbb72c1f4	-0.0037041875
226	0xbdcf4e91	-0.10122407
227	0xbf0e0cbc	-0.5548818
228	0x3c5a47cd	0.013322783
229	0x3d9ab07c	0.07553193
230	0x3f12ad34	0.57295537
231	0x3af96ba7	0.0019029275
232	0x3d10af36	0.035323344
233	0x3d2a52f9	0.041583035
234	0x3d4adceb	0.04952709
235	0xbe909c97	-0.2824447
236	0xbf34d461	-0.70636564
237	0xbc33cf03	-0.010974648
238	0x3e486c0a	0.19572464
239	0x3f1dc47d	0.6162794
240	0x3e403671	0.18770768
241	0xbf2052bb	-0.62626237
242	0xbe5d5915	-0.21616013
243	0x3e056f3e	0.13030717
244	0x3ee0c230	0.43898153
245	0x3d862a91	0.06551088
246	0x3e939fdc	0.288329
247	0xbdca3372	-0.09873094
248	0x3d31b284	0.043383136
249	0x3e0c4369	0.1369759
250	0xbd56a664	-0.052404776
251	0xbdb7539d	-0.08951495
252	0xbf22c00d	-0.63574296
253	0xbd8e5a34	-0.06950799
254	0x3dca7819	0.09886188
255	0xbea83182	-0.3285027

transl f4 [96, 3]
0	0xbf22704e	-0.63452613
1	0x3fb30617	1.3986233
2	0xbfabbe6e	-1.341749
3	0xbf20ec2e	-0.6286038
4	0x3fb2c205	1.396546
5	0xbfaacf0e	-1.3344438
6	0xbf1e497b	-0.6183087
7	0x3fb29cf6	1.3954151
8	0xbfa90183	-1.3203586
9	0xbf1ba899	-0.60804135
10	0x3fb26ff3	1.3940414
11	0xbfa6e80d	-1.3039566
12	0xbf18daad	-0.5970867
13	0x3fb23c13	1.3924583
14	0xbfa49d88	-1.2860575
15	0xbf15ec32	-0.5856353
16	0x3fb1dccd	1.3895508
17	0xbfa21950	-1.2663975
18	0xbf12a2a5	-0.57279426
19	0x3fb18d2d	1.3871208
20	0xbf9f38c1	-1.2439195
21	0xbf0fa40b	-0.56109685
22	0x3fb0f7b1	1.382559
23	0xbf9c75f6	-1.2223499
24	0xbf0c4b43	-0.5480234
25	0x3fb053f3	1.3775619
26	0xbf98e3f3	-1.1944565
27	0xbf085840	-0.5325966
28	0x3faf9683	1.3717808
29	0xbf94e750	-1.1633091
30	0xbf05c533	-0.5225403
31	0x3faf13bd	1.3677899
32	0xbf90786a	-1.1286747
33	0xbf0316f5	-0.51206905
34	0x3fae315f	1.3608817
35	0xbf8bf288	-1.093339
36	0xbeff7197	-0.4989135
37	0x3facf34e	1.3511751
38	0xbf875d88	-1.0575418
39	0xbef91dd9	-0.48655584
40	0x3fac3b54	1.3455606
41	0xbf828e67	-1.0199708
42	0xbef3b307	-0.47597525
43	0x3faba08d	1.3408371
44	0xbf7c784b	-0.9862105
45	0xbeeef1b1	-0.4666877
46	0x3faba029	1.3408252
47	0xbf73e7b7	-0.95275444
48	0xbeeb4f47	-0.4595892
49	0x3fabd793	1.3425163
50	0xbf6baecc	-0.92063594
51	0xbee70af0	-0.45125532
52	0x3fac336c	1.3453193
53	0xbf62fcb9	-0.88666874
54	0xbee167b5	-0.44024435
55	0x3fabb6e4	1.3415189
56	0xbf58bf2a	-0.84666693
57	0xbedbd881	-0.42938617
58	0x3fabe93e	1.3430555
59	0xbf4e333c	-0.8054693
60	0xbed5a34d	-0.4172615
61	0x3fabd4ac	1.3424277
62	0xbf4263cf	-0.75933546
63	0xbece34dc	-0.40274704
64	0x3fab6599	1.339038
65	0xbf35b7c2	-0.7098352
66	0xbec57051	-0.38562253
67	0x3faa41df	1.3301352
68	0xbf27fb9c	-0.656183
69	0xbebbfc5f	-0.3671598
70	0x3fa9df91	1.3271352
71	0xbf1a03a2	-0.60161793
72	0xbeb3bb42	-0.35103804
73	0x3fa937e2	1.3220179
74	0xbf0c9583	-0.54915637
75	0xbeac978f	-0.3370938
76	0x3fa9ccfb	1.326568
77	0xbf010633	-0.50400084
78	0xbea6f196	-0.3260619
79	0x3faae553	1.3351234
80	0xbeed57da	-0.46356088
81	0xbea1c84d	-0.3159813
82	0x3fac430d	1.3457962
83	0xbedb0407	-0.4277651
84	0xbe9c9de8	-0.30589223
85	0x3faddea0	1.3583565
86	0xbeca6f64	-0.3953811
87	0xbe96d08f	-0.29455993
88	0x3faf6019	1.3701202
89	0xbeba8fa5	-0.36437717
90	0xbe8fb6b9	-0.28069094
91	0x3faf18c5	1.3679434
92	0xbea90db0	-0.33018255
93	0xbe891a13	-0.26777706
94	0x3fafd204	1.3735967
95	0xbe9669a3	-0.2937747
96	0xbe80e660	-0.25175762
97	0x3fb02ceb	1.3763708
98	0xbe835b4b	-0.25655589
99	0xbe707444	-0.23481852
100	0x3fb04d92	1.3773673
101	0xbe5c3ae6	-0.21506843
102	0xbe5f00e1	-0.21777679
103	0x3fb03082	1.3764803
104	0xbe2da9cc	-0.16959304
105	0xbe4a1b04	-0.19736868
106	0x3faf1ad3	1.3680061
107	0xbdf4f0b9	-0.11959977
108	0xbe34d76a	-0.17660299
109	0x3fae0888	1.3596354
110	0xbd915ec8	-0.07098156
111	0xbe1e2017	-0.15441929
112	0x3fade81c	1.3586459
113	0xbcb53d91	-0.022124084
114	0xbe0b07a6	-0.13577136
115	0x3fad5466	1.3541381
116	0x3c973c1a	0.018461276
117	0xbded03b9	-0.11572976
118	0x3faddfc1	1.3583909
119	0x3d629503	0.05531789
120	0xbdc64d35	-0.09682695
121	0x3faed500	1.3658752
122	0x3db15b3e	0.08659981
123	0xbda191f5	-0.07889167
124	0x3fb0045d	1.3751332
125	0x3dea6ee1	0.1144693
126	0xbd79a411	-0.06094748
127	0x3fb0ef87	1.3823098
128	0x3e0f2ac3	0.13981156
129	0xbd3736ca	-0.044729985
130	0x3fb1c357	1.3887738
131	0x3e273c25	0.16331537
132	0xbcf00da2	-0.029303376
133	0x3fb23cb0	1.392477
134	0x3e3f64c1	0.18690778
135	0xbc50e33c	-0.012749489
136	0x3fb25f59	1.3935348
137	0x3e553d72	0.20824221
138	0x3bc718d8	0.0060759597
139	0x3fb27034	1.3940492
140	0x3e6afc0c	0.22947711
141	0x3ccbf044	0.024894841
142	0x3fb21d1f	1.3915137
143	0x3e815384	0.2525903
144	0x3d4147f8	0.047187775
145	0x3fb190e4	1.3872342
146	0x3e8e7336	0.27822274
147	0x3d96a8bb	0.073564015
148	0x3fb0c89d	1.3811222
149	0x3e9de957	0.30842087
150	0x3dd5f5d1	0.104472764
151	0x3faf8c92	1.3714774
152	0x3eb06aef	0.34456584
153	0x3e0c5ed4	0.13708049
154	0x3fadf609	1.3590709
155	0x3ec3afdd	0.3822011
156	0x3e2df16e	0.1698663
157	0x3facb96a	1.3494084
158	0x3ed59462	0.4171477
159	0x3e4b4ca2	0.19853452
160	0x3fac3bf5	1.3455797
161	0x3ee7027f	0.45119092
162	0x3e631884	0.2217732
163	0x3fac750c	1.347322
164	0x3ef6ea4c	0.4822563
165	0x3e74fabd	0.23923774
166	0x3fad43a5	1.3536268
167	0x3f02389b	0.50867623
168	0x3e822ea8	0.2542622
169	0x3fae5769	1.3620425
170	0x3f080e2b	0.5314662
171	0x3e898aa7	0.26863596
172	0x3faf58b5	1.3698946
173	0x3f0d96e8	0.5530839
174	0x3e907998	0.2821777
175	0x3fb0150a	1.3756421
176	0x3f129308	0.572556
177	0x3e9756cc	0.29558408
178	0x3fb0f8fd	1.3825985
179	0x3f172ee0	0.590559
180	0x3e9ea20b	0.30983004
181	0x3fb18080	1.386734
182	0x3f1bee91	0.609109
183	0x3ea61bbb	0.32443032
184	0x3fb1d74e	1.3893831
185	0x3f20f9ac	0.6288097
186	0x3eade357	0.3396251
187	0x3fb1e163	1.3896908
188	0x3f2650c2	0.64966977
189	0x3eb64edc	0.3560704
190	0x3fb1c663	1.3888668
191	0x3f2c440d	0.6729134
192	0x3ebf0031	0.37304834
193	0x3fb1a030	1.387701
194	0x3f32dfec	0.6987293
195	0x3ec8cd17	0.3921897
196	0x3fb118d6	1.3835704
197	0x3f3a0dd7	0.7267737
198	0x3ed3a53d	0.41337004
199	0x3fb052a6	1.3775222
200	0x3f41c701	0.7569428
201	0x3ede5bf6	0.43429536
202	0x3faf7ad9	1.3709365
203	0x3f498afe	0.7872771
204	0x3ee91284	0.4552194
205	0x3faeddc8	1.3661432
206	0x3f50e0d6	0.8159307
207	0x3ef39d2e	0.47580856
208	0x3fae876a	1.3635075
209	0x3f57ef0c	0.8434913
210	0x3efca78f	0.49346587
211	0x3faeb1c6	1.3648002
212	0x3f5e2ff3	0.86791915
213	0x3f024765	0.5089019
214	0x3faf0a7e	1.3675077
215	0x3f64029d	0.8906649
216	0x3f05351d	0.5203417
217	0x3faf7d74	1.371016
218	0x3f6896e1	0.9085522
219	0x3f079bcb	0.52972096
220	0x3fb01985	1.3757788
221	0x3f6c83f7	0.9238886
222	0x3f097dfb	0.53707856
223	0x3fb0dcf3	1.3817428
224	0x3f6fff01	0.9374848
225	0x3f0b19c1	0.5433617
226	0x3fb1555e	1.3854177
227	0x3f73616f	0.95070547
228	0x3f0c5512	0.54817307
229	0x3fb199d8	1.3875074
230	0x3f768aba	0.9630543
231	0x3f0d3242	0.5515481
232	0x3fb1bac5	1.3885123
233	0x3f79b7de	0.97546184
234	0x3f0dc402	0.5537721
235	0x3fb1e17f	1.3896941
236	0x3f7d10db	0.98853844
237	0x3f0ed43a	0.5579258
238	0x3fb226de	1.3918111
239	0x3f7ff256	0.9997915
240	0x3f0e6c74	0.55634236
241	0x3fb141eb	1.3848242
242	0x3f8270c6	1.0190666
243	0x3f0e4d4a	0.55586684
244	0x3fb0b76a	1.3805974
245	0x3f84d5f3	1.0377792
246	0x3f0df64f	0.5545396
247	0x3fb00842	1.375252
248	0x3f87a211	1.0596334
249	0x3f0dcc5c	0.5538995
250	0x3faf72da	1.3706925
251	0x3f8ac3a9	1.0840961
252	0x3f0cb7df	0.54968065
253	0x3faf5b86	1.3699806
254	0x3f8de1c9	1.1084529
255	0x3f0ba7db	0.54553

left_hand_pose f4 [96, 12]
0	0x3e1dc974	0.1540888
1	0x3be631cf	0.0070249806
2	0x3ea60928	0.3242886
3	0xbddfa9f0	-0.10921085
4	0x3dc1b5f0	0.0945853
5	0xbe2bd17b	-0.16779129
6	0x3f038c72	0.5138618
7	0xbcf5bd7c	-0.02999758
8	0xbe96af28	-0.2943051
9	0xbf2a5a78	-0.66544294
10	0xbe062736	-0.13100895
11	0xbf42d0b7	-0.76099724
12	0x3e4bb85c	0.19894546
13	0xbb0305f1	-0.0019992555
14	0x3e70d37f	0.2351818
15	0xbdfa7600	-0.12229538
16	0x3dda65ed	0.10663972
17	0xbe0deff9	-0.13861074
18	0x3ee79126	0.45227927
19	0x3d911155	0.07083384
20	0xbf116f0b	-0.56810063
21	0xbf1f3e98	-0.62204885
22	0x3dc96828	0.09834319
23	0xbf8f44c2	-1.1192858
24	0x3e495ac0	0.19663525
25	0x3dc64512	0.09681143
26	0x3e1a45d6	0.15065703
27	0xbe0739f9	-0.13205709
28	0x3e3fc70b	0.18728273
29	0xbe384e37	-0.17998587
30	0x3e9a3c90	0.3012433
31	0x3d10e9d6	0.035379253
32	0xbf381754	-0.71910596
33	0xbf437a6e	-0.7635869
34	0x3e3ab0bd	0.18231483
35	0xbfc770b4	-1.5581269
36	0x3e530511	0.20607401
37	0x3e482b1e	0.19547698
38	0x3e6ddf50	0.23229718
39	0xbe09ae93	-0.13445501
40	0x3e4ac3df	0.19801281
41	0xbeb5d34a	-0.35512763
42	0x3e8e79d6	0.27827328
43	0xbbf41ba1	-0.0074495827
44	0xbe9939f2	-0.2992702
45	0xbf25989f	-0.64686006
46	0x3ee53893	0.44769725
47	0xbfdaa7c6	-1.708245
48	0x3e663e3e	0.22484681
49	0x3e1ff216	0.15619692
50	0x3e6479b3	0.2231205
51	0xbe63095a	-0.22171536
52	0x3f104acb	0.56364125
53	0xbe4541ec	-0.19263428
54	0x3ea93d06	0.3305437
55	0xbe83da98	-0.2575271
56	0xbe368b77	-0.17826639
57	0xbf60f4b5	-0.87873393
58	0x3dd6c335	0.104864515
59	0xbfd41117	-1.6567715
60	0x3e9e58f6	0.30927247
61	0x3eb0ad07	0.3450701
62	0x3e8f948b	0.28043017
63	0xbe4665c8	-0.19374764
64	0x3eab921c	0.3350991
65	0xbe5ec6c9	-0.21755518
66	0x3ed0de30	0.40794516
67	0x3b8c9c48	0.004291091
68	0xbeaee8d6	-0.34162015
69	0xbf3d2a6c	-0.73892856
70	0x3e009a1e	0.12558791
71	0xbfe1b950	-1.7634678
72	0x3e88974f	0.2667794
73	0x3e923605	0.2855684
74	0x3dd6cdef	0.104884975
75	0xbe8eaf87	-0.27868292
76	0x3e94345c	0.28946197
77	0x3e5097cf	0.2037041
78	0x3ed792b1	0.42104104
79	0x3c7ffd85	0.015624409
80	0xbf08221a	-0.53177035
81	0xbf4c1824	-0.79724336
82	0xbe95e3aa	-0.29275256
83	0xbfb504e6	-1.414212
84	0x3e833585	0.2562677
85	0x3ebef048	0.37292695
86	0x3e81a60d	0.25322
87	0xbd4a72b4	-0.049425796
88	0x3ee8b9f7	0.4545438
89	0x3e3dcaa7	0.18534337
90	0xbe9cc3e7	-0.30618212
91	0xbe295f35	-0.16540225
92	0xbf05258c	-0.52010417
93	0xbf605bac	-0.8763988
94	0xbf499af7	-0.7875208
95	0xc004ea60	-2.076805
96	0x3e88abb3	0.26693496
97	0x3ed05e00	0.40696716
98	0x3e879051	0.26477292
99	0xbe27ef93	-0.16399984
100	0x3eb2a1ae	0.34888977
101	0xbe391803	-0.18075566
102	0x3e993bc4	0.2992841
103	0xbdc6b721	-0.09702898
104	0xbe978842	-0.29596144
105	0xbf62f731	-0.88658434
106	0x3cd3ecdd	0.025869781
107	0xbfdd022e	-1.726629
108	0x3e61f88f	0.22067474
109	0x3ed65cd2	0.4186769
110	0x3e6ee0b1	0.233279
111	0xbdee55fc	-0.11637494
112	0x3f1550f7	0.5832667
113	0xbeb58619	-0.3545387
114	0x3dd636f3	0.104596995
115	0xbdbe6aa7	-0.09297686
116	0xbd91b281	-0.07114125
117	0xbf50adfa	-0.8151547
118	0x3d8ab6e5	0.067731656
119	0xbffc3d7b	-1.9706262
120	0x3e7603e2	0.24024919
121	0x3ea2b026	0.31775016
122	0x3ea51e17	0.3224952
123	0x3aeafdcc	0.001792842
124	0x3f0c6367	0.54839176
125	0xbe961aa8	-0.29317212
126	0x3e33fb2b	0.17576282
127	0xbd9a8031	-0.07543982
128	0xbd974b73	-0.07387438
129	0xbf4ae57d	-0.7925642
130	0x3de5b4aa	0.112160996
131	0xbfcf3028	-1.6186571
132	0x3e8e441c	0.27786338
133	0x3e60ef3a	0.21966258
134	0x3e910380	0.28322983
135	0x3e08af66	0.13348159
136	0x3ee70b14	0.4512564
137	0xbeea3382	-0.45742422
138	0x3e4b3350	0.19843793
139	0x3e13b9ed	0.14426394
140	0xbf0a9e99	-0.5414825
141	0xbf543b08	-0.82902575
142	0x3e7996e8	0.24373972
143	0xbf9ec7d9	-1.2404739
144	0x3e786cc6	0.24260244
145	0x3e6d6a7b	0.2318515
146	0x3ead09b2	0.3379646
147	0x3e132c51	0.14372374
148	0x3ea07c1b	0.31344685
149	0xbf19fa7d	-0.6014784
150	0x3e1d5f0c	0.15368289
151	0xbd755df6	-0.05990406
152	0xbe54143a	-0.20710841
153	0xbf53a84b	-0.8267867
154	0x3eba464f	0.36381766
155	0xbfca70d2	-1.581568
156	0x3e67b5b6	0.22627911
157	0x3e8d661b	0.27616963
158	0x3e9a7e31	0.301744
159	0x3e3ee80d	0.18643208
160	0x3de1138e	0.10990058
161	0xbf07540d	-0.52862626
162	0x3e424bd0	0.18974233
163	0x3c63929e	0.013889937
164	0xbec7e84b	-0.39044413
165	0xbf4046b3	-0.7510788
166	0x3edf7c6c	0.43649614
167	0xbfca827e	-1.5821073
168	0x3e68e53b	0.22743694
169	0x3eb41acc	0.35176694
170	0x3e8f4516	0.27982396
171	0x3e2caabc	0.16862005
172	0x3e9ed44f	0.31021354
173	0xbf00125e	-0.50028026
174	0xbdad0211	-0.0844766
175	0x3d93e89a	0.072220996
176	0xbf090357	-0.5352072
177	0xbf2a1dc5	-0.66451675
178	0x3f12ce8e	0.5734643
179	0xbfc30f46	-1.5239036
180	0x3e87700c	0.26452672
181	0x3e85dc52	0.26144654
182	0x3eb965b0	0.36210394
183	0x3e5ef0eb	0.2177159
184	0x3e38c25e	0.18042895
185	0xbf1fdd93	-0.6244747
186	0x3df92f9a	0.121672824
187	0x3ba70e89	0.0050981683
188	0xbeceb6e2	-0.40373904
189	0xbf2f3018	-0.6843276
190	0x3f29a9b3	0.66274565
191	0xbfac873d	-1.3478771
192	0x3e9eb47f	0.30997083
193	0x3e1b70d4	0.1517976
194	0x3ecde8a1	0.40216544
195	0x3e233e2b	0.15941684
196	0x3e752746	0.23940763
197	0xbf12172f	-0.57066625
198	0x3e6ac2a2	0.22925809
199	0xbc564620	-0.013078243
200	0xbead1a19	-0.33808973
201	0xbf290d5e	-0.6603602
202	0x3f485cfe	0.78266895
203	0xbf9ff10d	-1.2495438
204	0x3e882788	0.2659266
205	0x3e6aeba4	0.22941452
206	0x3eaa10ef	0.33216044
207	0x3e3a99a2	0.18222669
208	0x3dbbee78	0.09176344
209	0xbee0ad23	-0.43882093
210	0x3e85ad20	0.26108646
211	0x3c529f74	0.012855399
212	0xbedb9e34	-0.42894137
213	0xbf33e593	-0.7027218
214	0x3f257595	0.6463254
215	0xbf9cf4de	-1.2262228
216	0x3e81923b	0.25306877
217	0x3e71a021	0.2359624
218	0x3e9cf66a	0.3065675
219	0x3e3ac8f0	0.18240714
220	0xbcdf2486	-0.027239095
221	0xbeefab8f	-0.46810576
222	0x3ebd8d64	0.37021935
223	0x3d816352	0.06317772
224	0xbf186693	-0.59531516
225	0xbf26759e	-0.6502322
226	0x3f412723	0.7545034
227	0xbf9043dd	-1.127071
228	0x3e67e001	0.22644044
229	0x3e979c8a	0.29611617
230	0x3eb9773b	0.36223778
231	0x3dd37a6c	0.103260845
232	0x3dae3996	0.085070774
233	0xbeb315aa	-0.34977466
234	0x3e5d3e50	0.21605802
235	0xbe1c920f	-0.15290092
236	0xbf025326	-0.50908124
237	0xbf3aa883	-0.7291338
238	0x3f5257e8	0.82165384
239	0xbfa38bfa	-1.2777092
240	0x3e839f11	0.25707296
241	0x3e768736	0.24075016
242	0x3edc1aeb	0.42989287
243	0x3e20112f	0.15631555
244	0x3c9f9249	0.019478934
245	0xbf2669e7	-0.65005344
246	0x3efc1ae9	0.4923928
247	0xbdc64e77	-0.09682935
248	0xbf05c2a4	-0.52250123
249	0xbf4a7b59	-0.79094464
250	0x3f85a498	1.0440855
251	0xbf9c2863	-1.2199825
252	0x3e963903	0.2934037
253	0x3e3035fb	0.17208092
254	0x3f07816e	0.5293187
255	0x3e785cd4	0.24254161

right_hand_pose f4 [96, 12]
0	0x3e1d1429	0.15339722
1	0x3d3fd630	0.046835124
2	0x3ea3b56c	0.3197435
3	0xbe4f98e0	-0.20273161
4	0xbdf4080b	-0.119155966
5	0xbddf67c4	-0.109084636
6	0x3f5b4341	0.85649496
7	0x3e137c74	0.14402944
8	0xbf17219c	-0.5903566
9	0xbece2ce2	-0.40268618
10	0x3f5e751d	0.8689745
11	0xbf1f57dc	-0.6224344
12	0x3e7ceff6	0.24700913
13	0x3e1126d7	0.14174972
14	0x3e8ead41	0.27866557
15	0xbe3cd2c9	-0.18439783
16	0xbe98f2c9	-0.2987273
17	0xbe95d81f	-0.2926645
18	0x3f86cc52	1.0531104
19	0x3eab0e3b	0.33409294
20	0xbf76100c	-0.96118236
21	0xbf16e62e	-0.58944976
22	0x3f159877	0.5843577
23	0xbf2ad5b5	-0.6673234
24	0x3e995b48	0.29952455
25	0x3e4fa5fd	0.20278163
26	0x3e70891a	0.234898
27	0xbe86293e	-0.2620334
28	0xbe67c6fb	-0.22634499
29	0xbe94c9de	-0.29060262
30	0x3f70e53a	0.9409977
31	0x3ee59634	0.44841158
32	0xbf621c3f	-0.8832435
33	0xbeda5f1c	-0.42650688
34	0x3f0f57cd	0.5599335
35	0xbf3dfe79	-0.7421642
36	0x3e53c633	0.20681076
37	0x3dfb3640	0.12266207
38	0x3e985666	0.29753417
39	0xbee8c18c	-0.45460165
40	0x3e9ce0d3	0.30640277
41	0xbe3bca44	-0.18338877
42	0x3f2eddd4	0.6830723
43	0xbd8ef850	-0.069809556
44	0xbe8cc478	-0.27493644
45	0xbf5c6004	-0.8608401
46	0x3e39b388	0.18134892
47	0xbfbc06ab	-1.4689535
48	0x3e8e2fa2	0.27770716
49	0xbd06c2ac	-0.032900497
50	0xbe342777	-0.1759318
51	0xbf507b1b	-0.81437844
52	0x3ef4b776	0.4779622
53	0x3f02f493	0.5115444
54	0x3f20efc1	0.62865835
55	0x3f00036c	0.5000522
56	0xbfb4b291	-1.4116994
57	0xbf3d4cd8	-0.7394538
58	0xbe3331ba	-0.17499438
59	0xbd015b9d	-0.03158151
60	0x3e936cda	0.28793985
61	0x3ce60618	0.028079078
62	0x3deff46c	0.11716542
63	0xbf38f14e	-0.722432
64	0x3ee72cc6	0.45151347
65	0x3e528835	0.20559771
66	0x3f1e0c5d	0.61737615
67	0x3d57f1df	0.0527209
68	0xbf03c7b0	-0.51476574
69	0xbf21dbd3	-0.6322605
70	0xbda25432	-0.07926215
71	0xbf7e251b	-0.9927537
72	0x3eae9dc4	0.3410474
73	0xbd1bab11	-0.03800494
74	0x3df4d689	0.11954982
75	0xbf23f6d4	-0.64048505
76	0x3e10d19b	0.14142458
77	0x3e29303f	0.1652231
78	0x3f3941e8	0.7236619
79	0x3e2857d7	0.16439758
80	0xbf2640c6	-0.64942586
81	0xbf64f960	-0.89443016
82	0xbeab57a5	-0.33465305
83	0xbf46e2a5	-0.7768958
84	0x3ebfd008	0.37463403
85	0xbe2ffb7b	-0.17185776
86	0x3d817a44	0.063221484
87	0xbf28fbb4	-0.6600907
88	0x3ebe3e76	0.3715703
89	0x3e913934	0.28363955
90	0x3ee617a9	0.44939926
91	0x3e67dec6	0.22643575
92	0xbe924a29	-0.28572205
93	0xbf3079c4	-0.689358
94	0x3d5dfca9	0.054196034
95	0xbf5e2ecf	-0.86790174
96	0x3ea1f6c3	0.31633577
97	0x3d8e5ccb	0.069512926
98	0x3e25778a	0.16158882
99	0xbf3e26d8	-0.7427802
100	0x3f08819f	0.53322786
101	0x3e04f64a	0.12984577
102	0x3f1d794d	0.61513215
103	0xbe3cad8e	-0.18425581
104	0xbea470fb	-0.32117447
105	0xbf914afd	-1.135101
106	0xbd938697	-0.07203405
107	0xbfaffa36	-1.3748233
108	0x3ea67c8c	0.32516897
109	0x3def4a2d	0.1168407
110	0x3e5feca6	0.21867618
111	0xbee2d149	-0.44300297
112	0x3e92c593	0.28666362
113	0xbdfa9fe7	-0.1223753
114	0x3efe967f	0.49724194
115	0xbdfee965	-0.1244686
116	0xbeee1cc3	-0.46506318
117	0xbf81e611	-1.0148336
118	0x3dbcf714	0.09226814
119	0xbfce8662	-1.613476
120	0x3ebe11b8	0.37122893
121	0x3e4dd3d1	0.20100333
122	0x3e9964f8	0.29959846
123	0xbe482ea2	-0.19549039
124	0x3e705062	0.23468164
125	0xbeb341cd	-0.3501114
126	0x3e6aab0c	0.22916812
127	0x3cb19b32	0.021680448
128	0xbf16573b	-0.58726853
129	0xbf602904	-0.87562585
130	0x3eb4883d	0.35260192
131	0xbfc7f039	-1.5620185
132	0x3eab4cb5	0.3345696
133	0x3e43e28e	0.19129393
134	0x3e65c1f0	0.22437263
135	0xbdb20049	-0.08691461
136	0x3e58d4c5	0.21174915
137	0xbe8efc87	-0.27927038
138	0x3e49294e	0.19644663
139	0x3c65850e	0.0140087735
140	0xbf1e66ed	-0.618758
141	0xbf5654fe	-0.8372344
142	0x3e9c5742	0.30535322
143	0xbfbc7be9	-1.4725314
144	0x3eb226a4	0.34795105
145	0x3e7c05c3	0.24611573
146	0x3e7bad28	0.24577773
147	0x3c2417e6	0.010015463
148	0x3e447bc3	0.19187836
149	0xbea10d1e	-0.3145532
150	0x3e56e2a8	0.209849
151	0x3ce4f7cf	0.027950196
152	0xbf1d6354	-0.6147969
153	0xbf459604	-0.7718203
154	0x3ed6703e	0.4188251
155	0xbfb7e0b2	-1.4365447
156	0x3eb49aca	0.35274345
157	0x3eb0164e	0.34392017
158	0x3eab4229	0.33448914
159	0x3e3a9951	0.18222548
160	0x3de2cfe6	0.1107481
161	0xbf096f73	-0.53685683
162	0x3d83b3a7	0.0643075
163	0x3dc6140f	0.096717946
164	0xbf2b2600	-0.6685486
165	0xbf3f1f09	-0.7465673
166	0x3f37d5ca	0.7181059
167	0xbfc42436	-1.5323551
168	0x3e93526c	0.2877382
169	0x3e9bf8ae	0.30463165
170	0x3e786991	0.2425902
171	0x3e0a9c01	0.13536073
172	0x3e4149bc	0.18875784
173	0xbee24361	-0.4419203
174	0x3e5bb004	0.21453863
175	0x3da41eb9	0.080136724
176	0xbf19b12b	-0.6003596
177	0xbf326b3f	-0.69694895
178	0x3f232548	0.6372876
179	0xbfb5cfd5	-1.420405
180	0x3e8bf11c	0.2733239
181	0x3e8fb7e0	0.28069973
182	0x3e892784	0.2678796
183	0x3e2a8a06	0.16654214
184	0x3d919ba8	0.07109767
185	0xbee79f7e	-0.4523887
186	0x3e6f8554	0.23390704
187	0x3de45860	0.11149669
188	0xbf306058	-0.6889701
189	0xbf0bb173	-0.5456764
190	0x3f486876	0.78284395
191	0xbfa86db8	-1.3158484
192	0x3e6b25c3	0.22963624
193	0x3e86d14f	0.26331565
194	0x3e472b51	0.19450118
195	0x3dbba5a9	0.091624565
196	0x3e1c5766	0.15267715
197	0xbef6996a	-0.4816392
198	0x3e6532c2	0.22382644
199	0x3de53fd7	0.11193817
200	0xbf1c5970	-0.6107397
201	0xbf1f55d4	-0.6224034
202	0x3f483589	0.7820669
203	0xbfb8a33e	-1.4424818
204	0x3e6c84b1	0.23097493
205	0x3e641448	0.22273362
206	0x3e5fda30	0.21860576
207	0x3e326557	0.1742147
208	0x3e755f90	0.23962235
209	0xbf046fcd	-0.51733094
210	0x3e06200d	0.13098164
211	0x3de902ba	0.11377473
212	0xbf1d24a1	-0.61384016
213	0xbf1f410d	-0.62208635
214	0x3f237578	0.6385112
215	0xbfb22d88	-1.3920145
216	0x3e276cb2	0.16350058
217	0x3e88092f	0.26569507
218	0x3e41d947	0.18930541
219	0x3e0b35d6	0.13594756
220	0x3edd12d5	0.4317843
221	0xbf081b3b	-0.5316655
222	0x3d116cdf	0.03550422
223	0xbd316242	-0.043306597
224	0xbf06a834	-0.5260041
225	0xbf33a003	-0.70166034
226	0x3f27b986	0.6551746
227	0xbfbff14f	-1.4995517
228	0x3d7ace46	0.061231874
229	0x3e5ffbee	0.21873447
230	0x3debf996	0.11522214
231	0x3df95426	0.12174253
232	0x3edd73d5	0.43252435
233	0xbf099788	-0.53746843
234	0x3d7c5c8c	0.061611697
235	0xbdd05da3	-0.1017411
236	0xbf05d20a	-0.5227362
237	0xbf395027	-0.7238793
238	0x3f3f478f	0.74718565
239	0xbfce2127	-1.6103867
240	0xbd233864	-0.0398487
241	0x3e9a80af	0.30176303
242	0x3db539e7	0.088489346
243	0x3db68f2c	0.089140266
244	0x3eac177d	0.3361167
245	0xbea9fecf	-0.33202216
246	0x3dbaac2e	0.09114872
247	0xbe5f3fe1	-0.21801712
248	0xbf2ba6c7	-0.6705136
249	0xbf560b12	-0.8361064
250	0x3f488296	0.7832426
251	0xbfcde664	-1.6085935
252	0x3d118130	0.035523593
253	0x3e7afe62	0.24511102
254	0x3e405c71	0.18785264
255	0x3e88302a	0.26599246

jaw_pose f4 [96, 3]
0	0xbbd15d8d	-0.006389326
1	0x3c007e95	0.0078426795
2	0x3b0dd0f8	0.0021639448
3	0xbad86ff9	-0.0016512863
4	0x3c260519	0.010133051
5	0x3b50787a	0.003181009
6	0x3a3be41a	0.00071674737
7	0x3c332fd9	0.010936701
8	0x3b88cfe1	0.0041751717
9	0x3bf6bf6f	0.007530145
10	0x3c378d99	0.011203193
11	0x3b918fc8	0.004442189
12	0x3b77904e	0.0037775221
13	0x3c4295b6	0.011876514
14	0x3b915159	0.004434746
15	0x3cc9b433	0.024622058
16	0x3c1acef9	0.00944876
17	0x3b7962d4	0.003805329
18	0x3d0e40ce	0.03472977
19	0x3c22da5d	0.009939757
20	0x3b95455a	0.0045553865
21	0x3cdb46f7	0.026767237
22	0x3c27875e	0.010225145
23	0x3b88028a	0.0041506933
24	0x3cfb38eb	0.030666789
25	0x3c2cc6c7	0.010545439
26	0x3b86c676	0.004113014
27	0x3cb89d13	0.022535836
28	0x3c5ee273	0.013603794
29	0x3b7c60b6	0.0038509793
30	0x3cfcc19c	0.030854039
31	0x3c479890	0.01218237
32	0x3bac47f6	0.005257602
33	0x3cc62e33	0.024191951
34	0x3c32e702	0.010919334
35	0x3b9a541a	0.0047097327
36	0x3d013dc6	0.031553052
37	0x3c28fc83	0.01031411
38	0x3b8f7b4e	0.0043787127
39	0x3d2d4110	0.042298377
40	0x3c1dd49d	0.0096332105
41	0x3b8a5e24	0.004222648
42	0x3d5b64bb	0.05356286
43	0x3c69b282	0.014263751
44	0x3b9427a5	0.0045213276
45	0x3d3b2e01	0.04569817
46	0x3c334633	0.01094203
47	0x3ba224aa	0.0049482184
48	0x3d33c711	0.043891016
49	0x3c31533b	0.010823066
50	0x3b83ad2b	0.004018446
51	0x3d385cf6	0.04501053
52	0x3c09fea6	0.008422529
53	0x3b58c0e7	0.0033073963
54	0x3d4141e1	0.047181968
55	0x3c0df93c	0.008665379
56	0x3b5ab39c	0.0033371216
57	0x3d5a7474	0.053333715
58	0x3c0cbd0e	0.008589996
59	0x3b35c252	0.0027734232
60	0x3d8cd139	0.068758436
61	0x3c046867	0.008081532
62	0x3b492651	0.0030693004
63	0x3dc106b1	0.094251044
64	0x3b7fb10d	0.0039015443
65	0x3a97ef8f	0.001159178
66	0x3db62161	0.08893085
67	0x3bb07d1d	0.0053860084
68	0x3a7c86a8	0.00096331025
69	0x3def0358	0.1167056
70	0x3b65a13e	0.0035038735
71	0x3a354333	0.00069146155
72	0x3dca8961	0.09889484
73	0x3aea8aa2	0.0017894099
74	0x3982f288	0.00024976232
75	0x3ddfb4f8	0.10923189
76	0x3bb2c756	0.0054558916
77	0x3a853190	0.0010161866
78	0x3debd6a2	0.11515547
79	0x3b544b40	0.0032393485
80	0x3a4600a4	0.0007553196
81	0x3de5de00	0.11223984
82	0x3b302c1e	0.0026881765
83	0x3983905b	0.0002509382
84	0x3df8b6bc	0.12144229
85	0x3b346203	0.002752424
86	0x3987c866	0.00025898515
87	0x3dd8dc96	0.105889484
88	0x3ab866f6	0.0014068771
89	0x38072e5f	3.2229695e-05
90	0x3dd40e12	0.10354246
91	0x3b0346aa	0.0020031133
92	0x38e17ea6	0.00010752426
93	0x3deabf2b	0.11462244
94	0x3b750db6	0.0037392206
95	0x3a3623d1	0.0006948086
96	0x3dd3c265	0.10339812
97	0x3bc10663	0.005890654
98	0x3abad536	0.0014254216
99	0x3ddcc72a	0.10780175
100	0x3b94e320	0.004543677
101	0x3a989ebe	0.0011643989
102	0x3ddf5bfe	0.10906218
103	0x3b7d326e	0.0038634795
104	0x3a0610f2	0.00051142194
105	0x3dd0ba79	0.10191817
106	0x3b528a07	0.0032125728
107	0x397e4fab	0.00024253006
108	0x3ddba313	0.10724463
109	0x3bae576b	0.0053204796
110	0x3a440881	0.0007478074
111	0x3dd7f943	0.1054559
112	0x3aa34480	0.0012456328
113	0x36d2845e	6.2738973e-06
114	0x3d86b62a	0.06577714
115	0x3bc88678	0.0061195455
116	0x3b0315b5	0.0020001952
117	0x3d8942a6	0.06702165
118	0x3bd414af	0.0064721922
119	0x3ac8c94e	0.0015318783
120	0x3d95935c	0.07303497
121	0x3b955c26	0.004558104
122	0x3ab3222a	0.0013666798
123	0x3d68f7e5	0.056877036
124	0x3bcfefe0	0.006345734
125	0x3b0ca8ef	0.0021462997
126	0x3d3ae3ac	0.04562728
127	0x3bc9eaa0	0.0061620027
128	0x3aa4fb2c	0.0012587062
129	0x3d14919b	0.036271673
130	0x3bf5d7b6	0.0075025214
131	0x3b36d2df	0.0027896685
132	0x3d31edcc	0.04343967
133	0x3bea5931	0.0071517457
134	0x3adddf64	0.0016927538
135	0x3d434469	0.047672663
136	0x3bb35b06	0.0054734973
137	0x3ada3c84	0.0016650115
138	0x3d74d77a	0.059775807
139	0x3bea0785	0.0071420097
140	0x3b07c9f8	0.0020719748
141	0x3d4f66cf	0.050635155
142	0x3c034544	0.00801212
143	0x3b518228	0.0031968448
144	0x3d788450	0.060673058
145	0x3c33b8d9	0.010969364
146	0x3b4fbe48	0.003169911
147	0x3d7ed2fe	0.062212937
148	0x3c0a12fd	0.008427379
149	0x3b5171f9	0.0031958802
150	0x3d68e083	0.056854736
151	0x3c01b492	0.0079165865
152	0x3b31400b	0.002704623
153	0x3d944ba3	0.07240989
154	0x3bf1b189	0.0073759
155	0x3b1f7ab3	0.002433461
156	0x3dafa211	0.085758336
157	0x3bc9a7c7	0.006154034
158	0x3a8ce75b	0.0010750102
159	0x3db60b39	0.08888859
160	0x3bce3bd0	0.0062937513
161	0x3a8f078a	0.0010912281
162	0x3d7b8891	0.061409537
163	0x3bc3db85	0.0059770965
164	0x3aaf6c56	0.0013383727
165	0x3d8b7ca8	0.06810886
166	0x3bdfb99d	0.0068275467
167	0x3b052641	0.002031699
168	0x3d8fb61a	0.07017155
169	0x3be458be	0.0069685867
170	0x3b12dbc8	0.0022408832
171	0x3d6433c3	0.055713426
172	0x3c03ecce	0.008052064
173	0x3b5c47ee	0.003361221
174	0x3db1a19d	0.086734034
175	0x3bf7a1bc	0.007557122
176	0x3b39f8b0	0.002837699
177	0x3d9f46d2	0.0777718
178	0x3bd4a92e	0.0064898944
179	0x3aa52ea0	0.0012602396
180	0x3d9a79e7	0.07542782
181	0x3be5ab9a	0.007008982
182	0x3b028121	0.0019913393
183	0x3d9ad4a3	0.075600885
184	0x3ba684d1	0.005081751
185	0x3a5d4e72	0.000844217
186	0x3d854cdf	0.065088026
187	0x3bb2e54f	0.0054594646
188	0x3a5a1c4f	0.00083202583
189	0x3d53efd8	0.051742405
190	0x3bc8c113	0.006126532
191	0x3a8ed686	0.0010897673
192	0x3d62717b	0.055284005
193	0x3ba70d59	0.0050980267
194	0x3aa1bfaf	0.0012340451
195	0x3d856092	0.0651256
196	0x3b73d5cd	0.0037206293
197	0x3a92b8f9	0.0011194042
198	0x3d8d88b2	0.06910838
199	0x3b7f2924	0.0038934434
200	0x3a9d0676	0.0011980075
201	0x3d75006b	0.05981485
202	0x3bbcf596	0.005766581
203	0x3adcbed5	0.001684154
204	0x3d36a22f	0.044588264
205	0x3bf156ef	0.0073650996
206	0x3b307ec5	0.002693103
207	0x3d468ad3	0.048472237
208	0x3bbc81e3	0.0057527884
209	0x3a9d0023	0.001197819
210	0x3d56c75c	0.052436218
211	0x3bd60f8b	0.0065326146
212	0x3ad9f467	0.0016628624
213	0x3d51454f	0.05109149
214	0x3bdc1c20	0.00671722
215	0x3ae2af27	0.0017294631
216	0x3d3ccd6f	0.046094354
217	0x3bd47a38	0.006484296
218	0x3ab359e5	0.0013683407
219	0x3d5a8559	0.053349826
220	0x3b8b2608	0.004246477
221	0x3acf0c7f	0.0015796571
222	0x3d218644	0.039434686
223	0x3b68451e	0.0035441588
224	0x3a945952	0.0011318123
225	0x3d39eccc	0.045391843
226	0x3b618819	0.0034413396
227	0x3a8e8e78	0.0010876199
228	0x3d849d7e	0.06475352
229	0x3b1a997e	0.0023590024
230	0x3a5ab4ac	0.0008342962
231	0x3d6d1bf6	0.057887994
232	0x3b411c2e	0.002946626
233	0x3a6632ea	0.00087813905
234	0x3d70669f	0.058691617
235	0x3b5dac65	0.003382468
236	0x3aaa382c	0.0012986711
237	0x3d4d7972	0.050164647
238	0x3b8af313	0.0042404025
239	0x3a7280fe	0.0009250789
240	0x3d0228e4	0.031777278
241	0x3b312056	0.002702733
242	0x3a04757c	0.0005052907
243	0x3bef1e9f	0.0072973515
244	0x3a0393ed	0.0005019296
245	0x3985457d	0.0002541951
246	0xbd3d2573	-0.046178292
247	0x3a623ac2	0.00086299714
248	0x397a7851	0.00023886679
249	0x3c148606	0.009065157
250	0xb9b31f80	-0.0003416501
251	0xb810d10f	-3.4526976e-05
252	0x3ce84bf0	0.028356522
253	0x3a3ae83f	0.0007129944
254	0x397c426d	0.00024057338
255	0x3c4b76d5	0.0124184685
