test_dataset/gait_753/20250617_c1_a1_Take1/split_subjects/0/fit-smplx/smplx-params_cut.npz (npz, 31566 bytes, 10 tensors)

global_orient f4 [59, 3]
0	0xbb5aa2d8	-0.0033361223
1	0xc0572265	-3.3614743
2	0xbdc8a368	-0.09796792
3	0xbae10a4c	-0.0017169206
4	0xc05aad71	-3.416836
5	0xbdd1a26a	-0.10236056
6	0x3c504d73	0.012713778
7	0xc05c36dc	-3.4408484
8	0xbdef356c	-0.11680111
9	0x3d82a950	0.0637995
10	0xc05ba8d2	-3.432179
11	0xbdf4a38f	-0.11945259
12	0x3dfb8acb	0.12282332
13	0xc0589bdc	-3.384513
14	0xbe107f62	-0.14111093
15	0x3df02a92	0.1172687
16	0xc0541f00	-3.314392
17	0xbe4b30da	-0.19842854
18	0x3dda1754	0.10648981
19	0xc04cd6a1	-3.2006
20	0xbe685480	-0.22688484
21	0x3d8e9375	0.06961719
22	0xc044802a	-3.0703225
23	0xbe6027bf	-0.21890162
24	0x3d05adb8	0.032636374
25	0xc03cb981	-2.9488223
26	0xbe6c582a	-0.23080507
27	0x3c7e1f8c	0.015510451
28	0xc0327e61	-2.7889636
29	0xbe6f92af	-0.23395799
30	0x3cb61c15	0.022230187
31	0xc028fa82	-2.6402898
32	0xbe71a403	-0.23597722
33	0x3d0e5d7c	0.034757122
34	0xc01f4932	-2.4888425
35	0xbe6a171f	-0.22860382
36	0x3d3fa7bd	0.046790827
37	0xc018cbbe	-2.3874354
38	0xbe6b6d9b	-0.2299103
39	0x3d438665	0.04773559
40	0xc014447e	-2.3166804
41	0xbe79aaef	-0.24381612
42	0x3d11adee	0.035566263
43	0xc011bd3d	-2.2771752
44	0xbe86d997	-0.26337883
45	0x3c8a8665	0.016909787
46	0xc0113bc6	-2.2692733
47	0xbe8b1ac6	-0.27168864
48	0xbc81f187	-0.01586224
49	0xc01221b6	-2.2833076
50	0xbe875bf4	-0.26437342
51	0xbd37a88e	-0.04483848
52	0xc01324ea	-2.299128
53	0xbe77efc5	-0.24212559
54	0xbd7238a4	-0.059136048
55	0xc014c9ae	-2.3248096
56	0xbe5fe1a9	-0.21863426
57	0xbd44487d	-0.047920693
58	0xc011ae44	-2.2762613
59	0xbe5c8b0c	-0.21537417
60	0xbcd67907	-0.026180757
61	0xc011a636	-2.2757697
62	0xbe591b3c	-0.21201795
63	0xbc7c3da3	-0.015395555
64	0xc0120c8c	-2.2820158
65	0xbe5545aa	-0.20827356
66	0xbca95e30	-0.020674795
67	0xc0149eca	-2.3221917
68	0xbe5330b3	-0.20624046
69	0xbcd95f24	-0.026534624
70	0xc01f76c6	-2.4916244
71	0xbe443420	-0.19160509
72	0xbc307c14	-0.01077177
73	0xc027479d	-2.613746
74	0xbe27fc03	-0.16404729
75	0xbc519573	-0.012791979
76	0xc03248c3	-2.785691
77	0xbe1aff9a	-0.15136567
78	0xbcb63913	-0.022244012
79	0xc03a2dd9	-2.9090483
80	0xbe09c1ef	-0.13452886
81	0xbd0b9f1d	-0.03408729
82	0xc03f1058	-2.9853725
83	0xbde6d2d4	-0.11270681
84	0xbd31083e	-0.04322075
85	0xc0413c19	-3.019293
86	0xbdbe4533	-0.092905425
87	0xbcb73b70	-0.02236721
88	0xc041f07a	-3.0303025
89	0xbd9fd09b	-0.0780346
90	0x3c887e23	0.01666171
91	0xc0407e1f	-3.0076978
92	0xbd58a28b	-0.052889388
93	0x3d5705cc	0.052495763
94	0xc03dfa91	-2.9684184
95	0xbd0325c1	-0.032018427
96	0x3d929cd0	0.07158816
97	0xc03ce77d	-2.951629
98	0xbd0fd335	-0.035113532
99	0x3d3b6de0	0.04575908
100	0xc03e4514	-2.9729662
101	0xbd62dff6	-0.055389367
102	0x3b88d166	0.004175353
103	0xc037446c	-2.8635511
104	0xbdcef923	-0.10106113
105	0xbd189258	-0.03724894
106	0xc0309c90	-2.7595558
107	0xbddd47a3	-0.10804679
108	0xbd8fe07d	-0.070252396
109	0xc02a4919	-2.6607115
110	0xbdda6cc3	-0.10665276
111	0xbddcc700	-0.10780144
112	0xc0260267	-2.5938966
113	0xbdcf1248	-0.10110909
114	0xbde267a7	-0.11054926
115	0xc01f31ea	-2.4874215
116	0xbddb57d3	-0.107101105
117	0xbdb5e433	-0.08881416
118	0xc0160d22	-2.3445516
119	0xbdf601d7	-0.1201207
120	0xbd898eaf	-0.06716668
121	0xc010a2eb	-2.2599437
122	0xbdee09d5	-0.11622969
123	0xbd4bc39d	-0.0497471
124	0xc00d48d3	-2.2075698
125	0xbde4bff7	-0.11169427
126	0xbd59b93a	-0.05315516
127	0xc00cf6f7	-2.2025735
128	0xbdd55837	-0.10417216
129	0xbd80b221	-0.062839754
130	0xc00e8a96	-2.2272086
131	0xbddcb8ff	-0.10777473
132	0xbd7f906a	-0.062393583
133	0xc0111f2c	-2.2675276
134	0xbdfb0de3	-0.12258508
135	0xbd7892bc	-0.06068681
136	0xc0139e48	-2.3065357
137	0xbe177a31	-0.14792706
138	0xbda176ab	-0.07883962
139	0xc017f36d	-2.3742325
140	0xbe35c936	-0.17752537
141	0xbe07454e	-0.13210031
142	0xc01b3e0c	-2.425662
143	0xbe66efa5	-0.22552355
144	0xbe1fca0e	-0.15604421
145	0xc01f8b9f	-2.4928968
146	0xbe8960d0	-0.26831675
147	0xbe04d7a4	-0.12972885
148	0xc027762c	-2.6165876
149	0xbe9e1730	-0.30877066
150	0xbe1a9d61	-0.15099098
151	0xc02f3a35	-2.7379277
152	0xbea42eaf	-0.32066867
153	0xbe4084cd	-0.1880066
154	0xc03763d7	-2.8654687
155	0xbe9a8d94	-0.3018614
156	0xbe5b82bd	-0.21436591
157	0xc03e9fa2	-2.9784932
158	0xbe851b2b	-0.2599729
159	0xbe651c41	-0.2237406
160	0xc044a03e	-3.0722804
161	0xbe5a055a	-0.21291104
162	0xbe63fc1a	-0.22264138
163	0xc0475be5	-3.1149838
164	0xbe413940	-0.18869495
165	0xbe59b417	-0.21260105
166	0xc048790d	-3.1323884
167	0xbe2c5338	-0.1682862
168	0xbe3b840b	-0.18312089
169	0xc047813b	-3.1172626
170	0xbe0234eb	-0.12715499
171	0xbe1b2052	-0.15149048
172	0xc046b748	-3.1049366
173	0xbddcc215	-0.10779206
174	0xbde894fd	-0.11356542
175	0xc0455a59	-3.0836394
176	0xbdb9d5e9	-0.09074003

body_pose f4 [59, 63]
0	0xbf2141e9	-0.62991196
1	0xbe1896a0	-0.14901209
2	0x3ed1b9f3	0.4096218
3	0x3e264aad	0.16239424
4	0x3e29489c	0.16531605
5	0xbc4649ce	-0.012102557
6	0x3e8776a7	0.26457712
7	0x3e04529d	0.1292214
8	0xbc570b69	-0.013125279
9	0x3f502446	0.8130535
10	0xbd22f875	-0.03978773
11	0xbeb56b40	-0.35433388
12	0x3dfc19ef	0.12309634
13	0x3e6326ce	0.22182772
14	0xbd9ca652	-0.076489106
15	0x3da9ecfc	0.08297154
16	0x3e0258ff	0.12729262
17	0xbc0d5439	-0.008626037
18	0x3e79f123	0.24408393
19	0x3d760df8	0.060071915
20	0x3e00ec74	0.125902
21	0xbd9478ae	-0.0724958
22	0x3d538d9d	0.051648725
23	0xbe8b5282	-0.27211386
24	0x3dbf8441	0.09351397
25	0x3dbfef77	0.09371846
26	0x3bbb5ce6	0.0057178615
27	0x3785f073	1.5966803e-05
28	0xb7805fba	-1.5303365e-05
29	0x3784c68d	1.5828084e-05
30	0x3782f67d	1.5611988e-05
31	0x377fa07b	1.5236549e-05
32	0xb780d729	-1.535898e-05
33	0x3dd9b836	0.106308386
34	0x3ce5cf3d	0.02805292
35	0xbd8ecbca	-0.069724634
36	0x3c93cee2	0.018042985
37	0xbc03f6c0	-0.008054435
38	0xbe359246	-0.1773158
39	0xbd34265f	-0.043981906
40	0x3e68bacc	0.22727507
41	0x3ece360b	0.40275607
42	0xbe134264	-0.14380795
43	0x3daa16df	0.083051436
44	0xbcf0dc10	-0.029401809
45	0x3e052501	0.13002397
46	0xbe61d2ab	-0.2205302
47	0xbe19ac5d	-0.15007158
48	0xbda4beae	-0.08044182
49	0x3f0006b6	0.5001024
50	0xbbd7aa44	-0.0065815765
51	0x3dd731bb	0.10507532
52	0xbf5cb4fd	-0.86213666
53	0xbe4d917e	-0.20075032
54	0x3e2e4551	0.1701863
55	0x3ea5868c	0.32329214
56	0x3dc193c1	0.0945201
57	0x3e658874	0.22415334
58	0xbe61558d	-0.22005291
59	0xbe773c1c	-0.24144024
60	0xbb405bc7	-0.0029351579
61	0xbd8c89aa	-0.06862195
62	0xbc37b2b3	-0.011212039
63	0xbf28d502	-0.65950024
64	0xbde6b02f	-0.11264073
65	0x3ec4bd92	0.3842588
66	0x3e7e8ebf	0.24859141
67	0x3e0ce679	0.13759793
68	0xbd36d706	-0.044638656
69	0x3e81e3c4	0.25369084
70	0x3e224685	0.15847214
71	0x3cbd9625	0.023142884
72	0x3f28e797	0.6597838
73	0xbda7c218	-0.08191317
74	0xbe80866a	-0.2510255
75	0x3d86f0ec	0.06588921
76	0x3e533727	0.20626508
77	0xbd924479	-0.071419664
78	0x3da96da8	0.082728684
79	0x3e1c8356	0.15284476
80	0xbd5bcb76	-0.053660832
81	0x3e799a7e	0.2437534
82	0x3d7b15b5	0.0613
83	0x3e212ab1	0.15738942
84	0xbdc3cfc8	-0.095611155
85	0x3d554d44	0.05207564
86	0xbe798757	-0.24368034
87	0x3db8751e	0.09006713
88	0x3ddde3f3	0.108344935
89	0xbd6009cf	-0.054696854
90	0x3785ef65	1.5966312e-05
91	0xb77f1308	-1.52036155e-05
92	0xb777b542	-1.476455e-05
93	0x378565e7	1.5902287e-05
94	0xb7812bed	-1.5398453e-05
95	0xb77fe810	-1.5253216e-05
96	0x3e014d6b	0.12627189
97	0x3c218a27	0.009859598
98	0xbd8a7bac	-0.0676187
99	0x3d5e3f20	0.05425942
100	0x3cccf475	0.02501891
101	0xbe547b31	-0.20750119
102	0xbd9693e4	-0.07352427
103	0x3e6924d3	0.22767954
104	0x3ea40444	0.32034504
105	0xbe0c8ab7	-0.1372479
106	0x3d991f63	0.0747669
107	0xbc10ea0b	-0.008844863
108	0x3e2844c7	0.16432486
109	0xbe34eea6	-0.17669162
110	0xbe6e687a	-0.23282042
111	0xbcdbff69	-0.026855187
112	0x3f081ef1	0.5317221
113	0xbe05d6af	-0.13070177
114	0x3e08ea62	0.1337066
115	0xbf533608	-0.8250432
116	0xbe956c55	-0.29184213
117	0x3cf52a6f	0.02992746
118	0x3e6992fc	0.22809976
119	0x3ca314ad	0.01990732
120	0x3e7ed0ba	0.2488431
121	0xbe276c21	-0.16349842
122	0xbe3fd6fd	-0.18734355
123	0xbd8e4296	-0.06946294
124	0x3b02369b	0.0019868973
125	0xbc3585e8	-0.011079289
126	0xbf234a8b	-0.6378562
127	0xbd5d98e0	-0.05410087
128	0x3e9d851c	0.30765617
129	0x3ea899a0	0.32929707
130	0x3d46ce3d	0.048536528
131	0xbdf29ba9	-0.11846096
132	0x3e694ccc	0.22783202
133	0x3e37cc72	0.17949083
134	0x3d93ea87	0.07222467
135	0x3efef6ef	0.4979777
136	0xbdb6cbd5	-0.089255966
137	0xbdf5ac70	-0.119957805
138	0x3d2b66cb	0.041846078
139	0x3e9cdde5	0.30638042
140	0xbd01dc13	-0.03170402
141	0x3d9bb9a3	0.07603767
142	0x3e2e718e	0.17035505
143	0xbdcebf9b	-0.100951396
144	0x3ea169e6	0.31526107
145	0x3dbd3840	0.092392445
146	0x3e243629	0.16036285
147	0xbdb7d7ef	-0.08976733
148	0x3d846423	0.06464412
149	0xbe41ba18	-0.18918645
150	0x3ddbabc2	0.107261196
151	0x3dedd518	0.1161291
152	0xbdb3bede	-0.087766394
153	0xb775a226	-1.4640891e-05
154	0xb77d1066	-1.5083793e-05
155	0x378612ae	1.5982743e-05
156	0xb77c029b	-1.5020977e-05
157	0x3780c35e	1.5349764e-05
158	0x37823de6	1.5526031e-05
159	0x3e1f6112	0.15564373
160	0x3b17fd0c	0.00231916
161	0xbd7985f6	-0.06091877
162	0x3dc37f13	0.09545722
163	0x3d9aa838	0.075516164
164	0xbe72a55e	-0.23695895
165	0xbdbf570e	-0.09342776
166	0x3e59a9a9	0.21256126
167	0x3e630a25	0.22171839
168	0xbdf79689	-0.12089259
169	0x3d82f468	0.06394273
170	0xbb53103b	-0.003220572
171	0x3e5b930c	0.21442813
172	0xbe10966e	-0.14119884
173	0xbe9ccb17	-0.30623695
174	0xbd5d4683	-0.054022323
175	0x3f0aa8a3	0.5416357
176	0xbe8bba27	-0.2729046
177	0x3e36d330	0.17853999
178	0xbf45b1be	-0.7722434
179	0xbecacb49	-0.3960822
180	0x3c798955	0.015230496
181	0x3e120ef5	0.14263518
182	0x3cf152be	0.0294584
183	0x3e9c08ae	0.30475372
184	0xbdf3850a	-0.118906096
185	0xbe3773e7	-0.17915307
186	0xbe4bd4ef	-0.19905446
187	0x3cf36a46	0.029713761
188	0xbdb42f6e	-0.08798109
189	0xbf0eb895	-0.557504
190	0xbb90aea5	-0.0044153505
191	0x3e4b0e6c	0.1982972
192	0x3ec360ce	0.38159794
193	0x3d638c63	0.055553805
194	0xbe0892c2	-0.13337234
195	0x3e3ed98d	0.18637677
196	0x3e3d3d78	0.1848048
197	0x3de3a01d	0.111145236
198	0x3ea1e858	0.31622577
199	0xbe1d93aa	-0.1538836
200	0x3ba444d1	0.0050130864
201	0x3e17fb43	0.14841942
202	0x3e9ec50a	0.31009704
203	0xbd27bfe3	-0.04095448
204	0x3d5873f7	0.052844968
205	0x3e2e62df	0.17029904
206	0xbdf32e54	-0.11874071
207	0x3ed6fbce	0.41988987
208	0x3de65b11	0.11247838
209	0x3e29d94f	0.16586803
210	0xbde4b524	-0.11167362
211	0x3da79f53	0.081846856
212	0xbe24c2c2	-0.16089919
213	0x3e02e4df	0.1278262
214	0x3df12a89	0.11775691
215	0xbdc6215c	-0.096743315
216	0xb7700afe	-1.4307674e-05
217	0x3783cf00	1.5712809e-05
218	0xb77747b5	-1.4739043e-05
219	0x37818880	1.5441561e-05
220	0xb780442d	-1.5290536e-05
221	0xb77c77d9	-1.5048275e-05
222	0x3e424d40	0.18974781
223	0x3c8a73f3	0.016900992
224	0xbd15445b	-0.036442142
225	0x3e16cc21	0.14726306
226	0x3e07d51c	0.13264889
227	0xbe667e17	-0.22509037
228	0xbe037660	-0.12838125
229	0x3e3ab88b	0.1823446
230	0x3db820e6	0.0899065
231	0xbdb23dcd	-0.08703194
232	0x3d9a1254	0.07523027
233	0xbc76e0a0	-0.015068203
234	0x3e83194d	0.2560524
235	0xbd2792ea	-0.040911593
236	0xbee4dea8	-0.44701123
237	0xbde63333	-0.11240234
238	0x3f0cbbf7	0.5497431
239	0xbec03be1	-0.37545684
240	0x3e4caf55	0.19988759
241	0xbf317a68	-0.693274
242	0xbeff180e	-0.4982304
243	0xbd896b9b	-0.06709977
244	0x3dbc9df2	0.09209813
245	0x3d294589	0.04132608
246	0x3ea1b550	0.31583643
247	0xbd2c6181	-0.042085174
248	0xbe1847d1	-0.14871146
249	0xbe9f831d	-0.3115472
250	0x3cddad19	0.027060078
251	0xbe04f43b	-0.12983792
252	0xbf0c1a80	-0.54727936
253	0xbc18a2b5	-0.009316136
254	0x3e1ed9fd	0.15512843
255	0x3ecc9bc7	0.399626

transl f4 [59, 3]
0	0x3efc8006	0.49316424
1	0x3f83bb7b	1.029159
2	0x3f6ca8b4	0.9244492
3	0x3ef786d8	0.48345065
4	0x3f82e184	1.0225072
5	0x3f6352cb	0.8879821
6	0x3ef1bd58	0.4721477
7	0x3f816488	1.0108805
8	0x3f59179e	0.8480166
9	0x3eec600e	0.46167034
10	0x3f7eee51	0.9958239
11	0x3f4df944	0.80458474
12	0x3ee7197c	0.4513663
13	0x3f7bdf80	0.9838791
14	0x3f428ac8	0.75993013
15	0x3edf7f94	0.43652022
16	0x3f7b6495	0.9820035
17	0x3f37961d	0.7171343
18	0x3ed6048c	0.41800344
19	0x3f7c9905	0.9867099
20	0x3f2e7827	0.6815209
21	0x3eccdf87	0.40014288
22	0x3f7e585c	0.99353576
23	0x3f281e58	0.656713
24	0x3ec7130b	0.38881716
25	0x3f7fb774	0.998893
26	0x3f218edc	0.6310861
27	0x3ec037cd	0.37542573
28	0x3f815105	1.010285
29	0x3f1b5e24	0.6069052
30	0x3eb9e1bc	0.36305034
31	0x3f8276a2	1.0192454
32	0x3f1508c1	0.5821648
33	0x3eb42449	0.35183933
34	0x3f833266	1.0249755
35	0x3f0e6782	0.5562669
36	0x3eae3f36	0.340326
37	0x3f8379ac	1.0271506
38	0x3f07760d	0.52914506
39	0x3ea7de28	0.3278668
40	0x3f836092	1.0263846
41	0x3f005ca5	0.50141364
42	0x3ea1500d	0.31506386
43	0x3f82ddf4	1.0223985
44	0x3ef1be11	0.47215322
45	0x3e99e858	0.30060077
46	0x3f822035	1.0166079
47	0x3ee2af46	0.44274348
48	0x3e91f017	0.28503487
49	0x3f8115ad	1.008474
50	0x3ed2ed97	0.41196892
51	0x3e88d319	0.26723555
52	0x3f7eeea9	0.99582916
53	0x3ec34f83	0.381466
54	0x3e7d2f9e	0.24725196
55	0x3f7bc50f	0.9834756
56	0x3eb31efc	0.34984577
57	0x3e66e2e6	0.22547492
58	0x3f796961	0.9742642
59	0x3ea2ff0d	0.31835213
60	0x3e526b2f	0.205487
61	0x3f78cda6	0.97188795
62	0x3e931970	0.28730345
63	0x3e3f5664	0.18685299
64	0x3f7a5882	0.977913
65	0x3e83a082	0.25708395
66	0x3e2c7d5f	0.168447
67	0x3f7c9516	0.9866499
68	0x3e6aa3a2	0.22913983
69	0x3e1be924	0.15225655
70	0x3f803522	1.0016215
71	0x3e4e3a2a	0.20139375
72	0x3e0ffe15	0.14061768
73	0x3f812d55	1.0091959
74	0x3e37617f	0.17908286
75	0x3e05fe34	0.13085252
76	0x3f81b40d	1.0133072
77	0x3e1fd1fa	0.15607443
78	0x3dfc2e01	0.12313462
79	0x3f822ffe	1.0170896
80	0x3e088b7a	0.13334456
81	0x3dea0762	0.114271894
82	0x3f822ad1	1.0169317
83	0x3ddf4db8	0.109034956
84	0x3dcdd443	0.10050251
85	0x3f81e05c	1.0146594
86	0x3dab3334	0.083593756
87	0x3daf538e	0.08560859
88	0x3f813e41	1.0097123
89	0x3d68aa2a	0.056802906
90	0x3d8c9da1	0.06866003
91	0x3f8034e5	1.0016142
92	0x3ceb554a	0.028727192
93	0x3d420986	0.047372364
94	0x3f7d4bde	0.9894389
95	0xbb43011b	-0.0029755298
96	0x3cb78499	0.022402095
97	0x3f79a9c8	0.9752469
98	0xbd22284a	-0.039589204
99	0xbb0a3fdb	-0.002109519
100	0x3f7745be	0.96590793
101	0xbd9df641	-0.07712985
102	0xbcf4a836	-0.029865365
103	0x3f785e81	0.970192
104	0xbde4e740	-0.1117692
105	0xbd556019	-0.0520936
106	0x3f7a5c21	0.9779683
107	0xbe0c06cc	-0.13674468
108	0xbd8fe7f4	-0.070266634
109	0x3f7db8e6	0.9911026
110	0xbe205fa0	-0.15661478
111	0xbdad89ea	-0.08473571
112	0x3f7f5906	0.99745214
113	0xbe33e766	-0.1756874
114	0xbdcdf1a9	-0.10055859
115	0x3f814d29	1.0101672
116	0xbe495c5f	-0.19664143
117	0xbdee5474	-0.11637202
118	0x3f82b8fc	1.0212703
119	0xbe5f950d	-0.21834202
120	0xbe0791af	-0.13239168
121	0x3f83bbeb	1.0291723
122	0xbe7882be	-0.24268624
123	0xbe19b4cf	-0.15010379
124	0x3f840528	1.0314074
125	0xbe88c265	-0.2671081
126	0xbe2ae920	-0.16690493
127	0x3f83d89b	1.0300478
128	0xbe9621d1	-0.29322675
129	0xbe3ed1c7	-0.18634711
130	0x3f8338a8	1.0251665
131	0xbea479e2	-0.3212424
132	0xbe548d38	-0.20756996
133	0x3f822782	1.0168307
134	0xbeb3c89b	-0.35113987
135	0xbe692c8e	-0.22770903
136	0x3f80ae55	1.0053202
137	0xbec5554f	-0.38541648
138	0xbe7c7aeb	-0.24656264
139	0x3f7dd0bb	0.9914662
140	0xbed893f7	-0.42300388
141	0xbe87a102	-0.26490027
142	0x3f7d258f	0.98885435
143	0xbeeb6638	-0.45976424
144	0xbe8fb6fd	-0.28069296
145	0x3f7c9967	0.98671573
146	0xbefb6a02	-0.49104315
147	0xbe94f355	-0.29091898
148	0x3f7cef91	0.9880305
149	0xbf055380	-0.52080536
150	0xbe97bdc2	-0.2963696
151	0x3f807aab	1.0037435
152	0xbf0bf4f4	-0.54670644
153	0xbe983476	-0.29727525
154	0x3f8295d2	1.0201972
155	0xbf114779	-0.56749684
156	0xbe990b7f	-0.29891583
157	0x3f841627	1.031926
158	0xbf162d2d	-0.5866268
159	0xbe9b092b	-0.30280432
160	0x3f849b86	1.0359962
161	0xbf1b6f80	-0.6071701
162	0xbe9eb108	-0.3099444
163	0x3f845e07	1.0341195
164	0xbf212470	-0.62946224
165	0xbea228ce	-0.31671757
166	0x3f83b3c0	1.028923
167	0xbf27d8f1	-0.655654
168	0xbea658ec	-0.32489717
169	0x3f82a94d	1.0207916
170	0xbf2fb4d4	-0.68635297
171	0xbea97689	-0.33098248
172	0x3f81d40a	1.0142834
173	0xbf36d41c	-0.71417403
174	0xbead0d38	-0.33799148
175	0x3f80b654	1.0055642
176	0xbf3e88aa	-0.7442728

left_hand_pose f4 [59, 12]
0	0xbe6f2ac7	-0.23356162
1	0x3ed4eb3f	0.4158573
2	0x3f06ddd4	0.5268223
3	0x3f12dafc	0.57365394
4	0xbe8a1fe6	-0.26977462
5	0xbeb0eae5	-0.3455421
6	0xbea87be7	-0.3290703
7	0x3ebcd841	0.3688374
8	0xbee88292	-0.45412117
9	0xbf0e3ddc	-0.5556314
10	0x3eb5a0dc	0.35474288
11	0xbe98df56	-0.29857892
12	0xbdf166fe	-0.11787222
13	0x3eee9ade	0.4660253
14	0x3ee253e3	0.44204625
15	0x3f168c6e	0.5880803
16	0xbe9978de	-0.29975027
17	0xbeda9570	-0.42692137
18	0xbec6324c	-0.38710248
19	0x3ee3f55a	0.44523126
20	0xbf2a62f5	-0.66557246
21	0xbf10a534	-0.5650208
22	0x3e9bdfc6	0.30444163
23	0xbebe096e	-0.3711657
24	0xbc9530bd	-0.018211717
25	0x3eccd29b	0.4000443
26	0x3f07b9d9	0.53017956
27	0x3f3a29b3	0.7271988
28	0xbeb962a4	-0.3620807
29	0xbf08ae81	-0.5339127
30	0xbef71754	-0.48259985
31	0x3e26a0b5	0.16272242
32	0xbec2963b	-0.38005242
33	0xbf185efd	-0.5951994
34	0x3ee79e24	0.4523784
35	0xbf17851d	-0.5918749
36	0x3e027d2e	0.12743065
37	0x3ea7d8c6	0.32782573
38	0x3ecd6e52	0.4012323
39	0x3f0ca16d	0.54933816
40	0xbea2a44a	-0.31765968
41	0xbebdeb94	-0.37093794
42	0xbe8a06db	-0.26958355
43	0xbe17d232	-0.14826277
44	0xbf167eae	-0.5878705
45	0xbf512b4a	-0.8170668
46	0x3f4f1888	0.80896807
47	0xbf83262a	-1.0246022
48	0x3e45efb5	0.19329722
49	0x3ed0a8f3	0.40753898
50	0x3ec5b3ca	0.3861373
51	0x3ef0e5e0	0.4705038
52	0xbe7de73f	-0.24795245
53	0xbec3f0dd	-0.38269702
54	0xbe73fbf1	-0.23826577
55	0xbe70a26b	-0.23499458
56	0xbf1e52ab	-0.6184489
57	0xbf63a8e7	-0.889296
58	0x3f543fca	0.82909834
59	0xbfb40cc2	-1.4066393
60	0x3dfa5d72	0.122248545
61	0x3eda1817	0.42596504
62	0x3e92095a	0.2852276
63	0x3ea0ca68	0.31404424
64	0xbe0e5ee0	-0.1390338
65	0xbedb83f9	-0.42874125
66	0xbdeb22da	-0.11481257
67	0xbf16e744	-0.58946633
68	0xbf1eaee2	-0.619856
69	0xbf8c9989	-1.0984355
70	0x3f907973	1.1287063
71	0xbff034ca	-1.876611
72	0x3bf6c1b4	0.0075304154
73	0x3ed03630	0.40666342
74	0x3ec152d8	0.37758517
75	0x3ea8c7f2	0.32965046
76	0x3e4da604	0.20082861
77	0x3e6e8818	0.23294103
78	0xbef3997e	-0.47578043
79	0x3e046cd8	0.12932146
80	0xbf378107	-0.71681255
81	0xbf7ee442	-0.99567044
82	0x3f5919a2	0.8480474
83	0xc00093ef	-2.0090292
84	0x3dd879f8	0.10570139
85	0x3eb7eb6f	0.3592181
86	0x3e9cd0ad	0.30627957
87	0x3edbcd92	0.42930275
88	0xbd25a6af	-0.040442165
89	0xbeb4f385	-0.3534204
90	0xbea8b814	-0.3295294
91	0xbf259684	-0.64682794
92	0xbf21ad2e	-0.63154876
93	0xbf8c1253	-1.0943092
94	0x3f6a74f8	0.9158473
95	0xbff25b61	-1.8934137
96	0x3e1e2517	0.15443836
97	0x3eab00e7	0.33399126
98	0x3ea16c3c	0.3152789
99	0x3ef54b52	0.47909027
100	0xbbed5ffd	-0.0072441087
101	0xbe7ef426	-0.24897823
102	0xbe26164f	-0.16219448
103	0xbf123448	-0.57111025
104	0xbeb7b1ef	-0.3587794
105	0xbf73754a	-0.95100844
106	0x3f48f30b	0.78495854
107	0xbff12385	-1.8838965
108	0x3e3e08d5	0.18558057
109	0x3ed22561	0.41044143
110	0x3e8e6d61	0.27817824
111	0x3f079ec6	0.52976644
112	0xbd966256	-0.07342975
113	0xbebec451	-0.37259153
114	0xbe12ab40	-0.14323139
115	0xbeedee06	-0.4647066
116	0xbed737ac	-0.42034662
117	0xbf714be1	-0.9425641
118	0x3f59c1fc	0.8506162
119	0xbfe18d1e	-1.762119
120	0x3e110299	0.14161147
121	0x3efadb63	0.48995504
122	0x3e932f96	0.28747243
123	0x3f02cb44	0.5109141
124	0xbe0edec4	-0.13952166
125	0xbead4a19	-0.33845595
126	0xbe2712fc	-0.16315836
127	0xbebe59ed	-0.37177983
128	0xbef33517	-0.47501442
129	0xbf592fef	-0.84838766
130	0x3f575fc3	0.84130496
131	0xbfd0416a	-1.6269963
132	0x3e5943fa	0.21217337
133	0x3f0551c6	0.520779
134	0x3ea4c4a4	0.32181275
135	0x3f066921	0.52504164
136	0xbdf02846	-0.117264315
137	0xbe62f0ed	-0.22162218
138	0xbed118cc	-0.4083923
139	0xbe8068a1	-0.25079826
140	0xbf1fe37c	-0.6245649
141	0xbf517862	-0.81824315
142	0x3f220375	0.63286525
143	0xbfbbd02f	-1.4672908
144	0x3e27f627	0.16402493
145	0x3efcf652	0.49406677
146	0x3ea26378	0.31716514
147	0x3f17a66c	0.59238315
148	0xbdbc0d52	-0.09182228
149	0xbe8fea0a	-0.28108245
150	0xbf1e5261	-0.6184445
151	0xbbc84ddc	-0.006112797
152	0xbf02ce1d	-0.51095754
153	0xbf4626e6	-0.77403104
154	0x3e759654	0.23983127
155	0xbf956f88	-1.1674662
156	0x3d7357ba	0.059409834
157	0x3f0c286e	0.5474919
158	0x3ebfd28e	0.37465328
159	0x3f0da756	0.5533346
160	0xbdea52da	-0.11441584
161	0xbe77170b	-0.24129884
162	0xbf0e9282	-0.55692303
163	0x3c112b96	0.008860489
164	0xbf030f6b	-0.511954
165	0xbf4dd9c8	-0.8041043
166	0x3eb2db52	0.34932953
167	0xbf99d754	-1.2018838
168	0x3c459691	0.012059824
169	0x3f06fd8a	0.5273062
170	0x3ebd1e22	0.36937052
171	0x3f086c46	0.5329021
172	0xbe579d5f	-0.21056126
173	0xbdc7c047	-0.09753471
174	0xbf04d481	-0.51886755
175	0x3e5aa4fb	0.21351998
176	0xbf09e011	-0.53857523
177	0xbf2fbdc1	-0.68648916
178	0x3e9950fb	0.29944596
179	0xbf4f4087	-0.80957836
180	0xbd8d202f	-0.06890904
181	0x3f118a09	0.5685125
182	0x3ec41b94	0.3830229
183	0x3f048aff	0.5177459
184	0xbea1a5b3	-0.3157173
185	0xbe428d2a	-0.18999162
186	0xbedec998	-0.4351318
187	0x3e8a993d	0.27070037
188	0xbf1ab438	-0.6043124
189	0xbf13216c	-0.5747287
190	0x3ed2c6ef	0.411674
191	0xbf3448a8	-0.70423365
192	0xbde518f9	-0.11186404
193	0x3f13f237	0.57791466
194	0x3ed95e16	0.42454594
195	0x3f0d6215	0.55227786
196	0xbed42129	-0.4143155
197	0xbe48c9e0	-0.19608259
198	0xbeda6b32	-0.4265991
199	0x3ebdc961	0.37067702
200	0xbf123b2c	-0.5712154
201	0xbf0ee8c2	-0.5582391
202	0x3ea71a58	0.32637286
203	0xbf14daa7	-0.58146137
204	0xbe1dafe3	-0.15399127
205	0x3eea6b2b	0.45784888
206	0x3ec8bbc9	0.3920577
207	0x3f1d2ecf	0.6139955
208	0xbea2025a	-0.3164242
209	0xbea13826	-0.3148815
210	0xbecdb680	-0.401783
211	0x3e4e4022	0.20141652
212	0xbefc444b	-0.49270853
213	0xbf24a9ac	-0.643214
214	0x3e65ce91	0.2244208
215	0xbf0aadec	-0.54171634
216	0xbe178a8f	-0.1479895
217	0x3eff06f0	0.4980998
218	0x3ee00892	0.4375654
219	0x3f26b4a5	0.6511939
220	0xbec0f516	-0.37686986
221	0xbede1872	-0.43378025
222	0xbea42626	-0.32060355
223	0x3e8644e0	0.26224422
224	0xbee1848c	-0.44046438
225	0xbf1c0bb2	-0.60955346
226	0x3eba227b	0.36354432
227	0xbef06ea2	-0.46959406
228	0xbe4dd812	-0.20101956
229	0x3ef4934c	0.4776863
230	0x3ed6d9c9	0.41963032
231	0x3f283406	0.6570438
232	0xbeb0a07f	-0.3449745
233	0xbef9e501	-0.4880753
234	0xbec28418	-0.37991405
235	0x3e80955f	0.2511396
236	0xbf007b29	-0.5018793
237	0xbf0edb40	-0.558033
238	0x3e9171cc	0.28407133
239	0xbed518f4	-0.416206
240	0xbe56f2d7	-0.20991074
241	0x3ee7f627	0.45304987
242	0x3ed90eb3	0.42394027
243	0x3f39f1f2	0.72634804
244	0xbe84bceb	-0.25925383
245	0xbf103f1e	-0.5634631
246	0xbeb25c18	-0.34835887
247	0x3e57d69a	0.21077958
248	0xbf05f6fb	-0.5232999
249	0xbf1e470a	-0.61827147
250	0x3eb91c7e	0.3615455
251	0xbec183ce	-0.37795871
252	0xbe1f7a1a	-0.15573922
253	0x3eeaf077	0.45886585
254	0x3ed9a0a0	0.4250536
255	0x3f4348bf	0.76282877

right_hand_pose f4 [59, 12]
0	0x3e4fc458	0.20289743
1	0x3ed6cacc	0.41951597
2	0x3e1167af	0.14199708
3	0x3f1575c6	0.58382833
4	0xbd8ae4e4	-0.06781939
5	0xbf05fd26	-0.523394
6	0xbdbf044c	-0.093269914
7	0xbef03607	-0.4691622
8	0xbeec7000	-0.461792
9	0xbf8f0ab6	-1.1175144
10	0x3f44c45c	0.7686212
11	0xbfdb2cee	-1.7123086
12	0x3e72179d	0.2364182
13	0x3ecbdab6	0.398153
14	0x3e64a18d	0.22327252
15	0x3f32900c	0.6975105
16	0xbdc95d2a	-0.09832223
17	0xbf11dcec	-0.56977725
18	0xbe35884a	-0.17727771
19	0xbea37e2a	-0.31932193
20	0xbeea5acf	-0.45772406
21	0xbf851db8	-1.0399694
22	0x3f0fd675	0.5618661
23	0xbfbc22c9	-1.4698116
24	0x3e94d449	0.2906821
25	0x3e8f36ea	0.27971584
26	0x3e5a5754	0.21322376
27	0x3efdd554	0.4957682
28	0x3e3008fa	0.17190924
29	0xbf0aba1e	-0.5419024
30	0xbe2d9868	-0.1695267
31	0xbea82cab	-0.3284658
32	0xbeafa9da	-0.34309274
33	0xbf88fd93	-1.0702385
34	0x3f134f61	0.57543
35	0xbfcd1f62	-1.6025202
36	0x3ebef2ed	0.37294713
37	0x3e294389	0.16529669
38	0x3e91c590	0.2847104
39	0x3f185f27	0.5952019
40	0x3e3295db	0.17439978
41	0xbf1dfc35	-0.6171296
42	0xbe2dacb8	-0.16960418
43	0xbef7f843	-0.48431596
44	0xbe4a70dc	-0.19769615
45	0xbf95af82	-1.1694186
46	0x3f2a09fd	0.6642149
47	0xbfdc9c89	-1.7235271
48	0x3f0045f6	0.5010675
49	0x3e160fc1	0.14654447
50	0x3ea903ca	0.33010703
51	0x3f143ea8	0.57908106
52	0x3e47ca30	0.19510722
53	0xbf031f90	-0.51220036
54	0xbe12d9a7	-0.1434084
55	0xbee2c997	-0.44294426
56	0x3c26cd87	0.0101808375
57	0xbf8c9f68	-1.0986147
58	0x3f0487cc	0.5176971
59	0xbff4bcc4	-1.9120107
60	0x3f0f4279	0.55960804
61	0x3e0d5a34	0.13803941
62	0x3e90b98c	0.2826656
63	0x3f1a972e	0.6038693
64	0x3e80c0de	0.25147146
65	0xbf1b9ec0	-0.6078911
66	0xbdfac8f7	-0.12245362
67	0xbee98844	-0.45611775
68	0x3da7e192	0.08197321
69	0xbf88b805	-1.0681158
70	0x3eecdebe	0.4626369
71	0xbff8c48d	-1.9434983
72	0x3f1f7e21	0.6230183
73	0x3e41229a	0.18860856
74	0x3e7b1886	0.24521074
75	0x3f270b4f	0.6525163
76	0x3e624f05	0.22100456
77	0xbf15a370	-0.5845251
78	0xbe0f4cd3	-0.1399415
79	0xbeafef14	-0.3436209
80	0xbd781df4	-0.06057544
81	0xbf806c85	-1.0033118
82	0x3ef75bbf	0.48312184
83	0xbffe0f36	-1.9848392
84	0x3f1b259f	0.6060428
85	0x3e8bf2a9	0.27333573
86	0x3e95e7f0	0.29278517
87	0x3f290c81	0.66034704
88	0x3e715903	0.23569112
89	0xbefda2be	-0.49538225
90	0xbe31c3fb	-0.17359917
91	0xbec70f45	-0.38878837
92	0xbde0badb	-0.1097314
93	0xbf83e92b	-1.0305532
94	0x3ed12435	0.40847936
95	0xc0061df4	-2.0955782
96	0x3f123dbe	0.5712546
97	0x3e7d35ae	0.24727508
98	0x3e9c1894	0.30487502
99	0x3f2ee0a4	0.68311524
100	0x3e548089	0.20752157
101	0xbef28f3b	-0.473749
102	0xbe508c26	-0.20365962
103	0xbea619b7	-0.32441494
104	0x3d6243fc	0.055240616
105	0xbf68293f	-0.90687937
106	0x3eccf9fd	0.40034476
107	0xbff3d470	-1.9049206
108	0x3ec6cd89	0.38828686
109	0x3ea5f21c	0.32411277
110	0x3e65f2ee	0.22455952
111	0x3f30aa2b	0.69009656
112	0x3ea03fa5	0.31298557
113	0xbf29e13f	-0.66359323
114	0xbe147337	-0.14497076
115	0xbeafdfbe	-0.3435039
116	0xbba65e42	-0.0050771544
117	0xbf8a16a8	-1.0788164
118	0x3ee22cff	0.44174954
119	0xbfe978f2	-1.8240035
120	0x3e84fd7f	0.25974652
121	0x3e900d00	0.28134918
122	0x3e5ef83a	0.21774378
123	0x3f454550	0.7705889
124	0x3e3ded86	0.18547639
125	0xbf1fc2cf	-0.6240663
126	0xbdfe4580	-0.124156
127	0xbe78e5d6	-0.24306425
128	0xbdb74620	-0.08948922
129	0xbf6ffadd	-0.9374216
130	0x3edb149e	0.42789167
131	0xbfbaa614	-1.4581933
132	0x3df05567	0.11735039
133	0x3eb5cb19	0.35506514
134	0x3e63a9b3	0.22232704
135	0x3f482951	0.78188044
136	0x3e1aeefb	0.15130226
137	0xbf0bc8cb	-0.5460326
138	0xbe8f1019	-0.2794197
139	0xbda1723e	-0.07883118
140	0xbe8b41c4	-0.27198613
141	0xbf6048f7	-0.87611336
142	0x3ebfa041	0.37426952
143	0xbf98750f	-1.1910723
144	0x3d5793f3	0.05263133
145	0x3eb59999	0.35468748
146	0x3e7f277d	0.24917407
147	0x3f4a563c	0.79037833
148	0x3dd0ef56	0.102019
149	0xbf25525a	-0.64578784
150	0xbe942288	-0.28932595
151	0xbcb8befc	-0.022552006
152	0xbe8aa111	-0.2707601
153	0xbf4e10f8	-0.8049464
154	0x3e93bcc2	0.28854948
155	0xbf7477ed	-0.9549549
156	0x3c768c74	0.015048135
157	0x3ecbc736	0.39800423
158	0x3ea149c0	0.3150158
159	0x3f45c61b	0.7725541
160	0x3ca9b853	0.020717775
161	0xbf016dbe	-0.5055808
162	0xbe377bf9	-0.17918386
163	0x3e34ece4	0.17668492
164	0xbece57ce	-0.40301365
165	0xbf5af025	-0.8552268
166	0x3e318f27	0.17339765
167	0xbf4c4918	-0.7979903
168	0x3d19d8a9	0.03756014
169	0x3e935dd0	0.2878251
170	0x3eb5ec06	0.35531634
171	0x3f3a32eb	0.72733945
172	0x3d9d9318	0.076940715
173	0xbee9b8f3	-0.45648918
174	0xbe5871e3	-0.21137194
175	0xbd5c07b6	-0.05371829
176	0xbeb70572	-0.35746342
177	0xbf7895ae	-0.97103393
178	0x3ec2536d	0.37954274
179	0xbf6f8398	-0.9356017
180	0x3d61243b	0.054966193
181	0x3ebc4e83	0.3677865
182	0x3ea3d635	0.31999364
183	0x3f42b2e9	0.76054245
184	0xbbab4616	-0.0052268608
185	0xbf19b774	-0.6004555
186	0xbe778b39	-0.24174203
187	0xbd11445d	-0.035465587
188	0xbed622c5	-0.41823402
189	0xbf72edf9	-0.9489437
190	0x3f06d644	0.52670693
191	0xbf75d0af	-0.9602155
192	0x3dcbc865	0.099503316
193	0x3e9f439c	0.3110627
194	0x3e7a6e56	0.24456152
195	0x3f3debe9	0.74188095
196	0xbdc4037c	-0.09570977
197	0xbf48e9a9	-0.7848154
198	0x3cf85dd4	0.030318178
199	0xbe2d0cfd	-0.16899486
200	0xbf05d2b1	-0.52274615
201	0xbf81f2fa	-1.0152276
202	0x3f279d59	0.6547447
203	0xbf8cc314	-1.0997033
204	0x3da99f57	0.08282345
205	0x3ee95b65	0.4557754
206	0x3e6bf98a	0.2304441
207	0x3f4b657c	0.7945173
208	0xbdd02ada	-0.10164423
209	0xbee87326	-0.4540035
210	0xbe58e1ca	-0.21179882
211	0x3d9e4877	0.07728665
212	0xbf3142e1	-0.69242674
213	0xbf77ab4c	-0.96745753
214	0x3ea0d125	0.31409565
215	0xbf82921c	-1.0200839
216	0x3d0e8b37	0.034800734
217	0x3ef78b5b	0.48348507
218	0x3e6ae9f9	0.22940816
219	0x3f3c322f	0.73514074
220	0xbe98afac	-0.29821527
221	0xbea9e59e	-0.33182997
222	0xbe0a943a	-0.13533106
223	0x3e03c57c	0.12868303
224	0xbf191690	-0.5980005
225	0xbf4e4af3	-0.80583113
226	0x3f274e83	0.65354174
227	0xbf47b7d1	-0.78014857
228	0x3db3c178	0.087771356
229	0x3f0a1561	0.5393887
230	0x3e8a1580	0.26969528
231	0x3f4d77ed	0.8026112
232	0xbecad2dc	-0.39613998
233	0xbe78a43e	-0.24281403
234	0xbe69603d	-0.22790618
235	0x3edcb61b	0.43107685
236	0xbf6c73c0	-0.9236412
237	0xbf30bf3c	-0.690418
238	0x3ee0b969	0.43891457
239	0xbf0b1f3e	-0.54344547
240	0x3dd34449	0.10315759
241	0x3ef1b712	0.47209984
242	0x3e6a13d0	0.2285912
243	0x3f4feca2	0.8122045
244	0xbecaed02	-0.39633948
245	0xbed367f2	-0.4129024
246	0xbdb826b0	-0.08991754
247	0x3eae0940	0.33991432
248	0xbf59f92b	-0.85145825
249	0xbf209670	-0.6272955
250	0x3f1e665a	0.61874926
251	0xbf15e9aa	-0.5855967
252	0x3e11d786	0.14242372
253	0x3ed7aea5	0.4212543
254	0x3e5423fb	0.2071685
255	0x3f4583a2	0.7715398

jaw_pose f4 [59, 3]
0	0x3e0b7af4	0.13621122
1	0xbb8c8faf	-0.0042895894
2	0xbaa2362f	-0.0012375767
3	0x3e0ba55b	0.13637297
4	0xbb62e948	-0.003462391
5	0xba917a68	-0.0011099102
6	0x3e0731f5	0.13202651
7	0xbafac6cc	-0.0019132732
8	0xb99ffa5c	-0.00030513376
9	0x3e09cc2c	0.13456792
10	0xbb5bf917	-0.0033565217
11	0xba0e105e	-0.0005419309
12	0x3dfd7bed	0.123771526
13	0xbadd8a70	-0.001690222
14	0xb9035973	-0.00012526456
15	0x3e0b4766	0.13601455
16	0xbb33e256	-0.002744814
17	0xba47130d	-0.00075940863
18	0x3e20563a	0.15657893
19	0xbb344ba7	-0.0027510913
20	0xba291d4e	-0.0006451205
21	0x3e1f0b61	0.15531684
22	0xbb25125b	-0.0025187943
23	0xba2622b1	-0.0006337567
24	0x3e0cf36f	0.13764738
25	0xbb7c1988	-0.0038467366
26	0xbaac0dfb	-0.0013126725
27	0x3e1c81a3	0.15283827
28	0xbbed54e6	-0.0072427867
29	0xbb6f1d2b	-0.0036485891
30	0x3e06f78d	0.1318037
31	0xbbcb0d55	-0.0061966577
32	0xbb07e4a7	-0.0020735653
33	0x3e1acb35	0.1511658
34	0xbc06762c	-0.008206885
35	0xbb8d11ac	-0.004305085
36	0x3e11963e	0.14217469
37	0xbbf63f77	-0.00751489
38	0xbb7f8c3f	-0.0038993505
39	0x3e23bfa3	0.15991072
40	0xbbb68496	-0.0055700047
41	0xbb0928de	-0.00209289
42	0x3e072c9e	0.13200614
43	0xbb7f8f77	-0.0038995424
44	0xbafde3cf	-0.001937026
45	0x3df34830	0.11879003
46	0xbb24877a	-0.0025105164
47	0xba4e2988	-0.0007864465
48	0x3df658a0	0.120286226
49	0xba485dc1	-0.0007643365
50	0xb7dee605	-2.6571573e-05
51	0x3de8122b	0.1133159
52	0xbba2d4a1	-0.004969195
53	0xba94604c	-0.0011320203
54	0x3e0a28d3	0.13492136
55	0xbb64ab02	-0.0034891968
56	0xba516ce0	-0.0007988941
57	0x3e048950	0.12943006
58	0xbb9249a6	-0.004464346
59	0xba02b078	-0.00049854023
60	0x3e14653c	0.14491743
61	0xbbae1521	-0.0053125774
62	0xba500227	-0.0007934891
63	0x3e1a7868	0.15084994
64	0xbbc42f3c	-0.005987076
65	0xbaef91f7	-0.0018277754
66	0x3e1f6dc0	0.1556921
67	0xbbc8d5ad	-0.0061289878
68	0xbac2a3f3	-0.0014849886
69	0x3e1b8bd2	0.15190056
70	0xbb43f236	-0.0029899008
71	0xba3d4ca6	-0.00072211993
72	0x3e116dc5	0.1420203
73	0xbbad6272	-0.0052912766
74	0xba9a0ec2	-0.0011753666
75	0x3dfe482c	0.124161094
76	0x39879c6f	0.0002586576
77	0x3a2778da	0.0006388553
78	0x3df1861a	0.11793156
79	0xba1b0865	-0.00059140316
80	0x39792550	0.0002376039
81	0x3de5df36	0.11224215
82	0x3a8993cc	0.0010496317
83	0x3a4822db	0.00076345884
84	0x3dfe5e0f	0.12420284
85	0x3a396dbe	0.0007073543
86	0x3a87f3f2	0.0010372384
87	0x3e02d6b1	0.12777211
88	0x3b0c2bfc	0.0021388521
89	0x3af8fb9b	0.0018995883
90	0x3e10c36e	0.1413705
91	0xba6297e0	-0.0008643847
92	0x3a0492ce	0.0005057276
93	0x3e0e69c8	0.1390754
94	0xba9893da	-0.0011640743
95	0x37330b2f	1.0671835e-05
96	0x3e0c29c7	0.13687812
97	0xba5d2c7d	-0.000843711
98	0x39acb5aa	0.00032941747
99	0x3e233af4	0.15940458
100	0x3aa1a517	0.0012332526
101	0x3abbee91	0.0014338066
102	0x3e2479fa	0.16062155
103	0x3a06c765	0.00051414064
104	0x3a795fb3	0.00095128565
105	0x3e0fc916	0.14041552
106	0xbaa4de86	-0.0012578524
107	0x3914ec82	0.00014202486
108	0x3e1a2c42	0.15055946
109	0xbb41fdbf	-0.0029600707
110	0xba98f870	-0.001167072
111	0x3df687f5	0.120376505
112	0xbb3a68bd	-0.0028443777
113	0xbaa15e9c	-0.0012311521
114	0x3e0c7b35	0.13718875
115	0xbaa46dd7	-0.0012544942
116	0xba124c7f	-0.0005580857
117	0x3e03fc27	0.12889157
118	0xbb93af78	-0.0045070015
119	0xbaae9d7c	-0.001332208
120	0x3dec0485	0.115242995
121	0xbb5d61b6	-0.0033780164
122	0xbac7c54c	-0.0015241294
123	0x3da581ea	0.0808142
124	0xbb3d583a	-0.0028891698
125	0xba605da7	-0.0008558877
126	0x3d984c98	0.07436484
127	0xbb52a91e	-0.0032144259
128	0xbaba3dbd	-0.0014209073
129	0x3dc1df17	0.09466379
130	0xbb2c46b5	-0.0026287262
131	0xba66eea3	-0.00088093634
132	0x3dcaa625	0.09894971
133	0x3a48331c	0.00076370104
134	0x3a13d841	0.00056398293
135	0x3dd3f73d	0.10349891
136	0xba1f66f2	-0.00060807087
137	0x39955d6e	0.00028489105
138	0x3dcce503	0.10004618
139	0xbb1c92c2	-0.0023891185
140	0xba3e70c3	-0.00072647276
141	0x3ddae3a0	0.10687947
142	0xbb32d954	-0.0027290182
143	0xba94be16	-0.0011348154
144	0x3e05344b	0.1300823
145	0xbbaf48d6	-0.005349259
146	0xbadc87da	-0.0016825155
147	0x3dda9d13	0.10674491
148	0xbb6a4a11	-0.0035749713
149	0xbac54fe1	-0.0015053713
150	0x3dbfcd66	0.093653485
151	0xbb96be14	-0.004600296
152	0xba9908a4	-0.0011675549
153	0x3dddf711	0.1083814
154	0xbadae025	-0.001669888
155	0xb9a90fd1	-0.00032245976
156	0x3dff0244	0.12451604
157	0x39de2728	0.00042372313
158	0x39b2708f	0.00034034668
159	0x3dfacc23	0.12245967
160	0xb9ba6194	-0.00035549386
161	0x3a011869	0.0004924597
162	0x3db3290a	0.08748062
163	0x3ac24f6a	0.0014824693
164	0x3ac8967b	0.0015303636
165	0x3da3dc24	0.08000973
166	0x3b467bfb	0.00302863
167	0x3b08c402	0.0020868783
168	0x3dbe027b	0.09277817
169	0x3b267110	0.002539698
170	0x3adbfab8	0.0016783094
171	0x3d996601	0.07490159
172	0x3ab6c735	0.0013944866
173	0x3abc08e6	0.0014345914
174	0x3dbba038	0.09161419
175	0x3b4e5191	0.0031481723
176	0x3b0e9294	0.0021754848

leye_pose f4 [59, 3]
0	0x00000000	0.0
1	0x00000000	0.0
2	0x00000000	0.0
3	0x00000000	0.0
4	0x00000000	0.0
5	0x00000000	0.0
6	0x00000000	0.0
7	0x00000000	0.0
8	0x00000000	0.0
9	0x00000000	0.0
10	0x00000000	0.0
11	0x00000000	0.0
12	0x00000000	0.0
13	0x00000000	0.0
14	0x00000000	0.0
15	0x00000000	0.0
16	0x00000000	0.0
17	0x00000000	0.0
18	0x00000000	0.0
19	0x00000000	0.0
20	0x00000000	0.0
21	0x00000000	0.0
22	0x00000000	0.0
23	0x00000000	0.0
24	0x00000000	0.0
25	0x00000000	0.0
26	0x00000000	0.0
27	0x00000000	0.0
28	0x00000000	0.0
29	0x00000000	0.0
30	0x00000000	0.0
31	0x00000000	0.0
32	0x00000000	0.0
33	0x00000000	0.0
34	0x00000000	0.0
35	0x00000000	0.0
36	0x00000000	0.0
37	0x00000000	0.0
38	0x00000000	0.0
39	0x00000000	0.0
40	0x00000000	0.0
41	0x00000000	0.0
42	0x00000000	0.0
43	0x00000000	0.0
44	0x00000000	0.0
45	0x00000000	0.0
46	0x00000000	0.0
47	0x00000000	0.0
48	0x00000000	0.0
49	0x00000000	0.0
50	0x00000000	0.0
51	0x00000000	0.0
52	0x00000000	0.0
53	0x00000000	0.0
54	0x00000000	0.0
55	0x00000000	0.0
56	0x00000000	0.0
57	0x00000000	0.0
58	0x00000000	0.0
59	0x00000000	0.0
60	0x00000000	0.0
61	0x00000000	0.0
62	0x00000000	0.0
63	0x00000000	0.0
64	0x00000000	0.0
65	0x00000000	0.0
66	0x00000000	0.0
67	0x00000000	0.0
68	0x00000000	0.0
69	0x00000000	0.0
70	0x00000000	0.0
71	0x00000000	0.0
72	0x00000000	0.0
73	0x00000000	0.0
74	0x00000000	0.0
75	0x00000000	0.0
76	0x00000000	0.0
77	0x00000000	0.0
78	0x00000000	0.0
79	0x00000000	0.0
80	0x00000000	0.0
81	0x00000000	0.0
82	0x00000000	0.0
83	0x00000000	0.0
84	0x00000000	0.0
85	0x00000000	0.0
86	0x00000000	0.0
87	0x00000000	0.0
88	0x00000000	0.0
89	0x00000000	0.0
90	0x00000000	0.0
91	0x00000000	0.0
92	0x00000000	0.0
93	0x00000000	0.0
94	0x00000000	0.0
95	0x00000000	0.0
96	0x00000000	0.0
97	0x00000000	0.0
98	0x00000000	0.0
99	0x00000000	0.0
100	0x00000000	0.0
101	0x00000000	0.0
102	0x00000000	0.0
103	0x00000000	0.0
104	0x00000000	0.0
105	0x00000000	0.0
106	0x00000000	0.0
107	0x00000000	0.0
108	0x00000000	0.0
109	0x00000000	0.0
110	0x00000000	0.0
111	0x00000000	0.0
112	0x00000000	0.0
113	0x00000000	0.0
114	0x00000000	0.0
115	0x00000000	0.0
116	0x00000000	0.0
117	0x00000000	0.0
118	0x00000000	0.0
119	0x00000000	0.0
120	0x00000000	0.0
121	0x00000000	0.0
122	0x00000000	0.0
123	0x00000000	0.0
124	0x00000000	0.0
125	0x00000000	0.0
126	0x00000000	0.0
127	0x00000000	0.0
128	0x00000000	0.0
129	0x00000000	0.0
130	0x00000000	0.0
131	0x00000000	0.0
132	0x00000000	0.0
133	0x00000000	0.0
134	0x00000000	0.0
135	0x00000000	0.0
136	0x00000000	0.0
137	0x00000000	0.0
138	0x00000000	0.0
139	0x00000000	0.0
140	0x00000000	0.0
141	0x00000000	0.0
142	0x00000000	0.0
143	0x00000000	0.0
144	0x00000000	0.0
145	0x00000000	0.0
146	0x00000000	0.0
147	0x00000000	0.0
148	0x00000000	0.0
149	0x00000000	0.0
150	0x00000000	0.0
151	0x00000000	0.0
152	0x00000000	0.0
153	0x00000000	0.0
154	0x00000000	0.0
155	0x00000000	0.0
156	0x00000000	0.0
157	0x00000000	0.0
158	0x00000000	0.0
159	0x00000000	0.0
160	0x00000000	0.0
161	0x00000000	0.0
162	0x00000000	0.0
163	0x00000000	0.0
164	0x00000000	0.0
165	0x00000000	0.0
166	0x00000000	0.0
167	0x00000000	0.0
168	0x00000000	0.0
169	0x00000000	0.0
170	0x00000000	0.0
171	0x00000000	0.0
172	0x00000000	0.0
173	0x00000000	0.0
174	0x00000000	0.0
175	0x00000000	0.0
176	0x00000000	0.0

reye_pose f4 [59, 3]
0	0x00000000	0.0
1	0x00000000	0.0
2	0x00000000	0.0
3	0x00000000	0.0
4	0x00000000	0.0
5	0x00000000	0.0
6	0x00000000	0.0
7	0x00000000	0.0
8	0x00000000	0.0
9	0x00000000	0.0
10	0x00000000	0.0
11	0x00000000	0.0
12	0x00000000	0.0
13	0x00000000	0.0
14	0x00000000	0.0
15	0x00000000	0.0
16	0x00000000	0.0
17	0x00000000	0.0
18	0x00000000	0.0
19	0x00000000	0.0
20	0x00000000	0.0
21	0x00000000	0.0
22	0x00000000	0.0
23	0x00000000	0.0
24	0x00000000	0.0
25	0x00000000	0.0
26	0x00000000	0.0
27	0x00000000	0.0
28	0x00000000	0.0
29	0x00000000	0.0
30	0x00000000	0.0
31	0x00000000	0.0
32	0x00000000	0.0
33	0x00000000	0.0
34	0x00000000	0.0
35	0x00000000	0.0
36	0x00000000	0.0
37	0x00000000	0.0
38	0x00000000	0.0
39	0x00000000	0.0
40	0x00000000	0.0
41	0x00000000	0.0
42	0x00000000	0.0
43	0x00000000	0.0
44	0x00000000	0.0
45	0x00000000	0.0
46	0x00000000	0.0
47	0x00000000	0.0
48	0x00000000	0.0
49	0x00000000	0.0
50	0x00000000	0.0
51	0x00000000	0.0
52	0x00000000	0.0
53	0x00000000	0.0
54	0x00000000	0.0
55	0x00000000	0.0
56	0x00000000	0.0
57	0x00000000	0.0
58	0x00000000	0.0
59	0x00000000	0.0
60	0x00000000	0.0
61	0x00000000	0.0
62	0x00000000	0.0
63	0x00000000	0.0
64	0x00000000	0.0
65	0x00000000	0.0
66	0x00000000	0.0
67	0x00000000	0.0
68	0x00000000	0.0
69	0x00000000	0.0
70	0x00000000	0.0
71	0x00000000	0.0
72	0x00000000	0.0
73	0x00000000	0.0
74	0x00000000	0.0
75	0x00000000	0.0
76	0x00000000	0.0
77	0x00000000	0.0
78	0x00000000	0.0
79	0x00000000	0.0
80	0x00000000	0.0
81	0x00000000	0.0
82	0x00000000	0.0
83	0x00000000	0.0
84	0x00000000	0.0
85	0x00000000	0.0
86	0x00000000	0.0
87	0x00000000	0.0
88	0x00000000	0.0
89	0x00000000	0.0
90	0x00000000	0.0
91	0x00000000	0.0
92	0x00000000	0.0
93	0x00000000	0.0
94	0x00000000	0.0
95	0x00000000	0.0
96	0x00000000	0.0
97	0x00000000	0.0
98	0x00000000	0.0
99	0x00000000	0.0
100	0x00000000	0.0
101	0x00000000	0.0
102	0x00000000	0.0
103	0x00000000	0.0
104	0x00000000	0.0
105	0x00000000	0.0
106	0x00000000	0.0
107	0x00000000	0.0
108	0x00000000	0.0
109	0x00000000	0.0
110	0x00000000	0.0
111	0x00000000	0.0
112	0x00000000	0.0
113	0x00000000	0.0
114	0x00000000	0.0
115	0x00000000	0.0
116	0x00000000	0.0
117	0x00000000	0.0
118	0x00000000	0.0
119	0x00000000	0.0
120	0x00000000	0.0
121	0x00000000	0.0
122	0x00000000	0.0
123	0x00000000	0.0
124	0x00000000	0.0
125	0x00000000	0.0
126	0x00000000	0.0
127	0x00000000	0.0
128	0x00000000	0.0
129	0x00000000	0.0
130	0x00000000	0.0
131	0x00000000	0.0
132	0x00000000	0.0
133	0x00000000	0.0
134	0x00000000	0.0
135	0x00000000	0.0
136	0x00000000	0.0
137	0x00000000	0.0
138	0x00000000	0.0
139	0x00000000	0.0
140	0x00000000	0.0
141	0x00000000	0.0
142	0x00000000	0.0
143	0x00000000	0.0
144	0x00000000	0.0
145	0x00000000	0.0
146	0x00000000	0.0
147	0x00000000	0.0
148	0x00000000	0.0
149	0x00000000	0.0
150	0x00000000	0.0
151	0x00000000	0.0
152	0x00000000	0.0
153	0x00000000	0.0
154	0x00000000	0.0
155	0x00000000	0.0
156	0x00000000	0.0
157	0x00000000	0.0
158	0x00000000	0.0
159	0x00000000	0.0
160	0x00000000	0.0
161	0x00000000	0.0
162	0x00000000	0.0
163	0x00000000	0.0
164	0x00000000	0.0
165	0x00000000	0.0
166	0x00000000	0.0
167	0x00000000	0.0
168	0x00000000	0.0
169	0x00000000	0.0
170	0x00000000	0.0
171	0x00000000	0.0
172	0x00000000	0.0
173	0x00000000	0.0
174	0x00000000	0.0
175	0x00000000	0.0
176	0x00000000	0.0

expression f4 [59, 10]
0	0x3faa083a	1.328376
1	0xbe9f6a97	-0.3113601
2	0x40295de5	2.6463559
3	0x3ff8df43	1.9443134
4	0xbfae9737	-1.3639897
5	0x3f3a716c	0.7282932
6	0xbf4f4d15	-0.8097699
7	0x3f4c7697	0.79868454
8	0xc031af57	-2.776327
9	0xc08ba927	-4.3643985
10	0x3fa76379	1.3077232
11	0xbebc8870	-0.36822844
12	0x4027c74f	2.6215398
13	0x3fea5524	1.8307233
14	0xbfb0d255	-1.3814188
15	0x3f157fb7	0.58398
16	0xbf4348f4	-0.7628319
17	0x3f7b86cf	0.98252577
18	0xc0265235	-2.5987675
19	0xc088ae74	-4.2712955
20	0x3f943dea	1.1581395
21	0xbf0333d1	-0.5125094
22	0x4010d489	2.262972
23	0x400e328d	2.2218354
24	0xbfbaf0eb	-1.4604772
25	0x3f8a445c	1.0802112
26	0xbf716ff6	-0.94311464
27	0x3fa755f6	1.3073108
28	0xc018b0e1	-2.3857958
29	0xc07e32c2	-3.971848
30	0x3f9ee8fe	1.2414854
31	0xbf1cb8c6	-0.6121944
32	0x400f12ef	2.2355306
33	0x400083e2	2.0080495
34	0xbfa41220	-1.2818031
35	0x3f6f6b8a	0.93523467
36	0xbef274b7	-0.4735467
37	0x3fb495df	1.4108237
38	0xc013fab9	-2.312178
39	0xc0676088	-3.6152668
40	0x3f762133	0.9614441
41	0xbec61ee5	-0.38695446
42	0x4005a81c	2.0883856
43	0x400bbc6f	2.183376
44	0xbfdaf23b	-1.7105173
45	0x3f582f83	0.844475
46	0xbf571d34	-0.84028935
47	0x3f700346	0.93754995
48	0xc0103538	-2.2532482
49	0xc04707bc	-3.109847
50	0x3ef7ddb9	0.48411348
51	0xbf4b641c	-0.7944963
52	0x3fd8a25c	1.6924548
53	0x4024eba3	2.5768821
54	0xbfe5f737	-1.7966069
55	0x3f0bc8bf	0.5460319
56	0xbf928aa6	-1.1448562
57	0x3f4fe35c	0.812063
58	0xc001755a	-2.0227876
59	0xc022b321	-2.5421832
60	0xbc32f237	-0.010922006
61	0xbf85c70c	-1.0451369
62	0x3f95900e	1.1684587
63	0x40474cd4	3.1140642
64	0xc005533d	-2.0832055
65	0x3f4e1b0c	0.8051002
66	0xbfc84c11	-1.5648214
67	0x3f8eb96d	1.1150337
68	0xbfea390a	-1.8298657
69	0xbffee80f	-1.9914569
70	0xbee4af14	-0.44664824
71	0xbf88104c	-1.0629973
72	0x3f7016af	0.9378461
73	0x40681d13	3.6267745
74	0xc018e182	-2.388764
75	0x3f743a2b	0.9540126
76	0xc0022f76	-2.0341468
77	0x3fb7c000	1.4355469
78	0xbff1b2b0	-1.8882656
79	0xbfc0bd17	-1.5057706
80	0xbe5e69b3	-0.21720009
81	0xbf42e747	-0.7613415
82	0x3f780d36	0.9689516
83	0x4082e3f6	4.0903273
84	0xc006654b	-2.0999324
85	0x3fbdd8d1	1.4831792
86	0xc00769cb	-2.115832
87	0x3f83f5c8	1.0309381
88	0xc0076f38	-2.1161633
89	0xbff9762b	-1.9489187
90	0xbe71e610	-0.23622918
91	0xbf9559df	-1.1668051
92	0x3f541a28	0.8285241
93	0x407925cd	3.8929322
94	0xc01a735c	-2.413291
95	0x3fcaacf2	1.5834029
96	0xbfd50937	-1.6643437
97	0x3fa1bd14	1.2635827
98	0xc01c5e53	-2.443257
99	0xbfb77dbc	-1.4335246
100	0xbe990bb6	-0.29891747
101	0xbf85c87d	-1.0451809
102	0x3f3b2e93	0.7311794
103	0x407803b3	3.8752258
104	0xc019c89c	-2.4028692
105	0x3fc790f2	1.5591109
106	0xbfeebc18	-1.8651152
107	0x3f833536	1.0250614
108	0xc01fd230	-2.4972038
109	0xbf80abae	-1.0052392
110	0xbe402ee5	-0.18767889
111	0xbf986f8f	-1.1909045
112	0x3f848ee2	1.0356104
113	0x405a9c86	3.4158034
114	0xc004a33a	-2.0724626
115	0x3f85bcc3	1.044823
116	0xbfbe35c4	-1.4860158
117	0x3f681024	0.9064963
118	0xc016ef86	-2.3583694
119	0xbf88d1e2	-1.0689051
120	0xbd94bb8f	-0.072623365
121	0xbf5f4658	-0.8721671
122	0x3f6ca44c	0.924382
123	0x40482941	3.127518
124	0xbfec3f88	-1.8456888
125	0x3f5c9316	0.86161935
126	0xbf954c18	-1.1663847
127	0x3f0329d2	0.5123569
128	0xc004fb24	-2.0778284
129	0xbf8fafc5	-1.1225516
130	0x3d9c0329	0.0761779
131	0xbf6d0fab	-0.9260203
132	0x3fb3da7d	1.4051052
133	0x40279d5a	2.618979
134	0xbff31204	-1.8989873
135	0x3e96f4f0	0.29483747
136	0xbf4164b2	-0.75544274
137	0x3f218b70	0.6310339
138	0xc002c0ff	-2.0430295
139	0xbfbff2d2	-1.4995978
140	0x3e66fd4b	0.22557561
141	0xbef90d5f	-0.48643014
142	0x3f9f21ab	1.243215
143	0x402bd0ce	2.6846194
144	0xbfee9b60	-1.8641167
145	0x3f002d5e	0.50069225
146	0xbf8b5d29	-1.0887805
147	0x3f599f23	0.8500845
148	0xbfd23135	-1.6421267
149	0xbfccbf9f	-1.5995978
150	0x3e6037dc	0.21896309
151	0xbe83dd26	-0.2575466
152	0x3fcf5757	1.6198529
153	0x40353767	2.8315065
154	0xbfe48f87	-1.7856301
155	0x3f6d9de9	0.92819077
156	0xbf90ba07	-1.1306771
157	0x3f9c58da	1.2214615
158	0xc007e9c6	-2.1236434
159	0xc005776e	-2.0854144
160	0x3edac837	0.42730877
161	0xbe7cb7df	-0.24679516
162	0x4000e883	2.0141914
163	0x404b0ce2	3.1726613
164	0xbfc20cc7	-1.5160149
165	0x3fb53a49	1.4158412
166	0xbf749604	-0.95541406
167	0x3f9609bc	1.1721721
168	0xc014b0f8	-2.3233013
169	0xc028e54e	-2.6389956
170	0x3f596226	0.8491539
171	0xbeafbf1c	-0.34325492
172	0x40148551	2.320637
173	0x403df819	2.9682677
174	0xbfd5e24f	-1.6709689
175	0x3febde7f	1.8427275
176	0xbf653670	-0.8953619
177	0x3f904e4b	1.1273893
178	0xc038c496	-2.8869987
179	0xc04f88f2	-3.2427335
180	0x3f984f54	1.1899209
181	0xbe649499	-0.2232231
182	0x401dcfed	2.4658158
183	0x40380442	2.8752599
184	0xbf9ea135	-1.2392946
185	0x3fc3f594	1.530932
186	0xbf86a527	-1.051915
187	0x3f43c35d	0.76469976
188	0xc04b2a56	-3.174459
189	0xc07358c8	-3.8022938
190	0x3fce409a	1.6113465
191	0xbe6a009f	-0.228518
192	0x402277b5	2.5385563
193	0x401af55c	2.4212255
194	0xbf888516	-1.0665615
195	0x3fafe842	1.3742754
196	0xbf4ed043	-0.8078653
197	0x3f70ee64	0.94113755
198	0xc051c77f	-3.2778013
199	0xc08acd71	-4.3375783
200	0x3faf4916	1.3694179
201	0xbee9f0dc	-0.45691574
202	0x4013307a	2.2998338
203	0x400e5b53	2.224324
204	0xbf9d313c	-1.228065
205	0x3fa5f1b1	1.2964383
206	0xbf8156eb	-1.010465
207	0x3f3f3835	0.7469514
208	0xc049c897	-3.152868
209	0xc0898a94	-4.2981663
210	0x3f8f6e2a	1.1205494
211	0xbf24b3a6	-0.6433662
212	0x3fe31d29	1.7743274
213	0x402f5cef	2.7400472
214	0xbfdd0ba1	-1.7269174
215	0x3fd34194	1.6504388
216	0xbfaf92ad	-1.3716637
217	0x3f7f025f	0.99612993
218	0xc04ff515	-3.2493336
219	0xc071157b	-3.766936
220	0x3f88dcf9	1.0692436
221	0xbf24963c	-0.6429174
222	0x3fdac789	1.7092143
223	0x404a3290	3.159336
224	0xbfcabf68	-1.5839663
225	0x40037781	2.054169
226	0xbf9f110b	-1.2427076
227	0x3f44174e	0.7659806
228	0xc055c2ea	-3.3400216
229	0xc06c0830	-3.6879997
230	0x3f60eed7	0.8786444
231	0xbf2cf0b7	-0.675548
232	0x3fd6bf74	1.6777177
233	0x404ec53e	3.2307887
234	0xbfcf3da8	-1.6190691
235	0x3fe7282e	1.8059137
236	0xbfb15ca8	-1.3856401
237	0x3f818922	1.0119975
238	0xc03a68d3	-2.912648
239	0xc04d9c3b	-3.2126606
240	0x3f83bc8d	1.0291916
241	0xbf0eb55b	-0.55745476
242	0x3fcbfcf0	1.5936565
243	0x403e6428	2.974863
244	0xbfb03c34	-1.3768373
245	0x3fe71892	1.8054373
246	0xbf9c47cd	-1.2209412
247	0x3f34cd25	0.70625526
248	0xc036c1ae	-2.8555713
249	0xc03fabe7	-2.994867
250	0x3f9f06db	1.2423967
251	0xbebd0465	-0.36917415
252	0x3ffd3302	1.9781191
253	0x403f5db5	2.9900944
254	0xbf9bc08d	-1.2168137
255	0x40080256	2.1251426
