test_dataset/gait_753/20250617_c1_a1_Take1/split_subjects/0/fit-smplx/smplx-params.npz (npz, 45834 bytes, 10 tensors)

global_orient f4 [88, 3]
00000000: d3d9 293d adb2 1ec0 7582 a3bd 0393 c4bb
00000010: f3a2 20c0 2888 59bd 21ae 5dbd 5277 24c0
00000020: bc82 1ebd 3bc4 a3bd f42a 26c0 0c8d b2bd
00000030: de43 87bd f208 29c0 2ac6 0fbe 1214 43bd
00000040: 5eb0 2fc0 3c50 2abe b19a 4dbd ba44 37c0
00000050: a195 27be a3af 71bd 55c6 40c0 65b9 16be
00000060: ee5d 50bd 83ef 49c0 4560 03be dfa8 b6bc
00000070: 32e3 51c0 ce58 d9bd d8a2 5abb 6522 57c0
00000080: 68a3 c8bd 4c0a e1ba 71ad 5ac0 6aa2 d1bd
00000090: 734d 503c dc36 5cc0 6c35 efbd 50a9 823d
000000a0: d2a8 5bc0 8fa3 f4bd cb8a fb3d dc9b 58c0
000000b0: 627f 10be 922a f03d 001f 54c0 da30 4bbe
000000c0: 5417 da3d a1d6 4cc0 8054 68be 7593 8e3d
000000d0: 2a80 44c0 bf27 60be b8ad 053d 81b9 3cc0
000000e0: 2a58 6cbe 8c1f 7e3c 617e 32c0 af92 6fbe
000000f0: 151c b63c 82fa 28c0 03a4 71be 7c5d 0e3d
00000100: 3249 1fc0 1f17 6abe bda7 3f3d becb 18c0
00000110: 9b6d 6bbe 6586 433d 7e44 14c0 efaa 79be
00000120: eead 113d 3dbd 11c0 97d9 86be 6586 8a3c
00000130: c63b 11c0 c61a 8bbe 87f1 81bc b621 12c0
00000140: f45b 87be 8ea8 37bd ea24 13c0 c5ef 77be
00000150: a438 72bd aec9 14c0 a9e1 5fbe 7d48 44bd
00000160: 44ae 11c0 0c8b 5cbe 0779 d6bc 36a6 11c0
00000170: 3c1b 59be a33d 7cbc 8c0c 12c0 aa45 55be
00000180: 305e a9bc ca9e 14c0 b330 53be 245f d9bc
00000190: c676 1fc0 2034 44be 147c 30bc 9d47 27c0
000001a0: 03fc 27be 7395 51bc c348 32c0 9aff 1abe
000001b0: 1339 b6bc d92d 3ac0 efc1 09be 1d9f 0bbd
000001c0: 5810 3fc0 d4d2 e6bd 3e08 31bd 193c 41c0
000001d0: 3345 bebd 703b b7bc 7af0 41c0 9bd0 9fbd
000001e0: 237e 883c 1f7e 40c0 8ba2 58bd cc05 573d
000001f0: 91fa 3dc0 c125 03bd d09c 923d 7de7 3cc0
00000200: 35d3 0fbd e06d 3b3d 1445 3ec0 f6df 62bd
00000210: 66d1 883b 6c44 37c0 23f9 cebd 5892 18bd
00000220: 909c 30c0 a347 ddbd 7de0 8fbd 1949 2ac0
00000230: c36c dabd 00c7 dcbd 6702 26c0 4812 cfbd
00000240: a767 e2bd ea31 1fc0 d357 dbbd 33e4 b5bd
00000250: 220d 16c0 d701 f6bd af8e 89bd eba2 10c0
00000260: d509 eebd 9dc3 4bbd d348 0dc0 f7bf e4bd
00000270: 3ab9 59bd f7f6 0cc0 3758 d5bd 21b2 80bd
00000280: 968a 0ec0 ffb8 dcbd 6a90 7fbd 2c1f 11c0
00000290: e30d fbbd bc92 78bd 489e 13c0 317a 17be
000002a0: ab76 a1bd 6df3 17c0 36c9 35be 4e45 07be
000002b0: 0c3e 1bc0 a5ef 66be 0eca 1fbe 9f8b 1fc0
000002c0: d060 89be a4d7 04be 2c76 27c0 3017 9ebe
000002d0: 619d 1abe 353a 2fc0 af2e a4be cd84 40be
000002e0: d763 37c0 948d 9abe bd82 5bbe a29f 3ec0
000002f0: 2b1b 85be 411c 65be 3ea0 44c0 5a05 5abe
00000300: 1afc 63be e55b 47c0 4039 41be 17b4 59be
00000310: 0d79 48c0 3853 2cbe 0b84 3bbe 3b81 47c0
00000320: eb34 02be 5220 1bbe 48b7 46c0 15c2 dcbd
00000330: fd94 e8bd 595a 45c0 e9d5 b9bd e577 8ebd
00000340: b5ee 43c0 9a57 9cbd 3dfe 3ebd 806f 42c0
00000350: e246 79bd 08d1 9bbd bef8 40c0 42f9 64bd
00000360: 8e4b ddbd 7175 3bc0 88b6 95bd 1695 18be
00000370: c29a 34c0 199c 8bbd a2ee 24be af17 2fc0
00000380: 53f0 7bbd f190 33be 010c 2bc0 311b 43bd
00000390: 19ef 11be ae25 23c0 82d2 71bd 6938 d3bd
000003a0: d7b2 1cc0 1df2 96bd a0d9 9dbd e2c1 16c0
000003b0: ebb9 c7bd a82d 72bd 3250 13c0 08d2 e9bd
000003c0: 2186 4bbd 461f 15c0 bb80 f7bd 77ef 3bbd
000003d0: 5228 18c0 22f3 06be 4c62 84bd a257 18c0
000003e0: be20 1dbe a649 96bd 6085 1ac0 1281 26be
000003f0: 0ce2 95bd c24e 1fc0 a863 1ebe d897 4bbd
0.0414675 -2.4796555 -0.07983867 -0.0059989705 -2.5099456 -0.053108364 -0.05412114 -2.5697827
-0.038698897 -0.07996412 -2.5963717 -0.08718309 -0.066047415 -2.641171 -0.14040437 -0.047626562
-2.7451396 -0.1663217 -0.050196353 -2.8635697 -0.16365673 -0.05900539 -3.0121052 -0.1471916
-0.05087083 -3.1552436 -0.12829693 -0.02229732 -3.279492 -0.10612641 -0.0033361223 -3.3614743
-0.09796792 -0.0017169206 -3.416836 -0.10236056 0.012713778 -3.4408484 -0.11680111 0.0637995
-3.432179 -0.11945259 0.12282332 -3.384513 -0.14111093 0.1172687 -3.314392 -0.19842854
0.10648981 -3.2006 -0.22688484 0.06961719 -3.0703225 -0.21890162 0.032636374 -2.9488223
-0.23080507 0.015510451 -2.7889636 -0.23395799 0.022230187 -2.6402898 -0.23597722 0.034757122
-2.4888425 -0.22860382 0.046790827 -2.3874354 -0.2299103 0.04773559 -2.3166804 -0.24381612
0.035566263 -2.2771752 -0.26337883 0.016909787 -2.2692733 -0.27168864 -0.01586224 -2.2833076
-0.26437342 -0.04483848 -2.299128 -0.24212559 -0.059136048 -2.3248096 -0.21863426 -0.047920693
-2.2762613 -0.21537417 -0.026180757 -2.2757697 -0.21201795 -0.015395555 -2.2820158 -0.20827356
-0.020674795 -2.3221917 -0.20624046 -0.026534624 -2.4916244 -0.19160509 -0.01077177 -2.613746
-0.16404729 -0.012791979 -2.785691 -0.15136567 -0.022244012 -2.9090483 -0.13452886 -0.03408729
-2.9853725 -0.11270681 -0.04322075 -3.019293 -0.092905425 -0.02236721 -3.0303025 -0.0780346
0.01666171 -3.0076978 -0.052889388 0.052495763 -2.9684184 -0.032018427 0.07158816 -2.951629
-0.035113532 0.04575908 -2.9729662 -0.055389367 0.004175353 -2.8635511 -0.10106113 -0.03724894
-2.7595558 -0.10804679 -0.070252396 -2.6607115 -0.10665276 -0.10780144 -2.5938966 -0.10110909
-0.11054926 -2.4874215 -0.107101105 -0.08881416 -2.3445516 -0.1201207 -0.06716668 -2.2599437
-0.11622969 -0.0497471 -2.2075698 -0.11169427 -0.05315516 -2.2025735 -0.10417216 -0.062839754
-2.2272086 -0.10777473 -0.062393583 -2.2675276 -0.12258508 -0.06068681 -2.3065357 -0.14792706
-0.07883962 -2.3742325 -0.17752537 -0.13210031 -2.425662 -0.22552355 -0.15604421 -2.4928968
-0.26831675 -0.12972885 -2.6165876 -0.30877066 -0.15099098 -2.7379277 -0.32066867 -0.1880066
-2.8654687 -0.3018614 -0.21436591 -2.9784932 -0.2599729 -0.2237406 -3.0722804 -0.21291104
-0.22264138 -3.1149838 -0.18869495 -0.21260105 -3.1323884 -0.1682862 -0.18312089 -3.1172626
-0.12715499 -0.15149048 -3.1049366 -0.10779206 -0.11356542 -3.0836394 -0.09074003 -0.06956462
-3.0614445 -0.07633896 -0.04662918 -3.0380554 -0.060858615 -0.07608229 -3.015182 -0.055901773
-0.108054265 -2.929043 -0.07310206 -0.14900622 -2.8219457 -0.06816883 -0.16106656 -2.7358205
-0.061508488 -0.1753576 -2.6726077 -0.047633354 -0.14251365 -2.5491748 -0.059038647 -0.10313494
-2.4484155 -0.07370398 -0.07707524 -2.3555837 -0.09752258 -0.059125572 -2.3017697 -0.114170134
-0.049688462 -2.3300338 -0.120851 -0.04588267 -2.377461 -0.13178685 -0.06464061 -2.3803487
-0.15344521 -0.07338266 -2.4143906 -0.16260174 -0.07318506 -2.489182 -0.15467703 -0.049705356

body_pose f4 [88, 63]
00000000: 9622 3b3e fda7 69be 8472 1bbd 22c5 2bbf
00000010: 78fb 4b3d 92d5 84be ee76 a03e 892a 12be
00000020: 01f3 613e bfc3 7f3e 9aa3 63be 6575 323e
00000030: 34d0 563f 6da5 5bbd 7c3d ed3d e875 fe3c
00000040: 7db3 4fbd d1f9 e33d ddfc f0bd 462e 22be
00000050: ed63 cf3d 23bd 1d3e f7df 1d3c f706 d8bd
00000060: f612 8f3c 3284 c5bc a68f fe3d 349e 8237
00000070: 1e0d 7d37 e207 8237 d2a9 8437 3a07 7f37
00000080: 3676 81b7 031d 893d 7277 0dbd 0592 00be
00000090: 5581 28be 386c 94bd 4ea6 d2bd 2e99 8c3d
000000a0: 4d44 c43d 301c 173f 6f8e c6bd cfd6 aebc
000000b0: c1c6 dfbd 4e62 23bd b4c9 9bbe ae13 d53d
000000c0: a6b9 0b3e 9232 a73e 213c d53e d743 b8bd
000000d0: 1adf 77bf be7a ce3e f132 993e 5773 adbc
000000e0: d6b5 043e 12e3 2abe 814c dbbd 906b 13be
000000f0: 163d 313e d3a0 6cbd 81b3 e33c 7a67 843e
00000100: 0306 42be dcdb d3bc ad59 1fbf 481d 76bd
00000110: b94f 55be 30a0 873e dddf 03be fe46 1a3e
00000120: 7c34 6c3e a24c 60be 61ca 093e 1d70 0a3f
00000130: a910 793d 02b1 823c df27 893c e25e 86bd
00000140: d6d8 b93d 3374 dabe 5675 edbd 2a32 93bc
00000150: ed12 593e 1262 233d 7150 10be 0038 833d
00000160: 1139 6ebd fbc6 1a3e f319 7c37 38eb 81b7
00000170: 0ad8 8037 1cf9 8437 6c88 7a37 5b4c 82b7
00000180: ca40 943d 6400 58bc dcf3 9dbd de88 39be
00000190: 00f1 8bbd 0aa9 693c d06a da3d 0681 083d
000001a0: 3679 0e3f 45a3 0fbe 563c 863c 2d3a 03be
000001b0: cde6 8fbd d310 9dbe 8a82 473e 0899 be3d
000001c0: 516d 833e 64b6 0e3f 6169 08be 65d8 66bf
000001d0: b86c dc3e 503a ac3e d8ce ce3c 5e24 393e
000001e0: 1408 8abe ea4a eabd 6282 ddbd 48bd 603e
000001f0: ccda 38bd c0f7 0b3e 5596 9a3e 18eb 08be
00000200: bec1 2dbd eef8 04bf c00c 66bd 1b3e fcbd
00000210: 0ad3 6e3e fd1b 07be ac43 d93d a51a cc3e
00000220: 8a0d 4abe 95a8 113e 5372 bd3e 2a81 373e
00000230: 7e9e babd 1a14 813b ce68 95bd f2c7 433d
00000240: 81e3 68be 0b3d 28be 9f90 aa3d e651 663e
00000250: e5b0 5a3d 6855 06be 6ff4 c53d 5307 92bd
00000260: 8584 113e a128 81b7 18b3 7d37 a500 8137
00000270: 99a9 77b7 1720 7737 64a5 7c37 6fe3 813d
00000280: 49af dc3c 7fc6 3fbd 3a02 41be 133e 5ebd
00000290: 3e55 ea3d 0431 fc3d 78c0 4dbc fbdb f23e
000002a0: a68e 02be f883 6e3d fcec ecbd 1f45 c7bd
000002b0: 0329 93be 9e63 853e b77b 3f3e 0ab2 163e
000002c0: 7b6c 0b3f cf54 3bbe 29e9 5abf f330 f03e
000002d0: 4e18 483e 02fc c13e fe8d d33e 2278 a4be
000002e0: c968 18be 9637 cbbd ff35 e03d 389e 83be
000002f0: 0685 873d 7d38 813e e6ae 18be ab9e 8ebc
00000300: f38f fabe 841d 953c 4f11 26be ee50 7c3e
00000310: 806e 17be 31f2 c73d 96cc 313f 44c7 5dbe
00000320: 69d8 c43c 0f0f 183f 9240 083e cf8e 253c
00000330: c06c fe3c 2e19 86bd 5da2 1e3d 7707 b73d
00000340: 99c3 34be bc99 1b3c 8671 fabc 3343 fa3c
00000350: 03dd 2cbe 73de b93d 6d8b 8ebd 6b4b 183e
00000360: d6cd 77b7 1f42 82b7 6dcb 7f37 0166 7cb7
00000370: e76d 85b7 3c47 81b7 7da9 6d3d 3afb 873c
00000380: c450 b3bd 30a7 6dbe dae1 a6bd d3b6 aa3d
00000390: d678 033e 728e 0e3c b987 083f 5702 febd
000003a0: d43d 943d 7e81 c2bd 408c 10be 5bf4 a1be
000003b0: cc11 973e f880 dc3d d3df 0a3e 8453 1c3f
000003c0: 73f5 3cbe 97ff 56bf 343f 013f ac31 883e
000003d0: 650a dd3d 794f 583e 94d5 94be 7d70 35be
000003e0: 1e8c 84bd 5d7c 4e3e fe5c f4bd 6120 053e
000003f0: ff15 d13d 5b7b 1abe 2cab 0e3d 63ea c3be
0.18274912 -0.22817989 -0.037951007 -0.67097676 0.049800366 -0.2594419 0.31340736 -0.14274038
0.22065355 0.24977015 -0.22230378 0.17427595 0.8391144 -0.05362456 0.11583993 0.031062081
-0.050708283 0.11131633 -0.1176698 -0.15837964 0.10126481 0.15404181 0.009635917 -0.105482034
0.017465096 -0.024110887 0.124297425 1.5570877e-05 1.5083029e-05 1.5500878e-05 1.5814705e-05 1.5200867e-05
-1.5433045e-05 0.06694987 -0.03453774 -0.12555702 -0.16455586 -0.072472036 -0.10285626 0.06865154
0.0958334 0.59027386 -0.09695136 -0.021342663 -0.10926581 -0.039888673 -0.30427325 0.10404144
0.13645038 0.3265577 0.41647437 -0.089973144 -0.968248 0.4032802 0.29921678 -0.021173162
0.1295999 -0.16688183 -0.10707951 -0.143965 0.17308459 -0.05777056 0.027795555 0.25860196
-0.18947606 -0.025861673 -0.6224621 -0.06008652 -0.20831193 0.264894 -0.12878366 0.15066144
0.23066896 -0.21904233 0.13456108 0.5407732 0.060806904 0.015953545 0.016742645 -0.06561066
0.09074561 -0.42666778 -0.11594646 -0.017968256 0.21198626 0.03988845 -0.14093186 0.064071655
-0.05815989 0.15114968 1.5026412e-05 -1.548753e-05 1.535939e-05 1.5851627e-05 1.4932924e-05 -1.5532763e-05
0.0723892 -0.013183687 -0.07712528 -0.18118617 -0.068330765 0.014261493 0.10664904 0.03332617
0.55653703 -0.14027126 0.016386192 -0.12815161 -0.07026444 -0.30676898 0.1948339 0.09306532
0.2566934 0.55747056 -0.13321449 -0.9017394 0.43051696 0.3363824 0.025245115 0.18080279
-0.26959288 -0.1144007 -0.10815884 0.21947205 -0.045130536 0.13668728 0.3019282 -0.13370931
-0.042421095 -0.51942337 -0.056164503 -0.12316533 0.23322693 -0.1319427 0.106086105 0.39864078
-0.19731727 0.14224465 0.37001285 0.17920366 -0.09112261 0.003939164 -0.072953805 0.047798105
-0.22743036 -0.16429536 0.083283655 0.2249218 0.053391356 -0.13118517 0.09665763 -0.07130303
0.14210708 -1.5396918e-05 1.5121674e-05 1.5378298e-05 -1.4761835e-05 1.4729819e-05 1.50588785e-05 0.06342208
0.026939051 -0.04682016 -0.18848506 -0.054258417 0.1144204 0.123140365 -0.012558095 0.47433457
-0.12749729 0.058231324 -0.11568639 -0.09729981 -0.28742227 0.26052564 0.18699537 0.14716354
0.54462403 -0.1829407 -0.85512024 0.46912345 0.19540522 0.3788758 0.4131927 -0.32122904
-0.14883722 -0.099227116 0.10947799 -0.2570665 0.06617169 0.2523841 -0.14910468 -0.017409643
-0.4893795 0.01820255 -0.1621754 0.24640247 -0.14788246 0.09762991 0.694528 -0.21658045
0.024028974 0.5939798 0.13305882 0.010104849 0.031057715 -0.065477714 0.03872906 0.08936971
-0.1765274 0.009497102 -0.03057171 0.030549621 -0.16881184 0.09075632 -0.06960187 0.1487252
-1.4770272e-05 -1.5527998e-05 1.5246548e-05 -1.504412e-05 -1.5906013e-05 -1.541117e-05 0.058022965 0.016599286
-0.08755639 -0.23208308 -0.081485465 0.08335652 0.12839064 0.008700954 0.53332096 -0.1240279
0.07238355 -0.09497355 -0.14116001 -0.3163174 0.29505765 0.10766786 0.13561945 0.61064935
-0.18453006 -0.8398375 0.50487065 0.26600397 0.10792998 0.21124066 -0.29069197 -0.17718692
-0.06472038 0.20164628 -0.11931799 0.13000633 0.102092735 -0.15086119 0.03483121 -0.3826476

transl f4 [88, 3]
00000000: b6a4 103f 09ce 833f 8641 a33f 3711 0e3f
00000010: 5de6 813f 7be0 9d3f eab9 0b3f fa27 7f3f
00000020: 4e40 983f 02a0 093f a344 7c3f a0cb 923f
00000030: 78d3 073f 469d 7a3f 82d1 8d3f c645 063f
00000040: 4a94 7b3f 5050 893f 91d1 043f 8fb8 7e3f
00000050: 4f6d 853f b035 033f 2356 813f 3dd5 813f
00000060: dfcd 013f 6a3a 833f daa4 7c3f 675c 003f
00000070: 80dc 833f 7af2 743f 0680 fc3e 7bbb 833f
00000080: b4a8 6c3f d886 f73e 84e1 823f cb52 633f
00000090: 58bd f13e 8864 813f 9e17 593f 0e60 ec3e
000000a0: 51ee 7e3f 44f9 4d3f 7c19 e73e 80df 7b3f
000000b0: c88a 423f 947f df3e 9564 7b3f 1d96 373f
000000c0: 8c04 d63e 0599 7c3f 2778 2e3f 87df cc3e
000000d0: 5c58 7e3f 581e 283f 0b13 c73e 74b7 7f3f
000000e0: dc8e 213f cd37 c03e 0551 813f 245e 1b3f
000000f0: bce1 b93e a276 823f c108 153f 4924 b43e
00000100: 6632 833f 8267 0e3f 363f ae3e ac79 833f
00000110: 0d76 073f 28de a73e 9260 833f a55c 003f
00000120: 0d50 a13e f4dd 823f 11be f13e 58e8 993e
00000130: 3520 823f 46af e23e 17f0 913e ad15 813f
00000140: 97ed d23e 19d3 883e a9ee 7e3f 834f c33e
00000150: 9e2f 7d3e 0fc5 7b3f fc1e b33e e6e2 663e
00000160: 6169 793f 0dff a23e 2f6b 523e a6cd 783f
00000170: 7019 933e 6456 3f3e 8258 7a3f 82a0 833e
00000180: 5f7d 2c3e 1695 7c3f a2a3 6a3e 24e9 1b3e
00000190: 2235 803f 2a3a 4e3e 15fe 0f3e 552d 813f
000001a0: 7f61 373e 34fe 053e 0db4 813f fad1 1f3e
000001b0: 012e fc3d fe2f 823f 7a8b 083e 6207 ea3d
000001c0: d12a 823f b84d df3d 43d4 cd3d 5ce0 813f
000001d0: 3433 ab3d 8e53 af3d 413e 813f 2aaa 683d
000001e0: a19d 8c3d e534 803f 4a55 eb3c 8609 423d
000001f0: de4b 7d3f 1b01 43bb 9984 b73c c8a9 793f
00000200: 4a28 22bd db3f 0abb be45 773f 41f6 9dbd
00000210: 36a8 f4bc 815e 783f 40e7 e4bd 1960 55bd
00000220: 215c 7a3f cc06 0cbe f4e7 8fbd e6b8 7d3f
00000230: a05f 20be ea89 adbd 0659 7f3f 66e7 33be
00000240: a9f1 cdbd 294d 813f 5f5c 49be 7454 eebd
00000250: fcb8 823f 0d95 5fbe af91 07be ebbb 833f
00000260: be82 78be cfb4 19be 2805 843f 65c2 88be
00000270: 20e9 2abe 9bd8 833f d121 96be c7d1 3ebe
00000280: a838 833f e279 a4be 388d 54be 8227 823f
00000290: 9bc8 b3be 8e2c 69be 55ae 803f 4f55 c5be
000002a0: eb7a 7cbe bbd0 7d3f f793 d8be 02a1 87be
000002b0: 8f25 7d3f 3866 ebbe fdb6 8fbe 6799 7c3f
000002c0: 026a fbbe 55f3 94be 91ef 7c3f 8053 05bf
000002d0: c2bd 97be ab7a 803f f4f4 0bbf 7634 98be
000002e0: d295 823f 7947 11bf 7f0b 99be 2716 843f
000002f0: 2d2d 16bf 2b09 9bbe 869b 843f 806f 1bbf
00000300: 08b1 9ebe 075e 843f 7024 21bf ce28 a2be
00000310: c0b3 833f f1d8 27bf ec58 a6be 4da9 823f
00000320: d4b4 2fbf 8976 a9be 0ad4 813f 1cd4 36bf
00000330: 380d adbe 54b6 803f aa88 3ebf c657 b1be
00000340: 5901 7f3f a87f 47bf e165 b7be d74c 7c3f
00000350: 8001 51bf 1d7f bdbe d604 7b3f c716 5abf
00000360: 140b c4be 074e 7c3f 2cfe 62bf 48ba c9be
00000370: 7140 7e3f 10f5 69bf 1b27 cfbe 337a 803f
00000380: 98ff 6fbf 6313 d3be 5ed6 803f 1f34 75bf
00000390: cb00 d7be d66b 823f a815 7bbf 55dd dabe
000003a0: bec1 833f d88f 80bf 2edf debe 5696 843f
000003b0: c4ce 83bf 217b e3be 11d2 843f a1f3 86bf
000003c0: 5cfc e7be 1b6f 843f 1866 8abf fce0 ebbe
000003d0: 3e1c 843f e90f 8ebf cbe7 efbe aa36 833f
000003e0: b236 92bf 29c2 f4be a9e0 813f 3850 96bf
000003f0: 37fc f9be c178 803f 3f90 9abf da43 ffbe
0.5650133 1.0297252 1.2754371 0.5549502 1.0148426 1.2334131 0.5458056 0.99670374
1.1894624 0.5375978 0.9854223 1.1468391 0.5305705 0.9789623 1.1079562 0.52450216
0.98273146 1.0727634 0.5188227 0.99500364 1.0423983 0.51253796 1.0104412 1.01432
0.5070476 1.0252202 0.98689044 0.50140995 1.0301666 0.9568249 0.49316424 1.029159
0.9244492 0.48345065 1.0225072 0.8879821 0.4721477 1.0108805 0.8480166 0.46167034
0.9958239 0.80458474 0.4513663 0.9838791 0.75993013 0.43652022 0.9820035 0.7171343
0.41800344 0.9867099 0.6815209 0.40014288 0.99353576 0.656713 0.38881716 0.998893
0.6310861 0.37542573 1.010285 0.6069052 0.36305034 1.0192454 0.5821648 0.35183933
1.0249755 0.5562669 0.340326 1.0271506 0.52914506 0.3278668 1.0263846 0.50141364
0.31506386 1.0223985 0.47215322 0.30060077 1.0166079 0.44274348 0.28503487 1.008474
0.41196892 0.26723555 0.99582916 0.381466 0.24725196 0.9834756 0.34984577 0.22547492
0.9742642 0.31835213 0.205487 0.97188795 0.28730345 0.18685299 0.977913 0.25708395
0.168447 0.9866499 0.22913983 0.15225655 1.0016215 0.20139375 0.14061768 1.0091959
0.17908286 0.13085252 1.0133072 0.15607443 0.12313462 1.0170896 0.13334456 0.114271894
1.0169317 0.109034956 0.10050251 1.0146594 0.083593756 0.08560859 1.0097123 0.056802906
0.06866003 1.0016142 0.028727192 0.047372364 0.9894389 -0.0029755298 0.022402095 0.9752469
-0.039589204 -0.002109519 0.96590793 -0.07712985 -0.029865365 0.970192 -0.1117692 -0.0520936
0.9779683 -0.13674468 -0.070266634 0.9911026 -0.15661478 -0.08473571 0.99745214 -0.1756874
-0.10055859 1.0101672 -0.19664143 -0.11637202 1.0212703 -0.21834202 -0.13239168 1.0291723
-0.24268624 -0.15010379 1.0314074 -0.2671081 -0.16690493 1.0300478 -0.29322675 -0.18634711
1.0251665 -0.3212424 -0.20756996 1.0168307 -0.35113987 -0.22770903 1.0053202 -0.38541648
-0.24656264 0.9914662 -0.42300388 -0.26490027 0.98885435 -0.45976424 -0.28069296 0.98671573
-0.49104315 -0.29091898 0.9880305 -0.52080536 -0.2963696 1.0037435 -0.54670644 -0.29727525
1.0201972 -0.56749684 -0.29891583 1.031926 -0.5866268 -0.30280432 1.0359962 -0.6071701
-0.3099444 1.0341195 -0.62946224 -0.31671757 1.028923 -0.655654 -0.32489717 1.0207916
-0.68635297 -0.33098248 1.0142834 -0.71417403 -0.33799148 1.0055642 -0.7442728 -0.34637278
0.9961143 -0.7792916 -0.35819915 0.9855475 -0.81642914 -0.37011042 0.98054254 -0.85191005
-0.38289702 0.9855656 -0.88669086 -0.39399934 0.9931708 -0.9138956 -0.40459523 1.0037292
-0.9374938 -0.41225728 1.006542 -0.95782655 -0.41992792 1.0189159 -0.9807992 -0.42746988
1.02935 -1.0043898 -0.43529648 1.0358379 -1.0297475 -0.44429877 1.0376607 -1.05431
-0.45309722 1.0346407 -1.0812407 -0.46070087 1.0321119 -1.1098605 -0.46856532 1.0251057
-1.1422942 -0.47804382 1.0146686 -1.1743231 -0.48825237 1.0036851 -1.207527 -0.49856454

left_hand_pose f4 [88, 12]
00000000: e587 dcbe 0c0e d73e db27 723e bed2 f23e
00000010: a099 863e f9c1 edbe c1ea 5dbe 4c15 ef3d
00000020: 2a33 1fbf 95a5 51bf a0bd d33e 6f22 4fbf
00000030: b48d c3be a969 c63e 3e5c 793e 3d60 163f
00000040: b660 c63d 55ec e5be aecf bcbd 84eb 763e
00000050: 6af0 1fbf 1835 43bf ac78 113f 858f 14bf
00000060: 9d37 95be 454f e63e 4a38 8f3e e813 0d3f
00000070: fd59 f2bd 8b5a 1bbf 644c eb3c 9993 b63d
00000080: 3a0f 2abf 3e15 64bf bc43 6e3f 4fd3 eabe
00000090: f8b8 a1be ce3e eb3e 3c25 8d3e 2bde 1f3f
000000a0: 8546 14bd cd17 16bf 8779 abbd f452 533e
000000b0: bafd 1dbf 905c 5abf 1b0b 143f c1e2 e1be
000000c0: 4954 58be 0d4f b03e 58e6 9f3e 5276 203f
000000d0: 352d 38be 5e33 15bf d5e3 96bb 15c9 103e
000000e0: ee85 22bf 9c2c 60bf d04e 4d3f 5ee8 dbbe
000000f0: ae41 abbe 6582 bc3e 8f73 823e 92e3 333f
00000100: a041 b73d 8e2c f7be b793 8dbd b719 143e
00000110: 9f41 47bf 0ce6 51bf a192 0e3f 2f87 e2be
00000120: 4c48 afbe 9e63 9a3e aca1 523e f39f 2b3f
00000130: 9d47 b4bb 60f4 16bf af30 a33d 4054 543c
00000140: b2f7 2ebf 411a 6ebf de8e 4f3f d391 bbbe
00000150: f775 a3be b176 d53e 049f 843e b2a4 ed3e
00000160: e33e 05be 6d7e cfbe c455 23bd 5104 0b3e
00000170: 6fa7 16bf 935f 49bf bde7 143f 87a3 0cbf
00000180: 4506 8abe 77a6 b83e edee e83e a8ac 0c3f
00000190: 8326 94be 9824 94be 370c 58be 0055 413e
000001a0: 433f d0be ad6d 2cbf 46f1 213f adb9 0dbf
000001b0: 79b4 96be 49a1 e53e 148b da3e ee80 0a3f
000001c0: 1022 75be d588 a4be b85e c9be 3da5 923e
000001d0: 009e b6be 63d9 1ebf 1014 b63d 90be b5be
000001e0: c72a 6fbe 3feb d43e d4dd 063f fcda 123f
000001f0: e61f 8abe e5ea b0be e77b a8be 41d8 bc3e
00000200: 9282 e8be dc3d 0ebf dca0 b53e 56df 98be
00000210: fe66 f1bd de9a ee3e e353 e23e 6e8c 163f
00000220: de78 99be 7095 dabe 4c32 c6be 5af5 e33e
00000230: f562 2abf 34a5 10bf c6df 9b3e 6e09 bebe
00000240: bd30 95bc 9bd2 cc3e d9b9 073f b329 3a3f
00000250: a462 b9be 81ae 08bf 5417 f7be b5a0 263e
00000260: 3b96 c2be fd5e 18bf 249e e73e 1d85 17bf
00000270: 2e7d 023e c6d8 a73e 526e cd3e 6da1 0c3f
00000280: 4aa4 a2be 94eb bdbe db06 8abe 32d2 17be
00000290: ae7e 16bf 4a2b 51bf 8818 4f3f 2a26 83bf
000002a0: b5ef 453e f3a8 d03e cab3 c53e e0e5 f03e
000002b0: 3fe7 7dbe ddf0 c3be f1fb 73be 6ba2 70be
000002c0: ab52 1ebf e7a8 63bf ca3f 543f c20c b4bf
000002d0: 725d fa3d 1718 da3e 5a09 923e 68ca a03e
000002e0: e05e 0ebe f983 dbbe da22 ebbd 44e7 16bf
000002f0: e2ae 1ebf 8999 8cbf 7379 903f ca34 f0bf
00000300: b4c1 f63b 3036 d03e d852 c13e f2c7 a83e
00000310: 04a6 4d3e 1888 6e3e 7e99 f3be d86c 043e
00000320: 0781 37bf 42e4 7ebf a219 593f ef93 00c0
00000330: f879 d83d 6feb b73e add0 9c3e 92cd db3e
00000340: afa6 25bd 85f3 b4be 14b8 a8be 8496 25bf
00000350: 2ead 21bf 5312 8cbf f874 6a3f 615b f2bf
00000360: 1725 1e3e e700 ab3e 3c6c a13e 524b f53e
00000370: fd5f edbb 26f4 7ebe 4f16 26be 4834 12bf
00000380: efb1 b7be 4a75 73bf 0bf3 483f 8523 f1bf
00000390: d508 3e3e 6125 d23e 616d 8e3e c69e 073f
000003a0: 5662 96bd 51c4 bebe 40ab 12be 06ee edbe
000003b0: ac37 d7be e14b 71bf fcc1 593f 1e8d e1bf
000003c0: 9902 113e 63db fa3e 962f 933e 44cb 023f
000003d0: c4de 0ebe 194a adbe fc12 27be ed59 bebe
000003e0: 1735 f3be ef2f 59bf c35f 573f 6a41 d0bf
000003f0: fa43 593e c651 053f a4c4 a43e 2169 063f
-0.4307243 0.42002904 0.23648016 0.4742641 0.26289082 -0.46437052 -0.21671583 0.11673984
-0.62187445 -0.81893283 0.4135561 -0.80911916 -0.38194048 0.38752487 0.24351594 0.587406
0.09686415 -0.4490687 -0.09219299 0.2411328 -0.6247622 -0.7625289 0.56824756 -0.58031493
-0.29143992 0.44982353 0.27972633 0.551085 -0.1183357 -0.6068503 0.02872295 0.08914871
-0.66429484 -0.89094913 0.93072104 -0.4586434 -0.31586432 0.45946354 0.2756747 0.62448376
-0.036200065 -0.5863007 -0.08372789 0.20637113 -0.6171528 -0.8529749 0.57829446 -0.44118312
-0.21125902 0.3443531 0.31230426 0.6268054 -0.17985995 -0.58281505 -0.0046047964 0.14139207
-0.6348561 -0.8756807 0.80198383 -0.4295072 -0.33448547 0.36818233 0.2547879 0.7026912
0.08948064 -0.4827618 -0.0691294 0.14462934 -0.77834505 -0.8199165 0.5569249 -0.44243762
-0.34234846 0.30154127 0.20569485 0.6704094 -0.005501701 -0.58966637 0.0796827 0.01295954
-0.68346703 -0.9300881 0.81077373 -0.36634693 -0.31925938 0.41692117 0.2590257 0.46414715
-0.1301227 -0.40526143 -0.039876714 0.13575865 -0.58849233 -0.7866146 0.58166105 -0.5493702
-0.26957908 0.36064503 0.45494786 0.5495095 -0.28935632 -0.2893417 -0.2109841 0.18880081
-0.40673265 -0.6735485 0.6325878 -0.55361444 -0.29434565 0.44849613 0.42684233 0.5410298
-0.23938775 -0.32135645 -0.39330077 0.28641692 -0.3566742 -0.62050456 0.08890545 -0.3549695
-0.23356162 0.4158573 0.5268223 0.57365394 -0.26977462 -0.3455421 -0.3290703 0.3688374
-0.45412117 -0.5556314 0.35474288 -0.29857892 -0.11787222 0.4660253 0.44204625 0.5880803
-0.29975027 -0.42692137 -0.38710248 0.44523126 -0.66557246 -0.5650208 0.30444163 -0.3711657
-0.018211717 0.4000443 0.53017956 0.7271988 -0.3620807 -0.5339127 -0.48259985 0.16272242
-0.38005242 -0.5951994 0.4523784 -0.5918749 0.12743065 0.32782573 0.4012323 0.54933816
-0.31765968 -0.37093794 -0.26958355 -0.14826277 -0.5878705 -0.8170668 0.80896807 -1.0246022
0.19329722 0.40753898 0.3861373 0.4705038 -0.24795245 -0.38269702 -0.23826577 -0.23499458
-0.6184489 -0.889296 0.82909834 -1.4066393 0.122248545 0.42596504 0.2852276 0.31404424
-0.1390338 -0.42874125 -0.11481257 -0.58946633 -0.619856 -1.0984355 1.1287063 -1.876611
0.0075304154 0.40666342 0.37758517 0.32965046 0.20082861 0.23294103 -0.47578043 0.12932146
-0.71681255 -0.99567044 0.8480474 -2.0090292 0.10570139 0.3592181 0.30627957 0.42930275
-0.040442165 -0.3534204 -0.3295294 -0.64682794 -0.63154876 -1.0943092 0.9158473 -1.8934137
0.15443836 0.33399126 0.3152789 0.47909027 -0.0072441087 -0.24897823 -0.16219448 -0.57111025
-0.3587794 -0.95100844 0.78495854 -1.8838965 0.18558057 0.41044143 0.27817824 0.52976644
-0.07342975 -0.37259153 -0.14323139 -0.4647066 -0.42034662 -0.9425641 0.8506162 -1.762119
0.14161147 0.48995504 0.28747243 0.5109141 -0.13952166 -0.33845595 -0.16315836 -0.37177983
-0.47501442 -0.84838766 0.84130496 -1.6269963 0.21217337 0.520779 0.32181275 0.52504164

right_hand_pose f4 [88, 12]
00000000: 39c3 de3e 6d3c 5c3e ee83 333e fb09 933e
00000010: b434 a4bd 880f 19bf 3b50 8cbc 6489 bbbe
00000020: a19d b4be 7602 9bbf d38b d43e e58f f4bf
00000030: aa72 f23e e7bf 773e 6815 9f3c fb59 053e
00000040: e111 4dbd bf9d b1be b69d 723e 66a1 2bbf
00000050: 5562 9fbe 937f aabf 8dea 403f 6d82 11c0
00000060: 9728 1b3f dd91 c83e a4e2 8f3c dcdd 0f3e
00000070: 0a9f 6dbf 6608 be3d 8004 df3e 85b6 52bf
00000080: 9d5a 93be d08f a6bf 3216 113f 2c52 f4bf
00000090: 63af 303f 2626 863e 2c64 ad3d eb96 b63e
000000a0: 91bd 44be 80be 57be bcd9 0b3e a054 79bf
000000b0: c125 b3be 88c9 c1bf a7f4 763f 2179 1cc0
000000c0: 574f 303f cbb6 943e dff7 b93d b6db fe3e
000000d0: bdcc 30be e4d1 bbbe 051f 033e 657f 65bf
000000e0: 15a7 abbe 9abc c1bf 51bb 923f 738b 21c0
000000f0: e221 113f 8591 bd3e 62f6 84bd 0e6d e33d
00000100: f315 81bf 9a8c 173f 5f37 3a3f 7a9c 85bf
00000110: 40f8 783e 3b93 9ebf 26a8 da3e 77e8 11c0
00000120: 6b30 243f 7f7b 8a3e 4027 dfba fc7a 0c3f
00000130: f827 9fbc 8c4f 35be 6c33 c1bd ff69 18bf
00000140: c70e b3be cf29 a9bf 1152 d13e 9c89 10c0
00000150: c6dd 0b3f c4cc c83e ac95 15bd 0755 f73e
00000160: 02e0 03be 08dc b3bd 1710 84bd 89a3 d0be
00000170: 81e0 e7be 67d4 84bf 0a21 003f 0003 f4bf
00000180: c467 fb3e 9a77 db3e a4ea 9e3d f390 163f
00000190: 71be a2be ba7d 49be f71e aebd e488 97be
000001a0: 85bc 0bbf 6b40 79bf 47ef 173f 5cf6 e5bf
000001b0: a517 ca3e 06ba 063f ccf2 d43d a29e 2e3f
000001c0: d58a debe 144f e3be 9da5 17bd ccca 30be
000001d0: 1ec6 14bf 5f5a 5abf 9f3c 593f 3ced c9bf
000001e0: 58c4 4f3e ccca d63e af67 113e c675 153f
000001f0: e4e4 8abd 26fd 05bf 4c04 bfbd 0736 f0be
00000200: 0070 ecbe b60a 8fbf 5cc4 443f ee2c dbbf
00000210: 9d17 723e b6da cb3e 8da1 643e 0c90 323f
00000220: 2a5d c9bd ecdc 11bf 4a88 35be 2a7e a3be
00000230: cf5a eabe b81d 85bf 75d6 0f3f c922 bcbf
00000240: 49d4 943e ea36 8f3e 5457 5a3e 54d5 fd3e
00000250: fa08 303e 1eba 0abf 6898 2dbe ab2c a8be
00000260: daa9 afbe 93fd 88bf 614f 133f 621f cdbf
00000270: edf2 be3e 8943 293e 90c5 913e 275f 183f
00000280: db95 323e 35fc 1dbf b8ac 2dbe 43f8 f7be
00000290: dc70 4abe 82af 95bf fd09 2a3f 899c dcbf
000002a0: f645 003f c10f 163e ca03 a93e a83e 143f
000002b0: 30ca 473e 901f 03bf a7d9 12be 97c9 e2be
000002c0: 87cd 263c 689f 8cbf cc87 043f c4bc f4bf
000002d0: 7942 0f3f 345a 0d3e 8cb9 903e 2e97 1a3f
000002e0: dec0 803e c09e 1bbf f7c8 fabd 4488 e9be
000002f0: 92e1 a73d 05b8 88bf bede ec3e 8dc4 f8bf
00000300: 217e 1f3f 9a22 413e 8618 7b3e 4f0b 273f
00000310: 054f 623e 70a3 15bf d34c 0fbe 14ef afbe
00000320: f41d 78bd 856c 80bf bf5b f73e 360f febf
00000330: 9f25 1b3f a9f2 8b3e f0e7 953e 810c 293f
00000340: 0359 713e bea2 fdbe fbc3 31be 450f c7be
00000350: dbba e0bd 2be9 83bf 3524 d13e f41d 06c0
00000360: be3d 123f ae35 7d3e 9418 9c3e a4e0 2e3f
00000370: 8980 543e 3b8f f2be 268c 50be b719 a6be
00000380: fc43 623d 3f29 68bf fdf9 cc3e 70d4 f3bf
00000390: 89cd c63e 1cf2 a53e eef2 653e 2baa 303f
000003a0: a53f a03e 3fe1 29bf 3773 14be bedf afbe
000003b0: 425e a6bb a816 8abf ff2c e23e f278 e9bf
000003c0: 7ffd 843e 000d 903e 3af8 5e3e 5045 453f
000003d0: 86ed 3d3e cfc2 1fbf 8045 febd d6e5 78be
000003e0: 2046 b7bd ddfa 6fbf 9e14 db3e 14a6 babf
000003f0: 6755 f03d 19cb b53e b3a9 633e 5129 483f
0.43508318 0.21507426 0.17530796 0.28718552 -0.08017865 -0.59789324 -0.0171281 -0.36628258
-0.3527651 -1.2110126 0.41512927 -1.9106413 0.47353107 0.24194299 0.019419387 0.13022606
-0.05006588 -0.34690663 0.23692974 -0.6704315 -0.3112971 -1.3320183 0.75357896 -2.2735856
0.6060881 0.39173785 0.017564125 0.14049476 -0.928208 0.092789456 0.4355812 -0.8230975
-0.2878007 -1.3012638 0.5667449 -1.9087577 0.6901762 0.2620098 0.08466372 0.35662016
-0.19212939 -0.21068764 0.13657278 -0.9739475 -0.3498974 -1.5139627 0.9646706 -2.4448931
0.68871063 0.2904571 0.09080481 0.49777 -0.17265601 -0.3668357 0.12804802 -0.89647514
-0.3352591 -1.5135682 1.1463414 -2.5241363 0.56692326 0.37025085 -0.06492306 0.11104785
-1.0084823 0.59198916 0.7274074 -1.0438378 0.2431345 -1.2388681 0.42706412 -2.2798135
0.6413638 0.27047345 -0.0017025247 0.5487516 -0.019428238 -0.17706126 -0.09433636 -0.5953674
-0.34972212 -1.3215884 0.40882924 -2.258399 0.54635274 0.39218724 -0.03651969 0.48307058
-0.12878421 -0.08782202 -0.064483814 -0.40749767 -0.4528847 -1.037732 0.50050414 -1.9063416
0.49102604 0.42864686 0.07759598 0.58814925 -0.3178592 -0.19676867 -0.08502 -0.29596627
-0.5458453 -0.9736392 0.59349483 -1.7965808 0.39471164 0.526276 0.10397872 0.68210804
-0.43465295 -0.4439627 -0.037023176 -0.17264861 -0.581148 -0.85294145 0.84858125 -1.5775523
0.20289743 0.41951597 0.14199708 0.58382833 -0.06781939 -0.523394 -0.093269914 -0.4691622
-0.461792 -1.1175144 0.7686212 -1.7123086 0.2364182 0.398153 0.22327252 0.6975105
-0.09832223 -0.56977725 -0.17727771 -0.31932193 -0.45772406 -1.0399694 0.5618661 -1.4698116
0.2906821 0.27971584 0.21322376 0.4957682 0.17190924 -0.5419024 -0.1695267 -0.3284658
-0.34309274 -1.0702385 0.57543 -1.6025202 0.37294713 0.16529669 0.2847104 0.5952019
0.17439978 -0.6171296 -0.16960418 -0.48431596 -0.19769615 -1.1694186 0.6642149 -1.7235271
0.5010675 0.14654447 0.33010703 0.57908106 0.19510722 -0.51220036 -0.1434084 -0.44294426
0.0101808375 -1.0986147 0.5176971 -1.9120107 0.55960804 0.13803941 0.2826656 0.6038693
0.25147146 -0.6078911 -0.12245362 -0.45611775 0.08197321 -1.0681158 0.4626369 -1.9434983
0.6230183 0.18860856 0.24521074 0.6525163 0.22100456 -0.5845251 -0.1399415 -0.3436209
-0.06057544 -1.0033118 0.48312184 -1.9848392 0.6060428 0.27333573 0.29278517 0.66034704
0.23569112 -0.49538225 -0.17359917 -0.38878837 -0.1097314 -1.0305532 0.40847936 -2.0955782
0.5712546 0.24727508 0.30487502 0.68311524 0.20752157 -0.473749 -0.20365962 -0.32441494
0.055240616 -0.90687937 0.40034476 -1.9049206 0.38828686 0.32411277 0.22455952 0.69009656
0.31298557 -0.66359323 -0.14497076 -0.3435039 -0.0050771544 -1.0788164 0.44174954 -1.8240035
0.25974652 0.28134918 0.21774378 0.7705889 0.18547639 -0.6240663 -0.124156 -0.24306425
-0.08948922 -0.9374216 0.42789167 -1.4581933 0.11735039 0.35506514 0.22232704 0.78188044

jaw_pose f4 [88, 3]
00000000: 64b5 2d3e 3a05 02bc 82ee 40bb 0a64 443e
00000010: 2c4a cbbb 7c3c 29bb 5287 413e 514e b2bb
00000020: 1d9f f9ba 3337 463e fdaf 8ebb ad48 f2ba
00000030: f04c 2b3e 0257 b4bb 3bb4 0bbb fb29 1b3e
00000040: 9568 87bb a527 bdba 8f5d 1d3e 78a3 43bb
00000050: 5d6b aaba 4cdf 093e 23ff b8bb 399f 29bb
00000060: f6e4 113e dbbe e1bb ea15 5abb acea 183e
00000070: 066b 98bb 5a24 08bb f47a 0b3e af8f 8cbb
00000080: 2f36 a2ba 5ba5 0b3e 48e9 62bb 687a 91ba
00000090: f531 073e ccc6 faba 5cfa 9fb9 2ccc 093e
000000a0: 17f9 5bbb 5e10 0eba ed7b fd3d 708a ddba
000000b0: 7359 03b9 6647 0b3e 56e2 33bb 0d13 47ba
000000c0: 3a56 203e a74b 34bb 4e1d 29ba 610b 1f3e
000000d0: 5b12 25bb b122 26ba 6ff3 0c3e 8819 7cbb
000000e0: fb0d acba a381 1c3e e654 edbb 2b1d 6fbb
000000f0: 8df7 063e 550d cbbb a7e4 07bb 35cb 1a3e
00000100: 2c76 06bc ac11 8dbb 3e96 113e 773f f6bb
00000110: 3f8c 7fbb a3bf 233e 9684 b6bb de28 09bb
00000120: 9e2c 073e 778f 7fbb cfe3 fdba 3048 f33d
00000130: 7a87 24bb 8829 4eba a058 f63d c15d 48ba
00000140: 05e6 deb7 2b12 e83d a1d4 a2bb 4c60 94ba
00000150: d328 0a3e 02ab 64bb e06c 51ba 5089 043e
00000160: a649 92bb 78b0 02ba 3c65 143e 2115 aebb
00000170: 2702 50ba 6878 1a3e 3c2f c4bb f791 efba
00000180: c06d 1f3e add5 c8bb f3a3 c2ba d28b 1b3e
00000190: 36f2 43bb a64c 3dba c56d 113e 7262 adbb
000001a0: c20e 9aba 2c48 fe3d 6f9c 8739 da78 273a
000001b0: 1a86 f13d 6508 1bba 5025 7939 36df e53d
000001c0: cc93 893a db22 483a 0f5e fe3d be6d 393a
000001d0: f2f3 873a b1d6 023e fc2b 0c3b 9bfb f83a
000001e0: 6ec3 103e e097 62ba ce92 043a c869 0e3e
000001f0: da93 98ba 2f0b 3337 c729 0c3e 7d2c 5dba
00000200: aab5 ac39 f43a 233e 17a5 a13a 91ee bb3a
00000210: fa79 243e 65c7 063a b35f 793a 16c9 0f3e
00000220: 86de a4ba 82ec 1439 422c 1a3e bffd 41bb
00000230: 70f8 98ba f587 f63d bd68 3abb 9c5e a1ba
00000240: 357b 0c3e d76d a4ba 7f4c 12ba 27fc 033e
00000250: 78af 93bb 7c9d aeba 8504 ec3d b661 5dbb
00000260: 4cc5 c7ba ea81 a53d 3a58 3dbb a75d 60ba
00000270: 984c 983d 1ea9 52bb bd3d baba 17df c13d
00000280: b546 2cbb a3ee 66ba 25a6 ca3d 1c33 483a
00000290: 41d8 133a 3df7 d33d f266 1fba 6e5d 9539
000002a0: 03e5 cc3d c292 1cbb c370 3eba a0e3 da3d
000002b0: 54d9 32bb 16be 94ba 4b34 053e d648 afbb
000002c0: da87 dcba 139d da3d 114a 6abb e14f c5ba
000002d0: 66cd bf3d 14be 96bb a408 99ba 11f7 dd3d
000002e0: 25e0 daba d10f a9b9 4402 ff3d 2827 de39
000002f0: 8f70 b239 23cc fa3d 9461 bab9 6918 013a
00000300: 0a29 b33d 6a4f c23a 7b96 c83a 24dc a33d
00000310: fb7b 463b 02c4 083b 7b02 be3d 1071 263b
00000320: b8fa db3a 0166 993d 35c7 b63a e608 bc3a
00000330: 38a0 bb3d 9151 4e3b 9492 0e3b 6020 d53d
00000340: 2030 193b bfd6 cf3a 5ba5 a13d 0ebb 183a
00000350: eb01 2d3a 732b ab3d 1ae4 e5ba cf6f 9db9
00000360: 744b ca3d e46d 9bbb 09a6 b1ba 1bf3 093e
00000370: df2b c4bb ce2b 32bb af72 043e 6b95 c3bb
00000380: 8dd3 fdba eabc dd3d db44 c8bb a803 fdba
00000390: 5b13 8b3d 7b0d edbb 94c9 76bb d7f4 b03d
000003a0: 8655 a1bb d873 e3ba e2f5 b73d 0290 a7bb
000003b0: 7c5f c2ba 24f1 b23d 4f59 77bb 51e5 e1ba
000003c0: 1c4f d53d aece 67bb 2d3d ddba e339 bb3d
000003d0: ce08 1ebb bdb5 8eba 2f75 813d 375d 8dba
000003e0: 04ea 84b9 b236 8b3d a1d7 22bb 24ac 3aba
000003f0: 5663 053d c269 caba dfc9 13ba dc29 413d
0.16963726 -0.007935816 -0.0029439037 0.19178787 -0.0062039103 -0.0025823405 0.18899277 -0.005441465
-0.0019044612 0.19356994 -0.0043544755 -0.0018484794 0.16728568 -0.005503536 -0.0021317143 0.15152733
-0.00413234 -0.0014431371 0.15367721 -0.0029852074 -0.0013001967 0.13464087 -0.005645649 -0.0025882258
0.14247498 -0.006889207 -0.0033277222 0.1493327 -0.00465143 -0.002077362 0.13621122 -0.0042895894
-0.0012375767 0.13637297 -0.003462391 -0.0011099102 0.13202651 -0.0019132732 -0.00030513376 0.13456792
-0.0033565217 -0.0005419309 0.123771526 -0.001690222 -0.00012526456 0.13601455 -0.002744814 -0.00075940863
0.15657893 -0.0027510913 -0.0006451205 0.15531684 -0.0025187943 -0.0006337567 0.13764738 -0.0038467366
-0.0013126725 0.15283827 -0.0072427867 -0.0036485891 0.1318037 -0.0061966577 -0.0020735653 0.1511658
-0.008206885 -0.004305085 0.14217469 -0.00751489 -0.0038993505 0.15991072 -0.0055700047 -0.00209289
0.13200614 -0.0038995424 -0.001937026 0.11879003 -0.0025105164 -0.0007864465 0.120286226 -0.0007643365
-2.6571573e-05 0.1133159 -0.004969195 -0.0011320203 0.13492136 -0.0034891968 -0.0007988941 0.12943006
-0.004464346 -0.00049854023 0.14491743 -0.0053125774 -0.0007934891 0.15084994 -0.005987076 -0.0018277754
0.1556921 -0.0061289878 -0.0014849886 0.15190056 -0.0029899008 -0.00072211993 0.1420203 -0.0052912766
-0.0011753666 0.124161094 0.0002586576 0.0006388553 0.11793156 -0.00059140316 0.0002376039 0.11224215
0.0010496317 0.00076345884 0.12420284 0.0007073543 0.0010372384 0.12777211 0.0021388521 0.0018995883
0.1413705 -0.0008643847 0.0005057276 0.1390754 -0.0011640743 1.0671835e-05 0.13687812 -0.000843711
0.00032941747 0.15940458 0.0012332526 0.0014338066 0.16062155 0.00051414064 0.00095128565 0.14041552
-0.0012578524 0.00014202486 0.15055946 -0.0029600707 -0.001167072 0.120376505 -0.0028443777 -0.0012311521
0.13718875 -0.0012544942 -0.0005580857 0.12889157 -0.0045070015 -0.001332208 0.115242995 -0.0033780164
-0.0015241294 0.0808142 -0.0028891698 -0.0008558877 0.07436484 -0.0032144259 -0.0014209073 0.09466379
-0.0026287262 -0.00088093634 0.09894971 0.00076370104 0.00056398293 0.10349891 -0.00060807087 0.00028489105
0.10004618 -0.0023891185 -0.00072647276 0.10687947 -0.0027290182 -0.0011348154 0.1300823 -0.005349259
-0.0016825155 0.10674491 -0.0035749713 -0.0015053713 0.093653485 -0.004600296 -0.0011675549 0.1083814
-0.001669888 -0.00032245976 0.12451604 0.00042372313 0.00034034668 0.12245967 -0.00035549386 0.0004924597
0.08748062 0.0014824693 0.0015303636 0.08000973 0.00302863 0.0020868783 0.09277817 0.002539698
0.0016783094 0.07490159 0.0013944866 0.0014345914 0.09161419 0.0031481723 0.0021754848 0.10406566
0.0023374632 0.0015856846 0.07892867 0.0005826213 0.0006599712 0.08357897 -0.0017539293 -0.00030028677
0.09877673 -0.0047433246 -0.0013553511 0.13471644 -0.005986675 -0.0027186754 0.12934373 -0.0059687397
-0.0019365415 0.10827048 -0.006111724 -0.0019303458 0.06790801 -0.007234273 -0.003765677 0.086404495
-0.0049235253 -0.001735325 0.08982445 -0.0051136026 -0.0014829482 0.087374 -0.003774244 -0.0017234479
0.104154795 -0.0035370993 -0.0016879194 0.091419004 -0.0024114135 -0.0010887902 0.06321179 -0.0010785226
-0.00025351357 0.06797542 -0.0024847763 -0.0007120988 0.032565437 -0.0015442895 -0.0005637686 0.04715906

leye_pose f4 [88, 3]
00000000: 0000 0000 0000 0000 0000 0000 0000 0000
00000010: 0000 0000 0000 0000 0000 0000 0000 0000
00000020: 0000 0000 0000 0000 0000 0000 0000 0000
00000030: 0000 0000 0000 0000 0000 0000 0000 0000
00000040: 0000 0000 0000 0000 0000 0000 0000 0000
00000050: 0000 0000 0000 0000 0000 0000 0000 0000
00000060: 0000 0000 0000 0000 0000 0000 0000 0000
00000070: 0000 0000 0000 0000 0000 0000 0000 0000
00000080: 0000 0000 0000 0000 0000 0000 0000 0000
00000090: 0000 0000 0000 0000 0000 0000 0000 0000
000000a0: 0000 0000 0000 0000 0000 0000 0000 0000
000000b0: 0000 0000 0000 0000 0000 0000 0000 0000
000000c0: 0000 0000 0000 0000 0000 0000 0000 0000
000000d0: 0000 0000 0000 0000 0000 0000 0000 0000
000000e0: 0000 0000 0000 0000 0000 0000 0000 0000
000000f0: 0000 0000 0000 0000 0000 0000 0000 0000
00000100: 0000 0000 0000 0000 0000 0000 0000 0000
00000110: 0000 0000 0000 0000 0000 0000 0000 0000
00000120: 0000 0000 0000 0000 0000 0000 0000 0000
00000130: 0000 0000 0000 0000 0000 0000 0000 0000
00000140: 0000 0000 0000 0000 0000 0000 0000 0000
00000150: 0000 0000 0000 0000 0000 0000 0000 0000
00000160: 0000 0000 0000 0000 0000 0000 0000 0000
00000170: 0000 0000 0000 0000 0000 0000 0000 0000
00000180: 0000 0000 0000 0000 0000 0000 0000 0000
00000190: 0000 0000 0000 0000 0000 0000 0000 0000
000001a0: 0000 0000 0000 0000 0000 0000 0000 0000
000001b0: 0000 0000 0000 0000 0000 0000 0000 0000
000001c0: 0000 0000 0000 0000 0000 0000 0000 0000
000001d0: 0000 0000 0000 0000 0000 0000 0000 0000
000001e0: 0000 0000 0000 0000 0000 0000 0000 0000
000001f0: 0000 0000 0000 0000 0000 0000 0000 0000
00000200: 0000 0000 0000 0000 0000 0000 0000 0000
00000210: 0000 0000 0000 0000 0000 0000 0000 0000
00000220: 0000 0000 0000 0000 0000 0000 0000 0000
00000230: 0000 0000 0000 0000 0000 0000 0000 0000
00000240: 0000 0000 0000 0000 0000 0000 0000 0000
00000250: 0000 0000 0000 0000 0000 0000 0000 0000
00000260: 0000 0000 0000 0000 0000 0000 0000 0000
00000270: 0000 0000 0000 0000 0000 0000 0000 0000
00000280: 0000 0000 0000 0000 0000 0000 0000 0000
00000290: 0000 0000 0000 0000 0000 0000 0000 0000
000002a0: 0000 0000 0000 0000 0000 0000 0000 0000
000002b0: 0000 0000 0000 0000 0000 0000 0000 0000
000002c0: 0000 0000 0000 0000 0000 0000 0000 0000
000002d0: 0000 0000 0000 0000 0000 0000 0000 0000
000002e0: 0000 0000 0000 0000 0000 0000 0000 0000
000002f0: 0000 0000 0000 0000 0000 0000 0000 0000
00000300: 0000 0000 0000 0000 0000 0000 0000 0000
00000310: 0000 0000 0000 0000 0000 0000 0000 0000
00000320: 0000 0000 0000 0000 0000 0000 0000 0000
00000330: 0000 0000 0000 0000 0000 0000 0000 0000
00000340: 0000 0000 0000 0000 0000 0000 0000 0000
00000350: 0000 0000 0000 0000 0000 0000 0000 0000
00000360: 0000 0000 0000 0000 0000 0000 0000 0000
00000370: 0000 0000 0000 0000 0000 0000 0000 0000
00000380: 0000 0000 0000 0000 0000 0000 0000 0000
00000390: 0000 0000 0000 0000 0000 0000 0000 0000
000003a0: 0000 0000 0000 0000 0000 0000 0000 0000
000003b0: 0000 0000 0000 0000 0000 0000 0000 0000
000003c0: 0000 0000 0000 0000 0000 0000 0000 0000
000003d0: 0000 0000 0000 0000 0000 0000 0000 0000
000003e0: 0000 0000 0000 0000 0000 0000 0000 0000
000003f0: 0000 0000 0000 0000 0000 0000 0000 0000
0.0 0.0 0.0 0.0 0.0 0.0 0.0 0.0
0.0 0.0 0.0 0.0 0.0 0.0 0.0 0.0
0.0 0.0 0.0 0.0 0.0 0.0 0.0 0.0
0.0 0.0 0.0 0.0 0.0 0.0 0.0 0.0
0.0 0.0 0.0 0.0 0.0 0.0 0.0 0.0
0.0 0.0 0.0 0.0 0.0 0.0 0.0 0.0
0.0 0.0 0.0 0.0 0.0 0.0 0.0 0.0
0.0 0.0 0.0 0.0 0.0 0.0 0.0 0.0
0.0 0.0 0.0 0.0 0.0 0.0 0.0 0.0
0.0 0.0 0.0 0.0 0.0 0.0 0.0 0.0
0.0 0.0 0.0 0.0 0.0 0.0 0.0 0.0
0.0 0.0 0.0 0.0 0.0 0.0 0.0 0.0
0.0 0.0 0.0 0.0 0.0 0.0 0.0 0.0
0.0 0.0 0.0 0.0 0.0 0.0 0.0 0.0
0.0 0.0 0.0 0.0 0.0 0.0 0.0 0.0
0.0 0.0 0.0 0.0 0.0 0.0 0.0 0.0
0.0 0.0 0.0 0.0 0.0 0.0 0.0 0.0
0.0 0.0 0.0 0.0 0.0 0.0 0.0 0.0
0.0 0.0 0.0 0.0 0.0 0.0 0.0 0.0
0.0 0.0 0.0 0.0 0.0 0.0 0.0 0.0
0.0 0.0 0.0 0.0 0.0 0.0 0.0 0.0
0.0 0.0 0.0 0.0 0.0 0.0 0.0 0.0
0.0 0.0 0.0 0.0 0.0 0.0 0.0 0.0
0.0 0.0 0.0 0.0 0.0 0.0 0.0 0.0
0.0 0.0 0.0 0.0 0.0 0.0 0.0 0.0
0.0 0.0 0.0 0.0 0.0 0.0 0.0 0.0
0.0 0.0 0.0 0.0 0.0 0.0 0.0 0.0
0.0 0.0 0.0 0.0 0.0 0.0 0.0 0.0
0.0 0.0 0.0 0.0 0.0 0.0 0.0 0.0
0.0 0.0 0.0 0.0 0.0 0.0 0.0 0.0
0.0 0.0 0.0 0.0 0.0 0.0 0.0 0.0
0.0 0.0 0.0 0.0 0.0 0.0 0.0 0.0

reye_pose f4 [88, 3]
00000000: 0000 0000 0000 0000 0000 0000 0000 0000
00000010: 0000 0000 0000 0000 0000 0000 0000 0000
00000020: 0000 0000 0000 0000 0000 0000 0000 0000
00000030: 0000 0000 0000 0000 0000 0000 0000 0000
00000040: 0000 0000 0000 0000 0000 0000 0000 0000
00000050: 0000 0000 0000 0000 0000 0000 0000 0000
00000060: 0000 0000 0000 0000 0000 0000 0000 0000
00000070: 0000 0000 0000 0000 0000 0000 0000 0000
00000080: 0000 0000 0000 0000 0000 0000 0000 0000
00000090: 0000 0000 0000 0000 0000 0000 0000 0000
000000a0: 0000 0000 0000 0000 0000 0000 0000 0000
000000b0: 0000 0000 0000 0000 0000 0000 0000 0000
000000c0: 0000 0000 0000 0000 0000 0000 0000 0000
000000d0: 0000 0000 0000 0000 0000 0000 0000 0000
000000e0: 0000 0000 0000 0000 0000 0000 0000 0000
000000f0: 0000 0000 0000 0000 0000 0000 0000 0000
00000100: 0000 0000 0000 0000 0000 0000 0000 0000
00000110: 0000 0000 0000 0000 0000 0000 0000 0000
00000120: 0000 0000 0000 0000 0000 0000 0000 0000
00000130: 0000 0000 0000 0000 0000 0000 0000 0000
00000140: 0000 0000 0000 0000 0000 0000 0000 0000
00000150: 0000 0000 0000 0000 0000 0000 0000 0000
00000160: 0000 0000 0000 0000 0000 0000 0000 0000
00000170: 0000 0000 0000 0000 0000 0000 0000 0000
00000180: 0000 0000 0000 0000 0000 0000 0000 0000
00000190: 0000 0000 0000 0000 0000 0000 0000 0000
000001a0: 0000 0000 0000 0000 0000 0000 0000 0000
000001b0: 0000 0000 0000 0000 0000 0000 0000 0000
000001c0: 0000 0000 0000 0000 0000 0000 0000 0000
000001d0: 0000 0000 0000 0000 0000 0000 0000 0000
000001e0: 0000 0000 0000 0000 0000 0000 0000 0000
000001f0: 0000 0000 0000 0000 0000 0000 0000 0000
00000200: 0000 0000 0000 0000 0000 0000 0000 0000
00000210: 0000 0000 0000 0000 0000 0000 0000 0000
00000220: 0000 0000 0000 0000 0000 0000 0000 0000
00000230: 0000 0000 0000 0000 0000 0000 0000 0000
00000240: 0000 0000 0000 0000 0000 0000 0000 0000
00000250: 0000 0000 0000 0000 0000 0000 0000 0000
00000260: 0000 0000 0000 0000 0000 0000 0000 0000
00000270: 0000 0000 0000 0000 0000 0000 0000 0000
00000280: 0000 0000 0000 0000 0000 0000 0000 0000
00000290: 0000 0000 0000 0000 0000 0000 0000 0000
000002a0: 0000 0000 0000 0000 0000 0000 0000 0000
000002b0: 0000 0000 0000 0000 0000 0000 0000 0000
000002c0: 0000 0000 0000 0000 0000 0000 0000 0000
000002d0: 0000 0000 0000 0000 0000 0000 0000 0000
000002e0: 0000 0000 0000 0000 0000 0000 0000 0000
000002f0: 0000 0000 0000 0000 0000 0000 0000 0000
00000300: 0000 0000 0000 0000 0000 0000 0000 0000
00000310: 0000 0000 0000 0000 0000 0000 0000 0000
00000320: 0000 0000 0000 0000 0000 0000 0000 0000
00000330: 0000 0000 0000 0000 0000 0000 0000 0000
00000340: 0000 0000 0000 0000 0000 0000 0000 0000
00000350: 0000 0000 0000 0000 0000 0000 0000 0000
00000360: 0000 0000 0000 0000 0000 0000 0000 0000
00000370: 0000 0000 0000 0000 0000 0000 0000 0000
00000380: 0000 0000 0000 0000 0000 0000 0000 0000
00000390: 0000 0000 0000 0000 0000 0000 0000 0000
000003a0: 0000 0000 0000 0000 0000 0000 0000 0000
000003b0: 0000 0000 0000 0000 0000 0000 0000 0000
000003c0: 0000 0000 0000 0000 0000 0000 0000 0000
000003d0: 0000 0000 0000 0000 0000 0000 0000 0000
000003e0: 0000 0000 0000 0000 0000 0000 0000 0000
000003f0: 0000 0000 0000 0000 0000 0000 0000 0000
0.0 0.0 0.0 0.0 0.0 0.0 0.0 0.0
0.0 0.0 0.0 0.0 0.0 0.0 0.0 0.0
0.0 0.0 0.0 0.0 0.0 0.0 0.0 0.0
0.0 0.0 0.0 0.0 0.0 0.0 0.0 0.0
0.0 0.0 0.0 0.0 0.0 0.0 0.0 0.0
0.0 0.0 0.0 0.0 0.0 0.0 0.0 0.0
0.0 0.0 0.0 0.0 0.0 0.0 0.0 0.0
0.0 0.0 0.0 0.0 0.0 0.0 0.0 0.0
0.0 0.0 0.0 0.0 0.0 0.0 0.0 0.0
0.0 0.0 0.0 0.0 0.0 0.0 0.0 0.0
0.0 0.0 0.0 0.0 0.0 0.0 0.0 0.0
0.0 0.0 0.0 0.0 0.0 0.0 0.0 0.0
0.0 0.0 0.0 0.0 0.0 0.0 0.0 0.0
0.0 0.0 0.0 0.0 0.0 0.0 0.0 0.0
0.0 0.0 0.0 0.0 0.0 0.0 0.0 0.0
0.0 0.0 0.0 0.0 0.0 0.0 0.0 0.0
0.0 0.0 0.0 0.0 0.0 0.0 0.0 0.0
0.0 0.0 0.0 0.0 0.0 0.0 0.0 0.0
0.0 0.0 0.0 0.0 0.0 0.0 0.0 0.0
0.0 0.0 0.0 0.0 0.0 0.0 0.0 0.0
0.0 0.0 0.0 0.0 0.0 0.0 0.0 0.0
0.0 0.0 0.0 0.0 0.0 0.0 0.0 0.0
0.0 0.0 0.0 0.0 0.0 0.0 0.0 0.0
0.0 0.0 0.0 0.0 0.0 0.0 0.0 0.0
0.0 0.0 0.0 0.0 0.0 0.0 0.0 0.0
0.0 0.0 0.0 0.0 0.0 0.0 0.0 0.0
0.0 0.0 0.0 0.0 0.0 0.0 0.0 0.0
0.0 0.0 0.0 0.0 0.0 0.0 0.0 0.0
0.0 0.0 0.0 0.0 0.0 0.0 0.0 0.0
0.0 0.0 0.0 0.0 0.0 0.0 0.0 0.0
0.0 0.0 0.0 0.0 0.0 0.0 0.0 0.0
0.0 0.0 0.0 0.0 0.0 0.0 0.0 0.0
