test_dataset/gait_809/20250819_c2_a5_Take1/split_subjects/0/fit-smplx/smplx-params_cut.npz (npz, 173262 bytes, 10 tensors)

global_orient f4 [347, 3]
0.028092561 -2.8224504 -0.16162069 0.02700344 -2.7981198 -0.19429897 0.024127584 -2.7645464
-0.24232619 0.022703482 -2.7192607 -0.2724248 0.02213977 -2.7071316 -0.29721496 0.015257476
-2.70804 -0.3219966 -0.003557421 -2.74376 -0.35024616 -0.021645311 -2.7994173 -0.3678241
-0.043584544 -2.8487942 -0.37794733 -0.06688789 -2.8825352 -0.38847694 -0.077896826 -2.9166698
-0.39207345 -0.05464081 -2.9096384 -0.38248503 -0.026991604 -2.9176857 -0.37345782 -0.0008246379
-2.9112704 -0.3660242 0.01712033 -2.8895164 -0.35087815 0.032446813 -2.8626792 -0.33276576
0.038660176 -2.847761 -0.32051632 0.04153624 -2.8361237 -0.3137054 0.043396495 -2.8333514
-0.31180403 0.053347256 -2.84334 -0.31195825 0.06094538 -2.8603292 -0.31041405 0.065508544
-2.8520215 -0.300777 0.06825933 -2.85775 -0.28011858 0.077877186 -2.8876307 -0.25185713
0.07853786 -2.8822038 -0.2264335 0.08204174 -2.8906572 -0.20286986 0.08120893 -2.9185827
-0.19013442 0.07944555 -2.9559894 -0.17627384 0.08160671 -2.9969392 -0.1585115 0.0777064
-3.0444207 -0.13785498 0.06494108 -3.0584526 -0.11635583 0.054082368 -3.0639827 -0.09780502
0.043143395 -3.0547495 -0.08153465 0.032331616 -3.0441604 -0.068316616 0.026587661 -3.0164127
-0.06284061 0.025347736 -2.9777005 -0.06624792 0.026157206 -2.964029 -0.07428483 0.020560766
-2.9876564 -0.08065606 0.015314554 -3.01253 -0.08716602 0.013318701 -3.0321002 -0.0985417
0.0059808856 -3.0686169 -0.10834694 -0.044840794 -3.0482118 -0.09444712 -0.050438903 -3.111582
-0.11618297 -0.056526337 -3.13456 -0.12810113 -0.0686925 -3.1612034 -0.13476925 -0.09201483
-3.1412659 -0.11504407 -0.11636436 -3.154127 -0.10654587 -0.121434085 -3.1895487 -0.10085005
-0.11975278 -3.2310867 -0.09754511 -0.11546527 -3.2604735 -0.084244706 -0.101400614 -3.302594
-0.07391615 -0.09271937 -3.2977245 -0.06716661 -0.08748569 -3.3027134 -0.07761303 -0.07313848
-3.313037 -0.099249974 -0.06419318 -3.3301878 -0.1050422 -0.040893663 -3.349408 -0.10934983
-0.014601602 -3.3489568 -0.10439977 0.027192878 -3.3429594 -0.106202796 0.06962197 -3.3208847
-0.104607634 0.113823384 -3.311405 -0.09434705 0.13552365 -3.2976313 -0.076231465 0.14409854
-3.272393 -0.08112102 0.15494315 -3.2462504 -0.078727864 0.16560002 -3.2130194 -0.076034345
0.17080715 -3.1688323 -0.07394611 0.17177357 -3.1333408 -0.06970509 0.17074731 -3.0845168
-0.068157814 0.16732395 -3.0202148 -0.06609451 0.16523015 -2.954541 -0.06848509 0.15823932
-2.8829424 -0.0799245 0.14106256 -2.8307831 -0.10813719 0.102877416 -2.7622337 -0.14039175
0.049066085 -2.6711445 -0.16328055 0.026611269 -2.6460216 -0.17997724 0.012672326 -2.6354148
-0.19562967 -0.0031242082 -2.6419716 -0.20299368 -0.0016942938 -2.6179907 -0.1875365 -0.029960496
-2.6050951 -0.18020484 -0.026933882 -2.5913672 -0.17224829 -0.03021795 -2.5885525 -0.16249686
-0.032724127 -2.5892782 -0.14874609 -0.031018127 -2.6164322 -0.13896303 -0.031070512 -2.6783237
-0.13353625 -0.032185555 -2.724417 -0.12441773 -0.033774517 -2.758502 -0.11699498 -0.032706104
00000000: 5f22 e63c 07a3 34c0 e57f 25be 5136 dd3c
00000010: 6514 33c0 4ff6 46be 36a7 c53c 54ee 30c0
00000020: 5b24 78be a7fc b93c 5e08 2ec0 437b 8bbe
00000030: 775e b53c a541 2dc0 8f2c 98be 7efa 793c
00000040: 8750 2dc0 bddc a4be 9f23 69bb c499 2fc0
00000050: 7753 b3be 8251 b1bc a729 33c0 7153 bcbe
00000060: b585 32bd a552 36c0 5082 c1be 85fc 88bd
00000070: 757b 38c0 73e6 c6be 5f88 9fbd b8aa 3ac0
00000080: dabd c8be 0bcf 5fbd 8437 3ac0 14d5 c3be
00000090: 7f1d ddbc 5dbb 3ac0 dd35 bfbe 832c 58ba
000000a0: 4152 3ac0 8667 bbbe ef3f 8c3c d6ed 38c0
000000b0: 4da6 b3be f3e6 043d 2336 37c0 4660 aabe
000000c0: 225a 1e3d b741 36c0 b71a a4be e821 2a3d
000000d0: 0d83 35c0 ff9d a0be 86c0 313d a155 35c0
000000e0: c7a4 9fbe a782 5a3d 48f9 35c0 feb8 9fbe
000000f0: dda1 793d a20f 37c0 97ee 9ebe 5829 863d
00000100: 8587 36c0 71ff 99be 8ccb 8b3d 60e5 36c0
00000110: b46b 8fbe 137e 9f3d f1ce 38c0 6bf3 80be
00000120: 75d8 a03d 0776 38c0 2fde 67be 8005 a83d
00000130: 8700 39c0 1ebd 4fbe de50 a63d 0fca 3ac0
00000140: 99b2 42be 59b4 a23d ee2e 3dc0 2181 34be
00000150: 6b21 a73d dacd 3fc0 d750 22be 8824 9f3d
00000160: cad7 42c0 db29 0dbe d4ff 843d b0bd 43c0
00000170: f74b eebd 7985 5d3d 4b18 44c0 004e c8bd
00000180: 21b7 303d 0481 43c0 a3fb a6bd 286e 043d
00000190: 86d3 42c0 95e9 8bbd 5ece d93c e80c 41c0
000001a0: 94b2 80bd 0ea6 cf3c a592 3ec0 fdac 87bd
000001b0: a347 d63c a7b2 3dc0 a522 98bd 0d6f a83c
000001c0: c335 3fc0 012f a5bd e5e9 7a3c 4bcd 40c0
000001d0: 1984 b2bd ae36 5a3c ee0d 42c0 3bd0 c9bd
000001e0: 4efb c33b 3864 44c0 00e5 ddbd fbaa 37bd
000001f0: e715 43c0 7e6d c1bd 0699 4ebd 2924 47c0
00000200: 56f1 edbd 2988 67bd a29c 48c0 f12c 03be
00000210: a7ae 8cbd 2851 4ac0 f300 0abe 4572 bcbd
00000220: 800a 49c0 3a9c ebbd 7050 eebd 37dd 49c0
00000230: b934 dabd 6fb2 f8bd 9121 4cc0 798a cebd
00000240: f240 f5bd 20ca 4ec0 bbc5 c7bd 0e79 ecbd
00000250: 99ab 50c0 7d88 acbd 20ab cfbd b35d 53c0
00000260: 5a61 97bd a7e3 bdbd eb0d 53c0 a68e 89bd
00000270: b32b b3bd a85f 53c0 95f3 9ebd a1c9 95bd
00000280: cc08 54c0 9243 cbbd b777 83bd cc21 55c0
00000290: 5d20 d7bd 1d80 27bd b35c 56c0 cef2 dfbd
000002a0: 8f3b 6fbc 4f55 56c0 8ccf d5bd 99c3 de3c
000002b0: 0cf3 55c0 da80 d9bd f795 8e3d 6089 54c0
000002c0: 873c d6bd 3c1c e93d 0fee 53c0 0739 c1bd
000002d0: b6c6 0a3e 640c 53c0 3e1f 9cbd 918e 133e
000002e0: e36e 51c0 c722 a6bd 6ba9 1e3e 91c2 4fc0
000002f0: 133c a1bd 0d93 293e 1ca2 4dc0 e5b7 9bbd
00000300: 12e8 2e3e 26ce 4ac0 0f71 97bd 69e5 2f3e
00000310: a888 48c0 8bc1 8ebd 62d8 2e3e b968 45c0
00000320: 5396 8bbd f856 2b3e 334b 41c0 8f5c 87bd
00000330: 1832 293e 3317 3dc0 e941 8cbd 7d09 223e
00000340: 2182 38c0 75af a3bd b472 103e 8d2b 35c0
00000350: 0877 ddbd 65b1 d23d 70c8 30c0 dbc2 0fbe
00000360: 85f9 483d 08f4 2ac0 0433 27be e0ff d93c
00000370: 6b58 29c0 f44b 38be 969f 4f3c a3aa 28c0
00000380: 2553 48be 84bf 4cbb 1016 29c0 93dd 4fbe
00000390: 1113 deba 298d 27c0 9109 40be b76f f5bc
000003a0: e1b9 26c0 9e87 38be 72a4 dcbc f6d8 25c0
000003b0: db61 30be a28b f7bc d8aa 25c0 9465 26be
000003c0: bc09 06bd bcb6 25c0 e550 18be ba19 febc
000003d0: a073 27c0 534c 0ebe 9687 febc a869 2bc0
000003e0: babd 08be 00d5 03bd d95c 2ec0 b9ce febd
000003f0: 2657 0abd 4c8b 30c0 109b efbd d6f6 05bd

body_pose f4 [347, 63]
-0.05012196 -0.018165268 0.169468 -0.4920093 -0.037792124 -0.11006644 0.041180413 -0.28165975
0.10095266 0.6693127 -0.18354052 0.066741176 0.72445565 -0.14058103 -0.13398944 0.052405365
-0.011694258 -0.08457229 -0.48933032 0.19242772 0.062180586 -0.2927333 0.0507541 0.095969155
0.32551622 0.15366504 0.047406983 1.3821954e-05 -1.5275042e-05 -1.4270624e-05 1.5995623e-05 1.5901964e-05
-1.5316018e-05 0.046526562 0.07298465 -0.07528131 0.032164417 -0.03679828 -0.42548797 0.028626356
0.03645 0.36370185 0.17632036 0.053209387 -0.026247146 0.0887968 -0.20772 -0.72281575
0.0076682665 0.19148782 0.6970806 0.064977005 -0.49054566 -0.1570604 0.06587033 0.8053571
0.057943992 0.19936067 0.043705113 -0.046195388 0.16989322 -0.008828494 -0.04483404 -0.0063821753
-0.022219913 0.18900552 -0.4440177 -0.020871194 -0.09712736 0.017542057 -0.27798325 0.1039969
0.66332567 -0.17168516 0.072199225 0.7310746 -0.14882809 -0.13696729 0.07365278 -0.021908129
-0.07985943 -0.47064826 0.18869363 0.041040394 -0.33839872 0.020522358 0.11277159 0.32567355
0.1498678 0.04849728 -1.6843494e-05 1.529078e-05 1.6380343e-05 1.6130365e-05 1.588555e-05 1.5515836e-05
0.09331217 0.049405996 -0.08083719 0.029364828 -0.029225145 -0.42159754 0.037274543 -0.0024885233
0.3199028 0.19205526 0.034214195 -0.046569042 0.10732001 -0.22480334 -0.7333102 0.02949965
0.12878315 0.74991816 0.058995146 -0.540955 -0.14953032 0.02165253 0.91870713 0.008737335
0.2043888 0.04028819 -0.101349525 0.14158775 -0.0077048694 -0.054852396 0.02607682 -0.058764625
0.20032582 -0.38454482 -0.055186197 -0.09094152 0.012478909 -0.2809419 0.106630564 0.6982029
-0.16695993 0.06863132 0.7389182 -0.11300168 -0.120931946 0.08479829 -0.04126558 -0.08155035
-0.42388454 0.18142687 -0.027280428 -0.38726935 -0.026746254 0.16327628 0.32423538 0.12900713
0.052508242 -1.6654973e-05 1.5101475e-05 1.6716838e-05 1.5596115e-05 -1.4228221e-05 1.5576996e-05 0.14834401
0.060876183 -0.09850797 0.03372609 -0.009990604 -0.42958403 0.027825648 -0.0032039955 0.3201115
0.19235262 0.03101252 -0.047553405 0.12019837 -0.24749333 -0.7429901 0.038271345 0.11772713
0.73656017 0.036101554 -0.5996857 -0.13573232 0.00874817 0.90080225 0.03744947 0.22777738
0.06741653 -0.11735773 0.16805859 -0.053683516 -0.124597825 0.04481992 -0.044201616 0.20895207
-0.35125154 -0.073036015 -0.10247885 0.0060373503 -0.27776918 0.09891225 0.7194127 -0.13114785
0.13643152 0.7685024 -0.03969875 -0.038783103 0.027348114 -0.05143616 -0.089209095 -0.48762104
0.14889297 -0.0044079707 -0.46224073 -0.14492442 0.34803668 0.38323906 0.093601905 0.047656424
-1.667536e-05 1.5612648e-05 -1.4091831e-05 1.4983943e-05 -1.3955239e-05 1.64552e-05 0.16872706 0.08847298
-0.041637093 0.026484612 0.042025317 -0.39340714 0.05447757 -0.044140026 0.30064598 0.20129889
-0.010934651 -0.081835635 0.1391215 -0.29015553 -0.78459185 0.05092379 0.15082493 0.7810753
0.0018743706 -0.65189475 -0.13573448 -0.0382097 0.92588156 0.056060877 0.23738328 0.04314012
-0.088189416 0.16158745 -0.16469547 -0.18486935 0.031737432 -0.0583992 0.19090551 -0.3318265
00000000: af4c 4dbd 54cf 94bc 0589 2d3e a5e8 fbbe
00000010: eacb 1abd 846a e1bd cbac 283d b535 90be
00000020: 45c0 ce3d 1458 2b3f 0cf2 3bbe 99af 883d
00000030: ed75 393f 79f4 0fbe 8734 09be 02a7 563d
00000040: 4699 3fbc 3d34 adbd 8189 fabe c60b 453e
00000050: 12b1 7e3d 24e1 95be 88e3 4f3d 7a8b c43d
00000060: 10aa a63e 5e5a 1d3e d32d 423d d7e4 6737
00000070: e722 80b7 dd6b 6fb7 572e 8637 3565 8537
00000080: e67a 80b7 a392 3e3d fa78 953d 162d 9abd
00000090: d6be 033d cbb9 16bd 8fd9 d9be d281 ea3c
000000a0: 984c 153d 2137 ba3e 538d 343e 16f2 593d
000000b0: 4104 d7bc 19db b53d 8db4 54be 740a 39bf
000000c0: 1546 fb3b 6215 443e e073 323f aa12 853d
000000d0: cd28 fbbe 71d4 20be 06e7 863d e22b 4e3f
000000e0: ae56 6d3d 3425 4c3e 2204 333d 6037 3dbd
000000f0: 7df8 2d3e 63a5 10bc e6a3 37bd 9121 d1bb
00000100: 8906 b6bc aa8a 413e 4a56 e3be 11fa aabc
00000110: b6ea c6bd 5cb4 8f3c d253 8ebe 54fc d43d
00000120: b6cf 293f 3cce 2fbe 30dd 933d b427 3b3f
00000130: 6466 18be 2741 0cbe 45d7 963d ad78 b3bc
00000140: 578d a3bd cff8 f0be e738 413e f919 283d
00000150: 9942 adbe 811e a83c cbf4 e63d afbe a63e
00000160: f276 193e 15a5 463d 214b 8db7 b344 8037
00000170: 8568 8937 b24f 8737 f541 8537 0128 8237
00000180: 731a bf3d f15d 4a3d f88d a5bd 828e f03c
00000190: 9269 efbc a2db d7be 31ad 183d 7e16 23bb
000001a0: 4dca a33e 22aa 443e 2f24 0c3d 2ebf 3ebd
000001b0: 98ca db3d d932 66be 38ba 3bbf 40a9 f13c
000001c0: bbdf 033e a3fa 3f3f e5a4 713d 077c 0abf
000001d0: 7a1e 19be a660 b13c 6430 6b3f 0a27 0f3c
000001e0: 4c4b 513e 3b05 253d 5790 cfbd 61fc 103e
000001f0: 2179 fcbb e8ac 60bd 0e9f d53c 2db3 70bd
00000200: 3622 4d3e 0fe3 c4be ec0a 62bd 8c3f babd
00000210: 5774 4c3c 9ed7 8fbe 2061 da3d 6dbd 323f
00000220: 8bf7 2abe 948e 8c3d be29 3d3f 6d6d e7bd
00000230: 2bab f7bd baaa ad3d 1906 29bd df03 a7bd
00000240: 6507 d9be f7c7 393e 347b dfbc 2b48 c6be
00000250: f61a dbbc e631 273e 2e02 a63e 721a 043e
00000260: e212 573d 48b6 8bb7 575c 7d37 233b 8c37
00000270: 67d4 8237 beb5 6eb7 58ab 8237 7ee7 173e
00000280: 4e59 793d 8cbe c9bd 5e24 0a3d a1af 23bc
00000290: 70f2 dbbe 9df2 e33c 20fa 51bb a8e5 a33e
000002a0: 16f8 443e f80d fe3c 5cc7 42bd 902a f63d
000002b0: e46e 7dbe 9934 3ebf 6ac2 1c3d ec1a f13d
000002c0: 358f 3c3f 39df 133d 0185 19bf 6afd 0abe
000002d0: 7c54 0f3c fa9a 663f 9e64 193d 793e 693e
000002e0: ad11 8a3d 4059 f0bd 8d17 2c3e 3fe3 5bbd
000002f0: 252d ffbd 1895 373d c10c 35bd 88f7 553e
00000300: 3ed7 b3be e893 95bd 6ee0 d1bd f7d4 c53b
00000310: c337 8ebe 8192 ca3d 6e2b 383f 9f4b 06be
00000320: b4b4 0b3e 93bc 443f 289b 22bd 08db 1ebd
00000330: 2709 e03c b9ae 52bd 42b3 b6bd 77a9 f9be
00000340: 6677 183e bd70 90bb d1aa ecbe 1167 14be
00000350: dd31 b23e e937 c43e 5bb2 bf3d 6233 433d
00000360: 10e2 8bb7 e8f7 8237 f46b 6cb7 8c63 7b37
00000370: 4c21 6ab7 4609 8a37 c9c6 2c3e 5231 b53d
00000380: a88b 2abd 42f6 d83c bd22 2c3d a96c c9be
00000390: df23 5f3d 2ccc 34bd 45ee 993e 4c21 4e3e
000003a0: 4027 33bc 7199 a7bd de75 0e3e 448f 94be
000003b0: 03db 48bf 7795 503d da71 1a3e 8df4 473f
000003c0: 71ad f53a 93e2 26bf fbfd 0abe c681 1cbd
000003d0: 9306 6d3f 17a0 653d 9a14 733e b2b3 303d
000003e0: a79c b4bd 2e77 253e eea5 28be 644e 3dbe
000003f0: 1cff 013d 0034 6fbd bc7c 433e 2ae5 a9be

transl f4 [347, 3]
0.5432408 1.3103073 1.01431 0.54711145 1.3075646 0.99965864 0.55064744 1.3066695
0.9874936 0.55327123 1.2995793 0.97650087 0.5562341 1.3006157 0.97320783 0.5582463
1.2993942 0.97317594 0.56102544 1.3127707 0.978198 0.56133866 1.3158182 0.98664993
0.5606852 1.3175381 0.99526626 0.55609626 1.317583 1.002862 0.54867107 1.3165987
1.0092446 0.53953344 1.3018272 1.01333 0.53235644 1.3018918 1.019023 0.52697116
1.3052597 1.0240297 0.5219176 1.3107188 1.028185 0.5182988 1.3165064 1.031944
0.51573634 1.3221 1.0354588 0.5135691 1.3254365 1.0380547 0.5118336 1.3275678
1.0380567 0.510946 1.3282173 1.0365106 0.510567 1.3275962 1.0324501 0.50939125
1.3265618 1.0262072 0.5092094 1.323622 1.0169415 0.5097807 1.3281412 1.0117246
0.5098268 1.32395 1.0043465 0.50920975 1.3247211 0.99909514 0.5091787 1.3245175
0.99373096 0.50802207 1.3249682 0.98837554 0.50674707 1.3234925 0.98236877 0.50542104
1.3226993 0.9764187 0.50406724 1.3199401 0.9689895 0.50366175 1.3185482 0.96048325
0.5045261 1.3157703 0.94971824 0.5063328 1.3113608 0.9375544 0.5092147 1.3069559
0.926297 0.5118473 1.3055974 0.9146557 0.51438814 1.3026748 0.9023032 0.51661617
1.2996248 0.890192 0.5190746 1.2969104 0.8792955 0.52116925 1.2954819 0.8684618
0.52254075 1.2946064 0.8581924 0.52370834 1.3035407 0.8517123 0.5215413 1.2942796
0.8373238 0.5202277 1.2951412 0.8267297 0.517294 1.2959713 0.81574047 0.5136683
1.3066304 0.80768853 0.50836813 1.3052809 0.79429466 0.5020117 1.3028761 0.77943736
0.49500751 1.2951695 0.7619788 0.48608062 1.2932162 0.74572533 0.47390464 1.2911359
0.72819954 0.46078128 1.3003452 0.70812386 0.44612053 1.2981427 0.68475884 0.43232915
1.2941818 0.6555387 0.41782302 1.2914326 0.6286422 0.40528902 1.2910542 0.60287
0.39268395 1.2950487 0.581097 0.38187987 1.3019248 0.56027406 0.37259766 1.3092082
0.5415677 0.36554164 1.314287 0.525091 0.36030927 1.3248385 0.51195973 0.3569591
1.3097546 0.49389634 0.35267812 1.3127438 0.48026532 0.34828654 1.3157045 0.46723527
0.3444079 1.3171897 0.45417824 0.3417686 1.3189254 0.4417918 0.3386943 1.318725
0.42687505 0.33585662 1.3187197 0.41029143 0.33268905 1.3181312 0.39185342 0.32998312
1.3155636 0.3708527 0.32947317 1.3242602 0.34879208 0.32681704 1.316925 0.31998518
0.32317275 1.3110894 0.2941468 0.32003194 1.3089501 0.2694643 0.31541574 1.3077995
0.24513899 0.31155828 1.309768 0.22298795 0.30487114 1.2994757 0.20474355 0.3016819
1.3089213 0.18705977 0.29494995 1.3000536 0.17142446 0.28937146 1.300837 0.1584076
0.28315285 1.3014736 0.1471682 0.27567995 1.3028104 0.1353737 0.2667893 1.3040991
0.1239789 0.25617507 1.3062035 0.1127158 0.2424964 1.306445 0.10015639 0.2256091
00000000: d411 0b3f 26b8 a73f e9d4 813f 7f0f 0c3f
00000010: 475e a73f a1e9 7f3f 3bf7 0c3f f240 a73f
00000020: 61cc 7c3f 2fa3 0d3f 9d58 a63f f6fb 793f
00000030: 5c65 0e3f 937a a63f 2624 793f 3be9 0e3f
00000040: 8d52 a63f 0f22 793f 5d9f 0f3f df08 a83f
00000050: 2f6b 7a3f e4b3 0f3f bb6c a83f 1795 7c3f
00000060: 1189 0f3f 17a5 a83f c5c9 7e3f 535c 0e3f
00000070: 8fa6 a83f c85d 803f b575 0c3f 4e86 a83f
00000080: ed2e 813f dd1e 0a3f 46a2 a63f ccb4 813f
00000090: 8348 083f 64a4 a63f 586f 823f 95e7 063f
000000a0: c012 a73f 6813 833f 649c 053f a2c5 a73f
000000b0: 919b 833f 3baf 043f 4883 a83f be16 843f
000000c0: 4c07 043f 933a a93f ea89 843f 4479 033f
000000d0: e7a7 a93f fade 843f 8707 033f beed a93f
000000e0: 0bdf 843f 5bcd 023f 0603 aa3f 61ac 843f
000000f0: 85b4 023f acee a93f 5327 843f 7767 023f
00000100: c7cc a93f c25a 833f 8c5b 023f 726c a93f
00000110: 242b 823f fd80 023f 8800 aa3f 3180 813f
00000120: 0284 023f 3277 a93f 6d8e 803f 925b 023f
00000130: 7690 a93f b3c4 7f3f 8959 023f ca89 a93f
00000140: 2765 7e3f bc0d 023f 8f98 a93f 2e06 7d3f
00000150: 2dba 013f 3468 a93f 857c 7b3f 4663 013f
00000160: 364e a93f 93f6 793f 8d0a 013f ccf3 a83f
00000170: b20f 783f faef 003f 30c6 a83f 3be2 753f
00000180: 9f28 013f 296b a83f bc20 733f 079f 013f
00000190: acda a73f 9103 703f e55b 023f 554a a73f
000001a0: cd21 6d3f 6d08 033f d11d a73f e026 6a3f
000001b0: f1ae 033f 0cbe a63f 58fd 663f f540 043f
000001c0: 1b5a a63f 9fe3 633f 13e2 043f 2901 a63f
000001d0: 8319 613f 596b 053f 5ad2 a53f 8353 5e3f
000001e0: 3bc5 053f aab5 a53f 7fb2 5b3f c011 063f
000001f0: 6cda a63f d109 5a3f bb83 053f f4aa a53f
00000200: da5a 563f a42d 053f 30c7 a53f 8fa4 533f
00000210: 616d 043f 63e2 a53f 5ed4 503f c47f 033f
00000220: aa3f a73f adc4 4e3f 6a24 023f 7213 a73f
00000230: e556 4b3f d783 003f a5c4 a63f 3589 473f
00000240: a071 fd3e 1dc8 a53f 0b11 433f 8fdf f83e
00000250: 1c88 a53f dbe7 3e3f a1a3 f23e f143 a53f
00000260: 496b 3a3f 86eb eb3e b671 a63f 9b47 353f
00000270: e969 e43e 8a29 a63f 5b4c 2f3f 3f5a dd3e
00000280: c0a7 a53f 62d1 273f e6ec d53e aa4d a53f
00000290: b2ee 203f 0b82 cf3e 4441 a53f b055 1a3f
000002a0: df0d c93e 28c4 a53f c6c2 143f c285 c33e
000002b0: 79a5 a63f 1f6e 0f3f 1fc5 be3e 2294 a73f
000002c0: 2ea4 0a3f 4628 bb3e 8e3a a83f 5d6c 063f
000002d0: 757a b83e 4f94 a93f cb0f 033f 58c3 b63e
000002e0: 0aa6 a73f fbdf fc3e 3a92 b43e fd07 a83f
000002f0: 56e5 f53e 9d52 b23e 0169 a83f 7639 ef3e
00000300: 3b56 b03e ac99 a83f 0d8a e83e 4bfc ae3e
00000310: 8cd2 a83f 8932 e23e 5769 ad3e fbcb a83f
00000320: 5e8f da3e 66f5 ab3e cfcb a83f b811 d23e
00000330: 3856 aa3e 86b8 a83f 03a1 c83e 8cf3 a83e
00000340: 6364 a83f 68e0 bd3e b5b0 a83e 5c81 a93f
00000350: e094 b23e 9054 a73e 0091 a83f 19d5 a33e
00000360: e676 a53e c7d1 a73f 699a 963e 3adb a33e
00000370: ad8b a73f 3af7 893e 2c7e a13e f965 a73f
00000380: b705 7b3e 9184 9f3e 7aa6 a73f f456 643e
00000390: 1218 9c3e 3855 a63f 4ba8 513e 0d76 9a3e
000003a0: bc8a a73f 998c 3f3e ae03 973e 2868 a63f
000003b0: e589 2f3e 7f28 943e d481 a63f 9a35 223e
000003c0: 69f9 903e b096 a63f 43b3 163e ec25 8d3e
000003d0: 7ec2 a63f 679f 0a3e 9b98 883e b8ec a63f
000003e0: a6e8 fd3d 6129 833e ad31 a73f 8bd7 e63d
000003f0: fa50 783e 9739 a73f cb1e cd3d 1206 673e

left_hand_pose f4 [347, 12]
0.15172398 0.23245487 0.4000647 -0.009755509 0.09850804 -0.49167845 0.2668016 -0.012203905
-0.34237313 -0.6391308 0.6231742 -1.4125268 0.19242005 0.20228794 0.46390915 0.13180779
-0.042493444 -0.5869709 0.3672991 0.11419476 -0.3566339 -0.6077353 0.47070515 -1.2643443
0.22484095 0.24093422 0.45715785 0.17791347 0.0074704783 -0.5917022 0.25501174 0.20574397
-0.45250827 -0.50759894 0.57793784 -1.2453367 0.232444 0.32022274 0.34014383 0.19526751
-0.050191235 -0.29313254 0.096837044 0.33922338 -0.8189585 -0.47817278 0.37321985 -0.75746727
0.20140167 0.28543422 0.30553707 0.1530647 0.1339913 -0.35161155 -0.035123695 0.22234607
-0.8812919 -0.540319 0.44900125 -0.95449865 0.17425565 0.31542715 0.3895298 0.15109438
0.1987367 -0.4619046 0.12419198 0.061115287 -0.5934197 -0.63628817 0.6632222 -1.1841296
0.14216727 0.35933492 0.37997314 0.11713531 0.29723576 -0.43809673 0.087958075 0.009667894
-0.5843547 -0.6898215 0.68319863 -1.3573115 0.14002453 0.3011988 0.3658855 0.18762822
0.18870075 -0.4023439 0.06616125 0.06774524 -0.5424176 -0.6049977 0.6113681 -1.2359431
0.20865682 0.26373327 0.4193715 0.27025563 0.2663834 -0.4212776 -0.02906482 0.143944
-0.6214976 -0.5325285 0.606267 -1.3126968 0.2714623 0.30554226 0.4954685 0.22782522
0.27517113 -0.4600026 0.021413399 0.15348779 -0.5305195 -0.51179415 0.6137841 -1.2710679
0.26086253 0.28297073 0.47087616 0.23019616 0.2996444 -0.55768555 -0.013202604 0.12305273
-0.440989 -0.53985286 0.6043469 -1.3439686 0.2972959 0.25852183 0.51350343 0.2795489
0.28612992 -0.5609494 -0.056002118 0.12484763 -0.425737 -0.55701864 0.6255235 -1.3237666
0.2507029 0.19690084 0.27328372 0.10295687 0.43323585 -0.22532961 0.07237303 0.13733865
-0.555068 -0.68280417 0.19441153 -0.9711622 0.22986786 0.19479378 0.2151254 0.0055932337
0.5405259 -0.252463 0.0033026112 0.1207461 -0.43063432 -0.601224 0.34384823 -1.2483193
0.21433489 0.16778715 0.13544522 -0.08124194 0.68676347 -0.14954631 -0.114336945 0.115595356
-0.18860109 -0.48631153 0.47923023 -1.1247088 0.2774726 0.3050786 0.35601255 0.1524481
0.34734628 -0.5417839 -0.05032949 0.14368907 -0.45288196 -0.5864374 0.6506662 -1.5940442
0.23682453 0.33629638 0.38243032 0.08473053 0.6257299 -0.5144206 -0.10641611 -0.05064637
-0.23616685 -0.69595367 0.57798374 -1.7861478 0.2548108 0.3304058 0.35673735 0.13256559
0.5351651 -0.5226891 -0.06780851 0.0223743 -0.38979992 -0.65808976 0.62139946 -1.6538359
0.2745228 0.31687647 0.35300842 0.11108815 0.50899273 -0.44064867 -0.043153036 -0.0054855384
-0.33379346 -0.6448314 0.56784034 -1.4959472 0.25905108 0.27820906 0.29770806 0.04760254
0.53754604 -0.43947652 0.024710493 -0.0698462 -0.26928383 -0.7006636 0.5764117 -1.4847758
0.27493596 0.28871483 0.30561483 0.03118367 0.52495515 -0.3882056 0.055592015 -0.0861414
-0.20628197 -0.7036547 0.49904907 -1.514746 0.2671826 0.20037676 0.26199412 0.00596069
00000000: 885d 1b3e a608 6e3e 48d5 cc3e 92d5 1fbc
00000010: 95be c93d 47bd fbbe 389a 883e e3f2 47bc
00000020: 884b afbe 139e 23bf 5888 1f3f aecd b4bf
00000030: c309 453e 9224 4f3e 8085 ed3e 9ff8 063e
00000040: 9b0d 2ebd ba43 16bf a10e bc3e f1de e93d
00000050: b898 b6be 8a94 1bbf 4400 f13e 09d6 a1bf
00000060: b53c 663e 76b7 763e 9810 ea3e f32e 363e
00000070: eaca f43b cc79 17bf e690 823e 8cae 523e
00000080: 2aaf e7be 01f2 01bf bcf3 133f 3167 9fbf
00000090: cd05 6e3e 3cf4 a33e 5527 ae3e 35f4 473e
000000a0: 5395 4dbd 7815 96be 8052 c63d b0ae ad3e
000000b0: 44a7 51bf 10d3 f4be ac16 bf3e 60e9 41bf
000000c0: 3d3c 4e3e 6f24 923e 5b6f 9c3e febc 1c3e
000000d0: 0435 093e 6e06 b4be dddd 0fbd b0ae 633e
000000e0: 599c 61bf 5952 0abf 7ee3 e53e 065a 74bf
000000f0: 1370 323e ab7f a13e 7370 c73e 7cb8 1a3e
00000100: a281 4b3e c27e ecbe 5d58 fe3d 0654 7a3d
00000110: 5aea 17bf c8e3 22bf eec8 293f 8f91 97bf
00000120: 4c94 113e bffa b73e d78b c23e a3e4 ef3d
00000130: 492f 983e 374e e0be 5d23 b43d 1666 1e3c
00000140: 4598 15bf 2498 30bf 1be6 2e3f 62bc adbf
00000150: 9762 0f3e bb36 9a3e 5855 bb3e 9d21 403e
00000160: c53a 413e 0500 cebe 8d7f 873d 04be 8a3d
00000170: e1db 0abf 21e1 1abf 9f82 1c3f 6233 9ebf
00000180: 22aa 553e 0c08 873e dcb7 d63e f25e 8a3e
00000190: 6863 883e b3b1 d7be 5819 eebc 0e66 133e
000001a0: 771a 1fbf ca53 08bf 5034 1b3f 7306 a8bf
000001b0: 1bfd 8a3e 0970 9c3e 0cae fd3e 044b 693e
000001c0: 3be3 8c3e 7685 ebbe 276b af3c e72b 1d3e
000001d0: 20d0 07bf f104 03bf f420 1d3f 5ab2 a2bf
000001e0: c68f 853e 8ae1 903e ae16 f13e 8bb8 6b3e
000001f0: fe6a 993e 7bc4 0ebf bc4f 58bc 1203 fc3d
00000200: 4fc9 e1be cc33 0abf 7ab6 1a3f 2a07 acbf
00000210: 2b37 983e f95c 843e f674 033f 0921 8f3e
00000220: 9f7f 923e 619a 0fbf 7a62 65bd 1db0 ff3d
00000230: 33fa d9be c698 0ebf 4f22 203f 2f71 a9bf
00000240: 215c 803e 60a0 493e d8eb 8b3e 0ddb d23d
00000250: 17d1 dd3e cebc 66be 5038 943d 81a2 0c3e
00000260: f018 0ebf 41cc 2ebf d113 473e 169e 78bf
00000270: 7b62 6b3e 0578 473e d549 5c3e 7247 b73b
00000280: e85f 0a3f d542 81be 9f70 583b bb49 f73d
00000290: 1a7c dcbe d1e9 19bf e00c b03e edc8 9fbf
000002a0: 9b7a 5b3e 65d0 2b3e 27b2 0a3e 2d62 a6bd
000002b0: bbcf 2f3f ab22 19be 7d29 eabd 42bd ec3d
000002c0: a520 41be d3fd f8be aa5d f53e 75f6 8fbf
000002d0: e310 8e3e 4333 9c3e 4747 b63e 5b1b 1c3e
000002e0: 5fd7 b13e 5ab2 0abf 4c26 4ebd 3a23 133e
000002f0: 25e0 e7be c320 16bf 0f92 263f a409 ccbf
00000300: 2182 723e 0a2f ac3e e8cd c33e 3387 ad3d
00000310: d62f 203f 12b1 03bf b1f0 d9bd 9172 4fbd
00000320: b9d5 71be 052a 32bf bef6 133f 7ea0 e4bf
00000330: 9076 823e f32a a93e 47a6 b63e 46bf 073e
00000340: 9400 093f f4ce 05bf 30df 8abd 4f4a b73c
00000350: db93 c7be 9278 28bf 0914 1f3f e5b0 d3bf
00000360: 418e 8c3e a23d a23e 85bd b43e 2f82 e33d
00000370: 594d 023f b49c e1be 3dc1 30bd 08c0 b3bb
00000380: fae6 aabe ac13 25bf fc5d 113f 337b bfbf
00000390: 58a2 843e 6b71 8e3e 316d 983e e2fa 423d
000003a0: 9e9c 093f 1103 e1be a96d ca3c 860b 8fbd
000003b0: 92df 89be b15e 33bf b88f 133f 220d bebf
000003c0: 68c4 8c3e 6ed2 933e 8c79 9c3e e574 ff3c
000003d0: 7663 063f e2c2 c6be 74b4 633d e76a b0bd
000003e0: 953b 53be b722 34bf 5c83 ff3e 32e3 c1bf
000003f0: 28cc 883e 912f 4d3e 1824 863e e451 c33b

right_hand_pose f4 [347, 12]
0.19184516 0.15826319 0.24248002 0.07576916 0.14795887 -0.5917616 0.4542291 -0.022848671
-0.24410503 -0.76777077 0.7871293 -1.634358 0.06729394 0.04641788 0.12044481 -0.06315688
0.32826415 0.013481856 0.38120338 -0.087295316 -0.3001427 -0.7895627 0.43280372 -1.1203517
0.20236644 -0.04822322 0.37979957 0.35524312 -0.24854915 -0.14706971 0.4444397 0.19393304
-0.52619106 -0.6226112 0.34920657 -0.34437674 0.15983823 0.13868786 0.35446182 0.12460522
-0.1720536 -0.1612205 0.16613081 0.027683683 -0.5866955 -0.7881471 -0.12575106 -0.5021869
0.08299283 0.067999065 0.42446747 -0.088675514 -0.37625054 0.08695829 0.3587188 -0.36055917
-0.5792476 -1.000417 0.26270598 -0.32177204 -0.08887527 0.079706736 0.26493335 -0.32914883
-0.09612586 0.29314828 0.10431033 -0.38235986 -0.6593059 -1.1127194 -0.009384122 -0.4374167
-0.17025155 0.0897558 0.38997427 -0.66727567 -0.27996993 0.638071 0.36266014 -0.5149217
-0.49891606 -0.9968237 -0.10007369 -0.57128334 -0.15726595 -0.046621066 0.39445737 -0.53334033
-0.26241297 0.7679313 0.333999 -0.18929899 -0.7389533 -0.72912765 -0.5417128 -0.09158614
-0.22495642 -0.25932106 0.5183131 -0.5199237 -0.22837825 0.852756 0.12811463 -0.4513136
-0.5817357 -0.7646535 -0.23026903 -0.13852268 -0.40657666 -0.2523082 0.6622587 -0.48093662
0.6610053 0.66141886 -0.49771845 -0.76297873 -0.31196696 -1.1149766 -1.1938537 -0.3311516
-0.45003843 -0.56922877 0.755984 -0.39842376 0.21799065 0.12943509 0.3305612 -0.59772575
0.060220946 -1.1701727 0.0007479762 0.44249964 -0.41906172 -0.7648645 0.7974098 -0.4376863
-0.10994988 0.7089737 0.18458559 0.0031258862 -0.795922 -0.7049486 -0.41496986 0.4198196
-0.5074993 -0.67765856 0.74000865 -0.72962433 0.13181184 -0.16951932 0.5745611 -0.20607683
-0.93273395 -0.60259527 0.2746958 -0.11443554 -0.53203684 -0.8670398 0.8036984 -0.71847737
-0.17087802 0.10354375 0.9237183 0.08049994 -0.72200924 -0.6304087 0.5512578 0.19889502
-0.54698974 -0.49273905 0.94099164 -0.5864217 0.3737079 0.037526563 0.43847516 -0.04357363
-0.86448634 -0.71341664 -0.21811053 -0.32990357 -0.37244463 -0.39534205 0.6931069 -0.38165358
-0.33566144 -0.7815129 0.8409537 0.54572654 -1.141301 0.027955038 0.16353501 0.1314624
-0.22163591 -0.29305142 0.6966294 -0.41713667 -0.3667989 -0.7096518 0.5864573 0.5840102
-0.78733057 -0.027764253 0.1305479 -0.13022037 -0.17961022 -0.26329944 0.46156868 -0.43700907
0.1974363 -0.82376 0.6089342 1.0054532 -1.0249982 0.26242542 0.6549977 0.10095122
-0.1154202 0.035032153 0.2941248 -0.6727972 -0.4743073 -0.89160687 0.8217051 1.0168915
-0.77875865 0.65083784 0.8456534 -0.21237811 -0.18322194 0.027821979 0.34411922 -0.7808282
-0.89762 -0.61321294 1.0386976 0.6622459 -0.7184745 0.32292172 0.7825646 -0.7253842
0.016172184 0.043898545 0.27781403 -0.6540621 -0.6250396 -0.69876903 0.82566994 0.90180296
-0.89416903 0.073489174 0.95185065 -0.6023061 -0.070308775 -0.0947963 0.30492386 -1.0168349
00000000: 0f73 443e bf0f 223e af4c 783e dd2c 9b3d
00000010: 8882 173e b07d 17bf b790 e83e 232d bbbc
00000020: abf6 79be a08c 44bf 4e81 493f a532 d1bf
00000030: 68d1 893d ad20 3e3d c5ab f63d 6558 81bd
00000040: 3d12 a83e 01e3 5c3c 172d c33e e3c7 b2bd
00000050: 4eac 99be c820 4abf 7398 dd3e af67 8fbf
00000060: 2639 4f3e b685 45bd 1775 c23e 6de2 b53e
00000070: ab83 7ebe 7199 16be 9a8d e33e 6296 463e
00000080: 75b4 06bf 7363 1fbf 34cb b23e 2652 b0be
00000090: a2ac 233e 3104 0e3e 057c b53e 0631 ff3d
000000a0: d22e 30be fd16 25be 321e 2a3e e4c8 e23c
000000b0: ad31 16bf 02c4 49bf e3c4 00be 528f 00bf
000000c0: 25f8 a93d 1843 8b3d cd53 d93e 829b b5bd
000000d0: e9a3 c0be 3017 b23d fea9 b73e 369b b8be
000000e0: 9249 14bf aa0d 80bf 6681 863e 4ebf a4be
000000f0: 3d04 b6bd 493d a33d 58a5 873e 3286 a8be
00000100: a3dd c4bd 8817 963e a7a0 d53d acc4 c3be
00000110: 45c8 28bf 976d 8ebf dcbf 19bc 15f5 dfbe
00000120: 6c56 2ebe e4d1 b73d b5aa c73e 94d2 2abf
00000130: 3858 8fbe 9f58 233f 97ae b93e e9d1 03bf
00000140: ed71 ffbe d72f 7fbf 6ff3 ccbd a03f 12bf
00000150: 530a 21be bbf5 3ebd 51f6 c93e fe88 08bf
00000160: fe5a 86be 2597 443f eb01 ab3e 98d7 41be
00000170: 0b2c 3dbf 1ca8 3abf b1ad 0abf 8491 bbbd
00000180: fa5a 66be bbc5 84be 2bb0 043f b819 05bf
00000190: fddb 69be 384e 5a3f 7b30 033e 9412 e7be
000001a0: a1ec 14bf 55c0 43bf a5cb 6bbe e4d8 0dbe
000001b0: d12a d0be 8a2e 81be c989 293f 533d f6be
000001c0: a537 293f bf52 293f f4d4 febe 9352 43bf
000001d0: 22ba 9fbe 8eb7 8ebf 33d0 98bf b48c a9be
000001e0: 706b e6be fab8 11bf 2b88 413f 33fe cbbe
000001f0: f138 5f3e a28a 043e 513f a93e 8e04 19bf
00000200: 3daa 763d 38c8 95bf d513 443a 508f e23e
00000210: 428f d6be 29ce 43bf 0c23 4c3f 6b18 e0be
00000220: 672d e1bd 4d7f 353f 0104 3d3e abdb 4c3b
00000230: 8bc1 4bbf 8377 34bf ee76 d4be 98f2 d63e
00000240: 79eb 01bf 087b 2dbf 3571 3d3f a9c8 3abf
00000250: aff9 063e 7996 2dbe 7016 133f ce05 53be
00000260: a7c7 6ebf af43 1abf eea4 8c3e 2e5d eabd
00000270: 9133 08bf 52f6 5dbf 2ebf 4d3f 22ee 37bf
00000280: a6fa 2ebe bf0e d43d cd78 6c3f 27dd a43d
00000290: 99d5 38bf 7762 21bf 3b1f 0d3f 23ab 4b3e
000002a0: 8507 0cbf 4b48 fcbe d4e4 703f bc1f 16bf
000002b0: a456 bf3e 74b5 193d d17f e03e 437a 32bd
000002c0: fa4e 5dbf 79a2 36bf 5e58 5fbe 1fe9 a8be
000002d0: 10b1 bebe 466a cabe 746f 313f 1968 c3be
000002e0: d1db abbe 3b11 48bf be48 573f bcb4 0b3f
000002f0: 2716 92bf f701 e53c b975 273e 149e 063e
00000300: 86f4 62be d60a 96be 4e56 323f f092 d5be
00000310: 11cd bbbe beab 35bf 1122 163f b181 153f
00000320: 7f8e 49bf dc71 e3bc 59ae 053e 7d58 05be
00000330: beeb 37be 2fcf 86be bb52 ec3e a7bf dfbe
00000340: be2c 4a3e efe1 52bf 1de3 1b3f b1b2 803f
00000350: 2433 83bf a05c 863e eead 273f 83bf ce3d
00000360: 6d61 ecbd e07d 0f3d 8797 963e 703c 2cbf
00000370: 68d8 f2be 5940 64bf 445b 523f 8029 823f
00000380: ba5c 47bf 4f9d 263f be7c 583f a679 59be
00000390: 889e 3bbe ebea e33c 6530 b03e 5be4 47bf
000003a0: 6dca 65bf 86fb 1cbf 0bf4 843f f388 293f
000003b0: f2ed 37bf ff55 a53e 2756 483f c7b2 39bf
000003c0: 877b 843c f6ce 333d a43d 8e3e 9d70 27bf
000003d0: 9802 20bf 87e2 32bf 1b5f 533f 8fdc 663f
000003e0: 43e8 64bf 7e81 963d 7cac 733f bc30 1abf
000003f0: 0cfe 8fbd 9024 c2bd fb1e 9c3e a527 82bf

jaw_pose f4 [347, 3]
0.02817591 -0.0025992717 -0.00090716215 0.04818999 -0.003419282 -0.00063074013 0.054406583 -0.0076007694
-0.0027742004 0.03862338 -0.0069978037 -0.0017003025 0.033473127 -0.006750942 -0.0012556518 0.042838473
-0.007125406 -0.0020394302 0.06682812 -0.009374987 -0.0036613087 0.07398624 -0.013308678 -0.0035979883
0.08228526 -0.010955947 -0.005251631 0.0927798 -0.009136458 -0.0041561197 0.09198554 -0.0074870614
-0.0025016451 0.05807983 -0.0067161666 -0.0019755985 0.05584496 -0.0064868457 -0.0012332394 0.051011596
-0.010112356 -0.0036051916 0.020986766 -0.0046000583 -0.0020241016 0.022359876 -0.0076279487 -0.003056684
0.019661546 -0.0037146525 -0.001430706 0.021747783 -0.007980482 -0.0028140328 0.017438514 -0.0063062017
-0.0020822568 0.025497649 -0.0048601935 -0.0022240274 0.01930332 -0.0028523775 -0.0013350333 0.017046526
-0.0063228444 -0.002990589 0.008693465 -0.007980309 -0.0027651223 0.018721888 -0.010008299 -0.003949708
-0.00021234457 -0.008720066 -0.0033213354 -0.010748802 -0.01018386 -0.0038974334 -0.011480443 -0.007263885
-0.002550068 -0.01724019 -0.0066654645 -0.0019176692 -0.018814381 -0.0029512504 -0.0007966582 -0.013508777
-0.0068044635 -0.0024899966 -0.010874139 -0.002653015 -0.0011942859 0.0013990453 -0.0019350996 -0.00095203466
-0.0013010029 -0.0007743715 -0.0002958452 0.0003010069 -0.0031769278 -0.00085026945 -0.0012139687 -0.004209174
-0.0010717852 0.008082962 -0.0040553682 -0.0012965521 0.016546927 -0.005051841 -0.0017372913 0.027800897
-0.0050415033 -0.0018304866 0.038473986 -0.0051158266 -0.0017808448 0.049593724 -0.0048302095 -0.0018385943
0.048076253 -0.006666712 -0.0034344208 0.07766878 -0.00874719 -0.0046620546 0.049658068 -0.006629005
-0.0033404608 0.039797574 -0.00838082 -0.004199353 0.034811437 -0.007134213 -0.0025131311 0.06697514
-0.0059802807 -0.0028910572 0.06961616 -0.0069233496 -0.003959704 0.06572918 -0.0031841078 -0.0018733403
0.05729233 -0.0026672068 -0.0014609552 0.06020896 -0.0014701464 -0.0011249282 0.057384375 -0.0015225401
-0.0010684623 0.08942396 -0.0021687762 -0.0013785488 0.087504916 -0.0027647787 -0.0015976583 0.089594014
-0.0012792728 -0.0009483302 0.084738836 -0.0029066028 -0.0011718625 0.081029736 -0.0032931652 -0.0012381899
0.08389928 -0.004462019 -0.0016812301 0.08182304 -0.0029050845 -0.0017165219 0.0970221 -0.0054824324
-0.002833207 0.08476937 -0.003318709 -0.0017807768 0.0884897 -0.0034775753 -0.0015444019 0.060922448
-0.0035246557 -0.001409941 0.060559936 -0.0019204774 -0.000766645 0.06409467 -0.0010377899 -0.00027546895
0.06353257 -0.0007196452 -0.00022306168 0.07326582 -0.00043445826 1.8380491e-05 0.07710942 -0.00048164141
3.1040403e-05 0.077493116 -0.0016402489 -0.00039278998 0.07713408 -0.0011139967 -0.00020856169 0.07440034
-0.0039710533 -0.00069184287 0.096299075 -0.0039671143 -0.0014784685 0.09818655 -0.0055669933 -0.0018774612
0.09027949 -0.00428747 -0.0019415371 0.090911135 -0.0049377447 -0.0012215093 0.087462686 -0.003463161
-0.0015800823 0.0836978 -0.0068795057 -0.0028480473 0.057860993 -0.005139222 -0.0015881783 0.06911766
-0.0076780436 -0.0031528964 0.042054396 -0.0071092593 -0.0022882577 0.045647256 -0.0065506026 -0.0013116024
0.046699576 -0.0069622346 -0.0018056324 0.038250715 -0.0055951294 -0.0010659633 0.032272626 -0.006109834
-0.0011418521 0.03696288 -0.0054484094 -0.0009567466 0.029267045 -0.0035817535 -0.0013365574 0.037420884
00000000: 2ad1 e63c 8b58 2abb 9fce 6dba de62 453d
00000010: 0816 60bb 4158 25ba 70d9 5e3d e00f f9bb
00000020: 5ccf 35bb 8d33 1e3d d54d e5bb afdc deba
00000030: 1e1b 093d 0237 ddbb af94 a4ba 6577 2f3d
00000040: 3d7c e9bb f6a7 05bb 2edd 883d 8c99 19bc
00000050: 91f2 6fbb 1986 973d a40c 5abc 3acc 6bbb
00000060: 2d85 a83d 9380 33bc e015 acbb 5603 be3d
00000070: 15b1 15bc 0f30 88bb ea62 bc3d 0656 f5bb
00000080: a4f2 23bb 1ee5 6d3d 4a13 dcbb 0b79 01bb
00000090: afbd 643d 9b8f d4bb a6a4 a1ba 89f1 503d
000000a0: 4cae 25bc 1445 6cbb 70ec ab3c 16bc 96bb
000000b0: caa6 04bb 0f2c b73c dff3 f9bb a652 48bb
000000c0: 4011 a13c 8771 73bb 8786 bbba 6828 b23c
000000d0: 91c0 02bc a36b 38bb 37db 8e3c 41a4 cebb
000000e0: 7976 08bb 72e0 d03c 4242 9fbb fdc0 11bb
000000f0: ff21 9e3c f4ee 3abb 49fc aeba 28a5 8b3c
00000100: dd2f cfbb c2fd 43bb 096f 0e3c d8bf 02bc
00000110: 0e37 35bb a55e 993c d9f9 23bc 8d6c 81bb
00000120: d0a8 5eb9 9cde 0ebc c3aa 59bb be1b 30bc
00000130: 34da 26bc 156c 7fbb 7818 3cbc e205 eebb
00000140: 0b1f 27bb 4d3b 8dbc f869 dabb 4d5a fbba
00000150: 9e20 9abc c469 41bb d4d6 50ba eb53 5dbc
00000160: faf7 debb 362f 23bb 7229 32bc 35de 2dbb
00000170: 9689 9cba 2c60 b73a 2ba3 fdba f791 79ba
00000180: 6a86 aaba 31ff 4aba ac1b 9bb9 76d0 9d39
00000190: 0134 50bb 9ee4 5eba 081e 9fba 1ced 89bb
000001a0: 257b 8cba 666e 043c e5e2 84bb 12f1 a9ba
000001b0: 6c8d 873c ea89 a5bb d3b5 e3ba b5be e33c
000001c0: 3233 a5bb f0ec efba e696 1d3d aaa2 a7bb
000001d0: 3c6b e9ba ca22 4b3d bc46 9ebb fdfc f0ba
000001e0: 9beb 443d 6f74 dabb 0514 61bb cf10 9f3d
000001f0: 6050 0fbc 26c4 98bb 4266 4b3d 2038 d9bb
00000200: a2eb 5abb c802 233d b54f 09bc ba9a 89bb
00000210: 7096 0e3d 1ec6 e9bb 58b3 24bb 432a 893d
00000220: 3bf6 c3bb e477 3dbb eb92 8e3d 44dd e2bb
00000230: 68c0 81bb 059d 863d 77ac 50bb df8a f5ba
00000240: 5dab 6a3d 4ecc 2ebb 867d bfba ac9d 763d
00000250: edb1 c0ba 5472 93ba e10b 6b3d f88f c7ba
00000260: a50b 8cba e923 b73d 0722 0ebb 6cb0 b4ba
00000270: c735 b33d 4a31 35bb 8468 d1ba 117d b73d
00000280: 46ad a7ba 5d99 78ba 8e8b ad3d b47c 3ebb
00000290: 2e99 99ba ebf2 a53d 25d2 57bb c24a a2ba
000002a0: 63d3 ab3d 2136 92bb b95c dcba d792 a73d
000002b0: 3b63 3ebb ebfc e0ba 86b3 c63d faa5 b3bb
000002c0: 53ad 39bb 909b ad3d b37e 59bb f468 e9ba
000002d0: 163a b53d 08e8 63bb 876d caba d189 793d
000002e0: e9fd 66bb c5cd b8ba b20d 783d 87b8 fbba
000002f0: adf8 48ba 1144 833d 7306 88ba d16c 90b9
00000300: 5d1d 823d 92a6 3cba aae5 69b9 640c 963d
00000310: 00c8 e3b9 ce2f 9a37 8beb 9d3d d184 fcb9
00000320: 6131 0238 b6b4 9e3d 9ffd d6ba 61ef cdb9
00000330: 79f8 9d3d 8703 92ba 5ab1 5ab9 355f 983d
00000340: 9c1f 82bb ca5c 35ba 7338 c53d 91fe 81bb
00000350: 2cc9 c1ba 0816 c93d 536b b6bb 2515 f6ba
00000360: 74e4 b83d e87d 8cbb 2d7b feba 9e2f ba3d
00000370: cecc a1bb 0d1b a0ba a31f b33d 33f6 62bb
00000380: c41a cfba c169 ab3d 7a6d e1bb 4ea6 3abb
00000390: a6ff 6c3d eb66 a8bb 6c2a d0ba 8f8d 8d3d
000003a0: 1998 fbbb d3a0 4ebb 3b41 2c3d caf4 e8bb
000003b0: 98f6 15bb 9ef8 3a3d 70a6 d6bb 13ea abba
000003c0: 0e48 3f3d 7523 e4bb f8aa ecba c8ac 1c3d
000003d0: 5957 b7bb cbb7 8bba 4d30 043d 0135 c8bb
000003e0: 33aa 95ba 6466 173d 9288 b2bb 2dce 7aba
000003f0: 71c1 ef3c dabb 6abb 6d2f afba a446 193d

leye_pose f4 [347, 3]
0.0 0.0 0.0 0.0 0.0 0.0 0.0 0.0
0.0 0.0 0.0 0.0 0.0 0.0 0.0 0.0
0.0 0.0 0.0 0.0 0.0 0.0 0.0 0.0
0.0 0.0 0.0 0.0 0.0 0.0 0.0 0.0
0.0 0.0 0.0 0.0 0.0 0.0 0.0 0.0
0.0 0.0 0.0 0.0 0.0 0.0 0.0 0.0
0.0 0.0 0.0 0.0 0.0 0.0 0.0 0.0
0.0 0.0 0.0 0.0 0.0 0.0 0.0 0.0
0.0 0.0 0.0 0.0 0.0 0.0 0.0 0.0
0.0 0.0 0.0 0.0 0.0 0.0 0.0 0.0
0.0 0.0 0.0 0.0 0.0 0.0 0.0 0.0
0.0 0.0 0.0 0.0 0.0 0.0 0.0 0.0
0.0 0.0 0.0 0.0 0.0 0.0 0.0 0.0
0.0 0.0 0.0 0.0 0.0 0.0 0.0 0.0
0.0 0.0 0.0 0.0 0.0 0.0 0.0 0.0
0.0 0.0 0.0 0.0 0.0 0.0 0.0 0.0
0.0 0.0 0.0 0.0 0.0 0.0 0.0 0.0
0.0 0.0 0.0 0.0 0.0 0.0 0.0 0.0
0.0 0.0 0.0 0.0 0.0 0.0 0.0 0.0
0.0 0.0 0.0 0.0 0.0 0.0 0.0 0.0
0.0 0.0 0.0 0.0 0.0 0.0 0.0 0.0
0.0 0.0 0.0 0.0 0.0 0.0 0.0 0.0
0.0 0.0 0.0 0.0 0.0 0.0 0.0 0.0
0.0 0.0 0.0 0.0 0.0 0.0 0.0 0.0
0.0 0.0 0.0 0.0 0.0 0.0 0.0 0.0
0.0 0.0 0.0 0.0 0.0 0.0 0.0 0.0
0.0 0.0 0.0 0.0 0.0 0.0 0.0 0.0
0.0 0.0 0.0 0.0 0.0 0.0 0.0 0.0
0.0 0.0 0.0 0.0 0.0 0.0 0.0 0.0
0.0 0.0 0.0 0.0 0.0 0.0 0.0 0.0
0.0 0.0 0.0 0.0 0.0 0.0 0.0 0.0
0.0 0.0 0.0 0.0 0.0 0.0 0.0 0.0
00000000: 0000 0000 0000 0000 0000 0000 0000 0000
00000010: 0000 0000 0000 0000 0000 0000 0000 0000
00000020: 0000 0000 0000 0000 0000 0000 0000 0000
00000030: 0000 0000 0000 0000 0000 0000 0000 0000
00000040: 0000 0000 0000 0000 0000 0000 0000 0000
00000050: 0000 0000 0000 0000 0000 0000 0000 0000
00000060: 0000 0000 0000 0000 0000 0000 0000 0000
00000070: 0000 0000 0000 0000 0000 0000 0000 0000
00000080: 0000 0000 0000 0000 0000 0000 0000 0000
00000090: 0000 0000 0000 0000 0000 0000 0000 0000
000000a0: 0000 0000 0000 0000 0000 0000 0000 0000
000000b0: 0000 0000 0000 0000 0000 0000 0000 0000
000000c0: 0000 0000 0000 0000 0000 0000 0000 0000
000000d0: 0000 0000 0000 0000 0000 0000 0000 0000
000000e0: 0000 0000 0000 0000 0000 0000 0000 0000
000000f0: 0000 0000 0000 0000 0000 0000 0000 0000
00000100: 0000 0000 0000 0000 0000 0000 0000 0000
00000110: 0000 0000 0000 0000 0000 0000 0000 0000
00000120: 0000 0000 0000 0000 0000 0000 0000 0000
00000130: 0000 0000 0000 0000 0000 0000 0000 0000
00000140: 0000 0000 0000 0000 0000 0000 0000 0000
00000150: 0000 0000 0000 0000 0000 0000 0000 0000
00000160: 0000 0000 0000 0000 0000 0000 0000 0000
00000170: 0000 0000 0000 0000 0000 0000 0000 0000
00000180: 0000 0000 0000 0000 0000 0000 0000 0000
00000190: 0000 0000 0000 0000 0000 0000 0000 0000
000001a0: 0000 0000 0000 0000 0000 0000 0000 0000
000001b0: 0000 0000 0000 0000 0000 0000 0000 0000
000001c0: 0000 0000 0000 0000 0000 0000 0000 0000
000001d0: 0000 0000 0000 0000 0000 0000 0000 0000
000001e0: 0000 0000 0000 0000 0000 0000 0000 0000
000001f0: 0000 0000 0000 0000 0000 0000 0000 0000
00000200: 0000 0000 0000 0000 0000 0000 0000 0000
00000210: 0000 0000 0000 0000 0000 0000 0000 0000
00000220: 0000 0000 0000 0000 0000 0000 0000 0000
00000230: 0000 0000 0000 0000 0000 0000 0000 0000
00000240: 0000 0000 0000 0000 0000 0000 0000 0000
00000250: 0000 0000 0000 0000 0000 0000 0000 0000
00000260: 0000 0000 0000 0000 0000 0000 0000 0000
00000270: 0000 0000 0000 0000 0000 0000 0000 0000
00000280: 0000 0000 0000 0000 0000 0000 0000 0000
00000290: 0000 0000 0000 0000 0000 0000 0000 0000
000002a0: 0000 0000 0000 0000 0000 0000 0000 0000
000002b0: 0000 0000 0000 0000 0000 0000 0000 0000
000002c0: 0000 0000 0000 0000 0000 0000 0000 0000
000002d0: 0000 0000 0000 0000 0000 0000 0000 0000
000002e0: 0000 0000 0000 0000 0000 0000 0000 0000
000002f0: 0000 0000 0000 0000 0000 0000 0000 0000
00000300: 0000 0000 0000 0000 0000 0000 0000 0000
00000310: 0000 0000 0000 0000 0000 0000 0000 0000
00000320: 0000 0000 0000 0000 0000 0000 0000 0000
00000330: 0000 0000 0000 0000 0000 0000 0000 0000
00000340: 0000 0000 0000 0000 0000 0000 0000 0000
00000350: 0000 0000 0000 0000 0000 0000 0000 0000
00000360: 0000 0000 0000 0000 0000 0000 0000 0000
00000370: 0000 0000 0000 0000 0000 0000 0000 0000
00000380: 0000 0000 0000 0000 0000 0000 0000 0000
00000390: 0000 0000 0000 0000 0000 0000 0000 0000
000003a0: 0000 0000 0000 0000 0000 0000 0000 0000
000003b0: 0000 0000 0000 0000 0000 0000 0000 0000
000003c0: 0000 0000 0000 0000 0000 0000 0000 0000
000003d0: 0000 0000 0000 0000 0000 0000 0000 0000
000003e0: 0000 0000 0000 0000 0000 0000 0000 0000
000003f0: 0000 0000 0000 0000 0000 0000 0000 0000

reye_pose f4 [347, 3]
0.0 0.0 0.0 0.0 0.0 0.0 0.0 0.0
0.0 0.0 0.0 0.0 0.0 0.0 0.0 0.0
0.0 0.0 0.0 0.0 0.0 0.0 0.0 0.0
0.0 0.0 0.0 0.0 0.0 0.0 0.0 0.0
0.0 0.0 0.0 0.0 0.0 0.0 0.0 0.0
0.0 0.0 0.0 0.0 0.0 0.0 0.0 0.0
0.0 0.0 0.0 0.0 0.0 0.0 0.0 0.0
0.0 0.0 0.0 0.0 0.0 0.0 0.0 0.0
0.0 0.0 0.0 0.0 0.0 0.0 0.0 0.0
0.0 0.0 0.0 0.0 0.0 0.0 0.0 0.0
0.0 0.0 0.0 0.0 0.0 0.0 0.0 0.0
0.0 0.0 0.0 0.0 0.0 0.0 0.0 0.0
0.0 0.0 0.0 0.0 0.0 0.0 0.0 0.0
0.0 0.0 0.0 0.0 0.0 0.0 0.0 0.0
0.0 0.0 0.0 0.0 0.0 0.0 0.0 0.0
0.0 0.0 0.0 0.0 0.0 0.0 0.0 0.0
0.0 0.0 0.0 0.0 0.0 0.0 0.0 0.0
0.0 0.0 0.0 0.0 0.0 0.0 0.0 0.0
0.0 0.0 0.0 0.0 0.0 0.0 0.0 0.0
0.0 0.0 0.0 0.0 0.0 0.0 0.0 0.0
0.0 0.0 0.0 0.0 0.0 0.0 0.0 0.0
0.0 0.0 0.0 0.0 0.0 0.0 0.0 0.0
0.0 0.0 0.0 0.0 0.0 0.0 0.0 0.0
0.0 0.0 0.0 0.0 0.0 0.0 0.0 0.0
0.0 0.0 0.0 0.0 0.0 0.0 0.0 0.0
0.0 0.0 0.0 0.0 0.0 0.0 0.0 0.0
0.0 0.0 0.0 0.0 0.0 0.0 0.0 0.0
0.0 0.0 0.0 0.0 0.0 0.0 0.0 0.0
0.0 0.0 0.0 0.0 0.0 0.0 0.0 0.0
0.0 0.0 0.0 0.0 0.0 0.0 0.0 0.0
0.0 0.0 0.0 0.0 0.0 0.0 0.0 0.0
0.0 0.0 0.0 0.0 0.0 0.0 0.0 0.0
00000000: 0000 0000 0000 0000 0000 0000 0000 0000
00000010: 0000 0000 0000 0000 0000 0000 0000 0000
00000020: 0000 0000 0000 0000 0000 0000 0000 0000
00000030: 0000 0000 0000 0000 0000 0000 0000 0000
00000040: 0000 0000 0000 0000 0000 0000 0000 0000
00000050: 0000 0000 0000 0000 0000 0000 0000 0000
00000060: 0000 0000 0000 0000 0000 0000 0000 0000
00000070: 0000 0000 0000 0000 0000 0000 0000 0000
00000080: 0000 0000 0000 0000 0000 0000 0000 0000
00000090: 0000 0000 0000 0000 0000 0000 0000 0000
000000a0: 0000 0000 0000 0000 0000 0000 0000 0000
000000b0: 0000 0000 0000 0000 0000 0000 0000 0000
000000c0: 0000 0000 0000 0000 0000 0000 0000 0000
000000d0: 0000 0000 0000 0000 0000 0000 0000 0000
000000e0: 0000 0000 0000 0000 0000 0000 0000 0000
000000f0: 0000 0000 0000 0000 0000 0000 0000 0000
00000100: 0000 0000 0000 0000 0000 0000 0000 0000
00000110: 0000 0000 0000 0000 0000 0000 0000 0000
00000120: 0000 0000 0000 0000 0000 0000 0000 0000
00000130: 0000 0000 0000 0000 0000 0000 0000 0000
00000140: 0000 0000 0000 0000 0000 0000 0000 0000
00000150: 0000 0000 0000 0000 0000 0000 0000 0000
00000160: 0000 0000 0000 0000 0000 0000 0000 0000
00000170: 0000 0000 0000 0000 0000 0000 0000 0000
00000180: 0000 0000 0000 0000 0000 0000 0000 0000
00000190: 0000 0000 0000 0000 0000 0000 0000 0000
000001a0: 0000 0000 0000 0000 0000 0000 0000 0000
000001b0: 0000 0000 0000 0000 0000 0000 0000 0000
000001c0: 0000 0000 0000 0000 0000 0000 0000 0000
000001d0: 0000 0000 0000 0000 0000 0000 0000 0000
000001e0: 0000 0000 0000 0000 0000 0000 0000 0000
000001f0: 0000 0000 0000 0000 0000 0000 0000 0000
00000200: 0000 0000 0000 0000 0000 0000 0000 0000
00000210: 0000 0000 0000 0000 0000 0000 0000 0000
00000220: 0000 0000 0000 0000 0000 0000 0000 0000
00000230: 0000 0000 0000 0000 0000 0000 0000 0000
00000240: 0000 0000 0000 0000 0000 0000 0000 0000
00000250: 0000 0000 0000 0000 0000 0000 0000 0000
00000260: 0000 0000 0000 0000 0000 0000 0000 0000
00000270: 0000 0000 0000 0000 0000 0000 0000 0000
00000280: 0000 0000 0000 0000 0000 0000 0000 0000
00000290: 0000 0000 0000 0000 0000 0000 0000 0000
000002a0: 0000 0000 0000 0000 0000 0000 0000 0000
000002b0: 0000 0000 0000 0000 0000 0000 0000 0000
000002c0: 0000 0000 0000 0000 0000 0000 0000 0000
000002d0: 0000 0000 0000 0000 0000 0000 0000 0000
000002e0: 0000 0000 0000 0000 0000 0000 0000 0000
000002f0: 0000 0000 0000 0000 0000 0000 0000 0000
00000300: 0000 0000 0000 0000 0000 0000 0000 0000
00000310: 0000 0000 0000 0000 0000 0000 0000 0000
00000320: 0000 0000 0000 0000 0000 0000 0000 0000
00000330: 0000 0000 0000 0000 0000 0000 0000 0000
00000340: 0000 0000 0000 0000 0000 0000 0000 0000
00000350: 0000 0000 0000 0000 0000 0000 0000 0000
00000360: 0000 0000 0000 0000 0000 0000 0000 0000
00000370: 0000 0000 0000 0000 0000 0000 0000 0000
00000380: 0000 0000 0000 0000 0000 0000 0000 0000
00000390: 0000 0000 0000 0000 0000 0000 0000 0000
000003a0: 0000 0000 0000 0000 0000 0000 0000 0000
000003b0: 0000 0000 0000 0000 0000 0000 0000 0000
000003c0: 0000 0000 0000 0000 0000 0000 0000 0000
000003d0: 0000 0000 0000 0000 0000 0000 0000 0000
000003e0: 0000 0000 0000 0000 0000 0000 0000 0000
000003f0: 0000 0000 0000 0000 0000 0000 0000 0000
