test_dataset/gait_809/20250819_c2_a5_Take1/split_subjects/0/fit-smplx/smplx-params.npz (npz, 229350 bytes, 10 tensors)

global_orient f4 [461, 3]
-0.015986027 -2.8387418 -0.12990132 -0.024313185 -2.8450906 -0.10614117 -0.01878913 -2.84005
-0.08800813 -0.009936542 -2.8458958 -0.08079237 -0.0070111626 -2.8444545 -0.07258194 -0.0019724376
-2.8339703 -0.0671209 0.0023469096 -2.8318472 -0.07136161 0.0074605374 -2.832676 -0.08037797
0.016108265 -2.8351095 -0.08716568 0.024050552 -2.8300083 -0.1001083 0.030804427 -2.838899
-0.12722732 0.028092561 -2.8224504 -0.16162069 0.02700344 -2.7981198 -0.19429897 0.024127584
-2.7645464 -0.24232619 0.022703482 -2.7192607 -0.2724248 0.02213977 -2.7071316 -0.29721496
0.015257476 -2.70804 -0.3219966 -0.003557421 -2.74376 -0.35024616 -0.021645311 -2.7994173
-0.3678241 -0.043584544 -2.8487942 -0.37794733 -0.06688789 -2.8825352 -0.38847694 -0.077896826
-2.9166698 -0.39207345 -0.05464081 -2.9096384 -0.38248503 -0.026991604 -2.9176857 -0.37345782
-0.0008246379 -2.9112704 -0.3660242 0.01712033 -2.8895164 -0.35087815 0.032446813 -2.8626792
-0.33276576 0.038660176 -2.847761 -0.32051632 0.04153624 -2.8361237 -0.3137054 0.043396495
-2.8333514 -0.31180403 0.053347256 -2.84334 -0.31195825 0.06094538 -2.8603292 -0.31041405
0.065508544 -2.8520215 -0.300777 0.06825933 -2.85775 -0.28011858 0.077877186 -2.8876307
-0.25185713 0.07853786 -2.8822038 -0.2264335 0.08204174 -2.8906572 -0.20286986 0.08120893
-2.9185827 -0.19013442 0.07944555 -2.9559894 -0.17627384 0.08160671 -2.9969392 -0.1585115
0.0777064 -3.0444207 -0.13785498 0.06494108 -3.0584526 -0.11635583 0.054082368 -3.0639827
-0.09780502 0.043143395 -3.0547495 -0.08153465 0.032331616 -3.0441604 -0.068316616 0.026587661
-3.0164127 -0.06284061 0.025347736 -2.9777005 -0.06624792 0.026157206 -2.964029 -0.07428483
0.020560766 -2.9876564 -0.08065606 0.015314554 -3.01253 -0.08716602 0.013318701 -3.0321002
-0.0985417 0.0059808856 -3.0686169 -0.10834694 -0.044840794 -3.0482118 -0.09444712 -0.050438903
-3.111582 -0.11618297 -0.056526337 -3.13456 -0.12810113 -0.0686925 -3.1612034 -0.13476925
-0.09201483 -3.1412659 -0.11504407 -0.11636436 -3.154127 -0.10654587 -0.121434085 -3.1895487
-0.10085005 -0.11975278 -3.2310867 -0.09754511 -0.11546527 -3.2604735 -0.084244706 -0.101400614
-3.302594 -0.07391615 -0.09271937 -3.2977245 -0.06716661 -0.08748569 -3.3027134 -0.07761303
-0.07313848 -3.313037 -0.099249974 -0.06419318 -3.3301878 -0.1050422 -0.040893663 -3.349408
-0.10934983 -0.014601602 -3.3489568 -0.10439977 0.027192878 -3.3429594 -0.106202796 0.06962197
-3.3208847 -0.104607634 0.113823384 -3.311405 -0.09434705 0.13552365 -3.2976313 -0.076231465
0.14409854 -3.272393 -0.08112102 0.15494315 -3.2462504 -0.078727864 0.16560002 -3.2130194
-0.076034345 0.17080715 -3.1688323 -0.07394611 0.17177357 -3.1333408 -0.06970509 0.17074731
-3.0845168 -0.068157814 0.16732395 -3.0202148 -0.06609451 0.16523015 -2.954541 -0.06848509
0.15823932 -2.8829424 -0.0799245 0.14106256 -2.8307831 -0.10813719 0.102877416 -2.7622337
-0.14039175 0.049066085 -2.6711445 -0.16328055 0.026611269 -2.6460216 -0.17997724 0.012672326
00000000: 21f5 82bc f2ad 35c0 da04 05be 722c c7bc
00000010: f715 36c0 8b60 d9bd a9eb 99bc 61c3 35c0
00000020: 9b3d b4bd e1cc 22bc 2823 36c0 7876 a5bd
00000030: e5bd e5bb 8b0b 36c0 d7a5 94bd 0344 01bb
00000040: c55f 35c0 af76 89bd 9cce 193b fc3c 35c0
00000050: 0926 92bd 8677 f43b 904a 35c0 359d a4bd
00000060: 7bf5 833c 6f72 35c0 ec83 b2bd aa05 c53c
00000070: db1e 35c0 9505 cdbd 9159 fc3c 85b0 35c0
00000080: e147 02be 5f22 e63c 07a3 34c0 e57f 25be
00000090: 5136 dd3c 6514 33c0 4ff6 46be 36a7 c53c
000000a0: 54ee 30c0 5b24 78be a7fc b93c 5e08 2ec0
000000b0: 437b 8bbe 775e b53c a541 2dc0 8f2c 98be
000000c0: 7efa 793c 8750 2dc0 bddc a4be 9f23 69bb
000000d0: c499 2fc0 7753 b3be 8251 b1bc a729 33c0
000000e0: 7153 bcbe b585 32bd a552 36c0 5082 c1be
000000f0: 85fc 88bd 757b 38c0 73e6 c6be 5f88 9fbd
00000100: b8aa 3ac0 dabd c8be 0bcf 5fbd 8437 3ac0
00000110: 14d5 c3be 7f1d ddbc 5dbb 3ac0 dd35 bfbe
00000120: 832c 58ba 4152 3ac0 8667 bbbe ef3f 8c3c
00000130: d6ed 38c0 4da6 b3be f3e6 043d 2336 37c0
00000140: 4660 aabe 225a 1e3d b741 36c0 b71a a4be
00000150: e821 2a3d 0d83 35c0 ff9d a0be 86c0 313d
00000160: a155 35c0 c7a4 9fbe a782 5a3d 48f9 35c0
00000170: feb8 9fbe dda1 793d a20f 37c0 97ee 9ebe
00000180: 5829 863d 8587 36c0 71ff 99be 8ccb 8b3d
00000190: 60e5 36c0 b46b 8fbe 137e 9f3d f1ce 38c0
000001a0: 6bf3 80be 75d8 a03d 0776 38c0 2fde 67be
000001b0: 8005 a83d 8700 39c0 1ebd 4fbe de50 a63d
000001c0: 0fca 3ac0 99b2 42be 59b4 a23d ee2e 3dc0
000001d0: 2181 34be 6b21 a73d dacd 3fc0 d750 22be
000001e0: 8824 9f3d cad7 42c0 db29 0dbe d4ff 843d
000001f0: b0bd 43c0 f74b eebd 7985 5d3d 4b18 44c0
00000200: 004e c8bd 21b7 303d 0481 43c0 a3fb a6bd
00000210: 286e 043d 86d3 42c0 95e9 8bbd 5ece d93c
00000220: e80c 41c0 94b2 80bd 0ea6 cf3c a592 3ec0
00000230: fdac 87bd a347 d63c a7b2 3dc0 a522 98bd
00000240: 0d6f a83c c335 3fc0 012f a5bd e5e9 7a3c
00000250: 4bcd 40c0 1984 b2bd ae36 5a3c ee0d 42c0
00000260: 3bd0 c9bd 4efb c33b 3864 44c0 00e5 ddbd
00000270: fbaa 37bd e715 43c0 7e6d c1bd 0699 4ebd
00000280: 2924 47c0 56f1 edbd 2988 67bd a29c 48c0
00000290: f12c 03be a7ae 8cbd 2851 4ac0 f300 0abe
000002a0: 4572 bcbd 800a 49c0 3a9c ebbd 7050 eebd
000002b0: 37dd 49c0 b934 dabd 6fb2 f8bd 9121 4cc0
000002c0: 798a cebd f240 f5bd 20ca 4ec0 bbc5 c7bd
000002d0: 0e79 ecbd 99ab 50c0 7d88 acbd 20ab cfbd
000002e0: b35d 53c0 5a61 97bd a7e3 bdbd eb0d 53c0
000002f0: a68e 89bd b32b b3bd a85f 53c0 95f3 9ebd
00000300: a1c9 95bd cc08 54c0 9243 cbbd b777 83bd
00000310: cc21 55c0 5d20 d7bd 1d80 27bd b35c 56c0
00000320: cef2 dfbd 8f3b 6fbc 4f55 56c0 8ccf d5bd
00000330: 99c3 de3c 0cf3 55c0 da80 d9bd f795 8e3d
00000340: 6089 54c0 873c d6bd 3c1c e93d 0fee 53c0
00000350: 0739 c1bd b6c6 0a3e 640c 53c0 3e1f 9cbd
00000360: 918e 133e e36e 51c0 c722 a6bd 6ba9 1e3e
00000370: 91c2 4fc0 133c a1bd 0d93 293e 1ca2 4dc0
00000380: e5b7 9bbd 12e8 2e3e 26ce 4ac0 0f71 97bd
00000390: 69e5 2f3e a888 48c0 8bc1 8ebd 62d8 2e3e
000003a0: b968 45c0 5396 8bbd f856 2b3e 334b 41c0
000003b0: 8f5c 87bd 1832 293e 3317 3dc0 e941 8cbd
000003c0: 7d09 223e 2182 38c0 75af a3bd b472 103e
000003d0: 8d2b 35c0 0877 ddbd 65b1 d23d 70c8 30c0
000003e0: dbc2 0fbe 85f9 483d 08f4 2ac0 0433 27be
000003f0: e0ff d93c 6b58 29c0 f44b 38be 969f 4f3c

body_pose f4 [461, 63]
-0.2882977 -0.2112773 0.017015193 -0.19846915 -0.105391294 -0.05341911 0.17567766 0.09057741
0.074712954 0.7405049 0.08820101 0.11880702 0.8883644 -0.08767602 -0.25034058 0.13765714
0.033197075 -0.0457883 -0.52319145 0.18476741 0.005895045 -0.71745783 0.078125685 0.36314154
0.02673765 0.06999827 -0.03877521 -1.5677926e-05 1.6321692e-05 -1.4591876e-05 1.4904795e-05 -1.4577359e-05
-1.5966605e-05 0.013986439 0.05380522 0.008467546 0.017274411 -0.12506902 -0.46601436 0.029372264
0.02937482 0.5293455 0.20058174 0.050024226 0.07279449 0.08180392 -0.16637042 -0.66136295
0.05511628 0.0655328 0.7175243 0.12457526 -0.599766 -0.1319985 0.0966787 0.6855437
0.06548307 0.21531586 -0.07052158 -0.1303995 0.24424371 -0.012711326 -0.039617814 -0.3143242
-0.05518598 -0.024385998 -0.25670072 -0.0954631 -0.07464101 0.14594479 0.03888021 0.076292634
0.791491 -0.12032862 0.14403725 1.0315075 -0.12273909 -0.2971434 0.06849721 0.06553351
-0.13813803 -0.5676122 0.24485086 0.15615053 -0.6640328 0.09839961 0.32527918 0.11983084
0.07963548 0.03949051 -1.6935388e-05 1.5494472e-05 1.6791611e-05 -1.5897052e-05 -1.4474384e-05 -1.4362179e-05
-0.0015793622 0.106368035 0.041340765 0.03137642 -0.05445426 -0.36207122 0.054669842 -0.002767755
0.43431792 0.16391668 0.0059748692 0.025200237 0.08132225 -0.22475648 -0.74223346 0.044335533
0.13267578 0.7759547 0.060770012 -0.6514787 -0.14520986 0.12679021 0.70524055 0.14170508
0.2261763 -0.07130452 -0.103290446 0.26804298 0.01975524 -0.050715502 -0.30593172 -0.042568587
-0.025225043 -0.30065963 -0.07850828 -0.072115205 0.14495231 -0.033577666 0.06953287 0.77930045
-0.12859833 0.15504242 1.1290206 -0.078960136 -0.26070207 0.038554516 0.07369035 -0.14692616
-0.5425669 0.21510026 0.14960647 -0.59304804 -0.02480745 0.50010836 0.14339927 0.12819861
0.057499416 -1.6704364e-05 -1.5323625e-05 -1.407028e-05 1.4626167e-05 -1.4419563e-05 -1.4517719e-05 -0.0091674095
0.08567504 0.027309082 0.0139044495 -0.04326937 -0.39602616 0.07129896 -0.0014993572 0.42623562
0.17972098 0.018663751 0.02486477 0.08768229 -0.22721 -0.7080687 0.04395489 0.16176692
0.77572715 0.04560886 -0.6583543 -0.14505874 0.121596426 0.716696 0.1642849 0.17940259
0.06602508 -0.07997605 0.28442836 0.0544743 -0.048548132 -0.28131473 -0.053843055 -0.018343529
-0.38446432 -0.06583723 -0.085747026 0.14082454 -0.051977918 0.07634193 0.74560696 -0.14673685
0.15476108 1.236199 -0.07979467 -0.2025565 0.02472907 0.077017486 -0.15162355 -0.6509071
0.20732707 0.19424759 -0.6293394 0.06427868 0.38092646 0.1662957 0.14732324 0.060630307
1.3688531e-05 1.5630218e-05 1.6888831e-05 1.4496406e-05 1.6500353e-05 1.603725e-05 -0.01653503 0.08656233
0.033951413 0.03473564 -0.049146414 -0.40730286 0.06123574 -0.017936748 0.41675144 0.1650909
0.008134325 0.008195024 0.074130364 -0.22781962 -0.68174636 0.043783378 0.16134743 0.77090186
0.0295588 -0.65137285 -0.1326532 0.13154015 0.766739 0.21457267 0.16769636 -0.018533604
-0.03733748 0.3149876 0.023486724 -0.035178762 -0.26772863 -0.06525955 -0.01419139 -0.487614
00000000: c29b 93be 1459 58be 7263 8b3c 7f3b 4bbe
00000010: 64d7 d7bd ffcd 5abd d8e4 333e a680 b93d
00000020: 1b03 993d bb91 3d3f bba2 b43d 1851 f33d
00000030: d96b 633f 7c8f b3bd a42c 80be fef5 0c3e
00000040: a8f9 073d 838c 3bbd e0ef 05bf ab33 3d3e
00000050: 392b c13b 51ab 37bf 5c00 a03d b0ed b93e
00000060: eb08 db3c 415b 8f3d c1d2 1ebd 1784 83b7
00000070: 91ea 8837 a1cf 74b7 9b0f 7a37 4891 74b7
00000080: 06f0 85b7 6127 653c dd62 5c3d 76bb 0a3c
00000090: 1183 8d3c 1812 00be 6f99 eebe 1a9e f03c
000000a0: 76a3 f03c 3083 073f 4d65 4d3e 34e6 4c3d
000000b0: 4715 953d d088 a73d 025d 2abe 154f 29bf
000000c0: 9cc1 613d 1036 863d acaf 373f 5021 ff3d
000000d0: 448a 19bf 9d2a 07be 7bff c53d cb7f 2f3f
000000e0: fd1b 863d c37b 5c3e 9e6d 90bd 7287 05be
000000f0: 061b 7a3e 2a43 50bc 4a46 22bd 1aef a0be
00000100: b20a 62bd 25c5 c7bc 476e 83be 2882 c3bd
00000110: 63dd 98bd 8d72 153e db40 1f3d 503f 9c3d
00000120: 279f 4a3f da6e f6bd 807e 133e 7008 843f
00000130: a25e fbbd 2e23 98be 4448 8c3d 6f36 863d
00000140: 0e74 0dbe 084f 11bf 2fba 7a3e ede5 1f3e
00000150: 0efe 29bf bc85 c93d fe8a a63e df69 f53d
00000160: ed17 a33d cdc0 213d 7810 8eb7 20fa 8137
00000170: b6db 8c37 a95a 85b7 02d7 72b7 17f5 70b7
00000180: 9a02 cfba 7cd7 d93d ef54 293d 9084 003d
00000190: 6e0b 5fbd 6661 b9be 7ced 5f3d 3963 35bb
000001a0: eb5e de3e c6d9 273e d6c8 c33b ba70 ce3c
000001b0: 488c a63d 9026 66be 0303 3ebf 2d99 353d
000001c0: 29dc 073e f8a4 463f fae9 783d 4fc7 26bf
000001d0: e5b1 14be 4bd5 013e a58a 343f 231b 113e
000001e0: c39a 673e 1b08 92bd f189 d3bd ee3c 893e
000001f0: bed5 a13c 0fbb 4fbd 15a3 9cbe 665c 2ebd
00000200: c0a4 cebc 0ff0 99be f3c8 a0bd 23b1 93bd
00000210: 616e 143e bc88 09bd 4067 8e3d 3c80 473f
00000220: 48af 03be 71c3 1e3e bf83 903f dab5 a1bd
00000230: be7a 85be 57eb 1d3d f7ea 963d d073 16be
00000240: aae5 0abf 3e43 5c3e 7032 193e ffd1 17bf
00000250: fe38 cbbc 1a07 003f 42d7 123e 7f46 033e
00000260: 8284 6b3d 5920 8cb7 3c8b 80b7 640f 6cb7
00000270: e962 7537 8deb 71b7 2191 73b7 e732 16bc
00000280: 6576 af3d 4cb7 df3c 7dcf 633c 393b 31bd
00000290: f1c3 cabe 3005 923d 1486 c4ba 8e3b da3e
000002a0: c708 383e b9e4 983c 34b1 cb3c c692 b33d
000002b0: bda9 68be fe43 35bf 0b0a 343d 3aa6 253e
000002c0: 0e96 463f 5bd0 3a3d e889 28bf 478a 14be
000002d0: 8c07 f93d 6479 373f 4d3a 283e 50b5 373e
000002e0: 2838 873d 7cca a3bd 98a0 913e 7220 5f3d
000002f0: 68da 46bd 7c08 90be 898a 5cbd 2b45 96bc
00000300: 82d8 c4be abd5 86bd 239c afbd 4f34 103e
00000310: cce6 54bd 2859 9c3d 19e0 3e3f 2f42 16be
00000320: b079 1e3e c53b 9e3f 636b a3bd f96a 4fbe
00000330: 9e94 ca3c 58bb 9d3d 3443 1bbe d9a1 26bf
00000340: 8c4d 543e d7e8 463e 631c 21bf 8aa4 833d
00000350: cb08 c33e 6c49 2a3e e7db 163e 7c57 783d
00000360: cba7 6537 a31d 8337 7dac 8d37 9735 7337
00000370: 3d6a 8a37 bb87 8637 7974 87bc 9747 b13d
00000380: a310 0b3d f546 0e3d c04d 49bd 008a d0be
00000390: 54d2 7a3d 16f0 92bc 7260 d53e 970d 293e
000003a0: d545 053c 6c44 063c a9d1 973d 8c49 69be
000003b0: ee86 2ebf 3356 333d 4338 253e d359 453f
000003c0: 4c25 f23c 5fc0 26bf 3ed6 07be 76b2 063e
000003d0: 0249 443f f0b8 5b3e 98b8 2b3e c9d3 97bc
000003e0: 2fef 18bd 0e46 a13e 3b67 c03c 9b17 10bd
000003f0: ba13 89be cda6 85bd 0183 68bc 8ba8 f9be

transl f4 [461, 3]
0.5352835 1.3254441 1.1584457 0.52913916 1.3146359 1.1467755 0.5274267 1.317263
1.1375362 0.52666426 1.3162524 1.1268953 0.52665484 1.3124968 1.1145883 0.52812225
1.3124541 1.1024445 0.52948487 1.3110347 1.0895433 0.53143257 1.3116279 1.0758834
0.5337031 1.3146814 1.0620354 0.5356981 1.317071 1.0480447 0.53952277 1.3134301
1.0317992 0.5432408 1.3103073 1.01431 0.54711145 1.3075646 0.99965864 0.55064744
1.3066695 0.9874936 0.55327123 1.2995793 0.97650087 0.5562341 1.3006157 0.97320783
0.5582463 1.2993942 0.97317594 0.56102544 1.3127707 0.978198 0.56133866 1.3158182
0.98664993 0.5606852 1.3175381 0.99526626 0.55609626 1.317583 1.002862 0.54867107
1.3165987 1.0092446 0.53953344 1.3018272 1.01333 0.53235644 1.3018918 1.019023
0.52697116 1.3052597 1.0240297 0.5219176 1.3107188 1.028185 0.5182988 1.3165064
1.031944 0.51573634 1.3221 1.0354588 0.5135691 1.3254365 1.0380547 0.5118336
1.3275678 1.0380567 0.510946 1.3282173 1.0365106 0.510567 1.3275962 1.0324501
0.50939125 1.3265618 1.0262072 0.5092094 1.323622 1.0169415 0.5097807 1.3281412
1.0117246 0.5098268 1.32395 1.0043465 0.50920975 1.3247211 0.99909514 0.5091787
1.3245175 0.99373096 0.50802207 1.3249682 0.98837554 0.50674707 1.3234925 0.98236877
0.50542104 1.3226993 0.9764187 0.50406724 1.3199401 0.9689895 0.50366175 1.3185482
0.96048325 0.5045261 1.3157703 0.94971824 0.5063328 1.3113608 0.9375544 0.5092147
1.3069559 0.926297 0.5118473 1.3055974 0.9146557 0.51438814 1.3026748 0.9023032
0.51661617 1.2996248 0.890192 0.5190746 1.2969104 0.8792955 0.52116925 1.2954819
0.8684618 0.52254075 1.2946064 0.8581924 0.52370834 1.3035407 0.8517123 0.5215413
1.2942796 0.8373238 0.5202277 1.2951412 0.8267297 0.517294 1.2959713 0.81574047
0.5136683 1.3066304 0.80768853 0.50836813 1.3052809 0.79429466 0.5020117 1.3028761
0.77943736 0.49500751 1.2951695 0.7619788 0.48608062 1.2932162 0.74572533 0.47390464
1.2911359 0.72819954 0.46078128 1.3003452 0.70812386 0.44612053 1.2981427 0.68475884
0.43232915 1.2941818 0.6555387 0.41782302 1.2914326 0.6286422 0.40528902 1.2910542
0.60287 0.39268395 1.2950487 0.581097 0.38187987 1.3019248 0.56027406 0.37259766
1.3092082 0.5415677 0.36554164 1.314287 0.525091 0.36030927 1.3248385 0.51195973
0.3569591 1.3097546 0.49389634 0.35267812 1.3127438 0.48026532 0.34828654 1.3157045
0.46723527 0.3444079 1.3171897 0.45417824 0.3417686 1.3189254 0.4417918 0.3386943
1.318725 0.42687505 0.33585662 1.3187197 0.41029143 0.33268905 1.3181312 0.39185342
0.32998312 1.3155636 0.3708527 0.32947317 1.3242602 0.34879208 0.32681704 1.316925
0.31998518 0.32317275 1.3110894 0.2941468 0.32003194 1.3089501 0.2694643 0.31541574
00000000: 5708 093f 27a8 a93f f347 943f aa75 073f
00000010: fd45 a83f 8ac9 923f 7005 073f 139c a83f
00000020: c99a 913f 78d3 063f f57a a83f 1b3e 903f
00000030: dad2 063f e5ff a73f d4aa 8e3f 0533 073f
00000040: 7ffe a73f e71c 8d3f 528c 073f fccf a73f
00000050: 2876 8b3f f70b 083f 6ce3 a73f 8cb6 893f
00000060: c4a0 083f 7b47 a83f c7f0 873f 8323 093f
00000070: c895 a83f 5426 863f 2a1e 0a3f 7a1e a83f
00000080: ff11 843f d411 0b3f 26b8 a73f e9d4 813f
00000090: 7f0f 0c3f 475e a73f a1e9 7f3f 3bf7 0c3f
000000a0: f240 a73f 61cc 7c3f 2fa3 0d3f 9d58 a63f
000000b0: f6fb 793f 5c65 0e3f 937a a63f 2624 793f
000000c0: 3be9 0e3f 8d52 a63f 0f22 793f 5d9f 0f3f
000000d0: df08 a83f 2f6b 7a3f e4b3 0f3f bb6c a83f
000000e0: 1795 7c3f 1189 0f3f 17a5 a83f c5c9 7e3f
000000f0: 535c 0e3f 8fa6 a83f c85d 803f b575 0c3f
00000100: 4e86 a83f ed2e 813f dd1e 0a3f 46a2 a63f
00000110: ccb4 813f 8348 083f 64a4 a63f 586f 823f
00000120: 95e7 063f c012 a73f 6813 833f 649c 053f
00000130: a2c5 a73f 919b 833f 3baf 043f 4883 a83f
00000140: be16 843f 4c07 043f 933a a93f ea89 843f
00000150: 4479 033f e7a7 a93f fade 843f 8707 033f
00000160: beed a93f 0bdf 843f 5bcd 023f 0603 aa3f
00000170: 61ac 843f 85b4 023f acee a93f 5327 843f
00000180: 7767 023f c7cc a93f c25a 833f 8c5b 023f
00000190: 726c a93f 242b 823f fd80 023f 8800 aa3f
000001a0: 3180 813f 0284 023f 3277 a93f 6d8e 803f
000001b0: 925b 023f 7690 a93f b3c4 7f3f 8959 023f
000001c0: ca89 a93f 2765 7e3f bc0d 023f 8f98 a93f
000001d0: 2e06 7d3f 2dba 013f 3468 a93f 857c 7b3f
000001e0: 4663 013f 364e a93f 93f6 793f 8d0a 013f
000001f0: ccf3 a83f b20f 783f faef 003f 30c6 a83f
00000200: 3be2 753f 9f28 013f 296b a83f bc20 733f
00000210: 079f 013f acda a73f 9103 703f e55b 023f
00000220: 554a a73f cd21 6d3f 6d08 033f d11d a73f
00000230: e026 6a3f f1ae 033f 0cbe a63f 58fd 663f
00000240: f540 043f 1b5a a63f 9fe3 633f 13e2 043f
00000250: 2901 a63f 8319 613f 596b 053f 5ad2 a53f
00000260: 8353 5e3f 3bc5 053f aab5 a53f 7fb2 5b3f
00000270: c011 063f 6cda a63f d109 5a3f bb83 053f
00000280: f4aa a53f da5a 563f a42d 053f 30c7 a53f
00000290: 8fa4 533f 616d 043f 63e2 a53f 5ed4 503f
000002a0: c47f 033f aa3f a73f adc4 4e3f 6a24 023f
000002b0: 7213 a73f e556 4b3f d783 003f a5c4 a63f
000002c0: 3589 473f a071 fd3e 1dc8 a53f 0b11 433f
000002d0: 8fdf f83e 1c88 a53f dbe7 3e3f a1a3 f23e
000002e0: f143 a53f 496b 3a3f 86eb eb3e b671 a63f
000002f0: 9b47 353f e969 e43e 8a29 a63f 5b4c 2f3f
00000300: 3f5a dd3e c0a7 a53f 62d1 273f e6ec d53e
00000310: aa4d a53f b2ee 203f 0b82 cf3e 4441 a53f
00000320: b055 1a3f df0d c93e 28c4 a53f c6c2 143f
00000330: c285 c33e 79a5 a63f 1f6e 0f3f 1fc5 be3e
00000340: 2294 a73f 2ea4 0a3f 4628 bb3e 8e3a a83f
00000350: 5d6c 063f 757a b83e 4f94 a93f cb0f 033f
00000360: 58c3 b63e 0aa6 a73f fbdf fc3e 3a92 b43e
00000370: fd07 a83f 56e5 f53e 9d52 b23e 0169 a83f
00000380: 7639 ef3e 3b56 b03e ac99 a83f 0d8a e83e
00000390: 4bfc ae3e 8cd2 a83f 8932 e23e 5769 ad3e
000003a0: fbcb a83f 5e8f da3e 66f5 ab3e cfcb a83f
000003b0: b811 d23e 3856 aa3e 86b8 a83f 03a1 c83e
000003c0: 8cf3 a83e 6364 a83f 68e0 bd3e b5b0 a83e
000003d0: 5c81 a93f e094 b23e 9054 a73e 0091 a83f
000003e0: 19d5 a33e e676 a53e c7d1 a73f 699a 963e
000003f0: 3adb a33e ad8b a73f 3af7 893e 2c7e a13e

left_hand_pose f4 [461, 12]
0.00012446423 0.48859382 0.16062258 -0.18040335 0.2954493 -0.32558313 -0.022341589 0.41679722
-0.93369484 -0.543288 0.37979254 -1.0092019 0.023939934 0.26831776 0.06425188 -0.36033255
0.520465 0.03809351 -0.008617582 0.6656285 -0.39729497 -0.1453535 0.7268825 -0.13495007
-0.037535544 0.46385467 0.12058626 -0.36855555 0.45630273 -0.12224191 -0.040453263 0.4311359
-0.7612148 -0.64790535 0.29140356 -1.0404725 -0.059743132 0.38727528 0.18930241 -0.1079074
0.21583216 -0.3567051 0.16107385 0.26760867 -0.9154414 -0.6170987 0.3967187 -1.0018694
-0.08090194 0.30442587 0.19773221 -0.08360124 0.26211104 -0.15632416 0.12078265 0.12441155
-0.8446874 -0.6263289 0.2945483 -0.98057795 -0.037766792 0.23558666 0.21794094 -0.023762265
0.11945449 -0.098929755 0.19923082 0.1896722 -0.76835644 -0.58413917 0.20507814 -0.69814634
-0.033694543 0.30591115 0.2505207 -0.07545504 0.12196753 -0.21045935 0.25500327 0.06710568
-0.66039634 -0.6711809 0.32791382 -1.0108879 -0.031766895 0.3832314 0.27266994 -0.07602443
0.13528378 -0.21529424 0.23189832 -0.00017031704 -0.6564859 -0.7334203 0.38954985 -1.1935927
0.03262672 0.3746738 0.2580769 -0.081377536 0.08752104 -0.27951205 0.25096574 0.09812314
-0.6252571 -0.6491272 0.4025763 -0.9164546 0.10826383 0.30891797 0.2777594 0.020532856
-0.25310662 -0.18900895 0.34976 0.19926822 -0.7909076 -0.4909098 0.50934446 -0.6934815
0.17151062 0.2868298 0.4193845 0.093384385 -0.09768099 -0.43463153 0.2780353 0.06202163
-0.6966044 -0.66717386 0.54225403 -1.0891771 0.15172398 0.23245487 0.4000647 -0.009755509
0.09850804 -0.49167845 0.2668016 -0.012203905 -0.34237313 -0.6391308 0.6231742 -1.4125268
0.19242005 0.20228794 0.46390915 0.13180779 -0.042493444 -0.5869709 0.3672991 0.11419476
-0.3566339 -0.6077353 0.47070515 -1.2643443 0.22484095 0.24093422 0.45715785 0.17791347
0.0074704783 -0.5917022 0.25501174 0.20574397 -0.45250827 -0.50759894 0.57793784 -1.2453367
0.232444 0.32022274 0.34014383 0.19526751 -0.050191235 -0.29313254 0.096837044 0.33922338
-0.8189585 -0.47817278 0.37321985 -0.75746727 0.20140167 0.28543422 0.30553707 0.1530647
0.1339913 -0.35161155 -0.035123695 0.22234607 -0.8812919 -0.540319 0.44900125 -0.95449865
0.17425565 0.31542715 0.3895298 0.15109438 0.1987367 -0.4619046 0.12419198 0.061115287
-0.5934197 -0.63628817 0.6632222 -1.1841296 0.14216727 0.35933492 0.37997314 0.11713531
0.29723576 -0.43809673 0.087958075 0.009667894 -0.5843547 -0.6898215 0.68319863 -1.3573115
0.14002453 0.3011988 0.3658855 0.18762822 0.18870075 -0.4023439 0.06616125 0.06774524
-0.5424176 -0.6049977 0.6113681 -1.2359431 0.20865682 0.26373327 0.4193715 0.27025563
0.2663834 -0.4212776 -0.02906482 0.143944 -0.6214976 -0.5325285 0.606267 -1.3126968
0.2714623 0.30554226 0.4954685 0.22782522 0.27517113 -0.4600026 0.021413399 0.15348779
-0.5305195 -0.51179415 0.6137841 -1.2710679 0.26086253 0.28297073 0.47087616 0.23019616
00000000: 9d82 0239 f828 fa3e 3f7a 243e a8bb 38be
00000010: 2145 973e d5b2 a6be b505 b7bc 7266 d53e
00000020: a006 6fbf ec14 0bbf 2b74 c23e 872d 81bf
00000030: ae1d c43c f260 893e 7d96 833d 827d b8be
00000040: 323d 053f f107 1c3d c230 0dbc a166 2a3f
00000050: 3f6a cbbe 8cd7 14be f914 3a3f 5a30 0abe
00000060: dfbe 19bd 5c7e ed3e eef5 f63d 50b3 bcbe
00000070: 83a0 e93e f759 fabd 52b2 25bd d8bd dc3e
00000080: f9de 42bf 20dd 25bf d932 953e 342e 85bf
00000090: 37b5 74bd f248 c63e 7ed8 413e 8efe dcbd
000000a0: 1b03 5d3e 0da2 b6be 8bf0 243e 0104 893e
000000b0: 5e5a 6abf 2efa 1dbf b71e cb3e 423d 80bf
000000c0: ebaf a5bd b5dd 9b3e 507a 4a3e 2037 abbd
000000d0: 6b33 863e 7113 20be e55c f73d 7ccb fe3d
000000e0: 6f3d 58bf 1757 20bf 09cf 963e 2807 7bbf
000000f0: 5ab1 1abd a13d 713e e92b 5f3e 15a9 c2bc
00000100: 8ea4 f43d af9b cabd 2a03 4c3e 6e39 423e
00000110: 02b3 44bf 258a 15bf 0100 523e b8b9 32bf
00000120: 4a03 0abd 63a0 9c3e 4044 803e 2c88 9abd
00000130: 1dca f93d a882 57be ca8f 823e b46e 893d
00000140: bc0f 29bf 83d2 2bbf 52e4 a73e c664 81bf
00000150: 011e 02bd e836 c43e 659b 8b3e b2b2 9bbd
00000160: d587 0a3e 1876 5cbe c176 6d3e 2297 32b9
00000170: 760f 28bf 6fc1 3bbf 1473 c73e a5c7 98bf
00000180: 98a3 053d 3fd5 bf3e a822 843e 44a9 a6bd
00000190: 3b3e b33d 341c 8fbe 957e 803e c9f4 c83d
000001a0: d910 20bf 332d 26bf 7b1e ce3e c59c 6abf
000001b0: 6db9 dd3d 7f2a 9e3e 7b36 8e3e 8534 a83c
000001c0: 3197 81be 908b 41be be13 b33e f80c 4c3e
000001d0: ec78 4abf 8858 fbbe 6664 023f 0188 31bf
000001e0: 7ba0 2f3e 5bdb 923e 91b9 d63e 5040 bf3d
000001f0: f90c c8bd 0688 debe a55a 8e3e 650a 7e3d
00000200: aa54 32bf e8cb 2abf 29d1 0a3f 286a 8bbf
00000210: 885d 1b3e a608 6e3e 48d5 cc3e 92d5 1fbc
00000220: 95be c93d 47bd fbbe 389a 883e e3f2 47bc
00000230: 884b afbe 139e 23bf 5888 1f3f aecd b4bf
00000240: c309 453e 9224 4f3e 8085 ed3e 9ff8 063e
00000250: 9b0d 2ebd ba43 16bf a10e bc3e f1de e93d
00000260: b898 b6be 8a94 1bbf 4400 f13e 09d6 a1bf
00000270: b53c 663e 76b7 763e 9810 ea3e f32e 363e
00000280: eaca f43b cc79 17bf e690 823e 8cae 523e
00000290: 2aaf e7be 01f2 01bf bcf3 133f 3167 9fbf
000002a0: cd05 6e3e 3cf4 a33e 5527 ae3e 35f4 473e
000002b0: 5395 4dbd 7815 96be 8052 c63d b0ae ad3e
000002c0: 44a7 51bf 10d3 f4be ac16 bf3e 60e9 41bf
000002d0: 3d3c 4e3e 6f24 923e 5b6f 9c3e febc 1c3e
000002e0: 0435 093e 6e06 b4be dddd 0fbd b0ae 633e
000002f0: 599c 61bf 5952 0abf 7ee3 e53e 065a 74bf
00000300: 1370 323e ab7f a13e 7370 c73e 7cb8 1a3e
00000310: a281 4b3e c27e ecbe 5d58 fe3d 0654 7a3d
00000320: 5aea 17bf c8e3 22bf eec8 293f 8f91 97bf
00000330: 4c94 113e bffa b73e d78b c23e a3e4 ef3d
00000340: 492f 983e 374e e0be 5d23 b43d 1666 1e3c
00000350: 4598 15bf 2498 30bf 1be6 2e3f 62bc adbf
00000360: 9762 0f3e bb36 9a3e 5855 bb3e 9d21 403e
00000370: c53a 413e 0500 cebe 8d7f 873d 04be 8a3d
00000380: e1db 0abf 21e1 1abf 9f82 1c3f 6233 9ebf
00000390: 22aa 553e 0c08 873e dcb7 d63e f25e 8a3e
000003a0: 6863 883e b3b1 d7be 5819 eebc 0e66 133e
000003b0: 771a 1fbf ca53 08bf 5034 1b3f 7306 a8bf
000003c0: 1bfd 8a3e 0970 9c3e 0cae fd3e 044b 693e
000003d0: 3be3 8c3e 7685 ebbe 276b af3c e72b 1d3e
000003e0: 20d0 07bf f104 03bf f420 1d3f 5ab2 a2bf
000003f0: c68f 853e 8ae1 903e ae16 f13e 8bb8 6b3e

right_hand_pose f4 [461, 12]
0.22646913 -0.035797965 0.4041866 0.17920561 0.11758343 -0.70317817 0.51391196 0.1819036
-0.79199314 -0.7224985 0.573814 -0.8927595 0.23285916 0.06394657 0.3752319 0.22243324
0.13411275 -0.5875104 0.3619239 0.09825964 -0.7495874 -0.7983903 0.64396256 -1.2409148
0.23159575 0.15485172 0.35852602 0.23493735 0.1634616 -0.56563824 0.2679068 0.00027389673
-0.7432303 -0.80743724 0.77463216 -1.5928593 0.26845005 0.091590375 0.36449718 0.30665097
-0.017193945 -0.6016633 0.46459177 -0.07553103 -0.6879982 -0.75202316 1.0554457 -1.5121802
0.2538687 0.041945882 0.23784594 0.34447324 -0.01975281 -0.5056384 0.45964906 0.006921785
-0.7128275 -0.77227956 0.9464596 -1.3786302 0.25301895 0.12171272 0.18898714 0.3741768
-0.029296659 -0.35079873 0.37889937 0.016747555 -0.8213259 -0.7292702 0.7508422 -1.3276955
0.22988915 0.17071603 0.15124786 0.29646283 0.11244562 -0.48264483 0.44463545 0.022996334
-0.75600845 -0.7794385 0.7626788 -1.5988961 0.26580667 0.18683518 0.22919175 0.31629646
0.041905064 -0.3926122 0.48955986 -0.06558603 -0.7246039 -0.8164886 0.6721137 -1.4076003
0.28829685 0.07009449 0.35557127 0.25052923 0.16654168 -0.3725332 0.4800918 -0.24012604
-0.61624193 -0.9499426 0.7641321 -1.5251831 0.28039217 0.14480564 0.3164905 0.15355983
0.17779009 -0.43991318 0.48236012 -0.106048346 -0.37950134 -0.7846899 0.80892867 -1.4322494
0.24060969 0.11336206 0.2593882 0.07531727 0.15054104 -0.31638414 0.5582078 -0.07682277
-0.3648083 -0.776767 0.70986307 -1.3582094 0.19184516 0.15826319 0.24248002 0.07576916
0.14795887 -0.5917616 0.4542291 -0.022848671 -0.24410503 -0.76777077 0.7871293 -1.634358
0.06729394 0.04641788 0.12044481 -0.06315688 0.32826415 0.013481856 0.38120338 -0.087295316
-0.3001427 -0.7895627 0.43280372 -1.1203517 0.20236644 -0.04822322 0.37979957 0.35524312
-0.24854915 -0.14706971 0.4444397 0.19393304 -0.52619106 -0.6226112 0.34920657 -0.34437674
0.15983823 0.13868786 0.35446182 0.12460522 -0.1720536 -0.1612205 0.16613081 0.027683683
-0.5866955 -0.7881471 -0.12575106 -0.5021869 0.08299283 0.067999065 0.42446747 -0.088675514
-0.37625054 0.08695829 0.3587188 -0.36055917 -0.5792476 -1.000417 0.26270598 -0.32177204
-0.08887527 0.079706736 0.26493335 -0.32914883 -0.09612586 0.29314828 0.10431033 -0.38235986
-0.6593059 -1.1127194 -0.009384122 -0.4374167 -0.17025155 0.0897558 0.38997427 -0.66727567
-0.27996993 0.638071 0.36266014 -0.5149217 -0.49891606 -0.9968237 -0.10007369 -0.57128334
-0.15726595 -0.046621066 0.39445737 -0.53334033 -0.26241297 0.7679313 0.333999 -0.18929899
-0.7389533 -0.72912765 -0.5417128 -0.09158614 -0.22495642 -0.25932106 0.5183131 -0.5199237
-0.22837825 0.852756 0.12811463 -0.4513136 -0.5817357 -0.7646535 -0.23026903 -0.13852268
-0.40657666 -0.2523082 0.6622587 -0.48093662 0.6610053 0.66141886 -0.49771845 -0.76297873
-0.31196696 -1.1149766 -1.1938537 -0.3311516 -0.45003843 -0.56922877 0.755984 -0.39842376
00000000: 86e7 673e e3a0 12bd 8cf1 ce3e ad81 373e
00000010: 95cf f03d 7c03 34bf bc8f 033f f044 3a3e
00000020: 10c0 4abf a9f5 38bf 79e5 123f e38b 64bf
00000030: a272 6e3e 6bf6 823d 651e c03e 8ac5 633e
00000040: da54 093e 1567 16bf 174e b93e 5a3c c93d
00000050: f6e4 3fbf 4f63 4cbf bbda 243f 4cd6 9ebf
00000060: 7027 6d3e 7391 1e3e b990 b73e 6b93 703e
00000070: 7a62 273e abcd 10bf 152b 893e cc99 8f39
00000080: 5744 3ebf 35b4 4ebf 4b4e 463f d0e2 cbbf
00000090: 4972 893e bc93 bb3d 609f ba3e 5b01 9d3e
000000a0: 51da 8cbc 9b06 1abf f9de ed3e 03b0 9abd
000000b0: a620 30bf 9784 40bf d818 873f 1f8f c1bf
000000c0: 14fb 813e 72cf 2b3d e38d 733e cc5e b03e
000000d0: a5d0 a1bc 8571 01bf 1f57 eb3e 24d0 e23b
000000e0: dd7b 36bf 1db4 45bf 2d4b 723f f476 b0bf
000000f0: b38b 813e 8544 f93d d885 413e 1a94 bf3e
00000100: 8cff efbc e49b b3be 19ff c13e 2b32 893c
00000110: 6a42 52bf 74b1 3abf 3237 403f edf1 a9bf
00000120: 1068 6b3e 2fd0 2e3e b8e0 1a3e fac9 973e
00000130: e449 e63d 391d f7be 42a7 e33e cf62 bc3c
00000140: c589 41bf 4889 47bf eb3e 433f a1a8 ccbf
00000150: d017 883e b951 3f3e 3eb1 6a3e 9cf1 a13e
00000160: a5a4 2b3d 7704 c9be 97a7 fa3e f851 86bd
00000170: a47f 39bf 6605 51bf a50f 2c3f 3f2c b4bf
00000180: a59b 933e b38d 8f3d 700d b63e 5e45 803e
00000190: e789 2a3e acbc bebe 98ce f53e 9ae3 75be
000001a0: 08c2 1dbf 702f 73bf 299e 433f 3339 c3bf
000001b0: 908f 8f3e ee47 143e 0b0b a23e ca3e 1d3e
000001c0: 9b0e 363e 4d3c e1be e8f7 f63e e02f d9bd
000001d0: 004e c2be 70e1 48bf f315 4f3f f353 b7bf
000001e0: 6362 763e 5e2a e83d 88ce 843e f13f 9a3d
000001f0: 6e27 1a3e 1afd a1be b5e6 0e3f 4255 9dbd
00000200: 27c8 babe 34da 46bf 96b9 353f ced9 adbf
00000210: 0f73 443e bf0f 223e af4c 783e dd2c 9b3d
00000220: 8882 173e b07d 17bf b790 e83e 232d bbbc
00000230: abf6 79be a08c 44bf 4e81 493f a532 d1bf
00000240: 68d1 893d ad20 3e3d c5ab f63d 6558 81bd
00000250: 3d12 a83e 01e3 5c3c 172d c33e e3c7 b2bd
00000260: 4eac 99be c820 4abf 7398 dd3e af67 8fbf
00000270: 2639 4f3e b685 45bd 1775 c23e 6de2 b53e
00000280: ab83 7ebe 7199 16be 9a8d e33e 6296 463e
00000290: 75b4 06bf 7363 1fbf 34cb b23e 2652 b0be
000002a0: a2ac 233e 3104 0e3e 057c b53e 0631 ff3d
000002b0: d22e 30be fd16 25be 321e 2a3e e4c8 e23c
000002c0: ad31 16bf 02c4 49bf e3c4 00be 528f 00bf
000002d0: 25f8 a93d 1843 8b3d cd53 d93e 829b b5bd
000002e0: e9a3 c0be 3017 b23d fea9 b73e 369b b8be
000002f0: 9249 14bf aa0d 80bf 6681 863e 4ebf a4be
00000300: 3d04 b6bd 493d a33d 58a5 873e 3286 a8be
00000310: a3dd c4bd 8817 963e a7a0 d53d acc4 c3be
00000320: 45c8 28bf 976d 8ebf dcbf 19bc 15f5 dfbe
00000330: 6c56 2ebe e4d1 b73d b5aa c73e 94d2 2abf
00000340: 3858 8fbe 9f58 233f 97ae b93e e9d1 03bf
00000350: ed71 ffbe d72f 7fbf 6ff3 ccbd a03f 12bf
00000360: 530a 21be bbf5 3ebd 51f6 c93e fe88 08bf
00000370: fe5a 86be 2597 443f eb01 ab3e 98d7 41be
00000380: 0b2c 3dbf 1ca8 3abf b1ad 0abf 8491 bbbd
00000390: fa5a 66be bbc5 84be 2bb0 043f b819 05bf
000003a0: fddb 69be 384e 5a3f 7b30 033e 9412 e7be
000003b0: a1ec 14bf 55c0 43bf a5cb 6bbe e4d8 0dbe
000003c0: d12a d0be 8a2e 81be c989 293f 533d f6be
000003d0: a537 293f bf52 293f f4d4 febe 9352 43bf
000003e0: 22ba 9fbe 8eb7 8ebf 33d0 98bf b48c a9be
000003f0: 706b e6be fab8 11bf 2b88 413f 33fe cbbe

jaw_pose f4 [461, 3]
0.074543975 -0.007505483 -0.0022568288 0.0548389 -0.00508502 -0.0011373576 0.047984317 -0.005629334
-0.0008734322 0.039387546 -0.006118664 -0.0009931398 0.01754784 -0.0024303696 -0.00011757053 0.004712956
-0.000758788 0.00028203454 0.011716917 -0.002984614 -4.586971e-06 0.0076568434 -0.0022926205 -6.326776e-05
0.00569585 -0.0026601702 -0.00039948866 0.016820915 -0.00551581 -0.0019157237 0.02656588 -0.005648319
-0.0012220695 0.02817591 -0.0025992717 -0.00090716215 0.04818999 -0.003419282 -0.00063074013 0.054406583
-0.0076007694 -0.0027742004 0.03862338 -0.0069978037 -0.0017003025 0.033473127 -0.006750942 -0.0012556518
0.042838473 -0.007125406 -0.0020394302 0.06682812 -0.009374987 -0.0036613087 0.07398624 -0.013308678
-0.0035979883 0.08228526 -0.010955947 -0.005251631 0.0927798 -0.009136458 -0.0041561197 0.09198554
-0.0074870614 -0.0025016451 0.05807983 -0.0067161666 -0.0019755985 0.05584496 -0.0064868457 -0.0012332394
0.051011596 -0.010112356 -0.0036051916 0.020986766 -0.0046000583 -0.0020241016 0.022359876 -0.0076279487
-0.003056684 0.019661546 -0.0037146525 -0.001430706 0.021747783 -0.007980482 -0.0028140328 0.017438514
-0.0063062017 -0.0020822568 0.025497649 -0.0048601935 -0.0022240274 0.01930332 -0.0028523775 -0.0013350333
0.017046526 -0.0063228444 -0.002990589 0.008693465 -0.007980309 -0.0027651223 0.018721888 -0.010008299
-0.003949708 -0.00021234457 -0.008720066 -0.0033213354 -0.010748802 -0.01018386 -0.0038974334 -0.011480443
-0.007263885 -0.002550068 -0.01724019 -0.0066654645 -0.0019176692 -0.018814381 -0.0029512504 -0.0007966582
-0.013508777 -0.0068044635 -0.0024899966 -0.010874139 -0.002653015 -0.0011942859 0.0013990453 -0.0019350996
-0.00095203466 -0.0013010029 -0.0007743715 -0.0002958452 0.0003010069 -0.0031769278 -0.00085026945 -0.0012139687
-0.004209174 -0.0010717852 0.008082962 -0.0040553682 -0.0012965521 0.016546927 -0.005051841 -0.0017372913
0.027800897 -0.0050415033 -0.0018304866 0.038473986 -0.0051158266 -0.0017808448 0.049593724 -0.0048302095
-0.0018385943 0.048076253 -0.006666712 -0.0034344208 0.07766878 -0.00874719 -0.0046620546 0.049658068
-0.006629005 -0.0033404608 0.039797574 -0.00838082 -0.004199353 0.034811437 -0.007134213 -0.0025131311
0.06697514 -0.0059802807 -0.0028910572 0.06961616 -0.0069233496 -0.003959704 0.06572918 -0.0031841078
-0.0018733403 0.05729233 -0.0026672068 -0.0014609552 0.06020896 -0.0014701464 -0.0011249282 0.057384375
-0.0015225401 -0.0010684623 0.08942396 -0.0021687762 -0.0013785488 0.087504916 -0.0027647787 -0.0015976583
0.089594014 -0.0012792728 -0.0009483302 0.084738836 -0.0029066028 -0.0011718625 0.081029736 -0.0032931652
-0.0012381899 0.08389928 -0.004462019 -0.0016812301 0.08182304 -0.0029050845 -0.0017165219 0.0970221
-0.0054824324 -0.002833207 0.08476937 -0.003318709 -0.0017807768 0.0884897 -0.0034775753 -0.0015444019
0.060922448 -0.0035246557 -0.001409941 0.060559936 -0.0019204774 -0.000766645 0.06409467 -0.0010377899
-0.00027546895 0.06353257 -0.0007196452 -0.00022306168 0.07326582 -0.00043445826 1.8380491e-05 0.07710942
-0.00048164141 3.1040403e-05 0.077493116 -0.0016402489 -0.00039278998 0.07713408 -0.0011139967 -0.00020856169
0.07440034 -0.0039710533 -0.00069184287 0.096299075 -0.0039671143 -0.0014784685 0.09818655 -0.0055669933
-0.0018774612 0.09027949 -0.00428747 -0.0019415371 0.090911135 -0.0049377447 -0.0012215093 0.087462686
00000000: 83aa 983d 8ef0 f5bb 4ee7 13bb c19e 603d
00000010: 3da0 a6bb 6313 95ba 348b 443d 4776 b8bb
00000020: 0bf7 64ba d654 213d 137f c8bb 3e2c 82ba
00000030: 7dc0 8f3c d646 1fbb 3390 f6b8 246f 9a3b
00000040: 67e9 46ba 09de 9339 50f8 3f3c 8499 43bb
00000050: c8e9 99b6 42e6 fa3b ca3f 16bb 9fae 84b8
00000060: 41a4 ba3b 4056 2ebb 7672 d1b9 04cc 893c
00000070: f8bd b4bb 0519 fbba b0a0 d93c 8915 b9bb
00000080: d92d a0ba 2ad1 e63c 8b58 2abb 9fce 6dba
00000090: de62 453d 0816 60bb 4158 25ba 70d9 5e3d
000000a0: e00f f9bb 5ccf 35bb 8d33 1e3d d54d e5bb
000000b0: afdc deba 1e1b 093d 0237 ddbb af94 a4ba
000000c0: 6577 2f3d 3d7c e9bb f6a7 05bb 2edd 883d
000000d0: 8c99 19bc 91f2 6fbb 1986 973d a40c 5abc
000000e0: 3acc 6bbb 2d85 a83d 9380 33bc e015 acbb
000000f0: 5603 be3d 15b1 15bc 0f30 88bb ea62 bc3d
00000100: 0656 f5bb a4f2 23bb 1ee5 6d3d 4a13 dcbb
00000110: 0b79 01bb afbd 643d 9b8f d4bb a6a4 a1ba
00000120: 89f1 503d 4cae 25bc 1445 6cbb 70ec ab3c
00000130: 16bc 96bb caa6 04bb 0f2c b73c dff3 f9bb
00000140: a652 48bb 4011 a13c 8771 73bb 8786 bbba
00000150: 6828 b23c 91c0 02bc a36b 38bb 37db 8e3c
00000160: 41a4 cebb 7976 08bb 72e0 d03c 4242 9fbb
00000170: fdc0 11bb ff21 9e3c f4ee 3abb 49fc aeba
00000180: 28a5 8b3c dd2f cfbb c2fd 43bb 096f 0e3c
00000190: d8bf 02bc 0e37 35bb a55e 993c d9f9 23bc
000001a0: 8d6c 81bb d0a8 5eb9 9cde 0ebc c3aa 59bb
000001b0: be1b 30bc 34da 26bc 156c 7fbb 7818 3cbc
000001c0: e205 eebb 0b1f 27bb 4d3b 8dbc f869 dabb
000001d0: 4d5a fbba 9e20 9abc c469 41bb d4d6 50ba
000001e0: eb53 5dbc faf7 debb 362f 23bb 7229 32bc
000001f0: 35de 2dbb 9689 9cba 2c60 b73a 2ba3 fdba
00000200: f791 79ba 6a86 aaba 31ff 4aba ac1b 9bb9
00000210: 76d0 9d39 0134 50bb 9ee4 5eba 081e 9fba
00000220: 1ced 89bb 257b 8cba 666e 043c e5e2 84bb
00000230: 12f1 a9ba 6c8d 873c ea89 a5bb d3b5 e3ba
00000240: b5be e33c 3233 a5bb f0ec efba e696 1d3d
00000250: aaa2 a7bb 3c6b e9ba ca22 4b3d bc46 9ebb
00000260: fdfc f0ba 9beb 443d 6f74 dabb 0514 61bb
00000270: cf10 9f3d 6050 0fbc 26c4 98bb 4266 4b3d
00000280: 2038 d9bb a2eb 5abb c802 233d b54f 09bc
00000290: ba9a 89bb 7096 0e3d 1ec6 e9bb 58b3 24bb
000002a0: 432a 893d 3bf6 c3bb e477 3dbb eb92 8e3d
000002b0: 44dd e2bb 68c0 81bb 059d 863d 77ac 50bb
000002c0: df8a f5ba 5dab 6a3d 4ecc 2ebb 867d bfba
000002d0: ac9d 763d edb1 c0ba 5472 93ba e10b 6b3d
000002e0: f88f c7ba a50b 8cba e923 b73d 0722 0ebb
000002f0: 6cb0 b4ba c735 b33d 4a31 35bb 8468 d1ba
00000300: 117d b73d 46ad a7ba 5d99 78ba 8e8b ad3d
00000310: b47c 3ebb 2e99 99ba ebf2 a53d 25d2 57bb
00000320: c24a a2ba 63d3 ab3d 2136 92bb b95c dcba
00000330: d792 a73d 3b63 3ebb ebfc e0ba 86b3 c63d
00000340: faa5 b3bb 53ad 39bb 909b ad3d b37e 59bb
00000350: f468 e9ba 163a b53d 08e8 63bb 876d caba
00000360: d189 793d e9fd 66bb c5cd b8ba b20d 783d
00000370: 87b8 fbba adf8 48ba 1144 833d 7306 88ba
00000380: d16c 90b9 5d1d 823d 92a6 3cba aae5 69b9
00000390: 640c 963d 00c8 e3b9 ce2f 9a37 8beb 9d3d
000003a0: d184 fcb9 6131 0238 b6b4 9e3d 9ffd d6ba
000003b0: 61ef cdb9 79f8 9d3d 8703 92ba 5ab1 5ab9
000003c0: 355f 983d 9c1f 82bb ca5c 35ba 7338 c53d
000003d0: 91fe 81bb 2cc9 c1ba 0816 c93d 536b b6bb
000003e0: 2515 f6ba 74e4 b83d e87d 8cbb 2d7b feba
000003f0: 9e2f ba3d cecc a1bb 0d1b a0ba a31f b33d

leye_pose f4 [461, 3]
0.0 0.0 0.0 0.0 0.0 0.0 0.0 0.0
0.0 0.0 0.0 0.0 0.0 0.0 0.0 0.0
0.0 0.0 0.0 0.0 0.0 0.0 0.0 0.0
0.0 0.0 0.0 0.0 0.0 0.0 0.0 0.0
0.0 0.0 0.0 0.0 0.0 0.0 0.0 0.0
0.0 0.0 0.0 0.0 0.0 0.0 0.0 0.0
0.0 0.0 0.0 0.0 0.0 0.0 0.0 0.0
0.0 0.0 0.0 0.0 0.0 0.0 0.0 0.0
0.0 0.0 0.0 0.0 0.0 0.0 0.0 0.0
0.0 0.0 0.0 0.0 0.0 0.0 0.0 0.0
0.0 0.0 0.0 0.0 0.0 0.0 0.0 0.0
0.0 0.0 0.0 0.0 0.0 0.0 0.0 0.0
0.0 0.0 0.0 0.0 0.0 0.0 0.0 0.0
0.0 0.0 0.0 0.0 0.0 0.0 0.0 0.0
0.0 0.0 0.0 0.0 0.0 0.0 0.0 0.0
0.0 0.0 0.0 0.0 0.0 0.0 0.0 0.0
0.0 0.0 0.0 0.0 0.0 0.0 0.0 0.0
0.0 0.0 0.0 0.0 0.0 0.0 0.0 0.0
0.0 0.0 0.0 0.0 0.0 0.0 0.0 0.0
0.0 0.0 0.0 0.0 0.0 0.0 0.0 0.0
0.0 0.0 0.0 0.0 0.0 0.0 0.0 0.0
0.0 0.0 0.0 0.0 0.0 0.0 0.0 0.0
0.0 0.0 0.0 0.0 0.0 0.0 0.0 0.0
0.0 0.0 0.0 0.0 0.0 0.0 0.0 0.0
0.0 0.0 0.0 0.0 0.0 0.0 0.0 0.0
0.0 0.0 0.0 0.0 0.0 0.0 0.0 0.0
0.0 0.0 0.0 0.0 0.0 0.0 0.0 0.0
0.0 0.0 0.0 0.0 0.0 0.0 0.0 0.0
0.0 0.0 0.0 0.0 0.0 0.0 0.0 0.0
0.0 0.0 0.0 0.0 0.0 0.0 0.0 0.0
0.0 0.0 0.0 0.0 0.0 0.0 0.0 0.0
0.0 0.0 0.0 0.0 0.0 0.0 0.0 0.0
00000000: 0000 0000 0000 0000 0000 0000 0000 0000
00000010: 0000 0000 0000 0000 0000 0000 0000 0000
00000020: 0000 0000 0000 0000 0000 0000 0000 0000
00000030: 0000 0000 0000 0000 0000 0000 0000 0000
00000040: 0000 0000 0000 0000 0000 0000 0000 0000
00000050: 0000 0000 0000 0000 0000 0000 0000 0000
00000060: 0000 0000 0000 0000 0000 0000 0000 0000
00000070: 0000 0000 0000 0000 0000 0000 0000 0000
00000080: 0000 0000 0000 0000 0000 0000 0000 0000
00000090: 0000 0000 0000 0000 0000 0000 0000 0000
000000a0: 0000 0000 0000 0000 0000 0000 0000 0000
000000b0: 0000 0000 0000 0000 0000 0000 0000 0000
000000c0: 0000 0000 0000 0000 0000 0000 0000 0000
000000d0: 0000 0000 0000 0000 0000 0000 0000 0000
000000e0: 0000 0000 0000 0000 0000 0000 0000 0000
000000f0: 0000 0000 0000 0000 0000 0000 0000 0000
00000100: 0000 0000 0000 0000 0000 0000 0000 0000
00000110: 0000 0000 0000 0000 0000 0000 0000 0000
00000120: 0000 0000 0000 0000 0000 0000 0000 0000
00000130: 0000 0000 0000 0000 0000 0000 0000 0000
00000140: 0000 0000 0000 0000 0000 0000 0000 0000
00000150: 0000 0000 0000 0000 0000 0000 0000 0000
00000160: 0000 0000 0000 0000 0000 0000 0000 0000
00000170: 0000 0000 0000 0000 0000 0000 0000 0000
00000180: 0000 0000 0000 0000 0000 0000 0000 0000
00000190: 0000 0000 0000 0000 0000 0000 0000 0000
000001a0: 0000 0000 0000 0000 0000 0000 0000 0000
000001b0: 0000 0000 0000 0000 0000 0000 0000 0000
000001c0: 0000 0000 0000 0000 0000 0000 0000 0000
000001d0: 0000 0000 0000 0000 0000 0000 0000 0000
000001e0: 0000 0000 0000 0000 0000 0000 0000 0000
000001f0: 0000 0000 0000 0000 0000 0000 0000 0000
00000200: 0000 0000 0000 0000 0000 0000 0000 0000
00000210: 0000 0000 0000 0000 0000 0000 0000 0000
00000220: 0000 0000 0000 0000 0000 0000 0000 0000
00000230: 0000 0000 0000 0000 0000 0000 0000 0000
00000240: 0000 0000 0000 0000 0000 0000 0000 0000
00000250: 0000 0000 0000 0000 0000 0000 0000 0000
00000260: 0000 0000 0000 0000 0000 0000 0000 0000
00000270: 0000 0000 0000 0000 0000 0000 0000 0000
00000280: 0000 0000 0000 0000 0000 0000 0000 0000
00000290: 0000 0000 0000 0000 0000 0000 0000 0000
000002a0: 0000 0000 0000 0000 0000 0000 0000 0000
000002b0: 0000 0000 0000 0000 0000 0000 0000 0000
000002c0: 0000 0000 0000 0000 0000 0000 0000 0000
000002d0: 0000 0000 0000 0000 0000 0000 0000 0000
000002e0: 0000 0000 0000 0000 0000 0000 0000 0000
000002f0: 0000 0000 0000 0000 0000 0000 0000 0000
00000300: 0000 0000 0000 0000 0000 0000 0000 0000
00000310: 0000 0000 0000 0000 0000 0000 0000 0000
00000320: 0000 0000 0000 0000 0000 0000 0000 0000
00000330: 0000 0000 0000 0000 0000 0000 0000 0000
00000340: 0000 0000 0000 0000 0000 0000 0000 0000
00000350: 0000 0000 0000 0000 0000 0000 0000 0000
00000360: 0000 0000 0000 0000 0000 0000 0000 0000
00000370: 0000 0000 0000 0000 0000 0000 0000 0000
00000380: 0000 0000 0000 0000 0000 0000 0000 0000
00000390: 0000 0000 0000 0000 0000 0000 0000 0000
000003a0: 0000 0000 0000 0000 0000 0000 0000 0000
000003b0: 0000 0000 0000 0000 0000 0000 0000 0000
000003c0: 0000 0000 0000 0000 0000 0000 0000 0000
000003d0: 0000 0000 0000 0000 0000 0000 0000 0000
000003e0: 0000 0000 0000 0000 0000 0000 0000 0000
000003f0: 0000 0000 0000 0000 0000 0000 0000 0000

reye_pose f4 [461, 3]
0.0 0.0 0.0 0.0 0.0 0.0 0.0 0.0
0.0 0.0 0.0 0.0 0.0 0.0 0.0 0.0
0.0 0.0 0.0 0.0 0.0 0.0 0.0 0.0
0.0 0.0 0.0 0.0 0.0 0.0 0.0 0.0
0.0 0.0 0.0 0.0 0.0 0.0 0.0 0.0
0.0 0.0 0.0 0.0 0.0 0.0 0.0 0.0
0.0 0.0 0.0 0.0 0.0 0.0 0.0 0.0
0.0 0.0 0.0 0.0 0.0 0.0 0.0 0.0
0.0 0.0 0.0 0.0 0.0 0.0 0.0 0.0
0.0 0.0 0.0 0.0 0.0 0.0 0.0 0.0
0.0 0.0 0.0 0.0 0.0 0.0 0.0 0.0
0.0 0.0 0.0 0.0 0.0 0.0 0.0 0.0
0.0 0.0 0.0 0.0 0.0 0.0 0.0 0.0
0.0 0.0 0.0 0.0 0.0 0.0 0.0 0.0
0.0 0.0 0.0 0.0 0.0 0.0 0.0 0.0
0.0 0.0 0.0 0.0 0.0 0.0 0.0 0.0
0.0 0.0 0.0 0.0 0.0 0.0 0.0 0.0
0.0 0.0 0.0 0.0 0.0 0.0 0.0 0.0
0.0 0.0 0.0 0.0 0.0 0.0 0.0 0.0
0.0 0.0 0.0 0.0 0.0 0.0 0.0 0.0
0.0 0.0 0.0 0.0 0.0 0.0 0.0 0.0
0.0 0.0 0.0 0.0 0.0 0.0 0.0 0.0
0.0 0.0 0.0 0.0 0.0 0.0 0.0 0.0
0.0 0.0 0.0 0.0 0.0 0.0 0.0 0.0
0.0 0.0 0.0 0.0 0.0 0.0 0.0 0.0
0.0 0.0 0.0 0.0 0.0 0.0 0.0 0.0
0.0 0.0 0.0 0.0 0.0 0.0 0.0 0.0
0.0 0.0 0.0 0.0 0.0 0.0 0.0 0.0
0.0 0.0 0.0 0.0 0.0 0.0 0.0 0.0
0.0 0.0 0.0 0.0 0.0 0.0 0.0 0.0
0.0 0.0 0.0 0.0 0.0 0.0 0.0 0.0
0.0 0.0 0.0 0.0 0.0 0.0 0.0 0.0
00000000: 0000 0000 0000 0000 0000 0000 0000 0000
00000010: 0000 0000 0000 0000 0000 0000 0000 0000
00000020: 0000 0000 0000 0000 0000 0000 0000 0000
00000030: 0000 0000 0000 0000 0000 0000 0000 0000
00000040: 0000 0000 0000 0000 0000 0000 0000 0000
00000050: 0000 0000 0000 0000 0000 0000 0000 0000
00000060: 0000 0000 0000 0000 0000 0000 0000 0000
00000070: 0000 0000 0000 0000 0000 0000 0000 0000
00000080: 0000 0000 0000 0000 0000 0000 0000 0000
00000090: 0000 0000 0000 0000 0000 0000 0000 0000
000000a0: 0000 0000 0000 0000 0000 0000 0000 0000
000000b0: 0000 0000 0000 0000 0000 0000 0000 0000
000000c0: 0000 0000 0000 0000 0000 0000 0000 0000
000000d0: 0000 0000 0000 0000 0000 0000 0000 0000
000000e0: 0000 0000 0000 0000 0000 0000 0000 0000
000000f0: 0000 0000 0000 0000 0000 0000 0000 0000
00000100: 0000 0000 0000 0000 0000 0000 0000 0000
00000110: 0000 0000 0000 0000 0000 0000 0000 0000
00000120: 0000 0000 0000 0000 0000 0000 0000 0000
00000130: 0000 0000 0000 0000 0000 0000 0000 0000
00000140: 0000 0000 0000 0000 0000 0000 0000 0000
00000150: 0000 0000 0000 0000 0000 0000 0000 0000
00000160: 0000 0000 0000 0000 0000 0000 0000 0000
00000170: 0000 0000 0000 0000 0000 0000 0000 0000
00000180: 0000 0000 0000 0000 0000 0000 0000 0000
00000190: 0000 0000 0000 0000 0000 0000 0000 0000
000001a0: 0000 0000 0000 0000 0000 0000 0000 0000
000001b0: 0000 0000 0000 0000 0000 0000 0000 0000
000001c0: 0000 0000 0000 0000 0000 0000 0000 0000
000001d0: 0000 0000 0000 0000 0000 0000 0000 0000
000001e0: 0000 0000 0000 0000 0000 0000 0000 0000
000001f0: 0000 0000 0000 0000 0000 0000 0000 0000
00000200: 0000 0000 0000 0000 0000 0000 0000 0000
00000210: 0000 0000 0000 0000 0000 0000 0000 0000
00000220: 0000 0000 0000 0000 0000 0000 0000 0000
00000230: 0000 0000 0000 0000 0000 0000 0000 0000
00000240: 0000 0000 0000 0000 0000 0000 0000 0000
00000250: 0000 0000 0000 0000 0000 0000 0000 0000
00000260: 0000 0000 0000 0000 0000 0000 0000 0000
00000270: 0000 0000 0000 0000 0000 0000 0000 0000
00000280: 0000 0000 0000 0000 0000 0000 0000 0000
00000290: 0000 0000 0000 0000 0000 0000 0000 0000
000002a0: 0000 0000 0000 0000 0000 0000 0000 0000
000002b0: 0000 0000 0000 0000 0000 0000 0000 0000
000002c0: 0000 0000 0000 0000 0000 0000 0000 0000
000002d0: 0000 0000 0000 0000 0000 0000 0000 0000
000002e0: 0000 0000 0000 0000 0000 0000 0000 0000
000002f0: 0000 0000 0000 0000 0000 0000 0000 0000
00000300: 0000 0000 0000 0000 0000 0000 0000 0000
00000310: 0000 0000 0000 0000 0000 0000 0000 0000
00000320: 0000 0000 0000 0000 0000 0000 0000 0000
00000330: 0000 0000 0000 0000 0000 0000 0000 0000
00000340: 0000 0000 0000 0000 0000 0000 0000 0000
00000350: 0000 0000 0000 0000 0000 0000 0000 0000
00000360: 0000 0000 0000 0000 0000 0000 0000 0000
00000370: 0000 0000 0000 0000 0000 0000 0000 0000
00000380: 0000 0000 0000 0000 0000 0000 0000 0000
00000390: 0000 0000 0000 0000 0000 0000 0000 0000
000003a0: 0000 0000 0000 0000 0000 0000 0000 0000
000003b0: 0000 0000 0000 0000 0000 0000 0000 0000
000003c0: 0000 0000 0000 0000 0000 0000 0000 0000
000003d0: 0000 0000 0000 0000 0000 0000 0000 0000
000003e0: 0000 0000 0000 0000 0000 0000 0000 0000
000003f0: 0000 0000 0000 0000 0000 0000 0000 0000
