test_dataset/gait_700/20250820_c2_a5_Take3/split_subjects/0/fit-smplx/smplx-params.npz (npz, 112826 bytes, 10 tensors)

betas f4 [226, 10]
000000 a5 2f 0a c0 7d 09 4a bf d3 a3 06 3f 47 a5 12 bf
       -2.159158 -0.7892073 0.52593726 -0.57283443
000010 6c 10 1c bf 67 ea ad 3d e9 43 d5 be 04 bf e8 3f
       -0.6096256 0.08491974 -0.41653374 1.8183293
000020 20 0a 6f 3e bb 5e 46 3d ac 3b 1c c0 25 e5 bc bf
       0.23343706 0.048430186 -2.441142 -1.4757429
000030 6c 96 d1 bd 69 26 7c bf ad a1 52 bf 70 d3 e6 bd
       -0.10233769 -0.9849611 -0.8227795 -0.11270797
000040 79 c5 0c be 36 cc de 3f 6f c8 a6 3e 16 e0 ee 3c
       -0.13747205 1.740607 0.32574794 0.029159587
000050 29 dd 18 c0 74 18 d3 bf 73 2a 7c be cc b4 56 bf
       -2.3884985 -1.6491838 -0.24625568 -0.83869624
000060 44 86 63 bf b2 0e 11 bd 50 4f 36 be 73 d4 bc 3f
       -0.8887675 -0.035414405 -0.17803693 1.4752334
000070 c0 65 94 3e 41 50 d0 3d 6c 95 13 c0 15 25 c6 bf
       0.2898388 0.10171557 -2.305995 -1.5480067
000080 d3 01 33 be 15 6a 35 bf 23 24 86 bf 50 97 74 bd
       -0.17481165 -0.70864993 -1.0479778 -0.059714615
000090 ee ea 53 be 8f 3e 74 3f 1e 84 77 3e 0b e9 ef 3d
       -0.20695087 0.95407957 0.24171492 0.11714371
0000a0 2e 7d 0f c0 16 c2 b6 bf 03 ed 03 be 70 f5 15 bf
       -2.2420154 -1.427798 -0.12883382 -0.5857763
0000b0 80 2c 82 bf b9 b7 5e bd c9 09 78 be 89 39 36 3f
       -1.016983 -0.05437443 -0.24222483 0.7118154
0000c0 b1 0b 04 3e ac d7 e8 3d 07 e0 0a c0 95 02 9b bf
       0.12895085 0.11369261 -2.1699235 -1.2110163
0000d0 1e 61 02 be 83 d4 06 bf cf a8 5f bf 84 2d 48 3d
       -0.1273236 -0.5266802 -0.87366956 0.048871532
0000e0 c0 7a 8b be f9 68 5e 3f d2 a7 f9 3c 6c 3b d5 3d
       -0.27242088 0.86878926 0.03047553 0.104117244
0000f0 12 8e 07 c0 94 38 73 bf 88 fd 39 be 0e 7a 06 bf
       -2.1180463 -0.95008206 -0.18163121 -0.5252999
000100 09 be 60 bf fc 85 a4 bd b1 5b 98 be b9 b9 84 3f
       -0.8778997 -0.08033368 -0.29757455 1.0369178
000110 30 4f a7 bd 23 a6 de 3d 59 6a 06 c0 c1 af 51 bf
       -0.08169401 0.10871532 -2.100241 -0.81908804
000120 02 fd 97 be 6f 0d 12 bf 93 7d 4c bf 02 f0 b4 bd
       -0.29685217 -0.5705175 -0.7987911 -0.0883484
000130 cc 71 ac be 15 d0 95 3f d2 6e 05 be c5 8c 4f 3d
       -0.3368057 1.1704127 -0.13030556 0.050671358
000140 ce 5c 04 c0 f7 00 3e bf 08 fc ba be c9 5a 18 bf
       -2.0681643 -0.7422022 -0.3652041 -0.5951353
000150 cc 2e 36 bf 58 ac 50 be cc 55 50 be 05 33 8b 3f
       -0.71165156 -0.20378244 -0.20345229 1.0874945
000160 97 00 05 be 8a 0b 57 3d db a8 06 c0 f7 1e 27 bf
       -0.12988506 0.05250124 -2.1040561 -0.65281624
000170 af 58 c3 be b4 94 20 bf ed 76 32 bf 58 79 9c be
       -0.38153598 -0.627269 -0.69712716 -0.30561328
000180 12 05 2b be 31 ed 85 3f 3a 32 a7 bd 20 5e bc 3d
       -0.16701153 1.046301 -0.08163877 0.091976404
000190 7e f7 08 c0 9c 51 13 bf 9c c1 df be 40 aa 30 bf
       -2.1401057 -0.575464 -0.437024 -0.6900978
0001a0 bf 93 16 bf 22 82 bb be 28 3f c9 bd 65 ce 6f 3f
       -0.5881919 -0.3662272 -0.09826499 0.9367431
0001b0 a4 65 ab bc 2b 0b c1 3d ec de 09 c0 94 fe 08 bf
       -0.02092249 0.09425958 -2.154231 -0.53513455
0001c0 39 54 e3 be 90 69 38 bf a9 e0 23 bf 56 94 ee be
       -0.44400194 -0.72036076 -0.6401468 -0.46597546
0001d0 0e 69 bc bd a6 87 52 3f 6b 23 8b bd f9 d8 9c 3d
       -0.09199725 0.82238233 -0.06793865 0.07658572
0001e0 99 7a 05 c0 e1 94 1b bf 31 72 f4 be 1b d5 27 bf
       -2.0856078 -0.60774046 -0.4774337 -0.6555955
0001f0 1e df 36 bf 65 4f e3 be 8a 69 26 be 4e ec 5b 3f
       -0.714342 -0.4439651 -0.16251197 0.8590745
000200 81 1f f2 bd 75 2f 84 3d c4 e8 05 c0 16 fc 23 bf
       -0.11822415 0.06454364 -2.092332 -0.6405653
000210 5c 84 d6 be 65 22 2e bf c0 99 4c bf 0e 57 ec be
       -0.41897857 -0.6802123 -0.79922104 -0.46160167
000220 92 9e 20 be a6 76 81 3f ff 7b 31 be aa 1d 57 3d
       -0.1568549 1.0114334 -0.17332457 0.052518524
000230 50 ef 07 c0 15 25 2c bf 32 88 d5 be ab ec 22 bf
       -2.1239815 -0.6724408 -0.4170547 -0.63642377
000240 c0 2b 4f bf 71 c7 d3 be e0 63 2c be 7b cb 7f 3f
       -0.8092613 -0.413631 -0.16834974 0.9991986
000250 00 54 5b be 6f fd ae 3d 50 24 05 c0 85 6e 30 bf
       -0.21418762 0.08544432 -2.0803413 -0.6891864
000260 74 d3 e7 be a8 0c 12 bf 65 d8 43 bf 71 7a ab be
       -0.45278513 -0.5705056 -0.76502067 -0.33491853
000270 23 75 96 be 6a 0a 75 3f 5e 22 95 be f6 79 c5 3d
       -0.29386243 0.95719016 -0.29127783 0.09642403
000280 11 58 03 c0 17 4a 3b bf bf 41 e1 be 4a 5f 06 bf
       -2.0522501 -0.7315993 -0.43995473 -0.5248915
000290 07 6e 49 bf 47 d7 8f be 54 c5 a4 be f4 eb 6c 3f
       -0.78683513 -0.2809393 -0.321818 0.92547536
0002a0 53 be af be 7b a7 8a 3d ae 5f 00 c0 a0 83 42 bf
       -0.34324893 0.067702256 -2.0058398 -0.75982094
0002b0 12 f8 ee be 6e 47 de be 7d b8 3e bf 92 f0 69 be
       -0.46673638 -0.43413872 -0.74500257 -0.22845677
0002c0 ae eb ae be 69 4c 6a 3f 48 f8 bc be de 54 98 3d
       -0.34164184 0.9152284 -0.36908174 0.07438062
0002d0 6d e1 fd bf 53 75 43 bf 6c 48 00 bf 7a 26 d6 be
       -1.983442 -0.763509 -0.50110507 -0.4182623
0002e0 d5 89 46 bf 70 33 5b be ab 6f b2 be 2e 6d 60 3f
       -0.77554065 -0.2140634 -0.3485082 0.87666595
0002f0 fb e6 ca be 81 73 d9 3d 18 55 f6 bf 81 52 55 bf
       -0.3962935 0.10617734 -1.9244719 -0.83329016
000300 3d a3 f4 be 69 4c b8 be df b0 47 bf 71 24 4f be
       -0.4778079 -0.35995796 -0.7800426 -0.20228745
000310 4a f5 b0 be 19 24 60 3f 67 4a d1 be 4e 56 79 3d
       -0.3456214 0.8755508 -0.40877077 0.060873322
000320 ba 3f f1 bf 2c 2f 4a bf 5b 30 13 bf 8b 2f c1 be
       -1.8847573 -0.7897823 -0.5749566 -0.37731585
000330 0b 83 34 bf 75 00 1f be 44 4b 9d be 24 af 52 3f
       -0.70512456 -0.15527518 -0.30721486 0.82298493
000340 91 5b 9e be 08 c0 03 3d 98 63 ef bf 09 ef 50 bf
       -0.30929235 0.032165557 -1.8702269 -0.8161474
000350 86 b6 04 bf 55 6a af be af 4a 3b bf 29 04 35 be
       -0.5184101 -0.34260812 -0.73160833 -0.17677368
000360 44 2c b3 be 1c 47 40 3f f9 45 8b be 59 2a e8 3c
       -0.3499471 0.75108504 -0.27201822 0.028340505
000370 e3 08 f3 bf 6c fc 56 bf a0 72 fb be 10 28 98 be
       -1.8987087 -0.83978915 -0.4911089 -0.29718065
000380 ef b8 3f bf 2f 80 2c be cc 18 bb be 85 69 38 3f
       -0.7489156 -0.16845773 -0.36542356 0.7203601
000390 67 24 88 be c9 d3 2d 3d 64 ba f2 bf 9b 56 58 bf
       -0.26590273 0.042438302 -1.8963132 -0.8450715
0003a0 59 42 fa be 7c 63 8c be b5 38 46 bf 3b 1b 42 be
       -0.48878744 -0.2741965 -0.7743028 -0.189557
0003b0 12 0c c7 be 06 bf 39 3f 12 0d 97 be 5d 14 10 3d
       -0.38876396 0.72557104 -0.2950216 0.03517567
0003c0 65 54 f1 bf 11 86 53 bf b2 1a fb be 06 ec 94 be
       -1.885388 -0.82626444 -0.49043804 -0.29086322
0003d0 ed f1 46 bf 40 a4 4b be 78 78 ca be 87 aa 38 3f
       -0.777129 -0.19886875 -0.39545035 0.72135204
0003e0 24 a0 8c be fc 71 37 3d 63 e6 f0 bf d7 48 4d bf
       -0.27465928 0.04478644 -1.8820308 -0.8018927
0003f0 26 90 f4 be 4d 4c ae be d7 e9 4c bf b2 33 64 be
       -0.47766227 -0.34042588 -0.8004431 -0.22285345

global_orient f4 [226, 3]
000000 1b c0 54 bd cc 40 24 c0 03 f0 81 be 23 61 04 bd
       -0.05194102 -2.566455 -0.25378427 -0.0323192
000010 ec d5 22 c0 5c 7d eb bd c2 40 17 bd 2d 3f 23 c0
       -2.5443068 -0.1149852 -0.036926992 -2.550731
000020 52 59 96 bd b3 07 fb bc 4e 02 25 c0 f7 d8 58 bd
       -0.07341255 -0.03064332 -2.5782657 -0.05294129
000030 26 99 8a bc 78 9c 26 c0 27 cf 7e bd 88 a4 38 bc
       -0.01691873 -2.6033 -0.062209275 -0.011269696
000040 53 3c 27 c0 ca 6d d5 bd e0 cc 68 ba c5 57 28 c0
       -2.613057 -0.10421331 -0.00088806264 -2.630357
000050 d8 12 18 be 62 85 1c 3b 50 94 2a c0 48 1c 1e be
       -0.14850938 0.0023883213 -2.6653023 -0.15440476
000060 92 36 22 3c 70 80 2b c0 b9 4e 21 be f5 f9 a4 3a
       0.009900706 -2.6797142 -0.15752687 0.00125867
000070 46 21 2c c0 32 c7 1e be a9 8b 20 bc 7c 01 2d c0
       -2.6895308 -0.15505674 -0.009798923 -2.7032156
000080 ab 11 16 be 25 07 cc bc f2 6d 2d c0 4d 65 03 be
       -0.14655177 -0.02490575 -2.7098355 -0.12831612
000090 38 4c 37 bd 6a 85 2d c0 24 6a fd bd 8e 5b 7b bd
       -0.044750422 -2.711268 -0.1237376 -0.06136661
0000a0 6b e8 2d c0 b3 99 fe bd 7a 35 8b bd 85 56 2d c0
       -2.7173107 -0.124316595 -0.06797309 -2.7084057
0000b0 73 5a 04 be a5 2a 65 bd 46 20 2d c0 21 02 15 be
       -0.12925129 -0.055948872 -2.7050948 -0.14551593
0000c0 c6 d6 3e bd 20 7c 2c c0 69 e9 27 be 51 ca d2 bc
       -0.046591543 -2.695076 -0.16397633 -0.025731238
0000d0 e3 29 2c c0 95 0a 35 be 08 e9 63 bc aa 1d 2b c0
       -2.6900566 -0.17679818 -0.013910539 -2.6736856
0000e0 f3 ce 36 be 36 26 16 bc fe 48 29 c0 4d 9c 36 be
       -0.17852382 -0.009164384 -2.64508 -0.17833062
0000f0 7b 40 72 bb 73 86 27 c0 55 04 39 be 24 1d 96 39
       -0.0036964703 -2.6175811 -0.18068059 0.0002863194
000100 47 24 26 c0 1a 1d 39 be e4 8c 30 bb 1f 8c 25 c0
       -2.5959642 -0.18077508 -0.0026939446 -2.5866773
000110 8c ec 38 be 51 89 38 bc 8c 98 24 c0 75 dc 35 be
       -0.18058985 -0.0112632075 -2.5718107 -0.17759879
000120 7f 62 6d bc 3b 85 23 c0 6f 2e 2e be 90 6f 74 bc
       -0.014488815 -2.5550067 -0.170099 -0.014919177
000130 2d e8 22 c0 95 e7 24 be 7d fb d8 bb 94 61 22 c0
       -2.545421 -0.16103967 -0.0066217766 -2.5372057
000140 cf 23 1d be 52 d8 09 3b be 29 22 c0 4e 8c 19 be
       -0.15345691 0.0021033478 -2.5337977 -0.14994928
000150 4f 1f 41 3c a0 06 23 c0 2d 27 14 be 9b e3 a2 3c
       0.01178725 -2.5472794 -0.1446807 0.019883921
000160 b5 8a 23 c0 8c 86 0c be e3 24 fd 3c e6 76 24 c0
       -2.555341 -0.137232 0.030901378 -2.569757
000170 f9 b7 0c be 8c 93 f3 3c c1 37 25 c0 3a 24 0c be
       -0.13742055 0.029733442 -2.581528 -0.13685694
000180 10 08 b1 3c 07 3d 26 c0 28 96 0d be 91 20 56 3c
       0.02161029 -2.5974748 -0.13826811 0.013069288
000190 a9 5f 27 c0 bb fb 15 be 89 c3 50 3c 4c a3 29 c0
       -2.6152136 -0.14646809 0.012741932 -2.6505919
0001a0 1d 05 1a be 3a 87 55 3c 5c 70 2b c0 00 0c 17 be
       -0.15041013 0.013032729 -2.6787329 -0.14750671
0001b0 33 07 68 3b e7 5a 2c c0 9b ad 17 be a8 f6 ce bb
       0.0035404682 -2.6930482 -0.14812319 -0.006316025
0001c0 e1 98 2c c0 52 c1 17 be 6e 9d 07 bc 2c 99 2d c0
       -2.696831 -0.1481984 -0.00827728 -2.7124739
0001d0 6d 15 1a be e1 0c 03 bc d5 f3 2d c0 2f b3 1c be
       -0.15047236 -0.007998676 -2.7180073 -0.15302728
0001e0 10 cc c3 bb d8 82 2e c0 09 97 21 be fd b9 28 bc
       -0.005975254 -2.726736 -0.15780272 -0.010298249
0001f0 95 e5 2d c0 3a e6 22 be 9f 78 4f bc 15 09 2d c0
       -2.7171376 -0.15908137 -0.012663036 -2.7036793
000200 2a 58 30 be 58 8f c6 bc e7 1f 2b c0 c6 92 2e be
       -0.17221132 -0.024238274 -2.6738222 -0.17048177
000210 5e a1 08 bd e3 87 29 c0 bc bb 21 be 1c ae 25 bd
       -0.033357017 -2.6489189 -0.15794271 -0.040449247
000220 70 9e 28 c0 90 f1 18 be 4f 47 3a bd 94 6b 27 c0
       -2.6346703 -0.14935899 -0.04547816 -2.615941
000230 3b 26 11 be 07 f6 68 bd b5 34 26 c0 cd 10 13 be
       -0.1417474 -0.056875255 -2.596967 -0.14361878
000240 45 e4 5a bd 16 b1 23 c0 6a 48 15 be 68 26 34 bd
       -0.05344035 -2.5576835 -0.14578405 -0.04398194
000250 96 9c 21 c0 a8 54 1c be 86 c5 51 bd 7a 9b 1e c0
       -2.5251822 -0.15266669 -0.051213764 -2.4782395
000260 ec 5f 17 be b3 4e 47 bd 9a 23 1b c0 6a 65 10 be
       -0.14782685 -0.048659038 -2.424048 -0.14101186
000270 eb cf 43 bd ac f1 16 c0 9b 70 03 be e4 1c 43 bd
       -0.047805708 -2.3585005 -0.12835924 -0.047634974
000280 68 68 12 c0 3e d1 f0 bd 04 0f 5d bd 0e b0 0e c0
       -2.2876225 -0.1175866 -0.0539694 -2.2294955
000290 05 cc df bd 1e 0c 91 bd 43 13 0a c0 91 8b c6 bd
       -0.109275855 -0.07082389 -2.1574256 -0.09694589
0002a0 b9 7f a3 bd c9 50 05 c0 0b c4 a9 bd 84 e4 aa bd
       -0.079833455 -2.0830557 -0.08289345 -0.08344367
0002b0 36 a8 00 c0 45 f6 86 bd 2e 3c 9e bd ac 8b f7 bf
       -2.0102668 -0.06589941 -0.07726322 -1.93395
0002c0 36 0e 6b bd 58 63 8a bd 8c 03 f0 bf 95 f3 52 bd
       -0.0573866 -0.067572296 -1.8751082 -0.05150183
0002d0 cf 0e 32 bd 65 ea e9 bf c5 f0 4b bd 8f 34 dd bc
       -0.043471154 -1.8274657 -0.049790163 -0.027002601
0002e0 79 11 e4 bf a8 ab 35 bd 7f b7 89 bb e3 34 de bf
       -1.7817832 -0.044353157 -0.0042027826 -1.735989
0002f0 01 f2 36 bd 4d b8 12 3c 3b 58 d5 bf 6e 17 3f bd
       -0.044664387 0.008955074 -1.6667551 -0.046653204
000300 c2 46 3b 3c f3 45 cd bf fd 1a 31 bd ef f7 64 3c
       0.011430444 -1.6036972 -0.04323863 0.013975128
000310 6c 24 c9 bf f2 2e 25 bd c9 1a c4 3c ce 0e c7 bf
       -1.571424 -0.040327974 0.023938553 -1.5551393
000320 a4 92 0f bd d7 3c 27 3d 5a d1 c5 bf 4a ed 15 bd
       -0.035051957 0.040829506 -1.5454514 -0.03660325
000330 5c 2b 5a 3d d9 05 c5 bf e9 d7 fb bc 95 2c 80 3d
       0.053264007 -1.539241 -0.030742602 0.06258503
000340 c7 87 c3 bf d3 9d df bc 03 d5 8d 3d 42 4b c3 bf
       -1.5275811 -0.027296936 0.069253944 -1.5257342
000350 6a 92 d6 bc 8f 86 90 3d 8f dc c2 bf e5 4b b8 bc
       -0.026192863 0.07056915 -1.5223559 -0.022497127
000360 bf 74 94 3d 90 59 c3 bf a5 38 b0 bc bb c1 93 3d
       0.0724883 -1.5261707 -0.021511385 0.072146855
000370 84 69 c1 bf 7d 04 e0 bb d0 b6 87 3d a8 64 c1 bf
       -1.5110326 -0.0068364725 0.066266656 -1.5108843
000380 ce e3 3f bb 59 f5 8f 3d bd da c0 bf 7a a1 46 3c
       -0.002928007 0.07029218 -1.5066754 0.01212346
000390 16 1b 95 3d ed 15 c0 bf 61 cf da 3c c7 a4 93 3d
       0.07280557 -1.5006691 0.026710214 0.07209163
0003a0 00 9d bf bf db c6 11 3d 76 b5 8b 3d ed a9 be bf
       -1.4969788 0.035590034 0.0682172 -1.4895607
0003b0 ee cc 26 3d fa d2 83 3d 5e 3f be bf 2d 34 6f 3d
       0.04072278 0.06436725 -1.4863088 0.058399368
0003c0 c2 4f 58 3d 5b ce bd bf 33 c9 93 3d 41 02 26 3d
       0.052810438 -1.48286 0.0721611 0.040529493
0003d0 f1 cd be bf 01 18 b7 3d da 23 e3 3c af b3 be bf
       -1.4906598 0.08940125 0.027727056 -1.4898585
0003e0 0a ea c4 3d 24 14 5f 3c fa ba be bf 6e 2c c8 3d
       0.09614952 0.013615642 -1.4900811 0.09774099
0003f0 f7 54 8a 3a 54 c4 be bf df fe c3 3d 77 88 34 bc
       0.0010553886 -1.4903665 0.09570097 -0.011018864

body_pose f4 [226, 63]
000000 eb 7e 8e be eb ba c3 3d e1 a1 9e 3c 66 e3 c7 3c
       -0.27831206 0.09557136 0.0193643 0.024400424
000010 56 20 fd 3d 00 69 ee 3d 87 8d 52 3e a5 8a 91 bd
       0.12359683 0.11641121 0.20561801 -0.071065225
000020 cc c6 12 3e 56 b6 78 3f d4 5b 9b be 2c 5f 63 3d
       0.14333647 0.9715322 -0.30343497 0.055510685
000030 45 ba c6 3e 34 06 bb bd 0f df 6d bd f3 8c dc 3d
       0.38813987 -0.091320425 -0.058074053 0.107690714
000040 8e 31 c1 bd 34 fb 89 bc b7 1f 78 bd 43 aa 02 be
       -0.0943328 -0.016843416 -0.06057712 -0.12760262
000050 23 02 77 bd ce 34 8d bd 3b 75 30 be 93 82 ba 3d
       -0.060304772 -0.06894837 -0.1723222 0.09106936
000060 3e e6 fa 3d 85 0d 92 bd 13 e7 0e bd ae 5a 80 37
       0.122509465 -0.07131485 -0.03488834 1.5301015e-05
000070 54 f7 83 b7 11 de 84 37 6b d4 7e 37 85 d1 85 37
       -1.5731588e-05 1.5839034e-05 1.5189037e-05 1.59524e-05
000080 71 1e 79 37 5f 51 7a 3e 57 02 1d 3d a6 34 4b be
       1.4848644e-05 0.24445103 0.03833231 -0.19844303
000090 01 fb 1f bd b7 bf 6b be ab 6b d4 be 12 3d b0 3d
       -0.039057735 -0.23022352 -0.41488394 0.08605398
0000a0 8e 59 f1 3e 10 b1 a6 3e 3f 6c b2 3d 5a 55 ad 3d
       0.47138637 0.32556963 0.087120526 0.08463545
0000b0 02 3e 05 3e 19 71 11 be be 3e 71 be a0 15 5e bf
       0.13011935 -0.142033 -0.2355909 -0.8675175
0000c0 ee ee 34 bd 6d d6 78 3e 50 af 2d 3f f6 a0 13 bc
       -0.044173174 0.24300547 0.6784563 -0.009010544
0000d0 b0 f4 0f be 2b a4 ce bc 7f 91 24 bd ed f2 09 3f
       -0.14058185 -0.025224766 -0.04017782 0.538863
0000e0 b1 e5 7d bc b5 ba c1 bc a3 88 b2 3e 0b b6 a8 3e
       -0.015496657 -0.0236486 0.3486987 0.32951388
0000f0 c3 2b 8a 3d 44 1c 27 be 33 35 29 be 29 41 d6 be
       0.06746628 -0.16319376 -0.165242 -0.41846588
000100 e5 22 02 bc e3 7f b4 3b 09 e3 bd bc 3e 4b 03 3e
       -0.00794289 0.0055084093 -0.023179548 0.12821671
000110 83 9a aa 3d f8 a7 00 3e 31 94 0a bd 1a 0e 3e 3e
       0.08330252 0.12564075 -0.033832733 0.18560067
000120 b6 97 70 3f 2c 64 75 be 1a 37 a5 bc a5 f6 bb 3e
       0.9398149 -0.23963994 -0.020167876 0.36711612
000130 c3 76 ba bd 30 25 24 bd 4b 2e d3 bc 63 6d 2e bd
       -0.09104683 -0.040074527 -0.02577891 -0.042584788
000140 41 df 84 bd 8f 1c 99 3d ba 0e 09 be f7 12 98 bd
       -0.06487895 0.0747615 -0.13384524 -0.07425492
000150 f2 c9 93 be 2c 34 39 be 38 b0 8c 3d 8f 55 be 3d
       -0.2886501 -0.18086308 0.068695486 0.09293663
000160 a8 aa 58 bd 70 6d 93 bd 3b 85 83 37 49 3d 91 b7
       -0.052897125 -0.07198608 1.5678457e-05 -1.7313885e-05
000170 b1 3a 84 37 90 b8 6d 37 f4 d5 84 37 3d 27 7e b7
       1.5762957e-05 1.4169273e-05 1.5835256e-05 -1.5148716e-05
000180 dd 50 9a 3e 3e 7b 78 bc 03 7e 94 bd 87 62 21 3c
       0.3013982 -0.015166102 -0.07250597 0.009850151
000190 79 d6 1a be 17 db c6 be 5d 87 c1 3c 68 28 24 3e
       -0.15120877 -0.38839027 0.023624117 0.16031039
0001a0 ab 90 b7 3e ed 5f 2f 3e 68 cf 8d 3c 86 4b 5c 3d
       0.3585256 0.17126437 0.017310813 0.053782962
0001b0 61 ed ef bd 80 40 c1 bd 63 2b 65 bf 6d 5a 49 3c
       -0.11715198 -0.094361305 -0.8951933 0.012289626
0001c0 c1 68 4a 3e 89 2e 33 3f 33 ba b6 bc d5 da 63 be
       0.19766523 0.6999288 -0.022305584 -0.22251447
0001d0 26 b7 dc bd 76 5a 9f 3c 90 48 17 3f 5d 71 2c 3e
       -0.1077712 0.019452315 0.59095097 0.1684012
0001e0 61 ba 5c 3d e5 8c b5 3e 66 92 df 3e ac 2d 47 3e
       0.053888682 0.35459056 0.4366638 0.19451016
0001f0 66 8e 3d be 10 8b 4d be bf 41 fb be a8 2b f2 3a
       -0.18511352 -0.2007258 -0.49073598 0.0018476145
000200 92 d2 1e bd da af e8 bc 00 b0 17 3e d2 28 66 3d
       -0.038775034 -0.028404165 0.14813232 0.056191273
000210 33 cb b1 3d 1d 92 1b bd 55 05 58 3e cd d0 5f 3f
       0.08681335 -0.03798114 0.21095784 0.8742798
000220 39 69 82 be b9 34 83 bc 73 1b ad 3e 7c d4 1c be
       -0.25470904 -0.016016351 0.33810005 -0.15315431
000230 12 37 9c 3a 4e 3a 50 bd e3 3f df bc 44 16 a4 bd
       0.0011918268 -0.050836854 -0.027252143 -0.08012059
000240 b6 58 4c 3d 94 74 c5 bd 52 b8 77 bd 56 67 30 be
       0.04988929 -0.09641376 -0.060478516 -0.1722692
000250 64 66 13 be e5 6e 32 bb d6 9b ed 3d 15 20 cf bc
       -0.14394528 -0.0027226743 0.11601989 -0.025283853
000260 de 53 c4 bd bd 6a 6d b7 c6 93 8c b7 4b 99 80 37
       -0.09586309 -1.4151153e-05 -1.6758113e-05 1.5330172e-05
000270 a2 7b 78 37 76 38 84 37 42 ea 7c b7 fa f8 a6 3e
       1.4810737e-05 1.5761918e-05 -1.5074913e-05 0.3261183
000280 47 90 e9 bc df 09 a1 bd e3 02 d7 3c d8 11 0e be
       -0.02851118 -0.07863211 0.026246494 -0.13873994
000290 bb 34 b3 be 6a 88 19 3d 0a 2f 07 3e 2d 6d ae 3e
       -0.35001168 0.03748361 0.13201538 0.3406767
0002a0 7d b6 2d 3e ad 77 ff 3c 82 1f 4a 3d 05 b0 d5 bd
       0.16964145 0.031184996 0.049346454 -0.10433964
0002b0 61 5e a9 bd 1e 3a 69 bf 61 58 b2 ba 60 cc 67 3e
       -0.082699545 -0.91104305 -0.0013606661 0.22636557
0002c0 59 02 35 3f 20 38 75 bc 86 3a 32 be 5e 02 f5 bd
       0.7070671 -0.0149669945 -0.17405137 -0.11963342
0002d0 2b d0 ba 3d 5e e2 09 3f da d1 31 3e ab 5c 55 3d
       0.09121736 0.53861034 0.17365208 0.05209033
0002e0 16 84 9f 3e 03 da e0 3e c8 79 09 3e 62 40 98 bd
       0.3115546 0.4391633 0.13425362 -0.07434155
0002f0 4e e0 41 be a2 7f 09 bf 7b a0 ab ba c6 c0 86 bd
       -0.18933222 -0.5371038 -0.0013094092 -0.06579737
000300 82 a0 0f bc 2d c4 d5 3d 4c 8d 7f 3d e1 e1 92 3d
       -0.008766295 0.10437808 0.06239061 0.07171989
000310 cc 1f e2 bc c9 53 70 3e 7d 99 47 3f 6b 5a 7b be
       -0.027603053 0.23469462 0.7796858 -0.2454621
000320 69 78 95 3b 21 5d 91 3e 3c 77 ef bd c6 73 dd bc
       0.004561473 0.28391364 -0.11692664 -0.027032744
000330 34 8a 35 bd 1c 3e 6c bc 93 4b a3 bd 78 25 6a 3d
       -0.044321254 -0.014419105 -0.07973399 0.05716464
000340 c6 e0 c7 bd 2e 2e 3f bd e6 e2 3d be 36 26 d0 bd
       -0.09759669 -0.0466749 -0.18543586 -0.10163538
000350 6f a6 84 3d 10 6a f8 3d cb 30 2a bc 7f fa d1 bd
       0.06477057 0.12129605 -0.01038761 -0.102528565
000360 b6 7c 91 b7 e2 df 73 37 75 ae 86 37 63 c4 7b 37
       -1.734342e-05 1.45360555e-05 1.6055283e-05 1.5006491e-05
000370 2a 00 85 37 15 bb 7a b7 59 52 a8 3e eb 91 b1 bc
       1.5854912e-05 -1.494472e-05 0.32875326 -0.021676024
000380 0c 7b ed bd e6 37 ac 3c da 13 21 be 8b 51 a5 be
       -0.11595735 0.021022748 -0.15730229 -0.32288775
000390 8e 44 56 bc 85 bc fc 3d f3 a1 b0 3e 7e bf 19 3e
       -0.013077868 0.12340645 0.34498557 0.15014455
0003a0 0d 26 9a 3c ba 02 ad 3d bc 05 ef bd a3 ca c3 bd
       0.018816972 0.08447786 -0.116710156 -0.09560134
0003b0 8f df 78 bf 4c 4b b7 3c 45 67 70 3e 7a f3 35 3f
       -0.97216123 0.022374772 0.23476894 0.7107464
0003c0 40 bc a6 3b d3 0d dc bd f5 c6 60 bd 98 e2 5b 3d
       0.005088359 -0.10744824 -0.05487724 0.053682894
0003d0 0e 60 02 3f 48 fd 28 3e 2a 4f 8f 3b 43 ec 98 3e
       0.5092782 0.16502869 0.0043734508 0.29867753
0003e0 06 a7 b9 3e 18 95 0e 3e 6b 92 45 bd 33 db 24 be
       0.3626024 0.13924062 -0.04823534 -0.16099243
0003f0 74 44 05 bf 2c 2d 54 bd f2 13 ab bd 72 58 5f 3d
       -0.52057576 -0.05180089 -0.08353414 0.054527707

transl f4 [226, 3]
000000 ba a8 17 3f 6c 48 c1 3f ed 4a c1 3f a6 34 12 3f
       0.5924183 1.5100226 1.510099 0.57111585
000010 bb c3 be 3f 24 fa bc 3f 49 80 0f 3f 1c a5 be 3f
       1.4903482 1.4763837 0.5605512 1.4894137
000020 91 49 ba 3f 74 70 0d 3f 84 8a be 3f f3 ca b7 3f
       1.4553701 0.55249715 1.4886022 1.435881
000030 ad d4 0a 3f 49 13 be 3f 37 42 b5 3f e9 1b 08 3f
       0.5423077 1.4849635 1.4160832 0.5316759
000040 79 18 be 3f 83 b9 b2 3f e8 80 04 3f 20 c7 bd 3f
       1.4851218 1.3962864 0.51759195 1.4826393
000050 b7 db af 3f fc de 00 3f 1f 48 bd 3f 71 61 ac 3f
       1.3738927 0.5034025 1.4787635 1.3467237
000060 d1 4d f9 3e 1a df bc 3f c2 a9 a8 3f 63 d2 f0 3e
       0.48692182 1.4755585 1.3176806 0.47035512
000070 02 8a bc 3f a9 a5 a4 3f 72 af e8 3e 10 e2 bc 3f
       1.4729617 1.2863055 0.45446354 1.4756489
000080 71 05 a1 3f bc bc e2 3e aa 3a bd 3f b5 b5 9d 3f
       1.2579786 0.44284618 1.4783528 1.2321078
000090 71 a1 dd 3e af 88 bd 3f c6 98 9a 3f 94 6f d9 3e
       0.43287233 1.4807338 1.2077873 0.4246794
0000a0 98 ce bd 3f 68 9a 97 3f a9 ca d5 3e ba 20 be 3f
       1.4828672 1.1843996 0.4175618 1.4853737
0000b0 25 b2 94 3f a1 49 d2 3e 99 38 be 3f a4 c9 91 3f
       1.1616865 0.410718 1.4861022 1.1389661
0000c0 0a 56 cf 3e b1 90 be 3f 6f ea 8e 3f d6 17 cc 3e
       0.4049533 1.4887906 1.1165293 0.39861935
0000d0 45 a1 be 3f b7 fe 8b 3f 53 25 c9 3e fe 9f be 3f
       1.4892966 1.0937108 0.3928629 1.4892576
0000e0 33 03 89 3f 8f 15 c6 3e 23 96 be 3f 69 e8 85 3f
       1.0704101 0.38688323 1.4889568 1.0461551
0000f0 d3 60 c3 3e e5 3b be 3f 89 a4 82 3f 32 2c c0 3e
       0.3815981 1.4862028 1.0206462 0.37533718
000100 79 db bd 3f f7 41 7e 3f ee d5 bc 3e 10 95 bd 3f
       1.4832603 0.99319404 0.36881965 1.4811115
000110 e5 f0 76 3f ea 16 b9 3e 12 43 bd 3f bf ea 6e 3f
       0.96461326 0.36150295 1.4786093 0.93326944
000120 51 3b b5 3e 01 1c bd 3f cc 71 66 3f 95 0d b1 3e
       0.35396817 1.4774171 0.9001739 0.34580675
000130 46 0e bd 3f fc ed 5d 3f 1f 19 ad 3e 70 40 bd 3f
       1.4769981 0.8669126 0.33808228 1.478529
000140 fc bd 55 3f f1 23 a9 3e 3d 7f bd 3f 1b ce 4d 3f
       0.8349302 0.33035234 1.4804455 0.80392617
000150 a3 14 a5 3e 5e d8 bd 3f df 6e 46 3f 47 95 a1 3e
       0.32242307 1.4831655 0.77512926 0.31559202
000160 43 04 be 3f c8 78 3f 3f 19 08 9e 3e 4a 58 be 3f
       1.484505 0.7479367 0.30865553 1.4870694
000170 4b 16 39 3f 2b e0 99 3e be c2 be 3f 34 51 33 3f
       0.7229964 0.3005384 1.4903181 0.7004578
000180 b9 f5 95 3e 8e fc be 3f 59 12 2e 3f 56 cb 91 3e
       0.29289034 1.4920824 0.67996746 0.28475446
000190 26 1e bf 3f 6f 0c 29 3f 4b 44 8d 3e 02 f0 be 3f
       1.4931076 0.660346 0.27591166 1.4916995
0001a0 1b ce 23 3f e5 e5 88 3e 22 b3 be 3f 85 62 1e 3f
       0.63986367 0.26737896 1.4898417 0.6186908
0001b0 e9 cb 83 3e 6e 42 be 3f d7 d7 18 3f 72 c0 7b 3e
       0.2574151 1.4864023 0.59704345 0.24585131
0001c0 db ea bd 3f 41 41 13 3f b6 a0 70 3e 2e 57 bd 3f
       1.4837297 0.57521445 0.23498806 1.479223
0001d0 a6 4f 0d 3f 47 c0 64 3e d7 c9 bc 3f dc 00 07 3f
       0.5519966 0.22338973 1.4749097 0.52735686
0001e0 dd 23 57 3e 80 57 bc 3f 24 6d 00 3f 77 c9 47 3e
       0.21009775 1.4714203 0.50166535 0.19510446
0001f0 9c 08 bc 3f 28 f4 f2 3e ed 8b 37 3e 33 7b bc 3f
       1.4690127 0.474519 0.17924471 1.4725097
000200 10 8a e5 3e 82 ec 27 3e e9 04 bd 3f 5a c6 d9 3e
       0.44831896 0.16398814 1.4767123 0.42534143
000210 15 53 1b 3e bd 55 bd 3f 5b 11 cf 3e 72 2c 10 3e
       0.15168412 1.479179 0.4044293 0.14079455
000220 f7 8c bd 3f ed 6b c5 3e ca 90 06 3e de c1 bd 3f
       1.4808644 0.38558903 0.1314117 1.4824789
000230 de 74 bc 3e 99 e9 fc 3d f6 eb bd 3f 81 34 b4 3e
       0.36807913 0.12349243 1.4837635 0.35196307
000240 20 3f ee 3d 23 08 be 3f 8c 1c ac 3e de 9a df 3d
       0.11633134 1.4846233 0.3361553 0.109182104
000250 9c 35 be 3f ba ed a3 3e ff 0f d3 3d 38 57 be 3f
       1.486011 0.32017308 0.103057854 1.4870367
000260 a8 a6 9b 3e 47 d0 c6 3d 1c 77 be 3f be 26 93 3e
       0.30400586 0.097076945 1.4880099 0.28740495
000270 2d 62 bb 3d bf 77 be 3f f2 c2 8a 3e 97 b3 ae 3d
       0.09149585 1.4880294 0.27101856 0.08530348
000280 84 6c be 3f 51 18 82 3e a8 98 a3 3d b5 3c be 3f
       1.4876866 0.25409177 0.07988101 1.4862276
000290 5b 35 72 3e 0b ee 99 3d bb 1e be 3f 6f 7e 5e 3e
       0.23653166 0.07516106 1.4853128 0.21727918
0002a0 e9 d0 8e 3d f9 ff bd 3f 88 56 4a 3e 0b be 86 3d
       0.0697344 1.4843742 0.19759572 0.065792166
0002b0 12 db bd 3f 64 75 35 3e 91 53 84 3d b8 ee bd 3f
       1.483248 0.17720562 0.064612515 1.4838476
0002c0 fd 23 22 3e 64 31 86 3d b7 19 be 3f 8b 3f 10 3e
       0.15834041 0.06552389 1.4851598 0.1408674
0002d0 21 fd 88 3d 3b 28 be 3f a1 d7 fb 3d 18 e8 8b 3d
       0.066889055 1.4856027 0.12296987 0.06831378
0002e0 83 0b be 3f bd 5b d8 3d 90 16 8e 3d fb 2d be 3f
       1.4847263 0.10564373 0.06937897 1.4857782
0002f0 6a 49 be 3d eb 49 92 3d b5 0a be 3f e5 d5 a8 3d
       0.09291346 0.07143005 1.4847018 0.08243922
000300 12 74 96 3d 2f d5 bd 3f 7c f9 96 3d 12 76 9b 3d
       0.073463574 1.4830683 0.07371804 0.075908795
000310 04 68 bd 3f 6f ff 81 3d e4 54 a1 3d 53 a5 bc 3f
       1.4797368 0.06347548 0.0787752 1.4737953
000320 a8 59 5e 3d e1 e7 a7 3d 65 7a bb 3f 33 43 41 3d
       0.05428472 0.08198524 1.4646727 0.047183227
000330 83 ca b0 3d 5e ca b9 3f 37 73 25 3d 4d 07 ba 3d
       0.08632376 1.4514883 0.04039308 0.09083424
000340 dd ba b7 3f 5a 6b 0d 3d 86 66 c3 3d 75 9d b5 3f
       1.4353901 0.034526207 0.09541039 1.4188677
000350 83 12 f0 3c 85 ec cc 3d be 27 b3 3f c2 cd c5 3c
       0.029305702 0.1000605 1.3996503 0.024145965
000360 61 9c d4 3d 80 a3 b0 3f 02 c2 a0 3c fd 4b d9 3d
       0.103813894 1.3799896 0.01962376 0.10610197
000370 9a f0 ad 3f d2 de 82 3c 19 1f de 3d 03 4d ab 3f
       1.3589051 0.01597539 0.10845775 1.3382877
000380 3e 45 53 3c 46 7a e0 3d 54 a9 a8 3f 73 25 16 3c
       0.012894927 0.10960822 1.3176675 0.009164202
000390 61 d1 e0 3d 8b fe a5 3f 76 c2 bd 3b e9 bf e1 3d
       0.10977436 1.2968305 0.005791004 0.11022932
0003a0 d6 81 a3 3f b8 c0 62 3b ad b4 df 3d 8b e8 a0 3f
       1.2773998 0.0034599733 0.10923133 1.2570966
0003b0 af 8c de 3a 63 19 df 3d 40 93 9e 3f ce 28 2e ba
       0.0016979183 0.10893514 1.2388687 -0.00066436536
0003c0 28 d9 de 3d 93 35 9c 3f a7 cd 51 bb 16 e9 de 3d
       0.10881263 1.220385 -0.0032013447 0.10884301
0003d0 83 ee 99 3f 87 e5 ac bb 2f fd dd 3d 7d a0 97 3f
       1.2025913 -0.005276385 0.108393066 1.1845852
0003e0 63 ad d7 bb 20 15 de 3d 95 6b 95 3f 6e 36 07 bc
       -0.0065819486 0.10843873 1.1673456 -0.008252723
0003f0 3d 35 db 3d ed 3e 93 3f 07 8c 0f bc 35 6f da 3d
       0.10703514 1.1503578 -0.008761412 0.10665742

left_hand_pose f4 [226, 12]
000000 bf c1 8c be 54 63 09 bf 01 b6 08 be e8 b7 b9 bf
       -0.27491567 -0.5366719 -0.13350679 -1.4509249
000010 c9 72 6a 3f 48 a6 2f 3f 5c ef 1f 3f f7 57 b4 bf
       0.915814 0.686131 0.6247461 -1.4089345
000020 71 6f 6a bf 8c 8c 01 c0 f3 94 a1 3c 5c 63 f8 bf
       -0.91576296 -2.0242033 0.019724345 -1.9405322
000030 85 22 40 be 7d 65 0a bf 27 6c bb 3d 84 cf dd bf
       -0.18763168 -0.5406111 0.09151488 -1.7328954
000040 a1 5f e8 3f 98 cc 42 3f a2 bb a3 3e 94 49 82 bf
       1.8154184 0.76093435 0.3197909 -1.0178704
000050 11 b5 38 bf 12 8f cd bf 28 15 0f 3f 8b ac 37 c0
       -0.72151285 -1.6059287 0.55891657 -2.8699062
000060 73 71 3c bd 49 51 ee be 64 3c a4 3e d5 bd cb bf
       -0.04600663 -0.4654639 0.32077324 -1.5917307
000070 4f ce db 3f 03 7a 64 3e 7e de 8d 3e 58 4d 3b bf
       1.7172335 0.22312169 0.2770881 -0.7316489
000080 86 e5 31 bf b3 e7 d0 bf 9e 78 21 3e 50 7d 1d c0
       -0.6949085 -1.6320709 0.15768668 -2.4607735
000090 f3 53 8e bc 3f a3 aa be 10 12 af 3e 8f 85 b9 bf
       -0.017374014 -0.33327672 0.34193468 -1.4493884
0000a0 f3 bf b2 3f 46 44 99 3e 47 bb 41 3e d8 22 06 bf
       1.3964828 0.299349 0.18919097 -0.5239692
0000b0 0a 71 4d bf 45 31 c4 bf f1 64 66 38 41 a4 13 c0
       -0.8025061 -1.5327536 5.4930282e-05 -2.3069003
0000c0 6a e0 7d bd fb 4f 32 be e1 3a b0 3e 57 46 a5 bf
       -0.061981596 -0.17413323 0.3441992 -1.2912091
0000d0 79 89 9f 3f e5 2f 10 bd c1 69 40 3e a9 f8 c5 be
       1.2463828 -0.035201926 0.18790342 -0.38666275
0000e0 0a 99 35 bf 28 de b0 bf 4d 94 a4 3d 91 37 2a c0
       -0.70936644 -1.3817797 0.08036099 -2.6596415
0000f0 9d 91 bb bd 12 21 1a 3c cd 04 9d 3e 44 5c 7f bf
       -0.09158633 0.009407299 0.30667725 -0.9975016
000100 94 f1 7f 3f 0d 7f 67 be 7f dd 7d 3e ba 5b 85 be
       0.99977994 -0.2260706 0.24791525 -0.26046544
000110 b0 e9 33 bf 9d 09 a3 bf fe 9a 11 3e 8d e1 20 c0
       -0.70278454 -1.2737309 0.14219281 -2.5137665
000120 81 b1 3f be 1a df 82 3e 17 88 0a 3d a1 a1 93 bf
       -0.18720056 0.25560838 0.03382119 -1.15337
000130 fd 5e 93 3f 93 b7 02 3d fc a5 0e 3d 8c 63 fc bb
       1.1513363 0.03191335 0.034826264 -0.0077022966
000140 47 4b 86 bf 0c a6 a6 bf db f2 46 3e e8 16 0c c0
       -1.0491723 -1.3019423 0.1942858 -2.188898
000150 89 82 7f bc ef cb b0 bd f8 60 44 3e 35 52 7d bf
       -0.015595087 -0.08632647 0.19177616 -0.9895356
000160 1f 64 7f 3f 8b 00 0e 3e ef 52 27 3e 4d a4 16 be
       0.9976215 0.13867395 0.1634023 -0.14711113
000170 f2 29 83 bf cc c8 52 bf 3a 46 ea 3e d4 53 a6 bf
       -1.0247176 -0.8233764 0.45756704 -1.2994332
000180 30 98 a8 bc 85 f0 53 be d3 dc 8b 3e 60 59 78 bf
       -0.020580381 -0.2069722 0.27316913 -0.97011375
000190 93 2a 8a 3f bc f5 13 3e d4 9d 86 3e 24 9f ce be
       1.0794243 0.14449209 0.26292288 -0.4035579
0001a0 29 9f 29 bf f4 41 8f bf 89 80 cb 3e 41 ab c6 bf
       -0.66258484 -1.1192002 0.39746502 -1.5521013
0001b0 1c ef 84 bd 39 37 1b bd 7f 6c 55 3e bf b2 6e bf
       -0.06490919 -0.03789446 0.20842169 -0.93241495
0001c0 50 7d 85 3f 91 27 b2 bb 05 ac 7e 3e e3 1b f4 be
       1.0428867 -0.0054368456 0.24870308 -0.47677526
0001d0 48 2e 88 bf 71 a2 ab bf c8 d8 85 3e 1c 3d 04 c0
       -1.0639124 -1.3408948 0.26141953 -2.0662298
0001e0 4c 4b 0c 3d 98 66 20 bb d5 63 80 3e b3 b7 51 bf
       0.034251496 -0.0024475213 0.25076166 -0.8192093
0001f0 19 a6 7b 3f 42 16 87 bd 46 28 9a 3e b0 99 a2 be
       0.9830032 -0.06596042 0.3010885 -0.3175788
000200 00 5b 4d bf 29 46 9d bf 8b cf a9 3e 2a cb d3 bf
       -0.8021698 -1.2287036 0.33166155 -1.6546376
000210 da 89 0c 3d c5 2d 83 3d d2 e9 82 3e dc 1d 53 bf
       0.034311153 0.06405214 0.25569016 -0.82467437
000220 80 b6 86 3f 71 cb 4f be 49 65 c5 3e 0e 28 d7 be
       1.0524445 -0.2029245 0.38553837 -0.42022747
000230 41 42 3d bf f6 1e a4 bf b8 67 e7 3e 89 17 ed bf
       -0.7392922 -1.2821949 0.4519632 -1.8522807
000240 5e 57 b3 bc a3 57 99 3e a7 a5 44 bd cf 41 8c bf
       -0.021892246 0.29949674 -0.04800954 -1.0957583
000250 0d 2b 9e 3f 66 5f 77 3e a3 3e 3a 3d 13 41 60 be
       1.2356888 0.24157485 0.04546989 -0.21899824
000260 d3 83 50 bf dc ea 5b bf 39 f8 8f 3e e3 73 e7 bf
       -0.8145115 -0.8590524 0.28119066 -1.8082241
000270 f2 87 9e 3d 81 5b 84 3d af 6d 37 3e 26 75 4a bf
       0.07740773 0.064627655 0.17912935 -0.79085004
000280 4e d9 15 3f 39 ac 0e bd 74 42 37 3f 7e f4 95 be
       0.58534706 -0.034832213 0.71585774 -0.29288095
000290 0e 02 15 bf a8 be 57 bf 9d 7d 05 3f 3d 4b bd bf
       -0.5820626 -0.84275293 0.52144796 -1.4788586
0002a0 8b 32 61 3d 2e 9d 93 3e 59 c1 8c bd f0 c1 74 bf
       0.054979842 0.28830856 -0.06872816 -0.95608425
0002b0 82 25 92 3f 54 28 2a 3d be a8 3a 3d fa 77 4c bd
       1.1417696 0.041542366 0.04557108 -0.049919106
0002c0 50 73 34 bf ae 27 82 bf 75 cd ce 3e f0 76 f4 bf
       -0.7048845 -1.0168359 0.40391126 -1.9098797
0002d0 7f 2e 61 3d 25 b7 30 3e 05 34 45 bd ad c8 64 bf
       0.054975983 0.17257364 -0.048145313 -0.89368707
0002e0 1b fc 81 3f 7a cc 73 3e 62 c0 94 3e 9c 47 92 be
       1.0155061 0.2380847 0.29053026 -0.2857026
0002f0 5b d3 1f bf 86 3f 8f bf 28 45 c7 3e 35 5e c6 bf
       -0.6243188 -1.1191261 0.3891995 -1.54975
000300 7c d9 9a 3c e5 f8 8d 3e 49 31 a8 bc fd c9 2f bf
       0.018902533 0.27728954 -0.020531313 -0.68667585
000310 97 4f 4d 3f 96 01 87 3b 9e 38 d4 3e 4d 1d a4 be
       0.8019957 0.004120062 0.41449445 -0.32053605
000320 bd b5 15 bf b3 2e 97 bf f3 cf 0b 3f 2f 80 e0 bf
       -0.58480436 -1.1811126 0.5461418 -1.7539119
000330 56 f4 00 3c fa 80 b6 3e 71 12 15 3d 90 b5 fe be
       0.007870754 0.35645276 0.03639454 -0.49747896
000340 84 77 3a 3f ff 5d 00 be d6 db c5 3e 04 a6 bc be
       0.72838616 -0.12535857 0.38644284 -0.3684541
000350 04 a4 2b bf eb 82 8d bf ad 2a 0b 3f bf e0 f4 bf
       -0.67047143 -1.1055578 0.54361993 -1.9131087
000360 b9 05 ca 3c 4a 1b 93 3e e4 51 20 3e 9d e3 ca be
       0.024660932 0.28731757 0.15656239 -0.3962678
000370 4c 36 45 3f 39 aa 4b be de f9 cc 3e b2 93 c6 be
       0.77035975 -0.19889154 0.40034384 -0.38784558
000380 88 40 e8 be e7 a0 83 bf 8e 2b 32 3f e9 50 e2 bf
       -0.45361733 -1.0283478 0.6959771 -1.7680942
000390 b3 68 f3 ba 82 5d d8 3e 40 e1 5d 3d 14 4e d7 be
       -0.0018570632 0.4225884 0.054169893 -0.42051756
0003a0 48 f3 4a 3f 77 17 08 be 53 94 94 3e 66 50 94 be
       0.7927747 -0.13290201 0.29019412 -0.2896759
0003b0 85 81 1b bf 62 b0 83 bf 04 e0 ff 3e 13 a2 e9 bf
       -0.60744506 -1.0288203 0.49975598 -1.8252586
0003c0 fe 02 04 bd 69 fd 05 3f 64 9c b1 3b 1e 45 f7 be
       -0.032229416 0.523398 0.0054202545 -0.4829492
0003d0 d1 a2 56 3f e3 78 e3 bd 58 88 2a 3e cd 8e 9f be
       0.8384219 -0.11107042 0.16653574 -0.31163636
0003e0 8b 1e 38 bf 42 e1 8a bf 03 53 02 3f 15 40 eb bf
       -0.71921605 -1.0849993 0.50907916 -1.8378931
0003f0 d8 b8 37 bd cf 2b fc 3e 23 4b c4 bc 49 67 ed be
       -0.044854015 0.49252173 -0.02396161 -0.46367863

right_hand_pose f4 [226, 12]
000000 a9 fe 1b 3d 97 ac 90 3e fc 39 41 3e ef 85 0a bf
       0.03808466 0.28256676 0.18869776 -0.54110616
000010 53 c2 86 3e 45 31 e7 bd c6 58 83 3f 4f 1e 1d be
       0.26320133 -0.11288694 1.0261467 -0.15343593
000020 11 d7 94 bf 1f 81 48 bf 2d a4 76 3f 82 29 20 bf
       -1.1628133 -0.78322023 0.9634426 -0.62563336
000030 40 4f 64 3c 62 f4 aa 3e 14 51 12 3e 2b 7f 0f bf
       0.01393491 0.33389574 0.14288741 -0.5605342
000040 79 e3 71 3e dc 77 b2 be a7 55 6a 3f 00 64 35 bd
       0.2362193 -0.3485707 0.91536945 -0.04428482
000050 e2 f9 6e bf 8c 15 3b bf 50 7f 5f 3f 7c 8b 71 bf
       -0.9335004 -0.7307975 0.8730364 -0.9435346
000060 a0 a4 19 3d 16 d1 8d 3e 76 82 a2 3d 46 98 c9 be
       0.037510514 0.27698582 0.0793504 -0.39373988
000070 e9 d6 9c 3d 2e ba 9e bd f2 0e 44 3f da 3b 6f 3e
       0.07658178 -0.07750355 0.76585305 0.23362675
000080 ff 77 5d bf d3 58 c4 be 87 4b f6 3e a4 0e 92 be
       -0.86511225 -0.38349018 0.48104498 -0.28526795
000090 23 a3 ae 3c 3c 43 9a 3e 2f d8 cd 3d e0 ec e0 be
       0.021318024 0.3012942 0.100509994 -0.4393072
0000a0 6c 28 a7 3e 7e 77 ba bd 53 be 22 3f 21 8d 16 3e
       0.32648027 -0.091048226 0.6357166 0.14702274
0000b0 da ae 64 bf 4b ab 1f bf 98 e8 87 3e 82 38 11 bf
       -0.893293 -0.6237075 0.26544642 -0.5672685
0000c0 00 aa 15 3d 68 db 81 3e c9 a7 10 3e 16 cf b1 be
       0.036539078 0.25362706 0.14126505 -0.34728307
0000d0 66 09 76 3e 1e c4 23 be 2c 1e 2a 3f 77 4a 2e 3e
       0.24027023 -0.15992782 0.6645229 0.17020594
0000e0 e3 2e 77 bf 7d 5e 15 bf 55 e4 05 3f 5a 08 08 bf
       -0.9655592 -0.583473 0.5230153 -0.53137743
0000f0 33 b9 e3 3c 44 c8 a4 3e bc 44 3d 3e e5 c3 af be
       0.02779827 0.3218404 0.18483251 -0.34329143
000100 b7 75 8c 3e f1 fc 44 be 29 3e 25 3f 32 d6 df 3d
       0.2743356 -0.19237114 0.64547974 0.109295264
000110 10 a1 51 bf 56 d2 1e bf c7 44 1b 3f c5 25 03 bf
       -0.81886387 -0.620397 0.6065182 -0.51229507
000120 24 41 40 3c b3 00 a2 3e a1 3a 7b 3e 1c fd ae be
       0.011734281 0.31641158 0.24534084 -0.34177482
000130 7f c3 a6 3e 71 09 3c be 70 e5 1d 3f 7c 57 1e 3d
       0.32571027 -0.18362977 0.6167822 0.03865765
000140 26 84 34 bf 34 ca 28 bf 5c 80 37 3f ba 13 17 bf
       -0.7051414 -0.6593354 0.71680236 -0.59014475
000150 e1 f4 08 3b d8 f9 a6 3e e3 2c 8b 3e 79 10 b8 be
       0.0020897912 0.3261249 0.27182683 -0.35950068
000160 73 b4 af 3e ef b8 a6 be 9c af 27 3f 32 c8 0b 3d
       0.3431736 -0.32562968 0.65502334 0.034126468
000170 9d 7f 54 bf 7f 3c 35 bf d1 a0 32 3f a5 a5 33 bf
       -0.8300722 -0.70795435 0.69776636 -0.7017463
000180 2c 03 c3 3c a7 10 3f 3e 59 54 aa 3e 10 a8 91 be
       0.023805223 0.18658696 0.33267477 -0.28448534
000190 69 e2 cf 3e 44 e5 ca be dc a9 0e 3f b4 49 51 3d
       0.40602425 -0.3962804 0.55727935 0.05109568
0001a0 a3 40 49 bf 20 52 2d bf 08 1d 31 3f a3 5e 1d bf
       -0.7861425 -0.6770344 0.69184923 -0.6147253
0001b0 ba 1f 0d 3d bf bf 3e 3e 15 2f cb 3e 63 d8 30 be
       0.034454085 0.18627833 0.39684358 -0.17270045
0001c0 f0 3e 84 3e 6d c5 e3 be 21 ec 23 3f 9d 45 71 3d
       0.25829268 -0.4448656 0.6403218 0.05890428
0001d0 bd 2a 62 bf 55 d1 3a bf 90 f5 2b 3f 41 4d 32 bf
       -0.88346463 -0.72975665 0.67171574 -0.6964913
0001e0 b7 75 8e 3d e0 6d c2 3d 5f db d4 3e f5 16 0e be
       0.06956046 0.09493613 0.41573617 -0.13875945
0001f0 d7 af a6 3e 78 05 cc be 86 89 13 3f 40 f1 9c 3d
       0.3255603 -0.39847922 0.5763172 0.07663202
000200 ba ed 63 bf 66 dd 24 bf e1 cf 40 3f fc 0f 1d bf
       -0.89034617 -0.6440033 0.753172 -0.61352515
000210 26 f2 5a 3d 3d 95 c1 3c 43 f6 c4 3e b4 2b 47 be
       0.053453587 0.023630733 0.38469133 -0.19450265
000220 3b fd a5 3e 91 58 ab be e7 59 2f 3f 05 59 91 bd
       0.32419762 -0.33466008 0.68496555 -0.07097057
000230 8d 0f 76 bf ba 6d 3f bf e6 0d 4b 3f f7 91 40 bf
       -0.9611748 -0.74776804 0.7931808 -0.75222725
000240 0f 08 14 3d 99 39 c9 3d ed 04 9d 3e ed c9 9d be
       0.036140498 0.09825439 0.3066782 -0.3081812
000250 f5 f1 b8 3e 36 82 87 be 6e dd 2e 3f 29 5b c9 bd
       0.361221 -0.2646653 0.68306625 -0.098318405
000260 78 3f 58 bf 12 48 47 bf 9f 57 49 3f 9d 53 50 bf
       -0.84471846 -0.77844346 0.78649324 -0.81377584
000270 41 67 fe 3c b0 62 51 3e 64 5e 8d 3e 4d ce ad be
       0.031055095 0.20447803 0.27611077 -0.33946458
000280 25 0e a1 3e 82 0e 89 be 7c d3 2b 3f bc 22 7b bd
       0.31456104 -0.2676888 0.67119575 -0.061312422
000290 6e 38 54 bf 41 10 39 bf 5b 04 80 3f 50 f4 72 bf
       -0.82898605 -0.72290426 1.0001329 -0.9490404
0002a0 92 32 0f bd 60 c5 bb 3e c5 70 3c 3e f2 be d5 be
       -0.034960337 0.36674023 0.18402393 -0.41747242
0002b0 2b 9e b0 3e 34 31 89 be 21 40 1b 3f 02 44 c7 bd
       0.34495673 -0.26795352 0.6064473 -0.09729768
0002c0 fc 3e 73 bf f2 9f 53 bf 11 89 4a 3f fa 3d 9b bf
       -0.9501798 -0.8266593 0.79115397 -1.2128289
0002d0 66 91 af bd 22 f6 ec 3e 86 2b 04 3e bc 64 d1 be
       -0.085726544 0.46281534 0.12907228 -0.40897167
0002e0 ab ae 9d 3e 14 53 63 be 21 fc 05 3f cf 8c 87 bd
       0.30797324 -0.2219966 0.52337843 -0.06618654
0002f0 a9 6c 7c bf 5f 0c 54 bf 25 26 3f 3f 9b 1c 9d bf
       -0.986033 -0.82831377 0.7466758 -1.2274355
000300 a5 c1 9b bd 63 d3 d4 3e 3d f8 0d 3e ed 50 f9 be
       -0.07605294 0.41567525 0.13864227 -0.48694554
000310 02 54 be 3e d7 24 a7 bd 88 88 0a 3f c5 c4 98 bd
       0.37173468 -0.081613235 0.5411458 -0.07459406
000320 61 c5 59 bf 4d 6c 44 bf e3 1b 29 3f d1 0a 83 bf
       -0.850668 -0.76727754 0.66058177 -1.0237676
000330 a8 87 a5 bd 04 00 cd 3e 52 5f 0e 3e d5 c3 fe be
       -0.08082515 0.40039074 0.1390355 -0.49758783
000340 99 4b f9 3e 31 f1 85 bd 67 6f d2 3e e1 b6 3f bd
       0.4869049 -0.06540144 0.41100618 -0.046805266
000350 7c b8 3c bf f1 9a 35 bf 21 fd 2a 3f 6e 58 8a bf
       -0.73719 -0.70939547 0.66792494 -1.0808237
000360 27 a5 6d bd a4 d8 90 3e 4a 56 f2 3d db d4 c7 be
       -0.05801883 0.28290284 0.118328646 -0.39029583
000370 6a 4c 92 3e 6b 10 8b bc d5 60 09 3f 88 e2 91 bc
       0.28573924 -0.016975602 0.5366338 -0.017808214
000380 f9 7d 54 bf f6 ad 29 bf b8 57 21 3f 2b 18 48 bf
       -0.8300472 -0.6628107 0.63024473 -0.7816188
000390 a6 e6 94 bc 16 9f cb 3e 43 a2 09 3e 4e 1d ac be
       -0.018176388 0.3976981 0.13440804 -0.33616108
0003a0 d0 d3 82 3e 7b 30 b9 3d aa 42 94 3e 86 b4 5e 3d
       0.25552225 0.0904245 0.2895711 0.05437138
0003b0 38 6f 45 bf 4c 19 cc be 62 7f 64 3f 67 6a 47 bf
       -0.7712283 -0.3986305 0.8925687 -0.7789673
0003c0 74 a3 fc bc ef 4a db 3e c1 5b b8 3d 91 57 03 bf
       -0.03083966 0.42830607 0.09001876 -0.5130549
0003d0 c5 2e f5 3e cc 7c 7b 3d 8b 05 c6 3e b9 45 af bd
       0.47887245 0.061398312 0.38676104 -0.085582204
0003e0 c4 13 6c bf 78 4e 43 bf 62 33 0d 3f 49 9f 77 bf
       -0.9221766 -0.7629161 0.5515653 -0.96727425
0003f0 c4 c0 9c 3d 0c 57 b3 3e 9d ac 08 3e 91 78 b1 be
       0.076539546 0.3502735 0.13347097 -0.34662297

jaw_pose f4 [226, 3]
000000 30 96 49 3d ec 73 44 b9 74 71 a2 b9 b3 71 07 bc
       0.049215496 -0.00018735201 -0.00030983577 -0.008266854
000010 07 e2 aa b9 88 65 8f b8 ea 87 6b bb c9 ba d8 3a
       -0.0003259333 -6.837683e-05 -0.0035939165 0.0016535159
000020 5e f2 fa 39 9f 64 04 bc 07 15 b1 3a 7b d9 23 3a
       0.00047864293 -0.008080631 0.0013510295 0.00062503637
000030 9f 4a cd bb da 48 65 39 b4 1d 83 38 c8 ac 89 3c
       -0.006264999 0.00021866281 6.2520994e-05 0.016806021
000040 a6 1d 1e bb 38 22 20 ba 82 f9 63 3c c8 1b 19 bb
       -0.0024126559 -0.00061086146 0.013914468 -0.0023362506
000050 de 9e b2 b9 bb 45 62 3b aa 16 1f bb ca ee 49 ba
       -0.0003406917 0.0034526426 -0.0024274983 -0.0007703124
000060 06 81 5e 3c 3b a3 42 bb 33 0a 6c ba cc 16 9e 3c
       0.013580566 -0.0029699344 -0.00090042053 0.01929798
000070 99 84 2d bb ee 47 0e ba 77 88 e3 3c e1 cb ec ba
       -0.002647674 -0.00054275885 0.027775032 -0.0018066132
000080 e4 88 96 b9 03 40 28 3c ed 40 d8 bb 76 df e1 ba
       -0.0002871222 0.010269168 -0.0065995366 -0.0017232734
000090 17 4a 9f 3c 9a fc 7a bb 0c 47 20 ba 49 9b 94 3c
       0.019444508 -0.0038297535 -0.00061141024 0.018140452
0000a0 a0 94 80 bb f7 19 5a ba 1e e2 c9 3c 61 c9 1f 39
       -0.0039239675 -0.0008319909 0.024643954 0.00015238441
0000b0 fa 53 f5 39 5b 98 65 3c b7 c1 fd 39 c3 1c 3c 3a
       0.0004679261 0.014013375 0.0004840025 0.00071759167
0000c0 9a f2 bf 3c 60 94 ab 39 2f 80 7a 39 eb 11 ea 3c
       0.023431111 0.0003272621 0.0002388961 0.028572997
0000d0 08 77 62 ba 96 04 92 b9 e0 42 09 3d 72 eb 0e bb
       -0.0008638953 -0.00027850707 0.033511043 -0.0021807817
0000e0 a3 b5 33 ba a6 83 fd 3c 7e 0d a6 b9 bb de 2d b9
       -0.0006855374 0.030946564 -0.0003167204 -0.00016581539
0000f0 e5 74 4e 3d 67 ab 08 bb e4 67 b4 b8 23 f4 67 3d
       0.050404448 -0.0020854117 -8.60242e-05 0.05662931
000100 fb db ca ba 3c 39 dc b7 17 cf 8d 3d 78 81 2f bb
       -0.0015476936 -2.6252696e-05 0.06924265 -0.002678005
000110 87 d4 30 b9 a6 6e 77 3d ba 0b 4c bb 85 b5 89 b9
       -0.0001686384 0.060408257 -0.003113492 -0.0002626592
000120 4e eb 86 3d 10 7d 49 bb 67 9c 36 ba f6 b6 6c 3d
       0.065878496 -0.003074471 -0.0006966055 0.057791673
000130 e1 51 c1 bb f4 2c 8b ba cb 47 67 3d e9 d9 37 bb
       -0.0058996533 -0.0010618255 0.05646495 -0.0028053469
000140 1e 5e e8 b9 b6 09 40 3d 7e 86 e0 ba 97 ef 76 37
       -0.0004432061 0.04688426 -0.0017129926 1.47185265e-05
000150 4a 78 3e 3d be 6a 96 b9 5c 27 02 3a 2c 7a 61 3d
       0.046501435 -0.0002868976 0.00049649714 0.055048153
000160 aa b7 3c bb 41 d6 64 b9 1b ab 33 3d 05 a9 6f bb
       -0.0028795996 -0.0002182359 0.04386435 -0.003656925
000170 f9 b5 da b9 de 31 63 3d 1d 5e e6 bb 57 98 fb ba
       -0.0004171578 0.05546748 -0.007030262 -0.0019195181
000180 32 9e 82 3d cd 9b 24 bb 7c df 5e b9 ac ef 47 3d
       0.063778296 -0.0025117279 -0.00021254824 0.048812553
000190 f4 19 32 bb 9c 22 af b9 d4 22 6b 3d 59 be 44 bb
       -0.0027176114 -0.00033404387 0.05740626 -0.0030020683
0001a0 55 ba 50 ba f0 f2 6e 3d c6 9d 76 ba fd 8f 5d b9
       -0.0007962336 0.058337152 -0.00094076653 -0.00021129842
0001b0 ca 26 5b 3d 59 3f 62 bb 43 b8 1e ba 7e 27 94 3d
       0.05350379 -0.0034522621 -0.0006054679 0.07234095
0001c0 ec a9 cd 3a fb e8 37 3a b1 c6 88 3d c6 17 96 ba
       0.00156909 0.0007015613 0.066785224 -0.0011451177
0001d0 61 a4 a2 b9 c3 8c ab 3d 06 b9 08 bb 91 99 88 b9
       -0.0003102152 0.083764575 -0.0020862236 -0.00026054357
0001e0 0b 18 98 3d e0 a7 4b bb d4 3b 93 ba bb ea 83 3d
       0.07426461 -0.0031075403 -0.001123304 0.06441256
0001f0 d6 d3 a5 ba 1b 92 13 ba 6e b7 88 3d 0b 78 3b ba
       -0.0012651633 -0.00056293764 0.066756114 -0.00071513717
000200 f1 ad 88 b8 8a 6e 8f 3d 8c 33 80 ba cb ea c0 b9
       -6.5173845e-05 0.070035055 -0.0009780987 -0.00036796028
000210 aa 25 b3 3d 3b 45 1a 3b 2d 06 71 3a b5 92 83 3d
       0.08747418 0.00235398 0.00091943407 0.064244665
000220 02 3b a1 ba 95 10 9f b9 5d 5a 97 3d 51 7a 8c 3a
       -0.0012300911 -0.00030339198 0.07390282 0.0010717605
000230 90 0f 40 3a db ce 86 3d 39 03 40 3a 54 09 55 39
       0.0007326538 0.06582423 0.0007324699 0.00020316738
000240 0a 16 62 3d 3a f9 83 bb 9e 90 1b ba 33 69 35 3d
       0.0551968 -0.004027513 -0.00059343304 0.04428978
000250 96 6c 36 3b 94 f8 57 3a cf b5 56 3d e2 6f 99 3b
       0.0027835718 0.000823864 0.05241948 0.004682527
000260 fc 5c 9a 3a 19 b4 31 3d cf 95 de ba 97 07 9d b9
       0.0011776979 0.043384645 -0.0016981902 -0.00029951028
000270 69 fc 0f 3d ed 7f 36 bb 7d b1 28 ba e8 96 6c 3d
       0.035152826 -0.0027847246 -0.0006435139 0.057761103
000280 03 89 d9 ba 22 f7 b3 b9 bb 65 5f 3d 70 07 cc bb
       -0.0016596619 -0.0003432567 0.054540377 -0.0062264726
000290 1b 94 f4 ba 9e de 8e 3d 10 a6 db bb 7a e6 e8 ba
       -0.0018659862 0.069760546 -0.006703146 -0.0017768883
0002a0 c1 08 9c 3d fa 1d d2 bb db d9 89 ba 39 d6 76 3d
       0.07618857 -0.006412265 -0.0010517196 0.060262892
0002b0 2f d8 93 bb 3f 42 a3 ba 9b 3c 9f 3d 5b d1 5e bb
       -0.004511855 -0.0012455656 0.077752315 -0.0033999297
0002c0 09 2f ec b9 77 7b a8 3d c4 87 61 bb d2 c0 88 ba
       -0.00045048472 0.08226674 -0.0034413198 -0.0010433441
0002d0 b5 5e a6 3d 27 17 ab bb ac 3c 75 ba 2f 6d ad 3d
       0.08123533 -0.005221266 -0.0009355049 0.08468091
0002e0 46 71 71 bb 1e 3b 83 ba 75 6b a2 3d 9b 75 58 bb
       -0.0036841198 -0.0010012125 0.07930652 -0.0033029083
0002f0 46 a7 8e ba 90 ca 81 3d c4 c0 5e bb 7f 7f 80 ba
       -0.0010883592 0.06337464 -0.003398941 -0.0009803622
000300 41 2a 8c 3d ff 17 c2 bb 2e 1c bd ba 53 c4 7d 3d
       0.06843997 -0.0059232707 -0.0014427954 0.061954807
000310 4d 46 de bb 58 7e fa ba 4d fc 80 3d df fb a2 bb
       -0.006783283 -0.001911114 0.062981226 -0.004973873
000320 4e 63 c1 ba cc cc 66 3d 42 fb c2 bb 5c 3d aa ba
       -0.0014754327 0.056347653 -0.0059503624 -0.0012988257
000330 f9 6e 30 3d 54 5f df bb 81 45 f2 ba 27 bf 3e 3d
       0.04307458 -0.006816784 -0.0018483849 0.046569016
000340 ff ad 08 bc c2 ea 39 bb e2 ce 3d 3d 33 5e d7 bb
       -0.008342265 -0.0028368686 0.046339877 -0.0065725087
000350 ba 2c b5 ba 0a e1 11 3d e1 c2 ee bb 45 3b e7 ba
       -0.0013822534 0.035615005 -0.007286415 -0.0017641565
000360 c9 09 c3 3c 27 47 87 bb 95 e4 79 ba 0b 04 b2 3c
       0.023808377 -0.004128355 -0.00095326576 0.021730443
000370 30 34 c7 bb bf 73 b8 ba 56 c8 0a 3d d9 ca e9 bb
       -0.0060792193 -0.0014072581 0.03388246 -0.007134777
000380 e3 96 0b bb 20 f6 87 3c ed 64 37 bc 6e cc 45 bb
       -0.0021299652 0.016596854 -0.011193496 -0.0030181664
000390 ce b7 f4 3b 98 0e d8 bb 26 d4 b1 ba 0e 29 ce 3b
       0.0074682003 -0.0065935366 -0.0013567253 0.006291515
0003a0 e5 67 1f bc 2f 77 5c bb 3f 12 61 3a ce d7 f9 bb
       -0.00972936 -0.0033640375 0.0008585788 -0.007624603
0003b0 e2 42 ec ba 4d d8 7d bb 1f 32 6c bb de 0d c7 ba
       -0.0018025304 -0.0038733662 -0.0036040617 -0.0015186628
0003c0 98 f5 a7 bc 77 27 c4 bb e2 60 c4 ba d8 f9 8a bc
       -0.02050285 -0.00598615 -0.0014982487 -0.016964838
0003d0 91 33 d6 bb a7 36 cf ba 5b 69 99 bc 41 26 de bb
       -0.006536909 -0.0015809134 -0.018726995 -0.0067794626
0003e0 27 d6 ee ba 46 5f 7c bb 0c f6 6f bb 91 39 90 ba
       -0.0018221781 -0.0038508936 -0.0036615161 -0.0011003484
0003f0 39 ad 61 3b ef 90 c0 bb 57 0b e0 ba ad db d5 38
       0.0034435524 -0.0058766524 -0.0017093223 0.00010197549
