test_dataset/gait_700/20250820_c2_a5_Take3/split_subjects/0/fit-smplx/smplx-params_cut.npz (npz, 98674 bytes, 10 tensors)

betas f4 [197, 10]
-2.0058398 -0.75982094 -0.46673638 -0.43413872 -0.74500257 -0.22845677 -0.34164184 0.9152284
-0.36908174 0.07438062 -1.983442 -0.763509 -0.50110507 -0.4182623 -0.77554065 -0.2140634
-0.3485082 0.87666595 -0.3962935 0.10617734 -1.9244719 -0.83329016 -0.4778079 -0.35995796
-0.7800426 -0.20228745 -0.3456214 0.8755508 -0.40877077 0.060873322 -1.8847573 -0.7897823
-0.5749566 -0.37731585 -0.70512456 -0.15527518 -0.30721486 0.82298493 -0.30929235 0.032165557
-1.8702269 -0.8161474 -0.5184101 -0.34260812 -0.73160833 -0.17677368 -0.3499471 0.75108504
-0.27201822 0.028340505 -1.8987087 -0.83978915 -0.4911089 -0.29718065 -0.7489156 -0.16845773
-0.36542356 0.7203601 -0.26590273 0.042438302 -1.8963132 -0.8450715 -0.48878744 -0.2741965
-0.7743028 -0.189557 -0.38876396 0.72557104 -0.2950216 0.03517567 -1.885388 -0.82626444
-0.49043804 -0.29086322 -0.777129 -0.19886875 -0.39545035 0.72135204 -0.27465928 0.04478644
-1.8820308 -0.8018927 -0.47766227 -0.34042588 -0.8004431 -0.22285345 -0.4142026 0.74825186
-0.23847862 0.07241938 -1.8688099 -0.794106 -0.47760883 -0.32211167 -0.8553189 -0.2164178
-0.37591127 0.8187501 -0.2562605 0.044510275 -1.873807 -0.8097545 -0.4291477 -0.31959122
-0.89917713 -0.23436199 -0.45590705 0.79415894 -0.26208365 0.03692032 -1.8685573 -0.8128647
-0.43333015 -0.3620222 -1.0165919 -0.2685433 -0.35619116 0.85906446 -0.28224832 0.029338704
-1.890862 -0.8215494 -0.37150562 -0.4099102 -1.0309569 -0.31735367 -0.46055192 0.9220876
-0.23692301 0.06636315 -1.9000919 -0.78907573 -0.34472418 -0.49455547 -0.98318845 -0.337214
-0.4891485 0.9706874 -0.22250888 0.04952869 -1.8937875 -0.79906666 -0.36273423 -0.45868695
-1.0017396 -0.30999327 -0.42459235 0.9662837 -0.20548262 0.04428981 -1.8882565 -0.7953722
-0.3638072 -0.4352989 -0.99614143 -0.31674036 -0.45445454 0.94456327 -0.23915088 0.035753757
-1.9078418 -0.8262154 -0.34348908 -0.43069705 -0.89464206 -0.3830496 -0.5030135 1.0011102
-0.24398626 0.026088614 -1.8902004 -0.8256222 -0.37469867 -0.42946222 -0.8995473 -0.37683094
-0.5218663 0.95498586 -0.23985107 0.021055693 -1.8799329 -0.8270845 -0.36952478 -0.40135252
-0.9521002 -0.32369438 -0.5812549 0.9065105 -0.27887234 0.047303736 -1.8892715 -0.83246213
-0.36177975 -0.33185464 -0.9797776 -0.27508265 -0.51231426 0.8730651 -0.29066253 0.041004617
-1.8884465 -0.8274025 -0.36873394 -0.3146405 -0.99502033 -0.24873735 -0.46755037 0.8515438
-0.2873793 0.027689893 -1.8763642 -0.8143534 -0.40059242 -0.2948475 -1.0112318 -0.21908167
-0.4304911 0.85426867 -0.3104588 0.05249602 -1.892041 -0.7956392 -0.40285408 -0.2728068
-1.0295525 -0.22274174 -0.4277068 0.9053511 -0.33796367 0.033853676 -1.8828477 -0.77994776
-0.41473022 -0.27397478 -1.0598215 -0.22808458 -0.43603572 0.8368635 -0.35818028 0.053621035
-1.9166249 -0.7221979 -0.41811198 -0.3104275 -0.9991667 -0.2479754 -0.45629013 0.84275424
-0.37643665 0.07013528 -1.9212412 -0.67604107 -0.48368028 -0.2998724 -0.9136711 -0.21001422
00000000: ae5f 00c0 a083 42bf 12f8 eebe 6e47 debe
00000010: 7db8 3ebf 92f0 69be aeeb aebe 694c 6a3f
00000020: 48f8 bcbe de54 983d 6de1 fdbf 5375 43bf
00000030: 6c48 00bf 7a26 d6be d589 46bf 7033 5bbe
00000040: ab6f b2be 2e6d 603f fbe6 cabe 8173 d93d
00000050: 1855 f6bf 8152 55bf 3da3 f4be 694c b8be
00000060: dfb0 47bf 7124 4fbe 4af5 b0be 1924 603f
00000070: 674a d1be 4e56 793d ba3f f1bf 2c2f 4abf
00000080: 5b30 13bf 8b2f c1be 0b83 34bf 7500 1fbe
00000090: 444b 9dbe 24af 523f 915b 9ebe 08c0 033d
000000a0: 9863 efbf 09ef 50bf 86b6 04bf 556a afbe
000000b0: af4a 3bbf 2904 35be 442c b3be 1c47 403f
000000c0: f945 8bbe 592a e83c e308 f3bf 6cfc 56bf
000000d0: a072 fbbe 1028 98be efb8 3fbf 2f80 2cbe
000000e0: cc18 bbbe 8569 383f 6724 88be c9d3 2d3d
000000f0: 64ba f2bf 9b56 58bf 5942 fabe 7c63 8cbe
00000100: b538 46bf 3b1b 42be 120c c7be 06bf 393f
00000110: 120d 97be 5d14 103d 6554 f1bf 1186 53bf
00000120: b21a fbbe 06ec 94be edf1 46bf 40a4 4bbe
00000130: 7878 cabe 87aa 383f 24a0 8cbe fc71 373d
00000140: 63e6 f0bf d748 4dbf 2690 f4be 4d4c aebe
00000150: d7e9 4cbf b233 64be 5d12 d4be 6f8d 3f3f
00000160: bd33 74be 9d50 943d 2a35 efbf 884a 4bbf
00000170: 2589 f4be d2eb a4be 2ef6 5abf a19c 5dbe
00000180: 7177 c0be 9b99 513f 9434 83be 6850 363d
00000190: e8d8 efbf 124c 4fbf 3fb9 dbbe 76a1 a3be
000001a0: 7930 66bf 97fc 6fbe a66c e9be 004e 4b3f
000001b0: d42f 86be c339 173d e32c efbf e717 50bf
000001c0: 73dd ddbe f95a b9be af1f 82bf 827e 89be
000001d0: b05e b6be a6eb 5b3f da82 90be b957 f03c
000001e0: c407 f2bf 1051 52bf fc35 bebe c0df d1be
000001f0: 65f6 83bf 2e7c a2be 76cd ebbe ef0d 6c3f
00000200: f29b 72be 67e9 873d 3636 f3bf de00 4abf
00000210: b07f b0be 6036 fdbe 3db2 7bbf 50a7 acbe
00000220: ac71 fabe f87e 783f 5ed9 63be 98de 4a3d
00000230: a167 f2bf a28f 4cbf 4db8 b9be 04d9 eabe
00000240: 0139 80bf 70b7 9ebe 2b64 d9be 5e5e 773f
00000250: 096a 52be 3b69 353d 64b2 f1bf 839d 4bbf
00000260: f044 babe 7fdf debe 2003 7fbf cb2b a2be
00000270: 44ae e8be e6ce 713f f8e3 74be 8872 123d
00000280: 2934 f4bf da82 53bf cddd afbe 5384 dcbe
00000290: 4307 65bf 141f c4be 7ec5 00bf 6124 803f
000002a0: 89d7 79be cab7 d53c 16f2 f1bf fa5b 53bf
000002b0: 81d8 bfbe 79e2 dbbe bb48 66bf fcef c0be
000002c0: 0899 05bf f479 743f 859b 75be fd7c ac3c
000002d0: a4a1 f0bf cfbb 53bf 5a32 bdbe 147e cdbe
000002e0: d7bc 73bf 45bb a5be 1fcd 14bf 1211 683f
000002f0: 5bc8 8ebe 90c1 413d a6d3 f1bf 3d1c 55bf
00000300: 323b b9be dae8 a9be b4d2 7abf a2d7 8cbe
00000310: 0727 03bf 3281 5f3f b8d1 94be 75f4 273d
00000320: 9db8 f1bf a6d0 53bf b2ca bcbe 8f18 a1be
00000330: a7b9 7ebf 01b5 7ebe c362 efbe c6fe 593f
00000340: 6123 93be ead5 e23c b42c f0bf 7779 50bf
00000350: 731a cdbe 40f6 96be 0b70 81bf f256 60be
00000360: 5469 dcbe 5ab1 5a3f 75f4 9ebe 1106 573d
00000370: 662e f2bf 03af 4bbf e442 cebe 55ad 8bbe
00000380: 60c8 83bf 6916 64be 63fc dabe 17c5 673f
00000390: 9309 adbe 27aa 0a3d 2701 f1bf a8aa 47bf
000003a0: 8557 d4be 6c46 8cbe 3ba8 87bf 018f 69be
000003b0: 1340 dfbe b03c 563f 6863 b7be bba1 5b3d
000003c0: f753 f5bf f6e1 38bf c612 d6be 5af0 9ebe
000003d0: 64c9 7fbf 43ed 7dbe dc9e e9be bebe 573f
000003e0: 4ebc c0be 16a3 8f3d 3beb f5bf 0711 2dbf
000003f0: f1a4 f7be e088 99be 59e6 69bf f80d 57be

global_orient f4 [197, 3]
-0.025731238 -2.6900566 -0.17679818 -0.013910539 -2.6736856 -0.17852382 -0.009164384 -2.64508
-0.17833062 -0.0036964703 -2.6175811 -0.18068059 0.0002863194 -2.5959642 -0.18077508 -0.0026939446
-2.5866773 -0.18058985 -0.0112632075 -2.5718107 -0.17759879 -0.014488815 -2.5550067 -0.170099
-0.014919177 -2.545421 -0.16103967 -0.0066217766 -2.5372057 -0.15345691 0.0021033478 -2.5337977
-0.14994928 0.01178725 -2.5472794 -0.1446807 0.019883921 -2.555341 -0.137232 0.030901378
-2.569757 -0.13742055 0.029733442 -2.581528 -0.13685694 0.02161029 -2.5974748 -0.13826811
0.013069288 -2.6152136 -0.14646809 0.012741932 -2.6505919 -0.15041013 0.013032729 -2.6787329
-0.14750671 0.0035404682 -2.6930482 -0.14812319 -0.006316025 -2.696831 -0.1481984 -0.00827728
-2.7124739 -0.15047236 -0.007998676 -2.7180073 -0.15302728 -0.005975254 -2.726736 -0.15780272
-0.010298249 -2.7171376 -0.15908137 -0.012663036 -2.7036793 -0.17221132 -0.024238274 -2.6738222
-0.17048177 -0.033357017 -2.6489189 -0.15794271 -0.040449247 -2.6346703 -0.14935899 -0.04547816
-2.615941 -0.1417474 -0.056875255 -2.596967 -0.14361878 -0.05344035 -2.5576835 -0.14578405
-0.04398194 -2.5251822 -0.15266669 -0.051213764 -2.4782395 -0.14782685 -0.048659038 -2.424048
-0.14101186 -0.047805708 -2.3585005 -0.12835924 -0.047634974 -2.2876225 -0.1175866 -0.0539694
-2.2294955 -0.109275855 -0.07082389 -2.1574256 -0.09694589 -0.079833455 -2.0830557 -0.08289345
-0.08344367 -2.0102668 -0.06589941 -0.07726322 -1.93395 -0.0573866 -0.067572296 -1.8751082
-0.05150183 -0.043471154 -1.8274657 -0.049790163 -0.027002601 -1.7817832 -0.044353157 -0.0042027826
-1.735989 -0.044664387 0.008955074 -1.6667551 -0.046653204 0.011430444 -1.6036972 -0.04323863
0.013975128 -1.571424 -0.040327974 0.023938553 -1.5551393 -0.035051957 0.040829506 -1.5454514
-0.03660325 0.053264007 -1.539241 -0.030742602 0.06258503 -1.5275811 -0.027296936 0.069253944
-1.5257342 -0.026192863 0.07056915 -1.5223559 -0.022497127 0.0724883 -1.5261707 -0.021511385
0.072146855 -1.5110326 -0.0068364725 0.066266656 -1.5108843 -0.002928007 0.07029218 -1.5066754
0.01212346 0.07280557 -1.5006691 0.026710214 0.07209163 -1.4969788 0.035590034 0.0682172
-1.4895607 0.04072278 0.06436725 -1.4863088 0.058399368 0.052810438 -1.48286 0.0721611
0.040529493 -1.4906598 0.08940125 0.027727056 -1.4898585 0.09614952 0.013615642 -1.4900811
0.09774099 0.0010553886 -1.4903665 0.09570097 -0.011018864 -1.4995121 0.098825336 -0.034617938
-1.5102234 0.08976273 -0.052087937 -1.5124513 0.07784612 -0.08538392 -1.5153831 0.061524283
-0.10385708 -1.5113975 0.04760326 -0.1300641 -1.5118027 0.041795526 -0.14923468 -1.5172557
0.029541917 -0.17372139 -1.5191499 0.020875625 -0.19028574 -1.5129764 0.008067027 -0.21236178
-1.5129187 6.3032436e-05 -0.21682058 -1.5050256 0.0020443997 -0.21898258 -1.5060524 -0.0003905018
-0.22136094 -1.5028111 0.0063284715 -0.21072249 -1.4988128 0.02115196 -0.20188454 -1.4970754
0.04046507 -0.18256979 -1.496086 0.055315014 -0.16679767 -1.497134 0.06629054 -0.14208837
00000000: 51ca d2bc e329 2cc0 950a 35be 08e9 63bc
00000010: aa1d 2bc0 f3ce 36be 3626 16bc fe48 29c0
00000020: 4d9c 36be 7b40 72bb 7386 27c0 5504 39be
00000030: 241d 9639 4724 26c0 1a1d 39be e48c 30bb
00000040: 1f8c 25c0 8cec 38be 5189 38bc 8c98 24c0
00000050: 75dc 35be 7f62 6dbc 3b85 23c0 6f2e 2ebe
00000060: 906f 74bc 2de8 22c0 95e7 24be 7dfb d8bb
00000070: 9461 22c0 cf23 1dbe 52d8 093b be29 22c0
00000080: 4e8c 19be 4f1f 413c a006 23c0 2d27 14be
00000090: 9be3 a23c b58a 23c0 8c86 0cbe e324 fd3c
000000a0: e676 24c0 f9b7 0cbe 8c93 f33c c137 25c0
000000b0: 3a24 0cbe 1008 b13c 073d 26c0 2896 0dbe
000000c0: 9120 563c a95f 27c0 bbfb 15be 89c3 503c
000000d0: 4ca3 29c0 1d05 1abe 3a87 553c 5c70 2bc0
000000e0: 000c 17be 3307 683b e75a 2cc0 9bad 17be
000000f0: a8f6 cebb e198 2cc0 52c1 17be 6e9d 07bc
00000100: 2c99 2dc0 6d15 1abe e10c 03bc d5f3 2dc0
00000110: 2fb3 1cbe 10cc c3bb d882 2ec0 0997 21be
00000120: fdb9 28bc 95e5 2dc0 3ae6 22be 9f78 4fbc
00000130: 1509 2dc0 2a58 30be 588f c6bc e71f 2bc0
00000140: c692 2ebe 5ea1 08bd e387 29c0 bcbb 21be
00000150: 1cae 25bd 709e 28c0 90f1 18be 4f47 3abd
00000160: 946b 27c0 3b26 11be 07f6 68bd b534 26c0
00000170: cd10 13be 45e4 5abd 16b1 23c0 6a48 15be
00000180: 6826 34bd 969c 21c0 a854 1cbe 86c5 51bd
00000190: 7a9b 1ec0 ec5f 17be b34e 47bd 9a23 1bc0
000001a0: 6a65 10be ebcf 43bd acf1 16c0 9b70 03be
000001b0: e41c 43bd 6868 12c0 3ed1 f0bd 040f 5dbd
000001c0: 0eb0 0ec0 05cc dfbd 1e0c 91bd 4313 0ac0
000001d0: 918b c6bd b97f a3bd c950 05c0 0bc4 a9bd
000001e0: 84e4 aabd 36a8 00c0 45f6 86bd 2e3c 9ebd
000001f0: ac8b f7bf 360e 6bbd 5863 8abd 8c03 f0bf
00000200: 95f3 52bd cf0e 32bd 65ea e9bf c5f0 4bbd
00000210: 8f34 ddbc 7911 e4bf a8ab 35bd 7fb7 89bb
00000220: e334 debf 01f2 36bd 4db8 123c 3b58 d5bf
00000230: 6e17 3fbd c246 3b3c f345 cdbf fd1a 31bd
00000240: eff7 643c 6c24 c9bf f22e 25bd c91a c43c
00000250: ce0e c7bf a492 0fbd d73c 273d 5ad1 c5bf
00000260: 4aed 15bd 5c2b 5a3d d905 c5bf e9d7 fbbc
00000270: 952c 803d c787 c3bf d39d dfbc 03d5 8d3d
00000280: 424b c3bf 6a92 d6bc 8f86 903d 8fdc c2bf
00000290: e54b b8bc bf74 943d 9059 c3bf a538 b0bc
000002a0: bbc1 933d 8469 c1bf 7d04 e0bb d0b6 873d
000002b0: a864 c1bf cee3 3fbb 59f5 8f3d bdda c0bf
000002c0: 7aa1 463c 161b 953d ed15 c0bf 61cf da3c
000002d0: c7a4 933d 009d bfbf dbc6 113d 76b5 8b3d
000002e0: eda9 bebf eecc 263d fad2 833d 5e3f bebf
000002f0: 2d34 6f3d c24f 583d 5bce bdbf 33c9 933d
00000300: 4102 263d f1cd bebf 0118 b73d da23 e33c
00000310: afb3 bebf 0aea c43d 2414 5f3c faba bebf
00000320: 6e2c c83d f754 8a3a 54c4 bebf dffe c33d
00000330: 7788 34bc 03f0 bfbf f064 ca3d 8acb 0dbd
00000340: 004f c1bf 86d5 b73d 295a 55bd 0198 c1bf
00000350: c96d 9f3d c4dd aebd 13f8 c1bf e300 7c3d
00000360: 05b3 d4bd 7975 c1bf a3fb 423d 862f 05be
00000370: c082 c1bf c931 2b3d fad0 18be 6f35 c2bf
00000380: e401 f23c 05e4 31be 8173 c2bf 5c03 ab3c
00000390: 44da 42be 36a9 c1bf 902b 043c 5e75 59be
000003a0: 52a7 c1bf 4830 8438 3706 5ebe aea4 c0bf
000003b0: 56fb 053b f83c 60be 53c6 c0bf 44bc ccb9
000003c0: 71ac 62be 1d5c c0bf 115f cf3b a3c7 57be
000003d0: 19d9 bfbf e046 ad3c d2ba 4ebe 2ba0 bfbf
000003e0: b4be 253d 93f3 3abe bf7f bfbf ff91 623d
000003f0: 02cd 2abe 16a2 bfbf 56c3 873d 9d7f 11be

body_pose f4 [197, 63]
0.03810455 -0.1890861 -0.10880507 -0.4295899 0.0078031174 -0.045070257 0.14464888 -0.103875995
0.034386385 0.30679905 -0.12165477 0.063442685 0.9276275 -0.015000889 0.038287416 0.013661812
-0.05672976 -0.016570313 -0.09329166 0.17099619 0.02342021 0.044062953 -0.15388009 0.06925389
0.14441548 -0.030561568 0.0499019 1.556063e-05 1.5934904e-05 1.5558833e-05 -1.6150421e-05 1.5558768e-05
1.4833605e-05 0.35675162 0.010564537 -0.039009143 0.00080817356 -0.025788069 -0.2950869 0.01523827
0.07329897 0.35749692 0.13032441 0.078467846 0.021251468 0.025240844 -0.086564235 -0.8549212
0.024784809 0.18960747 0.72596776 0.0068473965 -0.63051933 -0.12637082 0.029051684 0.4318889
0.12031067 0.11669738 -0.06946652 0.22692856 0.16932125 0.0054655587 -0.16512024 0.06729866
-0.20563184 -0.09182419 -0.43495813 0.014585631 -0.03549358 0.15279412 -0.10945574 0.024513483
0.27452168 -0.09370105 0.07708648 0.78170025 0.00649289 0.040535033 0.018825239 -0.061291933
-0.0065223644 -0.12981571 0.11537883 0.06335546 -0.04501271 -0.1524308 0.045168404 0.13878685
-0.035824977 0.06196508 1.5788155e-05 1.603447e-05 1.5803333e-05 -1.6213664e-05 1.5791577e-05 -1.5563308e-05
0.36003202 0.017013885 -0.050786566 -0.005052121 -0.051073622 -0.2924846 0.031503275 0.069893904
0.33867058 0.12635836 0.07448432 0.020580992 0.024821758 -0.11862875 -0.8512267 0.03299424
0.1659069 0.74886745 0.01026055 -0.6403128 -0.12101059 0.024925843 0.46513924 0.13041845
0.097330086 -0.09964391 0.2246187 0.1664609 -0.06852614 -0.15562071 0.100351445 -0.19350883
-0.0797001 -0.42680502 0.0040603145 -0.046952818 0.15376882 -0.13306715 0.009704645 0.2653902
-0.11424844 0.08077894 0.61060125 0.007837056 0.029910175 0.024667794 -0.059392344 -0.00026545883
-0.13902518 0.09087687 0.04285026 0.07302114 -0.15542096 0.0014191024 0.13911934 -0.029738883
0.06347834 1.5941156e-05 1.5595935e-05 1.5895626e-05 1.48589115e-05 -1.5358111e-05 -1.5733285e-05 0.36321577
0.012511448 -0.040534485 -0.0122667 -0.058108415 -0.27742615 0.04299038 0.063181646 0.33361846
0.11527672 0.06818505 0.025266627 0.03063802 -0.16944608 -0.8543211 0.043993562 0.14702499
0.7598652 0.019649284 -0.6540454 -0.09033244 0.015396483 0.48476708 0.16135469 0.09496099
-0.09677199 0.20763949 0.18568079 -0.099848814 -0.15138802 0.14213276 -0.20104423 -0.0632443
-0.42591956 0.0062759677 -0.038193766 0.15637933 -0.12704632 0.015355782 0.2509246 -0.118202336
0.090050206 0.4702448 0.026280176 0.012231434 0.036496717 -0.068675585 -0.005359147 -0.21595263
0.085504234 0.033364452 0.0979625 -0.1421317 -0.015470443 0.13630247 -0.03542217 0.049719907
1.5534886e-05 1.580617e-05 1.5788335e-05 1.4891573e-05 -1.5331296e-05 1.4895957e-05 0.34696764 0.0131709
-0.018951593 -0.018850258 -0.085046075 -0.26412347 0.049447626 0.04574509 0.34400672 0.108195946
0.054402854 0.008002278 0.02996264 -0.20171757 -0.86350363 0.0648967 0.13177302 0.76656705
0.023058243 -0.67397225 -0.06437683 0.055621054 0.5128746 0.1727633 0.050456613 -0.062051434
0.23236173 0.22666726 -0.09112008 -0.113053896 0.18436514 -0.17828901 -0.045106336 -0.4060248
00000000: 8413 1c3d c99f 41be 31d5 debd 35f3 dbbe
00000010: 4bb1 ff3b 979b 38bd d61e 143e f0bc d4bd
00000020: bdd8 0c3d c414 9d3e 2326 f9bd 3dee 813d
00000030: ff78 6d3f 4ac6 75bc 44d3 1c3d cbd5 5f3c
00000040: 775d 68bd 77be 87bc b30f bfbd a019 2f3e
00000050: bedb bf3c 5b7b 343d be92 1dbe fcd4 8d3d
00000060: a7e1 133e 415c fabc ef65 4c3d 3388 8237
00000070: f2ab 8537 5784 8237 c47a 87b7 3384 8237
00000080: d9dd 7837 26a8 b63e e116 2d3c 0dc8 1fbd
00000090: 9cdb 533a 8041 d3bc a115 97be f0a9 793c
000000a0: c51d 963d d609 b73e c373 053e c0b3 a03d
000000b0: 8f17 ae3c e3c5 ce3c 9748 b1bd 1edc 5abf
000000c0: 8309 cb3c 7628 423e 06d9 393f 2060 e03b
000000d0: b769 21bf 5a67 01be ccfd ed3c 8b20 dd3e
000000e0: 7165 f63d 09ff ee3d 7644 8ebd f65f 683e
000000f0: 8d62 2d3e 6e18 b33b 4815 29be e1d3 893d
00000100: 2791 52be 520e bcbd d5b2 debe 92f8 6e3c
00000110: b761 11bd 1076 1c3e 552a e0bd 80d0 c83c
00000120: 1b8e 8c3e 56e6 bfbd 84df 9d3d 821d 483f
00000130: 4fc2 d43b 1008 263d 6337 9a3c 400d 7bbd
00000140: 8fb9 d5bb 69ee 04be bc4b ec3d 82c0 813d
00000150: 3f5f 38bd d216 1cbe 8102 393d 241e 0e3e
00000160: 36bd 12bd 19cf 7d3d ce70 8437 c381 8637
00000170: 6691 8437 9402 88b7 2778 8437 f38d 82b7
00000180: 1e56 b83e b460 8b3c 9305 50bd 438c a5bb
00000190: 9332 51bd 8bc0 95be 9409 013d 8924 8f3d
000001a0: 3b66 ad3e 1664 013e 3c8b 983d 7899 a83c
000001b0: 0057 cb3c a1f3 f2bd fee9 59bf f824 073d
000001c0: 80e3 293e c7b5 3f3f de1b 283c 8aeb 23bf
000001d0: 66d4 f7bd 4831 cc3c bb26 ee3e 6a8c 053e
000001e0: ff54 c73d 1b12 ccbd 7202 663e ba74 2a3e
000001f0: 6f57 8cbd 095b 1fbe 0f85 cd3d 2e27 46be
00000200: ce39 a3bd 3086 dabe 630c 853b 9951 40bd
00000210: 9375 1d3e c142 08be 3b00 1f3c 39e1 873e
00000220: 16fb e9bd 6e6f a53d 5d50 1c3f ff66 003c
00000230: 2f06 f53c 1d14 ca3c 6345 73bd 482d 8bb9
00000240: 9e5c 0ebe a71d ba3d c183 2f3d 1c8c 953d
00000250: ac26 1fbe 2d01 ba3a 4d75 0e3e f59e f3bc
00000260: ef00 823d 5fb9 8537 04d4 8237 9957 8537
00000270: 8a4a 7937 4bd5 80b7 f9fa 83b7 6bf7 b93e
00000280: d1fc 4c3c 7d07 26bd 45fa 48bc 1703 6ebd
00000290: cd0a 8ebe ae16 303d 6165 813d 0ad0 aa3e
000002a0: 3316 ec3d 9aa4 8b3d f5fb ce3c 96fc fa3c
000002b0: 4683 2dbe cab4 5abf 9832 343d b88d 163e
000002c0: 8786 423f 89f7 a03c 856f 27bf 3700 b9bd
000002d0: 8841 7c3c 6433 f83e 2a3a 253e e87a c23d
000002e0: 6530 c6bd 729f 543e 1b23 3e3e 897d ccbd
000002f0: 7605 1bbe 408b 113e 8ade 4dbe 3a86 81bd
00000300: 2112 dabe a2a6 cd3b 1171 1cbd e721 203e
00000310: 6e18 02be d196 7b3c 3079 803e 1114 f2bd
00000320: 3e6c b83d edc3 f03e 8649 d73c 5a66 483c
00000330: 957d 153d c9a5 8cbd c99b afbb b022 5dbe
00000340: d81c af3d 2aa9 083d 90a0 c83d f98a 11be
00000350: be77 7dbc e092 0b3e d616 11bd 1aa7 4b3d
00000360: ea50 8237 7e97 8437 3171 8437 d2d6 7937
00000370: b59b 80b7 a6e9 7937 bea5 b13e c2ca 573c
00000380: 5f40 9bbc db6b 9abc a32c aebd 313b 87be
00000390: 9889 4a3d 345f 3b3d a621 b03e d695 dd3d
000003a0: 87d5 5e3d fd1b 033c 3674 f53c 0d8f 4ebe
000003b0: 930e 5dbf 90e8 843d 82ef 063e bd3d 443f
000003c0: a4e4 bc3c 7289 2cbf 00d8 83bd e7d2 633d
000003d0: c04b 033f dde8 303e 98ab 4e3d a529 7ebd
000003e0: 3cf0 6d3e 761b 683e 2a9d babd cd88 e7bd
000003f0: 37ca 3c3e 6591 36be 6cc1 38bd 7ce2 cfbe

transl f4 [197, 3]
0.39861935 1.4892966 1.0937108 0.3928629 1.4892576 1.0704101 0.38688323 1.4889568
1.0461551 0.3815981 1.4862028 1.0206462 0.37533718 1.4832603 0.99319404 0.36881965
1.4811115 0.96461326 0.36150295 1.4786093 0.93326944 0.35396817 1.4774171 0.9001739
0.34580675 1.4769981 0.8669126 0.33808228 1.478529 0.8349302 0.33035234 1.4804455
0.80392617 0.32242307 1.4831655 0.77512926 0.31559202 1.484505 0.7479367 0.30865553
1.4870694 0.7229964 0.3005384 1.4903181 0.7004578 0.29289034 1.4920824 0.67996746
0.28475446 1.4931076 0.660346 0.27591166 1.4916995 0.63986367 0.26737896 1.4898417
0.6186908 0.2574151 1.4864023 0.59704345 0.24585131 1.4837297 0.57521445 0.23498806
1.479223 0.5519966 0.22338973 1.4749097 0.52735686 0.21009775 1.4714203 0.50166535
0.19510446 1.4690127 0.474519 0.17924471 1.4725097 0.44831896 0.16398814 1.4767123
0.42534143 0.15168412 1.479179 0.4044293 0.14079455 1.4808644 0.38558903 0.1314117
1.4824789 0.36807913 0.12349243 1.4837635 0.35196307 0.11633134 1.4846233 0.3361553
0.109182104 1.486011 0.32017308 0.103057854 1.4870367 0.30400586 0.097076945 1.4880099
0.28740495 0.09149585 1.4880294 0.27101856 0.08530348 1.4876866 0.25409177 0.07988101
1.4862276 0.23653166 0.07516106 1.4853128 0.21727918 0.0697344 1.4843742 0.19759572
0.065792166 1.483248 0.17720562 0.064612515 1.4838476 0.15834041 0.06552389 1.4851598
0.1408674 0.066889055 1.4856027 0.12296987 0.06831378 1.4847263 0.10564373 0.06937897
1.4857782 0.09291346 0.07143005 1.4847018 0.08243922 0.073463574 1.4830683 0.07371804
0.075908795 1.4797368 0.06347548 0.0787752 1.4737953 0.05428472 0.08198524 1.4646727
0.047183227 0.08632376 1.4514883 0.04039308 0.09083424 1.4353901 0.034526207 0.09541039
1.4188677 0.029305702 0.1000605 1.3996503 0.024145965 0.103813894 1.3799896 0.01962376
0.10610197 1.3589051 0.01597539 0.10845775 1.3382877 0.012894927 0.10960822 1.3176675
0.009164202 0.10977436 1.2968305 0.005791004 0.11022932 1.2773998 0.0034599733 0.10923133
1.2570966 0.0016979183 0.10893514 1.2388687 -0.00066436536 0.10881263 1.220385 -0.0032013447
0.10884301 1.2025913 -0.005276385 0.108393066 1.1845852 -0.0065819486 0.10843873 1.1673456
-0.008252723 0.10703514 1.1503578 -0.008761412 0.10665742 1.1341257 -0.008585741 0.10590258
1.1178803 -0.008982512 0.10398624 1.1015397 -0.00933979 0.10303091 1.087359 -0.009788166
0.10032383 1.0728511 -0.01114462 0.09857175 1.0616255 -0.012146529 0.09705143 1.0505668
-0.013256175 0.096168496 1.0418576 -0.014131532 0.09564398 1.0362521 -0.015679395 0.09748076
1.0323212 -0.01663511 0.09711923 1.0314274 -0.017930677 0.099211484 1.0358846 -0.017323911
0.10282394 1.0449448 -0.01707608 0.10665664 1.057326 -0.016595742 0.110076174 1.0730348
-0.016928367 0.112797216 1.0924531 -0.016707104 0.11578901 1.1128653 -0.015184834 0.118288256
00000000: d617 cc3e 45a1 be3f b7fe 8b3f 5325 c93e
00000010: fe9f be3f 3303 893f 8f15 c63e 2396 be3f
00000020: 69e8 853f d360 c33e e53b be3f 89a4 823f
00000030: 322c c03e 79db bd3f f741 7e3f eed5 bc3e
00000040: 1095 bd3f e5f0 763f ea16 b93e 1243 bd3f
00000050: bfea 6e3f 513b b53e 011c bd3f cc71 663f
00000060: 950d b13e 460e bd3f fced 5d3f 1f19 ad3e
00000070: 7040 bd3f fcbd 553f f123 a93e 3d7f bd3f
00000080: 1bce 4d3f a314 a53e 5ed8 bd3f df6e 463f
00000090: 4795 a13e 4304 be3f c878 3f3f 1908 9e3e
000000a0: 4a58 be3f 4b16 393f 2be0 993e bec2 be3f
000000b0: 3451 333f b9f5 953e 8efc be3f 5912 2e3f
000000c0: 56cb 913e 261e bf3f 6f0c 293f 4b44 8d3e
000000d0: 02f0 be3f 1bce 233f e5e5 883e 22b3 be3f
000000e0: 8562 1e3f e9cb 833e 6e42 be3f d7d7 183f
000000f0: 72c0 7b3e dbea bd3f 4141 133f b6a0 703e
00000100: 2e57 bd3f a64f 0d3f 47c0 643e d7c9 bc3f
00000110: dc00 073f dd23 573e 8057 bc3f 246d 003f
00000120: 77c9 473e 9c08 bc3f 28f4 f23e ed8b 373e
00000130: 337b bc3f 108a e53e 82ec 273e e904 bd3f
00000140: 5ac6 d93e 1553 1b3e bd55 bd3f 5b11 cf3e
00000150: 722c 103e f78c bd3f ed6b c53e ca90 063e
00000160: dec1 bd3f de74 bc3e 99e9 fc3d f6eb bd3f
00000170: 8134 b43e 203f ee3d 2308 be3f 8c1c ac3e
00000180: de9a df3d 9c35 be3f baed a33e ff0f d33d
00000190: 3857 be3f a8a6 9b3e 47d0 c63d 1c77 be3f
000001a0: be26 933e 2d62 bb3d bf77 be3f f2c2 8a3e
000001b0: 97b3 ae3d 846c be3f 5118 823e a898 a33d
000001c0: b53c be3f 5b35 723e 0bee 993d bb1e be3f
000001d0: 6f7e 5e3e e9d0 8e3d f9ff bd3f 8856 4a3e
000001e0: 0bbe 863d 12db bd3f 6475 353e 9153 843d
000001f0: b8ee bd3f fd23 223e 6431 863d b719 be3f
00000200: 8b3f 103e 21fd 883d 3b28 be3f a1d7 fb3d
00000210: 18e8 8b3d 830b be3f bd5b d83d 9016 8e3d
00000220: fb2d be3f 6a49 be3d eb49 923d b50a be3f
00000230: e5d5 a83d 1274 963d 2fd5 bd3f 7cf9 963d
00000240: 1276 9b3d 0468 bd3f 6fff 813d e454 a13d
00000250: 53a5 bc3f a859 5e3d e1e7 a73d 657a bb3f
00000260: 3343 413d 83ca b03d 5eca b93f 3773 253d
00000270: 4d07 ba3d ddba b73f 5a6b 0d3d 8666 c33d
00000280: 759d b53f 8312 f03c 85ec cc3d be27 b33f
00000290: c2cd c53c 619c d43d 80a3 b03f 02c2 a03c
000002a0: fd4b d93d 9af0 ad3f d2de 823c 191f de3d
000002b0: 034d ab3f 3e45 533c 467a e03d 54a9 a83f
000002c0: 7325 163c 61d1 e03d 8bfe a53f 76c2 bd3b
000002d0: e9bf e13d d681 a33f b8c0 623b adb4 df3d
000002e0: 8be8 a03f af8c de3a 6319 df3d 4093 9e3f
000002f0: ce28 2eba 28d9 de3d 9335 9c3f a7cd 51bb
00000300: 16e9 de3d 83ee 993f 87e5 acbb 2ffd dd3d
00000310: 7da0 973f 63ad d7bb 2015 de3d 956b 953f
00000320: 6e36 07bc 3d35 db3d ed3e 933f 078c 0fbc
00000330: 356f da3d 082b 913f 35ab 0cbc 74e3 d83d
00000340: b416 8f3f 632b 13bc bdf6 d43d 41ff 8c3f
00000350: eb05 19bc df01 d33d 942e 8b3f 8b5e 20bc
00000360: 9576 cd3d 2f53 893f ed97 36bc fcdf c93d
00000370: 58e3 873f 3c02 47bc e6c2 c63d f978 863f
00000380: 6e30 59bc fdf3 c43d 975b 853f f187 67bc
00000390: fee0 c33d e9a3 843f 1372 80bc fea3 c73d
000003a0: 1a23 843f 5b46 88bc 72e6 c63d d005 843f
000003b0: 5be3 92bc 642f cb3d de97 843f e0ea 8dbc
000003c0: 5c95 d23d c0c0 853f 23e3 8bbc cc6e da3d
000003d0: 7556 873f cbf3 87bc 9e6f e13d 3459 893f
000003e0: 5cad 8abc 3a02 e73d 81d5 8b3f 56dd 88bc
000003f0: ca22 ed3d 5f72 8e3f cfc9 78bc 1d41 f23d

left_hand_pose f4 [197, 12]
0.007870754 0.35645276 0.03639454 -0.49747896 0.72838616 -0.12535857 0.38644284 -0.3684541
-0.67047143 -1.1055578 0.54361993 -1.9131087 0.024660932 0.28731757 0.15656239 -0.3962678
0.77035975 -0.19889154 0.40034384 -0.38784558 -0.45361733 -1.0283478 0.6959771 -1.7680942
-0.0018570632 0.4225884 0.054169893 -0.42051756 0.7927747 -0.13290201 0.29019412 -0.2896759
-0.60744506 -1.0288203 0.49975598 -1.8252586 -0.032229416 0.523398 0.0054202545 -0.4829492
0.8384219 -0.11107042 0.16653574 -0.31163636 -0.71921605 -1.0849993 0.50907916 -1.8378931
-0.044854015 0.49252173 -0.02396161 -0.46367863 0.83573246 -0.13706608 0.14221248 -0.25231975
-0.5935136 -0.9452321 0.6285907 -1.6272022 -0.08518523 0.48650864 -0.09444945 -0.523165
0.82813483 -0.052635193 0.12225237 -0.26753864 -0.5715922 -0.8830237 0.6728227 -1.5538876
-0.08633822 0.4654587 -0.05263427 -0.4951149 0.72705466 0.033800066 0.26718786 -0.292905
-0.7198414 -0.89496285 0.64636844 -1.3942356 -0.08898976 0.4072108 0.02697351 -0.48999712
0.76583487 -0.07556071 0.28669354 -0.3554591 -0.554061 -0.9560602 0.7642452 -1.5323299
-0.09312391 0.4001003 0.0034299095 -0.44852734 0.7464428 -0.13828315 0.20668556 -0.2696049
-0.627959 -0.9377564 0.76361805 -1.5592856 -0.11372527 0.38283032 -0.04459346 -0.46443224
0.77175957 -0.06695825 0.13367207 -0.3147611 -0.78525114 -0.981173 0.7691815 -1.5298457
-0.12561826 0.3918616 -0.08155095 -0.442777 0.5972713 -2.792602e-05 0.10016797 -0.23678742
-0.5486728 -0.7818576 0.73876846 -1.4002619 -0.041985467 0.2788817 0.08299058 -0.40118274
0.65972304 -0.19259466 0.29342332 -0.23713061 -0.5201746 -0.85407895 0.75138617 -1.1622151
0.014425865 0.12313251 0.22705941 -0.28658745 0.5911508 -0.26116836 0.34109348 -0.26321083
-0.34698755 -0.89168257 0.76615906 -1.2558687 -0.0016724103 0.120971136 0.18480717 -0.33864412
0.63899595 -0.32095262 0.30165547 -0.29709056 -0.25559223 -0.9287938 0.7786741 -1.5957149
0.047400303 -0.035124987 0.24495077 -0.34804472 0.65354145 -0.23940514 0.46029034 -0.34159225
-0.21016397 -0.96584857 0.7349197 -1.5428276 0.0424906 0.09278866 0.15960048 -0.40313527
0.6844056 -0.34376162 0.49887452 -0.29298407 -0.37595698 -1.0894214 0.6331151 -1.7878972
0.09555342 0.18583211 0.27644145 -0.3871668 0.7583189 -0.5332567 0.5106376 -0.3650247
-0.20722313 -1.2185897 0.80601984 -1.936858 0.042412773 0.17636505 0.08872473 -0.5209485
0.78066397 -0.14742154 0.4677727 -0.44719428 -0.36457992 -1.1224097 0.59926736 -1.7822429
0.061031852 0.13079287 0.12357805 -0.4829089 0.7264728 -0.13509488 0.5058541 -0.4795177
-0.46958202 -1.1635617 0.64345187 -1.7747821 0.026619615 0.29452366 0.10947561 -0.49371102
0.7448041 -0.09096586 0.35524908 -0.48233247 -0.5978853 -1.1664847 0.60491425 -1.9007956
0.010986836 0.26679978 0.09914948 -0.48435414 0.6455595 -0.053856213 0.47867477 -0.46412158
-0.4546487 -1.1877424 0.60821974 -1.7881523 -0.0002699811 0.22729278 0.077599406 -0.4476837
00000000: 56f4 003c fa80 b63e 7112 153d 90b5 febe
00000010: 8477 3a3f ff5d 00be d6db c53e 04a6 bcbe
00000020: 04a4 2bbf eb82 8dbf ad2a 0b3f bfe0 f4bf
00000030: b905 ca3c 4a1b 933e e451 203e 9de3 cabe
00000040: 4c36 453f 39aa 4bbe def9 cc3e b293 c6be
00000050: 8840 e8be e7a0 83bf 8e2b 323f e950 e2bf
00000060: b368 f3ba 825d d83e 40e1 5d3d 144e d7be
00000070: 48f3 4a3f 7717 08be 5394 943e 6650 94be
00000080: 8581 1bbf 62b0 83bf 04e0 ff3e 13a2 e9bf
00000090: fe02 04bd 69fd 053f 649c b13b 1e45 f7be
000000a0: d1a2 563f e378 e3bd 5888 2a3e cd8e 9fbe
000000b0: 8b1e 38bf 42e1 8abf 0353 023f 1540 ebbf
000000c0: d8b8 37bd cf2b fc3e 234b c4bc 4967 edbe
000000d0: 90f2 553f 0d5b 0cbe 26a0 113e 0e30 81be
000000e0: 82f0 17bf bbfa 71bf 52eb 203f 2948 d0bf
000000f0: 9875 aebd a917 f93e b76e c1bd 24ee 05bf
00000100: a500 543f 0098 57bd 735f fa3d d3fa 88be
00000110: de53 12bf d70d 62bf 1c3e 2c3f cae5 c6bf
00000120: 18d2 b0bd 9a50 ee3e 0897 57bd b37f fdbe
00000130: 4120 3a3f f071 0a3d d9cc 883e a5f7 95be
00000140: 8747 38bf 491c 65bf 6778 253f 5076 b2bf
00000150: 4340 b6bd ef7d d03e 8df7 dc3c e7e0 fabe
00000160: c10d 443f 93bf 9abd 7fc9 923e bcfe b5be
00000170: f1d6 0dbf 5cc0 74bf 93a5 433f 6323 c4bf
00000180: c0b7 bebd f2d9 cc3e 55c8 603b 60a5 e5be
00000190: e016 3f3f 199a 0dbe 61a5 533e a709 8abe
000001a0: ecc1 20bf ce10 70bf 797c 433f ac96 c7bf
000001b0: cbe8 e8bd 5602 c43e a2a7 36bd 10ca edbe
000001c0: 0992 453f 6821 89bd 55e1 083e 5e28 a1be
000001d0: 3806 49bf 272e 7bbf 14e9 443f fcd1 c3bf
000001e0: 13a2 00be 15a2 c83e 2f04 a7bd abb3 e2be
000001f0: c6e6 183f ac42 eab7 dd24 cd3d 6778 72be
00000200: d275 0cbf d227 48bf ee1f 3d3f c83b b3bf
00000210: f4f8 2bbd 95c9 8e3e f7f6 a93d d367 cdbe
00000220: 9ce3 283f 8937 45be 953b 963e 5ed2 72be
00000230: 2a2a 05bf eba4 5abf d85a 403f 77c3 94bf
00000240: 775a 6c3c e62c fc3d 4382 683e 97bb 92be
00000250: a955 173f dcb7 85be cea3 ae3e 92c3 86be
00000260: 5aa8 b1be 4f45 64bf 0023 443f 4ec0 a0bf
00000270: c734 dbba b7bf f73d 173e 3d3e c362 adbe
00000280: 3d95 233f e753 a4be 9672 9a3e 411c 98be
00000290: fcdc 82be 6ec5 6dbf 3057 473f 6340 ccbf
000002a0: d226 423d 38df 0fbd 60d4 7a3e eb32 b2be
000002b0: 7e4e 273f 9f26 75be 2dab eb3e 2ee5 aebe
000002c0: 3935 57be da41 77bf b323 3c3f 607b c5bf
000002d0: a00a 2e3d fb07 be3d 4f6e 233e bf67 cebe
000002e0: 3535 2f3f 8601 b0be 7b6c ff3e 0202 96be
000002f0: 6f7d c0be 2972 8bbf d513 223f d1d9 e4bf
00000300: 83b1 c33d c64a 3e3e bc89 8d3e ba3a c6be
00000310: 3021 423f 8383 08bf 25b9 023f 84e4 babe
00000320: 4d32 54be bffa 9bbf 5157 4e3f f7ea f7bf
00000330: 04b9 2d3d 0a99 343e 50b5 b53d e25c 05bf
00000340: 98d9 473f acf5 16be e77f ef3e a6f6 e4be
00000350: 38aa babe 1fab 8fbf 9669 193f 8920 e4bf
00000360: 89fc 793d 91ee 053e 7d16 fd3d d63f f7be
00000370: 1ffa 393f 5056 0abe a87f 013f 5883 f5be
00000380: 0e6d f0be 97ef 94bf 43b9 243f 0f2c e3bf
00000390: 6111 da3c cecb 963e c034 e03d b1c7 fcbe
000003a0: 7bab 3e3f 4f4c babd 35e3 b53e 48f4 f6be
000003b0: 030f 19bf 5f4f 95bf a9db 1a3f 454d f3bf
000003c0: 2102 343c fb99 883e e20e cb3d 44fd f7be
000003d0: 6343 253f 5598 5cbd dc14 f53e 58a1 edbe
000003e0: b7c7 e8be f107 98bf 4ab4 1b3f 2de2 e4bf
000003f0: 408c 8db9 70bf 683e 70ec 9e3d cc36 e5be

right_hand_pose f4 [197, 12]
-0.08082515 0.40039074 0.1390355 -0.49758783 0.4869049 -0.06540144 0.41100618 -0.046805266
-0.73719 -0.70939547 0.66792494 -1.0808237 -0.05801883 0.28290284 0.118328646 -0.39029583
0.28573924 -0.016975602 0.5366338 -0.017808214 -0.8300472 -0.6628107 0.63024473 -0.7816188
-0.018176388 0.3976981 0.13440804 -0.33616108 0.25552225 0.0904245 0.2895711 0.05437138
-0.7712283 -0.3986305 0.8925687 -0.7789673 -0.03083966 0.42830607 0.09001876 -0.5130549
0.47887245 0.061398312 0.38676104 -0.085582204 -0.9221766 -0.7629161 0.5515653 -0.96727425
0.076539546 0.3502735 0.13347097 -0.34662297 0.32519895 -0.027064301 0.30543497 0.08826768
-0.8315713 -0.47678882 0.77938366 -0.6424635 0.12655194 0.27934676 0.16360602 -0.309881
0.5035625 -0.18074727 0.14462866 0.03830838 -0.6534167 -0.49685454 0.8834292 -1.0159608
0.11633097 0.376177 0.11606334 -0.3430028 0.39401495 0.039018918 0.3074256 -0.026382316
-0.8228933 -0.62416506 0.694495 -0.9729985 0.10460059 0.42492902 0.16155723 -0.31280595
0.4023309 0.023687726 0.36196053 -0.12507975 -0.6861976 -0.70392686 0.78360885 -1.0866653
0.11865334 0.36005822 0.2009526 -0.24932209 0.40672934 0.034533776 0.3895371 -0.14401355
-0.47033393 -0.67914057 0.80994415 -0.92230964 0.118186474 0.36392722 0.17069294 -0.24602665
0.339237 0.10095714 0.33473566 -0.13510206 -0.5038615 -0.53317356 0.9755859 -0.82178265
0.102735735 0.33436933 0.22135645 -0.24573319 0.40676385 -0.022978403 0.36606646 -0.20029496
-0.41323644 -0.6586707 0.9965984 -1.0051287 0.07992688 0.35000697 0.18914346 -0.32896066
0.39706436 0.12897572 0.49040744 -0.21138312 -0.5095315 -0.6375964 0.96273327 -0.9289861
0.07139939 0.2970348 0.17625375 -0.4305403 0.43617487 -0.051463906 0.4770911 -0.20636985
-0.46493146 -0.7235373 0.99069905 -1.0315768 0.043717105 0.19507048 0.17279689 -0.46340418
0.3953403 0.047070794 0.6675529 -0.23306394 -0.45153964 -0.7262859 0.88166404 -0.84670544
-0.025065405 0.18778625 0.119365305 -0.46475753 0.2548151 -0.047682643 0.77685875 -0.19683331
-0.46522713 -0.70849365 0.97586256 -1.0245222 -0.054735433 0.16995427 0.11976924 -0.39681494
0.21092547 -0.06617163 0.7313496 -0.1945625 -0.612667 -0.72304475 0.8314892 -0.95732623
-0.084053926 0.13159108 0.14202568 -0.46668142 0.16786365 0.07983022 0.88668907 -0.2790195
-0.7864004 -0.81221956 0.83461004 -1.0473541 -0.1294373 0.22376306 0.06539024 -0.46263066
0.13876988 0.060718287 0.93124175 -0.22658339 -1.2058662 -0.92080545 0.73537517 -1.2584832
-0.149207 0.20522158 0.058564737 -0.38371077 0.2059254 -0.09752199 0.7425981 -0.2210596
-1.1482413 -0.9280668 0.7582521 -1.4686635 -0.13557862 0.23005325 0.0560039 -0.34887582
0.2140391 -0.22469474 0.7260204 -0.1508812 -1.1571758 -0.92367154 0.9665655 -1.374195
-0.108742036 0.1972341 0.12973796 -0.24421673 0.2553528 -0.31429312 0.69358975 -0.248416
-1.2710285 -0.9615399 1.2086927 -1.3677998 -0.07523653 0.15820614 0.15927553 -0.20004737
00000000: a887 a5bd 0400 cd3e 525f 0e3e d5c3 febe
00000010: 994b f93e 31f1 85bd 676f d23e e1b6 3fbd
00000020: 7cb8 3cbf f19a 35bf 21fd 2a3f 6e58 8abf
00000030: 27a5 6dbd a4d8 903e 4a56 f23d dbd4 c7be
00000040: 6a4c 923e 6b10 8bbc d560 093f 88e2 91bc
00000050: f97d 54bf f6ad 29bf b857 213f 2b18 48bf
00000060: a6e6 94bc 169f cb3e 43a2 093e 4e1d acbe
00000070: d0d3 823e 7b30 b93d aa42 943e 86b4 5e3d
00000080: 386f 45bf 4c19 ccbe 627f 643f 676a 47bf
00000090: 74a3 fcbc ef4a db3e c15b b83d 9157 03bf
000000a0: c52e f53e cc7c 7b3d 8b05 c63e b945 afbd
000000b0: c413 6cbf 784e 43bf 6233 0d3f 499f 77bf
000000c0: c4c0 9c3d 0c57 b33e 9dac 083e 9178 b1be
000000d0: 7a80 a63e f4b5 ddbc f961 9c3e afc5 b43d
000000e0: dbe1 54bf aa1d f4be b085 473f 7d78 24bf
000000f0: d596 013e 8a06 8f3e 5688 273e b9a8 9ebe
00000100: 79e9 003f d015 39be 8919 143e 3fe9 1c3d
00000110: 5146 27bf b863 febe 6b28 623f 010b 82bf
00000120: ee3e ee3d 469a c03e 9eb2 ed3d 109e afbe
00000130: 54bc c93e 4dd2 1f3d e366 9d3e ba1f d8bc
00000140: 23a9 52bf 48c9 1fbf 6dca 313f 6e16 79bf
00000150: d638 d63d 4c90 d93e 426f 253e 1a28 a0be
00000160: 51fe cd3e c30c c23c e452 b93e e814 00be
00000170: a5aa 2fbf 8d34 34bf 979a 483f d917 8bbf
00000180: 8600 f33d 8d59 b83e 85c6 4d3e 4a4e 7fbe
00000190: d43e d03e 4a73 0d3d 6871 c73e 4a78 13be
000001a0: 9ccf f0be 28dc 2dbf 8058 4f3f 7c1c 6cbf
000001b0: c00b f23d ab54 ba3e 21ca 2e3e 69ee 7bbe
000001c0: 79b0 ad3e 9ec2 ce3d 7962 ab3e 3258 0abe
000001d0: 11fd 00bf 107e 08bf ffbf 793f 5960 52bf
000001e0: 1d67 d23d 7532 ab3e 44ab 623e 7ba1 7bbe
000001f0: 5a43 d03e 343d bcbc 106d bb3e 1f1a 4dbe
00000200: ba93 d3be a59e 28bf 1321 7f3f 0fa8 80bf
00000210: b4b0 a33d 1d34 b33e d3ae 413e 886d a8be
00000220: 054c cb3e 3612 043e af16 fb3e d174 58be
00000230: a870 02bf 8539 23bf b075 763f 08d2 6dbf
00000240: d839 923d f214 983e dd7b 343e c76f dcbe
00000250: 5052 df3e d1cb 52bd 4945 f43e 9e52 53be
00000260: 7f0b eebe be39 39bf 749e 7d3f b50a 84bf
00000270: b510 333d 8ec0 473e abf1 303e 5043 edbe
00000280: 0b6a ca3e 4ecd 403d bfe4 2a3f 50a8 6ebe
00000290: 3430 e7be dfed 39bf bcb4 613f b0c1 58bf
000002a0: f755 cdbc 0a4b 403e cc75 f43d b3f4 edbe
000002b0: 2077 823e e04e 43bd 37e0 463f ac8e 49be
000002c0: 4032 eebe d75f 35bf 21d2 793f 8b23 83bf
000002d0: 4332 60bd 7e08 2e3e 9349 f53d 542b cbbe
000002e0: d9fc 573e fe84 87bd ba39 3b3f 643b 47be
000002f0: bfd7 1cbf 7619 39bf 7adc 543f 5513 75bf
00000300: 7724 acbd d0bf 063e 2e6f 113e def0 eebe
00000310: 73e4 2b3e 077e a33d 0efe 623f a5db 8ebe
00000320: 8951 49bf 9fed 4fbf 01a9 553f b30f 86bf
00000330: 368b 04be 2522 653e 51eb 853d eddd ecbe
00000340: b119 0e3e bdb3 783d dc65 6e3f 7a05 68be
00000350: d359 9abf e8b9 6bbf 8c41 3c3f fa15 a1bf
00000360: b8c9 18be 9b25 523e 94e1 6f3d bd75 c4be
00000370: 1cde 523e 9cb9 c7bd e91a 3e3f 735d 62be
00000380: 92f9 92bf c995 6dbf cf1c 423f 2afd bbbf
00000390: 1fd5 0abe 1493 6b3e 5864 653d da9f b2be
000003a0: 112d 5b3e 6116 66be 79dc 393f 9a80 1abe
000003b0: 561e 94bf bd75 6cbf d670 773f 9fe5 afbf
000003c0: 25b4 debd bcf7 493e 07da 043e f313 7abe
000003d0: 9abd 823e 07eb a0be 198f 313f c460 7ebe
000003e0: 10b1 a2bf 7b27 76bf 71b6 9a3f 1014 afbf
000003f0: 9c15 9abd ca00 223e 2019 233e 38d9 4cbe

jaw_pose f4 [197, 3]
0.028572997 -0.0008638953 -0.00027850707 0.033511043 -0.0021807817 -0.0006855374 0.030946564 -0.0003167204
-0.00016581539 0.050404448 -0.0020854117 -8.60242e-05 0.05662931 -0.0015476936 -2.6252696e-05 0.06924265
-0.002678005 -0.0001686384 0.060408257 -0.003113492 -0.0002626592 0.065878496 -0.003074471 -0.0006966055
0.057791673 -0.0058996533 -0.0010618255 0.05646495 -0.0028053469 -0.0004432061 0.04688426 -0.0017129926
1.47185265e-05 0.046501435 -0.0002868976 0.00049649714 0.055048153 -0.0028795996 -0.0002182359 0.04386435
-0.003656925 -0.0004171578 0.05546748 -0.007030262 -0.0019195181 0.063778296 -0.0025117279 -0.00021254824
0.048812553 -0.0027176114 -0.00033404387 0.05740626 -0.0030020683 -0.0007962336 0.058337152 -0.00094076653
-0.00021129842 0.05350379 -0.0034522621 -0.0006054679 0.07234095 0.00156909 0.0007015613 0.066785224
-0.0011451177 -0.0003102152 0.083764575 -0.0020862236 -0.00026054357 0.07426461 -0.0031075403 -0.001123304
0.06441256 -0.0012651633 -0.00056293764 0.066756114 -0.00071513717 -6.5173845e-05 0.070035055 -0.0009780987
-0.00036796028 0.08747418 0.00235398 0.00091943407 0.064244665 -0.0012300911 -0.00030339198 0.07390282
0.0010717605 0.0007326538 0.06582423 0.0007324699 0.00020316738 0.0551968 -0.004027513 -0.00059343304
0.04428978 0.0027835718 0.000823864 0.05241948 0.004682527 0.0011776979 0.043384645 -0.0016981902
-0.00029951028 0.035152826 -0.0027847246 -0.0006435139 0.057761103 -0.0016596619 -0.0003432567 0.054540377
-0.0062264726 -0.0018659862 0.069760546 -0.006703146 -0.0017768883 0.07618857 -0.006412265 -0.0010517196
0.060262892 -0.004511855 -0.0012455656 0.077752315 -0.0033999297 -0.00045048472 0.08226674 -0.0034413198
-0.0010433441 0.08123533 -0.005221266 -0.0009355049 0.08468091 -0.0036841198 -0.0010012125 0.07930652
-0.0033029083 -0.0010883592 0.06337464 -0.003398941 -0.0009803622 0.06843997 -0.0059232707 -0.0014427954
0.061954807 -0.006783283 -0.001911114 0.062981226 -0.004973873 -0.0014754327 0.056347653 -0.0059503624
-0.0012988257 0.04307458 -0.006816784 -0.0018483849 0.046569016 -0.008342265 -0.0028368686 0.046339877
-0.0065725087 -0.0013822534 0.035615005 -0.007286415 -0.0017641565 0.023808377 -0.004128355 -0.00095326576
0.021730443 -0.0060792193 -0.0014072581 0.03388246 -0.007134777 -0.0021299652 0.016596854 -0.011193496
-0.0030181664 0.0074682003 -0.0065935366 -0.0013567253 0.006291515 -0.00972936 -0.0033640375 0.0008585788
-0.007624603 -0.0018025304 -0.0038733662 -0.0036040617 -0.0015186628 -0.02050285 -0.00598615 -0.0014982487
-0.016964838 -0.006536909 -0.0015809134 -0.018726995 -0.0067794626 -0.0018221781 -0.0038508936 -0.0036615161
-0.0011003484 0.0034435524 -0.0058766524 -0.0017093223 0.00010197549 -0.003963967 -0.0009017943 -0.0062052077
-0.006350286 -0.0020438717 -0.014818266 -0.0026154108 -0.0011139599 -0.033848606 -0.0032500795 -0.0011310283
-0.008744606 -0.0059542675 -0.0014786173 -0.0059537105 -0.005973592 -0.0011114861 -0.015568293 -0.0070972494
-0.0018836545 -0.024097964 -0.005328695 -0.001402917 -0.013002025 -0.006311305 -0.0016171826 -0.01864631
-0.0062244544 -0.0012455718 -0.0213668 -0.0053314934 -0.0013871478 -0.0065920386 -0.0053684493 -0.0012316742
-0.012851012 -0.006255253 -0.0015714607 -0.015215387 -0.004379343 -0.0017558425 -0.024615033 -0.0068058143
-0.0020398402 -0.0077367537 -0.0067324033 -0.0019330402 -0.008303241 -0.0074524437 -0.0024412936 -0.00038693138
00000000: eb11 ea3c 0877 62ba 9604 92b9 e042 093d
00000010: 72eb 0ebb a3b5 33ba a683 fd3c 7e0d a6b9
00000020: bbde 2db9 e574 4e3d 67ab 08bb e467 b4b8
00000030: 23f4 673d fbdb caba 3c39 dcb7 17cf 8d3d
00000040: 7881 2fbb 87d4 30b9 a66e 773d ba0b 4cbb
00000050: 85b5 89b9 4eeb 863d 107d 49bb 679c 36ba
00000060: f6b6 6c3d e151 c1bb f42c 8bba cb47 673d
00000070: e9d9 37bb 1e5e e8b9 b609 403d 7e86 e0ba
00000080: 97ef 7637 4a78 3e3d be6a 96b9 5c27 023a
00000090: 2c7a 613d aab7 3cbb 41d6 64b9 1bab 333d
000000a0: 05a9 6fbb f9b5 dab9 de31 633d 1d5e e6bb
000000b0: 5798 fbba 329e 823d cd9b 24bb 7cdf 5eb9
000000c0: acef 473d f419 32bb 9c22 afb9 d422 6b3d
000000d0: 59be 44bb 55ba 50ba f0f2 6e3d c69d 76ba
000000e0: fd8f 5db9 ca26 5b3d 593f 62bb 43b8 1eba
000000f0: 7e27 943d eca9 cd3a fbe8 373a b1c6 883d
00000100: c617 96ba 61a4 a2b9 c38c ab3d 06b9 08bb
00000110: 9199 88b9 0b18 983d e0a7 4bbb d43b 93ba
00000120: bbea 833d d6d3 a5ba 1b92 13ba 6eb7 883d
00000130: 0b78 3bba f1ad 88b8 8a6e 8f3d 8c33 80ba
00000140: cbea c0b9 aa25 b33d 3b45 1a3b 2d06 713a
00000150: b592 833d 023b a1ba 9510 9fb9 5d5a 973d
00000160: 517a 8c3a 900f 403a dbce 863d 3903 403a
00000170: 5409 5539 0a16 623d 3af9 83bb 9e90 1bba
00000180: 3369 353d 966c 363b 94f8 573a cfb5 563d
00000190: e26f 993b fc5c 9a3a 19b4 313d cf95 deba
000001a0: 9707 9db9 69fc 0f3d ed7f 36bb 7db1 28ba
000001b0: e896 6c3d 0389 d9ba 22f7 b3b9 bb65 5f3d
000001c0: 7007 ccbb 1b94 f4ba 9ede 8e3d 10a6 dbbb
000001d0: 7ae6 e8ba c108 9c3d fa1d d2bb dbd9 89ba
000001e0: 39d6 763d 2fd8 93bb 3f42 a3ba 9b3c 9f3d
000001f0: 5bd1 5ebb 092f ecb9 777b a83d c487 61bb
00000200: d2c0 88ba b55e a63d 2717 abbb ac3c 75ba
00000210: 2f6d ad3d 4671 71bb 1e3b 83ba 756b a23d
00000220: 9b75 58bb 46a7 8eba 90ca 813d c4c0 5ebb
00000230: 7f7f 80ba 412a 8c3d ff17 c2bb 2e1c bdba
00000240: 53c4 7d3d 4d46 debb 587e faba 4dfc 803d
00000250: dffb a2bb 4e63 c1ba cccc 663d 42fb c2bb
00000260: 5c3d aaba f96e 303d 545f dfbb 8145 f2ba
00000270: 27bf 3e3d ffad 08bc c2ea 39bb e2ce 3d3d
00000280: 335e d7bb ba2c b5ba 0ae1 113d e1c2 eebb
00000290: 453b e7ba c909 c33c 2747 87bb 95e4 79ba
000002a0: 0b04 b23c 3034 c7bb bf73 b8ba 56c8 0a3d
000002b0: d9ca e9bb e396 0bbb 20f6 873c ed64 37bc
000002c0: 6ecc 45bb ceb7 f43b 980e d8bb 26d4 b1ba
000002d0: 0e29 ce3b e567 1fbc 2f77 5cbb 3f12 613a
000002e0: ced7 f9bb e242 ecba 4dd8 7dbb 1f32 6cbb
000002f0: de0d c7ba 98f5 a7bc 7727 c4bb e260 c4ba
00000300: d8f9 8abc 9133 d6bb a736 cfba 5b69 99bc
00000310: 4126 debb 27d6 eeba 465f 7cbb 0cf6 6fbb
00000320: 9139 90ba 39ad 613b ef90 c0bb 570b e0ba
00000330: addb d538 2ae4 81bb 6466 6cba 0e55 cbbb
00000340: 0f16 d0bb 7af2 05bb 50c8 72bc 5067 2bbb
00000350: 4b02 92ba d6a4 0abd 49ff 54bb 033f 94ba
00000360: 8945 0fbc 041c c3bb 2ace c1ba 5817 c3bb
00000370: 1fbe c3bb 49af 91ba 2712 7fbc 0b90 e8bb
00000380: f5e4 f6ba 1869 c5bc 559c aebb 15e2 b7ba
00000390: 7206 55bc 10cf cebb a5f7 d3ba 25c0 98bc
000003a0: 82f6 cbbb 7442 a3ba 6d09 afbc cfb3 aebb
000003b0: f5d0 b5ba 0702 d8bb d1e9 afbb 2170 a1ba
000003c0: 0d8d 52bc def8 ccbb 79f9 cdba f549 79bc
000003d0: 9780 8fbb 4c24 e6ba 77a5 c9bc 4f03 dfbb
000003e0: d7ae 05bb 9884 fdbb 7e9b dcbb 115e fdba
000003f0: 510a 08bc a133 f4bb 1cfe 1fbb 0ddd cab9

leye_pose f4 [197, 3]
0.0 0.0 0.0 0.0 0.0 0.0 0.0 0.0
0.0 0.0 0.0 0.0 0.0 0.0 0.0 0.0
0.0 0.0 0.0 0.0 0.0 0.0 0.0 0.0
0.0 0.0 0.0 0.0 0.0 0.0 0.0 0.0
0.0 0.0 0.0 0.0 0.0 0.0 0.0 0.0
0.0 0.0 0.0 0.0 0.0 0.0 0.0 0.0
0.0 0.0 0.0 0.0 0.0 0.0 0.0 0.0
0.0 0.0 0.0 0.0 0.0 0.0 0.0 0.0
0.0 0.0 0.0 0.0 0.0 0.0 0.0 0.0
0.0 0.0 0.0 0.0 0.0 0.0 0.0 0.0
0.0 0.0 0.0 0.0 0.0 0.0 0.0 0.0
0.0 0.0 0.0 0.0 0.0 0.0 0.0 0.0
0.0 0.0 0.0 0.0 0.0 0.0 0.0 0.0
0.0 0.0 0.0 0.0 0.0 0.0 0.0 0.0
0.0 0.0 0.0 0.0 0.0 0.0 0.0 0.0
0.0 0.0 0.0 0.0 0.0 0.0 0.0 0.0
0.0 0.0 0.0 0.0 0.0 0.0 0.0 0.0
0.0 0.0 0.0 0.0 0.0 0.0 0.0 0.0
0.0 0.0 0.0 0.0 0.0 0.0 0.0 0.0
0.0 0.0 0.0 0.0 0.0 0.0 0.0 0.0
0.0 0.0 0.0 0.0 0.0 0.0 0.0 0.0
0.0 0.0 0.0 0.0 0.0 0.0 0.0 0.0
0.0 0.0 0.0 0.0 0.0 0.0 0.0 0.0
0.0 0.0 0.0 0.0 0.0 0.0 0.0 0.0
0.0 0.0 0.0 0.0 0.0 0.0 0.0 0.0
0.0 0.0 0.0 0.0 0.0 0.0 0.0 0.0
0.0 0.0 0.0 0.0 0.0 0.0 0.0 0.0
0.0 0.0 0.0 0.0 0.0 0.0 0.0 0.0
0.0 0.0 0.0 0.0 0.0 0.0 0.0 0.0
0.0 0.0 0.0 0.0 0.0 0.0 0.0 0.0
0.0 0.0 0.0 0.0 0.0 0.0 0.0 0.0
0.0 0.0 0.0 0.0 0.0 0.0 0.0 0.0
00000000: 0000 0000 0000 0000 0000 0000 0000 0000
00000010: 0000 0000 0000 0000 0000 0000 0000 0000
00000020: 0000 0000 0000 0000 0000 0000 0000 0000
00000030: 0000 0000 0000 0000 0000 0000 0000 0000
00000040: 0000 0000 0000 0000 0000 0000 0000 0000
00000050: 0000 0000 0000 0000 0000 0000 0000 0000
00000060: 0000 0000 0000 0000 0000 0000 0000 0000
00000070: 0000 0000 0000 0000 0000 0000 0000 0000
00000080: 0000 0000 0000 0000 0000 0000 0000 0000
00000090: 0000 0000 0000 0000 0000 0000 0000 0000
000000a0: 0000 0000 0000 0000 0000 0000 0000 0000
000000b0: 0000 0000 0000 0000 0000 0000 0000 0000
000000c0: 0000 0000 0000 0000 0000 0000 0000 0000
000000d0: 0000 0000 0000 0000 0000 0000 0000 0000
000000e0: 0000 0000 0000 0000 0000 0000 0000 0000
000000f0: 0000 0000 0000 0000 0000 0000 0000 0000
00000100: 0000 0000 0000 0000 0000 0000 0000 0000
00000110: 0000 0000 0000 0000 0000 0000 0000 0000
00000120: 0000 0000 0000 0000 0000 0000 0000 0000
00000130: 0000 0000 0000 0000 0000 0000 0000 0000
00000140: 0000 0000 0000 0000 0000 0000 0000 0000
00000150: 0000 0000 0000 0000 0000 0000 0000 0000
00000160: 0000 0000 0000 0000 0000 0000 0000 0000
00000170: 0000 0000 0000 0000 0000 0000 0000 0000
00000180: 0000 0000 0000 0000 0000 0000 0000 0000
00000190: 0000 0000 0000 0000 0000 0000 0000 0000
000001a0: 0000 0000 0000 0000 0000 0000 0000 0000
000001b0: 0000 0000 0000 0000 0000 0000 0000 0000
000001c0: 0000 0000 0000 0000 0000 0000 0000 0000
000001d0: 0000 0000 0000 0000 0000 0000 0000 0000
000001e0: 0000 0000 0000 0000 0000 0000 0000 0000
000001f0: 0000 0000 0000 0000 0000 0000 0000 0000
00000200: 0000 0000 0000 0000 0000 0000 0000 0000
00000210: 0000 0000 0000 0000 0000 0000 0000 0000
00000220: 0000 0000 0000 0000 0000 0000 0000 0000
00000230: 0000 0000 0000 0000 0000 0000 0000 0000
00000240: 0000 0000 0000 0000 0000 0000 0000 0000
00000250: 0000 0000 0000 0000 0000 0000 0000 0000
00000260: 0000 0000 0000 0000 0000 0000 0000 0000
00000270: 0000 0000 0000 0000 0000 0000 0000 0000
00000280: 0000 0000 0000 0000 0000 0000 0000 0000
00000290: 0000 0000 0000 0000 0000 0000 0000 0000
000002a0: 0000 0000 0000 0000 0000 0000 0000 0000
000002b0: 0000 0000 0000 0000 0000 0000 0000 0000
000002c0: 0000 0000 0000 0000 0000 0000 0000 0000
000002d0: 0000 0000 0000 0000 0000 0000 0000 0000
000002e0: 0000 0000 0000 0000 0000 0000 0000 0000
000002f0: 0000 0000 0000 0000 0000 0000 0000 0000
00000300: 0000 0000 0000 0000 0000 0000 0000 0000
00000310: 0000 0000 0000 0000 0000 0000 0000 0000
00000320: 0000 0000 0000 0000 0000 0000 0000 0000
00000330: 0000 0000 0000 0000 0000 0000 0000 0000
00000340: 0000 0000 0000 0000 0000 0000 0000 0000
00000350: 0000 0000 0000 0000 0000 0000 0000 0000
00000360: 0000 0000 0000 0000 0000 0000 0000 0000
00000370: 0000 0000 0000 0000 0000 0000 0000 0000
00000380: 0000 0000 0000 0000 0000 0000 0000 0000
00000390: 0000 0000 0000 0000 0000 0000 0000 0000
000003a0: 0000 0000 0000 0000 0000 0000 0000 0000
000003b0: 0000 0000 0000 0000 0000 0000 0000 0000
000003c0: 0000 0000 0000 0000 0000 0000 0000 0000
000003d0: 0000 0000 0000 0000 0000 0000 0000 0000
000003e0: 0000 0000 0000 0000 0000 0000 0000 0000
000003f0: 0000 0000 0000 0000 0000 0000 0000 0000
